checkpoints/TP_LSTM_L2_bs16_train0baseline_lossall_bsfirst_pos0/TP_LSTM_L2_bs16_epoch277_best1.488410832637802.pt (torch, 206215 bytes, 9 tensors)

rnn.weight_ih_l0 f4 [256, 3]
0	0x3fac4793	1.3459343
1	0x0008a467	7.9366e-40
2	0x3d3022ca	0.043001927
3	0xbe8032c3	-0.25038728
4	0x000f8244	1.424263e-39
5	0xbebccab2	-0.36873394
6	0x3fd6bd35	1.6776491
7	0x000ccf5c	1.176412e-39
8	0xbd126093	-0.03573663
9	0xbe440f75	-0.19146521
10	0x0008f442	8.22307e-40
11	0xbe955d9e	-0.29172987
12	0xbe558701	-0.20852281
13	0x00111722	1.569502e-39
14	0xbeb76e8b	-0.35826525
15	0x3f5efb4a	0.87102187
16	0x8014b966	-1.903218e-39
17	0xbf228615	-0.6348584
18	0xc00d1c30	-2.2048454
19	0x8008756e	-7.7681e-40
20	0xbf355071	-0.7082587
21	0xbeaf6711	-0.3425832
22	0x800e6b0f	-1.324102e-39
23	0xbf1ada91	-0.60489756
24	0xbe4b12bc	-0.19831365
25	0x00041938	3.76389e-40
26	0xbe98c387	-0.29836676
27	0xbffe1ff9	-1.9853507
28	0x8002625c	-2.18956e-40
29	0xbffb87a4	-1.9650769
30	0xbe6ce910	-0.23135781
31	0x80008115	-4.6306e-41
32	0xbec72c6c	-0.3890108
33	0x3f9455ff	1.1588744
34	0x80086e0b	-7.7416e-40
35	0x3c4fdcb7	0.0126869
36	0x3f87bb6c	1.0604072
37	0x000cefda	1.188068e-39
38	0xbc7ef54a	-0.015561411
39	0x3f87fc43	1.0623859
40	0x800d85e7	-1.241897e-39
41	0xbe9b8316	-0.30373448
42	0xbfe51265	-1.7896239
43	0x001015e6	1.477224e-39
44	0xc019f61c	-2.4056463
45	0xbe8f6160	-0.2800398
46	0x000a9d83	9.7486e-40
47	0xbedec227	-0.435075
48	0xbe4c151d	-0.19929929
49	0x800c05f7	-1.104166e-39
50	0xbea271fc	-0.31727588
51	0x3f6d09e7	0.92593235
52	0x8004d474	-4.43556e-40
53	0x3d1ff39a	0.039050676
54	0x3f53fda1	0.8280888
55	0x80098479	-8.74042e-40
56	0x3f142ef2	0.5788413
57	0xbfa32e62	-1.274853
58	0x00134428	1.769324e-39
59	0xbef485b3	-0.47758254
60	0xbe51b8dc	-0.20480675
61	0x0005156a	4.6686e-40
62	0xbe95e702	-0.29277807
63	0x3fb9e128	1.4521837
64	0x800fb369	-1.441893e-39
65	0x3e952ecd	0.2913727
66	0x3f66f3f1	0.90215975
67	0x0002d69b	2.60657e-40
68	0xbf35d0aa	-0.7102152
69	0xbe4fadc9	-0.20281138
70	0x800b0648	-1.012444e-39
71	0xbee395cc	-0.44450223
72	0xbe5ccdf4	-0.2156294
73	0x8011553b	-1.591778e-39
74	0xbec9af9f	-0.393918
75	0x3fbbd393	1.4673942
76	0x800581cf	-5.05744e-40
77	0x3e2d3a09	0.1691667
78	0x3f96cab7	1.1780614
79	0x0006c09f	6.20112e-40
80	0x3f195439	0.5989414
81	0x3fe1e94d	1.7649323
82	0x0015a756	1.988574e-39
83	0xbec24663	-0.37944326
84	0xbe3e825c	-0.18604416
85	0x8004aab4	-4.28579e-40
86	0xbe97b90d	-0.2963337
87	0x3f257d15	0.64643985
88	0x80158397	-1.975751e-39
89	0xbedc563f	-0.4303455
90	0xbe88cdf4	-0.2671963
91	0x000d50d1	1.222853e-39
92	0xbed34371	-0.4126239
93	0xbe9968e9	-0.29962853
94	0x8008873f	-7.83201e-40
95	0xbeda24b8	-0.4260614
96	0x3f9750bf	1.1821517
97	0x0011bc13	1.628672e-39
98	0xbe8da4f9	-0.27664927
99	0xbe6951b6	-0.22785076
100	0x0000d579	7.658e-41
101	0xbedf5bdf	-0.4362478
102	0x3f069e80	0.525856
103	0x80013875	-1.12088e-40
104	0xbf16149b	-0.5862519
105	0x3f38c360	0.7217312
106	0x0006781c	5.941e-40
107	0xbef407b9	-0.47662142
108	0x3fc4729d	1.5347477
109	0x0007c5eb	7.13848e-40
110	0x3e963de6	0.293441
111	0xbfb72741	-1.4308854
112	0x00002bc5	1.5702e-41
113	0xc092c244	-4.586214
114	0x3e10b85d	0.14132829
115	0x8002fec7	-2.75068e-40
116	0x3e7159dd	0.23569436
117	0x3f8ac452	1.0841162
118	0x80047bc3	-4.1174e-40
119	0xbe68a672	-0.22719744
120	0xbe5ab17d	-0.21356769
121	0x80103fb2	-1.492218e-39
122	0xbeae7050	-0.34070063
123	0xbed559de	-0.41670126
124	0x8015b109	-1.992054e-39
125	0xbf2a8e93	-0.666238
126	0x3ee8a17a	0.45435697
127	0x80139c89	-1.801029e-39
128	0xbeef38d8	-0.46723056
129	0x3f85e4a3	1.0460399
130	0x000cf92d	1.191413e-39
131	0x3fc8aab7	1.5677098
132	0xbe10f032	-0.14154127
133	0x0001ac48	1.53638e-40
134	0xbedd1a4d	-0.43184128
135	0xbe824b6a	-0.2544816
136	0x800c35d8	-1.121341e-39
137	0xbeb7365f	-0.3578367
138	0x3f459fa5	0.77196723
139	0x00077bf3	6.87313e-40
140	0xbedcf571	-0.43156007
141	0x3f9fc80a	1.2482922
142	0x00093992	8.47172e-40
143	0xbdc5b123	-0.09652927
144	0xbe409c2b	-0.18809573
145	0x000514d0	4.66644e-40
146	0xbeda9817	-0.4269416
147	0xbe9e6ed8	-0.30943942
148	0x80028171	-2.30106e-40
149	0xbed11c08	-0.408417
150	0xbe486f57	-0.19573723
151	0x0009af0c	8.89314e-40
152	0xbe6944bf	-0.22780131
153	0x3f1adc9c	0.60492873
154	0x00086e31	7.74213e-40
155	0xbf76c613	-0.9639599
156	0xbe895ee9	-0.26830223
157	0x0007ca6a	7.15461e-40
158	0xbed92c12	-0.42416435
159	0xbfdd963b	-1.7311472
160	0x000db896	1.260078e-39
161	0xbf946bdc	-1.1595416
162	0xbe94eb9c	-0.29086006
163	0x00071555	6.50501e-40
164	0xbedf84c8	-0.43655992
165	0x3f5ed1c7	0.87038845
166	0x800d10f4	-1.199943e-39
167	0xbee92ced	-0.45542088
168	0xbe9ba554	-0.30399573
169	0x800ac3ce	-9.88596e-40
170	0xbecea6d4	-0.40361655
171	0xbe7209e8	-0.23636591
172	0x000f5795	1.408951e-39
173	0xbecfe255	-0.40602365
174	0xbe438287	-0.19092761
175	0x0001d54e	1.68355e-40
176	0xbedafb76	-0.42769974
177	0xbfbf0a81	-1.492508
178	0x000834b0	7.53585e-40
179	0x3ee81a3d	0.45332518
180	0xbe5c823a	-0.21534052
181	0x80036449	-3.11482e-40
182	0xbebba0f5	-0.36646238
183	0x3fb1c995	1.3889643
184	0x0002be0c	2.51847e-40
185	0x3e2e57a0	0.17025614
186	0xbe53ae36	-0.20671925
187	0x0006fdf2	6.42111e-40
188	0xbeacf6f7	-0.3378217
189	0xbe100ec5	-0.14068134
190	0x8011843b	-1.608639e-39
191	0xbe76722f	-0.24066995
192	0xbeadbbad	-0.33932248
193	0x000c6aa2	1.140279e-39
194	0xbf19dc04	-0.6010134
195	0xbda4af26	-0.080412194
196	0x000aec26	1.003069e-39
197	0xbd3e7437	-0.04649755
198	0xbe0556f8	-0.13021457
199	0x8010d87d	-1.54703e-39
200	0xbd37179b	-0.044700246
201	0xbd2085de	-0.039190166
202	0x000da0e5	1.25158e-39
203	0x3ce3a168	0.027786925
204	0xbd554ed4	-0.05207713
205	0x00061c9e	5.61279e-40
206	0xbb06f75e	-0.002059422
207	0xbc6c2e53	-0.014415341
208	0x800c85f5	-1.15008e-39
209	0xbd8e3c98	-0.06945151
210	0xbe70c207	-0.23511516
211	0x00046103	4.02143e-40
212	0xbede2766	-0.43389434
213	0x3fcab959	1.5837814
214	0x8002102b	-1.89471e-40
215	0x3f2600fe	0.64845264
216	0xbd2cf2f8	-0.0422239
217	0x800c9e49	-1.158808e-39
218	0x3c52149d	0.012822297
219	0xbd7607ae	-0.060065918
220	0x800ec7b5	-1.357338e-39
221	0xbe96c683	-0.29448327
222	0xbda96c7f	-0.08272647
223	0x000cf927	1.191405e-39
224	0xbdaa196e	-0.083056316
225	0xbe95b69e	-0.29240888
226	0x000c9a5f	1.157404e-39
227	0xbe953f91	-0.2915006
228	0xbe5a43d2	-0.21314934
229	0x800a1575	-9.26052e-40
230	0xbeb69d31	-0.35666803
231	0x3e8fd28a	0.28090316
232	0x80028590	-2.31584e-40
233	0xbd5c91b2	-0.053849883
234	0xbde4b289	-0.111668654
235	0x00042360	3.80032e-40
236	0xbee316cb	-0.44353327
237	0xbd78bf3d	-0.060729254
238	0x0005999a	5.1428e-40
239	0xbd9bfcc4	-0.076165706
240	0xbd5f8b98	-0.054576486
241	0x00064cbe	5.78543e-40
242	0xbc6b1b06	-0.014349705
243	0xbe0d47cd	-0.13796921
244	0x80105d68	-1.502876e-39
245	0xbeb1bffa	-0.3471678
246	0xbf96b182	-1.1772921
247	0x80110c24	-1.565559e-39
248	0x3d87dceb	0.06633934
249	0xbf965612	-1.1745017
250	0x801160b3	-1.595893e-39
251	0x3e25ea85	0.16202743
252	0xbce59bac	-0.028028332
253	0x000d3613	1.21326e-39
254	0x3d7709b8	0.060312003
255	0xc00e9224	-2.2276697

rnn.weight_hh_l0 f4 [256, 64]
0	0xbf0489d6	-0.5177282
1	0x3cd2b1e5	0.025719592
2	0xbab6e740	-0.0013954416
3	0x3d8ad937	0.06779712
4	0x3d035070	0.032059133
5	0xbce52c0b	-0.027975103
6	0x3dcb1e02	0.09917833
7	0x3ed2dd07	0.41184255
8	0xbd794f25	-0.060866494
9	0xbc68f021	-0.014217407
10	0x3cd3dac0	0.025861144
11	0x3e35e2f2	0.17762354
12	0x3ca86306	0.02055503
13	0xbef810f7	-0.48450443
14	0xbe8877d7	-0.2665393
15	0xbd23cead	-0.039992023
16	0xbd690c4b	-0.05689649
17	0xbf46c0b0	-0.7763777
18	0x3f033cbf	0.51264566
19	0xbe9ef838	-0.3104875
20	0xbd21ce93	-0.039503645
21	0x3f1344e0	0.5752697
22	0xbcef7cee	-0.029234376
23	0xbce2658a	-0.027636308
24	0x3d0e9c2f	0.034816917
25	0xbf00dc86	-0.5033649
26	0x3e46afb2	0.1940296
27	0x3db794c0	0.08963919
28	0xbd8772e8	-0.066137135
29	0x3c6697fd	0.014074323
30	0xbd187f17	-0.037230577
31	0xbd280145	-0.041016836
32	0xbdc150ff	-0.09439277
33	0xbade65a3	-0.0016967546
34	0x3d59e6e0	0.053198695
35	0xbe729798	-0.23690641
36	0xbdd5c849	-0.10438592
37	0xbe4e2860	-0.2013259
38	0x3ebb6f7c	0.36608493
39	0x3e37bb35	0.17942508
40	0x3d57383e	0.05254387
41	0xbebedce4	-0.372779
42	0x3f03b56d	0.5144871
43	0x3f03b5fb	0.51449555
44	0x3bb0d1d7	0.0053961086
45	0xbd1a9a82	-0.037745006
46	0xbd4d1d0b	-0.050076526
47	0xbd603e97	-0.05474719
48	0x3a450732	0.0007516026
49	0x3d24dfb3	0.0402524
50	0x3dd88b0a	0.105733946
51	0xbf725cb1	-0.94672686
52	0xbd1a8ba3	-0.037730824
53	0xbcdd8749	-0.027042048
54	0xbd1f5f37	-0.038909163
55	0x3e943c88	0.28952432
56	0x3d2a590b	0.041588824
57	0xbd1e3f12	-0.038634367
58	0x3ab317dd	0.0013663728
59	0xbe74540b	-0.23860185
60	0x3d2187f3	0.039436292
61	0xbdf8ef01	-0.121549614
62	0x3d2734a7	0.040821698
63	0xbdcc6a14	-0.0998117
64	0x3d0d72ae	0.034533195
65	0x3b8fc7ce	0.0043878322
66	0xbc9207ab	-0.017825922
67	0xbcb558b8	-0.022137031
68	0xbbaad0ad	-0.0052128644
69	0xbc9556d2	-0.018229876
70	0xbd20a297	-0.039217558
71	0x3c994f11	0.01871446
72	0x3ce11a2f	0.027478306
73	0x3c660883	0.014040115
74	0x3c566ceb	0.0130874915
75	0x3c7f7f9d	0.01559439
76	0xbcb57735	-0.022151569
77	0x3e10fbc7	0.14158545
78	0x3e159136	0.14606175
79	0xbc5726bd	-0.0131317945
80	0x3c0616df	0.008184164
81	0x3e24150a	0.16023651
82	0xbe09b55e	-0.13448092
83	0xbe4c16a3	-0.1993051
84	0x3d2c345f	0.042042132
85	0xbdc95837	-0.09831279
86	0xbc961de8	-0.018324807
87	0xbc849c81	-0.016187908
88	0x3bb75b59	0.0055956063
89	0xbd9b51e9	-0.075839825
90	0xbde628c4	-0.11238244
91	0xbd869c49	-0.06572778
92	0x3d326882	0.043556698
93	0xba2f63bb	-0.0006690581
94	0xbc5d308f	-0.013500347
95	0xbc5c8354	-0.013459045
96	0xbbade3b0	-0.0053066835
97	0xbc4434f2	-0.011975514
98	0x3c48c857	0.012254796
99	0x3df5fde3	0.12011316
100	0xbd2132e5	-0.039355177
101	0xbd7e6c37	-0.06211492
102	0x3d38d861	0.04512823
103	0x3d7ed814	0.062217787
104	0xbbcf6032	-0.006328606
105	0xbdf83262	-0.12118985
106	0xbd557f29	-0.052123223
107	0xbdf432ee	-0.119237766
108	0xbaec3b1c	-0.0018022987
109	0x3a1eecf9	0.00060625334
110	0x3ddab822	0.10679652
111	0xbbd565bc	-0.006512372
112	0x3c15d4db	0.009144987
113	0x3c564d9d	0.013080028
114	0xbd2e2407	-0.042514827
115	0x3e2f43a8	0.17115653
116	0xbc3a3280	-0.011364579
117	0x3d375ba2	0.044765122
118	0xbc3630a6	-0.011119997
119	0xbd51ffbd	-0.05126928
120	0x3c1eed77	0.009700171
121	0xbc165a8f	-0.009176864
122	0x3c4c3ee1	0.012466163
123	0xbde17e80	-0.11010456
124	0x3bf3943e	0.0074334433
125	0xbcc9177e	-0.024547335
126	0x3a187f0e	0.00058172725
127	0x3d5861c7	0.052827623
128	0x3e565a59	0.20932902
129	0x3c3514f1	0.011052356
130	0xbb067f7c	-0.0020522764
131	0x3c6aa206	0.014320856
132	0x3c70be12	0.014693754
133	0xbc1cb1fd	-0.00956392
134	0x3b9f0949	0.004853402
135	0xbce1ea1a	-0.027577449
136	0xbc5cf6f8	-0.013486616
137	0xbb648013	-0.0034866377
138	0x3bd6f6bd	0.006560175
139	0xbd14d1c8	-0.036332875
140	0x3ccb62b6	0.024827342
141	0xbd705997	-0.05867919
142	0xbc6e4323	-0.014542374
143	0xbbd36b55	-0.006452004
144	0xbc63a83f	-0.013895093
145	0x3df4fdb2	0.11962451
146	0xbe672aea	-0.22574964
147	0xbcfc40c6	-0.030792605
148	0xbc0e81d5	-0.008697947
149	0xbd23163c	-0.039816126
150	0xbc692629	-0.0142302895
151	0xba821d1b	-0.0009926887
152	0x3c3e7c37	0.011626295
153	0xbdf51941	-0.119677074
154	0xbed05479	-0.40689448
155	0x3a620da9	0.00086232513
156	0xbc355b12	-0.011069076
157	0x3b9c279b	0.0047654635
158	0xbbc04730	-0.005867861
159	0xbbc32645	-0.00595549
160	0xbc25b135	-0.01011305
161	0x39a2e716	0.0003107122
162	0x3bc45af6	0.0059922887
163	0xbd5b793b	-0.05358241
164	0x3c99b525	0.018763134
165	0xbd41a756	-0.047278725
166	0xbe74bd95	-0.23900445
167	0x3dbeb0da	0.093110755
168	0x3c6f317b	0.014599199
169	0xbed87d6c	-0.4228319
170	0x3def4888	0.11683756
171	0xbe926186	-0.2859003
172	0xbb28696c	-0.0025697602
173	0xbc57bed1	-0.013168053
174	0x3c222e8f	0.009898796
175	0x3cf88f4e	0.03034177
176	0xbb0fe9f1	-0.0021959508
177	0x3bb603cd	0.0055546523
178	0x3c490c21	0.012270958
179	0x3dd75a41	0.105152614
180	0xbbb47d78	-0.005508121
181	0x3b11bfd7	0.002223959
182	0xbbc67ed1	-0.006057598
183	0xbdde68f8	-0.10859865
184	0x3bda7e6f	0.006667904
185	0xbc17691f	-0.009241371
186	0xbb86291f	-0.0040942575
187	0x3d570a9c	0.052500352
188	0x3c25e0fe	0.010124443
189	0x3d907791	0.070540555
190	0x3c6349be	0.013872562
191	0xbc36b673	-0.011151898
192	0x3ddef019	0.10885639
193	0xbd44a788	-0.048011333
194	0xbd833ec2	-0.064084545
195	0xbd988b24	-0.07448414
196	0xbd6c7b09	-0.057734523
197	0x390b9c0d	0.00013314206
198	0xbd448901	-0.04798222
199	0x3c9dffa8	0.019286945
200	0x3da8a1eb	0.082340084
201	0x3d2ae832	0.041725345
202	0xbcae7f43	-0.021300917
203	0x3b8eb546	0.0043551056
204	0xbc49378d	-0.012281311
205	0x3ddcad89	0.10775287
206	0x3e05955a	0.13045254
207	0x3c641540	0.013921082
208	0x3d79d403	0.060993206
209	0x3e21fbee	0.1581876
210	0xbe04a427	-0.12953244
211	0xbe92ff4b	-0.28710398
212	0x3dbe75da	0.09299822
213	0xbe21fd61	-0.15819313
214	0xbcb8445a	-0.02249353
215	0xbc011ee4	-0.0078809
216	0xbd2df2f1	-0.042468015
217	0xbdccd70f	-0.10001957
218	0xbda85c1e	-0.08220695
219	0xbdfb1696	-0.12260167
220	0x3dcc7642	0.099834934
221	0x3abf87c4	0.0014612605
222	0x3c541cae	0.012946291
223	0x3bdfeae5	0.0068334215
224	0xbdb8e3af	-0.09027802
225	0xbcdac5a2	-0.026705567
226	0x3d172469	0.036899958
227	0x3e19a33f	0.1500368
228	0xbe14df7e	-0.1453838
229	0xbd2bbe5f	-0.0419296
230	0x3c8bb49b	0.017053893
231	0x3e06977f	0.13143729
232	0xbd7572c5	-0.059923906
233	0xbe18c8d2	-0.14920357
234	0xbd87c249	-0.06628854
235	0xbe2b1126	-0.1670576
236	0xbbb6c938	-0.0055781864
237	0x3d6f0c5a	0.05836139
238	0x3dc5b387	0.09653383
239	0xbc2a4af4	-0.010393847
240	0x3cb63b5f	0.022245107
241	0xbc158510	-0.009125963
242	0xbdc4c12b	-0.09607156
243	0x3e2a3529	0.16621841
244	0x3b91075c	0.004425926
245	0x3df77b1f	0.1208403
246	0x3a6cf7e2	0.0009039623
247	0xbe24e513	-0.1610301
248	0x3c135783	0.008993032
249	0x3d1270f0	0.035752237
250	0x3ce5465d	0.027987653
251	0xbe40a33c	-0.18812269
252	0xbd1af9c8	-0.037835866
253	0xbcc7e396	-0.024400514
254	0xbd483d43	-0.04888655
255	0x3dcf0d13	0.101099156

rnn.bias_ih_l0 f4 [256]
0	0xbdabc9e5	-0.08388118
1	0xbf8e29d1	-1.1106511
2	0xbf301f74	-0.68797994
3	0xbf884a29	-1.0647632
4	0xbf918986	-1.1370094
5	0xbf7c0879	-0.9845043
6	0xbe999730	-0.2999816
7	0xbea43c3f	-0.32077214
8	0xbf850fff	-1.0395507
9	0xbf457ed8	-0.77146673
10	0xbf94707c	-1.1596828
11	0xbe94b593	-0.2904478
12	0xbefe710d	-0.49695626
13	0xbec224ef	-0.37918803
14	0xbdfad8a5	-0.12248353
15	0xbf97d8fb	-1.1863092
16	0xbf8a5f85	-1.08104
17	0x3e96ace6	0.29428786
18	0x3f52a513	0.82283133
19	0xbec798a1	-0.38983634
20	0xbf833801	-1.0251466
21	0x3dae6777	0.08515828
22	0xbf355f35	-0.708484
23	0xbfa58be8	-1.2933321
24	0xbf8f655a	-1.1202805
25	0xbea27ef8	-0.31737494
26	0x3f61f03b	0.8825719
27	0xbf334554	-0.7002766
28	0xbf82c65f	-1.0216788
29	0xbf8ec16d	-1.1152779
30	0xbf97fbec	-1.1873755
31	0xbf95aa22	-1.1692545
32	0xbf2dc2ca	-0.6787535
33	0xbf92b321	-1.1460916
34	0xbf6f1945	-0.93397933
35	0xbf018c28	-0.50604486
36	0xbef4c8bd	-0.478094
37	0x3f048ec5	0.5178035
38	0xbf1f6dd9	-0.6227699
39	0xbf349745	-0.7054332
40	0xbf8dcdd7	-1.1078442
41	0xbf6f51ec	-0.9348438
42	0xbf15aa2c	-0.58462787
43	0x3f98dc16	1.1942165
44	0xbf925439	-1.1431953
45	0xbf8c65f4	-1.0968614
46	0xbf3d1418	-0.73858786
47	0xbefc6cc6	-0.49301738
48	0xbf9003e7	-1.1251191
49	0xbf940608	-1.156434
50	0xbf84fcb0	-1.0389614
51	0xbf1466b6	-0.57969224
52	0xbf9a944b	-1.2076505
53	0xbd9d8072	-0.076905146
54	0xbf9914a0	-1.1959419
55	0xbec17a38	-0.37788558
56	0xbf94bd73	-1.1620315
57	0xbf952d49	-1.1654445
58	0xbf92ed80	-1.1478729
59	0x3e6da6a2	0.23208097
60	0xbf8fb1fd	-1.1226193
61	0xbe999755	-0.2999827
62	0xbf9435a8	-1.1578875
63	0xbf80da27	-1.0066575
64	0xbf67ba9f	-0.90519136
65	0xbe5e78e1	-0.21725799
66	0xbf0dacd3	-0.55341834
67	0xbe3955e7	-0.18099175
68	0xbe496995	-0.19669183
69	0xbea93ecf	-0.33055732
70	0xbee5a8dc	-0.44855392
71	0x3e9cee17	0.30650398
72	0xbe4f233c	-0.20228285
73	0xbf2b6c02	-0.6696168
74	0xbe88a5fe	-0.26689142
75	0xbf44b010	-0.7683115
76	0xbf817036	-1.0112369
77	0xbe0e2e7c	-0.1388492
78	0xbee97173	-0.45594367
79	0xbe942318	-0.28933024
80	0xbe6acd60	-0.22929907
81	0xbf4b4e75	-0.7941659
82	0xbe1600f2	-0.14648798
83	0x3e98bee0	0.29833126
84	0xbe07b268	-0.1325165
85	0xbf11cf83	-0.5695726
86	0xbecbbf44	-0.39794362
87	0xbe8a655c	-0.27030456
88	0xbe8554c8	-0.26041245
89	0xbedde2fd	-0.4333724
90	0xbe61891a	-0.22024956
91	0xbf5ae27f	-0.85501856
92	0xbdfef15b	-0.12448379
93	0xbe70f30b	-0.23530214
94	0xbe9c5d77	-0.30540058
95	0xbea72cda	-0.32651407
96	0xbf76ddce	-0.964322
97	0xbe930df2	-0.28721577
98	0xbefc88ee	-0.4932322
99	0x3f889e16	1.0673244
100	0xbf95d3cb	-1.1705259
101	0x3d3db5ff	0.046316143
102	0xbef300d7	-0.47461578
103	0xbf2e79c6	-0.6815456
104	0xbe571331	-0.21003415
105	0x3f7652db	0.9622018
106	0xbc577488	-0.013150342
107	0xbe922a3a	-0.2854784
108	0xbe9dd24f	-0.30824515
109	0xbe5e965a	-0.21737042
110	0x3f2428ea	0.6412493
111	0xbf75474b	-0.9581191
112	0xbe978288	-0.29591775
113	0xbe975351	-0.29555753
114	0xbdbd1725	-0.0923293
115	0xbe358c7e	-0.17729375
116	0xbea16483	-0.31521997
117	0xbf4ec4ba	-0.8076893
118	0xbe9df1f4	-0.30848658
119	0xbf629ca8	-0.8852029
120	0xbe990867	-0.29889223
121	0xbe875451	-0.26431516
122	0xbe81cedd	-0.25353137
123	0xbef8554c	-0.48502576
124	0xbe87409b	-0.26416478
125	0xbf35eb40	-0.7106209
126	0xbe47e46a	-0.19520727
127	0xbe0c71af	-0.13715242
128	0x3dede7b6	0.11616461
129	0x3d8299e9	0.06377012
130	0xbe347561	-0.17622901
131	0xbcab95aa	-0.020945389
132	0xbd851dda	-0.06499834
133	0xbdd9fcee	-0.10643946
134	0xbc319ea7	-0.010841048
135	0xbdcc1707	-0.099653296
136	0x3deec8c7	0.11659389
137	0x3e0fa6a6	0.14028415
138	0xbd841085	-0.06448463
139	0xbe0d3255	-0.13788731
140	0x3c992a0b	0.018696805
141	0x3d80809c	0.0627453
142	0x3e9d5460	0.30728436
143	0xbc868df4	-0.01642511
144	0x3d8e642d	0.06952701
145	0x3e56ecc3	0.20988755
146	0xbe083008	-0.13299572
147	0xbe669484	-0.22517592
148	0x3dcd893d	0.10035942
149	0xbd0a53da	-0.033771373
150	0xbdc3cd7e	-0.09560679
151	0xbd9b8400	-0.075935364
152	0xbcf0532d	-0.029336536
153	0x3d813a4e	0.06309949
154	0xbe2c2222	-0.16809896
155	0xbdfeb53c	-0.124369115
156	0x3d53a60e	0.051672034
157	0x3cb71b01	0.022351744
158	0xbc3f4c57	-0.011675916
159	0x3da1682e	0.07881199
160	0xbd59a1aa	-0.05313269
161	0xbce9c934	-0.028538324
162	0x3d117aca	0.03551749
163	0x3e0181f5	0.12647231
164	0xbdef8ff1	-0.116973765
165	0xbed6d64d	-0.41960374
166	0x3dfe4d42	0.124170795
167	0x3e1539e5	0.14572866
168	0xbc283fca	-0.010269115
169	0xbe08da3f	-0.13364504
170	0x3e8014d9	0.25015905
171	0x3d4d1c17	0.050075617
172	0xbd24ba12	-0.040216513
173	0x3cf5e084	0.030014284
174	0xbe3dfa50	-0.18552518
175	0x3d3f08db	0.046639305
176	0xbcf7024f	-0.030152468
177	0xbca88276	-0.020570021
178	0xbdee24a6	-0.11628084
179	0xbe313f69	-0.17309345
180	0xbcd099be	-0.025463935
181	0x3d3d6e50	0.04624778
182	0x3d9d309a	0.07675286
183	0xbdd18553	-0.10230508
184	0xbd7cdd24	-0.061734334
185	0xbd717b63	-0.05895556
186	0x3b9525b6	0.0045516146
187	0x3d6f42a2	0.058413155
188	0xbd199854	-0.037498787
189	0x3cd846f2	0.026401017
190	0xbb4a0082	-0.0030823057
191	0x3d6dd86e	0.05806773
192	0x3dceec7e	0.10103701
193	0xbf8e38f1	-1.1111127
194	0xbf485995	-0.7826169
195	0xbf885b10	-1.065279
196	0xbf919607	-1.137391
197	0xbf88198d	-1.0632797
198	0xbe667616	-0.22505984
199	0xbf05bfad	-0.522456
200	0xbf851e63	-1.0399898
201	0xbf47c0b2	-0.78028405
202	0xbf95367a	-1.165725
203	0xbefbb247	-0.49159452
204	0xbf0cff05	-0.5507663
205	0xbefaa408	-0.4895327
206	0xbd214435	-0.039371688
207	0xbf97e808	-1.1867685
208	0xbf8a6ef0	-1.0815105
209	0x3e585294	0.21125251
210	0x3f7e0950	0.9923296
211	0xbebcf01e	-0.36901945
212	0xbf834564	-1.0255551
213	0x3db13ea6	0.08654527
214	0xbf187e13	-0.59567374
215	0xbfa52fd3	-1.290522
216	0xbf8f7446	-1.1207359
217	0xbe16bea1	-0.14721157
218	0x3f5e6c5b	0.8688409
219	0xbf2b8618	-0.67001486
220	0xbf82d317	-1.022067
221	0xbf8b1957	-1.0867108
222	0xbf9805a6	-1.1876724
223	0xbf95bb4a	-1.1697781
224	0xbf35b944	-0.7098582
225	0xbf92c356	-1.1465862
226	0xbf68566e	-0.9075688
227	0xbf891c94	-1.0711846
228	0xbee136f9	-0.43987253
229	0x3f02fc37	0.511661
230	0xbe11ea33	-0.14249496
231	0xbf30f988	-0.69130754
232	0xbf8ddd0a	-1.1083081
233	0xbed5a4f7	-0.4172742
234	0xbeebf1cd	-0.46082917
235	0x3f995568	1.1979189
236	0xbf9261e3	-1.1436123
237	0xbf8c76d4	-1.0973763
238	0xbf183d85	-0.5946887
239	0xbf033362	-0.5125028
240	0xbf90177e	-1.1257169
241	0xbf940fc7	-1.1567315
242	0xbf851ab9	-1.039878
243	0xbea8bd0e	-0.32956737
244	0xbf9929ab	-1.1965841
245	0xbe4fac3e	-0.20280549
246	0xbf9924cc	-1.1964355
247	0xbed95561	-0.4244795
248	0xbf97abef	-1.1849345
249	0xbf953c05	-1.1658942
250	0xbf92fca9	-1.1483356
251	0x3e1d495e	0.15360019
252	0xbf8fc3d8	-1.1231642
253	0xbe994a57	-0.2993953
254	0xbf927a28	-1.1443529
255	0xbf80f29c	-1.0074039

rnn.bias_hh_l0 f4 [256]
0	0xbd856f53	-0.06515374
1	0xbf8e2a2c	-1.110662
2	0xbf595dc0	-0.84908676
3	0xbf884a29	-1.0647632
4	0xbf9188ff	-1.1369933
5	0xbf7dbae1	-0.9911328
6	0xbe5c7818	-0.21530187
7	0xbea5e671	-0.32402375
8	0xbf850fff	-1.0395507
9	0xbf4103b8	-0.753963
10	0xbf935244	-1.150948
11	0xbed94bc5	-0.4244062
12	0xbf23f669	-0.6404787
13	0xbf107410	-0.564271
14	0xbdbd521b	-0.09244176
15	0xbf97d8fb	-1.1863092
16	0xbf8a5f3e	-1.0810316
17	0x3e6942a0	0.22779322
18	0x3f3e375e	0.74303234
19	0xbf031fcf	-0.5122041
20	0xbf83384e	-1.0251558
21	0xbce9ac7d	-0.028524632
22	0xbf216ce2	-0.63056767
23	0xbfa612c8	-1.2974482
24	0xbf8f655a	-1.1202805
25	0xbe8da8b0	-0.2766776
26	0x3f431a3b	0.762119
27	0xbf324a69	-0.6964479
28	0xbf82c658	-1.021678
29	0xbf8303a9	-1.0235492
30	0xbf97fc83	-1.1873935
31	0xbf95aa22	-1.1692545
32	0xbf319d6a	-0.6938082
33	0xbf92b332	-1.1460936
34	0xbf67ddad	-0.90572625
35	0xbebdddda	-0.37083322
36	0xbf0a1407	-0.5393681
37	0x3ed6cbf7	0.41952488
38	0xbf07518b	-0.528588
39	0xbf4ef3fa	-0.8084103
40	0xbf8dcdd7	-1.1078442
41	0xbf88c92a	-1.068639
42	0xbebcd44f	-0.3688073
43	0x3fa623db	1.2979692
44	0xbf925439	-1.1431953
45	0xbf8c65f4	-1.0968614
46	0xbf58f224	-0.8474448
47	0xbf09e50c	-0.5386512
48	0xbf9003e7	-1.1251191
49	0xbf9403d5	-1.156367
50	0xbf852a0f	-1.040346
51	0xbf287fd7	-0.6582007
52	0xbf99921d	-1.1997715
53	0xbdcef6c4	-0.101056606
54	0xbf991495	-1.1959406
55	0xbeceb81d	-0.40374842
56	0xbf94fe23	-1.1640056
57	0xbf952d5f	-1.1654471
58	0xbf92ed80	-1.1478729
59	0x3e517111	0.20453288
60	0xbf8fb1fd	-1.1226193
61	0xbe918b4e	-0.28426594
62	0xbf92d964	-1.1472592
63	0xbf80d865	-1.0066038
64	0xbf50c81b	-0.81555337
65	0xbe5e78e1	-0.21725799
66	0xbf062324	-0.5239737
67	0xbe3955e7	-0.18099175
68	0xbe496995	-0.19669183
69	0xbea86a0b	-0.32893404
70	0xbed35bcc	-0.41280973
71	0x3e4450a5	0.19171388
72	0xbe4f233c	-0.20228285
73	0xbf23bf16	-0.6396345
74	0xbe88a600	-0.26689148
75	0xbf2b170e	-0.66832054
76	0xbf764e2f	-0.9621305
77	0xbe43b5b4	-0.19112283
78	0xbed77350	-0.42080164
79	0xbe942318	-0.28933024
80	0xbe6acd60	-0.22929907
81	0xbf4c9148	-0.7990918
82	0xbe34390a	-0.17599884
83	0x3e053669	0.13009037
84	0xbe07b268	-0.1325165
85	0xbf1df344	-0.6169932
86	0xbecb4a53	-0.39705142
87	0xbe8a675e	-0.27031988
88	0xbe8554c8	-0.26041245
89	0xbedffe75	-0.43748823
90	0xbe83f739	-0.25774553
91	0xbf48557f	-0.78255457
92	0xbdfef15b	-0.12448379
93	0xbe7abd40	-0.24486256
94	0xbe9c5d77	-0.30540058
95	0xbea72cda	-0.32651407
96	0xbf6f3a0c	-0.9344795
97	0xbe930df2	-0.28721577
98	0xbf049d1d	-0.51802236
99	0x3f8adf8c	1.0849471
100	0xbf91e7a6	-1.1398818
101	0x3d41d73c	0.047324404
102	0xbeb7a519	-0.35868147
103	0xbf46d24e	-0.7766465
104	0xbe571331	-0.21003415
105	0x3f6f3bbe	0.93450534
106	0xbd03567b	-0.032064896
107	0xbe000226	-0.1250082
108	0xbe9dd24f	-0.30824515
109	0xbe5e965a	-0.21737042
110	0x3f154ea2	0.5832311
111	0xbf68aede	-0.90891826
112	0xbe978288	-0.29591775
113	0xbe975351	-0.29555753
114	0xbdbd1729	-0.09232933
115	0xbea4ef23	-0.32213697
116	0xbea16483	-0.31521997
117	0xbf25038d	-0.64458543
118	0xbe9df1f4	-0.30848658
119	0xbf4c72f7	-0.7986292
120	0xbe99086d	-0.2988924
121	0xbe875451	-0.26431516
122	0xbe81cedd	-0.25353137
123	0xbe9a8741	-0.30181316
124	0xbe87409b	-0.26416478
125	0xbf29c90d	-0.66322404
126	0xbe47e5ee	-0.19521305
127	0xbe0c71af	-0.13715242
128	0xbc0fd2a3	-0.008778247
129	0xbddefa90	-0.10887635
130	0x3c39c68a	0.011338839
131	0xbdc10329	-0.09424431
132	0xbdf8a930	-0.12141645
133	0xbd897722	-0.06712176
134	0x3a711548	0.00091965916
135	0x3d916ce6	0.07100849
136	0xbbab9a65	-0.005236911
137	0x3e190429	0.14942993
138	0x3d639496	0.055561624
139	0x3ce9de6e	0.028548446
140	0x3d935127	0.07193213
141	0xbe1fc47a	-0.15602294
142	0x3e29df0b	0.1658899
143	0x3d14a4df	0.036290046
144	0x3c92fda8	0.017943218
145	0x3e221ae7	0.15830575
146	0xbd4c3630	-0.049856365
147	0xbdb9c976	-0.09071629
148	0x3dd71fb1	0.105040915
149	0xbdb09c10	-0.086235166
150	0xbe130816	-0.14358553
151	0xbe68c7a5	-0.22732408
152	0x3c89ba09	0.016812341
153	0x3dcac096	0.09900014
154	0xbcefe300	-0.029283047
155	0xbca84692	-0.020541463
156	0x3dd542a8	0.10413104
157	0x3d6c4a3a	0.057687975
158	0x3d1fc4b2	0.039005943
159	0xbdb2f2ba	-0.08737703
160	0xbde06d7f	-0.10958385
161	0x3c0cba35	0.008589317
162	0x3db48a0b	0.08815392
163	0xbbcb8503	-0.0062109246
164	0xbda5322c	-0.0806621
165	0xbeb51685	-0.35368744
166	0x3d489ac5	0.048975725
167	0x3dbce336	0.092230245
168	0xbd354774	-0.044257596
169	0x3d221057	0.039566364
170	0x3dd3431f	0.10315537
171	0xbd6fd202	-0.05854989
172	0x3d951c93	0.07280841
173	0x3c5d321c	0.013500717
174	0x3c1b775c	0.009488907
175	0x3d2a5a03	0.041589748
176	0x3d0b2963	0.033975016
177	0x3ba1cad1	0.0049375077
178	0xbce2cae3	-0.027684635
179	0xbdcfa4c5	-0.10138849
180	0x3d8685b1	0.06568468
181	0x3e69e134	0.22839814
182	0x3bb65126	0.005563873
183	0xbe01e52b	-0.12685077
184	0x3d1fc172	0.039002843
185	0xbd36ff6c	-0.044677183
186	0x3cfc6adb	0.030812671
187	0x3d664781	0.056220535
188	0x39089e9b	0.00013029056
189	0x3de7f007	0.113250785
190	0xbd968374	-0.073492914
191	0x3e1b89df	0.15189312
192	0xbc67e23e	-0.014153061
193	0xbf8e3993	-1.111132
194	0xbf3f5cd8	-0.74751043
195	0xbf885b0b	-1.0652784
196	0xbf919647	-1.1373986
197	0xbf72e53e	-0.94881046
198	0xbeaa52f8	-0.33266425
199	0xbf1fbfbc	-0.6240194
200	0xbf851e63	-1.0399898
201	0xbf535d61	-0.8256436
202	0xbf94d425	-1.1627241
203	0xbeefd26a	-0.4684022
204	0xbf1522f6	-0.5825647
205	0xbed48914	-0.41510832
206	0xbdea4be4	-0.11440256
207	0xbf97e808	-1.1867685
208	0xbf8a6f90	-1.0815296
209	0x3e9c6a1a	0.305497
210	0x3f805067	1.0024537
211	0xbefd2b5d	-0.49447146
212	0xbf834614	-1.0255761
213	0x3d954be4	0.072898656
214	0xbf3230fe	-0.69606006
215	0xbfa56834	-1.2922425
216	0xbf8f7446	-1.1207359
217	0xbeaffcdb	-0.343726
218	0x3f81d039	1.014167
219	0xbf23e2e0	-0.6401806
220	0xbf82d323	-1.0220684
221	0xbf7b5558	-0.981771
222	0xbf9805c2	-1.1876757
223	0xbf95bb4a	-1.1697781
224	0xbf380e3b	-0.71896714
225	0xbf92c36d	-1.1465889
226	0xbf7963a4	-0.97417665
227	0xbf841d8c	-1.0321517
228	0xbeff2dbf	-0.4983959
229	0x3f0ff9a8	0.5624032
230	0xbe3073bc	-0.17231649
231	0xbf188dd3	-0.59591407
232	0xbf8ddd0a	-1.1083081
233	0xbee5e947	-0.4490454
234	0xbf0c5017	-0.5480971
235	0x3fa84ef4	1.3149095
236	0xbf9261e2	-1.1436121
237	0xbf8c76d4	-1.0973763
238	0xbf1fe446	-0.6245769
239	0xbf0fa398	-0.56109
240	0xbf90177e	-1.1257169
241	0xbf9410b2	-1.1567595
242	0xbf86dc2c	-1.0535941
243	0xbe151cde	-0.14561793
244	0xbf975cee	-1.1825235
245	0xbe5a9264	-0.21344906
246	0xbf9924c3	-1.1964344
247	0xbeb3b28e	-0.35097164
248	0xbf97ce31	-1.18598
249	0xbf953c0b	-1.1658949
250	0xbf92fca9	-1.1483356
251	0x3e0acbb4	0.13554269
252	0xbf8fc3d8	-1.1231642
253	0xbe954a53	-0.29158267
254	0xbf92b659	-1.1461898
255	0xbf80f22f	-1.0073909

rnn.weight_ih_l1 f4 [256, 64]
0	0x3ef86634	0.48515475
1	0xbc89ed9b	-0.016836932
2	0xbe493531	-0.19649197
3	0xbd11123e	-0.035417788
4	0xbd274854	-0.04084046
5	0xbc19ef30	-0.009395406
6	0xbefe4a90	-0.49666262
7	0x3f3398bb	0.70154923
8	0x3d046f20	0.03233254
9	0x3e2d2a2a	0.16910616
10	0xbd152c3a	-0.03641913
11	0xbe8cad0a	-0.27475768
12	0x3e509540	0.20369434
13	0xbe2506c3	-0.1611586
14	0xbd45c162	-0.048280127
15	0x3c31ac5d	0.010844317
16	0x3d483e23	0.048887383
17	0x3f7436be	0.9539603
18	0xbec503d9	-0.38479498
19	0xbea54a44	-0.32283223
20	0x3d513117	0.051072206
21	0xbf2865b0	-0.6578016
22	0xbe6428bd	-0.22281165
23	0x3b0664cd	0.002050686
24	0xbd9d2ded	-0.07674775
25	0x3eb699d4	0.35664237
26	0xbf0c918f	-0.54909605
27	0xbd8edcf0	-0.06975734
28	0x3d38604a	0.045013703
29	0xb8da685c	-0.000104144885
30	0x3acd4dfa	0.0015663498
31	0x3c7ec12a	0.015548984
32	0xbd431a6d	-0.047632623
33	0xbd5c8ab1	-0.053843204
34	0xbc845aab	-0.016156515
35	0xbf273e06	-0.65329015
36	0xbe8cf14e	-0.2752785
37	0xc0045f87	-2.0683305
38	0x3f0c9cda	0.54926836
39	0x3f079d89	0.52974755
40	0xbd3e0a2c	-0.04639642
41	0x3ea26bed	0.31722966
42	0x3e94d97f	0.29072186
43	0xbe85b7ba	-0.26116735
44	0xbd38d9aa	-0.045129456
45	0x3cb39cbb	0.02192532
46	0x3cf42bd6	0.029806059
47	0x3e40167e	0.1875858
48	0x3d4b5b8a	0.049647845
49	0xbc372b44	-0.011179749
50	0xbd9de964	-0.07710531
51	0xbed7ec4d	-0.4217247
52	0x3b8cb3eb	0.004293909
53	0x3d48a9b4	0.048989967
54	0x3bf62903	0.007512213
55	0xbee6a2b4	-0.45046008
56	0x3a22e085	0.00062132656
57	0x3d7fcd34	0.062451556
58	0x3d71aa7b	0.059000473
59	0x3e186149	0.14880861
60	0xbd46675d	-0.04843842
61	0x3f376393	0.71636313
62	0xbd18bbb8	-0.037288398
63	0x3d8deec4	0.069303066
64	0x3c269f51	0.01016982
65	0xb871fa81	-5.7692178e-05
66	0xbb31285e	-0.0027032117
67	0x3912517e	0.00013954003
68	0xb7231803	-9.721148e-06
69	0xbb1c6d30	-0.0023868792
70	0xbba05126	-0.004892486
71	0x3bf64356	0.0075153513
72	0xb938d37b	-0.0001762639
73	0x3890b66a	6.900432e-05
74	0xb669b3b5	-3.4824309e-06
75	0xbb9bbe8e	-0.0047529405
76	0x3b31a6e2	0.0027107527
77	0x3d295cde	0.04134833
78	0xbb388743	-0.0028156794
79	0x37179752	9.035533e-06
80	0xb87c90a1	-6.0216178e-05
81	0x3cef064e	0.029177811
82	0xbd815754	-0.06315485
83	0xbd0337f6	-0.03203579
84	0xba2eb123	-0.00066639687
85	0xbc458a19	-0.012056851
86	0xba8dbd0b	-0.0010813785
87	0xb8a7d0f0	-8.002098e-05
88	0xb827ec96	-4.003624e-05
89	0x3c058078	0.008148305
90	0xbd9c635d	-0.076361395
91	0xba9ed2c2	-0.0012117254
92	0xb9f4cab4	-0.00046690332
93	0x3ae9ca6f	0.0017836819
94	0x37108017	8.612892e-06
95	0x3682257f	3.878667e-06
96	0xbab21fc0	-0.0013589785
97	0x37262b8d	9.904511e-06
98	0x3b0def17	0.0021657401
99	0x3bd3b383	0.0064606084
100	0xbbaa2185	-0.005191984
101	0x3c08b317	0.00834348
102	0x3c2195d2	0.00986238
103	0x34fb706a	4.6834185e-07
104	0x38494e8c	4.7995287e-05
105	0x3ccc42cd	0.024934197
106	0xbc14fa72	-0.009092914
107	0xbdc7b27a	-0.097508386
108	0x392dd237	0.00016576877
109	0x37d6c942	2.5604506e-05
110	0x3d6bc040	0.05755639
111	0x3b45ad6e	0.0030163187
112	0xb7c8c84c	-2.3935128e-05
113	0xb74b507d	-1.2118483e-05
114	0x3a0c6486	0.00053555553
115	0x3d94fbbe	0.072745785
116	0xb61c8c95	-2.332764e-06
117	0x3ab2a925	0.0013630731
118	0x380a68c6	3.299934e-05
119	0xbb438e5c	-0.0029839491
120	0xb76c4310	-1.408231e-05
121	0xb7650e18	-1.3652745e-05
122	0x3688afea	4.073595e-06
123	0x3c83968e	0.016063001
124	0xb7e587cf	-2.7362168e-05
125	0x3c27f105	0.010250335
126	0xb6273838	-2.4917663e-06
127	0xba7f21a1	-0.0009732489
128	0x3bfa7c98	0.0076442473
129	0x3970d709	0.0002296829
130	0xb9d38fa5	-0.0004035208
131	0x3b04a6af	0.0020240953
132	0x3a765d47	0.00093980547
133	0x3a281847	0.0006412309
134	0xbc1d7ce9	-0.0096123
135	0x3ca053ac	0.019571148
136	0xbb1d7c33	-0.0024030327
137	0xb8addbcb	-8.2902225e-05
138	0x395e12a2	0.00021178511
139	0xbafa050f	-0.0019074994
140	0xbaccd576	-0.0015627581
141	0x3d3cfa68	0.046137244
142	0xba65a71d	-0.00087605586
143	0xb9b23469	-0.00033989854
144	0xba9b414d	-0.0011845023
145	0x3cbf4491	0.023348125
146	0xbd902948	-0.07039124
147	0xbcea8c8d	-0.028631473
148	0xbba7f166	-0.0051252125
149	0xbb768825	-0.003761777
150	0x3aec7aaf	0.0018041934
151	0x391383c5	0.000140681
152	0x39bf2ad3	0.00036462265
153	0x3bac2b27	0.0052541676
154	0xbdab6f98	-0.08370894
155	0xba4be8a8	-0.0007778504
156	0xbb8cca64	-0.004296588
157	0xb96172d5	-0.0002150045
158	0xb93e57b5	-0.00018152485
159	0xb9e47349	-0.00043573443
160	0x3abcfcf3	0.0014418646
161	0x38ecf7df	0.000112995265
162	0xba8d6ab8	-0.0010789251
163	0x3a4930ee	0.00076748326
164	0x3ad37af1	0.0016134662
165	0x3c56bb2e	0.013106151
166	0x3cf7e1a3	0.03025896
167	0x3adaec6b	0.0016702538
168	0x3a854f84	0.0010170792
169	0x3d006467	0.03134575
170	0xbbf92c6e	-0.0076041734
171	0xbddac718	-0.10682505
172	0x39727a76	0.00023124539
173	0xb9c6be7f	-0.00037907434
174	0x3d866fe6	0.06564312
175	0x3a2e9915	0.0006660384
176	0x380d6cc2	3.371831e-05
177	0x3997018b	0.00028802114
178	0x3b96a302	0.0045970688
179	0x3daeb385	0.085303344
180	0xb9973721	-0.0002884204
181	0xbb3ba8cc	-0.0028634546
182	0xb9b5d423	-0.00034681064
183	0xb9315ad2	-0.00016913869
184	0x3a2f527f	0.0006688013
185	0xb99db8cb	-0.00030083055
186	0xb81a8cf4	-3.6847734e-05
187	0x3d16d0d7	0.03682026
188	0x39ff87bb	0.00048738517
189	0x3b86396f	0.004096202
190	0x3a4ddebf	0.0007853321
191	0xbbd03b5f	-0.006354734
192	0x3c5a4257	0.013321481
193	0x368ef2f3	4.260213e-06
194	0xbb38b652	-0.0028184843
195	0x39ab5186	0.000326764
196	0x3880b8f3	6.137965e-05
197	0xba84923d	-0.0010114383
198	0xbbd53194	-0.0065061543
199	0x3cabd228	0.020974234
200	0xb9dcebbf	-0.00042137314
201	0xb9727f38	-0.00023126311
202	0x37d34612	2.518579e-05
203	0xbb85d62d	-0.0040843696
204	0x3b0839b8	0.0020786356
205	0x3cff7442	0.031183366
206	0xbac84862	-0.0015280361
207	0xb804f851	-3.1702515e-05
208	0xb900a611	-0.00012268896
209	0x3cdb8f44	0.026801713
210	0xbd8564ad	-0.06513343
211	0xbd2bc7cd	-0.04193859
212	0xba8cf44c	-0.0010753958
213	0xbc5d901f	-0.013523131
214	0xbaa27c6a	-0.0012396697
215	0x37abbc3d	2.0472444e-05
216	0x360198a9	1.9311358e-06
217	0x3beba229	0.007190962
218	0xbd9611c3	-0.073276065
219	0xbb0599cb	-0.0020385857
220	0xba64f4d4	-0.0008733992
221	0x3a42a467	0.00074250106
222	0xb7f7718e	-2.9497573e-05
223	0xb7e433a8	-2.7203772e-05
224	0xbaa90ff4	-0.0012898431
225	0x3917b5c3	0.00014468194
226	0x3a85152b	0.0010153403
227	0x3a9fff96	0.0012206908
228	0xbbad8a8f	-0.0052960585
229	0x3c106b93	0.00881471
230	0x3ca08dcd	0.019598866
231	0x3a866fca	0.0010256704
232	0x38b17858	8.4624335e-05
233	0x3ca0c15a	0.019623447
234	0xbbdde776	-0.006771977
235	0xbdd262b2	-0.10272731
236	0x38acbeba	8.237125e-05
237	0xb7dd4d8b	-2.6381362e-05
238	0x3d8d8557	0.06910198
239	0x3b22d2e0	0.002484493
240	0xb913b192	-0.00014085163
241	0x3808567b	3.2505468e-05
242	0x3a78d009	0.0009491449
243	0x3d8bf206	0.06833272
244	0xb849ff42	-4.815986e-05
245	0x3973be0b	0.00023245082
246	0xb7a63108	-1.9811574e-05
247	0xbb32d051	-0.002728481
248	0xb7a24e9b	-1.9348508e-05
249	0xb86b182c	-5.6050878e-05
250	0xb923964f	-0.00015600886
251	0x3cdb5453	0.026773607
252	0xb4f73bf8	-4.6050968e-07
253	0x3c1db6d8	0.009626113
254	0x37af6c6c	2.0912114e-05
255	0xbabc767b	-0.0014378572

rnn.weight_hh_l1 f4 [256, 64]
0	0x3e675ee6	0.22594795
1	0xba625c13	-0.0008634936
2	0xbc3b962d	-0.011449379
3	0xbbeaf0be	-0.007169812
4	0xbc3d6770	-0.011560306
5	0xbb88bfcb	-0.004173254
6	0xbf95a44d	-1.1690766
7	0x3f253cb4	0.6454575
8	0xbe3f6456	-0.18690619
9	0xbdab2ae5	-0.08357791
10	0xbc4965f1	-0.012292371
11	0x3effedd8	0.49986148
12	0xbba45b6f	-0.0050157825
13	0x3c7ffad8	0.015623771
14	0xbb9122e7	-0.0044292095
15	0xb90d3ac9	-0.00013468707
16	0x3bfaece8	0.007657636
17	0xbc9f948f	-0.019480018
18	0xbea23bbd	-0.31686202
19	0xbf358434	-0.7090485
20	0xbcf1ae65	-0.029502103
21	0x3f9f7b49	1.2459499
22	0xbfaab580	-1.333664
23	0xbf1029c9	-0.5631376
24	0xbcf3daa4	-0.029767342
25	0x3c2abcb2	0.010420965
26	0xbe993580	-0.2992363
27	0xbb4373ec	-0.0029823733
28	0xbfeee1e3	-1.8662685
29	0x3fb9ecfc	1.4525447
30	0xbc0ee0ba	-0.008720571
31	0x3f861fe0	1.0478477
32	0xbf6b10f8	-0.9182277
33	0x3facb265	1.3491942
34	0x3ec3a677	0.3821294
35	0xbe78252e	-0.24232933
36	0x3c55e19c	0.013054278
37	0xbfaa0525	-1.328282
38	0x3ef32bd1	0.47494367
39	0xbf23bddc	-0.6396158
40	0x3d49966d	0.049215723
41	0x3f4ad761	0.7923489
42	0x3ab012c3	0.0013433326
43	0x3f7a1c85	0.9769977
44	0xbe27d187	-0.16388522
45	0x3d19ce25	0.03755011
46	0xbbe0e011	-0.0068626483
47	0xbfe01e3e	-1.7509229
48	0x3fa6d35b	1.303325
49	0x3e2ad6fd	0.16683574
50	0xbc58f182	-0.013241174
51	0x3e84775f	0.25872323
52	0xbd37d2e2	-0.044878848
53	0xbfb6beab	-1.4276937
54	0x3f8e0b47	1.1097192
55	0xbc6f838d	-0.0146187665
56	0xbb83ed57	-0.004026096
57	0xbfc23dfb	-1.5175165
58	0x3f6532e1	0.8953076
59	0xbdf1e0d9	-0.118104644
60	0x3cb3b6cb	0.021937748
61	0xbfd5ba37	-1.6697453
62	0xbad6ae74	-0.0016378895
63	0xbe1d2a17	-0.15348087
64	0x3c15de36	0.0091472175
65	0x36ed2812	7.067815e-06
66	0xb7700de6	-1.4308351e-05
67	0xb7d6c406	-2.5602068e-05
68	0xb81019fb	-3.435647e-05
69	0xb80e3f3f	-3.391434e-05
70	0xbab6adc9	-0.001393729
71	0x3c1d14a5	0.009587442
72	0xba492bea	-0.0007674085
73	0x3b0955f5	0.0020955775
74	0xb7d948c4	-2.59023e-05
75	0xbb0063e9	-0.00195908
76	0x37ab768b	2.043999e-05
77	0x38085b94	3.2510216e-05
78	0x381ba148	3.7105085e-05
79	0xb81190b9	-3.4705477e-05
80	0x38802d4f	6.111955e-05
81	0xb8ac49fc	-8.21538e-05
82	0xba286c77	-0.0006424854
83	0xbac98c31	-0.0015376863
84	0xb68ef24e	-4.2601378e-06
85	0x3d1c5697	0.038168516
86	0xbc74da65	-0.014944647
87	0x3b349955	0.0027557213
88	0x3855fd75	5.1019208e-05
89	0x38936606	7.0285096e-05
90	0xbb25ecf6	-0.0025318242
91	0x37a0f2d6	1.9186566e-05
92	0xbef90c34	-0.48642123
93	0x3c5f7ba2	0.013640316
94	0xb7b4790d	-2.151404e-05
95	0x3b54edd3	0.0032490387
96	0x399d6f60	0.00030028354
97	0x3c53073d	0.012880144
98	0xbd23812e	-0.039918117
99	0xbc4a7d62	-0.012358995
100	0x3616ed3d	2.2489833e-06
101	0x3a6a9c7a	0.00089497084
102	0x3ba8ff82	0.005157412
103	0xbb178b4c	-0.00231238
104	0x396973ac	0.00022263703
105	0x39ccf910	0.00039095478
106	0xb740c1bc	-1.1489199e-05
107	0xbc2cc65d	-0.01054534
108	0x3a75c9cb	0.0009376078
109	0xbb0b75a0	-0.0021279827
110	0xb79c7011	-1.8648834e-05
111	0xb99f64fa	-0.00030402077
112	0xbcaa4f89	-0.020789878
113	0x3b984b2c	0.004647633
114	0x37c360df	2.329092e-05
115	0x3b41db2c	0.00295801
116	0xbc438efc	-0.011935946
117	0xbafa86cf	-0.0019113662
118	0x3b57f568	0.003295267
119	0x37e341c5	2.7091135e-05
120	0xb835e9bc	-4.3371445e-05
121	0xbebed8e3	-0.37274846
122	0x3d4d2633	0.050085258
123	0x3bae2a65	0.0053151124
124	0x38261711	3.9598966e-05
125	0xbc7c1f7b	-0.015388365
126	0xb805d6b9	-3.1909647e-05
127	0xbbc59b3a	-0.0060304673
128	0x3cc9ea49	0.024647849
129	0x38e4a016	0.000109017055
130	0xb9c890ba	-0.00038254802
131	0x384fc4ea	4.9536036e-05
132	0x387fb3a5	6.0964045e-05
133	0xb9b590f0	-0.00034630997
134	0xbb550d9c	-0.0032509333
135	0x3c9a6f29	0.018851833
136	0xbaa19093	-0.0012326412
137	0x3c4167a1	0.011804492
138	0x38990ab7	7.297604e-05
139	0xbb1d5816	-0.0024008802
140	0x38dc80c6	0.000105144034
141	0x3954bb37	0.00020287638
142	0xb85febd0	-5.338696e-05
143	0xb947b1a7	-0.000190443
144	0xb6a746af	-4.9852165e-06
145	0xb9c9877e	-0.00038438657
146	0xba7bed23	-0.0009610226
147	0xbbfac03f	-0.007652312
148	0xb63f7eb0	-2.853496e-06
149	0x3bda5ff1	0.006664269
150	0xbc430a23	-0.011904272
151	0x3cc7d046	0.024391305
152	0xb9358eaa	-0.00017314652
153	0xb90ceae1	-0.0001343894
154	0xbb88faea	-0.004180302
155	0x39933264	0.0002807557
156	0xbf06f4f5	-0.52717525
157	0x3bfe516f	0.0077611725
158	0x38446ff5	4.683431e-05
159	0x3bd544fa	0.006508467
160	0x3b6b7536	0.0035928017
161	0xbbcd692e	-0.006268642
162	0xbd6f17f5	-0.058372457
163	0xbc791aea	-0.015204171
164	0x38ed21a7	0.00011307309
165	0x3ba470de	0.0050183376
166	0x3c3ef876	0.011655917
167	0xbcc6b2e9	-0.024255233
168	0x3b9a42c3	0.0047076656
169	0xbb671cb1	-0.0035264904
170	0x37ab8b62	2.0449694e-05
171	0xbca2e02c	-0.019882284
172	0xbac7fbdf	-0.0015257559
173	0x3a7d5c4a	0.0009664936
174	0x38859d0c	6.3711865e-05
175	0x3c2e1d8f	0.0106271645
176	0xbd34ed3c	-0.044171557
177	0xbc06b500	-0.008221865
178	0xb8ec70d7	-0.00011274375
179	0x3bf0d6a9	0.0073498082
180	0x3c2facd2	0.010722356
181	0x3c6f87d2	0.014619784
182	0x3b013180	0.0019713342
183	0xb8a92b8a	-8.066658e-05
184	0xb9b52cb4	-0.00034556317
185	0xbed3ee83	-0.41392908
186	0x3db41297	0.08792608
187	0x3c26b025	0.010173832
188	0x3930a53f	0.00016846227
189	0xbb5699de	-0.003274552
190	0x3843d091	4.6685866e-05
191	0xbc3af649	-0.011411258
192	0x3c1d6332	0.00960617
193	0xb851e3bd	-5.004158e-05
194	0x38695c27	5.5637352e-05
195	0xb888178c	-6.489371e-05
196	0xb8f72f5c	-0.00011786699
197	0x37b20c9d	2.1225127e-05
198	0xbbe443cd	-0.0069660903
199	0x3c556072	0.013023483
200	0xbaee6e07	-0.001819075
201	0x3b9f9b5c	0.004870815
202	0xb823232d	-3.889499e-05
203	0x3b550e96	0.0032509915
204	0x37b31867	2.1349826e-05
205	0xb84a7da4	-4.8277565e-05
206	0x385a8cc3	5.2106345e-05
207	0x36bae0e1	5.5694113e-06
208	0x38cde53a	9.8178585e-05
209	0xb8851266	-6.345361e-05
210	0xb8ac08e2	-8.203254e-05
211	0xbac76127	-0.0015211449
212	0x36ed4de9	7.0722203e-06
213	0x3c6903ab	0.014222066
214	0xbc5b79c9	-0.013395735
215	0xbbac6924	-0.005261557
216	0x383e8d53	4.543115e-05
217	0x386310f7	5.4136817e-05
218	0xbb01f799	-0.0019831418
219	0xb81ee15d	-3.788002e-05
220	0xbf018425	-0.5059226
221	0x3ba82684	0.0051315445
222	0xb8451086	-4.698385e-05
223	0x3c205d04	0.009787802
224	0x3987c119	0.00025893076
225	0x3b9ece41	0.0048463647
226	0xbd378077	-0.044800248
227	0xbc2207cd	-0.009889555
228	0xb7d440f2	-2.5302612e-05
229	0x395ce864	0.00021067407
230	0x3bb4ca4b	0.0055172793
231	0xbbc08bb8	-0.005876031
232	0x3a34f04e	0.0006902263
233	0xb92c649c	-0.00016440678
234	0xb82f379b	-4.1775038e-05
235	0xbb9359f0	-0.0044968054
236	0x3aa3ad65	0.0012487589
237	0xba2534c1	-0.00063021114
238	0xb822c102	-3.8803562e-05
239	0x3b6fdc76	0.003659991
240	0xbc4d1c0c	-0.012518894
241	0xba73a967	-0.0009294957
242	0x3842a42f	4.6406112e-05
243	0x3b038169	0.0020066148
244	0x39209047	0.00015312537
245	0xba29e8ec	-0.00064815464
246	0x3b81d4aa	0.003962119
247	0xb8bdbb84	-9.04715e-05
248	0x373d1b45	1.1271627e-05
249	0xbec3a538	-0.3821199
250	0x3d7d6454	0.06186326
251	0x3b886f27	0.004163641
252	0xb837ebd5	-4.3850236e-05
253	0xbc905cc7	-0.017622365
254	0xb826fb5a	-3.9811574e-05
255	0xbc0103e2	-0.007874461

rnn.bias_ih_l1 f4 [256]
0	0xbe216bfa	-0.15763846
1	0xbf6f733e	-0.9353522
2	0xbf72fa74	-0.9491341
3	0xbf73d98a	-0.95253813
4	0xbfa570e5	-1.2925078
5	0xbf76ea31	-0.964511
6	0xbe202883	-0.15640454
7	0xbf0cc067	-0.5498108
8	0xbf537e40	-0.8261452
9	0xbeebc633	-0.46049652
10	0xbf7062ef	-0.9390096
11	0xbee936cf	-0.45549628
12	0xbf6f34b3	-0.9343979
13	0xbf6e9df7	-0.93209785
14	0xbf715d2c	-0.94282794
15	0xbf73a699	-0.9517608
16	0xbf713ec2	-0.94236386
17	0xbf6e10f6	-0.9299463
18	0xbf7f6c94	-0.9977505
19	0xbf0141e6	-0.5049118
20	0xbf72b278	-0.9480357
21	0xbf298f58	-0.6623435
22	0xbf876e6f	-1.0580577
23	0xbd023ca6	-0.03179612
24	0xbf72a7b9	-0.94787174
25	0xbf74d162	-0.9563199
26	0xbf09f262	-0.5388547
27	0xbf6d3f66	-0.92674863
28	0x3e960a64	0.29304802
29	0xbea86c88	-0.32895303
30	0xbf701ef2	-0.9379722
31	0xbeb7c7c9	-0.3589461
32	0xbec1c526	-0.37845725
33	0xbe907c72	-0.28219944
34	0xbbd9de8a	-0.006648843
35	0x3e143af5	0.14475615
36	0xbf6edf1e	-0.933092
37	0xbecb61d4	-0.39723074
38	0xbe9f986c	-0.31170976
39	0xbea60054	-0.32422125
40	0xbfb30b3e	-1.3987806
41	0xbf10328a	-0.56327116
42	0xbf702afa	-0.9381558
43	0xbe938df8	-0.2881925
44	0xbf0322fb	-0.5122525
45	0xbf867361	-1.0503961
46	0xbf6fb148	-0.93629885
47	0xbef52aa0	-0.47884083
48	0xbeddb7d3	-0.4330431
49	0xbebd768d	-0.3700451
50	0xbf73db91	-0.95256907
51	0xbf0441df	-0.5166301
52	0xbf243c48	-0.6415448
53	0xbd45e9d1	-0.048318688
54	0xbecc48c6	-0.39899272
55	0xbf643bac	-0.8915355
56	0xbf712936	-0.9420351
57	0x3eea3868	0.4574616
58	0xbdf783e3	-0.12085702
59	0xbe40a8e8	-0.18814433
60	0xbf7033d7	-0.938291
61	0xbe81aa9c	-0.25325477
62	0xbf70512c	-0.9387386
63	0xbe3035ca	-0.17208019
64	0xbf356751	-0.70860773
65	0xbe7d2d94	-0.24724418
66	0xbe868a60	-0.26277447
67	0xbe809184	-0.2511102
68	0xbe63d8a2	-0.22250608
69	0xbe860cfb	-0.26181778
70	0xbf7a52d8	-0.9778266
71	0xbf2efe27	-0.68356556
72	0xbebcbebf	-0.36864278
73	0xbe414aa6	-0.18876132
74	0xbe815da8	-0.25266767
75	0xbeaac889	-0.3335612
76	0xbe7ed978	-0.24887645
77	0xbe784718	-0.2424587
78	0xbe8466b5	-0.2585961
79	0xbe85bba0	-0.2611971
80	0xbe8a28c3	-0.26984224
81	0xbe8f3de5	-0.2797691
82	0xbe8a24ea	-0.26981288
83	0xbf5b5ff4	-0.8569329
84	0xbe83f46e	-0.25772423
85	0xbeb04bd0	-0.3443284
86	0x3d175ca3	0.03695358
87	0xbea1897a	-0.315502
88	0xbe886b1e	-0.26644224
89	0xbe89cfdc	-0.26916397
90	0xbf8a0069	-1.0781375
91	0xbe8458c7	-0.25848982
92	0x3ea6cc93	0.32577953
93	0xbf6b0a9c	-0.91813064
94	0xbe81fc7d	-0.25387946
95	0xbeaef7c7	-0.34173414
96	0xbf896729	-1.0734607
97	0xbf21882e	-0.6309842
98	0xbe8c7afe	-0.27437586
99	0xbfaeb6b1	-1.3649503
100	0xbe80e60c	-0.25175512
101	0x3e8fc73e	0.28081697
102	0xbf811655	-1.008494
103	0x3eca5c73	0.39523658
104	0xbe6c3b52	-0.23069504
105	0xbf94e13d	-1.1631237
106	0xbe82e0f9	-0.25562266
107	0x3edda5c0	0.4329052
108	0xbf4ab65e	-0.7918452
109	0xbf164a77	-0.58707374
110	0xbe8093d5	-0.25112787
111	0xbf3f2935	-0.7467225
112	0x3e2f347d	0.17109866
113	0x3f86ebd6	1.0540721
114	0xbe825b2f	-0.25460193
115	0xbf6d9709	-0.92808586
116	0x3ef59e0f	0.47972152
117	0xbeb784fb	-0.35843644
118	0xbc555669	-0.01302109
119	0xbe6571a8	-0.22406638
120	0xbe833ddc	-0.25633132
121	0xbf3621d9	-0.711454
122	0x3e2f73e6	0.17134055
123	0xbf8aa9bf	-1.0833052
124	0xbe89cf29	-0.26915863
125	0xbfb77d3b	-1.4335092
126	0xbe824721	-0.25444892
127	0xbfae9a56	-1.364085
128	0xbe4fc734	-0.20290834
129	0x3cdc8432	0.026918504
130	0xbc55a675	-0.013040175
131	0x3d132e70	0.035932958
132	0xbbc1769a	-0.005904031
133	0x3cf503f3	0.02990911
134	0x3d306688	0.04306653
135	0xbd214bd6	-0.039378963
136	0x3d831399	0.06400222
137	0xbd83350b	-0.064066015
138	0xbcaff239	-0.021477805
139	0x3e434aec	0.19071549
140	0xbb69092d	-0.0035558448
141	0x3ccf1b04	0.025281437
142	0x3d1d32c2	0.038378485
143	0xbc4fb2ae	-0.012676878
144	0x3c4cbb41	0.012495817
145	0xbdab205c	-0.083557814
146	0x3d6e390d	0.058159877
147	0x3eb454b3	0.3522087
148	0xbcf79355	-0.03022162
149	0x3d390fce	0.04518109
150	0xbe03466f	-0.12819837
151	0xbd2bcdb0	-0.041944206
152	0xbd656c4e	-0.05601149
153	0xbd330a93	-0.043711256
154	0x3e5d392f	0.21603845
155	0xb9c82de1	-0.00038181155
156	0x3f12af0a	0.5729834
157	0xbe5558a1	-0.2083459
158	0xbd370166	-0.044679068
159	0xbd00df2b	-0.03146283
160	0x3e301da5	0.17198808
161	0xbe6187b3	-0.22024421
162	0xbe0e7062	-0.13910058
163	0x3e677dcb	0.2260658
164	0xbaefd80b	-0.0018298639
165	0x3e2acbf0	0.16679358
166	0xbf0713d9	-0.5276466
167	0x3d674c86	0.056469463
168	0x3ebd0487	0.36917517
169	0x3d879bd3	0.06621518
170	0xbc37999b	-0.011206056
171	0x3c34b69f	0.011029868
172	0x3d1087b0	0.03528565
173	0x3eb0627d	0.3445014
174	0xbd77118b	-0.060319465
175	0x3ce7d509	0.028299825
176	0x3d0cb3fa	0.034351327
177	0xbc44676f	-0.011987551
178	0x3cdf692b	0.027271828
179	0xbeb1cff6	-0.34728974
180	0xbebabdc1	-0.36472896
181	0xbe5d2f55	-0.21600087
182	0x3d1a7cbc	0.037716612
183	0xbd26aecb	-0.04069404
184	0xbd4e4ae2	-0.050364383
185	0x3ec5e5f6	0.3865201
186	0xbee52fc0	-0.44762993
187	0xbea98b5c	-0.33114135
188	0xbc273e60	-0.010207742
189	0xbde8f25f	-0.113743536
190	0x3ce88776	0.028384905
191	0x3e8a700f	0.2703862
192	0xbd0ee771	-0.03488869
193	0xbf6f96e1	-0.935896
194	0xbf731c92	-0.9496547
195	0xbf740e80	-0.95334625
196	0xbf9781dd	-1.1836506
197	0xbf76a8a3	-0.9635107
198	0xbe49e396	-0.19715723
199	0xbf17cfa6	-0.5930122
200	0xbf03ed2c	-0.5153377
201	0xbf15ee91	-0.5856715
202	0xbf707d7b	-0.9394147
203	0xbf17c4b1	-0.592845
204	0xbf6f980e	-0.9359139
205	0xbf6eb788	-0.93248796
206	0xbf71c4a1	-0.94440657
207	0xbf73f8de	-0.95301616
208	0xbf7140aa	-0.94239295
209	0xbf71d9d8	-0.9447303
210	0xbf5288b9	-0.8223987
211	0xbeda190c	-0.42597234
212	0xbf734b11	-0.9503642
213	0xbdf849b6	-0.12123434
214	0xbeb24a94	-0.34822524
215	0xbeac6398	-0.33669734
216	0xbf730806	-0.9493412
217	0xbf74cb9d	-0.9562319
218	0xbf086496	-0.5327848
219	0xbf6d9854	-0.9281056
220	0x3f5762ec	0.8413532
221	0xbe9b5777	-0.30340168
222	0xbf705f7e	-0.9389571
223	0xbeb00e5f	-0.34385964
224	0xbe56ac68	-0.20964205
225	0xbe61d047	-0.22052108
226	0x3da7c3b5	0.08191625
227	0x3da2d0e6	0.079500005
228	0xbf6f0888	-0.9337239
229	0xbee1f01b	-0.44128498
230	0xbe292d79	-0.16521253
231	0xbf404a32	-0.75113213
232	0xbee6e977	-0.45099995
233	0xbf2f10ae	-0.68384826
234	0xbf7020ae	-0.93799865
235	0xbed730ae	-0.42029327
236	0xbf0acbb7	-0.54217094
237	0xbf827845	-1.0192953
238	0xbf6fb5c4	-0.9363673
239	0xbf3cbe74	-0.7372811
240	0xbed750db	-0.42053875
241	0x3e8e4af4	0.2779156
242	0xbf73fa46	-0.9530376
243	0xbf199045	-0.5998576
244	0xbf0c1f49	-0.5473524
245	0xbe1482e3	-0.14503054
246	0xbf0b5bec	-0.54437137
247	0xbf646bde	-0.8922709
248	0xbf713cc4	-0.94233346
249	0x3ec79db1	0.38987496
250	0xbe918355	-0.2842051
251	0xbe4990bf	-0.19684123
252	0xbf7096a4	-0.9397986
253	0xbe65903f	-0.22418307
254	0xbf709410	-0.93975925
255	0xbe86dee6	-0.26341933
