checkpoints/TP_LSTM_L2_bs16_trainAll_bsfirst_pos0_downsp_rs/TP_LSTM_L2_bs16_epoch16_best3.3404567618119088.pt (torch, 206310 bytes, 9 tensors)

rnn.weight_ih_l0 f4 [256, 3]
00000000: e741 d9bb b290 7bbd 9bc9 28bd 9de7 e23d
00000010: 380c 1fbd fd86 be3e a8e9 a03d 2329 963d
00000020: 9e18 0e3d de08 25b9 58c8 00bc 2df5 6fbd
00000030: f24f ca3c 5b0b 22bd 55d5 10bf a31d 56bd
00000040: fb1d 5e3d d06f 90bd a5ac 073e 3b6a 8f3d
00000050: 1297 4abe d6a5 7b3d a78c fd3b 38e1 16be
00000060: 3096 5e3e 6fbc 733e a3c4 b63e 1f02 03be
00000070: 3a57 d2bd 95a6 22be 019d 56be 6f43 cd3d
00000080: 66fe 9e3e a567 efbd f30d 03be 6f4e 1dbe
00000090: 0ad8 053f dc4d 2f3e 9b39 023f cd16 23bd
000000a0: 674f 113e 6b6d 27be c6b5 243d 43f0 68ba
000000b0: fc7f 7b3d c154 56bc 0f02 8dbb b7b5 0fbd
000000c0: 5d66 1ebe b819 f43c 9535 6dbf d864 9ebe
000000d0: 22b4 b13d d5f9 ee3c 9fff 463e a5c3 743e
000000e0: 30db f43e c0cc 733d 7d84 483e 7d84 723c
000000f0: 4b60 7bbd 7d7d b43d 9f25 a43d d2a0 3a3e
00000100: 1e4c 123d 661d 853e 660b 54bd 431a 053e
00000110: a4f2 81bd 3441 a63c 5dc1 ae3e 6eca d8bd
00000120: b995 db3d d97e 5ebc aef7 433e c808 2dbd
00000130: 6930 4e3d 32ff 0abe c61e 6d3d 9fac 633e
00000140: 3405 e33d e288 eabc ceec 813b 5e5a ad3d
00000150: c7a0 e93d df87 b1bd 154f 50be e6fe 22bd
00000160: 0d91 24bd 1a41 39be d7a7 163e d7ae 35bd
00000170: 3082 e63d 3a88 58be 218f 5abd 457e 923e
00000180: 3011 273d 4f6b 923e f8c8 5b3e 2749 be3c
00000190: b630 453e c482 5ebc 88d3 263d 24ca 873d
000001a0: 3847 73bd 4a97 5ebe 90f1 983e b58f 0cbf
000001b0: 2d74 fc3d 37de d33d 61a4 b63d ab16 0c3c
000001c0: b6f0 033e 0637 4c3d ac4b 4c3e 17b0 9a3e
000001d0: b596 08bf e82c 883e 7526 803e 79e1 9d3e
000001e0: 86b2 b9bd b37e c53c bc05 12be cbc4 33be
000001f0: 1404 013e 36d4 76be 65a7 4abd 2ff3 4e3e
00000200: 6be8 cfbe c350 223e a840 693c 4dfc e43e
00000210: 1bcd 703e c4e1 243e 6c93 ea3d b6d3 af3c
00000220: 57ea b93d 8a69 883d 835e babe f010 94bd
00000230: 47c1 29bf 26bc 443e 6c96 623d dfb4 203d
00000240: 619c 45bf 2444 27be f7b6 033f 61cb 073e
00000250: 8989 a33d 971e b63d 283f ccbe 96fb 1a3e
00000260: c769 72bd 3871 03be 093d 843d 7c78 bbbd
00000270: a219 4b3d 1476 ad3b 89d0 5c3e 469c 303e
00000280: 759f 99bd 11c9 e13d 2a9b 973e 7dab 953e
00000290: 0cca 833e 533a 5ebe 281a cdbd bb26 1cbd
000002a0: 1243 ccbd b550 473d b765 c23d 9a5e 813d
000002b0: 11d5 a7bc 0a31 983d ebaf 9f3e e55b 523e
000002c0: 2243 253e 8f6e 62be aca5 88bd f55a 39be
000002d0: 3936 f8bd c901 5dbd 2491 513c ed94 0a3f
000002e0: 9d85 b33e cb03 cb3e bd78 a9be c212 1abe
000002f0: ce6a 143a bbe6 c7bb e06c 633e cbed 17be
00000300: 0ef9 40be d91d d2bc b87a 67bd f50a 88bc
00000310: 3d08 f13d 8a0d 393e cee4 193e c6dd bdbd
00000320: a63c 033c 7b7f c4bd b900 3b3d 2176 e1bd
00000330: 6a9b 263e 1638 273d c99d 0abf b4f8 6bbd
00000340: 08d1 d0bc 0093 56bd 2291 b2bd 558a 323d
00000350: 355c 82be 6018 513e 442d 0a3e 4c33 963c
00000360: 0d4a 023e f222 9fbd 1133 06bd 2d6c 773c
00000370: d151 c0bd 734c 10be b308 00bf af5e 1ebe
00000380: 6b84 99bd 9d77 03be 641a cebd e073 93bd
00000390: 97e6 233f ec26 003d 604b 9bbd 4ef6 bdbd
000003a0: 19bd 043e 57d0 1fbe 5b48 e8bd c166 653d
000003b0: 0d02 46bd 8ddc 383c 8e7c cc3d 3312 5dbe
000003c0: 208b 41be c709 da3c a8ea 29bf 9515 8abd
000003d0: 04e7 5dbd 9338 b9bd 3b03 74be 3ce0 9dbd
000003e0: ba17 fb3c a558 633e 7027 4a3e d681 28bd
000003f0: 2a25 fabc 0d87 9c3c ec61 6bbb fe68 893d
-0.0066301706 -0.06141729 -0.04120789 0.11079333 -0.038830012 0.37212363 0.078570664 0.07332065
0.034691446 -0.0001573893 -0.007860266 -0.058583427 0.024696324 -0.03956161 -0.5657552 -0.052274358
0.05422781 -0.070525765 0.13249452 0.07002684 -0.19784191 0.06143745 0.0077377143 -0.14734352
0.2173698 0.2380235 0.35696897 -0.12793778 -0.102705434 -0.15883859 -0.2095833 0.100226276
0.31053466 -0.116896905 -0.1279829 -0.15361951 0.52282774 0.17119545 0.5086915 -0.039816666
0.14190446 -0.16350333 0.040212415 -0.00088858994 0.061401352 -0.01308173 -0.004303224 -0.035085406
-0.15468736 0.02979742 -0.92659885 -0.30936313 0.08676936 0.029171864 0.19433449 0.23902757
0.47823477 0.059521437 0.1958179 0.0148020955 -0.06137113 0.088129975 0.08014988 0.1822541
0.035717122 0.25998992 -0.051768683 0.129983 -0.06345108 0.020294763 0.341319 -0.105854854
0.10721917 -0.0135800475 0.19137451 -0.042244703 0.050339136 -0.13573912 0.057890676 0.22233818
0.11084977 -0.028629724 0.003964997 0.08464502 0.11407619 -0.086684935 -0.20342667 -0.03979387
-0.040177394 -0.1809124 0.14712463 -0.044356193 0.112553 -0.21145716 -0.053359155 0.2861196
0.040787876 0.28597495 0.21463382 0.023228241 0.19256863 -0.013580982 0.040729076 0.06630352
-0.05939409 -0.217374 0.29871798 -0.5490678 0.12326846 0.103451185 0.089180715 0.008550326
0.12884793 0.049857162 0.19950742 0.3021247 -0.5335496 0.2659676 0.2502934 0.30836084
-0.09067254 0.024108266 -0.1426 -0.1755554 0.12599212 -0.2410439 -0.049476046 0.20209955
-0.40607008 0.1585112 0.014236607 0.4472374 0.23515742 0.16101748 0.114539 0.021463256
0.090779 0.06660755 -0.36400232 -0.07229793 -0.6631054 0.19212398 0.055319235 0.039234992
-0.7719174 -0.16334587 0.5145106 0.13261177 0.07985217 0.08892553 -0.39891934 0.15135035
-0.05918291 -0.12836158 0.06456954 -0.0915384 0.049584992 0.005293617 0.21563925 0.17247114
-0.07501117 0.110246785 0.29610568 0.29232398 0.25740087 -0.21701936 -0.100147545 -0.038122874
-0.0997373 0.048660953 0.09492057 0.06316872 -0.02048734 0.074312285 0.31188902 0.20542867
0.1613889 -0.22112487 -0.066722244 -0.18101104 -0.12119717 -0.05395678 0.012790952 0.5413349
0.35062876 0.3965133 -0.33099928 -0.15046218 0.0005661667 -0.0061005033 0.22209501 -0.14836805
-0.18845007 -0.025648998 -0.056513518 -0.016606787 0.117691495 0.18071571 0.15028688 -0.092708156
0.008010065 -0.095946275 0.045654986 -0.110088594 0.16270223 0.040824972 -0.5414701 -0.05761023
-0.025490299 -0.052386284 -0.08719088 0.043588955 -0.25460973 0.20419455 0.1349383 0.018335007
0.1272356 -0.07770337 -0.032763544 0.015101475 -0.09390605 -0.14091663 -0.50013274 -0.15465806
-0.0749596 -0.12838598 -0.10063627 -0.07199836 0.6402373 0.03128712 -0.07582736 -0.092754945
0.1296276 -0.15606819 -0.11341926 0.056006197 -0.0483418 0.011283052 0.099846944 -0.21588974
-0.18900728 0.02661599 -0.6637368 -0.06742398 -0.05417539 -0.09043994 -0.23829357 -0.07708785
0.030650962 0.22201784 0.19741607 -0.041139446 -0.0305353 0.019107366 -0.003591652 0.06709479

rnn.weight_hh_l0 f4 [256, 64]
00000000: 8078 8abe ceee e0bc 9349 1dbe 9298 3bbd
00000010: ed5e b9bd 84d2 19bd a394 e03d a75f dc3d
00000020: f669 10be a253 ff3d e540 d2bc b010 b4bd
00000030: c70a 1e3e fab5 b6bc d995 b23d 1415 7bbc
00000040: 6106 6e3b 7651 d03d b135 7bbe 243c 5dbd
00000050: 84b7 373d 02e7 0f3e 2f63 84be 6513 da3e
00000060: 6252 383e 7deb 09be 51a9 bd3b ddc0 3a3e
00000070: 2dde 123e f95c 873c 3224 41bd e75c 24be
00000080: e527 6ebd 2dc4 d53c 4b02 b63d b5d9 963d
00000090: 73f2 213d d16d fcbd 9102 463e 79cb 773e
000000a0: 25f2 4abe 1f41 3dbd 2eda c3bc ff55 3b3e
000000b0: 0eb4 283e 830f 383e 7e24 383e 4155 a53b
000000c0: f237 f93e adbd 05bb bf77 913e ade8 b93d
000000d0: 2b64 a33e 60b3 9d3d ccc5 aabc f405 0abd
000000e0: b4f7 8bbd ba40 03be 0361 c03d 6cff 65be
000000f0: 6444 2abe 5c10 c3be 44e5 0bbe e145 aa3e
00000100: f324 8e3c fd70 a4bd 872b 4e3d 21cd 04be
00000110: e191 023f b1e4 a5bb 6981 26bd a15a ee3a
00000120: d90f 7e3d 7f20 62be cc07 a0be ace8 a03d
00000130: 22fd 7f3e de4a 233c 4dca 75be 1e27 303c
00000140: 5971 bd3e 30c0 ae3d 7e52 aebe 0053 ad3d
00000150: 1144 13be 6d57 e53d 8060 8bbd 068a 813d
00000160: 8090 3abd a122 81be 6b4d babc 7a04 04bc
00000170: 8805 933d 1226 fbbd 5c04 cbbd 354c b93d
00000180: 9070 13bd 6580 02bd c4bb bfbd d1d4 d6be
00000190: 4e95 e03c 37e4 553e 08b8 00bf 5dbf b4bb
000001a0: 4821 de3d 0b1c 9fbe 9569 9abe abaa ac3d
000001b0: 15bc bfbd 0512 afbc 87cf 403e 96c7 67be
000001c0: 8879 973e a80a a0bd c3a5 c33e c332 433e
000001d0: 5406 633e 482a 703c 1820 303d e976 5c3e
000001e0: 6d0f e53d cf2c 473c 682a 983d 78b4 623d
000001f0: 9085 fd3d 6a9c 64be 5688 1f3d da2e debd
00000200: 8fe9 d0bd d8d5 e33d 8a2c 4bbd e403 c9bd
00000210: be61 d13c 00e2 64bc 2944 b7bc ab79 a9bd
00000220: 6d93 6f3d e09a f1bd 9c50 abbd c163 e63c
00000230: 2271 f63c 264b 083e 9d3b 7cbe 8cb0 943d
00000240: 2ace 373e ddc4 263d 8d13 16be e267 013e
00000250: 35bc 6c3d 95ae 413e 9516 8dbd 154e d3bc
00000260: bfa4 573d 2dbd 073d 5a15 17be 00e0 7b3d
00000270: aa05 613d 97de 5abe 663a ac3c 33a4 513e
00000280: 82e1 993b 282a 873a 4027 91bd 4ada 74be
00000290: 7ed6 48bb 5a02 803e 9a10 52be ac25 3f3d
000002a0: 2030 9a3d 2919 19be 4460 fdbd 424c af3e
000002b0: 0226 20bd 7f16 483d b986 5e3e 163e 523a
000002c0: 8525 a43d 5042 a5bc 575d c73d 2df7 a93d
000002d0: 7cd2 60bc a45c 2e3d 3c9d d33d 26a1 943d
000002e0: 5dfb f43d ce7c 073e 8556 5fbd f50d 9dbd
000002f0: 8b3a 203e 482f 393d 4b02 023e 009a adbc
00000300: 721f 09bd 5c84 eebd 3ee1 debd a89b 45be
00000310: 6f5f f23d 073d 773d fb68 7c3d 8311 aabc
00000320: 257b 203d d2c4 f5bc e5d8 2a3d 1921 063d
00000330: eb66 9c3c 7285 dcbb d7b8 14be 6066 10be
00000340: ed02 923c 4b43 d6bd 1614 b9bc 0ac3 c63d
00000350: 01b5 87bd 6e3c 103e b1fe 24bd 49e3 423d
00000360: 1b2c eebd 7939 803c 9a1d 22be dda9 e53c
00000370: dd28 a3bd 6740 f9bd 5173 4d3b 2e6c 7d3e
00000380: 22f7 043d 9193 3dbe ccb4 21be b39f 143e
00000390: 4fcb f43b e1e8 58b9 fa80 86bd 5fd4 38bc
000003a0: 131f 933c b00e d3bd 1979 a7bd 4b48 e23c
000003b0: 65ef eb3c a879 9d3a a330 903d 5485 3b3c
000003c0: 8fbb b7bd 7b99 ebbd 46e5 ca3d 0d62 1e3e
000003d0: c557 ef3d 81b9 8b3d 1727 18bd 519a 333d
000003e0: d9e3 c23d 0378 88bd fc12 3a3d 9bd5 1fbe
000003f0: fa26 4bbd e867 843d 9877 533c 0232 69bd
-0.2704506 -0.027457621 -0.15360098 -0.0457998 -0.09051309 -0.03755428 0.1096585 0.10760432
-0.14102921 0.124671236 -0.02566571 -0.087922454 0.15433799 -0.02230357 0.087199874 -0.01532485
0.003631972 0.101717874 -0.245322 -0.054012433 0.04485275 0.14052966 -0.2585692 0.42592922
0.18000177 -0.13468738 0.0057880064 0.18237634 0.14342566 0.016523825 -0.04715366 -0.16051064
-0.058143515 0.02609452 0.08887156 0.07365743 0.03953786 -0.12325633 0.19336917 0.24198712
-0.19818933 -0.046204682 -0.023907747 0.18294524 0.16474935 0.17974667 0.1798267 0.0050455634
0.48675495 -0.0020407245 0.28411672 0.090775825 0.3191236 0.07700229 -0.02084627 -0.033697084
-0.06834355 -0.1281766 0.093935035 -0.22460717 -0.16627651 -0.3809842 -0.13661677 0.33256438
0.017351603 -0.08029363 0.05033448 -0.12968875 0.51003844 -0.0050626625 -0.04065076 0.0018184969
0.062026832 -0.22082709 -0.3125595 0.07856879 0.24998906 0.00996658 -0.24002953 0.010751514
0.3700054 0.085327506 -0.34047312 0.084630966 -0.14381434 0.11198316 -0.06805515 0.06325154
-0.045547962 -0.25221732 -0.022741994 -0.008057708 0.071787894 -0.12263121 -0.09912941 0.090477385
-0.03599602 -0.031860728 -0.09361985 -0.4195924 0.027414944 0.20887838 -0.5028081 -0.0055159763
0.10846192 -0.31076083 -0.30158678 0.0843099 -0.09362046 -0.021370897 0.18829165 -0.2263473
0.29584908 -0.078145325 0.38212404 0.19062333 0.22170383 0.014658518 0.042999357 0.21529736
0.11184583 0.012156679 0.07429963 0.05534789 0.12378991 -0.22325292 0.03894838 -0.1084878
-0.10200798 0.11124772 -0.049603023 -0.09815195 0.025559302 -0.013969898 -0.022371368 -0.082751594
0.058490206 -0.11797118 -0.083649844 0.028123738 0.030083243 0.13309917 -0.24632116 0.07260236
0.17949739 0.040715087 -0.14655896 0.12637284 0.057796676 0.18914254 -0.06889073 -0.025794068
0.05264735 0.033139396 -0.14754239 0.06149292 0.054937042 -0.21373974 0.02102394 0.20472793
0.004696072 0.0010312246 -0.070875645 -0.23911396 -0.0030645425 0.25001794 -0.20514145 0.046666786
0.0752871 -0.14951004 -0.12371877 0.34237868 -0.039098747 0.04884958 0.2173108 0.0008020116
0.08014969 -0.020173222 0.097346 0.08299098 -0.013722058 0.042568818 0.103327245 0.07257299
0.11962006 0.13231203 -0.05452587 -0.07668678 0.15647332 0.045211107 0.12696187 -0.021191597
-0.033477254 -0.11646339 -0.10882805 -0.1929766 0.11834609 0.060360935 0.061623555 -0.020760303
0.03917994 -0.030001078 0.041710753 0.032746408 0.019092044 -0.006729775 -0.14523636 -0.14101553
0.01782366 -0.10462054 -0.022592586 0.097051695 -0.06626321 0.14085552 -0.040281955 0.047580037
-0.11629506 0.015652405 -0.15831605 0.028035099 -0.079667784 -0.12170487 0.0031349252 0.24748299
0.032462247 -0.18513323 -0.15791625 0.14514045 0.0074705253 -0.0002068612 -0.06567569 -0.011281102
0.017959153 -0.10305536 -0.081773944 0.027622363 0.028800676 0.0012014406 0.07040527 0.011445362
-0.08971321 -0.115038835 0.09907012 0.15467091 0.116866626 0.068224914 -0.037146654 0.04384834
0.09516115 -0.066635154 0.04542826 -0.15608828 -0.049597718 0.06465131 0.012906931 -0.056932457

rnn.bias_ih_l0 f4 [256]
00000000: 3792 cf3d 33a0 263e 57e5 163e e2f4 0a3d
00000010: 8359 25bd f6ec 4c3d 9e52 4c3c 7a2a 0e3e
00000020: c024 8f3e 5d86 d93c ab3a 493e cad3 253d
00000030: 6a73 d93e 7609 c43d b703 2b3e c6e2 053e
00000040: 98b8 f13d 77d4 413e a6bc 863e 72ec fe3d
00000050: b790 31bd 2527 493e 50cc 7e3c ca41 6f3e
00000060: 8b33 773d 822e a0bc 2bbf 863e 4e16 073e
00000070: 7218 22be abb6 7b3c ff07 a7bc 3921 fe3d
00000080: 42da b43e 7b8e 213d 877b a93d 7a72 963c
00000090: 7293 503c eae6 a13e 36b3 373e d4b7 e93e
000000a0: 9250 3ebd 1b25 b83d 35c0 c63d 5784 003e
000000b0: 9463 84bc 0096 dd3c 9776 6e3d facf 1d3e
000000c0: ab20 183e 5361 a3bd 40f5 2f3e d41b fc3d
000000d0: d80b 8dbd 3af2 013e 3c76 823e 33d9 e43d
000000e0: e993 093e 449c cdba 2d65 49bd 4f7d 19bd
000000f0: 84c4 07bc 986f eb3e 49b2 cebd 15c4 383e
00000100: 168b f7bd d0e2 febc a5ea 04be 735e 7d3d
00000110: ade2 1d3e a5da e9bd 33fc 95bd b8e1 bd3d
00000120: 7aa6 a8bc 7e6c debc e4b3 26bd cb13 41be
00000130: 9834 c6bc 2583 ae3d 10af a9bc ce84 b83d
00000140: 2152 27bc 64d9 cfbd f856 e4bb 86b7 183e
00000150: 678a 24be bc27 123e 7468 38bc 82af e43c
00000160: 52c6 f1bd 675d 24be 98cd 41bd eec2 f6bd
00000170: 740d abbd d0c9 b6bb 6599 903d 15fc 0c3e
00000180: ef17 d9bb 92a9 80bd 61df d23d 59fe f63c
00000190: 8abc 97bd 89a7 773d 98c7 b4bb 51d2 7a3d
000001a0: 0750 d6bd 2e40 053c 5677 b93c 939b 693c
000001b0: 5bc4 133c 9abd 56bd 4365 79bd 2900 4e3e
000001c0: f322 863d 0504 0ebe 391c 0d3e 92d6 043e
000001d0: 1a1c a03d e906 ea3c 7fee c63d bf79 c7bd
000001e0: 52d9 a23d 3010 53bc 5a40 6cbb c58f e1bd
000001f0: 0a23 07be dee4 00be f195 1ebd 351a 0d3e
00000200: 70f9 32bb 0251 ad3d 5298 0ebe 3e0a ae3d
00000210: 181f 5bbd 3b17 093c 8ba8 77bd ef1f 19bd
00000220: f2d2 a63d 9588 9f3d 0130 fbbd d456 e8bd
00000230: 9a06 b9bc d1e6 9f3d 0ecf 1d3e 2ade aabc
00000240: 7687 bdbc 3b2f bf3d 73f3 bfbd 0f7e 2abd
00000250: 2732 863d 5ced ea3c 22a8 65ba 2358 f93d
00000260: 82e5 8e3d 52fa b7bd f85a cebd f4bf d8bc
00000270: 713b 94bd 8f29 be3d 08b6 06bd c219 653d
00000280: 0aa9 7b3b 6aea 193d 0af1 0dbc 871d da3d
00000290: 0547 4c3d 3315 bcbd 1dfd 573d b233 893d
000002a0: 3d17 88bd 1ddb 8abd 59f7 cc3d 7242 093d
000002b0: 2b6e 8fbd 5189 d63d 97f2 05be 9caa a0bd
000002c0: 932f 9a3d 9d43 0bbd 3f18 08bd 00b9 90bc
000002d0: 1acb 023c 8b3a abbd ded3 eb3d c362 c1bd
000002e0: 3e60 6dbd d7d0 00be 837d e1bc 07d7 803c
000002f0: e558 83bd bc26 46bd a7a7 94bd f712 55bc
00000300: 706b 413e 6a39 643e 8fca 973c c80c a1bd
00000310: 461f f23d 5352 c4bc ac02 c53d 56c9 e23d
00000320: 09f0 8d3e 0fc1 053e 8222 1e3e 18ca 04be
00000330: d684 7a3e 8ee6 c8bd 8cb4 5c3e afbb 1c3d
00000340: c507 fc3d d6aa ee3c 401e a03e afa1 d53d
00000350: dc56 9f3d 5364 b4ba 38c7 cc3d 6967 303e
00000360: ac40 ad3d 57e4 b03d 8b64 313e b235 333e
00000370: f824 08bc 5a2f e9bb 5ebb 0a3e 7823 ec3d
00000380: 1788 603e e386 1c3e 2573 d63d ba9c 9e3d
00000390: 2bc9 b23d ff94 263e b73d 643e df2f b23e
000003a0: a941 debd 2209 3a3e 3dee 933e cdd7 ce3c
000003b0: 7e1c 72bd ba46 c13d ce69 233d efdb 723d
000003c0: 39df 743e 3469 bd3d 10ab 253e a86b bd3c
000003d0: 4faa f4bb 8f93 3fbd afc0 0c3e 788f 2c3c
000003e0: 7878 e23d a81c b0bc 4c25 1cbd c164 60bd
000003f0: 6521 d7bc 58da ae3e a014 653d 3f64 a73d
0.1013531 0.16272049 0.14735924 0.033924945 -0.04036857 0.05003067 0.012470869 0.13883391
0.27957726 0.026553327 0.19651286 0.04048518 0.42470866 0.09572117 0.16700636 0.13074788
0.118027866 0.18928705 0.26315802 0.12447442 -0.0433509 0.19643839 0.015551642 0.2336494
0.06035189 -0.019553427 0.26317725 0.13192102 -0.15829638 0.015363376 -0.020389555 0.124086805
0.35322767 0.03944252 0.08275514 0.018365134 0.012730466 0.31621486 0.17939457 0.45648062
-0.046463557 0.08991452 0.09704629 0.12550484 -0.016160764 0.027049065 0.058218565 0.15411368
0.14856212 -0.079775475 0.17183399 0.12309995 -0.06887025 0.12690058 0.2548083 0.1117424
0.1343533 -0.001568683 -0.049168754 -0.03747302 -0.008286599 0.45983577 -0.10092599 0.1804355
-0.120870754 -0.031114012 -0.12980135 0.061857652 0.15418501 -0.11418656 -0.07323494 0.09271568
-0.020587195 -0.027151342 -0.0406989 -0.18855207 -0.024195 0.085211076 -0.02071336 0.090097055
-0.010212452 -0.10148886 -0.0069683753 0.14913759 -0.16068421 0.1427297 -0.011255372 0.02791572
-0.11805405 -0.16051255 -0.04731521 -0.12048899 -0.08352175 -0.005578257 0.07060508 0.13768037
-0.0066251676 -0.06282343 0.102965124 0.03015058 -0.07409008 0.06046251 -0.0055169575 0.06123573
-0.10464483 0.008132977 0.022639912 0.014258283 0.009018983 -0.052426912 -0.060887586 0.20117249
0.06549635 -0.13868721 0.13780297 0.12972477 0.0781786 0.028567748 0.09713458 -0.09740018
0.07951607 -0.012882277 -0.0036049099 -0.1101375 -0.1319696 -0.12587306 -0.038717214 0.13779528
-0.002730932 0.08462717 -0.13925293 0.08498047 -0.05349645 0.008367355 -0.06046347 -0.03738397
0.081457034 0.07789723 -0.122650154 -0.11344686 -0.022586156 0.078076966 0.15411016 -0.02085789
-0.023135882 0.0933518 -0.09372606 -0.041624125 0.065525346 0.028677635 -0.00087607105 0.12175014
0.06977369 -0.08983292 -0.10075945 -0.026458718 -0.072379 0.092852704 -0.032888442 0.055932768
0.0038400316 0.03757707 -0.008663425 0.10650163 0.049872417 -0.09183731 0.052731622 0.06699313
-0.06645057 -0.06780074 0.10008115 0.033510633 -0.07003435 0.1047541 -0.13080822 -0.07845041
0.07528605 -0.034000028 -0.033226248 -0.01766634 0.0079829935 -0.083607756 0.1151502 -0.094426654
-0.05795311 -0.12579666 -0.027525669 0.015727533 -0.0641344 -0.048376784 -0.0725854 -0.01300501
0.1888864 0.22287527 0.018529205 -0.07863766 0.11822371 -0.023965036 0.0961965 0.11073558
0.27722195 0.13061927 0.15442851 -0.12967718 0.24464735 -0.098096 0.21553248 0.038264927
0.123061694 0.029134195 0.3127308 0.10431229 0.07780239 -0.0013762809 0.099989355 0.17226948
0.08459601 0.08637302 0.1732351 0.17500952 -0.008309595 -0.0071162404 0.13548037 0.115302026
0.21926914 0.1528583 0.10471181 0.07744737 0.08729776 0.16267775 0.22289167 0.34802148
-0.108523674 0.18167546 0.288927 0.025249386 -0.059109204 0.09437318 0.039895825 0.059291776
0.23913278 0.092485815 0.16178536 0.023122624 -0.0074665914 -0.046771582 0.13745378 0.0105322525
0.11058134 -0.02149804 -0.038121507 -0.054783586 -0.026261041 0.34150958 0.055927873 0.08173417

rnn.bias_hh_l0 f4 [256]
00000000: ce1a f63d e350 923d 7dac 97bc 391d 013d
00000010: c274 e93d b4e0 2f3d 085c d83d 0ebd 0a3e
00000020: 320a 4b3e 3815 453d 9bfa 923e 527a c2bd
00000030: 6e36 8e3e 9573 babd 3e7b 4b3e 4cc8 0b3e
00000040: ec12 103e b9bb fa3d 3b45 3b3e 4dda c2ba
00000050: 1aad 12be b3a8 a63d efdb c33d 1a36 0e3e
00000060: ce70 013e 1f65 b13c effa 0f3e d914 0b3e
00000070: bb79 e3bd e5e3 e53d 5f12 93bd 39ac e33d
00000080: 50f7 ac3e 6ad1 33bc e14c e63d 0f40 1f3e
00000090: b6c5 4bbd 918f 593e e716 8d3e 0d80 b33e
000000a0: fb5b debd ba6c 39bd 234c a13e c969 6c3e
000000b0: 1d4c e8bc d058 8d3d 7082 57bd ceac dc3d
000000c0: 56a6 673e 7115 b13d e1ce 223e 69c3 313d
000000d0: 7242 9b3c 4d30 d13d 3ca3 a63e c00b af3d
000000e0: dc4e 3a3d a109 1fbd 3fa4 b93d 57ec 85bd
000000f0: a66f b23d e993 f33e 188e b33d 94df 8b3e
00000100: 1444 b2bc 4042 113e 5b71 d73d 1394 66bd
00000110: ee56 fabc 4ca6 93bd 2c6d 38bc b066 e8bc
00000120: 7d94 1b3d 5fda 313d 452a 8bbd abf9 1ebd
00000130: bd77 c83d 49d9 023d 6b3e f23c 73f8 513d
00000140: a1c5 c13c bba2 dabd 8d39 17bd 865a e7bc
00000150: 8b06 00be 4ced bd3d 8ca3 21bc c553 98bd
00000160: 8396 c2bd 1573 29be ccb4 aebd 41ad 98bc
00000170: 910b 01be 2038 9cbd 7182 903d 0a96 a73d
00000180: df9b 9f3d 448b 343d 543b 85bd bfb9 453d
00000190: 7e16 113d 9960 7c3d b649 e83d 4455 53bd
000001a0: 0a77 16be 5681 a8bc d1f5 3c3b 14be 343e
000001b0: f9be c2bc ffdb 8e3c bd80 f8bd 8977 8a3e
000001c0: 5442 983e f1a2 41bd abaf 083e 16fe 9ebc
000001d0: 7001 9d3d abd9 5f3e ebe8 e83c b84e 193c
000001e0: aadd 303d 2b7a 89ba c1f5 a63d 4508 9f3d
000001f0: 8a7f 18be 363b 99bd e5fe 13be fe87 89bc
00000200: 5bed 02be dd05 0bbe 7ecb 483d 65b4 24bc
00000210: eca0 febd 9f03 453d 4e2c 47bd 9d03 093e
00000220: ccc1 c0bd 16d9 b23d c7f4 973c 0b63 5a3d
00000230: 1d49 fc3c d7aa 10be 1da5 3a3c f948 5c3d
00000240: 0c68 b3bd 84d3 2a3d ff0d 2dbc 0e21 bf3d
00000250: 19b5 923d 0d65 c3bc b9f5 48bd 4270 4bbd
00000260: 65bf 093e c08f 5cbd 451f 1c3d 1eeb 9e3d
00000270: b603 393b 2b86 033e e8f4 f53c f943 32be
00000280: 5dff 57bd fa5b ae3d 2ca5 353d 752b d8bc
00000290: 1c9c b03d 5fee d1bc db84 b9bc a0d6 593c
000002a0: d337 e9bd 1754 d83d c3b9 42bd b0ea 99bd
000002b0: 2df9 af3d 7922 a63d 9f8f 843d 1807 abbd
000002c0: 6bc4 293e 8fc2 33bb 3c2e 933d 4a8c 5e3d
000002d0: 7cc6 df3d 2392 ca3d cc3c ae3c aec9 f3bd
000002e0: b6df 6a3d 1ecb dbbd 3877 1d3c f8b6 5d3c
000002f0: 026f 42bc 5815 1e3d 2648 21be 5d77 cf3d
00000300: 16b3 953d ca57 543d aec7 5f3d 9e90 5cbd
00000310: 6977 303d 6485 c93d 640d b5bc c4b9 f03b
00000320: 8905 9d3e f077 993d 6cb7 3d3e a69d d9bd
00000330: 3336 593e 9699 bdbc 2788 0b3e 7c3d 0cbd
00000340: a074 893d 14b1 fd3d 8a57 a53e d6e7 c8bc
00000350: 35a4 00be 639c 78bc a241 58bb c52b 073e
00000360: ba49 ea3d 4f85 e6bd 769e a43e c846 523e
00000370: 46fc 73bd eb32 d43d a146 013e cb3b 363e
00000380: 8a00 573e 5bea e63d 1547 0e3d 4230 ef3d
00000390: 8777 e23c 7761 5d3e 0255 453e 5288 e43e
000003a0: ef63 bc3d 16f3 183e 49a0 4d3e f992 133e
000003b0: 9efd 213e ae75 fdbd e48f 1b3c f003 233c
000003c0: fb3b c83e 8ca3 cf3c ee45 0d3d 23b8 563e
000003d0: 8944 1c3e d529 6cbd 58a6 353e 967e ae3d
000003e0: 23ad 893d 6032 f7bc 4dcf e7bb dba5 95bd
000003f0: 4420 d6bd 8fe5 b23e ce25 bc3c 392b d53d
0.12016831 0.07144334 -0.018514866 0.03152201 0.11399223 0.042938903 0.105644286 0.13548681
0.19828108 0.04811594 0.28706822 -0.09495987 0.27775902 -0.09104077 0.19871232 0.13650626
0.14069718 0.122428365 0.18288128 -0.0014866084 -0.14323846 0.081376456 0.095634334 0.13887826
0.12640688 0.021654664 0.14060567 0.13582171 -0.111072026 0.11225108 -0.071812384 0.11116833
0.33782434 -0.010975221 0.11245132 0.1555178 -0.0497491 0.21246172 0.27556536 0.35058632
-0.10857388 -0.045269705 0.315034 0.23087229 -0.028356606 0.06901705 -0.05261463 0.107751474
0.22622046 0.08646668 0.1589923 0.04339925 0.018952582 0.10214291 0.32546413 0.08547163
0.045485362 -0.038827542 0.090645306 -0.06539219 0.087127015 0.47573784 0.087673366 0.27319014
-0.021760978 0.14185429 0.10519668 -0.05629356 -0.03055903 -0.07209453 -0.011256497 -0.028369278
0.037983406 0.043421146 -0.06795172 -0.03881232 0.09788463 0.0319455 0.029570779 0.05126233
0.023653807 -0.106755696 -0.03692012 -0.028241407 -0.12502496 0.092737764 -0.009865653 -0.07437853
-0.09501364 -0.16547807 -0.08530578 -0.018637301 -0.12602068 -0.076278925 0.0705613 0.081829146
0.07793402 0.044078127 -0.065054566 0.048272844 0.03542184 0.06161556 0.11342184 -0.051594988
-0.14693847 -0.020569485 0.0028833041 0.17650634 -0.023772703 0.017438887 -0.1213393 0.27044323
0.29738104 -0.047274534 0.13348262 -0.019408267 0.0766629 0.21860377 0.028431376 0.009357147
0.043180145 -0.0010488679 0.081523426 0.07765249 -0.14892402 -0.07481997 -0.14452703 -0.016788479
-0.12785856 -0.13576455 0.04902219 -0.010052775 -0.12433037 0.048099156 -0.048626237 0.13380285
-0.09411964 0.08732812 0.018549336 0.05331711 0.030796582 -0.1412767 0.011391905 0.05378053
-0.0876008 0.041705623 -0.010562419 0.093324766 0.07163448 -0.023851896 -0.049062464 -0.049667604
0.13451917 -0.05384803 0.03811576 0.07759689 0.0028230972 0.1284415 0.030024007 -0.17408742
-0.052733768 0.08513637 0.044346973 -0.02638791 0.086235255 -0.02562636 -0.022646358 0.0132957995
-0.11387601 0.10562914 -0.047540437 -0.07515466 0.085924484 0.08112044 0.06472706 -0.083509624
0.16578834 -0.0027429198 0.07186553 0.05433301 0.1092653 0.098911546 0.021269225 -0.11903702
0.057342254 -0.10732101 0.0096109435 0.013532393 -0.011867287 0.038594574 -0.15750179 0.101301886
0.073095486 0.051841535 0.05463379 -0.053848855 0.04308263 0.09839895 -0.022101112 0.0073463637
0.30668285 0.074935794 0.18527001 -0.10625772 0.21212082 -0.023144525 0.13626157 -0.034238324
0.067116976 0.123872906 0.3229335 -0.02452461 -0.1256264 -0.015174004 -0.0032998105 0.1320029
0.114398435 -0.11255895 0.32152146 0.20534813 -0.05956676 0.10361274 0.12624599 0.17796247
0.209963 0.112751685 0.034735758 0.11679126 0.027644886 0.21619211 0.19270709 0.44635254
0.09198748 0.1493648 0.20080675 0.14411534 0.15819404 -0.12375961 0.009494755 0.009949669
0.3910826 0.02534654 0.03449052 0.2096868 0.15260519 -0.05765708 0.17739236 0.08520238
0.06722476 -0.030175388 -0.0070742727 -0.07307025 -0.10455373 0.34940764 0.022967245 0.10408635

rnn.weight_ih_l1 f4 [256, 64]
00000000: 7f7c 523c acb8 8b3e db8c 813c f460 23bc
00000010: 1801 2c3d 102d 1d3b ee83 07be 7246 bcb9
00000020: 607c 183e feb2 ad3c ef8a c8bd cf6d 9a3d
00000030: e8b7 8cbd e5fb 853d adb3 05bd bd00 e4ba
00000040: 127e 5d3e 1aa0 91bc faba c03d 7a75 593e
00000050: 283d 1ebd 8017 3b3e dc3d 14bd c3f7 02be
00000060: a5bc a3bc 752c 08be 8af1 933d 22c6 3abd
00000070: ae5f b3bd d4c1 493c e0b7 dc3d f657 a73d
00000080: 1a24 74be fa93 88bd 2aaf 31bb e02d 28be
00000090: 133f 773d cf30 333e 8f3a 62be 746c fdbd
000000a0: 61fc 5bbd 61b7 8abc df33 6dbe 22e6 0f3c
000000b0: 68f7 44be f185 61bd 5cd2 fd3d 765f 2a3e
000000c0: aee2 c7bd b2ac 09bd 41af 583d d5b2 89bc
000000d0: 9362 413c 0fe3 b43d 59b3 46bd 00fb 053e
000000e0: 864f 203e bc18 3dbd 29e7 88bd 8356 6abe
000000f0: 9352 1d3d 04e0 d1bd 4982 d53d 5c36 76be
00000100: bdf2 17bd f4f1 c5bc f21b a2bb eb92 423b
00000110: 010a 52bd 3ae4 9bbc b3f7 63bd 5b79 d13c
00000120: 16be 9d3d cc73 ba3d c33e 043c fe06 49bd
00000130: 6be3 a43e bf72 d13d b4ba 61be 274f 5ebd
00000140: ea58 97bc ee53 fc3c a22d 023e 742b 2cbb
00000150: e755 823d 7213 aebc 83d8 11bc 8cc1 1f3e
00000160: d3b2 a63c a6ed e0bb b246 73bc 8e0b cabd
00000170: 417f 913c 31bf c7bc 594a e03d bcd9 2e3e
00000180: e918 eabc 27e5 6f3c 3051 86bd 1fa1 0bbd
00000190: ae5e 4e3d bc1a c63d 465b 6cbd 707c d53d
000001a0: b247 4cbd 5ed2 f03d f8d5 4fbd d6e4 913d
000001b0: 9bba 633d 58ef 893d a510 a7bd dfe6 d6bc
000001c0: b1cf 2ebd e5a7 813d bfff a83d 7b97 bd3c
000001d0: 3dc3 b63d e6bd a53b 90b9 793e 531a 16bc
000001e0: a630 8c3d 3e1c d43c 16a9 f3bd 4cc3 c5bd
000001f0: 8700 d7bc e945 343d cf93 2abb 47a5 ff3d
00000200: 37ae 883d 2398 7d3d 4b8d 9fbd 64a7 893c
00000210: 3920 6f3d b4a7 52bd 69b7 10be cc3c a93d
00000220: 7f60 6b3d 5361 1abd 039a 7cbe 1af3 c3bc
00000230: db46 6c3e e542 83bc 38ff 57be 2dd4 c53d
00000240: 6a31 7a3e e25a bbbc b130 37be 984b d1bc
00000250: 07eb 6f3c 09c9 803d 45ec 83bd 2fbd 043b
00000260: 0e9c 503d 1d93 fabd 1943 81bd 40ec a9bd
00000270: 7d1b bc3c ebe4 e93c 217f 40bc f8e2 2ebd
00000280: 2b43 b93d 7b9d bc39 939b d23d 7b05 07be
00000290: ec9f 353d 7013 853d daa6 55bc 5172 143e
000002a0: 39a3 24bd d5f5 1ebe 86c4 a2bd 99b6 563e
000002b0: b0ca 153e a5cd 5fbd 8008 853d ccd3 19be
000002c0: 9f34 353e 3a31 85bd a6c7 653e 4c63 89bb
000002d0: 775e 99bd 4be7 a43d 9f52 143e f7d2 b7bd
000002e0: 12f3 d63d aa14 0abd 2da6 053e 9187 8abd
000002f0: 6f98 f4bc cd62 92bc c197 2dbd 171b 043d
00000300: 68fb 87bd 2215 273e 05bb 4bbe 9bb4 bdbc
00000310: 1270 413e 10bb c33d 6f3f 583b a589 5a3b
00000320: 09ee fdbd dde8 c83d 3a22 b7be 2195 d9bc
00000330: 827e 343e 9115 683d 4bda d5bd 2dc9 e33d
00000340: a707 7e3e 1daa 543e 20e1 cabe 8f3d ad3d
00000350: 15b6 88bd 4564 813e e3a4 46be 65f3 f7bd
00000360: 6488 0d3e 82e4 0dbe ed78 23be cf80 213d
00000370: 069e cb3c 57f3 86bd 00c7 78bd a2ca 70bd
00000380: 1c0a b63d 12b2 67bd 2d99 0abe 3d54 8ebe
00000390: 8620 39bd 3cd7 35bd a5aa 9cbd f6a5 913d
000003a0: 8612 97bd 8593 36be 08c3 28be 5322 2e3d
000003b0: ab86 083e 939e 8e3c d19e 55bd b1a7 a4bd
000003c0: 39ea 003f 664f 9dbd 8fb9 723e 00f6 903d
000003d0: 6ccb f33d 1d47 573e b84d 903d 86e1 03bd
000003e0: 9129 c33d 34b8 1dbe 86b1 943d 6f1b e83c
000003f0: 7067 f03c a9cc 773c 4052 45bd 6fe5 993e
0.012847065 0.2728933 0.015814235 -0.009971846 0.04199323 0.0023983158 -0.13233921 -0.0003591064
0.14891195 0.021203514 -0.097921245 0.075404756 -0.06871015 0.06542186 -0.032642055 -0.001739524
0.21630123 -0.017776538 0.09410663 0.2123622 -0.038632542 0.18270683 -0.036191806 -0.12789826
-0.019987414 -0.13298209 0.07223804 -0.04559911 -0.08758484 0.012314279 0.10777259 0.08171074
-0.23841897 -0.06668849 -0.0027112463 -0.1642375 0.060362887 0.17499088 -0.22092651 -0.123742014
-0.053707484 -0.016933145 -0.23164319 0.008782895 -0.19235003 -0.055059377 0.123936385 0.16637978
-0.097600326 -0.03361196 0.05290151 -0.016808907 0.011803287 0.088323705 -0.048510883 0.1308403
0.15655336 -0.046166167 -0.06684715 -0.22884564 0.038408827 -0.10247806 0.104252405 -0.24044174
-0.037096728 -0.024163224 -0.004947179 0.002968962 -0.05127907 -0.019029725 -0.055656146 0.025570562
0.07702272 0.09104118 0.008071604 -0.049078934 0.32204756 0.10226964 -0.22043878 -0.054274704
-0.018475015 0.03080174 0.1271272 -0.0026271017 0.06364041 -0.021249507 -0.008901718 0.15601176
0.020348942 -0.0068642674 -0.014848398 -0.09865485 0.017760875 -0.02438316 0.10951681 0.17075247
-0.028576331 0.0146420365 -0.06558454 -0.034089204 0.050383262 0.09673068 -0.057704233 0.10424125
-0.04987306 0.11758874 -0.050741166 0.07123725 0.055597883 0.06735104 -0.081574716 -0.026233135
-0.04267854 0.063308515 0.08251905 0.02314352 0.089239575 0.005058038 0.24387193 -0.00916155
0.068452165 0.025892373 -0.11897485 -0.096563905 -0.026245369 0.044011984 -0.0026028042 0.12482696
0.06673854 0.061912667 -0.07790621 0.01680345 0.05838034 -0.051429465 -0.14132465 0.08263549
0.057465073 -0.03769047 -0.24668126 -0.02391963 0.23073904 -0.016023109 -0.21093452 0.0965961
0.24432912 -0.022870485 -0.17889668 -0.025548741 0.014643437 0.062883444 -0.06441549 0.0020254364
0.050930075 -0.12235091 -0.06311626 -0.08297014 0.022962326 0.02855154 -0.01174906 -0.042696923
0.090460144 0.00035975486 0.1028358 -0.13185684 0.044341967 0.06497848 -0.013040269 0.14496733
-0.040194724 -0.15523465 -0.0794764 0.20968093 0.146281 -0.054639477 0.06495762 -0.150222
0.17695855 -0.0650353 0.22439441 -0.0041927453 -0.07488721 0.08051928 0.14484642 -0.08975785
0.10495581 -0.033711113 0.13051672 -0.067641385 -0.029857842 -0.017869378 -0.042381052 0.032252397
-0.06639749 0.16316655 -0.19895561 -0.023157408 0.18890408 0.09557164 0.0032996794 0.0033346203
-0.12398917 0.0981004 -0.357683 -0.026560368 0.17626384 0.056661192 -0.10442027 0.111223556
0.24807607 0.20768018 -0.39624882 0.08459007 -0.066753544 0.25271812 -0.19398837 -0.12106971
0.1382156 -0.138567 -0.15964098 0.039429482 0.024855625 -0.06589382 -0.060736656 -0.058786996
0.08888647 -0.056566305 -0.13534994 -0.27798644 -0.045197032 -0.044394717 -0.07649735 0.07111733
-0.0737658 -0.17829712 -0.16480649 0.042513203 0.13332622 0.017409598 -0.052153412 -0.08039797
0.50357395 -0.0768116 0.23703597 0.07078171 0.11904034 0.21023221 0.07046074 -0.032197498
0.095294125 -0.15402299 0.072604224 0.028333394 0.029346198 0.015124478 -0.048174143 0.30057856

rnn.weight_hh_l1 f4 [256, 64]
00000000: d228 ad3d 7d6d 24bd 7c63 cbbc 0bc0 d9bd
00000010: 4b4e 853a 0ff5 fb3d 22ef 6dbd 2635 de3d
00000020: 355d bebc 7398 e2bd a92c 7dbd e45a 7bbc
00000030: 4703 1fbe 46c2 2a3d 99a8 41bd c3b3 d63c
00000040: c80a f5bc 3ffa 41be b913 e6bc 6643 f6bd
00000050: 62b5 39bd 3452 a4bd f7af 983b 15f7 77bd
00000060: 5571 b0bc e17b 32bd 5025 72bd b1aa d63d
00000070: e2d1 b13d f369 dcbd b9c6 523d 76bf 513e
00000080: 726b d93c bac9 51bd e96f 70be 96ed 27bb
00000090: 10b6 54bd 185e c53d 94c3 1cbe 02e4 1c3e
000000a0: 1220 803c 8ca1 56bd 6247 b0bd 9be4 ec3d
000000b0: 288d 85bd 2d89 51be fdbb 4f3e 9525 6b3d
000000c0: 0ae0 a33d b074 34be c751 e83c 947b 69bc
000000d0: 83d4 133e bf0c b8bd d628 273e d1d7 e1be
000000e0: d85d d03b f164 343d 5f32 3b3d 6373 fdbc
000000f0: 4ce2 57bd 0587 c53d b260 203d 592c 8ebd
00000100: 7537 e33b a92f 8e3d 800e 7c3d 2b8d 38be
00000110: e8bc e6bd 0d30 933d 4eca 94bc ee9e 7ebc
00000120: f6c5 d93d 9dfb 683d fa02 f1ba 31c0 0abe
00000130: fcf4 59bc d9da 50bc e589 3e3d fdb6 c93c
00000140: 968b cfbc a2b4 313d 17c9 713e dcb4 97bd
00000150: 3d33 933c 86b9 c33d 45e5 e23d b9ba 39bd
00000160: 72f4 01bd 1a3a f13b 9a8c 053e 2215 233e
00000170: 4a6b 89be f813 513d 8d05 3ebe 19f4 13bd
00000180: d5ff 013e 2365 b83c 6de4 e33d 4207 e9bd
00000190: 7466 34bd 66b0 dc3d baa0 653c db52 4bbe
000001a0: 5920 e83d 33eb 1b3b abc0 213e ee99 bbbd
000001b0: c4ba 553c bf52 ccbc 2d6b d13d 663d 553d
000001c0: f5ba 1bbd f72d 05be 8159 563d 41ff 19be
000001d0: 1bc4 19be ac48 54bd ee7b f3bd afea 6ebd
000001e0: 108f 843c dd9e b43d 4939 f0bd 7509 223d
000001f0: 8118 c3bd 8601 ea3d a9f7 9fbc 68f3 9c3d
00000200: 825d 26bd 2977 0b3d e5d7 833c 6193 9fbc
00000210: ded5 5dbd b9f9 e4bc 0bbe 1ebe 865f c3bc
00000220: 347e 303d d960 bf3d fb8d cb3c 860c 9fbd
00000230: f0b5 82bd f529 ebbd 6481 2c3d de84 cbbd
00000240: fae6 e5bc 97f5 08bd fb51 3c3d 5753 86bd
00000250: 5572 173e 54d2 7cbc b78f 933d 5ac5 d0bb
00000260: b2ba b63d 8db2 f2bc aa28 4a3e 03d7 293d
00000270: 76b8 ddbd 32a1 323e c47e 37be 44d9 bb3b
00000280: a599 483d d2b0 0e3d 7b7e 843d e117 1bbe
00000290: ee38 8a3c 6abc 413e 791e cfbd f125 1b3d
000002a0: 8273 983c 97fc b9bd c20c dfbb f2f4 52be
000002b0: 6648 763d 5b7d d63c 4481 b63d 4943 2a3e
000002c0: fe3e f93d b453 4cbd 0beb cb3d b213 91bd
000002d0: d9b2 68bd 05eb 92bc 2183 f53c f81e 313e
000002e0: 979f cbbd fb0f 8039 e3fb 7d3d 5e29 753d
000002f0: a20e febd 2664 943d 2e1e 52bd 0c8d 1e3c
00000300: 4587 09bc 0b49 40be f2de 89bd bac0 d2bd
00000310: f920 d8bc 895f 393e 6de3 e2bd 197a 153e
00000320: 78e6 8ebd 6ec2 003e bc02 fe3d 7cf6 59be
00000330: c465 46bd 1f82 51be d377 f33c 161b 20bd
00000340: bd2c 62bd becd c2bc dd01 873d 8ea9 32bd
00000350: be6c 523e b998 753c 16bc 953e d0f5 fe3b
00000360: 14c1 0b3e 798a 16be 7ddb 533e bbe7 483e
00000370: 865e ccbe b199 c93d 9a28 6dbd 1220 d4bd
00000380: 2b12 3a3e aa47 073e aac9 0b3e 7264 5cbd
00000390: 7d3f e53d ab6a 4f3e 07e5 50bc 1e35 3abe
000003a0: 2e91 d03b 5547 18be 3d7e 103e 31c1 67be
000003b0: 0ac0 07bd 7f87 de3d 4f58 2aba 8d76 e93c
000003c0: f563 0b3e b737 04bc 5eb4 223e 1c4b 46be
000003d0: 7876 ec3c 8057 1c3c cf2a e2bd 3812 f73d
000003e0: 7c7b adbd e1f5 863d fc69 60bc 3ad7 9f3d
000003f0: 959b 2abe 6723 383b 43dd 92bd c5cc b73c
0.084550515 -0.04014348 -0.024827711 -0.106323324 0.0010170428 0.123026006 -0.058089383 0.10849981
-0.023237804 -0.11064234 -0.06181017 -0.015341494 -0.15528594 0.04168918 -0.047279928 0.026208764
-0.029912367 -0.18943118 -0.028085576 -0.12024574 -0.045338996 -0.080234915 0.0046596485 -0.06053837
-0.021538416 -0.04357517 -0.059117615 0.104817756 0.0868261 -0.10762396 0.051459048 0.20483193
0.026540492 -0.051217772 -0.2348019 -0.002562379 -0.05193144 0.096370876 -0.15308982 0.15321353
0.015640292 -0.052400157 -0.08607365 0.115670405 -0.06521064 -0.20462485 0.20286556 0.057408888
0.080017164 -0.17622638 0.028359307 -0.014250655 0.14436536 -0.08986806 0.16324171 -0.44109967
0.0063588433 0.044041578 0.045702334 -0.03093881 -0.052706048 0.096448936 0.039154716 -0.069420524
0.006934101 0.06942684 0.061537266 -0.18022601 -0.112665 0.07186899 -0.018162873 -0.0155408215
0.10633461 0.056880582 -0.0018387728 -0.13549878 -0.013303038 -0.01274749 0.046518225 0.024623388
-0.025335114 0.043385155 0.23611866 -0.07407543 0.017968768 0.0955687 0.11078886 -0.04534409
-0.03172726 0.0073616626 0.13041916 0.1592603 -0.26839668 0.051044434 -0.18556805 -0.03612146
0.12695248 0.022509163 0.11127553 -0.113783374 -0.04404302 0.10775833 0.014015371 -0.19855826
0.11334295 0.0023791313 0.15796153 -0.09160219 0.013045017 -0.0249418 0.1022552 0.052060507
-0.038020093 -0.13005815 0.05233145 -0.15038778 -0.15016215 -0.051827118 -0.11888872 -0.05832928
0.016181499 0.08819363 -0.11729676 0.0395598 -0.09526158 0.11426072 -0.019527273 0.076636136
-0.04061652 0.034049187 0.016094157 -0.019479455 -0.054159038 -0.027951108 -0.15502183 -0.02384926
0.043089107 0.09344644 0.024847975 -0.077660605 -0.06382358 -0.11482612 0.042115584 -0.09937452
-0.02806424 -0.033437338 0.04597662 -0.065588646 0.14789708 -0.0154310055 0.07205146 -0.0063711824
0.08922328 -0.029626155 0.19742075 0.041464817 -0.10826199 0.17444304 -0.17919451 0.005732687
0.04897465 0.034836598 0.06469437 -0.15145828 0.01687285 0.1891953 -0.10113234 0.03787798
0.018609766 -0.09081381 -0.006806941 -0.20601252 0.06012764 0.026182821 0.08911374 0.1662723
0.12170218 -0.049884513 0.0995694 -0.07083835 -0.056811187 -0.017934332 0.029969754 0.1729697
-0.09942549 0.0002442597 0.062007796 0.059853904 -0.12405135 0.07245664 -0.051298313 0.009677183
-0.008394067 -0.18777864 -0.067319766 -0.10290666 -0.02638291 0.1810285 -0.11078534 0.14597358
-0.06977552 0.12574169 0.12402865 -0.21285433 -0.048436895 -0.20459794 0.029720223 -0.03908833
-0.055218447 -0.023779746 0.06592152 -0.04361873 0.20549294 0.014990025 0.2924506 0.007780768
0.13647872 -0.1470126 0.20689197 0.19619648 -0.39915866 0.098437674 -0.05790005 -0.103576794
0.18170993 0.13210931 0.13651147 -0.05380673 0.1119375 0.20255534 -0.012749917 -0.18184325
0.006364963 -0.14870961 0.14110656 -0.2263229 -0.033142127 0.108656876 -0.00064981444 0.028498912
0.1361235 -0.008069924 0.15889117 -0.1936459 0.028865084 0.009542346 -0.11043321 0.12064022
-0.084708184 0.065898664 -0.013697144 0.07804723 -0.16660912 0.0028097273 -0.071711086 0.022436509

rnn.bias_ih_l1 f4 [256]
00000000: 43fd abbd c74e 87bc 6b00 3b3c 7917 99bd
00000010: 4c8f a6bd 2695 4dbd a2d3 22be 1b65 8f3d
00000020: ca9b d43d 85e4 c3bd db8e c13d 1f2f 6ebc
00000030: 1552 393e 156c a13c dfe3 2fb9 5c86 013d
00000040: f53e b7ba 5d3a cd3d 9c4c 3cbd c625 45bd
00000050: a678 acbd 4a63 f3bc c74e 023f 1080 0bbc
00000060: 4f70 0a3e 710f 28be e0e4 dfbc fcb4 5cbd
00000070: f12b 303d 1101 f5bd aa6b 9f3c 8320 a83d
00000080: aa65 413c ed30 dabd 9607 993e 3766 523d
00000090: 95e5 e83d 8c70 40bd ed64 0abe 796e 843d
000000a0: bc62 593d 06e6 863d 9758 f23d 22d6 ef3d
000000b0: 0f16 8bbb e824 893e 468c d63c 10cd 72bd
000000c0: bcd2 86bc 5b9a cb3d adec ec3d 221d 7dbd
000000d0: 7bfd b4bd 0b2d ec3d 966f 453e f2f6 fa3e
000000e0: a7ba b0bd c34c 703e 40ed 16bd 93cc c6bc
000000f0: 7c38 4c3d 1c48 48bb ceff 09be 7d3b b43d
00000100: 0973 863d 0c61 dfbd 37ac ccbd e900 093d
00000110: ac12 c33b 782b c73d 8ca3 d9bc dd7c c4bd
00000120: 53cc 543e 0abd 1ebd 15da c6bd 5464 36bd
00000130: c807 2dbc c1d1 fcbd cdf2 7bbd de42 303d
00000140: 4d3c e03d 3d95 3ebd aaff 12be ac1c 4bbc
00000150: 3745 abbd 5f6f 8cbd 7b9c 84be 1c62 14be
00000160: 5904 5ebd 8ac8 06be 323b 2bbe efe2 0dbe
00000170: dd95 f13c c238 14be c1a7 ba3d 8dd8 d8bd
00000180: b131 97bd 7b79 fd3c 1d46 edbd b086 37bd
00000190: 91ea 49bd 7bae 86bd 4820 193d 12c1 e13c
000001a0: ffa2 9ebd f8cb 6d3d d05a 98bb 75b9 3ebd
000001b0: 1e65 9abd 5a9b 02be e7a8 823d b987 0bbd
000001c0: 1f58 90bd 9aec 233d fa1c b63d 6fff c03c
000001d0: f0d6 923d bfaa 87bd 4cd4 9cbb 95fc 1bbb
000001e0: 4fac aebb 620b 57bd 0e60 433c ee55 943d
000001f0: 0203 f7bd 8608 d2bd 1ce6 babd 954b a2bd
00000200: 4f90 9cbd ebfb 013e 4c24 3fbd b07d 293d
00000210: c28e 3f3d 7f4e bcbc 7ece fe3c 914c a3bd
00000220: 0e60 eabc 5585 8fbc e45f d7bd 8ee8 033e
00000230: 73fa 8f3d 6758 ee3d 2f00 023d 98bd 043d
00000240: 3008 fd3d 07db c0bd 1258 ab3d 9b73 813c
00000250: 3311 e4bd a01d 18bc 0e06 92bd 428d adbd
00000260: fb7a ffbd 5afc dfbd 6094 52bd 4484 00be
00000270: dd4d cb3d 2d77 99bd 7722 b3bd 5ac8 63bd
00000280: a708 be3a 8aad 0e3d f3e5 b43d 2556 2d3d
00000290: 40a6 2c3c c266 f0bd e7d4 4cbc 6112 d83d
000002a0: 769f 8bbd a91e 813d ee53 6abd 5362 a13d
000002b0: 6793 c8bd 0331 5e3c 3d38 d9bd 5e25 dcbd
000002c0: 82ac 8d3d 6452 64bc 8dfe 52bc 197a 143d
000002d0: a891 a8bd 40d6 9c3c db3d ecbc 629c 91bd
000002e0: 26c0 ccbd 4d4a 82bc 364b 813d 6051 eb3c
000002f0: 217c 5f3d b0aa 88bd 7bd0 4a3d bbf3 32bc
00000300: 6e6a fc3d e966 8cbd 7c9c 7dbd 117d 77ba
00000310: 66d9 d33d a84d 76bd 7a9b 09be 244b d53c
00000320: 1472 063e 2de2 d9bd 357e 3bbd 6cb1 4abd
00000330: a772 0b3e cdf8 3e3c 079b 55bd 1634 d63d
00000340: 74c6 fbbc 87e0 98bd b938 063e 46bf 52bb
00000350: 9ce5 243d 26e2 ffbb 164c ef3e 4f38 93bd
00000360: 2f83 3e3e be09 febd aee7 9ebd f1b5 9bbd
00000370: df88 323e 9d92 b0bd f150 18bd 63c3 173e
00000380: 60ce 9b3d 3f80 a0bd 0146 183e a36c 183d
00000390: 176e 363d f368 413d b40f 913d 3ae0 b5bd
000003a0: 706b cb3d 3f54 92bc 9427 d6bd 7101 d0bc
000003b0: 6559 143d 03bf 093e 5f41 463b 4bd6 d5bd
000003c0: b4bc 70bd bde0 b43d 15d4 763d 9c41 15bd
000003d0: 92d8 efbc 308f cdbb a66f c53d 4b44 063f
000003e0: c222 d6bd 70ff ea3d d4e6 a63d 78cd e8bc
000003f0: 981d 173e 5c56 a9bc 66c3 9cbc aac8 2abd
-0.08397915 -0.016517056 0.011413674 -0.0747518 -0.081328005 -0.050191067 -0.15901044 0.07001706
0.10381277 -0.09565071 0.09451076 -0.014537602 0.18097718 0.019704858 -0.00016774189 0.031622276
-0.0013980555 0.100208975 -0.045971498 -0.048131727 -0.08421449 -0.02971043 0.50901455 -0.008514419
0.13519405 -0.1641214 -0.027330816 -0.053883538 0.043010656 -0.11963094 0.019460518 0.08209326
0.011804024 -0.10653863 0.298886 0.05136701 0.11371914 -0.046982333 -0.13515063 0.064663835
0.053072676 0.06586842 0.118333034 0.117107645 -0.004244573 0.2678597 0.026189934 -0.059277594
-0.016457908 0.0994155 0.1156858 -0.06179536 -0.0883741 0.11532029 0.19280848 0.4901653
-0.08629351 0.23466782 -0.036847353 -0.02426747 0.049858555 -0.0030560559 -0.13476488 0.08800409
0.0656491 -0.10907182 -0.09993785 0.033448134 0.0059531536 0.09725088 -0.026567243 -0.09594128
0.20781069 -0.0387545 -0.097095646 -0.044529274 -0.010560937 -0.12344695 -0.06151085 0.04303252
0.109490015 -0.046529043 -0.1435534 -0.012396973 -0.08362811 -0.0685718 -0.25900635 -0.14490551
-0.054203365 -0.13162437 -0.167218 -0.138561 0.029490406 -0.14474776 0.09114028 -0.10588179
-0.07382525 0.030941715 -0.11585639 -0.044806182 -0.049295966 -0.06576248 0.0373843 0.027557883
-0.07745933 0.058055848 -0.0046494976 -0.046563584 -0.07538818 -0.12754574 0.06379872 -0.034064982
-0.07048058 0.040020563 0.088922456 0.0235593 0.07169902 -0.06624364 -0.00478605 -0.0023801674
-0.0053305994 -0.05250109 0.011924757 0.07242952 -0.120611206 -0.10255532 -0.09125921 -0.079245724
-0.07644712 0.12693755 -0.046665475 0.04137963 0.046767004 -0.022986649 0.031104323 -0.07973588
-0.028610256 -0.017519632 -0.105163366 0.12881681 0.07030191 0.11637955 0.031738456 0.032407373
0.12355077 -0.09416776 0.083664075 0.015802195 -0.11136093 -0.009284407 -0.07130061 -0.084742084
-0.124746285 -0.10936804 -0.051411033 -0.12550455 0.099269606 -0.07493434 -0.08746808 -0.055610992
0.0014498428 0.03483347 0.08832922 0.042318482 0.010537684 -0.117383495 -0.012501932 0.105503805
-0.06817524 0.06304676 -0.057208948 0.07880082 -0.0979374 0.01356149 -0.1060643 -0.10749315
0.06917669 -0.013935659 -0.012878072 0.036249254 -0.08230907 0.019145131 -0.028838089 -0.07109906
-0.09997587 -0.01590457 0.063131735 0.028725326 0.054561738 -0.06673181 0.04951523 -0.010922368
0.12324987 -0.06855566 -0.061916813 -0.00094409386 0.103442 -0.060132653 -0.13438216 0.026036806
0.13129455 -0.10638843 -0.045774657 -0.04948561 0.13617955 0.011655998 -0.0521498 0.10459153
-0.030734278 -0.074647 0.13107575 -0.0032157465 0.040258035 -0.0078089414 0.46737736 -0.071884744
0.1860473 -0.12404202 -0.07759033 -0.07603062 0.17435025 -0.08621714 -0.037186567 0.14820628
0.07607722 -0.07836961 0.14870454 0.03721298 0.044538584 0.047219228 0.07083073 -0.088806584
0.099326015 -0.017862437 -0.10456768 -0.025391312 0.036218066 0.13451771 0.0030251367 -0.10441264
-0.05877371 0.08831928 0.06026085 -0.036439523 -0.029278073 -0.006273173 0.09640436 0.52447957
-0.10455848 0.11474502 0.08149496 -0.028418288 0.14757383 -0.020671062 -0.019136142 -0.041695274

rnn.bias_hh_l1 f4 [256]
00000000: 77b4 503d 67fc 27bd 4f4f a63d af45 e53d
00000010: da98 cb3c 2540 80bd 8079 c9ba bea7 56bc
00000020: 944f 25bd e871 833c 305d c0bd b0f0 60bd
00000030: 522f 023d 2540 c43d c5bb fb3d 64e6 a8bd
00000040: cf70 ae3d 972f 72bd c6f8 963c 32a4 99bd
00000050: 8c94 a13d 9856 a9bd 5302 da3e e827 923c
00000060: c569 513d 2015 763c 8d39 a93b a865 9fbd
00000070: e6aa d93d 9454 a5bd ddbe 723b c396 703e
00000080: 4aa7 0fbe 5749 643d 0e89 363e 020b f13d
00000090: 55e1 bf3c aa44 2a3d 2737 9fbd 3715 00bb
000000a0: b95e 733d 745e 18bd 1bd5 77bd 08b5 80bb
000000b0: 78b6 c5bd 2429 ba3d 5a4b 3bbd 9fe4 a5bb
000000c0: 771c dabd 7ef8 26bd e3d6 e13c 8b84 643d
000000d0: d5e9 5bbd 1f4c 2cbd 0185 433e fad7 dc3e
000000e0: e8cd 0abe 062b 523e b7bd 873b b728 5cbc
000000f0: ac9f b6bd 6383 adbd f39e dd3c ee5f 79bd
00000100: bc9f 0cbe 6ead 523d 7c7c 20be 7c01 433d
00000110: 846d 59bd f685 303d 3ea7 bdbc 1018 c83d
00000120: f479 403e 4d5d 17bd f134 d83d 70d6 02be
00000130: 9f43 8dbd ddf1 c23c f315 3bbe 4587 aabd
00000140: d9c3 77bd c0a4 fcbd 9efc 81bd 65c9 bfbd
00000150: c544 dd3d 6b81 19bd 9a16 bebd 2263 3a39
00000160: e2c3 91bc d906 14bd 962c f3bd 87e8 c9bd
00000170: 08e2 fd3c c499 29bd 7a15 babc 8681 7abd
00000180: 4cb7 773d 6419 29be 724f 07be e733 b5bd
00000190: 5e89 28be 050b 333d d8ca 543c 53c2 10be
000001a0: 9751 f3bd 75c2 b83d 26be c0bd ffb6 f2bc
000001b0: a14f 243d be86 79bc 0e68 1b3d 54b4 863d
000001c0: b5bb bd3b c3dd 32be 0948 5cbd a515 6ebd
000001d0: f54b 10be 86b3 18be 2fb2 70bc b703 993c
000001e0: 0391 13bd 7e96 0ebc 0c8d f9bb c608 fcbd
000001f0: 8b2b 7f3d 9a9d 53bc 75e8 07bd 3ecd 85bd
00000200: 6033 3ebd aa2d 863c 3f06 193c ef43 abbd
00000210: cfa0 333d 9fb1 d3bd dfbc a3bd c28c 4f3d
00000220: 5dff 0fbd bd5b 0fbd 58ed 1cbd d5c6 2dbd
00000230: b149 ae3d ae5c b43c 641d 81bd b881 a63d
00000240: e586 e73d 3e8c be3d 6f25 08be fc4b 0b3d
00000250: f3a1 0dbc 97d1 bf3d f8f9 a4bd a582 693c
00000260: 13cc 8c3d 0795 913d 2036 c4bd 0d8a 0bbe
00000270: b371 08bd fdfd 14bd 7c14 563d 5ef4 e13d
00000280: 5c53 b3bd 3239 40bd 1a70 d6bd 8984 f13d
00000290: 714f 0b3c 0c86 513d 438c 803c d71b 81bd
000002a0: 0863 8bbd 730e f03c 2014 acbc 2e3c 613c
000002b0: fc37 013e 7796 9bbd 4713 893d 76d8 073d
000002c0: ba46 eebd 89eb 1bbc c9de bbbd 93ab c83c
000002d0: d00f a73d da8c bc3c d514 e23c 572a b23d
000002e0: 52ba 9c3d 17d6 f63c eed4 8fbd 409f e9bd
000002f0: 3fcd a33d 99f5 443d 2336 7abd 2703 95bd
00000300: 9040 543c ae67 f0bd 318e 2f3d ce8e 8d3d
00000310: 5e25 3e3d bf4b c2bd a5a7 60bd 2fe4 84bd
00000320: c322 d93d 38c5 f43d 0999 31b9 a774 41bd
00000330: c293 033e d96a 0dbd 7b39 f83a 3ca9 e8bd
00000340: 0542 b33c 6289 0a3e cbec bf3d 308b 903d
00000350: 24e9 aa3d 16b6 edbd 4126 043f d21d 5cbd
00000360: fdda 033e b1d9 253b 7638 e23c 7c89 d6bc
00000370: 3ca2 d3bc 1d4c 4cbb e57a bebd 8dc7 8c3d
00000380: 2101 8e3d a2ca da3c 69fb c43d 076a 47bd
00000390: 2e1e 1fbd 00ed d8bd ed58 f7bd 5597 053e
000003a0: 26b3 ba3d 8294 d23d c6dd c83c 806d e83d
000003b0: dee0 8cbd 27ce c53d f782 70bd 3da6 ff3c
000003c0: d9b6 8a3d b4d8 e23d 6220 87bd d54c 4b3d
000003d0: 97bb 35bd 47fc b63c 852b 173d 49bf f63e
000003e0: 8292 0ebe cdd2 af3d 3bb2 9bbd 6fb3 6cbd
000003f0: de71 45bd 018e 8a3d 7846 91bd 5a43 1d3d
0.050953355 -0.041012194 0.08120596 0.11194932 0.024853159 -0.062622346 -0.0015371293 -0.013101516
-0.040359095 0.016045526 -0.09392774 -0.054917037 0.03178341 0.09582547 0.122916736 -0.082470685
0.0851761 -0.059127416 0.018429171 -0.07502021 0.07889661 -0.082684696 0.42579898 0.017841294
0.05112626 0.015019685 0.0051643313 -0.07783061 0.106282994 -0.080727726 0.0037040033 0.23495011
-0.1402866 0.055734005 0.1782572 0.11769678 0.023422876 0.04156939 -0.07774191 -0.0019543895
0.059416506 -0.037199453 -0.060505968 -0.0039278306 -0.09653944 0.09089878 -0.045726158 -0.005062654
-0.106499605 -0.040764324 0.027568286 0.055790465 -0.053689796 -0.042064782 0.19093706 0.43133527
-0.1355511 0.20524225 0.004142489 -0.013437442 -0.08917174 -0.08472326 0.027053332 -0.0608825
-0.13732809 0.051434927 -0.15672487 0.047608837 -0.053082958 0.043096505 -0.023151036 0.097702146
0.18796521 -0.036954213 0.10556973 -0.12777114 -0.06897663 0.02379697 -0.18270092 -0.08326582
-0.06048951 -0.12336111 -0.06347011 -0.09364585 0.10804132 -0.03747694 -0.09281655 0.00017775272
-0.0177936 -0.036139343 -0.118737385 -0.09858804 0.03099157 -0.041406408 -0.022715319 -0.06115868
0.06047754 -0.16513592 -0.132139 -0.0884779 -0.16458651 0.04371168 0.012987815 -0.14136629
-0.118807964 0.09021465 -0.09411268 -0.029628275 0.040115003 -0.015229879 0.03794103 0.065773636
0.0057901987 -0.17467408 -0.053779636 -0.05812611 -0.14091475 -0.14912233 -0.01469092 0.01867853
-0.036026966 -0.008702872 -0.007615691 -0.12306361 0.062297385 -0.012915993 -0.033180673 -0.065332875
-0.046435714 0.016379196 0.009339868 -0.08362567 0.04385453 -0.10336613 -0.07995009 0.050671346
-0.035155643 -0.034999598 -0.038312286 -0.04242595 0.08510149 0.02201685 -0.06304434 0.08130211
0.11305026 0.09304093 -0.1329553 0.03400801 -0.008644569 0.09366148 -0.0805549 0.0142523395
0.068748616 0.07108503 -0.09580636 -0.13626881 -0.033311557 -0.036375035 0.05226563 0.110329375
-0.08756134 -0.046929546 -0.104706004 0.11792857 0.008502827 0.051153228 0.015691882 -0.06304138
-0.06805998 0.029303765 -0.02100569 0.013747258 0.12619013 -0.07597058 0.0669313 0.033165418
-0.11634584 -0.009516605 -0.09173352 0.024495875 0.08157313 0.023016382 0.027597824 0.08699482
0.07652725 0.030131383 -0.07023035 -0.11407328 0.07998132 0.048085783 -0.061086785 -0.07275992
0.012954846 -0.11738525 0.042860214 0.069120035 0.046422355 -0.09487104 -0.05484738 -0.06488835
0.106023334 0.11951679 -0.00016937045 -0.04723039 0.12849334 -0.034525726 0.0018938029 -0.11360404
0.021882067 0.1352897 0.093713365 0.07057798 0.08345249 -0.11606996 0.5162087 -0.053739376
0.12876506 0.0025306756 0.027614813 -0.026188605 -0.025834195 -0.0031173297 -0.09300784 0.06873999
0.06933809 0.026707951 0.09618265 -0.0486851 -0.03884714 -0.10592079 -0.12077508 0.1304601
0.09116201 0.10282232 0.024519812 0.113490105 -0.068788275 0.09658461 -0.058718648 0.031207198
0.06773157 0.11076489 -0.065979734 0.04963382 -0.044368353 0.022337092 0.036906738 0.48192814
-0.13923076 0.08585129 -0.07602354 -0.05778831 -0.048204295 0.06765366 -0.07093519 0.03839431
