checkpoints/TP_LSTM_L2_bs16_train0baseline02HZ_bsfirst_pos0_downsp_rs_seg100/TP_LSTM_L2_bs16_epoch950.pt (torch, 206200 bytes, 9 tensors)

rnn.weight_ih_l0 f4 [256, 3]
000000 23 b7 a8 bd 95 ac 41 be 45 ae 02 be c7 3a f7 3e
       -0.082380556 -0.18913491 -0.12761791 0.4828703
000010 9d 4f b4 be 89 78 39 bd 89 01 a5 be 0c 57 25 bf
       -0.3521699 -0.045280967 -0.32227734 -0.6458595
000020 cf 63 0a be c4 05 44 be f3 60 21 bf 3b 62 1a be
       -0.13514636 -0.19142824 -0.6303856 -0.15076534
000030 df 97 94 be d8 09 25 bf d3 42 29 be 7e 49 c2 3d
       -0.29022118 -0.64468145 -0.16529398 0.09486674
000040 bc a2 76 3e 40 79 ad 3e 06 48 37 be cc d5 1a bf
       0.24085516 0.3388157 -0.17898569 -0.6048248
000050 fb 95 13 be f9 e0 7f 3e 23 56 c7 3e 55 79 af 3e
       -0.14412682 0.24988164 0.38932905 0.34272256
000060 02 98 7c 3e 02 56 3e 3d c4 16 c6 3d a3 19 63 bf
       0.24667361 0.046468742 0.09672311 -0.88710994
000070 ef e2 21 bf 08 75 78 be 89 93 81 be b5 7a 2e be
       -0.632369 -0.24263394 -0.25307873 -0.17038997
000080 66 11 62 3e 0e 31 2e 3f f4 7b 46 3f 11 4c 12 3f
       0.2207695 0.680436 0.7753289 0.5714732
000090 a4 ce 46 be d7 66 99 bd 68 d9 69 bd 64 06 83 3e
       -0.19414765 -0.07490318 -0.0570921 0.25590813
0000a0 7c 5f 3c 3f 15 1f f6 3e f0 fb 11 3f d5 e7 4f be
       0.735832 0.4807059 0.5702505 -0.2030328
0000b0 bd 9a 04 bb b6 3b 8e 3e 2e a4 68 3d f2 5f 03 3e
       -0.0020233833 0.2777993 0.0567972 0.12829569
0000c0 bc 15 8d bf 8e c9 01 bf 27 ac de be 65 c6 c2 3e
       -1.1022258 -0.50698173 -0.43490717 0.38041988
0000d0 85 60 ab 3d 4d 82 7d 3d 41 65 d9 3e 7d a8 ec 3c
       0.08368019 0.061891843 0.42460063 0.028888935
0000e0 b7 41 90 3d be 7d 3e 3e a8 01 bc bd 30 92 10 be
       0.07043784 0.18602654 -0.091800034 -0.14118266
0000f0 40 0f 2b be 92 ee 0d bf 26 e3 05 be 1c a3 df 3e
       -0.16705036 -0.55442154 -0.13074932 0.4367913
000100 43 f7 43 bd 14 05 b2 bc ac 64 a7 3e c7 d7 3b 3e
       -0.04784323 -0.021730937 0.32693994 0.18344031
000110 4b 8e ba bc e8 c3 30 bd cd 39 8c 3d 44 5a 44 3c
       -0.022772929 -0.04315558 0.06846962 0.011984412
000120 97 a2 31 bf 14 66 90 bf 07 ad 74 3e c2 c6 13 3e
       -0.6938872 -1.1281152 0.2389413 0.14431289
000130 57 f5 b2 3e 96 6d a7 3e 4a 73 58 3e 9d 0c 7a 3d
       0.34952804 0.32700795 0.2113773 0.061047185
000140 1d 5d a5 bd 1e ed a8 bf e1 e4 36 3d c9 17 4e 3c
       -0.080744006 -1.3197362 0.04465187 0.012578913
000150 0e 00 ed be 52 60 0a bf 41 2b 63 be 8e 62 0d bc
       -0.46289104 -0.54053223 -0.22184469 -0.008629454
000160 87 15 f4 bd f0 e0 72 bd 23 b9 87 3c f1 e5 1f 3d
       -0.119181685 -0.05929655 0.016567772 0.03903765
000170 eb 78 9c 3e 03 29 38 3d 94 3e c3 be 32 30 46 3d
       0.30561003 0.044960987 -0.3813368 0.048385806
000180 c1 e9 b5 be 4e 0a c9 be 67 32 86 be 13 fb 46 bf
       -0.35529903 -0.39265674 -0.2621033 -0.7772686
000190 1f 5b 26 bb b4 fb 8a bb 96 44 91 3d 9d d1 84 be
       -0.0025383902 -0.004241431 0.0709316 -0.25941172
0001a0 fd ca 79 be 19 ff d6 be ca 69 7a 3d c9 9c 23 3e
       -0.2439384 -0.419915 0.061136045 0.15977778
0001b0 bc 0d 9a 3e 99 77 87 3e 7d db 99 3e 4a 73 44 3f
       0.30088603 0.26458433 0.3005027 0.7673842
0001c0 50 25 5f 3e 09 ed bb 3e 20 37 a2 3e 0c f8 c3 bd
       0.21791577 0.3670428 0.31682682 -0.095687956
0001d0 49 b4 84 bd 0e f6 a1 3d 9d 71 7a be b3 2f 5a be
       -0.06479699 0.07908259 -0.24457403 -0.21307258
0001e0 82 a8 e8 3e 88 44 5f 3f af 10 36 3f d9 a7 58 3d
       0.4544106 0.87213945 0.7111921 0.052894447
0001f0 af 26 b3 3e 34 e5 3e 3e 95 35 33 3e cd c2 ba bd
       0.3499045 0.18642122 0.17500909 -0.091191866
000200 e2 8f c3 bb fe 02 ce bd 4f 06 a6 3b 48 a3 80 3e
       -0.00596808 -0.100591645 0.00506667 0.25124574
000210 54 f0 ad 3e 57 f7 05 be 98 99 00 be 1c 40 bb bd
       0.33972418 -0.13082634 -0.12558591 -0.09143087
000220 c5 07 07 3f 47 ee d2 3e 84 9b 8d bd de f9 84 3e
       0.5274623 0.41197416 -0.06914428 0.25971884
000230 29 54 6c 3e 98 da 8e be d4 16 51 bf 07 f7 1c be
       0.2307898 -0.2790115 -0.8167546 -0.15328608
000240 f3 70 8d be fd a2 5a bf a4 62 a4 3c cc 33 05 3f
       -0.27625236 -0.8540495 0.020066567 0.5203216
000250 86 4d 1b 3f 8b 57 03 3f 36 ee 88 be da 40 6a bf
       0.60665166 0.51305455 -0.2674424 -0.91505206
000260 a2 53 06 be de b0 84 be 16 33 cb be 77 8e e8 bd
       -0.13117841 -0.2591619 -0.39687413 -0.11355298
000270 f6 a7 a9 be 02 94 9c 3c 52 9d fe 3d f4 2d 21 bf
       -0.33135957 0.019113544 0.1243235 -0.62960744
000280 0d 45 de bf 2e 2b 49 3e 22 4e e5 3d 62 6b c0 be
       -1.7364823 0.19645378 0.11196543 -0.37581927
000290 13 d9 02 bf 03 76 de 3e b7 02 d7 be c4 51 13 3e
       -0.5111248 0.4344941 -0.4199426 0.1438666
0002a0 41 7c d8 bb c2 2e a8 be 48 20 44 be 54 84 12 bf
       -0.006606609 -0.32848173 -0.1915294 -0.57233167
0002b0 4a e8 b4 bf 42 5e 98 3d 5e 9d b8 3d f8 52 6f be
       -1.4133389 0.07439853 0.090143904 -0.23371494
0002c0 bf 32 7b be a2 60 7f bf 1b 84 2c bf 09 f4 17 3e
       -0.24531077 -0.99756825 -0.67389077 0.14839186
0002d0 8d 13 2d 3f 7c fb bb 3e 98 bc ed 3e 0b 56 6f 3f
       0.6760796 0.36715305 0.46432948 0.93490666
0002e0 dc eb 80 3f 75 1b 5d 3f d6 61 86 be 00 b3 39 bf
       1.0071979 0.8637002 -0.26246518 -0.7253876
0002f0 a9 90 32 be a1 2e 1a be 4e c2 1c be d1 19 1e be
       -0.17437996 -0.1505685 -0.15308496 -0.15439536
000300 a5 59 2b 3e bb 58 bf 3e 19 6a d1 3e 09 38 2b 3e
       0.16733415 0.37372383 0.4090126 0.16720594
000310 b5 fd 54 be 03 8b f7 bd c0 07 8a bd cc ce 1d be
       -0.20799907 -0.12087061 -0.067397594 -0.15410918
000320 cf 74 0d bd 46 07 04 bd 6b 9f 61 be a0 3e 18 bd
       -0.034535225 -0.0322335 -0.2203347 -0.0371691
000330 dc 4d 9b bd ed b1 86 be e8 aa 9e bd 60 d7 de be
       -0.0758321 -0.26307622 -0.077474415 -0.43523693
000340 e1 e1 96 be 43 7c 2c be ba ca 4d bd be 6e 4b be
       -0.29469207 -0.16844277 -0.050242163 -0.19866464
000350 ff b4 3f bd a9 ba 80 3e 49 23 03 be 31 d6 ff bd
       -0.04680347 0.2514241 -0.12806429 -0.12492026
000360 7a 4d 0b 3e bd 95 8c bd 78 22 6c bd 17 8c de bc
       0.13603774 -0.06864498 -0.05765006 -0.02716641
000370 c0 74 8d 3c 8c 4c 01 3e 4d bf 06 be 50 a5 0d bf
       0.017267585 0.12626857 -0.13158913 -0.5533037
000380 fc 67 5a be 45 89 43 bf 9b ce f6 be 52 f0 76 be
       -0.2132873 -0.7638133 -0.48204502 -0.24115112
000390 73 b0 56 3c 6c 4d 9f 3e 43 9c 1e 3e 1b 7e eb bd
       0.013103592 0.31113756 0.15489297 -0.11498662
0003a0 1e 11 56 be a2 5c 69 be 18 fd c9 3e e8 f8 85 3d
       -0.20904967 -0.22789243 0.39450908 0.06541616
0003b0 c4 1d 4b b9 ab f0 d7 3e c9 6f 9d be f1 ee 93 be
       -0.00019370677 0.42175803 -0.30749348 -0.28893235
0003c0 bc 96 46 be d6 d1 9e 3e e3 fe a7 3e 94 e2 23 3e
       -0.19393438 0.31019467 0.3281165 0.16004401
0003d0 b1 d7 46 be 73 f9 ca bd d9 2a a1 3d 8a a0 93 bd
       -0.19418217 -0.0991086 0.07869501 -0.07208355
0003e0 d1 51 3e bd ae 53 02 3f 1e 16 71 3e e5 46 a4 3d
       -0.046464745 0.50908935 0.23543593 0.080213346
0003f0 d0 81 4f bd 6a 62 3e be dc 66 26 bd 32 15 23 3d
       -0.05066091 -0.1859223 -0.040625438 0.039815135

rnn.weight_hh_l0 f4 [256, 64]
000000 0d 72 f1 3c 3b aa 11 3e 8e 50 18 3d 38 93 41 bc
       0.029473329 0.14225094 0.037186198 -0.011814885
000010 dc c0 5b bd 5a c3 89 3e 98 ff 1e bd f1 24 29 be
       -0.053650722 0.26906854 -0.038817972 -0.16517998
000020 cf 70 93 3e bd c7 d2 bb 8f 84 7f 3a b4 31 8c 3d
       0.28797004 -0.006432502 0.0009747231 0.068454176
000030 40 c7 7e be 10 fe 1e 3f 03 1c c9 be 35 54 9e bd
       -0.24880695 0.6210642 -0.39279184 -0.07730905
000040 11 dc 1b bf ff b6 c2 be d7 0c ad 3c 10 77 5f 3e
       -0.6088267 -0.3803024 0.021124287 0.21822762
000050 d1 f7 3a bd bf 6c 88 3e 1d 3f 6e be 2d c6 a5 bc
       -0.045646492 0.26645467 -0.23266263 -0.0202361
000060 16 13 78 3e 23 2d 03 bf 71 61 66 3e 92 be 1b 3f
       0.2422603 -0.5124075 0.22498108 0.6083766
000070 8e a6 c4 bd 5c 58 c5 be 25 ce 3f 3e 86 fb 93 3e
       -0.0960208 -0.38543975 0.18730982 0.28902835
000080 7b ac 89 be fa 1f 23 3e 2f e6 59 3e a4 57 13 3e
       -0.26889405 0.15930167 0.21279214 0.14388901
000090 34 85 37 3e 98 40 36 3e 6d d5 d7 be 29 47 be 3e
       0.17921907 0.17798078 -0.42155018 0.37163666
0000a0 b3 33 2e bf 2f 56 4d be 65 f9 1c bf ee db 81 3e
       -0.68047637 -0.20052408 -0.61318046 0.25363106
0000b0 0e 6a 0a be d3 37 c2 3e 74 30 89 3c d7 40 3c bd
       -0.13517019 0.37933215 0.016746737 -0.045960274
0000c0 32 75 54 be b8 3b 9a 3d 17 b2 6d 3c c9 01 58 bd
       -0.20747831 0.07530922 0.014507792 -0.052736077
0000d0 cc 38 28 3f db 95 9f 3d 23 93 3e 3e dd cb ac 3c
       0.65711665 0.077922545 0.18610816 0.021093303
0000e0 b2 14 02 3f 26 e1 b6 bc 1a f3 c4 3b 36 a5 ea 3e
       0.5081283 -0.022324156 0.0060104253 0.4582917
0000f0 1f 37 dd bd cd ed 15 bf f3 69 fd bc 26 9d 0b be
       -0.10801529 -0.5856598 -0.03093431 -0.13634166
000100 c1 5a e2 bd 6f 8f fd 3c ff 2a 84 b9 65 64 c9 ba
       -0.11052466 0.030952184 -0.00025209037 -0.0015365003
000110 c6 c6 55 3c 42 52 04 be ee ff 6e 3b ca 6a 16 be
       0.01304788 -0.12922004 0.0036468464 -0.14689174
000120 62 78 94 bc dc 6a 86 bd 5a 1e 3b 3e 0d f4 bb 3e
       -0.01812381 -0.065633506 0.18273297 0.36709633
000130 6d 21 45 be 95 3c 73 3d 47 3d 8a 3d 11 da b6 be
       -0.19251032 0.059383947 0.06749969 -0.35713246
000140 8b 2e d0 3d 5f 91 80 be 04 4c 9a bd 23 87 d8 3a
       0.10165127 -0.2511091 -0.0753403 0.0016519766
000150 08 71 5b 3b b5 0c 96 bd be 7b 96 be 12 37 19 bd
       0.003348412 -0.073266424 -0.29391283 -0.037406035
000160 56 cb dd bd a9 1a bf bd 4c 37 e1 3b 28 7a 80 3c
       -0.10829799 -0.09331257 0.006873047 0.015683249
000170 21 e2 aa 3b 2a 00 47 bd 2d 50 26 3d 36 5e 06 3e
       0.005214945 -0.04858414 0.040603805 0.13121876
000180 31 ac cc 3c ba 07 fa bd e9 a1 c6 bc 6b a9 cf bb
       0.024984451 -0.12208505 -0.024247127 -0.006337335
000190 01 6b c4 3e 40 a5 73 be 4a ca df bc 89 a5 38 be
       0.38362888 -0.23793507 -0.027318139 -0.18031897
0001a0 c2 bd b8 3e 11 cb cd bc d8 20 fa bd 52 cb f3 bd
       0.36082274 -0.025121244 -0.12213296 -0.11904015
0001b0 25 c1 3f bb ae cf c1 3e 3f 15 31 3d a8 59 98 3a
       -0.002925941 0.3785376 0.043233152 0.0011623399
0001c0 63 68 2d be 2b f9 58 be e4 e5 3e 3b 0e 66 1c 3d
       -0.16934352 -0.211888 0.0029128725 0.038183264
0001d0 1d aa 54 3e 83 1c e5 bb e9 da 57 be df 3d 17 3e
       0.20768018 -0.0069919243 -0.21079601 0.14769696
0001e0 b8 03 a8 3d e7 ef 0c 3c 43 14 c0 bc 19 43 86 3c
       0.08203834 0.008602119 -0.023447162 0.016389417
0001f0 07 02 d6 3e d8 db 94 bd 87 2d 85 3a 14 ff 3b bc
       0.41798422 -0.07268494 0.0010160663 -0.01147439
000200 56 e7 2a be 48 63 97 3b 7a 58 44 3c 3e 54 8d 3b
       -0.1668981 0.0046199895 0.011983985 0.004313021
000210 c7 ce 88 3b 6c e5 ec bc 92 98 91 bb 33 fc e4 3c
       0.0041750404 -0.02891799 -0.0044432366 0.02795229
000220 96 e6 13 bd 06 0e 00 bd 09 d5 94 bb 2f 56 d8 bb
       -0.036108576 -0.031263374 -0.0045419973 -0.0066020708
000230 09 54 aa bd 62 f4 cc bc fa 60 97 3d 65 9c 2d b9
       -0.0831681 -0.025018875 0.07391544 -0.00016556827
000240 85 0f 2d 3d 5c 82 8c bb 6b 97 45 bd 4d dc 28 bd
       0.04225113 -0.004288001 -0.048240107 -0.04122572
000250 00 8a e0 ba a4 ae 5b bc f3 3d 53 be 6e e7 0a 3c
       -0.0017130971 -0.013408337 -0.206291 0.008478029
000260 eb 73 98 bc f9 da 11 3c 55 a6 89 bd 68 e9 60 3c
       -0.018609961 0.008902305 -0.067211784 0.013727523
000270 44 ab e7 3a 77 d9 0e 3c de 86 c4 b9 b4 c5 5b 3c
       0.0017674943 0.00871884 -0.00037484517 0.013413835
000280 60 9d 43 bb e8 85 17 3c d6 1a 41 3b 38 8e de 3b
       -0.0029848441 0.009248234 0.0029465458 0.006791856
000290 a2 ba 2a 3d 2c 54 82 3c 9b f4 79 3b 88 d1 ab bd
       0.041681893 0.015909277 0.003814018 -0.08389574
0002a0 da a7 bd 3c 31 49 31 bc 29 10 00 3d e6 2c 08 3c
       0.023151327 -0.010820673 0.03126541 0.008311486
0002b0 18 d2 97 3b a2 b6 d6 ba 32 56 af ba 3e 06 20 3c
       0.0046331994 -0.0016381333 -0.0013377129 0.009767113
0002c0 86 9f 05 bc d9 1d 19 3c 2a c3 43 bc a6 15 98 bb
       -0.008155709 0.009345495 -0.011948386 -0.0046412526
0002d0 60 6d ce 3c f0 a6 bb bc 95 86 82 bd 19 c6 fc 3b
       0.025198638 -0.02290675 -0.06373326 0.007714045
0002e0 f4 f6 43 bc c7 3e b5 3c 38 51 01 bb f8 a8 b3 3b
       -0.011960734 0.022124661 -0.0019732248 0.005482789
0002f0 49 9c 0e 3c 6d 5b b4 bc 45 6d 6a 3b f0 6b ca ba
       0.0087042535 -0.022016251 0.0035770696 -0.0015443545
000300 4f be c5 bd b8 3e b5 3a 94 e7 3a 3b 04 27 6d 3a
       -0.09655439 0.0013827896 0.002851938 0.00090466463
000310 f3 02 10 3b fb 04 57 bc 77 ed 76 ba 44 05 06 3c
       0.0021974414 -0.013123746 -0.00094195403 0.008179966
000320 d1 e2 39 3c 3b c1 d5 bb 1a 56 d6 3b 96 26 e6 3b
       0.011345581 -0.006523279 0.006541026 0.007023643
000330 21 ba 61 bd 0c b3 17 bc ce ac 7e 3c 8a 10 26 bc
       -0.055109147 -0.009258997 0.01554413 -0.010135779
000340 54 94 94 3c 46 86 38 bc 3c 32 ed bb d2 ae 6c 3c
       0.018137135 -0.011262482 -0.0072386544 0.014445977
000350 66 c3 df b8 68 04 6c 3b d6 ce 80 be bf ee 79 ba
       -0.000106698644 0.0036013369 -0.25157803 -0.0009534172
000360 57 18 2e bc 39 96 1f 3c 8d e3 85 bc ef f5 bc 3d
       -0.01062592 0.009740406 -0.016343856 0.092265956
000370 b0 e4 a1 36 30 49 95 bb 4c 7a 18 b9 d0 5b aa 3b
       4.8247966e-06 -0.004555844 -0.00014541409 0.005198933
000380 cb 13 35 b9 0c bb 21 ba ef af 05 3b 5f ac 21 3a
       -0.00017268879 -0.0006169535 0.0020399054 0.0006167348
000390 2e d6 d9 3c a2 92 09 bc d8 ce 0d 38 8d 8f 08 bd
       0.026591387 -0.008396776 3.3809658e-05 -0.033340026
0003a0 8f 54 f0 3c b6 13 63 3b 72 c5 08 3a ac e3 12 3b
       0.029337196 0.00346492 0.000521741 0.0022413535
0003b0 37 ca 2e b9 c0 67 d2 ba af 40 92 bb a4 94 54 3b
       -0.00016669264 -0.0016052648 -0.0044632773 0.003243723
0003c0 e0 43 79 bc b0 43 e5 ba be 61 9e bb ce 11 5f bb
       -0.015213937 -0.0017491486 -0.004833429 -0.0034037712
0003d0 d3 c4 14 3e 2e 96 82 bc a8 76 39 bc d5 03 26 3c
       0.14528207 -0.015940752 -0.011319794 0.01013275
0003e0 f4 0e 59 3c 4f d8 82 3c f7 d9 7f ba cb 46 f2 3b
       0.013248194 0.015972285 -0.00097599573 0.007393693
0003f0 49 75 7e 3c 44 2f f0 bc df 01 d6 3a e0 86 1d ba
       0.015530893 -0.029319413 0.0016327462 -0.00060091726

rnn.bias_ih_l0 f4 [256]
000000 5c 9e a5 bd e9 a5 0c bd 6e 28 d6 be ad 3e 20 bf
       -0.08086845 -0.03433791 -0.4182772 -0.62595636
000010 a9 4f bb be 4b 30 ed 3e 3a c0 1d bf 4e 7d 10 3f
       -0.36584213 0.46325907 -0.6162144 0.564412
000020 58 35 d8 3d 0c 32 bf be 4d 0c 73 3e dd 7a 76 3f
       0.105570495 -0.3734287 0.23735161 0.96281224
000030 25 49 82 3c 02 23 30 3f 66 ea b5 3d b5 4b 4a 3e
       0.015904019 0.6880342 0.088825986 0.19755442
000040 b2 37 8f be 75 f0 4d 3e ff fe 8d 3d f3 f2 07 be
       -0.2797218 0.20111258 0.06933402 -0.13276272
000050 18 d4 10 bf 48 30 e9 3d 2e 78 98 3c 42 3d 14 3d
       -0.5657363 0.11386162 0.018611994 0.036191233
000060 18 1e 53 3e 92 12 b9 3e 88 18 65 3d 99 fa 35 3d
       0.20616949 0.3614698 0.055931598 0.04442844
000070 d8 34 09 bf a8 99 c8 bd d8 34 97 3e c5 17 09 3e
       -0.5359626 -0.097949326 0.29532504 0.13387974
000080 ce 5a 70 be 49 e2 b5 bc 08 b9 52 be d7 4f 99 3d
       -0.23472139 -0.022202628 -0.20578396 0.07485931
000090 a9 dd b1 3e 67 58 16 3f c3 7e fa bd 52 75 c9 bc
       0.34739426 0.5872864 -0.12231209 -0.024592075
0000a0 07 92 69 3f 9e c4 9f 3e 76 dc 29 be d6 24 7c 3e
       0.91238445 0.31204695 -0.16588005 0.24623427
0000b0 d6 ad 8e be f8 43 28 3f 63 1a b6 3e 90 2c 06 bf
       -0.27867 0.6572871 0.35567006 -0.52411747
0000c0 7b 34 a6 bd 76 a2 f4 3e c8 13 d1 be 4d 43 33 be
       -0.081154786 0.47780198 -0.40835404 -0.17506142
0000d0 c7 64 9f bd 02 69 15 3e 03 02 e7 be c8 db 8d 3e
       -0.07782894 0.14590839 -0.45118722 0.27706742
0000e0 79 be db bd bc 29 e4 3c bb c2 ee be f7 d6 dc 3d
       -0.10729689 0.027851932 -0.46632943 0.10783189
0000f0 78 88 27 3f e6 96 87 3f 75 12 22 bf ff 83 10 be
       0.6544261 1.0592926 -0.63309413 -0.14112853
000100 d2 54 67 3e 30 e8 95 be b7 20 44 be 5a f6 72 be
       0.2259095 -0.29278708 -0.19153105 -0.23726788
000110 4c a3 97 be e6 5d ae be 94 1e 53 be 1d 7b 25 be
       -0.29616773 -0.34056014 -0.20617133 -0.16160245
000120 6c a2 86 bc 86 e0 b1 3d 9e 81 05 bf bc 84 07 bf
       -0.01643487 0.086854026 -0.52150905 -0.5293691
000130 73 d2 cb 3d 68 7d 60 be 50 9f 10 3b 26 09 97 be
       0.099522494 -0.21922839 0.0022067614 -0.29499167
000140 32 f5 89 3e e4 1a 46 be 64 43 bc bc 41 41 4d 3e
       0.26944882 -0.19346195 -0.022981353 0.20044424
000150 35 62 41 be 72 3b 99 bc 67 b1 b8 3e c3 08 f4 be
       -0.1888512 -0.018705104 0.36072847 -0.47662935
000160 73 33 5c be 01 19 c7 be c4 8f 7d 3d 09 6d 45 3d
       -0.21504001 -0.38886264 0.061904684 0.048199687
000170 ba 61 64 be 6a 37 26 be 48 3d 01 bf 43 b9 94 be
       -0.22302905 -0.16232076 -0.5048413 -0.29047593
000180 24 bc c1 bd 11 20 01 bf 45 f3 9c be 16 ca e6 be
       -0.09459713 -0.50439554 -0.3065435 -0.45076054
000190 f3 95 f4 bd f8 d3 3e be f2 6c 83 be 0c f2 e1 3e
       -0.11942663 -0.18635547 -0.25669056 0.4412998
0001a0 39 be 26 bf ba 6f ee be ef 55 3d 3d 40 84 ea be
       -0.65134007 -0.46569616 0.04622453 -0.45804024
0001b0 d4 ea be bd d4 b6 70 be 78 75 e2 be ce 94 65 be
       -0.09322134 -0.23507243 -0.44230247 -0.22420046
0001c0 12 f8 db 3d d4 c6 93 be 8d 6e 80 be 5e 9d dc be
       0.10740675 -0.2886263 -0.25084344 -0.43088812
0001d0 dd e0 b7 3e 9f 74 ca be 52 33 b3 3e 2f f5 93 be
       0.35913745 -0.395421 0.35000092 -0.28897998
0001e0 e8 7c fc 3d 8a 2f d1 be 8d ed 46 be 31 7c 93 bd
       0.123285115 -0.40856582 -0.19426556 -0.07201422
0001f0 66 fc b0 be c6 7f 73 be bf d4 5d be d1 90 92 be
       -0.34567565 -0.2377921 -0.21663187 -0.2862611
000200 31 88 94 3c 88 43 94 3d 3d aa 41 be df 62 94 bc
       0.018131347 0.07239443 -0.18912597 -0.018113552
000210 77 93 97 bd bb 4b 5b 3d cb e4 0b 3d 8d 36 9d bc
       -0.074011736 0.05353902 0.03415374 -0.01919105
000220 bd 73 1d 3d 1c 69 95 3d 94 0f 44 be e7 37 02 be
       0.038440455 0.07295439 -0.19146568 -0.12716638
000230 53 6a 17 bd f1 d9 8f 3d 7e f2 3b 3e b0 a4 81 3c
       -0.036966633 0.07023991 0.18354222 0.0158256
000240 2a 05 6c bb 3e a5 cb 3d e1 7b 0f be a2 f7 a7 bd
       -0.003601382 0.09943627 -0.140121 -0.08201529
000250 c5 9b 4f 3b 4b d4 f1 3c d1 e8 3f 3d cc 1f 08 3d
       0.003167854 0.029520174 0.04685289 0.03323345
000260 fd 2e 37 3e 88 62 d1 bd a9 9d ef bd a7 a5 51 bd
       0.17889018 -0.102238715 -0.11699993 -0.05118337
000270 1c a3 9c bc d6 b5 63 3d 6d 73 e4 bd 54 2a 96 3c
       -0.019120745 0.055593334 -0.11154828 0.01833073
000280 01 0a 12 3d 67 58 a3 bd 65 c7 4f bd 4e ba b6 bc
       0.03565407 -0.07975846 -0.050727267 -0.022305634
000290 c1 f3 5d 3d 6f 9c b6 bd 18 8e 37 3d 71 72 0f 3d
       0.05418754 -0.08916556 0.044813246 0.03502125
0002a0 2d 1c d0 bc d9 09 cb bd b5 85 d6 3d d9 7b 9a 3c
       -0.02540406 -0.09913988 0.10474721 0.018857883
0002b0 53 6c 0b bc c5 aa c5 3d a9 ed d4 bd 53 7d e3 bd
       -0.008509713 0.09651712 -0.103968926 -0.11107888
0002c0 d9 b0 dc 3d 76 0d 4c bd 19 73 99 3d 5f fb 97 3c
       0.107759185 -0.049817525 0.07492656 0.01855248
0002d0 a2 dc bc bc 4c 4d d5 3d 4a aa 42 3c 27 f9 02 be
       -0.023054425 0.10415134 0.01188142 -0.12790357
0002e0 b2 d3 a1 bd a1 0b 58 be 2c 52 38 3d 95 2b 99 bd
       -0.07901706 -0.21098186 0.04500024 -0.07479016
0002f0 4a 7c 07 be f5 71 21 bd 5a 79 06 bd 68 d8 92 bc
       -0.13231006 -0.03941532 -0.032830574 -0.017925456
000300 78 10 75 3e 16 94 50 3d 96 2e f1 be 00 f6 22 bf
       0.23932064 0.050922476 -0.47105855 -0.63656616
000310 9f fe 77 be 2c cc bf 3e cc 7b 1d bf f5 e4 17 3f
       -0.24218224 0.37460458 -0.61517024 0.59333736
000320 de dc 8e 3d a6 0e 80 be 02 9e 4f 3e 2e c9 68 3f
       0.06975721 -0.25011176 0.20275119 0.90931976
000330 47 a4 0d be 82 1f 06 3f a9 27 55 3e 43 4a 33 3e
       -0.13832198 0.5239183 0.2081591 0.17508797
000340 85 5e 51 be ee 6c 9a 3c 97 42 04 3e f6 ec b5 ba
       -0.20446213 0.01885077 0.12916027 -0.0013879824
000350 b5 ef 10 bf 08 7a ea 3c 5f 8e 47 3e ab 80 69 bd
       -0.56615764 0.028622642 0.19487904 -0.057007473
000360 6f 29 f9 3e a7 94 ce 3e 2d 4f 07 bd 9f 3b 36 3c
       0.48664424 0.40347788 -0.033034492 0.011122613
000370 51 41 e8 be 37 61 e0 bd 1c c5 e6 3e 41 69 47 3e
       -0.45362332 -0.10956042 0.45072258 0.19473745
000380 0f d2 c4 be 58 b1 9a 3d 3a 82 36 be 99 2f 03 3e
       -0.38441512 0.07553357 -0.17823115 0.12811126
000390 08 6b 0d 3f c3 73 f7 3e 25 2f 89 bd 93 31 27 be
       0.5524144 0.48330507 -0.06698445 -0.16327505
0003a0 95 2e 5f 3f d7 b3 eb 3e 22 df 10 3d 98 9e 03 3e
       0.87180454 0.46035644 0.035369046 0.12853467
0003b0 fb 6f 99 be 51 a3 39 3f 17 79 c6 3e 3a 01 00 bf
       -0.29968247 0.72514826 0.3876426 -0.5000187
0003c0 16 22 25 3e 4f 37 30 3f 55 25 cc be f1 ef 53 be
       0.16126284 0.68834394 -0.39872232 -0.20696999
0003d0 f8 bd ba 3d 57 98 69 3e cd d8 55 be a5 84 83 3e
       0.09118265 0.2281202 -0.20883484 0.25687137
0003e0 34 30 a5 bd 79 c3 df 3d 35 cd dd be 00 3a f8 3d
       -0.08065835 0.10925955 -0.43320623 0.121204376
0003f0 9a 4c 30 3f ff 88 78 3f 91 e5 0d bf ac ff 7d be
       0.68866885 0.9708404 -0.55428416 -0.24804562

rnn.bias_hh_l0 f4 [256]
000000 23 d6 7e bd 41 6d f7 bd 5a d0 ff be bd 4d 20 bf
       -0.062215935 -0.120813854 -0.49963647 -0.6261862
000010 7d 2e 86 be 11 d6 e9 3e 4a 49 1d bf 40 b0 0f 3f
       -0.26207343 0.45671132 -0.61439955 0.5612831
000020 2a b5 cd 3c 84 7c b5 be e1 89 a2 3e f5 ce 57 3f
       0.0251108 -0.3544656 0.31745818 0.84300166
000030 f3 62 04 be 74 21 03 3f 9e 89 f6 3d 14 b8 4f 3e
       -0.12928371 0.5122292 0.12037967 0.20285064
000040 34 0f 84 be 60 ee 0c 3e 10 12 2d bc 13 fb 83 be
       -0.2579285 0.13762808 -0.0105633885 -0.25777492
000050 fa e6 10 bf 02 3e 8e 3b a2 a6 c9 3d b2 4c 49 bd
       -0.5660244 0.004340888 0.09846236 -0.049145408
000060 31 cd 89 3e 5a be cc 3e 71 cb 86 bd da e0 45 3d
       0.2691436 0.39988977 -0.06581772 0.04831014
000070 62 53 02 bf d9 0f ab bb 2d f3 7f 3e 9e f1 f9 3d
       -0.5090848 -0.005220395 0.24995108 0.12204288
000080 c0 f6 7e be 5b 8d 7c bd 54 12 38 be 6a 46 2e 3e
       -0.24898815 -0.061658245 -0.17975742 0.17019048
000090 a1 6c 93 3e 80 78 f9 3e 3b 61 05 bd 60 b4 04 be
       0.28793815 0.48724747 -0.03256343 -0.12959433
0000a0 46 8e 5b 3f ac 18 3c 3e 05 54 43 3d 29 ec b1 3e
       0.8576397 0.18368787 0.04768755 0.34750488
0000b0 b5 bf 94 be 9e a3 31 3f e1 61 81 3e 06 1b 0a bf
       -0.2905251 0.69390285 0.25269988 -0.53947484
0000c0 03 8a d0 bb a2 95 22 3f d1 ef d3 be 20 e4 72 be
       -0.0063641085 0.6350957 -0.41393903 -0.23719835
0000d0 c1 22 18 3c 93 1a 11 3e f9 76 c3 be a6 e9 80 3e
       0.00928563 0.14170294 -0.38176706 0.2517826
0000e0 3c 13 46 be f3 56 ab 3b d8 07 ac be 50 ef a7 3d
       -0.19343275 0.005228871 -0.33599734 0.08199942
0000f0 3d d4 3d 3f 16 79 89 3f 6f cf 0a bf 95 ba 6a bd
       0.74151975 1.0740077 -0.5422277 -0.057306845
000100 2a 11 a6 3e cc bf 10 be d2 d1 3d be a6 fa 72 be
       0.3243497 -0.14135665 -0.18537071 -0.23728427
000110 8d 1e 9a be c9 2e 9c be 8e 1e 53 be 54 32 8d be
       -0.30101433 -0.30504444 -0.20617124 -0.2757746
000120 9c a0 2a 3d 46 0e 13 3e fe 71 09 bf 5f 86 c9 be
       0.041657075 0.14360914 -0.53689563 -0.3936033
000130 04 96 61 3e 65 94 88 be 7f 4b 56 3d 3f 5d a8 be
       0.22029883 -0.26675716 0.052318092 -0.3288364
000140 78 9c 9a 3e 68 4a 4b be b0 4e 58 bd 68 5c c4 3c
       0.301975 -0.19852602 -0.052809417 0.023969844
000150 35 62 41 be 52 ea 87 bd 54 67 b9 3e 08 e4 00 bf
       -0.1888512 -0.0663649 0.36211646 -0.5034795
000160 8b 3b 49 be 15 6a c9 be c6 6a c5 3c dd 0f 19 3e
       -0.1965162 -0.39338747 0.024098765 0.14947458
000170 0c 14 66 be ac 65 69 be 5d 3e 01 bf 1a 07 a7 be
       -0.22468585 -0.22792691 -0.50485784 -0.32622606
000180 89 bf 9d bc fb b9 f7 be e4 fe c8 be df d9 e5 be
       -0.01925637 -0.4838408 -0.39256966 -0.44892785
000190 53 5d 44 bc d7 bf 3d be 35 9c 1b be 26 a4 a8 3e
       -0.011985141 -0.18530212 -0.15196307 0.32937735
0001a0 41 8d 30 bf 49 4b f9 be f7 58 db 3c 69 31 a7 be
       -0.68965536 -0.4869025 0.02677582 -0.32654884
0001b0 43 dc ff bd 3d a1 2d be 27 cc f7 be 33 3c 65 be
       -0.124931835 -0.16956039 -0.48397943 -0.22386245
0001c0 8f 2a a9 3e bb 3d 4f be dc 7d 80 be bc 51 e4 be
       0.33040282 -0.20238392 -0.25096023 -0.44593608
0001d0 5c 1b b7 3e 81 71 ca be 84 a8 90 3e 82 a6 45 be
       0.3576306 -0.39539722 0.28253567 -0.19301799
0001e0 b6 0d b5 3d 71 b5 d0 be 2c ba f3 bd 75 5e ba 3d
       0.08840506 -0.4076343 -0.11900744 0.091000475
0001f0 69 23 b8 be 52 f4 3f be 49 c5 61 be 08 63 ca be
       -0.35964516 -0.18745545 -0.22047915 -0.3952868
000200 74 f4 da bd a2 f3 16 be b1 e8 b9 bb f8 64 de bd
       -0.10691157 -0.14741376 -0.005673491 -0.10859102
000210 fb 19 13 be f9 db be 3d 74 bd 37 3d 83 7d 1b 3e
       -0.1436538 0.093193 0.04485841 0.15184598
000220 09 59 0c be 08 78 a8 3d 55 62 50 bd 90 02 22 3d
       -0.13705839 0.08226019 -0.050875027 0.039553225
000230 71 eb 85 3c 82 7d 18 be 7f 58 27 3d 94 9b b8 3d
       0.016347619 -0.14891627 0.04085588 0.09014049
000240 ed 25 8b bd 73 f3 43 3d 9b 60 69 bd c7 a6 58 3d
       -0.06794343 0.047839593 -0.056976896 0.052893426
000250 85 c9 0a 3c 61 12 bc bc c7 27 ac ba 22 1c 0c be
       0.008470898 -0.022957982 -0.0013134413 -0.13682607
000260 5e 5c 79 3e 04 c7 87 bd a1 ad b2 3c ba 3b 58 3d
       0.24351642 -0.06629756 0.021811308 0.052791335
000270 b2 c3 58 3d d4 9c ba 3d 59 0e 48 bd 4f f0 57 be
       0.052921005 0.09111944 -0.048841808 -0.21087764
000280 88 e4 a8 bc 15 29 06 bd 8a 80 fa 3a a5 08 1d be
       -0.020616785 -0.032754023 0.0019111794 -0.15335329
000290 fb 5f b9 3d 08 8a bc bc 2c de f8 bc 7f a8 98 bc
       0.0905151 -0.023015037 -0.030379377 -0.018635033
0002a0 04 e4 94 bd 93 a3 97 3d 14 48 2f bd ec 63 b7 bd
       -0.07270053 0.07404246 -0.04279335 -0.089546055
0002b0 80 b1 16 3e 8d 57 95 3d 23 b4 ba 3d b3 38 ed bd
       0.14716148 0.072920896 0.091163896 -0.1158308
0002c0 64 e0 4a 3e c7 31 98 bc 89 37 35 3e 96 ee b6 3d
       0.1981216 -0.018578423 0.17696966 0.089322254
0002d0 bc 1d a0 3d 4c b7 8f 3e 2e 9a a7 bd 16 24 1c be
       0.078181714 0.28069532 -0.08183704 -0.1524814
0002e0 37 f5 13 3d 3e 7f 45 be ca ec a7 3d d4 a1 9d bd
       0.036122527 -0.1928682 0.08199461 -0.07696882
0002f0 26 12 a4 bd ae b8 42 3d 58 64 ec bd 96 85 c4 3d
       -0.08011274 0.047539406 -0.115425766 0.09595792
000300 13 a4 fe 3d cc 2d df bd 90 2e e8 be e7 4d 22 bf
       0.124336384 -0.10897407 -0.45348024 -0.6340012
000310 ff 0a 95 be c2 d7 f9 3e 78 14 1e bf 5e 1b fe 3e
       -0.29109952 0.48797423 -0.6174998 0.49630255
000320 c7 ab ca 3d 0d 01 99 be 94 c8 6b 3e 2b 0d 6e 3f
       0.09896045 -0.29883614 0.23025733 0.9298884
000330 4c b1 2e be 55 5a 18 3f 40 68 04 3e 2a be dd 3d
       -0.17059821 0.59512836 0.12930393 0.108272865
000340 1c 50 84 be e3 4e e0 3d 86 a7 0e 3e c6 72 04 be
       -0.2584237 0.109525464 0.13931093 -0.12934408
000350 97 16 11 bf 1a 9f 7c 3c 68 d9 bb 3d 7b 01 c0 bd
       -0.56675094 0.015418792 0.09172326 -0.093752824
000360 84 c0 03 3f c8 3f 5c 3e dd 42 ea 3d f8 2d 29 3d
       0.5146563 0.21508706 0.114385344 0.041303605
000370 70 75 f6 be 9d 37 68 bb 3c b4 e2 3e 88 88 80 3e
       -0.48136473 -0.0035433539 0.44278133 0.25104165
000380 c6 48 c9 be 54 e3 35 3d 2f 3b 76 be 73 93 1f 3e
       -0.39313334 0.04440625 -0.24046014 0.15583591
000390 22 f5 fd 3e 74 06 09 3f 26 38 c3 bd 2c 05 86 bd
       0.49601084 0.5352547 -0.09532194 -0.06543955
0003a0 f6 f7 85 3f fa 1f dc 3e 5e aa 4f bd 61 0d 79 3e
       1.0466297 0.42993146 -0.050699584 0.2432151
0003b0 bb 3f b5 bd d3 a2 08 3f 46 25 b8 3e b8 01 04 bf
       -0.08850046 0.5337345 0.35965937 -0.5156512
0003c0 ca bf 9e 3e 96 06 20 3f 29 2f e9 be 38 83 88 bd
       0.31005698 0.6251005 -0.45543793 -0.06665653
0003d0 79 01 80 3e 31 b5 67 3e f6 76 2d be 5e 15 a8 3e
       0.25001124 0.22627713 -0.16939911 0.32828802
0003e0 f7 e7 fa bd 05 4d d5 3d a6 e8 ce be d4 0f d5 3d
       -0.12251275 0.10415081 -0.40411872 0.104034096
0003f0 e9 f9 1d 3f 4b 6f 7a 3f be e7 11 bf 87 f2 68 be
       0.6170946 0.9782607 -0.56994236 -0.22748767

rnn.weight_ih_l1 f4 [256, 64]
000000 60 92 10 bf 8e dc cf 3d ce a7 b3 b9 f4 26 4b bc
       -0.5647335 0.10149489 -0.00034266565 -0.012399424
000010 f1 c3 23 bc e6 8f 08 3e 8d 4b 66 3c 71 e0 93 be
       -0.009995447 0.13336143 0.014056099 -0.28882173
000020 c5 5b 80 be e9 78 95 bd ee 10 3f 3d c4 1e 57 bf
       -0.25070015 -0.072984524 0.046647005 -0.8403132
000030 f6 1f 01 bf 24 80 13 be 3e fa 6d 3e 19 47 ba be
       -0.50439394 -0.1440435 0.23239991 -0.36382368
000040 bf 10 dd bd 49 a3 3e 3e 17 e6 b3 be a1 2d d2 3e
       -0.1079421 0.18616976 -0.35136482 0.41050437
000050 74 c3 69 3c 7e f7 84 3e 18 14 11 bf b3 be 95 be
       0.014267791 0.25970072 -0.56671286 -0.29247054
000060 58 9b 18 3e c6 cb 8c bd 74 c8 8b be c9 c0 df 3e
       0.14903009 -0.06874804 -0.2730137 0.4370177
000070 8f 17 83 3c 4e b5 d0 bc ff 45 8f be 0a a7 c6 bd
       0.016002445 -0.025477078 -0.2798309 -0.09699829
000080 e0 5b 2d bd 0c b4 bb be 91 67 39 3e 2e 01 85 be
       -0.042323947 -0.36660802 0.18105914 -0.25977463
000090 eb a5 d9 3e 39 f9 9c bf c9 3e 0f 3b 54 84 15 bf
       0.42509398 -1.2263557 0.0021857491 -0.5840504
0000a0 9c 56 b7 bd 13 91 14 3f d0 33 ce 3d a2 cb 1c be
       -0.08952066 0.58033866 0.10068476 -0.15312055
0000b0 c7 e0 79 3e 53 7e 6a bc 1f 37 dc be bb 40 52 3b
       0.24402152 -0.014312345 -0.43010804 0.003208204
0000c0 af a5 98 be ca 17 32 3e ee cc ae 3b 34 5a 00 be
       -0.29813907 0.17391887 0.005334488 -0.1253441
0000d0 85 93 2a 3f 8a 3e f2 3c d8 96 20 be 53 6e e2 bd
       0.66631347 0.029570837 -0.15682542 -0.11056199
0000e0 a3 ab c1 3e 7a 6e 05 bd b9 11 5d 3d ca 3e 3e 3e
       0.3782626 -0.03257606 0.05397198 0.1857864
0000f0 41 3c ac be 25 17 ee be 43 f2 ad b9 5a 4d 9e 3d
       -0.3363972 -0.46502033 -0.0003317763 0.077295974
000100 f9 42 19 be 1b 24 30 bc 48 3e 66 3a fb f5 86 38
       -0.14966954 -0.010750796 0.00087830843 6.435435e-05
000110 dc b5 ec b9 b0 47 70 bc 36 c2 ad b9 ff 63 a9 3c
       -0.00045148924 -0.014665529 -0.0003314183 0.020677565
000120 b1 32 31 ba e8 a7 02 bc 77 5d 90 bb 83 d0 12 3c
       -0.0006759568 -0.007974602 -0.004405673 0.008960846
000130 e0 d4 aa bd 98 23 04 bc 66 4e ff 3c a1 be b8 3b
       -0.08341384 -0.008065127 0.031165313 0.005637959
000140 36 45 f9 3b ae 2b e9 3b 0e f6 ca bc 24 c6 45 3c
       0.0076071275 0.0071158027 -0.024775531 0.012071166
000150 b2 3e cb b9 9c 90 02 3b 44 da 9c be e1 04 65 3b
       -0.0003876589 0.001992262 -0.30635273 0.0034945535
000160 9a 23 5c bb b2 f4 c0 3b a8 8a 34 bd 31 8f a6 3d
       -0.0033590556 0.005888545 -0.044077545 0.0813278
000170 39 08 59 3a d6 23 86 3b 0a a4 06 3b 15 c3 13 3b
       0.00082791183 0.0040936274 0.0020544552 0.0022546698
000180 7a 87 b7 3b 03 27 43 ba e3 11 29 bb 9b 38 1c 3c
       0.005600867 -0.0007444473 -0.0025798015 0.00953498
000190 99 09 93 3b 1a db 02 bc 8a 88 df 3b d4 ec f6 bc
       0.004487228 -0.007986808 0.0068216966 -0.030142225
0001a0 a3 f7 09 3d 93 88 48 bc 06 6a 75 3c 03 88 9c bb
       0.03368343 -0.012239593 0.014978891 -0.004776956
0001b0 d8 c1 e6 3b 72 ef 96 3c ac 0c 3e 3c 10 f8 fd 39
       0.007042151 0.018424723 0.011599701 0.0004844074
0001c0 cc ce 7e bc 5b df 21 bc 7e f7 03 37 09 ad be 3b
       -0.015552234 -0.009879912 7.865832e-06 0.0058189672
0001d0 80 6b ba 3d 93 60 06 ba 9a 76 db bc ac 29 df bb
       0.09102535 -0.0005126085 -0.026789952 -0.0068103876
0001e0 c1 81 5d 3c 58 57 05 3b 34 04 b6 3a 52 99 18 3c
       0.013519705 0.002034625 0.0013886751 0.009313898
0001f0 4d 75 23 bc c8 90 44 bc a9 88 9e b9 30 7e aa 3b
       -0.009976697 -0.011997409 -0.00030237928 0.005203031
000200 41 d5 6e be 67 d7 ae bc 7d 20 8f 3b 9c 19 c1 3b
       -0.23323537 -0.021342946 0.0043678866 0.0058929455
000210 40 5b d4 bc 1a fe a9 be 5e ed ef bb 58 64 04 3f
       -0.025922418 -0.33201677 -0.0073219975 0.5171561
000220 31 3a 62 3e 58 ed cc be 39 26 b7 bd df 67 60 be
       0.22092511 -0.4002483 -0.08942837 -0.21914624
000230 8f 54 95 be 01 6a 9e be 65 16 58 be 2b c6 a9 3d
       -0.29166076 -0.3094025 -0.21102293 0.08289751
000240 92 60 8d 3e 9e 83 67 bd 83 94 84 be fa 21 90 3e
       0.2761274 -0.056522004 -0.25894555 0.28150922
000250 7c 64 6d ba 43 6f f3 bd b3 a1 4f be ff b0 dc bb
       -0.0009055806 -0.11886456 -0.20276527 -0.0067349668
000260 28 25 8b bc 48 c6 1d 3e a1 38 30 be 75 26 8f 3e
       -0.01698549 0.1540767 -0.17209102 0.27959028
000270 a7 75 03 bc 80 3c 4a be 3b b5 0f be 9d 25 a1 bc
       -0.008023656 -0.19749641 -0.14033978 -0.019671256
000280 79 25 d4 3d 85 42 90 bd fd af 3b 3c 7d 87 a7 bd
       0.1035871 -0.070439376 0.011455533 -0.08180139
000290 c8 bc cb 3d 84 43 59 be ab 49 73 bd 75 9b 87 be
       0.099481165 -0.21217161 -0.059396427 -0.26485792
0002a0 dd 65 d0 3e 81 00 a0 3d b4 75 0c 3d 02 13 49 be
       0.40702716 0.07812596 0.034291938 -0.19636157
0002b0 bc 0c 8c 3c ab a8 d3 3a 57 cf 1e be 1e 00 61 3a
       0.017095916 0.001614829 -0.15508781 0.00085830863
0002c0 b8 ca 9a be b5 47 bf be 84 04 85 39 e3 ff e9 bc
       -0.30232787 -0.37359396 0.000253711 -0.0285644
0002d0 e7 2d 88 3e 79 cf 7c 3c 98 f5 df be 34 04 07 3d
       0.2659752 0.015430325 -0.4374206 0.032962993
0002e0 4e 7e 03 3f b2 8e 99 bc d3 f0 dc 3b a4 fa c9 3e
       0.513646 -0.0187448 0.0067425757 0.39449036
0002f0 48 ea 0f be 65 a5 5d 3d 6f 5d 08 bc e7 5b 11 3d
       -0.14054215 0.05411281 -0.008323058 0.035488036
000300 cc e2 82 be 37 5e 5b 3b 54 58 16 3b 12 fb f9 39
       -0.25563657 0.0033472904 0.0022940831 0.00047680043
000310 6a 78 30 3a 8a 57 f4 bc 47 43 06 ba d7 a3 78 3d
       0.000673181 -0.029826898 -0.00051217194 0.060703125
000320 9a 90 8b bb a3 4b 4f bd 44 9e 65 3c 3f b0 d0 3c
       -0.004259181 -0.050609242 0.014014784 0.025474666
000330 77 8e 3d be cb a1 8c bc 7c b8 c1 3c 43 a4 be bb
       -0.18511377 -0.017166993 0.02364754 -0.0058179214
000340 49 c6 e7 3c 4d c5 92 bc 13 1d 03 bd e8 9b 14 3d
       0.028292792 -0.017916346 -0.03201015 0.036281496
000350 10 92 82 b9 ba a9 89 3c 12 28 b2 be c0 cc 45 3b
       -0.00024904357 0.016804565 -0.34796196 0.0030181855
000360 a3 48 d4 bb 48 22 3d 3c fd 7d 82 bd 1d 87 bc 3d
       -0.0064783855 0.011543818 -0.063716866 0.09205458
000370 5f a2 a4 3a a6 ef 0c bd 33 fe 8f bc c5 e9 3c 3c
       0.0012560597 -0.034408234 -0.017577266 0.011530344
000380 c6 dd 62 3c 81 66 70 bc 0f 0a b2 ba e1 e7 0e 3c
       0.01384682 -0.014672876 -0.001358332 0.008722276
000390 24 f1 03 3d 3d 0d 3f bd 10 d7 89 bb 8c dd e0 bd
       0.03221239 -0.046643484 -0.0042065457 -0.10979757
0003a0 33 ae 1c 3d 2c c6 2f bc 2e 1a 3d bc 80 a0 0a bc
       0.038252067 -0.0107284 -0.011541886 -0.008461118
0003b0 c0 52 56 bb 58 9a 27 3d 46 47 7a 3c ad da af 3a
       -0.0032703131 0.040918678 0.015275782 0.0013416611
0003c0 56 f3 79 bd 92 13 74 bc f7 df 82 ba ea 8f a8 3b
       -0.06102308 -0.014897244 -0.000998496 0.005144109
0003d0 9a 92 c2 3d ad 4c 95 bb db 57 42 bc 08 51 67 bc
       0.09500618 -0.0045562596 -0.011861767 -0.01411844
0003e0 36 a1 82 3d 8c b2 e5 3b a4 5b 04 bb 8a 1a 52 3d
       0.06378405 0.00700981 -0.0020196224 0.05129484
0003f0 31 a8 59 3c e0 87 bc bd 5a fd 84 3a 9f 3a 87 b9
       0.013284729 -0.092056036 0.0010146305 -0.00025792883

rnn.weight_hh_l1 f4 [256, 64]
000000 6f 91 8d bd 9d 75 4b b9 d2 16 18 be 01 2e 2a bd
       -0.06912505 -0.00019403403 -0.14852455 -0.04154778
000010 42 37 f5 be 32 9a 4a bb 4c 47 fa be a7 54 4e bd
       -0.4789372 -0.0030914661 -0.4888252 -0.0503737
000020 24 71 60 3e 88 49 f6 be 24 55 53 3e 65 31 a3 bd
       0.2191816 -0.48102975 0.20637947 -0.07968406
000030 ce 9a 4e be 1a e7 ca be 49 be 7a be 7f 37 2b 3e
       -0.20176241 -0.39629441 -0.2448665 0.16720389
000040 1b f1 bb be db a5 ad 3e e2 26 45 3f d9 25 43 bd
       -0.36707386 0.339156 0.77012455 -0.047643516
000050 12 dc 74 bf 88 73 9d bd 1d 98 14 be 29 7b ad 3c
       -0.956483 -0.076880515 -0.14511152 0.021176891
000060 25 04 2b bf bb 1e e6 bc aa 99 6a 3e fe a8 98 bd
       -0.668032 -0.028090825 0.2291018 -0.07454108
000070 5e 75 5d 3e 4b ec dc 3c f3 39 80 3e 1d cd 6f 3f
       0.21626803 0.026968142 0.25044212 0.93672353
000080 31 63 5b be 59 4c 1d 3e f7 b9 14 3f e9 45 d6 3c
       -0.21424557 0.15361156 0.5809626 0.026156383
000090 46 60 a1 3e 69 79 2e 3c e0 ce b3 bd a4 71 88 3d
       0.31518763 0.010649064 -0.08779693 0.066623
0000a0 42 77 21 3f 44 49 ec 3c d2 80 03 3d 68 d8 f5 3e
       0.630726 0.02884353 0.032105274 0.48016667
0000b0 84 7a b2 be a9 8f 0b bf 7e 11 97 3e ed 01 a7 3e
       -0.34859097 -0.54516083 0.29505533 0.32618657
0000c0 fa 4a b5 3e 2a ca e4 bd 2b 08 1d 3f a5 5d ee be
       0.35408765 -0.11171372 0.6134059 -0.4655582
0000d0 86 3e 30 3d 22 5a a4 be 6f f9 b1 3d 1a 01 e0 be
       0.043028377 -0.32100016 0.08690154 -0.4375084
0000e0 de b3 d2 3c 75 e4 1c 3e e6 5b 85 3a 3f cb 81 bd
       0.025720533 0.15321524 0.0010174483 -0.06337594
0000f0 fd 92 7d 3e 3d 61 93 be 0c 43 59 3e d0 31 3a bf
       0.24763103 -0.28785124 0.21216983 -0.7273226
000100 35 8e ce bb 7a 39 a8 38 c8 70 d1 bb 8d f3 1d 3a
       -0.0063035735 8.02157e-05 -0.0063916184 0.00060253666
000110 cf f6 91 bc 2a d0 1f ba 70 d0 12 39 e5 87 be 3a
       -0.017817883 -0.00060963875 0.00014001294 0.0014536349
000120 fe cc b0 3b c3 7c f5 3c c5 c5 3a 3c ed 5c 21 38
       0.0053955307 0.029966718 0.011399691 3.8471935e-05
000130 df 33 9c bd 89 db cc bb 78 6d 3d bc f1 69 e3 3b
       -0.07627081 -0.0062517566 -0.011561744 0.0069401194
000140 c3 72 86 bd 26 ac e4 3a f8 ee ba bc 29 d8 a7 bb
       -0.06564858 0.0017446324 -0.022819027 -0.005122204
000150 d3 8c 6f bd a6 ed ec 38 1d 70 ce bd ec d8 ba b9
       -0.05848391 0.000112976224 -0.10079978 -0.00035638304
000160 9c 10 8b 3c 81 48 c6 ba 27 76 f3 3a 00 bc cf 3b
       0.016975693 -0.0015127809 0.0018574641 0.00633955
000170 b1 cc 14 3e ab 17 15 b6 8f 58 31 bc 6b 3d 07 bd
       0.14531209 -2.2216507e-06 -0.010824337 -0.033017557
000180 31 5d 33 bd c5 42 09 3d 4a b1 64 bc d5 9e 81 3a
       -0.043790046 0.033510942 -0.013958285 0.0009889255
000190 3e 46 b4 3c 04 9f 95 bc 1f cf 8c bc cc 6f f1 3b
       0.02200615 -0.018264301 -0.017188607 0.0073680636
0001a0 cd bb 13 bd 5b 20 15 3a c9 9c 8d b9 83 74 c6 b9
       -0.036067773 0.000568872 -0.0002701043 -0.0003785231
0001b0 5a a4 7c bd b6 e1 a5 3d 19 39 49 bb eb 79 03 3c
       -0.061680175 0.080996916 -0.00307042 0.008024673
0001c0 55 98 a2 3b 5b 93 9e 3a 48 4f df 3d 34 27 69 bd
       0.004962007 0.0012098359 0.109037936 -0.056922153
0001d0 1a a7 0c ba 81 46 5a 3b 5b 16 23 3b 3c 2e 54 3b
       -0.0005365476 0.0033306184 0.002488515 0.003237619
0001e0 30 69 42 3b 03 98 dc bb 85 8d 56 3b 66 11 2b bc
       0.0029664747 -0.0067319884 0.003273816 -0.01044116
0001f0 32 95 83 3a bc a5 9f 3b b1 ec 8d bc 10 93 0c bc
       0.001003897 0.004872052 -0.017324777 -0.008579984
000200 8b 00 09 3e 84 d1 46 3b e4 31 a4 3d 17 b9 2d 3c
       0.13379113 0.0030337283 0.080173284 0.010603211
000210 00 30 11 be 73 3b 0c 3a 0a 13 22 3e 78 d8 55 bd
       -0.14178467 0.0005349435 0.15827575 -0.052208394
000220 f6 a0 09 3d cf 1f 9f 3e 73 77 e1 3d 62 6c 11 3d
       0.03360077 0.31078956 0.11009111 0.035503753
000230 10 15 87 be a6 6d 42 be 12 88 00 be d0 56 22 be
       -0.26383257 -0.1898714 -0.12551907 -0.15853429
000240 ac 30 5d 3d c2 93 92 bd 6f 1a 91 be e2 c7 75 bd
       0.054001495 -0.07157089 -0.2834048 -0.060005076
000250 2b a2 b2 bd 7e 31 5c be ce b5 ac bd a2 d8 e5 bb
       -0.08722337 -0.21503255 -0.08433114 -0.00701435
000260 17 5d cd bd 2f 2c 2e bc d3 34 96 3e 15 0e 90 bd
       -0.10027521 -0.010630651 0.29337177 -0.07033936
000270 27 d9 86 3e 86 26 67 bc db 69 32 bf 0a 6f c7 bd
       0.2633755 -0.014108306 -0.6969277 -0.09737976
000280 84 fc fb be 4f 5e b5 be cd 3d 23 bb cd 3d de 3c
       -0.49216092 -0.35423514 -0.0024908662 0.027129078
000290 bf b0 09 bf 5e bc 16 3f 09 f1 c1 be 5b 41 c2 3d
       -0.5378532 0.58881176 -0.37879208 0.09485122
0002a0 7b 8f 16 3f 9e d8 e2 3c 10 fb b8 bc 66 b8 58 be
       0.58812684 0.027691182 -0.022580653 -0.21164092
0002b0 70 78 99 be 69 a6 0b 3d 4c 53 cc 3c 0f 08 7b 3d
       -0.299747 0.034094248 0.024942063 0.061286982
0002c0 3c 02 b0 3d 10 20 5e 3e c5 3a b9 3e 54 da 6d be
       0.08594176 0.21691918 0.3617765 -0.23227817
0002d0 ad 07 f8 3b 33 33 56 bf 4c 20 22 be 5d c9 0c 3e
       0.0075692744 -0.83671874 -0.15832633 0.13748689
0002e0 c2 52 c6 be b4 95 a2 3c 51 f4 ae 3c e7 b3 16 be
       -0.38735014 0.019846775 0.021356734 -0.14717065
0002f0 4d 36 df 3d b1 e4 4b 3e 03 f0 ca 3d 8c fc cb 3e
       0.10899029 0.19911458 0.0990906 0.39841115
000300 70 ce 5c 3c 44 2e fb 39 12 62 c2 bc a6 80 2f bb
       0.013476953 0.0004790892 -0.023728404 -0.0026779561
000310 2c e0 6e bd ea e6 eb b8 17 45 15 bd 90 4f 06 3c
       -0.058319256 -0.00011248684 -0.036442842 0.00819768
000320 3e be ed 3b 57 a2 87 3b 6f 2f 42 3d d6 98 8a bb
       0.0072553447 0.0041392255 0.047408517 -0.0042296452
000330 04 ae 57 be c4 2d 3e bd d0 15 77 3c f6 72 ee 3b
       -0.21062475 -0.046430364 0.015080884 0.007276888
000340 85 b1 9e bd 9f ac 9e 3b a5 35 6c bd 73 c9 8c bc
       -0.07748703 0.0048423554 -0.057668347 -0.017185902
000350 c3 3c 21 be a5 e0 97 bb 8a 09 39 be c0 bc 83 ba
       -0.15745835 -0.004634934 -0.18070045 -0.0010050759
000360 64 c5 15 bc 78 4b a5 ba ff 21 01 3d 02 2c 88 bc
       -0.0091413 -0.0012610992 0.03152656 -0.016622547
000370 3a 1f 45 3e bf 58 5e ba 9e 05 43 bd 23 30 ee bd
       0.19250193 -0.0008481852 -0.04761278 -0.11630275
000380 25 80 b9 bd 1a 6e ab 3d fb 36 f9 3b 7d 8e 52 3a
       -0.09057645 0.083706096 0.007605431 0.00080320967
000390 2b e3 7f bd 8e c1 1d bd 57 52 e1 bd 19 6f 0d 3b
       -0.062472504 -0.038514666 -0.11002033 0.0021581112
0003a0 a7 1c 5e bc 3e e4 a0 3a 21 fe 77 3a e3 03 64 3b
       -0.013556636 0.0012275053 0.00094601704 0.0034792356
0003b0 0e c5 bd bd 85 22 0c 3e da 79 9f 3b 20 aa da 3c
       -0.09266101 0.13685043 0.0048668208 0.02669245
0003c0 16 3f 16 3d 00 42 ac bb 2b d5 64 3e fd d2 0a be
       0.036681257 -0.0052568913 0.22346942 -0.13557048
0003d0 11 2c b6 ba 07 b6 17 bc 1e 08 6b 3c 95 1e 61 3c
       -0.0013898631 -0.009259707 0.014345197 0.0137402015
0003e0 50 9a 14 3d ba 9f e7 39 62 08 00 bc ad cb dd bc
       0.036279976 0.0004417876 -0.007814499 -0.02707466
0003f0 b4 53 09 3d 60 17 3e 3b 56 07 05 be 1a e5 9d 3c
       0.03352709 0.0029005632 -0.1299108 0.019274283

rnn.bias_ih_l1 f4 [256]
000000 3f 68 31 bf 22 46 34 bf 0e f9 b6 be d2 2d 3a bf
       -0.6929969 -0.70419514 -0.3573689 -0.72726166
000010 f8 84 93 be 72 16 5b bf 8b cd 8e be c0 d2 05 bf
       -0.28812385 -0.85581124 -0.27891192 -0.52274704
000020 14 93 0b be de 02 d4 3e 40 66 70 be 67 2a 0d bf
       -0.13630325 0.41408437 -0.23476505 -0.55142826
000030 4e 53 ad 3d 75 e0 8a be fe a2 2a be 92 55 a6 bb
       0.08463155 -0.27124372 -0.16663739 -0.0050761187
000040 6b f1 c8 bd db 23 4e be e5 55 99 bc 7b 3f ce be
       -0.09811672 -0.20130865 -0.018717716 -0.40282807
000050 df f3 d2 be 75 e5 ae be ed 65 0f 3f bb cd 3a bf
       -0.41201684 -0.34159437 0.560149 -0.7297017
000060 96 f3 2f be dd cc 31 bf bd 94 b4 be 48 ff 22 bf
       -0.17182764 -0.6945322 -0.35269728 -0.6367078
000070 be e9 1c bc b0 65 34 bf dc e6 a1 bd 61 ce 36 bd
       -0.009577213 -0.7046766 -0.07905361 -0.044630412
000080 48 57 8a be a9 8e 4a be 1a fb d8 bc bd 52 36 bf
       -0.27019715 -0.19780983 -0.026486922 -0.7122
000090 73 63 b6 3d 0b 91 7f be 99 38 8b be 41 68 ef bd
       0.08905687 -0.24957673 -0.27191618 -0.11689807
0000a0 4f a6 3b be a6 b1 2d bf 47 9b e6 be e3 19 63 3e
       -0.1832516 -0.67849195 -0.45040342 0.22177844
0000b0 59 c6 3b be 66 df 85 3d 97 43 f8 be 26 3d b9 be
       -0.18337382 0.065367505 -0.48489067 -0.36179465
0000c0 9e 2f 9a be 4e 06 b0 be 18 03 e9 3c 43 cf 2f be
       -0.30114454 -0.3437981 0.028443858 -0.17168908
0000d0 56 09 2b bf 9d 6c 47 3e 69 60 37 be 13 fb 15 be
       -0.6681112 0.19475026 -0.17907871 -0.14646558
0000e0 59 a7 a8 3b 95 5c 14 bf aa 0c 90 be 54 e7 92 be
       0.0051469025 -0.5795377 -0.28134662 -0.28692114
0000f0 38 f6 86 be 98 da 3e be eb 53 8b bd c3 e0 24 3f
       -0.26359725 -0.18638074 -0.068031155 0.6440546
000100 00 67 9d 3e d4 3a 78 be 0b 53 29 bb a1 54 62 be
       0.30742645 -0.24241191 -0.002583685 -0.22102596
000110 4e 00 dd bd ba 56 94 be fc 03 ba be 51 e7 a8 be
       -0.10791074 -0.28972417 -0.36331165 -0.3298898
000120 d9 82 8c be 37 c8 a1 bd bc a1 93 be 85 f4 ff be
       -0.2744358 -0.07899516 -0.2883433 -0.4999124
000130 cb d1 b9 bd eb df 96 be 8c 67 f0 bc c1 d3 3d bf
       -0.09073218 -0.2946771 -0.02934625 -0.74151236
000140 97 17 25 3e 7c d3 b8 be 4d 75 ac be c7 2d 6a 3e
       0.1612228 -0.3609885 -0.33683243 0.22869025
000150 5f 48 b5 3e 9a 0c c7 be ac d5 9e be 02 43 88 be
       0.35406777 -0.38876802 -0.31022394 -0.26613623
000160 c5 8f ca be e5 36 53 be 87 fa 56 be e7 2a 33 be
       -0.39562812 -0.2062641 -0.20994006 -0.17496835
000170 cc 5d dc 3c 66 35 66 be fe d8 79 be d5 a4 2d be
       0.026900195 -0.22481307 -0.24399182 -0.1695741
000180 9b fe 7a 3e cb 2d 5f be 92 03 b5 be 55 fc 7f be
       0.24511187 -0.21794812 -0.35354286 -0.24998601
000190 94 69 38 bd 17 da 71 be 84 e3 f5 3e 79 eb e8 be
       -0.045022562 -0.23618351 0.48025143 -0.4549215
0001a0 0a e2 d9 3e fe 47 55 be 41 3a 99 be df cf 12 bf
       0.42555267 -0.20828244 -0.29927257 -0.57348436
0001b0 cf b3 e7 bc 07 12 05 3e 6e e0 ef 3e 0d 78 e3 bd
       -0.028283982 0.12995158 0.46850914 -0.11106882
0001c0 72 1f 53 be 6b 98 b8 be a1 23 d7 3d 23 64 d1 bb
       -0.20617464 -0.36053786 0.105048425 -0.006390111
0001d0 19 31 64 be 45 4b 8d be d0 39 f8 be 63 69 c4 be
       -0.22284354 -0.2759649 -0.48481607 -0.38361654
0001e0 dd 31 81 bd f1 d6 b9 be 2a d3 48 bd d9 f4 c5 3c
       -0.06308339 -0.362968 -0.049029507 0.024164604
0001f0 ce cf de be 45 e6 bf be cd a9 4b bd 2b ba 83 be
       -0.43517917 -0.3748037 -0.04972248 -0.25727972
000200 cc 0b e8 bd 4f d4 2f 3d af 82 9f bc 80 56 b7 3c
       -0.11330375 0.042927083 -0.019471494 0.022380114
000210 2d d3 e8 3c f9 db b4 3c 5b 72 ed bc b5 81 43 bd
       0.028421009 0.022077547 -0.028985193 -0.04773112
000220 60 af 98 3d 16 ed 00 be f0 50 b4 bd a7 30 ab 3d
       0.07455325 -0.12590441 -0.088045 0.08358889
000230 c9 03 10 3e db d0 8a 3d dc 73 4c bd d4 a5 9e 3c
       0.14063944 0.06778117 -0.04991518 0.019366182
000240 78 38 cf 3d 12 04 64 bd 42 cc 73 3d 24 8b 73 3b
       0.101181924 -0.055667944 0.059520967 0.0037161792
000250 22 88 03 be a7 24 06 bd 83 2f 17 3d aa 45 e9 bc
       -0.128449 -0.0327498 0.036910545 -0.028475601
000260 f1 f7 12 bd cd 27 8d bd 2a 55 08 3c a7 2b 55 bb
       -0.035880987 -0.06892357 0.008321086 -0.003252724
000270 34 fb 0c 3c ce e1 bf bc 37 cc 88 bd f0 cd 7e bd
       0.008604813 -0.023423102 -0.06679576 -0.062208116
000280 38 40 03 bd e1 b6 09 3e 7b df c4 3d 60 0d 3c bd
       -0.032043666 0.13448669 0.09612938 -0.045911193
000290 df 8c db 3d 37 2a 43 be e9 13 45 3b 33 16 9e 3d
       0.107202284 -0.19059072 0.0030071682 0.07719078
0002a0 4c 29 ba 3c 21 f5 2c bc 49 13 3a 3c 50 92 10 3e
       0.02272477 -0.01055649 0.011357137 0.14118314
0002b0 be a5 d1 bd 2d 3e 4e 3d 83 29 c8 bd a8 2c 8b bd
       -0.10236691 0.050352264 -0.09773543 -0.06795627
0002c0 c3 51 a2 3d 11 ee 24 bd 81 ca 08 bd a4 2e 38 3d
       0.07925751 -0.0402661 -0.033396248 0.044966355
0002d0 f6 b8 93 bd 34 a8 fe bc d8 b2 43 bd 4a 9a d4 bd
       -0.07213013 -0.031086065 -0.04777798 -0.10380991
0002e0 31 ef 8f bd c5 ef 4d bd 21 ce a8 3d dc cf 8e 3d
       -0.07028044 -0.05027749 0.08242441 0.0697324
0002f0 0a 85 82 3d 4f b0 a6 bd ea 10 22 bd e4 b2 f8 bd
       0.063730314 -0.08139097 -0.03956691 -0.12143496
000300 09 cb 3d 3d c9 b9 34 bf c2 d5 ef be ba 01 37 bf
       0.046336208 -0.70595986 -0.46842772 -0.7148701
000310 e5 bd 9b bd 25 b7 5a bf 2c 6d 4a be 7f 24 11 bf
       -0.07604579 -0.85435706 -0.19768208 -0.56696314
000320 9c 87 47 bd e4 87 92 3e 2b e6 a8 be a4 0b 16 bf
       -0.04871331 0.286193 -0.32988104 -0.5861151
000330 29 d1 56 bd d3 99 96 be 95 84 64 bd b2 11 f7 3c
       -0.052445564 -0.29414234 -0.055790503 0.030159805
000340 f9 72 23 be 39 54 d3 be cb ab 9a bd 0b a9 e9 be
       -0.15961827 -0.41275194 -0.07552298 -0.45636782
000350 53 0e af bd 6b 77 a6 be 67 ca 23 3f 3d 4e 3c bf
       -0.08547654 -0.32512984 0.63980716 -0.7355688
000360 ae 7e d0 3b 79 03 32 bf d7 23 db be b4 97 24 bf
       0.0063627576 -0.6953655 -0.4280078 -0.6429398
000370 63 15 1f 3d b6 f5 31 bf a3 21 08 3c 4c 7c 8a 3d
       0.038838755 -0.6951555 0.008308801 0.06761989
000380 90 1f 96 3c 9a 97 11 be ad 1e 63 3b 8c 2a 37 bf
       0.018325597 -0.14217988 0.0034655735 -0.71549296
000390 74 d9 25 bd af 87 a0 bd 4d 82 34 be 51 16 7e be
       -0.040490583 -0.078383796 -0.17627831 -0.248132
0003a0 6c 44 f3 3c 72 f2 2f bf ea 74 1f bf 3d f3 c0 3d
       0.029695712 -0.6872932 -0.6228777 0.09421394
0003b0 35 ea 6c bd f5 3d ee 3d 05 f9 cd be b6 bd d6 be
       -0.057840545 0.11632911 -0.4022905 -0.41941613
0003c0 dc 4c b0 be 6b 6c c2 be fb 5e 30 bb a3 7d 13 be
       -0.3443364 -0.3797334 -0.0026912082 -0.14403395
0003d0 24 51 2b bf cf d9 71 3d a2 f0 53 be e3 38 d4 bd
       -0.66920686 0.05904561 -0.20697263 -0.10362413
0003e0 93 c6 8e bd 64 9a 36 bf 68 f9 c9 bd 69 6d 94 be
       -0.06971469 -0.7132933 -0.098620236 -0.28989723
0003f0 33 3f 4a be a2 e7 4e be e2 92 eb 3d 58 12 0a 3f
       -0.19750671 -0.20205548 0.11502625 0.5393424
