checkpoints/Tend_LSTM_L2_bs16_train10-20-30_bsfirst_lossall/Tend_LSTM_L2_bs16_epoch36_best0.40523340541218955.pt (torch, 206215 bytes, 9 tensors)

rnn.weight_ih_l0 f4 [256, 3]
000000 c2 a8 e5 3d 2b e5 65 bc 31 be cd bd 95 6e 04 3e
       0.112138286 -0.014031689 -0.10046042 0.12932809
000010 0f 82 fa bc 28 f2 19 3e 1e 29 05 3d 51 62 cd 3d
       -0.030579595 0.15033782 0.032509916 0.10028518
000020 11 43 8b 3c 35 f3 c1 3c e2 cd 0d 3e ab 47 cb ba
       0.016999753 0.02367554 0.1384807 -0.001550903
000030 22 87 46 3e c6 51 12 be 5c 24 09 3c af 84 3a 3d
       0.19387487 -0.14289007 0.008370485 0.045536693
000040 60 56 a4 3d 02 22 85 3c 9f 10 0f 3e d6 03 df 3d
       0.08024287 0.016251568 0.13971184 0.108894035
000050 79 77 22 bd ef a1 89 bc 98 24 0c 3d 4c bf 00 3d
       -0.03966472 -0.016800849 0.034214586 0.031432435
000060 4f 80 54 3d db 52 19 3e 46 14 f8 3d 3e f3 f1 3c
       0.051880177 0.14973013 0.12113242 0.029534932
000070 3e 8f 54 be 5c 99 39 3d b1 df 09 3b 44 fa 32 3e
       -0.20757768 0.04531227 0.0021037871 0.17478281
000080 e0 0e 84 3d d3 d0 7b be cd e9 29 3e e9 73 8a 3e
       0.0644815 -0.24591379 0.16593094 0.27041557
000090 a5 86 ff 3d 2c d3 36 bd b7 3f 21 3d 14 f3 75 3d
       0.12476853 -0.044634983 0.039367404 0.06004627
0000a0 2a 2f b8 3d 28 47 1a 3e 9f b6 38 3e b6 b4 f8 bd
       0.08993371 0.15066206 0.18038414 -0.12143843
0000b0 9e e0 c4 bc 39 74 0f 3e 51 05 39 bd 19 4d 8e 3d
       -0.024032887 0.14009179 -0.045171086 0.06948299
0000c0 70 48 37 3d 30 c8 08 3e 91 8a 94 bd 19 76 a0 bc
       0.044746816 0.13357615 -0.07252992 -0.019587563
0000d0 c2 16 10 be 92 f3 2c 3a fd 31 10 3e 0a 38 42 3e
       -0.14071181 0.0006597574 0.14081569 0.1896669
0000e0 74 a2 6e 3d 8f 69 c2 bc 5d 2d 45 3e cc 7d cf 3c
       0.058260396 -0.023731975 0.19255586 0.02532854
0000f0 f8 e4 07 bd e7 73 2f 3e 87 d5 c2 3d 55 6c b6 3e
       -0.033177346 0.17134057 0.09513383 0.35629526
000100 84 97 dc 3d 95 f2 28 3e 27 70 99 3d a8 7b b6 3d
       0.10771087 0.16498788 0.074920945 0.08910304
000110 3d c3 f0 bc 7f 20 c4 bc eb aa 56 3e bd c7 e1 3c
       -0.029389972 -0.023941277 0.20963638 0.027561063
000120 a6 25 0e 3e 05 a5 a1 bd 14 db d1 3c b7 83 04 3e
       0.13881549 -0.07892803 0.02561716 0.1294087
000130 51 9f b3 3d 0b 24 8b 3d 82 ae 45 bd 49 62 1c 3e
       0.087706216 0.06793984 -0.048262127 0.15271868
000140 1d ba f4 3c 92 34 f0 bd c3 a8 e5 bc da 82 11 be
       0.029873902 -0.11728777 -0.028034573 -0.14210072
000150 78 db e2 3d 61 63 9c bb df 0d b5 bd 98 95 9b 3d
       0.110770166 -0.004772589 -0.08840536 0.07596892
000160 90 c6 ca bd bd c0 2b bc f8 bd a8 3d c2 f9 5d bd
       -0.09901154 -0.010482964 0.08239359 -0.054193266
000170 16 af d1 3d 9c b9 95 3d bd 80 9f be 61 3d b9 bc
       0.10238473 0.07310793 -0.31152907 -0.022612276
000180 a4 bd c8 3d d9 79 be 3d ef 26 ae b8 22 f8 97 3c
       0.09801796 0.09300584 -8.3042185e-05 0.018550936
000190 19 82 5e 3e cc 6f 42 3d 72 b8 1e 3e 9b c3 3f 3e
       0.21729316 0.0474699 0.15500048 0.18726961
0001a0 bf b8 23 bc 27 e2 18 be bb 73 02 3e d2 13 c5 3c
       -0.009992777 -0.1493002 0.1273946 0.024057303
0001b0 b1 5c 16 3e b4 ab ad 3d 35 89 82 3d 2b a5 3a 3e
       0.14683796 0.084800154 0.063738264 0.18227069
0001c0 dd 2b 4c bd 35 43 30 bd e7 02 d7 3d 83 87 22 3e
       -0.04984652 -0.043032844 0.104986005 0.15872006
0001d0 47 26 0c 3e c2 c3 ea 3d 78 94 d6 bb 74 f9 26 bc
       0.13686477 0.11463119 -0.0065484606 -0.01019131
0001e0 b1 e1 83 bc c1 a3 05 3e d0 56 36 3e 48 b2 a5 be
       -0.016098829 0.13050748 0.17806554 -0.3236258
0001f0 72 c8 2c 3e 3f 58 a7 3d c1 ed a3 bc 4c f2 fd 3b
       0.16873339 0.081711285 -0.02001083 0.0077498313
000200 54 be 63 3e 31 bb 24 3e 77 92 a7 bd 60 36 3e 3e
       0.22240573 0.16087033 -0.08182233 0.1857543
000210 2b 57 39 3e 72 29 3d 3e 67 26 3d 3e 43 76 2a 3e
       0.18099658 0.18472841 0.1847168 0.16646676
000220 4e 34 f7 3d ab 98 c0 3b c1 63 9f bd e2 74 dd bc
       0.12070523 0.0058775744 -0.077826984 -0.027033273
000230 f7 34 d3 bd c3 2d 08 bd c6 a8 0f be ac 4f 7e 3d
       -0.103128366 -0.033246767 -0.14029226 0.0620877
000240 26 4a 02 3e e8 31 08 be 0e a1 7d 3d 1f f3 bc 3d
       0.12723598 -0.13300288 0.06192117 0.09226059
000250 f9 84 1e 3e 20 53 14 3e 26 ef 52 be 83 6b df 3d
       0.15480413 0.14484835 -0.2059904 0.10909178
000260 51 b2 1f be 45 f3 92 3a 9e 01 93 bd 25 8e b1 bd
       -0.15595366 0.0011211416 -0.07178043 -0.0866969
000270 63 81 b8 3b 3e 64 ab bd 84 2f 9b 3d 8d 2b a0 3c
       0.0056306585 -0.08368729 0.07577422 0.019552017
000280 26 57 03 be ca eb 77 3d 48 83 58 3d d1 b8 22 3e
       -0.12826213 0.0605276 0.052859575 0.15890814
000290 9c ea e7 bd 4b 83 1e 3d 37 fa 65 be cf bd 8d bc
       -0.11324045 0.03869943 -0.2245873 -0.017302422
0002a0 c7 17 a0 bd 31 da b6 3b 85 f5 1d 3d 68 1f 9f 3d
       -0.07817035 0.0055802097 0.038564224 0.07769662
0002b0 eb 6d ea 3a 18 16 ea 3c 02 92 50 3e ea 1e 83 3e
       0.0017885541 0.028574988 0.20368198 0.25609523
0002c0 8c 77 06 3e d0 35 57 3c 5e 10 f5 bd 5e f9 c8 3d
       0.13131541 0.0131353885 -0.119660124 0.09813188
0002d0 4e d9 7c 3d 1b 25 27 3c ca 37 18 3d a9 6f 43 3e
       0.061730675 0.010201718 0.03716258 0.19085564
0002e0 a1 80 b1 bd 55 15 99 3e 03 e7 98 bd c7 55 7f be
       -0.08667112 0.29899088 -0.07465937 -0.24935065
0002f0 fc c1 24 bd 3b 06 c9 bc 01 03 05 3e c7 7f d2 bc
       -0.04022406 -0.024539104 0.12989427 -0.025695695
000300 1f b1 ac bd ac e2 1a 3d 9e 05 66 bc e2 3e ef bd
       -0.08432221 0.037813827 -0.014039425 -0.11681916
000310 32 74 21 3e db 13 f8 3d 3e 56 f1 3d 57 6f 2f bd
       0.15766981 0.12113162 0.117840275 -0.04283079
000320 e0 eb 23 bc 9e 9b db bd 64 e9 52 3e 70 d9 0c be
       -0.010004967 -0.10723041 0.20596844 -0.13754821
000330 49 ec 73 3e 90 2c 76 bd c9 f0 73 bd a1 47 f8 3c
       0.23820604 -0.06010109 -0.059555802 0.030307593
000340 e8 90 60 3d b1 3b 69 3d c9 3d b2 3c 37 f1 07 3e
       0.054825693 0.05694169 0.021757977 0.1327561
000350 e0 71 14 be eb 9f f4 3d 2d 4f 3a 3e c3 a6 e6 3d
       -0.14496565 0.119445644 0.18194266 0.11262276
000360 94 30 ad bb f3 af 5d 3d 89 bd fc bd 39 34 96 3d
       -0.005285332 0.054122876 -0.123408385 0.073341794
000370 d8 b2 27 be 73 c8 f1 3d ef d8 77 be 05 72 85 bd
       -0.16376817 0.11805811 -0.24203847 -0.06515888
000380 8d 41 b1 bd 89 5d 00 bf 9d 19 82 3c 97 ca c0 bd
       -0.08655081 -0.50142723 0.015881354 -0.09413641
000390 fc 5d 84 bd 1e 75 24 bd 53 ee 12 be 4b 1a 7a 3c
       -0.064632386 -0.040150754 -0.14348726 0.015265058
0003a0 11 1c 8d 3e b4 dd cf 3d c3 61 92 bd 2f de 10 be
       0.27560475 0.101497084 -0.07147553 -0.14147256
0003b0 7b bc f6 bd ae 20 00 3e d6 3d 02 3e 91 d1 c2 bd
       -0.120476685 0.12512466 0.12718901 -0.09512628
0003c0 58 be 1c be 4a 2e e1 3d 5a 41 94 bd c7 45 08 3c
       -0.15306985 0.10995157 -0.07239027 0.008317417
0003d0 c9 d8 9a be 3a 1f 47 3c 99 f2 9e be aa bc 95 bd
       -0.3024352 0.012153441 -0.31044462 -0.073113754
0003e0 a6 ba 36 be 22 1a da 3d d8 55 11 3e 74 ec 26 bd
       -0.17844638 0.10649516 0.14192903 -0.040752843
0003f0 03 09 9f 3c bb b8 24 3e 25 1b 82 bc f2 a3 f9 bc
       0.019413477 0.16086094 -0.015882084 -0.030473683

rnn.weight_hh_l0 f4 [256, 64]
000000 32 ee 80 bc 1a 90 d0 3d 09 43 a2 bd 14 9a 97 3d
       -0.01573858 0.10183735 -0.07922942 0.07402435
000010 a0 a3 82 be 14 43 11 3e 7a e0 58 3d 12 5a e9 bd
       -0.2551546 0.14185745 0.052948453 -0.11394133
000020 13 1e 9d 3d ec 84 d2 3d 9c 50 b9 bc 27 2d 23 bc
       0.07671752 0.10279259 -0.022621445 -0.009959496
000030 00 07 33 be 7d d4 51 3e 39 43 e7 3d bb 65 8f bc
       -0.17483139 0.20491214 0.112921186 -0.017504564
000040 cf d0 35 be d4 79 11 3e 4f a0 b9 bd 40 d9 d8 bc
       -0.17755435 0.1420663 -0.090637796 -0.02647078
000050 c4 b0 34 3e 57 27 a6 3d 23 20 ac bd f4 d8 17 3d
       0.17645556 0.08112972 -0.08404567 0.037072137
000060 a0 fe ee 3d 0a ae c1 bc 80 b7 2c 3e 58 de ec 3d
       0.116696596 -0.023642559 0.16866875 0.11565846
000070 4a 42 37 3d 10 c3 52 3c bd b6 4e 3d a8 ce ad be
       0.044740953 0.012863889 0.05046724 -0.3394673
000080 50 77 cc 3c 09 1a 40 3e 34 6d e6 3d ea 29 0e 3e
       0.024959236 0.18759932 0.112512976 0.13883176
000090 71 b0 a5 3c d9 69 87 be eb 85 b4 3d 47 21 19 3d
       0.020225735 -0.26447943 0.08814605 0.03738525
0000a0 9b dd 32 be 6d 50 df bd 5a 8f 3e bc 28 63 a7 ba
       -0.17467348 -0.10904012 -0.011630857 -0.001277064
0000b0 d8 c5 a0 bc ae 33 c1 3d 75 90 31 bd 51 13 e7 bd
       -0.01962559 0.09433685 -0.043350656 -0.11282981
0000c0 5e e7 80 3e a6 49 2f 3e 5c 1d ec 3d cc 8e 6d bc
       0.2517652 0.17117938 0.11529037 -0.014499377
0000d0 27 3e 6b 3e 96 3d 51 3e f7 7c a0 bc a6 7c d3 bd
       0.22972928 0.2043365 -0.019590838 -0.10326509
0000e0 50 b4 87 3d 56 6c 20 be c9 98 dc bd aa 53 e8 3c
       0.06626189 -0.15666327 -0.10771329 0.028360207
0000f0 84 e2 0a be f1 74 ef bb 02 73 b9 bd 4c 5e 9e 3c
       -0.13562971 -0.0073076417 -0.09055139 0.019332074
000100 4b 6e 11 3d 73 b8 76 bd 4d 70 da 3d 36 a1 3a 3c
       0.035505574 -0.0602345 0.10665951 0.011390975
000110 95 fd 50 3d 64 f9 7a bd e7 94 c4 bd a3 41 a1 3c
       0.051023085 -0.061272994 -0.09598713 0.019684618
000120 5c f9 e5 3d 05 23 a3 3d e0 7e 3d bd 13 bd 8e 3c
       0.11229202 0.07965664 -0.046263576 0.017424142
000130 2e 00 89 bc 8d b1 49 3e 84 7f bc bd b7 79 5f bd
       -0.016723718 0.19696636 -0.09204009 -0.054559436
000140 86 d4 d4 bd 56 ab 64 3e 0f 45 b1 bd d5 bf 3c 3d
       -0.10392098 0.22330984 -0.0865575 0.046081383
000150 d3 c3 02 bd d0 8a a6 3d ad d3 2d bc a6 6a 03 3e
       -0.031925034 0.08131945 -0.0106095495 0.12833652
000160 e6 40 2b bd de 69 3a be 3f fa 1d bc 9d 3b bf bd
       -0.04180994 -0.18204448 -0.009642183 -0.09337542
000170 62 18 c2 3c 75 9b 6c 3d a8 f4 b1 bc 88 25 2e be
       0.023693267 0.057765443 -0.021723107 -0.17006505
000180 13 fa 48 bd 3f e7 08 3e 6a 14 7b bc b1 65 9c bd
       -0.049066614 0.13369463 -0.015324691 -0.076365836
000190 a7 b8 c4 3d 49 5b d9 bd bf 3f 0d be c5 c8 53 bd
       0.09605532 -0.106131144 -0.13793848 -0.05170514
0001a0 15 3d 30 bd 05 07 91 bc 3d 9d 91 bd 93 c2 46 3d
       -0.043027002 -0.017703542 -0.07110069 0.048525404
0001b0 77 9a 22 be 83 b6 cb 3d b2 cc e3 bd 3e f6 92 be
       -0.15879236 0.09946921 -0.11123027 -0.28703493
0001c0 97 e9 cd 3d 09 89 33 bc 23 a9 89 3d 0b 56 ac 3d
       0.10054319 -0.010957965 0.067217134 0.08414849
0001d0 50 d6 42 3e d4 29 9a bc ee d6 c9 3d 89 a6 31 bd
       0.19027066 -0.018818773 0.09855448 -0.04337171
0001e0 a6 8a 10 3d 0f 4f fc bc 48 ba 45 bb 66 42 db 3d
       0.035288475 -0.030799417 -0.0030170847 0.10706024
0001f0 7e 8f 4c 3b 46 44 78 3c c4 bd 16 be 4f 5e 05 be
       0.0031213458 0.015152996 -0.14720827 -0.13024257
000200 03 cc 68 bd 37 64 0a 3e 0c 9f 90 bc fb b3 55 3d
       -0.056835186 0.13514791 -0.017653964 0.052173596
000210 7f a7 64 be 41 15 5f 3d 39 95 cb bd 49 29 11 be
       -0.2232952 0.05446363 -0.09940571 -0.14175905
000220 59 91 09 3e 88 ac 50 3d 68 ae 40 bc d5 b8 ea 3c
       0.13434352 0.05094579 -0.011760332 0.028652588
000230 0f 9c 7b be 42 fb a5 3e e7 6e d6 3d bd 5e a6 3c
       -0.2457125 0.32418257 0.10470372 0.020308847
000240 9d ee 31 3c 34 04 9a 3e 5b 09 04 bd 15 2a 1b 3e
       0.0108601125 0.30081332 -0.032235485 0.15152772
000250 18 cd 36 3e 2a 67 c4 3d 70 37 d2 3b 23 5f 2b 3d
       0.17851675 0.095899895 0.0064153 0.041838776
000260 38 9e 05 3e a2 02 2c bd e1 c5 a8 bd 2b a1 3a 3e
       0.13048637 -0.0419947 -0.082408674 0.18225543
000270 0e f7 e6 bc 74 81 e6 bc d8 0c a7 3d e3 a0 2c be
       -0.028193977 -0.0281379 0.081567466 -0.16858248
000280 75 2f 0a 3d 24 c2 24 3e 31 fd c3 3c 47 4e bf bd
       0.033736665 0.16089684 0.023924442 -0.09341102
000290 00 d8 a8 3d 78 ea 17 be 92 9d 2c bd 0b cf 85 ba
       0.08244324 -0.14835536 -0.04214246 -0.0010208798
0002a0 56 f2 09 bd 14 fd f0 bd 69 40 16 bd 17 65 04 3e
       -0.033678375 -0.11767021 -0.03668252 0.12929188
0002b0 46 aa 09 be 9f 2c 29 3e 70 b9 95 3d 5a bf d8 bd
       -0.1344386 0.16520928 0.0731076 -0.105833724
0002c0 f9 45 8e 3e fa b1 32 3d a9 41 9a 3c 46 a1 a1 3c
       0.2778776 0.043626763 0.018830137 0.019730221
0002d0 75 5d 8a 3d 1f d3 04 3e 8f 8c 10 3e 09 f0 77 be
       0.06756107 0.12971161 0.14116119 -0.2421266
0002e0 ae d8 1d 3d a1 fe d0 3c 3a ae 24 be 31 33 80 3c
       0.03853672 0.025512042 -0.16082087 0.01564941
0002f0 db bf 97 3d d5 ab 39 3d b4 da c5 bd a2 46 df bd
       0.074096404 0.045329887 -0.09660855 -0.10902144
000300 1a fc ff 3a e2 ab a9 bd 37 d4 b0 bd 70 80 9a bd
       0.0019530088 -0.08284737 -0.08634227 -0.07544029
000310 fa 27 94 3d 64 b6 0a 3e cc 8d 7c bb 6f 44 a0 bd
       0.072341874 0.13546139 -0.0038536666 -0.07825553
000320 1b 73 0a 3e a0 60 4d 3d 8b 03 09 3e d5 aa 5a 38
       0.13520472 0.050140977 0.13380258 5.213435e-05
000330 01 97 c0 bd 5d 20 44 3d d2 d8 8b ba 44 71 11 be
       -0.09403802 0.047882427 -0.0010669476 -0.14203364
000340 d5 0c b1 39 0a cc b5 3c f9 75 97 3d 33 46 de 3d
       0.0003376963 0.02219202 0.073955484 0.10853233
000350 ea b6 da 3c 1a f8 e3 3d f6 3e 67 3d a1 98 10 3e
       0.026698548 0.11131306 0.05645653 0.14120723
000360 6e 21 28 bd e1 22 7a bd b8 99 b9 bb ef e7 12 3e
       -0.041047506 -0.06106842 -0.0056640767 0.14346288
000370 c3 8f 1a be 3c c1 25 bc c3 91 85 3d 4b e6 a5 3d
       -0.15093903 -0.010116871 0.065219425 0.081005655
000380 84 84 68 3d 7d 6b 80 bd 9a 99 66 bd f8 63 10 3e
       0.056767 -0.06270502 -0.05629883 0.14100635
000390 8d cc 85 3d 78 57 04 be b9 b6 c3 bb d2 85 ec 3b
       0.065331556 -0.12923992 -0.00597271 0.007218101
0003a0 79 f8 90 bd 4c 97 f7 bd be fc d8 bd 7b cc 48 3a
       -0.070786424 -0.120894045 -0.10595082 0.00076598645
0003b0 69 ce 45 bd 06 09 aa 3d ca 51 3b 3d e6 c7 03 be
       -0.04829255 0.08302502 0.045732297 -0.12869224
0003c0 98 44 7e 3c 87 86 4f bd e5 a4 88 3d 92 d4 d8 3d
       0.015519284 -0.050665405 0.06672076 0.105874196
0003d0 9b 12 2f 3e 34 b3 b3 3d 0e c9 76 3c b8 3a 88 bd
       0.17096941 0.08774415 0.015062584 -0.06651825
0003e0 fe 4c 91 3d 37 1e 23 be 40 26 31 bd 89 f3 b0 bd
       0.07094763 -0.15929495 -0.04324937 -0.08640201
0003f0 34 10 13 be 99 58 0f bc 35 07 af bd ab e8 fc bd
       -0.1436165 -0.008749151 -0.085462965 -0.123490654

rnn.bias_ih_l0 f4 [256]
000000 ac 02 95 3d 1a 50 13 3e d1 b5 3d 3e 7f d4 d4 3d
       0.072759 0.14386025 0.18526389 0.10392093
000010 4b 0e e2 bc 77 1b 34 3d c1 e1 e5 3c d4 95 18 3e
       -0.027594706 0.043971505 0.02806175 0.14900905
000020 9a 4f 5c 3e 3c c3 21 bc 3b a7 b4 3d 35 12 ab 3e
       0.2151474 -0.009873208 0.08820959 0.33412328
000030 17 69 70 3e fa 81 ff 3d 8a 25 c7 3d 76 e7 d2 3d
       0.23477589 0.12475963 0.09723957 0.10298054
000040 57 7d 4d 3e 56 55 e9 3d 3b 2b 01 3e 32 8e a6 3d
       0.20067345 0.1139323 0.12614147 0.0813259
000050 e5 7c 58 3c e5 6f c1 3e 10 0a b1 3c 82 5b e0 3d
       0.013213371 0.3778068 0.021611243 0.10954954
000060 2a c1 7f bc a2 ea fa bb f4 46 0f 3e 0a ab f8 3c
       -0.015610019 -0.007657365 0.1399191 0.030354995
000070 28 d9 d5 bd 41 97 f2 bb 14 91 d7 bb 7e ef 8f 3d
       -0.1044181 -0.007403285 -0.006578574 0.070281014
000080 f2 18 e4 3d c7 41 4e 3d 3b 72 33 3e 82 89 a9 bd
       0.111375704 0.0503557 0.17524044 -0.08278181
000090 3c 67 9b 3c 56 18 22 3e 34 f3 c6 3d 87 90 1c 3e
       0.018970124 0.15829596 0.09714356 0.15289508
0000a0 61 01 39 bb 70 52 61 3e 74 75 fb bb 9b 5c f2 3b
       -0.0028229582 0.22004104 -0.0076739136 0.0073962933
0000b0 4f e8 b8 ba e2 1f 4d 3d 16 db e5 3d 9e 3e 84 3b
       -0.0014107319 0.050079234 0.11223428 0.004035785
0000c0 0a cc 41 bc 1a 70 1d bc 7f f6 10 3e c1 9b 0a 3d
       -0.011828432 -0.009609247 0.14156531 0.033839945
0000d0 c3 7c d8 bd 86 81 b8 3d a9 ee 73 3d 7a b9 fe 3d
       -0.105706714 0.0900908 0.059553776 0.124377206
0000e0 44 dc 00 3e d3 0d 67 bc 53 ef 22 bd 41 39 14 bc
       0.12584025 -0.014102417 -0.03977902 -0.0090468535
0000f0 4d 18 30 3d 79 43 a8 3d b3 5a b1 bd c3 9e 05 3d
       0.042991925 0.082159944 -0.08659878 0.03262211
000100 f1 65 c5 bd f9 84 21 bd 1d 80 d4 bd d9 8c c7 3d
       -0.096385844 -0.039433453 -0.10375998 0.097436614
000110 09 72 d8 3d 39 bc af bd 31 8c 59 bd 6c ea 96 3d
       0.105686255 -0.085808225 -0.053112213 0.07368931
000120 9e c5 82 3c e5 d4 35 bd cf 6c 40 bd b5 1d 27 be
       0.015963372 -0.044392485 -0.046978768 -0.16319926
000130 41 e7 ab bd bd 15 98 3d 18 59 ab bd f2 68 94 3d
       -0.083937176 0.07426021 -0.08366603 0.07246579
000140 e8 00 80 bd 91 57 ba bd e3 3d 44 bd 6e 62 7d 3d
       -0.06250173 -0.09098733 -0.047910582 0.061861448
000150 20 9d eb bd ff 70 86 bd 0d 59 1d 3d 33 f3 1b 3d
       -0.115045786 -0.06564521 0.038415004 0.03807373
000160 d3 16 09 be ea 37 da bd 5a 8a 57 bc ff 80 8f bd
       -0.13387613 -0.10655196 -0.013155544 -0.07007026
000170 1c cd 7d bd 85 0b 1c 3c bb 2a 8b 3d e1 46 ef 3d
       -0.061963186 0.009524231 0.067952596 0.11683441
000180 e2 21 cb bd be 14 6a bd 9e 1a e5 3d 65 32 47 bd
       -0.09918572 -0.057148688 0.111867175 -0.048632044
000190 50 44 52 bd 4f d7 51 3d 12 7f ce bd 2e d8 24 3d
       -0.05133468 0.051230725 -0.100828305 0.040245228
0001a0 35 29 82 bd 6b d8 0b bb 22 a2 90 bd 9f 22 0b be
       -0.06355516 -0.0021338712 -0.070621744 -0.13587426
0001b0 45 db ae bb 64 25 3e 3c 2c 05 99 bd 4e 75 02 3d
       -0.0053361976 0.011605594 -0.074716896 0.03185015
0001c0 f0 be f8 bd e2 3a bf bd 5f 24 21 3d f6 85 d8 3d
       -0.121457934 -0.09337403 0.039341327 0.10572426
0001d0 29 5d 6b 3d 7f f0 cb bd c0 27 b8 3d 3a 13 c0 bd
       0.05746189 -0.0995798 0.08991957 -0.09378667
0001e0 53 c6 20 3d d3 ae 62 3b 56 62 91 bc 76 37 0f be
       0.039251637 0.0034589067 -0.017747086 -0.13986
0001f0 ed 6d 1a be 87 c2 18 be a7 4f 28 bd 39 d8 dd 3d
       -0.15080996 -0.14917956 -0.041091587 0.10832257
000200 13 54 36 3d eb 1c b1 3d 81 a7 da bd c2 a3 98 3d
       0.044513773 0.08648094 -0.1067648 0.07453109
000210 47 9a c4 bc 7f c8 02 3d 19 3e b4 bd 44 c3 9c bd
       -0.023999346 0.03192949 -0.08800907 -0.076544315
000220 8c 92 ac 3d 85 4a af 3d 66 de ba bd 29 f6 95 bd
       0.08426389 0.08559135 -0.091244504 -0.07322342
000230 44 5d 5a bd 7f f9 fa 3d fd c1 ee 3d 92 35 5c bd
       -0.0533116 0.12254619 0.11658094 -0.053762026
000240 92 5c d0 3c 35 b0 a2 3d 08 50 c4 bd 22 f9 31 bd
       0.025434766 0.07943765 -0.09585577 -0.043450482
000250 7e 1a c0 3d 27 c7 23 3d c3 26 40 3d c0 d5 d9 3d
       0.09380053 0.03998485 0.046911966 0.10636473
000260 87 e6 63 3d b4 d1 ed bd 12 1b 9e bd e1 e3 09 bd
       0.05563977 -0.11612263 -0.07720007 -0.033664588
000270 d1 70 a5 bd f7 aa 87 3d 68 c1 02 bc 68 7c 93 3d
       -0.08078159 0.06624406 -0.007980682 0.07201463
000280 61 86 44 3c 50 c9 f1 3c f5 8e 03 bd 64 0e b9 3d
       0.011994929 0.029514939 -0.032118756 0.09035948
000290 74 d8 8c 3d fa f9 32 bd 75 86 9a 3c 61 6c 5f 3b
       0.06877223 -0.043695427 0.018862942 0.0034091698
0002a0 46 59 4b bd 16 21 0c be 7a bb a8 3d 37 df 99 3d
       -0.049645685 -0.13684496 0.08238883 0.07513278
0002b0 f9 aa a7 bd 22 17 c0 3d da c5 e0 bd d1 c5 03 be
       -0.08186907 0.09379412 -0.10975237 -0.1286843
0002c0 53 b4 23 3d 35 e2 88 3b 27 07 1c bd b3 35 52 bc
       0.039966892 0.0041773566 -0.03809276 -0.012830186
0002d0 2f 45 a2 3c f8 20 8e bd 7f 6d d3 3d 27 2d b3 bd
       0.01980838 -0.06939882 0.10323619 -0.087488465
0002e0 24 3d 54 bd d5 46 fe bd 79 95 28 bd f5 f1 8d 3b
       -0.05181612 -0.12415854 -0.041158173 0.004331822
0002f0 eb be 7a bd 3f 9b a4 bd ee d9 5a bd 6a 6c 94 bd
       -0.06121723 -0.08037423 -0.05343049 -0.07247241
000300 ca 62 30 3e 2b 92 41 3e f9 5f 71 3d 1a e8 89 3a
       0.17225185 0.18903415 0.058929417 0.0010521442
000310 bf 2a f9 3d 68 9d ee bc ca 53 f2 3d 1a 61 e6 3d
       0.12166356 -0.029127792 0.11832388 0.112489894
000320 4b de 5c 3e 93 09 d6 3d 04 91 47 3d ec ce 42 3e
       0.21569173 0.10451045 0.048722282 0.19024247
000330 e3 91 b8 3d db 41 9d bd 3e 20 0f 3e 41 16 f5 b9
       0.09012201 -0.076785766 0.13977143 -0.00046746622
000340 81 3b 46 3e 47 40 94 bd c8 4e 37 3e 43 13 85 3d
       0.19358636 -0.072388224 0.17901146 0.064978145
000350 f5 2a 0c 3e e5 63 48 3e 09 b4 d3 3d 10 1a ec 3c
       0.13688262 0.19569357 0.10337073 0.028821021
000360 5b d6 b3 3b 8c 40 dd 3d 0f 91 31 3d 7e f6 ba 3d
       0.0054881996 0.10803327 0.04335123 0.09129046
000370 40 55 38 3d 9a 84 cb bc b8 55 1d 3e 97 0c b2 3d
       0.045003176 -0.024843503 0.1536473 0.086938076
000380 f1 57 63 bc a2 d2 38 3e 65 02 52 3e 5b 9d 65 bc
       -0.013875947 0.180491 0.20508726 -0.014014567
000390 8e 00 be 3d 0a 33 13 3d 6c 57 00 3e 7d 62 6f 3d
       0.092774495 0.035937347 0.12533349 0.058443535
0003a0 68 23 7b bd ed a4 a8 3e f8 e2 43 3e f6 97 ad bd
       -0.061313063 0.32938328 0.1912955 -0.0847625
0003b0 37 14 3a bd 70 e6 e9 3d 78 4b dd 3d ee 56 dd 3b
       -0.045429435 0.114209056 0.1080541 0.0067547476
0003c0 03 09 a1 3c 8e f9 1c 3e fe 02 3c 3e 47 6e 37 bd
       0.019657617 0.15329573 0.18360516 -0.044782903
0003d0 9d 95 08 bd 19 9e 77 bd c6 6d 8a bd d6 32 d2 3c
       -0.033345807 -0.060453508 -0.06759219 0.025659006
0003e0 be 6d e2 3d e7 7c e7 bc ab e4 df bc c0 9b c2 bc
       0.11056088 -0.0282578 -0.027330717 -0.023755908
0003f0 09 63 6f 3c 54 3a f8 bc 60 18 80 3d b3 53 86 bd
       0.014611014 -0.03030125 0.06254649 -0.06558933

rnn.bias_hh_l0 f4 [256]
000000 d6 90 bb 3d 39 bd 57 3d f8 c1 9e 3c 4b e8 cf 3d
       0.09158485 0.05267069 0.0193796 0.10151728
000010 77 a5 01 3e 34 15 17 3d 87 5e f8 3d 6d 28 15 3e
       0.12660776 0.036885455 0.12127405 0.14566202
000020 16 26 09 3e 65 5d 3f 3c 40 08 37 3e 0b 71 4b 3e
       0.13393435 0.011679982 0.17874241 0.19867341
000030 0a bb b3 3d f5 dd 7d bd 86 09 04 3e 28 b5 de 3d
       0.08775909 -0.061979253 0.12894258 0.108743966
000040 de ab 64 3e ad c6 40 3d 33 fa 3b 3d ee 9f 36 bd
       0.22331187 0.047064472 0.045892905 -0.044586115
000050 b2 91 b1 bd cb 96 86 3e 46 57 d0 3d 8b 52 6f 3c
       -0.08670367 0.2628692 0.10172896 0.014607082
000060 ea e2 4e 3d 43 79 09 3d 6e 28 8e 3c 69 56 0c 3d
       0.05050937 0.03356291 0.017353263 0.034262095
000070 22 45 6a bd 5c 16 b7 3d 69 90 6d bd 34 f6 6a 3d
       -0.057194836 0.089398116 -0.05799905 0.057363704
000080 45 84 c4 3d 83 00 91 b8 d4 da 51 3e da 34 5e 3d
       0.09595541 -6.914234e-05 0.20493633 0.054249622
000090 8d 3e 32 bd 03 30 5f 3d 20 dd 45 3e e0 11 40 3d
       -0.043516684 0.054489147 0.19322634 0.046892047
0000a0 c0 04 85 bd 94 f1 ad 3d c5 17 57 3e 90 e0 e6 3d
       -0.064950466 0.08493343 0.21005161 0.11273301
0000b0 61 e8 5e bc 5d 95 bc 3d 1f cc b4 3a bc 3d 2d bd
       -0.013605208 0.09208176 0.0013793743 -0.042295203
0000c0 16 d0 86 3d af 6a 20 3e b7 d2 03 3e 1a e7 3b bd
       0.06582658 0.15665697 0.1287335 -0.045874692
0000d0 07 52 92 bc 82 c7 85 3d ff 6d 05 3e 6c ed c8 3d
       -0.01786138 0.06532194 0.13030241 0.0981091
0000e0 3e 8e 17 3d 85 76 52 bd 65 da cc 3d 88 4d 17 bd
       0.037000887 -0.05138256 0.10002593 -0.036939174
0000f0 9a 98 0d 3e 3c d3 c8 3d 97 98 d0 3d da 71 00 3e
       0.13827744 0.09805915 0.10185354 0.12543431
000100 48 12 37 3b 36 9f 08 3e c9 69 06 3e 1e 05 aa bc
       0.002793448 0.13341984 0.13126291 -0.020754393
000110 17 87 a1 bd 92 2f 33 bd 03 b5 11 3c 15 21 42 bd
       -0.078870945 -0.04374654 0.008893254 -0.04739483
000120 a6 8e 98 3d 1c 40 d6 3c 30 06 98 bd f6 27 5a bc
       0.07449083 0.026153617 -0.07423055 -0.0133151915
000130 22 55 1c 3d 58 06 ac 3c 4b c0 08 bd f6 9c 09 3d
       0.038167126 0.020999119 -0.03338651 0.033596955
000140 9a dd ea bc 9a 21 c5 bd bc 71 9f bd 03 73 ec bd
       -0.028670121 -0.096255496 -0.07785365 -0.11545374
000150 37 8e a2 bd 5b b7 ec bd 1b 0b 23 3d 80 03 84 bd
       -0.079372816 -0.1155841 0.039805513 -0.0644598
000160 19 ee e2 bd e1 63 e4 bd db 7d 51 bd 17 c0 02 3d
       -0.1108057 -0.11151863 -0.051145416 0.031921472
000170 e8 f2 d5 bd 29 53 7a bd c4 13 8b 3d 4c cc 79 3d
       -0.10446721 -0.061114464 0.06790879 0.06098585
000180 ac 72 6e bc b1 db 4b 3d 22 1e 66 bd 02 13 fa bc
       -0.014553707 0.04977006 -0.05618108 -0.030526642
000190 fc 57 6e 3d dd 90 56 3d 40 a1 93 3c 74 d6 94 bd
       0.058189377 0.052384246 0.018021226 -0.07267466
0001a0 b6 d1 d8 bd c9 85 fc bc 42 0d b9 bd 34 a2 d7 3c
       -0.10586874 -0.030825512 -0.09035732 0.026322462
0001b0 20 29 1c bd 57 fd a6 3d fc 6c 0a be 5a 00 cf 3d
       -0.038125157 0.081537895 -0.13518137 0.10107489
0001c0 35 27 e2 3d c4 1e fe ba 72 75 0f 3d 61 f6 31 bd
       0.110426344 -0.0019387831 0.035024114 -0.043447856
0001d0 60 27 65 3d 40 5c b9 3d ae 3f ad 3c b7 70 54 3c
       0.055945754 0.090507984 0.021148529 0.012966326
0001e0 18 e2 3f 3b 48 a9 7a 3c 3a fd 89 3d ac 72 43 3d
       0.002927905 0.015299149 0.06737752 0.04771678
0001f0 2b c5 2b be 5b 02 c9 bd 6c 55 16 be 2b cf 3d bd
       -0.16774432 -0.098149024 -0.14681023 -0.04634015
000200 ac 1a a5 bd cd 1d 09 be 24 ef a6 3d 48 ff a7 bc
       -0.08061728 -0.13390274 0.08151081 -0.02050747
000210 e7 35 c2 bd 8a c1 92 3d d7 ff 9b bd af d3 c1 3d
       -0.09482937 0.07165821 -0.07617157 0.094642036
000220 d8 fd ba bd bd 9a c2 3d 0e 9f 4c 3d f9 94 bf 3d
       -0.09130448 0.0950217 0.049956374 0.09354586
000230 53 98 95 38 78 42 c6 bd 66 1d d6 bc 19 08 ab 3c
       7.133246e-05 -0.09680647 -0.026137065 0.020877885
000240 08 d7 1f bd b2 ab e3 3c 9e f5 4f bc 47 62 bb 3d
       -0.03902343 0.027791832 -0.012692837 0.09149604
000250 9a 9d cc 3d 50 84 4d bc 34 4c a7 ba 4f 3e 85 bd
       0.099909976 -0.012543753 -0.0012763799 -0.06506025
000260 ab 8c f6 3d c1 1f a4 bd c4 9e 7c 3d f0 2b 90 3d
       0.12038549 -0.08013869 0.06167485 0.070396304
000270 24 cb b6 bb f9 8c d0 3d 84 00 61 3d 54 cb 21 be
       -0.0055784155 0.101831384 0.054932132 -0.1580022
000280 c3 99 36 bd e6 d9 9d 3d 78 27 ab 3c 0b 2f 2e bd
       -0.044580232 0.077075765 0.020892844 -0.042525332
000290 d7 50 d7 3d 6f 73 b8 3c af 7a 67 bd 9a fc 4d bd
       0.10513466 0.02251598 -0.056513485 -0.050289728
0002a0 2a ce c6 bd 62 d6 15 3d a3 95 85 bd 1e 59 09 bd
       -0.097072914 0.036581405 -0.065226816 -0.033532254
0002b0 d4 bb 97 3d a9 b0 8f 3d ee b1 af 3d ec f3 08 be
       0.07408872 0.07016117 0.08578859 -0.13374299
0002c0 9e 99 05 3e a4 23 11 3d 76 37 89 3d 55 5e 72 3d
       0.13046882 0.03543438 0.067000315 0.059171993
0002d0 d8 fd f7 3d c0 ac e7 3d 8b 34 19 3c de 93 e5 bd
       0.12108964 0.11312246 0.009350906 -0.11209844
0002e0 d2 00 82 3d fc 6f d8 bd b8 c9 83 bb ff 07 0c 3b
       0.06347813 -0.10568234 -0.0040218495 0.002136707
0002f0 0a ab 12 bc c9 2b d8 3b d7 a9 0d be e8 5b 2b 3d
       -0.008951912 0.0065970165 -0.1383432 0.041835696
000300 25 fc 66 3d d8 fe 94 3c 78 a2 c2 3d 93 bd d3 3c
       0.056392808 0.018187925 0.09503645 0.025847232
000310 49 de 3e 3d d0 c3 be 3d c9 df c4 b7 7d 21 15 3c
       0.046598706 0.09314692 -2.3469229e-05 0.0091022225
000320 f1 01 7b 3e 15 18 48 3d a5 ef a2 3d 7f cb 5a 3e
       0.2451246 0.04885109 0.07955865 0.2136669
000330 ec da 6b 3d 7b 8b f1 ba cb d8 77 3d 1b 91 95 bd
       0.057581827 -0.0018428409 0.060509484 -0.07303067
000340 b8 05 0d 3e 02 34 b7 3c 8e c0 41 3e 92 af 82 bd
       0.13771713 0.022363666 0.1892111 -0.06381144
000350 ec 65 88 bd bf 45 3a 3e 8e 47 fc 37 2b 9b 3c bc
       -0.06660065 0.18190669 3.0074061e-05 -0.011511604
000360 d5 aa 10 3d 40 40 ba bd 1e 3a 44 3e 80 31 f9 3d
       0.035319168 -0.09094286 0.19162795 0.121676445
000370 79 ee cc bb f6 b2 af 3d 2e e1 13 3e 75 2f 19 3e
       -0.006254014 0.08579056 0.14441368 0.1495951
000380 41 fa bd bc d0 bf 0f 3e 9c 5a 0a 3e 87 33 cf 3c
       -0.02319062 0.14038014 0.13511127 0.025293125
000390 57 a7 07 3d d9 3d b7 3d da ea c2 3d 6f a2 20 3e
       0.033118572 0.089473434 0.09517451 0.15686963
0003a0 2a 99 0e 3e 72 1c 98 3e aa 8c d3 3d 62 91 0b 3d
       0.13925615 0.29709202 0.10329564 0.034074195
0003b0 14 f9 2f 3e 23 37 d5 bd d9 04 9f 3d 30 4d 2e bd
       0.1718486 -0.10410907 0.077645965 -0.04255408
0003c0 73 b9 2f 3e c4 6c b0 3d 55 0e 67 3d ec 3a 11 3e
       0.17160587 0.086144954 0.056410152 0.14182633
0003d0 93 cf 01 3e 28 1c 92 bd 09 35 e2 bc ab 75 cd 3d
       0.1267684 -0.07134277 -0.02761318 0.10032209
0003e0 93 a9 89 3d 78 4e 17 bd 91 74 73 3b 45 22 2c bd
       0.06721797 -0.036940068 0.0037148336 -0.04202487
0003f0 96 3b 82 bd 33 8a b7 bc 8e 96 f2 3c 31 0d 31 bd
       -0.06359021 -0.022404766 0.029612806 -0.04322547

rnn.weight_ih_l1 f4 [256, 64]
000000 e1 2d 06 bd 77 1a ae 3d fe a8 6c bc 95 0e 8b bb
       -0.032758597 0.085011415 -0.014444588 -0.0042436817
000010 70 5f 24 bd d6 ca 96 bd d5 e1 e1 bd 98 6e 7d 3d
       -0.04013008 -0.07362907 -0.11029402 0.06187305
000020 6b 72 a9 3d 2f 8d c9 3d a9 6a 7d 3d 24 19 f7 3d
       0.082737766 0.09841382 0.061869297 0.12065342
000030 72 7f da bd 42 74 ac 3c e9 6d a6 3d fa 5e a4 3d
       -0.106688395 0.02105153 0.081264324 0.08025928
000040 57 d6 03 3e 6b 03 31 bd 29 ea c5 3d a9 03 2b 3d
       0.12874733 -0.04321615 0.09663803 0.041751537
000050 6d b5 f5 bc f0 a8 d5 3d 5f b0 6f bd 5a d0 d5 bd
       -0.029993737 0.10432613 -0.05851781 -0.104401305
000060 20 1c 6c bd 89 ee 94 bd 74 76 94 3d 4f d6 a5 bc
       -0.05764401 -0.072720595 0.07249156 -0.020243792
000070 8f bf 8b bd 78 0c 48 3d 68 9c bd 3d 78 6a 28 3d
       -0.06823646 0.048840016 0.09258348 0.04111716
000080 fe 0e 8e 3d 22 eb 21 bd f6 3d 1d 3c b5 c0 3e bd
       0.06936453 -0.03953088 0.009597292 -0.0465705
000090 0f b0 96 3c 51 0c 0c 3e 77 eb 0b bd c6 cd 3c 3c
       0.018394498 0.13676573 -0.034160104 0.01152367
0000a0 66 1a a5 bd bd e5 ba bd cf 8a 1e bd 74 7f 67 bd
       -0.08061676 -0.0912585 -0.038706597 -0.056518033
0000b0 07 5d 11 be 91 3a 8c bd 49 0b e9 3c c0 91 a7 3c
       -0.14195643 -0.06847108 0.028447764 0.020455241
0000c0 28 eb d4 bd 20 50 08 bd a4 db 10 3d 2b 66 7e bd
       -0.10396415 -0.03327954 0.035365716 -0.062109154
0000d0 73 ea e6 3c d2 4f 0c 3d cd ac 3e bd fd 01 de 3d
       0.028187966 0.03425581 -0.046551514 0.10840223
0000e0 0a 3a e1 3c 5c e3 76 b9 5d c3 6e bc 7e 6d f4 bd
       0.027493495 -0.00023545086 -0.014572945 -0.119349465
0000f0 d9 ab 88 3d 4b 39 fa bd 9c 31 d5 3d 26 51 bf bd
       0.06673402 -0.12217959 0.10409853 -0.0934165
000100 3e da 29 3b 8f 19 2e bd eb 0d f2 3b 78 8a 74 3d
       0.0025917436 -0.042504843 0.007386913 0.059702367
000110 52 e2 cf bd 58 02 8d 3d 49 c7 91 bd 8d 58 65 bd
       -0.10150589 0.06885213 -0.07118089 -0.05599265
000120 76 8c 0b 3e 9a 95 e6 3d d5 46 a8 3d b8 75 93 3c
       0.136278 0.11259003 0.08216635 0.018000469
000130 32 e8 50 3d ba e9 38 3e 22 34 e2 bd 0e a2 d0 bd
       0.05100269 0.1805791 -0.110451 -0.101871595
000140 2f 89 f1 bd f9 b1 e3 bc 92 5a e7 3d bc 9f 27 bd
       -0.11793744 -0.027794825 0.11296572 -0.04092382
000150 09 6d fd 3d 7d b6 86 bd 10 68 8f 3d 87 b3 1a 3e
       0.123743124 -0.065777756 0.0700227 0.15107547
000160 0d b7 8e 3c 1f 7e 1b bd 02 ee bc 3d cb 50 37 3d
       0.01742127 -0.037962075 0.09225084 0.044754785
000170 0d f8 48 bc a5 c9 b9 bb c1 a7 06 3e 52 29 70 3c
       -0.012266171 -0.00566979 0.1314993 0.014658289
000180 0d fd b9 3d 49 4a aa 3d 18 75 44 bd 2a 4c f1 3a
       0.09081469 0.0831495 -0.04796323 0.001840954
000190 aa 43 c3 3d 8f e6 3d 3d b4 16 22 bd b5 f8 23 bc
       0.0953439 0.046362456 -0.039572433 -0.010008027
0001a0 0a 8f 93 bd b2 3a 78 3d 98 e8 84 3b 17 5e b4 3b
       -0.07205017 0.06060285 0.0040560476 0.0055043804
0001b0 29 2f 80 bb 10 d1 e2 3d 56 72 bc bd 98 5f fb bd
       -0.003911872 0.11075032 -0.09201495 -0.122740924
0001c0 8d 7c 82 3d 57 8d 01 3e b8 c0 e0 3d 34 4f 0c 3c
       0.063714124 0.12651573 0.10974258 0.008563805
0001d0 9f f0 0b 3e 9f e3 46 3a 4b 6c 18 3e 19 80 27 bd
       0.13666008 0.0007587019 0.1488506 -0.040893648
0001e0 d7 f1 92 3d 1a 81 8d 3b 62 8f 34 be 68 26 50 bd
       0.071750335 0.0043183686 -0.17632821 -0.050817877
0001f0 2c 09 61 bc 10 33 c7 3c 69 dc c1 3b 2e 6e 73 bc
       -0.013735097 0.02431634 0.0059161675 -0.014857812
000200 07 91 f3 3d 0c 57 e2 3d 88 a2 c2 3c 03 e0 dc 3d
       0.11892896 0.11051759 0.023759142 0.10784914
000210 c4 b0 d9 bc 58 38 cd bc bd 02 23 be 9a 5d 3c 3c
       -0.026573546 -0.02505128 -0.15919013 0.011496926
000220 ce 0e 01 3e 43 06 84 3c ee cc 64 bd a6 35 1e bd
       0.12603304 0.016116267 -0.0558595 -0.038625382
000230 01 7a b5 bc d8 51 8b 3c a7 91 a5 bd c5 07 2b 3d
       -0.022152903 0.0170068 -0.080844216 0.041755456
000240 58 54 46 3d ff 25 cd bd 0e 98 3c 3c 32 ad 54 bd
       0.04842028 -0.10017013 0.011510862 -0.051922984
000250 05 38 a4 3d f2 63 35 3c 3c 67 a3 3c fe 79 8b 3d
       0.080184974 0.011071192 0.019946687 0.068103775
000260 8d c8 7b bb 04 fd f3 bd e6 ff 91 3d 89 87 b4 bb
       -0.0038419098 -0.11913493 0.07128887 -0.005509321
000270 ee 54 dd bc d6 4a 86 3d 21 73 81 3d 4e b0 b1 bd
       -0.027018037 0.065572426 0.06320787 -0.086762056
000280 ad 86 98 3d 85 57 da 3d fe 46 0e 3e 69 a1 dc 3c
       0.07447562 0.10661224 0.13894269 0.026932435
000290 50 89 ac 3d a2 df 57 bc 13 ea c1 3a ed 4f 10 3d
       0.08424628 -0.013175877 0.0014794491 0.035232473
0002a0 1d c4 d2 bd 63 93 9d bb 8d 40 aa bc f6 ad fa 3d
       -0.10291312 -0.0048088296 -0.020782733 0.12240212
0002b0 ff ce 82 3d e7 c0 10 bc f0 54 d6 bd 22 5f fd bd
       0.063871376 -0.008835054 -0.10465419 -0.12371661
0002c0 7a 1e c3 3d 1e c7 d7 3c fb b0 a3 bd ef 21 03 be
       0.09527297 0.026340064 -0.07992741 -0.12805913
0002d0 72 81 c1 bc 1c 1a bc 3d f4 1d b1 3d b2 3b e1 bd
       -0.023621295 0.091846675 0.08648291 -0.10997714
0002e0 02 be 88 3d 8a 71 48 bd 68 63 6d 3d cd 78 10 bd
       0.06676866 -0.048936404 0.05795613 -0.035271455
0002f0 13 e9 36 38 09 6c 27 3d d5 02 b6 bc 8f d3 f5 bd
       4.360925e-05 0.040874515 -0.022218147 -0.12003242
000300 ca 51 ed 3b 31 bd 0f 3e be f2 e6 bd 7a ef cc 3d
       0.007242416 0.14037015 -0.11276768 0.10006614
000310 37 11 2c 3d 55 5b fb 3d 97 b6 6d bc 66 40 20 bd
       0.042008605 0.122732796 -0.014508865 -0.039123915
000320 e1 07 ac bd bd d8 24 3e 00 8e cd 3a 20 7b 2b bd
       -0.0839994 0.16098304 0.0015682578 -0.041865468
000330 6a f2 fb bb b0 35 0f bc f3 58 59 3d 0f e6 00 3d
       -0.00768881 -0.008740827 0.053063344 0.0314694
000340 29 35 7f 3d ad ee 08 3e 8b 09 26 be 76 fb c9 bc
       0.062306557 0.13372298 -0.16214578 -0.024656039
000350 d5 d4 5b 3c a2 fa 4a 3d a0 50 b3 bd 7b 91 fb 3c
       0.013417442 0.04955543 -0.087556124 0.030709019
000360 de 21 ea bc 08 42 fb bd e3 2c 66 3c 3d 34 cf 3d
       -0.028580602 -0.12268454 0.014048788 0.101173855
000370 f5 5d a6 bb 85 12 ce bb 08 b6 36 3c 61 cd 09 be
       -0.0050771185 -0.006288829 0.011151798 -0.13457252
000380 f6 71 a1 3d c9 20 9b 3d a7 05 8a bd 2f 43 fd bd
       0.078830644 0.07574613 -0.06739359 -0.1236633
000390 8f 96 63 bd cb 85 0d be 8f a6 89 3d 58 94 bc bd
       -0.055563506 -0.13820569 0.06721222 -0.09207982
0003a0 13 08 0f be b9 7b b9 bc e2 b0 98 bd ed 24 d4 bc
       -0.13967924 -0.022642003 -0.07455613 -0.025896514
0003b0 9b 12 97 3d b2 cd 53 3c 80 c5 11 be 0a 6a eb bd
       0.073765956 0.01292746 -0.14235497 -0.11494835
0003c0 04 83 24 3e df 70 6a 3c 07 c0 a7 bc 24 89 ba bc
       0.16065603 0.014309137 -0.020477308 -0.022770472
0003d0 08 20 96 3d 3a 6a fb 3d 52 5e 67 bc 21 a1 92 bd
       0.07330328 0.122761205 -0.014121609 -0.07159639
0003e0 05 8e f7 bc e4 85 0e be d9 27 07 3d aa 23 5d 3d
       -0.030219087 -0.13918263 0.032996986 0.05398909
0003f0 83 f3 9c bc c6 15 99 bc 06 84 c0 bc 7e 51 be 3d
       -0.019159084 -0.01868714 -0.023500454 0.09292887

rnn.weight_hh_l1 f4 [256, 64]
000000 13 e7 9f 3d f4 49 b2 bc 55 52 64 bd 87 6b 98 bd
       0.07807746 -0.02176378 -0.05574258 -0.07442384
000010 47 16 9a bd 96 4f 11 3e 69 05 b4 bc a2 a3 03 3e
       -0.0752378 0.14190516 -0.021975236 0.1285539
000020 0c c2 ab 3b 67 76 cb bd 46 45 ad bd 21 3c c1 bc
       0.005241638 -0.09934693 -0.084604785 -0.023588242
000030 df 93 6d 3c 31 54 94 3d b5 b8 1d bc 90 ce 25 3d
       0.014500587 0.07242621 -0.009626557 0.040480196
000040 16 e1 bc bc 4a e4 f6 bd 4f b7 5e 3d c9 be d0 bd
       -0.023056548 -0.120552614 0.054374035 -0.101926394
000050 82 eb 93 bd 35 fb aa bd 1c d0 15 3d e7 09 49 bd
       -0.07222654 -0.08348695 0.03657542 -0.04908171
000060 77 1c b9 3d af 67 e1 bd 9c f3 92 bd 2a d2 c5 3d
       0.09038632 -0.11006104 -0.07175371 0.09659226
000070 50 89 d0 bd 83 e6 af bd 1a 1c 4a 3d 81 50 3c 3d
       -0.1018244 -0.085888885 0.049343206 0.045975212
000080 a2 c4 24 ba f9 3f a1 bd 43 c2 81 3d fd 64 78 3b
       -0.0006285404 -0.0787353 0.063358806 0.003790199
000090 3e 69 ce bb 3c e1 8c 3d 09 8a 35 bd e8 78 0c 3e
       -0.006299167 0.068788975 -0.044321094 0.13717997
0000a0 4b c4 25 bc 7d d0 1f bd ca 96 8a bd 49 67 cb 3d
       -0.010117601 -0.03901719 -0.06767042 0.099318095
0000b0 0e a8 ed bd 23 b1 30 bd 40 12 83 3e bc 83 94 3d
       -0.116043195 -0.04313768 0.2559986 0.07251689
0000c0 82 65 b9 3d 42 5c 98 bd 58 ca 0b 3d ed 05 08 bd
       0.09052564 -0.07439472 0.034128517 -0.033208776
0000d0 95 25 f9 3d 4f 32 34 3d c2 11 a6 3d ba 15 06 3d
       0.12165371 0.04399329 0.08108856 0.032735564
0000e0 98 13 4a bd b3 7c 98 3d 09 a3 f0 3c c6 a9 74 bd
       -0.049335092 0.074456595 0.029374616 -0.05973222
0000f0 16 42 33 bd 13 de a6 3d 28 39 a7 3d 44 fe 7c bd
       -0.043764196 0.08147826 0.081651986 -0.061765924
000100 f6 d2 69 bd 92 2d 00 3e 45 01 cb 3d 03 5e bd bd
       -0.057085954 0.12517384 0.099123515 -0.09246447
000110 c4 0c 45 bd 00 61 72 3c eb 52 a8 bd 8e 3a 91 bd
       -0.048107877 0.014793634 -0.0821894 -0.070912465
000120 cf 47 a4 3d e7 4b 85 3c 8a 9c be bd 57 b2 32 bd
       0.08021509 0.016271545 -0.09307201 -0.04362711
000130 80 5d 45 3e c1 d5 a0 3d 8e ae 9f 3d 15 aa 84 3d
       0.19273949 0.0785327 0.077969655 0.06477753
000140 d7 31 98 3d ec 93 c0 bc 7a dd 0a 3b 7e 4d 9d bb
       0.07431381 -0.023508035 0.002118914 -0.0048004976
000150 6a 74 9d bd 0b 0f 1d 3e 3a 22 9b bd 0a 73 e8 bd
       -0.0768822 0.1533777 -0.075748876 -0.11350067
000160 5b ff 08 3d b6 32 98 bd 5b cf 2c 3d fc a9 7e 3d
       0.03344665 -0.07431547 0.042189937 0.06217383
000170 50 ad 84 be 15 6d 0a bc 15 e9 74 bd 5d 7a c6 bc
       -0.25913477 -0.008448859 -0.059792597 -0.02422827
000180 1e c2 97 bc 90 85 74 3b 71 e2 4d 3e 4f c4 e4 bc
       -0.01852518 0.0037311055 0.20105912 -0.027925638
000190 51 f4 0d be 21 cc 7a 3d 91 90 8c 3b cc 1d e3 bd
       -0.1386273 0.06122983 0.0042896946 -0.11089668
0001a0 ce 26 93 3d 4c 38 d7 3d 3d e5 bb 3d 43 5c b6 3a
       0.07185136 0.10508785 0.09174583 0.0013912994
0001b0 a3 66 3b 3d 67 e3 9c bd be 87 e0 3d 19 e0 2f bc
       0.04575218 -0.07660561 0.10963391 -0.010734581
0001c0 a4 95 0c be ac 4a 06 be b3 e2 b0 bc ac 77 4a bd
       -0.13728958 -0.13114423 -0.021592474 -0.049430534
0001d0 c5 59 2d be 76 5d 76 3d 20 b4 04 be 90 4b 2a bd
       -0.16928776 0.060147725 -0.12959337 -0.04157597
0001e0 92 54 37 3d 72 7c 87 3d 7a ce ec bd 01 41 88 bd
       0.044758387 0.06615533 -0.1156282 -0.066530235
0001f0 23 a8 be 3c c4 b9 a1 3d 14 17 10 bd db 2e 91 bc
       0.023273533 0.0789676 -0.03517826 -0.017722538
000200 75 8f c6 bd 1b 5a e8 3d 37 10 ab 3d b4 ce ba 3d
       -0.09695331 0.11345311 0.08352702 0.09121457
000210 18 0a 04 3d 72 5f d9 bd 40 43 0f be 1d cf fd bd
       0.03223619 -0.10613908 -0.13990498 -0.12393019
000220 c4 a1 89 3c 86 10 85 3d c4 ac a6 bd 96 9a 8c bb
       0.016800769 0.06497292 -0.08138421 -0.004290889
000230 25 ac fe bc 92 0d 37 3b ec c4 e6 3c f0 e4 31 bd
       -0.031087944 0.0027931673 0.028170072 -0.043431222
000240 fc 89 71 3d 91 86 b5 3b 45 40 64 3c 01 a1 c7 3c
       0.058969483 0.005539723 0.013931339 0.024368765
000250 32 f3 d0 3c 49 df ca bb ed ae 14 be 38 99 b1 bd
       0.02550659 -0.0061911684 -0.14519854 -0.08671802
000260 92 23 16 3d 3d e9 60 bd c5 0d 0f 3e 25 33 85 bd
       0.036655016 -0.054909933 0.13970096 -0.06503896
000270 80 98 2a bd 25 b6 ba 3d 14 62 73 bd 11 a1 61 3d
       -0.04164934 0.091167726 -0.059419706 0.055085246
000280 c7 71 4f bd 97 88 ce bc 67 21 7c 3b dc e7 82 bd
       -0.050645616 -0.025211615 0.0038472058 -0.0639188
000290 08 6b dc bd ba bc f2 3d 9b e1 dc bd 67 cb c9 3c
       -0.10762602 0.11852403 -0.10785218 0.024633123
0002a0 06 af 2c bd a9 63 83 3c 83 21 b8 bd 0f f0 ee bd
       -0.042159103 0.016038733 -0.08990767 -0.11666881
0002b0 53 8a f6 3d 4e ff 4a bd 4c 11 31 bd d7 ad af 3d
       0.12038102 -0.049559884 -0.043229386 0.08578079
0002c0 af 74 e9 3c 6a 85 23 bc 39 af 52 3c c9 c7 fc 3c
       0.028498022 -0.009980539 0.012859159 0.030856984
0002d0 d6 97 12 be 2e 93 d3 bd 6a 0e 47 3d a1 73 ad 3c
       -0.14315733 -0.10330807 0.04859773 0.0211733
0002e0 45 16 29 bd a1 d5 58 bd 7f 3f a6 3d b6 59 3b bd
       -0.041281004 -0.052938107 0.0811758 -0.045739852
0002f0 6d 16 53 bd 56 af 67 ba 26 70 53 bd f4 65 55 bd
       -0.05153506 -0.0008838078 -0.051620625 -0.052099183
000300 fc b4 1a be 09 78 67 bd 9d 67 4e 3c be c3 8d 39
       -0.15108103 -0.05651096 0.0125979455 0.00027039455
000310 1b a1 59 3d 74 ab ad 3d aa 2d 0a be d5 1d 02 3d
       0.053132158 0.08479968 -0.13493982 0.03176673
000320 c4 13 5d bd 26 8d b2 bc 34 9d d6 bc fe 2b 94 bd
       -0.053973928 -0.02179582 -0.026198007 -0.07234953
000330 60 2d af 3d 18 0e db bc 27 df 35 be 92 26 7e 3d
       0.085535765 -0.026740119 -0.17760907 0.062048502
000340 18 e8 98 3d f0 78 5f bb 4c cb d2 bd f2 62 ed 3d
       0.07466143 -0.0034099184 -0.10292682 0.11591138
000350 18 49 b4 3c dc 84 29 bd 70 aa ec 3d d4 75 f3 bd
       0.02200751 -0.04138647 0.11555946 -0.11887708
000360 96 42 d3 3d 64 8b 3c be 9c 3e bd 3d 0e ef 3c 3c
       0.10315435 -0.18412548 0.092404574 0.011531604
000370 b4 72 bd bd f9 42 af 3a 57 5e ec 3d f2 9f 15 bc
       -0.092503935 0.00133714 0.115414314 -0.009132372
000380 4d 9f 4c 3d 6a 08 bc 3d b3 7d 87 3a 78 15 b6 3d
       0.04995661 0.09181292 0.0010337144 0.088908136
000390 76 74 13 bc 87 d9 01 3e 45 6e 3b bd 23 7e a6 bd
       -0.008999934 0.12680636 -0.045759458 -0.081295274
0003a0 97 5f 04 be a6 9b 0c 3d d5 e4 67 3d 65 be ac bd
       -0.1292709 0.034328125 0.056614716 -0.084347524
0003b0 7b 5c 30 3c 56 5c c2 3b af 78 9c bd ef 6e 92 bd
       0.010764237 0.0059314175 -0.07640206 -0.07150065
0003c0 89 96 d5 3c e3 5f b3 3c 3a 84 71 3d ce cf 97 bd
       0.026072757 0.021896308 0.05896399 -0.074126825
0003d0 44 73 2d bd 2d 8f 84 bd f8 18 aa bd 08 e5 96 3c
       -0.042346254 -0.06472621 -0.08305544 0.018419757
0003e0 77 42 35 bc 6b 06 0e 3d 3d d7 0e 3d b4 71 3f be
       -0.01106321 0.03467409 0.034873236 -0.18695718
0003f0 0c 1c 28 bd c8 62 fc bd 03 50 c0 bd 7e d5 52 bd
       -0.041042373 -0.123235285 -0.09390261 -0.051473133

rnn.bias_ih_l1 f4 [256]
000000 df e9 a3 bd a2 ff c4 3c 86 5e 8a 3d 24 f9 2b bd
       -0.08003592 0.024047676 0.0675631 -0.041985646
000010 d9 4e 42 bd 4d 0a d3 bc b8 48 d9 bd bb 3c fd 3d
       -0.047438476 -0.025761748 -0.10609573 0.12365099
000020 8c 56 9a 3d 68 79 e2 bd 53 58 f3 3d 88 7d 3b 3d
       0.07536039 -0.11058313 0.11882081 0.045774013
000030 1c a1 2d 3e bc 20 34 3d 98 8b 55 3e 88 35 6a 3d
       0.1695599 0.04397653 0.20854032 0.057179958
000040 9d 57 7f 37 5d 76 06 3e c4 61 bd bc 9c a2 75 3c
       1.52195835e-05 0.1313109 -0.023117907 0.014992382
000050 99 ab a5 bd d9 c8 4a 3c c3 6a e4 3e 57 65 e2 3c
       -0.0808937 0.012376987 0.44612703 0.027636213
000060 bd bc 68 3d bd 1f d2 bd 4e e3 26 3d 55 52 1d bd
       0.05682062 -0.1025996 0.04074412 -0.038408596
000070 43 2f 72 3e c0 ee a7 bd 67 90 87 3d d1 77 4b 3d
       0.23650841 -0.08199835 0.066193394 0.049674813
000080 11 17 9f 3d 05 cf 1f bd 59 db f3 3e fb 4b 9e 3d
       0.077680714 -0.03901579 0.47628286 0.07729336
000090 22 0b 8e 3e e2 fb 1a 3c ff 12 ff bd b3 a6 3b 3e
       0.2774287 0.009459468 -0.12454795 0.1832531
0000a0 dc 9f 4b 3a 8f dd c4 3d 08 cf 1b 3e 53 fd 11 3e
       0.00077676564 0.096125714 0.15215695 0.14256792
0000b0 c6 d9 67 3c 3c 46 ab 3e 9e 56 3a 3f c8 96 be bc
       0.014151042 0.33452022 0.7278842 -0.023265257
0000c0 2b ee 0e 3d 2e 02 f3 3d 6c 63 08 3e c5 8b 3f bd
       0.034895103 0.1186565 0.13319176 -0.046764154
0000d0 47 5e 56 bc 5b e0 c5 3e 7e 36 fa 3d c7 cd 51 3e
       -0.013084001 0.38647732 0.12217425 0.20488654
0000e0 54 b4 64 bc 16 24 57 3e 2f c0 87 ba cb c7 e1 3c
       -0.013959009 0.2100986 -0.0010356958 0.027561089
0000f0 2d 8a ad 3c 21 7d ce 3d 5d 69 3c bd 1d 62 e7 3d
       0.021184051 0.1008246 -0.04599892 0.112980105
000100 c1 ba d6 3d 8d ef e4 bd bc ec a4 bd 87 7a 07 3d
       0.10484839 -0.11178503 -0.08052966 0.033075836
000110 5c c9 05 3d 11 7a bf 3d 9e 7e 79 bb ce 77 a3 bd
       0.032662734 0.09349454 -0.0038069854 -0.07981835
000120 2b c1 33 3d 6f 27 21 bd 67 8b b2 bd be 86 6d bd
       0.04388539 -0.039344247 -0.08717995 -0.05798983
000130 4f 97 6f 3d db 1f f4 bd ce 98 ff bc 64 8b 47 3d
       0.05849391 -0.119201384 -0.031200793 0.048716918
000140 c5 5c c5 3d 21 ac c4 bb 7e f1 01 be b3 6d e2 bc
       0.09636835 -0.0060019647 -0.12689778 -0.0276402
000150 c8 ff be bd 99 3c 13 bd fc d3 e4 bd a3 43 fe bd
       -0.0932613 -0.035946462 -0.11173245 -0.124152444
000160 56 ea 95 bd 3f 41 d3 bd b4 4f 6a be 6a 44 0e be
       -0.07320087 -0.10315179 -0.22881967 -0.13893285
000170 fe b5 7d bd 5f 53 08 be aa cf d3 3d cb a9 f3 bd
       -0.06194114 -0.13313054 0.10342343 -0.1189762
000180 1e 66 19 bd 80 da 55 3d 61 d3 27 be 28 71 0d bd
       -0.037450902 0.05221033 -0.16389228 -0.034531742
000190 45 4c e6 3d 06 5e 06 bd 6f 20 cf 3d 0f e0 40 3d
       0.11245016 -0.03280451 0.10113608 0.04708868
0001a0 a0 44 8c bc 7c 0d 5b 3d 0a e6 2a bc 89 69 ee bc
       -0.017122567 0.053479657 -0.010430822 -0.029103057
0001b0 01 b2 9a bd d3 2c 29 be 80 5f 72 be 40 9c 08 bd
       -0.07553483 -0.16521005 -0.23669243 -0.033352137
0001c0 76 a7 57 bd a6 9c 3a 3d d6 f7 a6 3d 97 3d 50 3d
       -0.052649938 0.045559548 0.0815274 0.050839987
0001d0 4d d4 cb 3d 99 74 8e bd 06 ec 11 ba 90 68 0d be
       0.099526025 -0.06955833 -0.0005566481 -0.13809419
0001e0 a0 c9 f1 3b 13 33 56 bb 03 33 ae 3d 45 d2 97 3d
       0.007378772 -0.0032684251 0.085058235 0.074131526
0001f0 57 b8 9b bd 54 f5 a4 bd da cd 8f bd 64 11 86 bd
       -0.076035194 -0.08054605 -0.07021685 -0.06546286
000200 31 53 85 bd 15 9b d2 3d 18 d6 80 bd bc 3e 80 3b
       -0.06510008 0.10283486 -0.06290835 0.0039137285
000210 1d a8 e0 3c 84 c2 f3 bb ab 97 06 3c 93 b4 7d bd
       0.027423913 -0.0074389596 0.008214871 -0.061939787
000220 a5 af 63 bc 99 06 05 bc cb 22 b7 bd 9f 1d fb 3d
       -0.013896857 -0.008119249 -0.08942183 0.12261509
000230 68 6c 50 3d 30 89 b8 3d 1f f9 26 3d 05 2f 89 3d
       0.050884634 0.090105414 0.040764924 0.066984214
000240 22 8a cf 3d c1 bd a4 bd 49 15 a4 3d e3 bd d0 39
       0.101337686 -0.08044005 0.08011872 0.00039814328
000250 14 1d ab bd 9a 05 5d 3c b8 a7 43 3d d0 53 8d bd
       -0.083551556 0.013490105 0.04776737 -0.069007516
000260 f9 58 dc bd 42 33 02 be e6 13 91 bd 42 90 ea bd
       -0.10759158 -0.12714866 -0.070838735 -0.11453296
000270 fc 58 8f 3d 3e b6 71 bd 5e c7 de bd 5c 4e 83 bd
       0.06999394 -0.05901169 -0.1087787 -0.0641143
000280 33 d9 98 bc a9 cc 7b 3d 59 3f d9 3d ca 78 cf 3c
       -0.018658256 0.061474476 0.10607786 0.025326151
000290 e3 c4 1c 3c 38 af cb bd 54 cb ad bc c0 06 b3 3d
       0.009568426 -0.0994553 -0.021215118 0.08741522
0002a0 4f dd 5f bd 34 78 12 3d 73 5f 10 bd 88 45 78 3d
       -0.054654416 0.035759166 -0.035247277 0.060613185
0002b0 c7 cf e0 bd c1 58 97 3b b7 05 d4 bc 89 74 a0 bd
       -0.109771304 0.0046187346 -0.025881631 -0.07834727
0002c0 8b cb b2 3d a3 cc db bc f9 ad f6 3b ce 17 34 3c
       0.08730229 -0.026830977 0.0075280634 0.010992004
0002d0 bb ef ca bd 22 ae d5 3d cf 1b 95 bd 62 67 25 bd
       -0.09909006 0.10433604 -0.07280695 -0.040381797
0002e0 7f ce ee bd 7f e8 0d bd 42 eb 08 3d 34 8a 2f 3d
       -0.1166048 -0.034645554 0.033427484 0.04285641
0002f0 47 21 40 3d 6a 4d 58 bd c5 68 54 3d ec 07 fe bc
       0.046906736 -0.052808203 0.05185773 -0.031009637
000300 ed 76 04 3e 24 61 f6 bc 5a c8 b9 bb 7b a5 c1 3c
       0.12935992 -0.030075617 -0.0056696357 0.023638478
000310 15 06 13 3e 6f 8d 0f bd 42 a4 ac bd d1 5b 9f 3d
       0.14357789 -0.03504699 -0.08429767 0.077811845
000320 8b aa ef 3d c0 64 f1 bd 75 3b a7 bc 1b c9 2e 3c
       0.1170245 -0.11786795 -0.020414094 0.0106680645
000330 c6 b5 59 3e 0f 22 22 3d 46 a7 28 3e 3a 4f 02 3e
       0.21260747 0.039583262 0.1647006 0.12725535
000340 9a fe ef bc ce cf 45 bd 36 bb 11 3e 9a bb 85 3d
       -0.029296208 -0.04829388 0.14231572 0.06529923
000350 9d 82 61 3d 25 29 10 3d bd 72 e1 3e 69 5b 0b bd
       0.055056203 0.03519549 0.4403285 -0.034022722
000360 9c 57 1b 3d 0a 1e 87 bd 67 ef 6c bc 11 06 78 bd
       0.037925348 -0.06597526 -0.014461375 -0.06055266
000370 b6 b4 c9 3e b4 83 4a bd c3 a2 28 3c 8d b7 25 3e
       0.39395684 -0.04944201 0.010292712 0.161833
000380 e9 93 15 3e 11 36 62 bb 86 ce b1 3e 7c 5e 71 3d
       0.14607204 -0.003451709 0.34727877 0.058927998
000390 29 0d 08 3e f5 a2 da 3d 6e 92 a0 3d 25 5a c5 3c
       0.1328627 0.10675613 0.07840429 0.024090836
0003a0 0f 2e d7 3c 82 bd 2d 3c 9e 7a 8f bd 85 74 93 bb
       0.02626708 0.010604264 -0.07005809 -0.004499974
0003b0 4d f8 7f 3d 4b 03 8f 3e e9 cb 34 3f 5b 36 83 bd
       0.062492657 0.279322 0.7062364 -0.06406852
0003c0 ab 0a 09 bc 98 6b db 3d bb 22 9e 3d 61 6c d8 bc
       -0.00836436 0.10713881 0.07721468 -0.026418867
0003d0 32 06 2f 3d 6f 21 8c 3e 37 2b f7 3c f3 09 8d 3e
       0.042730518 0.27369258 0.030171974 0.27546653
0003e0 21 d2 03 bd c6 9c d8 3d 4f 28 f2 3d 41 ee c6 3c
       -0.032182816 0.10576777 0.118240945 0.02428353
0003f0 da 26 f3 3d c1 79 b3 3d 13 65 7c 3d 05 f7 7d bc
       0.11872645 0.08763457 0.06161983 -0.015500789
