checkpoints/Tend_LSTM_L2_bs16_train10-20-30_bsfirst_lossall/Tend_LSTM_L2_bs16_epoch45_best0.3597448804075756.pt (torch, 206215 bytes, 9 tensors)

rnn.weight_ih_l0 f4 [256, 3]
0.11603015 -0.018290719 -0.13052417 0.16595526 -0.02689783 0.10651128 0.03920238 0.09175769
-0.0077258777 0.02060907 0.14105806 -0.008519862 0.29205522 -0.118046395 0.0038421282 0.0330636
0.067699805 0.032255147 0.13918705 0.108943015 -0.04510563 -0.010100526 0.03211942 0.035047285
0.08433677 0.13172199 0.036264047 0.02071202 -0.22164355 0.03725481 -0.0032267277 0.17769673
0.02113144 -0.34061974 0.18145615 0.22074136 0.1041184 -0.051830325 0.013561218 0.08240662
0.07031845 0.14923808 0.19594191 -0.1519999 -0.03599565 0.147098 -0.06432589 0.06288714
0.06420672 0.12880304 -0.12602939 -0.01307369 -0.15544531 -0.0054328586 0.13712288 0.1847558
0.029284345 -0.022331173 0.1936906 0.02741696 -0.034307905 0.17049804 0.086495884 0.48293173
0.02266935 0.22396944 0.08350967 0.07519752 -0.045062352 -0.0192751 0.20870598 0.016963406
0.1374451 -0.078265876 0.011771916 0.1560716 0.065864034 0.063790746 -0.039518002 0.15005392
0.029204937 -0.12116609 -0.015365399 -0.18858035 0.11036868 -0.011544902 -0.09948614 0.09016325
-0.10306364 -0.02159993 0.08148953 -0.06566535 0.10039256 0.075626135 -0.33780172 -0.03650764
0.09387798 0.094488524 -0.020698406 0.019025957 0.21559289 0.042598583 0.15898655 0.18886924
-0.028249197 -0.17537588 0.09917901 -0.03228115 0.1476188 0.077462874 0.08155502 0.1800105
-0.08732271 -0.050864287 0.1851174 0.14288692 0.19403172 0.114174 -0.011670389 -0.013025183
-0.015921317 0.12900342 0.17515106 -0.35175186 0.16748516 0.039601427 0.029830834 -0.061438426
0.24714753 0.16928966 -0.09338223 0.19433346 0.18430299 0.18000634 0.18194944 0.18025191
0.11671607 -0.025051944 -0.08131188 -0.024627304 -0.11709198 -0.04054572 -0.14299302 0.04339767
0.12847939 -0.14125928 0.05291633 0.09384276 0.149492 0.13676788 -0.33310544 0.09689909
-0.2957925 -0.004102545 -0.07270411 -0.11968976 0.004225826 -0.09744625 0.06571421 0.016118547
-0.13687907 0.05570863 0.045416236 0.15647873 -0.12382546 0.03858101 -0.2462764 -0.02726694
-0.089642495 -0.0044404175 0.019716477 0.06881894 -0.012036412 0.021913035 0.20594828 0.25612065
0.1267606 0.013225302 -0.12557083 0.082511395 0.041285373 0.072800644 0.13494882 0.1984823
-0.10182253 0.28472334 -0.047862373 -0.25146812 -0.06020893 -0.024281915 0.13037273 -0.028299201
-0.08772397 0.038472958 -0.024208235 -0.11749907 0.16839522 0.13617912 0.12086261 -0.036308017
-0.01123402 -0.10907157 0.21532278 -0.13895692 0.37690777 0.03209379 -0.0866471 0.040817823
0.061510757 0.08328872 0.023350237 0.14273806 -0.1488143 0.12824364 0.19109386 0.11423134
-0.012997158 0.06524805 -0.1586552 0.08171785 -0.1591513 0.116249785 -0.2508092 -0.058209173
-0.10720364 -0.5342436 0.036982093 -0.14203075 -0.08719136 -0.05086839 -0.15519506 0.048097853
0.30439454 0.09092833 -0.06746284 -0.15740354 -0.12131508 0.13525689 0.129287 -0.092080235
-0.14701803 0.11196927 -0.10918024 0.014656593 -0.32103533 0.009197772 -0.32673007 -0.07132114
-0.17939362 0.10783858 0.14161956 -0.03407588 0.02097998 0.16988204 -0.022456814 0.124588385
00000000: 37a1 ed3d 6bd6 95bc 21a8 05be 2df0 293e
00000010: d758 dcbc 9622 da3d ad92 203d 75eb bb3d
00000020: 5c29 fdbb 5ad4 a83c 8671 103e e496 0bbc
00000030: 4388 953e 4fc2 f1bd 37cc 7b3b b36d 073d
00000040: 32a6 8a3d f91d 043d 0d87 0e3e 841d df3d
00000050: aec0 38bd ad7c 25bc a78f 033d be8d 0f3d
00000060: c2b8 ac3d 21e2 063e 9c89 143d 41ac a93c
00000070: 87f6 62be 8098 183d 8277 53bb 22f6 353e
00000080: d71b ad3c b665 aebe a4cf 393e 060a 623e
00000090: 073c d53d 094c 54bd df2f 5e3c cdc4 a83d
000000a0: 1f03 903d ded1 183e ffa4 483e dda5 1bbe
000000b0: 2d70 13bd dca0 163e 4bbd 83bd f9ca 803d
000000c0: d07e 833d f2e4 033e d90d 01be 0833 56bc
000000d0: 0e2d 1fbe 1f06 b2bb f169 0c3e a030 3d3e
000000e0: b9e5 ef3c ddef b6bc d456 463e 8899 e03c
000000f0: 7286 0cbd 0a97 2e3e c124 b13d d442 f73e
00000100: 13b5 b93c 3f58 653e 1e07 ab3d 2801 9a3d
00000110: 4d93 38bd d1e6 9dbc 05b7 553e d7f6 8a3c
00000120: 69be 0c3e dc49 a0bd ffde 403c 3cd1 1f3e
00000130: b9e3 863d b9a4 823d a1dd 21bd bca7 193e
00000140: 313f ef3c ed25 f8bd 28bf 7bbc 351b 41be
00000150: f908 e23d d426 3dbc 64bf cbbd 83a7 b83d
00000160: 0813 d3bd 56f2 b0bc fce3 a63d 8e7b 86bd
00000170: 9d9a cd3d e0e1 9a3d 59f4 acbe 0989 15bd
00000180: 1943 c03d 3383 c13d b48f a9bc 53dc 9b3c
00000190: 62c4 5c3e da7b 2e3d 5fcd 223e f066 413e
000001a0: dc6a e7bc bc95 33be 5d1e cb3d 3d39 04bd
000001b0: 6229 173e dba4 9e3d 5106 a73d ac54 383e
000001c0: 40d6 b2bd 1257 50bd 6a8f 3d3e f350 123e
000001d0: 40b0 463e 0fd4 e93d 2935 3fbc 9467 55bc
000001e0: 6c6d 82bc 7919 043e cd5a 333e d218 b4be
000001f0: 3b81 2b3e 1b35 223d cb5f f43c dca6 7bbd
00000200: 3e14 7d3e 455a 2d3e 2f3f bfbd 5aff 463e
00000210: ecb9 3c3e 9553 383e f450 3a3e f593 383e
00000220: d608 ef3d bc39 cdbc d886 a6bd 33bf c9bc
00000230: eccd efbd 4513 26bd c36c 12be c1c1 313d
00000240: 1a90 033e 46a6 10be cbbe 583d a230 c03d
00000250: 6e14 193e e10c 0c3e cc8c aabe 0873 c63d
00000260: 1d72 97be a46e 86bb e4e5 94bd e81f f5bd
00000270: cc78 8a3b e691 c7bd 2c95 863d 0b0b 843c
00000280: 072a 0cbe bb2e 643d 6006 3a3d f63b 203e
00000290: 3498 fdbd 1f07 1e3d e12f 7cbe eb5e dfbc
000002a0: 7c96 b7bd ec80 91bb 7384 a13c f2f0 8c3d
000002b0: 5f34 45bc f782 b33c 1be4 523e 3f22 833e
000002c0: 88cd 013e f0ae 583c a495 00be bcfb a83d
000002d0: da1a 293d 8118 953d 0630 0a3e f23e 4b3e
000002e0: 5588 d0bd 42c7 913e 560b 44bd 6ec0 80be
000002f0: a49d 76bd deea c6bc 6e80 053e bad3 e7bc
00000300: a0a8 b3bd d295 1d3d 5950 c6bc 5aa3 f0bd
00000310: cc6f 2c3e 8a72 0b3e d186 f73d b7b7 14bd
00000320: e50e 38bc ea60 dfbd 937d 5c3e b94a 0ebe
00000330: 0efa c03e c774 033d 0974 b1bd 9730 273d
00000340: b4f2 7b3d 4793 aa3d ff48 bf3c ed29 123e
00000350: c762 18be 4d52 033e 1cae 433e 1ff2 e93d
00000360: 08f2 54bc c5a0 853d 8276 22be b05b a73d
00000370: 8ff8 22be 5e14 ee3d 106a 80be be6c 6ebd
00000380: 958d dbbd 30c4 08bf 897a 173d 8270 11be
00000390: 6291 b2bd 5f5b 50bd 74eb 1ebe 4102 453d
000003a0: 9ad9 9b3e a238 ba3d f529 8abd 652e 21be
000003b0: 0a74 f8bd c880 0a3e d063 043e 9094 bcbd
000003c0: e58b 16be 2550 e53d e499 dfbd 3522 703c
000003d0: be5e a4be 40b2 163c 2a49 a7be d110 92bd
000003e0: f6b2 37be 79da dc3d b804 113e 2693 0bbd
000003f0: 35de ab3c 8ff5 2d3e 5af7 b7bc 3228 ff3d

rnn.weight_hh_l0 f4 [256, 64]
-0.020083789 0.11639621 -0.082394235 0.081930585 -0.28609207 0.13695598 0.046332754 -0.12263092
0.090341635 0.10202969 -0.012800809 0.010271647 -0.19192612 0.20046096 0.13776688 -0.007996548
-0.18898752 0.16135767 -0.082937 -0.0132140275 0.18557273 0.03160046 -0.07936746 0.036563054
0.123888284 -0.03264115 0.17544417 0.14046761 0.046332136 -0.025099853 0.05231947 -0.3558682
0.04365055 0.19657117 0.111124985 0.1396003 0.002827285 -0.30170012 0.15339452 0.034556877
-0.17943822 -0.105637655 0.0068159625 -0.022559894 -0.027788058 0.11114924 -0.040912975 -0.121129505
0.27237475 0.17607716 0.11679113 -0.015590189 0.24668464 0.21887513 -0.015167317 -0.11281213
0.072255105 -0.16588725 -0.11783518 0.03328761 -0.13584578 0.013923886 -0.09657724 0.009268429
0.045672245 -0.04018561 0.12630408 0.023796922 -0.002551452 -0.056055114 -0.11641891 0.007274623
0.14277232 0.09273105 0.01701694 0.03743776 -0.03350172 0.20150788 -0.09131624 -0.07206669
-0.14990208 0.22707722 -0.048987783 0.06446599 -0.006805326 0.08586614 0.012636856 0.14956857
-0.03963141 -0.2079863 0.022869272 -0.095853634 0.018929584 0.058161788 -0.00326858 -0.17683947
-0.030886762 0.16441664 -0.006107242 -0.04652808 0.10183119 -0.10571813 -0.1215465 -0.0716429
-0.06426093 -0.003560721 -0.09220819 0.053413488 -0.18103494 0.14308576 -0.12859869 -0.33578315
0.13652459 0.01767122 -0.08091534 0.08047885 0.22251616 8.376923e-05 0.109372295 -0.055605702
0.056559484 -0.05572354 -0.029231237 0.10788607 0.0116868 0.025953295 -0.16438709 -0.14968616
-0.0631064 0.14545926 -0.02071705 0.058702134 -0.24947748 0.05580773 -0.108870976 -0.15150459
0.14612484 0.06538411 -0.0056282943 0.050480373 -0.26725656 0.34074986 0.14013238 0.022692367
-0.0019105946 0.3207638 -0.027279973 0.16331789 0.18840247 0.09087043 0.01066958 0.048951045
0.15234013 -0.054904837 -0.07393367 0.20798711 -0.027256804 -0.045022923 0.08670077 -0.19507459
0.04506908 0.17121969 0.024323495 -0.08966019 0.08599405 -0.19099918 -0.016653929 -0.0067873225
-0.04186478 -0.11637978 -0.032742117 0.12808539 -0.14315118 0.18211243 0.07514308 -0.13134919
0.29957122 0.049886677 0.00807793 0.02221852 0.08605747 0.14451155 0.14428349 -0.2686099
0.04643186 0.011621294 -0.17106813 0.023607103 0.078880966 0.058249425 -0.10673965 -0.11898805
0.002140819 -0.08119808 -0.084398985 -0.07290985 0.06833206 0.13339412 -0.006515487 -0.08084279
0.13577773 0.052399777 0.13498831 -0.0027688006 -0.09505594 0.049325686 0.0023960492 -0.1406945
-0.001418662 0.027821882 0.07528702 0.11475448 0.029399723 0.10924625 0.058857694 0.14677584
-0.03863651 -0.06389628 -0.0036644705 0.1533139 -0.15096284 -0.01153702 0.06667304 0.076437846
0.05834718 -0.05937607 -0.053311843 0.1384063 0.065421656 -0.13051887 0.0037189987 0.0047078715
-0.07337603 -0.12076674 -0.10293137 4.6875484e-05 -0.050197583 0.08558433 0.044016313 -0.13175206
0.018415056 -0.048746787 0.06499605 0.10293655 0.17586748 0.093760766 0.017288303 -0.07042897
0.07527204 -0.16381122 -0.046480346 -0.08631571 -0.14783747 -0.005382352 -0.08931591 -0.12575373
00000000: c286 a4bc 2361 ee3d 4fbe a8bd 39cb a73d
00000010: a97a 92be 303e 0c3e 6ac7 3d3d eb25 fbbd
00000020: 0905 b93d f1f4 d03d 7cba 51bc 694a 283c
00000030: 4888 44be a345 4d3e c312 0d3e f403 03bc
00000040: f285 41be f23a 253e e0da a9bd a67f 58bc
00000050: c706 3e3e 7c6f 013d 688b a2bd 24c3 153d
00000060: 24b9 fd3d bab2 05bd a3a7 333e bed6 0f3e
00000070: c4c6 3d3d 359e cdbc f14c 563d 5b34 b6be
00000080: ebca 323d f449 493e 7f95 e33d 62f3 0e3e
00000090: f949 393b 7078 9abe 7413 1d3e 838b 0d3d
000000a0: a7be 37be 8e58 d8bd 7058 df3b 87cf b8bc
000000b0: c8a3 e3bc 36a2 e33d 5d94 27bd bf12 f8bd
000000c0: b474 8b3e 924d 343e 3030 ef3d fe6d 7fbc
000000d0: e69a 7c3e cd20 603e 5780 78bc 0c0a e7bd
000000e0: 7cfa 933d 59de 29be 9253 f1bd 9758 083d
000000f0: 281b 0bbe 0321 643c 4aca c5bd 9cda 173c
00000100: d212 3b3d ab99 24bd db55 013e c3f1 c23c
00000110: 4336 27bb 0c9a 65bd 0a6d eebd f65f ee3b
00000120: e832 123e c7e9 bd3d 1c67 8b3c 5658 193d
00000130: 1939 09bd 1558 4e3e 0204 bbbd b397 93bd
00000140: ee7f 19be ee86 683e 6aa7 48bd bf06 843d
00000150: 36ff debb 96da af3d d10a 4f3c 8128 193e
00000160: 8c54 22bd 5cfa 54be 5758 bb3c e94e c4bd
00000170: 3712 9b3c 0e3b 6e3d ac35 56bb 6815 35be
00000180: 3c06 fdbc d65c 283e 421f c8bb 3a94 3ebd
00000190: df8c d03d bf82 d8bd 5fed f8bd 83b9 92bd
000001a0: 3c9b 83bd fc5a 69bb a6d7 bcbd 1ac8 5a3d
000001b0: 3961 39be 1385 123e 60af 03be c5eb abbe
000001c0: 1acd 0b3e 3cc3 903c f1b6 a5bd 18d2 a43d
000001d0: 47db 633e 43ad af38 95fe df3d cec2 63bd
000001e0: ebaa 673d 5e3e 64bd 5976 efbc 5ff3 dc3d
000001f0: fe79 3f3c 019c d43c 1755 28be 5447 19be
00000200: ee3d 81bd 46f3 143e ceb6 a9bc a671 703d
00000210: 0677 7fbe a596 643d bff7 debd 0524 1bbe
00000220: c0a1 153e 1be8 853d 8e6d b8bb 82c4 4e3d
00000230: dad5 88be c476 ae3e dd7e 0f3e 58e5 b93c
00000240: eb6c faba 273b a43e 407a dfbc ce3c 273e
00000250: 94ec 403e 471a ba3d 76cf 2e3c e480 483d
00000260: 0dff 1b3e e5e3 60bd 896a 97bd 93fa 543e
00000270: a949 dfbc f569 38bd 2c90 b13d a2c1 47be
00000280: 5b9a 383d 3754 2f3e 1142 c73c c39f b7bd
00000290: a61d b03d 4a95 43be d26d 88bc 3068 debb
000002a0: 677a 2bbd 8658 eebd 991c 06bd d128 033e
000002b0: 3996 12be ae7b 3a3e 9de4 993d 6780 06be
000002c0: 6661 993e f955 4c3d 4b59 043c 9d03 b63c
000002d0: e63e b03d d6fa 133e 0dbf 133e 3d87 89be
000002e0: 562f 3e3d 3d67 3e3c 7c2c 2fbe af63 c13c
000002f0: 588c a13d f396 6e3d 519a dabd 02b0 f3bd
00000300: fc4c 0c3b 2e4b a6bd 60d9 acbd c251 95bd
00000310: aef1 8b3d 7898 083e de7f d5bb e890 a5bd
00000320: 5109 0b3e 26a1 563d 603a 0a3e c474 35bb
00000330: b0ac c2bd bb09 4a3d 0907 1d3b 3812 10be
00000340: 66f2 b9ba b7ea e33c 1530 9a3d 6604 eb3d
00000350: b0d7 f03c 7fbc df3d c414 713d 684c 163e
00000360: 5141 1ebd 0edc 82bd 9d27 70bb 52fe 1c3e
00000370: 0196 1abe c505 3dbc e08b 883d 728b 9c3d
00000380: 74fd 6e3d 5234 73bd 855d 5abd 62ba 0d3e
00000390: cafb 853d bda6 05be 72ba 733b 7d44 9a3b
000003a0: 2c46 96bd 8d54 f7bd afcd d2bd 2b9c 4438
000003b0: fb9b 4dbd d646 af3d 734a 343d 03ea 06be
000003c0: 2cdb 963c b6aa 47bd a61c 853d 66d0 d23d
000003d0: 9b16 343e a505 c03d 33a0 8d3c 103d 90bd
000003e0: 3a28 9a3d 21be 27be 2d62 3ebd 4ac6 b0bd
000003f0: b562 17be 715e b0bb 43eb b6bd 96c5 00be

rnn.bias_ih_l0 f4 [256]
0.06619218 0.15078264 0.18056266 0.10224955 0.005858909 0.051395968 0.026098642 0.14581981
0.24393395 -0.014273315 0.08712126 0.34556785 0.23485926 0.11948691 0.09383792 0.099423446
0.21357813 0.11160582 0.123704605 0.08577355 0.011163354 0.4391071 0.019881783 0.10814829
-0.017405733 -0.01320941 0.13926835 0.0333115 -0.11026674 -0.010725576 -0.008722016 0.06805498
0.10906285 0.048715577 0.17303464 -0.09051883 0.02244306 0.15715267 0.1711251 0.15035738
-0.0063824034 0.2208284 0.02297805 0.0036874937 -0.0054879095 0.046188194 0.11126394 -0.003614756
-0.013437205 -0.013336507 0.13957022 0.026855709 -0.10772472 0.086324655 0.056970518 0.12019147
0.1267119 -0.01877115 -0.041665208 -0.0008367806 0.04623979 0.07774362 -0.07789305 0.030817423
-0.101118095 -0.016079305 -0.104545094 0.09709666 0.13459852 -0.07845611 -0.054249946 0.07224987
0.041594703 -0.04752502 -0.0427835 -0.14780775 -0.081204206 0.06876381 -0.08359241 0.06950684
-0.050095603 -0.09231234 -0.045784716 0.061319035 -0.11615604 -0.053491924 0.039935783 0.038346745
-0.138445 -0.11343045 -0.01316046 -0.073587954 -0.06628888 0.007628253 0.067884564 0.1178546
-0.10369989 -0.05674711 0.11221542 -0.052031793 -0.052889496 0.05224162 -0.06818427 0.039306976
-0.06644262 0.005039759 -0.055042356 -0.1378376 -0.008309814 0.012710904 -0.07761669 0.028392289
-0.12131989 -0.09608827 0.043670926 0.1062539 0.056148116 -0.103030406 0.087733984 -0.097749606
0.033660654 -0.0010287826 -0.018094353 -0.13636893 -0.15723749 -0.15346201 -0.034458417 0.107776724
0.044831563 0.08421913 -0.10804089 0.07364494 -0.020784125 0.018017782 -0.08688007 -0.07359374
0.07875675 0.07643723 -0.091623686 -0.07241846 -0.05249564 0.12087049 0.11628608 -0.051004626
0.028266275 0.07874568 -0.09589567 -0.047890194 0.09261627 0.03242925 0.043921646 0.10535605
0.049457785 -0.10581283 -0.077823505 -0.03332593 -0.07444694 0.05352916 -0.0104636075 0.0715072
0.013790587 0.028370187 -0.032808635 0.08656705 0.058625273 -0.043413073 0.022014316 0.0058087017
-0.046123732 -0.13450919 0.085923165 0.07393299 -0.07907383 0.08787055 -0.1080518 -0.12458781
0.0390853 0.0014429236 -0.038691144 -0.013519151 0.017291047 -0.07123714 0.10133465 -0.08423393
-0.053412043 -0.119769126 -0.039488226 0.003188234 -0.061483156 -0.07924321 -0.05214267 -0.071334235
0.16700888 0.17772004 0.056953713 -0.000359227 0.15266863 -0.020897109 0.11606782 0.10932088
0.23127796 0.09996075 0.04894263 0.200366 0.09173035 -0.08331969 0.1371719 -0.0038444924
0.20915034 -0.07518231 0.17776169 0.0686771 0.1346189 0.26238224 0.10225705 0.027312027
0.0030589036 0.10221596 0.04329209 0.09585935 0.03947072 -0.028068691 0.15197071 0.08463908
-0.01409862 0.17853849 0.20584331 -0.022725713 0.0955476 0.03458079 0.1928244 0.056493387
-0.064830415 0.3314455 0.22126167 -0.087053984 -0.04866598 0.10933629 0.10679793 -0.0018512483
0.018303616 0.14925863 0.1913516 -0.04998124 -0.035509434 -0.06392784 -0.07024672 0.021371417
0.11146734 -0.032952953 -0.028382825 -0.015030389 0.016273335 -0.035513215 0.071589045 -0.06733051
00000000: c48f 873d c466 1a3e 6be5 383e 3668 d13d
00000010: 17fc bf3b 9484 523d d2cc d53c ca51 153e
00000020: d2c9 793e 9fda 69bc a26c b23d 45ee b03e
00000030: f27e 703e 8eb5 f43d 182e c03d 859e cb3d
00000040: 3ab4 5a3e 9891 e43d d758 fd3d 0baa af3d
00000050: 80e6 363c a5d2 e03e 1fdf a23c da7c dd3d
00000060: 7896 8ebc 486c 58bc 5d9c 0e3e a471 083d
00000070: 87d3 e1bd 54ba 2fbc c9e6 0ebc 6960 8b3d
00000080: 585c df3d fc89 473d fe2f 313e f061 b9bd
00000090: 82da b73c a1ec 203e 6b3b 2f3e 49f7 193e
000000a0: 7b23 d1bb d720 623e 773c bc3c e1a9 713b
000000b0: ecd3 b3bb d52f 3d3d 59de e33d 8be5 6cbb
000000c0: b927 5cbc 5d81 5abc 7feb 0e3e 8100 dc3c
000000d0: c79e dcbd fbca b03d eb59 693d f226 f63d
000000e0: c4c0 013e f4c5 99bc 23a9 2abd 655b 5bba
000000f0: ef65 3d3d 0c38 9f3d 6486 9fbd d274 fc3c
00000100: 0117 cfbd bfb8 83bc bd1b d6bd 9dda c63d
00000110: 32d4 093e 99ad a0bd 3135 5ebd bdf7 933d
00000120: 355f 2a3d 98a9 42bd c03d 2fbd ea5a 17be
00000130: 644e a6bd 0ad4 8c3d 7f32 abbd 9a59 8e3d
00000140: 0c31 4dbd 410e bdbd c188 3bbd ab29 7b3d
00000150: 38e3 edbd 591a 5bbd b493 233d 7a11 1d3d
00000160: 87c4 0dbe 394e e8bd f89e 57bc 48b5 96bd
00000170: 77c2 87bd 6df6 f93b 1007 8b3d c15d f13d
00000180: 9c60 d4bd a86f 68bd 33d1 e53d 4a1f 55bd
00000190: a8a2 58bd 4ffb 553d 32a4 8bbd 5a00 213d
000001a0: 1113 88bd 9024 a53b 1874 61bd 4d25 0dbe
000001b0: e325 08bc 6541 503c 80f5 9ebd f296 e83c
000001c0: 9076 f8bd edc9 c4bd 49e0 323d a59b d93d
000001d0: 91fb 653d 9b01 d3bd e0ad b33d f230 c8bd
000001e0: c1df 093d 37d8 86ba 9c3a 94bc 4ca4 0bbe
000001f0: dd02 21be 2525 1dbe 4524 0dbd 0bba dc3d
00000200: 4da1 373d 147b ac3d 8b44 ddbd 29d3 963d
00000210: 7843 aabc 079a 933c 2eee b1bd 51b8 96bd
00000220: 384b a13d 1f8b 9c3d 33a5 bbbd 2150 94bd
00000230: ab05 57bd f38a f73d 6527 ee3d 3aea 50bd
00000240: ad8e e73c 6a45 a13d f364 c4bd 8228 44bd
00000250: 99ad bd3d 89d4 043d 2fe7 333d eac4 d73d
00000260: 3f94 4a3d 66b4 d8bd ee61 9fbd c580 08bd
00000270: a377 98bd 6441 5b3d 8d6f 2bbc 5e72 923d
00000280: eaf1 613c 9868 e83c 5962 06bd 114a b13d
00000290: 0e21 703d e8d1 31bd 5e57 b43c ec56 be3b
000002a0: 3dec 3cbd c7bc 09be 7cf8 af3d 2e6a 973d
000002b0: 76f1 a1bd 7af5 b33d 434a ddbd e527 ffbd
000002c0: e817 203d 7b20 bd3a 9b7a 1ebd 6e7f 5dbc
000002d0: f4a5 8d3c c7e4 91bd 8a88 cf3d d782 acbd
000002e0: 96c6 5abd 8449 f5bd 68be 21bd b1f1 503b
000002f0: c3d5 7bbd 444a a2bd 8d93 55bd af17 92bd
00000300: 6004 2b3e 3efc 353e 4c48 693d a256 bcb9
00000310: 2a55 1c3e 6a30 abbc f7b4 ed3d a0e3 df3d
00000320: 21d4 6c3e 39b8 cc3d 1178 483d bf2c 4d3e
00000330: 1fdd bb3d 83a3 aabd ca76 0c3e e1f3 7bbb
00000340: 822b 563e 2ff9 99bd 2907 363e 94a6 8c3d
00000350: 89d9 093e f756 863e 256c d13d 79bd df3c
00000360: e377 483b 9a56 d13d 0c53 313d e851 c43d
00000370: 0dac 213d 50f0 e5bc 369e 1b3e 4157 ad3d
00000380: e6fd 66bc cbd2 363e 97c8 523e 462b babc
00000390: 76ae c33d 96a4 0d3d c273 453e 9c65 673d
000003a0: cfc5 84bd 39b3 a93e 6b92 623e 5c49 b2bd
000003b0: fb55 47bd b4eb df3d e0b8 da3d 96a5 f2ba
000003c0: 77f1 953c 41d7 183e adf1 433e 21b9 4cbd
000003d0: 5772 11bd 99ec 82bd 83dd 8fbd 1c13 af3c
000003e0: fd48 e43d adf9 06bd 1983 e8bc 0542 76bc
000003f0: a84f 853c 4e76 11bd 479d 923d 94e4 89bd

rnn.bias_hh_l0 f4 [256]
0.08501423 0.05970331 0.014719373 0.09984609 0.15994786 0.044319768 0.119307175 0.1424731
0.16279444 0.0072654802 0.17762077 0.21017496 0.08786753 -0.06723214 0.12553656 0.10518379
0.23620446 0.044745546 0.04347185 -0.04010531 -0.0887456 0.3243111 0.09997971 0.013213791
0.04869779 0.027993035 0.016722186 0.037216943 -0.0630579 0.0859211 -0.06013382 0.055138968
0.09364836 -0.001705932 0.2027239 0.04637408 -0.040010694 0.053358134 0.2670824 0.044365145
-0.068504624 0.08574127 0.24036554 0.108989745 -0.01768097 0.08817322 0.00042511572 -0.049926233
0.0642125 0.1529078 0.12674524 -0.052830875 -0.019888692 0.061558735 0.12771198 0.09392866
0.03791028 -0.056047246 0.09813032 -0.028681498 0.14131834 0.093639076 0.11033474 0.12362347
-0.0019549585 0.15664701 0.13043769 -0.02108731 -0.04983792 -0.036451362 0.0077532516 -0.04882593
0.100095615 0.022971604 -0.070027776 0.0020442489 0.04088676 0.015507711 -0.033318598 0.030653087
-0.016275242 -0.09757984 -0.0757236 -0.115957566 -0.080486074 -0.103371434 0.041326016 -0.064179786
-0.11538074 -0.11839477 -0.051145546 0.028362438 -0.10877808 -0.06289128 0.06784077 0.06201032
-0.019092325 0.05016591 -0.055810627 -0.03394749 0.05657479 0.053395014 0.050532244 -0.07360221
-0.10875211 -0.023649022 -0.074748546 0.024310991 -0.04109547 0.08261621 -0.13807204 0.097590245
0.11055031 -0.0046647917 0.03935513 -0.042876713 0.05463211 0.087035015 0.018968273 0.008983396
-0.0026468192 0.010810145 0.06702572 0.05076191 -0.17412928 -0.10244374 -0.1400256 -0.046877302
-0.080299184 -0.1361564 0.08023409 -0.021393167 -0.091612495 0.057743635 -0.07504264 0.09759189
-0.096804075 0.08586725 0.04957656 0.094350174 0.00088711275 -0.09848122 -0.026431436 0.023634478
-0.036188737 0.0271001 -0.012733101 0.08705528 0.09872567 -0.020098506 -0.004266324 -0.06606839
0.11420271 -0.06983082 0.061050743 0.07073452 0.0007550538 0.089113474 0.052448988 -0.1585081
-0.042784277 0.07593071 0.020202704 -0.04631166 0.09498656 0.022798127 -0.053360406 -0.047889836
-0.093550764 0.03891676 -0.061685972 -0.034731343 0.07688279 0.06423855 0.08748825 -0.12964633
0.129587 0.032699805 0.06640187 0.058482762 0.11857121 0.11128303 0.0074498514 -0.108843625
0.061881285 -0.10129314 -0.002352173 0.0009931667 -0.009220332 0.0077276486 -0.1370491 0.042973276
0.051172655 0.0070940675 0.09305325 0.024434295 0.07765938 0.10121432 -0.0022750671 0.005942257
0.26069066 0.044339724 0.07977039 0.22378255 0.05919461 -0.008384198 0.057920646 -0.07637408
0.15330993 0.019560436 0.18795973 -0.060082234 -0.06884788 0.24860895 -0.0010575277 -0.013017437
0.032882858 -0.09667711 0.19154409 0.12623064 -0.011770387 0.0823919 0.14273882 0.14729007
-0.023410501 0.13843074 0.13588108 0.016541982 0.03592585 0.08811122 0.16270152 0.15490966
0.13572131 0.29915932 0.13341978 0.031748522 0.16858673 -0.10890012 0.076394364 -0.051140796
0.17024101 0.082117505 0.06421419 0.13656013 0.124584936 -0.074815825 -0.030271223 0.0960208
0.0681422 -0.04163431 0.002661134 -0.033267684 -0.061774902 -0.027618218 0.03869623 -0.044967655
00000000: f11b ae3d 758b 743d 8629 713c 1b7c cc3d
00000010: 5fc9 233e a588 353d 5257 f43d 78e4 113e
00000020: 96b3 263e 4413 ee3b 38e2 353e 1b38 573e
00000030: e4f3 b33d 01b1 89bd a88c 003e 996a d73d
00000040: 95df 713e 1b47 373d 8a0f 323d 7745 24bd
00000050: 41c0 b5bd 1b0c a63e 2ac2 cc3d a87e 583c
00000060: 5577 473d a651 e53c f7fc 883c cb70 183d
00000070: 8024 81bd 67f7 af3d e14e 76bd 66d9 613d
00000080: b6ca bf3d 9499 dfba db96 4f3e bff2 3d3d
00000090: 41e2 23bd 0f8e 5a3d 06bf 883e 3ab8 353d
000000a0: 274c 8cbd 1e99 af3d 6222 763e 0436 df3d
000000b0: aed7 90bc 2994 b43d 11e2 de39 737f 4cbd
000000c0: d881 833d dd93 1c3e 81c9 013e 3065 58bd
000000d0: 9ced a2bc 0325 7c3d eec6 023e ab5d c03d
000000e0: cf47 1b3d cc91 65bd 8df8 c83d 76f5 eabc
000000f0: c1b5 103e d8c5 bf3d 2ef7 e13d 4d2e fd3d
00000100: c31e 00bb 1368 203e 7591 053e 4bbf acbc
00000110: d922 4cbd 064e 15bd fd0e fe3b b3fd 47bd
00000120: eefe cc3d f22e bc3c b96a 8fbd cef8 053b
00000130: e078 273d 0e14 7e3c 1579 08bd 2f1c fb3c
00000140: a853 85bc f0d7 c7bd fa14 9bbd 297b edbd
00000150: e2d5 a4bd 67b4 d3bd 7845 293d b170 83bd
00000160: bd4c ecbd f578 f2bd fe7d 51bd 5858 e83c
00000170: 0bc7 debd 25cd 80bd 1af0 8a3d 89fe 7d3d
00000180: 8267 9cbc c57a 4d3d af99 64bd 860c 0bbd
00000190: f8ba 673d bbb4 5a3d e6fa 4e3d c1bc 96bd
000001a0: 6db9 debd 98bb c1bc c415 99bd d827 c73c
000001b0: b953 28bd b032 a93d c262 0dbe 65dd c73d
000001c0: 3368 e23d 1cdb 98bb d832 213d 7e9f 2fbd
000001d0: ebc5 5f3d 6a3f b23d 5a63 9b3c 182f 133c
000001e0: 4276 2dbb 091d 313c c844 893d b8eb 4f3d
000001f0: f24e 32be 06ce d1bd df62 0fbe 6a02 40bd
00000200: e673 a4bd 956c 0bbe c551 a43d b940 afbc
00000210: 559f bbbd 9784 6c3d f5af 99bd 42de c73d
00000220: 3741 c6bd 2bdb af3d ca10 4b3d aa3a c13d
00000230: 218d 683a 86b0 c9bd bd86 d8bc 189d c13c
00000240: a43a 14bd 0701 de3c 7f9e 50bc 0a4a b23d
00000250: af30 ca3d 9fa5 a4bc 85cc 8bbb dd4e 87bd
00000260: 1ce3 e93d 7603 8fbd 5810 7a3d 43dd 903d
00000270: ceee 453a 2081 b63d c0d4 563d f34f 22be
00000280: 913e 2fbd 8f81 9b3d 2480 a53c 4cb1 3dbd
00000290: 5088 c23d 23c3 ba3c 7190 5abd 2228 44bd
000002a0: 8b97 bfbd 2e67 1f3d 6eaa 7cbd 7442 0ebd
000002b0: b974 9d3d 808f 833d 0a2d b33d 02c2 04be
000002c0: 74b2 043e 3bf0 053d b4fd 873d 9f8b 6f3d
000002d0: 76d5 f23d 5be8 e33d e21d f43b 68e9 debd
000002e0: 3b77 7d3d c772 cfbd ea26 1abb 252d 823a
000002f0: e010 17bc 3738 fd3b 9956 0cbe bf04 303d
00000300: 6b9a 513d 5a75 e83b b492 be3d 6e2a c83c
00000310: e20b 9f3d 7449 cf3d 4b19 15bb 44b7 c23b
00000320: 3f79 853e 929d 353d a95e a33d 4127 653e
00000330: 0c76 723d e05d 09bc 333e 6d3d 036a 9cbd
00000340: 47fd 1c3e 353d a03c 8478 403e ca18 76bd
00000350: 1e00 8dbd 5893 7e3e be9c 8aba 1747 55bc
00000360: 2db0 063d a6fe c5bd 2224 443e 9b42 013e
00000370: 95d8 40bc 16bd a83d 202a 123e 35d3 163e
00000380: 61c7 bfbc cac0 0d3e 6924 0b3e 0d83 873c
00000390: fc26 133d a873 b43d 3a9b 263e a3a0 1e3e
000003a0: 87fa 0a3e 692b 993e 329f 083e bd0a 023d
000003b0: 00a2 2c3e 0707 dfbd a674 9c3d 0379 51bd
000003c0: a953 2e3e 392d a83d bb82 833d 6bd6 0b3e
000003d0: 6326 ff3d 0a39 99bd 5bfb f7bc 8ea6 c43d
000003e0: 238e 8b3d bd88 2abd 6c66 2e3b b243 08bd
000003f0: ae07 7dbd 9a3f e2bc f07f 1e3d 0130 38bd

rnn.weight_ih_l1 f4 [256, 64]
-0.038747963 0.026188102 -0.011934977 -0.005495554 -0.019725049 -0.060887083 -0.12422685 0.04858558
0.039337423 0.11169909 0.032343503 0.12004104 -0.135356 0.10154814 0.08710706 0.05101074
0.14077686 -0.029112319 0.062594324 0.0469758 -0.018182259 0.16135538 -0.045336083 -0.057110753
-0.036950182 -0.08844515 0.06737724 -0.0027653784 -0.07526654 0.06526072 0.09142733 -0.0013841969
0.057094928 -0.02870252 0.004004915 -0.043870896 0.045099076 0.121887475 -0.09050741 -0.00058556563
-0.09598881 -0.17259966 -0.08320528 -0.025995437 -0.14104885 -0.06371718 -0.0026827927 -0.024576025
-0.08233819 -0.015246427 0.0385485 -0.031438395 0.03654741 0.03408875 -0.039356668 0.0798892
0.016764944 -0.017406551 -0.022637429 -0.11466128 0.054649588 -0.16993585 0.0852005 -0.09215481
0.0070657036 -0.03844356 0.00793462 0.05819064 -0.09562338 0.06711927 -0.06917109 -0.055895466
0.13032092 0.113953315 0.061511267 0.01868675 0.05002553 0.162813 -0.093319066 -0.10197946
-0.11466464 -0.019135542 0.0971783 -0.033378113 0.12356029 -0.09106228 0.06935096 0.14058176
0.025659708 -0.037775204 0.08877318 0.05282809 -0.012011964 -0.0068091797 0.12611812 -0.0024558273
0.09353947 0.08051833 -0.045399472 -0.009286977 0.092739016 0.026518652 -0.032408066 -0.006634878
-0.06754432 0.042820863 0.0078034555 -8.205322e-05 -0.0034006913 0.111170545 -0.08481826 -0.12541024
0.07458619 0.118687026 0.14823486 0.012321922 0.13951062 0.009989465 0.14245912 -0.053290464
0.070620984 -0.002121159 -0.17368315 -0.04414799 -0.020161118 0.040221274 -0.0073011094 -0.01465906
0.12605223 0.1327686 0.03770525 0.1164029 0.0064238785 -0.011044143 -0.17569147 -0.018129775
0.15725726 0.025705136 -0.04392787 -0.033355422 -0.0026045004 0.08729268 -0.10048905 0.030463899
0.012345543 -0.0779322 0.048881914 -0.022458764 0.09141804 0.054494612 0.034784496 0.08513008
0.009278635 -0.13360848 0.10364844 0.017270615 -0.036242608 0.041513592 0.073877975 -0.12639907
0.061866414 0.12497113 0.16173321 0.025739806 0.09540764 -0.02553504 -0.035698235 0.015755203
-0.11432058 0.017229792 -0.07008022 0.14932369 0.03272911 0.009591727 -0.10140783 -0.14620872
0.105722755 0.042701054 -0.045286976 -0.13227987 0.0052735363 0.110742755 0.0806711 -0.103414804
0.09885473 -0.06306223 0.029577212 0.006120207 0.04523466 0.061214495 -0.0073396806 -0.14290674
0.009133007 0.13717999 -0.11132244 0.097413376 0.050815508 0.11906211 -0.011014404 -0.03921507
-0.08843837 0.15695319 -0.0012446039 -0.051662393 -0.0015591088 -0.0065425164 0.043659374 0.030044785
0.06695983 0.12770447 -0.1631415 -0.024839448 0.00962467 0.05645257 -0.08908528 0.03462343
-0.031651605 -0.11827192 0.012795784 0.096153766 -0.003984406 -0.0094378 0.008418203 -0.131347
0.0777372 0.0724365 -0.06646714 -0.12572171 -0.058213945 -0.13133655 0.054924354 -0.08967593
-0.13571568 -0.021416811 -0.078131795 -0.022408828 0.07567814 0.0054004556 -0.1401372 -0.109091535
0.15069756 0.0121243475 -0.009157934 -0.022948941 0.070466526 0.12092444 -0.018366145 -0.0644071
-0.02781038 -0.13714239 0.03522126 0.051915325 -0.01662951 -0.020431682 -0.016180791 0.094928324
00000000: 2fb6 1ebd 6e88 d63c ec8a 43bc 0c14 b4bb
00000010: 6d96 a1bc bc64 79bd a66a febd ac01 473d
00000020: 4720 213d 7ec2 e43d 9f7a 043d 14d8 f53d
00000030: c39a 0abe 79f8 cf3d 3065 b23d a3f0 503d
00000040: cf27 103e f57c eebc 7431 803d b269 403d
00000050: f6f2 94bc 583a 253e 54b2 39bd f7ec 69bd
00000060: 1359 17bd bb22 b5bd 14fd 893d 5a3b 35bb
00000070: 5825 9abd 6aa7 853d 413e bb3d f16d b5ba
00000080: 5fdc 693d 8c21 ebbc a93b 833b f8b1 33bd
00000090: cfb9 383d 24a0 f93d f35b b9bd a580 19ba
000000a0: c895 c4bd f7bd 30be 8867 aabd 62f4 d4bc
000000b0: 1c6f 10be 277e 82bd cbd1 2fbb a953 c9bc
000000c0: eda0 a8bd 26cc 79bc 08e5 1d3d 8cc5 00bd
000000d0: bdb2 153d a5a0 0b3d 7534 21bd f39c a33d
000000e0: a356 893c 2f98 8ebc 2172 b9bc 88d3 eabd
000000f0: 3fd8 5f3d aa03 2ebe 9a7d ae3d a9bb bcbd
00000100: 6b87 e73b ff76 1dbd 3500 023c 4f59 6e3d
00000110: 31d6 c3bd d475 893d 93a9 8dbd a5f2 64bd
00000120: d972 053e 5b60 e93d 3df3 7b3d f514 993c
00000130: 92e7 4c3d 73b8 263e 111e bfbd 9bda d0bd
00000140: 4bd5 eabd 24c2 9cbc 6b05 c73d 7db7 08bd
00000150: 2d0d fd3d dc7e babd e007 8e3d aaf4 0f3e
00000160: 4f34 d23c 2cba 1abd b7ce b53d 4462 583d
00000170: d4cd 44bc 8a1f dfbb 1c25 013e f2f1 20bb
00000180: 9f91 bf3d cbe6 a43d ccf4 39bd 6828 18bc
00000190: f4ed bd3d a53d d93c 52be 04bd 6469 d9bb
000001a0: ad54 8abd ee64 2f3d 21b4 ff3b fd13 acb8
000001b0: 22de 5ebb 62ad e33d 32b5 adbd 8b6b 00be
000001c0: a5c0 983d 2f12 f33d e1ca 173e e3e1 493c
000001d0: dfdb 0e3e daaa 233c cee0 113e 1a47 5abd
000001e0: bca1 903d 2503 0bbb ffd9 31be 86d4 34bd
000001f0: ee28 a5bc 10bf 243d 253e efbb 8e2c 70bc
00000200: d613 013e 7ef4 073e d270 1a3d a564 ee3d
00000210: 667f d23b 7ef2 34bc 77e8 33be e584 94bc
00000220: 0c08 213e 9493 d23c b6ed 33bd b29f 08bd
00000230: 44b0 2abb 81c6 b23d 34cd cdbd 6d8f f93c
00000240: f644 4a3c eb9a 9fbd 6738 483d 71fb b7bc
00000250: 6239 bb3d be35 5f3d 307a 0e3d ae58 ae3d
00000260: 6a05 183c a9d0 08be a245 d43d 1b7b 8d3c
00000270: 2173 14bd 280a 2a3d 564d 973d c26e 01be
00000280: a367 7d3d ddf0 ff3d 649d 253e 49dc d23c
00000290: 1565 c33d dc2e d1bc 5038 12bd 0e11 813c
000002a0: e920 eabd 7e25 8d3c 3886 8fbd 4fe8 183e
000002b0: f60e 063d 9e26 1d3c e9ae cfbd bdb7 15be
000002c0: 2c85 d83d 4de7 2e3d d67e 39bd 6074 07be
000002d0: a1cd ac3b 19cd e23d e436 a53d 24cb d3bd
000002e0: 5974 ca3d c526 81bd e94b f23c 048c c83b
000002f0: fb47 393d 0dbc 7a3d b481 f0bb 2556 12be
00000300: 9ca2 153c e978 0c3e 05fd e3bd aa80 c73d
00000310: ec23 503d d6d6 f33d c275 34bc fb9f 20bd
00000320: 2d1f b5bd 56b8 203e fa21 a3ba f29b 53bd
00000330: 035b ccba 9b62 d6bb 2cd4 323d 7b20 f63c
00000340: 3c22 893d f6c4 023e 910e 27be 197c cbbc
00000350: cbb0 1d3c cf3a 673d 5872 b6bd 4cd1 0d3d
00000360: 1da5 01bd 8c38 f2bd 68a5 513c 44ec c43d
00000370: 9f8f 82bb 01a1 1abc 81ec 093c d47f 06be
00000380: ae34 9f3d 9659 943d ed1f 88bd 31bd 00be
00000390: bf71 6ebd 177d 06be 5cf8 603d 04a8 b7bd
000003a0: 0df9 0abe 4f72 afbc 9003 a0bd b892 b7bc
000003b0: 24fd 9a3d 4ef6 b03b 2080 0fbe 626b dfbd
000003c0: 7650 1a3e 33a5 463c 290b 16bc 6bff bbbc
000003d0: c150 903d 3ca7 f73d 9974 96bc dfe7 83bd
000003e0: 98d2 e3bc 0e6f 0cbe 2b44 103d 2aa5 543d
000003f0: 9c3a 88bc 5860 a7bc 948d 84bc c869 c23d

rnn.weight_hh_l1 f4 [256, 64]
0.06532403 -0.014880999 -0.07230263 -0.078612104 -0.09663779 0.14390664 -0.04965493 0.13839592
0.0042936564 -0.09889019 -0.09359857 -0.008767127 0.04034146 0.081962265 -0.08494098 0.045081105
-0.012186243 -0.112105764 0.02061788 -0.070320375 -0.07513926 -0.06824235 0.08933666 -0.05019315
0.07567111 -0.11362655 -0.054010887 0.07589671 -0.17055006 -0.07594895 0.05448872 0.036100734
-0.006211002 -0.026650008 0.12947631 0.018302502 -0.022857906 0.072597265 -0.0591925 0.16712914
-0.031945653 -0.029236285 -0.06021271 0.100613646 -0.11312832 -0.005359436 0.2884914 0.0800632
0.075285636 -0.12388655 0.035713393 -0.035267014 0.10453631 0.10300215 0.07941179 0.07306597
-0.07613677 0.08540543 0.006984327 -0.08599018 -0.030609345 0.07061836 0.07260046 -0.068046376
-0.06046221 0.12498069 0.104229085 -0.09554439 -0.043263398 0.010237631 -0.08823345 -0.06911397
0.08322848 0.016234098 -0.094678156 -0.040949833 0.17264363 0.078108504 0.09295399 0.073774524
0.07876004 -0.025521962 -0.026139155 0.005545695 -0.077673614 0.15936598 -0.10280501 -0.10962076
0.024912538 -0.080684364 0.04355731 0.05323128 -0.2794105 -0.008394473 -0.05825156 -0.013173404
-0.021010865 0.0018977493 0.18907379 -0.020585433 -0.14045393 0.059920736 -0.0028040798 -0.10546755
0.065090746 0.10275223 0.08466093 0.0018500299 0.05142813 -0.099310495 0.10374242 -0.017468562
-0.1356767 -0.11868202 -0.025043251 -0.04796132 -0.15125038 0.087741256 -0.134063 -0.036085617
0.048527088 0.053109325 -0.15388925 -0.06750925 0.03130195 0.07077643 -0.03590411 -0.034528892
-0.09633655 0.1164282 0.07905626 0.100934215 0.047261283 -0.118453376 -0.13309968 -0.13460131
0.018043013 0.060346548 -0.09524797 0.0010122993 -0.0533909 0.01594811 0.054734908 -0.037020124
0.07002459 -0.025752708 -0.015501241 0.037149597 0.025742289 0.0067210724 -0.22983097 -0.090663314
0.030421417 -0.05797559 0.10654048 -0.08360256 -0.052539393 0.07017303 -0.026429124 -0.02610652
-0.062216703 -0.012703423 -0.03734989 -0.06175942 -0.13739577 0.10938642 -0.104463995 0.028850658
-0.033591475 0.024659842 -0.10169273 -0.09818057 0.1297175 -0.06769283 -0.08531852 0.08808069
0.012143853 -0.0042016176 -0.009140873 0.050081465 -0.14067532 -0.117966525 0.04266167 -0.0023775238
-0.029591886 -0.047022134 0.054874875 -0.03962326 -0.047808066 0.011878855 -0.056834843 -0.06734221
-0.15557607 -0.053457387 0.010546843 -0.0027513527 0.048825257 0.08707772 -0.14065547 0.03561316
-0.049680483 -0.022523275 -0.029076528 -0.0665319 0.08261818 -0.025684508 -0.19368145 0.061222065
0.077735096 -0.010590917 -0.12376648 0.12654686 0.018518854 -0.04164386 0.11307839 -0.11921345
0.092881784 -0.18457507 0.08588152 0.0076734642 -0.09551737 0.0021066433 0.11572705 0.004566233
0.050276555 0.09698527 0.004479425 0.096823 -0.013414266 0.12436719 -0.059946097 -0.06911525
-0.13809435 0.036327768 0.057413116 -0.08369572 0.011162341 0.005184353 -0.079480544 -0.06852287
0.026842875 0.014787472 0.059552293 -0.07618961 -0.034033574 -0.055704214 -0.0815318 0.02144088
-0.01413199 0.03859533 0.01507928 -0.20259106 -0.033445522 -0.12605558 -0.09535427 -0.053887695
00000000: 9bc8 853d 6fcf 73bc 6713 94bd 62ff a0bd
00000010: 09ea c5bd 435c 133e f862 4bbd a9b7 0d3e
00000020: cdb1 8c3b f186 cabd 9bb0 bfbd ffa3 0fbc
00000030: 163d 253d d5db a73d 89f5 adbd f7a6 383d
00000040: cfa8 47bc b597 e5bd d4e6 a83c 2104 90bd
00000050: 9de2 99bd a5c2 8bbd 24f6 b63d 5597 4dbd
00000060: 74f9 9a3d 09b5 e8bd 853a 5dbd bc6f 9b3d
00000070: ada4 2ebe 208b 9bbd 902f 5f3d 5dde 133d
00000080: a985 cbbb 1e51 dabc 7095 043e 21ef 953c
00000090: 8140 bbbc e0ad 943d d673 72bd e723 2b3e
000000a0: 72d9 02bd ef80 efbc 9aa1 76bd 870e ce3d
000000b0: d2af e7bd 359e afbb 25b5 933e 2df8 a33d
000000c0: 5b2f 9a3d 3bb8 fdbd 3548 123d 2574 10bd
000000d0: 2217 d63d cbf2 d23d a6a2 a23d 9ca3 953d
000000e0: 98ed 9bbd 0be9 ae3d c8dc e43b 9f1b b0bd
000000f0: 73c0 fabc 5ca0 903d 8daf 943d e65b 8bbd
00000100: 39a7 77bd e0f5 ff3d 0f76 d53d c7ac c3bd
00000110: f634 31bd bdbb 273c bdb3 b4bd a08b 8dbd
00000120: b173 aa3d 5ffd 843c 9fe6 c1bd 03bb 27bd
00000130: 7ec9 303e 5af7 9f3d a95e be3d 1917 973d
00000140: f24c a13d 6f13 d1bc c821 d6bc a9b8 b53b
00000150: 5813 9fbd d630 233e 6f8b d2bd d980 e0bd
00000160: 6115 cc3c d83d a5bd 2669 323d 0b09 5a3d
00000170: e50e 8fbe f988 09bc 3099 6ebd 43d5 57bc
00000180: fa1e acbc e6bd f83a 8f9c 413e c8a2 a8bc
00000190: 28d3 0fbe 726f 753d a7c4 37bb 5fff d7bd
000001a0: 4c4e 853d c36f d23d b662 ad3d b47c f23a
000001b0: 4ea6 523d 4d63 cbbd e876 d43d 3b1a 8fbc
000001c0: d5ee 0abe 8f0f f3bd 8127 cdbc 1773 44bd
000001d0: 61e1 1abe b0b1 b33d d047 09be 83ce 13bd
000001e0: 57c4 463d 2a89 593d 2595 1dbe 4a42 8abd
000001f0: 7936 003d 3cf3 903d 3010 13bd 2b6e 0dbd
00000200: 194c c5bd e871 ee3d 40e8 a13d 99b6 ce3d
00000210: 0c95 413d af97 f2bd 484b 08be edd4 09be
00000220: f1ce 933c f12d 773d 5e11 c3bd 21af 843a
00000230: 6bb0 5abd 9ca5 823c b631 603d 6aa2 17bd
00000240: 0d69 8f3d 58f7 d2bc ebf8 7dbc 2d2a 183d
00000250: 7ee1 d23c 713c dc3b cf58 6bbe b0ad b9bd
00000260: 5636 f93c d077 6dbd e531 da3d d237 abbd
00000270: 8c33 57bd e1b6 8f3d e481 d8bc 57dd d5bc
00000280: f1d6 7ebd 0522 50bc 33fc 18bd 72f7 7cbd
00000290: 7ab1 0cbe fd05 e03d 38f1 d5bd 3758 ec3c
000002a0: 3797 09bd 7003 ca3c 4744 d0bd e512 c9bd
000002b0: aad4 043e 8aa2 8abd 7abb aebd a663 b43d
000002c0: 03f7 463c b9ad 89bb 9ac3 15bc 3922 4d3d
000002d0: 310d 10be 6f98 f1bd 01be 2e3d 3bd0 1bbb
000002e0: af6a f2bc 489a 40bd 7ac4 603d 004c 22bd
000002f0: 64d2 43bd 879f 423c a7cb 68bd b6ea 89bd
00000300: 554f 1fbe 22f6 5abd aacc 2c3c 0a50 34bb
00000310: fefc 473d ce55 b23d fd07 10be 1bdf 113d
00000320: c37d 4bbd bb82 b8bc e631 eebc e041 88bd
00000330: b833 a93d 5168 d2bc 6e54 46be fdc3 7a3d
00000340: 9433 9f3d 8785 2dbc 4879 fdbd 8095 013e
00000350: dab4 973c c192 2abd a595 e73d 2e26 f4bd
00000360: ce38 be3d 3f01 3dbe a6e2 af3d af71 fb3b
00000370: 9c9e c3bd 9c0f 0a3b 4e02 ed3d 57a0 953b
00000380: caee 4d3d 37a0 c63d 24c8 923b 234b c63d
00000390: 82c7 5bbc 3ab4 fe3d 0a8a 75bd 4c8c 8dbd
000003a0: 9b68 0dbe 6dcc 143d 042a 6b3d a968 abbd
000003b0: 40e2 363c 81e1 a93b b2c6 a2bd b855 8cbd
000003c0: 97e5 db3c 2747 723c 1bed 733d 4c09 9cbd
000003d0: ca66 0bbd 1a2a 64bd 25fa a6bd c9a4 af3c
000003e0: dd89 67bc 2316 1e3d 160f 773c 0874 4fbe
000003f0: 2cfe 08bd b714 01be 1949 c3bd 58b9 5cbd

rnn.bias_ih_l1 f4 [256]
-0.05012441 0.021964034 0.073019065 -0.051798966 -0.053735428 -0.029348575 -0.11607272 0.12161376
0.06968185 -0.11172745 0.11510068 0.033707473 0.16246717 0.039617054 0.21795015 0.05172858
-0.007408851 0.13232797 -0.011335981 0.031392306 -0.082727276 0.00699143 0.4982971 0.021529248
0.043094136 -0.1114828 0.075433046 -0.04315142 0.2522829 -0.08583476 0.06148826 0.120252274
0.07521468 -0.042354107 0.47122636 0.07396992 0.2792124 0.0012792194 -0.0889043 0.17389795
0.0029468886 0.08630328 0.14562516 0.13076572 0.006195561 0.3354974 0.6635924 -0.022959752
0.029284788 0.11361402 0.13067234 -0.05291871 -0.019539401 0.34521154 0.11471692 0.18540755
-0.024569806 0.20049785 0.024521336 0.019897152 0.0074963183 0.091695815 -0.041480806 0.107921846
0.120877676 -0.11192968 -0.071945004 0.027759494 0.031664558 0.09118654 -0.010330917 -0.078952484
0.049582127 -0.031645473 -0.08913236 -0.06422586 0.05735724 -0.12161512 -0.005389604 0.044657826
0.08825623 -0.003352003 -0.12725198 -0.0037805382 -0.08911443 -0.03974514 -0.10120886 -0.12494193
-0.07616991 -0.11127797 -0.18972503 -0.14318292 -0.04917595 -0.13684887 0.103202984 -0.04646716
-0.038379114 0.057419978 -0.17021388 -0.034511473 0.11773646 -0.036970895 0.15909883 0.04356371
-0.02523528 0.05178335 -0.015741982 -0.03569646 -0.08015379 -0.18503998 -0.24067464 -0.029926814
-0.05551901 0.03897095 0.07975271 0.048610162 0.0949268 -0.04455397 -0.004933007 -0.14440288
0.0036802662 -0.005255862 0.15265813 0.068798035 -0.07936536 -0.08715663 -0.06494402 -0.070373185
-0.063211724 0.10038374 -0.05990673 0.0048080543 0.02757419 -0.007000323 0.011377938 -0.061890513
-0.012567785 -0.0036225803 -0.08876892 0.113967545 0.04846394 0.08943331 0.039892487 0.06305746
0.096865825 -0.08167408 0.078815006 0.00038888078 -0.077694915 0.010517448 0.049495414 -0.06761763
-0.107981734 -0.12453795 -0.06971536 -0.112525485 0.06676562 -0.057620704 -0.10961666 -0.055617746
-0.01632755 0.056475405 0.108397245 0.022495488 0.00874208 -0.10239279 -0.014035497 0.087584704
-0.055352468 0.033220503 -0.03524099 0.05639608 -0.10941926 0.016527157 -0.023357583 -0.076355495
0.08762877 -0.027293768 0.0077583604 0.009909841 -0.0966278 0.09982821 -0.06985245 -0.041742984
-0.11540718 -0.034106184 0.042599518 0.044226557 0.043210324 -0.054595023 0.05052204 -0.027854742
0.15721826 -0.032431014 -0.0014526092 0.013493409 0.14293914 -0.038723126 -0.094054855 0.075156786
0.11187285 -0.11919934 -0.02437076 0.00024224306 0.20862302 0.035038035 0.1661268 0.12179973
-0.03679934 -0.050464697 0.15114138 0.083903834 0.05403894 0.029767005 0.4798199 -0.039342985
0.027768537 -0.07485833 0.020110369 -0.06547354 0.3785857 -0.053737655 0.005403322 0.22177266
0.14364696 -0.0055095153 0.33802602 0.05394477 0.1326953 0.098275155 0.105382346 0.015530317
0.025707146 -6.274876e-05 -0.07621184 -0.017015968 0.055160865 0.28084826 0.62888414 -0.06343674
-0.014130376 0.102511056 0.07448896 -0.032419644 0.036541197 0.19540995 0.023033656 0.26083884
-0.041519716 0.0999094 0.14045066 0.01612852 0.10551898 0.07872052 0.065943696 -0.020383153
00000000: 414f 4dbd ebed b33c 058b 953d 272b 54bd
00000010: ae19 5cbd 6c6c f0bc 89b7 edbd a310 f93d
00000020: 5cb5 8e3d 5cd1 e4bd e8b9 eb3d d910 0a3d
00000030: cb5d 263e 7e45 223d 532e 5f3e 59e1 533d
00000040: f2c5 f2bb fc80 073e 8dba 39bc 3895 003d
00000050: eb6c a9bd 5e18 e53b cc20 ff3e 1b5e b03c
00000060: 7a83 303d 1851 e4bd a47c 9a3d 8bbf 30bd
00000070: 392b 813e 22ca afbd 1ddb 7b3d d346 f63d
00000080: 270a 9a3d 807b 2dbd 9544 f13e 8b7d 973d
00000090: edf4 8e3e 7bab a73a 7513 b6bd 4e12 323e
000000a0: 9620 413b c6bf b03d c31e 153e 73e7 053e
000000b0: 2204 cb3b 51c6 ab3e 31e1 293f 1716 bcbc
000000c0: a7e6 ef3c 78ae e83d f8ce 053e 4ac1 58bd
000000d0: 1811 a0bc 91bf b03e b4f0 ea3d 7adb 3d3e
000000e0: 9e46 c9bc 4f4f 4d3e f8e0 c83c 5aff a23c
000000f0: ada3 f53b 04cb bb3d c7e7 29bd 2106 dd3d
00000100: b78e f73d 633b e5bd e757 93bd e167 e33c
00000110: b2b2 013d 02c0 ba3d 0243 29bc d7b1 a1bd
00000120: a116 4b3d af9e 01bd 078b b6bd d988 83bd
00000130: 6def 6a3d 5911 f9bd 469b b0bb 20eb 363d
00000140: afbf b43d 47ad 5bbb 584e 02be e8c2 77bb
00000150: a081 b6bd cdcb 22bd 9746 cfbd 8ee1 ffbd
00000160: f8fe 9bbd b4e5 e3bd 4747 42be 8b9e 12be
00000170: b96c 49bd 1c22 0cbe 165c d33d 5954 3ebd
00000180: 6b33 1dbd 3631 6b3d 8c4c 2ebe e75b 0dbd
00000190: d01f f13d cb6e 17bd ceea 223e dc6f 323d
000001a0: 38ba cebc c71a 543d 54f5 80bc 7436 12bd
000001b0: ac27 a4bd 1f7b 3dbe 6a73 76be 1429 f5bc
000001c0: e767 63bd 01a0 1f3d 6455 a33d 731b 473d
000001d0: fb68 c23d 397e 36bd 10a5 a1bb 59de 13be
000001e0: 9f30 713b 5e39 acbb 6a52 1c3e fce5 8c3d
000001f0: 4e8a a2bd 2d7f b2bd 5f01 85bd d11f 90bd
00000200: 2675 81bd fe95 cd3d c260 75bd e28c 9d3b
00000210: 45e3 e13c f762 e5bb 886a 3a3c e880 7dbd
00000220: 1ce9 4dbc d068 6dbb 7bcc b5bd d167 e93d
00000230: 2082 463d d028 b73d 4e66 233d 4524 813d
00000240: 9761 c63d bd44 a7bd c369 a13d b2e2 cb39
00000250: 831e 9fbd 6051 2c3c b4bb 4a3d 1d7b 8abd
00000260: 8725 ddbd c10d ffbd edc6 8ebd c373 e6bd
00000270: 6abc 883d b003 6cbd b37e e0bd 6fcf 63bd
00000280: 5bc1 85bc c152 673d 60ff dd3d 7548 b83c
00000290: f13a 0f3c 50b3 d1bd 24f5 65bc 9c5f b33d
000002a0: 45b9 62bd 3912 083d db58 10bd 93ff 663d
000002b0: 3417 e0bd f663 873c 6758 bfbc 4560 9cbd
000002c0: b676 b33d 2e97 dfbc d839 fe3b e35c 223c
000002d0: cce4 c5bd bc72 cc3d cd0e 8fbd b1fa 2abd
000002e0: 995a ecbd edb2 0bbd d57c 2e3d e826 353d
000002f0: 4ffd 303d 089f 5fbd 33f0 4e3d a12f e4bc
00000300: d3fd 203e 62d6 04bd 7a65 beba 7613 5d3c
00000310: a35e 123e 249c 1ebd d59f c0bd cdeb 993d
00000320: 981d e53d c91e f4bd 30a5 c7bc a002 7e39
00000330: 46a1 553e 0b84 0f3d 251d 2a3e 2372 f93d
00000340: e8ba 16bd 12b4 4ebd cec4 1a3e c6d5 ab3d
00000350: f057 5d3d efd9 f33c f4aa f53e 1c26 21bd
00000360: d87a e33c 534f 99bd 80be a43c fe16 86bd
00000370: fcd5 c13e 041c 5cbd 5a0e b13b 5f18 633e
00000380: 3018 133e 2a89 b4bb bf11 ad3e 31f5 5c3d
00000390: 47e1 073e 7c44 c93d b3d2 d73d df72 7e3c
000003a0: cb97 d23c fc97 83b8 f414 9cbd 1265 8bbc
000003b0: 5cf0 613d 58cb 8f3e 8dfe 203f 1feb 81bd
000003c0: 1883 67bc 51f1 d13d ab8d 983d 76ca 04bd
000003d0: 39ac 153d 8c19 483e 14b1 bc3c ab8c 853e
000003e0: 9410 2abd 4d9d cc3d 4cd2 0f3e f51f 843c
000003f0: 561a d83d 3938 a13d 7d0d 873d 92fa a6bc

rnn.bias_hh_l1 f4 [256]
0.08401329 -0.0024458838 0.14259791 0.13472241 0.052415915 -0.041777253 0.041282453 0.038521048
-0.07414928 -0.00041562258 -0.07330599 -0.0065413257 0.013304765 0.11571641 0.34102315 -0.062382646
0.07910681 -0.026682427 0.052897293 0.0045566233 0.079883195 -0.04600809 0.41536602 0.047869593
-0.04079187 0.0676461 0.1077187 -0.06708905 0.31542048 -0.046947636 0.04573629 0.27162644
-0.076937355 0.1197693 0.35041782 0.14019214 0.1887138 0.08978654 -0.03148984 0.107275285
0.00928788 -0.016564405 -0.033164132 0.009870676 -0.086070806 0.15926057 0.5921023 0.031124
-0.06074562 -0.026667573 0.042566743 0.06463139 0.015146174 0.18767689 0.11283856 0.12664123
-0.07373857 0.17108354 0.06534749 0.030720918 -0.13135459 0.010033892 0.12015621 -0.041051958
-0.0808892 0.048149537 -0.12858053 0.04191008 -0.027361954 0.03704066 -0.0069167553 0.114672855
0.029767308 -0.02985184 0.11350303 -0.1471438 -0.0010738348 0.025590803 -0.12685531 -0.08166981
-0.081614 -0.080067314 -0.047418028 -0.084923096 0.10196556 -0.008631299 0.06468962 0.020072108
-0.039823726 -0.015792334 -0.14197928 -0.10322697 -0.04767549 -0.0335536 -0.010638833 -0.0022065355
0.0959894 -0.13856593 -0.18653813 -0.078119636 0.0021682575 0.07249249 0.1347247 -0.12539212
-0.066568755 0.08388557 -0.10518433 -0.018776916 0.035313677 -0.07311439 -0.26651207 0.0697231
0.02074514 -0.17594957 -0.06293369 -0.033061963 -0.11771361 -0.12788166 -0.014881646 -0.12336004
-0.026963867 0.03853362 0.13325326 -0.12662949 0.1033036 0.002511375 -0.006867685 -0.056448966
-0.03320992 -0.010169435 -0.0039051478 -0.12019678 0.02466171 -0.087378874 -0.09967486 0.0685156
-0.01911295 -0.021101233 -0.02191867 -0.057240333 0.06326432 -0.0049284035 -0.05489414 0.11195151
0.08636585 0.10553309 -0.13778846 0.018595433 0.025003346 0.11346392 0.040241573 0.031375445
0.08551362 0.055912636 -0.11410301 -0.1232884 -0.06581626 -0.019062016 0.03011507 0.110270314
-0.105338514 -0.025286429 -0.08465621 0.098102205 0.006706977 0.066144146 0.014156193 -0.0809607
-0.05523715 -0.0005200345 0.00096165517 -0.008654732 0.11470739 -0.07299346 0.14963305 0.06428777
-0.09789252 -0.02287457 -0.07109629 -0.0018434592 0.06725284 0.103699826 -0.013408469 0.11635209
0.06108913 0.011929478 -0.090718865 -0.09857324 0.06862846 0.060224526 -0.060074836 -0.08969209
0.04762028 -0.08113356 0.10306195 0.083491676 0.08593029 -0.07345591 -0.014582773 -0.01575204
0.08666313 0.10580701 0.021227052 0.0024904031 0.20093973 -0.011130426 0.22017688 -0.096429944
0.015784103 0.1589202 0.11388388 0.15753637 0.09710323 -0.07854862 0.5285007 -0.021206794
-0.029395206 0.051704273 0.12469319 -0.015648808 0.17883791 0.0293234 -0.050403222 0.14310086
0.13690461 0.09948676 0.28542942 -0.031831887 0.049128104 -0.054799657 -0.086279444 0.23484837
0.017546691 0.120385826 0.05284462 0.12170887 -0.049814105 0.2430622 0.56746507 0.07187103
0.112358555 0.12497934 -0.051736463 0.053630196 0.021449618 0.22405814 -0.036662646 0.21833424
-0.07614108 0.07102533 -0.016405765 -0.0132237235 -0.089991674 0.16703632 0.014178909 0.0597527
00000000: 290f ac3d 1f4b 20bb 3005 123e acf4 093e
00000010: 12b2 563d a01e 2bbd ca17 293d 3fc8 1d3d
00000020: 94db 97bd ebe7 d9b9 7321 96bd 9e58 d6bb
00000030: 3bfc 593c bafc ec3d 969a ae3e f284 7fbd
00000040: c002 a23d 1b95 dabc d5aa 583d ba4f 953b
00000050: cd99 a33d fb72 3cbd dbaa d43e e812 443d
00000060: 6015 27bd 0a8a 8a3d 9f9b dc3d fc65 89bd
00000070: cb7e a13e 2a4c 40bd fa55 3b3d 9f12 8b3e
00000080: 5591 9dbd 9b49 f53d f769 b33e 878e 0f3e
00000090: 313e 413e 01e2 b73d 7efb 00bd 25b3 db3d
000000a0: 312c 183c 13b2 87bc 1dd7 07bd 9eb8 213c
000000b0: e445 b0bd 3415 233e 0494 173f c2f7 fe3c
000000c0: 66d0 78bd f475 dabc 775a 2e3d 765d 843d
000000d0: a827 783c 5f2e 403e e717 e73d 3dae 013e
000000e0: 3f04 97bd 8630 2f3e e8d4 853d 6faa fb3c
000000f0: d181 06be 3165 243c 7614 f63d 1926 28bd
00000100: 3da9 a5bd 7338 453d 9daa 03be e7a9 2b3d
00000110: 2d26 e0bc f2b7 173d f3a5 e2bb 9ad9 ea3d
00000120: 92da f33c d98b f4bc 4774 e83d ddac 16be
00000130: ebbf 8cba cea3 d13c 5ce6 01be 8042 a7bd
00000140: 3e25 a7bd 55fa a3bd 6839 42bd 29ec adbd
00000150: 52d3 d03d 4b6a 0dbc fe7b 843d 436e a43c
00000160: 341e 23bd ed5e 81bc 0463 11be a968 d3bd
00000170: 6047 43bd 806f 09bd 804e 2ebc 869b 10bb
00000180: 1796 c43d 3ae4 0dbe da03 3fbe 30fd 9fbd
00000190: 5319 0e3b f176 943d 46f5 093e cb66 00be
000001a0: 3355 88bd 33cc ab3d e26a d7bd 0cd2 99bc
000001b0: 13a5 103d ffbc 95bd 4574 88be fcca 8e3d
000001c0: b6f1 a93c 202c 34be 61e3 80bd fb6b 07bd
000001d0: d513 f1bd 69f3 02be 26d2 73bc 30a4 fcbd
000001e0: 54e3 dcbc 6ed5 1d3d 8b73 083e 29ab 01be
000001f0: d690 d33d e195 243b 510a e1bb 0837 67bd
00000200: 2007 08bd b49d 26bc 82ed 7fbb bb29 f6bd
00000210: 5b07 ca3c b2f3 b2bd 5522 ccbd e851 8c3d
00000220: c392 9cbc 7edc acbc c88e b3bc d774 6abd
00000230: b990 813d 727e a1bb aed8 60bd d546 e53d
00000240: 94e0 b03d bc21 d83d 6b18 0dbe 7355 983c
00000250: d1d3 cc3c c65f e83d 59d4 243d 8a83 003d
00000260: c421 af3d a604 653d d7ae e9bd a17e fcbd
00000270: adca 86bd f227 9cbc e1b3 f63c 67d5 e13d
00000280: b8bb d7bd 7c25 cfbc 3c60 adbd cfe9 c83d
00000290: 33c6 db3b 9576 873d 60ef 673c b9ce a5bd
000002a0: 5a40 62bd ed52 08ba 9617 7c3a 94cc 0dbc
000002b0: b5eb ea3d 987d 95bd 6839 193e 4ea9 833d
000002c0: e07b c8bd 7363 bbbc ef9a 91bd 3aa0 f1ba
000002d0: dbbb 893d 9360 d43d 32af 5bbc 014a ee3d
000002e0: 9838 7a3d db73 433c d0ca b9bd c4e0 c9bd
000002f0: 148d 8c3d fead 763d 0811 76bd 7db0 b7bd
00000300: 7c0d 433d 5a29 a6bd 2512 d33d affd aa3d
00000310: 38fc af3d 0d70 96bd 95ec 6ebc 6c0a 81bc
00000320: 707c b13d 58b1 d83d 5be4 ad3c 0836 233b
00000330: 25c3 4d3e 645c 36bc 0c76 613e 107d c5bd
00000340: aa4d 813c fabb 223e f43b e93d 3751 213e
00000350: 0fde c63d 19de a0bd d24b 073f dfb9 adbc
00000360: 37ce f0bc dcc7 533d 255f ff3d ee31 80bc
00000370: 4921 373e a137 f03c 9c73 4ebd 0889 123e
00000380: b930 0c3e b7bf cb3d ce23 923e 2762 02bd
00000390: 8d3a 493d 9b75 60bd 47b3 b0bd 177c 703e
000003a0: 14be 8f3c d88c f63d 9a73 583d 8042 f93d
000003b0: e009 4cbd 4ce5 783e 6445 113f 1e31 933d
000003c0: 3e1c e63d 2bf5 ff3d 9de9 53bd 56ab 5b3d
000003d0: 1cb7 af3c 7f6f 653e 922b 16bd 0393 5f3e
000003e0: dbef 9bbd ba75 913d 6265 86bc 51a8 58bc
000003f0: 8e4d b8bd 920b 2b3e a84e 683c 3fbf 743d
