checkpoints/TP_LSTM_L2_bs16_train0baseline02HZ_bsfirst_pos0_downsp_rs_seg20/TP_LSTM_L2_bs16_epoch658_best0.8808559430272955.pt (torch, 206315 bytes, 9 tensors)

rnn.weight_ih_l0 f4 [256, 3]
00000000: 53f7 233f 4045 cd3e 69b5 c23e 6f74 64bb
00000010: 42e8 2fbf 9d0c b3be 58d1 37be f0b8 0abf
00000020: d414 ccbe cc93 e6be b759 dfbe 5215 99be
00000030: 6477 b7be b24a febe 6252 c1be 7482 d23e
00000040: 4ba8 d03e 37d7 de3e 3d10 5a3e 794e 69be
00000050: 5cbb abbe 845d 2d3a b9b3 c1be 330d 8fbe
00000060: febb e73e 57b3 21bd efc2 1f3d 6171 3ebe
00000070: a85e 38bf b7e7 07be af31 ef3e 5fc3 103e
00000080: 6f8a 993e 1c58 a63e fa9b 933d b1ec 963d
00000090: 442e 16be 4059 a33e ba4e 8f3e 7072 d63e
000000a0: 8b90 ac3e d58c 323e da72 b03e dd8c 4abe
000000b0: aa94 8c3c bda5 043e baec 663e f828 ac3e
000000c0: 287b 07bf 94b4 c9be 7b76 88be 24b1 6d3e
000000d0: cfe5 213c 7d4f 203c 59ab 013f c8fe 6a3d
000000e0: 53a5 fa3d de21 8abd 070d b9be 02de bdbe
000000f0: 08fa 6cbe 84d8 2bbf 0ad7 2abe 857d a93e
00000100: 6675 9fbd caf0 4dbc b639 a33e 0be5 223d
00000110: 8e51 eabd 580a 3bbf 6082 7e3e c6c6 053e
00000120: 5e73 7bbf 0e17 a6bf 9051 af3e 6e18 813e
00000130: 698b 043f dbac 2e3f e88a 953e 0306 403d
00000140: 69ec 51bd 0073 b53e 5412 833f a686 353f
00000150: 214c b5be 1384 5abe 918e a7be e62a 15bd
00000160: e2b8 2dbe 1dbc 08be 7934 963e b63c abbe
00000170: bcdb 38be 7a62 833e 5417 bdbe 6afb 5e3e
00000180: 5da9 c2bc 051c 693e 3572 273e f345 d0be
00000190: c9c2 98be 8566 dcbe cf4d 273e 470b a23d
000001a0: 0a91 ebbd 875e 923e 4c8c 693f b2c6 703f
000001b0: 9543 bb3e c71c 2a3d fdea 023e 6b86 f93e
000001c0: 45b2 52bd c413 d3bc bbe6 373e 9d86 353c
000001d0: 606a 7f3d fc89 37bf eec0 a3be c860 81be
000001e0: 994b e03e 8f84 b33e aa49 bf3e 9f3b 67be
000001f0: fcd1 353e 9771 ce3c de54 6b3e d3cf e43e
00000200: 4cdc 0e3f c59f 853e ecb8 49bd 4aa9 8e3e
00000210: 1535 743e 00e7 a5bd 82f6 c9bd 87c2 9f3e
00000220: 98a0 b3bd a6b9 3fbc 21e1 793e 550e 6a3e
00000230: 3b85 493e 9187 aabe 16db 803e 8d2e f13e
00000240: 89b3 74bf 723a bcbe e2b9 923e e010 f83e
00000250: e433 8c3e 75bf b23e 2362 8bbf 6e3b 65bf
00000260: 2b30 423e 6950 10bf ac2f b6be 620b 98bd
00000270: 3328 cdbd bac7 18be 9829 eb3d 2eda 55bf
00000280: 0ba6 bdbf a389 a33d ab90 433f 4baa f2bb
00000290: a98d 9fbd 1522 32be 5268 e1be bb11 5bbe
000002a0: 8a6f 973d 57be d4bd 065d 1fbd 26e0 16bf
000002b0: 55f2 b4bf 6c33 7a3e 2561 c73e ce5a 013e
000002c0: 01f2 853d a59b 5d3e 1961 95bd 013e 963e
000002d0: 417b c23d be81 a2be 5e08 c0bd 5b70 2a3f
000002e0: c7c1 003f 73df 1b3f aa33 01bf e644 c9be
000002f0: 652a 50be 6de3 5dbd 998a 8ebe ecb9 a0be
00000300: 89c1 14bf 997f 89be de1c 80be 0be1 4a3e
00000310: 6818 223e 6415 c23d ecab 403e 0a1e 3ebe
00000320: 9bab 99bd 4dac ccbd f849 46be 25c6 63bd
00000330: 53c6 7bbe 736e 4fbe ea7a 14be b24c 57bf
00000340: 3a89 0abc c7f2 91bd ae04 eabe 5fac abbe
00000350: baab 1dbe fe39 ae3e 109b 0e3d 8514 243d
00000360: b02f d93e 6253 52bd 5906 a8bc 34da 3abd
00000370: ab51 2fbe 9cd0 f7bc 266f 68be a58a 04bf
00000380: 06ad 69be 939a bcbd f3cf 34be d400 3abd
00000390: 1c60 21bf 5e95 dd3d 320e a7bd 8ec2 ffbc
000003a0: 6cde 5bbe 3571 8ebe b1e3 d2bd 03b1 ebbd
000003b0: 5bf1 81bd b901 52bf fdb5 81be da07 bcbe
000003c0: 0a20 2bbe a859 653e 7878 5b3e b294 cbbc
000003d0: c105 69be 4b76 ebbd bb59 4b3e 0553 113d
000003e0: 4eb4 7e3d 3d66 c33c 6345 503d 5ebe 19be
000003f0: e199 cdbd 4d11 45be 1222 9abd 7916 d93c
0.6404926 0.40091896 0.3802903 -0.003485944 -0.6871377 -0.3497056 -0.17950952 -0.5418844
-0.3985964 -0.45034635 -0.43623134 -0.2989908 -0.35833275 -0.49666363 -0.37758166 0.41115153
0.40753397 0.4352357 0.21295257 -0.22783841 -0.3354138 0.0006613361 -0.3783243 -0.27939758
0.45260614 -0.039477672 0.039004263 -0.18597938 -0.72019434 -0.13271986 0.46717593 0.14137028
0.2998843 0.32489097 0.072074845 0.07369364 -0.14666086 0.3190403 0.2798975 0.41884184
0.33704028 0.17436536 0.34462625 -0.19780298 0.017160732 0.12953849 0.22551242 0.33625007
-0.52922297 -0.39395583 -0.26652893 0.23212105 0.009881451 0.0097845765 0.5065208 0.057371885
0.12238564 -0.06744741 -0.36142752 -0.3708344 -0.23142254 -0.6712725 -0.16683593 0.33103576
-0.07786064 -0.012569616 0.31879967 0.039769214 -0.114413366 -0.7306266 0.24854422 0.13064107
-0.9822291 -1.2975786 0.34241915 0.2521395 0.51775223 0.68232507 0.2920754 0.046880733
-0.05125085 0.354393 1.0239968 0.7090858 -0.35409644 -0.21339445 -0.32725957 -0.036417864
-0.16965058 -0.1335301 0.29336908 -0.33444756 -0.18052572 0.2566107 -0.3693186 0.21775594
-0.0237624 0.22764595 0.1635216 -0.40678367 -0.2983611 -0.43046966 0.16338275 0.07912307
-0.115022734 0.28587744 0.912297 0.94053185 0.36574998 0.04153135 0.12784953 0.48735365
-0.051439542 -0.02576626 0.1795911 0.011079458 0.062357306 -0.7169492 -0.3198313 -0.2526915
0.43807676 0.35062072 0.3736089 -0.22581337 0.17755884 0.025200648 0.22981593 0.44689807
0.55804896 0.26098457 -0.04924862 0.27863532 0.23848374 -0.081007004 -0.09861471 0.312031
-0.08770865 -0.011701977 0.24402286 0.2285703 0.1967973 -0.33306554 0.2516715 0.47105828
-0.9558645 -0.3676334 0.28657442 0.48450375 0.2738334 0.34911695 -1.0889324 -0.8954381
0.18963687 -0.56372696 -0.35583246 -0.07424046 -0.10017433 -0.1491994 0.11482543 -0.8353604
-1.4816297 0.079852365 0.7639262 -0.0074055544 -0.077906914 -0.17395814 -0.44024903 -0.21393482
0.07394321 -0.10387867 -0.038907073 -0.58935773 -1.4136454 0.24433678 0.38941303 0.12632295
0.06540299 0.21641405 -0.072939105 0.2934418 0.09496165 -0.3173961 -0.09376596 0.6657769
0.5029568 0.6088783 -0.5046946 -0.39310378 -0.20328672 -0.05417197 -0.27840117 -0.31391847
-0.5810781 -0.26855162 -0.25022024 0.1981241 0.15829623 0.09476736 0.18815583 -0.18566146
-0.07503434 -0.09993801 -0.19364154 -0.055608887 -0.24587373 -0.20256977 -0.14500013 -0.841014
-0.008455569 -0.07126384 -0.45706695 -0.33529946 -0.1539754 0.3402862 0.034815848 0.04005863
0.42419195 -0.05134905 -0.02051084 -0.04561825 -0.17120998 -0.03025084 -0.2269865 -0.51774055
-0.2281991 -0.0920917 -0.17657451 -0.045410946 -0.63037276 0.10819505 -0.081570044 -0.0312207
-0.21471566 -0.27820745 -0.10297335 -0.11508372 -0.06344863 -0.8203388 -0.2533416 -0.3672474
-0.1671144 0.22397482 0.21432674 -0.024851177 -0.22756101 -0.11497172 0.19858448 0.035479564
0.06218367 0.023852462 0.050847422 -0.15014026 -0.10039116 -0.19244881 -0.0752603 0.026499974

rnn.weight_hh_l0 f4 [256, 64]
00000000: 1c2d a43e 8236 8a3d a53d 033e 0883 4d3d
00000010: bdd5 81bd c0f9 533f 6137 adbe 2199 eebd
00000020: a140 c93d c6fb 94ba 29da 50be e7f6 e9be
00000030: cdcf 653d 5081 0c3f d9aa e9be 7345 08bf
00000040: 894f 9c3e 9c1a 733d 3253 04be d561 6ebc
00000050: e333 8e3c a2c5 a03e 1202 1a3d a5d4 633f
00000060: 3583 3f3e 8752 76bf bc08 2e3e b62d 4f3f
00000070: 5fcc 9ebe 4a24 a73e 0624 b23d c3f9 df3e
00000080: 421b d4be 10fc 643e cede 043f 9a00 bc3f
00000090: 3a6e 0b3f 6353 c43e 4426 febd 9d87 f83d
000000a0: 5f16 b2bf 0f8a b7bd 2a29 32bf bdf8 8e3f
000000b0: c8a1 7e3d 1628 35be 53c3 dbbd 6f6e 80be
000000c0: b655 43be 527c 673f 91c2 3fbd 707a bfbe
000000d0: 62b5 663e 786c 8b3d 6d2a 3c3f d8e8 48be
000000e0: 3f66 f2bc c877 76bc 29a6 94bc 5ba1 583e
000000f0: 20e7 94be 5070 d8bf 0999 0fbe 3396 3abc
00000100: 79f8 a83d 35ae 793b 6419 e43c 8da6 a9bb
00000110: caf6 c03b 3a14 4ebe 5dad e1bb 3bd2 f9bd
00000120: 2f5d b6bc 5cd3 8e3a 69e5 013e 134e 1a3e
00000130: 9856 fdbe f904 803e 2310 adbe 2851 883d
00000140: 957b 68be 1b29 c2be 425d a4be 5a41 113c
00000150: df03 fd3b 700a 3b3e c4d0 5ebe 9f1a aabe
00000160: a9cd f5bb 5b28 7abc 6391 85be 81ef 5e3d
00000170: 0e67 4338 4335 3bbe 3d6c cd3b 9f08 40bb
00000180: a8c7 42bd 554d 76ba 4775 2dbe 873c 10be
00000190: 03a5 843d 4196 4d3e f1d9 33bf 3629 983d
000001a0: 6496 853e 1fe7 43bf 9fde 9dbe 49c8 c8ba
000001b0: 3ece d2bb bc05 033d 008d b83e 2cd0 b0be
000001c0: 4e76 063f d951 2ebe 68c6 883d 5eda 17be
000001d0: b049 8f3e 295d 35bc 293c 643c 30cb 593d
000001e0: ff71 e23e 7c01 bb3c 3035 8f3e 98f8 9dbd
000001f0: 5c76 b33d ed8c 253e c351 0b3e 9e33 9dbd
00000200: 8dc3 29be 99f2 553c 67dc 0fbc c51a 043a
00000210: 4614 0c3c e736 0d3e a244 033d d6ff debc
00000220: 9002 8bbd 3cf6 be3a 6837 8a3e 9048 983e
00000230: ce09 39bf 9f67 293e 7fbb 8bbe f8be 5b3d
00000240: 9915 a33d 4b40 82be 1679 8ebe 287e 543a
00000250: 3f91 3fb9 f427 293e f503 0abf 67d3 283e
00000260: 0b43 033d 8dbb 07bd 4259 d6be 0b44 683e
00000270: 0643 133d 97c8 21be c028 30be 1835 003f
00000280: 3b38 86bd 1b5e 4f3b 45e6 c4be f397 813d
00000290: ab8c 443e e418 803e d1bc 8ebe 00ba c53d
000002a0: ff7f f93d dc0e 41bf 95ad b1be 7572 093d
000002b0: ba35 433e e7b0 44bd f6f3 ee3e 9591 ebbd
000002c0: 0be7 f13e 03ad 1a3e 7c1c b5bb 728a 223d
000002d0: d9d7 9d3d 7000 64bc c8b8 efbd 39b2 6e3d
000002e0: 96d6 313e f444 44b9 0362 f53e 1239 dbbd
000002f0: e575 a83d e9b3 543d c47c cf3d e54e a9bd
00000300: 210d 42bd 5c74 b4ba 05a3 99bb 30a5 02bb
00000310: 204a 373b 12e3 5f3d 38d5 203b 02d5 5b3b
00000320: 5e9c 92bc e066 853a e25d 9a3c c866 203c
00000330: 948a f0bd 748d eb3b 6251 5cbc 5616 8f3c
00000340: 06ec d1bb 63c3 633b d842 5dbd c9ed 873b
00000350: 3e19 003b 61a5 363c 7531 3bbe 3309 733d
00000360: 461e afbc a3f5 48bd 7274 ddbd 6131 493d
00000370: 8ba2 503c 8de0 cbbb cd82 88bc cc93 003d
00000380: 3e1b 6ebc 1765 abbb 4f52 0dbd d922 053e
00000390: 8355 513c faa1 663c 112a 1cbd 4dd4 083b
000003a0: b697 17bd 2276 1fbe b83b 75bd e98c 913c
000003b0: 20c3 2e3c 02fe 143d 40ce 143d 465d 02be
000003c0: c4e7 0e3d 5555 e83c c5c3 133c c291 ad3c
000003d0: ceaa 4c3c db07 8739 32ad 8dbc 20da 9e39
000003e0: 304a ed3c 2571 503c 8e07 5d3e a048 8cbc
000003f0: 97d9 d2ba c45a 413d 3102 59ba 3eb3 e3ba
0.32065666 0.06748678 0.12816484 0.05017379 -0.063395955 0.82802963 -0.33831313 -0.11650301
0.0982678 -0.0011366538 -0.20395721 -0.45696184 0.056106377 0.54884815 -0.4563816 -0.5323097
0.3052943 0.05935155 -0.12922361 -0.014549692 0.017358726 0.31400782 0.03759963 0.88996345
0.18702395 -0.96219677 0.1699552 0.80929124 -0.31015298 0.32644874 0.08698277 0.4374524
-0.41427046 0.22361779 0.5190247 1.4687684 0.5446507 0.3834487 -0.12409642 0.12135241
-1.3913077 -0.089618795 -0.6959406 1.1169659 0.062166005 -0.17691073 -0.107306145 -0.25084254
-0.19075665 0.9042407 -0.046816412 -0.373981 0.2253013 0.06807798 0.73502237 -0.19620073
-0.02958977 -0.0150432065 -0.018145638 0.21155302 -0.29082584 -1.6909275 -0.14023222 -0.011388349
0.082505174 0.003809822 0.027844138 -0.005177325 0.0058887945 -0.20124903 -0.0068871216 -0.121983014
-0.02226123 0.001089673 0.1268517 0.15068845 -0.49480128 0.25003794 -0.33801374 0.06656104
-0.22703393 -0.37921986 -0.321024 0.008865679 0.0077214087 0.182657 -0.21759325 -0.33223435
-0.0075013232 -0.015268411 -0.26087484 0.054427627 4.65876e-05 -0.18282036 0.0062690065 -0.0029302014
-0.04755369 -0.00093956786 -0.16939269 -0.1408559 0.06476786 0.20076849 -0.7025443 0.07429735
0.260913 -0.7652454 -0.3083391 -0.0015318479 -0.0064332774 0.03198789 0.36045074 -0.34533823
0.5252427 -0.1702341 0.06678468 -0.14829394 0.27985907 -0.011069574 0.013930359 0.05317229
0.44227597 0.022827856 0.27970266 -0.07713431 0.0876281 0.1616704 0.13605408 -0.07675861
-0.16578503 0.013058328 -0.008780575 0.00050393894 0.008549755 0.13790475 0.032047875 -0.027221601
-0.06787598 0.0014569233 0.26995397 0.2974286 -0.72280586 0.16543435 -0.27291486 0.05364892
0.07963104 -0.25439677 -0.27826756 0.0008105957 -0.00018269288 0.16519147 -0.5391229 0.16486894
0.03204636 -0.033137847 -0.41864973 0.22682206 0.03595259 -0.15799175 -0.17203045 0.50081015
-0.06553694 0.0031641785 -0.38456932 0.0632781 0.19194286 0.2501899 -0.2787843 0.09654617
0.121826164 -0.754133 -0.34702745 0.03355642 0.19063464 -0.04802027 0.46670502 -0.11502377
0.47246584 0.15105061 -0.0055270772 0.039682813 0.07707185 -0.01391612 -0.11705166 0.058275435
0.17367014 -0.00018717704 0.4792634 -0.10704245 0.082256116 0.05192939 0.10131219 -0.08267001
-0.047375802 -0.0013767588 -0.004688623 -0.0019934885 0.0027967766 0.05465991 0.002454115 0.003354371
-0.017896827 0.0010177754 0.018843595 0.00979013 -0.11745182 0.0071884934 -0.013447138 0.017466705
-0.00640631 0.003475391 -0.054018825 0.0041482192 0.0019546296 0.011147828 -0.18280585 0.059334945
-0.02137674 -0.049062382 -0.10813226 0.049119357 0.012734066 -0.006221837 -0.016663933 0.03139095
-0.014532862 -0.0052305567 -0.034502324 0.13001575 0.012776735 0.014076704 -0.038126055 0.0020878494
-0.037009917 -0.15572408 -0.059871405 0.017767387 0.010666639 0.036375053 0.036329508 -0.12730893
0.034888998 0.028361002 0.009018843 0.021187667 0.012491895 0.0002575506 -0.0172945 0.00030298624
0.02896604 0.012722288 0.21584913 -0.017124474 -0.0016086575 0.0472057 -0.00082782196 -0.0017372144

rnn.bias_ih_l0 f4 [256]
00000000: d5e9 e03e b2e9 c4be 0efa abbe 00e2 c3be
00000010: 994f f3be 57f2 fb3e 6984 acbe fe8c 19be
00000020: 9ee3 293d 8ad4 32bf fadd 813e 6ddc 443e
00000030: 64c6 b63e edf9 9c3e 034a de3d 657e c63e
00000040: 9c28 a0bd 5892 073e 1147 f43d 3df3 d8be
00000050: 3d52 34bf f0c4 db3d 01c7 97bd b077 3b3e
00000060: 72ca 8a3e 4a4e 213f ab05 b13d 4594 433f
00000070: f8a0 b5be 3462 3dbe 3d67 85be 69ef 943e
00000080: 0999 853e ce67 eabe 26ac c93c 1471 6c3f
00000090: 8f6a eb3d 1a4f 223e b5ff a8bc 7f35 8ebd
000000a0: c82e 5f3e fca8 073e 582f cf3e 41c8 793e
000000b0: 1d58 81be e4d7 a03c 65a8 a03e 0831 d63e
000000c0: edde 2b3e 5662 5b3e bce3 903e dbce 09bd
000000d0: 162a a4bd 5625 003e 851b 34bb b769 f4bd
000000e0: 97a1 513d 3b30 683e c7f0 ffbd 69f9 623e
000000f0: 6283 b93b 6d56 0a3f 7982 a4be 0af4 94be
00000100: 3109 e6be f0a6 5abb 862f 70be 4ff7 6bbe
00000110: 9575 97bd a6dc 4abe b69c c4be a2ac 483c
00000120: 3cb6 b63c 23bf 33be 3c67 a9be 4156 7ebe
00000130: c938 11be 867f 43be 4a85 a1bd 8c20 66be
00000140: 8947 f13d 5870 52be 5567 b03d 4811 0cbe
00000150: f777 48be a5f2 c53c 4161 ef3d 0924 4e3d
00000160: 8f39 dbbe 6b53 77be 5faf 413e 3fdc a2be
00000170: 8c58 44be 7668 41be 932b da3d 23ed 6e3c
00000180: ffcc c0be af38 38be bfdd d33d 2d4c 95be
00000190: 7beb dfbe eb23 ddbd b6d6 873d 903c 4c3c
000001a0: 1348 18bf 005b b73d 7317 13be b8c5 8fbe
000001b0: 9f12 90bc 4641 773d 5b37 0fbe 66bb e53c
000001c0: a671 db3e 2854 b5be c31e bcbc df45 a8be
000001d0: 4241 bc39 c734 2ebe a760 bebe 999e a3be
000001e0: 04e0 833e 417b ebbe e735 803e 3b19 3fbf
000001f0: 5fcb 6fbe 0ab9 f9be 81a4 bbbd 5720 ff3c
00000200: 8a7d 2d3d ca0d 673d f4d1 42be f1c5 85bc
00000210: bd95 d2bc 4731 963d 21d9 9b3c 2d57 19bc
00000220: c829 013d 2fe9 f23c 2338 2fbe 3acb 09be
00000230: 7871 aebb 3792 633d 2ce0 163e 7658 023c
00000240: 7fd3 21bd 2d43 df3d 1358 15be db6d 3ebd
00000250: 20d9 d9ba e4a7 773c b230 c43c d93e 0c3e
00000260: d531 193e 55a9 10be b064 fcbd a22f 4dbd
00000270: ce5a 34bc 2c99 3f3d dbb7 c4bd 43ed e53c
00000280: 6774 77bc 9320 8dbd 72eb 10bd d1bf 85bc
00000290: 212a 983d 18b6 8abd 5e84 ba3d fc5e d23d
000002a0: e4a3 7abd 6e98 efbb ec57 c73d b005 7b3c
000002b0: ac0b c1bc 4f0c f63d 6b6a 26be d847 68bd
000002c0: 4f03 2e3d 8fb5 89bd 5fb1 783d 8153 553d
000002d0: b6c4 4a3d 03f5 a63d e70a 213d 1d38 c0bd
000002e0: 0304 c1bd a8ac 59be bf54 01bc 2665 493d
000002f0: 19f1 fcbd 88e5 9cbd 1002 8ebd 6cf9 a5bc
00000300: 0699 173f 7c67 8cbe 0284 c4be 2905 fdbe
00000310: 84b2 a3be 5345 df3e 057a 7dbe 93da 40be
00000320: c141 023e cc1a 2dbf c154 6a3e 9444 cc3c
00000330: fa92 463e a41c 133e 7a15 503e 1fd7 c03e
00000340: 808c 113d a651 4cbd 2b6a 753e a090 d9be
00000350: f1b9 2fbf 5091 27bd dc7f 703d 0363 843e
00000360: fe40 e63e 698c 373f 351e f83d 7d76 4b3f
00000370: 78a9 74be d8b2 52be 2dad d6bc b0f2 a73e
00000380: 4384 0a3e 637d aebe fe5f 5f3d bfa9 7d3f
00000390: 0e0a 433e 187b 5b3d 4399 243d 8f81 30be
000003a0: 4309 133e 3ed5 683e d6c1 213f 2d69 1c3e
000003b0: dd36 8bbe 8fec 203d 6141 953e 4b6f c13e
000003c0: a2ab 673e 00b9 ce3e b886 ba3e f89c bcbd
000003d0: 444e d0bc a91e 383e 18be c7bd 484a 50be
000003e0: 9233 863d 8f50 a73e d9de 4cbc 2cc3 6a3e
000003f0: cf81 fbbb 7897 ff3e c3ac 23be 690f c5be
0.439284 -0.38459545 -0.33589214 -0.38258362 -0.47521666 0.49208328 -0.3369477 -0.1499519
0.04147684 -0.6985556 0.25364667 0.19224711 0.35698235 0.30659428 0.1085396 0.38768306
-0.078202456 0.1323942 0.11927617 -0.42373076 -0.70437986 0.10730922 -0.07411004 0.18307376
0.2710758 0.63010085 0.08643659 0.76398116 -0.35474372 -0.18494493 -0.26055327 0.29088905
0.2609332 -0.45782322 0.02461822 0.92360044 0.11494934 0.15850487 -0.020629743 -0.06943797
0.2179519 0.13248056 0.40465808 0.24392797 -0.25262538 0.019634195 0.31378475 0.41834283
0.16784258 0.21424231 0.28298748 -0.03364454 -0.0801584 0.12514243 -0.0027482223 -0.11934226
0.051179495 0.22674648 -0.124970965 0.22165455 0.005661414 0.54038125 -0.32130793 -0.29092437
-0.44928887 -0.0033363663 -0.23455629 -0.2304356 -0.07395474 -0.19810733 -0.3840081 0.01224819
0.022303693 -0.17553382 -0.33086574 -0.24837591 -0.14181818 -0.19091615 -0.07886751 -0.22473353
0.117812224 -0.20550668 0.08613459 -0.13678467 -0.19577013 0.024163553 0.116884716 0.050327335
-0.4281735 -0.24152915 0.18914555 -0.3180866 -0.19174403 -0.18887505 0.106528424 0.014582905
-0.376564 -0.17990373 0.10345029 -0.2915968 -0.43734345 -0.107978664 0.0663275 0.012465611
-0.59484977 0.08952904 -0.14364414 -0.28080535 -0.017587004 0.060364984 -0.1398596 0.02804346
0.42860144 -0.3541577 -0.022963887 -0.32865807 0.00035906775 -0.1701232 -0.37183115 -0.31956938
0.25756848 -0.45992473 0.25041124 -0.74647874 -0.23417424 -0.48773986 -0.09162236 0.03114335
0.04235605 0.056409635 -0.19025403 -0.016329737 -0.025706166 0.07333618 0.019024434 -0.009359163
0.031533986 0.029652206 -0.17111258 -0.13456431 -0.005323585 0.055559363 0.14733952 0.007955661
-0.03950834 0.10901485 -0.14584379 -0.046491485 -0.0016620494 0.015115712 0.023949001 0.1369585
0.14960416 -0.14127095 -0.12323892 -0.050094254 -0.011007978 0.046776935 -0.0960538 0.028067237
-0.015103436 -0.06890979 -0.03538079 -0.016326817 0.074299105 -0.06773013 0.09107278 0.10272023
-0.061191455 -0.007311872 0.09733567 0.01532118 -0.023565136 0.120140664 -0.16251533 -0.05670914
0.042483624 -0.06724083 0.06071603 0.05208159 0.049504004 0.08152201 0.039317038 -0.09385703
-0.09424593 -0.2125727 -0.00789374 0.04916873 -0.12350673 -0.07660967 -0.06933987 -0.020260535
0.5921787 -0.27422702 -0.38381964 -0.49418 -0.31972134 0.43607578 -0.24753578 -0.1883338
0.12720396 -0.67619014 0.22883894 0.024935044 0.19392005 0.14366394 0.20320693 0.37664124
0.035534382 -0.049882554 0.23966281 -0.42493153 -0.686431 -0.040910065 0.058715686 0.2585679
0.4497146 0.71698624 0.121151365 0.79477674 -0.23892772 -0.20576036 -0.026205624 0.32802343
0.13527016 -0.34080037 0.054534905 0.99087137 0.19046804 0.05358419 0.040185224 -0.17236923
0.14359002 0.22737595 0.63186395 0.15274496 -0.27190295 0.0392881 0.29151443 0.37780222
0.22624066 0.4037552 0.36430907 -0.09209627 -0.025427945 0.17980446 -0.097530544 -0.20340836
0.06552805 0.3267865 -0.012504303 0.22926015 -0.0076753865 0.4992025 -0.15983872 -0.3848832

rnn.bias_hh_l0 f4 [256]
00000000: 8d6e ea3e 75cf f1be f6fc fdbe b2f5 c4be
00000010: 90a4 a6be 3359 f83e 72e5 7ebe 0ad5 1cbe
00000020: 5294 22bd caec 31bf 5650 af3e ee09 713d
00000030: 8ccf 573e 238b fa3d b95c 0f3e a368 c93e
00000040: 9091 64bd 3504 883d b0f4 1f3d 18ba 0abf
00000050: 777f 38bf 62e7 c3bb b7ff c13b 41a9 b53d
00000060: 9a21 ac3e a5bf 2b3f 8cbb 13bd ea91 443f
00000070: 40d0 9dbe ef39 b7bd 6ca7 9fbe 2862 8e3e
00000080: 148b 7b3e 8dab 01bf 518e 5d3d 5931 873f
00000090: fd95 5b3d afbc 643d 0434 9a3d 13f6 31be
000000a0: 9c3e 203e f6a9 18bb fde3 1e3f 3e60 b23e
000000b0: dd91 87be dcc8 783d 0bad 503e 6fa1 be3e
000000c0: 5056 7b3e 1dfb c13e ac5f 8a3e 8853 e5bd
000000d0: 94a4 ce3b de9f d13d 756e 863d 595b 14be
000000e0: d6be 19bd b08c 463e 9f36 713c a49b 473e
000000f0: e0c4 cb3d f063 0e3f 0663 09be aead 4cbe
00000100: 5948 b4be 4acc 1e3e f910 c3bc c7be 90be
00000110: b1d9 77be 6e2d 21be 5239 aebe ed22 c3bd
00000120: 3175 a53d bba3 33be 67a8 b6be 888e cfbd
00000130: 4ec1 a4bc b9ab 78be b689 ffbc a28d 86be
00000140: faca 1a3e 14c1 57be 8631 663d 6f05 93be
00000150: 1a75 48be 6fdb ccbc 4c39 f23d e844 54bd
00000160: 957d d0be 3a4d 7cbe eccd 1a3e 2cad 5dbe
00000170: 551b 6dbe 20f1 83be b214 da3d 2b00 25bd
00000180: b3d3 96be f97c a5bd 4a77 81bd f135 8cbe
00000190: 475a aebe c5e2 dabd 8b66 3d3e 934f c7bd
000001a0: a127 22bf 0773 793d 1524 27be 83a7 febd
000001b0: e7c0 4dbd 4fcb 033e 52c5 4cbe e7c7 c63d
000001c0: d603 293f 705b 8abe ee97 debc f7c4 ecbe
000001d0: 4f38 94ba f372 fabc eaa1 debe c5c4 63be
000001e0: f39c 623e cf0d e9be 98c1 ab3e 27bc 18bf
000001f0: c555 80be 3412 e0be 4342 48be 27f5 efbd
00000200: 4c75 a9bd 0a7f 27be 2d3b 1abb 767e e2bd
00000210: 6b6a c5bd 9f87 e73d 1078 fc3c 3867 253e
00000220: a77c 13be be34 1e3d 52ad f5bc 55af 033d
00000230: c0d2 443d ba9b 27be d908 993b 2e11 a93d
00000240: 11c7 d4bd e00a 6b3d 5a60 80bd 8e02 b43d
00000250: c996 883b d81e 19bd 4183 c6bc 4211 0dbd
00000260: 1e77 5b3e 0ba7 d7bd 950a 803c 3f03 5d3d
00000270: b232 833d 99a1 a83d bcce 07bd bbbc 4ebe
00000280: 15b2 92bd 2bbd afbc 6449 903c 57c3 18be
00000290: 7c85 e23d de18 cbba a8a6 803c 671a 493d
000002a0: 385c debd 6f12 2a3e f6d6 4dbd 9c04 bfbd
000002b0: 9a85 073e 7cae c53d ca12 073d 46ff 7cbd
000002c0: e62b 083e 1b75 13bd d5c2 293e 6ff3 fd3d
000002d0: e54f 1a3e aaf4 863e 03d6 5ebd d28b f2bd
000002e0: 2e52 ac3c 8cd4 46be 9a88 ef3c 396c 403d
000002f0: e5fc 91bd f49c 293c a2e4 1dbe d95d c03d
00000300: baa6 f43e fd2f e0be bea6 b2be f1bf f1be
00000310: 05eb c8be f1aa 0e3f 4511 b8be da3b 93be
00000320: cb60 203e c661 2fbf 31ae 843e 94a6 443d
00000330: 6d65 253e 80f1 5e3e aa35 ff3d 391d 9c3e
00000340: 1cb0 a1bc 3b5e 333d e9da 7f3e 8cca 0bbf
00000350: 8e46 38bf 5d58 5fbd 045d 36bd 63c1 5f3e
00000360: 5442 f53e 4411 053f a3e9 893e 122e 533f
00000370: 5f34 94be 0fd3 c5bd 4d09 11bd f5a9 c73e
00000380: b70b 013e 0655 c2be 6a00 75bc abb7 833f
00000390: 420a 073e 345f da3d d8ef 243c 093b 9abd
000003a0: 7e1f af3e bbd7 473e b06f 0b3f 2796 8a3e
000003b0: 7d13 62bd 7719 33be fed3 853e 9857 a83e
000003c0: b391 c13e 05b1 ac3e a3f2 733e 73c8 b93d
000003d0: 9518 073e 1fe7 2d3e b902 70bd 8dfe 05be
000003e0: d841 b63c 636d a33e eebf 973c 3bd8 583e
000003f0: 8980 adbd 65cf 013f 6a28 45be 8ece b9be
0.4578747 -0.4722859 -0.49607056 -0.384687 -0.32547426 0.48505554 -0.24892214 -0.15315643
-0.03969223 -0.69501936 0.3424098 0.05884736 0.21075267 0.122335695 0.14000215 0.39337644
-0.05580288 0.066414274 0.03905171 -0.54190207 -0.72069496 -0.0059785107 0.005920376 0.08870173
0.33619386 0.670893 -0.03606753 0.7678515 -0.30822945 -0.08946597 -0.3118242 0.27809262
0.24564773 -0.5065239 0.0540908 1.0561935 0.053609837 0.055844005 0.075294524 -0.17379026
0.15648884 -0.0023294664 0.6206663 0.34839052 -0.26478472 0.06073843 0.2037851 0.3723254
0.24544644 0.37886897 0.27026117 -0.11197573 0.0063062403 0.1023557 0.06564037 -0.14487971
-0.03753551 0.19389606 0.014722495 0.19492966 0.0994966 0.5562124 -0.1341668 -0.19988129
-0.35211447 0.15507618 -0.023811804 -0.28270552 -0.24204136 -0.15739986 -0.34028107 -0.09528146
0.08078993 -0.17542927 -0.35675356 -0.101346076 -0.020111706 -0.24284257 -0.031193595 -0.26279932
0.15116492 -0.21069747 0.056199573 -0.28715083 -0.1957592 -0.025006978 0.11827335 -0.051823527
-0.4072081 -0.24638835 0.15117615 -0.21648091 -0.23154958 -0.257699 0.106484786 -0.040283363
-0.2945839 -0.08080477 -0.06321581 -0.27384904 -0.3405325 -0.10687784 0.18496148 -0.097319745
-0.6334172 0.060900714 -0.16322358 -0.12434294 -0.050232794 0.12870525 -0.19997147 0.09706097
0.6602148 -0.27022886 -0.027172055 -0.46244022 -0.0011308285 -0.03057239 -0.43482906 -0.2224303
0.22130184 -0.45518348 0.33546138 -0.596621 -0.25065437 -0.43763888 -0.19556527 -0.11716681
-0.08274326 -0.16357055 -0.0023533807 -0.11059277 -0.09639438 0.113051645 0.030818969 0.16152656
-0.1440302 0.038624518 -0.029989872 0.03214963 0.04805255 -0.16367999 0.004670244 0.0825523
-0.103895314 0.057383418 -0.062683776 0.0878955 0.0041683656 -0.03738293 -0.024232509 -0.034440286
0.21432158 -0.10529908 0.015630046 0.053958174 0.06406154 0.08233947 -0.03315614 -0.20189182
-0.07162873 -0.021452507 0.01761312 -0.14918266 0.110606164 -0.0015495082 0.015704468 0.049097445
-0.10857433 0.16608594 -0.05025383 -0.09327051 0.13234559 0.09652421 0.032976903 -0.061766885
0.13297996 -0.036000352 0.16578229 0.12399947 0.1506954 0.2635854 -0.054403316 -0.11843075
0.02103528 -0.19417018 0.029239941 0.04697821 -0.07128314 0.010352362 -0.15419248 0.093929
0.47783452 -0.43786612 -0.3489284 -0.47216752 -0.39241806 0.55729586 -0.35950676 -0.287566
0.15661924 -0.68508565 0.25914147 0.048010424 0.16151972 0.21771812 0.124614075 0.30491045
-0.019737296 0.043791037 0.24985851 -0.54605937 -0.7198266 -0.05452763 -0.0445223 0.21851115
0.47902167 0.5197947 0.26936063 0.8249217 -0.28946206 -0.09659397 -0.03540926 0.38996854
0.12602125 -0.37955493 -0.014953712 1.0290426 0.13187507 0.1066269 0.010066949 -0.07530791
0.34203714 0.19515888 0.54467297 0.27067682 -0.055194367 -0.17490183 0.261383 0.3287933
0.37806472 0.33728805 0.23823027 0.09071436 0.13192971 0.16982697 -0.058596347 -0.13085385
0.022248194 0.31919393 0.018524136 0.21176235 -0.08471782 0.50707084 -0.19253698 -0.362904

rnn.weight_ih_l1 f4 [256, 64]
00000000: 8a34 1d3c 2805 233b cc58 5d3a 0cda 17ba
00000010: 31c5 7fb9 3c2d 14bd ba7b 55bb 652c 72bb
00000020: 03c2 e3bc d32a 0339 01bd 7dbc ba7e d23b
00000030: d0ed 9cbd acf3 21bc 7965 013b aff7 393d
00000040: f99a 9fbd e538 713b bd2b 7cbd 4f7f 53b8
00000050: 17d0 28b9 962e 973c d980 0bbe d784 2d3d
00000060: 05b4 143b bc66 083d b201 c1bd 60ae b6bc
00000070: 56b2 7dba 4690 0538 6928 59bc 63be edbb
00000080: 768c dc3c 8b25 6db8 dd57 c9ba b171 c3bc
00000090: 9d01 94bc 5388 70bb 316a bcbd 40f5 c0bb
000000a0: 7a79 1e3d a2ab 3cbe 506b 133d 50f2 1abd
000000b0: 1f51 8e3b fcd1 c13b 24a4 963c 366b 63be
000000c0: 4dc5 243e fbb9 0bbd e934 b53a 8e41 a9bb
000000d0: 26e0 313c b5bc 1cba a185 233c a118 e639
000000e0: 3de5 a13d 9081 69ba 55a1 2e3e b105 ae3c
000000f0: 85d8 17bc cd31 773d 69c6 e23a 0310 f2bb
00000100: f965 eabb 0058 3a3a a13d 713b 99c8 5fba
00000110: ca2b 1a3b e2cf 83bb eb22 5ebc 78b8 0dbc
00000120: 3fbe aabc 2e48 db39 9d89 96bc 2479 b03c
00000130: 1c98 c2bd 0309 aabc f9b1 f6bb 7dca 6e3d
00000140: 93c6 b5bd 5d52 0a3c c5da 63bd 7b2c 4239
00000150: 990e 7fba fe7f 023c d4cf 3abe dee8 853c
00000160: d728 9a3b 8769 6d3c 0b98 ccbd f550 1cbd
00000170: 4b1f 8bba 3e67 943b b352 82bc 6e7b 823b
00000180: c1e7 bb3c 8cec 44bb b393 c7bb 57f3 64bc
00000190: 0d87 ceba 8b20 323b 9021 cabd 8001 dd39
000001a0: 52ef b63c 907d 3cbe 36fc c83c 0ffb d7bc
000001b0: b345 883a c324 a13c 162f 953c 398f 62be
000001c0: d99a f93d 29f1 19bc ae07 ac3b b15f 00bc
000001d0: 7019 d13a 42ba f43a 0f5b 853c 1073 b4bb
000001e0: 599b c43d 4056 82bb a8a9 393e 2329 863c
000001f0: 9d79 24bc 948e 683d 65df 503b d4c4 ddbb
00000200: 9508 3ebe c345 9b3c 552a c5bc f9c6 98bd
00000210: d2c6 a83c 32e2 73bf 45bb 9ebd f9ec 233f
00000220: b70e 80bd c670 30bc 68be 81bf 556f d5be
00000230: da28 053f 13b0 f1bf 9611 173f da08 383f
00000240: e661 1dbe c9a2 b23e 812f 71be d0f4 8a3c
00000250: eb15 88bc b2ea 6abb 5323 3bbe e50c d03f
00000260: 2169 7a3f 9f52 a53e c0a1 c83d c298 ebbf
00000270: 5e09 273e 9f26 0d3f d69a bbbe 4b11 c4be
00000280: a7c7 443f 7a76 4d3c 83d3 2e3f 2c6c e5be
00000290: c637 8fbe c462 81bf a79d 53bf 547d 05be
000002a0: 06a4 e4bc 768d e2bd 8198 353f f628 bf3e
000002b0: 397d 0a3e e0d7 26bf 92f5 8a3e e735 8abf
000002c0: ceb2 c0be 1261 2dbf cb6e 8f3e 17c4 183f
000002d0: 0b55 8ebf fe98 973e 1843 b73e f9e3 11be
000002e0: 2871 363f 6e3a e8be a4b0 aabd 40ed 2c3f
000002f0: 25d1 18be 2b5a 433f 9a3b f53d d31c bcbc
00000300: 8fab 263e 9a6c 03be e1cb a4bd 3b09 ee3c
00000310: 3d81 e83c ed38 91bd f97b dcbc d3d8 e93d
00000320: 5b45 59be 7db7 ecb9 3761 3ebe 4a4f 1ebe
00000330: 08ea 7abe 4291 4cbe 5fb7 5b3e 0902 c13e
00000340: 6d43 88be 5991 553e f493 bfbe a322 57be
00000350: 9a2e 1e3b aec9 d2bd 641d 9abe f1ed adbd
00000360: 1bc1 223e f689 acbd e3c7 0bbe f702 b9bc
00000370: c6bd 823d 7cb7 62bd 7a03 41be 988f 26bf
00000380: 4ac0 9b3e 083f bbbc c978 29be b746 14bf
00000390: c819 91be a3d4 dcbd e174 04bf 8397 0c3e
000003a0: 944a e0bb 8ca1 15bf 22b8 c33e 73e8 1ebe
000003b0: b967 8c3e f5b8 ed3c 0432 9ebe fd34 fbbe
000003c0: f8be 5d3f 6843 0dbf 309d a33e ec86 e6bd
000003d0: 7885 983e 32d7 31bd 0fb8 233e f589 1abd
000003e0: 46a4 c83e fe35 883d c14a 833e 3765 703e
000003f0: 922a f9be 93ab a83e c7c1 093e 2884 153d
0.009595046 0.00248749 0.0008443713 -0.00057926844 -0.00024392155 -0.03617595 -0.0032574967 -0.003695273
-0.027802473 0.00012509087 -0.015486957 0.0064237984 -0.07662547 -0.009884756 0.001974432 0.045402225
-0.077932306 0.0036807593 -0.06156515 -5.0424886e-05 -0.00016099248 0.018454831 -0.1362337 0.042363014
0.0022690308 0.0333011 -0.094241515 -0.022299945 -0.0009677758 3.1844036e-05 -0.013254263 -0.007255362
0.026922446 -5.6540168e-05 -0.0015361268 -0.023857923 -0.018067176 -0.003670235 -0.09199942 -0.005888611
0.038690068 -0.18424848 0.035991013 -0.037828743 0.0043431665 0.0059149247 0.018388815 -0.22208866
0.1609089 -0.03411291 0.0013824973 -0.0051652854 0.010856664 -0.0005979047 0.00998059 0.00043887369
0.07905052 -0.0008907551 0.17053731 0.021242948 -0.009267931 0.060350228 0.0017301562 -0.0073871627
-0.0071532694 0.000710845 0.0036810415 -0.0008536666 0.0023524635 -0.0040225843 -0.01355813 -0.008649938
-0.02084267 0.00041824713 -0.018376166 0.02154214 -0.09501669 -0.02075625 -0.00752854 0.058298577
-0.08875766 0.0084424885 -0.055628557 0.00018517852 -0.0009729653 0.007965086 -0.18243343 0.016346391
0.0047045755 0.014490492 -0.099899374 -0.038163144 -0.0010614184 0.004528909 -0.015908575 0.003981999
0.022937657 -0.003004822 -0.006090605 -0.013974032 -0.0015756801 0.0027180042 -0.09869683 0.00042153522
0.022330914 -0.18407273 0.024534326 -0.026364831 0.0010396749 0.01967085 0.018210929 -0.22124948
0.12187738 -0.009395876 0.005249939 -0.007835315 0.0015953016 0.0018671232 0.016278772 -0.0055068806
0.09599943 -0.003977567 0.18131125 0.016377037 -0.0100387605 0.056776598 0.0031871435 -0.0067678485
-0.18557961 0.018954163 -0.024068037 -0.07459826 0.020602617 -0.9526702 -0.077505626 0.64033467
-0.06252807 -0.010769075 -1.0136232 -0.41686502 0.5201546 -1.8881859 0.5901121 0.71888506
-0.15369377 0.3488982 -0.23553278 0.016962439 -0.016612014 -0.0035845456 -0.18275194 1.6253935
0.97816664 0.32289597 0.09796476 -1.8405993 0.16312167 0.55137056 -0.36641568 -0.38294443
0.76867145 0.012540454 0.6829149 -0.4480909 -0.2797224 -1.0108266 -0.82662433 -0.1303609
-0.027910244 -0.11062138 0.7093583 0.37335938 0.13524331 -0.6517315 0.2714048 -1.07977
-0.37636417 -0.6772624 0.28014216 0.5967421 -1.1119703 0.2960891 0.35793376 -0.14247121
0.7126641 -0.45357078 -0.08334473 0.67549515 -0.14923532 0.7630946 0.11974259 -0.022962963
0.16276382 -0.12834397 -0.08046699 0.029057136 0.028381938 -0.07090936 -0.026914584 0.11418309
-0.21217863 -0.00045150137 -0.18591772 -0.15459934 -0.24503338 -0.19977286 0.2145667 0.37696865
-0.26613942 0.20856227 -0.37417567 -0.21009307 0.0024136663 -0.102923736 -0.30100548 -0.08492649
0.15893976 -0.084247515 -0.1365047 -0.022584422 0.06383853 -0.055350766 -0.18848982 -0.65062857
0.30420142 -0.022857204 -0.16549982 -0.579204 -0.28339982 -0.10782745 -0.51740843 0.13729672
-0.006844828 -0.58449626 0.3822642 -0.1551836 0.27422884 0.029018858 -0.30897534 -0.49063864
0.8661952 -0.5518098 0.31955862 -0.11256203 0.2978933 -0.043418117 0.15988182 -0.037729222
0.3918783 0.06650923 0.2564297 0.2347611 -0.4866529 0.329434 0.13452826 0.036502987

rnn.weight_hh_l1 f4 [256, 64]
00000000: d350 a5b9 51aa 9239 246c 743c 5c8c ef39
00000010: 4584 23b9 948c c439 f159 2239 3e53 80b8
00000020: b9c9 b33a 5398 a13b ae3d cfb9 e598 a238
00000030: 4646 89b9 7640 f439 65d4 1f3c 06e8 e4ba
00000040: d34c 89ba c501 af3b dc22 d33a d9cf 123b
00000050: 1b74 493b 0b0f 54ba bf5a 8b3d 90e3 c3b8
00000060: a0a0 863e 459b ea3b 75e2 4f3a 52ab aeb9
00000070: 9bd6 f23b 028f 26b9 bf64 ebba c18a 0cbc
00000080: 966d c7b8 c6a8 de3b 84bd 7eb8 ad64 f339
00000090: e8af e5bb 50a9 03b8 0443 223a 74fe de3b
000000a0: 0c5e c4bb 0ed0 ad39 9754 ab39 d2fc a739
000000b0: e883 4fbd 59a5 c43d 7828 413c 98b7 773a
000000c0: 20fd dcb9 15e8 aabb 6c90 b23d d029 bc3a
000000d0: 30cc 3f3a 732a 923b 807b 58bc 25bb 023c
000000e0: d0cf f339 5c17 333b c3db babd 8466 03bc
000000f0: f6c4 c539 b721 e5b7 176c 5337 a9f0 91b9
00000100: ce65 22ba 5957 6bba d937 8cbb 83ca 01bc
00000110: c5d5 3dba 553c 74b8 a3de 39bc fcf4 6fba
00000120: f408 3339 f02c 2dbc 4b06 51ba e901 2838
00000130: 402d 863c 2ddb fc3a 2079 863c 82e4 c13c
00000140: f24d 16bb 0139 36bd 7f61 88bc c18d 233c
00000150: 5b1f efbc dc86 0fb7 9d7e a83d e1a5 71ba
00000160: 8ca9 9d3e d614 3b3c a923 5e3c da5a 17b9
00000170: f9d9 a73a 8f80 55ba 987f acbb 8d62 6fbc
00000180: 2fde 2bba 3dbe f1bc ebbb 7e3a fed4 80b9
00000190: 5f10 9d3c 6310 8eb9 3d41 233c fe3d 613c
000001a0: 287b 863a 2e82 3538 c93f 363b 2efd 353a
000001b0: 0a91 23bd fbde 1b3d d776 d9bc 83bc 933a
000001c0: 3664 383a a742 d93b a820 b13d 22a6 c03b
000001d0: ca70 1b3a 06d0 74bc 48cf ccbb 8074 cc3b
000001e0: ad65 f1ba 583a ce3b 2a14 2bbd dca2 e33b
000001f0: 7016 02bb e9a4 87ba d3d1 b3b8 1182 03bd
00000200: 3e29 a33b b711 6cbc c229 b23f 86a9 9b3e
00000210: 97d1 ab3d fde2 0cbd d76a e43e 4325 e03c
00000220: 2262 1ebd e135 813f 348f 8bbe d98d a7bb
00000230: 809f 07bf 2a9e 0fbd 83fd ed3e d6b6 393d
00000240: e9b8 18be b4d6 df3e 0738 67be 8f01 ffbd
00000250: 167f 0cbf 00b5 e7be 98a1 873e 67a1 0a3b
00000260: b45f 98bd c29e 583f 3c6d f83e 4dd3 75bc
00000270: 8f35 293f 6fc3 b53c eebc 9fbe 5c2e 78be
00000280: 4686 30bb e556 a6be 7c12 b139 6a85 0ebd
00000290: 2d92 b13e e3bb dc3c b60e 693f f09a d5be
000002a0: d041 32bf 4e76 19bd be66 b5be 1449 c8ba
000002b0: cee9 6e3e 2f60 043f 757b 6a3f 1c60 0cbe
000002c0: bc7a a0be 2830 54bf 9bf0 7ebe fcd3 21bb
000002d0: c364 0ebf 9d01 92bf c17f cbbe b3c9 f83e
000002e0: de30 b23d 3675 023f 596d 94bf 1f56 103e
000002f0: 272b d2bc 6143 973c 6c02 b33c 73c9 543d
00000300: 0bd0 58ba 1c23 7ebb a9fb 00be 9580 4fbe
00000310: 2eb5 4dbe af5b 8c3a 9a20 14bd 1012 9b3b
00000320: a208 603d e103 313d 3a46 233e 4338 f0ba
00000330: 4e1b d53c 64ba d8bd 4842 d03d 9825 1b3e
00000340: a01c adbe 67e1 113e d7e6 f83d 7d87 d33e
00000350: 75bf 58be d8ce 993b 9f3c 173f 05c8 893b
00000360: 5b25 c13e 23ab 293e 01a2 803e 9bdd cc3d
00000370: 771f 00be f611 223b b32e 763d acff ad3e
00000380: c7f9 2e39 c5b8 813e c2a6 683a ee76 883a
00000390: 7d08 39be 5e58 58ba 30a8 6d3e ac7f d53d
000003a0: 9b81 8a3d 6617 943a 8b8e 8f3d c6ff 6bba
000003b0: 8f58 0bbe 7e2d ed3d cc05 3ebd f4e9 ab3c
000003c0: bc54 f23d d9ca 523e 8e2a a93e 3f88 f4bd
000003d0: 58f4 b33e fce1 b8be dab5 b33e 957e 173d
000003e0: cd28 d3bb 85b2 4c3d 187a c8bd 667f c5be
000003f0: 38fa d33b 9a78 863b f351 f23b 3000 57be
-0.0003153147 0.00027974186 0.014918361 0.00045690208 -0.00015594166 0.00037488772 0.0001548303 -6.119021e-05
0.0013716734 0.0049314885 -0.00039528072 7.753241e-05 -0.00026183034 0.00046587334 0.009755229 -0.0017464168
-0.0010475166 0.005340787 0.0016108411 0.002240172 0.003073937 -0.00080894 0.06804418 -9.3407114e-05
0.26294422 0.007159623 0.0007930168 -0.0003331551 0.007410837 -0.00015884268 -0.0017959102 -0.008578003
-9.5094714e-05 0.0067950217 -6.073482e-05 0.0004642358 -0.007009495 -3.139052e-05 0.00061897957 0.0068052355
-0.0059926566 0.00033152144 0.00032678686 0.00032041088 -0.050662905 0.0960185 0.011789434 0.000944966
-0.00042150263 -0.0052156546 0.087189525 0.0014355723 0.0007316498 0.0044606267 -0.013213038 0.007979189
0.00046503404 0.0027327156 -0.091239475 -0.008020047 0.00037721515 -2.7314627e-05 1.2601747e-05 -0.0002783586
-0.00061949797 -0.00089775544 -0.0042791185 -0.007921818 -0.0007241632 -5.8230322e-05 -0.011344585 -0.0009153632
0.00017074106 -0.010569796 -0.0007973655 4.00561e-05 0.016378999 0.0019291394 0.016415179 0.023668531
-0.0022934643 -0.044487957 -0.016648052 0.009982527 -0.029189756 -8.554864e-06 0.082272746 -0.00092181383
0.30793417 0.011418542 0.013558307 -0.00014434327 0.001280605 -0.0008144462 -0.005264234 -0.014610899
-0.000655624 -0.029509658 0.0009717333 -0.00024572754 0.019172845 -0.0002709656 0.0099642845 0.01374769
0.0010260092 4.3275002e-05 0.0027809015 0.0006942329 -0.039933242 0.038054448 -0.026545925 0.0011271391
0.00070339756 0.00663026 0.08648807 0.0058791796 0.00059295876 -0.014942175 -0.006250296 0.006239474
-0.0018417143 0.006293576 -0.041767277 0.0069469046 -0.00198498 -0.001034883 -8.574468e-05 -0.032106463
0.0049792817 -0.01440852 1.3918993 0.30402774 0.083895855 -0.03439616 0.44612762 0.027361518
-0.038667805 1.0094568 -0.27257693 -0.005113345 -0.5297775 -0.035062946 0.46482477 0.04534038
-0.14914288 0.43718493 -0.22579966 -0.12451469 -0.5488142 -0.4525528 0.26490474 0.0021153332
-0.07440129 0.84617245 0.4852084 -0.015003991 0.6609735 0.022187917 -0.3119883 -0.24236435
-0.0026935502 -0.3248817 0.00033773843 -0.034795202 0.34681836 0.02694506 0.9103807 -0.4171977
-0.6963167 -0.03746634 -0.3542995 -0.0015280568 0.23331377 0.51709265 0.9159463 -0.13708538
-0.3134364 -0.8288598 -0.24896471 -0.0024693003 -0.556225 -1.1406742 -0.39745906 0.48591384
0.08700727 0.509601 -1.159587 0.14095353 -0.025655342 0.018464746 0.02185174 0.05194993
-0.0008270747 -0.003877825 -0.12596 -0.20263894 -0.20088646 0.0010708476 -0.036163904 0.004732378
0.054695733 0.04321659 0.15944758 -0.0018327314 0.026013996 -0.10582426 0.10168892 0.1515106
-0.33810902 0.1424614 0.12153404 0.41314307 -0.21166785 0.004693847 0.59076875 0.0042047524
0.37723812 0.1656919 0.251236 0.100032054 -0.12512003 0.0024729944 0.06010313 0.33984125
0.00016686982 0.2533628 0.00088749465 0.001041142 -0.18069644 -0.0008252914 0.2320869 0.10424742
0.067630015 0.0011298477 0.0700961 -0.0009002652 -0.13608001 0.115809426 -0.046392247 0.020985581
0.11832568 0.20585193 0.3304028 -0.119400494 0.35147357 -0.36109912 0.3509968 0.036985952
-0.006444073 0.049974937 -0.097889125 -0.3857376 0.0064690374 0.0041037323 0.007395023 -0.20996165

rnn.bias_ih_l1 f4 [256]
00000000: 8451 6ebf 62b9 60bf a695 0fbe b35f c8be
00000010: 6918 b8be 0772 5fbf 9562 c6be a7d2 64bf
00000020: 2696 0abf 55ee 45be 9347 81be 2c15 62bf
00000030: 6419 6fbd e254 e1be 7efd 55be 939b 50be
00000040: fcb7 77be 6185 753d 6625 9ebe 1f37 843b
00000050: d083 a1be 32b6 4fbe aad9 8c3e fc2e 60bf
00000060: 6f0c 6d3e 7348 d7be 09b2 68be 277c 03bf
00000070: b23b 37be 5202 65bf ea5b 10bf 114c 893e
00000080: 4c3e 6cbf 41d1 19be 06d7 46bf 64c5 62bf
00000090: 91f6 c83c 8cf2 6bbf 2666 d0be 2d08 2abf
000000a0: fde2 62bd 6e13 48bf b5b5 d5be e17e 5dbf
000000b0: 15bf 3fbe d013 aa3e 8a66 2c3e ab30 0cbf
000000c0: 4792 e7be 0e04 d7be c7a6 47bd 329c 06bf
000000d0: 0b26 03bf 38b8 3f3e 6ef5 68bd a601 75bd
000000e0: 2d54 1fbf 671b c1be 1106 75be 1918 1e3c
000000f0: 829d 61bf 43e5 63bf 1e30 65bf 8522 13bd
00000100: db88 8fbe 81ce 8fbe 79b8 8abe 759d eebd
00000110: 6bde eabd 714c 8cbe 1169 26bf 8e4f 96be
00000120: 03df fdbe 3395 2bbd 274f acbe ea2e 88be
00000130: 0e82 bcbe 6988 b5be 79ca 89bd e7a0 b6bb
00000140: 151f 9ebc 4a35 413e 7d5e 27bf 411b d4be
00000150: 55f1 98be d5cc 6fbf 6e27 87be 156f 87be
00000160: 6f50 2a3e 1b8f ffbe acdb bdbe 550b cebe
00000170: 2585 fdbd 100e 86be 2dbd d5be 6cad b0be
00000180: f758 92be c82c 84be 1b27 c1be 46d2 89be
00000190: a110 30be cbc4 8ebe aa57 b5bb 8c4a 8abe
000001a0: 9db6 02be 8999 a5be 39f4 77be 1440 82be
000001b0: 1232 0dbc 7bb2 c9bc c26b 96be 8d30 d5be
000001c0: 300d 81be 7009 13bd 299d da3d 306b 2bbe
000001d0: 855c 27be e910 d5be 5099 643c 1c72 e9bd
000001e0: 8198 19bf aebf 2fbe a017 a53e 5a6c dabd
000001f0: 811d 91be 580d 92be a5c2 c3be e7fa dabe
00000200: d706 51bd 9fcc 533d 2a09 08be 956a 733d
00000210: 73b9 543b f6d0 e43c 0762 e3ba 9305 66bd
00000220: 0540 afbb 4f02 d2bc 3f72 39bd 8aeb b03d
00000230: b89d 2b3c 2f4a a73d a436 2c3b 5ad0 293b
00000240: 2153 6c3d a711 3dbd 7f6c 0a3e 2db8 4a3c
00000250: 840d 94bd ab4e 6c3c 11ec bcbd 680c 5cbd
00000260: 70f5 68be 86dc 30be cfe8 64bb 39e8 50bd
00000270: 0624 4e3d 025f debc 2de3 c1bd fd5e 0bbe
00000280: 3896 023c bc81 ec3d 3f2f 013e e502 c9bb
00000290: ef45 39bc 17c8 b8bd a645 e0bc d435 2d3d
000002a0: a0ab a1bd c26b 773c 519e 84bc 1d15 173d
000002b0: de6a 07be b2a5 aa3d 895e f4bd f61a 95bd
000002c0: a536 b93d f9cd edbd 3a20 18bb f925 f53b
000002d0: db94 85bd 0a50 a23d df26 e03c 69a8 9abd
000002e0: 8424 23be c0da 59bd e8ae 7e3d 0237 513c
000002f0: 77e4 2c3d e31e 49bd bce3 1c3d 3755 403c
00000300: f427 65bf 3584 65bf 6716 9dbe 8406 a6be
00000310: e440 13be 7db4 5fbf df37 b7be 170c 66bf
00000320: a645 03bf d596 7ebe c27d cfbe ad0b 64bf
00000330: c000 01bd 8ddc e7be 1f75 5bbe 4d9b f8bd
00000340: d70c 94be c641 59be 6a4d e4bd 2ca1 91bd
00000350: 6cd3 52be 593f 27be 7c21 703e e526 63bf
00000360: 8dd1 983e 69cd c1be 56d8 82be 19ca 09bf
00000370: e9b1 a5bd 3a29 64bf e581 1dbf 448e bc3e
00000380: 5466 6abf aead a7bd 2c2e 56bf 4ad2 64bf
00000390: 65c6 743d 823d 6abf 1b02 69be 6f69 0dbf
000003a0: 74cd 1abe 58fb 56bf 7aff 14bf ac3a 61bf
000003b0: d80d 7abd 5871 9d3e fbe8 ec3d ca27 1abf
000003c0: ced6 fabe 4485 f7bd 8df2 31bd 932c efbe
000003d0: 68e3 01bf 5317 983d 0bb4 f8bd 1b3c f63d
000003e0: f599 26bf 569c ecbe 2f31 dc3d 712d 85bc
000003f0: 1702 5cbf df5c 64bf 53ea 51bf d920 0bbe
-0.9309313 -0.8778287 -0.1402193 -0.39135513 -0.35956123 -0.87283367 -0.38747087 -0.8938393
-0.5413536 -0.19329198 -0.2524992 -0.88313556 -0.058373824 -0.44010073 -0.20897481 -0.20371847
-0.24191278 0.059941653 -0.30887908 0.0040348913 -0.31545877 -0.20284346 0.27509815 -0.8757169
0.23149274 -0.42047462 -0.22724165 -0.51361316 -0.17893866 -0.89456666 -0.5639025 0.26815847
-0.9228256 -0.1502123 -0.7767185 -0.88582444 0.024531635 -0.9216697 -0.40702933 -0.66418725
-0.055392254 -0.7815465 -0.41740194 -0.86521727 -0.18725236 0.3321824 0.1683599 -0.5476176
-0.45228788 -0.4199528 -0.048743036 -0.52582085 -0.51229924 0.18722618 -0.056874685 -0.059816025
-0.6223782 -0.3771622 -0.23928095 0.0096493 -0.8813096 -0.890217 -0.89526546 -0.035921592
-0.280341 -0.28087237 -0.27093866 -0.11651126 -0.11468204 -0.2740207 -0.6500407 -0.2935757
-0.49584207 -0.041890334 -0.33654138 -0.26598293 -0.36817974 -0.35455635 -0.06728072 -0.0055733803
-0.01930193 0.18867984 -0.6537855 -0.41427043 -0.29871622 -0.93671924 -0.2639727 -0.26451936
0.16632245 -0.49913868 -0.3708166 -0.4024302 -0.12378911 -0.26182604 -0.41745892 -0.3450731
-0.285835 -0.25815415 -0.37725148 -0.26918238 -0.17193843 -0.27884516 -0.005534132 -0.2701
-0.12764974 -0.323437 -0.24214257 -0.25439513 -0.008617895 -0.024621239 -0.29379088 -0.41638604
-0.25205374 -0.035897672 0.10674507 -0.16740108 -0.16343887 -0.41614464 0.013952568 -0.11398718
-0.5999833 -0.17162964 0.32244587 -0.10665198 -0.28342822 -0.28525805 -0.3823444 -0.42769548
-0.051031914 0.051708814 -0.13284746 0.059427816 0.003245917 0.027931672 -0.001734794 -0.05615766
-0.005348208 -0.025635866 -0.04527497 0.086386755 0.010474615 0.08168446 0.0026277686 0.002591154
0.057696465 -0.046159413 0.1351795 0.0123730125 -0.072291404 0.014423053 -0.092247136 -0.05372277
-0.22749877 -0.17271623 -0.0034928804 -0.051002715 0.050327323 -0.027144913 -0.094671585 -0.13610454
0.007970385 0.11548182 0.12615679 -0.0061343783 -0.011308177 -0.09022539 -0.027376961 0.042287663
-0.07894063 0.015101375 -0.016188772 0.03688537 -0.1322436 0.08332385 -0.11932094 -0.07280533
0.09043626 -0.11611552 -0.0023212568 0.0074813333 -0.065225326 0.079254225 0.027362285 -0.07551653
-0.15931898 -0.053187132 0.062178522 0.012769463 0.04221007 -0.04910172 0.038303122 0.011739067
-0.8951409 -0.89654857 -0.30681154 -0.32426846 -0.14380223 -0.8738478 -0.35784814 -0.898622
-0.5127815 -0.24862225 -0.40525633 -0.89080316 -0.031494856 -0.45285454 -0.21431397 -0.12138996
-0.28916046 -0.21216497 -0.11147578 -0.07110819 -0.20588464 -0.16332759 0.23450273 -0.88731223
0.29847375 -0.37852028 -0.25555676 -0.53824 -0.08090574 -0.89125407 -0.6152633 0.3682729
-0.9156239 -0.08187424 -0.836642 -0.89383376 0.059759516 -0.91500103 -0.2275471 -0.55239004
-0.15117437 -0.8397727 -0.58202326 -0.8798015 -0.06104836 0.30750537 0.11567875 -0.60216963
-0.48992008 -0.12085965 -0.043444205 -0.46713695 -0.5073762 0.07426324 -0.121437155 0.12023183
-0.6507867 -0.46213025 0.107515685 -0.01625702 -0.8594069 -0.8920421 -0.81998175 -0.13586749

rnn.bias_hh_l1 f4 [256]
00000000: a525 68bf f4e2 62bf 5650 95bd 129e 53be
00000010: 20e9 81be 7faa 60bf 1c9b 73be 06a0 67bf
00000020: 7c3d 27bf df12 a9bd 8e77 dfbe 5e4c 63bf
00000030: 85b1 4dbe cf0b bcbe 5276 b0bd d106 a2be
00000040: cddb 1fbe 9709 c5bd baea 7bbe 7edf b5bc
00000050: 4493 2abe c124 80be 5686 443e 8b56 5fbf
00000060: d3ff 163e de7f 8abe 50c6 47be 9c4a 09bf
00000070: 1cd4 edbd 1ce7 63bf 87f0 13bf e571 d73e
00000080: ef4e 6ebf 3d5d 1b3c 0917 58bf 9f9a 60bf
00000090: eff7 84bd 1be8 69bf fdb1 b3be e35d 3abf
000000a0: f029 49bd 1c0d 59bf cdc9 15bf 0f54 60bf
000000b0: c514 8fbe 4128 1f3e fbde ca3d 0227 01bf
000000c0: 7811 0abf 0f33 0fbf 4a0f 0cbe 9ed9 d1be
000000d0: 49e4 f7be adbd 0c3d 669f 70bd 4bcf f2bd
000000e0: 8e52 28bf c3bd cfbe 1022 4bbe 693a a53c
000000f0: 695c 68bf c13f 69bf ed86 48bf 3b2d 39be
00000100: bcc0 8fbe ede8 8ebe aa19 a5be a350 d2bd
00000110: 3ba5 31be e8fc 8dbe e7b2 25bf f91d 96be
00000120: 780d 01bf a750 24bd e36d 18be 4d36 88be
00000130: 55a8 d6be 687c 65be e25e 40be 07fc 04be
00000140: 28b7 3ebe 1e9d e93d 20d2 15bf 52d6 fbbe
00000150: bc78 11be 891d 6bbf 1a71 c8bd 865d 87be
00000160: 7496 4f3e f219 e3be 41bb a5be c777 bdbe
00000170: e97d fabd db02 86be 3e56 febe 0ef2 99be
00000180: fb57 92be 923b e4be c9f8 c1be 2bda 89be
00000190: 9588 92be 3fbd 8ebe 7eea ebbc 191f dabe
000001a0: eb88 2cbe d322 a2be ab7b a2be 0e3f 82be
000001b0: 06a1 da3d 305b b33d e8e3 a2be 150c bcbe
000001c0: 7e65 3abe a454 7fbe f0c0 12bd 54f5 7bbe
000001d0: 6792 97be 6fb7 fcbe f0c3 843b 3273 bebd
000001e0: 9697 1abf f842 05be c11c 9b3e 9c3c 96be
000001f0: 9ae9 90be f5b2 91be e531 bebe 9a5d d4be
00000200: ea8d b6bc 4f37 60bd 5d96 9dbd f0f8 85bd
00000210: 9d86 af39 f6fc 4ebd 8c1c e6bd f197 8d3d
00000220: b58e 41bc 558c 30bd acf4 af3c fab6 9ebd
00000230: 4bb6 ce3c 9fb7 4bbc 5198 bcbd 76bd 523d
00000240: f658 413d d94b 103e 5424 a6bd 924e fa3c
00000250: 80c4 f53c f898 ef3d a1df cfbd 1430 2a3d
00000260: 2a5d 0bbd bf2e d63b 02ec 43bd d2d8 7cbd
00000270: d63e a8bd 8c15 223c b12c 333d e845 f43c
00000280: 0277 9dbd e487 0a3d 4b90 82bd c1b7 883d
00000290: a49a 5abc 4cc5 923d b984 4a3a c7df 00be
000002a0: 2c6f a1bd 9341 95bc 40c0 a23c d533 cfbc
000002b0: 9a1a bc3d c34e cbbb 1eda 5a3d 7001 883d
000002c0: 68c1 c1bd f2c1 e4bd a639 a6bd e169 8bbb
000002d0: 855f c83d 043b aa3d 1792 ab3d bf06 a93d
000002e0: 8135 753c 6be7 ecbb d8ba 91bd efeb 04be
000002f0: 2ac0 883d d8ba 7e3d 7797 8fbd 9fd3 4cbd
00000300: ab1f 6abf baec 69bf 6058 52be 1487 82be
00000310: 6f7a 4dbe 941f 63bf 396d 90be 4e26 69bf
00000320: af46 08bf fa8f c7bc 08ab b8be 3dfa 63bf
00000330: 89fe 1ebd 7887 febe 5b3c 24be e7b2 acbe
00000340: ffa8 72be d2b6 ecbb 4e7f 17be 1d23 893a
00000350: 3d6b 2abe d75a 85be 9b0e 913e 4f8e 62bf
00000360: cefc 763e e2b4 8bbe 75cd 1abe 3d5d fbbe
00000370: a935 8fbe 30d5 61bf 1d4f 2abf 15f1 933e
00000380: af7c 6abf fd24 b13c eac7 5dbf 33bc 67bf
00000390: 7aff bbbc 27d6 6dbf 7b36 d4be 1f80 aebe
000003a0: f716 23be 971d 43bf b6a1 ebbe b8fb 5dbf
000003b0: a5f4 29be fa0c 8a3e 40ca 653d b6de fcbe
000003c0: 2243 bcbe 13cd c9bd 03b0 2dbe b6ac c3be
000003d0: 13ff 04bf 3d5f d13d 744c 39be aa46 9f3d
000003e0: c4fa 2cbf 9805 fbbe 947d 4cbd cdf8 37bd
000003f0: 935a 65bf b3a7 5ebf 3718 5bbf 5cb9 6cbd
-0.9068244 -0.88627553 -0.072907135 -0.20665768 -0.25373173 -0.87760156 -0.23789638 -0.9047855
-0.6532819 -0.082555525 -0.436459 -0.887884 -0.2008725 -0.3672776 -0.08616318 -0.31645826
-0.15611191 -0.0962097 -0.2460126 -0.022201296 -0.1665774 -0.2502804 0.1919187 -0.8724143
0.14746027 -0.2705068 -0.19509244 -0.5362947 -0.11612722 -0.8902452 -0.5778889 0.42079082
-0.93089193 0.009482679 -0.8441015 -0.87735933 -0.06492602 -0.9136979 -0.35096732 -0.7279951
-0.04911226 -0.8478563 -0.5851105 -0.87628263 -0.27945533 0.155427 0.099058114 -0.50450146
-0.53932905 -0.55937284 -0.13677707 -0.4098634 -0.48416355 0.034360576 -0.058745764 -0.11855944
-0.6575097 -0.40574464 -0.19837213 0.020169454 -0.90766007 -0.91112906 -0.7833088 -0.1808366
-0.28076732 -0.27912083 -0.32246143 -0.102692865 -0.17348187 -0.27732015 -0.6472611 -0.29319742
-0.50411177 -0.04011598 -0.14885668 -0.26603928 -0.41925302 -0.22410738 -0.18786195 -0.12986766
-0.18624556 0.11406921 -0.5852375 -0.4918695 -0.14206213 -0.9184194 -0.097871974 -0.2643854
0.20272237 -0.44355732 -0.32369426 -0.37005445 -0.12231047 -0.26174054 -0.49675173 -0.30067486
-0.2858275 -0.445767 -0.3788512 -0.2692426 -0.2861983 -0.27878758 -0.028798338 -0.4260185
-0.16849105 -0.31667194 -0.31734976 -0.25438732 0.10675244 0.08757627 -0.31814504 -0.36727968
-0.18202779 -0.24934632 -0.03582853 -0.24605304 -0.29603884 -0.493587 0.004051678 -0.092993155
-0.6038755 -0.13013828 0.30295375 -0.29343116 -0.28303224 -0.28456846 -0.37147442 -0.41477662
-0.022284467 -0.054740246 -0.07694695 -0.06541622 0.00033478896 -0.05053421 -0.11235914 0.06913746
-0.011813809 -0.04310258 0.021478973 -0.07749744 0.025233408 -0.012433915 -0.092087395 0.051450215
0.04720398 0.14091434 -0.08112398 0.030555043 0.030000925 0.11699098 -0.10150076 0.041549757
-0.034024395 0.0065363343 -0.047832496 -0.061730213 -0.0821511 0.0098928325 0.043743793 0.02981849
-0.076887146 0.033821 -0.06375178 0.06675673 -0.013342533 0.07166538 0.00077254657 -0.12585364
-0.078825325 -0.018219745 0.019867063 -0.02529327 0.09184761 -0.0062044575 0.05343067 0.06640899
-0.094607174 -0.11169805 -0.08116464 -0.004254565 0.09783844 0.083120376 0.08377474 0.0825324
0.01496637 -0.0072297356 -0.07115716 -0.12980627 0.066772774 0.062189907 -0.070113115 -0.050006505
-0.9145457 -0.9137684 -0.20541525 -0.2549368 -0.20066236 -0.8872006 -0.2820833 -0.91074073
-0.53232855 -0.024360646 -0.36067986 -0.8905371 -0.038816962 -0.4971273 -0.16038649 -0.33730242
-0.2369728 -0.0072239423 -0.14794657 0.0010462735 -0.1664247 -0.26045868 0.28331456 -0.88498396
0.24119875 -0.2728644 -0.15117438 -0.49094573 -0.27970627 -0.88215923 -0.6652697 0.28894868
-0.915965 0.021624083 -0.8663317 -0.90521544 -0.02294897 -0.92904896 -0.41447815 -0.34082124
-0.15926729 -0.76217026 -0.46021813 -0.8671222 -0.1659723 0.26963025 0.056101084 -0.49388665
-0.36769968 -0.09853568 -0.16961674 -0.38217705 -0.5195171 0.102232434 -0.18095571 0.0777715
-0.6757014 -0.49027705 -0.049924448 -0.04491501 -0.8959133 -0.8697464 -0.85583824 -0.05779396
