checkpoints/Tend_LSTM_L2_bs16_train10-20-30_bsfirst/Tend_LSTM_L2_bs16_epoch350.pt (torch, 206215 bytes, 9 tensors)

rnn.weight_ih_l0 f4 [256, 3]
0	0x3d58cd10	0.052929938
1	0x3deb9154	0.115023285
2	0xbed2ba1d	-0.41157618
3	0xbd6a6008	-0.05722049
4	0xbe8a3eec	-0.2700113
5	0xbebe019e	-0.3711061
6	0x3ce5474d	0.0279881
7	0x3e961776	0.29314774
8	0xbe523695	-0.20528634
9	0xbded2e86	-0.11581139
10	0x3cfcac97	0.030844016
11	0xbed378eb	-0.4130319
12	0x3e7b2d9b	0.24529116
13	0xbe9564cd	-0.29178467
14	0x3edbd281	0.4293404
15	0x3f28ca55	0.65933734
16	0xbe230493	-0.15919714
17	0xbf1efc1a	-0.62103426
18	0xbd8be217	-0.068302326
19	0xbd89b51c	-0.06723997
20	0xbeb0d286	-0.34535617
21	0x3d0e7b74	0.034785703
22	0x3db92c75	0.09041683
23	0x3e91f195	0.28504625
24	0xbdd333c2	-0.103126064
25	0x3e85f29c	0.2616166
26	0x3ec8e8c9	0.392401
27	0x3eb41052	0.351687
28	0xbe2ca2f4	-0.16859037
29	0xbf2b4674	-0.6690438
30	0xbce56984	-0.028004415
31	0x3eb8d279	0.36098078
32	0xbe97d3cd	-0.2965378
33	0xbeb835b5	-0.35978475
34	0x3ec86114	0.39136565
35	0x3e96aaa9	0.29427078
36	0x3e07066d	0.13186045
37	0x3ea7117d	0.3263053
38	0xbdea9e34	-0.11455956
39	0xbe1a04dd	-0.15040918
40	0xbebcc315	-0.36867586
41	0x3e335f10	0.17516732
42	0x3e906b11	0.28206685
43	0x3e517b56	0.20457205
44	0x3cb692ae	0.02228674
45	0x3d0c616b	0.034272593
46	0xbeb47aa3	-0.35249814
47	0x3e2e2719	0.17007102
48	0xbd9144bf	-0.070931904
49	0x3ec7b804	0.3900758
50	0xbe1138cc	-0.14181823
51	0x3f42007e	0.75782
52	0xbf16b091	-0.5886317
53	0x3dca782a	0.09886201
54	0x3e257abe	0.16160104
55	0x3eb777fb	0.35833725
56	0xbd3a05de	-0.04541575
57	0xbee8fee6	-0.45506972
58	0xbea6da78	-0.32588553
59	0xbe9bb0f7	-0.3040845
60	0xbe8385ba	-0.25687963
61	0xbdb8d55c	-0.0902507
62	0x3e6a77e4	0.22897297
63	0x3f156a89	0.58365685
64	0xbeb59516	-0.35465306
65	0xbf15bba2	-0.5848943
66	0x3d811c7a	0.063042596
67	0x3e910aa0	0.2832842
68	0xbdcccdbd	-0.10000179
69	0x3e8e2d06	0.27768725
70	0x3e90d48f	0.2828717
71	0x3ea92632	0.33036953
72	0xbdfc8429	-0.12329895
73	0x3e220110	0.15820718
74	0xbef76cc9	-0.48325184
75	0x3f0a0b04	0.5392306
76	0xbeca3c0b	-0.39498934
77	0x3e3bce25	0.18340357
78	0xbe1e4997	-0.1545776
79	0x3e82d7cc	0.25555265
80	0xbe79fda4	-0.24413162
81	0xbe568445	-0.20948894
82	0xbbdef829	-0.0068044853
83	0xbf31019e	-0.6914309
84	0x3e2e913c	0.1704759
85	0x3de5fca8	0.11229831
86	0x3b9926ae	0.0046738004
87	0x3f88a426	1.0675094
88	0x3f267300	0.65019226
89	0x3f26cc08	0.65155077
90	0xbe18ebe6	-0.14933738
91	0xbb93a80f	-0.004506118
92	0xbdc2e5fb	-0.095165215
93	0xbe7ac8d0	-0.24490666
94	0xbec14ffa	-0.3775633
95	0xbf7fe383	-0.9995653
96	0x3e51c99e	0.20487067
97	0x3eef156b	0.46696028
98	0xbf00c316	-0.5029768
99	0xbd909c5e	-0.07061075
100	0x3e929ac7	0.2863371
101	0xbe8a9eb4	-0.27074206
102	0xbdb0b0b4	-0.086274534
103	0x3eb29c01	0.34884647
104	0xbe7c85f5	-0.24660476
105	0xbe87b87d	-0.2650794
106	0xbd85f7db	-0.06541415
107	0xbe4ffdfd	-0.20311733
108	0xbd7b9ede	-0.061430804
109	0xbe41eec1	-0.18938734
110	0x3e621175	0.22076972
111	0xbcdf3940	-0.027248979
112	0x3e0403c7	0.12892066
113	0xbec5aa30	-0.38606405
114	0xbdf13bbc	-0.117789716
115	0xbe173247	-0.14765273
116	0x3f09966a	0.5374514
117	0xbc1de4b4	-0.009637047
118	0x3cc025ec	0.023455583
119	0xbeaf141a	-0.34195024
120	0xbe90cc0f	-0.28280684
121	0xbe01cea0	-0.12676477
122	0xbe060578	-0.13088024
123	0xbea64679	-0.3247564
124	0x3e583b6c	0.21116418
125	0xbe804e5f	-0.25059792
126	0xbe9f9ea8	-0.31175733
127	0xbe931864	-0.28729546
128	0xbed02fdf	-0.40661523
129	0x3d4bdfcb	0.049773972
130	0xbe56288c	-0.20913905
131	0x3f01b521	0.50667006
132	0x3cd3618a	0.025803346
133	0x3e9c1400	0.3048401
134	0x3c3ed124	0.011646543
135	0x3df5f17a	0.120089486
136	0xbdf031ed	-0.117282726
137	0xbe2906d8	-0.16506517
138	0xbe50a30f	-0.20374702
139	0xbc8a9c96	-0.01692037
140	0xbe9b5f12	-0.3034597
141	0xbf316c1c	-0.69305587
142	0xbec7680c	-0.3894657
143	0xbd85980f	-0.065231435
144	0xbccc8363	-0.024964994
145	0xbe848755	-0.258845
146	0xbdc2e66e	-0.09516607
147	0xbe56608e	-0.2093527
148	0xbddb2faa	-0.107024506
149	0xbe61e0c5	-0.22058399
150	0xbcef66e8	-0.029223874
151	0x3eacc82b	0.33746466
152	0xbe8e0f94	-0.2774626
153	0x3cd358b4	0.025799133
154	0x3e594fa6	0.2122179
155	0xbe5a55ca	-0.21321788
156	0xbeffa830	-0.49933004
157	0xbe0cf62b	-0.1376578
158	0x3e3610e8	0.17779887
159	0x3e6adcf9	0.22935857
160	0xbd249955	-0.04018529
161	0x3e2d513c	0.1692552
162	0x3c38b854	0.011274416
163	0x3e80a8e6	0.2512886
164	0xbec0ff32	-0.376947
165	0xbeddb08d	-0.4329876
166	0xbed696d6	-0.41911954
167	0xbebf0328	-0.37307096
168	0xbefcbb17	-0.49361488
169	0xbea6b17e	-0.3255729
170	0xbe0e440b	-0.13893144
171	0xbeb67c80	-0.3564186
172	0xbec892ad	-0.39174405
173	0x3e1f22f3	0.15540676
174	0xbd31cd8b	-0.04340891
175	0x3e314097	0.17309795
176	0xbe384f48	-0.17998993
177	0xbdf3d9e2	-0.11906792
178	0x3c1c5f55	0.009544213
179	0x3efa97af	0.4894385
180	0xbd1282ba	-0.0357692
181	0xbe7f785b	-0.24948256
182	0xbe6dc5d6	-0.2322
183	0x3f04a6a2	0.5181676
184	0x3eb9f987	0.36323187
185	0x3edeea98	0.43538356
186	0xbe1df9ef	-0.15427373
187	0xbecd45fb	-0.40092453
188	0xbceed31f	-0.029153405
189	0xbe598b91	-0.21244647
190	0xbdc56999	-0.09639282
191	0xbe297759	-0.16549434
192	0xbe02edf8	-0.1278609
193	0x3dbbede0	0.091762304
194	0xbec74a66	-0.3892395
195	0xbe6a2d0e	-0.2286875
196	0x3b1a0b09	0.0023505113
197	0xbdfbe363	-0.1229923
198	0x3d94b0ff	0.07260322
199	0x3df35eca	0.11883314
200	0xbe9987a1	-0.2998629
201	0xbda87cbb	-0.082269154
202	0x3dee2de5	0.116298474
203	0xbe799b88	-0.24375737
204	0xbcdb2c4b	-0.026754519
205	0xbeb2799a	-0.348584
206	0xbd2512ee	-0.040301256
207	0xbe652203	-0.22376256
208	0xbe8df4f8	-0.2772596
209	0xbf715aba	-0.9427906
210	0xbdaa926c	-0.08328709
211	0xbd9f50d8	-0.077790916
212	0xbe7b80ce	-0.24560854
213	0x3e8f09eb	0.27937254
214	0x3eab351e	0.33438963
215	0x3e746478	0.23866451
216	0xbcc04dd1	-0.023474606
217	0x3eb63149	0.35584477
218	0x3d5b92c5	0.053606767
219	0xbf1e5a60	-0.6185665
220	0xbf0a7048	-0.5407758
221	0xbe405933	-0.18784027
222	0xbe9e2cf3	-0.3089367
223	0x3d297fc6	0.04138162
224	0xbf1f59b3	-0.62246245
225	0xbe6d04eb	-0.23146407
226	0x3eef20bf	0.4670467
227	0x3ed94896	0.4243819
228	0x3b96264a	0.004582201
229	0x3ec2c368	0.38039708
230	0xbea1eb01	-0.31624606
231	0xbd501fe1	-0.050811652
232	0xbd11dc24	-0.035610333
233	0xbdb01b0f	-0.08598911
234	0x3c6fc62d	0.014634651
235	0x3e2172bd	0.15766425
236	0xbe1d5ae7	-0.15366708
237	0xbe56299b	-0.20914309
238	0xbeaf7e70	-0.34276152
239	0xbf25ffcd	-0.64843446
240	0xbea51430	-0.32241964
241	0x3e967eb4	0.29393542
242	0xbeb5143c	-0.35367
243	0xbed9b04a	-0.4251731
244	0xbf8943e3	-1.0723842
245	0xbed88699	-0.4229019
246	0xbe894b2e	-0.2681517
247	0x3d36666f	0.044531282
248	0xbea60729	-0.32427338
249	0xbe18d979	-0.14926709
250	0xbd6f8602	-0.05847741
251	0xbdf6c4b5	-0.12049238
252	0xbdb38852	-0.087662354
253	0xbd6d0130	-0.05786246
254	0xbeb06724	-0.3445369
255	0x3f479f74	0.7797768

rnn.weight_hh_l0 f4 [256, 64]
0	0xbe0b6fbf	-0.13616847
1	0xbd3ba3b5	-0.04581042
2	0xbdba5661	-0.09098507
3	0xbe1c6290	-0.15271974
4	0x3da4a5a3	0.08039405
5	0x3e37b9b1	0.1794193
6	0x3e01e70b	0.12685792
7	0xbd45702c	-0.04820268
8	0x3e0b0602	0.1357651
9	0xbdfe81f6	-0.12427132
10	0x3d43c374	0.04779382
11	0x3d5a13c6	0.053241514
12	0xbdb2de9e	-0.08733867
13	0xbd9ec26b	-0.07751926
14	0xbe10e2b7	-0.14148985
15	0xbc50fc01	-0.012755395
16	0xbe2e0f35	-0.16997989
17	0xbe878baf	-0.26473758
18	0xbd5b2850	-0.053505242
19	0x3cde7949	0.027157443
20	0xbdba1e5c	-0.09087822
21	0xbe0dc9f2	-0.13846567
22	0xbe2a5d2f	-0.16637109
23	0x3c9edeba	0.019393314
24	0x3d44830e	0.047976546
25	0x3d668478	0.056278676
26	0x3cfc1c51	0.030775221
27	0xbcc107a9	-0.023563223
28	0x3e246013	0.16052274
29	0xbefd4fa6	-0.4947483
30	0xbc8261cc	-0.015915774
31	0xbdeaed00	-0.114709854
32	0x3e59f069	0.21283115
33	0x3df936d4	0.12168661
34	0x3dcb2d96	0.09920804
35	0xbd1ede49	-0.038786206
36	0x3d8a09b7	0.06740134
37	0xbdcf1878	-0.10112089
38	0xbe1804f1	-0.14845635
39	0xbd41bcd0	-0.047299206
40	0x3da38066	0.079834744
41	0xbe1cd3c3	-0.15315156
42	0xbcd4ec10	-0.02599147
43	0xbd7e2a74	-0.062052205
44	0xbd045a2a	-0.03231255
45	0x3d7e4770	0.062079847
46	0x3dcd6a98	0.10030097
47	0x3d61bc2a	0.055111088
48	0xbcf3a9fa	-0.029744137
49	0xbdbc891c	-0.09205839
50	0xbdfc2c8b	-0.123131834
51	0xbd6ada75	-0.057337243
52	0x3dda477b	0.10658165
53	0x3d1123b2	0.035434432
54	0xbddba72c	-0.10725245
55	0x3ca805e6	0.020510625
56	0x3e742c32	0.23844984
57	0xbd9c3281	-0.0762682
58	0x3de166a5	0.11005906
59	0x3e8cd398	0.27505183
60	0x3cc05a2f	0.023480503
61	0xbeb3731a	-0.35048753
62	0xbd20f06f	-0.039291795
63	0x3d7f31fb	0.062303524
64	0xbe02aa98	-0.12760389
65	0x3c938176	0.018006068
66	0x3d3369ed	0.04380219
67	0xbdf9f7f4	-0.122054964
68	0xbd2a682c	-0.041603252
69	0xbdde6429	-0.10858948
70	0x3e09e171	0.13464905
71	0x3d358b3f	0.04432225
72	0xbd8f76ac	-0.07005057
73	0xbcfaec92	-0.030630384
74	0x3d54fe73	0.052000474
75	0x3e3d4a6e	0.18485424
76	0xbc017077	-0.007900349
77	0xbcdac2ff	-0.02670431
78	0xbe78c117	-0.24292408
79	0xbca496ad	-0.020091379
80	0xbe152eb1	-0.14568593
81	0xbd9e6383	-0.07733824
82	0xbd733cd5	-0.059384186
83	0x3d912dc7	0.070888095
84	0xbdbc4168	-0.09192163
85	0x3e003b31	0.1252258
86	0xbdc78bce	-0.097434625
87	0x3c94c426	0.018159937
88	0xbbe2710a	-0.006910448
89	0xbde009e0	-0.109393835
90	0x3cd44c56	0.025915306
91	0x3c0043d4	0.0078286715
92	0x3e11e212	0.14246395
93	0xbbcd9b36	-0.006274606
94	0x3d9cabdc	0.07649967
95	0xbd69488f	-0.056953963
96	0xbd59a12a	-0.053132214
97	0x3ded66bd	0.115918614
98	0x3d007869	0.031364832
99	0xbd4571c3	-0.048204195
100	0x3d9527f3	0.0728301
101	0xbde91662	-0.11381222
102	0xbe439175	-0.19098456
103	0xbd8caca3	-0.06868865
104	0x3da00d5a	0.078150466
105	0xbc936a52	-0.017995033
106	0xbd2e6d76	-0.04258486
107	0x3d19ea10	0.037576735
108	0xbe03eb3a	-0.128827
109	0x3d225f6e	0.03964179
110	0x3db0fa64	0.08641508
111	0x3cfc75f0	0.030817956
112	0xbd8d69fc	-0.069049805
113	0xbda63abd	-0.08116672
114	0xbe643e39	-0.22289361
115	0x3cec814f	0.028870253
116	0x3b28d5b2	0.0025762138
117	0xbcd82dab	-0.026388964
118	0xbdc6ce90	-0.097073674
119	0x3d81caef	0.06337535
120	0x3987b5b5	0.0002588459
121	0xbba9234f	-0.00516168
122	0x3d7a1251	0.061052624
123	0x3ec4e77d	0.38457862
124	0x3ddbb015	0.10726944
125	0xbd902aae	-0.070393905
126	0xbcff75a0	-0.031184018
127	0x3da5620a	0.0807534
128	0xbd9ac43d	-0.07556961
129	0x3dab3c54	0.08361116
130	0x3d957e23	0.07299449
131	0x3cc86876	0.024463873
132	0x3e0ae717	0.13564716
133	0x3dc08223	0.093998216
134	0xbc8a82e9	-0.016908126
135	0xbe0a27f5	-0.13491805
136	0x3e38caa8	0.18046057
137	0xbc858746	-0.016299855
138	0x3b2ccb0e	0.0026366147
139	0x3dbb40e3	0.091432355
140	0xbd97ed00	-0.07418251
141	0x3d389223	0.04506124
142	0xbdc3c888	-0.09559733
143	0xbc5dee7d	-0.01354563
144	0xbd3fc774	-0.046821073
145	0xbd970e1b	-0.07375737
146	0x3db16f2d	0.08663783
147	0xbba849f2	-0.005135768
148	0x3d55a04a	0.052154817
149	0x3dde8084	0.10864356
150	0x3d5320c6	0.051544927
151	0x3c8b731c	0.017022662
152	0xbccc5184	-0.024941213
153	0x3c36827c	0.011139508
154	0xbc450752	-0.012025671
155	0x3c811998	0.015759274
156	0x3da1d24c	0.07901439
157	0xbe96e053	-0.2946802
158	0x3da8821e	0.08227943
159	0xbd3dd3db	-0.04634462
160	0x3db052dc	0.08609554
161	0x3d9cf2b5	0.0766348
162	0x3d96732a	0.073461846
163	0x3d48b9d4	0.049005345
164	0x3cd40e22	0.025885645
165	0xb93b3e00	-0.00017856807
166	0xbd718e0f	-0.05897337
167	0xbe09f82c	-0.13473576
168	0xbd258242	-0.040407427
169	0xbdeaa4b3	-0.11457195
170	0xbcf923e7	-0.030412627
171	0x3deca91f	0.11555695
172	0xbe5a769d	-0.2133431
173	0x3dcf03d7	0.10108154
174	0xbb87d7ae	-0.004145584
175	0x3b8ccc7d	0.004296838
176	0xbd63f767	-0.055655863
177	0x3d20a840	0.039222956
178	0x3d971ded	0.07378755
179	0xbdbc2318	-0.09186381
180	0x3e1896d2	0.14901283
181	0x3c181abe	0.00928372
182	0x3d020199	0.031739805
183	0xbe585d0b	-0.21129243
184	0x3d467688	0.048452884
185	0xba977ae2	-0.0011557008
186	0xbdc5ee3a	-0.09664579
187	0xbc47230f	-0.012154355
188	0x3e0542f7	0.13013826
189	0xbc649508	-0.013951547
190	0x3cf13764	0.029445358
191	0xbd17c5b1	-0.037053768
192	0xbd1441e2	-0.036195643
193	0x3ca0a498	0.019609734
194	0xbbcbf267	-0.006223965
195	0x3d35e7f0	0.044410646
196	0x3c6008aa	0.013673941
197	0x3df9f62b	0.12205156
198	0xbc8da126	-0.017288756
199	0x3d0c7430	0.034290493
200	0x3d202521	0.03909791
201	0xbdc845f8	-0.097789705
202	0x3d1abf00	0.037779808
203	0x3cbf2961	0.02333516
204	0xbd52f043	-0.051498663
205	0x3c8d7774	0.017268874
206	0x3d0fcca2	0.035107262
207	0x3a15b86d	0.00057113805
208	0xbc56e548	-0.013116188
209	0xbd5f6850	-0.05454284
210	0x3ce182ec	0.027528249
211	0xbccf7b4b	-0.025327345
212	0xbc22270d	-0.009897006
213	0xbc3843dd	-0.011246649
214	0xbd9b526e	-0.075840816
215	0xbd8ad836	-0.0677952
216	0xbd77aab8	-0.060465544
217	0xbdbb5f28	-0.09149009
218	0x3c2e0635	0.010621597
219	0x3d00e1b1	0.031465236
220	0xbc7c9917	-0.015417359
221	0xbe177cf0	-0.14793754
222	0x3d0c8893	0.034309935
223	0x3d5af75f	0.053458568
224	0x3e257acd	0.16160126
225	0xbc619630	-0.013768718
226	0xbbdfce28	-0.0068299957
227	0x3d54c56a	0.05194608
228	0xbcea3cf2	-0.028593514
229	0xbd74095a	-0.05957923
230	0xbd8ad2fe	-0.06778525
231	0xbc8e4c33	-0.017370319
232	0xbcb3fe0c	-0.021971725
233	0xbe3c70c7	-0.18402396
234	0x3d4cce91	0.050001685
235	0x3d1bfbeb	0.038082045
236	0xbd4faf3b	-0.050704222
237	0xbb41ba16	-0.0029560379
238	0xbb02f961	-0.0019985067
239	0xbb86f5e1	-0.0041186665
240	0x3bcf35c3	0.0063235476
241	0x3c766571	0.015038834
242	0x3c775337	0.015095524
243	0x3d7792f2	0.060442872
244	0x3d444d0a	0.047925033
245	0x3d869ba3	0.06572654
246	0xb912d57d	-0.00014003176
247	0x3c7caf96	0.015422722
248	0x3e21b0ac	0.15790051
249	0x3d532ccb	0.05155639
250	0x3bc5eb29	0.006039996
251	0x3d975b00	0.07390404
252	0x3e10d762	0.14144662
253	0xbdc97c4d	-0.098381616
254	0x3d9bf770	0.07615554
255	0xbc99e196	-0.018784326

rnn.bias_ih_l0 f4 [256]
0	0xbe3f0199	-0.18652953
1	0xbec726a9	-0.38896683
2	0x3c3982a1	0.011322648
3	0xbea75585	-0.32682434
4	0xbc5c9024	-0.0134621
5	0x3ebe95ee	0.37223762
6	0xbea83c6a	-0.32858592
7	0xbd1db311	-0.03850085
8	0x3eac27a9	0.33624008
9	0x3e070d0f	0.13188575
10	0x3d927e86	0.07153039
11	0xbdb57f40	-0.08862162
12	0x3e141a8d	0.14463253
13	0xbea25de6	-0.31712264
14	0x3ddc5fb3	0.10760441
15	0xbcdc75c9	-0.026911633
16	0x3ea1995a	0.3156231
17	0x3f374af6	0.71598756
18	0x3e5b087c	0.21389955
19	0xbf13d5f1	-0.57748324
20	0xbe8447a9	-0.25835922
21	0xbe940c42	-0.28915602
22	0xbdb50f5d	-0.08840821
23	0x3da651f9	0.08121104
24	0xbe427908	-0.18991482
25	0x3ee74883	0.4517251
26	0xbd7d8e8e	-0.06190353
27	0xbed79407	-0.42105123
28	0xbe9cdb4c	-0.3063606
29	0x3ec6dbad	0.38839474
30	0xbeb63660	-0.3558836
31	0xbe91da6f	-0.28486964
32	0xbd94d0dd	-0.072664
33	0xbe05e567	-0.13075791
34	0xbbf5e10d	-0.007503635
35	0xbf3e1ccc	-0.7426269
36	0xbe856c2c	-0.2605909
37	0xbdbbcbad	-0.091697074
38	0x3d84a90f	0.06477558
39	0xbd99c8c1	-0.07508994
40	0xbf2271c4	-0.6345484
41	0x3d77c79b	0.060493093
42	0xbf44aed5	-0.7682927
43	0xbe72b1f2	-0.23700693
44	0xbe4015ce	-0.18758318
45	0xbe5fb350	-0.21845746
46	0xbed695ec	-0.41911256
47	0xbf2e8115	-0.68165714
48	0xbdf6eea0	-0.12057233
49	0xbf3a60b1	-0.7280379
50	0x3e315bae	0.1732013
51	0x3d40f3e3	0.04710759
52	0xbf04b16e	-0.51833236
53	0xbdd9b030	-0.10629308
54	0xbe69e390	-0.22840714
55	0xbdc6888e	-0.096940145
56	0x3e06b084	0.13153273
57	0xbe02efb1	-0.12786748
58	0xbebc4257	-0.36769363
59	0xbe463666	-0.19356689
60	0xbe0f4d68	-0.13994372
61	0xba2bea91	-0.00065580854
62	0x3e1eb813	0.15499906
63	0xbf3537b8	-0.70788145
64	0xbea23cf5	-0.31687132
65	0xbe07e490	-0.13270783
66	0xbe909cf5	-0.2824475
67	0xbe5ac1e5	-0.21363027
68	0xbd2fa097	-0.04287776
69	0xbeea149a	-0.45718843
70	0xbf1dc52f	-0.61629003
71	0xbcc8d4dc	-0.024515562
72	0x3e4cccdf	0.20000027
73	0xbec0d214	-0.37660277
74	0xbe0bf75d	-0.1366858
75	0xbe3f4d47	-0.18681823
76	0xbe04b162	-0.12958291
77	0xbee563f4	-0.4480282
78	0xbd87e446	-0.066353366
79	0xbeed2cbb	-0.4632319
80	0xbc8b811e	-0.017029341
81	0xbe0be1c1	-0.13660337
82	0x3db85295	0.09000126
83	0xbecd83ab	-0.40139517
84	0xbed37f15	-0.41307893
85	0x3e13d57d	0.14436908
86	0x3de5e98b	0.112261854
87	0x3e6bd9a5	0.23032244
88	0xbea40067	-0.32031557
89	0xbed05000	-0.40686035
90	0xbe550b53	-0.20805101
91	0xbec53872	-0.38519627
92	0xbe9be72c	-0.30449808
93	0x3c28f6ed	0.010312778
94	0xbe784796	-0.24246058
95	0x3d39163e	0.045187227
96	0xbe397f50	-0.18114972
97	0xbdfd8146	-0.123781726
98	0x3dac6db0	0.08419359
99	0xbe8dd1be	-0.27699083
100	0xbf208ccc	-0.6271484
101	0xbea76713	-0.32695827
102	0xbe4da653	-0.20082979
103	0xbdfc40f5	-0.12317077
104	0xbe938ee3	-0.2881995
105	0x3de13490	0.109963536
106	0xbeb1df82	-0.34740835
107	0xbea40ef2	-0.32042652
108	0xbe1142d6	-0.14185652
109	0xbec16253	-0.37770328
110	0xbeb31ec0	-0.34984398
111	0xbed528f6	-0.41632813
112	0xbe3e69b5	-0.18595012
113	0xbe94cfc6	-0.2906477
114	0x3d966dfe	0.07345198
115	0x3def58da	0.11686869
116	0xbea8a9d1	-0.3294206
117	0xbe9bf8a0	-0.30463123
118	0xbec922eb	-0.39284453
119	0xbe2e34a4	-0.17012268
120	0xbccac0f2	-0.024750207
121	0xbf09c29d	-0.5381258
122	0xbe8ebe06	-0.2787935
123	0xbef08e45	-0.46983543
124	0xbed41e13	-0.41429195
125	0xbea3ccb5	-0.31992117
126	0xbe8acd28	-0.27109647
127	0xbe8498f3	-0.2589794
128	0x3c5cc8e2	0.013475629
129	0x3db2c4d0	0.08728945
130	0xbe172b93	-0.14762716
131	0x3d7de5de	0.061986797
132	0xbda18046	-0.07885794
133	0xbde5deb3	-0.11224117
134	0xbd302b35	-0.043009955
135	0xbab74f1d	-0.001398537
136	0xbce84d8e	-0.028357293
137	0x3db0c624	0.08631542
138	0xbdcbe863	-0.099564336
139	0xbbe6825e	-0.007034584
140	0xbd806aef	-0.06270396
141	0x3d8b6d93	0.06808009
142	0x3e18f642	0.1493769
143	0xbc4cf6b0	-0.012509987
144	0x3d8e6284	0.06952384
145	0x3e24eafd	0.16105266
146	0xbde4312d	-0.11142192
147	0xbdff6f1a	-0.12472363
148	0x3d591f4e	0.05300837
149	0xbdba6444	-0.091011554
150	0xbd8df00a	-0.069305494
151	0x3d89161e	0.06693672
152	0xbbcb9bcf	-0.006213642
153	0x3d36dbc8	0.044643193
154	0xbdf887b3	-0.121352576
155	0xbc96b0f7	-0.01839493
156	0xbd881e76	-0.06646435
157	0x3c47f4a3	0.012204322
158	0xbca8af92	-0.020591531
159	0x3e0956be	0.13411996
160	0x3c289d3f	0.010291397
161	0xbd1cb3aa	-0.03825728
162	0xbd54f08e	-0.051987223
163	0x3da41a20	0.080127954
164	0xbd1b0156	-0.03784307
165	0xbc8907b3	-0.016727304
166	0x3e090c4b	0.13383596
167	0x3d456a56	0.048197113
168	0xbc0e558d	-0.008687389
169	0xbd8a72c8	-0.06760174
170	0x3e17070b	0.1474878
171	0x3da25d15	0.0792791
172	0xbcd53937	-0.026028259
173	0x3d76d451	0.060261074
174	0xbdd0f884	-0.102036506
175	0xbb6b784b	-0.0035929854
176	0xbbf64923	-0.007516043
177	0xbb8cee49	-0.0043008667
178	0xbd540c54	-0.05176957
179	0x3c97024b	0.01843371
180	0xbc5bcb14	-0.013415117
181	0xbcf25579	-0.029581772
182	0x3d97c521	0.07410646
183	0xbd6496aa	-0.055807747
184	0xbddad7c7	-0.106856875
185	0xbcc9a837	-0.024616344
186	0x3bfcaf98	0.007711362
187	0x3da4dd9f	0.08050083
188	0xbd4f2dfc	-0.050580963
189	0xbce08799	-0.027408408
190	0xbca6e1c8	-0.020371333
191	0xbd827383	-0.06369688
192	0xbdc39c2f	-0.09551274
193	0xbec62dd9	-0.38706854
194	0xbdf0de1d	-0.11761115
195	0xbecf6c07	-0.40512106
196	0x3e09ff7c	0.13476366
197	0x3e9b96dc	0.30388534
198	0xbe8b3c40	-0.27194405
199	0xbddf9d8f	-0.10918724
200	0x3eaadd79	0.33372095
201	0x3e5aa30a	0.21351257
202	0x3cb3ea83	0.02196241
203	0xbe97b63a	-0.29631215
204	0xbc4a2580	-0.012338042
205	0xbefe2f41	-0.49645427
206	0x3e1c3124	0.1525312
207	0xbdd707a2	-0.10499503
208	0x3e91ef1d	0.2850274
209	0x3f05c687	0.52256054
210	0x3e900ec6	0.2813627
211	0xbf1baa54	-0.60806775
212	0xbe10abfc	-0.14128107
213	0xbef55c45	-0.4792196
214	0xbbc1784b	-0.0059042326
215	0xbd1534c7	-0.036427286
216	0xbe37f56c	-0.17964715
217	0x3f04f883	0.519417
218	0xbe188b74	-0.14896947
219	0xbed28413	-0.4111639
220	0xbe31932b	-0.17341296
221	0x3e991093	0.29895458
222	0xbe71d206	-0.23615274
223	0xbe944aa1	-0.28963187
224	0xbe28fa7a	-0.16501799
225	0xbb7b3de3	-0.0038336448
226	0x3ce38023	0.027771061
227	0xbf3b42b2	-0.73148644
228	0xbe43ddbf	-0.19127558
229	0xbe461466	-0.19343719
230	0x3d535449	0.051594052
231	0xbe37ba1b	-0.17942087
232	0xbf2d0e42	-0.6759988
233	0x3e05c0dd	0.13061853
234	0xbf1fd3b0	-0.62432384
235	0xbea319db	-0.31855664
236	0xbe630e4e	-0.22173426
237	0xbe2430a7	-0.16034184
238	0xbee93aa4	-0.45552552
239	0xbf2e9523	-0.68196315
240	0xbdb2ac6b	-0.08724292
241	0xbf294ace	-0.6612977
242	0x3e01c58b	0.12673013
243	0xbd3628db	-0.044472557
244	0xbee9d38a	-0.45669204
245	0xbe89e6aa	-0.26933795
246	0xbeaf8e53	-0.34288272
247	0xbe5ba1c0	-0.21448421
248	0x3d5018c6	0.050804876
249	0xbe07f276	-0.13276085
250	0xbeb373b4	-0.35049212
251	0xbe78f0df	-0.24310635
252	0xbe3c251f	-0.18373536
253	0xbdc49b81	-0.095999725
254	0x3e915c5a	0.2839077
255	0xbf375912	-0.71620286

rnn.bias_hh_l0 f4 [256]
0	0xbe2c65e8	-0.16835749
1	0xbef2cd45	-0.47422233
2	0xbe1be76f	-0.15225004
3	0xbea869a7	-0.32893106
4	0x3e0c7559	0.1371664
5	0x3ebb2d3f	0.36557958
6	0xbe85944e	-0.2608971
7	0xbd2b06f0	-0.041754663
8	0x3e82ccfc	0.25547016
9	0x3e1b0137	0.15137182
10	0x3e24a742	0.16079429
11	0xbe6244c3	-0.22096543
12	0xbae10c3d	-0.0017169785
13	0xbeef17ca	-0.46697837
14	0x3e0e7a02	0.1391373
15	0xbcb43fe9	-0.022003131
16	0x3ead1f4b	0.33812937
17	0x3f2704b5	0.6524156
18	0x3e08fafe	0.13376996
19	0xbf26edfe	-0.652069
20	0xbeb02613	-0.34404048
21	0xbecd215e	-0.4006452
22	0xbc0d8ea7	-0.008639968
23	0xbc54060d	-0.012940896
24	0xbe0156db	-0.12630789
25	0x3ef9a26a	0.48756725
26	0xbe398ad8	-0.18119371
27	0xbed5b86d	-0.41742268
28	0xbe87ce1e	-0.26524442
29	0x3ef527ac	0.4788183
30	0xbecf0cb6	-0.40439385
31	0xbe97b611	-0.29631093
32	0xbdb40523	-0.08790042
33	0xbe384355	-0.17994435
34	0x3cb3df59	0.021957086
35	0xbf386285	-0.7202533
36	0xbea232e7	-0.3167946
37	0xbe37ba64	-0.17942196
38	0x3e203134	0.1564377
39	0xbe356f30	-0.17718196
40	0xbf2b1a77	-0.6683726
41	0xbd972cab	-0.073815666
42	0xbf223c1a	-0.6337296
43	0xbe0db88e	-0.13839933
44	0xbe4c72f0	-0.1996572
45	0xbe39190b	-0.1807596
46	0xbf013660	-0.50473595
47	0xbf376fa1	-0.7165471
48	0xbd393b7c	-0.045222744
49	0xbf2887bb	-0.6583211
50	0x3e2477aa	0.16061273
51	0xbd04bb06	-0.032404922
52	0xbedf764b	-0.43644938
53	0xbe04975a	-0.12948361
54	0xbe2bfa8f	-0.167948
55	0xbdfba957	-0.122881584
56	0x3d3fa769	0.046790514
57	0xbe2146e3	-0.15749697
58	0xbe74b8fd	-0.23898692
59	0xbe611153	-0.21979265
60	0xbd57792e	-0.0526058
61	0x3c625c5f	0.013815968
62	0x3ea8476d	0.32866994
63	0xbf345f89	-0.70458275
64	0xbe649a3f	-0.22324465
65	0x3cdc87ec	0.026920281
66	0xbd4e56e7	-0.050375845
67	0xbe9ba511	-0.30399373
68	0xbe6445e7	-0.2229229
69	0xbed67cf0	-0.41892195
70	0xbf181114	-0.5940106
71	0xbe124639	-0.142846
72	0x3e8446f8	0.25835395
73	0xbea48a7c	-0.32136905
74	0xbe2780bd	-0.16357704
75	0xbd235425	-0.03987517
76	0xbc009b52	-0.007849531
77	0xbef57fed	-0.47949162
78	0xbc855f2a	-0.01628073
79	0xbefb4d1c	-0.49082267
80	0x3c884d08	0.016638294
81	0xbe10f365	-0.14155348
82	0x3d762837	0.060096946
83	0xbedd2ffb	-0.4320067
84	0xbec6fe41	-0.38865855
85	0x3dc4cfd6	0.09609954
86	0x3de8bfbb	0.11364695
87	0x3e036381	0.12830926
88	0xbe98f9ba	-0.29878026
89	0xbed2386e	-0.41058677
90	0xbe7a8a9c	-0.24466938
91	0xbe978269	-0.29591683
92	0xbeabac94	-0.33530104
93	0xbd6b2ac6	-0.05741384
94	0xbe785235	-0.2425011
95	0xb9a909e5	-0.00032241564
96	0xbdc6dce6	-0.09710102
97	0xbc9ee121	-0.01939446
98	0xbda94362	-0.082648054
99	0xbe8dc97c	-0.27692783
100	0xbf0ad131	-0.5422545
101	0xbea6f74a	-0.32610542
102	0xbdb3aab2	-0.08772792
103	0xbe6ccd1d	-0.2312512
104	0xbe967a97	-0.29390404
105	0x3da6cac3	0.081441425
106	0xbeb41ff3	-0.35180625
107	0xbe313759	-0.1730627
108	0xbe3277e1	-0.17428543
109	0xbea327a3	-0.31866178
110	0xbec164f5	-0.37772337
111	0xbec29497	-0.3800399
112	0x3d180fa1	0.03712428
113	0xbe90bf6b	-0.2827104
114	0x3d8db358	0.06918973
115	0xbd02f959	-0.031976078
116	0xbea95723	-0.33074293
117	0xbe032d07	-0.12810145
118	0xbee38786	-0.44439334
119	0xbd85240c	-0.06501016
120	0xbd7317de	-0.059348933
121	0xbf081091	-0.5315028
122	0xbe523a03	-0.20529942
123	0xbe9a3435	-0.30117956
124	0xbedb941c	-0.42886436
125	0xbe8c8041	-0.274416
126	0xbeb8154a	-0.35953742
127	0xbe849ac2	-0.2589932
128	0xbde458c5	-0.11149744
129	0xbe076888	-0.1322347
130	0x3d2649b4	0.040597633
131	0xbd06a64d	-0.03287344
132	0xbe194298	-0.1496681
133	0xbd949b1b	-0.072561465
134	0xbcffde46	-0.031233918
135	0x3e2dcfa4	0.1697374
136	0xbe50cb58	-0.2039007
137	0x3dc404d7	0.095712356
138	0x3d2a52ac	0.04158275
139	0x3e236b02	0.15958789
140	0xbc18d98a	-0.009329209
141	0xbe198635	-0.14992602
142	0x3bdaab97	0.006673287
143	0x3d7ba1ea	0.06143371
144	0x3ba63222	0.0050718943
145	0x3de0237b	0.10944267
146	0xbce78cfa	-0.028265465
147	0x3bf9480e	0.0076074665
148	0x3d71f525	0.05907168
149	0xbe12e1c3	-0.14343934
150	0xbdf09af0	-0.11748302
151	0xbdd5f701	-0.10447503
152	0x3d6f9821	0.05849469
153	0x3da4eeea	0.08053382
154	0x3c8ee6d9	0.017444061
155	0x3daf136e	0.08548628
156	0x3c092a6f	0.008371933
157	0x3d43a802	0.047767647
158	0x3d2d233c	0.04226993
159	0xbdc2c69e	-0.095105395
160	0xbd3d8225	-0.046266694
161	0x3c182473	0.009286034
162	0x3a84e353	0.0010138549
163	0xbd45f83a	-0.04833243
164	0xbae75fa4	-0.0017652404
165	0x3d4a1194	0.04933317
166	0x3d6fd392	0.05855138
167	0xbbb3c5ab	-0.0054862103
168	0xbd63bc08	-0.055599242
169	0x3dd89754	0.105757385
170	0x3b034740	0.0020031482
171	0xbceedd0c	-0.029158138
172	0x3e0501e1	0.12988998
173	0x3d165553	0.036702465
174	0x3dbcb64d	0.092144586
175	0xbc0beaab	-0.008539836
176	0x3da9ec57	0.082970314
177	0x3cd9fc34	0.026609518
178	0x3d5a525f	0.05330121
179	0x3db93118	0.09042567
180	0x3db34360	0.08753085
181	0x3e1c4337	0.15260015
182	0xbca06942	-0.01958144
183	0xbda4ad80	-0.08040905
184	0x3c0693da	0.0082139615
185	0xbbcba903	-0.006215216
186	0x3d378cea	0.04481212
187	0x3da06102	0.07831003
188	0x3ad248e8	0.0016043456
189	0x3d732219	0.05935869
190	0xbdd77a42	-0.10521366
191	0x3d3dde6b	0.046354692
192	0xbe5453f5	-0.20735152
193	0xbf0c3ff9	-0.54785115
194	0xbda7e4fd	-0.08197973
195	0xbec429cc	-0.38313138
196	0x3d7bff23	0.061522614
197	0x3ed632c3	0.41835603
198	0xbeb7510a	-0.35804015
199	0xbe56f7a0	-0.20992899
200	0x3eb9de80	0.36302567
201	0x3e2756e0	0.16341734
202	0x3d56cf4e	0.052443795
203	0xbe8bf397	-0.27334282
204	0xbd375a73	-0.044763993
205	0xbedf2d91	-0.43589452
206	0x3d96e9e5	0.073688306
207	0xbe2b977f	-0.1675701
208	0x3e6affc9	0.22949137
209	0x3f1cee7c	0.613014
210	0x3e954576	0.29154557
211	0xbf2f9ba8	-0.6859689
212	0xbea11bdb	-0.31466565
213	0xbefc34ec	-0.49259126
214	0xbdded609	-0.10880668
215	0xbd9c8107	-0.076417975
216	0xbe1a7358	-0.15083063
217	0x3eb0e879	0.34552363
218	0xbb9c4a4b	-0.0047695986
219	0xbec4228f	-0.38307616
220	0xbe5eba90	-0.21750855
221	0x3ece4f10	0.40294695
222	0xbe7aa400	-0.24476624
223	0xbe6fb5c8	-0.23409188
224	0xbe326da4	-0.17424637
225	0xbd2f66eb	-0.04282276
226	0xbd2aa6bb	-0.041662913
227	0xbf39a0c5	-0.7251094
228	0xbe7a9a2e	-0.24472877
229	0xbe170aa7	-0.14750157
230	0x3cb8e1b7	0.022568567
231	0xbdad7da2	-0.08471228
232	0xbf11d9b1	-0.56972796
233	0x3dc9cbe7	0.098533444
234	0xbf2d71e3	-0.677519
235	0xbe54343d	-0.20723052
236	0xbbd8e559	-0.0066191372
237	0xbeb74110	-0.35791826
238	0xbef53064	-0.47888482
239	0xbf381a83	-0.71915454
240	0x3d75b12c	0.059983417
241	0xbf306bf3	-0.6891472
242	0x3ade20c7	0.0016947024
243	0x3e11092f	0.1416366
244	0xbe9dd1bb	-0.30824074
245	0xbe8f2a3d	-0.27961913
246	0xbe9dafda	-0.30798227
247	0xbe100b3a	-0.14066783
248	0x3c186cd6	0.009303292
249	0xbe0f0064	-0.13964993
250	0xbea4bdd2	-0.3217607
251	0xbe8549ea	-0.26032954
252	0xbe8309af	-0.25593325
253	0xbdb5b500	-0.08872414
254	0x3e81ddca	0.25364524
255	0xbf3721a6	-0.7153572

rnn.weight_ih_l1 f4 [256, 64]
0	0x3db002ac	0.085942596
1	0xbdf705c9	-0.1206165
2	0xbe746535	-0.23866732
3	0xbe73cddf	-0.23809002
4	0xbedc78f3	-0.43061027
5	0xbef5e239	-0.48024157
6	0x3e6ccc17	0.23124729
7	0x3ea6d76c	0.3258623
8	0xbf0efd9e	-0.5585574
9	0xbd855b06	-0.06511502
10	0xbeb155ba	-0.34635717
11	0x3e09607d	0.13415714
12	0xbe935b71	-0.28780702
13	0xbdf0e230	-0.11761892
14	0x3e3cb081	0.18426706
15	0x3e21b063	0.15789942
16	0x3ea9e75a	0.3318432
17	0x3ef1f274	0.4725529
18	0xbe9e2a6d	-0.30891743
19	0x3e30ea3b	0.17276852
20	0xbe42ad65	-0.19011457
21	0xb9fa27d7	-0.000477134
22	0xbe9b743a	-0.3036211
23	0xbea36442	-0.31912428
24	0x3e10b0d0	0.14129949
25	0x3e926e32	0.28599697
26	0xbe908793	-0.28228435
27	0xbd9cc047	-0.076538615
28	0x3e016283	0.12635235
29	0x3ee79c6f	0.45236537
30	0xbe8e62f0	-0.27809858
31	0xbe0e11d8	-0.13873994
32	0x3e371daf	0.17882417
33	0xbe4b2025	-0.19836481
34	0xbeb8431e	-0.35988706
35	0xbd8b4276	-0.06799786
36	0x3c171600	0.009221554
37	0xbe72fb0f	-0.23728584
38	0x3f756fdd	0.95873815
39	0x3d55a394	0.052157953
40	0x3da93777	0.08262532
41	0xbebdb75c	-0.37053955
42	0x3cd1e8a8	0.025623634
43	0xbe72ad82	-0.23699
44	0x3ebb49f1	0.3657985
45	0xbdc04673	-0.09388437
46	0x3dfa2c31	0.1221546
47	0x3c838632	0.0160552
48	0x3d231235	0.039812285
49	0xbddc2b55	-0.107504524
50	0x3e4dbdbc	0.20091909
51	0x3ea44b85	0.32088867
52	0xbdffe06d	-0.12493978
53	0xbe4c95db	-0.1997904
54	0xbe1bb1bb	-0.15204518
55	0xbe28a11a	-0.16467705
56	0xbede6e06	-0.43443316
57	0xbdabe805	-0.083938636
58	0x3e9e5d0c	0.30930364
59	0xbe671b9a	-0.22569123
60	0xbe976651	-0.2957025
61	0x3d4f84d0	0.05066377
62	0xbe927c51	-0.2861047
63	0x3d8d0023	0.06884792
64	0xbdd1fa14	-0.10252777
65	0x3b425ca3	0.0029657267
66	0xbdb77437	-0.08957713
67	0xbcf55a5d	-0.029950315
68	0xbe9a8817	-0.30181953
69	0xbdf85040	-0.121246815
70	0x3cfb1efd	0.030654425
71	0x3e561e62	0.20910028
72	0x3e106230	0.14099956
73	0x3e1afea5	0.15136202
74	0x3d9c1ba1	0.07622457
75	0x3e6ce3b2	0.23133734
76	0xbd2eb9b8	-0.042657584
77	0x3bed65c6	0.0072447984
78	0x3e2ae97b	0.16690628
79	0xbd876e59	-0.06612844
80	0x3b79090f	0.0037999784
81	0x3dad40ed	0.08459649
82	0x3df7551d	0.12076781
83	0x3da59105	0.08084301
84	0xbc742808	-0.014902122
85	0xbe8ecc15	-0.27890077
86	0xbcaf3ec6	-0.021392237
87	0xbe9cbab8	-0.30611205
88	0x3db3ef3e	0.08785866
89	0x3e23af79	0.15984906
90	0xbd35f438	-0.04442236
91	0x3daba158	0.08380383
92	0x3c3a9e72	0.011390315
93	0x3d3fb4d7	0.04680332
94	0xbca3c639	-0.01999198
95	0xbd5bdf02	-0.053679474
96	0x3e3db9fe	0.18527982
97	0x3ada8e79	0.001667454
98	0xbd77e734	-0.060523227
99	0xbd01a2fb	-0.03164957
100	0x3d0a125a	0.033708908
101	0xbd922ad7	-0.07137077
102	0x3dc3e594	0.09565273
103	0x3e3bf42e	0.18354866
104	0x3ccd629d	0.025071437
105	0x3ea87c39	0.32907274
106	0xbd767681	-0.060171608
107	0xbc8458a6	-0.016155552
108	0x3dc23e9b	0.09484597
109	0x3c30d485	0.010792856
110	0x3c41d5b6	0.011830738
111	0xbd798999	-0.06092224
112	0x3e149c45	0.14512737
113	0xbca511e4	-0.020150132
114	0xbe5f1097	-0.21783672
115	0x3b858a3b	0.0040753162
116	0x3d2d568e	0.042318873
117	0xbd69880f	-0.05701452
118	0xbd0e218e	-0.03469997
119	0x3db6c459	0.08924169
120	0x3d42d47e	0.04756593
121	0xbd18f0cc	-0.037339017
122	0x3d39a73b	0.0453255
123	0x3e0bd1c1	0.13654234
124	0xb9231533	-0.00015552789
125	0x3d7e0fab	0.06202666
126	0xbe147a09	-0.14499678
127	0x3ca3b359	0.01998298
128	0x3d5144e3	0.051091086
129	0x3dcc9eb9	0.099912114
130	0x3dd4036a	0.10352214
131	0xbd13ec82	-0.036114223
132	0xbd5421ef	-0.051790174
133	0x3e3aa4fc	0.18226999
134	0x3d850d60	0.06496692
135	0x3d8b3b94	0.06798473
136	0x3f14139c	0.5784242
137	0xbea78d5e	-0.32725042
138	0x3e179829	0.14804138
139	0x3c1ac850	0.009447172
140	0x3ea1fe77	0.31639454
141	0x3c1aa7a4	0.009439383
142	0xbea0d2c2	-0.31410795
143	0x3e5d3860	0.21603537
144	0xbe5b02d9	-0.21387805
145	0xbee7bc0d	-0.4526066
146	0x3ee4964a	0.4464591
147	0x3d99bf96	0.07507245
148	0xbde71128	-0.11282569
149	0x3e6824ce	0.2267029
150	0x3e7d083d	0.24710174
151	0x3d41e8b3	0.04734106
152	0xbdb800fb	-0.08984562
153	0xbed18f59	-0.40929678
154	0x3dfcc8f7	0.123430185
155	0x3c1455a6	0.009053623
156	0x3e1d5c54	0.15367252
157	0xbeac738d	-0.33681908
158	0x3d9f2811	0.07771314
159	0x3dbce6cc	0.092237085
160	0xbe5626a7	-0.20913182
161	0x3e07b9e7	0.1325451
162	0x3e63b453	0.22236757
163	0x3cf42d9e	0.029806908
164	0x3d6218c0	0.055199385
165	0xbd05e744	-0.032691255
166	0xbe3cbba6	-0.18430957
167	0xbdc9a3d3	-0.098457
168	0x3c93c2b2	0.018037174
169	0x3eb29cd0	0.34885263
170	0x3d0f591e	0.0349971
171	0xbd2b90ae	-0.041886024
172	0xbe3c09ea	-0.18363157
173	0x3e334324	0.17506081
174	0x3d179ba9	0.037013683
175	0xbd078e06	-0.03309443
176	0xbd89621a	-0.067081645
177	0x390c2bf6	0.00013367817
178	0xbe218dfd	-0.1577682
179	0xbeb1b54c	-0.3470863
180	0x3dbf7179	0.09347815
181	0x3d5da7a5	0.054114956
182	0xbdb65e2c	-0.089046806
183	0x3e711ee4	0.2354694
184	0x3aabb809	0.0013101111
185	0x3d07af70	0.033126295
186	0xbcd2a2f1	-0.025712462
187	0x3d73a019	0.059478853
188	0x3e366d96	0.17815241
189	0xbd8bf633	-0.06834068
190	0x3e0fe446	0.14051923
191	0x3bcece82	0.0063112387
192	0xbdc0c784	-0.094130546
193	0x3cbb4d7d	0.022864098
194	0xbe839d2b	-0.25705847
195	0xbd42011a	-0.04736433
196	0x3e835967	0.25654146
197	0x3c49c0fc	0.0123140775
198	0xbdbc57e4	-0.09196451
199	0xbc81b3aa	-0.01583274
200	0x3ef3788c	0.47552907
201	0x3f193414	0.5984509
202	0x3e9c2cb3	0.30502853
203	0x3e8cac9d	0.27475443
204	0xbe0d371b	-0.13790552
205	0xbce8c852	-0.028415833
206	0x3eaccd8d	0.33750573
207	0xbe51d80a	-0.20492569
208	0xbe261134	-0.162175
209	0x3f041a11	0.51602274
210	0x3d2c0501	0.04199696
211	0x3c86350f	0.016382722
212	0x3d137d1c	0.036007985
213	0xbf24eba3	-0.64422053
214	0xbe6144f1	-0.21998955
215	0xbd744576	-0.059636556
216	0x3eaaa501	0.33329013
217	0x3f70dc12	0.940858
218	0x3e5aaed9	0.21355762
219	0x3dc36981	0.09541608
220	0xbe73cc61	-0.23808433
221	0x3f021253	0.5080921
222	0x3d5fb354	0.05461438
223	0xbe7f7c11	-0.24949671
224	0x3eb62a76	0.3557927
225	0x3e75b924	0.23996407
226	0x3c2fe5c3	0.010735932
227	0xbd8ef979	-0.06981177
228	0xbd7308b9	-0.05933449
229	0x3d05e7bf	0.032691713
230	0x3e0d632f	0.13807367
231	0x3e8e5ef7	0.27806827
232	0xbcb6be44	-0.022307523
233	0x3e0ad398	0.13557279
234	0xbde33202	-0.110935226
235	0xbd3485a2	-0.044072755
236	0x3e470af9	0.1943778
237	0xbe935fd2	-0.28784043
238	0xbdfd9239	-0.123814054
239	0x3d26514d	0.04060488
240	0x3e93f8fb	0.28900895
241	0x3bad20fd	0.0052834735
242	0xbeff34ff	-0.4984512
243	0xbd8c6bef	-0.06856524
244	0xbe3fbd9d	-0.18724675
245	0x3bb4a9d9	0.0055134115
246	0x3e364bf6	0.17802414
247	0x3d8b68d9	0.068071075
248	0x3f3af184	0.73024774
249	0xbde244fe	-0.110483155
250	0xbc810cb2	-0.015753124
251	0x3e596c8f	0.21232818
252	0xbe6534cc	-0.22383422
253	0x3f10791e	0.5643481
254	0xbf157d8a	-0.5839468
255	0xbc116baf	-0.008875771

rnn.weight_hh_l1 f4 [256, 64]
0	0x3db55645	0.08854345
1	0xbe077836	-0.1322945
2	0xbd882851	-0.06648315
3	0x3e6edd72	0.23326662
4	0xbe9b8d2b	-0.3038114
5	0x3dcb97bd	0.09941051
6	0xbf34307d	-0.7038649
7	0xbe93dc22	-0.28878886
8	0xbedf9690	-0.43669558
9	0x3e63fd5a	0.22264615
10	0xbd65b911	-0.056084696
11	0xbdeca355	-0.115545906
12	0x3f0679cb	0.5252959
13	0xbd7fec7f	-0.0624814
14	0x3f1a4119	0.6025558
15	0xbcc3e1f4	-0.023911454
16	0x3db4fd04	0.088373214
17	0xbd941606	-0.07230763
18	0x3f5894a7	0.84601825
19	0xbda00a03	-0.078144096
20	0x3dce9caa	0.10088475
21	0xbe84c553	-0.25931796
22	0xbd914aeb	-0.070943676
23	0xbd67f9c4	-0.05663468
24	0x3e309709	0.17245115
25	0x3f137dfb	0.57614106
26	0xbe5346d4	-0.20632488
27	0xbdc645da	-0.09681292
28	0xbf22bac5	-0.6356624
29	0x3e10c3f7	0.14137255
30	0xbf08fb7e	-0.53508747
31	0xbd405b21	-0.046961907
32	0x3df323d4	0.11872068
33	0xbeb6ff72	-0.35741764
34	0x3f4a4856	0.79016626
35	0x3e60522a	0.21906343
36	0x3eddef82	0.43346792
37	0x3e331bde	0.17491099
38	0x3f04d00d	0.5187996
39	0xbdbd2519	-0.092355914
40	0xbe97d040	-0.2965107
41	0xbe6d9957	-0.23203026
42	0x3d9e0cef	0.07717311
43	0xbf061367	-0.52373356
44	0x3e8cfb6d	0.27535573
45	0x3f3be300	0.7339325
46	0xbe3b6955	-0.183019
47	0xbe318c41	-0.17338659
48	0xbe082a2f	-0.13297342
49	0x3ee97a8d	0.4560131
50	0x3cf1822a	0.029481012
51	0xbedd31ef	-0.4320216
52	0xbd048a92	-0.032358713
53	0x3e01f7fd	0.12692256
54	0x3e8bc297	0.27296898
55	0x3ced9643	0.029002314
56	0x3ded90da	0.11599894
57	0x3e63866a	0.22219244
58	0x3a893f61	0.0010471159
59	0x3dd56b89	0.10420901
60	0xbc984fb5	-0.018592695
61	0x3f011e3d	0.50436765
62	0xbddc4336	-0.10755007
63	0x3dd96d42	0.106165424
64	0xbe9efe11	-0.31053212
65	0x3e1e88ec	0.15481919
66	0x3e3f8352	0.18702438
67	0x3c33b49a	0.010968352
68	0x3d93935e	0.072058424
69	0xbd075a08	-0.033044845
70	0xbef296b8	-0.47380614
71	0x3e1c0c18	0.15238988
72	0x3e0a8d30	0.13530421
73	0x3e385efd	0.18004985
74	0xbdb82858	-0.0899207
75	0x3c4a3698	0.012342118
76	0x3f0ce1e8	0.55032206
77	0xbbcb14da	-0.006197554
78	0x3e644e2e	0.22295448
79	0x3f050001	0.5195313
80	0xbe56aa86	-0.20963487
81	0x3bc19bff	0.0059084888
82	0x3c2affde	0.01043698
83	0x3ca673b5	0.020318845
84	0x3cb8f120	0.022575915
85	0x3d89edff	0.06734847
86	0x3de3f061	0.11129833
87	0xbe9feaae	-0.31233734
88	0x3e9c927e	0.30580515
89	0x3db2d04a	0.08731134
90	0x3d581b51	0.052760426
91	0xbbe50e7b	-0.0069902516
92	0xbc9f0b1c	-0.019414477
93	0xbb66f3db	-0.0035240564
94	0x3df44917	0.11928003
95	0x3de22bc3	0.11043503
96	0xbc9f81d0	-0.01947108
97	0xbe591e2d	-0.21202917
98	0xbea80a9b	-0.3282059
99	0x3dd57a07	0.104236655
100	0xbf781542	-0.96907437
101	0xbcca83d2	-0.02472106
102	0x3e63af56	0.22234854
103	0x3d859bed	0.06523881
104	0xbe311769	-0.17294087
105	0x3e14a17b	0.14514725
106	0xbdc4d1a7	-0.096103005
107	0x3d423833	0.047416877
108	0x3d7f3077	0.06230208
109	0xbeea2ff1	-0.457397
110	0x3d1b9984	0.0379882
111	0x3d22d05f	0.0397495
112	0xbda9a2cf	-0.082830064
113	0xbc3727bc	-0.011178907
114	0x3d32a776	0.043616734
115	0x3d49e146	0.049287103
116	0x3bf1fcb7	0.0073848623
117	0x3cecd955	0.028912226
118	0x3ca9b823	0.020717686
119	0xbdaf4501	-0.08558083
120	0x3e5d28d5	0.21597607
121	0x3e349f63	0.17638926
122	0x3cd56f4f	0.026054053
123	0xbe438179	-0.19092359
124	0xbcf99305	-0.030465612
125	0x3eb0b9b4	0.3451668
126	0xbda17bbc	-0.078849286
127	0x3d556d60	0.05210626
128	0x3c97d29d	0.018533045
129	0xbd1296e7	-0.035788443
130	0x3e1ff6c1	0.15621473
131	0xbddaf090	-0.10690415
132	0x3e5b048a	0.2138845
133	0x3dd1dab7	0.10246795
134	0xbf40cc65	-0.7531188
135	0xbef73a60	-0.48286724
136	0xbb66120d	-0.0035105974
137	0xbe22c389	-0.15894903
138	0xbdc071fd	-0.093967415
139	0x3e4909a1	0.1963258
140	0xbc967664	-0.018367
141	0xbad579cc	-0.0016286909
142	0xbf436e7b	-0.76340455
143	0x3e9418fe	0.28925318
144	0x3e23ff97	0.16015469
145	0x3e3b49e1	0.18289901
146	0xbeb302ea	-0.3496316
147	0xbe166083	-0.14685254
148	0x3ddbad4b	0.107264124
149	0x3e1b1628	0.1514517
150	0xbe9691f2	-0.29408222
151	0xbd8390f3	-0.06424131
152	0xbe15078e	-0.14553663
153	0x3e8b15b5	0.27165
154	0x3e86065f	0.26176736
155	0xbb39d472	-0.0028355387
156	0x3f075936	0.528705
157	0x3e0d9f05	0.13830192
158	0xbe9ae5dd	-0.30253497
159	0x3f4916b8	0.7855029
160	0x3d689ef4	0.056792215
161	0x3e9608a5	0.2930347
162	0xbe9caa85	-0.30598846
163	0xbd912e01	-0.07088853
164	0xbe192d01	-0.14958574
165	0x3dbda2ed	0.09259591
166	0xbddae356	-0.10687892
167	0x3b0cfe27	0.0021513791
168	0xbda02864	-0.07820204
169	0xbc129ce8	-0.008948542
170	0x3db6ed27	0.08931952
171	0xbe6243c3	-0.22096162
172	0x3c177543	0.009244266
173	0x3e992e6b	0.29918227
174	0xbcc1ced5	-0.023658196
175	0x3b326c03	0.0027225025
176	0x3d9fac39	0.07796521
177	0x3ea5f147	0.32410643
178	0x3ce83a8d	0.028348232
179	0xbd8960c6	-0.06707911
180	0xbd198199	-0.03747711
181	0xbe894866	-0.26813048
182	0xbbc38aad	-0.005967459
183	0xbcf7f867	-0.030269815
184	0xbaccf8e9	-0.0015638146
185	0xbd45306f	-0.048141893
186	0xbcdc5fe0	-0.026901186
187	0xbc883f80	-0.016631842
188	0x3d4f635e	0.050631873
189	0xbe95e4ed	-0.2927622
190	0x3dc9fbda	0.0986249
191	0x3d96c14c	0.07361087
192	0x3c446ef8	0.011989348
193	0x3cb32f9e	0.021873292
194	0xbe4562f1	-0.19276024
195	0x3f8b1859	1.0866805
196	0x3e794e18	0.24346197
197	0xbe1d5789	-0.15365423
198	0xbbf406c2	-0.0074470947
199	0x3f6d31d1	0.9265414
200	0xbe2065a3	-0.15663771
201	0x3f5bea1f	0.85904115
202	0xbd1175f6	-0.035512887
203	0xbf3dd06d	-0.7414616
204	0xbd99d8ec	-0.07512078
205	0x3e3fe70a	0.18740478
206	0x3d1373bd	0.03599905
207	0x3f8e9ade	1.1141012
208	0xbf852918	-1.0403166
209	0xbe890274	-0.26759684
210	0x3e4d20f6	0.20032105
211	0x3cb5839d	0.022157485
212	0xb96b7ca0	-0.00022457773
213	0xbec5f202	-0.386612
214	0x3f2aa497	0.66657394
215	0x3f04efa0	0.5192814
216	0x3b4de411	0.0031416456
217	0x3e12609e	0.14294669
218	0xbf197f8b	-0.5996024
219	0x3cae8898	0.021305367
220	0x3df53700	0.11973381
221	0xbe1b2b76	-0.15153298
222	0x3e86ab0d	0.26302376
223	0x3e638146	0.22217283
224	0x3d9c6426	0.07636289
225	0xbe49a822	-0.19693044
226	0xbf0c1ff6	-0.5473627
227	0x3f64c2fe	0.89360034
228	0xbf80dadc	-1.006679
229	0xbe2eaf10	-0.17058969
230	0xbdfd13da	-0.12357302
231	0x3caf2b8e	0.021383073
232	0x3defe7a4	0.11714104
233	0xbecb5430	-0.39712667
234	0xbe14d68b	-0.14534967
235	0x3eefd969	0.46845558
236	0x3e679556	0.22615561
237	0xbf8c9ed7	-1.0985974
238	0x3f40ba4f	0.75284284
239	0xbda03507	-0.07822614
240	0xbe8cadc0	-0.2747631
241	0xbecce323	-0.40017042
242	0xbe146283	-0.14490704
243	0x3e9a5cbf	0.30148885
244	0x3cf420f9	0.029800879
245	0x3f222238	0.63333464
246	0x3e941c79	0.28927973
247	0xbdc3ab25	-0.095541276
248	0x3e8fcffd	0.2808837
249	0x3e037655	0.12838109
250	0x3cc12230	0.023575872
251	0x3d28dfa7	0.041228916
252	0xbdef48ab	-0.11683782
253	0x3d888343	0.06665661
254	0xbe8c897f	-0.2744865
255	0x3c9752e6	0.018472146

rnn.bias_ih_l1 f4 [256]
0	0xbeea5873	-0.45770606
1	0xbe6bd638	-0.23030937
2	0xbec4eec6	-0.3846342
3	0x3d26034e	0.040530495
4	0xbe79c75e	-0.24392459
5	0xbf562d4a	-0.83662856
6	0xbeb455f3	-0.35221824
7	0x3c2a426f	0.010391816
8	0xbedf120c	-0.43568456
9	0xbe6ab1dd	-0.22919412
10	0xbf447296	-0.76737344
11	0xbe3eb537	-0.18623815
12	0xbe6cba87	-0.2311803
13	0xbf3fc9a9	-0.74917084
14	0x3eee6c20	0.46566868
15	0xbc12c9b5	-0.0089592235
16	0xbeacccf4	-0.33750117
17	0x3dd195e3	0.10233667
18	0x3d962927	0.07332068
19	0xbe7dc2c4	-0.24781328
20	0xbf729fdc	-0.94775176
21	0xbeb46d71	-0.35239747
22	0x3da56ef8	0.08077806
23	0xbe825587	-0.25455877
24	0xbe9a937c	-0.30190647
25	0xbebe5cde	-0.37180227
26	0xbd5294ec	-0.051411554
27	0xbf31ff91	-0.6953059
28	0x3ecae173	0.3962513
29	0xbf4c9240	-0.7991066
30	0xbe93b963	-0.28852376
31	0x3f2857bb	0.65758866
32	0xbf4ef5b4	-0.80843663
33	0xbec3772d	-0.3817686
34	0x3dc4c0cb	0.09607085
35	0xbd38965d	-0.045065273
36	0xbd37765f	-0.04479062
37	0xbf118f29	-0.5685907
38	0xbedcfc12	-0.43161064
39	0xbf47c633	-0.78036803
40	0x3e5516fd	0.2080955
41	0xbe4436cb	-0.19161527
42	0xbf5a296c	-0.85219455
43	0x3d4942e7	0.04913607
44	0xbef81e5f	-0.4846067
45	0x3e9015ce	0.28141636
46	0x3e60620a	0.21912399
47	0xbf280cb3	-0.6564438
48	0xbe75ccd2	-0.24003914
49	0x3b8c82eb	0.0042880676
50	0xbf04d256	-0.5188345
51	0xbedd2646	-0.43193263
52	0xbf25f395	-0.648248
53	0x3e8939d3	0.2680193
54	0xbebb6171	-0.3659778
55	0xbea9a388	-0.33132577
56	0xbedba58a	-0.42899734
57	0xbe93ddf8	-0.28880286
58	0xbf4e4a89	-0.8058248
59	0xbed42136	-0.41431588
60	0xbf5bcb27	-0.8585686
61	0xbe39b4fb	-0.18135445
62	0xbf1b5657	-0.6067862
63	0xbf5a5e9a	-0.853006
64	0x3ccebb5c	0.025235824
65	0xbee5c3d5	-0.4487597
66	0xbeafcaa7	-0.343343
67	0xbf55028d	-0.8320702
68	0xbd423d0f	-0.04742151
69	0xbeb7974c	-0.35857618
70	0x3e060c7d	0.13090701
71	0xbe8053d1	-0.25063947
72	0xbe225aa8	-0.15854895
73	0x3e9a1666	0.30095214
74	0xbed7f43a	-0.42178518
75	0xbe90a699	-0.28252104
76	0x3e1ffa99	0.15622939
77	0xbecfd9ff	-0.40596005
78	0xbdca8169	-0.09887964
79	0xbe97cb4d	-0.29647294
80	0x3cd1260c	0.025530837
81	0xbf022f9e	-0.5085391
82	0xbe801076	-0.2501256
83	0xbebf641e	-0.3738107
84	0xbf019b68	-0.50627756
85	0xbe0266b2	-0.12734488
86	0xbf6d23ca	-0.92632735
87	0x3e41cdf5	0.18926223
88	0xbe4be3cd	-0.19911118
89	0xbf6ce30d	-0.9253395
90	0xbf021ae3	-0.50822276
91	0xbee2798d	-0.4423336
92	0xbd914836	-0.07093851
93	0xbee997c2	-0.45623595
94	0xbe8e2b62	-0.27767473
95	0xbe0f6b42	-0.1400576
96	0xbf064424	-0.52447724
97	0x3e802069	0.25024727
98	0x3ecc9461	0.39956954
99	0xbf7d03f2	-0.98834145
100	0x3eb69e6f	0.3566775
101	0xbf1890e6	-0.595961
102	0x3eaefcb2	0.34177166
103	0xbec1a51c	-0.3782128
104	0xbf0ff428	-0.5623193
105	0xbdcbc641	-0.09949923
106	0xbedc299d	-0.43000498
107	0xbe80d331	-0.25161126
108	0xbe1284c2	-0.14308456
109	0xbe903dd0	-0.2817216
110	0x3e223429	0.1584021
111	0xbedf1c0a	-0.4357608
112	0xbf1f5c0f	-0.62249845
113	0xbf03573e	-0.51304996
114	0xbed2b16c	-0.41150987
115	0xbe100d3c	-0.14067549
116	0xbed3c83d	-0.41363707
117	0xbd56429c	-0.052309617
118	0xbe32d8ca	-0.17465511
119	0xbf1250e6	-0.5715469
120	0xbe12b395	-0.14326318
121	0xbeaa55fd	-0.3326873
122	0xbeac0bee	-0.33602852
123	0xbda2d8b3	-0.07951488
124	0xbec29016	-0.38000554
125	0xbe861ddb	-0.26194653
126	0xbf009552	-0.50227845
127	0xbedbc345	-0.42922416
128	0xbde26af8	-0.11055559
129	0x3e0850e0	0.13312101
130	0xbd19114d	-0.037370015
131	0x3dfa974f	0.12235891
132	0x3c9775ed	0.018488849
133	0x3cb7f77d	0.022456879
134	0x3d3c2b63	0.045939814
135	0xbdd809b4	-0.10548726
136	0x3ccc0418	0.024904296
137	0x3a5bec99	0.0008389443
138	0xbd312a8d	-0.04325347
139	0x3dfed197	0.1244232
140	0xbd26f38b	-0.040759604
141	0x3ddb486d	0.107071735
142	0xbc87f0e5	-0.01659436
143	0x3ceda557	0.029009504
144	0xbc1752ed	-0.00923608
145	0xbe488f7f	-0.1958599
146	0x3d4cbbc3	0.04998375
147	0x3d39e922	0.04538835
148	0xbdb19ef9	-0.086729
149	0xbd98ee44	-0.074673206
150	0x3c0539c5	0.008131449
151	0xbd69104b	-0.056900304
152	0xbe2bb8cd	-0.16769715
153	0xbdeafe9d	-0.11474345
154	0x3c92cec2	0.017920855
155	0x3ceabf87	0.02865578
156	0x3dcf4acf	0.101216905
157	0xbd1e9857	-0.0387195
158	0xbd6269f6	-0.055276833
159	0xbd35c0c8	-0.044373304
160	0x3db62c3f	0.08895158
161	0x3d681db6	0.05666896
162	0x3c699730	0.014257237
163	0x3cb4e376	0.022081118
164	0x3c42f389	0.011898884
165	0xbdebc569	-0.115122624
166	0x3c91cc63	0.017797654
167	0x3e07e6a3	0.13271575
168	0x3b771ee4	0.0037707621
169	0xbc266cc6	-0.01015777
170	0xbcfc49ee	-0.030796971
171	0x3cf659fb	0.030072203
172	0xbd2e51f1	-0.042558614
173	0x3bc1fd49	0.0059200865
174	0xbdc97716	-0.09837167
175	0xbd26f4bb	-0.040760737
176	0x3d6477bc	0.05577825
177	0x3c852dfa	0.016257275
178	0xbd003749	-0.031302724
179	0x3c44daf4	0.012015093
180	0xbd319ef5	-0.043364484
181	0xbd2c141c	-0.042011365
182	0xbd079aef	-0.03310674
183	0xbe01f13e	-0.12689683
184	0xbd49115f	-0.049088832
185	0x3ca006d0	0.019534498
186	0x3d0dd529	0.034627113
187	0x3d8c7bfa	0.06859584
188	0x3cb8dcba	0.022566188
189	0xbe0046bc	-0.12526983
190	0x3bee66d3	0.007275441
191	0x3d46701d	0.048446763
192	0xbe9ac010	-0.30224657
193	0xbe919d1e	-0.28440183
194	0xbef9ceac	-0.4879049
195	0x3da52c74	0.080651194
196	0xbd73473b	-0.059394103
197	0xbf5b3c8c	-0.8563926
198	0xbe9fc617	-0.31205818
199	0xbe20ad70	-0.15691161
200	0xbea8986e	-0.32928795
201	0xbeda0886	-0.42584628
202	0xbf5e2116	-0.86769235
203	0xbee5364a	-0.44767982
204	0xbe4327a1	-0.19058086
205	0xbf461f5c	-0.773916
206	0x3ed33271	0.4124942
207	0xbdc5697f	-0.096392624
208	0xbed84118	-0.42237163
209	0xbcf523ce	-0.0299243
210	0x3e1c102e	0.15240547
211	0xbe6c7065	-0.2308975
212	0xbf5b4050	-0.8564501
213	0xbea029fe	-0.31282037
214	0x3df6f676	0.120587274
215	0xbebfea17	-0.37483284
216	0xbea777ab	-0.32708487
217	0xbec3c86b	-0.38238844
218	0xbdef3c0e	-0.116813764
219	0xbf34c126	-0.7060722
220	0x3efc693f	0.49299046
221	0xbf4bf62a	-0.7967249
222	0xbec60eb0	-0.3868308
223	0x3f432f45	0.76244
224	0xbf44e646	-0.7691387
225	0xbed697cd	-0.4191269
226	0xbe19db78	-0.15025127
227	0xbd82ca46	-0.06386237
228	0xbe5e3e62	-0.21703485
229	0xbf0b1c1e	-0.5433978
230	0xbe903745	-0.28167167
231	0xbf5384bd	-0.8262442
232	0x3e4b6d25	0.19865854
233	0xbed490e9	-0.41516808
234	0xbf67892f	-0.904437
235	0xbe0d00eb	-0.13769881
236	0xbeeb3d0f	-0.45945022
237	0x3dbe5923	0.09294345
238	0x3dd94376	0.1060857
239	0xbf46df31	-0.77684313
240	0xbeb4665a	-0.35234338
241	0xbc51685c	-0.012781229
242	0xbf112d11	-0.5670939
243	0xbeda83ee	-0.4267878
244	0xbf1bdff7	-0.6088862
245	0xbd4207ba	-0.04737065
246	0xbef411a8	-0.4766972
247	0xbeab904a	-0.3350852
248	0xbf030b01	-0.51188666
249	0xbeb9b438	-0.36270308
250	0xbf4e7ce7	-0.80659336
251	0xbf0fcd8d	-0.5617302
252	0xbf59763d	-0.8494604
253	0xbe4d49e9	-0.20047726
254	0xbf0d12f4	-0.55107045
255	0xbf6fd1e2	-0.9367963
