checkpoints/Tend_LSTM_L2_bs16_train10-20-30_bsfirst/Tend_LSTM_L2_bs16_epoch265_best0.16156310221505543.pt (torch, 206215 bytes, 9 tensors)

rnn.weight_ih_l0 f4 [256, 3]
000000 7a 67 f5 3d 0d 82 d8 3d e1 2c 95 be 7f 7c 23 bd
       0.11982627 0.1057168 -0.29135802 -0.03991365
000010 4e 2d 23 be 16 eb f2 bc e4 c4 0b 3d 94 96 87 3e
       -0.15935251 -0.029653113 0.034123316 0.2648207
000020 fa 0f 9e bd e5 f6 32 bd 4d bf 50 3e 34 c9 82 be
       -0.07717891 -0.04369249 0.20385475 -0.2554413
000030 9e ce 4e 3e 17 3b 96 be e6 ad a7 3e 10 fd 32 3f
       0.20196006 -0.29341957 0.3274986 0.6991739
000040 74 9b 68 bd 75 32 13 bf ec 88 a5 3d 01 c3 0b 3e
       -0.056788877 -0.57498866 0.080827564 0.13648607
000050 04 c1 ec be 4f 77 6d 3d 10 6c 96 3d 61 ec b5 3e
       -0.4624101 0.05797511 0.0734483 0.35531905
000060 0b 8b c4 bd 96 24 87 3e 80 5d ef 3e f4 8d 9d 3e
       -0.09596833 0.263951 0.46751022 0.30772364
000070 30 66 b9 bd 28 a5 0a bf 3c dc a9 bd b5 7f b2 3e
       -0.09052694 -0.5415826 -0.082939595 0.34863058
000080 23 d6 0d be e4 2e de be 10 ab 87 3e 35 34 93 3e
       -0.13851218 -0.4339515 0.26497698 0.28750768
000090 df a0 3e 3e a3 dc 94 3e 09 a1 8a bd 54 49 c1 bd
       0.18616055 0.29074582 -0.06768996 -0.09437814
0000a0 fc 99 d7 be 4a cc 9d 3e e2 2e 73 3e 9f 2e 36 3e
       -0.42109668 0.30819923 0.23748353 0.17791222
0000b0 6b 02 c5 3a a0 20 35 3d 79 45 a1 be 48 61 4e 3e
       0.0015030628 0.044220567 -0.31498316 0.20154297
0000c0 1d 38 05 be 53 88 c3 3e 33 d0 63 bd f5 d7 38 3f
       -0.13009687 0.38189945 -0.055618476 0.72204524
0000d0 cc 8c 0f bf 20 82 5a 3e ee 5e b6 3d c5 d2 a7 3e
       -0.56074214 0.21338701 0.08904825 0.32777992
0000e0 af 81 6d bc 49 71 90 be e3 49 78 be 94 d5 9f be
       -0.014496251 -0.2821143 -0.24246936 -0.31217635
0000f0 db e1 28 be 76 5c 5c 3d 7a ed 9f 3e 90 02 14 3f
       -0.16492407 0.053799115 0.31235868 0.5781641
000100 00 c3 d9 be 61 b3 f8 be ad 59 99 3d 72 32 87 3e
       -0.42531586 -0.48574355 0.074878074 0.26405674
000110 5f b3 a3 bd 7c fe a7 3e f2 f1 cc 3e 51 57 76 3e
       -0.07993197 0.32811344 0.4002834 0.24056746
000120 1c 11 e2 bd 5e 6d da 3d d8 b4 bb be 12 d0 06 3f
       -0.110384196 0.106653914 -0.3666141 0.5266124
000130 fb ed 8f be d1 95 34 3e 58 d1 2e be eb 55 77 3e
       -0.28111252 0.17635275 -0.17072046 0.24153869
000140 de 0e 01 be fe 3d 33 3d 84 db e1 3d 61 55 1c bf
       -0.12603328 0.043760292 0.110281974 -0.6106778
000150 77 bb 1f 3e 93 c1 36 3e 42 e9 f2 3d 3f c5 8c 3f
       0.15598856 0.1784728 0.11860897 1.0997695
000160 2d 66 20 3f ed 01 4a 3f 4e 68 cc bd 52 07 3b 3d
       0.6265591 0.7890919 -0.09980832 0.045661278
000170 86 22 95 3c 5a f6 b2 be 3f 13 cf be 08 61 48 bf
       0.018204939 -0.34953576 -0.4044437 -0.7827306
000180 5e b1 9d 3e 31 ec cd 3e 3e 7e cd be 19 65 61 bd
       0.30799383 0.40219262 -0.40135378 -0.055028055
000190 fd 83 c8 3e 28 23 dc bd 99 3c f4 bc 10 9a a8 3e
       0.391632 -0.10748893 -0.029814051 0.3293004
0001a0 50 03 3b be ec cf d0 be dd d6 7e be b9 e9 a5 be
       -0.18262982 -0.40783632 -0.24886651 -0.3240488
0001b0 3f de d0 3b 12 62 dc bc b7 ef e1 3e eb ef 88 3d
       0.00637415 -0.026902232 0.441282 0.06686386
0001c0 81 6d 40 3e e1 0d a8 be 77 bc 48 bd 61 72 cc bd
       0.18791772 -0.3282309 -0.04900786 -0.099827535
0001d0 54 07 1c 3f b7 3b 1a 3e 95 57 96 3d 24 9c 52 be
       0.6094868 0.15061842 0.07340924 -0.20567375
0001e0 55 3a 16 be 51 bc 01 3e 05 5e 3b be 48 fe 87 be
       -0.1467069 0.12669493 -0.18297584 -0.2656119
0001f0 ee 0f 5a 3e c9 5c 50 be a5 ef 21 be 96 81 eb be
       0.21295139 -0.20347895 -0.15814073 -0.45997304
000200 4d 7c b8 be 7a ba 4c 3d 91 88 2f be d2 18 07 3f
       -0.36032334 0.049982525 -0.1714194 0.5277225
000210 2c c8 dc 3d f0 63 97 3e bc ae a7 3d b9 ef 53 3e
       0.10780367 0.29568434 0.08187625 0.20696916
000220 51 80 48 3d b6 ed c6 3d be e6 16 be 2a 9d da 3d
       0.048950497 0.097133085 -0.14736459 0.10674508
000230 ca b0 7d be dd 86 2b bf 49 ec ce be da 38 3f 3e
       -0.24774471 -0.6700266 -0.40414646 0.18674031
000240 30 2c 87 3c a2 8a 52 be 1f 9f 7a bd 59 4a ac bd
       0.016500562 -0.20560697 -0.061186906 -0.08412618
000250 ef 0b 76 3d 03 cf 79 be 0a 3e ce bd fd f5 c1 3e
       0.060069975 -0.24395375 -0.10070427 0.37882987
000260 91 00 64 be 22 ff 2b 3d c0 2b 34 3e 8b b1 0e be
       -0.22265841 0.04199136 0.17594814 -0.13934915
000270 2a f0 cd be b4 53 cd bd f5 75 98 3e 67 43 ad 3e
       -0.40222293 -0.10025731 0.29777494 0.33840486
000280 5c fd 83 3b 86 ef 91 3e 58 b7 37 3e bc cb 9e 3e
       0.0040280055 0.28503054 0.17941034 0.31014812
000290 46 e0 95 be 45 7e 9d be c7 15 ac be 04 2d 97 be
       -0.2927267 -0.30760399 -0.33610365 -0.29526532
0002a0 f8 9a bf be 7b 7b a4 be fa b7 e5 3c 55 13 62 be
       -0.3742292 -0.32125458 0.028041828 -0.22077687
0002b0 e9 8d a3 be b0 01 19 3e a3 26 92 3d 18 1b 9d 3e
       -0.31944206 0.1494205 0.071362756 0.30684733
0002c0 1f e8 09 bc 91 3d 5c bd 49 fa f4 3d 02 50 19 3f
       -0.008417158 -0.05376965 0.119618006 0.5988771
0002d0 07 a5 49 3d 01 30 74 be 66 d9 34 be f4 17 1e 3f
       0.049229648 -0.23846437 -0.17661056 0.617553
0002e0 99 ac c2 3e 9d ce fb 3e 36 b2 b2 bd 89 1a fd be
       0.38022307 0.4918107 -0.08725397 -0.49434307
0002f0 3d 0f cf 3c 84 fc bf be 2b 00 62 be 19 2a a7 be
       0.02527582 -0.37497342 -0.22070377 -0.32649305
000300 c7 52 ce bd 9b e6 c3 3d 52 ca 94 be 1d 62 76 be
       -0.10074382 0.09565469 -0.29060608 -0.24060865
000310 66 8e 18 3e e7 cc 45 3e 75 82 ea 3d 28 a2 b8 3d
       0.1489807 0.19316445 0.11450664 0.09015304
000320 b1 2a 08 be ec 32 fd bd 8d ee 89 3e aa 5d 9b be
       -0.13297535 -0.12363228 0.26939812 -0.30344898
000330 c6 53 3d bd 69 af b7 be 2d a0 90 bd 01 94 1c be
       -0.04622247 -0.35876015 -0.07061801 -0.15290834
000340 36 22 70 be 00 7a 59 bf e4 15 8c be 7e f9 23 be
       -0.2345055 -0.8495178 -0.2736045 -0.16013142
000350 27 01 8c be b0 4c 8e 3e 6a fb 9b 3e 73 2c 99 3e
       -0.2734463 0.27792883 0.3046525 0.29916725
000360 71 79 af bd 44 7a a6 3e 83 be bd 3d 84 59 1b bf
       -0.08568085 0.32515156 0.09264853 -0.60683465
000370 3b 2e f9 be 4d 54 6c be c4 70 bd be e0 50 fe 3c
       -0.48668084 -0.23079033 -0.37000096 0.031044424
000380 d3 9b f0 be 7d 7d 97 be 1f 3a bc 3e c3 f4 bc 3e
       -0.46993884 -0.29587927 0.36763093 0.36905488
000390 bc cc 5a 3d b2 de ad 3e d1 e3 88 be 0a e0 79 bd
       0.053417906 0.33958966 -0.2673631 -0.061004676
0003a0 9c 31 82 be 33 dc 88 bc 38 0a 56 bd a6 9c 0e 3e
       -0.25428474 -0.016706562 -0.05225584 0.13926944
0003b0 73 06 59 be 29 2f a2 be 55 af a4 be a8 7a 01 bf
       -0.21193866 -0.31676605 -0.32165018 -0.50577784
0003c0 56 c6 c7 be 87 7c 96 3e b9 76 8d be 12 f0 f6 be
       -0.39018506 0.29391882 -0.2762964 -0.48230034
0003d0 a9 e7 71 bf ab e1 b7 be e4 e6 af be 71 b1 c4 3c
       -0.9449411 -0.35914358 -0.34355843 0.024010392
0003e0 69 03 97 be ce 69 33 be 99 36 4c bd 8b c9 7c bd
       -0.2949479 -0.1752083 -0.049856756 -0.061715644
0003f0 6a b1 45 be 34 1d 99 bc 89 23 9e be ef fd 28 3f
       -0.1930596 -0.018690683 -0.30886486 0.6601247

rnn.weight_hh_l0 f4 [256, 64]
000000 68 a1 e8 bd cb 71 ec bb 94 58 9c bd d8 56 c3 bc
       -0.11358911 -0.0072157136 -0.076340824 -0.023845121
000010 45 91 b6 3d 08 61 a4 3e 95 05 1a 3d 69 c5 ed bd
       0.08914427 0.3210528 0.03760298 -0.116099186
000020 e7 39 a4 3d a4 35 50 be e5 ca 6e bc ff fe c3 3c
       0.080188565 -0.20332962 -0.014574741 0.023925303
000030 fe c1 aa bd 18 33 77 ba 35 fd 58 bd bc ff ad bd
       -0.08337782 -0.0009429916 -0.052975852 -0.08496043
000040 b4 dd 23 be 18 d5 85 be 1b f8 c7 bd 5e 8f f3 3a
       -0.16002542 -0.2613914 -0.09764119 0.0018582155
000050 22 e1 09 bc 8d 56 bc bd 6b b2 f0 bd 26 ee 1b be
       -0.008415492 -0.09196196 -0.117527805 -0.15227565
000060 93 74 17 bb b7 5f dd 3c 25 88 51 3e 8a de 2b 3e
       -0.0023110255 0.02702318 0.20462091 0.1678411
000070 18 85 0b 3d be 83 0d bf 4f 9a 11 3e 37 59 8f bd
       0.034062475 -0.5527915 0.1421902 -0.06999438
000080 e7 38 56 3e 9d 05 51 3e 19 89 32 3e 77 88 8f ba
       0.20920144 0.20412298 0.17435111 -0.0010950704
000090 73 63 3c bc 13 71 32 bc fe 30 1a be 1c 97 8d bd
       -0.01149832 -0.010891217 -0.15057752 -0.069135875
0000a0 50 d3 23 3c 00 ac e6 bd 0b 73 e0 bc 68 bf f0 3c
       0.009999111 -0.11263275 -0.027398607 0.029388145
0000b0 e9 22 91 bd ea 55 32 3e 30 a9 d5 3c 07 79 67 bb
       -0.07086737 0.17415586 0.026081651 -0.003531994
0000c0 21 ab 9d bd 80 ec 00 bc ae dd db bd b3 81 3d bc
       -0.07698656 -0.007868886 -0.107356414 -0.011566567
0000d0 4d 2e 94 3e 26 54 16 3d 51 73 65 bd 75 5b 0d bd
       0.28941575 0.036701344 -0.056018177 -0.03451105
0000e0 7c 11 90 3e 4f 00 1a 3d c5 ef 04 be 72 c7 7f 3e
       0.2813834 0.03759795 -0.1298209 0.24978426
0000f0 58 55 b9 3d 6d e0 d3 be 68 29 fa 3d d2 17 16 3c
       0.09049481 -0.4138216 0.12214929 0.009160953
000100 4c ee 23 bd 2d 90 52 be a8 d2 e0 3d 53 72 1c be
       -0.04002218 -0.20562811 0.109776795 -0.15277986
000110 b6 4c bb bd c4 db 9c be 04 2e a1 3d 87 8d 15 3e
       -0.09145491 -0.30636418 0.07870105 0.1460477
000120 67 38 a7 bd cf 76 47 bc e0 fe 29 be b5 1a 4f 3e
       -0.08165055 -0.012174322 -0.16601133 0.20225032
000130 45 b0 92 3c b7 24 b8 3c 15 f8 56 be c2 99 1a bd
       0.017906317 0.022478445 -0.20993073 -0.03774429
000140 32 87 5d 3b ef da 48 3d 02 5e 57 be 45 87 af 3a
       0.0033802507 0.049036916 -0.21031955 0.0013391754
000150 de 8f 34 bd be 14 06 3f d7 26 84 bc 30 fc 92 3a
       -0.044082515 0.523754 -0.016131802 0.0011214074
000160 ea b1 0f bd eb af d1 bd f1 b9 87 bd 36 3c 0e be
       -0.03508178 -0.10238632 -0.066272624 -0.13890156
000170 a3 ce 4f 3d de 73 cf 3d 85 e6 c6 3d 6a fd 02 bc
       0.050734174 0.10129522 0.09711937 -0.007994989
000180 41 0c 0e be 2a 6e 03 3d 1e 7b 88 3d e4 ea 8a 3b
       -0.13871862 0.032087483 0.06664108 0.004239427
000190 ac 17 2e 3c aa bd 04 bd 4b 63 75 be 56 f2 37 be
       0.010625761 -0.03240744 -0.23963659 -0.17963538
0001a0 96 bf 2c 3d c7 98 54 bd e0 9d 4d bd d5 b2 bc 3c
       0.042174898 -0.051903512 -0.05019939 0.023034493
0001b0 5a c7 3e be 1f 7f 47 bd 9d aa 61 3d 52 c6 0c bd
       -0.18630734 -0.048705216 0.05509435 -0.03436882
0001c0 24 72 82 bd 07 45 94 bc 7d 0d 81 be 37 4e 11 3e
       -0.06369427 -0.018099321 -0.25205603 0.14189993
0001d0 55 b3 6f 3e 35 78 04 3e 5e ca a0 bd d0 09 3b bd
       0.23408253 0.1293648 -0.078510985 -0.045663655
0001e0 f9 7d 71 bd 98 4e 6b 3c f6 f4 49 3d 55 84 c9 3e
       -0.058958028 0.014362 0.04930588 0.39358774
0001f0 54 b3 8f 3d f0 44 01 3e ae c8 40 39 83 a5 2c 3c
       0.07016626 0.12623954 0.00018385306 0.010537508
000200 48 10 c1 bd e1 37 ae 3d 63 9b 68 bc c7 e3 1c bc
       -0.094269335 0.08506752 -0.014197203 -0.009575791
000210 b1 c0 51 3d 10 4b 30 3d 04 ff 9e bc be 26 35 be
       0.051209155 0.043040335 -0.01940871 -0.1769056
000220 2e ce dc 3d e9 0c 42 bc 9a 9a 38 bd 91 e4 c3 3c
       0.10781513 -0.011843898 -0.045069315 0.0239127
000230 9b 37 0f be 08 bb 8b 3d fe 3c 55 bd 89 1c 02 bd
       -0.13986056 0.06822783 -0.05206012 -0.031765494
000240 0e f8 10 3d a5 16 cf 3c e8 07 6f bd 1c 5b 02 3d
       0.035392813 0.025279352 -0.05835715 0.03182517
000250 c6 7b 4d 3d d6 e9 f3 3d e3 77 c1 3a 8f 8c 46 bc
       0.050166868 0.11909835 0.001476046 -0.012118473
000260 d0 4b 5a 3d 01 b2 24 3d 50 62 9d bd 87 b0 0c 3e
       0.053294957 0.04020882 -0.07684767 0.13739215
000270 02 f3 19 3d d5 7c 6b be de b8 53 3d 6d 97 49 bd
       0.037585266 -0.22996838 0.051689975 -0.049216677
000280 6d 3f 05 3e f4 20 f4 3d ac 32 dd 3c 38 8d 36 bc
       0.13012476 0.11920348 0.027001701 -0.011142068
000290 f2 89 9f 3d 59 da 00 bd f8 d6 95 bd c3 eb e2 bd
       0.07789983 -0.031458233 -0.07316393 -0.11080124
0002a0 c0 79 3f bd 35 7a f8 bd 0f 30 7e bd ec 1a f4 3d
       -0.04674697 -0.12132684 -0.06205755 0.119191974
0002b0 01 0d 05 be 04 df d5 3d 59 f0 3f 3d 1f db 51 bd
       -0.12993242 0.104429275 0.046860073 -0.05123436
0002c0 44 27 9a bb ea 0e aa 3c 9c cf 03 3d 57 21 b7 3c
       -0.004704388 0.020759065 0.032180414 0.022354765
0002d0 ed 3b 9b 3d 5e 7a 2f bd 8e b7 15 3d 89 b3 9b be
       0.07579789 -0.042841308 0.036552005 -0.30410412
0002e0 f7 ff fd bc be 4c 30 bb c1 80 16 be 93 3b bc bd
       -0.031005843 -0.002690121 -0.14697553 -0.091910504
0002f0 6e 7e 95 3d 63 26 33 bd 2d 23 cf 3c c3 6d 0e bb
       0.07299505 -0.04373778 0.025285328 -0.0021732904
000300 8d 45 a7 bd e7 b1 0f be c8 5d d2 bd c8 ed 96 bd
       -0.08167563 -0.14032708 -0.102717936 -0.07369572
000310 f6 82 60 3c dc 61 df 3d 0b 02 11 3d 87 ea bc 3b
       0.0137030985 0.10907337 0.03540234 0.0057652625
000320 78 1e 9f 3d 67 7a 9d bd 19 34 6b 3d c2 01 17 3d
       0.07769483 -0.07689362 0.05742273 0.03686691
000330 89 8d b9 bd 1a f2 2a ba 95 3d b7 bc ad 9b 03 3b
       -0.09060199 -0.00065210613 -0.022368232 0.0020081804
000340 33 54 e7 3c e2 f8 6f 3d 1f 96 96 3c de 75 b8 ba
       0.028238392 0.058586963 0.01838213 -0.0014073213
000350 b2 72 0b bc 06 b3 19 bd e3 03 b9 bc 2c 02 6f bd
       -0.008511232 -0.037524246 -0.022584861 -0.05835168
000360 68 51 97 3b d4 15 15 3d 9c 4e 69 bc 93 35 cb 3d
       0.0046178587 0.03639777 -0.014239933 0.09922328
000370 17 6a 86 3c a3 b7 73 be 39 a5 f5 3c 43 d1 9d bc
       0.01640801 -0.2380052 0.02998601 -0.019264823
000380 37 ac 4b 3e 2c 80 dc bc 84 04 6f bd 1c 11 a1 ba
       0.19889913 -0.026916586 -0.058353916 -0.0012288424
000390 a0 31 80 bc 70 da c2 bc 8d 17 d2 bc 77 b3 f0 3c
       -0.015648663 -0.0237858 -0.025645996 0.02938245
0003a0 c2 f1 7a 3c df 3d 36 be 67 29 19 3c d5 94 58 3c
       0.015316429 -0.1779704 0.00934825 0.013219078
0003b0 d1 09 00 bc 1b c4 b1 3d 33 4f a2 3c 41 c8 84 39
       -0.00781484 0.08679982 0.019813156 0.00025326203
0003c0 4c 70 58 3c 66 ac 58 bc 0e 03 15 3d c5 9c 0a 3e
       0.013210367 -0.013224697 0.036379866 0.13536365
0003d0 76 3d ab 3d 69 38 35 3d 17 b1 6e bd d3 e9 00 be
       0.08361332 0.04424325 -0.058274355 -0.12589197
0003e0 de d5 00 3e 64 a8 2e bc ce f2 8e bc 86 02 7b 3d
       0.12581584 -0.010660265 -0.017449763 0.061281703
0003f0 bb cc db bc a1 b8 07 be 81 b2 36 3c 9d 03 ee 3a
       -0.026831022 -0.13254024 0.011150957 0.0018159036

rnn.bias_ih_l0 f4 [256]
000000 40 cf 6e bd d5 30 25 be 88 ac fd 3d c0 a3 da bd
       -0.058303118 -0.16131909 0.12386423 -0.10675764
000010 ff f2 00 bc f9 c1 e7 3e 9b fa 64 be cf 2e 97 3d
       -0.007870435 0.45265177 -0.22361223 0.07381975
000020 d6 28 be 3e 1a c7 1e 3e 34 4c ac 3d 25 1c 87 bd
       0.3714053 0.15505639 0.08412972 -0.06597165
000030 a8 48 65 3e 7b b3 58 be ac b7 09 3e c3 a2 83 bd
       0.22390997 -0.21162216 0.13448972 -0.06427529
000040 a6 d8 7f 3e 6e e1 32 3f 36 15 55 3e 23 63 ac be
       0.24984989 0.6987523 0.20808873 -0.33669385
000050 53 15 37 be 58 89 60 be d7 c8 72 bd d9 75 e9 3d
       -0.17879228 -0.21927392 -0.059273567 0.11399431
000060 07 7d 09 be 1e 32 ca 3e f1 4b 82 3c 3c 77 0a be
       -0.134266 0.3949136 0.015905352 -0.13522047
000070 43 e6 82 be ba df eb 3e 64 9c 65 be f8 a3 97 be
       -0.255663 0.46069127 -0.2242294 -0.29617286
000080 a9 8d 9a 3d b9 2c aa bd 32 8e aa 3d 14 9c 3c bf
       0.07546551 -0.083093114 0.08327903 -0.73675656
000090 7b 83 16 be d6 13 78 bc c6 de 24 3e 3d 86 85 3d
       -0.14698593 -0.015141448 0.16100606 0.065197445
0000a0 2b 4a e0 be e3 47 04 3e 38 da 0c bf 14 ef 17 be
       -0.43806586 0.12918048 -0.55020475 -0.14837295
0000b0 01 5f ac bd bc 99 5a bd e7 dd 90 be 3b c0 f8 be
       -0.08416558 -0.05336927 -0.28294298 -0.4858416
0000c0 df 1a 9d bd 22 08 fe be 28 75 11 3e ee ea cd 3d
       -0.07671141 -0.4961558 0.14204848 0.10054575
0000d0 d4 4b ca be 00 4c 37 3d 28 e7 71 bd a0 af 65 3c
       -0.39510977 0.044750214 -0.05905834 0.014018923
0000e0 73 0e 3c 3e 32 26 26 bd 5a cb 71 be 60 f4 0b be
       0.18364887 -0.04056377 -0.23612729 -0.1366744
0000f0 a9 cc de bc ad 8c a3 3d 6a 90 b7 3d 50 7c 43 bf
       -0.027197199 0.07985816 0.08963092 -0.7636156
000100 fd c0 72 be 81 f1 67 3c 11 f5 1b be 4c ff 4f bd
       -0.23706432 0.0141567 -0.15230204 -0.05078058
000110 39 82 2e bd 87 07 d1 be 7e d0 18 bf a5 d5 34 3d
       -0.04260466 -0.40826055 -0.59693134 0.04414906
000120 72 2b 36 3e 7b eb f3 be 05 9d 03 be 2a 3a 2e be
       0.1779001 -0.47640595 -0.12852867 -0.17014375
000130 75 e3 79 bd d8 0d bb be a6 f0 a1 bd df f4 c4 be
       -0.061007936 -0.36534 -0.07907228 -0.38468072
000140 e5 20 c8 bd 00 cd 39 be a1 12 73 3d f3 8f d7 be
       -0.09771899 -0.18144608 0.059343938 -0.42102012
000150 51 9d e1 be c8 6b 9c 3d 0c c7 d9 3d fe 9a 3c 3e
       -0.44065335 0.07637745 0.10633668 0.184185
000160 9d 72 68 be 84 d1 e6 be 26 87 db bd a8 1d 67 be
       -0.22699971 -0.45081723 -0.10719137 -0.22569907
000170 4d a4 b3 be 6b 35 6a 3b 53 3e cb bd 62 2e 14 3c
       -0.3508629 0.0035737406 -0.09923997 0.009044262
000180 67 3c b2 bd c6 b9 f1 bd 8f 72 29 3e a9 9b cd be
       -0.08702927 -0.118030116 0.16547607 -0.40157822
000190 76 2a 0e bf 8a 59 7b be 9b 46 72 be ba ec ad bc
       -0.5553354 -0.24545875 -0.23659746 -0.021231044
0001a0 04 3f c2 be 2c 2d 0b 3e 76 76 e1 be e8 54 8a be
       -0.37938702 0.1359145 -0.4403569 -0.27017903
0001b0 2b df 17 bd 7e 89 9e be d5 ed b6 be 00 39 9e be
       -0.037078064 -0.30964273 -0.35728326 -0.30902863
0001c0 90 25 23 be 23 01 cd be 96 b1 87 3d 29 69 13 3e
       -0.15932298 -0.4003993 0.06625669 0.14395584
0001d0 e5 bc 71 be d7 bd 61 be 7c a5 bc be 9b f8 c3 bd
       -0.23607214 -0.22045074 -0.36845005 -0.09568902
0001e0 66 dc 0d bd d6 c3 e5 be be 4e 13 be ad 38 ca be
       -0.034634016 -0.44875973 -0.14385507 -0.39496365
0001f0 01 20 a7 be de ec 9e be c5 09 c9 be d7 ec af be
       -0.32641605 -0.3104009 -0.39265266 -0.34360382
000200 de 09 69 3c 8b a6 8b 3d ee f3 1f be 8d a2 84 3c
       0.014223544 0.06818875 -0.15620396 0.016190792
000210 ab 3d 8f bd d8 91 bb bd cf 84 31 3c 45 44 55 bc
       -0.06994184 -0.09158677 0.010834887 -0.013016765
000220 42 9b b2 bb 55 63 40 3d 40 a4 bf bd ce c5 66 bc
       -0.005450637 0.04696973 -0.093575 -0.014085246
000230 06 05 9b bd ac 3d 16 3d 2e b6 0c 3e b9 0d 24 bb
       -0.075693175 0.03667991 0.13741371 -0.0025032593
000240 09 c4 97 3d 9c 0a fd 3d 1f 48 e0 bd cf 04 c0 bd
       0.074104376 0.12355539 -0.10951256 -0.09375917
000250 9a 0c 0e 3c 00 b4 46 bd e8 f9 69 bd ea f6 28 3d
       0.008669997 -0.048511505 -0.057123095 0.0412511
000260 53 db f1 3c 0a e4 aa 3c 25 30 03 be 78 42 87 bc
       0.029523527 0.02086069 -0.12811334 -0.016511187
000270 83 51 6f bc cb 4f 5d 3c 0b 7c 4f bd f8 6a b2 3d
       -0.014606836 0.013507794 -0.050655406 0.08711809
000280 b9 3d 4e 3d 39 d6 55 bd 8f fe b2 bd 27 c9 4c 3d
       0.050351832 -0.05220625 -0.087399594 0.04999652
000290 f0 50 f5 ba 7a e5 81 bd 31 3f f0 3d fd 67 a3 3d
       -0.0018716138 -0.06342597 0.11730803 0.079788186
0002a0 fd 15 46 3d 28 b6 d4 bd 2b 7a 15 3e c6 be 0d 3d
       0.048360813 -0.10386306 0.14597385 0.034605764
0002b0 37 f3 bd ba cf aa 6f 3d 62 b7 77 bd 20 9b c6 3c
       -0.0014492039 0.058512505 -0.06047762 0.024243891
0002c0 f7 e5 88 3c 54 67 53 bd 94 89 1a bd 13 6a 87 3c
       0.016711218 -0.051612213 -0.03772886 0.016530072
0002d0 c7 44 a7 bc ff bf 4c bd b8 81 06 3d a9 8f 8b bd
       -0.020418538 -0.04998779 0.032838553 -0.068145104
0002e0 34 df b5 bd 55 55 81 bd 89 0f 2f 3d 04 fb 81 3d
       -0.08880463 -0.06315104 0.042739425 0.063467056
0002f0 1b 20 98 bd 6d 58 1d bc 0e 46 34 bd 83 05 b3 bc
       -0.07427999 -0.009603602 -0.04401212 -0.021853214
000300 02 a3 0c 3d 9f fd 28 be 1f 06 04 bc 6b af 48 be
       0.034335144 -0.16502999 -0.0080581 -0.19598167
000310 78 84 12 3e 9f 45 c3 3e 98 9a 1e be 33 f6 a0 3c
       0.14308345 0.38139054 -0.1548866 0.019648647
000320 23 0d ab 3e 70 4c 77 3e 62 5c 0c 3d 85 ac 8c be
       0.3340846 0.24150252 0.03426779 -0.27475372
000330 19 d8 77 3d d2 30 d3 be e7 79 36 3e 1f ed 13 be
       0.06050882 -0.41248184 0.1781994 -0.14445923
000340 2b 71 61 3e 80 ad 03 3f 92 6f 89 3e df c1 be be
       0.22015826 0.51436615 0.26842934 -0.37257287
000350 df c5 6e bd 96 a6 de be 3d 05 a4 3c cd 38 ee bb
       -0.058294173 -0.4348647 0.020022029 -0.007269955
000360 09 7a 00 be 0b 94 f2 3e 4d fa 99 bd 9e da fc bd
       -0.12546553 0.47378573 -0.07518444 -0.123463854
000370 be b1 fd bd 7f 08 c3 3e c6 b0 c9 bd 8d 50 9b be
       -0.12387417 0.3809242 -0.0984817 -0.30334893
000380 e5 ea ca bc c9 9d 3e 3d 77 50 ed 3d 2d 6a 32 bf
       -0.02477021 0.046537194 0.11587613 -0.6969326
000390 53 94 9c bd 9b c5 e5 bd f3 43 1c 3e 23 46 11 bd
       -0.07645478 -0.11219331 0.15260296 -0.03546728
0003a0 87 96 01 bf 68 1d 52 3e 68 43 b4 be 05 ae 6f be
       -0.5062031 0.2051903 -0.35207677 -0.23406227
0003b0 1f 70 f2 bd 61 3b fe 3b ea 73 a4 be f1 eb f8 be
       -0.11837792 0.0077585434 -0.32119685 -0.4861751
0003c0 df 8d 2e bd ad d7 c1 be 93 a9 d8 3d c8 55 f6 3b
       -0.042615768 -0.3785986 0.10579219 0.00751755
0003d0 86 60 aa be 86 a6 e9 bd dc f4 36 be be a5 cf bd
       -0.33276767 -0.11408715 -0.17866844 -0.10139035
0003e0 30 3f e3 3d 86 52 40 bd 6d 64 5e be e3 1d 3d be
       0.110960364 -0.0469537 -0.21717997 -0.18468432
0003f0 50 bc 80 bd 7f fd c8 bc 4b 17 64 3e 89 e4 4f bf
       -0.06285918 -0.024534939 0.2227451 -0.8120809

rnn.bias_hh_l0 f4 [256]
000000 1b c2 22 bd 70 30 80 be a5 6a 28 bd 10 73 df bd
       -0.039735895 -0.25036955 -0.04111733 -0.10910618
000010 7b 1e 13 3e 4c 4f e4 3e 06 44 13 be 79 71 90 3d
       0.14367096 0.4459175 -0.14381418 0.07052893
000020 5d c5 94 3e b2 13 33 3e bc 18 32 3e 41 f3 4b be
       0.29056826 0.17487982 0.17392248 -0.19917013
000030 b5 50 9e 3d e7 77 c2 be e3 12 2a 3e 25 7c 72 bd
       0.077302374 -0.37982103 0.16608767 -0.059200425
000040 ac 77 8b 3e c4 7b 22 3f d6 fd 02 3e de da df be
       0.2723974 0.634701 0.12792143 -0.4372167
000050 e5 1e 89 be c9 c1 a9 be 3f a9 a8 3c d5 59 a0 3c
       -0.26781383 -0.3315566 0.020588515 0.019574085
000060 5e 48 8e bd 73 d6 dc 3e 1b 6b d8 bd 1e 96 06 be
       -0.06947397 0.43132362 -0.10567304 -0.13143203
000070 dc 32 5a be e6 5e 0d 3f a4 6e 8c be c0 c1 9d be
       -0.21308464 0.5522293 -0.27428162 -0.30811882
000080 e0 7d 76 3d 47 35 08 be d8 11 e7 3d 5f ba 26 bf
       0.060178638 -0.13301574 0.112827 -0.6512813
000090 90 25 52 be 02 b2 dd bd 5d d6 81 3e d3 f7 1d bd
       -0.20522141 -0.10824968 0.2535886 -0.03856642
0000a0 ae 74 fa be 6c 3f b0 bb 6d a1 b8 be ec 91 42 bd
       -0.48917145 -0.005378654 -0.36060658 -0.047502443
0000b0 f7 39 c5 bd e1 56 6f bc 8e 4c c2 be ee 94 06 bf
       -0.096301965 -0.014608116 -0.37949032 -0.52571
0000c0 95 0d a4 b9 27 b2 bd be 2f 7b 04 3e 49 b6 ab 3c
       -0.00031290637 -0.37049982 0.12937616 0.020960944
0000d0 00 74 9f be b1 2f ae 3c 49 27 a2 3b ce bc 44 bc
       -0.31143188 0.021262975 0.004948531 -0.012007905
0000e0 e0 e5 c8 3d e9 55 92 bd fa 34 cb bd eb 0c 27 be
       0.0980947 -0.07145292 -0.09922214 -0.16313522
0000f0 65 e2 80 3d 0c 93 c1 3d 7c e3 88 3e a5 a1 38 bf
       0.06293181 0.09451875 0.26736057 -0.7212165
000100 3b f2 0e be 2b de 3b 3e 58 30 a7 3d 37 dd 29 be
       -0.13959591 0.18346469 0.08163518 -0.16588293
000110 cf 38 65 be 56 17 bd be 12 47 0e bf 45 27 9a bd
       -0.22384952 -0.36931866 -0.55577195 -0.07527021
000120 46 f2 71 3e 5c 30 d6 be c6 50 1f be 1c ad b7 bc
       0.23627576 -0.4183377 -0.15558156 -0.022421412
000130 a5 50 79 3d fb 5e d1 be 38 f7 ec bc 74 ab d4 be
       0.060867924 -0.40892777 -0.028926477 -0.41537058
000140 bb 12 83 bd d7 e9 3e be f5 13 f1 3c 92 30 04 bf
       -0.06400057 -0.1864389 0.029428462 -0.5163661
000150 af 74 d3 be 2a 2f e3 3c 0a 9e dc 3d da ee a7 3d
       -0.4129996 0.02773245 0.10772331 0.08199854
000160 ce 97 51 be fd c8 e8 be 6b 4c 14 be 80 fe 02 be
       -0.20468065 -0.45465842 -0.14482276 -0.12792397
000170 01 f1 c4 be 9d 3b 84 bd 9d 54 cb bd 26 b6 25 bd
       -0.3846512 -0.06456683 -0.09928248 -0.040456913
000180 ec 79 38 bb 98 58 45 bc 52 0d f1 ba 75 1f cb be
       -0.0028148843 -0.012045048 -0.0018390811 -0.39672437
000190 ae ae eb be 31 5c 7a be fd a4 fa bd cd ce 06 be
       -0.46031708 -0.2444923 -0.122385 -0.13164826
0001a0 3b db ce be 8c d5 db 3d 82 ad e8 be 2b a0 ef bd
       -0.40401635 0.1073409 -0.45444876 -0.117004715
0001b0 12 bf 8e bd a3 0b 7d be 83 56 cc be 08 e6 83 be
       -0.069700375 -0.2471147 -0.39909753 -0.25761437
0001c0 41 0f 8b 3d 37 55 b5 be b4 d9 7d 3d bf e7 a3 bb
       0.06790019 -0.35416576 0.061975196 -0.0050019915
0001d0 31 2b 73 be 7d ca 29 bd 48 ce da be d7 c3 21 3c
       -0.23746945 -0.041452873 -0.42735505 0.009873352
0001e0 4b 6f 8e bd a9 f1 e1 be 7e 33 79 bd 9b 58 64 be
       -0.06954821 -0.44129685 -0.060840122 -0.22299425
0001f0 5d 10 af be bf 6c 87 be 9f e6 f8 be 42 c5 b8 be
       -0.34192172 -0.26450154 -0.4861345 -0.36087996
000200 e9 05 e3 bd 01 86 1b be 84 44 03 3d 0b 67 a1 bd
       -0.11085112 -0.15187837 0.032047763 -0.07880982
000210 19 23 10 be 49 92 54 bd 48 8f b9 3c 37 f0 21 3e
       -0.14075889 -0.05189732 0.02265133 0.15814291
000220 fe 57 39 be 46 e9 66 3d 19 f7 42 3d ce 3e 1c 3e
       -0.18099973 0.05637481 0.047598932 0.15258333
000230 cb ce b6 bc 8c 8b 3a be ca 8a ad bb b5 e8 92 3d
       -0.022315403 -0.18217295 -0.005296086 0.071732916
000240 5e 18 1e 3c ad 54 93 3d eb e4 d7 bc 6f 2c 24 3d
       0.009649364 0.07193885 -0.026354274 0.040081438
000250 2d b8 71 3c 25 cb ce bd dd a9 d7 bd 63 4a 05 be
       0.014753384 -0.100973405 -0.10530446 -0.13016658
000260 a2 03 c1 3d 3a 84 68 3d 96 d7 2f 3c 90 2b b3 3d
       0.09424521 0.056766726 0.010732552 0.08748543
000270 ea 39 77 3d 24 07 49 3d 91 80 48 3c 2b e2 11 be
       0.060357966 0.049079075 0.012237684 -0.14246432
000280 65 9e cb bb 1f 7a 98 bb 1c e2 0c bd 41 6f a6 bd
       -0.0062139505 -0.00465323 -0.034395322 -0.08126689
000290 b1 87 0c 3d 90 71 32 3b a7 09 2c 3d d6 c8 d5 3c
       0.034309093 0.0027228333 0.042001393 0.026096743
0002a0 84 20 8c 3a b9 5e 8e 3d 71 a2 8e ba 26 72 97 bd
       0.0010690843 0.06951661 -0.0010882152 -0.07394819
0002b0 31 31 1e 3e 19 0b 0f 3d 03 bc 09 3e 43 88 9d 3c
       0.15448453 0.034922693 0.13450627 0.019230014
0002c0 ea 8d db 3d 47 6b a7 bc 42 f0 89 3d 2e 4d b5 3d
       0.10720427 -0.020436896 0.06735279 0.088526115
0002d0 99 43 a5 3d 23 7b 07 3e e9 b0 79 bd 74 f3 bd bd
       0.08069534 0.13230567 -0.06095973 -0.092749506
0002e0 f2 80 d7 3c ca 34 37 bd 64 8f a3 3d 8c fb 7a 3d
       0.026306603 -0.044728078 0.07986334 0.06127505
0002f0 e4 aa b4 bc 2f 23 9e 3d 13 f8 03 be 91 81 ba 3d
       -0.022054143 0.077215545 -0.12887602 0.09106744
000300 87 b7 a3 bd bd 39 aa be 2e 43 e4 3c 50 cf 2f be
       -0.079939894 -0.33247176 0.027864065 -0.17168927
000310 fa 15 8e 3d 2f 9d fe 3e bc 2a 83 be 67 26 a8 bd
       0.069377854 0.49729297 -0.2561854 -0.0821045
000320 d8 10 ba 3e 16 1a 43 3e ae e9 84 3d 7b da 80 be
       0.36340976 0.1905292 0.06489883 -0.25166687
000330 01 b1 e5 3c ac 7f b0 be 5e 29 cb 3d 1f 0c 56 be
       0.028038504 -0.34472406 0.099199995 -0.20903061
000340 6f 76 28 3e 24 fe 1a 3f de a6 8e 3e 7d 07 f4 be
       0.16451429 0.6054404 0.27861685 -0.47661963
000350 eb 7c 74 be d3 8a e5 be 34 f8 a9 bd 7a 0b 42 bd
       -0.23875777 -0.44832477 -0.08299294 -0.047374226
000360 83 f7 c4 bd c4 4b 98 3e ee 27 93 3d cb b1 c0 bd
       -0.096175216 0.29745305 0.0718535 -0.09408911
000370 8a bb 2d be c1 da f8 3e 45 f9 db bd c5 45 7b be
       -0.16966072 0.48604396 -0.10740904 -0.24538334
000380 58 5b 0b bd 30 dd e1 3b b6 66 3d 3d ce 28 2c bf
       -0.03402266 0.0068928227 0.04624053 -0.67249763
000390 69 0f 07 be 47 5f 82 bd 8f a0 fc 3d b7 11 79 3d
       -0.13189472 -0.06365829 0.123353116 0.06080791
0003a0 58 29 b0 be d5 31 31 3e ad 07 db be a2 43 f6 bd
       -0.34406543 0.17304166 -0.42779294 -0.12024619
0003b0 8e 66 c8 3d 02 b5 47 be fb f1 b1 be 1e 55 07 bf
       0.09785186 -0.19502643 -0.3475493 -0.52864254
0003c0 26 a2 da 3d d4 a5 db be ea 8a a3 bc 4d 74 46 3e
       0.106754586 -0.42899954 -0.0199637 0.19380303
0003d0 03 39 39 be 0a ef fe bd 73 65 11 be 80 0f e0 bc
       -0.18088154 -0.12447937 -0.14198856 -0.027351141
0003e0 36 81 8d 3d 06 c3 5d bd 0a 35 3f be 14 e6 4e be
       0.06909411 -0.054141067 -0.18672577 -0.20204955
0003f0 d2 72 0c be 13 b4 8c bc e5 59 44 3e f0 2e 4d bf
       -0.13715675 -0.01717571 0.19174917 -0.80149746

rnn.weight_ih_l1 f4 [256, 64]
000000 67 6f 5a 3d c8 d9 3e be 58 eb 2e be f3 6b 96 bd
       0.053328898 -0.18637764 -0.17081964 -0.073448084
000010 56 cc f0 be 7d 43 f7 be 8b 01 ef 3c e2 2f c3 3e
       -0.47030896 -0.48293677 0.02917554 0.3812247
000020 f1 68 10 bf aa 9b ad 3c bb 59 84 be 10 5c 49 3e
       -0.5641013 0.02119239 -0.2584971 0.19664025
000030 54 97 80 be 9a cd 18 be 15 a7 82 3e 76 74 59 3d
       -0.25115454 -0.14922181 0.25518098 0.05308958
000040 8e 83 6c 3e 07 5b c8 3e f9 98 a7 be c9 64 4e 3c
       0.23097059 0.39131948 -0.32733896 0.012597271
000050 11 67 93 3c ad 63 1b 3c 17 97 9d be 96 24 75 be
       0.017993482 0.009484214 -0.30779335 -0.23939738
000060 29 bb 5a bd 85 7b b5 3e 7b 88 9e be 69 b7 22 be
       -0.053401146 0.354458 -0.309635 -0.15890278
000070 76 b9 60 bd bb 6b d7 3e cf 19 fd bd c8 92 93 bd
       -0.05486437 0.4207438 -0.12358438 -0.07205731
000080 a3 4a 98 3d 90 98 78 be f6 f3 9b be d9 c2 9d bc
       0.07436111 -0.24276948 -0.30459565 -0.01925795
000090 ef 7f b6 bd 86 45 8a 3c a4 b7 77 3f 1d fb 73 3d
       -0.0891112 0.016878854 0.9676459 0.059565652
0000a0 5d 72 f3 3c 25 10 c0 be da 4b 4e 3d 71 01 2c be
       0.029717619 -0.37512317 0.050365306 -0.16797425
0000b0 6d 14 b3 3e d5 01 1b be 36 2e d7 bb 20 7c 86 3d
       0.3497652 -0.15137418 -0.006566788 0.06566644
0000c0 c6 9c 3c 3c 4e 33 0c bd 71 54 ad 3d 75 50 98 3e
       0.011511987 -0.034228615 0.084633715 0.29748884
0000d0 6e e7 15 be 01 f4 16 be 22 0f b6 3d 76 83 56 be
       -0.14639065 -0.14741518 0.08889605 -0.20948586
0000e0 d3 d6 c7 be a0 e5 a2 bc 6f 75 33 3e 77 8a 14 be
       -0.39031085 -0.019884884 0.17525266 -0.14505945
0000f0 af 6f 18 be fc 78 8f 3d 88 2f 87 be b6 ee 13 bc
       -0.14886354 0.07005498 -0.2640345 -0.009029081
000100 13 56 c7 bd 4c 34 0a 3d f4 0e b5 bc a7 97 f8 3c
       -0.09733214 0.03374128 -0.022101857 0.030345751
000110 36 82 3a be af 48 c5 bc eb 50 50 bc e5 8c 02 3e
       -0.18213734 -0.02408251 -0.012714605 0.1274906
000120 16 7b 4e 3e 2c d6 00 3e 24 ad 19 3d 6d 96 bb 3d
       0.20164141 0.125817 0.037518635 0.09159551
000130 53 54 82 3c d1 e8 3b bc d1 4a 65 3d b4 b7 7c bd
       0.01590935 -0.011469082 0.055979554 -0.06169863
000140 94 d9 fe bc f8 c0 21 bd a5 ed d9 3d 14 fb 46 3c
       -0.031109609 -0.03949067 0.1064103 0.012144823
000150 88 e7 c0 3c 60 fe fb bd 21 b4 36 3d 25 af 11 be
       0.023547903 -0.123043776 0.044605378 -0.14226969
000160 55 40 04 3d cc 8e 14 3d 45 80 52 3c df 62 c4 3d
       0.032287914 0.036268994 0.012847965 0.09589171
000170 88 83 39 bc 1f a1 89 3c 20 31 a7 3d 91 52 1c 3d
       -0.011322863 0.016800461 0.08163667 0.03816468
000180 00 bb dc 3d 82 2a c1 3b 56 cb 2b 3d f8 d9 46 bc
       0.10777855 0.00589496 0.041941963 -0.012136929
000190 05 21 2c bc 96 42 2f bd 75 78 f6 bc b9 9d cb 3d
       -0.010505919 -0.04278811 -0.030086735 0.099421926
0001a0 d3 2f 61 3c bc 5e 78 3e dc bd 41 3c 61 19 77 3d
       0.013744312 0.24254888 0.011825051 0.060326938
0001b0 c3 ed ee 3c 1e 48 5b bc 7f 4f bc 3b 0a 5a 6a ba
       0.029166108 -0.013383893 0.0057467814 -0.00089398085
0001c0 50 eb dd 3d 86 f2 1f bc 1c 66 f9 bd c8 c7 8d ba
       0.10835898 -0.009762412 -0.12177679 -0.0010816986
0001d0 bc 95 5d 3d ce c6 4c 3c f1 35 60 3d 14 fc cc 3d
       0.054097876 0.012498571 0.054738943 0.100090176
0001e0 b0 7f 3c 3d 10 bb e6 bc 78 29 3a 3d 38 aa 81 3d
       0.04602021 -0.02816537 0.045449704 0.06331295
0001f0 83 c7 3c 3d 66 0e 77 bd 1d 55 2e bd 99 68 3c 3b
       0.046088707 -0.060316466 -0.04256164 0.0028748868
000200 4d a4 1b 3e 48 f0 4f 3e ea 0e 21 3e 18 64 d3 3a
       0.15199395 0.20306504 0.15728346 0.0016127853
000210 09 f2 16 bc 2c 66 15 3e 93 52 94 3d a5 6a 8d 3d
       -0.009212979 0.14589757 0.07242312 0.069051065
000220 af 74 d1 3e f2 cb 4c be 8c 61 9f 3b e1 0c 86 3d
       0.40909335 -0.19999674 0.0048639234 0.06545425
000230 59 06 5b 3e 2d 76 0f bd e0 f9 82 be e0 bd ad 3c
       0.2138914 -0.03502481 -0.25581264 0.021208704
000240 98 24 cb bd 5c 73 bb be 34 57 89 3e fd 86 96 3c
       -0.09919089 -0.3661145 0.26824343 0.018374914
000250 f6 35 0e be 30 4e af 3e 8e 42 78 3e 9c 6f 87 bc
       -0.13887772 0.3423934 0.24244139 -0.016532712
000260 d7 29 01 bd 8d 90 a5 be 7b 7d 22 3e 0b ae 7d bd
       -0.031534042 -0.32336846 0.1586818 -0.06193356
000270 e9 6c 0f 3e 5a 28 0b bd 5c a6 d6 3c dc 45 1e 3c
       0.1400639 -0.03397403 0.026202373 0.00966021
000280 39 f2 44 be f5 90 de 3d c1 44 9e 3e 7b ad 10 3c
       -0.19233026 0.10867492 0.3091183 0.0088304235
000290 9b 30 e2 3d ca bd 80 bd 4c b0 40 be 83 9c aa bd
       0.11044427 -0.062861994 -0.18817252 -0.083306335
0002a0 af b9 18 3d 36 a5 94 3e 88 2d cc bc 2e 5c d0 bd
       0.037286457 0.29032296 -0.024924055 -0.10173832
0002b0 65 b1 47 be 69 80 c4 3d 7c 65 3f 3d 2d e9 58 3b
       -0.19501264 0.09594805 0.046727642 0.0033097968
0002c0 a1 ec 27 bd 7c a7 93 bc a8 af 0e be c1 9d 7b be
       -0.04099715 -0.018024199 -0.13934195 -0.24571897
0002d0 2d 81 b4 3d 3d 57 03 3e 8e dc de bd 37 dc 8c 3e
       0.08813701 0.12826248 -0.10881911 0.2751176
0002e0 29 0a b1 3d cd 4f b3 ba 1c 41 d0 bc 5f e4 0d 3d
       0.08644516 -0.0013680399 -0.025421672 0.03464162
0002f0 dd 57 96 3d ae d3 88 3e 75 0c 6e 3d da e8 0c 3c
       0.07340977 0.26724 0.05811735 0.008600438
000300 4c 6e 8b be e0 c4 ae bc 4f 61 6a be 84 95 0c 3e
       -0.27232587 -0.021334112 -0.22888683 0.1372891
000310 1d b7 49 3e 25 4d 71 3e a2 9b c6 bd f9 19 15 3d
       0.19698758 0.23564585 -0.09697653 0.036401723
000320 f9 7c c2 3e f1 44 c4 3e 2b 93 a6 3e 4e c7 7e 3e
       0.37985972 0.38333848 0.32534155 0.24880716
000330 47 f3 ad bc 8a 98 53 bd 53 8c 83 3e de 6c c2 bd
       -0.021234168 -0.051659144 0.25692996 -0.09493421
000340 b6 33 2b be c8 45 b8 3e 8e a7 9f 3d a1 65 8c bd
       -0.16718945 0.3599074 0.077956304 -0.06855322
000350 73 bf f0 3d ac 03 2f bf 0a 31 4e be 24 2b 47 bc
       0.11755266 -0.6836498 -0.20135894 -0.012156282
000360 0b 5c 06 3d 2d 3a f4 3e 27 c7 60 3e a4 8a 9d 3e
       0.032802623 0.47700635 0.2195097 0.30769837
000370 52 13 92 be 05 89 91 3e 04 ab 88 3e d7 ac 48 bd
       -0.28530365 0.2842485 0.26692975 -0.048992958
000380 53 15 9d 3e 0f c1 99 3e fc ce e6 3d e6 c5 77 bc
       0.30680332 0.30030105 0.11269948 -0.015122866
000390 67 a9 86 be e8 5c 96 b9 e5 f3 68 bd ca 47 44 3e
       -0.2630112 -0.0002867945 -0.05687322 0.1916801
0003a0 0e ba bf bd 0e fe 7c 3e f8 95 c2 3d c2 31 fc 3d
       -0.09361659 0.24706289 0.095012605 0.12314178
0003b0 b6 69 77 3d c5 3c c3 be e8 2d 25 be 6d 70 86 3d
       0.06040355 -0.381323 -0.16130793 0.06564412
0003c0 f0 97 00 3e e3 ca 35 3d 06 a9 20 bf b4 04 8b bd
       0.1255796 0.04438294 -0.6275791 -0.067880064
0003d0 08 92 92 bd e7 4e e2 3b 9b 8a 33 3e a6 fe 1f 3e
       -0.071567595 0.0069063785 0.17533343 0.15624484
0003e0 a2 d9 1d 3f a5 b9 12 3d f3 8a 6a bd cd 04 c6 3e
       0.61660206 0.035821576 -0.05726142 0.38675538
0003f0 0a cc e5 3d a2 bb 84 3d f0 5b 3e be 33 e1 9b bb
       0.11220558 0.064811006 -0.18589759 -0.0047570704

rnn.weight_hh_l1 f4 [256, 64]
000000 e6 6a a1 3d d5 51 3a 3d 29 3d 9c 3b 9a d4 9a 3e
       0.078817174 0.045488197 0.004768033 0.30240327
000010 1d 5b e7 be 2c dc aa 3c 55 6e 87 be a5 8b 3d be
       -0.451867 0.02085694 -0.26451364 -0.18510301
000020 5a 2d 03 bf e5 44 b9 ba 88 86 a4 bc 2a e0 c1 bd
       -0.51241076 -0.0014134912 -0.02008368 -0.09466584
000030 74 9f 88 3e ba 4f ab bd dd d3 0c 3f 34 8e 2f bd
       0.26684153 -0.08364816 0.5501078 -0.042860225
000040 2f 82 4b 3d 14 a7 08 bd 42 9f 2d 3f ec a9 e1 3d
       0.0496847 -0.033362463 0.67821133 0.11018738
000050 35 5d 94 3d cb 66 f1 bd 3f 3e 45 be dc c5 1e 3e
       0.0724434 -0.11787184 -0.19262026 0.15505165
000060 ef b4 04 3e e9 9d 80 3e 09 1a 2f be ab 90 ae bc
       0.12959646 0.25120476 -0.17099775 -0.021309217
000070 e7 ea 22 bf ae 34 08 3d fb 33 72 be 18 e0 3d be
       -0.6363968 0.033253364 -0.23652641 -0.18542516
000080 a1 f7 1d 3e 85 cb 85 be bc 03 2a 3f f7 9b 01 3e
       0.15426494 -0.26131836 0.6641195 0.12657152
000090 9c 0a e9 3e 7e 73 30 bd f6 e6 24 3f d0 6a 24 3d
       0.45515907 -0.043078892 0.6441492 0.040140927
0000a0 6b 0b b4 be 44 0a 60 be b1 5d 76 bc ea 2e fa be
       -0.3516496 -0.21878916 -0.015036986 -0.48863918
0000b0 54 f7 c6 bc 1b 48 40 3f 4e 35 1b be 2e 65 4f be
       -0.024287857 0.75110024 -0.15157053 -0.2025344
0000c0 fe a2 38 be 51 79 78 3e 6a 47 92 3d 8e a3 c8 be
       -0.18030927 0.24265029 0.071425274 -0.39187282
0000d0 87 69 12 3c 3e 51 4d 3e 1d e5 0e 3e 2c 86 be bc
       0.0089362925 0.20050523 0.13954587 -0.023257338
0000e0 3f 25 85 bd bf 1e a8 3c ca 11 8f bc 45 0e 6a 3d
       -0.06501245 0.020522473 -0.017464537 0.057142515
0000f0 42 fc c6 3c 8c 9c c2 3e e6 19 68 bc 16 13 ca 3d
       0.024290208 0.3801006 -0.014166331 0.098669216
000100 b2 78 65 bc 44 c9 aa 3d ad 04 22 3e f0 a5 98 bd
       -0.014005827 0.083391696 0.15822096 -0.07453525
000110 a4 6a 2b 3d 53 8c 95 bc 04 64 da be b4 04 d7 3c
       0.041849747 -0.018255388 -0.4265443 0.02624736
000120 6d e9 46 3e 9a 76 93 3d 0e 9b eb ba 27 a2 99 3a
       0.19424982 0.07200356 -0.0017975287 0.0011721299
000130 e7 0e 12 3f e3 7e 13 bc 8b 0d 4d 3e e6 ff 6f 3e
       0.5705399 -0.00900242 0.20024697 0.23437461
000140 49 fc 81 bd 7a a4 a3 3d 31 7c 04 3d 24 27 7a bd
       -0.06346948 0.07990356 0.032345 -0.061072484
000150 42 33 cc 3c 0f 3e 96 3e 46 de 2d 3e f6 65 a7 be
       0.024926785 0.29344222 0.16979322 -0.32694978
000160 da 7c d0 3e 99 4f 89 bc ff 55 cf 3d e7 9a 82 3b
       0.40720254 -0.016761588 0.10123824 0.003985751
000170 c3 7d aa bd 72 85 fd b9 a3 01 9d bd 73 07 f0 3d
       -0.083247684 -0.00048355345 -0.07666328 0.11720171
000180 9f 05 3d bc 63 8a 4b be 54 d4 c2 be fb 68 63 bd
       -0.011536985 -0.19877009 -0.38052619 -0.05552004
000190 13 67 75 bf d7 05 4e 3c 22 2f 26 3e 9a 12 5f 3c
       -0.95860404 0.0125746345 0.16228917 0.013615275
0001a0 e9 2f ca 3b f6 de 5a 3e fe 85 79 bc 44 03 af 3d
       0.006170262 0.21374115 -0.0152297 0.08545545
0001b0 8d 2d d0 bd b3 7c c0 be 4c 3c 52 3e e7 dc 71 3d
       -0.10164938 -0.37595138 0.20530814 0.05904856
0001c0 7e 45 cd bd 8b 57 c2 3d e1 fd 6e 3d 71 cf 3d 3d
       -0.1002302 0.09489354 0.058347587 0.04634041
0001d0 23 d7 bc 3d 54 ec d0 3d 50 fd c3 bc 7a 6d 76 be
       0.092207216 0.10201326 -0.0239245 -0.240652
0001e0 a5 de 1c 3e a1 09 12 3e dc e3 f5 bb c9 8c 30 be
       0.15319307 0.14261486 -0.0075039696 -0.17241205
0001f0 0b 9d 44 bc 6c b5 a5 3e d0 b2 e0 3b 68 27 72 3c
       -0.012000333 0.32364976 0.0068572536 0.014779903
000200 35 99 9a bd 9b c5 20 bd 40 05 1b be 8a 18 24 3e
       -0.07548753 -0.03925095 -0.15138721 0.16024986
000210 76 8b 0a 3e b7 92 32 3c 3b f9 48 bf fe 78 12 bf
       0.13529763 0.010899237 -0.78505296 -0.5721587
000220 33 20 8c 3d f0 23 77 be 6c a6 1c bd f0 7c ae 3e
       0.06842079 -0.24134803 -0.03824465 0.34079695
000230 a0 29 f1 bd 1f f0 fe 3d 8c a1 11 bf e4 0d 0a 3e
       -0.117755175 0.12448143 -0.56887126 0.13481861
000240 6f 28 9d 3e 1c f9 e6 3d 71 ae e1 be 9d a2 05 3e
       0.3069491 0.112779826 -0.440784 0.13050313
000250 aa cd 69 bd 65 26 99 3e d5 0a ef bc aa 45 c7 bd
       -0.057080902 0.29912105 -0.02917997 -0.09730084
000260 18 3d 38 be 67 4d cb 3d 71 21 11 3f 81 b5 8d bc
       -0.17992055 0.09926873 0.5669165 -0.017298462
000270 a7 54 c1 3e 41 48 e1 3a 47 7e 07 be 26 e7 39 3f
       0.37759897 0.0017187671 -0.13231765 0.7261833
000280 29 7e 03 3d 0d 91 c5 3e f0 e1 63 be 02 04 84 bd
       0.032102738 0.38587227 -0.22254157 -0.06446077
000290 37 cf 97 be e4 a4 23 3c 08 e2 70 be 95 e9 7f bc
       -0.2965028 0.009988043 -0.23523724 -0.015619655
0002a0 71 1e 3e bd 5e e0 79 3e df 59 64 3b 25 a6 ca 3c
       -0.04641575 0.24401996 0.0034843606 0.024737427
0002b0 56 30 0d 3e 13 08 49 3e 35 88 6e 3d 66 89 1b 3c
       0.1378797 0.19631986 0.058235366 0.009493208
0002c0 fc 81 5c be 16 bc 53 bc 2d 48 7e bc 64 35 f8 3d
       -0.2153396 -0.012923261 -0.015520138 0.121195585
0002d0 02 2c 1f 3c 1f 43 8b be 6b 0d bb bd de 65 77 be
       0.009715082 -0.27199647 -0.09133419 -0.24159953
0002e0 a8 09 64 3c 79 28 e9 3c cb e9 12 3c 84 6d dc bd
       0.013918318 0.028461682 0.008966873 -0.10763076
0002f0 0b d1 3a bc 24 7b 1b be 91 d1 a7 3d fe 03 92 3c
       -0.011402379 -0.15183693 0.081942685 0.01782417
000300 f2 37 6d 3e c9 e5 16 3e 79 85 8a bd 22 29 28 3f
       0.23165873 0.14736094 -0.06763739 0.65687764
000310 e3 48 53 3e 1e 02 b5 bd 0d db 7b 3d 9b d7 8c 3f
       0.20633273 -0.088382944 0.0614882 1.1003298
000320 d0 20 34 bd 26 ad 63 3f 9d 5d 89 ba ff 23 74 bf
       -0.043976605 0.8893608 -0.001048017 -0.95367426
000330 08 ef f1 bd 19 61 23 3e d2 13 3c bd f9 03 62 3f
       -0.1181317 0.15955009 -0.04591734 0.8828731
000340 40 2c a6 bf 2c 25 7b be 6b e4 af 3e a2 b7 a0 3c
       -1.2982254 -0.24525899 0.34353957 0.019618813
000350 95 51 56 3e a4 65 5a be 19 f8 29 3f b9 2c ff 3e
       0.20929559 -0.21327835 0.6639419 0.49838808
000360 1f 6f 60 3d f1 be 1c 3e 51 5c 1a bf 29 a6 e2 3c
       0.054793473 0.15307213 -0.60297114 0.027667122
000370 ba 5a 1c 3e 6c da 80 3d e7 21 b7 3e 14 02 a4 3e
       0.15268984 0.06291661 0.35768053 0.32032835
000380 d3 21 5a 3e d2 9b 4d be 82 0c 0e bf d0 62 ba 3e
       0.21301965 -0.20078972 -0.55487835 0.36403513
000390 d2 9d 7c bf 51 b9 e6 3d 2b 24 34 bd 76 2b 0a 3d
       -0.98678315 0.11265815 -0.043979805 0.033732854
0003a0 33 92 9a 3e 9f 49 f4 be b8 9f 90 3c 4c f8 17 3e
       0.30189666 -0.47712418 0.017654285 0.14840811
0003b0 ff 69 81 bb 4f c0 7e bf 16 79 2f 3f a7 48 8e 3e
       -0.0039494033 -0.9951219 0.6854414 0.27789804
0003c0 05 69 6e be 76 45 f4 be 72 46 3d be 33 bf ba 3e
       -0.2328225 -0.47709244 -0.18483904 0.36473998
0003d0 ad 87 f2 3d 6c 12 29 3f 11 ee 7d 3e a6 8b d6 be
       0.11842284 0.66043735 0.24797846 -0.41903418
0003e0 0e 57 9d 3d 24 b2 a2 3e 8c 7f 34 bc 46 46 1f be
       0.0768262 0.31776536 -0.011016738 -0.15554151
0003f0 d7 6e 12 39 d1 7c c8 3c c0 cd 8a be b4 40 67 3d
       0.00013964936 0.02447358 -0.271101 0.05645819

rnn.bias_ih_l1 f4 [256]
000000 ca dd e3 be 55 fb b5 be 98 6a c2 be b9 08 04 3c
       -0.4450515 -0.35543314 -0.3797195 0.00805872
000010 9c 51 01 be 29 be 12 bf d2 12 78 be d7 f1 89 3d
       -0.12628788 -0.5732141 -0.2422593 0.067355804
000020 2b 84 b3 be 53 13 49 be 08 a5 e2 be 81 e9 12 be
       -0.35061774 -0.19636278 -0.44266534 -0.14346887
000030 ca 67 a0 bd c5 73 ef be d9 8f 05 3f 8c 03 ff 3c
       -0.07832296 -0.46768013 0.5217262 0.031129621
000040 e4 bf a2 be 5b cf d1 bd e1 df 23 3e d0 1f bd bd
       -0.31787026 -0.10244628 0.16003372 -0.092345834
000050 45 3c 2c bf 1a a0 b9 be 0f 5f 0d 3e ca da 79 be
       -0.67279464 -0.3625496 0.13805793 -0.24399868
000060 0e 3a cb bd b1 e0 e2 be cb a5 c4 3d 53 31 27 bf
       -0.099231824 -0.4431205 0.09601935 -0.6530964
000070 62 f3 cc 3e 2a 33 31 bf c8 3b 7d be ee 02 2d 3f
       0.40029436 -0.69218695 -0.24729836 0.67582595
000080 cf 1e 06 bf 0b ee 77 be ce fc 32 3e 7b 7f c3 bd
       -0.5239076 -0.242119 0.1747925 -0.09545799
000090 ba c9 1d 3d 12 6a c9 be ef 17 c3 be d7 a8 25 bf
       0.03852246 -0.39338738 -0.38104197 -0.64710754
0000a0 d0 e9 57 3e 06 bd c5 bd 53 a2 1e bf 0e c0 12 3d
       0.21085286 -0.09655194 -0.6196644 0.03582769
0000b0 49 d4 ab be 93 91 90 3e 56 95 80 3e 0c f2 d6 be
       -0.33560398 0.28236064 0.25113934 -0.41981542
0000c0 13 4d 82 be b5 31 d4 3d e4 60 60 be aa 14 8a be
       -0.25449428 0.10361043 -0.21911961 -0.2696889
0000d0 f3 2b 14 bf a8 be ac 3e 5e 1e 52 be 84 a4 88 be
       -0.5787956 0.3373921 -0.20519397 -0.26688015
0000e0 13 db c6 be d9 1a 19 be 68 17 51 bf 83 5b 91 be
       -0.38839015 -0.14951648 -0.8167634 -0.2839013
0000f0 46 e3 4d bf f4 18 3d bd 77 1c 0f bf e6 36 23 bf
       -0.80424917 -0.046166375 -0.5590281 -0.63755643
000100 7a 27 82 3d 32 3f fb be 18 95 8d be 3e 3d 60 bf
       0.06355186 -0.49071652 -0.27652812 -0.8759345
000110 54 c2 a2 bc d2 f0 b0 be 26 f5 f8 3d 9b 20 59 be
       -0.019868053 -0.3455873 0.12156133 -0.21203844
000120 fb de c2 bd 56 f8 6d 3e 2a 82 f9 be 46 1a 5d be
       -0.095151864 0.23239264 -0.4873212 -0.21592054
000130 d8 a7 f3 3d 1e d0 86 be 3b be 8b bd 74 65 7f be
       0.11897248 -0.26330656 -0.06823393 -0.24941045
000140 14 8d f2 bc cf 3f 3f bf 6c 2c 46 be c4 1b 04 bf
       -0.029608287 -0.7470674 -0.19352883 -0.51604867
000150 88 7a d1 be 56 b7 4a be 30 fe 6c bf c5 68 ab 3d
       -0.40913796 -0.197965 -0.9257536 0.083695926
000160 0b de b2 bd 5d 4e 6a bf 3f fa b2 be fb 49 0e bf
       -0.087337576 -0.9152582 -0.34956548 -0.55581635
000170 ca 35 05 be 27 ee e2 be 89 d0 7d be 73 8a 24 be
       -0.130088 -0.4432232 -0.24786581 -0.16068439
000180 8a e9 d8 be 6c db 50 3e 20 56 a9 3e 89 a1 83 bf
       -0.42365676 0.20396203 0.3307352 -1.0283672
000190 43 a2 8f 3e c8 f0 d4 be ba 44 a7 3e 0b 90 ec be
       0.28053483 -0.41589952 0.32669622 -0.46203646
0001a0 84 b4 e8 be 2b 3f 19 bd 86 d0 cb be 8c a0 77 be
       -0.45450222 -0.037413757 -0.39807528 -0.24182338
0001b0 39 01 04 be c2 5a 49 be 3a 85 12 3e c0 21 8a be
       -0.12891091 -0.19663528 0.14308634 -0.26978874
0001c0 cc 80 01 bf 4a 06 bb be cc c2 03 be 75 52 7d bd
       -0.50587153 -0.36528236 -0.12867278 -0.061846215
0001d0 0e ab ad be 03 8d ef 3b 1e 2e 0b be 32 3a be be
       -0.33919567 0.007310511 -0.13591811 -0.37153774
0001e0 14 a0 35 be 30 21 41 be f5 f8 c0 be da 79 6b bd
       -0.17736846 -0.18860316 -0.3768994 -0.057489254
0001f0 b4 74 e8 be b3 9d 27 be b9 fe d0 be e7 03 fc be
       -0.45401537 -0.16368751 -0.40819338 -0.49221727
000200 ce 0d 99 bd da 7d 83 3d c6 a3 ba bc e7 1c 96 3d
       -0.07473336 0.06420489 -0.022783171 0.073297314
000210 ba 27 b4 3c e0 d0 ed 3c 19 d3 46 3d a2 88 bf bd
       0.0219916 0.029030263 0.048541162 -0.093522325
000220 c8 3b ad 39 c5 22 09 3a 22 63 42 bd bb 91 d1 3d
       0.00033041672 0.00052313163 -0.04745782 0.10232874
000230 6d a9 c2 bc a1 2b 87 3d c7 41 ab 3c 8e b6 c8 3c
       -0.02376243 0.066001184 0.020905389 0.024501111
000240 59 fd e6 3c 57 16 e3 bd 6d ad b0 3d 7b 51 c6 3b
       0.028196977 -0.11088245 0.08626828 0.0060521937
000250 8d 91 81 bd 99 90 4e bd 02 49 82 3c 84 ce 5b bd
       -0.0632659 -0.050430868 0.015903953 -0.053663746
000260 5b 1e ef bd 9e 88 af bd 6f d8 07 3d 38 91 36 3b
       -0.11675712 -0.085709795 0.03316539 0.0027857553
000270 68 d0 9b 3d af 55 0d bd b9 99 7f bd e4 8e 77 bd
       0.0760811 -0.034505542 -0.06240246 -0.060439005
000280 ca 19 6d 3d ba 1d 22 3d 84 ab 0b 3d 2b 76 de bc
       0.057885922 0.03957913 0.034099117 -0.027155956
000290 68 77 a4 3b f4 0b d6 bd 39 3c 9e bc 37 b9 bd 3d
       0.005019117 -0.10451499 -0.019315826 0.092638426
0002a0 83 af 80 bc 57 b0 a1 3c 16 88 fa bc 3b 31 46 3d
       -0.01570869 0.019737406 -0.030582469 0.048386794
0002b0 dc c0 bb bd 4b 6c 0b 3d dd 1f d1 bd 0c 63 a0 bd
       -0.091676444 0.034038823 -0.102111556 -0.07831392
0002c0 fa 5b a1 3d 5a 83 66 bb ec d8 a6 3c 32 66 8d 3c
       0.07878871 -0.0035173506 0.020367108 0.017260645
0002d0 9a 45 94 bd 35 69 32 bc f0 ad d0 bc 5e 6f be bd
       -0.07239838 -0.010889341 -0.025473565 -0.09298585
0002e0 03 66 a4 bd 93 43 40 bb 9f 4f 6f 3d 67 c9 8a 3d
       -0.0802727 -0.0029337152 0.058425542 0.06776696
0002f0 5a fb 18 bc 52 27 9c bd a1 19 42 3d ac fd e1 3c
       -0.009337271 -0.07624687 0.047387723 0.02758678
000300 e9 a8 89 be cc 39 cf be 12 2a ff be a3 f4 3c 3d
       -0.2688668 -0.40473783 -0.49836785 0.04613174
000310 67 67 63 3d 2e ef 1a bf 16 c3 89 be ec ed d7 bd
       0.055518534 -0.6052121 -0.2690665 -0.10543427
000320 19 a3 85 be bb aa c5 be c9 04 17 bf d4 52 cb be
       -0.26100996 -0.3860682 -0.58991677 -0.3971163
000330 c7 3f f8 bc 94 ee fc be 37 e7 ed 3e 47 13 e7 bc
       -0.030303849 -0.4940077 0.46465465 -0.028207434
000340 d9 c5 cb be e6 ef 7e be 90 91 78 3e 24 1c a8 bd
       -0.39799383 -0.24896201 0.24274278 -0.082084924
000350 ed db 0f bf 30 b4 a7 be c7 9c 40 3e c0 84 ad be
       -0.56194955 -0.3275466 0.18809806 -0.33890343
000360 56 15 00 be 04 0d e8 be 26 eb 97 3c 7d 62 2a bf
       -0.12508139 -0.4532243 0.018544745 -0.6655653
000370 b1 f1 02 3f c4 88 30 bf 47 57 a2 be b2 ef 40 3f
       0.5115004 -0.6895869 -0.31707212 0.75365746
000380 09 e8 f6 be 12 3d ba be 64 21 ea bd bd bc e5 bd
       -0.48223904 -0.36374718 -0.1143215 -0.112176396
000390 78 93 08 be fa f7 b5 be 6c 31 74 be 09 1e 49 bf
       -0.13337505 -0.35540754 -0.23846978 -0.78561455
0003a0 39 0e 5b 3e 64 d5 9d be f1 1e 46 bf bd 0d 06 be
       0.21392144 -0.30826867 -0.7739096 -0.13091178
0003b0 a8 60 99 be 85 a2 e2 3d 5b a8 40 3e 1a 26 0b bf
       -0.29956555 0.110661544 0.18814223 -0.54355013
0003c0 52 ca b5 be ce 8d b1 3d 0d be 8c be 2b c6 87 be
       -0.3550592 0.08669625 -0.27488747 -0.26518378
0003d0 2e ab 08 bf fb 34 7d 3d 36 10 9e be a0 ab 8b be
       -0.533862 0.061818104 -0.30871743 -0.27279377
0003e0 4b 88 ea be 5f fb 60 be bb 1c 51 bf 78 61 d3 be
       -0.45807108 -0.2197089 -0.81684464 -0.412853
0003f0 37 fb 41 bf 28 74 98 bd 99 44 fb be 3d 61 44 bf
       -0.7577395 -0.0744403 -0.49075773 -0.76710874
