checkpoints/TP_LSTM_L2_bs16_trainNon0baseline_bsfirst_pos1_downsp_freq/TP_LSTM_L2_bs16_epoch252_best0.0028125184992524354.pt (torch, 206330 bytes, 9 tensors)

rnn.weight_ih_l0 f4 [256, 3]
0.13590652 0.15596141 -0.11152548 0.1832614 0.31303564 0.15764506 0.028732974 0.2901637
0.042852037 -0.03363643 0.16496055 -0.01508687 -0.05943995 -0.039679524 -0.04829235 -0.012102064
-0.004526426 -0.0049947244 -0.10994035 -0.0667614 -0.012959478 -0.0730227 -0.02767861 -0.009913542
0.2535182 0.47815663 0.20678534 -0.026903847 -0.009560784 0.0014482035 -0.23626713 0.052571323
-0.12198981 -0.08421993 -0.116497785 -2.1441689 -0.050359853 -0.07483951 -0.16514356 -0.30612758
-0.057638947 0.06540112 0.19754286 0.080862984 -0.26076195 -0.03814855 -0.02352697 -0.013484093
-0.049452193 -0.036461554 -0.03204948 -0.85405385 -0.56739247 1.0166185 0.102163956 0.2918449
0.08711921 -0.0017779834 0.012415723 0.04583999 -0.04749979 -0.038028467 -0.02437999 -0.056978688
-0.011521455 0.05138381 0.06145642 0.20050468 -0.073449545 -0.187186 -0.18866478 0.17398869
0.021664694 0.035702042 0.021156112 -0.048672095 -0.03792668 -0.04165324 -0.053794432 0.17571267
-0.14385086 -0.21073993 -0.07076597 -0.54913914 0.07996794 0.10113149 -0.14407071 -0.36015013
-0.13957825 0.84662 -0.10346554 -0.043040622 -0.008454007 -0.026311703 0.20868659 -0.089508705
0.06339574 0.29173765 -0.06434644 -0.008360524 0.3260286 0.031599436 -0.017610697 0.0070387465
0.045741744 -0.6716636 0.576741 0.0867567 -0.0015048038 0.009868861 -0.026737554 -0.1218607
-0.032175284 -0.021985225 -0.15451708 -0.112388745 0.70283216 -0.07757593 -0.022597432 -0.14242287
-0.14112908 0.023240855 -0.11390355 -0.63645077 -0.25288922 0.42580932 0.2827821 0.35289842
-0.42672634 -0.45651394 -0.090253025 0.35745293 0.16749184 0.26308426 0.066429086 -0.035396956
-0.025598295 -0.03441993 -0.7343435 -0.75604117 -0.16627319 0.68595093 0.1265009 -0.8947371
-0.03136895 -0.008579815 -0.037548117 -0.107374534 -0.030404525 -0.02661598 -0.04696549 -0.031206965
-0.008791914 0.035377834 0.22997072 -0.2226183 -0.033283547 -0.018375449 0.013860891 -0.065822504
-0.066052526 -0.04370406 0.004941057 0.33828217 -0.09575901 0.57467866 0.81200933 -0.1076643
-0.10257232 -0.01315817 0.08027864 0.04398324 -0.10729388 -0.10348451 0.14158052 0.3041653
4.662833e-06 -0.056353413 -0.0348312 -0.0037866458 -0.07607673 -0.04363638 -0.04031388 0.20436415
0.6571994 0.2900641 -0.04686763 -0.026325963 -0.021312097 -0.09353129 -0.032929126 -0.042398036
-0.054741286 0.1670954 -0.034340434 0.014458192 0.3925578 0.19273052 0.15048237 0.08935739
-0.03288696 -0.10866124 0.23747623 -0.10475535 -0.04512093 -0.032644223 -0.022944255 -0.018356338
-0.011377582 -0.005565323 -0.026313694 -0.01641062 -0.009226114 -0.021351214 -0.011371143 0.00027354714
-0.087684326 -0.031650443 0.12491198 -0.020722553 -0.010425179 -0.0023448216 -0.10216928 -0.033451304
-0.022206523 -0.24919453 -0.082788505 -0.21052614 -0.06871168 -0.030317865 -0.0060517974 -0.030242339
-0.049731664 -0.012558034 -0.16662697 -0.05814486 -0.25858054 -0.02405994 -0.013775476 -0.0093085375
-0.036561318 -0.026345246 -0.020744827 -0.034469504 -0.45328844 0.13155912 -0.15552162 0.030706747
-0.1431139 -0.030516943 -0.024453977 -0.016293362 -0.043223288 -0.032644466 -0.026458267 -0.041475635
00000000: 142b 0b3e 59b4 1f3e 7967 e4bd e0a8 3b3e
00000010: 3546 a03e b56d 213e 6a61 eb3c 5690 943e
00000020: 9e85 2f3d 5ac6 09bd 6beb 283e eb2e 77bc
00000030: 4e77 73bd ff86 22bd 33ce 45bd bc47 46bc
00000040: 6a52 94bb c9aa a3bb 6828 e1bd 33ba 88bd
00000050: fe53 54bc ed8c 95bd 41be e2bc 696c 22bc
00000060: 23cd 813e f2d0 f43e 89bf 533e 7565 dcbc
00000070: d6a4 1cbc a5d1 bd3a 03f0 71be 0755 573d
00000080: cbd5 f9bd 807b acbd 6496 eebd 103a 09c0
00000090: 2246 4ebd 7545 99bd 651b 29be c1bc 9cbe
000000a0: d116 6cbd 06f1 853d ad48 4a3e 7e9b a53d
000000b0: 9782 85be a741 1cbd a2bb c0bc 63ec 5cbc
000000c0: 628e 4abd b658 15bd 5146 03bd 46a3 5abf
000000d0: a240 11bf 8e20 823f 563b d13d b26c 953e
000000e0: 8e6b b23d 390b e9ba 516b 4b3c b7c2 3b3d
000000f0: 248f 42bd bdc3 1bbd 8bb8 c7bc 7c62 69bd
00000100: 7cc4 3cbc d477 523d bab9 7b3d 1951 4d3e
00000110: b76c 96bd b0ad 3fbe 5731 41be 172a 323e
00000120: 287a b13c 4e3c 123d 954f ad3c 645c 47bd
00000130: 0259 1bbd 969c 2abd 8d57 5cbd 06ee 333e
00000140: a44d 13be 35cc 57be c0ed 90bd 6294 0cbf
00000150: 3bc6 a33d 071e cf3d 4687 13be 9965 b8be
00000160: 9aed 0ebe 17bc 583f bee5 d3bd 5d4b 30bd
00000170: ad82 0abc a48b d7bc f0b1 553e 5750 b7bd
00000180: a0d5 813d a35e 953e 11c8 83bd 94fa 08bc
00000190: 38ed a63e 696e 013d 4f44 90bc 49a5 e63b
000001a0: b25b 3b3d 25f2 2bbf 4ca5 133f 7fad b13d
000001b0: d63c c5ba 01b1 213c b708 dbbc 1a92 f9bd
000001c0: 3bca 03bd 5c1a b4bc ba39 1ebe 122c e6bd
000001d0: cfec 333f 21e0 9ebd 401e b9bc 4dd7 11be
000001e0: 2484 10be 9b63 be3c 4446 e9bd 70ee 22bf
000001f0: b27a 81be ae03 da3e d1c8 903e 1aaf b43e
00000200: e07b dabe 32bc e9be 94d6 b8bd 1204 b73e
00000210: fb82 2b3e fbb2 863e f90b 883d 66fc 10bd
00000220: 84b3 d1bc eafb 0cbd f0fd 3bbf ea8b 41bf
00000230: 8543 2abe 7b9a 2f3f 7489 013e 7e0d 65bf
00000240: ba7c 00bd 5a92 0cbc 0ecc 19bd 2ee7 dbbd
00000250: e912 f9bc c109 dabc e35e 40bd c0a5 ffbc
00000260: f60b 10bc 59e8 103d 727d 6b3e 0df6 63be
00000270: 5454 08bd 1c88 96bc ca18 633c f3cd 86bd
00000280: 8c46 87bd 0703 33bd 97e8 a13b 5233 ad3e
00000290: 4d1d c4bd 241e 133f d8df 4f3f 1a7f dcbd
000002a0: 7011 d2bd 5d95 57bc 2169 a43d c527 343d
000002b0: e5bc dbbd b0ef d3bd 7cfa 103e 8ebb 9b3e
000002c0: 6e75 9c36 d6d2 66bd 29ab 0ebd 6029 78bb
000002d0: 1ece 9bbd 10bc 32bd 2b20 25bd d644 513e
000002e0: 383e 283f 4883 943e 46f8 3fbd 8ca9 d7bc
000002f0: b596 aebc 558d bfbd b1e0 06bd 90a9 2dbd
00000300: 6638 60bd 0e1b 2b3e 8ea8 0cbd 0de2 6c3c
00000310: 56fd c83e 265b 453e 0d18 1a3e 0201 b73d
00000320: 7ab4 06bd c989 debd f82c 733e f989 d6bd
00000330: b9d0 38bd f3b5 05bd 97f5 bbbc 0860 96bc
00000340: 0a69 3abc 505d b6bb d18f d7bc 916f 86bc
00000350: 2029 17bc bee8 aebc 084e 3abc e06a 8f39
00000360: d793 b3bd e5a3 01bd dad1 ff3d 58c2 a9bc
00000370: 5fce 2abc 94ab 19bb 213e d1bd 3c04 09bd
00000380: 74ea b5bc da2c 7fbe 058d a9bd 2a94 57be
00000390: b6b8 8cbd 2c5d f8bc 284e c6bb c8be f7bc
000003a0: 6eb3 4bbd 36c0 4dbc 43a0 2abe 4e29 6ebd
000003b0: ab64 84be 5a19 c5bc 89b2 61bc d682 18bc
000003c0: 52c1 15bd fcd1 d7bc 0ef1 a9bc e52f 0dbd
000003d0: 6c15 e8be 6fb7 063e 0f41 1fbe b78c fb3c
000003e0: 738c 12be abfe f9bc b553 c8bc a879 85bc
000003f0: e70a 31bd 34b6 05bd 02bf d8bc 5be2 29bd

rnn.weight_hh_l0 f4 [256, 64]
-0.01829466 0.07395914 -0.06526385 0.037884228 0.0034924177 0.005771879 -0.0022826546 -0.003843117
0.04353003 -0.0011563752 0.0035611868 0.015697338 -0.0051036016 -0.0036338074 0.09068454 -0.00059579284
-0.0036923143 0.06627393 -0.043226797 0.0042520254 -0.002373245 0.00864699 -0.083730035 0.027240574
-0.0022554335 -0.0026993658 0.009738224 0.0108316615 0.034039933 -0.04986428 0.004673155 -0.13829656
0.01737706 0.13873804 -0.006218746 -0.072634876 0.006163484 0.0051392466 0.025893927 -0.013948007
-0.0036996477 -0.011043264 0.04295246 -0.021245413 0.027020346 0.0020791045 -0.074815705 -0.024504881
-0.004494948 0.008821757 0.0024891284 0.046310186 0.0015574996 0.0007778115 0.0035147264 0.032005906
0.005730075 -0.07193341 -0.037554044 -0.0032976135 -0.003222583 -0.06676974 0.0023428102 -0.002502737
0.10741544 0.029065972 0.21076892 0.065431066 -0.006560092 0.017302657 0.009952487 0.005909472
0.047243904 0.012288156 -0.002154168 -0.020122668 -0.00586822 0.00023757466 -0.06678894 0.0037039625
-0.008209524 0.082072735 0.017865334 0.019001432 -0.0069637485 0.023383496 0.09136768 0.0031943736
0.018244527 -0.008402734 -0.0026575197 -0.011762622 -0.046031266 -0.13521805 0.0034283733 -0.14120631
-0.092319496 0.15828606 -0.025109254 -0.2598874 0.02587459 -0.009450495 0.043941557 -0.014145577
-0.0015246216 0.021221723 0.010369681 -0.04798145 -0.20677915 0.007103382 -0.08158935 0.013225526
0.011572283 -0.005405301 0.011872894 0.041462667 0.013036542 0.01627369 0.099870615 -0.027790591
0.02299257 -0.08351289 -0.037902493 -0.0032604719 -0.016843364 -0.037382435 -0.0069927103 0.0020304578
-0.029970214 0.16409315 0.012440288 0.06625786 -0.015195055 0.02297537 -0.010137044 -0.0139246695
0.114989996 0.014697313 -0.05017855 0.03227756 -0.039652575 0.013395723 0.100713514 0.0050379373
-0.006375983 0.07722474 0.05902555 0.022927297 -0.0012241375 0.0016035488 0.025077768 -0.029952984
0.022610521 -0.015644483 -0.007726864 0.112499654 -0.054159075 -0.01582065 -0.000963488 -0.14372458
0.007283613 0.1748339 -0.026158417 -0.23085314 0.044024613 0.0055228095 -0.086147055 -0.034343507
0.0006839511 -0.050720233 -0.040188935 -0.012398565 -0.12721333 0.01861953 -0.08247875 0.020627243
0.0108651845 0.013292987 0.00062886695 0.10729641 0.0057499055 0.059494108 0.17171 -0.0021742254
0.0138801485 -0.026240561 -0.145152 -0.015755061 -0.01674732 0.02639405 -0.002380932 -0.0031539889
-0.025921721 -0.125872 -0.11426115 -0.07250416 0.0011607256 -0.0008054137 0.00010040051 0.0018133075
-0.07640393 -0.00033316482 8.381179e-05 0.00917027 0.0029848958 -0.017323963 0.10739246 -0.0003854719
0.0011461645 0.13215491 0.016352816 -0.00020546438 0.0006172172 1.2833291e-05 0.015095865 0.041464955
-0.0025456583 -0.00012589362 -0.00502274 -0.005235742 -0.10362494 -0.056124903 -0.0013884032 -0.10313752
0.09825412 -0.10556359 0.0023512344 -0.024633363 -0.0016431011 -0.003759897 0.14993781 0.007009358
0.0039440533 0.03014802 0.04543261 -0.075453974 0.031244645 -0.0019870792 -0.032133125 -0.020703156
-0.0030793224 -0.0045266487 0.0010444294 0.1764541 6.753389e-05 -0.0035663904 -0.017818108 -0.014566845
-0.0039047862 -0.09271969 0.018078132 0.0013402753 0.0028195572 0.021959117 0.00057119987 0.001365092
00000000: afde 95bc e477 973d 0ea9 85bd 7e2c 1b3d
00000010: 0ce1 643b 0822 bd3b 9798 15bb cedc 7bbb
00000020: 8b4c 323d 8391 97ba cd62 693b b497 803c
00000030: 1d3c a7bb 2c25 6ebb d1b8 b93d fb2e 1cba
00000040: c1fa 71bb a0ba 873d 950e 31bd 9354 8b3b
00000050: 7288 1bbb 1bac 0d3c a77a abbd a027 df3c
00000060: e5cf 13bb d8e7 30bb 128d 1f3c 4877 313c
00000070: 756d 0b3d 7d3e 4cbd 4421 993b 9d9d 0dbe
00000080: 565a 8e3c 5811 0e3e 9fc6 cbbb 98c1 94bd
00000090: 0df7 c93b 2067 a83b 801f d43c 2e86 64bc
000000a0: ca75 72bb ceee 34bc ebee 2f3d dc0a aebc
000000b0: c659 dd3c 9641 083b fa38 99bd 76be c8bc
000000c0: 5b4a 93bb 2189 103c a520 233b c0af 3d3d
000000d0: 0425 cc3a 0ce6 4b3a 5357 663b a018 033d
000000e0: 5ac3 bb3b d351 93bd 45d2 19bd c61c 58bb
000000f0: f931 53bb 93be 88bd d589 193b f604 24bb
00000100: a0fc db3d c31b ee3c cfd3 573e b900 863d
00000110: 0af6 d6bb 4dbe 8d3c c20f 233c 3ea4 c13b
00000120: d382 413d 4354 493c f12c 0dbb 4bd8 a4bc
00000130: 324a c0bb 761d 7939 a4c8 88bd 2ebe 723b
00000140: 3d81 06bc c015 a83d 525a 923c e4a8 9b3c
00000150: 2830 e4bb bf8e bf3c fa1e bb3d b258 513b
00000160: 8c75 953c 9fab 09bc c829 2ebb 03b8 40bc
00000170: 488b 3cbd 9a76 0abe 8fae 603b 6398 10be
00000180: 0112 bdbd be15 223e ecb1 cdbc f60f 85be
00000190: f3f6 d33c 40d6 1abc 10fc 333d dac2 67bc
000001a0: d0d5 c7ba 2ed9 ad3c 98e5 293c 3288 44bd
000001b0: eabd 53be 7dc3 e83b 5118 a7bd e0af 583c
000001c0: ac99 3d3c f41e b1bb 8786 423c c2d4 293d
000001d0: 3897 553c 6750 853c f788 cc3d 18a9 e3bc
000001e0: ea5a bc3c ce08 abbd a53f 1bbd a4ad 55bb
000001f0: 18fb 89bc 531e 19bd 1b23 e5bb 6e11 053b
00000200: 1884 f5bc 0908 283e 5ad2 4b3c 33b2 873d
00000210: aef4 78bc d836 bc3c d815 26bc 4c24 64bc
00000220: e07f eb3d 00cd 703c 0688 4dbd 7a35 043d
00000230: bd6a 22bd bc79 5b3c e342 ce3d 4815 a53b
00000240: 9fed d0bb 0128 9e3d c6c4 713d 07d2 bb3c
00000250: 3d73 a0ba 2b2e d23a e46f cd3c f65f f5bc
00000260: b339 b93c dc28 80bc a231 fdbb 3866 e63d
00000270: e8d5 5dbd 4f9a 81bc 9692 7cba 892c 13be
00000280: 60ab ee3b a807 333e 2d4a d6bc c464 6cbe
00000290: 2753 343d aff8 b43b de6d b0bd c7ab 0cbd
000002a0: 2e4b 333a 05c0 4fbd 279d 24bd 5a23 4bbc
000002b0: 3644 02be fc87 983c 9eea a8bd 77fa a83c
000002c0: e303 323c d4ca 593c 8cda 243a 38be db3d
000002d0: b469 bc3b 18b0 733d bfd4 2f3e 737d 0ebb
000002e0: 9069 633c 72f6 d6bc baa2 14be c210 81bc
000002f0: ad31 89bc 5638 d83c 6909 1cbb 27b3 4ebb
00000300: ca59 d4bc 97e4 00be c001 eabd 107d 94bd
00000310: 7d23 983a 6622 53ba 1d8e d238 81ac ed3a
00000320: aa79 9cbd a0ac aeb9 1dc4 af38 e63e 163c
00000330: 3e9e 433b fcea 8dbc 94f0 db3d 2a19 cab9
00000340: e63a 963a 9e53 073e 57f6 853c ed71 57b9
00000350: bfcc 213a 914e 5737 a654 773c 28d7 293d
00000360: 0fd5 26bb 5002 04b9 cc95 a4bb 9690 abbb
00000370: 5039 d4bd 3ae3 65bd 15fb b5ba c439 d3bd
00000380: 7539 c93d b931 d8bd 2b17 1a3b e8cb c9bc
00000390: 535d d7ba 9b68 76bb 4c89 193e c2ae e53b
000003a0: 1e3d 813b fbf8 f63c 8b17 3a3d 9d87 9abd
000003b0: c5f4 ff3c a839 02bb 069e 03bd aa99 a9bc
000003c0: 75ce 49bb 4854 94bb 3ce5 883a 62b0 343e
000003d0: fba0 8d38 1aba 69bb 48f7 91bc c7a9 6ebc
000003e0: 71e7 7fbb d2e3 bdbd 9718 943c 2dac af3a
000003f0: 52c8 383b 9be3 b33c 93bc 153a e3ec b23a

rnn.bias_ih_l0 f4 [256]
0.104823686 0.21934293 0.26836094 0.04987591 -0.09926289 -0.04359378 -0.15093085 -0.089572
-0.1112252 -0.052327782 -0.079748616 0.32712677 -0.16968109 0.10050336 0.29343414 -0.0865872
-0.095092796 0.65510684 0.46363786 -0.011864811 -0.08660567 -0.02701579 -0.048089057 0.31985518
0.047845535 -0.094114594 -0.057666775 -0.08917449 -0.15079483 0.5572014 -0.17092386 0.2114598
0.10841131 0.018429114 -0.027775278 0.25619793 0.004280298 -0.01743766 0.19401814 -0.030576412
-0.17338789 0.31125757 -0.004491652 0.13080646 -0.061880898 -0.062972754 0.09017458 -0.13470286
-0.041826107 -0.12937687 -0.06891855 0.27436307 -0.05324079 -0.099002495 0.074459314 0.28579432
-0.08938692 -0.086707145 -0.12190541 -0.11021451 -0.10218569 0.39670447 -0.0835325 -0.15221481
-0.10170703 0.00888206 -0.09695824 0.06528232 -0.08618227 -0.0575794 -0.049173508 -0.04743214
-0.2715511 -0.06774335 -0.092555314 -0.3747194 -0.1264646 -0.116972215 -0.13034129 -0.06017749
-0.07875827 -0.25170153 -0.08302713 -0.07714935 -0.079594694 -0.035677724 -0.00737617 0.009603948
-0.04452542 -0.09252671 -0.10068933 -0.1464309 -0.048451062 -0.28354093 -0.048659563 0.01759432
-0.09615795 -0.08028693 -0.05344223 -0.14015579 -0.073366515 -0.043984126 -0.13879023 -0.07030999
-0.092445225 -0.2797311 -0.1728888 -0.17341849 -0.056347832 -0.09457286 -0.18557934 -0.13910769
-0.04886428 -0.086676344 -0.050679088 0.009356525 -0.076073796 -0.073679745 0.064817965 -0.19710982
-0.05325223 -0.05592551 -0.1162416 -0.06478623 -0.087531336 -0.24489738 -0.05440031 -0.058132727
0.03634351 0.11369307 -0.1134342 0.06386586 0.0065351487 -0.0039029426 -0.0005629384 -0.048467297
0.022421192 0.013069763 -0.099949576 -0.10301237 -0.028370596 0.11843385 0.13564712 -0.024959454
0.023290062 0.020336047 -0.10680273 -0.05550295 -0.0016910239 0.018986348 0.015530102 0.08895805
0.0035651557 -0.03616268 -0.10531247 -0.0074055768 -0.076153345 0.092257135 -0.05132809 0.060805395
0.02064082 0.018408818 -0.03701019 0.05257493 0.013154253 -0.056442376 0.01641933 0.046137646
0.014678656 -0.14564955 0.0989796 0.038440984 -0.03672219 0.037335407 -0.13851698 -0.034205306
-0.0013870815 -0.02335189 -0.037520774 0.0113082975 -0.033404548 -0.07622248 0.08771441 -0.06543862
-0.055094644 -0.08028599 0.011362162 0.009186169 -0.051484916 -0.07161795 0.014108007 -0.031721268
0.19905867 0.25437823 0.1336636 -0.05172055 -0.09933066 -0.043636266 -0.14768875 -0.092135854
-0.11449449 -0.052437127 -0.10983969 0.2594484 -0.22857131 0.022396859 0.36943182 -0.086620316
-0.09512646 0.5769354 0.5243051 -0.011777765 -0.086620264 -0.027291013 0.020130608 0.26684067
0.048032578 -0.08903959 -0.1033873 -0.024238123 -0.0135948695 0.5557174 -0.1445868 0.2696011
-0.021011403 0.14846061 -0.027777463 0.42019933 0.0042584306 -0.043935053 0.24188334 -0.09032243
-0.21504475 0.35990828 0.08790294 0.0674261 -0.09687896 -0.062952794 0.121714905 -0.15393263
-0.041766435 -0.055443093 -0.06900182 0.23982921 -0.0532707 -0.15114492 -0.049564395 0.2758498
-0.08950241 -0.10028856 -0.11262761 -0.11025026 -0.1023111 0.2639796 -0.083592616 -0.17634137
00000000: cdad d63d 6f9b 603e 9b66 893e af4a 4c3d
00000010: 584a cbbd 648f 32bd 9e8d 1abe 8671 b7bd
00000020: 0aca e3bd a855 56bd 3e53 a3bd 297d a73e
00000030: e1c0 2dbe b5d4 cd3d 003d 963e a154 b1bd
00000040: 03c0 c2bd 15b5 273f f161 ed3e a064 42bc
00000050: 505e b1bd 3850 ddbc 08f9 44bd 0fc4 a33e
00000060: aef9 433d 27bf c0bd ff33 6cbd 1da1 b6bd
00000070: f669 1abe c0a4 0e3f aa06 2fbe eb88 583e
00000080: c006 de3d a7f8 963c fb88 e3bc 602c 833e
00000090: be41 8c3b 6cd9 8ebc b1ac 463e 627b fabc
000000a0: 988c 31be 275d 9f3e b52e 93bb 21f2 053e
000000b0: d376 7dbd dcf7 80bd 73ad b83d 8cef 09be
000000c0: da51 2bbd 5f7b 04be 2b25 8dbd 5179 8c3e
000000d0: 0413 5abd d2c1 cabd 207e 983d a253 923e
000000e0: 7d10 b7bd 8493 b1bd 8ba9 f9bd 25b8 e1bd
000000f0: bb46 d1bd d91c cb3e 1613 abbd 33de 1bbe
00000100: c64b d0bd 0f86 113c 0b92 c6bd bdb2 853d
00000110: 5480 b0bd 60d8 6bbd 296a 49bd 3448 42bd
00000120: bf08 8bbe 07bd 8abd a48d bdbd 39db bfbe
00000130: f07f 01be 218f efbd 3078 05be ac7c 76bd
00000140: 044c a1bd 06df 80be 210a aabd 7a00 9ebd
00000150: 8b02 a3bd ce22 12bd ccb3 f1bb e159 1d3c
00000160: 4960 36bd a57e bdbd 3536 cebd fbf1 15be
00000170: 9f74 46bd 472c 91be 404f 47bd f721 903c
00000180: 76ee c4bd 796d a4bd 3de6 5abd 0085 0fbe
00000190: 2f41 96bd b328 34bd 071f 0ebe affe 8fbd
000001a0: ec53 bdbd ea38 8fbe c309 31be 9e94 31be
000001b0: fccc 66bd 6aaf c1bd 8308 3ebe 3f72 0ebe
000001c0: e925 48bd 5e83 b1bd e094 4fbd 1c4c 193c
000001d0: 94cc 9bbd 68e5 96bd 48bf 843d 28d7 49be
000001e0: 031f 5abd 2612 65bd 1310 eebd a5ae 84bd
000001f0: a143 b3bd 61c6 7abe dcd2 5ebd 951c 6ebd
00000200: efdc 143d ead7 e83d 3150 e8bd 1bcc 823d
00000210: cd24 d63b 83c8 7fbb 2892 13ba a585 46bd
00000220: a6ac b73c 8f22 563c 5db2 ccbd 26f8 d2bd
00000230: 7469 e8bc 728d f23d 14e7 0a3e c577 ccbc
00000240: cdca be3c c897 a63c 64bb dabd 1057 63bd
00000250: 59a5 ddba 4289 9b3c f871 7e3c a32f b63d
00000260: 63a5 693b 511f 14bd 10ae d7bd 7baa f2bb
00000270: 49f6 9bbd 4ff1 bc3d 673d 52bd 140f 793d
00000280: f016 a93c 17ce 963c ff97 17bd cf58 573d
00000290: f084 573c 1f30 67bd d581 863c d4fa 3c3d
000002a0: bf7e 703c 2825 15be d1b5 ca3d 4b74 1d3d
000002b0: 026a 16bd 03ed 183d 65d7 0dbe dd1a 0cbd
000002c0: bbce b5ba 764c bfbc 62af 19bd 7046 393c
000002d0: 35d3 08bd 881a 9cbd 9da3 b33d af04 86bd
000002e0: ecaa 61bd fb6c a4bd 5d28 3a3c 9681 163c
000002f0: d9e1 52bd 6fac 92bd 4525 673c 29ee 01bd
00000300: 09d6 4b3e dd3d 823e 1cdf 083e edd8 53bd
00000310: e06d cbbd f1bb 32bd b83b 17be b9b1 bcbd
00000320: 167c eabd 50c8 56bd a2f3 e0bd 6cd6 843e
00000330: 990e 6abe 9e79 b73c 2b26 bd3e fe65 b1bd
00000340: a9d1 c2bd 0ab2 133f dc38 063f 87f7 40bc
00000350: f765 b1bd 6791 dfbc f2e8 a43c 579f 883e
00000360: cfbd 443d 635a b6bd b9bc d3bd 078f c6bc
00000370: 04bd 5ebc 7f43 0e3f 900e 14be 2809 8a3e
00000380: 1b20 acbc 0f06 183e 908d e3bc 5e24 d73e
00000390: 4e8a 8b3b 3ef5 33bd 44b0 773e f7fa b8bd
000003a0: b134 5cbe e645 b83e 7506 b43d b216 8a3d
000003b0: 7a68 c6bd 65ed 80bd aa45 f93d 84a0 1dbe
000003c0: 4813 2bbd 4c18 63bd d450 8dbd ca95 753e
000003d0: 6132 5abd bcc5 1abe 0904 4bbd 2f3c 8d3e
000003e0: 0a4d b7bd 1764 cdbd 4ea9 e6bd e3ca e1bd
000003f0: 7b88 d1bd 5628 873e 9b32 abbd d592 34be

rnn.bias_hh_l0 f4 [256]
0.123293884 0.13038976 0.10314774 0.047501724 -0.09926286 -0.043593787 -0.14722541 -0.0896771
-0.14645192 -0.05232772 -0.015093704 0.27239418 -0.22154856 0.008571534 0.32450306 -0.0865872
-0.095092766 0.609303 0.3840488 -0.011873591 -0.086605966 -0.027016152 0.029312385 0.22798213
0.04784555 -0.09213702 -0.1269515 -0.08578273 -0.105885856 0.61678535 -0.17707731 0.19926377
0.09309516 -0.031465083 -0.027774932 0.38499779 0.0042802966 -0.040349044 0.26459494 -0.1008901
-0.22054882 0.23527668 0.14449558 0.1921714 -0.07374277 -0.062972754 -0.005006774 -0.15845472
-0.041585643 -0.05266122 -0.068930976 0.19634835 -0.05323969 -0.10646719 0.14471526 0.27943707
-0.08980689 -0.1231394 0.008702245 -0.11021561 -0.102054216 0.41247442 -0.083530866 -0.13376921
-0.004176388 0.17933346 0.13742141 -0.051542137 -0.08618227 -0.0575794 -0.049156304 -0.047583222
-0.24993014 -0.06774335 -0.10377821 -0.35312492 -0.11429618 -0.12318135 -0.0807494 -0.060177498
-0.07875827 -0.2547844 -0.11283201 -0.077149354 -0.079594694 -0.035677724 -0.0060291234 -0.090429
-0.04452542 -0.09256001 -0.11437627 -0.06413842 -0.088280685 -0.299758 -0.048659723 -0.03602023
-0.012040077 0.025538428 -0.053442243 -0.12290772 -0.073366515 -0.043969404 -0.051726986 -0.1211845
-0.10963382 -0.28522834 -0.1872471 -0.12126458 -0.08827031 -0.09457286 -0.23030199 -0.116321124
-0.048841603 -0.06077604 -0.050679088 -0.1379189 -0.076073796 -0.0581218 -0.0035848217 -0.18057556
-0.05325242 -0.04440878 -0.037033636 -0.06478623 -0.087531336 -0.19413653 -0.05440031 -0.060758013
-0.08872121 -0.10630064 0.074807785 -0.031135725 -0.061497584 0.03402798 0.010864495 0.117759444
-0.15023682 0.022050824 0.040409647 0.06308867 0.024507923 -0.08941406 -0.0070548016 0.046937346
-0.03733667 -0.030955743 -0.023646474 0.07651675 0.0041267476 -0.031867888 -0.032529257 -0.08245479
0.06673582 -0.000896423 0.032180924 0.09659324 -0.0013997916 0.12734 0.009456859 -0.16912445
-0.03591615 0.06593494 0.014812254 -0.08025521 0.048154775 0.0083939405 -0.058068346 -0.007205337
-0.03241801 0.021847112 -0.048161414 -0.06756429 0.11886378 0.014602836 0.054569922 -0.039242372
0.08832748 0.007645858 0.06562108 0.08330274 0.065304235 0.10517195 -0.006147228 -0.089944065
0.058208045 -0.061824504 0.048375472 0.0070962976 -0.001955287 0.015309677 -0.06710056 0.07908179
0.08548362 0.08756896 0.16962785 -0.02720234 -0.099330686 -0.04363617 -0.1524581 -0.09557608
-0.102232605 -0.052437235 -0.087228104 0.26905286 -0.24072333 0.05929169 0.29179624 -0.08662043
-0.09512654 0.64245087 0.53440976 -0.011787071 -0.08662077 -0.027291054 -0.07957315 0.22777882
0.048032586 -0.09888692 -0.021629374 0.0018461945 -0.062167056 0.6258551 -0.14551358 0.32853135
-0.030275457 0.10886907 -0.027778279 0.4568189 0.004258426 -0.03144046 0.21953738 -0.02491314
-0.06574726 0.34318978 0.028222926 0.13977909 0.114333816 -0.06295283 0.095937155 -0.1795158
-0.041337717 -0.086084165 -0.069134906 0.42187947 -0.053268977 -0.15472579 -0.009817202 0.29441756
-0.0897046 -0.10877436 -0.08353289 -0.110250935 -0.102428876 0.2718287 -0.08359284 -0.17152879
00000000: 8181 fc3d e584 053e 1f3f d33d 2b91 423d
00000010: 544a cbbd 668f 32bd 42c2 16be a1a8 b7bd
00000020: 7ef7 15be 9755 56bd 954b 77bc 4077 8b3e
00000030: a0dd 62be 9f6f 0c3c 4425 a63e a154 b1bd
00000040: ffbf c2bd 48fb 1b3f 0ba2 c43e 7389 42bc
00000050: 785e b1bd fa50 ddbc 8720 f03c 2674 693e
00000060: b2f9 433d 55b2 bcbd 93ff 01be dbae afbd
00000070: afda d8bd a5e5 1d3f c153 35be cd0b 4c3e
00000080: ada8 be3d 88e1 00bd 4188 e3bc 6e1e c53e
00000090: bb41 8c3b 0a45 25bd fd78 873e 789f cebd
000000a0: 8dd7 61be 5fec 703e a6f6 133e 94c8 443e
000000b0: 7306 97bd dcf7 80bd dd0f a4bb f441 22be
000000c0: b555 2abd 4bb3 57bd af2b 8dbd 8b0f 493e
000000d0: dc11 5abd 780b dabd 3d30 143e 6012 8f3e
000000e0: adec b7bd 8230 fcbd dc93 0e3c b9b8 e1bd
000000f0: cd01 d1bd d92f d33e 3b12 abbd ccfa 08be
00000100: 15da 88bb 31a3 373e 33b8 0c3e d91d 53bd
00000110: 5480 b0bd 60d8 6bbd 1f58 49bd a0e6 42bd
00000120: b0ed 7fbe 07bd 8abd ac89 d4bd cacc b4be
00000130: 1e14 eabd 8146 fcbd f15f a5bd ae7c 76bd
00000140: 044c a1bd 1a73 82be 7814 e7bd 7b00 9ebd
00000150: 8b02 a3bd ce22 12bd f48f c5bb d732 b9bd
00000160: 4960 36bd 1a90 bdbd 1b3e eabd 015b 83bd
00000170: 81cc b4bd e179 99be 6b4f 47bd f389 13bd
00000180: be43 45bc f735 d13c 41e6 5abd 0bb7 fbbd
00000190: 2f41 96bd 4319 34bd addf 53bd 942f f8bd
000001a0: b287 e0bd 7309 92be b4bd 3fbe 9059 f8bd
000001b0: 10c7 b4bd 6aaf c1bd 49d4 6bbe c539 eebd
000001c0: 220e 48bd 4cf0 78bd e094 4fbd 9d3a 0dbe
000001d0: 94cc 9bbd 2011 6ebd 54ef 6abb cde8 38be
000001e0: 361f 5abd fbe5 35bd 95b0 17bd a5ae 84bd
000001f0: a143 b3bd bacb 46be dcd2 5ebd 65dd 78bd
00000200: 77b3 b5bd 26b4 d9bd d334 993d 5910 ffbc
00000210: e4e4 7bbd ec60 0b3d ff00 323c dd2b f13d
00000220: aed7 19be eea3 b43c 9684 253d a234 813d
00000230: d7c4 c83c b81e b7bd f72b e7bb 6041 403d
00000240: 56ee 18bd e696 fdbc 40b6 c1bc d0b4 9c3d
00000250: ab39 873b e787 02bd 663d 05bd 0fde a8bd
00000260: caac 883d eefd 6aba 25d0 033d add2 c53d
00000270: 3679 b7ba 6b65 023e f1f0 1a3c f62e 2dbe
00000280: d01c 13bd e608 873d 19af 723c d85c a4bd
00000290: f13d 453d bd86 093c 13d9 6dbd bf1a ecbb
000002a0: bfc8 04bd b7f8 b23c e744 45bd 255f 8abd
000002b0: da6e f33d bc40 6f3c b684 5f3d 9cbc 20bd
000002c0: 0ae5 b43d 1b8a fa3b 5864 863d a09a aa3d
000002d0: 3abe 853d 6464 d73d b06e c9bb 9834 b8bd
000002e0: 8f6b 6e3d b13b 7dbd 5c25 463d 0f88 e83b
000002f0: 4624 00bb 71d5 7a3c 056c 89bd a2f5 a13d
00000300: 0912 af3d 5b57 b33d ecb2 2d3e 71d7 debc
00000310: e36d cbbd d7bb 32bd fa1d 1cbe 64bd c3bd
00000320: 545f d1bd 6dc8 56bd a6a4 b2bd 4cc1 893e
00000330: 2d80 76be d8db 723d 5166 953e 0d66 b1bd
00000340: b4d1 c2bd a977 243f 14cf 083f 8f1e 41bc
00000350: 3b66 b1bd 7d91 dfbc 3ff7 a2bd da3e 693e
00000360: d1bd 443d 3a85 cabd 1630 b1bc 02fc f13a
00000370: e2a2 7ebd 0a38 203f 8301 15be 4335 a83e
00000380: 3c04 f8bc bff6 de3d 468f e3bc 2be4 e93e
00000390: 448a 8b3b b6c7 00bd 68ce 603e a416 ccbc
000003a0: 80a6 86bd 92b6 af3e c433 e73c 4022 0f3e
000003b0: d927 ea3d 6aed 80bd b37a c43d fdd2 37be
000003c0: bd51 29bd e54c b0bd 9a96 8dbd 9600 d83e
000003d0: 9230 5abd 7070 1ebe 54d8 20bc e6bd 963e
000003e0: 0cb7 b7bd 17c5 debd 4b13 abbd 3ecb e1bd
000003f0: 3bc6 d1bd 222d 8b3e b932 abbd 3ea5 2fbe

rnn.weight_ih_l1 f4 [256, 64]
1.1880614e-06 -0.016070353 -0.0010931337 -2.0307134e-05 1.689342e-05 -1.6037617e-05 6.9755706e-06 8.1511525e-06
8.611147e-06 -1.3825182e-05 1.3337295e-05 8.65582e-06 2.4918213e-06 1.7720222e-06 -4.5489895e-05 5.2417554e-06
5.5231544e-06 8.97916e-05 3.793327e-05 -1.3824229e-05 2.3352775e-06 6.0112075e-06 -0.00016635597 -3.8897095e-05
-1.3809206e-05 1.4085647e-05 3.9203176e-05 -4.635735e-05 0.00019014523 -0.00010075831 4.760898e-07 3.382576e-05
8.300324e-05 -0.00026886305 1.8781713e-05 3.8740392e-05 1.645634e-05 -5.686069e-06 8.93598e-05 -3.2300806e-05
-1.1810597e-05 5.958433e-05 4.350786e-06 -1.8875326e-05 5.3061717e-06 -1.9930661e-05 -3.5515877e-05 1.4214497e-05
1.8002644e-05 2.25889e-05 6.6051725e-06 -4.1582687e-05 -1.9625386e-06 8.345552e-07 -0.0001395922 0.000118291864
1.03339235e-05 2.2708567e-05 5.101626e-06 -5.742483e-06 4.3582295e-06 0.010465513 -1.1723426e-05 -1.4098703e-05
0.00026153025 -0.014499754 -0.0006144687 -3.4713426e-05 -4.9094538e-06 -1.8205925e-05 -9.090564e-05 -6.6087705e-05
-8.836484e-05 -2.7156713e-05 8.802874e-05 -3.6667105e-05 5.989471e-06 1.8054276e-05 -0.0004026891 -9.906172e-06
1.5657669e-06 0.0003829875 0.00035214212 -4.3690616e-05 1.2754664e-05 -4.8355145e-05 0.00015809851 -0.00018062945
-4.907811e-05 2.9211599e-06 7.840509e-05 -4.6443653e-05 -4.225587e-05 -0.00027641127 7.923518e-05 0.00030098803
-0.00020885638 -7.0258124e-05 5.8158515e-05 0.00034222013 -3.860065e-05 0.00015464789 0.00024448105 -0.0001557726
-0.00012701395 0.00018692321 -5.0630402e-05 -4.712431e-06 -0.00033249523 6.6809635e-06 -0.000118968106 8.2556006e-05
-3.7877784e-05 0.00014995405 -5.5168737e-05 -0.00025690132 -3.369077e-05 -4.516979e-05 1.40736e-05 0.0001225924
7.845267e-06 7.992223e-05 -6.531534e-05 -2.0632833e-05 -1.6303058e-05 0.009343694 4.439132e-05 -5.5619807e-05
-0.00076906633 -0.0034253744 -0.0016942552 -0.0004777816 0.0007278599 -0.00052082964 -0.00052066025 -0.0010057571
-0.000888235 -0.0006277946 0.000752733 0.0009430506 0.00029842526 -0.00055649766 0.0015165462 -0.00024927573
0.0001531283 0.0040358356 -0.0018049834 -0.0005794758 0.00013295804 -0.00023630765 -0.0011752256 -0.00082610664
-0.0011571374 0.000533319 0.00045030128 -0.0004972117 0.0012026101 -0.0038405603 0.0008496225 -0.0016461028
0.0012303937 -0.002030294 0.00045500416 -0.0018336097 -0.0011056617 0.00083164155 0.0034561523 0.00018923661
-0.00020083392 0.0018386765 0.0010775191 -0.0019335997 0.0012831625 -0.00059880887 -0.00048849615 -0.00017333195
-0.001121819 0.00014193314 -0.00059344387 0.001274474 -0.0005307689 -0.000565889 -0.0012849566 -0.0010139769
-0.0005575623 -0.00029741527 0.0011673644 -0.00019694514 0.0003871515 0.00483744 0.00070312305 -0.0007788616
0.0028132154 0.002858908 0.0045454907 0.00039564076 -0.0015482589 0.0016435932 0.0010132848 0.0014921969
0.00044925418 0.0015260837 -0.0009960802 0.00066459615 -0.0015440065 -0.0016116071 -0.0058096917 0.0009967887
-0.00033687882 0.007840554 0.0077035604 0.0021362437 0.00042472561 0.00062688167 0.0025420606 0.00059255556
0.00085749436 -0.0011324615 -0.00022254727 -0.0007504701 -0.0007027591 -0.013284459 -0.0015169161 0.00247617
-0.0013953133 0.0012106204 -0.0018915191 0.001516535 0.0007966318 -0.001059922 0.0049810135 0.0004155364
0.0008104317 0.007041384 -0.0007086234 -0.0019337062 -0.0017404975 0.0015065344 -4.6985297e-05 0.00064231874
0.0006982795 -0.000844049 0.0017408722 -0.0037523366 0.0020335573 0.0013577689 0.00068665744 0.0067262896
0.0017955307 0.0017857496 -0.0006547507 0.0010796878 -0.00037896793 -0.0025869664 -0.0018278295 0.0013573212
00000000: 7b75 9f35 f9a5 83bc 7b47 8fba 3d59 aab7
00000010: 58b6 8d37 8588 86b7 b20f ea36 efc0 0837
00000020: 9878 1037 b4f2 67b7 3fc3 5f37 7738 1137
00000030: 2a39 2736 38d6 ed35 67cc 3eb8 56e2 af36
00000040: 8953 b936 804e bc38 8a1a 1f38 9dee 67b7
00000050: c3b7 1c36 e1b3 c936 d76f 2eb9 7025 23b8
00000060: 17ae 67b7 6551 6c37 176e 2438 d36f 42b8
00000070: b961 4739 354e d3b8 4999 ff34 22e0 0d38
00000080: 0612 ae38 30f6 8cb9 6c8d 9d37 2e7d 2238
00000090: b90b 8a37 f6ca beb6 ad66 bb38 ba7a 07b8
000000a0: 2126 46b7 30ea 7938 f8fc 9136 7456 9eb7
000000b0: ab0b b236 c530 a7b7 e2f6 14b8 cd7a 6e37
000000c0: 6204 9737 4b7d bd37 00a2 dd36 1269 2eb8
000000d0: 28b4 03b6 3206 6035 7f5f 12b9 7613 f838
000000e0: dd5f 2d37 477e be37 a22e ab36 8eaf c0b6
000000f0: e83c 9236 8b77 2b3c bbaf 44b7 7889 6cb7
00000100: ff1d 8939 6090 6dbc 4c14 21ba 4299 11b8
00000110: e3bb a4b6 edb8 98b7 98a4 beb8 9198 8ab8
00000120: 8350 b9b8 99ce e3b7 129c b838 01cb 19b8
00000130: 2af9 c836 4373 9737 0420 d3b9 af32 26b7
00000140: 5727 d235 b6cb c839 b79f b839 7140 37b8
00000150: ddfc 5537 f1d0 4ab8 3fc7 2539 5967 3db9
00000160: 38d9 4db8 2509 4436 6a6d a438 7ecc 42b8
00000170: e53b 31b8 4beb 90b9 102b a638 eecd 9d39
00000180: 7500 5bb9 8b57 93b8 3bef 7338 026c b339
00000190: 22e7 21b8 fa28 2239 b12d 8039 e456 23b9
000001a0: 0c2f 05b9 d100 4439 fb5b 54b8 791f 9eb6
000001b0: c152 aeb9 0a2d e036 847e f9b8 eb21 ad38
000001c0: f6de 1eb8 fc3c 1d39 fb64 67b8 b6b0 86b9
000001d0: 304f 0db8 b174 3db8 a71d 6c37 268c 0039
000001e0: 2a9f 0337 ec9b a738 e8f9 88b8 ac14 adb7
000001f0: 8dc2 88b7 4b16 193c d130 3a38 5049 69b8
00000200: 2b9b 49ba 3f7c 60bb c511 deba c37e fab9
00000210: dacd 3e3a 4988 08ba eb7c 08ba 9cd3 83ba
00000220: 71d8 68ba 9592 24ba 0e53 453a 0e37 773a
00000230: f675 9c39 ede1 11ba d9c6 c63a 39b1 82b9
00000240: 1191 2039 0b3f 843b 3195 ecba f6e7 17ba
00000250: a76a 0b39 5ac9 77b9 070a 9aba 148f 58ba
00000260: 17ab 97ba 6fce 0b3a 6a16 ec39 5057 02ba
00000270: e6a0 9d3a e9b1 7bbb 33b9 5e3a 0bc2 d7ba
00000280: 2945 a13a ae0e 05bb a08d ee39 bb55 f0ba
00000290: daeb 90ba 8502 5a3a 9d80 623b d16d 4639
000002a0: f296 52b9 bfff f03a 8b3b 8d3a d770 fdba
000002b0: ca2f a83a 62f9 1cba 6c0e 00ba 71c0 35b9
000002c0: 000a 93ba e3d3 1439 5891 1bba 400c a73a
000002d0: 4c23 0bba 2b58 14ba fd6b a8ba 6be7 84ba
000002e0: 5f29 12ba 67ee 9bb9 4002 993a 0f83 4eb9
000002f0: 98fa ca39 6383 9e3b ca51 383a 842c 4cba
00000300: ec5d 383b 845c 3b3b 57f2 943b 016e cf39
00000310: f3ee caba d66d d73a 32d0 843a d295 c33a
00000320: e089 eb39 df06 c83a e88e 82ba 4b38 2e3a
00000330: 4360 caba 903c d3ba 3a5f bebb aea6 823a
00000340: 1c9f b0b9 ab75 003c 266e fc3b 3900 0c3b
00000350: b5ad de39 5155 243a b398 263b bb55 1b3a
00000360: 79c9 603a 1a6f 94ba 945b 69b9 32bb 44ba
00000370: 5d39 38ba 0fa7 59bc 42d3 c6ba 3d47 223b
00000380: f2e2 b6ba aead 9e3a d9ec f7ba 78c6 c63a
00000390: 0ed5 503a 15ed 8aba c537 a33b 5adc d939
000003a0: 2773 543a 69bb e63b e9c2 39ba 6a74 fdba
000003b0: 6821 e4ba e876 c53a 1412 45b8 4861 283a
000003c0: be0c 373a 2b43 5dba fa2d e43a c3e9 75bb
000003d0: 6e45 053b 2af7 b13a cd00 343a 3568 dc3b
000003e0: 0358 eb3a d00f ea3a 93a3 2bba 5084 8d3a
000003f0: 37b0 c6b9 188a 29bb c893 efba 24e8 b13a

rnn.weight_hh_l1 f4 [256, 64]
-1.3730431e-06 -3.5038295e-07 -5.9408076e-06 -1.3818153e-05 -7.980347e-05 0.00015116019 -3.6866957e-05 1.03676775e-05
7.030745e-07 -9.1388586e-07 4.8504706e-05 -1.4252723e-05 -5.702593e-05 -0.00010539755 -3.9896427e-06 3.4533152e-06
-0.0001423018 -3.3018014e-06 1.1926336e-05 1.0137506e-05 8.100946e-06 -3.8250397e-05 1.7728617e-05 1.039514e-05
0.018369272 2.0989464e-06 2.9629346e-05 0.002588484 2.1678547e-05 -1.2680806e-05 -5.1225566e-06 1.5204147e-06
-7.0145015e-06 3.0968502e-07 -3.7601856e-06 -6.0034877e-06 5.527756e-06 4.053757e-05 1.102182e-06 -4.4628203e-05
6.5498148e-06 9.570708e-06 2.9871157e-05 -1.4861443e-05 2.9177588e-06 -8.664567e-05 -3.5127355e-06 4.952713e-06
-6.7826118e-06 -1.1777846e-06 0.00075247145 -0.00010334104 -0.0011325314 -8.434558e-07 -1.2276971e-06 0.01672074
5.709979e-06 2.4171199e-05 6.995619e-07 -3.777316e-06 1.8262085e-06 1.2996127e-05 -1.4101755e-06 -3.8980356e-06
-6.2277804e-06 -8.945637e-06 -1.6663245e-05 -5.0583625e-05 0.00026458624 -8.665001e-05 -0.00018463092 6.464225e-05
-1.0138853e-05 -7.9222883e-07 -8.355417e-05 -8.6550535e-05 -0.00057966675 9.187578e-05 -5.9691527e-05 9.111712e-05
6.4264656e-05 -1.0632003e-05 7.93734e-05 -1.7142262e-05 -2.8496195e-05 -0.00021980776 -0.00022741477 -2.9308956e-06
0.016717961 -7.747151e-06 1.2846988e-05 0.0020818678 6.431135e-05 -0.0002736029 -4.6053305e-05 3.9386297e-05
-1.1250258e-05 4.231184e-06 -1.0308211e-05 5.856385e-06 1.2823606e-05 0.00015571526 -4.8027737e-06 -0.00011295652
2.5115865e-05 -1.5986145e-05 -0.00021788494 -4.7455243e-05 0.00022831255 -0.00067963917 -5.1484576e-06 1.2323504e-05
-9.167538e-05 -2.4220371e-06 0.00036429087 0.00028838942 -0.00039205723 2.804543e-05 -1.8457291e-05 0.015330952
-1.15003695e-05 0.0004487698 3.4234943e-06 -5.141357e-07 1.27962285e-05 1.1880795e-05 1.3557665e-05 -3.1565643e-05
6.779306e-07 -1.7175618e-05 4.0132932e-07 -0.00016429099 -0.0006245089 0.000356518 -0.00035152963 0.00013988747
5.106434e-06 -2.4965379e-05 0.00033970474 6.0549075e-05 0.0014449267 -0.00037311632 -5.3344753e-05 0.00012336964
-0.0003151395 1.9876436e-06 0.00022322458 -0.00018441203 -3.084214e-05 -0.00039855053 0.00096917135 -4.0237255e-06
0.0046606553 -8.401719e-06 -0.00014944504 0.0008718564 0.00030584287 0.00042826452 -0.00012054149 -9.795741e-05
-1.7523102e-05 3.1815416e-05 7.5446087e-06 -3.482381e-05 0.00012921735 0.00033625273 -1.4912189e-06 -0.00027908685
5.7420744e-05 -0.00016480379 0.0003569281 -0.00022931438 -0.00042823658 0.0014077042 -6.867673e-05 4.5292512e-05
9.4827876e-05 -1.0938637e-05 0.00076220726 -0.0007682899 -0.001682577 -3.5378078e-05 -2.0340673e-05 0.0031214887
4.0640425e-05 -0.0016846417 2.1470169e-05 4.36666e-05 9.467587e-06 0.00023224692 8.8631305e-06 -5.377357e-05
-5.470747e-05 8.6281376e-05 0.00013855573 0.0008122441 0.00070293044 -0.00163948 0.00070728856 -0.00018335308
0.0001451912 -0.00022956124 -0.0008373787 -0.00050247693 0.0021211419 0.0016779812 0.00050807995 -0.0008626203
0.0022576859 -0.00047614903 -0.0011881478 0.0007720483 0.00018483585 0.0011136231 -0.0008764222 -0.0002679357
0.0009728342 0.00043471184 0.0013577134 -0.0022019313 -0.0009286761 0.00018415097 0.00023577793 -0.0003777492
0.00030298973 -8.2983686e-05 -0.00048308907 0.00044340952 0.00058446673 -0.0007425453 2.0598914e-05 -0.00027464746
0.0004031779 0.0009400064 -0.0015283179 0.00068826927 4.2591266e-05 0.0013498039 -0.00014877925 -0.00032683436
-0.00060616835 -0.00027876918 -0.0020056744 0.000811043 -0.0014742104 -3.4959705e-06 -0.00012884045 0.004994889
0.00022573903 -0.0012004527 6.0807808e-05 -0.00030378497 0.0003014207 0.0006250394 6.4533095e-05 -0.00018113377
00000000: 6749 b8b5 441c bcb4 2657 c7b6 84d4 67b7
00000010: 295c a7b8 c180 1e39 98a1 1ab8 d6f0 2d37
00000020: e9ba 3c35 c251 75b5 8871 4b38 fb1e 6fb7
00000030: 202f 6fb8 e108 ddb8 c5de 85b6 81bf 6736
00000040: d936 15b9 8494 5db6 3917 4837 4214 2a37
00000050: 4ce9 0737 0d6f 20b8 eab7 9437 c966 2e37
00000060: 287b 963c a0db 0c36 898c f837 8ea3 293b
00000070: 53da b537 a6bf 54b7 6de2 abb6 0d11 cc35
00000080: 1c5e ebb6 c942 a634 7f57 7cb6 9171 c9b6
00000090: 107b b936 e206 2a38 afee 9335 2b2f 3bb8
000000a0: 7bc6 db36 e191 2037 d293 fa37 6955 79b7
000000b0: b7ce 4336 8ab5 b5b8 56bc 6bb6 7b2f a636
000000c0: 3196 e3b6 5f14 9eb5 8141 453a ccb8 d8b8
000000d0: 7371 94ba d769 62b5 5ac7 a4b5 eff9 883c
000000e0: 5998 bf36 41c3 ca37 87c9 3b35 cb7d 7db6
000000f0: 0c1c f535 f109 5a37 4345 bdb5 dfcb 82b6
00000100: 3af8 d0b6 3815 16b7 0cc8 8bb7 c129 54b8
00000110: 2ab8 8a39 dfb7 b5b8 7c99 41b9 8b90 8738
00000120: 0b1a 2ab7 8da9 54b5 ce39 afb8 7782 b5b8
00000130: c7f4 17ba 6fad c038 4a5d 7ab8 2216 bf38
00000140: d3c5 8638 1b60 32b7 4575 a638 bacc 8fb7
00000150: 1d0b efb7 327c 66b9 3076 6eb9 67b0 44b6
00000160: 1bf4 883c c3f9 01b7 6589 5737 f26f 083b
00000170: e5de 8638 5c72 8fb9 5c29 41b8 b732 2538
00000180: 7dbf 3cb7 98f9 8d36 6ef1 2cb7 f781 c436
00000190: f824 5737 7f47 2339 8327 a1b6 12e3 ecb8
000001a0: e9af d237 fc19 86b7 0b78 64b9 ae0a 47b8
000001b0: 2f67 6f39 d029 32ba eac0 acb6 0cc1 4e37
000001c0: d841 c0b8 488a 22b6 4bfe be39 f932 9739
000001d0: 088d cdb9 1a43 eb37 bbd4 9ab7 ac2e 7b3c
000001e0: b6f1 40b7 dd48 eb39 2fbf 6536 2303 0ab5
000001f0: 62af 5637 a053 4737 ba75 6337 5a65 04b8
00000200: 09fb 3535 5c14 90b7 4876 d734 8745 2cb9
00000210: 15b6 23ba 09eb ba39 824d b8b9 c2ae 1239
00000220: ef57 ab36 be6c d1b7 661a b239 13f6 7d38
00000230: b263 bd3a d39e c3b9 7ebe 5fb8 c95c 0139
00000240: 4f39 a5b9 7563 0536 6411 6a39 ba5e 41b9
00000250: 7f5c 01b8 8cf4 d0b9 fd0f 7e3a 8a03 87b6
00000260: 69b8 983b 1cf5 0cb7 59b4 1cb9 4b8d 643a
00000270: 8959 a039 b188 e039 38cb fcb8 7c6e cdb8
00000280: 93fe 92b7 8b71 0538 b227 fd36 c80f 12b8
00000290: 857e 0739 144b b039 e425 c8b5 6752 92b9
000002a0: 0ed7 7038 2ecf 2cb9 1422 bb39 1c74 70b9
000002b0: f184 e0b9 b782 b83a 8a06 90b8 77f8 3d38
000002c0: 54de c638 1785 37b7 ddce 473a 1067 49ba
000002d0: ea89 dcba ec62 14b8 43a1 aab7 e491 4c3b
000002e0: 5375 2a38 32cf dcba d61a b437 a826 3738
000002f0: fad6 1e37 4f87 7339 dbb2 1437 ee8a 61b8
00000300: b375 65b8 f6f1 b438 4549 1139 c7ec 543a
00000310: dd44 383a d2e3 d6ba 5569 393a 7842 40b9
00000320: 773e 1839 60b6 70b9 8983 5bba a8b8 03ba
00000330: db02 0b3b b5ef db3a ab30 053a 7821 62ba
00000340: aff5 133b a4a3 f9b9 a0bb 9bba 4963 4a3a
00000350: 7fd0 4139 fef6 913a b3bf 65ba b979 8cb9
00000360: cc05 7f3a 09ea e339 4df5 b13a 474e 10bb
00000370: 6672 73ba a618 4139 283b 7739 a40c c6b9
00000380: 98da 9e39 8707 aeb8 1e47 fdb9 6b79 e839
00000390: e636 193a 5fa7 42ba d5cb ac37 8ffe 8fb9
000003a0: 9f61 d339 c36a 763a d751 c8ba f86c 343a
000003b0: 06a4 3238 e7eb b03a a001 1cb9 f75a abb9
000003c0: 45e7 1eba c427 92b9 a271 03bb 2d9c 543a
000003d0: 4b3a c1ba 519c 6ab6 5819 07b9 2aac a33b
000003e0: 5cb4 6c39 8258 9dba e30b 7f38 5445 9fb9
000003f0: 0008 9e39 afd9 233a f155 8738 baee 3db9

rnn.bias_ih_l1 f4 [256]
-0.07896885 -0.07268632 -0.061868664 -0.12037701 -0.09460415 -0.06425008 -0.1083637 -0.057075024
-0.07535007 -0.033643864 0.0805937 -0.105485894 0.019324511 0.014601465 -0.11526752 -0.06933237
-0.03174627 -0.067762144 -0.073088884 -0.08803853 -0.048689693 0.037705414 0.061370157 -0.04526832
0.7449289 -0.08685754 -0.107213885 -0.033937242 -0.043541666 -0.1260924 -0.07071836 -0.13970008
-0.074797705 -0.08100226 -0.1280614 -0.052875616 -0.044250455 -0.12292867 -0.061266445 -0.13332587
-0.06092533 -0.13286975 0.09631173 -0.1346818 -0.029231722 0.22145198 -0.06704052 -0.056204133
-0.038486432 -0.09148455 0.11935705 -0.048678026 0.18942189 -0.081061095 -0.047524024 0.5577299
-0.09735447 0.41215116 -0.08679945 -0.07830686 -0.056874014 -0.13987514 -0.07159316 -0.0373498
-0.0640097 -0.059074823 -0.029736176 -0.05449047 -0.020377334 0.070454694 -0.06664505 -0.043639995
-0.059830252 -0.022944361 -0.12201459 -0.061064888 -0.049255393 -0.1404859 -0.05234716 -0.04860599
0.079646625 -0.035838183 -0.028393961 -0.054992642 -0.020353403 -0.14572524 -0.1604876 -0.01533126
-0.1900888 -0.068535514 -0.08036767 -0.13402395 -0.10630664 -0.16029134 -0.047146246 -0.032699753
-0.04995929 -0.058660503 -0.060958184 -0.023213867 -0.030734 -0.06790739 -0.044517517 -0.09036729
-0.050532922 -0.05207594 -0.051922478 -0.044257976 -0.11800655 -0.1999011 -0.053682063 -0.030911487
-0.11044367 -0.07513169 0.07245365 0.012896723 0.0376481 -0.06656137 -0.031804703 -0.103246376
-0.057462852 -0.0747621 -0.072609805 -0.03011227 -0.039931823 -0.037518285 -0.05378919 -0.025870081
-0.015889661 0.054041293 -0.033201884 0.033319872 0.034558825 -0.025587734 0.02649063 -0.04715591
-0.0028325655 0.00748755 -0.10052074 0.08827894 0.024983564 0.10740587 0.056904938 0.00033351104
0.10046357 -0.08435362 0.102825165 -0.020476153 -0.04361156 -0.0009329045 -0.014928035 -0.043139353
-0.13758126 -0.09762996 0.018157266 -0.12807101 0.03466333 -0.026641836 -0.07362505 -0.08252219
0.0323816 0.04078216 0.094589144 -0.029063592 0.0089054275 -0.068953454 -0.017414607 0.06670735
0.00337624 0.012030401 -0.049005475 0.029713038 -0.102458805 0.09662755 -0.087727755 -0.057341322
0.0919232 -0.0051711593 -0.010568049 0.023892637 -0.1307525 0.010567475 -0.027081829 0.0005925409
-0.093285725 -0.043324914 0.059690133 0.065594345 -0.008369314 -0.03473806 0.055694185 0.025099332
-0.07898696 -0.07270473 -0.061859284 -0.120142266 0.091309965 -0.07096799 -0.108304694 -0.057100512
-0.07537017 -0.033662725 -0.057961524 -0.11819172 0.39619797 0.0070833024 -0.116082005 -0.06935178
-0.062904365 -0.06778743 -0.07308898 -0.08800848 -0.048723243 0.060453426 0.08372954 -0.045269836
0.7129273 -0.0868778 -0.11512336 -0.05784362 0.040558808 -0.09569806 -0.07074973 -0.13945247
-0.07479905 -0.081027284 -0.1282291 -0.052878458 -0.044272717 -0.12024687 -0.06128501 -0.14906801
-0.060936853 -0.13535674 -0.12091968 -0.14121711 0.017978042 0.33842036 -0.06705718 -0.056197602
-0.07994355 -0.091511585 0.06301537 -0.025876418 0.33195555 -0.08106632 -0.047545645 0.7295136
-0.09740637 0.41893113 -0.08681763 -0.07833318 -0.056899972 -0.13972445 -0.071609326 -0.03736698
00000000: 6cba a1bd 91dc 94bd ff69 7dbd 3988 f6bd
00000010: d2bf c1bd 8c95 83bd caed ddbd 80c7 69bd
00000020: 2351 9abd 26ce 09bd 4f0e a53d fd08 d8bd
00000030: 704e 9e3c fc3a 6f3c 6111 ecbd 21fe 8dbd
00000040: 6008 02bd e1c6 8abd a0af 95bd 8b4d b4bd
00000050: d86e 47bd fe70 1a3d 465f 7b3d 466b 39bd
00000060: a9b3 3e3f 5ee2 b1bd f492 dbbd c701 0bbd
00000070: bf58 32bd 5e1e 01be cad4 90bd 8a0d 0fbe
00000080: 8a2f 99bd 83e4 a5bd 8722 03be 1a94 58bd
00000090: f73f 35bd 07c2 fbbd 86f2 7abd 9486 08be
000000a0: d78c 79bd 020f 08be 163f c53d 07ea 09be
000000b0: 5d77 efbc 4fc4 623e 8a4c 89bd 4e36 66bd
000000c0: f3a3 1dbd 405c bbbd 7871 f43d 9c62 47bd
000000d0: d0f7 413e 5c03 a6bd 8da8 42bd 63c7 0e3f
000000e0: c861 c7bd 7a05 d33e e9c3 b1bd 595f a0bd
000000f0: baf4 68bd 6e3b 0fbe 6f9f 92bd 1bfc 18bd
00000100: 8517 83bd 71f8 71bd 4899 f3bc 6631 5fbd
00000110: 5eee a6bc 8d4a 903d 337d 88bd dabf 32bd
00000120: 9110 75bd d0f5 bbbc c9e2 f9bd 2d1f 7abd
00000130: 06c0 49bd 89db 0fbe fa69 56bd 1317 47bd
00000140: c51d a33d 0fcb 12bd 749a e8bc f73f 61bd
00000150: 2ebc a6bc ff38 15be dd56 24be f72f 7bbc
00000160: a3a6 42be 595c 8cbd ce97 a4bd 933d 09be
00000170: 4cb7 d9bd 6a23 24be 6c1c 41bd 2df0 05bd
00000180: 1da2 4cbd ff45 70bd 4aaf 79bd 022b bebc
00000190: dfc5 fbbc 0813 8bbd 0058 36bd 7c12 b9bd
000001a0: 9cfb 4ebd 954d 55bd aaac 54bd da47 35bd
000001b0: 6bad f1bd e0b2 4cbe b9e1 5bbd 163a fdbc
000001c0: 4a30 e2bd a5de 99bd 9462 943d c74c 533c
000001d0: e534 1a3d 5451 88bd a645 02bd d672 d3bd
000001e0: 2b5e 6bbd df1c 99bd 73b4 94bd 02ae f6bc
000001f0: 8d8f 23bd c6ac 19bd 0e52 5cbd 7eed d3bc
00000200: 092b 82bc 675a 5d3d b3fe 07bd 6b7a 083d
00000210: 8e8d 0d3d 5e9d d1bc e102 d93c 8e26 41bd
00000220: 90a2 39bb 1f5a f53b d1dd cdbd 97cb b43d
00000230: 55aa cc3c 9cf7 db3d 2715 693d 18db ae39
00000240: d8bf cd3d 97c1 acbd 0096 d23d 9bbd a7bc
00000250: 09a2 32bd 298e 74ba b894 74bc e4b2 30bd
00000260: 1ae2 0cbe 37f2 c7bd 8cbe 943c 0c25 03be
00000270: 23fb 0d3d fb3f dabc bbc8 96bd 6501 a9bd
00000280: 92a2 043d 320b 273d f4b7 c13d c516 eebc
00000290: 12e8 113c 7837 8dbd 14a9 8ebc dd9d 883d
000002a0: e843 5d3b 291b 453c f7b9 48bd c268 f33c
000002b0: ecd5 d1bd aae4 c53d 9caa b3bd bcde 6abd
000002c0: 3b42 bc3d d472 a9bb 9c25 2dbc 7eba c33c
000002d0: fce3 05be 3423 2d3c b6da ddbc bf54 1b3a
000002e0: 960c bfbd 7775 31bd a47d 743d 5456 863d
000002f0: 721f 09bc 7f49 0ebd 961f 643d 1d9d cd3c
00000300: eac3 a1bd 38e6 94bd 2960 7dbd 260d f6bd
00000310: b800 bb3d aa57 91bd dace ddbd 3ae2 69bd
00000320: ad5b 9abd ede1 09bd 1069 6dbd 800e f2bd
00000330: 76da ca3e 0c1b e83b 67bc edbd 4e08 8ebd
00000340: 01d4 80bd 23d4 8abd adaf 95bd ca3d b4bd
00000350: 0692 47bd 039e 773d 657a ab3d dd6c 39bd
00000360: 6782 363f fdec b1bd ccc5 ebbd 6fed 6cbd
00000370: fe20 263d 58fd c3bd 3ce5 90bd a1cc 0ebe
00000380: 3f30 99bd a2f1 a5bd 7d4e 03be 1597 58bd
00000390: 4f57 35bd fe43 f6bd fe05 7bbd 49a5 18be
000003a0: ec98 79bd f59a 0abe bda4 f7bd 389b 10be
000003b0: b046 933c 6f45 ad3e 4655 89bd 752f 66bd
000003c0: 72b9 a3bd 6d6a bbbd 340e 813d c8fa d3bc
000003d0: 14f6 a93e 1906 a6bd 39bf 42bd 67c1 3a3f
000003e0: fe7c c7bd 247e d63e 71cd b1bd 256d a0bd
000003f0: f20f 69bd ed13 0fbe e9a7 92bd 1e0e 19bd
