checkpoints/TP_LSTM_L2_bs16_trainNon0baseline_bsfirst_pos1_downsp_freq/TP_LSTM_L2_bs16_epoch650.pt (torch, 206200 bytes, 9 tensors)

rnn.weight_ih_l0 f4 [256, 3]
00000000: 1c31 913d 2ca5 973d 5dd0 8e3d 5751 5d3e
00000010: 01b2 d83e e525 4b3e 30a2 503d a8bf c43e
00000020: 7683 623d d4e3 cb3d 5ee2 b53d c063 d33d
00000030: 354c 5dbd 7d98 38bd 68b3 07bd ef12 8e3a
00000040: c749 333b 4991 5a3c 667d 76bc bce5 f6bb
00000050: de75 bd3b 2468 49bd 5cc3 03bd 4f64 14bc
00000060: 0615 163e 7936 4a3e c175 e53c 1b7b 52bd
00000070: 672c 1fbd 3b63 b5bc 7fb7 4dbd b2f0 07bd
00000080: 8a0f 1cbc ea64 403e e1cc 833c 4411 f7bf
00000090: 0401 d73e c8aa bf3e cd93 d03e fb9e f7bd
000000a0: 17b8 a8bd e680 adbc 2bbb 933e 6e0d 673e
000000b0: 3a78 93be ac04 2abd 6ac4 07bd 075f d1bc
000000c0: 51d6 32bd 63cc 07bd 945b b8bc defa 44bf
000000d0: e6f5 d1be 187e 173f 7009 373e 1691 e23e
000000e0: fa38 0a3e 0b6a 9b3e a548 863e 1352 893e
000000f0: e0b7 63bd da39 3cbd 5fbd 1dbd d0ae e43e
00000100: 3444 ba3e 9bb8 bb3e 135f 78bd 16e9 2bbd
00000110: 56ad 15bd 63d1 9dbe 9109 6bbe 8496 473e
00000120: 3855 ca3e 1101 b13e 9c8b b03e 214d 623d
00000130: 6321 3c3d de7c 773d ed6b 48bd 3fd4 1cbd
00000140: 4db9 eebc 11b0 4b3d 1a28 613d 360e 943d
00000150: fe51 98bd 6a47 2bbd e45c 99bc 70c4 dfbe
00000160: 5a3c 32be db80 563f 9238 2abd d03e ffbc
00000170: fa97 7ebc 3107 c23d d5ec f23e 0c8f 03be
00000180: 314f 713d 5fe1 ad3e 3bb2 acbd ce3a 1fbe
00000190: 7581 71bd ff1a 3dbe ddf7 9e3e 0694 873e
000001a0: affb 8d3e 62eb 07bf 2052 1c3f 0b63 463d
000001b0: 38c0 e53d d6f7 cb3d 7ad4 043e ad24 5a3e
000001c0: b97e 473e 1a5a 6a3e 44f7 7abe 24d9 1fbe
000001d0: 714c 1f3f 444c 5dbd 8f58 19bd e3ae b9bc
000001e0: fbb3 15bd f3d2 fbbc 1b3a 99bc ab43 0ebf
000001f0: b28d 7dbe de28 bf3e 10c4 1c3f c668 f33e
00000200: a0d2 6f3e efac d6be 5c28 e5bd e9a3 283e
00000210: c819 8ebd f8b7 54bd 784e 44bd a25a 843d
00000220: 3d9f 4a3d 5c65 663d ed44 32bf 035e 26bf
00000230: e955 07be 9b46 f23b 60d7 033d f4d1 353d
00000240: a509 993d 27bf 873d e95c 983d ad20 2cbd
00000250: 8e62 fbbc a99a 09bc 31cc fb3d 1760 db3d
00000260: afc6 fa3d 384e 583d d128 ab3e 3c99 cfbe
00000270: 14bd 6c3e c0d0 4b3e 66db 583e 3f0b 9bbc
00000280: b927 77bc 91ce 93bb 4478 8abd f87a a03e
00000290: d461 54be f1e3 103f 722b d33e aa34 f8be
000002a0: 72bf ef3e 9896 b63e 0cec 9b3e 3c50 1d3e
000002b0: 7b1c 033e b051 063e a113 80bd 164b 3cbd
000002c0: 569f 1fbd 5d3c 5ebd af71 3cbd ee04 0bbd
000002d0: e957 54bd 271e 2ebd dd39 08bd 80df 673e
000002e0: e034 3c3f 69b8 8f3e 70bd 22bc 6e4c 08ba
000002f0: 716c 633c 58e0 00bd eb36 a4bc 8d27 23bc
00000300: 6966 7abc 07b2 d1bb 8f31 1b3b 4d92 863c
00000310: b056 f13e c54c 683e d753 163e 3518 2e3e
00000320: 855e 11bd 4617 aebc 7985 69bc 7ce4 4b3b
00000330: 2eeb 45bd 7831 28bd bd96 f9bc 5f06 50bd
00000340: 9537 1cbd bc5e dbbc baf5 3fbd 6c0f 12bd
00000350: ad8c cfbc da98 1bbd cc63 e6bc 5887 34bc
00000360: 9372 28bd cb3b ca3c eabb b1bc 8a37 3bbd
00000370: d843 17bd db3a cbbc 6706 10bd 8015 d3bc
00000380: 5783 2fbc b0ec 963d 3219 113e 9156 87be
00000390: 800d 543c 7fcb 8e3d 2cbe 7f3d c243 10bd
000003a0: bd7e c2bc 059d 5fbc 7926 3fbe b47d 08bd
000003b0: 149c 5bbe a79e 2cbd 52fc 0abd d60a debc
000003c0: d572 23bd 314e f6bc 9796 abbc 3ea0 03be
000003d0: 499c b4be e7cd e03c 8570 f3bd 6f7e 0f3e
000003e0: 5c08 08bd 6f61 bbbb 65b6 1f38 47d2 2b3c
000003f0: 83a3 5ebd 500f 3abd 20ff 1ebd ec7f d23d
0.07089445 0.07404551 0.06973336 0.2161306 0.42323306 0.19838674 0.050935924 0.38427472
0.055301152 0.09955564 0.08881067 0.1032176 -0.054027755 -0.0450673 -0.03313008 0.0010839383
0.0027357207 0.013340303 -0.015044546 -0.0075347107 0.005781873 -0.049171582 -0.03216873 -0.009057119
0.14656457 0.19747342 0.028010251 -0.051386934 -0.038860705 -0.022142043 -0.050223824 -0.03318853
-0.009525189 0.18788496 0.016088905 -1.9302144 0.41992962 0.37434983 0.40737763 -0.1209087
-0.08238237 -0.021179628 0.28853735 0.22563717 -0.28802663 -0.04150836 -0.0331463 -0.025558008
-0.04366142 -0.033153903 -0.022504605 -0.7694529 -0.41007918 0.5917678 0.17874694 0.44251317
0.13498297 0.30354342 0.26227298 0.2682043 -0.05559528 -0.04595361 -0.038510676 0.4466462
0.3638016 0.3666428 -0.060637545 -0.041970335 -0.03654226 -0.30823812 -0.22952868 0.19491011
0.39518142 0.34571126 0.34481514 0.055249337 0.045930278 0.060421817 -0.04893105 -0.03828835
-0.029141093 0.049728457 0.054969884 0.07229273 -0.07437514 -0.041816153 -0.018721052 -0.43704557
-0.17405835 0.8379037 -0.041557856 -0.031157881 -0.015539164 0.09474028 0.47446314 -0.12847537
0.058913413 0.33961007 -0.08432432 -0.15549776 -0.05896135 -0.1846733 0.3104848 0.2648012
0.27731082 -0.5309354 0.6106281 0.0484343 0.112183034 0.0995938 0.12971678 0.21303053
0.19481935 0.22885934 -0.24508387 -0.15610176 0.62226015 -0.05402781 -0.03743797 -0.0226664
-0.036548596 -0.030740237 -0.018704465 -0.55572003 -0.24761084 0.37335867 0.6123667 0.47540873
0.23420191 -0.41928813 -0.111893386 0.16468777 -0.06938511 -0.05193326 -0.047926396 0.06462599
0.049468268 0.056249008 -0.6963642 -0.649872 -0.13216366 0.0073936707 0.03218782 0.04438968
0.07472543 0.06628256 0.07439596 -0.04202335 -0.030686643 -0.00839869 0.12294806 0.10711687
0.12244927 0.05280897 0.33429578 -0.40546596 0.23119003 0.1990385 0.21177444 -0.018926261
-0.015085154 -0.0045107086 -0.0676122 0.31343818 -0.20740443 0.5659781 0.41244084 -0.4847768
0.4682575 0.3566177 0.30453527 0.15362638 0.12803833 0.13117099 -0.06253744 -0.045970045
-0.038970314 -0.054256786 -0.046006855 -0.03394025 -0.05184165 -0.042509224 -0.033258308 0.22643852
0.7351818 0.2807038 -0.009932861 -0.0005199377 0.013880835 -0.03146395 -0.020045718 -0.00995816
-0.015283206 -0.0063993963 0.0023680662 0.016427184 0.4713645 0.22685535 0.1468042 0.17001422
-0.03549053 -0.021251332 -0.014253014 0.003111153 -0.048319988 -0.041062802 -0.030467385 -0.050787326
-0.038138945 -0.026778571 -0.046865202 -0.03565924 -0.025335634 -0.037987567 -0.028123759 -0.011018597
-0.04112489 0.024686715 -0.02169605 -0.045707263 -0.036929935 -0.024808338 -0.035162356 -0.025767088
-0.010712466 0.07369363 0.14169767 -0.26433232 0.012942672 0.069724075 0.06243722 -0.03522087
-0.023742074 -0.013648276 -0.1866702 -0.033323005 -0.21446258 -0.04214349 -0.033932038 -0.027104776
-0.039904434 -0.030066581 -0.02094583 -0.12854096 -0.35275486 0.027441932 -0.11886696 0.14013074
-0.033211097 -0.005718402 3.8078422e-05 0.010487146 -0.054355156 -0.04542476 -0.038817525 0.102783054

rnn.weight_hh_l0 f4 [256, 64]
00000000: 98b7 43ba 443c 923c 3830 0c3c 1253 2cba
00000010: 56e0 dd39 c8bf e139 ff8d 17b9 74b3 a5b9
00000020: 685b 37bb b597 02ba b008 4d39 4371 87bb
00000030: 9530 df3a 1c6b 69ba ddba 87bb f20c 40b9
00000040: 75f7 be39 0b19 80ba 52dd 8c3b fa94 1639
00000050: c33d 01b9 7ee9 8db9 b5b2 89b9 d194 b7ba
00000060: 86ca 1aba d0a6 f9b9 4402 1c38 c2d6 9ab8
00000070: a9be 5db6 9557 3c3c 0f1d b7b8 5913 c53b
00000080: 2067 abbb 9dd9 aaba 5487 f839 4081 743b
00000090: 3051 a1b9 32a8 93b9 e90a 243b 43b4 5ab9
000000a0: d283 85b9 409d f8b9 b3c5 bcbb 5564 523a
000000b0: 09fc 81b9 4902 073a 639b f83a 03d5 173a
000000c0: a67d 0939 229b 053a acf1 1c3a 5f16 18bb
000000d0: e812 c2b8 ccaa 4ab9 dde0 8fba 8f1b 3ebb
000000e0: e470 0dbb 04ec 28ba 6afa 91b9 8ae1 62b9
000000f0: 0de1 b439 b27b 2dbc ae3b 0539 4802 66b9
00000100: 5586 69bb cbed fa3c e247 1e3e 3d9c 103c
00000110: acde 54bb 14b0 403c 867f b43b 9a22 6d3c
00000120: 004b 243d c787 3e3c b237 0dbc 50b7 e83c
00000130: 70ee 22bd 424e d63b 59be 80bb 05c5 733a
00000140: 7ed3 45bb 922b cbbc d8fd 963c 8f62 e2ba
00000150: e246 b93a 4357 d8ba 54ca abba 85f0 cbbb
00000160: 7fac fb3c 96ef ecbb fbe3 85bb 8201 523c
00000170: 2f2d 42bb cfc9 7b3d dd81 22bc 0bb7 50bc
00000180: 979e 2bbd eaea a2bc c4ab c6ba 477a 85bd
00000190: d0bd a13c 8936 6dbc 3e3a 333d afaf 593b
000001a0: c2d4 393c 4933 6cbd ea48 a93c aad2 12bd
000001b0: a54e e83a a0d3 153b d636 1f3d 943b 023b
000001c0: 0e97 4b3c 2064 4ebc 097c cf3b 908b 9e3d
000001d0: b341 0d3c 94c8 e43b f583 333d 59f4 2e3d
000001e0: f82f 9ebc 48ef 9bbb fb04 a43b aabf dc3b
000001f0: c316 0fbc 9775 48bd 38cb dcbb 56b2 ae3b
00000200: d2f8 ce3b 206b 183e 3135 06bb ebf3 c53b
00000210: 1cf5 b0ba f58b 8f3b 4b90 32b9 3ef8 cd3a
00000220: da6f 083d d002 5e3b 87bd b3bb 6749 5f3c
00000230: a12e ac3c 582b 06bb 887d cd3d bc01 4aba
00000240: 299e d739 4683 58bc 5470 6e3d 4256 ddba
00000250: 6c12 8e3b ecc8 c5bc d505 343b dba7 7aba
00000260: a501 b1bc 43cb fd3b 717c a3ba 29ce 0fbc
00000270: 6510 053a ef9e 483d 2aea 9dbb 3756 5ebd
00000280: 5cce b73c 83b3 2ebc fb11 2f3c 46b3 96bd
00000290: 4852 22ba e2c4 243c 6fd0 dfbd d903 9cba
000002a0: 61ca 3d3b ef6f c3bd 96a7 42bd b52e 47bb
000002b0: 5a9e 693a c069 dfbb 7345 06bd 4765 383b
000002c0: b4d1 5bbb ebc2 40bb 0448 ffbb 03a4 d13d
000002d0: ece5 62bc 5a2a b8b9 ca1f fb3d 3b35 c63b
000002e0: aef5 b63c 8ea3 163c ebf6 8b3b d5bc d539
000002f0: 71a8 02bb 1b95 5d3c 2f39 133a b85e 5d3a
00000300: a29c 6139 5d92 333d 0613 f63c 2654 cab8
00000310: 06b1 eb39 a4bf adb9 3693 32ba a601 ecb9
00000320: 14b4 2bba 39b5 16ba 03ab c239 9d14 85bb
00000330: 16f6 063b b6e1 3138 38f1 4abc d37b f8b9
00000340: d348 093a f081 2339 df70 753c fc07 5fb9
00000350: 9f7f 6f39 4f6e dbba 368b f0b9 0205 5aba
00000360: ec0f 1cbb 6c04 5e38 60a3 1f39 7cc8 fcb9
00000370: 78eb 8539 ab2c 6c3a a5c6 9038 a7d4 cf3b
00000380: 8cb2 46bc a1f1 19ba 53b9 cb3a f298 613b
00000390: 3a6d c5ba 7cfe cd3a b306 4abc dd77 5fb9
000003a0: 9374 b9b9 2707 653b 8013 f8bb 83d5 d73b
000003b0: 3f2b 4f39 9e07 5538 2e71 1f3b 5e1a 663a
000003c0: dc06 01ba ad6a 3c3a e7df 4dba 6c01 a5bb
000003d0: 6a4f 9aba 44a7 22ba 86c0 073a 81e8 8b3a
000003e0: 87a3 bbba 152e 9b39 356d 3238 cd8e c0b8
000003f0: 17e5 a039 10b7 26bd 88a7 063a d2e0 bdb9
-0.0007466017 0.017851003 0.008556418 -0.0006573658 0.00042319548 0.00043058232 -0.0001445338 -0.00031604955
-0.0027978066 -0.00049817126 0.0001955356 -0.004133375 0.0017028028 -0.0008904205 -0.004142149 -0.0001831537
0.00036423994 -0.0009773088 0.0042988444 0.00014360613 -0.00012325407 -0.0002706758 -0.00026263823 -0.0014006143
-0.0005904812 -0.00047617266 3.719541e-05 -7.383294e-05 -3.3042545e-06 0.011495491 -8.7315326e-05 0.0060142693
-0.0052307993 -0.0013034825 0.00047403073 0.0037308484 -0.00030768802 -0.0002816334 0.0025030917 -0.00020857253
-0.0002546595 -0.00047419406 -0.0057608723 0.0008025815 -0.00024792578 0.0005150182 0.0018967207 0.0005791934
0.00013112146 0.0005096664 0.00059869397 -0.0023206694 -9.2541624e-05 -0.00019327848 -0.0010977049 -0.0029008125
-0.002158218 -0.00064438605 -0.00027843128 -0.0002163706 0.0003449995 -0.010588573 0.00012706101 -0.00021935359
-0.0035633047 0.030630967 0.15457109 0.008826313 -0.0032481356 0.01176073 0.005508366 0.014473582
0.040110588 0.0116290515 -0.008619236 0.028407723 -0.039778173 0.006540091 -0.003928941 0.00092990726
-0.0030185874 -0.02480105 0.018431589 -0.0017271804 0.0014135505 -0.0016505498 -0.0013106563 -0.0062237405
0.030721901 -0.0072307093 -0.0040860153 0.012817742 -0.0029628982 0.061471757 -0.009918657 -0.012738953
-0.04189929 -0.019887406 -0.0015157391 -0.06517463 0.01974383 -0.014478334 0.043756716 0.0033216288
0.011342229 -0.057666097 0.020664651 -0.035845436 0.0017723633 0.0022861734 0.038870655 0.0019871937
0.012426151 -0.012597114 0.006331925 0.07741463 0.008621621 0.0069819186 0.043827016 0.042713497
-0.019309983 -0.004758749 0.0050054765 0.0067367153 -0.008733454 -0.048940267 -0.0067380928 0.005331318
0.006316283 0.14884615 -0.0020478482 0.00604104 -0.0013500783 0.004380698 -0.00017029156 0.0015714241
0.033309795 0.0033876188 -0.00548524 0.01362834 0.021018328 -0.0020472612 0.10033709 -0.0007705947
0.00041125834 -0.013214892 0.058212593 -0.0016886669 0.004335692 -0.024143659 0.0027469296 -0.00095617556
-0.02160723 0.007745178 -0.0012473 -0.00877718 0.00050759903 0.048979696 -0.0048191743 -0.05428144
0.022437267 -0.010662916 0.010685439 -0.073584124 -0.00061920704 0.010056706 -0.109284274 -0.0011903002
0.0028959739 -0.09542834 -0.047523104 -0.003039283 0.0008911841 -0.0068180263 -0.032781076 0.0028136538
-0.003354174 -0.0029413055 -0.0077905674 0.10236361 -0.013848763 -0.0003512677 0.12261923 0.006048826
0.022333946 0.009194268 0.0042713783 0.00040767217 -0.0019936825 0.013524319 0.0005616126 0.0008444595
0.00021516022 0.043840755 0.030038368 -9.6477845e-05 0.00044954586 -0.00033139915 -0.0006812097 -0.00045014656
-0.0006549966 -0.000574905 0.00037129977 -0.004061295 0.0020593456 4.24103e-05 -0.012386613 -0.00047394502
0.0005236987 0.00015593297 0.014980524 -0.00021269912 0.00022840359 -0.0016741249 -0.00045880087 -0.0008316786
-0.00238132 5.2933043e-05 0.00015224284 -0.00048214558 0.00025543175 0.00090093416 6.9034555e-05 0.006342489
-0.01212753 -0.00058724923 0.0015542902 0.0034423438 -0.0015062459 0.0015716101 -0.012330699 -0.0002131159
-0.00035372804 0.003494689 -0.007570684 0.006586732 0.00019757169 5.079025e-05 0.0024328935 0.0008777733
-0.00049219816 0.0007187527 -0.00078534934 -0.00503557 -0.0011772935 -0.0006204734 0.00051785295 0.001067415
-0.0014315703 0.00029598238 4.2540214e-05 -9.181872e-05 0.00030688263 -0.040701926 0.00051366584 -0.00036216393

rnn.bias_ih_l0 f4 [256]
00000000: 8fdf 153e 4c04 583e 20c7 853e 39e3 033e
00000010: 966a b2bd b7bc 193c 9a2a e0bc 089b 83bd
00000020: 9230 8dbb cc3f 86bd 9bd2 81bd 8f85 ba3e
00000030: c417 2d3f 9aa8 03be 748e 933e d3b5 92bd
00000040: f10a a5bd 4619 2b3f 380d 013f 3898 013f
00000050: 6d8d bdbd 1783 233f 99d7 93bd 0357 463e
00000060: d201 263f 033e be3d 8154 9dbd c905 093e
00000070: 6629 b8bd dd44 3e3f 5bd6 90bd 9dbd 2d3e
00000080: 0067 aa3d 0874 8ebe b036 fc3e 18b2 903e
00000090: 9894 5e3e 2eff c53e 8b00 983e 3a35 97bd
000000a0: c869 49bd 9c83 d53e f0ab 0b3d 82fb 543e
000000b0: 40b0 b5bd 4ad0 ce3d 4f64 acbd 2347 143b
000000c0: 69bf f53d f41d 3bbd 81df 4b3e 4a54 723e
000000d0: 47b4 b53e 65d6 c0bc b08f 2a3d f719 9b3e
000000e0: 6cfe 0f3f 4374 6f3e 6ebb b3bd dac1 b7bd
000000f0: 2d2e afbd 1c2a c63e 6377 78bc e001 88bd
00000100: e954 71bd 0cc4 a93c 3ca9 efbd 68b7 84bd
00000110: 7f40 a1bd bb4b adbd 3467 b3bd 41f6 95bd
00000120: 29cf b3bd fd4d 94bd b3e9 8bbd 31c1 e0bd
00000130: e157 dbbd cffb 65bd d1d2 31be cbf8 94bd
00000140: 396c 9cbd be1d 58be a231 90bd 7ee4 b3bd
00000150: 4683 b8bd b592 acbd 5de5 52bd 923d 35be
00000160: 386a 8bbd 00c1 c0bd 0bb7 93bd e77a 85bd
00000170: 762d 83bd 9ea2 5cbe 35fb 8dbd 18c5 adbc
00000180: f513 02be d987 2cbe 1e9f d3bd fc02 fdbd
00000190: 6a98 d3bd c776 e3bd 0ae1 87bc 1a2a 61bd
000001a0: 6377 a2bd 6875 96be a26c 65be f70e f3bd
000001b0: 9990 94bd e35f babd 564e 21bd 917b cebd
000001c0: 9372 a5bd 3ce8 b6bd 8fdf babd eac2 82bd
000001d0: 2bac cfbd feaa aabd 3b70 aa3d 79f4 acbd
000001e0: ee57 07be 46d2 b6bd a86f 91bd 2d23 b1bd
000001f0: b036 98bd a221 82be 3871 75bd 5175 67bd
00000200: bd4f fa3c 5bea dc3d 601b ebbd e1c1 0a3d
00000210: eea1 c73c e696 aebc fb64 83bb 30d3 7fbd
00000220: 5594 df3b 2d16 2a3b efec 8dbd a95c b1bd
00000230: f7d5 09bc 932c 963d 2bf7 1a3e 8dc5 f6bc
00000240: a853 c23c 58e2 343d 0a51 ecbd 9123 9cbd
00000250: eab8 b1ba 061a d5ba 7f1c d9bb 75bb 893d
00000260: 3ba4 edbc c5a0 40bc 9fc9 81bd c901 d6bc
00000270: 92e1 fabb 69bf ed3d 3793 d7bc e35f 423d
00000280: 1396 1d3d 3bf0 19bd 29c5 82bc f4c6 103d
00000290: 7c40 7cbc bb1c 12bd 08a1 7a3d bd49 0f3d
000002a0: a43f b13c 3e49 fbbd e4f9 dd3d 1f7b 40bb
000002b0: 7b65 33bd 42d5 d43b 0725 17be d13d c7bc
000002c0: d743 19bd 4448 95bc b7d0 4bbd 85cf b03c
000002d0: ca5f 46bd 0b39 a4bd 4368 923d 1883 babd
000002e0: 82b1 8bbd 8490 4cbc 476f bb3b bcc7 2d3b
000002f0: eb7d b7bc efaa 53bd d32d 093d 487c 2fbd
00000300: 7ed0 153e 7dc1 5f3e c958 ff3d 9e1b 043e
00000310: dc6f b2bd 1e0a 1a3c 0339 e0bc ac97 83bd
00000320: 32f2 6abb 1644 86bd a9d6 81bd ecad 9c3e
00000330: 5f51 2e3f 1f77 05be 8a4a be3e 53c0 92bd
00000340: 5c12 a5bd 8aa1 243f 4013 123f e884 023f
00000350: 5a9f bdbd 8a42 253f 4ac2 93bd 8885 233e
00000360: 6712 273f d7af be3d fa5a 9dbd 5ce7 083e
00000370: df0c b7bd 2b61 403f 26da 90bd a9f5 773e
00000380: 9dfe 2fbd 2c5d 65be 7671 fd3e bf8b e43e
00000390: 615d 5f3e 66b3 c63e d942 b33e 8e0e 97bd
000003a0: f27d 49bd ee3a e83e 5b6f 2d3d 8858 2c3e
000003b0: b595 b5bd d258 cf3d 24c4 59bd 4c1d 4e3b
000003c0: a12c f63d b92e 3bbd 2e7b 4c3e 03b8 5e3e
000003d0: 6173 b63e 33f3 c0bc bee3 94bd 630c b53e
000003e0: 668e 113f 3025 703e f29a b3bd 63cb b7bd
000003f0: 5037 afbd 25a2 863e 1a06 79bc 7406 88bd
0.14636062 0.21095389 0.26128483 0.12879647 -0.08711736 0.009383372 -0.027364064 -0.06426054
-0.0043087685 -0.06555137 -0.06338998 0.36430022 0.6761439 -0.12857285 0.2881962 -0.071635865
-0.080587275 0.6683544 0.50410795 0.5062289 -0.092554905 0.638719 -0.07218856 0.1936913
0.6484653 0.092891715 -0.076821335 0.13381113 -0.08992271 0.7432383 -0.07072135 0.16966863
0.08320427 -0.278229 0.49260473 0.28260875 0.21736372 0.3867125 0.29687914 -0.07383199
-0.049173146 0.41701972 0.03409952 0.20799068 -0.08871508 0.10098322 -0.0841757 0.0022625409
0.11999399 -0.045682862 0.19909479 0.23664966 0.35489103 -0.023539731 0.041640937 0.30293247
0.5624759 0.23384194 -0.08775984 -0.08972521 -0.08553729 0.38704002 -0.015165183 -0.06640983
-0.058918867 0.020723365 -0.11702201 -0.064802945 -0.0787363 -0.0846171 -0.08759919 -0.0732236
-0.08779747 -0.072414376 -0.06831684 -0.10974348 -0.10710121 -0.056148347 -0.17365576 -0.07274016
-0.07637829 -0.21105096 -0.07040717 -0.08783816 -0.090094134 -0.0842642 -0.05148827 -0.17699268
-0.06807369 -0.09411812 -0.07212647 -0.065175824 -0.06405155 -0.21546409 -0.069326796 -0.021212146
-0.12702926 -0.16848697 -0.103330836 -0.12354085 -0.10331805 -0.11106639 -0.0165868 -0.05497179
-0.079329275 -0.2938645 -0.22404721 -0.11868089 -0.07254142 -0.0910032 -0.039381348 -0.10082162
-0.08078494 -0.08931014 -0.09124672 -0.06384833 -0.1014026 -0.083333954 0.083221875 -0.08445067
-0.13217136 -0.08926825 -0.07101375 -0.086492874 -0.07432306 -0.25416285 -0.059922427 -0.056508366
0.0305556 0.10786887 -0.11479831 0.033876304 0.024369206 -0.021312188 -0.0040098405 -0.062457263
0.0068231025 0.002595316 -0.06929957 -0.08660252 -0.00841283 0.073327206 0.1513335 -0.030123496
0.023721531 0.04416117 -0.115388945 -0.07623971 -0.0013559137 -0.0016258366 -0.0066257115 0.06725208
-0.029008975 -0.01175708 -0.06337284 -0.026123898 -0.0076562846 0.11608774 -0.026315315 0.047454726
0.0384732 -0.037582617 -0.015963154 0.035345986 -0.015396234 -0.03567193 0.061188728 0.03498243
0.021636792 -0.12269829 0.108386785 -0.002937026 -0.04379795 0.006495149 -0.14760219 -0.024321469
-0.037418213 -0.018222935 -0.049759593 0.021583328 -0.048431195 -0.080186926 0.071487926 -0.091070354
-0.06820966 -0.012485627 0.0057200524 0.0026516756 -0.02239891 -0.051676687 0.033490967 -0.042843133
0.14630315 0.21851154 0.12468106 0.1290116 -0.08712742 0.009401826 -0.027370935 -0.064254135
-0.0035849926 -0.06555955 -0.06339771 0.30601442 0.6809291 -0.13033722 0.37166244 -0.07165589
-0.080601424 0.6430899 0.57060623 0.5098405 -0.092589095 0.64554656 -0.07214792 0.15968907
0.65262455 0.093108825 -0.07683368 0.13369507 -0.08938002 0.75148267 -0.070728585 0.24214806
-0.042967428 -0.22398823 0.49500626 0.44637868 0.21812965 0.38808745 0.35011938 -0.07375823
-0.049192376 0.4535746 0.042342525 0.16830647 -0.08866445 0.10124363 -0.05316557 0.0031450568
0.12020231 -0.045698855 0.19968864 0.21749882 0.35634902 -0.023553466 -0.07270001 0.35361013
0.5685791 0.23451686 -0.08769788 -0.0897434 -0.08555472 0.2629558 -0.015199209 -0.06641856

rnn.bias_hh_l0 f4 [256]
00000000: a1df 153e 5cc2 ff3d 9a35 ca3d 39e3 033e
00000010: 966a b2bd b7bc 193c 9a2a e0bc 089b 83bd
00000020: 1e7e 25bc cc3f 86bd 9bd2 81bd 5543 ae3e
00000030: c417 2d3f 4415 07be 5197 a23e d3b5 92bd
00000040: f10a a5bd 31cd 233f 2a49 da3e 3898 013f
00000050: 6d8d bdbd 1783 233f 51d7 93bd 48ad eb3d
00000060: d201 263f 033e be3d 8154 9dbd c905 093e
00000070: 2503 b8bd 692b 463f 5bd6 90bd 7e00 233e
00000080: c41f 8c3d cc3d 98be b036 fc3e 3b29 cd3e
00000090: 9894 5e3e 2eff c53e 385c ae3e 3a35 97bd
000000a0: c869 49bd 5923 be3e ff4b b93d d325 733e
000000b0: 40b0 b5bd 4ad0 ce3d 5f16 1fbe 62b7 003b
000000c0: 69bf f53d f41d 3bbd 81df 4b3e 5595 283e
000000d0: 47b4 b53e 65d6 c0bc 45c0 db3d ef8a 9a3e
000000e0: 6cfe 0f3f 4374 6f3e 6ebb b3bd dac1 b7bd
000000f0: 2d2e afbd 7212 ce3e 6377 78bc e001 88bd
00000100: e754 71bd a6da 403e 9b20 eb3d 68b7 84bd
00000110: 7f40 a1bd bb4b adbd 3467 b3bd 41f6 95bd
00000120: 1558 b2bd fd4d 94bd b3e9 8bbd f22b d5bd
00000130: e157 dbbd d3fb 65bd 41f9 00be cbf8 94bd
00000140: 396c 9cbd 778d 5abe be9d ccbd 7ee4 b3bd
00000150: 4683 b8bd b592 acbd 5de5 52bd a53b 86be
00000160: 386a 8bbd 00c1 c0bd 0bb7 93bd e77a 85bd
00000170: 762d 83bd a1d0 5dbe 35fb 8dbd ea65 8cbd
00000180: ebbe 3abd 846e 12be 1e9f d3bd 8ce2 dbbd
00000190: 6a98 d3bd c776 e3bd 7a7a fe3c 1a2a 61bd
000001a0: 6377 a2bd bb07 97be 2979 6bbe 08f0 d1bd
000001b0: 9990 94bd e35f babd b5d9 85bd 6c75 cebd
000001c0: 9372 a5bd 3ce8 b6bd 8fdf babd 6023 4fbe
000001d0: 2bac cfbd feaa aabd 9bc9 973c 7610 a7bd
000001e0: ee57 07be 46d2 b6bd a86f 91bd 2d23 b1bd
000001f0: b036 98bd 5de9 50be 3871 75bd 5175 67bd
00000200: 3282 bbbd cb60 e4bd f516 963d 1e25 66bd
00000210: ed5e 09bd cf3f 3f3c 25e9 c23b 6310 a03d
00000220: 17a9 21be f804 283c c3fe 583d e504 a13d
00000230: 1ae4 253d 1582 c2bd 156a 0e3c 3209 ff3c
00000240: 1f95 debc a120 e7bb dd15 04bd 0859 463d
00000250: 3767 6c3b 1621 4bbd 7e19 4fbd fa37 d5bd
00000260: 73de f43c a43e 9a3c c57d 5b3d 45a1 953d
00000270: 103c 833d 402c 1a3e 96fc cd3c 14a0 3abe
00000280: cc64 93bc bfa0 1b3c 8329 013d cf8a c7bd
00000290: de45 7c3c 3e9f c43c 2498 32bc b66c 23bc
000002a0: c543 98bc 85b9 0a3d 0be0 1cbd b98d d3bd
000002b0: 8ccc bc3d c2f2 60bc 0a64 1f3d 43b5 efbc
000002c0: a897 2f3d 6255 0a3c eb7f 2e3d ca91 bf3d
000002d0: a634 263d b197 9d3d c9ed b5bc f066 ecbd
000002e0: aceb 253d dc6b 8c3b f28b 1e3d 6f39 6f3a
000002f0: 67c5 893c aae6 0f3d da83 17bd 2c91 503d
00000300: cfcf 153e 321a 673d 60ee 233e 9e1b 043e
00000310: dc6f b2bd 1e0a 1a3c 0339 e0bc ac97 83bd
00000320: 06b7 cbba 1644 86bd a9d6 81bd 54f8 9e3e
00000330: 5f51 2e3f 101d 04be d5d9 983e 53c0 92bd
00000340: 5c12 a5bd 4998 2e3f b197 143f e884 023f
00000350: 5a9f bdbd 8a42 253f aac2 93bd 417b 013e
00000360: 6712 273f d7af be3d fa5a 9dbd 5ce7 083e
00000370: 5432 b7bd a2fd 493f 26da 90bd 857a 953e
00000380: 9fda 54bd 057e 73be 7671 fd3e 5575 f53e
00000390: 615d 5f3e 66b3 c63e 605d ac3e 8e0e 97bd
000003a0: f27d 49bd 1764 e33e c139 9e3c 927b 523e
000003b0: ac95 b5bd d258 cf3d d6c5 93bd 7732 393b
000003c0: a12c f63d b92e 3bbd 2e7b 4c3e a84e c43e
000003d0: 6173 b63e 33f3 c0bc fd56 10bd c987 b63e
000003e0: 668e 113f 3025 703e f19a b3bd 63cb b7bd
000003f0: 5037 afbd e797 8a3e 1a06 79bc 7406 88bd
0.14636089 0.12488243 0.09873505 0.12879647 -0.08711736 0.009383372 -0.027364064 -0.06426054
-0.010100869 -0.06555137 -0.06338998 0.34035745 0.6761439 -0.13191706 0.3175607 -0.071635865
-0.080587275 0.6398497 0.42633945 0.5062289 -0.092554905 0.638719 -0.07218803 0.1150766
0.6484653 0.092891715 -0.076821335 0.13381113 -0.08984975 0.7740999 -0.07072135 0.15918157
0.06841996 -0.29734647 0.49260473 0.4007052 0.21736372 0.3867125 0.34054732 -0.07383199
-0.049173146 0.37136343 0.09047698 0.23744898 -0.08871508 0.10098322 -0.15535878 0.0019640555
0.11999399 -0.045682862 0.19909479 0.16463216 0.35489103 -0.023539731 0.10730032 0.30184123
0.5624759 0.23384194 -0.08775984 -0.08972521 -0.08553729 0.40248448 -0.015165183 -0.06640983
-0.05891886 0.18833408 0.114808284 -0.064802945 -0.0787363 -0.0846171 -0.08759919 -0.0732236
-0.087082066 -0.072414376 -0.06831684 -0.104087725 -0.10710121 -0.05614836 -0.12595083 -0.07274016
-0.07637829 -0.21343027 -0.099910244 -0.08783816 -0.090094134 -0.0842642 -0.05148827 -0.2621738
-0.06807369 -0.09411812 -0.07212647 -0.065175824 -0.06405155 -0.21661617 -0.069326796 -0.06855376
-0.04559223 -0.14299971 -0.103330836 -0.1073657 -0.10331805 -0.11106639 0.03106426 -0.05497179
-0.079329275 -0.29498085 -0.22995438 -0.102508605 -0.07254142 -0.0910032 -0.06535665 -0.1008099
-0.08078494 -0.08931014 -0.09124672 -0.20228338 -0.1014026 -0.083333954 0.01852875 -0.081574365
-0.13217136 -0.08926825 -0.07101375 -0.086492874 -0.07432306 -0.20401521 -0.059922427 -0.056508366
-0.09155692 -0.11151274 0.073285975 -0.05618774 -0.033537794 0.011672928 0.005948203 0.078156255
-0.15787159 0.010255091 0.052977335 0.07862262 0.040500738 -0.094974674 0.008692284 0.031132314
-0.027170716 -0.00705345 -0.032247413 0.04842475 0.0036072263 -0.0495921 -0.05056142 -0.10411067
0.029891228 0.018828698 0.05358674 0.0730615 0.064079404 0.15055943 0.025144856 -0.18225127
-0.0179924 0.009498774 0.03153373 -0.097432725 0.015397517 0.024001714 -0.010900531 -0.009974649
-0.018587003 0.03386833 -0.0382996 -0.10329766 0.09218702 -0.013729753 0.038913764 -0.029261237
0.04286924 0.008443208 0.04260246 0.09353979 0.040577553 0.076949485 -0.022208111 -0.11543071
0.040507957 0.004285319 0.03870768 0.0009125685 0.016817762 0.035132088 -0.036990978 0.050919697
0.14630054 0.056421466 0.16008902 0.1290116 -0.08712742 0.009401826 -0.027370935 -0.064254135
-0.0015542216 -0.06555955 -0.06339771 0.31048834 0.6809291 -0.12901711 0.29853693 -0.07165589
-0.080601424 0.6820112 0.5804396 0.5098405 -0.092589095 0.64554656 -0.072148636 0.12644674
0.65262455 0.093108825 -0.07683368 0.13369507 -0.08945146 0.7890264 -0.070728585 0.29195037
-0.051966306 -0.23778541 0.49500626 0.4794108 0.21812965 0.38808745 0.3366499 -0.07375823
-0.049192376 0.444123 0.019314649 0.20554951 -0.08866438 0.10124363 -0.072154686 0.002825884
0.12020231 -0.045698855 0.19968864 0.3834126 0.35634902 -0.023553466 -0.03523921 0.3565047
0.5685791 0.23451686 -0.08769787 -0.0897434 -0.08555472 0.27069017 -0.015199209 -0.06641856

rnn.weight_ih_l1 f4 [256, 64]
00000000: dfb4 9eb7 0d84 06bd 86b3 70bc 7d66 23b7
00000010: 5ff7 1337 3921 2e37 a37d f936 edb4 bc37
00000020: 84c6 5c38 39b4 4236 8244 22b7 62d8 7cb6
00000030: cdba c8b8 7a5a 00b7 e514 44b9 c74a 2c36
00000040: 8bce 0db6 bb2f 2539 29ec fab9 be40 14b7
00000050: 2994 ecb7 14c8 e537 3447 c3b6 bfa6 b737
00000060: 0d8f 8838 860d 9cb7 8aca 44b7 5585 2138
00000070: b8eb 3437 fcda 6db9 09a2 f5b5 3886 dc38
00000080: 986b 863a e01c edb5 8150 99b7 0146 2039
00000090: 40b0 9637 10e5 c0b7 dfb4 8f3a 2e5d aab4
000000a0: 5d1d 0cb7 bf24 5039 45f4 06b9 b9df 3239
000000b0: 6c35 70b6 c416 9337 9381 023a 9d2b 18b8
000000c0: 959b da37 5685 2eb7 9e88 b437 07a6 1ab9
000000d0: ad0c 8937 05f0 d035 fa1b b4b9 51c5 6138
000000e0: d813 45b8 7557 66b7 631f dd34 91f3 05b7
000000f0: 6220 f2b4 85a9 003d 9791 1fb7 c4d4 1237
00000100: 3863 35b8 259b f1bc 233f 2cbc 5604 23b8
00000110: 2be6 2bb7 cf23 8737 b6c8 1438 f13e 9f37
00000120: 8463 ba38 fcd1 a836 a458 93b6 1f7e a038
00000130: 71cb 42b9 bbab 9437 4a9a 9638 e98c c337
00000140: 7495 98b7 3690 ac39 03bf b4b9 c0e0 5938
00000150: 9b88 02b8 60a1 dd38 f08d 6337 d38d 8c38
00000160: d87f 3b39 f6a8 6db7 ca15 aab7 e376 6538
00000170: a1b4 8237 a705 e6b9 3bb0 7e36 4eab c4b8
00000180: cb43 e139 a0ea 4fb8 b4b4 f6b8 328d 02b9
00000190: 1ece 8338 d940 51b8 97ab 293a 4a43 0337
000001a0: b53a eeb6 6594 8a39 991a a438 5c37 05b9
000001b0: 8c2e 7ab7 acd9 6337 d81a 2739 eed5 3eb8
000001c0: de52 4c38 3001 ebb7 e16c fb37 e069 bb38
000001d0: 4460 b538 0057 9137 71ea 6cb9 68ee 37b6
000001e0: 9fe5 6938 ab2e 54b8 0df6 35b7 90a3 4ab7
000001f0: 9422 9ab6 1b18 ec3c e0c4 4cb7 a42c c537
00000200: d50f 1537 9efd acbc 5294 1fbc f992 01b8
00000210: d2f4 32b7 809b 3536 f1d3 b5b6 7722 ca36
00000220: 3528 82b8 6b12 a637 18d2 d6b6 e883 dbb8
00000230: 947d cf38 c055 c536 0cd3 8fb9 3ff3 4137
00000240: fbc2 a0b7 52f5 8739 0605 47ba 2009 2bb8
00000250: 3751 4937 40fe 91b8 3d0f beb6 ab0c 9d38
00000260: ddb7 2fb8 031d a037 c639 48b6 d613 69b7
00000270: b779 b937 b841 9bb9 84af 3836 ba74 da39
00000280: 9a32 533a bf0a 70b8 70ec 3e38 a371 c339
00000290: acca 5036 4f8b d4b2 7297 203b 36e3 e736
000002a0: c41e 5bb5 8260 9a39 927b 73b9 3806 5e39
000002b0: 93df 3a37 59e4 9737 e142 323a 2fa4 41b8
000002c0: 48ea 60b6 d290 e3b6 b354 00b7 fca6 8cb9
000002d0: 3c9a 95b7 887d f3b6 bcb3 33ba 5395 d9b8
000002e0: 59f1 58b6 0412 9135 6520 0138 4c47 80b6
000002f0: 1ba7 87b7 c7cc ad3c 47ad 2ab7 3086 0837
00000300: 7199 36b9 4b8a 66bc 635d 6dbb 9e60 3137
00000310: 00af 03b8 6286 8838 3ee7 8f36 b1ac 81b7
00000320: 3b52 05ba 0f2e dc37 7fe5 88b8 c904 153a
00000330: 7542 0039 35d3 d239 658b 02ba b547 00b8
00000340: ec50 c0b7 0616 8a3a a42e 5d39 ebad 3eb9
00000350: 11ba 9b38 0b58 a8ba 0f20 0839 6a43 0c38
00000360: 4ca1 153a ed48 b0b8 d4a2 9b38 c6a9 b339
00000370: d423 95b9 a1e9 5639 cbd8 4bb8 f7fd 2a3a
00000380: e82c ca39 5caa f939 8043 4b39 7fa7 9b39
00000390: 9813 bb38 5498 70b7 710d 573a 5b63 9fb7
000003a0: d9ab ff38 cb52 033a ecc5 88ba d6fc 3a39
000003b0: 7060 08b9 d1bd b438 1cbf 413a 9abf ae39
000003c0: 004e 0c39 7ff5 2cb8 cf8a 70b8 e391 8739
000003d0: c35e 7ab8 d889 7b38 fd94 b4ba c242 6fba
000003e0: 69de 8aba 97f8 9bb8 0825 91b8 15f1 fc38
000003f0: b20c ecb7 d1b0 783c caa8 ebb7 b40e 4bb8
-1.8919292e-05 -0.032840777 -0.014691239 -9.7394195e-06 8.819478e-06 1.0378943e-05 7.4354043e-06 2.2495597e-05
5.263697e-05 2.9013156e-06 -9.671903e-06 -3.7676878e-06 -9.5715375e-05 -7.65046e-06 -0.000186998 2.5673523e-06
-2.113086e-06 0.00015753407 -0.0004785967 -8.836561e-06 -2.8202385e-05 2.7392096e-05 -5.819742e-06 2.1892947e-05
6.5116306e-05 -1.8602947e-05 -1.1729668e-05 3.8509566e-05 1.0783719e-05 -0.0002268366 -1.8301081e-06 0.00010515418
0.0010255454 -1.766628e-06 -1.8276509e-05 0.00015284868 1.7963466e-05 -2.299485e-05 0.0010963938 -3.1732765e-07
-8.351487e-06 0.00019850115 -0.00012870233 0.00017058746 -3.5793882e-06 1.7534367e-05 0.00049784145 -3.6280242e-05
2.6060074e-05 -1.0402253e-05 2.152129e-05 -0.00014748434 1.6337575e-05 1.5567063e-06 -0.0003435312 5.3827946e-05
-4.698694e-05 -1.3729431e-05 4.1187295e-07 -7.9841275e-06 -4.5099574e-07 0.031411666 -9.511036e-06 8.7518165e-06
-4.3246167e-05 -0.029492924 -0.0105131 -3.8866267e-05 -1.0245984e-05 1.6109929e-05 3.5472876e-05 1.8983586e-05
8.8877074e-05 5.0312356e-06 -4.3912605e-06 7.6528864e-05 -0.0001857707 1.7722943e-05 7.181296e-05 2.3311428e-05
-1.8189407e-05 0.00032913842 -0.0003447459 5.1946146e-05 -3.112164e-05 0.000105681596 1.3563302e-05 6.702137e-05
0.00017881335 -1.416564e-05 -2.0275726e-05 5.4708576e-05 1.558132e-05 -0.0004387323 3.795153e-06 -9.377916e-05
0.00042965854 -4.9571157e-05 -0.00011763853 -0.00012450365 6.284959e-05 -4.9889877e-05 0.0006472407 7.823875e-06
-7.099787e-06 0.00026431974 7.8250836e-05 -0.00012704491 -1.4911999e-05 1.3580935e-05 0.00015936361 -4.5498768e-05
4.8714566e-05 -2.8014736e-05 2.9972232e-05 8.9365756e-05 8.6486834e-05 1.732586e-05 -0.0002259405 -2.7407896e-06
5.576538e-05 -5.05882e-05 -1.0845729e-05 -1.2078221e-05 -4.593583e-06 0.028820088 -1.2205186e-05 2.3505017e-05
8.884778e-06 -0.021117028 -0.009739952 -3.0892876e-05 -1.0666628e-05 2.7061615e-06 -5.4188936e-06 6.0240814e-06
-6.206372e-05 1.9797319e-05 -6.402155e-06 -0.00010467303 9.89392e-05 5.88104e-06 -0.00027432328 1.1560332e-05
-1.9164281e-05 0.00025931984 -0.0007591996 -4.0778075e-05 1.1999443e-05 -6.9614965e-05 -5.664215e-06 7.488703e-05
-4.1894487e-05 1.9086996e-05 -2.983595e-06 -1.3892501e-05 2.2110396e-05 -0.00029612868 2.75203e-06 0.00041667168
0.00080565515 -5.7230467e-05 4.551973e-05 0.00037277964 3.1112386e-06 -2.4743398e-08 0.002450433 6.9107873e-06
-8.162863e-07 0.00029445073 -0.0002322032 0.00021173886 1.1138519e-05 1.8106935e-05 0.0006800127 -4.6167694e-05
-3.351497e-06 -6.7819865e-06 -7.649115e-06 -0.00026827294 -1.7834005e-05 -7.256578e-06 -0.00068550906 -0.0001037518
-3.232699e-06 1.0808585e-06 3.0786166e-05 -3.8229973e-06 -1.6171069e-05 0.02121581 -1.0173134e-05 8.137475e-06
-0.00017414034 -0.014071058 -0.0036218993 1.0572518e-05 -3.1395815e-05 6.510016e-05 4.2886522e-06 -1.5458414e-05
-0.00050858007 2.6247491e-05 -6.527732e-05 0.0005684612 0.00012231788 0.00040211683 -0.0004979878 -3.058436e-05
-2.2925866e-05 0.0010535128 0.00021093577 -0.00018184602 7.4256335e-05 -0.0012843622 0.00012981913 3.3441385e-05
0.0005707934 -8.4059175e-05 7.421305e-05 0.00034268032 -0.0002844619 0.00020495664 -4.8600876e-05 0.0006522829
0.000385619 0.0004761991 0.00019384734 0.00029688698 8.9205045e-05 -1.4340581e-05 0.0008203602 -1.9000543e-05
0.00012191357 0.00050095905 -0.0010434962 0.00017832531 -0.00013005896 8.618425e-05 0.0007390843 0.0003333062
0.00013380498 -4.123663e-05 -5.7349735e-05 0.000258579 -5.96929e-05 5.997144e-05 -0.0013777312 -0.0009127074
-0.0010594848 -7.4372794e-05 -6.9210364e-05 0.000120612014 -2.8139304e-05 0.015178875 -2.8092782e-05 -4.8412665e-05

rnn.weight_hh_l1 f4 [256, 64]
00000000: f43b beb7 6820 1037 8e98 cfb7 ff86 5bb6
00000010: 99d9 ed37 ff5c 29b7 d716 33b7 1109 2137
00000020: 954d bc36 d01c 81b7 0294 6eb7 635f b7b5
00000030: a830 0a39 2064 1138 b522 5536 8241 0737
00000040: 1202 4a38 630e 5eb4 31ff cfb6 7be8 a9b6
00000050: 16d0 8537 509a 28b8 05a1 63b7 0a7e 94b7
00000060: 97f3 273d 4cc0 b536 2c37 8fb7 db7e 673c
00000070: 9ee5 9eb7 678a 2036 b270 dc35 557b 9e36
00000080: d6bb 9537 74e1 ae36 c8d6 9ab6 9322 0536
00000090: c8f5 deb5 7fdd 1637 e589 e634 918c e336
000000a0: 5cf3 88b7 774e 4ab6 173d 6cb6 db70 8137
000000b0: 1212 35b7 48f4 8d3a 13c2 d637 e9e8 5c36
000000c0: e52e d036 a354 8337 3959 6d3b 7a1b ac38
000000d0: 902a 84bc b123 c4b7 607d c137 3153 4b3c
000000e0: 2f38 0a37 a325 ebba bb09 11b7 a6dd 4fb7
000000f0: 2bc2 5ab5 f349 6937 8b8b dab7 db9b edb7
00000100: 4503 f335 1931 41b7 4513 cdb7 6051 59b7
00000110: 5b8f fb37 afa1 92b7 5071 38b7 5639 b534
00000120: 99f5 e235 c219 3bb7 9b3c 91b7 f964 b1b6
00000130: 4180 3739 479c 5238 57ec f236 0b07 1036
00000140: 5c5a 6338 e753 0537 1d92 bfb6 4964 d4b7
00000150: a00b 5137 ba32 87b8 8e62 a9b7 b4ca 0cb7
00000160: b9f3 253d 3ec0 05b7 d3a2 fdb6 b6d3 273c
00000170: 3b14 59b7 e55b 5335 c45d 8735 44b8 8c37
00000180: bf8c 9636 afbe 5237 7a9c 1fb7 4a2b f6b5
00000190: d520 09b8 d82d 1937 b821 52b7 154a 1337
000001a0: 4527 14b7 ffde 3936 9208 7e36 8ba8 7937
000001b0: ba23 f5b7 b35b f13a d955 c935 8953 1036
000001c0: a3a7 5e37 a44d 9237 1d2e fd3a 5d88 d038
000001d0: f4b8 62bc b803 2fb7 3ca7 1738 631b 3e3b
000001e0: 963e 5937 8dd9 48ba 6bae 52b7 351f 1337
000001f0: 4d8a 82b6 b087 fd37 d259 58b6 f60c 22b7
00000200: f6f0 bfb6 8ccc 03b7 c4bf a9b7 a6db 22b6
00000210: d36b e037 7174 65b7 158e 8637 34cd 2ab7
00000220: 2549 b436 2dac 9236 03b2 b5b7 7ce9 8cb6
00000230: 229d 603a 6f97 6937 4385 1e37 3a55 1936
00000240: 8f23 bb37 99c7 9e37 9bf9 cc35 ed63 e0b5
00000250: 04a8 b1b6 a7ec 7cb8 a69d 8837 8023 ab37
00000260: 0277 ff3c f222 3536 46ea 1137 5671 183c
00000270: d1e3 c737 d6d9 33b5 6392 8eb6 5be3 a936
00000280: 0ac8 c3b6 d21e 88b4 1ac7 98b6 3dd8 1136
00000290: 580f b537 a237 3bb7 aacb bfb6 dbf7 e6b5
000002a0: 78d7 9fb6 d02a 8db7 3f13 65b7 3460 5436
000002b0: f82a 0fb6 5a94 8a3b a604 1db6 620a 0e37
000002c0: 4010 13b5 a9d2 4db6 2a73 783b 6bdb 0438
000002d0: 254c 7dbc 0e43 e437 62af eeb7 0502 2f3b
000002e0: f6eb 9836 ce75 1bbb 4403 b2b6 ad46 ac37
000002f0: 51c1 ba36 101b be35 0881 a737 0864 3737
00000300: 6982 9db8 66d0 b138 3351 b538 9be4 2c39
00000310: f093 7139 529f e838 e228 1538 c372 0138
00000320: 0994 bc37 5ca3 8737 2f96 9ab8 4c6e df38
00000330: 1ac8 613a ad71 a537 3de3 f4b8 998d d1b8
00000340: c269 fc38 1b87 25b8 f176 8eb7 be75 4639
00000350: fa7d 52b8 4c69 aab9 811f 9638 18ff 52b8
00000360: 5bf5 e63c c1e8 ba38 ee7f 7838 6b18 5c3b
00000370: b645 fc36 79e2 a533 c933 6f37 7825 87b7
00000380: 81ae 7238 32e3 89b8 0fa1 a537 f4fe 1238
00000390: 9a79 4438 01ba cab7 61ac 6238 8154 0eb5
000003a0: f381 f337 5459 9b38 894f 8437 ca05 33b8
000003b0: 6039 4139 66c0 793a 299e c737 3fce 3bb8
000003c0: 0ba0 70b8 213b aeb8 6a91 143a ac07 d839
000003d0: 5940 19bc f51f 63b8 6f5e f7b8 a619 5a3b
000003e0: 027c bab7 719e 11ba ddfd d137 a734 87b8
000003f0: d940 20b8 9f1f 18b9 3771 7bb8 1c03 6337
-2.2677683e-05 8.590614e-06 -2.4747362e-05 -3.271212e-06 2.8353928e-05 -1.0094837e-05 -1.0674549e-05 9.598459e-06
5.6118683e-06 -1.5391415e-05 -1.4220366e-05 -1.3662324e-06 0.00013178831 3.4663943e-05 3.1759675e-06 8.061879e-06
4.816248e-05 -2.0680595e-07 -6.198789e-06 -5.0636568e-06 1.5951733e-05 -4.0198036e-05 -1.3567745e-05 -1.7701666e-05
0.04100379 5.4166067e-06 -1.707262e-05 0.014129366 -1.8941992e-05 2.3922419e-06 1.6424076e-06 4.7231247e-06
1.7849652e-05 5.2118503e-06 -4.6145615e-06 1.983867e-06 -1.6611821e-06 8.992268e-06 4.294117e-07 6.7814913e-06
-1.6325786e-05 -3.0146018e-06 -3.52023e-06 1.543055e-05 -1.0792648e-05 0.0010830248 2.560116e-05 3.2918126e-06
6.2043423e-06 1.5655829e-05 0.003621651 8.206717e-05 -0.016133577 -2.338164e-05 2.3065775e-05 0.012409971
8.238522e-06 -0.0017940294 -8.644939e-06 -1.2389768e-05 -8.149388e-07 1.39051e-05 -2.6052605e-05 -2.8325177e-05
1.8105862e-06 -1.1515128e-05 -2.4446877e-05 -1.29531545e-05 2.9988287e-05 -1.7479846e-05 -1.0993637e-05 3.3755595e-07
1.690979e-06 -1.1152066e-05 -1.7313569e-05 -5.286766e-06 0.00017500018 5.0213446e-05 7.2396756e-06 2.1461772e-06
5.420517e-05 7.946953e-06 -5.7092534e-06 -2.5319068e-05 1.2460077e-05 -6.44675e-05 -2.0192263e-05 -8.391846e-06
0.040515635 -7.972178e-06 -7.558943e-06 0.010243347 -1.2938918e-05 7.873735e-07 1.0085573e-06 1.6775106e-05
4.4867334e-06 1.2561372e-05 -9.513571e-06 -1.8341027e-06 -3.2693923e-05 9.1301845e-06 -1.2524826e-05 8.779131e-06
-8.830631e-06 2.769695e-06 3.7853938e-06 1.48807985e-05 -2.9222912e-05 0.0018414169 1.5000652e-06 2.1506296e-06
1.3271262e-05 1.744071e-05 0.0019316111 9.9436125e-05 -0.013838042 -1.0431679e-05 3.6156955e-05 0.0029008023
1.294878e-05 -0.0007661812 -1.2557585e-05 8.769149e-06 -3.8904022e-06 3.0223135e-05 -3.223879e-06 -9.65897e-06
-5.720295e-06 -7.855833e-06 -2.0235668e-05 -2.4267733e-06 2.675309e-05 -1.3676575e-05 1.6040207e-05 -1.0180567e-05
5.372933e-06 4.371183e-06 -2.1659775e-05 -4.1995063e-06 0.00085683365 1.3923141e-05 9.448561e-06 2.2848385e-06
2.2308695e-05 1.8928013e-05 1.5271829e-06 -1.6718383e-06 -5.2945707e-06 -6.030188e-05 1.6285874e-05 2.040132e-05
0.031184677 2.6991443e-06 8.6972195e-06 0.009304365 2.3828734e-05 -6.699969e-07 -4.2489714e-06 5.06306e-06
-5.8347405e-06 -2.53544e-07 -4.5531315e-06 2.173255e-06 2.1584026e-05 -1.1159022e-05 -5.715953e-06 -1.7208471e-06
-4.763653e-06 -1.6828446e-05 -1.3653945e-05 3.164646e-06 -2.1333672e-06 0.0042291107 -2.3397529e-06 8.466277e-06
-5.4785414e-07 -3.067e-06 0.003791044 3.16756e-05 -0.015460049 2.7210943e-05 -2.845348e-05 0.0026704085
4.5574225e-06 -0.002372134 -5.3051936e-06 2.0536909e-05 5.565737e-06 1.4163979e-06 1.9968036e-05 1.093094e-05
-7.510634e-05 8.478835e-05 8.645877e-05 0.0001648836 0.00023038662 0.00011092298 3.5562443e-05 3.0862877e-05
2.248028e-05 1.6169324e-05 -7.371266e-05 0.00010654013 0.00086128863 1.9722467e-05 -0.00011677153 -9.992271e-05
0.00012035995 -3.9464892e-05 -1.6983106e-05 0.00018926614 -5.0185226e-05 -0.0003250338 7.1584254e-05 -5.0305476e-05
0.028193166 8.912525e-05 5.924695e-05 0.003358389 7.5183007e-06 7.7246064e-08 1.4257567e-05 -1.6110702e-05
5.7859816e-05 -6.5749875e-05 1.9744532e-05 3.5046556e-05 4.684329e-05 -2.4166891e-05 5.404314e-05 -5.302209e-07
2.902837e-05 7.4076146e-05 1.5772663e-05 -4.2682317e-05 0.00018427288 0.0009527266 2.3796298e-05 -4.4776356e-05
-5.736951e-05 -8.30798e-05 0.00056674203 0.00041204446 -0.009353721 -5.415078e-05 -0.000117954674 0.0033279448
-2.2230673e-05 -0.00055549206 2.5032956e-05 -6.447109e-05 -3.8207367e-05 -0.0001450763 -5.9948503e-05 1.3530978e-05

rnn.bias_ih_l1 f4 [256]
00000000: f688 b2bd d442 babd 256c 9dbd 5f29 c7bd
00000010: 2884 acbd ec2e 69bd b801 a2bd 68dd 82bd
00000020: 32e4 7ebd b11c 9dbd 5cda c1bd f79b 9dbd
00000030: 9268 e33d cee3 fdbd 07ed 85bd bb6f 7dbd
00000040: 88dc c4bd 591c 83bd 87d2 59bd 3170 cdbd
00000050: daac 8dbd 7302 65bd e708 b8bd a004 9ebd
00000060: c670 423f 373d 91bd 2474 b2bd db3f 64bd
00000070: c37d c5bd dcb3 70bd 890e 4abd bbc9 a9bd
00000080: 3254 9bbd f549 8dbd fa42 b6bd 7574 2fbd
00000090: 6aab b5bd f9e0 70bd 4c0c 74bd 31c1 a8bd
000000a0: c952 95bd c3ec 85bd 1cc1 80bd 2e5e 9fbd
000000b0: 3e39 a9bd 0fb8 a23e 43e9 b5bd f9a3 76bd
000000c0: 517b 77bd 806a 8ebd c7ae ab3d 68c0 0cbd
000000d0: 78ab 2b3e a808 bdbd fd84 ccbd 7eb1 473f
000000e0: 7bfd a4bd c6d8 b83e 11ec 83bd 3824 b1bd
000000f0: 38f8 4cbd f4ef 98bd 43db babd d119 adbd
00000100: b120 a3bd eb76 a8bd dfba 89bd 3be2 99bd
00000110: de2f b1bd e5af 20bd 2b22 85bd 1808 5bbd
00000120: 84ea 63bd e6d8 81bd 7292 6fbd afce 76bd
00000130: 9539 e3bd 5dbb a4bd 0fed 55bd 9fac 4ebd
00000140: 9d98 d4bd 4c05 5cbd 540e 2ebd 2017 a0bd
00000150: 41d9 76bd af6c dabd 2fe6 93bd cf51 8bbd
00000160: b831 3cbe 953b 77bd a610 9bbd 8936 2abe
00000170: b5d3 9fbd 1ecc 3ebd 3048 27bd cbbb 93bd
00000180: 8cad 87bd c51a 7bbd b75b a1bd 81f6 11bd
00000190: 4f88 a6bd d69d 4ebd 8b87 51bd 69b1 92bd
000001a0: 8015 82bd b1ef 61bd fd62 5abd c9cf 8dbd
000001b0: f282 89bd 4548 5dbe e03c a6bd a1a0 44bd
000001c0: 9ced 43bd 667b 7abd 55cd 673c 3d21 c9bd
000001d0: a960 943d 96c2 a5bd 5ee7 bcbd 54d1 e2bd
000001e0: ed12 8fbd 329a cabd 1962 68bd 2a1a 9dbd
000001f0: dd4b 28bd 73c5 80bd ee2b a0bd ebe1 99bd
00000200: 6bbb 16bc 56fe 243d ff62 a4bc 63c9 203d
00000210: 3c44 d0bb a4e2 0d3d 1c8f 193d ba1b 36bd
00000220: cc41 5ab9 e2f6 ef3b 0491 e6bc 2484 803d
00000230: b172 8d3c cbc3 383d 4035 3c3d 40e7 38bc
00000240: 9d70 193c 902b 86bd bade af3d 199f 91bc
00000250: f255 11bd 91cb 8bbc 6905 d9bb 3088 01bd
00000260: 7977 26be ed39 9ebd 89fd bc3c 6480 00be
00000270: d254 273d d85c 34bc 5b87 64bd d104 87bd
00000280: 5dd0 ef3c 3186 f83c 18ec 9f3d cd66 02bd
00000290: cc69 4c3b c1e3 7fbd faf3 7dbc df49 773d
000002a0: 9772 6a3b 082b df3b fa2a 4dbc 92b0 ad3c
000002b0: bcb1 d9bd 4775 a23d a170 91bd 6ca6 48bd
000002c0: 8cd5 ab3d bc27 23bb a19c ce3a 28c2 c8bb
000002d0: 8dda 27be ffb6 963b e47e babc e82e 2f3d
000002e0: b63a 93bd dd41 05bd a828 463d f9b3 653d
000002f0: 4b9d 24bc 1a8f 17bd 0e54 3e3d 35eb d03c
00000300: 8b8c b2bd 4847 babd 4470 9dbd 1a33 c7bd
00000310: 18f1 afbd 0028 69bd bf09 a2bd 95e1 82bd
00000320: 63e9 7ebd d21f 9dbd 9d72 c2bd 4ea4 9dbd
00000330: d38d b83e 8eb7 02be 7af2 85bd 1379 7dbd
00000340: a191 cfbd 811f 83bd a7d9 59bd 2d82 cdbd
00000350: 98af 8dbd b0ea 78bd 4109 b8bd f30a 9ebd
00000360: 53a6 3b3f b942 91bd 0076 b2bd cb69 adbd
00000370: 5f78 c5bd 71bc 70bd 5b12 4abd cece a9bd
00000380: 9c59 9bbd a54c 8dbd 5e47 b6bd 437b 2fbd
00000390: 88ad b5bd 9ae7 70bd eb10 74bd 8dc3 a8bd
000003a0: 0c57 95bd 98f3 85bd 39c3 80bd 1362 9fbd
000003b0: ae3d a9bd 9854 c63e 47ed b5bd 76ae 76bd
000003c0: 9e89 77bd 266e 8ebd a5e8 c93c 1705 1fbd
000003d0: 9719 b23e c60e bdbd d584 ccbd 00c3 f23e
000003e0: 8903 a5bd 372f dc3e f6ed 83bd f727 b1bd
000003f0: 6efe 4cbd b4f7 98bd fce3 babd 481c adbd
-0.087175295 -0.09094778 -0.076866426 -0.09724688 -0.08423644 -0.056929514 -0.07910484 -0.06389886
-0.062229343 -0.07671488 -0.09465477 -0.076957636 0.111039296 -0.12396966 -0.0653935 -0.061874133
-0.096123755 -0.06401891 -0.05317929 -0.100311644 -0.069177344 -0.05591054 -0.08986073 -0.07715726
0.7595333 -0.07091754 -0.08713558 -0.05572496 -0.09643128 -0.058765277 -0.049330268 -0.0829043
-0.07584418 -0.06898872 -0.088994935 -0.04283567 -0.08870585 -0.0588083 -0.05958204 -0.08239973
-0.07291181 -0.06539299 -0.06286833 -0.07781635 -0.08262871 0.3178105 -0.08882382 -0.06021497
-0.060420338 -0.06953907 0.083829455 -0.03436318 0.16764629 -0.09230167 -0.09986303 0.78005207
-0.0805616 0.36102885 -0.064415105 -0.08649486 -0.050041407 -0.074676424 -0.09123852 -0.0845219
-0.0796522 -0.08225807 -0.06725096 -0.07513853 -0.08651708 -0.039230246 -0.06500658 -0.053474516
-0.055643573 -0.06340198 -0.05848927 -0.060255703 -0.11094967 -0.08043549 -0.05222803 -0.050457593
-0.10380671 -0.05371599 -0.042494133 -0.07816911 -0.060265783 -0.10665261 -0.072216384 -0.06802713
-0.18378341 -0.060359556 -0.07571535 -0.16622366 -0.07804052 -0.04658138 -0.040840328 -0.07213553
-0.06624898 -0.061304826 -0.07878821 -0.035635475 -0.081314676 -0.050443493 -0.051154654 -0.071627446
-0.06351757 -0.05516023 -0.05331706 -0.069243975 -0.06714429 -0.216096 -0.0811708 -0.04800475
-0.047834024 -0.06115284 0.014148076 -0.09820793 0.07244999 -0.08093755 -0.09223817 -0.110750824
-0.06986032 -0.09892692 -0.05673418 -0.07671006 -0.041087974 -0.062876604 -0.07820879 -0.075137936
-0.009199957 0.040281616 -0.020066736 0.039254557 -0.0063557904 0.03463997 0.037489995 -0.044460036
-0.00020814611 0.007323132 -0.02814532 0.06275204 0.017266603 0.045108598 0.04594922 -0.011285603
0.009365228 -0.06551278 0.085874036 -0.017776059 -0.035482354 -0.017064841 -0.0066229594 -0.03162402
-0.16256513 -0.07725892 0.023070114 -0.12548977 0.040852375 -0.011008464 -0.055793148 -0.065927155
0.02927416 0.030337425 0.07808703 -0.03183632 0.003119099 -0.062473062 -0.015500063 0.060373183
0.0035773867 0.0068105496 -0.012522453 0.02120236 -0.10629603 0.07932525 -0.071015604 -0.048986837
0.0839034 -0.002489551 0.0015763232 -0.006126661 -0.16391964 0.0045994516 -0.022765584 0.042769343
-0.071889326 -0.032533515 0.048378617 0.05607984 -0.010047267 -0.037001707 0.04646688 0.02550278
-0.08718213 -0.09095627 -0.076874286 -0.09726544 -0.08590907 -0.056922913 -0.07912015 -0.063906826
-0.062234294 -0.07672085 -0.09494517 -0.07697354 0.36045703 -0.12765333 -0.06540389 -0.061883043
-0.101351984 -0.06402493 -0.053186085 -0.10034595 -0.069182575 -0.06077069 -0.0898614 -0.07716932
0.73300666 -0.070928045 -0.08713913 -0.08467444 -0.096420996 -0.05877346 -0.04933391 -0.08291398
-0.07585451 -0.068993844 -0.08900331 -0.04284216 -0.08870989 -0.058814622 -0.059586447 -0.08240423
-0.072919935 -0.065406024 -0.06287236 -0.07782378 -0.082637176 0.38736415 -0.08883148 -0.060224973
-0.060433976 -0.06954603 0.024647066 -0.038823213 0.34785149 -0.092313334 -0.09986273 0.47414398
-0.08057315 0.43004772 -0.06441872 -0.08650201 -0.05004733 -0.074691206 -0.09125516 -0.0845266
