checkpoints/TP_LSTM_L2_bs16_trainNon0baseline_bsfirst_pos1_downsp_freq/TP_LSTM_L2_bs16_epoch850.pt (torch, 206200 bytes, 9 tensors)

rnn.weight_ih_l0 f4 [256, 3]
00000000: 8f68 653c 2979 a13c 2395 033d 0422 6b3e
00000010: a133 ea3e b953 193e 3644 7f3d b008 d63e
00000020: 22aa 743d 7f35 b03c cbfb ca3c db7c 103d
00000030: da08 ffbc fda1 a4bc d695 1ebc d5dc 30bc
00000040: 6744 15bb 474a e83b ffe1 e5bc 3d6a 89bc
00000050: 888f 5fbb adb9 03bd 479c a4bc 1a01 a7bb
00000060: 2ffb 40bd ffec bbbc fe92 6ebd a794 20bd
00000070: 52e8 eabc 417b 71bc 1aa0 1abd 7197 efbc
00000080: c4ec 9bbc ee1f 563e 517f c8bc 5faf d7bf
00000090: 635d a73e 906d b33e ff7f e13e 361b 8fbd
000000a0: 5001 33bd 802f b7bc e8e6 9c3e 339f 6d3e
000000b0: 4177 91be de15 babc 4c19 66bc e4e5 d0bb
000000c0: bbe0 babc 1d5e 64bc b12a d9bb 1cad 6abf
000000d0: a152 cfbe 084e d93e bc98 583e 5335 fb3e
000000e0: ed8c 023e 6ade 8f3e c29c 893e 4821 9c3e
000000f0: cedd 79bc 6fa8 0abc a982 2bba 6dc8 d53e
00000100: a2bb bb3e 79ed bf3e 9099 1ebd 380b f6bc
00000110: 9537 a9bc 5c35 98be 352d 5bbe dbc6 233d
00000120: ddca 893e 75f2 893e a9a6 ab3e 61ba 19bc
00000130: 9343 19bb 7339 4b3c 426b 0bbd 5f36 d6bc
00000140: d895 76bc e873 933b 0661 413c 096b c73c
00000150: a257 b3bc 712c 40bc 229e e93a 8f5b 34be
00000160: 6c1d 9cbc eaad 453f a3f5 bcbc 2da3 96bc
00000170: 03ec 18bc 4c87 573e 3575 d63e 068d b1bc
00000180: 43f9 803d 18f4 8c3e e8c3 0dbe f953 90bd
00000190: a8c0 2bbd f810 9abc 8389 923e b05d 903e
000001a0: 10d5 a73e 7cca c6be 2164 0a3f 824d 483c
000001b0: 17fa b83c 3c07 0a3d 39e2 6f3d adea 123e
000001c0: 42ad 213e 2116 6b3e b1ec f4bd 5411 0cbe
000001d0: 5d02 f73e 8f41 03bd 5bbf a9bc 372b 56bc
000001e0: bb5f f3bc b8ca b1bc 02cb 19bc 0fdf fbbe
000001f0: 996a 89be 51bb b73e 57e2 193f fd99 e63e
00000200: 317c c63e cc6a edbe f37b 80be 168e 663e
00000210: 6545 12bd b1a8 c8bc c2e5 8dbc 94af 253b
00000220: 2c16 163c d850 973c 6604 37bf 0d83 27bf
00000230: 5a04 983c 38bb bf3c 2ac9 143d e168 a03d
00000240: 4cc7 d5b9 566c 163c 19dc c03c e37d fabc
00000250: fc7e c0bc ddd9 26bc f7ba e13b edef 693c
00000260: 99cd 193d 8ae7 aa3d 9b1d 9f3e 572b e5be
00000270: aeda eb3d 5c11 f63d e8fb 1c3e eb92 24bc
00000280: 37f0 53bb 952a 8f3b 3e69 47be dee2 dbba
00000290: bf30 93be 94bd 153f 75cd d93e 9100 94be
000002a0: d2b3 9f3e a396 973e e4ad 843e c35a 103d
000002b0: 9f36 2a3d 52f6 733d cf44 11bd d798 dcbc
000002c0: 66b5 72bc 291c 08bd 7a50 ddbc af77 9ebc
000002d0: a66c d4bc e9ac afbc c54b 7abc 1550 713e
000002e0: 1eb0 413f dffb 803e fa50 c5bc acd6 61bc
000002f0: 1bfa 55bb edcd fabc 044c bdbc 54ba 71bc
00000300: a0cf bbbc 3b3b 50bc 6bd4 82bb 7156 da3b
00000310: fa7d fa3e 2872 5a3e 48d8 153e 9821 4c3e
00000320: 3166 87bc 110f 46bc cf3d c2bb 26ff bdba
00000330: ed39 b9bc 8bdd 64bc 4760 cabb c13c 83bc
00000340: 90c3 0ebc cb7d a4ba 6e61 dbbc 1426 90bc
00000350: 3f32 febb 41f8 babc ad44 7cbc 839e a6bb
00000360: 808a c2bc d0e3 0dbc bcb0 bdbc 87d2 fdbc
00000370: 4643 c8bc 2d80 68bc 0902 00bd 4608 d1bc
00000380: f608 90bc fa8c 383e e66b 1f3e 3f97 8dbe
00000390: 080b 24bb be91 c13d dfce da3d 0970 a0bc
000003a0: 3c0b 46bc 0509 dabb 4c61 48be d2b1 7dbd
000003b0: 6b6c 67be bf00 96bc fbb2 33bc 2861 9fbb
000003c0: de03 9cbc b677 3ebc 6ce6 b9bb fb38 38be
000003d0: 11ec 8bbe dd31 c1bc 5e0c c1bd af0b 3c3e
000003e0: 39d3 ddbb e9ee acbc 8bf0 89bc b78f 1a3d
000003f0: 2700 48bc ce39 e5bb 788c bbba 254a ad3d
0.0140019795 0.019711094 0.03212465 0.22962195 0.45742515 0.14973344 0.06232091 0.41803503
0.059732564 0.021509884 0.024778267 0.03527532 -0.03113215 -0.020096773 -0.009679278 -0.010794838
-0.0022776367 0.0070889327 -0.028061865 -0.016774291 -0.003411265 -0.032159496 -0.02009405 -0.005096567
-0.047114547 -0.022940157 -0.05824565 -0.039204266 -0.028675232 -0.014738859 -0.03775034 -0.029247018
-0.019033797 0.20910618 -0.024474772 -1.6850394 0.32688436 0.35044527 0.44042966 -0.06987612
-0.043702424 -0.022361517 0.30644917 0.23205261 -0.28411296 -0.022715505 -0.014044117 -0.0063750613
-0.022812238 -0.013938454 -0.0066274037 -0.91670394 -0.40492728 0.42442346 0.21152014 0.4906412
0.12749071 0.28099376 0.2687741 0.30494142 -0.015250636 -0.008463009 -0.0006542602 0.41754475
0.3666659 0.37485865 -0.038720667 -0.030034646 -0.020656386 -0.2972821 -0.21403964 0.039984565
0.26912585 0.26942793 0.3352559 -0.009382815 -0.0023386225 0.012403834 -0.034037836 -0.026148973
-0.015050374 0.004499901 0.011802917 0.02434303 -0.021892373 -0.011729346 0.0017823617 -0.17613052
-0.019056998 0.77218497 -0.023066347 -0.018388355 -0.009333613 0.21047705 0.41886297 -0.02167369
0.06297543 0.2752998 -0.13844264 -0.070472665 -0.04193178 -0.01880692 0.28620538 0.28196478
0.3277974 -0.38826358 0.54059035 0.012225511 0.02258019 0.033698305 0.058565352 0.14347334
0.15788749 0.2295766 -0.11959208 -0.13678485 0.4824399 -0.032044943 -0.020721128 -0.013071827
-0.029708734 -0.02170311 -0.00938678 -0.49193618 -0.2683914 0.358851 0.6011099 0.4503936
0.38766626 -0.46370542 -0.25094566 0.22515139 -0.03571071 -0.0244945 -0.017321471 0.0025281655
0.00916056 0.018471166 -0.71491086 -0.6543434 0.018556762 0.023404703 0.036324657 0.07832504
-0.00040775014 0.009181103 0.02354245 -0.030577606 -0.02349805 -0.010183779 0.006888743 0.014278394
0.03754959 0.08344944 0.31077275 -0.44759628 0.11516319 0.1201503 0.1533047 -0.010044794
-0.0032339224 0.00436909 -0.1947374 -0.0016775986 -0.28748128 0.584924 0.42539564 -0.28906682
0.3119188 0.29607114 0.25913918 0.035242807 0.041555997 0.05956108 -0.03546601 -0.026928348
-0.014813757 -0.03322998 -0.027015913 -0.019344179 -0.025930714 -0.021444755 -0.015276854 0.23565705
0.7565936 0.25192162 -0.024086464 -0.013784092 -0.0032650295 -0.030615771 -0.023107536 -0.014753897
-0.022926152 -0.012709434 -0.0039926074 0.0066631366 0.48924237 0.2133261 0.14633286 0.1993469
-0.01652822 -0.012088553 -0.0059277783 -0.0014495596 -0.022610629 -0.013968836 -0.006176028 -0.01602018
-0.008713618 -0.0012549696 -0.026779857 -0.017596282 -0.0077574546 -0.022823455 -0.015397233 -0.005084814
-0.023747683 -0.008660272 -0.023155563 -0.030984176 -0.024446141 -0.014190716 -0.03125194 -0.02551664
-0.017582398 0.18022528 0.15568504 -0.27654454 -0.002503099 0.09451626 0.10683989 -0.019584673
-0.012087639 -0.0066539072 -0.19568366 -0.06193716 -0.22599952 -0.018310903 -0.010967965 -0.004863877
-0.019044813 -0.011625221 -0.0056732204 -0.17990486 -0.27328542 -0.023583347 -0.09426187 0.18363832
-0.0067695645 -0.021110015 -0.016838333 0.037734713 -0.012207068 -0.0069954162 -0.0014308831 0.084614076

rnn.weight_hh_l0 f4 [256, 64]
00000000: f52d ca38 4672 1c3b b566 2b3b 963a 02b9
00000010: 7e0e 1eb7 d844 0239 3b0b f8b7 1861 1c37
00000020: 4ac3 93b9 79c2 d3b6 3880 8cb7 f440 98ba
00000030: bfa1 443a 6e3f d238 2435 97ba f154 c5b7
00000040: d14e 8037 4730 cc38 8609 223b 47d6 d3b9
00000050: 1574 8db8 29f0 e9b9 6ad3 ac37 ae31 e339
00000060: f4d9 e5b9 67e4 3e38 7177 3537 e974 8339
00000070: a50c 8338 4a4f 9d3a 1b4d e637 13e4 eb3a
00000080: 44fd a5b9 0506 6039 8507 0739 4a5f b63a
00000090: ec55 c2b8 31d2 9939 880a 2a3b 6d5f 0938
000000a0: a5aa 00b8 4d78 b63a 7770 25bb 44e8 c338
000000b0: 53e5 3538 d5ac b6b8 2bd7 bb39 ca20 0338
000000c0: af68 a7b8 6455 f037 c9cd c5b8 62a1 a6b9
000000d0: f7d9 7bb8 dc94 0439 f357 a9b9 3e7f 32b9
000000e0: 8c0e a0ba 47f9 0539 3245 a9b7 0eb3 4bb7
000000f0: fef2 dbb7 b3cf 6e3a f882 9d37 af1d 9837
00000100: 97da 70ba 2a8f b33c 70c9 ea3d 0c41 9abb
00000110: 39f2 81bb af72 af3b d3fc ae3b ccd9 6f3b
00000120: 6b5c 403c 6073 683a 23a3 cb38 50d8 2fbd
00000130: 142d e7bc 65a2 873b 1d85 0b3d 1a70 c239
00000140: 48ef 71bb eb1f 04bd b522 5f3c 62b8 8e3b
00000150: 6728 0dbb b119 1d3c d0b4 4a3b 8c22 34ba
00000160: b112 063c ebcc 68ba 8319 8f3a bd6d 373a
00000170: 3bae 4c3a 3e54 ca3d c0d3 cf3a 4d1f 363d
00000180: 4f18 cf3b 820c 773b 651b a5bc bb66 b3bc
00000190: 702b 053b 975c 9fbc 59b9 273d 1855 b03b
000001a0: 35ef 9a3a 0b9a 40bd 2342 45bd 42ef 8fbc
000001b0: 80fd 793b 1bbb 31bb 11b6 c03c 7a06 8ab8
000001c0: 1296 cb3b c9fe 30bb d639 7a3b 0e40 a23d
000001d0: a295 113c 2d57 a13b 3dda 653b ad0d 1f3d
000001e0: 7b04 fa3b 5bb2 e2bb 0f06 c4b9 7675 14bb
000001f0: 9361 38bb 8697 2cbd 4341 aeba 0635 6c3a
00000200: bc4c 52ba 5342 0a3e 4bfe 25bc 394c 9abb
00000210: 15d1 6d39 601e 053b a2bd 9138 abf7 cfb9
00000220: 26a0 0d3c 943e 05ba 2657 553a b8e6 74bc
00000230: ceb2 35bc 9428 9db9 f477 c33d 0be9 9a3a
00000240: 746a 96ba 5e86 52bd c1a1 4a3d 6b46 253c
00000250: 2fb0 35ba 9d7e 8a3b dc81 273b 0d41 703b
00000260: cda6 503b aa73 8eb9 7d6b 693a 1a06 373a
00000270: 3605 e53a a0fa eb3c 2945 71ba 1278 86bb
00000280: aa00 273d faa7 8b3a 494f 5bbc dee2 12bd
00000290: 1181 aa3a b2d6 58bb 530c bebd 779e 8cba
000002a0: 7162 193a 54be 96bd 5b8d 35bd afcf 4ebc
000002b0: 94df 26ba eb9e 063b f819 b4bc bcc8 4abb
000002c0: 0990 cf3a 4a4a 9339 255c 023a de5e c83d
000002d0: bb82 c13b 1248 c43a b025 933c fb50 803c
000002e0: 73de ca3c 3250 24bb a952 5eb9 fc77 e0ba
000002f0: f05d d03a 642a 3c3c 7dcf aab6 0cca 82ba
00000300: 3303 7339 43bd 343c c654 cd3b 6cad 4d39
00000310: 1423 ef37 c1ba 22b9 4ad5 d9b8 efd4 32b8
00000320: 548b ebb9 1c96 88b8 c63a 8338 ca60 9bba
00000330: 4811 be3a 3c32 1fb9 7643 05bb d962 5fb8
00000340: 595e 2038 d3d2 be3a df9b 4b3b f1a7 98ba
00000350: 56e8 4f38 5197 80ba e92f 9b37 d32c 093a
00000360: 3db6 a8ba cd6a 1439 2a2d 4438 176a 46b9
00000370: 18b4 78b8 fdb9 b0ba 11fb 8338 47df f33a
00000380: 42b5 21ba 0c23 21b8 8b8b 8b3a 2a40 9a3a
00000390: a58b 9db9 01a8 373a 4589 6bb8 a181 7d37
000003a0: 879d cdb8 ad4f 083b d0df 0abb d0ca f139
000003b0: 098c 1738 89cb 61b9 7da2 093a 259c 7139
000003c0: a6d2 6eb9 3da0 ea38 1cef 8bb9 33f8 8fba
000003d0: 3b30 16ba e0f4 f4b8 a328 38b9 535f 49b9
000003e0: 7579 e7ba 2073 9239 46c3 56b8 b56c 5ab8
000003f0: ca81 0837 e748 18bc b3b4 d438 6862 55b7
9.640671e-05 0.0023871823 0.0026153747 -0.00012419591 -9.420908e-06 0.00012423412 -2.9569133e-05 9.320931e-06
-0.00028183527 -6.3109296e-06 -1.6749007e-05 -0.0011616037 0.00075009087 0.00010025395 -0.0011536223 -2.3523784e-05
1.529549e-05 9.7364704e-05 0.0024724915 -0.00040404705 -6.745026e-05 -0.00044620156 2.0602445e-05 0.00043333828
-0.0004384067 4.5512246e-05 1.081625e-05 0.00025073372 6.248922e-05 0.0012001779 2.7454042e-05 0.0017997049
-0.0003165995 0.00021364547 0.00012877405 0.0013913896 -9.266645e-05 0.0002933904 0.0025946219 3.2752218e-05
-3.0676503e-05 0.001392135 -0.0025244036 9.3415874e-05 4.3367338e-05 -8.710629e-05 0.00035827732 3.126337e-05
-7.9826794e-05 2.8649993e-05 -9.4320225e-05 -0.00031782227 -6.004606e-05 0.00012643955 -0.0003229972 -0.00017022804
-0.0012211367 0.00012776731 -2.0178592e-05 -1.2141432e-05 -2.6219986e-05 0.0009109929 1.8776846e-05 1.8133635e-05
-0.0009187846 0.021918852 0.114642024 -0.004707461 -0.003965643 0.0053542475 0.0053401976 0.0036598323
0.011740784 0.000886729 9.710181e-05 -0.0429309 -0.028219737 0.004139232 0.034062494 0.00037086086
-0.0036916304 -0.032257 0.013619115 0.0043554762 -0.0021538974 0.009588645 0.0030930527 -0.0006871603
0.008183167 -0.0008880633 0.0010917637 0.0006997248 0.0007807945 0.09879349 0.0015855953 0.044463445
0.0063200365 0.0037696664 -0.020154664 -0.021899572 0.002032008 -0.01945333 0.040948246 0.0053812377
0.0011820557 -0.047021907 -0.048158776 -0.017570142 0.0038145483 -0.002711958 0.023524316 -6.581559e-05
0.006212958 -0.0027007333 0.0038181446 0.07922374 0.008885773 0.0049237222 0.0035072707 0.0388314
0.0076299286 -0.0069182343 -0.00037388547 -0.002265302 -0.002813433 -0.04213669 -0.0013294596 0.00090105867
-0.00080222986 0.13501863 -0.010131429 -0.0047087935 0.0002267997 0.0020312294 6.949461e-05 -0.00039666644
0.008644139 -0.0005082872 0.00081382913 -0.014947586 -0.011089994 -0.00029975607 0.095443636 0.001181872
-0.0011475817 -0.051397674 0.049470667 0.01008759 -0.00069308555 0.0042265193 0.002555958 0.0036659867
0.0031837702 -0.00027170527 0.00089042616 0.0006981805 0.0017472866 0.02880603 -0.0009203726 -0.004103669
0.040772118 0.0010654919 -0.013385602 -0.03586089 0.0013008435 -0.0033086953 -0.092796944 -0.0010728379
0.0005851156 -0.07360521 -0.04432426 -0.012622758 -0.0006365713 0.00205415 -0.02198504 -0.00309424
0.0015835773 0.00028093375 0.0004972837 0.097837195 0.005905477 0.0014975092 0.017962307 0.015663614
0.024764275 -0.0025072214 -0.00021202363 -0.0017125602 0.0015897136 0.011484716 -5.0905496e-06 -0.0009978428
0.00023175478 0.011031452 0.0062662093 0.00019614928 2.8507355e-05 -0.00015519095 -0.000103870945 -4.2636817e-05
-0.000449265 -6.5129454e-05 6.257514e-05 -0.0011854407 0.0014501 -0.00015182135 -0.00203344 -5.3259402e-05
3.823484e-05 0.001455868 0.0031068248 -0.001164673 4.9569026e-05 -0.0009810721 1.849975e-05 0.00052328146
-0.0012871694 0.00014154166 4.6772104e-05 -0.00018922273 -5.9295533e-05 -0.0013483163 6.2933315e-05 0.001860597
-0.0006168672 -3.841803e-05 0.0010646445 0.001176839 -0.00030049417 0.00070059305 -5.615621e-05 1.5110157e-05
-9.8045035e-05 0.0020799444 -0.0021190532 0.0004611821 3.6131623e-05 -0.00021533495 0.0005250348 0.0002304172
-0.00022775921 0.00011187836 -0.00026690296 -0.0010984003 -0.0005729233 -0.00011680438 -0.00017562746 -0.00019204365
-0.0017660098 0.00027933065 -5.120344e-05 -5.207649e-05 8.136451e-06 -0.009294725 0.000101426056 -1.2718701e-05

rnn.bias_ih_l0 f4 [256]
00000000: ca06 503d 0ed0 4e3e 1f20 823e ef6e fe3c
00000010: 663a 70bd a1b9 cebc 6615 4cbd 08d8 65bd
00000020: d3f3 5dbd 7ed8 84bd bcdd 70bd b859 b33e
00000030: 0e6c 2b3f efb6 b1bd 387a 8e3e 70ae 3fbd
00000040: 54b4 40bd ab8c 183f b288 043f 1048 023f
00000050: b7b1 10bd 0ef0 113f fe0e 74bd 3c94 6fbd
00000060: 4cc7 243f 4464 79bc aa16 70bd b65e 083d
00000070: 316e 17bd 690f 3c3f a803 19bd eb45 163e
00000080: 9a85 1e3d 0e11 c2bd 3e1d 0f3f 23a8 963e
00000090: cadb 833d 0ad8 bb3e 632f 8f3e d0d4 6dbd
000000a0: 3d7f 3fbd fc08 e43e 90aa f03c 3e3e f63d
000000b0: ed5a 78bd 2512 6eba a4ea 0cbe 623c 053e
000000c0: 6c9d 1bbb d0c0 3ebd fffd 073d 8214 623e
000000d0: ada2 6f3e dd45 c0bc e022 e6bd 715a 963e
000000e0: a4b4 023f 8528 8e3d 6aa9 60bd b3e0 57bd
000000f0: bdf6 3fbd e52e c23e 8431 3cbd a40c 67bd
00000100: e16d 82bd 5bba fd3c 9f3b 01be 8af8 25bd
00000110: a810 3fbd f88a 18bd df1f 50bd bced 39bd
00000120: 4102 6ebd 78d0 57bd e353 50bd fec4 d9bd
00000130: 3299 19be 831a 1abd 8a04 40be abe5 26bd
00000140: d22b 27bd 48d6 0fbe bc95 80bd 1466 04be
00000150: 8303 f5bc 9dc1 fcbd 2796 44bd 55a3 5cbe
00000160: 0528 e3bd b80b 50bd fc8d 52bd 62b3 07bd
00000170: dd59 1cbd 97f2 42be 4c61 0ebd 80d6 92bd
00000180: eccf 15be 2a6a 0cbd e509 d9bd a26f fabd
00000190: 35ef 70bd 86f8 a2bd 141c ceb7 7997 38bd
000001a0: 660d 48bd 6300 8fbe 13e7 64be afda 45be
000001b0: c4cc 45bd 9859 32bd fd69 2bbc bb6e 85bd
000001c0: 5117 3ebd 629b 4fbd 6f89 6ebd 561c 91bd
000001d0: 950c 9cbd 8585 07bd 52e0 d93c 3ee5 41bc
000001e0: b29f e2bd 4136 46bd 5645 3fbd d6ca 43bd
000001f0: 8fc1 22bd 0c4b 82be 57da 3bbd 6262 33bd
00000200: c72b 173d 8f1a d93d e85f f2bd 37b2 173d
00000210: 51df c53c 00ca 7fbc 59ee 52bb 30f7 6ebd
00000220: b227 8b3c 861c 4839 b413 71bd e897 97bd
00000230: 31fd 13bc f11d 833d 0055 223e 71ee ddbc
00000240: e92d b63c 87dd 703d 6e54 f9bd f364 9abd
00000250: fea9 52bb b053 caba 44c4 1c3c a1f0 803d
00000260: ac86 d4bc 568c 73bc c353 64bd ff87 f8bc
00000270: 0d9c b3bc 6045 fe3d 6a2d c4bc 22fd 243d
00000280: 10f1 5b3d a5c0 2dbd 69f3 97bc f90c ee3c
00000290: 4d9d 40bc cd91 1dbd b15a 8b3d daed cf3c
000002a0: 065f 9d3c 3437 a4bd 731f e53d ae46 f4bc
000002b0: acd5 59bd 407b 1b3c 7d01 21be 3091 bcbc
000002c0: 9800 09bd e3f7 73bc 52b3 2ebd d885 e43c
000002d0: 6f47 2cbd b257 95bd 992f 4c3d 590c c9bd
000002e0: 5119 8dbd 6917 66bc f082 fdbb b014 b33a
000002f0: 8b80 9abc 6c61 30bd 1ad9 f03c 1a9a 24bd
00000300: 682e 503d 5523 4d3e 5ebb ef3d a583 fe3c
00000310: 8543 70bd 11fe cebc 6229 4cbd 6ce6 65bd
00000320: 96c8 58bd 1fe0 84bd 6ddf 70bd bc6f 9a3e
00000330: 1eda 2c3f 3b70 b1bd 232e ba3e 8cb8 3fbd
00000340: 6dbf 40bd b1da 1b3f 5817 163f c383 033f
00000350: 9cb9 10bd c66c 153f e211 74bd b9fb 9bbd
00000360: 0de9 253f 5cbf 79bc 6d24 70bd 4b70 083d
00000370: 8173 17bd a8c8 403f 4c0a 19bd 2cdd 5c3e
00000380: f599 8dbd bd80 c1bd 15ec 0f3f 118e e73e
00000390: e100 843d 477d bc3e b491 993e facf 6dbd
000003a0: 3292 3fbd 6c9c ed3e 3d69 213d f8e1 a63d
000003b0: 4160 78bd e076 71ba 8b67 e3bd 1c0e 053e
000003c0: 25e2 1cbb b7cb 3ebd 1d32 083d 4dc6 5a3e
000003d0: 0f56 703e 837a c0bc e7da 43be ab6f ab3e
000003e0: 3506 043f e657 8e3d 7cae 60bd a1eb 57bd
000003f0: 1800 40bd 91a7 843e cb43 3cbd 0d18 67bd
0.050787725 0.20196554 0.2541513 0.031058757 -0.058649443 -0.025235 -0.049825095 -0.056114227
-0.054187607 -0.06486605 -0.058805212 0.35029387 0.66961753 -0.0867747 0.2782762 -0.046797216
-0.047046974 0.5958964 0.5177108 0.5089121 -0.035325732 0.5700692 -0.05958461 -0.058490977
0.643666 -0.015221659 -0.058615364 0.03329345 -0.03697032 0.73461014 -0.037357002 0.14675109
0.03870163 -0.09475909 0.55903995 0.29425153 0.06438406 0.36688262 0.2796584 -0.058064282
-0.046752203 0.44538105 0.029378206 0.120235905 -0.06063359 -0.0009081683 -0.13761383 0.13011315
-0.0023744954 -0.0465706 0.033201214 0.22078136 0.234019 -0.023470813 -0.11237121 0.29365876
0.51056886 0.06941322 -0.054849066 -0.052704524 -0.046866167 0.37926403 -0.04594566 -0.05640854
-0.06368614 0.03097265 -0.126204 -0.04052023 -0.046646744 -0.037241906 -0.050811645 -0.045392737
-0.05810762 -0.052689046 -0.05086125 -0.106332764 -0.14999846 -0.03762294 -0.18751732 -0.040746372
-0.040813275 -0.14046586 -0.062785596 -0.12929565 -0.029908901 -0.12341616 -0.04799476 -0.21546681
-0.110916175 -0.050792426 -0.051404938 -0.033130057 -0.038171638 -0.19037853 -0.03476076 -0.07169819
-0.14630097 -0.034280933 -0.1059759 -0.122283235 -0.058821876 -0.07957558 -2.4570189e-05 -0.04506633
-0.048840903 -0.27929983 -0.22353773 -0.19321702 -0.048290983 -0.043542475 -0.010462281 -0.06515261
-0.046408955 -0.050685294 -0.058236536 -0.07085483 -0.07619587 -0.03308632 0.026596222 -0.011834441
-0.11065616 -0.048391584 -0.046696983 -0.04780086 -0.039735373 -0.2544788 -0.045862522 -0.043794997
0.036906984 0.10600769 -0.11834699 0.037035193 0.024154337 -0.015612125 -0.0032185523 -0.058341205
0.016986702 0.00019084112 -0.05885668 -0.07402021 -0.0090325335 0.06402195 0.15852737 -0.027091237
0.022238689 0.058805015 -0.12174307 -0.07538786 -0.003214478 -0.0015436318 0.009568278 0.06295896
-0.025943123 -0.014865002 -0.055743944 -0.030338285 -0.021924997 0.12415576 -0.023947436 0.04028047
0.053696692 -0.04242005 -0.018548684 0.02905892 -0.011756253 -0.038469125 0.068044074 0.025381971
0.01921035 -0.08018342 0.11187639 -0.029818859 -0.05318229 0.009489834 -0.15723224 -0.02301845
-0.033447832 -0.014890644 -0.042651482 0.027895853 -0.042060312 -0.07292117 0.04985008 -0.09816808
-0.06889594 -0.014043667 -0.007736556 0.0013662782 -0.018860122 -0.04306166 0.029400397 -0.040186025
0.050825506 0.2003301 0.11705659 0.031068632 -0.05865814 -0.025267633 -0.049844153 -0.05612795
-0.05292567 -0.0648806 -0.058806825 0.30163372 0.6752032 -0.086639844 0.36363325 -0.046806857
-0.047057558 0.6088057 0.5862937 0.5137293 -0.03533326 0.583691 -0.059587367 -0.07616372
0.6480873 -0.015243378 -0.05862849 0.033310216 -0.036975387 0.7530618 -0.037363335 0.21568745
-0.069141306 -0.09448383 0.5621961 0.45225576 0.0644548 0.3681433 0.29993975 -0.05805967
-0.046770282 0.46408403 0.039407004 0.08148569 -0.06063867 -0.0009211134 -0.11103734 0.12993664
-0.0023938504 -0.046580996 0.033250917 0.21364708 0.23470329 -0.023495918 -0.19126473 0.33483633
0.5157197 0.06950359 -0.0548539 -0.052714948 -0.04687509 0.25909093 -0.04596309 -0.05641942

rnn.bias_hh_l0 f4 [256]
00000000: ca06 503d d5d6 f03d 4768 bf3d ef6e fe3c
00000010: 663a 70bd a1b9 cebc 6615 4cbd 08d8 65bd
00000020: 63cd 5ebd 7ed8 84bd bcdd 70bd 735b a83e
00000030: 0e6c 2b3f 91b7 b1bd 38dd 9c3e 70ae 3fbd
00000040: 54b4 40bd c0a4 123f 02cb e13e 1048 023f
00000050: b7b1 10bd 0ef0 113f fe0e 74bd 9b99 d1bd
00000060: 4cc7 243f 4464 79bc aa16 70bd b65e 083d
00000070: 316e 17bd d918 413f a803 19bd 9eaf 0c3e
00000080: a791 d43c 391f c2bd 3e1d 0f3f 7cab cf3e
00000090: cadb 833d 0ad8 bb3e a701 a23e d0d4 6dbd
000000a0: 3d7f 3fbd d9ba d23e cb89 903d 323c 0f3e
000000b0: ed5a 78bd 2512 6eba 7780 4dbe 623c 053e
000000c0: 6c9d 1bbb d0c0 3ebd fffd 073d 3fa1 1d3e
000000d0: ada2 6f3e dd45 c0bc e20b 90bd 5619 963e
000000e0: a4b4 023f 8528 8e3d 6aa9 60bd b3e0 57bd
000000f0: bdf6 3fbd 77f9 c93e 8431 3cbd a40c 67bd
00000100: e16d 82bd 168a 493e 69ac d43d 8af8 25bd
00000110: a810 3fbd f88a 18bd df1f 50bd bced 39bd
00000120: ca01 6ebd 78d0 57bd e353 50bd e382 cfbd
00000130: 3299 19be 831a 1abd aaba 10be abe5 26bd
00000140: d22b 27bd e409 12be 3cb1 bcbd 1466 04be
00000150: 8303 f5bc 9dc1 fcbd 2796 44bd e519 80be
00000160: 0528 e3bd b80b 50bd fc8d 52bd 62b3 07bd
00000170: dd59 1cbd 7748 43be 4c61 0ebd fafc eabd
00000180: 4c21 9abd 2a6a 0cbd e509 d9bd 18b6 dabd
00000190: 35ef 70bd 86f8 a2bd a598 1e3d 7997 38bd
000001a0: 660d 48bd 252d 8fbe b6c6 69be a180 3dbe
000001b0: c4cc 45bd 9859 32bd 81b7 02bd bb6e 85bd
000001c0: 5117 3ebd 629b 4fbd 6f89 6ebd df2d 4dbe
000001d0: 950c 9cbd 8585 07bd 2597 74bc d53b 2dbc
000001e0: b29f e2bd 4136 46bd 5645 3fbd d6ca 43bd
000001f0: 8fc1 22bd 1bac 51be 57da 3bbd 6262 33bd
00000200: 55ab a5bd f98e e7bd e595 8e3d b519 47bd
00000210: 7335 e3bc 306b 743c 04f2 c13b 1acc 883d
00000220: b4bd 0dbe fed8 e73b 07c4 4f3d f443 ba3d
00000230: c8bb 213d 4517 adbd 6f8a 823c 2b58 e33c
00000240: 206d c3bc a452 f93b cd24 1ebd fa10 423d
00000250: d40c a73a 6622 49bd 0b7e f8bc 0a9b ddbd
00000260: b908 053d 6a44 653c 8054 513d dbf2 833d
00000270: 1866 353d 3705 223e faa0 bb3c aad7 41be
00000280: 2c98 23bb 2224 c23a 571c e53c e75e d4bd
00000290: 72c0 903c 93b9 a33c ef8d 4fbb dc71 71bc
000002a0: 6fe1 91bc 9bb6 8c3d be1d 0ebd ec45 01be
000002b0: 7f8b 8d3d 699f 1bbc efe5 d63c 1711 e4bc
000002c0: bf03 2a3d e714 1e3c 7c8e 393d 5d6a cc3d
000002d0: 6dab 363d 00f7 923d 5903 32bd 05d2 fabd
000002e0: c1f9 1f3d 824b 063b 9efd b33c 4fa1 64b9
000002f0: 061b 873c 92dc 323d e28d 0cbd c8b2 393d
00000300: 682e 503d d937 283d bdb9 1b3e a583 fe3c
00000310: 8543 70bd 11fe cebc 6229 4cbd 6ce6 65bd
00000320: 417d 58bd 1fe0 84bd 6ddf 70bd a083 9c3e
00000330: 1eda 2c3f fb6f b1bd 8278 963e 8cb8 3fbd
00000340: 6dbf 40bd a08b 233f a391 183f c383 033f
00000350: 9cb9 10bd c66c 153f e211 74bd 95af c1bd
00000360: 0de9 253f 5cbf 79bc 6d24 70bd 4b70 083d
00000370: 8173 17bd 71fe 463f 4c0a 19bd 7ce9 843e
00000380: 76d9 9dbd 5b8a c1bd 15ec 0f3f fc52 f73e
00000390: e100 843d 477d bc3e 2bd7 933e facf 6dbd
000003a0: 3292 3fbd 7d1e ea3e 4d60 b83c 2c94 db3d
000003b0: 4160 78bd e076 71ba 26dc 02be 1c0e 053e
000003c0: 25e2 1cbb b7cb 3ebd 1d32 083d 9e31 bb3e
000003d0: 0f56 703e 837a c0bc 1b4a 2abe 960e ac3e
000003e0: 3506 043f e657 8e3d 7cae 60bd a1eb 57bd
000003f0: 1800 40bd d791 883e cb43 3cbd 0d18 67bd
0.050787725 0.11759726 0.09346061 0.031058757 -0.058649443 -0.025235 -0.049825095 -0.056114227
-0.05439509 -0.06486605 -0.058805212 0.3288227 0.66961753 -0.08677591 0.30637527 -0.046797216
-0.047046974 0.5728264 0.44100195 0.5089121 -0.035325732 0.5700692 -0.05958461 -0.10234376
0.643666 -0.015221659 -0.058615364 0.03329345 -0.03697032 0.7542854 -0.037357002 0.13738868
0.025948359 -0.094786115 0.55903995 0.4056052 0.06438406 0.36688262 0.31641886 -0.058064282
-0.046752203 0.41158178 0.07057532 0.13987806 -0.06063359 -0.0009081683 -0.20068537 0.13011315
-0.0023744954 -0.0465706 0.033201214 0.15393542 0.234019 -0.023470813 -0.070335165 0.29316205
0.51056886 0.06941322 -0.054849066 -0.052704524 -0.046866167 0.3944814 -0.04594566 -0.05640854
-0.06368614 0.19681582 0.10384447 -0.04052023 -0.046646744 -0.037241906 -0.050811645 -0.045392737
-0.058107175 -0.052689046 -0.05086125 -0.101323865 -0.14999846 -0.03762294 -0.14133707 -0.040746372
-0.040813275 -0.14261585 -0.09213492 -0.12929565 -0.029908901 -0.12341616 -0.04799476 -0.25019756
-0.110916175 -0.050792426 -0.051404938 -0.033130057 -0.038171638 -0.19070612 -0.03476076 -0.11474033
-0.07525882 -0.034280933 -0.1059759 -0.10679263 -0.058821876 -0.07957558 0.038719792 -0.04506633
-0.048840903 -0.2796413 -0.22829708 -0.185061 -0.048290983 -0.043542475 -0.031913284 -0.06515261
-0.046408955 -0.050685294 -0.058236536 -0.2003703 -0.07619587 -0.03308632 -0.014928614 -0.010573347
-0.11065616 -0.048391584 -0.046696983 -0.04780086 -0.039735373 -0.2047581 -0.045862522 -0.043794997
-0.080893196 -0.11306567 0.06962184 -0.0486085 -0.027735448 0.014918134 0.005918743 0.06679554
-0.13841897 0.007075428 0.050724056 0.09094992 0.039485723 -0.08451704 0.01593515 0.027752003
-0.023855746 0.0076087285 -0.038609315 0.04737947 0.0012744912 -0.04910507 -0.03033354 -0.10820587
0.03247902 0.013993362 0.051105976 0.064428054 0.044286817 0.15822302 0.022903908 -0.18929926
-0.0024962528 0.0014811794 0.027967615 -0.10369664 0.01766989 0.01998595 -0.0031670292 -0.014736619
-0.01780769 0.06870767 -0.034696333 -0.1262433 0.069113724 -0.009498456 0.026232688 -0.02784018
0.04150748 0.009648538 0.0453019 0.09981225 0.044597078 0.07176018 -0.043460224 -0.12247089
0.039056543 0.0020491784 0.02197152 -0.00021803867 0.016492378 0.043667383 -0.034314997 0.045336515
0.050825506 0.041068885 0.15207572 0.031068632 -0.05865814 -0.025267633 -0.049844153 -0.05612795
-0.052853826 -0.0648806 -0.058806825 0.30569172 0.6752032 -0.08663937 0.29388815 -0.046806857
-0.047057558 0.63884926 0.59597224 0.5137293 -0.03533326 0.583691 -0.059587367 -0.09457318
0.6480873 -0.015243378 -0.05862849 0.033310216 -0.036975387 0.77731997 -0.037363335 0.25959384
-0.07707493 -0.09450217 0.5621961 0.483055 0.0644548 0.3681433 0.28875098 -0.05805967
-0.046770282 0.45726386 0.022506857 0.10721621 -0.06063867 -0.0009211134 -0.12779292 0.12993664
-0.0023938504 -0.046580996 0.033250917 0.36561292 0.23470329 -0.023495918 -0.16629831 0.33604878
0.5157197 0.06950359 -0.0548539 -0.052714948 -0.04687509 0.26673767 -0.04596309 -0.05641942

rnn.weight_ih_l1 f4 [256, 64]
00000000: 2c07 f732 b401 23bb e98e 57b9 1202 e332
00000010: 90d4 1234 8896 f2b4 1c27 6f33 83a2 5934
00000020: 0cb2 11b6 278b 59b4 751a df34 6ae4 e3b5
00000030: 9306 f1b4 6d2c 1eb6 684b 16b7 1f9f eab1
00000040: adb8 00b4 31db 7637 b96a 82b6 9a29 33b7
00000050: 4f05 0f33 8c01 98b6 b508 c834 50b9 b5b5
00000060: d9dc 49b6 c256 3135 1416 2335 3d59 b335
00000070: 5783 f035 7441 1bb8 e47b 5834 bc7a db36
00000080: b863 8b34 28ab 34b6 a450 bc36 3c48 9136
00000090: 504a a0b5 9a88 0eb5 71f1 8a35 2d48 0635
000000a0: c2bd 08b5 5fe4 bd37 4abf 3637 6d1b c336
000000b0: c9b2 d234 4bfd 70b5 3c02 91b6 b12b 27b6
000000c0: 3c5c 9eb4 de8a aa34 909e f8b3 a2ca d0b6
000000d0: 656b beb5 076a b9b4 7c86 42b4 3396 7fb7
000000e0: 344d 98b6 9a2c d134 e91c 0eb5 db92 0ab5
000000f0: eff6 82b3 9e61 1d3b 6d92 bcb2 c57a 9934
00000100: d0ca d535 c5d3 88ba 5347 feb8 97ad 4035
00000110: 7a68 d534 6434 c6b4 e3c8 00b5 d108 09b5
00000120: 528a 7935 37fe d1b4 8051 1635 8a60 2436
00000130: f878 2236 1cb4 2db4 29fb 8336 001f 85b3
00000140: d03b e333 ee1f 38b6 54be a3b7 883d aeb6
00000150: ebc4 3e34 9018 9ab6 7a50 ae34 75a7 c435
00000160: 2a05 78b6 2236 9535 4e21 d034 af46 fab5
00000170: 4303 82b5 085e 0bb7 013c 1334 36c5 f6b5
00000180: 8be6 9236 410a 3235 ef33 2037 c864 e935
00000190: 28a8 91b5 bff3 1836 0947 c137 cdac 95b4
000001a0: 25c3 e8b4 a169 0c36 6709 3d37 752e e2b6
000001b0: c284 23b4 96c1 fdb4 7385 48b6 f937 3536
000001c0: 2ab1 2ab5 d832 0235 d0ea 6fb5 43c7 ff34
000001d0: a4b9 2fb6 48cd b4b4 a0e7 6135 74d3 f0b3
000001e0: 775d a135 85d0 8035 90b6 f4b4 99b0 b7b4
000001f0: 1d7a 7d34 62a9 ac3a 244d bc34 888c 87b4
00000200: f843 d936 d0dc 1abc 0f1e 44bb be86 cd36
00000210: 4393 0436 bd03 5cb6 a981 4fb6 a794 94b6
00000220: 7a65 0036 f4b8 a6b5 532c b935 fd37 6037
00000230: 9eb0 d137 5a74 7934 f7fc 9236 1305 80b5
00000240: fbf8 7935 09b4 cf37 6da0 6fb9 5d7b 5ab7
00000250: 1947 3f36 c662 80b7 53a5 8a35 4184 7d37
00000260: 0250 edb7 f474 8c36 afb4 7835 37ea 77b7
00000270: 1e4b 84b6 e806 eeb8 cc3e cd34 b430 96b6
00000280: 6c5d 1b37 f764 6636 f503 fb37 e981 4637
00000290: fb6d efb6 e826 bd37 5a9d 1e3a 7586 3db6
000002a0: 2c3f 8bb5 a105 2a38 877b 7238 b6e4 5eb7
000002b0: 5700 0cb6 a93a ebb5 3b52 a1b6 6b57 5737
000002c0: 896c 80b6 d49e b935 06e4 f2b5 a016 08b7
000002d0: a341 72b7 a925 32b6 2d57 69b6 1717 91b7
000002e0: afa4 0937 5f6f da36 8e7e acb5 e5bd 4db5
000002f0: 7791 8b35 7977 293c 70b3 0c36 43f6 b3b5
00000300: c68b 7736 36bd 2ebb 556f a9ba 2f61 8cb7
00000310: e74c 5131 28be 1237 b6b3 ce36 9f01 b436
00000320: 3df1 6fb8 4aca 3236 ce83 4936 afdb 2538
00000330: f056 6a38 f3c0 acb7 1ea0 02b9 e591 6b36
00000340: 66fa 83b6 f186 f739 c43f 4db9 4f20 cf37
00000350: 5ff4 79b6 6320 33b9 9555 cfb6 2ee3 82b8
00000360: 8711 ef36 34d2 ceb6 5066 01b6 c1b3 4d37
00000370: b5e0 af36 d69d 01ba ba7f 13b7 8404 d9b8
00000380: fd78 fc37 04c8 2fb8 fe9c 04b8 9886 d1b7
00000390: 4b88 2c37 abd5 a3b7 2eff 9839 3651 d336
000003a0: b7c2 a736 8e69 c139 f7dd 6839 238d 09b7
000003b0: d5e6 9736 71a1 f536 c9bd 46b8 659f 15b6
000003c0: 9083 6d37 9aca 9cb6 bb14 4737 e63c b5b8
000003d0: ff19 9337 ed48 d036 8f4e ceb8 561c 50b9
000003e0: 13b5 99b8 f0ab 87b7 1da4 2a36 d90f 6436
000003f0: 28d3 dab5 e47a 393b d2ba 21b7 109a 6b36
2.8757846e-08 -0.0024872841 -0.00020557236 2.642722e-08 1.367464e-07 -4.5185539e-07 5.5682094e-08 2.0268821e-07
-2.171032e-06 -2.0260323e-07 4.1556237e-07 -1.6979295e-06 -4.4894531e-07 -2.3569694e-06 -8.958254e-06 -6.8283863e-09
-1.1988114e-07 1.4713777e-05 -3.886726e-06 -1.06789175e-05 3.329961e-08 -4.530133e-06 3.7259238e-07 -1.3539484e-06
-3.0079884e-06 6.606389e-07 6.075436e-07 1.3362511e-06 1.7919618e-06 -3.7015838e-05 2.0161639e-07 6.5409968e-06
2.5963323e-07 -2.6921716e-06 5.6122244e-06 4.329746e-06 -1.1942557e-06 -5.3097904e-07 1.035207e-06 5.002392e-07
-5.094008e-07 2.26369e-05 1.0892583e-05 5.8146456e-06 3.9245631e-07 -8.9775557e-07 -4.321597e-06 -2.491037e-06
-2.9496903e-07 3.1766007e-07 -1.1577242e-07 -6.2224726e-06 -1.4187359e-06 -3.453608e-07 -1.8116583e-07 -1.5234155e-05
-4.5389406e-06 3.8961736e-07 -5.294119e-07 -5.162271e-07 -6.098514e-08 0.0024014483 -2.1952667e-08 2.8587797e-07
1.5928763e-06 -0.0010439089 -0.00012124949 7.177818e-07 3.9750358e-07 -3.6918493e-07 -4.7976044e-07 -5.1049307e-07
9.296101e-07 -3.911425e-07 5.599795e-07 2.4494097e-06 2.4210294e-06 -1.6177404e-07 3.933343e-06 -6.198934e-08
1.0581391e-07 -2.7436722e-06 -1.9519743e-05 -5.1927673e-06 1.7766767e-07 -4.592417e-06 3.246858e-07 1.4651874e-06
-3.6957886e-06 1.111712e-06 3.8767251e-07 -1.8647023e-06 -9.686704e-07 -8.306939e-06 1.3712271e-07 -1.8385824e-06
4.377978e-06 6.632509e-07 9.548835e-06 1.7389184e-06 -1.0852282e-06 2.2791644e-06 2.3040471e-05 -2.7879142e-07
-4.3355354e-07 2.092311e-06 1.1267467e-05 -6.740733e-06 -1.5228855e-07 -4.7265775e-07 -2.988e-06 2.7003682e-06
-6.358774e-07 4.850276e-07 -8.9376135e-07 4.7642433e-07 -2.618509e-06 -3.3676974e-07 8.415609e-07 -1.1214334e-07
1.2022637e-06 9.59743e-07 -4.5581373e-07 -3.4214898e-07 2.3606886e-07 0.0013173039 3.5073856e-07 -2.524796e-07
6.4750166e-06 -0.00945206 -0.0029925143 6.125162e-06 1.975525e-06 -3.278473e-06 -3.0920876e-06 -4.428049e-06
1.9132553e-06 -1.2421792e-06 1.3796474e-06 1.3364476e-05 2.4996985e-05 2.323226e-07 4.380588e-06 -9.53822e-07
9.312204e-07 2.4760158e-05 -0.0002285258 -1.3022535e-05 2.8502602e-06 -1.5304784e-05 1.0329917e-06 1.5110768e-05
-2.8289858e-05 4.1859403e-06 9.265013e-07 -1.477688e-05 -3.9426513e-06 -0.00011350011 3.8229916e-07 -4.476018e-06
9.260471e-06 3.433144e-06 2.9923374e-05 1.1831967e-05 -7.1355585e-06 2.2548673e-05 0.0006050669 -2.824146e-06
-1.0374692e-06 4.05364e-05 5.781234e-05 -1.3285482e-05 -2.0861823e-06 -1.7525937e-06 -4.807747e-06 1.2835352e-05
-3.8273324e-06 1.3829799e-06 -1.8096769e-06 -8.1114995e-06 -1.4439606e-05 -2.6545988e-06 -3.4770449e-06 -1.7296099e-05
8.20418e-06 6.5098716e-06 -1.2851831e-06 -7.6644784e-07 1.0398643e-06 0.010343426 2.0966072e-06 -1.3408211e-06
3.6887227e-06 -0.0026663071 -0.0012926856 -1.6734555e-05 3.0457217e-09 8.746552e-06 6.1601995e-06 5.3646067e-06
-5.720671e-05 2.6641815e-06 3.0028054e-06 3.9543662e-05 5.5870914e-05 -2.0593847e-05 -0.00012457414 3.510265e-06
-3.9332544e-06 0.0004721205 -0.00019574078 2.4691368e-05 -3.7246134e-06 -0.00017082835 -6.179044e-06 -6.2411986e-05
7.1247955e-06 -6.1637493e-06 -1.9282052e-06 1.2260804e-05 5.2415658e-06 -0.0004944479 -8.791621e-06 -0.000103482074
3.009708e-05 -4.190953e-05 -3.1617463e-05 -2.4977417e-05 1.0283732e-05 -1.9530611e-05 0.00029181823 6.297744e-06
4.9996556e-06 0.00036890473 0.00022207932 -8.198697e-06 4.527023e-06 7.3203632e-06 -4.738363e-05 -2.229551e-06
1.4156933e-05 -4.672748e-06 1.1866151e-05 -8.642096e-05 1.7535871e-05 6.2073727e-06 -9.837478e-05 -0.00019846982
-7.329336e-05 -1.6173319e-05 2.54275e-06 3.3983872e-06 -1.630372e-06 0.0028302008 -9.639845e-06 3.5107405e-06

rnn.weight_hh_l1 f4 [256, 64]
00000000: 61a1 e3b3 fbc5 e032 a61f c433 0046 0935
00000010: 03d7 6e34 9af4 c834 9d77 4734 89b2 8fb4
00000020: 9eb8 da34 28d6 2e34 e854 6934 b8d4 1135
00000030: 6b46 fab6 f12a a4b5 ab0f 4cb5 19d6 19b5
00000040: c8b7 27b5 320a 2bb4 e4c1 41b4 fb3a c734
00000050: c05e 20b3 c47d 2f36 009a 6b34 d582 c5b4
00000060: b8bb e43b 2c42 0e35 00db 8cb4 2dba 2b38
00000070: df92 1ab3 03b6 82b4 39ba 2f33 1a4a 0834
00000080: 2465 a134 6457 0d34 d053 0db5 353a f4b2
00000090: d5d9 e334 03c4 aab4 faad 7034 5789 3bb4
000000a0: 507f 76b4 424b 1735 5568 2cb4 8ce3 0733
000000b0: 796a 0d35 e4b5 23b7 999d 4033 d2d4 1fb5
000000c0: a864 ebb4 386e 6033 fb72 f336 e7bb 18b7
000000d0: f95c aaba f1cb ddb4 31f1 61b0 b1a8 3338
000000e0: f346 d234 3da3 3eb5 8f4c 42b4 79a9 de33
000000f0: 35b5 c933 bcda ecb4 2501 7bb4 f3ea 50b4
00000100: ae95 fd33 e019 b2b3 a2f3 cc34 a675 9bb4
00000110: 0374 18b5 b8c9 9f31 b51d d9b3 84e1 a133
00000120: 4915 a6b3 3905 1e33 204b cc34 cdb6 78b4
00000130: f0af 0337 0f1f 0b32 dd30 0e35 f4d2 c334
00000140: f8fc 7ab4 4247 0134 fa6f 1333 1f9f 2bb5
00000150: 084e 01b3 06d8 2035 fb1b 23b5 e459 d733
00000160: 09f0 963b 0d44 aeb3 711a 0734 a30d 5e38
00000170: e280 18b4 3ba4 4c34 7da7 b232 624b 8cb3
00000180: 0dbf 78b4 055a ab33 0e06 c433 4351 ceb4
00000190: cbff 47b1 a701 3d34 f4a4 cfb3 7090 6bb4
000001a0: 4d4e 2fb4 5948 85b4 142f 59b4 d814 e231
000001b0: 5cb0 ccb4 f7d5 aa37 17fb 03b4 722e 0c35
000001c0: 5811 b933 d3cd a0b3 6d16 e735 1c78 5db6
000001d0: f7a7 32ba 17fb 0234 c280 aeb3 2582 1937
000001e0: 1f07 cdb4 b2fd e0b7 9bc9 60b4 bced 47b4
000001f0: 1ceb 3834 3be3 a234 55d6 9e33 33fe 27b4
00000200: a619 8535 6f25 71b3 dd66 7535 2213 d834
00000210: 8c46 0d34 87da 5c34 4d2a 5335 2ec2 9334
00000220: 2614 b8b3 c1ca 5fb4 a89f 0b35 c37d 5c34
00000230: 3aa7 9f39 91be 2836 86e8 7933 52f9 7533
00000240: 0aa7 bf35 9886 98b4 4b56 a434 8763 90b4
00000250: f2d9 0e34 d444 10b7 beba 1034 ae42 06b5
00000260: 72bf 8b3c 630a af34 a019 1bb3 5f82 c23a
00000270: 8122 cf35 739b 1934 4122 50b4 25ff f634
00000280: cae1 fbb3 2c68 2435 7c40 cfb2 7a38 f0b4
00000290: b840 04b4 1869 3334 e6e3 f7b4 10f4 19b5
000002a0: 55f1 0db5 2dfc eeb4 98d2 08b5 7e38 5735
000002b0: 572f 20b4 5b7a 393a 6d35 25b4 a6d8 0335
000002c0: 4776 8ab3 3fa4 e034 58a9 85b1 4756 4c37
000002d0: 3759 09bc 5791 ee34 ace1 69b5 9c30 a0b9
000002e0: d740 6e34 f454 fcb9 99ad b6b4 ad3f 1d34
000002f0: e88e 5f34 5cff aeb4 ffac fcb4 a569 7eb4
00000300: 7aed 2ab4 f4d2 8bb2 55d9 cd36 06bb 1c37
00000310: cf73 e3b5 d0b7 cf35 d0f9 df34 20bd 20b6
00000320: cb73 9735 9657 ae35 6a93 2336 a52c fe36
00000330: d457 c238 cc77 b134 981c a036 e2a1 1136
00000340: 5b9a 8935 1f40 1fb5 0652 03b6 27d7 2ab7
00000350: f08f 95b5 99d7 1cb8 5235 9eb6 3d4a 7a35
00000360: 2ed8 903b c047 a736 4b5d acb5 8f44 6c3a
00000370: a128 0336 d99d a2b5 dc92 1835 e613 8135
00000380: 8d41 32b5 1e60 3b36 80ea 6136 018b 63b6
00000390: 314b 9936 8815 11b6 6cf3 fc35 7e84 22b6
000003a0: 403a aeb5 241d e635 5ed3 24b6 e690 f135
000003b0: 6845 0437 a6ef fc38 a9f0 d4b5 762b 0337
000003c0: 0e3f 52b6 c47a 9d35 5791 eb37 d7b2 4638
000003d0: 94e4 ddba 29ed 38b6 d08f 28b5 2842 efb7
000003e0: e98f 5cb6 afee b1b9 3f44 aab4 f713 c1b5
000003f0: 6f59 4036 65cb b6b5 1029 b4b5 abd2 ee33
-1.0599866e-07 2.6167063e-08 9.132718e-08 5.113834e-07 2.2243698e-07 3.7430874e-07 1.8576834e-07 -2.6765727e-07
4.073999e-07 1.6282922e-07 2.1730705e-07 5.4326256e-07 -7.4587783e-06 -1.223145e-06 -7.601872e-07 -5.7308495e-07
-6.2479785e-07 -1.5929325e-07 -1.8045063e-07 3.7109552e-07 -3.7339078e-08 2.6150237e-06 2.1942105e-07 -3.6789302e-07
0.0069803856 5.2995415e-07 -2.6236376e-07 4.0942967e-05 -3.5989498e-08 -2.4346818e-07 4.091473e-08 1.2692945e-07
3.0062176e-07 1.3163441e-07 -5.2648556e-07 -2.8431808e-08 4.2440539e-07 -3.1807585e-07 2.2415034e-07 -1.7465696e-07
-2.2956851e-07 5.63614e-07 -1.6056704e-07 3.163909e-08 5.268153e-07 -9.757907e-06 4.4846818e-08 -5.954181e-07
-4.3845398e-07 5.2254308e-08 7.25535e-06 -9.103655e-06 -0.0012997679 -4.1312845e-07 -8.2197277e-10 4.283403e-05
3.916717e-07 -7.101806e-07 -1.809551e-07 1.03685075e-07 9.392753e-08 -4.4117576e-07 -2.3376613e-07 -1.9456984e-07
1.1808457e-07 -8.2934775e-08 3.8175227e-07 -2.89566e-07 -5.679323e-07 4.650442e-09 -1.01102536e-07 7.538168e-08
-7.733849e-08 3.679199e-08 3.8052622e-07 -2.3163302e-07 7.849172e-06 8.097927e-09 5.297023e-07 3.647507e-07
-2.3375094e-07 1.2039985e-07 3.4327947e-08 -6.3934016e-07 -3.0106122e-08 5.9919e-07 -6.076295e-07 1.0028069e-07
0.004606251 -8.114885e-08 1.2582474e-07 5.2941625e-05 -1.420299e-07 1.9058727e-07 2.0798092e-08 -6.53297e-08
-2.3166304e-07 7.9791825e-08 9.1280626e-08 -3.8429616e-07 -2.9103713e-09 1.7602598e-07 -9.6691934e-08 -2.1938627e-07
-1.6326631e-07 -2.482582e-07 -2.0226827e-07 6.5798353e-09 -3.812628e-07 2.0365214e-05 -1.2291672e-07 5.222165e-07
8.6178886e-08 -7.48802e-08 1.7217368e-06 -3.300148e-06 -0.000681519 1.219854e-07 -8.125927e-08 9.149812e-06
-3.8189407e-07 -2.6821017e-05 -2.093497e-07 -1.8619806e-07 1.7221868e-07 3.0340183e-07 7.396435e-08 -1.5645564e-07
9.916737e-07 -5.614623e-08 9.14193e-07 4.0247056e-07 1.3157313e-07 2.0568596e-07 7.866518e-07 2.7522168e-07
-8.571833e-08 -2.0842255e-07 5.2013866e-07 2.0534848e-07 0.00030451437 2.5144875e-06 5.818631e-08 5.7270263e-08
1.4279224e-06 -2.8410136e-07 3.0610167e-07 -2.6894506e-07 1.3304069e-07 -8.599094e-06 1.3478981e-07 -5.001592e-07
0.017059062 3.2603847e-07 -3.6112056e-08 0.0014839879 1.5432744e-06 1.4305787e-07 -1.9383971e-07 4.6006713e-07
-1.1729169e-07 6.124635e-07 -2.4127296e-08 -4.4744576e-07 -1.2317003e-07 1.6708907e-07 -4.6173153e-07 -5.73521e-07
-5.287778e-07 -4.4514437e-07 -5.09704e-07 8.017595e-07 -1.4918383e-07 0.00070754223 -1.5386259e-07 4.911657e-07
-6.44764e-08 4.1842756e-07 -3.8900616e-09 1.21794355e-05 -0.008383087 4.4436703e-07 -8.712766e-07 -0.00030553795
2.2189066e-07 -0.0004812848 -3.402645e-07 1.464493e-07 2.0820482e-07 -3.2595824e-07 -4.706453e-07 -2.3694027e-07
-1.5918877e-07 -1.627766e-08 6.134777e-06 9.341869e-06 -1.6946523e-06 1.5476198e-06 4.171875e-07 -2.3951943e-06
1.1284077e-06 1.2989501e-06 2.43747e-06 7.574987e-06 9.267e-05 3.3055983e-07 4.7717003e-06 2.1700912e-06
1.0252219e-06 -5.9325424e-07 -1.9568265e-06 -1.0182884e-05 -1.1143256e-06 -3.739409e-05 -4.7149742e-06 9.324029e-07
0.004420302 4.9853406e-06 -1.284215e-06 0.00090129016 1.954417e-06 -1.211588e-06 5.683812e-07 9.61704e-07
-6.6405556e-07 2.792112e-06 3.366411e-06 -3.3906547e-06 4.5685088e-06 -2.1619217e-06 1.8846308e-06 -2.4217002e-06
-1.2980963e-06 1.7144816e-06 -2.4560936e-06 1.799807e-06 7.883973e-06 0.000120609344 -1.5865272e-06 7.8183275e-06
-3.1329141e-06 1.1733141e-06 2.8081862e-05 4.7373436e-05 -0.0016929084 -2.7556182e-06 -6.279415e-07 -2.8521827e-05
-3.2866321e-06 -0.00033937904 -3.1714623e-07 -1.4385431e-06 2.8662287e-06 -1.3619252e-06 -1.3422996e-06 1.1121059e-07

rnn.bias_ih_l1 f4 [256]
00000000: 3baf ffbc e700 fcbc 9124 2bbd 5864 e1bc
00000010: 6faf 25bd ff3a 59bd be55 28bd a287 ecbc
00000020: 58cb 18bd 9f58 14bd f89a 45bd bfd2 a7bc
00000030: 0465 153e ce5d 40bd e1a1 16bd 7782 1cbd
00000040: f35d 32bd e29f 2ebd 4398 e2bc fc7c 23bd
00000050: 0e5f eebc 15f5 dabd 0ca8 18bd cc95 15bd
00000060: d7a3 413f 31f7 4dbd 9f7c 14bd 8fe2 9fbd
00000070: 337a ebbc ea06 23bd 24a2 d1bc 9a44 30bd
00000080: b156 10bd b06b 30bd 7b7b 1cbd 7b43 8fbc
00000090: e919 bcbc 256f 23bd 9562 f9bc 9943 1fbd
000000a0: b900 65bd 1aba 1bbd ed74 fdbc 3452 14bd
000000b0: d32f 20bd 55a3 593e 598f d1bc 1b71 2bbd
000000c0: 0aeb f4bc 86f8 14bd 8bde 1ebc 1495 e73d
000000d0: 8d9c 3e3e d853 e6bc 0fae f8bc 4cc5 413f
000000e0: ea09 13bd 0ddb a93e fa13 0fbd 427c 21bd
000000f0: 89b8 c7bc a01b 1abd e2f1 05bd 3566 1abd
00000100: 82cd e1bc 7aa0 d6bc 3868 16bd ba5f a6bc
00000110: c3d3 f3bc c75f 30bd c0a7 0ebd 6e80 c2bc
00000120: e306 03bd d6f2 e7bc efef 25bd 0588 87bc
00000130: 1663 a8bd b084 00bd 3d25 01bd 4a89 fbbc
00000140: 81a2 b7bc 13e5 14bd afc3 b0bc 2040 05bd
00000150: 439c c3bc ead8 93bd d64d f9bc 5139 fabc
00000160: 7aa6 3fbe 2ad7 2cbd fccf 06bd 562f 48be
00000170: 1d03 adbc 5cac 10bd 346b a2bc 5d15 0fbd
00000180: 2e54 e8bc 164e 10bd 01b5 02bd 5820 53bc
00000190: f62d 96bc 9352 0dbd c0c6 cfbc 839f 02bd
000001a0: c9f9 35bd 45fc 09bd 33af dabc 9bb5 00bd
000001b0: 33be e2bc 0e11 65be 544f a1bc c1ef 0dbd
000001c0: 3076 c2bc 5f1f 08bd c824 02be ea36 a3bd
000001d0: 35e0 f63c fb34 bdbc 0797 ddbc 795a b4be
000001e0: ca15 04bd 2ba6 e9bd 704a f9bc 6823 0ebd
000001f0: b5e3 9bbc 004c e3bc 8890 f1bc 9fa3 03bd
00000200: 49e4 20bc 1a6f 163d c17d 96bc d0be 253d
00000210: 4019 e4bb f2b5 0a3d 41b3 0e3d 1ab7 28bd
00000220: 9055 b13a d821 af3b 5a08 bbbc 1fe1 763d
00000230: 8f1c 713c 1196 173d 21f7 233d 260b 54bc
00000240: 1348 263b 4d04 76bd c088 9f3d 0868 5ebc
00000250: 6953 03bd 55dd bbbc 02fe 83bb fce0 02bd
00000260: 3eb8 2dbe 8a13 89bd d078 923c e1fc e2bd
00000270: a953 273d 421a 33bc 6c9b 4abd 0780 6ebd
00000280: e2f8 ec3c 966e db3c 4107 8d3d 9025 e7bc
00000290: 5959 ab39 c275 67bd 4d6f 49bc 633e 6e3d
000002a0: 59de 1b3a 17ea 143c d242 59bc 438c ad3c
000002b0: df51 c7bd d420 a23d c98a 7fbd fece 3dbd
000002c0: cdc3 963d fe38 b4ba 72ca 203d eed3 9bbb
000002d0: b65a 25be e0d4 563a 2342 97bc 97b9 423d
000002e0: 16cf 80bd b0f1 fdbc 378b 353d c52d 483d
000002f0: f829 0abc 145d 11bd f867 223d 6bda a93c
00000300: bbb9 ffbc 1a0f fcbc 062e 2bbd 566d e1bc
00000310: ccb3 25bd 7047 59bd c55e 28bd 049c ecbc
00000320: 80cf 18bd 4c64 14bd 87a0 45bd 3fd7 a7bc
00000330: 1002 c13e f14e 40bd c1a4 16bd cf8b 1cbd
00000340: a256 32bd c0a8 2ebd 7dab e2bc e383 23bd
00000350: 1970 eebc d2be dabd 28ad 18bd 849f 15bd
00000360: 9639 3b3f c702 4ebd 0f7d 14bd 4c34 debd
00000370: eb82 ebbc e705 23bd 60b0 d1bc 934d 30bd
00000380: 3461 10bd ca77 30bd fc84 1cbd 434b 8fbc
00000390: 282c bcbc f072 23bd 0e72 f9bc 834b 1fbd
000003a0: 350f 65bd c2ba 1bbd fd7c fdbc 155a 14bd
000003b0: e739 20bd 2def b23e 1e99 d1bc 837a 2bbd
000003c0: 9802 f5bc 9afc 14bd b666 25bd a572 c83d
000003d0: 1653 a63e 365f e6bc bab7 f8bc 3bd5 213e
000003e0: 9a0e 13bd 229d d63e 021d 0fbd ed81 21bd
000003f0: 71c3 c7bc 7427 1abd 4ff7 05bd 096c 1abd
-0.031211486 -0.030762149 -0.04178292 -0.027513668 -0.04045051 -0.05303478 -0.041097395 -0.028873269
-0.0373033 -0.03621733 -0.048243493 -0.020486234 0.14589316 -0.04696446 -0.036775474 -0.03821036
-0.04354663 -0.042632945 -0.027660495 -0.039914116 -0.02909806 -0.10691277 -0.037269637 -0.03651981
0.75640625 -0.05028457 -0.03625166 -0.078068845 -0.028744793 -0.039801516 -0.02559001 -0.043034174
-0.035238925 -0.04307145 -0.038203698 -0.017488232 -0.022961574 -0.039900918 -0.030442515 -0.038882826
-0.055908892 -0.038019277 -0.030939544 -0.036211208 -0.03910811 0.21253712 -0.025581049 -0.041855913
-0.029897232 -0.036369823 -0.009696613 0.11307731 0.18614407 -0.028116152 -0.030356435 0.75691676
-0.035898127 0.33174935 -0.03493116 -0.039425142 -0.024379985 -0.037624 -0.03270138 -0.03769513
-0.027563814 -0.026199568 -0.036720484 -0.020309318 -0.029764062 -0.04306009 -0.034827948 -0.02374288
-0.03198899 -0.028314035 -0.04051202 -0.016544351 -0.08222024 -0.03137654 -0.031529654 -0.030705113
-0.022416355 -0.036351275 -0.021577684 -0.032531857 -0.023878222 -0.072191074 -0.030432623 -0.030544909
-0.1871585 -0.042197384 -0.032913193 -0.19549307 -0.021119649 -0.035320625 -0.019826509 -0.034932483
-0.028360453 -0.03523072 -0.0319109 -0.012886129 -0.018332463 -0.034502577 -0.025363326 -0.031890403
-0.044427667 -0.03368785 -0.02669487 -0.031423192 -0.027678585 -0.22369787 -0.019691147 -0.034652475
-0.023737997 -0.033233043 -0.12709343 -0.079694584 0.030136207 -0.023096552 -0.027049555 -0.35225275
-0.032247342 -0.11408647 -0.030431002 -0.034701735 -0.019029478 -0.0277462 -0.029487863 -0.032138463
-0.009820052 0.03672705 -0.018370511 0.040465176 -0.006961018 0.033864923 0.03483892 -0.041190244
0.0013529528 0.0053446107 -0.02283113 0.060273286 0.014716282 0.03700835 0.040030602 -0.012942111
0.002537255 -0.060062695 0.07789755 -0.013574608 -0.032061968 -0.022932688 -0.004028083 -0.031952843
-0.16964814 -0.0669318 0.017879874 -0.11083389 0.04085127 -0.010931553 -0.049464628 -0.058227565
0.02892727 0.02678613 0.06886149 -0.028216153 0.0003268223 -0.056508787 -0.012294603 0.058164965
0.0005945913 0.0090890145 -0.01326056 0.021185046 -0.097324125 0.07916418 -0.062388215 -0.04633998
0.07361565 -0.0013749895 0.039255567 -0.0047554886 -0.16147885 0.0008195173 -0.018464154 0.047540274
-0.062894985 -0.030999035 0.04432222 0.048871774 -0.008432858 -0.035489157 0.039649934 0.020734033
-0.031216493 -0.03076892 -0.04179194 -0.027517956 -0.04045467 -0.053046644 -0.041106004 -0.028882988
-0.037307262 -0.036228463 -0.048248794 -0.02048838 0.37696886 -0.046950284 -0.036778215 -0.03821927
-0.04353965 -0.0426414 -0.027669663 -0.0399207 -0.029106187 -0.10680927 -0.03727451 -0.03652908
0.73134744 -0.050295617 -0.036252078 -0.108498186 -0.02874895 -0.03980055 -0.025596797 -0.04304273
-0.03524895 -0.04308299 -0.03821276 -0.017491942 -0.022970274 -0.039904535 -0.030449893 -0.038890373
-0.055922706 -0.038019903 -0.030943388 -0.03621872 -0.03911772 0.34948102 -0.025585707 -0.041864883
-0.029908463 -0.036373712 -0.040381156 0.09787492 0.32485265 -0.028121572 -0.030361045 0.15803997
-0.035902597 0.41916758 -0.034939773 -0.039430548 -0.024385186 -0.03763528 -0.032706555 -0.037700687
