checkpoints/Tend_LSTM_L2_bs16_traindeg0_bsfirst_pos1_nofreq/Tend_LSTM_L2_bs16_epoch95_best3.6770996687904236.pt (torch, 205296 bytes, 9 tensors)

rnn.weight_ih_l0 f4 [256, 2]
0.19985381 -2.72681e-40 0.12964436 -2.50638e-40 -0.08817057 1.08327e-40 0.034364965 1.314922e-39
0.0402106 2.21164e-40 0.4289369 -1.795914e-39 0.3722493 -1.792128e-39 -0.062438913 -1.086574e-39
0.15618649 -1.75094e-39 0.08327156 -1.196382e-39 0.08121593 -2.36482e-40 -0.071968056 -1.28731e-39
0.15942013 -9.52294e-40 -0.041945953 -4.21201e-40 -0.17441332 -1.103374e-39 0.17560615 -9.0398e-40
-0.051252156 -1.02101e-40 0.4678696 1.45648e-39 -0.11139407 -1.053709e-39 -0.2258232 -1.555406e-39
0.08971981 -1.101457e-39 0.2792054 -5.14206e-40 -0.042336676 -4.89415e-40 -0.2217262 -1.3586e-41
-0.1480085 -1.944642e-39 0.009505193 1.002671e-39 -0.11395598 1.899198e-39 0.34493944 -3.3229e-41
0.16187371 3.48567e-40 0.2962297 1.722672e-39 0.12170889 1.535464e-39 0.21990144 -8.3885e-40
0.7263207 2.6038e-40 0.010948155 1.690577e-39 0.10138045 -4.23517e-40 0.08769385 -4.55222e-40
0.25400895 1.490975e-39 0.6146606 6.09936e-40 0.37112516 3.1262e-40 -0.085847735 6.2783e-40
0.087632716 -4.1729e-40 -0.06366816 -8.26594e-40 0.30475822 -1.485074e-39 0.28991368 -1.18565e-40
-0.082254365 -9.83696e-40 0.05680112 1.360012e-39 0.1210148 -1.24773e-39 0.15760204 -1.54251e-39
0.18254368 -1.733958e-39 0.09437009 1.043554e-39 0.2942786 4.06594e-40 0.1049316 1.727825e-39
0.08115712 -1.31157e-39 0.19005547 1.26062e-39 0.25221056 1.133806e-39 0.16531546 -9.24127e-40
0.24565344 -9.63314e-40 0.18797821 5.64744e-40 -0.17055404 -9.69495e-40 -0.15017886 5.69493e-40
0.043756586 1.870598e-39 0.05166477 2.80582e-40 0.528749 -6.21448e-40 0.0057526054 1.561516e-39
0.23249783 -1.28774e-39 -0.07872338 -1.367177e-39 0.21912786 -6.85504e-40 0.09413174 7.78204e-40
0.1417479 -8.46139e-40 -0.0399684 -1.53039e-40 -0.030484386 -1.45956e-39 -0.23150048 1.93687e-40
-0.11702451 -9.33947e-40 -0.15749654 -1.36363e-39 0.17001979 -1.218482e-39 -0.15127392 1.305172e-39
0.06644304 6.28453e-40 -0.3339889 -3.36883e-40 -0.34889668 -6.41512e-40 0.15829617 -1.302308e-39
-0.1973263 -4.48125e-40 0.13037184 -1.029488e-39 -0.20593682 -1.008254e-39 -0.3145288 1.443714e-39
-0.15361576 -1.407545e-39 0.087401666 -9.06513e-40 -0.12077948 1.307454e-39 -0.10078932 1.006117e-39
-0.046130534 1.116353e-39 -0.17407385 -9.3083e-41 -0.1850793 5.29254e-40 -0.17416292 -1.907595e-39
-0.238479 1.309107e-39 -0.13167566 -1.037282e-39 -0.12438823 -9.2784e-41 0.08123618 -1.407226e-39
-0.022071073 -1.381994e-39 0.100197576 -1.051798e-39 0.096385464 -2.38846e-40 -0.01608786 5.53705e-40
-0.109792 -8.32715e-40 0.022889392 1.74935e-39 0.19037993 1.962517e-39 -0.09431974 1.471904e-39
0.2430331 -6.28613e-40 -0.14725442 -1.118707e-39 -0.22546066 1.657544e-39 0.10837861 4.86192e-40
-0.08814545 -7.3649e-40 0.02156453 -1.140165e-39 -0.0814843 1.104104e-39 -0.02140344 1.32876e-39
-2.666618e-05 1.449017e-39 0.16512808 1.460105e-39 0.27114698 -8.529e-41 0.022642683 -6.01025e-40
0.22079106 8.16367e-40 0.08243851 4.9358e-40 -0.09824264 5.28187e-40 0.2724166 -1.84282e-40
-0.1432054 1.279087e-39 0.08777738 1.79457e-40 -0.28841043 -6.37474e-40 -0.2905432 1.513918e-39
-0.03198161 -1.37525e-40 -0.058347713 1.310756e-39 0.010258984 -1.307718e-39 0.08374508 -8.3509e-40
00000000: 7aa6 4c3e 20f8 0280 7ec1 043e adba 0280
00000010: c692 b4bd f92d 0100 47c2 0c3d 7851 0e00
00000020: dfb3 243d 8468 0200 9e9d db3e 478e 1380
00000030: 7697 be3e b983 1380 f2bf 7fbd edd4 0b80
00000040: 5aef 1f3e e910 1380 488a aa3d 0707 0d80
00000050: 8a54 a63d 3793 0280 fd63 93bd 7f04 0e80
00000060: 083f 233e 9c5e 0a80 85cf 2bbd 2396 0480
00000070: 6899 32be c203 0c80 19d2 333e eed7 0980
00000080: c8ed 51bd 9e1c 0180 9b8c ef3e 13dc 0f00
00000090: 9322 e4bd 5079 0b80 323e 67be d7ef 1080
000000a0: 05bf b73d 6afe 0b80 03f4 8e3e 6699 0580
000000b0: 3969 2dbd 4a54 0580 310c 63be df25 0080
000000c0: 8a8f 17be df2c 1580 abbb 1b3c 0aeb 0a00
000000d0: c161 e9bd 31ae 1400 e79b b03e a15c 0080
000000e0: 39c2 253e aacb 0300 6bab 973e 1cc2 1200
000000f0: 8342 f93d 40b8 1000 d82d 613e 5f22 0980
00000100: 27f0 393f d5d5 0200 e45f 333c a468 1200
00000110: 8ea0 cf3d 989c 0480 d598 b33d f9f4 0480
00000120: 760d 823e 3b3c 1000 665a 1d3f 41a4 0600
00000130: 1e04 be3e 7567 0300 f0d0 afbd 22d6 0600
00000140: c878 b33d 3c8b 0480 7464 82bd 3500 0980
00000150: 4509 9c3e c82b 1080 916f 943e 834a 0180
00000160: fa74 a8bd 25b6 0a80 4ba8 683d 29cf 0e00
00000170: 9cd6 f73d 2a96 0d80 6e62 213e e4cb 1080
00000180: bbec 3a3e 92e1 1280 1b45 c13d 015d 0b00
00000190: afab 963e 6b6d 0400 61e6 d63d 79d0 1200
000001a0: b435 a63d 2048 0e80 e79d 423e 18ba 0d00
000001b0: be21 813e 9758 0c00 7548 293e 1710 0a80
000001c0: 938c 7b3e 547d 0a80 5c7d 403e 4726 0600
000001d0: b8a5 2ebe 8f8e 0a80 7dc8 19be 8433 0600
000001e0: 1b3a 333d 775e 1400 709e 533d 260e 0300
000001f0: 185c 073f 58c4 0680 5a80 bc3b df00 1100
00000200: e913 6e3e b205 0e80 b939 a1bd 22e3 0e80
00000210: 0e63 603e e876 0780 24c8 c03d 5179 0800
00000220: 5d26 113e b136 0980 e8b5 23bd 9caa 0180
00000230: 64ba f9bc a9e4 0f80 760e 6dbe ec1b 0200
00000240: 8caa efbd 772b 0a80 c646 21be 3fd9 0e80
00000250: ab19 2e3e a244 0d80 8de7 1abe 4a36 0e00
00000260: 4a13 883d dfd7 0600 9800 abbe 18ab 0380
00000270: 96a2 b2be 46fc 0680 6418 223e 4e2e 0e80
00000280: e80f 4abe 31e1 0480 3280 053e cb35 0b80
00000290: 1ae1 52be 9afa 0a80 eb09 a1be 7db8 0f00
000002a0: 734d 1dbe aa53 0f80 a5ff b23d fdde 0980
000002b0: 3b5b f7bd a63c 0e00 a26a cebd a5f4 0a00
000002c0: 5ff3 3cbd f027 0c00 6a40 32be 7a03 0180
000002d0: 6e85 3dbe 58c3 0500 c457 32be 99c5 1480
000002e0: d733 74be 4241 0e00 fcd5 06be 854b 0b80
000002f0: 42bf febd a502 0180 285f a63d c652 0f80
00000300: 65ce b4bc 700c 0f80 6334 cd3d fc73 0b80
00000310: be65 c53d ce99 0280 b0ca 83bc 8107 0600
00000320: a1da e0bd 4511 0980 8982 bb3c 7a0c 1300
00000330: f5f2 423e b35e 1500 b52a c1bd 1207 1000
00000340: abdd 783e 51d8 0680 ddc9 16be 802e 0c80
00000350: 29df 66be 8f0c 1200 9bf5 dd3d 4e4b 0500
00000360: 9a85 b4bd 0905 0880 19a8 b03c 516a 0c80
00000370: 3ee1 a6bd cb05 0c00 4456 afbc 0b78 0e00
00000380: 2fb1 dfb7 45c7 0f00 5617 293e 2ee6 0f00
00000390: c7d3 8a3e c1ed 0080 267d b93c 6a8b 0680
000003a0: 0d17 623e b3e3 0800 86d5 a83d e65f 0500
000003b0: 7033 c9bd 5fc0 0500 307a 8b3e b401 0280
000003c0: 70a4 12be 93ed 0d00 a1c4 b33d 41f4 0100
000003d0: 88aa 93be 05f1 0680 14c2 94be 307c 1000
000003e0: 26ff 02bd 5d7f 0180 03fe 6ebd db45 0e00
000003f0: 4c15 283c 633d 0e80 8a82 ab3d e417 0980

rnn.weight_hh_l0 f4 [256, 64]
-0.015429053 -0.1125168 0.1946097 -0.09897266 -0.1479659 0.16449384 0.0026215739 -0.02175095
-0.03339292 0.06011745 0.022523988 -0.035946846 -0.12059721 -0.15427001 -0.07729852 0.005426335
0.08516716 -0.2666777 0.08394584 0.032293346 0.014230021 -0.013863855 -0.068639494 -0.054972675
0.042078312 -0.09439354 -0.0643211 0.07980715 -0.051551387 -0.1046486 -0.11330264 0.04550711
0.17359811 -0.007847191 0.036543954 0.12007418 -0.2962064 0.060369708 0.121611975 -0.19984269
-0.061312497 -0.039492078 -0.22526322 -0.21236666 0.061560683 -0.09385245 -0.05617896 0.09496332
0.06852996 0.073416084 0.068228945 -0.06016167 -0.039477095 0.106837206 -0.09021802 -0.115758546
0.009384928 -0.015146977 0.20592992 -0.10763452 -0.2215937 -0.12426427 -0.2642353 0.0039051278
0.13091506 -0.030426 0.1511244 -0.1611932 0.15598926 0.040055167 0.13715942 0.0063019814
-0.099511944 -0.16191487 -0.13036887 -0.05591905 0.021129675 0.106126875 -0.14950506 0.04263142
0.3198518 -0.02087436 -0.04753928 0.13128115 -0.027825948 -0.09796141 0.005090075 0.19117121
0.10863613 0.22293873 0.26635823 -0.072021484 0.0001322105 -0.13656253 0.42825806 0.1439146
0.13229352 -0.087115854 0.02102346 0.049889665 -0.07524897 0.09246779 0.22617629 0.115113206
0.006833659 -0.122699365 0.12171496 0.03731415 0.014987218 -0.1163431 -0.05174242 0.11367117
0.019065762 0.19590276 0.05550442 0.12867972 -0.091752395 0.2763536 0.3242194 -0.15215313
-0.019391747 -0.13967837 0.12065447 -0.10970801 -0.028562486 -0.08841239 -0.16993678 -0.048131973
0.008235348 -0.13447459 0.1410143 0.13890812 0.083511606 0.23219804 -0.040154826 0.060270302
-0.046619073 0.0033837205 -0.05718057 0.07651705 -0.13009809 -0.13136333 -0.22450021 -0.036625348
0.05769116 -0.057593178 0.04904535 0.06910116 -0.09522387 0.0899576 -0.025957946 -0.1070673
0.042870533 -0.104868606 0.1504379 -0.14888884 -0.13679634 -0.15430191 0.102995574 0.016399253
0.10273422 -0.009341822 0.039521072 0.03165804 -0.18988869 -0.056971345 0.2066878 -0.09173222
0.08255238 0.13743347 -0.08794704 -0.17147677 0.013302335 -0.09792378 0.039182767 0.025386322
0.00997883 -0.08596122 0.075933374 -0.12351906 -0.065437175 0.008393566 -0.036172595 -0.10083809
0.084341906 -0.038777903 0.190778 0.042856146 -0.09852745 -0.032587785 -0.2719506 0.05438437
-0.073847696 -0.100836776 0.09614678 0.20406467 0.059785202 -0.0902539 0.113462344 -0.034244794
0.12031852 -0.04898441 -0.0016946105 0.06714849 0.05263374 -0.060142748 -0.115793 -0.028542371
0.103411816 -0.024536755 0.05368641 0.055774946 0.056463152 0.1548459 0.056218956 -0.04845848
-0.03957081 -0.16661449 0.07782841 0.15664409 -0.080529824 -0.19190991 0.13618144 -0.009789478
0.24646492 -0.05849973 0.10231403 -0.11503412 -0.16517198 -0.029801136 0.19648886 0.05209713
-0.068362884 0.0952783 0.03057755 0.036855116 0.108161174 0.06929856 0.07184477 0.1459931
-0.013953139 -0.13653104 -0.07706301 0.02326754 0.13032104 0.047652144 -0.009407549 -0.03407622
-0.03472287 -0.09015643 0.13196772 -0.023504885 -0.0075756493 0.12673654 -0.21416125 -0.035550725
00000000: 24ca 7cbc 356f e6bd c447 473e 2eb2 cabd
00000010: 5f84 17be 1371 283e b6ce 2b3b 0c2f b2bc
00000020: 04c7 08bd b73d 763d 3a84 b83c 003d 13bd
00000030: acfb f6bd f5f8 1dbe b04e 9ebd 66cf b13b
00000040: 1f6c ae3d fb89 88be cceb ab3d 0746 043d
00000050: 0925 693c 3925 63bc dd92 8cbd 072b 61bd
00000060: 4f5a 2c3d 6651 c1bd c8ba 83bd ee71 a33d
00000070: 8c27 53bd 0152 d6bd 370b e8bd aa65 3a3d
00000080: b4c3 313e 8191 00bc 1daf 153d 74e9 f53d
00000090: 5ea8 97be 3a46 773d b30f f93d 90a3 4cbe
000000a0: d022 7bbd 72c2 21bd 67ab 66be a576 59be
000000b0: 0e27 7c3d b735 c0bd e91b 66bd 217c c23d
000000c0: 7059 8c3d 2c5b 963d 9ebb 8b3d 156c 76bd
000000d0: bcb2 21bd 77cd da3d 3ac4 b8bd d112 edbd
000000e0: 3ec3 193c 072b 78bc 4bdf 523e 7d6f dcbd
000000f0: 75e9 62be 447e febd d949 87be 2ced 7f3b
00000100: 990e 063e f23f f9bc 5bc0 1a3e d50f 25be
00000110: a6bb 1f3e e310 243d 8573 0c3e da80 ce3b
00000120: ebcc cbbd 03cd 25be 6b7f 05be 600b 65bd
00000130: 2418 ad3c 0c59 d93d db17 19be 499e 2e3d
00000140: 9dc3 a33e b500 abbc 8cb8 42bd 916e 063e
00000150: 3ef3 e3bc fe9f c8bd a5ca a63b 63c2 433e
00000160: 9f7c de3d 0d4a 643e 1b60 883e 0080 93bd
00000170: fca1 0a39 0cd7 0bbe a444 db3e 595e 133e
00000180: f477 073e cc69 b2bd 6439 ac3c 1b59 4c3d
00000190: 221c 9abd c15f bd3d c29a 673e 79c0 eb3d
000001a0: e3ec df3b ce49 fbbd b145 f93d b9d6 183d
000001b0: f38c 753c 4b45 eebd dcef 53bd 6ecc e83d
000001c0: cd2f 9c3c bc9a 483e 9a58 633d 9ec4 033e
000001d0: aee8 bbbd 387e 8d3e 1600 a63e 08ce 1bbe
000001e0: 71db 9ebc d907 0fbe b119 f73d 98ae e0bd
000001f0: e0fb e9bc 8e11 b5bd e803 2ebe 0826 45bd
00000200: 8eed 063c b5b3 09be 0d66 103e ee3d 0e3e
00000210: 2208 ab3d 53c5 6d3e 6379 24bd fedd 763d
00000220: a4f3 3ebd 69c1 5d3b 2c36 6abd f9b4 9c3d
00000230: 6f38 05be 1c84 06be 62e3 65be 7604 16bd
00000240: 914d 6c3d d3e6 6bbd c7e3 483d e984 8d3d
00000250: bb04 c3bd b13b b83d c2a5 d4bc 1a46 dbbd
00000260: 0399 2f3d 5ac5 d6bd 650c 1a3e 5176 18be
00000270: 5714 0cbe 5201 1ebe 58ef d23d ba57 863c
00000280: 5266 d23d 710e 19bc d9e0 213d dcab 013d
00000290: 2e72 42be c95a 69bd f7a5 533e 1ade bbbd
000002a0: 3911 a93d 5cbb 0c3e 941d b4bd 9b97 2fbe
000002b0: 09f2 593c 438c c8bd 1c7e 203d faf6 cf3c
000002c0: 3f7e 233c 700c b0bd f582 9b3d 90f7 fcbd
000002d0: ed03 86bd 2b85 093c b729 14bd 3384 cebd
000002e0: 73bb ac3d 94d5 1ebd 4f5b 433e ed89 2f3d
000002f0: c2c8 c9bd c57a 05bd 1c3d 8bbe 25c2 5e3d
00000300: 763d 97bd 8383 cebd 9ae8 c43d 54f6 503e
00000310: 54e1 743d 09d7 b8bd f25e e83d 4544 0cbd
00000320: 8e69 f63d e0a3 48bd b11d deba 2685 893d
00000330: 7a96 573d 3e58 76bd e124 edbd b1d1 e9bc
00000340: 93c9 d33d 4e01 c9bc 48e6 5b3d 4574 643d
00000350: e845 673d ec8f 1e3e d945 663d 667c 46bd
00000360: 0015 22bd fd9c 2abe 8064 9f3d 4f67 203e
00000370: d2ec a4bd 0884 44be 2673 0b3e 0c64 20bc
00000380: 4d61 7c3e 6a9d 6fbd 058a d13d 0297 ebbd
00000390: d822 29be 8321 f4bc 6034 493e cd63 553d
000003a0: d701 8cbd 4521 c33d c57d fa3c 64f5 163d
000003b0: 9b83 dd3d 67ec 8d3d 5a23 933d 377f 153e
000003c0: b59b 64bc cbce 0bbe 36d3 9dbd 919b be3c
000003d0: e172 053e e52e 433d 1f22 1abc 8293 0bbd
000003e0: 9139 0ebd efa3 b8bd 8c22 073e 518d c0bc
000003f0: 273d f8bb 39c7 013e 164d 5bbe a39d 11bd

rnn.bias_ih_l0 f4 [256]
0.10562958 0.13387625 -0.083648644 -0.19465119 0.087231226 0.23522183 0.35015666 -0.1669552
-0.05489959 0.26353067 0.056186166 -0.19888985 0.10479403 -0.05502561 -0.027670799 -0.026609842
0.009872082 0.61603695 -0.24034297 -0.11190737 0.12203534 0.22894505 0.0070270784 0.05249024
-0.009182793 0.06718741 -0.39372757 0.13220556 0.13529886 0.06943194 0.08889215 0.071335055
1.029191 0.12958138 0.29641995 0.00029859302 0.23636788 0.5195077 0.21448298 0.1905285
0.1115069 -0.19988 0.121701896 0.50068563 -0.14024118 -0.051810402 -0.07253344 0.13469796
0.23097518 0.06390373 0.14662465 -0.028737068 0.097545534 0.12513933 0.20692427 0.1756142
0.16222017 -0.015355553 -0.40118778 0.21472782 0.17721222 0.0025173353 0.4346396 0.033036493
0.13329652 -0.17937136 -0.027826464 -0.022796376 -0.16799107 -0.17455383 -0.115992546 -0.32710212
-0.34905908 -0.22036678 0.061894435 0.023919975 -0.12188673 -0.07085497 -0.2625582 0.068762586
-0.22125633 -0.048042033 -0.29758415 -0.4111669 -0.18970326 -0.15493602 -0.29160067 -0.35384554
-0.26971236 -0.13075195 -0.3882135 -0.33541673 -0.09735575 -0.27791274 -0.06950409 -0.07563953
0.18420988 -0.049082823 -0.08622285 -0.16970424 -0.10097859 0.00971317 -0.13605481 -0.16415806
0.18104315 -0.017574186 -0.13440618 -0.06800743 -0.38735384 -0.07709183 -0.21743737 -0.13804026
-0.18554074 0.1039146 0.15343127 -0.034848854 -0.10100124 0.16114502 0.12919389 0.28782058
-0.086175345 -0.09686173 -0.16874686 -0.16860476 0.05374738 -0.21239288 -0.1142808 -0.10224994
0.02685913 -0.011830053 -0.02752462 -0.0743545 -0.07678484 -0.03956655 -0.0522676 0.08064437
-0.06189101 0.04670909 0.019969193 0.0026919285 0.055664428 0.046361633 0.0699871 0.040334154
0.085816614 0.02714547 -0.041265067 -0.07487586 0.10069618 0.021657962 -0.021280946 0.013715751
0.07743117 0.15006308 0.06513237 -0.011006123 0.13284186 -0.027208075 0.029507576 -0.11267144
-0.10335561 0.07782673 -0.09552928 0.011113874 -0.009061987 -0.038903575 -0.13055867 0.14418451
0.1038007 -0.027019816 -0.01251996 -7.631014e-05 -0.022983342 0.04088398 0.059406076 0.011287285
0.11014676 -0.05781962 0.041931827 0.0024679871 0.10574395 0.010514514 0.04425977 0.10192887
0.031218503 0.1267681 0.016308887 -0.11317716 0.12878497 -0.0775066 0.109726414 0.0542995
-0.07382213 -0.0028397352 0.06737451 -0.03384107 0.18348245 0.25320214 0.23793675 -0.028675728
-0.079051 0.154458 -0.11387961 0.0043157814 0.18033761 -0.14422557 -0.06157204 0.05349597
0.14626215 0.6130166 -0.12561296 -0.119392775 0.039848197 0.2739834 -0.035912864 -0.1625305
-0.04490049 0.17767034 -0.2567803 -0.007773843 0.15316404 0.12469035 0.21911776 -0.043699164
1.0878218 0.14027117 0.12473771 -0.105437174 0.16790865 0.7003721 0.27677503 0.15403235
0.14558806 -0.20631705 0.20907271 0.44506902 -0.1157627 0.0012849895 -0.070781924 0.2965379
0.29253227 0.09410975 0.017259378 -0.10128565 0.10140691 0.007244777 0.23286043 0.21128075
0.07186463 -0.07587718 -0.295438 0.19226353 0.33155102 -0.096555695 0.57466537 0.04388384
00000000: 5254 d83d db16 093e fb4f abbd a452 47be
00000010: 49a6 b23d fedd 703e bc47 b33e 4ef6 2abe
00000020: 64de 60bd 7eed 863e 7723 663d c8a9 4bbe
00000030: 419e d63d 8962 61bd dfad e2bc e2fc d9bc
00000040: 83be 213c 99b4 1d3f 781c 76be b12f e5bd
00000050: aaed f93d 9270 6a3e 6843 e63b 0200 573d
00000060: 6d73 16bc 8e99 893d a996 c9be e560 073e
00000070: c98b 0a3e 5532 8e3d 160d b63d 1d18 923d
00000080: 88bc 833f fbb0 043e 5bc4 973e 7a8c 9c39
00000090: 6c0a 723e 75fe 043f 6da1 5b3e e719 433e
000000a0: bb5d e43d 58ad 4cbe d83e f93d ef2c 003f
000000b0: 629b 0fbe 2537 54bd 6a8c 94bd 43ee 093e
000000c0: c284 6c3e f5df 823d c624 163e 006a ebbc
000000d0: f4c5 c73d 8624 003e f5e3 533e 35d4 333e
000000e0: 0b1d 263e db95 7bbc 7c68 cdbe 9ce1 5b3e
000000f0: 1f77 353e e1f9 243b 1589 de3e 4651 073d
00000100: e27e 083e 20ad 37be 53f4 e3bc 77bf babc
00000110: da05 2cbe 3dbe 32be 808d edbd ee79 a7be
00000120: dfb7 b2be d4a7 61be 0585 7d3d d3f3 c33c
00000130: c09f f9bd 691c 91bd 076e 86be 66d3 8c3d
00000140: 0591 62be b9c7 44bd f35c 98be 7884 d2be
00000150: 9241 42be 8ca7 1ebe af4c 95be 3e2b b5be
00000160: bd17 8abe d7e3 05be ebc3 c6be bebb abbe
00000170: 7462 c7bd 944a 8ebe 2958 8ebd e6e8 9abd
00000180: 84a1 3c3e 120b 49bd 9b95 b0bd f3c6 2dbe
00000190: ddcd cebd fd23 1f3c f451 0bbe 0d19 28be
000001a0: 6063 393e bdf7 8fbc c6a1 09be 7b47 8bbd
000001b0: 3e53 c6be 52e2 9dbd e7a7 5ebe 6d5a 0dbe
000001c0: 64fe 3dbe 2ed1 d43d 161d 1d3e acbd 0ebd
000001d0: bdd9 cebd 3303 253e 674b 043e 385d 933e
000001e0: b37c b0bd 715f c6bd facb 2cbe baa6 2cbe
000001f0: 3626 5c3d 857d 59be 0d0c eabd 6b68 d1bd
00000200: ae07 dc3c d7d2 41bc 507b e1bc 2c47 98bd
00000210: 5f41 9dbd 8910 22bd 8d16 56bd e028 a53d
00000220: 6d81 7dbd 0852 3f3d 6f96 a33c 116b 303b
00000230: 6200 643d b2e5 3d3d 6655 8f3d 6d35 253d
00000240: 9fc0 af3d 2d60 de3c 8f05 29bd 8458 99bd
00000250: cc39 ce3d 0a6c b13c 6155 aebc 07b8 603c
00000260: 3c94 9e3d 23aa 193e 1f64 853d 0753 34bc
00000270: b207 083e 78e3 debc dfb9 f13c 49c0 e6bd
00000280: 1bac d3bd 9f63 9f3d dba4 c3bd f716 363c
00000290: ba78 14bc 5b59 1fbd 2cb1 05be 1ba5 133e
000002a0: 7695 d43d a958 ddbc 8520 4dbc b208 a0b8
000002b0: 9047 bcbc f675 273d c953 733d 4eee 383c
000002c0: a094 e13d 44d4 6cbd b5c0 2b3d f4bd 213b
000002d0: 4990 d83d 1145 2c3c bc49 353d 15c0 d03d
000002e0: f2bd ff3c 7fcf 013e 379a 853c 6dc9 e7bd
000002f0: 35e0 033e c8bb 9ebd 3eb8 e03d 2769 5e3d
00000300: 0f30 97bd da1a 3abb a6fb 893d ef9c 0abd
00000310: d3e2 3b3e b6a3 813e b1a5 733e 5ce9 eabc
00000320: 7ee5 a1bd 3d2a 1e3e b739 e9bd 666b 8d3b
00000330: 6caa 383e deaf 13be f732 7cbd 971e 5b3d
00000340: bfc5 153e a8ee 1c3f afa0 00be 3384 f4bd
00000350: dd37 233d 8d47 8c3e 5e19 13bd 656e 26be
00000360: 94e9 37bd 37ef 353e b578 83be b9bb febb
00000370: 09d7 1c3e a75d ff3d 6860 603e e5fd 32bd
00000380: bf3d 8b3f 3fa3 0f3e 7c76 ff3d 72ef d7bd
00000390: 3ff0 2b3e 964b 333f 75b5 8d3e a8ba 1d3e
000003a0: 0915 153e c744 53be 2817 563e 16e0 e33e
000003b0: ff14 edbd 186d a83a 1df6 90bd d1d3 973e
000003c0: cac6 953e 9dbc c03d 8a63 8d3c da6e cfbd
000003d0: 6dae cf3d 9865 ed3b f772 6e3e fb59 583e
000003e0: c32d 933d 7f65 9bbd a643 97be bbe0 443e
000003f0: 0ec1 a93e febe c5bd 451d 133f 8bbf 333d

rnn.bias_hh_l0 f4 [256]
0.004176971 0.19535446 0.10249849 -0.014899119 0.0069438578 0.22311369 0.37325993 0.016596658
0.08685782 0.146057 0.02756645 -0.025528353 0.1913724 -0.07848249 -0.0045183017 0.05693915
0.121477455 0.6889863 -0.20642747 -0.08265944 0.10470615 0.26945567 -0.0143417725 -0.045496095
-0.1827293 0.110424116 -0.26800308 0.07824618 -0.002048495 0.08693129 0.13835977 0.071353234
1.0854179 0.08280459 0.25491342 -0.17816375 0.296131 0.6614777 0.2738022 0.31742817
0.010268101 -0.056163877 0.0706156 0.48582658 -0.17102142 0.06192711 -0.0054481383 0.18642919
0.14127931 -0.02082956 0.11204273 -0.09904565 0.033691816 0.09814698 0.24822292 0.19834942
0.25018787 0.019254982 -0.3935441 0.09264554 0.26991063 3.2340995e-05 0.39742047 -0.025280204
-0.042285845 -0.25646034 -0.13185789 -0.04784805 -0.011582569 -0.17267847 -0.16159275 -0.26196632
-0.2426887 -0.21903358 0.041186497 -0.17649664 -0.18034911 -0.08613508 -0.38971734 0.016941797
-0.1694579 -0.17239268 -0.23818393 -0.23022875 -0.31232068 -0.020465394 -0.25162193 -0.19801092
-0.33568105 -0.108953714 -0.2923023 -0.2784751 -0.17894131 -0.14474875 0.00806689 -0.02129864
0.035533015 -0.2285399 -0.04429362 -0.22917198 -0.06263543 0.13751976 -0.2053095 -0.105956264
0.0239161 -0.11996111 -0.076348834 -0.10877039 -0.2976556 -0.022602001 -0.16518341 -0.10235407
-0.25583118 -0.0012141182 0.101136126 0.08224233 0.00036296778 -0.009686277 0.16225085 0.1712314
-0.06528823 -0.07526418 -0.28638864 -0.25320208 -0.1736372 -0.345553 -0.10758544 0.060441367
0.01064241 0.16659276 -0.11533521 0.118000895 -0.033894293 -0.055662654 -0.14623936 -0.033581275
-0.013683012 0.0815028 -0.042712666 -0.05381786 0.007373315 0.053794768 0.1389666 0.0058643473
0.02780193 0.18606734 -0.059137825 -0.039445672 0.07730376 0.0747787 0.12301634 0.04844286
0.0132005885 -0.03438011 -0.010350701 -0.00570976 0.015040107 0.010497022 0.08472198 0.062482804
-0.13264076 0.042626284 -0.08342171 0.12707399 0.16738257 -0.08643334 -0.06663856 0.012822759
-0.025223106 -0.06037834 0.13744883 0.171977 -0.0007869396 0.03195993 -0.019860793 -0.17655395
0.060968403 -0.010907771 -0.08726427 -0.03412942 0.019978516 -0.084003374 0.092258364 -0.07779508
0.01611369 -0.062063057 -0.022181781 0.011721881 0.01163513 -0.09425467 0.07474186 -0.12856483
0.078647144 0.23331976 -0.029440857 -0.12506029 0.15050414 0.16094351 0.4588021 -0.016315293
0.11111301 0.25613868 -0.030664764 -0.21236254 0.028980099 -0.27134547 0.03783898 -0.049583476
0.112100184 0.53320277 -0.16018538 -0.093640216 0.22044443 0.07484207 0.06956543 -0.14288332
-0.15143764 0.22714637 -0.36720178 0.13901457 0.1460289 0.0783473 0.29156587 0.08150022
0.95637786 0.20795819 0.27763537 -0.10727863 0.3759042 0.5694082 0.30753246 0.22665597
-0.05060304 0.0155444695 0.280125 0.38254067 -0.22233143 0.11449544 -0.0060162162 0.18631962
0.16479257 0.14376916 0.126161 -0.18306749 0.10488621 -0.055196177 0.08018434 0.09367063
0.24368548 0.0036548895 -0.37677762 0.069267474 0.23730431 -0.11556681 0.55103236 -0.12671912
00000000: f9de 883b 000b 483e baea d13d 6f1b 74bc
00000010: 4d89 e33b ea77 643e ed1b bf3e b7f5 873c
00000020: 83e2 b13d f78f 153e 09d3 e13c d620 d1bc
00000030: 20f7 433e 6dbb a0bd 430e 94bb 0739 693d
00000040: 2cc9 f83d 6861 303f b961 53be 5a49 a9bd
00000050: 2e70 d63d 18f6 893e c1f9 6abc 1d5a 3abd
00000060: 641d 3bbe 0a26 e23d b337 89be 893f a03d
00000070: 0b40 06bb 0809 b23d 2fae 0d3e a521 923d
00000080: f9ee 8a3f 7495 a93d 0384 823e 8f70 36be
00000090: 7c9e 973e 9a56 293f cd2f 8c3e f285 a23e
000000a0: 893b 283c 180c 66bd e99e 903d 43be f83e
000000b0: 3d20 2fbe 48a7 7d3d 4c86 b2bb 4be7 3e3e
000000c0: 86ab 103e c1a2 aabc a976 e53d 72d8 cabd
000000d0: 6e00 0a3d 4901 c93d 262e 7e3e 1c1c 4b3e
000000e0: a018 803e a0bc 9d3c 9d7e c9be f2bc bd3d
000000f0: ba31 8a3e e1a5 0738 b27a cb3e 6e18 cfbc
00000100: ec33 2dbd c54e 83be c105 07be 51fc 43bd
00000110: d1c4 3dbc a0d2 30be 9278 25be 7320 86be
00000120: 6383 78be 574a 60be 2cb3 283d 89bb 34be
00000130: 70ad 38be 9767 b0bd 0889 c7be 86c9 8a3c
00000140: 5f86 2dbe b587 30be 7de6 73be 16c1 6bbe
00000150: 7fe8 9fbe 0ba7 a7bc 97d4 80be 60c3 4abe
00000160: 63de abbe 2023 dfbd a6a8 95be 4a94 8ebe
00000170: 643c 37be 0439 14be fd2a 043c 7c7a aebc
00000180: 118b 113d 5d06 6abe 3a6d 35bd 0fac 6abe
00000190: 0147 80bd fbd1 0c3e a73c 52be 99ff d8bd
000001a0: b2eb c33c 2cae f5bd c75c 9cbd 03c3 debd
000001b0: 5166 98be d527 b9bc d725 29be 039f d1bd
000001c0: 4efc 82be 0c23 9fba 7520 cf3d ab6e a83d
000001d0: b64c be39 31b3 1ebc 1625 263e 4957 2f3e
000001e0: d6b5 85bd 1b24 9abd 88a1 92be b4a3 81be
000001f0: f3cd 31be 53ec b0be c155 dcbd 5e91 773d
00000200: 815d 2e3c 4b97 2a3e de34 ecbd 74aa f13d
00000210: bed4 0abd 86fe 63bd c5bf 15be 858c 09bd
00000220: b62e 60bc f1ea a63d 7af3 2ebd 1e70 5cbd
00000230: d99b f13b e757 5c3d 434d 0e3e b629 c03b
00000240: e0c0 e33c 7088 3e3e 813a 72bd c991 21bd
00000250: 6f51 9e3d 9325 993d feef fb3d 056c 463d
00000260: 4847 583c 29d2 0cbd fd95 29bc f018 bbbb
00000270: c86a 763c b4fb 2b3c b882 ad3d f8ed 7f3d
00000280: fbd2 07be e698 2e3d 00d9 aabd af1f 023e
00000290: 5666 2b3e f703 b1bd cc79 88bd 8d16 523c
000002a0: b0a0 cebc 474f 77bd 63bf 0c3e bd1a 303e
000002b0: 9f4a 4eba 6ae8 023d 1ab3 a2bc 8fca 34be
000002c0: 01ba 793d 82b6 32bc 9cb7 b2bd 4acb 0bbd
000002d0: fca9 a33c f609 acbd f4f1 bc3d 0753 9fbd
000002e0: db00 843c d535 7ebd 91b6 b5bc 220d 403c
000002f0: 46a1 3e3c 9808 c1bd 4312 993d 80a6 03be
00000300: c111 a13d 60eb 6e3e f42d f1bc ce0f 00be
00000310: c21d 1a3e 60ce 243e 1ce8 ea3e a6a7 85bc
00000320: 388f e33d 9c24 833e ac34 fbbc 9175 59be
00000330: ac67 ed3c cbed 8abe 0cfd 1a3d 0b18 4bbd
00000340: c894 e53d fa7f 083f a307 24be 71c6 bfbd
00000350: 2fbc 613e cd46 993d 5278 8e3d 0150 12be
00000360: 7812 1bbe 0f99 683e df01 bcbe d659 0e3e
00000370: 9a88 153e 8d74 a03d 1f48 953e 96e9 a63d
00000380: 2ed5 743f fef2 543e 3926 8e3e e6b4 dbbd
00000390: 8476 c03e bcc4 113f e574 9d3e 8118 683e
000003a0: 2245 4fbd 3bae 7e3c 8b6c 8f3e 5fdc c33e
000003b0: daaa 63be 967c ea3d ae23 c5bb 92ca 3e3e
000003c0: 62bf 283e 3938 133e 5930 013e 0b76 3bbe
000003d0: 95ce d63d 6315 62bd b037 a43d 63d6 bf3d
000003e0: b088 793e df86 6f3b ffe8 c0be 1bdc 8d3d
000003f0: e7ff 723e 4bae ecbd 7510 0d3f a8c2 01be

rnn.weight_ih_l1 f4 [256, 64]
-0.024895594 -0.096674114 -0.19470225 0.12825163 0.020572808 0.40538424 0.8793156 0.17852391
0.003634701 0.22647767 0.1545645 0.01665523 -0.25945997 0.020486485 -0.08526628 0.08953854
0.4656545 -0.61115366 -0.059365653 -0.23799118 0.031607643 -0.1310918 -0.037013754 -0.011471066
0.18327822 -0.37617326 -0.023536824 -0.149547 -0.49277574 0.25480646 -0.21335018 0.011174359
0.93850005 0.013338041 0.17834681 0.073221005 -0.6247045 0.5298076 0.594537 0.1809446
-0.1799665 -0.059850045 -0.36128506 -0.36956614 -0.09384098 0.38818976 -0.07004701 0.08095887
-0.16814017 0.017095866 0.061598822 -0.28386742 0.06932533 -0.036901508 0.28200263 0.14582494
-0.3437449 -0.12944296 0.19573748 0.00025227023 -0.24919695 -0.17415649 -0.87574524 0.039193902
-0.1804037 0.19116129 -0.04723353 0.13848387 -0.20930284 -0.015125984 -0.090188965 0.04310457
0.008569321 0.26251808 0.1108193 0.18590966 0.17863324 -0.0068787127 0.050204728 0.17408183
0.03851754 -0.21959685 -0.10574009 -0.17476286 0.065665625 0.09654906 0.06367511 -0.06430274
-0.0704167 -0.21333998 0.056036178 0.12868743 -0.17536841 -0.17826901 -0.07824329 -0.09883623
0.066312455 0.20920189 -0.31132528 0.026077153 0.053799573 0.27580658 -0.03785567 0.05450999
0.100379005 0.04347211 -0.063200794 0.08935048 0.029147552 0.29431972 0.013869555 -0.06658286
0.2722952 -0.1632482 -0.15217589 -0.23584571 0.19508837 -0.03554525 -0.017531447 0.15313685
0.002227634 0.13052188 0.118143864 0.066605315 -0.046568032 -0.14199747 -0.083108656 -0.2060839
-0.05188969 -0.72243017 0.14746965 -0.054076947 0.30529004 0.6947369 0.93499744 -0.04446113
0.23632893 0.20228735 0.04381419 0.06929238 -0.30479705 -0.07169052 -0.3196282 -0.046219777
0.15413655 -0.8241051 0.129723 0.2358261 -0.15773484 -0.31014854 -0.43181545 0.047466855
0.20706904 -0.47547972 -0.03663861 -0.2305455 -0.37303886 0.4347157 -0.08099269 0.13469055
0.71084434 -0.17645314 0.59286875 0.07857225 -0.6566337 0.6488779 0.5465798 -0.42463204
-0.17669153 0.06111563 -0.580289 -0.83402336 -0.14213523 0.1092791 -0.0077543543 0.5097056
-0.27990365 0.07472313 0.14559396 0.017249942 -0.16753061 0.2011791 0.20909545 -0.049059752
-0.22549948 -0.25984603 0.16500139 -0.13036616 -0.5203631 -0.030237338 -1.099994 0.10177178
0.16100852 -0.049689397 0.16541363 -0.072180994 0.020646395 0.1950381 -0.023427583 -0.190926
0.22892824 0.11727132 -0.1128056 -0.1835906 -0.12083851 -0.04838729 -0.01127203 -0.17287315
0.22203618 -0.011399275 -0.037159417 -0.047945585 -0.0989772 -0.12326218 -0.052560937 0.033919856
0.05301245 -0.11135274 0.027818425 -0.029583685 0.07166575 0.18201242 0.25146177 0.1179665
0.10441526 0.076744065 0.065033354 0.08284872 0.049680125 -0.023760939 0.14525536 0.09845301
-0.06207421 0.03675359 0.06729735 0.05756735 -0.011577952 -0.13516393 -0.092763826 0.014631178
0.19926281 0.18630143 0.123253755 0.11261318 0.14497846 0.09090761 0.15194264 -0.12634374
-0.06549385 -0.11533567 -0.051982995 -0.28648883 -0.1454282 -0.13011514 -0.17420986 0.0032753702
00000000: d8f1 cbbc 14fd c5bd 0760 47be 6554 033e
00000010: 4e88 a83c 868e cf3e d41a 613f f9ce 363e
00000020: 2a34 6e3b c3e9 673e 2846 1e3e 8d70 883c
00000030: f0d7 84be 46d3 a73c 16a0 aebd fb5f b73d
00000040: 446a ee3e 9174 1cbf 6629 73bd f6b3 73be
00000050: 0477 013d ee3c 06be bc9b 17bd 23f1 3bbc
00000060: 49ad 3b3e c899 c0be 4cd0 c0bc d922 19be
00000070: 1a4d fcbe fe75 823e 7878 5abe a914 373c
00000080: 8a41 703f cc87 5a3c 8ca0 363e e5f4 953d
00000090: a2ec 1fbf 79a1 073f 9433 183f 8b49 393e
000000a0: 2349 38be 5225 75bd 5bfa b8be c637 bdbe
000000b0: b32f c0bd cfc0 c63e cf74 8fbd c4cd a53d
000000c0: f02c 2cbe a10c 8c3c 0c4f 7c3d 1257 91be
000000d0: 70fa 8d3d 0926 17bd a662 903e 2253 153e
000000e0: 55ff afbe b28c 04be 686f 483e 2343 8439
000000f0: 7c2d 7fbe 1456 32be d730 60bf c989 203d
00000100: bfbb 38be c9bf 433e f277 41bd b7ce 0d3e
00000110: 7c53 56be fad2 77bc feb4 b8bd 6b8e 303d
00000120: 5666 0c3c c568 863e 3bf5 e23d 1a5f 3e3e
00000130: a2eb 363e d366 e1bb 79a3 4d3d 8242 323e
00000140: 91c4 1d3d ffdd 60be 438e d8bd 09f5 32be
00000150: b37b 863d 83bb c53d 1968 823d 28b1 83bd
00000160: a136 90bd cc75 5abe 3186 653d a3c6 033e
00000170: c793 33be 278c 36be 053e a0bd a66a cabd
00000180: d3ce 873d 0539 563e 0766 9fbe c19f d53c
00000190: f15c 5c3d 8536 8d3e 8c0e 1bbd de45 5f3d
000001a0: 8293 cd3d d00f 323d 6b6f 81bd 62fd b63d
000001b0: d9c6 ee3c 13b1 963e 213d 633c 985c 88bd
000001c0: 476a 8b3e 892a 27be ffd3 1bbe 8a81 71be
000001d0: 3fc5 473e e597 11bd 1c9e 8fbc e8cf 1c3e
000001e0: 7ffd 113b 87a7 053e 69f5 f13d 5e68 883d
000001f0: 1fbe 3ebd c967 11be df34 aabd a807 53be
00000200: 498a 54bd 2ff1 38bf 4902 173e ca7f 5dbd
00000210: fa4e 9c3e 47da 313f fe5b 6f3f e01c 36bd
00000220: 3600 723e 6a24 4f3e 8276 333d 2ae9 8d3d
00000230: 5c0e 9cbe 7bd2 92bd 4fa6 a3be f350 3dbd
00000240: f9d5 1d3e 8df8 52bf 1bd6 043e 667c 713e
00000250: 3e85 21be cacb 9ebe ea16 ddbe 9b6c 423d
00000260: e809 543e 1472 f3be 5e12 16bd 1f14 6cbe
00000270: f3fe bebe 0e93 de3e 7fdf a5bd 52ec 093e
00000280: e5f9 353f 22b0 34be 3fc6 173f 7dea a03d
00000290: 2519 28bf dd1c 263f a7ec 0b3f 5f69 d9be
000002a0: a0ee 34be 6254 7a3d d28d 14bf 8e82 55bf
000002b0: e68b 11be b9cd df3d 3d18 febb 117c 023f
000002c0: 884f 8fbe 7108 993d 9516 153e c04f 8d3c
000002d0: 258d 2bbe e501 4e3e 1e1d 563e e1f2 48bd
000002e0: 56e9 66be 8a0a 85be 20f6 283e b57e 05be
000002f0: 8436 05bf 4bb4 f7bc 9acc 8cbf b96d d03d
00000300: 6bdf 243e 1c87 4bbd 3162 293e a1d3 93bd
00000310: a122 a93c 11b8 473e 34eb bfbc 1b82 43be
00000320: 2a6c 6a3e f22b f03d 9f06 e7bd 2dff 3bbe
00000330: 2e7a f7bd c031 46bd 52ae 38bc a905 31be
00000340: 745d 633e 06c4 3abc 7934 18bd 9762 44bd
00000350: 8fb4 cabd e270 fcbd 234a 57bd 8cef 0a3d
00000360: 9523 593d e80c e4bd 77e3 e33c 7c59 f2bc
00000370: 7ec5 923d 7761 3a3e 99bf 803e 6c98 f13d
00000380: abd7 d53d fe2b 9d3d 3530 853d 97ac a93d
00000390: 637d 4b3d 4da6 c2bc d2bd 143e bba1 c93d
000003a0: 8741 7ebd ef8a 163d 31d3 893d becb 6b3d
000003b0: 73b1 3dbc 6a68 0abe f6fa bdbd 9cb7 6f3c
000003c0: 8d0b 4c3e cdc5 3e3e 776c fc3d bda1 e63d
000003d0: 3c75 143e c52d ba3d da96 1b3e 4160 01be
000003e0: a421 86bd 1c35 ecbd 1fec 54bd aaae 92be
000003f0: 21eb 14be e73c 05be 1264 32be 98a7 563b

rnn.weight_hh_l1 f4 [256, 64]
0.22106457 0.09040233 -0.010767465 -0.14193465 -0.083708644 0.09378377 -0.24799238 -0.028284237
-0.028618537 0.12437312 0.039853748 0.3148584 -0.07414537 -0.16806558 -0.02480847 0.09558571
-0.19704105 0.03212011 -0.10435064 -0.16136067 0.017195322 0.12421384 0.14766312 0.19166327
-0.18022868 0.19439653 0.11112626 0.033597495 0.24995363 -0.044758018 -0.09578767 -0.026651926
0.19920592 0.05944522 -0.20569852 0.765533 -0.09129016 0.10148583 0.06205276 0.013205727
-0.15657042 0.09478456 0.13368599 0.14741659 0.06203759 0.05727923 0.18401709 -0.107276015
0.19505067 -0.18141395 0.23410879 0.12575449 0.13341968 -0.09226371 0.5409519 -0.0009289619
0.05143345 -0.015237299 0.30670327 0.2341902 -0.036122262 0.16570976 0.024813127 -0.46179286
0.0017694745 0.037906963 0.73442864 -0.09425966 0.057654347 0.19645531 -0.11033244 -0.017927257
0.38984415 0.7101395 0.2046572 0.11677092 0.065692954 -0.2649808 0.10326396 0.16496353
-0.2415388 0.00717291 -0.09596922 0.06466152 -0.018280514 0.06261712 -0.040027454 -0.07377567
0.3883774 0.25398037 0.037460115 -0.064334355 0.21893115 0.06930281 -0.6198682 0.0315142
0.1746196 -0.011078322 -0.2765801 1.5381298 -0.27825102 -0.10076149 0.019724844 0.041580655
-0.0947317 -0.017029725 -0.05937307 -0.20253052 0.287228 0.10820154 0.049792573 0.37756547
0.32047138 0.33274105 -0.12465515 -0.006212283 -0.05860318 0.38937598 -0.7190248 -0.0041479003
-0.24612054 -0.15785238 -0.12235089 -0.32304272 0.6348282 0.21337087 -0.046962477 -0.5047682
0.2623049 0.27708828 0.08852861 -0.23212998 -0.2337265 -0.03660394 -0.0715526 -0.052256152
-0.078338675 -0.16197613 -0.018289743 0.4751193 0.056612518 -0.120119095 0.41068873 -0.0350682
0.034357384 0.1445745 -0.023763802 -0.2573115 -0.09302098 -0.08051918 0.22983381 0.26943377
-0.10914858 -0.0062148087 -0.06548388 0.00078128825 0.19198647 0.08907403 -0.18941824 -0.10578227
0.19607398 -0.07913485 -0.17589495 -0.0074909716 -0.13762881 -0.32189077 0.0823225 0.14996286
-0.23006652 -0.06098447 0.16906229 0.20459631 0.117008716 0.1794944 0.26855955 -0.20910282
0.16221108 -0.24869616 0.3017774 0.11128036 -0.04048958 -0.16875574 0.21451615 0.15480436
-0.118448585 -0.2003125 0.26169065 0.25200358 0.02268979 0.184929 0.095852286 -0.09682004
-0.12239628 -0.24711435 0.05892805 0.00034023396 0.25996843 0.04369499 -0.1313303 -0.14770922
0.041633006 0.26526627 0.23576115 0.18459664 0.07474003 -0.06339003 -0.032046776 0.14433709
-0.07982921 0.084903404 -0.11144271 0.07810226 0.020059612 0.0075376392 -0.05162887 0.09427804
0.12929183 0.26382807 -0.061822724 -0.066042185 0.028404621 0.056188688 -0.09475415 0.022835763
0.037116554 0.023173654 -0.10748606 0.26034468 -0.0735635 0.12596992 0.010653787 0.0577383
0.08079969 0.08771312 0.027592871 -0.47181576 -0.011455418 0.08091882 0.021128826 0.066421635
0.110927254 -0.018165763 0.0043657413 0.115559064 0.16694117 -0.061803296 0.05489642 -0.15989658
0.18861325 -0.010296177 -0.10851434 -0.39252698 0.08610313 -0.031603854 -0.020304091 0.13152242
00000000: c05e 623e db24 b93d 066a 30bc 5157 11be
00000010: 706f abbd b511 c03d b7f1 7dbe 58b4 e7bc
00000020: 6c71 eabc 56b7 fe3d af3d 233d 1f35 a13e
00000030: 87d9 97bd 6219 2cbe 223b cbbc 71c2 c33d
00000040: 21c5 49be 6090 033d cab5 d5bd bb3b 25be
00000050: 34dd 8c3c d363 fe3d 0035 173e 6043 443e
00000060: de8d 38be e20f 473e 2a96 e33d 879d 093d
00000070: d8f3 7f3e 2f54 37bd 532c c4bd 2455 dabc
00000080: a3fc 4b3e d57c 733d a2a2 52be f8f9 433f
00000090: 56f6 babd ced7 cf3d 092b 7e3d d55c 583c
000000a0: ff53 20be 681e c23d fbe4 083e 60f4 163e
000000b0: 211b 7e3d a09d 6a3d fa6e 3c3e 87b3 dbbd
000000c0: 5dbb 473e 94c4 39be 37ba 6f3e c9c5 003e
000000d0: 2b9f 083e c2f4 bcbd d37b 0a3f 9485 73ba
000000e0: e2ab 523d dda5 79bc 3608 9d3e 8ecf 6f3e
000000f0: f0f4 13bd d2af 293e e644 cb3c 1d70 ecbe
00000100: b6ed e73a 5544 1b3d 8403 3c3f 350b c1bd
00000110: f726 6c3d 952b 493e f9f5 e1bd 2fdc 92bc
00000120: a799 c73e b4cb 353f a891 513e 9825 ef3d
00000130: 078a 863d 90ab 87be 0e7c d33d 33ec 283e
00000140: f255 77be bb0a eb3b 838b c4bd 426d 843d
00000150: 04c1 95bc 683d 803d d4f3 23bd b317 97bd
00000160: 67d9 c63e b709 823e c76f 193d bbc1 83bd
00000170: 7d2f 603e a2ee 8d3d afaf 1ebf 0915 013d
00000180: 7bcf 323e da81 35bc e89b 8dbe 70e1 c43f
00000190: eb76 8ebe 0a5c cebd ff95 a13c 7a50 2a3d
000001a0: b202 c2bd ec81 8bbc 2d31 73bd 2964 4fbe
000001b0: 8c0f 933e c598 dd3d 4cf3 4b3d 4350 c13e
000001c0: d314 a43e 095d aa3e 334b ffbd 6890 cbbb
000001d0: e309 70bd 4a5c c73e 0212 38bf 1ceb 87bb
000001e0: 0607 7cbe 0ea4 21be 1a93 fabd db65 a5be
000001f0: 1a84 223f e57d 5a3e ba5b 40bd 7d38 01bf
00000200: d44c 863e 84de 8d3e 7d4e b53d 7bb3 6dbe
00000210: 0056 6fbe 03ee 15bd 2b8a 92bd 8c0a 56bd
00000220: 0770 a0bd 12dd 25be 5fd4 95bc d642 f33e
00000230: 87e2 673d 0001 f6bd cb45 d23e aca3 0fbd
00000240: 54ba 0c3d 560b 143e 4eac c2bc 55be 83be
00000250: c981 bebd 3de7 a4bd 8e59 6b3e 39f3 893e
00000260: 4a89 dfbd 98a5 cbbb 6a1c 86bd 5ecf 4c3a
00000270: 1a98 443e 726c b63d dbf6 41be 60a4 d8bd
00000280: 9ec7 483e 7411 a2bd ce1d 34be d376 f5bb
00000290: 91ee 0cbe dece a4be b398 a83d dd8f 193e
000002a0: 8f96 6bbe daca 79bd aa1e 2d3e b281 513e
000002b0: 44a2 ef3d 61cd 373e a380 893e 0d1f 56be
000002c0: a91a 263e 35aa 7ebe 9182 9a3e f5e6 e33d
000002d0: 67d8 25bd 4ece 2cbe 1faa 5b3e 0985 1e3e
000002e0: 2c95 f2bd b81e 4dbe 51fc 853e 9d06 813e
000002f0: f0df b93c 075e 3d3e 344e c43d 9649 c6bd
00000300: e7aa fabd 8b0b 7dbe 8a5e 713d 6e61 b239
00000310: 951a 853e 85f9 323d 737b 06be 1641 17be
00000320: 5f87 2a3d fbd0 873e 5f6b 713e e706 3d3e
00000330: 4d11 993d a2d2 81bd 7b43 03bd 1acd 133e
00000340: 7f7d a3bd d6e1 ad3d 133c e4bd 14f4 9f3d
00000350: 0e54 a43c 4dfe f63b cb78 53bd d814 c13d
00000360: 1465 043e 7914 873e d339 7dbd 2041 87bd
00000370: cfb0 e83c 1c26 663d 770e c2bd 1112 bb3c
00000380: 8707 183d add6 bd3c a721 dcbd e64b 853e
00000390: 76a8 96bd 42fe 003e 398d 2e3c ff7e 6c3d
000003a0: 4f7a a53d f0a2 b33d 720a e23c d691 f1be
000003b0: 81af 3bbc c4b8 a53d 5c16 ad3c 1108 883d
000003c0: d42d e33d 5ed0 94bc 7e0e 8f3b 3baa ec3d
000003d0: a0f2 2a3e 7425 7dbd 12db 603d eebb 23be
000003e0: d523 413e 4cb1 28bc c43c debd 4cf9 c8be
000003f0: d656 b03d 0b73 01bd c454 a6bc d0ad 063e

rnn.bias_ih_l1 f4 [256]
0.07768489 0.079855315 -0.07676824 0.05352612 -0.07424153 -0.13114794 -0.076019965 0.163486
-0.029942175 0.58644927 0.031162314 0.29363802 -0.12394715 -0.017136538 0.08502432 -0.00012665018
-0.03966878 -0.025161037 -0.07710286 -0.12247401 -0.010740326 -0.19788565 0.115641974 -0.09658157
0.11587664 0.37858966 -0.030550832 0.2079685 0.09479892 -0.0112584345 0.19673271 0.0913883
0.06339442 -0.10898271 0.04821791 0.21784112 -0.12443424 0.043786187 -0.07493894 -0.012694482
0.09694458 0.18005413 -0.081592456 0.23515259 -0.05879643 0.040746156 0.13574302 0.15649879
0.12833863 0.18376648 0.1366279 0.34534746 -0.09417243 0.34860614 0.22584848 -0.028940191
0.27076447 -0.11293117 0.1263232 -0.16782069 -0.018285008 -0.07177261 -0.045338366 0.36968237
-0.16055216 0.16874424 -0.037026167 -0.044477403 -0.05835563 0.11542575 0.024520539 -0.01615499
-0.13351649 -0.0229585 -0.030582838 -0.12241599 -0.18773094 -0.09179443 -0.035753272 0.29096714
0.015710644 -0.03274339 -0.12468936 -0.1343527 0.0074423845 -0.19507734 -0.0017507225 -0.13925731
-0.031067112 -0.005962936 -0.007057162 -0.04628964 -0.15417224 -0.19805986 0.30692345 0.006221368
0.10769146 -0.11528026 -0.1828442 0.28100032 0.25691873 0.050061774 0.05464702 -0.07116201
-0.105121955 -0.06412966 -0.0949786 -0.32527846 -0.12215707 0.17269063 0.31354436 -0.07945514
0.19695674 0.02822551 -0.14764257 0.20133746 -0.086547256 -0.63871354 -0.1590734 -0.15562297
-0.110052094 -0.15595105 0.0018607605 0.39283535 -0.16488719 0.15601654 -0.13243829 -0.1260044
-0.054710627 0.025857732 0.012624048 0.25469157 -0.07413337 0.044831663 0.11260349 -0.22351079
0.1137734 -0.027054092 0.020608075 0.06495166 -0.18576661 0.22290973 0.20318817 -0.18756723
0.15464541 -0.17446862 -0.030389028 -0.09997317 0.06533976 -0.023928158 -0.13818784 -0.079919875
-0.022942726 0.073623225 -0.19399713 -0.05889034 -0.08424117 0.06260181 0.06845277 0.113161854
-0.12087651 0.0010853485 -0.076152496 -0.032935675 -0.013119366 -0.17692925 0.039356697 -0.08357281
-0.1528549 0.143797 -0.099949166 -0.014785974 -0.14817706 -0.06877644 -0.056114476 -0.110664696
0.0134505285 -0.15806995 0.06745156 0.05393645 -0.14286032 0.0474257 0.10266226 0.058869883
-0.11151584 0.12286794 0.07509005 0.013767073 -0.13708165 -0.1453459 -0.0035352989 0.1222152
0.22856086 0.08016404 -0.11464424 0.0862818 0.1302396 0.03198844 -0.052946966 0.024306843
-0.07616857 0.6463176 -0.18156229 0.1574276 -0.009953446 -0.049519103 0.24103396 0.10312208
-0.091664545 -0.110663176 -0.04744872 0.036501862 -0.09852601 -0.12637436 0.17022194 -0.12775187
-0.01987349 0.26585564 -0.08711439 0.33554775 -0.10559397 -0.11810252 0.019643547 -0.053682804
0.037836835 0.04836025 0.044316974 0.35781467 0.023248987 0.12132985 -0.13615339 0.007686238
0.2547279 0.039773855 -0.03872231 0.26828018 0.11394099 0.073893346 0.12562275 0.2450184
0.13684987 0.08185501 0.15368384 0.13467172 -0.14098601 0.25924018 0.14362349 -0.0043175733
0.35636875 -0.06166913 -0.060094807 0.3417681 -0.10812641 -0.028086673 -0.054287054 0.28404814
00000000: 4119 9f3d 2f8b a33d ab38 9dbd 343e 5b3d
00000010: f10b 98bd a54b 06be 5bb0 9bbd e068 273e
00000020: 4b49 f5bc 8a21 163f 1c48 ff3c b957 963e
00000030: 01d8 fdbd ed61 8cbc 3b21 ae3d 66cd 04b9
00000040: bb7b 22bd 851e cebc 1be8 9dbd a7d3 fabd
00000050: 31f8 2fbc 89a2 4abe b3d5 ec3d 8fcc c5bd
00000060: bb50 ed3d 81d6 c13e bd45 fabc b2f5 543e
00000070: f025 c23d 4c75 38bc 4d74 493e ca29 bb3d
00000080: efd4 813d 5432 dfbd 2580 453d be11 5f3e
00000090: 61d7 febd 2559 333d 9679 99bd 84fc 4fbc
000000a0: e18a c63d 1c60 383e f219 a7bd d7cb 703e
000000b0: 86d4 70bd 71e5 263d 3800 0b3e 3841 203e
000000c0: 346b 033e 482d 3c3e 2fe8 0b3e 62d1 b03e
000000d0: 7add c0bd 817c b23e d344 673e fb13 edbc
000000e0: a4a1 8a3e 7548 e7bd de5a 013e 30d9 2bbe
000000f0: 71ca 95bc 85fd 92bd b9b4 39bd 0247 bd3e
00000100: c967 24be 4acb 2c3e c0a8 17bd f02d 36bd
00000110: 5006 6fbd 5664 ec3d 4cdf c83c 7857 84bc
00000120: 8cb8 08be 7713 bcbc dc88 fabc 3cb5 fabd
00000130: 8a3c 40be b8fe bbbd 0672 12bd a5f9 943e
00000140: 9cb3 803c ef1d 06bd 235d ffbd c193 09be
00000150: 3fdf f33b 5bc2 47be 8078 e5ba 7899 0ebe
00000160: 7580 febc bc64 c3bb c43f e7bb 359a 3dbd
00000170: 54df 1dbe 34d0 4abe 1225 9d3e 9edc cb3b
00000180: 578d dc3d 0f18 ecbd 833b 3bbe 46df 8f3e
00000190: da8a 833e 930d 4d3d 8ed5 5f3d 63bd 91bd
000001a0: 2e4a d7bd 6956 83bd 2484 c2bd e68a a6be
000001b0: 7c2d fabd d0d5 303e e388 a03e 60b9 a2bd
000001c0: 07af 493e 2f39 e73c 9d2f 17be 682b 4e3e
000001d0: b03f b1bd bb82 23bf 23e4 22be a15b 1fbe
000001e0: fe62 e1bd a2b1 1fbe c3e4 f33a b721 c93e
000001f0: 30d8 28be cdc2 1f3e e79d 07be 4c07 01be
00000200: 4018 60bd 98d3 d33c 18d5 4e3c ef66 823e
00000210: 3cd3 97bd 68a1 373d a99c e63d 03e0 64be
00000220: 0702 e93d 8ba0 ddbc 44d2 a83c 6005 853d
00000230: 9a39 3ebe 7342 643e 8f10 503e a011 40be
00000240: 5e5b 1e3e e7a7 32be 69f2 f8bc bcbe ccbd
00000250: dad0 853d fc04 c4bc 1d81 0dbe 08ad a3bd
00000260: 62f2 bbbc c6c7 963d 2fa7 46be ff36 71bd
00000270: a286 acbd 6135 803d f730 8c3d 67c1 e73d
00000280: 1b8e f7bd 4142 8e3a d7f5 9bbd 8fe7 06bd
00000290: 9cf2 56bc f12c 35be 7d34 213d 3928 abbd
000002a0: ff85 1cbe 853f 133e 26b2 ccbd df40 72bc
000002b0: babb 17be aada 8cbd 4bd8 65bd 2ca4 e2bd
000002c0: 9b5f 5c3c 17dd 21be 0b24 8a3d 78ec 5c3d
000002d0: fa49 12be 7341 423d 9740 d23d 8c21 713d
000002e0: 6b62 e4bd 30a2 fb3d d0c8 993d 4a8f 613c
000002f0: 225f 0cbe 8ed5 14be 79b0 67bb f64b fa3d
00000300: dc0b 6a3e 0b2d a43d 99ca eabd 83b4 b03d
00000310: 885d 053e 4f06 033d ebde 58bd 251f c73c
00000320: 44fe 9bbd 1275 253f 77eb 39be b334 213e
00000330: c713 23bc 8bd4 4abd 9bd1 763e ab31 d33d
00000340: 9fba bbbd 60a3 e2bd 9759 42bd fa82 153d
00000350: 01c8 c9bd 4868 01be a94e 2e3e 63d1 02be
00000360: bbcd a2bc 3b1e 883e 0869 b2bd eacc ab3e
00000370: a741 d8bd bcdf f1bd 81eb a03c 80e2 5bbd
00000380: ccfa 1a3d 6615 463d b785 353d 7c33 b73e
00000390: a974 be3c c97b f83d cb6b 0bbe d6dc fb3b
000003a0: b26b 823e e9e9 223d 499b 1ebd 055c 893e
000003b0: e559 e93d 6555 973d 40a3 003e 1ae6 7a3e
000003c0: 5f22 0c3e 99a3 a73d 4c5f 1d3e 62e7 093e
000003d0: a35e 10be 21bb 843e 0912 133e 6e7a 8dbb
000003e0: f775 b63e c598 7cbd f925 76bd 3afc ae3e
000003f0: 6171 ddbd 0616 e6bc 1a5c 5ebd c26e 913e

rnn.bias_hh_l1 f4 [256]
0.038151883 -0.041112214 0.0038751778 -0.026190706 -0.075847 -0.13126989 -0.14140467 0.17594622
-0.11287427 0.5026005 0.033801347 0.18923429 0.014848291 0.06512201 0.11350122 0.16308308
-0.028508397 -0.005766254 -0.015548214 -0.1356727 -0.10594106 -0.21267551 0.06959344 -0.008953737
-0.010055651 0.3253946 -0.05111732 0.23099695 -0.05731595 -0.22035047 0.11850233 -0.119454846
0.067123555 -0.14038324 0.096986696 0.30986306 0.07118189 0.0060610296 -0.15078184 0.10933509
0.17662147 0.13103199 0.083671466 0.46264568 0.0077558714 0.08933675 0.21457255 0.13558386
0.15210648 0.15187302 0.28962854 0.11987438 -0.037635893 0.344978 0.27285838 0.01635543
0.27132744 0.011953154 -0.021148926 -0.07609241 -0.016354516 0.02058412 -0.23063403 0.45705825
0.044188324 0.015463769 -0.17981014 0.10057675 0.038391404 0.12073182 -0.012396428 -0.14273754
-0.15227081 -0.057833206 -0.18409002 -0.12581776 -0.04375515 -0.11196706 -0.06932682 0.22921464
0.091222815 -0.059674293 -0.111487515 -0.11389181 -0.13842253 -0.21844754 0.027924225 -0.2557666
-0.10188546 -0.061308622 -0.20844312 -0.13018763 -0.13787 -0.20357405 0.32138482 0.04226491
0.007060745 0.020488122 -0.21780339 0.14250258 0.29099187 -0.08142234 0.06393957 0.093905166
-0.104355745 0.056276187 -0.04657656 -0.33324492 -0.077264294 0.03278388 0.45234483 -0.018941464
0.18607387 0.15088992 0.006331544 0.14554563 0.0092690205 -0.58843046 -0.14180504 -0.21512954
-0.051711828 -0.068448186 0.20921296 0.53220147 -0.11194556 0.067992374 -0.2154103 -0.24080367
-0.1257286 0.07775113 -0.06311416 0.14306562 0.009563992 -0.015896734 0.10464118 -0.17898065
0.0052142944 -0.042616338 -0.16964957 0.15168983 -0.023336593 0.21318896 0.18051848 -0.061358582
0.17545766 -0.15328833 0.175329 -0.08665698 0.010599273 -0.014883328 -0.024201363 -0.11269285
-0.23775178 0.01707042 -0.14079824 -0.26313734 -0.027312355 -0.053197563 -0.07698547 -0.060688023
-0.081830196 0.115911804 0.11846868 0.052299496 0.12614836 -0.17424978 -0.122903004 0.052221656
-0.19564271 0.13914086 -0.10990208 0.14269623 -0.2122978 -0.018459676 -0.20017144 -0.13192293
-0.011788017 -0.1159905 -0.024194371 0.12761553 -0.17604284 0.093288824 -0.06682582 -0.0611634
-0.24452734 -0.0020875605 0.06838758 0.0064300206 -0.027426945 -0.0981804 0.048210774 0.019111354
0.26342052 0.020045748 -0.06627786 0.024097493 0.17195973 -0.123723805 -0.12100151 0.120409995
-0.056682993 0.49387303 -0.1535998 0.12734279 0.04130293 0.017847756 0.06680246 0.23005532
-0.067380816 -0.21282361 0.14512871 -0.0864327 0.032111946 -0.1982112 0.12089404 -0.07381556
-0.06551147 0.31348532 -0.13324143 0.20599183 0.09237602 -0.1799628 0.0049462956 -0.012719219
0.12050302 -0.10269548 -0.042393424 0.43510723 0.05439111 0.10546745 0.08257145 -0.114366785
0.15059638 0.05663815 -0.15739544 0.34131184 0.027338121 0.110906996 0.18853085 0.07995421
0.07335255 0.10688252 0.22286528 0.14777498 0.0072815465 0.21667115 0.19120447 0.05641395
0.23730075 -0.1134438 0.12995495 0.25754675 0.067660205 0.05007892 -0.13400395 0.34306788
00000000: 2645 1c3d 4865 28bd b2f6 7d3b e48d d6bc
00000010: ac55 9bbd 9d6b 06be 63cc 10be 3f2b 343e
00000020: a02a e7bd 6daa 003f 4873 0a3d a2c6 413e
00000030: 3f46 733c b05e 853d 5473 e83d 40ff 263e
00000040: 718a e9bc d8f2 bcbb f0bd 7ebc c9ed 0abe
00000050: a0f7 d8bd 9cc7 59be 0187 8e3d b2b2 12bc
00000060: 75c0 24bc 1f9a a63e 6560 51bd 778a 6c3e
00000070: 21c4 6abd 8ea3 61be 59b1 f23d bea4 f4bd
00000080: 1378 893d a0c0 0fbe f6a0 c63d 5fa6 9e3e
00000090: d0c7 913d 9a9b c63b 8e66 1abe 13eb df3d
000000a0: 42dc 343e 402d 063e f25b ab3d e5df ec3e
000000b0: f724 fe3b 30f6 b63d e8b8 5b3e 7fd6 0a3e
000000c0: cdc1 1b3e 9a84 1b3e 314a 943e b380 f53d
000000d0: 1828 1abd f5a0 b03e 18b4 8b3e d3fb 853c
000000e0: 6eeb 8a3e 29d7 433c 8340 adbc 56d6 9bbd
000000f0: e8f9 85bc 07a0 a83c 542b 6cbe 8a03 ea3e
00000100: d1fe 343d c05b 7d3c 2620 38be 2ffb cd3d
00000110: 4e40 1d3d 3f42 f73d 631a 4bbc ca29 12be
00000120: e1ec 1bbe 83e2 6cbd 1882 3cbe 5fd6 00be
00000130: 9a38 33bd fc4e e5bd 38fb 8dbd 3eb7 6a3e
00000140: 07d3 ba3d 086d 74bd 9153 e4bd 1c40 e9bd
00000150: a3be 0dbe b6b0 5fbe 58c1 e43c d7f3 82be
00000160: 53a9 d0bd c01e 7bbd 1d72 55be e84f 05be
00000170: cb2d 0dbe b775 50be 8d8c a43e f81d 2d3d
00000180: d25d e73b b5d6 a73c da07 5fbe 32ec 113e
00000190: e3fc 943e c1c0 a6bd c0f2 823d 5a51 c03d
000001a0: 77b8 d5bd dc81 663d 10c7 3ebd 149f aabe
000001b0: be3c 9ebd 6448 063d be99 e73e 212b 9bbc
000001c0: 268a 3e3e e382 1a3e d778 cf3b ea09 153e
000001d0: 17dd 173c 61a3 16bf 5735 11be eb4a 5cbe
000001e0: c8cf 53bd 902e 8cbd ec3b 563e 5b3e 083f
000001f0: b743 e5bd 963f 8b3d 8594 5cbe 3d95 76be
00000200: 00bf 00be fc3b 9f3d ff41 81bd cb7f 123e
00000210: 4ab2 1c3c de39 82bc 1d4e d63d b446 37be
00000220: acdc aa3b 788e 2ebd 9eb8 2dbe 9454 1b3e
00000230: 622c bfbc 354e 5a3e d6d9 383e 2353 7bbd
00000240: 2cab 333e 9ef7 1cbe 7289 333e 3779 b1bd
00000250: 93a8 2d3c 34d9 73bc f041 c6bc 82cb e6bd
00000260: 3475 73be 44d7 8b3c 6a2d 10be f0b9 86be
00000270: 29be dfbc b0e5 59bd 8faa 9dbd 0194 78bd
00000280: 9796 a7bd 2b63 ed3d b59f f23d ff37 563d
00000290: 092d 013e 896e 32be 92b4 fbbd 60e6 553d
000002a0: 9056 48be f17a 0e3e 5714 e1bd f61e 123e
000002b0: 9864 59be bf38 97bc bef9 4cbe ce16 07be
000002c0: 8722 41bc 6d8c edbd 4633 c6bc a5ad 023e
000002d0: 9344 34be 360e bf3d fadb 88bd 7986 7abd
000002e0: 6065 7abe 74cf 08bb ca0e 8c3d ecb2 d23b
000002f0: 79ae e0bc ce12 c9bd a978 453d 6a8f 9c3c
00000300: 0edf 863e fb36 a43c b0bc 87bd 1b68 c53c
00000310: 3616 303e e862 fdbd a4cf f7bd 8499 f63d
00000320: 6d2c 68bd eddc fc3e 4449 1dbe 2666 023e
00000330: 432d 293d 7535 923c bacf 883d 9f93 6b3e
00000340: f4fe 89bd 6fee 59be 9f9c 143e a103 b1bd
00000350: d187 033d e0f7 4abe 4b97 f73d 9d2c 97bd
00000360: e12a 86bd 2681 a03e 7170 08be 86ef 523e
00000370: a42f bd3d 2b48 38be 8914 a23b 4564 50bc
00000380: 4aca f63d 0252 d2bd baa4 2dbd 60c6 de3e
00000390: 36c9 5e3d 52ff d73d 381b a93d 2239 eabd
000003a0: f035 1a3e 68fd 673d 452c 21be 6dc0 ae3e
000003b0: 32f4 df3c 3523 e33d 3b0e 413e 08bf a33d
000003c0: dd39 963d 39e5 da3d cc36 643e 5352 173e
000003d0: 0a9a ee3b 0bdf 5d3e 1bcb 433e 5012 673d
000003e0: f8fe 723e 3955 e8bd e912 053e 2bdd 833e
000003f0: 6f91 8a3d 8e1f 4d3d 5538 09be 98a6 af3e
