checkpoints/Tend_LSTM_L2_bs16_traindeg0_bsfirst_pos1_nofreq/Tend_LSTM_L2_bs16_epoch159_best2.6977017058266535.pt (torch, 205301 bytes, 9 tensors)

rnn.weight_ih_l0 f4 [256, 2]
000000 85 36 34 3e 42 c2 0a 00 61 e8 47 3e de d7 01 00
       0.17598923 9.88042e-40 0.1952224 1.69274e-40
000010 88 be 19 be cf 49 07 00 39 30 a7 3d 3e 21 0d 80
       -0.15014088 6.69326e-40 0.081634946 -1.205786e-39
000020 23 a4 39 3e 3c 60 0e 80 47 75 00 3f 9b 7c 0c 00
       0.1812902 -1.32022e-39 0.5017895 1.146726e-39
000030 dd 3a fb 3e 81 90 0f 00 44 ec c1 bd b9 5f 00 00
       0.49068347 1.42937e-39 -0.09468892 3.4339e-41
000040 d0 84 22 3e 73 07 10 00 50 46 5b 3d 52 e7 0c 00
       0.15870976 1.47204e-39 0.053533852 1.185008e-39
000050 ed f7 0a 3d 1e af 08 80 30 05 1b be e9 e8 0b 00
       0.033927847 -7.97504e-40 -0.15138698 1.093743e-39
000060 28 23 3f 3e 00 fe 0a 00 6a 43 76 be d6 03 00 80
       0.18665755 1.009473e-39 -0.24049154 -1.376e-42
000070 7e de d2 bd 1a 6d 0f 00 cc d2 5b 3e 10 e0 09 80
       -0.10296343 1.416671e-39 0.21467131 -9.06898e-40
000080 02 09 4e be f4 1d 01 80 3b 3e 08 3f 86 e8 00 80
       -0.20120624 -1.0258e-40 0.53219956 -8.3414e-41
000090 16 bd a6 bd da ba 00 00 20 e7 90 bd e8 15 0f 00
       -0.08141534 6.703e-41 -0.070753336 1.385391e-39
0000a0 d5 69 93 3e 64 75 0f 00 bf 40 ac 3e 99 9b 06 00
       0.2879168 1.419644e-39 0.33643147 6.06831e-40
0000b0 a1 31 80 3d cd 65 08 00 ac 5b a1 be c3 b9 04 80
       0.06259466 7.71203e-40 -0.31515253 -4.33981e-40
0000c0 b5 53 57 be 17 a7 13 80 02 bd dd bc f5 6e 0a 80
       -0.21028025 -1.804815e-39 -0.027067665 -9.58159e-40
0000d0 3b 45 cf be ff 29 13 00 39 47 09 3f 28 37 04 00
       -0.40482506 1.75994e-39 0.536243 3.87128e-40
0000e0 80 ae 66 3e b8 e7 09 00 0d 47 cb 3e e7 2b 07 80
       0.22527504 9.09644e-40 0.39702645 -6.58598e-40
0000f0 7d 68 e5 3d 13 30 09 80 c3 02 8a 3e 28 33 0c 00
       0.1120157 -8.43765e-40 0.26955232 1.120377e-39
000100 13 12 40 3f 89 e5 0a 80 d6 3c 19 3e d9 ae 10 80
       0.7502758 -1.000697e-39 0.14964613 -1.532091e-39
000110 97 ca 69 3e 4d 0b 00 80 f5 83 5d bc 47 c6 08 00
       0.22831188 -4.054e-42 -0.013520231 8.05812e-40
000120 c6 84 95 3e db db 12 80 d0 41 1b 3f d2 16 07 80
       0.2920286 -1.731908e-39 0.60647297 -6.51035e-40
000130 e6 42 e8 3e c1 52 0a 80 63 bb 92 bc e8 5c 05 80
       0.4536354 -9.48041e-40 -0.017911619 -4.92506e-40
000140 8a 61 0d 3d 00 8e 04 80 fc f1 6e be bc ba 04 00
       0.03451685 -4.18282e-40 -0.23334497 4.3433e-40
000150 0f 8d 9d 3e 11 e5 12 00 38 dc b1 3e 78 7c 0f 00
       0.30771682 1.735212e-39 0.34738326 1.422183e-39
000160 41 10 4e bd 58 9f 04 80 11 37 f0 3c c3 9f 0c 80
       -0.05030847 -4.24504e-40 0.029323133 -1.159338e-39
000170 81 a8 0e 3e 21 59 0c 00 30 a2 8f 3e c9 64 15 80
       0.13931467 1.134e-39 0.28053427 -1.9647e-39
000180 06 25 b6 3e 73 35 10 00 5d 59 60 3d d2 91 0e 80
       0.35575122 1.488542e-39 0.054772723 -1.338007e-39
000190 63 cd 8c 3e dd 4d 09 80 b4 ad aa 3d cf 35 0d 80
       0.27500448 -8.54452e-40 0.083339125 -1.213164e-39
0001a0 43 c9 38 3e e4 24 0d 00 13 86 1c 3e 91 0e 03 80
       0.18045525 1.207095e-39 0.1528552 -2.80732e-40
0001b0 d4 4f 71 3e d5 96 0d 80 0f 4a cf 3d 03 47 0b 00
       0.23565608 -1.24797e-39 0.101215474 1.035665e-39
0001c0 d7 68 a0 3e c5 39 03 00 5c 79 73 3e 1f 95 01 00
       0.31329986 2.9623e-40 0.23776764 1.4533e-40
0001d0 54 48 0b bf 8c 5c 0f 00 e8 26 38 be 60 85 07 80
       -0.5440724 1.410732e-39 -0.17983592 -6.90694e-40
0001e0 1d 28 db 3d d2 ab 0b 80 b6 39 b2 bc 84 83 01 80
       0.107010104 -1.071828e-39 -0.021756034 -1.39014e-40
0001f0 ea 6a 12 3f 7e 7b 08 00 ff 24 b7 bb a9 08 0f 80
       0.5719439 7.78985e-40 -0.005589127 -1.380639e-39
000200 92 b5 a7 3e ad 4c 07 00 f9 58 b0 bd 40 0c 0b 00
       0.32755715 6.70355e-40 -0.0861072 1.014585e-39
000210 56 17 35 3e 25 40 06 00 66 6f 4f bd 54 7e 08 00
       0.17684683 5.74024e-40 -0.050643347 7.80002e-40
000220 42 66 98 3d b4 83 04 00 b2 de ea bd cf ab 01 80
       0.07441379 4.14588e-40 -0.11468257 -1.53469e-40
000230 b9 45 b3 bd f4 25 10 00 31 fa ba be 38 1c 02 00
       -0.08753533 1.482983e-39 -0.36519006 1.93794e-40
000240 49 28 67 be 4c c4 0f 00 fc 28 ad be 57 3c 14 00
       -0.22573961 1.44795e-39 -0.3382033 1.858356e-39
000250 4b 1f 12 3e 61 bf 12 00 a7 36 a1 be aa ad 0b 80
       0.1426975 1.721693e-39 -0.3148701 -1.07249e-39
000260 16 cf bc ba 13 44 02 00 df e7 03 bf 50 9f 00 80
       -0.0014404978 2.08091e-40 -0.5152568 -5.715e-41
000270 c1 d9 02 bf 42 fe 06 80 93 a9 b6 3d 2d c0 0b 00
       -0.51113516 -6.42223e-40 0.089190625 1.07913e-39
000280 6a b5 a5 be 12 e2 04 80 d3 7b 04 3e a8 1f 05 80
       -0.3236497 -4.48441e-40 0.1293786 -4.70534e-40
000290 3a 17 16 bf f0 f4 0e 00 01 8a 21 bf 66 bd 0b 80
       -0.5862919 1.373564e-39 -0.631012 -1.078134e-39
0002a0 83 f8 3f be f1 98 0a 00 85 f5 73 3d 3b da 03 00
       -0.18747143 9.7322e-40 0.059560318 3.53793e-40
0002b0 6d 5d 43 be c2 1e 07 80 8a ec 7a be 94 be 02 80
       -0.19078608 -6.53882e-40 -0.24504295 -2.52038e-40
0002c0 d6 6a 4b be 9b c8 0d 80 5b 59 5f be 3f 97 05 80
       -0.19864973 -1.265825e-39 -0.2181143 -5.13434e-40
0002d0 4d 1b b8 be 97 2f 01 00 88 48 cd be 7a 33 10 80
       -0.3595833 1.08908e-40 -0.400944 -1.487834e-39
0002e0 cc ac a1 be 2a 7c 02 80 3c 19 80 be 0f 37 05 80
       -0.31577146 -2.28213e-40 -0.25019252 -4.78929e-40
0002f0 11 6f 09 be 1c 91 03 00 86 04 f0 bc fd 72 01 00
       -0.13421275 3.27562e-40 -0.029299032 1.33086e-40
000300 42 ac 87 bd 42 bc 01 00 77 6a b8 3d 0d e2 09 00
       -0.066246524 1.5937e-40 0.090046816 9.07611e-40
000310 25 d6 97 3d 85 2d 0e 00 1c 67 3f be 1a 2a 06 80
       0.07413892 1.302026e-39 -0.18691677 -5.66116e-40
000320 e5 e7 16 be 4f fc 02 80 37 21 3b 39 93 fa 0c 80
       -0.14736898 -2.74182e-40 0.00017846083 -1.191915e-39
000330 19 d5 2e 3e fe ca 10 00 ce 0c ec bd d2 58 05 00
       0.17073478 1.542188e-39 -0.1152588 4.9104e-40
000340 ca 40 9f 3e c8 45 02 80 34 cd b4 be 44 c0 0d 00
       0.31104118 -2.08704e-40 -0.35312808 1.262833e-39
000350 af bb 82 be e1 f3 0d 80 36 95 c1 3d 6b 4e 05 00
       -0.25533816 -1.281349e-39 0.09452288 4.87309e-40
000360 4b b4 67 be 56 52 0d 00 68 7f 64 bd bd e8 08 00
       -0.2262737 1.223398e-39 -0.055785567 8.18175e-40
000370 17 c5 57 be bf e0 0d 80 cc a0 0b bd 77 f7 0c 80
       -0.21071278 -1.274485e-39 -0.034088895 -1.1908e-39
000380 95 da a0 bd cb f9 00 80 f9 b4 57 3e 1d 89 0b 80
       -0.07854191 -8.9609e-41 0.2106513 -1.059377e-39
000390 d0 a4 8b 3e 25 a6 03 00 b3 a8 ef bc a3 a5 05 00
       0.2727418 3.35108e-40 -0.029255247 5.18597e-40
0003a0 fa 40 75 3e 1f 78 0c 80 e3 e7 d2 3d 3c 5b 08 80
       0.23950568 -1.145117e-39 0.10298135 -7.67413e-40
0003b0 2d 3a f6 bd ff f8 07 80 09 b1 96 3e df 02 02 80
       -0.12022815 -7.32171e-40 0.29431942 -1.84701e-40
0003c0 b8 08 73 be e2 6e 07 80 84 05 04 bd 94 d4 0e 80
       -0.23733795 -6.82626e-40 -0.032231823 -1.361956e-39
0003d0 ee 16 9c be 8e ca 06 00 24 5e d3 be be 92 12 80
       -0.30486244 6.23676e-40 -0.4128276 -1.70568e-39
0003e0 11 4a b1 bc 1d 13 06 80 ff 92 75 be 93 a8 0b 80
       -0.021641763 -5.5787e-40 -0.23981856 -1.070663e-39
0003f0 7a 41 66 bc ee c9 11 00 9c aa 32 3c bb a0 04 00
       -0.014053697 1.633642e-39 0.010904934 4.25001e-40

rnn.weight_hh_l0 f4 [256, 64]
000000 67 ae 57 3c 83 cc 02 be 00 0e 4c 3e f9 55 90 bd
       0.013164139 -0.12773328 0.19927216 -0.07047648
000010 bc 36 aa bd 20 ad 24 3e d4 11 ac 3d 59 4f 44 3c
       -0.08311221 0.16081667 0.08401838 0.011981809
000020 e6 67 b8 bc 4c 96 34 bd 88 e6 98 3b da 43 b2 3c
       -0.02251048 -0.044088647 0.0046661533 0.02176087
000030 b8 15 f8 bd 4c 3e 5f be 51 28 29 be 4e 73 91 3d
       -0.121135175 -0.21801108 -0.16519286 0.07102071
000040 60 24 9b bc f2 0d 80 be 66 52 23 3e 91 ef 8c 3d
       -0.018938243 -0.2501064 0.15949401 0.06881631
000050 02 7d 45 bd 17 52 a3 ba 73 23 9e bd 16 04 0c be
       -0.04821492 -0.0012460378 -0.07721605 -0.13673434
000060 5d 84 9d bc bb b1 d6 bd ff 48 04 bd 4f 7c 14 3e
       -0.019228155 -0.10483118 -0.032296177 0.14500545
000070 3b 9e 50 bd f1 7f 06 be f7 f0 52 be f8 2b 95 3d
       -0.05093215 -0.13134743 -0.20599733 0.07283777
000080 c0 58 99 3d 0a da 3a bd 73 22 d0 3d fd d8 8d 3d
       0.07487631 -0.045618095 0.10162821 0.06926153
000090 1d b8 b7 be 5c 28 88 bc f1 c0 9b 3d 64 85 88 be
       -0.35882655 -0.016620807 0.0760516 -0.2666427
0000a0 00 cc 3f be f7 65 1c 3d fa aa 97 be f4 06 7a be
       -0.18730164 0.03818318 -0.29622632 -0.24416715
0000b0 1a 8a c3 3d 3f 96 ef bd ad 51 f2 3c b1 72 0a 3e
       0.09547825 -0.11698579 0.029579962 0.13520314
0000c0 3c 40 a0 3b 18 25 02 3e a7 24 99 3d 26 51 76 bd
       0.00489047 0.12709463 0.07477694 -0.060135983
0000d0 d6 5d 0e be f9 f7 f6 3d bc 36 31 be 0c b0 18 be
       -0.13902983 0.12059016 -0.17306036 -0.14910907
0000e0 39 e8 c0 3c 5c d7 64 3d 12 3d 8a 3d 30 0e 99 bd
       0.023548232 0.055869445 0.067499295 -0.07473409
0000f0 b9 3d 8a be d5 6c ac bd 49 39 60 be 28 c3 98 bc
       -0.27000216 -0.084191956 -0.21896853 -0.018647745
000100 30 be 6a 3e ba 02 81 bc 99 2a dc 3d af 22 81 be
       0.22924113 -0.01574837 0.10750312 -0.25221774
000110 5a b9 8a 3e 4c 15 89 3d 77 95 0b 3e 87 32 d8 3c
       0.27094537 0.06693515 0.13631235 0.02639128
000120 a0 99 58 be a4 29 55 be 22 c5 50 be 7b 1a 8e be
       -0.21152353 -0.20816666 -0.203877 -0.27754578
000130 96 5a 35 bd 43 4b 26 3e 4a 00 6a be 4f 28 b0 bd
       -0.044275843 0.16239648 -0.22851673 -0.08601438
000140 8b 3b ad 3e 77 55 0f be 1d 0e 0c 3e a8 c4 49 3e
       0.3383449 -0.13997446 0.13677259 0.19703925
000150 3c 7b 01 be c6 94 5a be ec b4 ac bd b4 17 41 3e
       -0.12644666 -0.21345815 -0.084329456 0.18856698
000160 09 9a fd 3d 43 68 8c 3e 16 72 e7 3d 7b 8d 92 be
       0.123828955 0.27423295 0.11301057 -0.28623566
000170 89 e4 ba bc c5 e4 bc bd be 53 e1 3e f8 87 39 3e
       -0.022814052 -0.09223322 0.44009203 0.18118274
000180 0f c0 87 3e f5 b6 64 be a5 86 5e 3b b8 36 30 3e
       0.26513717 -0.22335418 0.0033954766 0.17208374
000190 0b f5 00 bd 7d 7b 30 3e 27 b5 40 3e ff 3e 1e 3e
       -0.03148369 0.17234607 0.18819104 0.15453719
0001a0 70 13 5c 3d a7 c9 19 be ea 48 04 3e 2b c0 ba b9
       0.053729475 -0.1501833 0.1291844 -0.0003561986
0001b0 25 6b 2e bb d2 c9 0c be 6d 26 36 be bf 77 ea 3d
       -0.0026614156 -0.13748863 -0.17788096 0.11448621
0001c0 08 b0 e9 bc 75 dc 2f 3e 12 da b6 3d 20 e0 6a 3e
       -0.028526321 0.17173941 0.08928312 0.2293706
0001d0 35 4a 29 be 36 0f a4 3e 81 66 15 3f dc cb 61 be
       -0.16532214 0.32042855 0.58359534 -0.22050422
0001e0 96 e5 19 be 7f 7f 4e be 80 ea 88 3d e8 36 29 be
       -0.15028986 -0.20165823 0.06685352 -0.16524851
0001f0 f1 27 1e bd da 5e 03 bd 07 d6 f7 bd c9 08 ce bc
       -0.03861231 -0.03207288 -0.12101369 -0.025150673
000200 a1 c4 3b 3c 2e 76 f4 bd 2c f7 4d 3e 35 d6 40 3e
       0.011460454 -0.119366035 0.2011382 0.18831713
000210 6e b4 39 3e e7 6d 64 3e 80 ba 46 3d 17 d0 ba 3d
       0.18135235 0.2230755 0.048517704 0.09121721
000220 86 f3 f1 bc 6b 9a c2 bd 3d 45 84 bd fa 78 46 3d
       -0.029535066 -0.09502109 -0.06458519 0.048455216
000230 7d 1f d3 bd 1f b2 47 be a7 f7 84 be 4d 54 94 bd
       -0.1030874 -0.19501542 -0.25970194 -0.072426416
000240 1f 00 ff bb 82 19 3f bd 39 1b bc 3d 2c 9a 65 3d
       -0.007781997 -0.046655186 0.0918488 0.056055233
000250 26 90 24 be c6 6c 8e 3d 8b a2 54 bc 9e 94 e1 bd
       -0.16070613 0.06954341 -0.012978206 -0.110146746
000260 85 ce 21 3d 4d b0 c8 bd 3a c6 da 3d 20 ac 0a be
       0.039503593 -0.09799252 0.1068234 -0.13542223
000270 4e 31 78 bd c9 42 3c be c6 73 35 3e 03 3f 44 bb
       -0.060593896 -0.18384852 0.17719945 -0.0029944784
000280 e7 ee 06 3e 7d 26 58 bd 78 cf bc 3d ea ae 67 3c
       0.13177072 -0.05277108 0.09219259 0.014140824
000290 f0 de 2a be 02 31 fc bd 16 13 88 3e 2a 4f e4 bd
       -0.16686606 -0.12314035 0.2657706 -0.11147912
0002a0 5f 05 51 3d c3 e9 1f 3e 02 cc 64 bd 80 e2 22 be
       0.051030513 0.15616517 -0.05585862 -0.15906715
0002b0 70 c7 80 3d 0f 43 0c be 9b 20 99 3c 40 b6 bb 3d
       0.0628804 -0.13697456 0.018692305 0.09165621
0002c0 3e 99 95 bd d9 70 8e bd 18 b7 e5 3d 00 e5 c3 bd
       -0.07304619 -0.06955118 0.11216563 -0.09565163
0002d0 eb 0d e4 bd 84 f4 68 3d d6 c0 35 3c d9 0d 17 be
       -0.11135467 0.056873813 0.011093339 -0.14751376
0002e0 d6 5d 77 3d c6 3d 29 bc 77 66 04 3e 4d e9 55 3d
       0.060392223 -0.010329669 0.12929712 0.052224446
0002f0 67 ef 0e be 38 c8 ff 3c 8b 13 98 be c2 d8 41 3d
       -0.13958512 0.031223401 -0.2970241 0.047325857
000300 a7 7b d2 bd 75 b9 dd bd 30 a3 a5 3d c9 01 56 bc
       -0.10277491 -0.10826389 0.08087766 -0.013061949
000310 8f 08 27 3e bf 16 3b bb 9c 0c d7 3d cc 4f 08 bc
       0.16311859 -0.0028547493 0.10500452 -0.008319806
000320 5b 41 4a 3d cd 5e 01 be ff bd 0d bc 6a 17 05 bd
       0.049378734 -0.1263382 -0.008651256 -0.032493033
000330 2f 6d 84 3c a2 78 e9 3b 0e 48 05 be 4c 81 93 bd
       0.016165344 0.0071249763 -0.13015768 -0.07202396
000340 b8 3c 46 3d e1 32 ed bd ea 18 c4 3d f8 c6 0f 3e
       0.04839775 -0.1158197 0.095750645 0.14040744
000350 a5 38 52 bd d3 29 cb 3d fd 0e d7 bd 25 ae a0 3c
       -0.05132355 0.09920087 -0.10500906 0.019614289
000360 27 39 ee 3c df 62 89 bd 00 e1 14 bc 49 fd c7 3d
       0.029079987 -0.06708311 -0.009086847 0.09765107
000370 4e f0 1c be c2 57 68 bd 32 01 e6 3d c6 4c 73 3d
       -0.15326044 -0.056724317 0.11230697 0.05939939
000380 f2 64 bb 3e ce f9 fa bd d4 0b 0d 3e 81 11 c6 bc
       0.36600453 -0.12254678 0.13774043 -0.024178268
000390 01 6e 18 be 29 de 80 3d e4 40 29 3e 53 1b c0 3b
       -0.14885713 0.06292374 0.1652866 0.0058626323
0003a0 b8 d4 09 bd 95 99 07 bc 63 0b 41 bd 8c 22 33 bd
       -0.03365013 -0.008276363 -0.04713 -0.04373412
0003b0 e7 92 a3 bb 0a 71 21 3c c2 ee b1 bd 72 60 26 3e
       -0.0049918774 0.009853611 -0.086881176 0.16247728
0003c0 d5 b2 98 bd 76 33 b8 bd 76 7d f7 bc cc b7 34 3d
       -0.074559845 -0.089941904 -0.030211192 0.044120595
0003d0 3c ff 00 bc a6 91 07 3d 10 10 72 3d 1d fe 10 bc
       -0.007873353 0.033097886 0.05909735 -0.008849648
0003e0 08 fb 07 bd 90 26 d6 bd e2 3c 4c bb 61 92 3d 3d
       -0.033198386 -0.10456574 -0.0031164219 0.046282176
0003f0 77 cd 86 bc 4d 9f d8 3d 0d c5 53 be e6 52 c2 3c
       -0.016455395 0.10577259 -0.20680638 0.02372117

rnn.bias_ih_l0 f4 [256]
000000 de 2b b2 3c 10 20 55 3e 4a 30 2f be 24 94 36 be
       0.021749433 0.20813012 -0.17108265 -0.17829949
000010 e0 90 73 3e 95 8f 9b 3e 3a 8e e8 3e 78 5f 77 be
       0.23785734 0.30382982 0.4542101 -0.24157512
000020 75 8f 9a bd 18 49 8f 3e fe b8 71 bd 52 85 be be
       -0.075468935 0.27985454 -0.059014313 -0.3721109
000030 83 41 f0 3d 35 9d a9 be 0e 11 80 3d 0e 7a a1 3b
       0.11731245 -0.33127752 0.06253253 0.00492788
000040 78 39 08 be 26 48 37 3f 3a 78 0c be fe 36 5a 3e
       -0.13303173 0.71594465 -0.13717738 0.2131004
000050 fa 4e b1 3e c8 6d 93 3e 38 59 1f 3e 84 b0 f0 bc
       0.34630567 0.28794694 0.15561378 -0.029381044
000060 82 a4 e1 bd b9 ae 09 3d 51 70 3a bf 9f 5e 83 3e
       -0.110177055 0.033613894 -0.7282763 0.25658128
000070 61 50 69 3e 7b 1e 0a 3e 9e 34 ac 3d e7 a5 fb 3d
       0.22784568 0.1348819 0.084084734 0.12287503
000080 65 3b 88 3f de 1c a0 3e ac b1 df 3e 4a c0 1d be
       1.0643126 0.31272024 0.4369024 -0.15405384
000090 8b 5f 8e 3e d0 bc 05 3f 6f a8 8a 3e 31 97 96 3e
       0.27807269 0.5224123 0.2708163 0.29412225
0000a0 76 e3 12 3d f9 0a eb be 89 aa ef 3d b7 06 15 3f
       0.035861455 -0.4590681 0.11702449 0.5821337
0000b0 3b 83 e5 bd fd 89 fe bd 21 ed 91 bd d0 d5 85 3e
       -0.11206671 -0.12428663 -0.07125307 0.26139688
0000c0 55 55 cb 3e 32 24 1e bd de a6 9b 3d 9a 5a d2 bd
       0.3971354 -0.038608737 0.07600187 -0.10271187
0000d0 b6 bf 2d 3e 7e f5 35 3d 5a 01 56 3e ab 2a d8 3d
       0.16967663 0.044423573 0.20898953 0.10555013
0000e0 aa ae 75 3e 73 87 2a 3c a3 eb 6b bf 38 c5 84 3e
       0.2399241 0.01040827 -0.9215643 0.25931716
0000f0 d7 98 85 3e 70 1f 0f bd bc 77 fa 3e a5 4b 62 3b
       0.2609317 -0.03494209 0.48919475 0.003452995
000100 20 8f 2f 3e 78 d1 87 be 79 3d 02 be f8 b0 86 be
       0.17144442 -0.26527 -0.12718762 -0.2630689
000110 9b 29 9b be 8f f3 97 be de f7 57 be 63 e4 f7 be
       -0.3030518 -0.29678008 -0.21090648 -0.48416433
000120 cf c2 e9 be af 39 be be fb bb cf bc f4 48 50 be
       -0.4565644 -0.37153384 -0.02535819 -0.2034033
000130 d1 11 82 be f2 84 6d be c1 ea ea be f4 c3 c8 bd
       -0.25404218 -0.23195246 -0.45882228 -0.09803
000140 c2 38 b3 be 80 d3 00 be 4a ca 50 bf e6 67 52 bf
       -0.3500424 -0.12580681 -0.8155867 -0.82189786
000150 6f 8d b4 be 5c 17 8b be 55 7e e5 be cc 69 f0 be
       -0.35264155 -0.2716626 -0.44822946 -0.46955717
000160 22 55 bf be 09 34 33 be 8f 48 1d bf 6e 1e 14 bf
       -0.3736964 -0.17500319 -0.6143884 -0.5785893
000170 19 99 5b be b9 50 cc be ac 20 b7 bd 23 6f 62 be
       -0.21445121 -0.39905336 -0.089417785 -0.22112708
000180 8b ca fa 3d 37 2b 41 be 4c 6e 3d be f9 0b a3 be
       0.12245663 -0.18864141 -0.18499106 -0.31845072
000190 bd c7 2c be 11 92 66 bc 66 ae 65 be ca dc 6f be
       -0.16873069 -0.014072911 -0.22429809 -0.23424068
0001a0 39 0b 53 3e 57 0c 63 be fa fd 4d be 04 cd 17 be
       0.2060975 -0.22172676 -0.20116416 -0.14824301
0001b0 ed 0a e3 be 19 0f 65 be 85 f5 d0 be 0d fe 7d be
       -0.44344273 -0.2236904 -0.40812317 -0.24803944
0001c0 41 90 b2 be 22 c8 8c 3d c1 07 bb 3d c4 8f 32 be
       -0.34875682 0.0687411 0.09132338 -0.17437655
0001d0 52 32 44 be 78 44 01 3e b9 9e 29 3e 4a 97 a4 3e
       -0.1915982 0.12623775 0.16564454 0.32146674
0001e0 b0 eb 72 be 6a d8 96 be 5c d7 fb be 22 e9 81 be
       -0.2372272 -0.29461986 -0.49187744 -0.2537318
0001f0 a5 c9 c0 ba 2b ae ad be 97 c8 25 be 74 6a 84 be
       -0.0014708532 -0.33921942 -0.161898 -0.25862467
000200 9b d4 6c bc 6f 66 53 3c 79 1c 1e bd a5 68 ff bc
       -0.014454986 0.01290284 -0.038601372 -0.031177828
000210 3c de 0c be ad 8f 69 bd 57 c4 bf bd 50 27 a2 3d
       -0.1375665 -0.057021786 -0.09363621 0.079176545
000220 e9 b8 8b bd a0 d6 a2 3d d9 17 67 3d 8c 91 12 3d
       -0.06822378 0.07951093 0.056419227 0.035783336
000230 20 c1 7c 3d 46 eb 48 3c 63 05 97 3d 5c b1 a8 3d
       0.061707616 0.012263125 0.07374074 0.082369536
000240 85 6d d5 3d 09 ca 83 3d bb be ae bd 6c 7e f5 bd
       0.1042128 0.064350195 -0.08532473 -0.11987004
000250 9d 1b 27 3e ab fb 5e 3d b3 78 16 3d 37 f3 cb 3c
       0.16319127 0.054439228 0.0367362 0.024896247
000260 5e f8 38 3d 78 d3 23 3e 8b 6b 5d 3d 1c 28 a3 3a
       0.045158736 0.15998638 0.05405764 0.0012447867
000270 bb c6 2e 3e 7a 7a 84 bd 38 c3 8e 3d 05 2e 11 be
       0.17067997 -0.06468673 0.06970829 -0.14177711
000280 91 ae ff bd e5 35 13 3e 0f f7 0d be 08 8f a0 bc
       -0.12484468 0.14376028 -0.13863777 -0.019599453
000290 55 e6 8d 3c 5a 6e 6e bd d7 f8 2b be 3f 83 3e 3e
       0.017321745 -0.05821071 -0.16794144 0.18604754
0002a0 ce c2 fe 3d a0 8e 37 bc 25 3e 56 3c 18 cd 0e 3d
       0.124395 -0.011203438 0.01307634 0.03486356
0002b0 15 88 be bb 8e 55 a8 3d b7 96 be 3d e7 c3 07 bd
       -0.005814562 0.08219443 0.0930609 -0.03314581
0002c0 b2 b6 21 3e ff d7 a6 bd f8 6b 8b 3c 1e 36 09 bc
       0.15792349 -0.08146667 0.017019257 -0.008374719
0002d0 a8 27 1b 3e 44 fd 3d bc 37 c3 31 3d 2a c7 00 3e
       0.15151846 -0.011596028 0.043399062 0.12575975
0002e0 d9 97 7b 3d 5b 53 1c 3e 1d 8e ef 3c 92 e9 09 be
       0.06142411 0.15266173 0.02924257 -0.13468006
0002f0 ed 0f 31 3e 8b a8 ab bd 95 7b 02 3e 02 62 03 3d
       0.17291231 -0.083817564 0.12742455 0.03207589
000300 d9 50 30 be b7 2c 9d 3d 5c 08 9b bc 2b 42 99 bc
       -0.17218341 0.07674544 -0.018924884 -0.01870831
000310 1d b2 ac 3e 84 8a a7 3e 90 4a af 3e c6 3e d9 bd
       0.3372964 0.32722867 0.34236574 -0.10607676
000320 11 d5 c5 bd 31 00 2b 3e 9b 99 64 be ef 5b 29 be
       -0.0965978 0.16699292 -0.22324221 -0.16538976
000330 d6 71 47 3e 79 ad d5 be 3d 6c 0b 3d e7 5e ad 3d
       0.19477019 -0.41733912 0.03403877 0.08465367
000340 e5 ff 88 3b e9 92 38 3f 57 be c7 bc 03 a3 51 3e
       0.0041808956 0.7209917 -0.024382753 0.2047234
000350 58 b0 89 3e 3c 81 ac 3e 14 ec e9 3d fd 88 7e be
       0.26892352 0.33692348 0.114219815 -0.24856944
000360 04 e9 18 be d2 55 14 3e 1d 2a 18 bf fe d3 f5 3d
       -0.14932638 0.14485863 -0.5943926 0.12003325
000370 e9 ef 7f 3e ef 97 44 3e 97 05 5c 3e 7b fa 0c 3c
       0.24993862 0.19198583 0.21486507 0.008604641
000380 b8 75 92 3f 69 b6 a6 3e 5d 82 91 3e 98 f1 85 be
       1.1442175 0.32561043 0.28419772 -0.26160884
000390 8d 00 5a 3e 86 cc 32 3f 91 1b af 3e 5f c2 87 3e
       0.21289273 0.6984333 0.3420072 0.2651548
0003a0 31 ea ce 3d db fb ee be 38 58 53 3e 4c c4 07 3f
       0.10103262 -0.46676525 0.20639122 0.530339
0003b0 2c b9 bd bd b1 06 92 bd 55 e6 8a bd 33 70 da 3e
       -0.09263834 -0.071301825 -0.067822136 0.42663726
0003c0 2d 8d ea 3e 5f 7e 4f 3c 5e 60 41 bd 5a 3d 31 be
       0.45810834 0.012664407 -0.047211044 -0.1730856
0003d0 81 2e 2b 3e 3b 4d 8c bd b1 74 67 3e 32 da 2a 3e
       0.16716959 -0.06850668 0.22603108 0.16684797
0003e0 5b c9 14 3e 16 9c 44 bd e1 eb 52 bf 1a 25 66 3e
       0.14529936 -0.048000418 -0.8239117 0.2247509
0003f0 d3 45 d6 3e 86 40 0e be 76 41 23 3f 87 62 77 3c
       0.41850147 -0.13891801 0.6377176 0.015099174

rnn.bias_hh_l0 f4 [256]
000000 0e 0d a3 bd 36 03 8a 3e 98 bb 73 3c f1 fa 68 39
       -0.07961474 0.26955575 0.014876269 0.00022218727
000010 46 77 21 3e 21 5d 95 3e 56 61 f4 3e 1c 25 72 bd
       0.15768155 0.29172614 0.4773051 -0.05911742
000020 49 49 87 3d 26 c1 26 3e 2f 6f b3 bd bb 65 4c be
       0.06605775 0.16284618 -0.08761441 -0.19960682
000030 ec b3 50 3e c8 81 b5 be c1 55 af 3d 0d b0 b4 3d
       0.20381135 -0.35450578 0.08561278 0.088226415
000040 45 cc b1 bc 93 f3 49 3f d7 79 d4 bd 1d cd 77 3e
       -0.021703849 0.7888729 -0.103748016 0.24199338
000050 a4 72 a8 3e c7 27 a8 3e d3 81 09 3e ec 40 02 be
       0.32899964 0.32842848 0.1342843 -0.12720078
000060 06 d3 90 be 99 5b 9d 3d f2 5a 1b bf 9f 8f 4f 3e
       -0.28285998 0.076834865 -0.60685647 0.20269631
000070 15 7c b9 3d 3f 04 1c 3e 98 bd 08 3e 6b af fb 3d
       0.0905687 0.15235995 0.13353574 0.12289318
000080 af 6c 8f 3f 17 33 88 3e 0d 77 ca 3e 78 df a9 be
       1.1205043 0.26601478 0.39543954 -0.33178306
000090 03 f6 ac 3e 55 13 2a 3f f4 01 a9 3e 6b 7e d7 3e
       0.33781442 0.6643575 0.33009303 0.42088637
0000a0 8d cb 85 bd 04 b6 a2 be 20 16 87 3d 3f 39 11 3f
       -0.06532965 -0.31779492 0.06596017 0.56727976
0000b0 eb 1d 12 be 59 7b 31 bc e8 09 94 bb 54 4d a0 3e
       -0.14269225 -0.010832631 -0.0045177825 0.31308997
0000c0 19 73 9d 3e d2 82 fc bd 11 bb 29 3d 30 b8 30 be
       0.30751875 -0.123296395 0.041438166 -0.17257762
0000d0 27 d4 d8 3d 5b eb 8e 3c 57 25 80 3e 61 5c 03 3e
       0.1058734 0.01744621 0.25028488 0.12828209
0000e0 2a da a7 3e f3 09 38 3d dc 2b 6a bf 87 a7 0c 3e
       0.32783633 0.044931363 -0.91473174 0.13735782
0000f0 27 09 b5 3e 93 41 19 bd 1e 6b e7 3e ed 50 60 bd
       0.35358545 -0.037416052 0.4519891 -0.054764677
000100 f2 ab 81 bb ca 24 af be d0 99 6c be 56 33 93 be
       -0.003957265 -0.34207755 -0.2310555 -0.28750104
000110 96 c5 16 be 50 fe 96 be 27 51 83 be 9f 2e d7 be
       -0.1472381 -0.294909 -0.25647852 -0.42027757
000120 65 b8 b3 be ac 8c bd be f1 9b 3c bd d7 5e cd be
       -0.3510162 -0.37021387 -0.046047155 -0.4011142
000130 7f da 9f be 83 b4 7c be fc 6c 15 bf 51 d3 18 be
       -0.31221387 -0.24678235 -0.5836942 -0.14924361
000140 61 cc 98 be fe 0e 80 be 1b c3 42 bf 1d 58 26 bf
       -0.2984343 -0.25011438 -0.7607896 -0.649782
000150 bb 0e f3 be bf c1 0c be 6b 3f d1 be 0f e9 a0 be
       -0.47472176 -0.13745783 -0.40868697 -0.3142781
000160 ac ad e0 be 56 e7 1c be 6a f1 08 bf 9b a3 05 bf
       -0.438825 -0.15322623 -0.5349337 -0.5220277
000170 34 6d 97 be 96 8b 88 be f5 38 43 bc 7d 41 2b be
       -0.29575503 -0.26668996 -0.011915435 -0.167242
000180 0e aa d6 bc 11 0f bc be b2 93 12 be 23 3d c1 be
       -0.026204135 -0.36730245 -0.14314154 -0.37741956
000190 58 8f 05 be 5e e6 e8 3d ab 45 96 be b9 65 34 be
       -0.13042963 0.11372064 -0.29350027 -0.17616929
0001a0 1c e8 48 3d bc 60 a4 be 05 ad 12 be 87 84 41 be
       0.04904948 -0.32105052 -0.14323814 -0.18898211
0001b0 24 b3 b5 be df 7d 2d be 40 c7 b6 be 4a 87 59 be
       -0.35488236 -0.16942547 -0.3569889 -0.21243015
0001c0 39 72 d6 be 30 ca 14 bd 53 fa 1f 3d d8 a6 73 bd
       -0.4188402 -0.036325634 0.039057087 -0.059485286
0001d0 a3 1e b9 bd ef 36 36 bd a1 77 4b 3e f4 cf 51 3e
       -0.090390466 -0.044485983 0.19869854 0.20489484
0001e0 c6 91 5d be ac ea 8b be 4c 4d 13 bf 23 28 ad be
       -0.2163764 -0.27327478 -0.5753982 -0.33819684
0001f0 86 1e 6a be 97 3d f1 be 86 ee 1e be 99 3c c7 bd
       -0.22863206 -0.47117302 -0.15520677 -0.09728355
000200 9a 41 fb bc 98 e8 43 3e 1f 71 01 be 0e 02 25 3e
       -0.03067093 0.19131696 -0.12640809 0.16114065
000210 d8 e6 c1 bd 95 be 95 bd d8 1b 40 be a7 70 0f bd
       -0.09467858 -0.07311741 -0.18760622 -0.035019543
000220 63 01 a4 bc 9f 16 ea 3d d9 23 cd bb d1 b8 a9 bc
       -0.020020192 0.11430096 -0.006260377 -0.02071801
000230 1e da 5b 3c a7 54 a1 3c 15 23 12 3e 7d 35 44 3d
       0.013418702 0.019693686 0.14271195 0.047902573
000240 f2 3e 3d 3d 48 a1 64 3e 42 54 d3 bd c8 f3 ac bd
       0.046202607 0.22327149 -0.10318805 -0.08444935
000250 d4 27 0f 3e ba 47 dc 3d a5 5c 39 3e f1 33 74 3d
       0.13980037 0.10755868 0.18101747 0.059619848
000260 b1 23 9c bc e6 51 c8 bc 2d e1 ae bc de 54 d6 3b
       -0.019059988 -0.024453115 -0.021347607 0.0065408787
000270 a4 9b 58 3d 8a 0c dd bc 4d d6 ff 3d d9 aa 08 3d
       0.052882805 -0.026983518 0.124920465 0.033366058
000280 24 d4 1d be fc 55 de 3d 25 91 01 be b8 4e c5 3d
       -0.15412956 0.10856244 -0.12653024 0.09634155
000290 1c 6a 46 3e 5c 8e d8 bd e1 09 d5 bd 01 06 60 3d
       0.19376415 -0.10574028 -0.10402275 0.054693226
0002a0 e2 9c 97 bb ca 78 36 bd 99 f4 26 3e a8 e1 53 3e
       -0.004626856 -0.044548787 0.16304244 0.2069155
0002b0 53 28 86 3c 30 0f 96 3d ae 2a 62 3c d7 48 62 be
       0.01637665 0.073271155 0.013804121 -0.22098099
0002c0 2c b6 de 3d 98 8a 0d bd d7 bb e5 bd 40 2f 38 bd
       0.1087459 -0.034556 -0.11217468 -0.044966936
0002d0 7e aa 86 3d ad 50 d9 bd 5b 2e bb 3d a4 08 5d bd
       0.065754876 -0.10611091 0.09139701 -0.05396332
0002e0 bf b9 3d 3d 62 17 14 bd 46 25 16 bc e7 69 20 bc
       0.04631972 -0.036155112 -0.00916416 -0.009790874
0002f0 7d 69 64 3d f6 f3 cd bd 6f 51 bd 3d e0 64 1a be
       0.055764664 -0.100562975 0.09244048 -0.15077543
000300 ef 41 a2 bc 9e 1b a0 3e 5f d4 ec bd 29 d0 df bd
       -0.01980683 0.3127107 -0.11563944 -0.10928375
000310 99 d6 9b 3e 88 a7 70 3e 2a 2a 10 3f 7f 16 c0 bd
       0.30437163 0.23501408 0.5631434 -0.09379291
000320 0f 01 bf 3d 1a 5e 89 3e 38 6f 0f be f7 17 c3 be
       0.09326374 0.26829606 -0.1400727 -0.3810422
000330 09 62 32 3d f6 19 0b bf 49 52 08 3e bc 73 94 bc
       0.043550525 -0.5433649 0.1331264 -0.018121593
000340 3c ee f4 bc bb 25 24 3f f6 67 6f bd 85 b1 6b 3e
       -0.029898755 0.6412007 -0.058448754 0.23016937
000350 31 06 e6 3e 2a 37 0d 3e d0 c3 60 3e 24 72 6a be
       0.449266 0.13790575 0.21949697 -0.22895104
000360 d7 ba 82 be 28 fa 46 3e 15 75 33 bf f8 83 88 3e
       -0.25533172 0.19431365 -0.7010053 0.26663184
000370 8b a2 78 3e 65 31 15 3e 04 17 93 3e 7d d8 08 3e
       0.24280755 0.14569624 0.28728497 0.13363834
000380 bf a4 81 3f 49 4f c9 3e d4 b5 df 3e 10 e2 86 be
       1.0128402 0.39318302 0.4369341 -0.26344347
000390 45 75 d7 3e 7f 47 11 3f 97 d7 be 3e 44 e7 ac 3e
       0.42081657 0.5674972 0.37273857 0.33770192
0003a0 ba b6 c2 bd f7 97 7e be 65 08 8e 3e 80 86 ef 3e
       -0.095075086 -0.24862657 0.2774078 0.46782303
0003b0 c6 72 4b be 9e 6e 2a 3d e1 15 5e bb 71 0e a2 3e
       -0.19868001 0.0416094 -0.0033887553 0.31651643
0003c0 d6 35 a9 3e 66 28 7f 3d 7c 79 7c 3d ac 42 82 be
       0.33048886 0.062294386 0.061639294 -0.25441492
0003d0 ef bd 2e 3e df 10 06 be a8 3f 96 3d 12 bb 49 3d
       0.17064641 -0.13092373 0.0733636 0.04925067
0003e0 c7 50 a2 3e d5 63 00 3d 0f 86 65 bf 5f 9e d0 3d
       0.31702253 0.031345207 -0.8965768 0.10186457
0003f0 41 0b a6 3e 11 a5 21 be 6b 35 1d 3f 70 f3 1e be
       0.3243046 -0.15785624 0.61409634 -0.15522552

rnn.weight_ih_l1 f4 [256, 64]
000000 2f c8 c4 bd 38 87 ab bd 2e 61 4f be 86 32 03 3e
       -0.096084945 -0.083754 -0.20251915 0.12812242
000010 5f b1 f5 3d 67 a8 b8 3e 2c 74 8a 3f 16 b5 78 3e
       0.119967215 0.3606598 1.0816703 0.24287829
000020 9f 9a 43 bd 6d 9a 95 3d 69 e0 69 3e ab db 14 3d
       -0.04775488 0.07304845 0.22839512 0.036342304
000030 6d 32 40 be 19 36 03 3c ef d8 59 be a0 fe 68 3d
       -0.18769236 0.008008503 -0.2127416 0.056883454
000040 12 e0 c9 3e 74 79 28 bf 47 2d 28 3d 75 70 34 be
       0.39428765 -0.6581032 0.041058805 -0.17621024
000050 dd af f2 bc 93 2b 0c be 06 25 5a bd 92 d9 37 bd
       -0.029624874 -0.13688497 -0.053257965 -0.044885226
000060 1d 01 4a 3e ca 7f d5 be 14 49 c5 3c 75 96 f3 bd
       0.19726987 -0.41699058 0.024082698 -0.11893932
000070 d7 7d 24 bf 79 97 67 3e b9 a9 46 be 70 f6 06 bd
       -0.64254516 0.22616376 -0.19400682 -0.032949865
000080 f2 5a 86 3f 20 b3 3d bc 94 e2 32 3e 7f 65 58 3d
       1.0496504 -0.011578351 0.17469245 0.05283117
000090 45 ae 25 bf d9 54 29 3f d4 38 35 3f aa 4b 73 3e
       -0.6471904 0.6614509 0.7078984 0.23759332
0000a0 a2 05 c5 bd e2 f1 c4 bc fe fe 02 bf 61 78 d1 be
       -0.09620215 -0.02404112 -0.5117034 -0.40912154
0000b0 5a 85 a3 bd 39 b6 bb 3e b5 04 09 be 8c 38 f8 3d
       -0.07984419 0.36662462 -0.13380702 0.121201605
0000c0 f9 95 b1 be e4 f4 86 bd cc 86 91 bb 06 15 ac be
       -0.34684733 -0.06589678 -0.004441118 -0.3360979
0000d0 88 98 b4 3d c3 6b e4 bd 97 1f 83 3e 10 d6 5d 3e
       0.088181555 -0.111533664 0.2561004 0.2166369
0000e0 2e ab a0 be f5 9b 46 be e1 1e 6e 3d d5 dd 47 3d
       -0.313806 -0.1939543 0.058134917 0.04879554
0000f0 24 08 66 be 8e 1f ee bd 9b 71 73 bf 19 5f 10 3c
       -0.22464043 -0.11627112 -0.95095223 0.008811736
000100 45 75 7f be 37 2c 51 3e 42 03 95 bd 11 ad e8 3d
       -0.24947079 0.20427023 -0.07276012 0.11361135
000110 8c c6 3d be d4 cc 19 bd fe 98 27 bd 41 46 1f 3d
       -0.18532771 -0.037548855 -0.04091739 0.03888536
000120 68 d6 30 bb cc e2 86 3e 18 c7 13 3e 3f b0 3f 3e
       -0.0026983265 0.26344907 0.14431417 0.18719576
000130 15 45 59 3e fe 2a 44 3c c8 6f 53 3e 6a c8 4d 3e
       0.21217759 0.011973141 0.2064811 0.20095983
000140 08 3f bd 3c 5a e0 64 be c2 b9 8c be a1 3b b9 be
       0.023101345 -0.22351208 -0.27485472 -0.36178306
000150 7b e1 d2 3d 66 b7 cf 3d 3b 9c 58 3d fa 9f 8d bd
       0.10296913 0.10142402 0.052883368 -0.06915279
000160 a4 c4 0e bd 9b 9c 5d be cc 6f e8 3c 23 f0 10 3e
       -0.0348555 -0.21641771 0.028373621 0.14154105
000170 7a b7 53 be f7 36 26 be c4 f7 07 bc b5 a2 de bd
       -0.2067546 -0.16231905 -0.008298818 -0.10870878
000180 9f 5a 6d 3d 72 aa 60 3e d7 c7 b0 be d1 71 2a 3d
       0.05794775 0.2194002 -0.34527466 0.04161245
000190 fd ba 46 3d 26 80 9a 3e ea fb 86 bc 2b c0 b3 3d
       0.04851817 0.30175894 -0.016477544 0.087768875
0001a0 bb ff 44 3e ed 86 17 3d 11 33 d3 bc 55 d2 97 3d
       0.19238178 0.03699391 -0.025781186 0.074131645
0001b0 17 e8 4f 3c ad 18 a1 3e b5 40 a1 b9 80 b6 a3 bd
       0.012689612 0.3146414 -0.00030756523 -0.079937935
0001c0 43 8c 91 3e ab 31 6d be fa 12 49 be 91 7c 98 be
       0.28427324 -0.23163478 -0.19636145 -0.29782537
0001d0 81 6e 67 3e cf 65 99 bd fb 9d ef bc 5b f8 21 3e
       0.22600748 -0.074901216 -0.029250136 0.15817396
0001e0 70 2e 49 3c 41 f4 fd 3d 5b 39 61 bd d5 15 a9 3d
       0.012279138 0.12400103 -0.05498634 0.08256117
0001f0 77 bf 2d bd 07 a2 35 be c7 9f b4 bd ed 82 7a be
       -0.042418923 -0.1773759 -0.088195376 -0.24464007
000200 ed c8 72 bd 63 e4 79 bf 92 78 3c 3e 94 6e 9a be
       -0.05927365 -0.97614115 0.18405369 -0.3016249
000210 80 e7 8b 3f ab f2 4d 3f 00 ee ab 3f 5c 88 77 3d
       1.0930023 0.80448407 1.3432007 0.060432777
000220 41 d8 e8 3d 3f b8 d2 be 64 91 63 3d 8b 9a 1a 3d
       0.11369372 -0.41156194 0.055558577 0.03774504
000230 fd 43 cc be 8e 0e 46 be eb 75 94 bf 70 e1 b7 be
       -0.3989562 -0.1934149 -1.1598486 -0.35914183
000240 ea 7f bd bc b1 d5 87 bf 12 6b 70 3f d5 6c 93 3f
       -0.023132283 -1.0612088 0.93913376 1.1517588
000250 c7 fd 65 bf 40 ea da be a3 95 57 bf 21 a6 3f bd
       -0.8984036 -0.42756844 -0.842127 -0.046789292
000260 86 45 53 3d 60 10 13 bf ed b0 e5 3d 72 e4 84 be
       0.051579975 -0.5744686 0.112153865 -0.2595554
000270 db 5b 57 bf 0c 7e f2 3e 2e 91 8d be 6c 02 84 3e
       -0.84124535 0.4736179 -0.27649826 0.25783098
000280 98 0c 4a 3f e1 3c 2b bf 8b a6 85 3f 85 a9 e1 3b
       0.78925467 -0.6688977 1.044145 0.0068866634
000290 ac 34 88 bf d2 d8 48 3f 65 b4 20 3f 46 cc 2e bf
       -1.0641074 0.7845584 0.6277526 -0.68280447
0002a0 06 97 5e be cf 94 19 3e 31 31 70 bf 95 c9 99 bf
       -0.21737298 0.14998172 -0.9382506 -1.2014643
0002b0 18 9f 5a bd 06 d1 0a bc 40 a3 66 be 0c a3 85 3f
       -0.05337438 -0.008472687 -0.22523212 1.0440383
0002c0 1f 10 7b bf 83 bf c7 3d 96 3a 25 3e 56 02 21 3e
       -0.98071474 0.09753325 0.1613563 0.15723547
0002d0 16 3e 09 bf f9 c2 43 3e e9 5d 27 3e b4 bb 25 bc
       -0.5361036 0.19117345 0.16344418 -0.010115553
0002e0 6d 41 84 be 43 29 d5 be 2b 17 17 be c1 eb 8b bd
       -0.25831166 -0.41633043 -0.14754932 -0.06832076
0002f0 65 df 28 bf 6b 11 9a 3e 6d 7e 99 bf 97 b5 7e 3e
       -0.65965873 0.30091414 -1.1991707 0.24873959
000300 4d 40 32 3e 77 94 5c bd 76 1c 4f 3e 95 32 d8 bc
       0.17407341 -0.053852525 0.202257 -0.026391307
000310 b8 80 20 3d 95 aa 47 3e 1e 52 8d 3c 64 69 2e be
       0.039185256 0.19498666 0.01725107 -0.17032391
000320 9c 04 80 3e 4f d1 bc 3d dc 0a 1a be 2a 90 1c be
       0.25003517 0.0921961 -0.15043205 -0.15289369
000330 3a 5d 5b bd 99 fe a6 bd ef 58 23 bd 0d 39 3b be
       -0.053555705 -0.081540294 -0.039879736 -0.18283482
000340 6b b6 3f 3e 12 04 38 bd e4 f7 79 3c fa 0b 8e 3c
       0.1872193 -0.044925757 0.015256856 0.017339695
000350 6a cf 0f be 76 16 ee bd 27 54 f1 bc 34 bc f6 3c
       -0.14043966 -0.11625378 -0.029459072 0.03011904
000360 95 83 08 3d 29 41 9d bd 4e ea 2d 3d 45 66 68 bc
       0.03332861 -0.07678444 0.04245978 -0.014184539
000370 92 1f ec 3d 3d 32 05 3e 55 2a ad 3e 25 67 44 3d
       0.11529459 0.13007446 0.3382136 0.04794993
000380 2d 6e 24 3e c3 93 76 3d fe 94 c3 3d 14 61 54 3d
       0.16057654 0.06019951 0.095499024 0.051850393
000390 e2 3a 8d 3d 2c fa a8 bd 9c 3d 50 3e 11 14 a6 3d
       0.06895997 -0.082508415 0.20336002 0.08109296
0003a0 56 51 b3 bd 5b 84 8e 3d fe fb bb 3d a0 09 93 3d
       -0.08755748 0.069588386 0.09178923 0.0717957
0003b0 e7 be 95 3b 5e 1a 24 be 5b 2c 96 bd 01 80 3f 3d
       0.0045698765 -0.16025683 -0.07332679 0.046752933
0003c0 bb 89 0c 3e e5 ec 4e 3e 06 1c 19 3e db c3 6c 3d
       0.13724415 0.20207556 0.14952096 0.05780397
0003d0 12 d1 11 3e a9 02 0c 3e e0 61 6c 3e 62 1d 4b be
       0.1423991 0.1367289 0.23084211 -0.19835427
0003e0 f1 17 8e bd 29 8b d2 bd 76 e8 e8 3a a7 45 9e be
       -0.0693816 -0.10280449 0.0017769474 -0.30912516
0003f0 ad a0 31 be 5c 31 92 bd b2 2f 5f be e1 48 6e bc
       -0.17346449 -0.07138321 -0.21795538 -0.014543743

rnn.weight_hh_l1 f4 [256, 64]
000000 a9 8a 8d 3e 29 21 18 3e 1f 80 ce bd da 17 45 be
       0.27644852 0.148564 -0.10083031 -0.1924738
000010 d2 4a 2c be f8 6e 46 3d cc 9b 99 be 9d ed 5f bb
       -0.16825417 0.04844567 -0.30001676 -0.0034168728
000020 16 4c c8 bc bb b8 4a 3d ba c1 09 3d b6 92 8e 3e
       -0.024450343 0.04949258 0.033632018 0.27846307
000030 0f 95 4a bd b2 5c 5f be 6c 75 98 bd be b4 e8 3d
       -0.04945856 -0.21812704 -0.074442714 0.11362599
000040 b8 0e 73 be 20 00 92 3d 4e d7 18 be 52 e2 68 be
       -0.23736084 0.0712893 -0.14925882 -0.22742584
000050 4a 80 3c bb 7b 0b 08 be 90 39 4b 3e 54 a9 82 3e
       -0.002876299 -0.1328563 0.19846177 0.25519812
000060 92 75 96 bd 7e 53 13 3e ef 00 22 3e c6 71 8b 3d
       -0.073466435 0.14387318 0.15820669 0.0680881
000070 45 e5 82 3e a0 89 4d be 6e 56 06 be 43 39 d6 bd
       0.25565544 -0.20072031 -0.13118908 -0.104601406
000080 f2 05 82 3e 15 00 bf bc 83 04 28 be 46 dd 3b 3f
       0.2539516 -0.023315469 -0.16407971 0.7338451
000090 f0 8f 18 be 08 3b 0c 3e 72 42 b1 3d c6 c3 7f 3d
       -0.14898658 0.13694394 0.086552516 0.062442563
0000a0 3b 97 2b be 12 5d 90 3d 03 7a 2c 3e d5 fc 4c 3e
       -0.16756909 0.07049002 0.16843419 0.20018323
0000b0 6a 00 a3 3d 18 05 d1 3d f3 80 87 3e c1 5d b6 bd
       0.07959063 0.1020605 0.26465568 -0.08904601
0000c0 54 5f 8b 3e 03 89 34 be c6 47 87 3e 29 e1 29 3e
       0.27221167 -0.17630391 0.26421946 0.16589798
0000d0 71 35 4b 3e 28 0c 95 3c f7 2c 15 3f 8b 8d 6e 3d
       0.19844605 0.018194273 0.58271736 0.058240455
0000e0 ce a0 93 3d 4a 06 f8 39 5c ed b4 3e fa f6 88 3e
       0.072084054 0.00047306932 0.3533734 0.26750928
0000f0 51 72 f2 bc 3c 10 5d 3e 89 24 88 3d 8b e9 ea be
       -0.029595526 0.21588224 0.066475935 -0.45881304
000100 a5 55 77 3d 90 2d 94 3d 89 fb 57 3f 01 17 0e be
       0.06038441 0.07235253 0.8436819 -0.13875963
000110 a3 ec 35 3d fc dd 7b 3e 9c 60 46 be e1 e4 5c 3d
       0.044415127 0.24596399 -0.19372791 0.053929213
000120 9e 95 a1 3e e4 00 37 3f da d8 8c 3e ad ff b2 3d
       0.3155946 0.71485734 0.27509195 0.087401725
000130 87 f0 42 3d 83 39 9a be 69 d4 e2 3c 34 1a 78 3e
       0.047592666 -0.30122003 0.027689176 0.24228746
000140 1e f7 9e be af 07 32 bc b3 94 19 be 04 56 04 3e
       -0.3104791 -0.01086609 -0.1499813 0.12923437
000150 81 0a 83 bd 27 fc 04 bd 30 6c 28 3c 75 a9 22 bd
       -0.06398488 -0.032467034 0.0102797 -0.039712388
000160 6f 94 4b 3f 63 d1 58 3e 0b 6a a4 3d 84 6f 26 3c
       0.79523367 0.21173625 0.080280386 0.010158423
000170 c2 de 91 3e 23 aa 14 be 30 39 22 bf cd a5 00 bd
       0.28490263 -0.14518027 -0.6336851 -0.03140812
000180 fe fe 25 3e b2 df 0e 3e 08 97 7c be a9 3c c8 3f
       0.16210553 0.1395252 -0.24666989 1.5643512
000190 3f c3 ac be 7e fc da bc fb 9e f7 3c 6e 93 bd 3d
       -0.3374271 -0.026731726 0.030227175 0.092566356
0001a0 70 70 15 3e b3 4d f3 bd 25 8c 7a bb ed 91 6b be
       0.14593673 -0.11880054 -0.0038230505 -0.23004885
0001b0 f2 70 b9 3e 32 ad f1 3d 00 b2 bc 3d ee 2c 2e 3f
       0.36218983 0.118006125 0.09213638 0.6803731
0001c0 49 35 ad 3e 9c 14 d9 3e cf 27 66 be e0 66 3d bd
       0.33829716 0.42398536 -0.22476123 -0.046240687
0001d0 73 71 b8 bb d5 89 10 3f 26 ab 5c bf b3 cc 81 3d
       -0.0056287586 0.56460315 -0.8619865 0.063378714
0001e0 ab 23 53 be 6a 8e 4e 3d 78 b8 5e be c0 ef bc be
       -0.20619075 0.050428785 -0.21750057 -0.36901665
0001f0 1a a1 48 3f d8 a0 7c 3e 08 a3 0d bc 05 35 20 bf
       0.7837082 0.24670732 -0.008644827 -0.625809
000200 86 ff 3a 3e d7 dd 95 3e 3f 2a 3e 3e b9 9c 82 be
       0.18261537 0.29270813 0.18570803 -0.25510195
000210 2f 1b 60 be bc e3 8c ba f4 7e 0c bd a2 1c 0c be
       -0.2188537 -0.0010749022 -0.03430076 -0.13682798
000220 a8 96 d5 3d 31 58 51 be 52 8f 0c be 16 86 de 3e
       0.10429126 -0.20443799 -0.13726547 0.43461674
000230 c6 21 12 3d 82 87 f6 bd 63 b7 04 3f 84 81 88 bb
       0.03567674 -0.12037565 0.51842326 -0.00416583
000240 11 4b 8c 3d 2f d1 87 3d de a0 6c bd 97 e1 d5 be
       0.06850255 0.066316955 -0.057770602 -0.41773674
000250 5d 36 9a bd 5b 53 22 bf d3 d1 8c 3e 9c 67 1d 3e
       -0.075299 -0.6340844 0.27503833 0.15371555
000260 d4 97 86 be 00 02 44 bd 2c 5a f5 bd 14 df e8 bc
       -0.2628771 -0.04785347 -0.119800895 -0.028426684
000270 dc 3c a7 3d 9a 7a 03 3f 2d 21 9f be db 4a fe bd
       0.08165905 0.5135895 -0.3108 -0.12416621
000280 54 fa 6a 3e 1f f2 43 bd d5 3e 21 3d b7 a6 98 3d
       0.22947055 -0.047838327 0.039366562 0.07453673
000290 fc 61 61 be fb 47 27 bf 2a 74 d4 3d df c4 44 3e
       -0.22010034 -0.6534421 0.10373719 0.19215725
0002a0 42 fa f9 be d8 1c 25 bd 4c c7 0a 3e 57 3b 76 3e
       -0.48823744 -0.04031071 0.13552588 0.24046074
0002b0 b5 57 b1 3d 15 26 57 3e 7d 7a b0 3e 8a c0 a9 be
       0.08659307 0.21010621 0.3446845 -0.33154708
0002c0 84 d1 76 3e fd 28 d0 be da ee 97 3e 50 1b 4f 3e
       0.24103361 -0.40656272 0.29674417 0.20225263
0002d0 3c 85 1c be a6 dd 9d 3d 49 8b cb 3d e8 c6 9a 3e
       -0.152852 0.07708292 0.09938676 0.30229878
0002e0 8f 94 c4 bd 11 57 98 be 76 35 b1 3e 89 56 9c 3e
       -0.09598648 -0.29753926 0.346111 0.3053477
0002f0 e1 2f fd bc 57 1e 71 3e c0 a8 50 3e 0a f1 71 bd
       -0.03090662 0.2354673 0.20376873 -0.059067763
000300 e6 1a 42 be ed f8 80 be ed bc 00 3d 7c fd 39 bd
       -0.18955573 -0.25189915 0.031430174 -0.045407757
000310 55 39 a1 3e 0f 6a 24 3c a7 64 ff bd 96 f9 fd bd
       0.31489053 0.010035052 -0.1247037 -0.1240112
000320 cf a9 08 3e e9 a3 a2 3e ed 8f 89 3e 3a e7 24 3e
       0.13346027 0.3176568 0.2686762 0.16103831
000330 a7 7b cd 3d d4 44 da bd ee fa d2 bd 10 47 0b 3e
       0.100333504 -0.10657659 -0.10301767 0.13601327
000340 cd 7d f2 bd 58 13 14 3e 68 ca 07 be 70 2e bc 3d
       -0.11840401 0.14460504 -0.13260806 0.09188545
000350 24 15 4d 3b 9a a8 9f 3e bd e3 fb bc 01 aa 74 3d
       0.0031293118 0.3118332 -0.030748243 0.05973244
000360 87 3d 41 3e 0a 56 a0 3e 7f 5b 65 bd 39 84 4b bd
       0.18871127 0.31315643 -0.05599546 -0.049686644
000370 17 8d f8 bc 05 96 37 3e 6d 50 13 be 83 fa 9e 3d
       -0.030340714 0.17928322 -0.14386149 0.07762625
000380 13 6a b8 3d 27 00 0c bd 74 f7 c4 bd b2 6f 94 3e
       0.09004607 -0.034179833 -0.096175104 0.28991467
000390 5d a6 b0 bd 33 6d c8 3d ec 63 eb 3c 30 b8 a7 3d
       -0.08625481 0.09786453 0.02873417 0.08189428
0003a0 2e c8 06 3d 08 82 13 3e 07 55 e7 3c c8 55 1a bf
       0.03290575 0.14405072 0.028238786 -0.6028714
0003b0 87 76 1a 3d 43 b9 d1 3d e5 b1 b1 3c fe 9f 2a 3d
       0.037710693 0.10240414 0.021691272 0.041656487
0003c0 18 66 21 3e 58 cb 2c bd cd d0 5f 3d 8f fd c0 3d
       0.15761602 -0.04218611 0.054642487 0.094233625
0003d0 ba 4f 83 3e 2c 6e df bd 96 99 de 3c 83 e8 82 be
       0.25646764 -0.109096855 0.027172845 -0.25568017
0003e0 b1 2c 2b 3e 16 bf 43 bd 3f 2d b4 bd 69 7b f1 be
       0.16716267 -0.047789656 -0.087976925 -0.47164467
0003f0 ca bd f1 3d 9f 02 d8 bb 92 9d 6c be 16 aa 1e 3e
       0.118037775 -0.0065921093 -0.23106983 0.1549457

rnn.bias_ih_l1 f4 [256]
000000 04 10 07 3d 2b bb 63 3d 89 f4 ba bd 9d 3e f7 3c
       0.032974258 0.05559842 -0.09128673 0.030181224
000010 4b 24 23 be a8 1f 83 be 15 2c ba bd 68 12 6b 3e
       -0.15931813 -0.2561009 -0.09090439 0.2295624
000020 11 85 95 bd 02 a6 1f 3f 74 0b 5a 3d 39 61 af 3e
       -0.07300771 0.6236268 0.05323358 0.34253863
000030 c0 1a 1f be 3c a7 58 bd df 97 33 3e d1 cd 89 bc
       -0.15537548 -0.052893862 0.17538403 -0.016821774
000040 7b af b2 bd 9f 2f 0c be 5d 8c 02 be e4 b0 14 be
       -0.087248765 -0.13690041 -0.12748857 -0.14520603
000050 c5 aa a8 bc 49 2f ee be 79 78 e6 3d 83 14 1f be
       -0.020589242 -0.4652045 0.11253447 -0.15535168
000060 87 9c 33 3e 3b b8 c1 3e 63 5c 5d bd b5 fe 68 3e
       0.17540179 0.3783587 -0.054043185 0.22753413
000070 e6 4f c9 3d bb 9a 72 bb 1c c6 7e 3e e5 9c b7 3c
       0.098296925 -0.0037018496 0.2488026 0.02241368
000080 d7 d7 c1 3b 6a 4d e4 bd 3e a0 2a bd 91 9a 4d 3e
       0.0059156227 -0.11147578 -0.041656725 0.20078494
000090 0f 03 e8 bd 0b 2f 01 3e b1 2e b3 bd 0f 8e a9 bc
       -0.113287084 0.12615602 -0.0874914 -0.020697622
0000a0 7f b1 3d 3e ce 24 80 3e 12 c3 22 be 8c 3f a8 3e
       0.1852474 0.2502808 -0.15894726 0.32860982
0000b0 92 32 9d bd d7 93 b1 3b e9 ab 0a 3e 98 14 48 3e
       -0.07675661 0.005419235 0.13542141 0.19539106
0000c0 8c c5 a8 3d 2d 70 4d 3e 00 bb d3 3b a4 9b 98 3e
       0.08240804 0.20062323 0.006461501 0.29806244
0000d0 b6 fc 19 bd 28 23 83 3e d3 c7 89 3e a3 70 1a bb
       -0.03759452 0.2561276 0.26910266 -0.0023565672
0000e0 6d f9 99 3e 75 69 80 be 8e f5 fc 3c a0 96 4d be
       0.3007311 -0.25080457 0.030878808 -0.2007699
0000f0 df e4 0d bd 61 da ac bd c6 b7 d8 bc e5 74 c1 3e
       -0.034642097 -0.0844009 -0.026454818 0.37784496
000100 69 5c 52 be 84 7b 7d 3e b9 af ba bd a5 83 7d bd
       -0.20543064 0.24754149 -0.09115548 -0.061893124
000110 37 f7 a7 bd d9 4b 2f 3e ef 53 ac 3c 04 f0 fd bd
       -0.08201449 0.17118777 0.021036116 -0.12399295
000120 77 a2 98 be f5 92 26 bb 9e 3f 55 bd fe bc 46 be
       -0.2981145 -0.0025417183 -0.052062623 -0.19408032
000130 99 4e 91 be a6 85 09 be 8c ba 30 be 21 fa a3 3e
       -0.28380278 -0.13429889 -0.17258662 0.3202677
000140 0d a8 d5 bc 98 3a 06 be a1 1e 1c be d3 2e 55 be
       -0.02608111 -0.13108289 -0.15246059 -0.20818643
000150 20 ef 9f bc 0a 2f cb be ea b8 b2 3d c0 67 21 be
       -0.019523203 -0.39684325 0.08726676 -0.15762234
000160 0a 88 5f bd fd 8e a8 bc 91 c1 90 bd d3 67 72 bd
       -0.054573096 -0.020575995 -0.0706817 -0.059181046
000170 41 a8 74 be 63 21 6c be 1c aa cb 3e db 37 89 3c
       -0.23892309 -0.23059611 0.3977822 0.016750267
000180 31 62 a3 3d 25 6e dd 3c c1 fc ad be 08 ad 96 3e
       0.07977713 0.02703006 -0.33981898 0.29428887
000190 d0 f4 a1 3e c2 ec 99 3d 2a 1d fa 3c 76 c5 93 bd
       0.3163209 0.07515861 0.030531485 -0.07215397
0001a0 e0 3e 20 be d0 71 3e be 9a bd 04 be 54 88 c1 be
       -0.15648985 -0.18598104 -0.12962952 -0.37799323
0001b0 16 35 1d be 20 6e 50 3e 80 cd b5 3e 28 54 d0 bd
       -0.15352282 0.2035451 0.35508347 -0.101723015
0001c0 f0 c4 8c 3e 2f c6 a9 3d ad ec 3f be 7d fa 4b 3e
       0.27494 0.08289754 -0.18742628 0.19919772
0001d0 20 c0 6e be 28 c0 43 bf b8 c2 50 be af da 42 be
       -0.23315477 -0.7646508 -0.2038678 -0.19028734
0001e0 e7 1c 0e be 77 5a 7c be 5d 86 fb 3c 07 c7 01 3f
       -0.13878213 -0.24643885 0.030703718 0.50694317
0001f0 bd 14 55 be 9e 39 53 3e 1d af dc be bf 37 1e be
       -0.20808692 0.20627448 -0.4310235 -0.15450953
000200 a1 80 b8 bd 1f 67 32 3d cb aa d0 bc 9f a7 93 3e
       -0.09008909 0.043555375 -0.025472065 0.28838822
000210 48 8e 95 bd 6e 5b 1d 3d af a6 1e 3e 46 11 86 be
       -0.073025286 0.038417272 0.15493272 -0.26185054
000220 82 86 00 3e 67 b5 b4 bc 1f 5c 91 bc 6e a1 d1 3d
       0.1255131 -0.022059156 -0.017744122 0.102358684
000230 2d 12 4c be 66 c8 81 3e 1f d9 77 3e 3c 46 67 be
       -0.19928809 0.25348204 0.24203919 -0.22585386
000240 0d 5e 27 3e b1 b9 15 be ad 57 cb bb 21 b9 1b be
       0.16344471 -0.14621617 -0.00620552 -0.1520734
000250 e0 42 a5 3d a4 36 0f bb 85 41 12 be a1 71 06 be
       0.08069396 -0.0021852637 -0.14282806 -0.13129283
000260 11 b6 9e bd a4 c6 f7 3d 50 0f 69 be cc ff bd bd
       -0.0774957 0.120984346 -0.22759748 -0.09277305
000270 51 20 ec bd 03 43 85 3d fd ba a8 3d 67 ef f3 3d
       -0.11529601 0.06506922 0.0823879 0.11910897
000280 f1 75 f4 bd f8 9f 0d 3c 4d ac 51 bd a4 2e 5e bd
       -0.11936558 0.008644097 -0.05118971 -0.0542437
000290 bb ad 81 3c 01 33 6f be e7 8c ae 3c d9 72 ab bd
       0.015829911 -0.233593 0.021307422 -0.08371515
0002a0 64 9e 5f be d7 3c 4f 3e b7 27 f7 bd 49 cd 86 bc
       -0.21837765 0.20238052 -0.12068122 -0.01645531
0002b0 60 17 2a be 0f 19 b2 bd 0a 4f da bd dd a3 15 be
       -0.1661048 -0.08696186 -0.10659607 -0.1461329
0002c0 29 1d 5d bb 7a de 38 be 1c 9f bb 3d 37 6c 9d 3d
       -0.0033739305 -0.18053618 0.09161207 0.07686656
0002d0 a1 71 3a be ba 73 04 bd ee 5f fb 3d 9a e4 27 3d
       -0.18207408 -0.032336928 0.122741565 0.040989496
0002e0 b0 0e 19 be c0 81 bd 3d d3 d0 c7 3d 71 7b 9e 3c
       -0.14947009 0.092532635 0.09756627 0.01934597
0002f0 d8 c2 2a be da 22 2c be ff aa b9 bd 92 61 26 3e
       -0.1667589 -0.1681017 -0.09065818 0.16248158
000300 2f 8a 3d 3e 05 af d0 3d 4f de dc bd 46 f4 51 3d
       0.18509744 0.10189632 -0.107845895 0.051258348
000310 e6 c0 31 3d 6e e1 a4 bd 80 f4 75 bd 9f 4c a2 3d
       0.043396853 -0.0805081 -0.060047626 0.079247706
000320 b3 02 01 be 67 90 31 3f 02 c1 1f be df 54 5b 3e
       -0.12598686 0.69360965 -0.1560097 0.21419095
000330 ce b7 34 bd c4 e1 cd bd c7 60 aa 3e d6 a2 bd 3d
       -0.044120602 -0.10052827 0.3327696 0.09259574
000340 49 70 11 be 85 13 61 be e0 5e d8 bd ab 7b b1 3b
       -0.1420299 -0.21980102 -0.10564971 0.0054163537
000350 e7 e6 f6 bd 7d 26 bf be 16 ec 18 3e 0c fd 42 be
       -0.1205576 -0.37334052 0.1493381 -0.19041842
000360 24 14 bb bc 91 4b 85 3e f1 f1 f8 bd 96 49 b1 3e
       -0.022836752 0.26034215 -0.12155522 0.34626454
000370 ac e1 cd bd 8e 65 5c bd c5 0a 36 3d fe 33 c1 bd
       -0.10052809 -0.053807788 0.044443864 -0.09433745
000380 46 87 48 bc 89 c4 5b 3d 97 c3 26 bd fc 4a bc 3e
       -0.012239283 0.053654227 -0.040713873 0.3677596
000390 a6 eb 03 3c 54 bb 52 3e d0 75 1c be 9e 4b 93 bc
       0.008051788 0.20579273 -0.15279317 -0.017980393
0003a0 73 c4 9a 3e 5a 38 09 3e cc e5 f7 bd 52 fc b6 3e
       0.30228004 0.13400403 -0.12104377 0.3573938
0003b0 11 34 b3 3d 2b d3 3f 3d f0 15 24 3e 5f 92 9d 3e
       0.08750165 0.046832245 0.16023993 0.30775735
0003c0 a4 e9 d9 3d 6e 0c 8c 3d a3 a5 98 3d fd 0a 0d 3e
       0.106402665 0.06838308 0.07453468 0.13773723
0003d0 6f d4 d6 bd c9 35 35 3e 85 31 3e 3e 16 5d a8 3c
       -0.10489737 0.17696299 0.18573578 0.0205522
0003e0 fa 35 c5 3e e6 dc 38 be b8 10 d2 bd bd 82 d6 3e
       0.38517743 -0.18053016 -0.10257095 0.4189662
0003f0 e9 87 03 be 05 70 3a bd 57 7f c1 bc 47 68 8a 3e
       -0.12844814 -0.045516986 -0.02362029 0.27032682
