checkpoints/TP_LSTM_L2_bs16_trainAll_bsfirst_pos1_downsp_rs/TP_LSTM_L2_bs16_epoch32_best0.017816707026213408.pt (torch, 206320 bytes, 9 tensors)

rnn.weight_ih_l0 f4 [256, 3]
0	0x3da1bed2	0.07897724
1	0x3e161fac	0.1466052
2	0xbcdb1e79	-0.026747929
3	0x3e2db0eb	0.1696202
4	0x3d0e577e	0.034751408
5	0x3dfd423e	0.1236615
6	0x3cee1024	0.02906043
7	0x3e8d1a1a	0.27558976
8	0x3e426745	0.18984707
9	0x3ca03ba7	0.019559694
10	0x3e332796	0.1749557
11	0x3b20bb1b	0.0024525586
12	0x3e8f5636	0.2799546
13	0xbe4cc54a	-0.19997135
14	0xbe549000	-0.20758057
15	0x3cb6fef5	0.02233837
16	0x3d712053	0.058868717
17	0xbd350f32	-0.044203945
18	0x3e19cda4	0.15019852
19	0x3e3aa040	0.18225193
20	0xbd75ccea	-0.060009874
21	0xbbdb474e	-0.00669185
22	0x3da8fc9c	0.082513064
23	0xbd686e53	-0.05674584
24	0xba51e12f	-0.0008006272
25	0x3e3c648f	0.18397735
26	0x3d5ed05f	0.054397937
27	0xbe5d5599	-0.21614684
28	0xbd9a53c2	-0.07535507
29	0x3e0c1753	0.13680772
30	0xbba7f091	-0.0051251133
31	0xbdbc9a7a	-0.092091516
32	0x3d907b47	0.07054763
33	0xbea41cab	-0.32053122
34	0xbe5b45e9	-0.21413387
35	0xbe31fe0c	-0.17382067
36	0x3e23c47a	0.15992919
37	0x3de77648	0.11301857
38	0x3b9ad940	0.0047256052
39	0xbe85a74f	-0.2610421
40	0x3e3b96d8	0.18319261
41	0xbdc3b73b	-0.09556433
42	0x3e7c9066	0.24664459
43	0xbe763474	-0.24043447
44	0xbbf4c387	-0.0074695977
45	0x3db8fe59	0.09032888
46	0x3ddfbd5b	0.109247886
47	0x3d037121	0.03209031
48	0x3f1153c5	0.5676845
49	0x3e9d05c8	0.30668473
50	0x3d7a0659	0.06104121
51	0xbe27b422	-0.16377309
52	0xbf3c712b	-0.7361018
53	0xbdc1cc17	-0.09462755
54	0x3e122c3d	0.14274688
55	0x3cc1aacb	0.02364101
56	0x3d11f951	0.035638157
57	0xbd880758	-0.06642026
58	0x3dc29139	0.09500355
59	0xbc5f407d	-0.013626215
60	0xbdbf6628	-0.09345657
61	0x3e2d69c6	0.1693488
62	0x3d5c4986	0.053781055
63	0x3dda8bf6	0.10671227
64	0x3e3dba18	0.1852802
65	0x3de62c78	0.112389505
66	0x3d33fb68	0.04394093
67	0x3e7e3339	0.24824227
68	0xbdad8b8c	-0.08473882
69	0xbddf0a0a	-0.10890587
70	0x3d8bdaca	0.0682884
71	0x3ca02b7a	0.019551981
72	0x3dde2c8c	0.108483404
73	0xbe167b9e	-0.14695594
74	0xbcedc726	-0.029025625
75	0x3c7c9257	0.0154157495
76	0x3bdcd419	0.006739151
77	0xbcd60f83	-0.026130443
78	0xbd212370	-0.039340436
79	0x3e335e85	0.17516525
80	0xbce36310	-0.027757198
81	0xbe651e67	-0.22374879
82	0xbe443401	-0.19160463
83	0xbd3ad798	-0.045615762
84	0x3d9ed99b	0.07756349
85	0x3df1e7cf	0.11811792
86	0xbdf6d774	-0.12052813
87	0x3d8a8068	0.06762773
88	0xbe0cd65f	-0.13753651
89	0xbe82ff79	-0.25585535
90	0x3daf1624	0.08549145
91	0xbb599e23	-0.003320583
92	0x3e217595	0.1576751
93	0xbb9f8fc8	-0.004869435
94	0xbe91118e	-0.28333706
95	0xbe12e9ab	-0.1434695
96	0x3cdb0621	0.02673632
97	0x3e7233e9	0.23652615
98	0x3c2fe6c4	0.010736171
99	0x3d01c454	0.031681374
100	0x3e97ae56	0.29625195
101	0x3d2f2b6d	0.042766023
102	0x3c2dee00	0.010615826
103	0x3d3de059	0.046356533
104	0xbe1f25e7	-0.15541802
105	0xbe1965d7	-0.14980255
106	0xbc98bac0	-0.018643737
107	0xbdcf2454	-0.10114351
108	0x3e006b4e	0.12540933
109	0x3d98c950	0.07460272
110	0xbc2319b6	-0.00995486
111	0x3dc8ace6	0.09798603
112	0xbbbe894e	-0.005814708
113	0xbe041e30	-0.1290214
114	0xbd6ae4af	-0.057346996
115	0xbda1ad35	-0.07894365
116	0xbe647518	-0.22310293
117	0x3e280b5a	0.1641058
118	0x3c54cda5	0.012988483
119	0xbc8fe3e2	-0.017564718
120	0xbd2b34b2	-0.0417983
121	0x3e341d51	0.17589308
122	0x3daee303	0.08539393
123	0xbe3ddf4d	-0.18542214
124	0xbe428398	-0.18995512
125	0xbe00a57e	-0.1256313
126	0xbe9f2932	-0.31086117
127	0x3e9cd3e7	0.3063042
128	0x3e44ff06	0.19237909
129	0x3dd6eeac	0.10494742
130	0xbe490509	-0.19630827
131	0xbc44c6ee	-0.012010319
132	0x3e2dad8e	0.16960737
133	0x3e8012cd	0.25014344
134	0x3dc85b88	0.09783083
135	0x3d2adc91	0.041714255
136	0x3e39d5fd	0.18148036
137	0x3dfe3bd5	0.12413756
138	0xbe5782b3	-0.21045952
139	0xbe6745c8	-0.22585213
140	0xbd516bf2	-0.051128335
141	0x3d873b47	0.06603103
142	0x3d87c8bf	0.06630086
143	0xbe2af8a3	-0.1669641
144	0x3e0fd78c	0.14047068
145	0xbe097d9c	-0.13426822
146	0x3c61008b	0.01373304
147	0x3d99654e	0.074900255
148	0x3e81327a	0.25233823
149	0x3de1b1a5	0.11020211
150	0xbc12858c	-0.008942973
151	0x3d5bc1c9	0.053651605
152	0xbd803980	-0.06260967
153	0xbb51eca1	-0.003203191
154	0xbb4e5fad	-0.0031490133
155	0x3dc3988d	0.09550581
156	0xbdcc2c10	-0.09969342
157	0xbd2fa123	-0.04287828
158	0x3d8657bb	0.06559702
159	0x3c2de331	0.010613249
160	0xbe097750	-0.1342442
161	0xbd170bc3	-0.03687645
162	0xbc9745c5	-0.018465886
163	0x3e9ae38c	0.3025173
164	0x3cdd9a96	0.027051251
165	0x3d9df63b	0.0771298
166	0xbea61bd9	-0.3244312
167	0xbd98316e	-0.07431303
168	0x3cbacf0d	0.022803808
169	0x3de887a0	0.113539934
170	0xbd1ac899	-0.03778896
171	0x3dad3250	0.08456862
172	0xbd69e676	-0.05710455
173	0xbd026e65	-0.03184356
174	0x3e32c760	0.17458868
175	0x3eb4a184	0.35279477
176	0x3de9f59d	0.114238
177	0xbdbd8551	-0.09253944
178	0xbe2573d9	-0.16157474
179	0x3d6a9904	0.057274833
180	0xbcb2ea4f	-0.021840243
181	0xbdd7c495	-0.10535542
182	0xbe05ec88	-0.13078511
183	0x3e297a18	0.16550481
184	0x3eb6c2c3	0.35695466
185	0x3e39bd6c	0.18138665
186	0xbdc0dc6c	-0.09417042
187	0xbeb30768	-0.34966588
188	0xbda1e809	-0.07905585
189	0x3c6f58f0	0.014608607
190	0x3e3e58b6	0.18588528
191	0xbd03cec3	-0.032179605
192	0xbd977756	-0.073958084
193	0x3e19c7fc	0.15017694
194	0x3c82abfd	0.015951151
195	0xbe167392	-0.14692524
196	0x3e275573	0.1634119
197	0x3dc788e7	0.09742909
198	0x3dbd5a90	0.09245789
199	0x3c78f5a0	0.01519528
200	0x3ce2d444	0.027689107
201	0xbd9dff52	-0.07714714
202	0x3e598e8c	0.21245784
203	0xbd9589dc	-0.07301685
204	0x3efa3c8c	0.4887432
205	0x3dbabeb4	0.09118405
206	0xbe234c6a	-0.15947118
207	0xbda7724a	-0.08176096
208	0xbd6dcbf0	-0.058055818
209	0xb7715b2c	-1.4385947e-05
210	0x3cff1faa	0.031143028
211	0x3dfe7983	0.1242552
212	0xbe092569	-0.13393177
213	0x3e0334a1	0.12813045
214	0x3e3d6b65	0.18497999
215	0x3dabd07a	0.08389373
216	0xbdec0055	-0.11523501
217	0xbd314c28	-0.04328552
218	0xbe937d43	-0.28806505
219	0xbed6350b	-0.41837344
220	0xbe4907ff	-0.19631957
221	0x3ec0b3e8	0.37637258
222	0xbea3f1da	-0.32020456
223	0xbe903d18	-0.2817161
224	0x3c353ce4	0.011061881
225	0xbdf839a1	-0.12120367
226	0xbdbbd045	-0.09170584
227	0x3ce7a86a	0.028278548
228	0xba3e5c03	-0.00072616356
229	0x3d829184	0.06375411
230	0xbe5fd561	-0.21858741
231	0xbe94835e	-0.29006475
232	0x3e0f7e9d	0.14013143
233	0xbe08cfbe	-0.13360497
234	0xbdd141b0	-0.10217607
235	0xbe6904de	-0.22755763
236	0xbde044e1	-0.109506376
237	0x3d9e076b	0.077162586
238	0x3e341595	0.17586358
239	0xbe09ce36	-0.1345757
240	0xbd789a00	-0.06069374
241	0xbd12d9c3	-0.035852205
242	0xbe02be53	-0.12767915
243	0xbe8b6898	-0.27228236
244	0xbec05321	-0.37563422
245	0xbdb84ed4	-0.0899941
246	0xbea10927	-0.31452295
247	0xbe5ad6fe	-0.21371076
248	0xbe2eab8c	-0.17057627
249	0x3dda9aad	0.10674033
250	0x3dc7b8ae	0.09752022
251	0xbd8d08ea	-0.06886466
252	0xbc2e2cc7	-0.010630793
253	0x3dc5fc03	0.09667208
254	0xbd513fa5	-0.051086087
255	0xbea5577c	-0.32293308

rnn.weight_hh_l0 f4 [256, 64]
0	0x3c45270c	0.012033235
1	0x3dc7a8f0	0.09749019
2	0xbd83dd4d	-0.06438694
3	0x3d8ac6c8	0.06776196
4	0xbe3d16dd	-0.18465753
5	0x3d8a2f16	0.06747262
6	0x3d9a83b0	0.07544649
7	0xbd52f5d8	-0.051503986
8	0x3d950c7c	0.07277772
9	0xbd5b9868	-0.053612143
10	0xbb23ae06	-0.0024975552
11	0xbdeee818	-0.11665362
12	0xbdbf97c6	-0.0935512
13	0x3ce830b8	0.028343543
14	0xbc98bedc	-0.018645696
15	0x3adb07bf	0.0016710683
16	0xbddb8752	-0.1071917
17	0xbccd640c	-0.02507212
18	0xbd146b31	-0.03623504
19	0xbd66dc38	-0.05636236
20	0x3e217614	0.157677
21	0x3e063abc	0.13108343
22	0xbdb2ef04	-0.08736995
23	0xbe15a494	-0.14613563
24	0x3c178127	0.009247101
25	0x3cf64a1a	0.030064631
26	0x3e14f122	0.1454511
27	0x3cfbcce0	0.03073734
28	0x3d4a3a1e	0.04937183
29	0xbdc8736e	-0.097876415
30	0x3dc844ff	0.09778785
31	0xbd84dea3	-0.06487777
32	0xbc62cc90	-0.013842717
33	0x3e39916d	0.18121882
34	0x3dc93ce5	0.09826068
35	0x3dc6b52c	0.097025245
36	0xbcf5d2db	-0.03000777
37	0xbb9ba173	-0.004749471
38	0x3d9254b5	0.07145063
39	0x3d9beee3	0.076139234
40	0xbe0bd262	-0.13654473
41	0x3d9b6a3f	0.07588624
42	0x3cdd4e93	0.027015006
43	0xbcead74c	-0.028667115
44	0x3c378cac	0.011202972
45	0x3d75c172	0.059998937
46	0xbd1c705b	-0.038193088
47	0x3df84a16	0.12123506
48	0x3e0c6f22	0.13714269
49	0x3e099f89	0.13439764
50	0x3dade97b	0.084917985
51	0xbd9b487a	-0.07582183
52	0x3e133814	0.14376861
53	0x3e1a7a7d	0.15085788
54	0xbc35f7e0	-0.011106461
55	0x3d0a9d43	0.033841383
56	0x3d9b8299	0.07593269
57	0xbdb6ba38	-0.08922237
58	0xbd839978	-0.06425756
59	0x3cf58e7d	0.02997517
60	0xbe096b90	-0.13419938
61	0xbd7d6237	-0.061861243
62	0x3c3882ac	0.011261623
63	0x3d743e51	0.059629742
64	0x3d6bfc65	0.05761375
65	0xbd3c5097	-0.045975294
66	0x3db99103	0.09060862
67	0x3c906ed4	0.017630972
68	0x3e84e324	0.25954545
69	0xbce7f60d	-0.028315568
70	0xbdbf613e	-0.09344719
71	0x3c2eccd5	0.010668953
72	0x3d3727b4	0.0447156
73	0x3d463bd0	0.048396885
74	0xbe07e0bc	-0.13269323
75	0xbd99974f	-0.07499563
76	0x3d59bdb9	0.05315945
77	0xbdbff9fc	-0.093738526
78	0xbdcce6db	-0.1000497
79	0xbd921ff6	-0.07135002
80	0x3d94a4bc	0.07257983
81	0x3d5e7f5d	0.05432068
82	0xbe2845ac	-0.16432828
83	0x3d8fe38e	0.070258245
84	0xbc5b1216	-0.013371011
85	0xbcff5da3	-0.03117258
86	0xbc87d2c9	-0.016580002
87	0x3d669b40	0.0563004
88	0xbb04b407	-0.0020248906
89	0xbe078473	-0.13234119
90	0xbac209d0	-0.001480395
91	0xbd0bd76a	-0.03414098
92	0x3caa6962	0.020802204
93	0x3de0401e	0.109497294
94	0xbc5f2edf	-0.013622015
95	0xbca58688	-0.020205751
96	0xbd980b3c	-0.07424018
97	0x3df0448c	0.11731824
98	0x3d6d51a7	0.057939198
99	0xbcd93cf2	-0.026518319
100	0x3dc61501	0.09671975
101	0x3de14e36	0.11001246
102	0xbd585f97	-0.052825537
103	0xbd911d89	-0.070857115
104	0xbd4cd1e6	-0.050004862
105	0xbc648128	-0.013946809
106	0xbdea6b47	-0.11446243
107	0x3bc7ab6e	0.006093434
108	0xbe300359	-0.17188777
109	0x3d193892	0.037407465
110	0xbcebbfbf	-0.028777955
111	0xbdc8b814	-0.09800735
112	0x3c806afc	0.015676014
113	0xbcadbe4e	-0.021208908
114	0x3d4ee714	0.050513342
115	0x3d3bd7be	0.045860045
116	0x3db5536e	0.088538036
117	0xbc9d0e61	-0.019171895
118	0x3db0d76b	0.08634838
119	0x3cc246d2	0.02371541
120	0x3d948a6c	0.072529644
121	0x3ae4171a	0.0017401904
122	0x3d0e35f9	0.03471944
123	0x3d3df8c5	0.046379823
124	0xbc82b795	-0.01595668
125	0xbd29cad8	-0.041453212
126	0xbd9eea74	-0.07759562
127	0xbe0a218b	-0.13489358
128	0xbd3293f5	-0.043598134
129	0x3d9e0945	0.07716612
130	0xbd08c88a	-0.033394374
131	0x3da771e4	0.0817602
132	0xbe2d1499	-0.16902389
133	0x3d97fbcd	0.07421074
134	0xbdeb4da2	-0.11489417
135	0xbe01ccf7	-0.12675844
136	0x3df20e73	0.11819162
137	0x3de47010	0.11154187
138	0xbe4cf1bd	-0.20014091
139	0xbde082ca	-0.10962446
140	0xbe212c39	-0.15739526
141	0x3dcde5d0	0.10053599
142	0x3e49e418	0.19715917
143	0x3c2a689e	0.010400919
144	0x3d4e7da5	0.050412793
145	0x3e9e17a7	0.3087742
146	0xbe19b205	-0.15009315
147	0x3e357328	0.1771971
148	0x3e4300ca	0.1904327
149	0x3d8cdd7e	0.06878184
150	0x3d2c53b3	0.04207201
151	0x3d59cdbc	0.05317472
152	0x3ded18f9	0.11577029
153	0xbd7f52c5	-0.062334795
154	0xbdce69f8	-0.10078806
155	0x3e99b7b2	0.3002296
156	0xbd53e4d4	-0.0517319
157	0x3cba6ab4	0.022755958
158	0x3d9046af	0.07044732
159	0xbd2d679a	-0.04233513
160	0x3d9651cc	0.0733982
161	0x3e2f8fa4	0.17144638
162	0x3da58ada	0.080831245
163	0xbe245443	-0.16047768
164	0x3db7a67c	0.08967301
165	0xbaebaf67	-0.0017981351
166	0x3c624f44	0.013812844
167	0xbc2e915d	-0.0106547745
168	0xbd57046d	-0.052494455
169	0x3db6a101	0.08917428
170	0x3d86ece9	0.06588156
171	0xbe013a7a	-0.12619963
172	0xbdfcc27e	-0.12341784
173	0x3e162527	0.1466261
174	0xbd84c043	-0.064819835
175	0xbdd368d2	-0.10322727
176	0x3e794482	0.2434254
177	0x3d46892a	0.048470654
178	0x3849c8bd	4.8109086e-05
179	0x3d7e6b01	0.062113766
180	0x3d92a153	0.071596764
181	0x3e0e4909	0.13895048
182	0x3e1b6706	0.15176019
183	0xbe57fbf5	-0.21092208
184	0x3c9baed7	0.019004269
185	0x3c67caf4	0.014147509
186	0xbe22cdf2	-0.15898874
187	0xbcacb345	-0.021081576
188	0xbc82f832	-0.01598749
189	0x3d10c4b4	0.03534384
190	0xbe01343a	-0.12617579
191	0xbdc23a4c	-0.094837755
192	0xbc80ecd5	-0.01573793
193	0xbdb89384	-0.090125114
194	0xbdae8c74	-0.08522883
195	0xbdd8945d	-0.10575173
196	0x3dd09b7b	0.101859055
197	0x3dc3293d	0.0952935
198	0x3d194aa4	0.0374247
199	0xbd0666b9	-0.032812808
200	0x3dfcc86c	0.12342915
201	0xbcb3c104	-0.021942623
202	0x3dbb2100	0.091371536
203	0xbcd3e7c6	-0.025867354
204	0xbdbb6dbf	-0.09151792
205	0xbcb9e249	-0.022690909
206	0xbd2be7cb	-0.041969102
207	0xbde1c6df	-0.1102426
208	0x3b551861	0.0032515752
209	0xbcf0fc1e	-0.029417094
210	0x3d9dbf10	0.07702458
211	0x3dbb5908	0.09147841
212	0xbbcb8853	-0.0062113195
213	0x3dc9481a	0.098282054
214	0x3d0c8e44	0.034315363
215	0x3d1de748	0.038550645
216	0xbd9b605a	-0.07586737
217	0xbce4904b	-0.027900835
218	0xbcdde69c	-0.027087502
219	0x3dde5658	0.108563125
220	0xbdf437ae	-0.119246826
221	0xbda03f20	-0.0782454
222	0x3d18cb8e	0.0373035
223	0x3dc99150	0.09842169
224	0x3db18f36	0.086698934
225	0xbdbbea10	-0.09175503
226	0xbdb29104	-0.08719066
227	0x3dfa89e2	0.1223333
228	0x3cd7393b	0.026272407
229	0xbdce3f6f	-0.10070693
230	0xbd00ec01	-0.03147507
231	0x3d3850dd	0.044998992
232	0xbce242d6	-0.02761976
233	0xbd751d45	-0.059842367
234	0xbdad20f7	-0.08453553
235	0xbd668859	-0.056282375
236	0xbc874c0b	-0.016515752
237	0x3d68ee63	0.05686797
238	0x3db69e78	0.08916944
239	0xbd156d45	-0.03648116
240	0xbc4cce55	-0.012500365
241	0xbdb5cf2d	-0.08877406
242	0x3dd1af8a	0.102385595
243	0x3def03f2	0.116706744
244	0x3e0af689	0.13570608
245	0x3d833fc3	0.06408646
246	0xbce20934	-0.027592279
247	0xbc36cd4c	-0.011157345
248	0x3da028e9	0.07820303
249	0xbdf46f2a	-0.11935265
250	0xbbfe0f2e	-0.0077532744
251	0xbd837a68	-0.064198315
252	0xbdfed232	-0.12442435
253	0xbba65574	-0.005076105
254	0xbd4002f1	-0.046877805
255	0xbdac5155	-0.0841395

rnn.bias_ih_l0 f4 [256]
0	0x3dfd291c	0.123613566
1	0x3e3241fa	0.1740798
2	0x3eb5001a	0.3535164
3	0x3da956d5	0.08268515
4	0xbe178e78	-0.14800441
5	0x3b794c19	0.0038039743
6	0x3c78bd8f	0.015181913
7	0x3dec900d	0.11550913
8	0x3e30df08	0.1727258
9	0xbdab2135	-0.08355943
10	0x3d3cd144	0.04609801
11	0xbd201c93	-0.03908975
12	0x3e0453d8	0.12922609
13	0x3d922d90	0.071375966
14	0x3e58ec5c	0.21183914
15	0x3ddb7c4e	0.107170686
16	0xba13abaf	-0.0005633188
17	0x3d88044d	0.06641445
18	0x3e9871bb	0.2977427
19	0x3d0ea1aa	0.034822144
20	0xbd9561d8	-0.07294053
21	0x3dc33931	0.09532393
22	0x3bef6535	0.007305766
23	0x3dcd2bc1	0.10018111
24	0xbd931ec6	-0.07183604
25	0xbd8b00b4	-0.067872435
26	0x3e1b2711	0.15151621
27	0x3dd014b3	0.10160198
28	0xbdcd1cbe	-0.10015248
29	0xbdf9a3bc	-0.12189433
30	0xbd07f832	-0.033195682
31	0x3c953f2a	0.018218596
32	0x3ea1ecaf	0.31625888
33	0x3d7c21b5	0.061555583
34	0x3d550a62	0.052011855
35	0xbe415c18	-0.18882787
36	0xbc2a34cd	-0.010388565
37	0x3dbb9d27	0.09160834
38	0x3d688f40	0.05677724
39	0x3e28ca71	0.16483475
40	0xbd27ae3d	-0.04093765
41	0xbdba7a78	-0.0910539
42	0x3f2ce716	0.6754011
43	0xbd56b986	-0.052423023
44	0xbb674dc7	-0.0035294162
45	0xbca625ed	-0.020281756
46	0x3dd0cb7d	0.10195062
47	0x3cb77c79	0.02239822
48	0xbd2c5e99	-0.042082403
49	0xbc2a1847	-0.010381765
50	0x3d4b3566	0.04961147
51	0x3e83a6b8	0.25713134
52	0xbe2121b7	-0.15735517
53	0x3d9de213	0.07709136
54	0x3e366ed2	0.17815712
55	0x3dd9ce05	0.10634998
56	0x3d5838b0	0.052788436
57	0xbd0dd483	-0.034626495
58	0xbd21ca4c	-0.039499566
59	0xbdc006b1	-0.09376276
60	0xbd88ac4e	-0.066734895
61	0x3e9cd28c	0.30629385
62	0xbdecc893	-0.11561694
63	0x3ce85f42	0.028365735
64	0xbde20b21	-0.11037279
65	0xbdb144f4	-0.0865573
66	0xbdb7e14c	-0.08978519
67	0x3dae7a42	0.085194126
68	0x3d97278d	0.073805906
69	0xbde7da7e	-0.11320971
70	0xbdb21c11	-0.086967595
71	0x3d38016f	0.044923242
72	0xbdb493bd	-0.08817241
73	0xbd38089a	-0.044930078
74	0xbd826a7b	-0.06367966
75	0xbe3d7a61	-0.18503715
76	0xbe40854b	-0.18800847
77	0x3bec2545	0.0072065913
78	0xbd397557	-0.04527792
79	0x3d1b00fd	0.03784274
80	0xbe5a52fa	-0.21320716
81	0xbe45e7d1	-0.19326712
82	0xbdd269f6	-0.10274117
83	0x3d5dc371	0.054141466
84	0xbe33879a	-0.17532197
85	0xbd4dd907	-0.0502558
86	0x3cf5576e	0.029948916
87	0xbc6d71ac	-0.0144924335
88	0xbe1abf9c	-0.15112156
89	0xbe1b603b	-0.15173428
90	0xbd2771df	-0.04088008
91	0xbd682d95	-0.056684095
92	0xbd938b8e	-0.07204352
93	0xbd6d5b7f	-0.057948586
94	0x3d15eedf	0.03660476
95	0x3d760876	0.060066663
96	0xbe018e7c	-0.1265201
97	0xbd886a64	-0.066609174
98	0x3d8811b7	0.06644004
99	0xbdda4c14	-0.10659042
100	0xbd8b610d	-0.0680562
101	0x3d058429	0.03259674
102	0xbe973b75	-0.2953755
103	0x3cbe44c5	0.023226151
104	0xbdc22591	-0.094798215
105	0xbdcbda42	-0.09953739
106	0xbe7e8d61	-0.2485862
107	0xbe3de9d0	-0.18546224
108	0xbcd86bcb	-0.026418587
109	0xbcc2ea52	-0.023793373
110	0xbe03682c	-0.12832707
111	0xbd4de941	-0.050271276
112	0xbe099f96	-0.13439783
113	0xbde118d9	-0.109910674
114	0x3c588c23	0.013217005
115	0x3d6c0f3a	0.05763171
116	0x3be40123	0.0069581433
117	0xbde7d4bd	-0.113198735
118	0x3d4ae919	0.049538705
119	0xbe027494	-0.12739784
120	0xbce3f26f	-0.027825562
121	0xbc67ebf0	-0.014155373
122	0xbce15457	-0.027506037
123	0xbe2f71ca	-0.17133251
124	0xbe19aee3	-0.1500812
125	0xbe417b80	-0.18894768
126	0xbd6ad1e9	-0.057329092
127	0x3d9de1d1	0.07709087
128	0x3d344ba5	0.044017453
129	0x3d992b07	0.0747891
130	0xbde8ab03	-0.11360743
131	0x3d9a76d1	0.07542194
132	0xbcf12d96	-0.029440682
133	0x3c48e4e6	0.012261605
134	0xbd792a7e	-0.06083154
135	0xbd6eb78a	-0.058280505
136	0x3d8ea8cf	0.069657914
137	0x3d2274cc	0.039662167
138	0xbde08af8	-0.10964006
139	0xbdd150cc	-0.10220489
140	0xbcc46a7d	-0.023976559
141	0x3dc86605	0.09785084
142	0x3e0d0987	0.13773166
143	0xbd295fd0	-0.04135114
144	0x3d6b8623	0.05750097
145	0x3d95f22a	0.0732158
146	0xbddcaa2b	-0.107746445
147	0xbd3d5848	-0.04622677
148	0x3d2bae48	0.041914254
149	0x3d110c94	0.035412386
150	0x3d4c1f5a	0.049834587
151	0x3dcefe4d	0.10107098
152	0x3d0e6508	0.03476432
153	0xbdac0cc7	-0.084008746
154	0xbdbe4c65	-0.09291915
155	0xbc22fc26	-0.009947812
156	0xbdab120a	-0.0835305
157	0x3d0ea01d	0.034820665
158	0xbcb5194f	-0.022106795
159	0x3dca2a3f	0.09871339
160	0x3caa5e40	0.020796895
161	0x3ca3820f	0.019959478
162	0xbcb2b293	-0.021813666
163	0x3d859085	0.065217055
164	0x3d468376	0.048465215
165	0xbd3af7a1	-0.045646314
166	0x3d754435	0.0598795
167	0x3d1fbb12	0.038996764
168	0xbd126dce	-0.03574925
169	0xbdb6040b	-0.0888749
170	0x3db57da4	0.08861855
171	0x3d5508af	0.052010234
172	0xbd9822d4	-0.07428518
173	0x3d52c050	0.051452935
174	0xbe170183	-0.1474667
175	0xbd5b8906	-0.053597473
176	0x3d1e906c	0.03871195
177	0xbb8bd998	-0.0042678826
178	0xbd2a67c0	-0.04160285
179	0xbc577a47	-0.013151712
180	0xbbfd8c10	-0.007737644
181	0xbd720ba2	-0.059093125
182	0x3dbd3ff2	0.09240712
183	0xbd9f395b	-0.077746116
184	0xbd5248da	-0.051339008
185	0xbddf767c	-0.10911271
186	0xbd226992	-0.03965146
187	0x3c794a13	0.015215415
188	0xbd1a8de5	-0.037732977
189	0xbd91f028	-0.07125884
190	0xbd92e4e1	-0.071725614
191	0xbd459577	-0.048238244
192	0x3e637e75	0.22216208
193	0x3e698055	0.22802861
194	0x3e5a5c6a	0.21324316
195	0xbca0da9e	-0.019635495
196	0x3a1f1200	0.0006068051
197	0xbd73aed2	-0.059492894
198	0x3dddb4be	0.108254895
199	0x3da64dd3	0.081203125
200	0x3e40fb8a	0.18845955
201	0x3c62657a	0.013818139
202	0xbb78e58f	-0.0037978624
203	0xbe3964c7	-0.1810485
204	0xbcbd9f8d	-0.023147369
205	0xbde99b76	-0.11406605
206	0x3e85a1d2	0.26100022
207	0x3ae14733	0.0017187357
208	0xbd032253	-0.032015156
209	0xbdedbb1d	-0.11607955
210	0x3eb1450d	0.34622994
211	0x3ca2643c	0.019823186
212	0x3d48b1b7	0.048997607
213	0xbdb29ce1	-0.087213285
214	0x3daf1f9d	0.08550952
215	0x3c982dc4	0.01857651
216	0xbd503977	-0.050836053
217	0x3d2a2de5	0.041547675
218	0x3d63ee50	0.055647194
219	0x3e2726b7	0.16323362
220	0x3d31779f	0.04332697
221	0xbe13ff8f	-0.14452957
222	0x3dff4cda	0.1246583
223	0x3cfd2fb8	0.030906543
224	0x3e2e1cf9	0.1700324
225	0x3e471bcf	0.19444202
226	0x3da57c87	0.08080392
227	0xbe0af150	-0.13568616
228	0x3d7c9040	0.061661005
229	0xbd0c705f	-0.034286853
230	0x3d758f6a	0.059951223
231	0x3d9bb127	0.076021485
232	0xbdd17127	-0.1022666
233	0xbcf04fd2	-0.029334936
234	0x3f60f2af	0.87870306
235	0xbe14da19	-0.14536323
236	0xbd25d8b9	-0.040489886
237	0x3d2a4380	0.04156828
238	0x3dc89395	0.09793774
239	0x3b9ef1d9	0.004850608
240	0xbc4f33f8	-0.012646668
241	0x3e1d0e08	0.15337384
242	0x3d65efd1	0.05613691
243	0x3e3222b6	0.17396054
244	0xbdac77a2	-0.08421256
245	0xbda0f46a	-0.07859118
246	0x3d46d391	0.04854161
247	0x3c448f66	0.0119970795
248	0x3d2df479	0.042469475
249	0xbd4d6b46	-0.050151132
250	0xbcfb0f29	-0.030646877
251	0xbde01706	-0.10941891
252	0xbdaf79b3	-0.08568134
253	0x3e31b859	0.1735548
254	0x3cf0be64	0.02938766
255	0xbd8135b3	-0.063090704

rnn.bias_hh_l0 f4 [256]
0	0x3e11d203	0.1424027
1	0x3dabf36c	0.083960384
2	0x3e402f57	0.18768059
3	0x3da46bcb	0.080283724
4	0x3b74493b	0.0037275094
5	0xbb3fed77	-0.0029285827
6	0x3dddcae3	0.10829713
7	0x3de5b7e5	0.11216716
8	0x3dc00ab0	0.093770385
9	0xbd8197cc	-0.06327781
10	0x3e0b97ac	0.13632077
11	0xbe21d0dc	-0.1580233
12	0xbc6b24c1	-0.0143520245
13	0xbde971fd	-0.11398695
14	0x3e795c3f	0.24351595
15	0x3de741d7	0.11291855
16	0x3c98bd8b	0.018645069
17	0x3b68cbe8	0.0035521928
18	0x3e5ef2ae	0.21772262
19	0xbdb9f870	-0.09080589
20	0xbe2e0abe	-0.16996285
21	0xbc8d31ca	-0.017235655
22	0x3db2fbdc	0.087394446
23	0x3bbc7c23	0.005752103
24	0xbbd6394a	-0.006537591
25	0xbcdbc25a	-0.026826072
26	0x3cf0a769	0.029376702
27	0x3dd81307	0.10550504
28	0xbd58e719	-0.052954767
29	0xbd02c1a1	-0.03192294
30	0xbdad12ed	-0.084508754
31	0x3bc718b8	0.0060759448
32	0x3e9a0c16	0.30087346
33	0x3c36f001	0.01116562
34	0x3da5fe53	0.08105149
35	0xbd8b08ed	-0.06788812
36	0xbd93d144	-0.072176486
37	0xbc3758ce	-0.011190606
38	0x3e16ff95	0.14745934
39	0x3d721f00	0.059111595
40	0xbdd2d1b8	-0.10293907
41	0xbe4fa28c	-0.2027685
42	0x3f6459a4	0.8919928
43	0x3d558921	0.05213273
44	0xbc80a747	-0.015704764
45	0x3ca365d3	0.019946015
46	0xbc0debfc	-0.00866222
47	0xbca8ffc8	-0.020629779
48	0x3d1176a7	0.035513546
49	0x3e1f71ec	0.15570801
50	0x3d16c0f4	0.03680511
51	0x3e35d839	0.17758264
52	0xbd90d9f2	-0.0707282
53	0x3d56736f	0.05235618
54	0x3e7ebf73	0.2487772
55	0x3da42d1c	0.080164164
56	0xbd0cfdb1	-0.034421626
57	0xbd9330db	-0.07187053
58	0x3dcd41a8	0.100222886
59	0xbdf123a2	-0.117743745
60	0x3c9ff3e0	0.019525468
61	0x3ea4f106	0.32215136
62	0x3d948db5	0.07253591
63	0x3df7e6ae	0.121045455
64	0xbc3a2487	-0.011361248
65	0x3dad913e	0.084749684
66	0x3e14b1b2	0.1452091
67	0xbd06c78a	-0.03290514
68	0xbddcee9b	-0.10787698
69	0xbd962a2d	-0.07332263
70	0xbccd083d	-0.025028342
71	0xbd9b9f87	-0.07598787
72	0xbcff479d	-0.031162078
73	0x3caefd1d	0.021360928
74	0xbdba07a9	-0.09083492
75	0xbd6d132e	-0.05787962
76	0xbd8d6a89	-0.069050856
77	0xbd3a8e0a	-0.045545615
78	0x3ba2bb9e	0.0049662134
79	0xba7475d1	-0.00093254173
80	0xbe3db079	-0.1852435
81	0xbe4ad97c	-0.19809526
82	0xbe07c542	-0.13258842
83	0xbdfb6c8c	-0.12276563
84	0xbe1038d9	-0.14084186
85	0xbdcb246f	-0.099190585
86	0x3d005d41	0.031338934
87	0xbdee7eef	-0.116453044
88	0xbe037d3f	-0.12840746
89	0xbe206ec7	-0.15667258
90	0xbda149cf	-0.07875406
91	0x3d3913cd	0.0451849
92	0xbdea8706	-0.11451535
93	0xbdfa6b38	-0.122274816
94	0x3d15c103	0.036561023
95	0x3c04b5e4	0.008100007
96	0xbd2c2fff	-0.04203796
97	0x3d24d794	0.040244654
98	0xbdc80d96	-0.09768216
99	0xbdbb21fb	-0.09137341
100	0x3d248328	0.040164143
101	0x3d0a31fb	0.03373907
102	0xbe42791e	-0.18991515
103	0xbdb73018	-0.0894472
104	0xbe0c4b55	-0.13700612
105	0xbdfa11a7	-0.12210398
106	0xbe8958f4	-0.26825678
107	0xbccaadbe	-0.02474105
108	0xbd725210	-0.059160292
109	0x3d323f93	0.04351766
110	0xbe4123a0	-0.18861246
111	0x3c4f1e6c	0.0126415305
112	0x3dc73d89	0.09728534
113	0xbc98313c	-0.018578164
114	0x3c11f670	0.008908853
115	0xbdbaea9a	-0.09126778
116	0x3bb31eb7	0.005466308
117	0x3d9ceb85	0.07662109
118	0xbc9cdcd9	-0.019148277
119	0xbcac4939	-0.021031009
120	0xbd81e35e	-0.06342195
121	0xbb18877a	-0.002327411
122	0x3d6bd395	0.057574827
123	0xbc86b845	-0.016445288
124	0xbe290387	-0.16505252
125	0xbe0d5128	-0.1380049
126	0xbe26b733	-0.16280822
127	0xbd9e7674	-0.07737437
128	0xbda61b2e	-0.08110653
129	0xbe150414	-0.14552337
130	0x3d98eaf6	0.0746669
131	0xbca0a810	-0.019611388
132	0xbdcd54a8	-0.100259125
133	0x3d54b3e0	0.051929355
134	0xbd48aed2	-0.048994847
135	0x3de7349a	0.1128933
136	0xbdd8a05f	-0.10577463
137	0x3d490b8a	0.04908327
138	0x3d013ccb	0.031552117
139	0x3d832c35	0.06404916
140	0x3cf0d151	0.029396685
141	0xbdf8b8d6	-0.1214463
142	0xbba35a68	-0.0049851425
143	0x3d084f47	0.03327873
144	0xbbdfeea0	-0.0068338662
145	0x3cb116a9	0.02161725
146	0xbcc968c0	-0.024586082
147	0x3db5a8c9	0.08870084
148	0x3d44ab5f	0.048014995
149	0xbc8c127a	-0.017098654
150	0x3ad823f9	0.0016490213
151	0xbd9010e3	-0.07034471
152	0x3dcbc133	0.09948959
153	0xbd44c3fc	-0.048038468
154	0x3d3c324d	0.045946408
155	0x3dc0bd38	0.094110906
156	0xbc0889db	-0.008333649
157	0x3d90121e	0.070347056
158	0x3d27211e	0.040803067
159	0xbe062ffc	-0.13104242
160	0xbd128a21	-0.03577626
161	0x3d8a470f	0.067518346
162	0x3cff60d7	0.031174107
163	0xbd89c1df	-0.06726431
164	0x3dadb451	0.08481658
165	0x3ca86b0d	0.020558858
166	0xbc7c749a	-0.015408659
167	0xbc70d687	-0.014699585
168	0xbdaa54b0	-0.08316934
169	0x3dac0943	0.08400204
170	0xbd719543	-0.058980238
171	0xbd68006f	-0.05664104
172	0x3da73aa9	0.081654854
173	0x3ce4207d	0.027847523
174	0x3d44cb89	0.04804567
175	0xbd703d21	-0.058652047
176	0x3e044fdb	0.12921087
177	0x3cdd14fa	0.026987541
178	0x3d82022d	0.06348071
179	0x3d710b82	0.058848865
180	0x3dbf885a	0.09352179
181	0x3dfcc2a9	0.12341816
182	0xbac17bf0	-0.0014761668
183	0xbdd19e82	-0.10235311
184	0x3d82e11f	0.06390595
185	0xbdb9a036	-0.09063761
186	0xbb250152	-0.002517779
187	0x3c5560e8	0.0130235925
188	0x3c6c6ab9	0.014429742
189	0x3c80ac25	0.015707085
190	0xbe206138	-0.15662086
191	0x3d874c20	0.066063166
192	0x3dda36ab	0.10654958
193	0x3d72e8ce	0.05930405
194	0x3e7f5369	0.24934162
195	0x3ba86bc4	0.0051398
196	0xbd95d36b	-0.073157154
197	0x3d690245	0.05688693
198	0xbc2360d5	-0.009971817
199	0xbcb45b1f	-0.022016106
200	0x3e5e33ef	0.21699499
201	0xbd1e23a0	-0.038608193
202	0x3cdcc14a	0.026947636
203	0xbe242fb2	-0.1603382
204	0xbd61727d	-0.055040825
205	0xbd2277c3	-0.039664995
206	0x3e3a2c08	0.18180859
207	0xbd90bd3e	-0.07067345
208	0xbda2511c	-0.07925627
209	0xbcd9e471	-0.026598187
210	0x3eb679ba	0.35639745
211	0xbdde9e21	-0.108700044
212	0xbe17fe34	-0.14843065
213	0xbdce57b8	-0.10075325
214	0xbc91c34c	-0.01779332
215	0xbcb07746	-0.021541249
216	0xbcaeef0d	-0.021354223
217	0xbe206627	-0.15663968
218	0x3e504255	0.20337804
219	0x3e463ada	0.19358388
220	0xbc0174ff	-0.007901429
221	0xbd28dc52	-0.04122574
222	0x3dec6fac	0.11544737
223	0x3db76f14	0.08956733
224	0x3e249770	0.16073394
225	0x3e1e1210	0.15436578
226	0x3c4bc5cb	0.012437294
227	0xbdcf0017	-0.10107439
228	0x3b31713b	0.0027075547
229	0x3c99c4d6	0.018770617
230	0x3cfff082	0.031242613
231	0x3e32609f	0.1741967
232	0x3dc8762c	0.097881645
233	0xbd62fda7	-0.055417683
234	0x3f4a8cea	0.7912127
235	0xbce00099	-0.027344035
236	0x3e34a9ed	0.17642947
237	0xbe2c924a	-0.1685268
238	0x3d8a7189	0.06759936
239	0xbd28a280	-0.041170597
240	0x3e0e8366	0.13917312
241	0x3db0bde7	0.08629971
242	0xbd910fa8	-0.07083064
243	0x3eb861e1	0.36012176
244	0x3d964993	0.07338252
245	0xbdb73b1f	-0.08946823
246	0x3db52c51	0.08846343
247	0x3db106b7	0.08643859
248	0xb7defce5	-2.6582225e-05
249	0xbd70f28b	-0.058825057
250	0x39c9023d	0.00038339375
251	0xbe0023ac	-0.12513608
252	0xbe209639	-0.15682305
253	0x3e39ca7e	0.18143651
254	0xbb64dbc0	-0.003492102
255	0xbd26eef8	-0.040755242

rnn.weight_ih_l1 f4 [256, 64]
0	0xbc3b033e	-0.011414347
1	0xbc36d6fa	-0.011159653
2	0xbce12bf8	-0.027486786
3	0xbc5b4f12	-0.013385551
4	0x3a11cfc5	0.0005562271
5	0xbd176b7e	-0.036967747
6	0xbb6c382b	-0.003604422
7	0x3d1320e7	0.03592005
8	0xba6f60ae	-0.0009131533
9	0x3ad71da3	0.0016412031
10	0x3b16590a	0.0022941255
11	0x3c3f4eac	0.011676472
12	0x3b00cd1a	0.00196535
13	0xba4b9092	-0.0007765378
14	0x3b799989	0.00380859
15	0x3cbc33f7	0.022973998
16	0x3ba41b56	0.0050081415
17	0x3a86a8d3	0.0010273702
18	0x3b6fdfe6	0.003660196
19	0xbbaa9607	-0.005205873
20	0xbc3decda	-0.011592114
21	0xbaa665da	-0.0012695149
22	0xbd3dd95b	-0.046349864
23	0xbc0e5e23	-0.008689436
24	0xbca821fe	-0.020524021
25	0xbc968dfa	-0.018378247
26	0xbc262124	-0.010139737
27	0xbaadc95d	-0.0013258863
28	0x3c251e04	0.010077957
29	0x3b64aa64	0.00348916
30	0x3b850cdb	0.0040603704
31	0x3ba22a9f	0.0049489285
32	0x3c9fd5ae	0.01951107
33	0xbd0faed4	-0.03507884
34	0x3a544f0e	0.0008098938
35	0xbaa84fa7	-0.0012841121
36	0xbbc77252	-0.006086626
37	0x3cb48eb0	0.022040695
38	0x3a8b05ab	0.0010606548
39	0x3c657730	0.014005467
40	0xbc235305	-0.009968524
41	0x384b980e	4.8540584e-05
42	0x3d3a8097	0.04553279
43	0xbc699f41	-0.0142591605
44	0x3bc9cd11	0.006158479
45	0xbc8ced33	-0.01720295
46	0x3b2a2f7a	0.002596824
47	0x3ba2a185	0.0049631023
48	0xbcdd9c18	-0.02705197
49	0xbc9a9991	-0.018872054
50	0x3af6d693	0.0018832259
51	0x3c09550d	0.008382094
52	0x3b17790a	0.0023112916
53	0xba5a0328	-0.00083165104
54	0xbc8f224b	-0.017472407
55	0x3d1f41ca	0.0388811
56	0xbae42881	-0.0017407091
57	0x3c539a4f	0.012915208
58	0x3ce61207	0.028084768
59	0x39336cf0	0.00017111353
60	0x3c0e121f	0.008671313
61	0x3cccba8e	0.0249913
62	0x3d1dcc34	0.03852482
63	0x39f361af	0.00046421352
64	0xbb602599	-0.0034202097
65	0xbc6eb039	-0.014568382
66	0x3d367971	0.04454941
67	0x3cf7b68d	0.030238414
68	0xbc97577c	-0.018474333
69	0x3cc669be	0.024220344
70	0xbd21d63f	-0.03951096
71	0xb90b1a33	-0.00013265833
72	0x3ddfa191	0.10919488
73	0x3cbecc91	0.023290904
74	0x3d64f7be	0.055900328
75	0xbc088c54	-0.008334238
76	0xbc39fb5e	-0.0113514345
77	0x3d15cd34	0.03657265
78	0xbe08ee26	-0.13372096
79	0xbd75c7c4	-0.060004964
80	0xbd01c42a	-0.031681217
81	0x3cd1e338	0.025621042
82	0x3ddfc490	0.10926163
83	0xbd7293d7	-0.059223022
84	0x3d9cedc3	0.07662537
85	0x3d0c6122	0.03427232
86	0x3d37237a	0.044711567
87	0xbc27fcf6	-0.010253182
88	0xbc952e3f	-0.018210528
89	0x3c0346a6	0.008012449
90	0x3d8a3ee6	0.06750278
91	0xbc1e8f40	-0.009677708
92	0x3c2a1dc9	0.010383078
93	0xbccdc999	-0.025120543
94	0x3df0fe2f	0.11767232
95	0x3c3595f8	0.011083119
96	0x3d26aba9	0.04069105
97	0x3d905642	0.07047702
98	0xbd38ec5d	-0.04514729
99	0xbaa1c879	-0.0012343071
100	0x3d1f0d24	0.03883089
101	0x3d0fc5e2	0.035100825
102	0xbb33da2c	-0.0027443273
103	0x3bbf4363	0.0058368905
104	0xbce88613	-0.028384244
105	0x3c2a9754	0.010412056
106	0x3d1b94ba	0.037983634
107	0x3b85b49f	0.0040803696
108	0x3c6b6964	0.014368389
109	0x3d98f67f	0.074688904
110	0xbc984d96	-0.018591683
111	0xbc37c361	-0.011216016
112	0x3c812c7c	0.015768282
113	0x3d9b4e49	0.07583291
114	0x3d61e908	0.055153877
115	0xbd4d2e4a	-0.050092973
116	0x3d7cad7e	0.061688893
117	0xbc9fea62	-0.019520942
118	0x3e0b41a7	0.13599263
119	0x3c85cce7	0.016333057
120	0x3d8c124a	0.06839426
121	0x3d3c0b52	0.045909233
122	0xbe08c20d	-0.13355274
123	0x3bd853bb	0.0066017783
124	0xbbab7b1f	-0.005233183
125	0x3c4ab532	0.012372302
126	0x3d159161	0.036515597
127	0x3c0e1841	0.008672775
128	0x3c09984a	0.008398125
129	0x3d479ad3	0.048731636
130	0x3bec913e	0.0072194627
131	0x3cd73c45	0.026273856
132	0x3cf93ff9	0.030426012
133	0xbca5f683	-0.020259148
134	0xbd83f727	-0.06443625
135	0x3c94f57e	0.018183466
136	0x3d4453e8	0.04793158
137	0x3c98dc8f	0.018659858
138	0xbc5fde13	-0.013663786
139	0x3c809b8e	0.015699174
140	0xbd26cdb2	-0.04072351
141	0xbc88f4f7	-0.01671837
142	0xbc0a4baf	-0.008440896
143	0x3d081384	0.033221737
144	0xbbde4726	-0.006783384
145	0x3c6f2395	0.014595886
146	0x3c1311cb	0.00897641
147	0xbce1ba17	-0.027554555
148	0x3ca1aac0	0.01973474
149	0x3d100050	0.035156548
150	0xbc4765d6	-0.012170276
151	0xbc5e55db	-0.013570274
152	0xbc150e26	-0.0090976115
153	0xbd521ad6	-0.051295124
154	0x3ccb8aab	0.024846395
155	0x3d25fab6	0.0405223
156	0x3c8c4866	0.017124366
157	0xbc449d02	-0.012000324
158	0x3d360d83	0.04444648
159	0xbcdb131b	-0.026742509
160	0x3d7d6f64	0.06187381
161	0x3d506f8c	0.05088763
162	0x3c2e948d	0.010655534
163	0xbb47da70	-0.003049519
164	0x3cfed2ca	0.031106371
165	0xbadb9ad9	-0.0016754522
166	0x3b8ee427	0.004360694
167	0x3c5c082e	0.013429685
168	0xbd001763	-0.031272303
169	0xbba0aa83	-0.004903139
170	0x3dc38fdf	0.095489256
171	0x3cc0cec2	0.02353609
172	0x3d5d891a	0.05408583
173	0xbca05497	-0.019571586
174	0x3c33bbfc	0.010970112
175	0xbcea9613	-0.028636014
176	0x3c8e58b3	0.01737628
177	0xbbbbacd4	-0.00572739
178	0xbd02c7bb	-0.03192876
179	0xbcbcc955	-0.023045221
180	0xbb2714f6	-0.0025494671
181	0x3cc9b8d8	0.024624273
182	0xbc0497c3	-0.008092823
183	0xbd02b9d2	-0.031915493
184	0x3d2a6b68	0.041606337
185	0xbbbfe5a3	-0.0058562323
186	0x3d8dd12d	0.06924663
187	0xbb7b1545	-0.0038312238
188	0x3bfed9c1	0.007777423
189	0xbbae8318	-0.005325686
190	0x38fe4d3c	0.0001212605
191	0xbd6559e5	-0.055993933
192	0xbd913ac1	-0.070912845
193	0x3ddabf99	0.106810756
194	0xbe04284a	-0.12905994
195	0x3d729ff4	0.059234574
196	0x3d1bcb35	0.03803559
197	0x3db1907e	0.08670138
198	0xbc408bab	-0.011752049
199	0xbd06ce1f	-0.032911416
200	0xbd4499c4	-0.047998205
201	0x3df49101	0.1194172
202	0x3bc25c1c	0.0059313904
203	0x3d1e1ea8	0.038603455
204	0xbdce3929	-0.10069496
205	0xbd6ad2bb	-0.057329874
206	0x3e0970ed	0.13421984
207	0x3d278ff0	0.040908754
208	0xbd652d0e	-0.05595117
209	0x3d9632e9	0.07333929
210	0xbdb95a05	-0.09050373
211	0x3c8296bd	0.015941018
212	0x3c217aa6	0.009855902
213	0x3e062522	0.13100103
214	0xbd90d2da	-0.07071467
215	0xbd6fb4c2	-0.058521993
216	0xbc8afe4e	-0.016966965
217	0xbdaf512c	-0.08560404
218	0x3cb83e04	0.022490509
219	0x3e47960a	0.19490829
220	0x3c3c11f8	0.011478893
221	0xbd6836c2	-0.056692846
222	0x3d779d85	0.060452957
223	0xbd22fec6	-0.039793752
224	0x3dd8461c	0.10560247
225	0x3db85bfb	0.09001919
226	0xbdb1cd63	-0.086817525
227	0xbd1a5e44	-0.037687555
228	0xbbb7bcc3	-0.005607219
229	0xbccdd24a	-0.025124688
230	0x3d0f1da5	0.03494038
231	0xbda35d1f	-0.07976746
232	0xbdbc3880	-0.09190464
233	0xbc00fbc5	-0.0078725265
234	0x3e2f9050	0.17144895
235	0xbbf4d122	-0.0074712196
236	0x3d6e68af	0.058205303
237	0x3ce5d976	0.028057795
238	0xbd9df17a	-0.077120736
239	0xbdac6b9e	-0.08418964
240	0x3ddf988a	0.109177664
241	0xbaa67b55	-0.0012701551
242	0xbcd6a28c	-0.026200555
243	0x3c9484ef	0.018129794
244	0x3dcbd6e0	0.099530935
245	0x3d9fea61	0.07808376
246	0xbca63cdd	-0.020292694
247	0xbcc7daa8	-0.024396256
248	0x3cdca7b8	0.026935443
249	0xbdcf8cf1	-0.10134304
250	0x3cd77141	0.02629912
251	0x3afc897e	0.001926705
252	0x3ca506b6	0.020144802
253	0xbd3354ec	-0.04378216
254	0xbcf418be	-0.029796954
255	0x3d57546b	0.05257074

rnn.weight_hh_l1 f4 [256, 64]
0	0x3c618a45	0.013765876
1	0xbc511979	-0.012762421
2	0xbba826eb	-0.0051315925
3	0xbc302fdf	-0.010753601
4	0xbd002139	-0.031281684
5	0x3d626abe	0.05527758
6	0xbb504313	-0.003177826
7	0x3c943095	0.018089572
8	0x3a18e5e5	0.0005832597
9	0xbc927663	-0.017878717
10	0xbc50e806	-0.012750631
11	0xbcb1c7e9	-0.02170177
12	0x3c429ad1	0.011877731
13	0xba24aa47	-0.0006281477
14	0x3c905819	0.017620133
15	0x3b821734	0.003970051
16	0xbcc442db	-0.02395766
17	0x3a9eb4ec	0.0012108362
18	0x3c10b5a0	0.008832365
19	0xbbdfa853	-0.0068254857
20	0xbc9b9efc	-0.018996708
21	0x3b49d942	0.0030799662
22	0xbb95704f	-0.0045605074
23	0xbb356512	-0.002767865
24	0x3d9a8d23	0.07546451
25	0xbb3850c5	-0.0028124314
26	0x3ad21f3a	0.0016031035
27	0x3d28ebdc	0.041240558
28	0xbc11bd8a	-0.008895287
29	0x3c13f1f9	0.009029859
30	0x3c0c0ef2	0.008548485
31	0x3b612eca	0.0034360164
32	0xbb0f786c	-0.0021891845
33	0x3b81f672	0.003966146
34	0x3c4be11b	0.012443806
35	0xbc1c0009	-0.009521493
36	0xbaad3147	-0.0013213538
37	0x3c9f6aa2	0.019460026
38	0x3a84484d	0.0010092348
39	0xbb59c9ce	-0.0033231857
40	0x3bd6fe48	0.0065610744
41	0xbc89eefe	-0.016837593
42	0xbc42b3bc	-0.011883672
43	0x3c379c58	0.011206709
44	0xbd1e83b1	-0.03869981
45	0xbc7e0d3b	-0.015506084
46	0xbb1a51e5	-0.0023547348
47	0x3c44e100	0.012016535
48	0x3cd13b99	0.025541114
49	0x3bb6cc9c	0.0055785906
50	0x3cd5f2ba	0.026116718
51	0xbcce6c8a	-0.02519824
52	0xbbf61612	-0.007509955
53	0x37ef5258	2.8529364e-05
54	0x3b12e35c	0.0022413349
55	0x3d8e4e07	0.06948476
56	0xbbe69054	-0.007036248
57	0xbd2cefc5	-0.04222085
58	0x3ac32e57	0.001489113
59	0x3ab1bb07	0.0013559767
60	0xbc88f837	-0.01671992
61	0x3c6618a9	0.014043965
62	0x3c7cedd1	0.015437559
63	0xbb5435ef	-0.003238078
64	0xbc051046	-0.008121556
65	0x3d8d7267	0.06906586
66	0x3cca0483	0.024660354
67	0xbdb28991	-0.08717645
68	0xbda3943c	-0.07987258
69	0x3d5c4943	0.053780805
70	0xbc8a628f	-0.0168927
71	0xbc904e8d	-0.01761558
72	0x38ce225b	9.829245e-05
73	0x3af4f7fb	0.0018689627
74	0xbcb31290	-0.021859437
75	0xbdb33c35	-0.08751718
76	0x3dab939f	0.08377766
77	0x3cf82b6c	0.030294143
78	0x3d4807a3	0.048835408
79	0xbb9bfaab	-0.0047601066
80	0x3c7eac53	0.015544015
81	0x3c7d66f2	0.015466439
82	0x3cfd0f37	0.030891044
83	0xbb90e8f1	-0.0044223
84	0xbc51f3c7	-0.012814469
85	0x3d273bc1	0.04082847
86	0x3b46fb5f	0.0030362231
87	0xbc405138	-0.011738114
88	0x3dd88e0c	0.10573968
89	0xbc250c7f	-0.01007378
90	0x3c0db137	0.008648208
91	0x3dd3e910	0.103471875
92	0xbda462b9	-0.08026642
93	0x3cf1902f	0.029487697
94	0xbd39d811	-0.045372073
95	0xbcc2cdc9	-0.023779767
96	0x3c2565ce	0.010095073
97	0x3c471954	0.012152035
98	0x3db30c9b	0.08742639
99	0xbd61136d	-0.054950166
100	0xbd0b21c2	-0.03396774
101	0x3d9a64b4	0.07538739
102	0x3b913358	0.0044311695
103	0xbd81b57c	-0.063334435
104	0x3d391e90	0.045195162
105	0x3d48bd93	0.049008917
106	0x3dfdb7e2	0.123885885
107	0xbd1ad6f4	-0.03780265
108	0x3b17bad7	0.0023152137
109	0xbd1038be	-0.035210364
110	0x3cbf41aa	0.02334674
111	0x3c875974	0.016522147
112	0xbd8ff6ea	-0.07029517
113	0xbb2640ee	-0.002536829
114	0x3cbebc93	0.023283279
115	0xbdb705ed	-0.08936677
116	0xbd2cb5e2	-0.042165644
117	0xbbedae62	-0.007253454
118	0xbba80762	-0.005127833
119	0x3cb2b6a9	0.021815615
120	0x3b8c1ccf	0.004275895
121	0x3c893bd7	0.016752167
122	0xbce2e778	-0.027698264
123	0x3c163b1b	0.009169365
124	0xbc12ec81	-0.00896752
125	0x3d8b432f	0.06799924
126	0x3c48e9d0	0.0122627765
127	0x3c07197a	0.00824582
128	0xbcafe633	-0.021472072
129	0x3d4b3601	0.04961205
130	0x3b53aef4	0.0032300325
131	0xbc06e16b	-0.008232455
132	0xbb7192b1	-0.0036861117
133	0xbd3f8f04	-0.04676725
134	0xbcd87099	-0.026420878
135	0xbcf171a5	-0.029473135
136	0xba4f329e	-0.0007903966
137	0x3cbc157e	0.022959467
138	0xbcef938c	-0.02924516
139	0xbc8ad681	-0.016947987
140	0x3d4bab05	0.049723644
141	0xbbfdda0c	-0.0077469405
142	0x3d821ee1	0.06353546
143	0xbc3a4957	-0.011370025
144	0x3cc832b3	0.024438238
145	0x3bf50a45	0.007478031
146	0xb9d1e4e2	-0.00040034117
147	0x3b500aae	0.0031744647
148	0x3cac4d6f	0.021033017
149	0x3c6f506e	0.014606578
150	0xbcac491a	-0.021030951
151	0xbca05e4e	-0.019576218
152	0x3d979fe5	0.07403544
153	0xbc655fa1	-0.0139998505
154	0xbb034302	-0.0020028953
155	0xbce5843c	-0.028017156
156	0xbc9e385c	-0.019313984
157	0x3d5e90c4	0.054337278
158	0xbd15ebb6	-0.036601745
159	0x3b9260ad	0.004467091
160	0xbc8fa4d7	-0.017534656
161	0x3c5645d6	0.013078174
162	0x3cc31d8d	0.023817802
163	0xbcc875fd	-0.024470324
164	0xbba69594	-0.005083749
165	0x3da06fad	0.078338005
166	0xbae40623	-0.0017396848
167	0xbc51aaaf	-0.012797042
168	0xbc380c63	-0.011233422
169	0x3bd8adaf	0.0066125016
170	0xbd054af0	-0.03254217
171	0xbd861468	-0.06546861
172	0x3d2f4250	0.04278785
173	0x3b06104d	0.0020456493
174	0x3c514311	0.0127723375
175	0x3d2800cc	0.041016385
176	0x3ce61f76	0.028091174
177	0xbb8e17fa	-0.0043363543
178	0x3cf65c92	0.030073438
179	0xbc5ffece	-0.01367159
180	0xbc5b9ce7	-0.013404108
181	0xbc25cba5	-0.010119353
182	0x3ba85d99	0.005138111
183	0x3df431ee	0.11923586
184	0xbcef9e7d	-0.029250378
185	0xbcdc6dd9	-0.026907848
186	0x3c8591d4	0.016304888
187	0x3947de58	0.00019060948
188	0xbccf0d09	-0.02527477
189	0x3d001e6b	0.03127901
190	0xbb4e407b	-0.0031471539
191	0xbc0469c2	-0.008081855
192	0xbb3f432b	-0.0029184322
193	0xbd32d2c6	-0.04365804
194	0xbcddb5ba	-0.027064193
195	0xbceeb2cf	-0.029137997
196	0x3cf50b7b	0.0299127
197	0x3d9e276c	0.07722363
198	0xbd4b1202	-0.04957772
199	0x3d51e594	0.051244333
200	0xba9cd78d	-0.0011966095
201	0x3bff7957	0.0077964473
202	0xbd006540	-0.03134656
203	0xbd91bfbd	-0.07116649
204	0x3e106514	0.14101058
205	0xbc094394	-0.008377928
206	0x3c5e299d	0.013559726
207	0x3d000f15	0.031264383
208	0x3d8d88c4	0.069108516
209	0x3b8299f7	0.003985639
210	0xbd201047	-0.039078023
211	0x3c652deb	0.0139879985
212	0x3c305360	0.010762066
213	0xbc09af5c	-0.008403625
214	0xbc13b2ac	-0.009014767
215	0xbd6da84a	-0.05802182
216	0x3e1d0e3a	0.15337458
217	0xbd7428fb	-0.059609395
218	0xbb65b735	-0.0035051827
219	0x3bcd14d9	0.0062585887
220	0xbd5463c7	-0.051852968
221	0xbbe6d254	-0.007044116
222	0x3d0ba968	0.034097105
223	0xbcce27d3	-0.025165474
224	0xbc0ecdbf	-0.008716046
225	0x3d588eb0	0.052870452
226	0x3ccc8649	0.024966376
227	0x3d824e29	0.06362564
228	0x3cfdffad	0.031005705
229	0x3e07b7e2	0.1325374
230	0x3c40815e	0.011749594
231	0xbd19b495	-0.037525732
232	0xbd363590	-0.044484675
233	0x3d1dc6fb	0.03851984
234	0x3d582d78	0.052777737
235	0xbd839d16	-0.06426446
236	0xbc22a15c	-0.009926166
237	0x3d62c2af	0.055361446
238	0xbca291db	-0.01984494
239	0xbc01f20d	-0.007931245
240	0x3c581fd8	0.013191186
241	0x3c4ff162	0.0126918275
242	0x3d4cdda4	0.05001606
243	0xbd9a019e	-0.0751984
244	0xbbbe9139	-0.0058156517
245	0xbcb3e034	-0.021957494
246	0xbaf66cd6	-0.0018800746
247	0x3d8167c5	0.063186206
248	0xbcb7b25f	-0.022423921
249	0x3d14acca	0.036297597
250	0x3ce18ae7	0.027532054
251	0xbbd7b6bc	-0.006583063
252	0xbba2570f	-0.004954226
253	0xbd085dc5	-0.03329255
254	0x3c038414	0.008027095
255	0xbca7f1c9	-0.020501034

rnn.bias_ih_l1 f4 [256]
0	0xbdfdd9a6	-0.12395029
1	0xbc4e7ca3	-0.012602958
2	0xbb47ebe9	-0.0030505604
3	0xbd16aa86	-0.036783718
4	0xbd8f0bbe	-0.069846615
5	0xbd1ee6dc	-0.038794383
6	0xbe09665f	-0.13417958
7	0x3db5f161	0.0888393
8	0xbd7a869e	-0.061163537
9	0xbe0c42bf	-0.13697337
10	0x3dd65e0f	0.10467159
11	0x3cbe58e2	0.023235742
12	0x3e163ae2	0.146709
13	0x3d29cd22	0.041455396
14	0x3e23a5fe	0.1598129
15	0x3ca3e2c1	0.020005586
16	0xbc1c29af	-0.0095314225
17	0x3d7aae97	0.061201658
18	0xbda5fc44	-0.081047565
19	0xbda0efee	-0.07858263
20	0xbe0ce88e	-0.13760588
21	0xbce8fc16	-0.028440516
22	0x3e04728c	0.12934321
23	0x3b694a6a	0.0035597333
24	0x3f19f5c9	0.60140663
25	0xbe0ff9cb	-0.14060132
26	0xbdaa2b4b	-0.08309039
27	0xbd22c653	-0.039739918
28	0xbccb39b3	-0.024807787
29	0xbdbe0080	-0.09277439
30	0x3d0f0a5c	0.03492199
31	0xbdd86d72	-0.1056775
32	0x3cc00afd	0.02344274
33	0xbdb77f44	-0.08959821
34	0x3e33efe6	0.17571983
35	0x3d3340c8	0.043762952
36	0x3d1d1688	0.038351566
37	0x3cc739ce	0.024319556
38	0xbe213423	-0.15742545
39	0x3e00dda1	0.12584545
40	0xbd943e1a	-0.072384074
41	0x3d896643	0.06708958
42	0x3e00c21a	0.12574044
43	0x3e00424f	0.12525295
44	0x3bd4d742	0.0064953873
45	0x3e2a76ac	0.16646832
46	0x3c864e34	0.016394712
47	0xbd7e167f	-0.062033173
48	0x3ca89247	0.020577563
49	0x3d689aed	0.056788374
50	0x3e01da25	0.12680872
51	0x3c869496	0.016428273
52	0xbcd4c7f0	-0.025974244
53	0x3d59887f	0.05310869
54	0xbd5b548b	-0.053547423
55	0x3f0ac9c3	0.54214114
56	0xbd683268	-0.056688696
57	0x3f37157e	0.7151717
58	0xbd5876cd	-0.052847672
59	0xbd033ee9	-0.032042418
60	0xbd2ea75b	-0.04264007
61	0x3daf4bea	0.08559401
62	0xbdc900cb	-0.09814604
63	0x3d6badb1	0.057538692
64	0x3d8c15ad	0.06840072
65	0xbe0333ec	-0.12812775
66	0xbdd4660b	-0.10371026
67	0xbc91f15d	-0.017815286
68	0x3ae6e0ed	0.001761464
69	0x3dbe0b41	0.0927949
70	0xbd037032	-0.03208942
71	0xbdfdaf6a	-0.12386973
72	0x3c8c5159	0.017128633
73	0xbd4a0838	-0.049324244
74	0xbdd5953c	-0.10428855
75	0xbd58dee6	-0.052946948
76	0x3db3f118	0.08786219
77	0xbdf46f9d	-0.11935351
78	0xbb98a616	-0.004658471
79	0x3c9c5c68	0.019087031
80	0x3dc806ba	0.09766908
81	0xbd1cba24	-0.038263455
82	0xbe0a340d	-0.13496418
83	0xbc49fa60	-0.01232776
84	0xbde000ff	-0.1093769
85	0xbdbd3e18	-0.09240359
86	0xbdd2e5d9	-0.10297746
87	0xbe175024	-0.14776665
88	0xbe2e6b53	-0.17033128
89	0xbe08211a	-0.13293877
90	0xbe384358	-0.1799444
91	0xbe085b81	-0.13316156
92	0xbc0495e5	-0.008092378
93	0xbe0946d1	-0.1340592
94	0x3dad6ac6	0.08467631
95	0xbdd5e1bc	-0.10443446
96	0xbda7fcaf	-0.082024924
97	0x3bd11417	0.0063805687
98	0xbe5e2c76	-0.21696648
99	0xbd511682	-0.051046856
100	0xb6e2facd	-6.764522e-06
101	0xbd4db54f	-0.050221737
102	0x3cf8d9c9	0.030377286
103	0x3d1e5828	0.03865829
104	0xbcba4974	-0.022740103
105	0x3d509d83	0.050931465
106	0xbcca4e38	-0.0246955
107	0xbd0e1f50	-0.03469783
108	0xbdacf1ec	-0.084445804
109	0xbd9e6f59	-0.07736082
110	0x3d55f0ab	0.052231472
111	0xbd022c75	-0.03178068
112	0xbd83614f	-0.064150445
113	0x3cd49839	0.025951492
114	0x3da829e0	0.08211112
115	0x3cb8e4ab	0.022569975
116	0x3d886e05	0.066616096
117	0xbd8bd00a	-0.0682679
118	0xbd6243bd	-0.05524038
119	0xbe63a4be	-0.22230813
120	0x397a00ff	0.00023842229
121	0xbddea512	-0.108713284
122	0x3cda64eb	0.02665945
123	0x3d638fe7	0.055557158
124	0xbdcd8d9e	-0.10036777
125	0xbdd22504	-0.102609664
126	0xbddef93d	-0.10887382
127	0xbdd37b01	-0.103261955
128	0xbd11bb79	-0.03557918
129	0x3dba4cef	0.09096705
130	0xbd5e2248	-0.054231912
131	0x3ca3127d	0.019906277
132	0x3cdbb33c	0.026818864
133	0xbc0e8f4f	-0.00870116
134	0x3ce21066	0.02759571
135	0xbd541cba	-0.05178521
136	0xbc8f4b52	-0.01749197
137	0x3c35ad4a	0.011088679
138	0xbdb8032e	-0.089849815
139	0x3de80047	0.11328178
140	0x3ca3864c	0.019961499
141	0x3dc067ca	0.09394796
142	0x3d7fa81c	0.06241618
143	0x3d2dd4b1	0.042439166
144	0x3dd01c0c	0.101615995
145	0xbdaee3ec	-0.085395664
146	0x3dbc1108	0.09182936
147	0xba7a2cf6	-0.0009543443
148	0xbd8198fb	-0.06328007
149	0xbc9c3e0a	-0.019072551
150	0x3c5608bf	0.013063609
151	0xbd8bf9d1	-0.06834758
152	0xbdd85e07	-0.10564809
153	0xbdd3bddc	-0.10338947
154	0xbc9fd90e	-0.01951268
155	0xbde4f681	-0.111798294
156	0x3d88b544	0.06675199
157	0xbd75fd83	-0.06005622
158	0xbdcf3171	-0.10116852
159	0xbdbd79d9	-0.09251756
160	0x3b286876	0.002569703
161	0x3d6a5ffc	0.057220444
162	0x3dca584b	0.09880122
163	0x3c298e97	0.0103489375
164	0x3d154e39	0.036451552
165	0xbdb3bd76	-0.08776371
166	0xbc81061a	-0.01574998
167	0x3da2ae4d	0.079434015
168	0xbd116f3f	-0.035506483
169	0x3d0f6d42	0.035016306
170	0xbd178f9f	-0.037002202
171	0x3d66a06b	0.05630533
172	0xbde36e0b	-0.111049734
173	0x3d35a26d	0.044344354
174	0xbdc28193	-0.094973706
175	0xbda02a59	-0.07820577
176	0x3dac84ab	0.08423742
177	0xbcdcf8b2	-0.026974056
178	0x3b89a660	0.0042007416
179	0x3c752765	0.014963006
180	0xbdb2be32	-0.08727683
181	0x3d313222	0.0432607
182	0xbd4f5205	-0.05061533
183	0xbd797b00	-0.060908318
184	0xbdddeaef	-0.10835826
185	0xbd28ec13	-0.041240763
186	0x3d452d54	0.04813893
187	0x3d4d497b	0.050118905
188	0x3cd40623	0.025881832
189	0xbd4a5217	-0.049394693
190	0x3d7bcf7c	0.06147717
191	0x3a37ba56	0.0007008662
192	0x3d682b03	0.056681644
193	0xbd7551f1	-0.0598926
194	0xbd8670d2	-0.065644875
195	0x3d112255	0.035433132
196	0x3df7670a	0.120802
197	0xbd2bd48a	-0.04195074
198	0xbde6a463	-0.11261823
199	0x3d5be5c7	0.05368593
200	0xbcee238a	-0.02906968
201	0xbe140762	-0.14455941
202	0xbd0ea391	-0.034823958
203	0xbc3c1da4	-0.011481676
204	0x3e3112a5	0.17292269
205	0x3d1bec7d	0.03806733
206	0x3e10bece	0.14135286
207	0x3dba4cc8	0.09096676
208	0xbd1c5c55	-0.038173992
209	0xbdc8b155	-0.097994484
210	0x3db1db31	0.086843856
211	0xbd0adc4a	-0.03390149
212	0xbbd00572	-0.0063483054
213	0xbbbcfc43	-0.0057673766
214	0x3e2d9550	0.1695149
215	0xbd6a3e28	-0.057188183
216	0x3f13b85e	0.57703197
217	0xbdd58d30	-0.1042732
218	0xbe033552	-0.12813309
219	0xbd752401	-0.05984879
220	0x3e0a3ffc	0.1350097
221	0xbd6bbef6	-0.05755516
222	0xbc864de1	-0.016394557
223	0xbbc2b186	-0.0059415726
224	0x3dbc5b91	0.091971524
225	0xbd5f4706	-0.054511093
226	0x3d7ee280	0.062227726
227	0x3ce5a282	0.028031591
228	0xbc8af9bf	-0.016964791
229	0x3e047c4e	0.12938043
230	0x3cbf989a	0.023388196
231	0xbd0020f4	-0.031281427
232	0xbd25f9b5	-0.040521342
233	0xbc639c40	-0.013892233
234	0xbdbb1a4c	-0.09135875
235	0xbc876cda	-0.016531397
236	0x3d6a5930	0.057213962
237	0x3e166730	0.146878
238	0xbb8f4b22	-0.00437297
239	0xbdcc7ffe	-0.0998535
240	0xbcb461d6	-0.022019308
241	0x3d431f3c	0.04763721
242	0x3d968708	0.07349974
243	0x3d2f0cd5	0.042736847
244	0x3cf7a0d8	0.030228063
245	0xbd5a691b	-0.053322893
246	0xbddc7d30	-0.10766065
247	0x3f2335b4	0.6375382
248	0xbd988cbc	-0.07448718
249	0x3f186e35	0.5954316
250	0x3d78b968	0.060723692
251	0xbd098306	-0.03357222
252	0x3d3a1204	0.045427337
253	0x3d9f69ef	0.07783877
254	0x3b1fc922	0.002438136
255	0xbd8c582b	-0.06852754
