checkpoints/TP_LSTM_L2_bs16_trainAll_bsfirst_pos1_downsp_rs/TP_LSTM_L2_bs16_epoch800.pt (torch, 206200 bytes, 9 tensors)

rnn.weight_ih_l0 f4 [256, 3]
000000 98 41 62 bc fa e4 07 bc 6b 3c 00 bc 14 e2 fb 3e
       -0.013809584 -0.008294338 -0.007826905 0.4919592
000010 59 97 e7 3e 24 1d 80 3e 97 21 ae 3e d4 af c5 3e
       0.45232657 0.25022233 0.34010002 0.3861071
000020 21 08 68 be 85 71 70 bc 15 bd 31 bc ef 9d 28 bc
       -0.22659351 -0.014675503 -0.010848303 -0.010291561
000030 2b 07 91 bc 6d ee 5d bc 7d 57 57 bc d8 af db 3e
       -0.017703613 -0.013545615 -0.013143417 0.42907596
000040 3a 3f 1c 3e 36 c9 2f 3f e8 b1 5b bc 73 37 0e bc
       0.15258494 0.686664 -0.013409115 -0.008680212
000050 a9 20 fc bb b9 7e 5d bc 83 a1 01 bc b0 12 cc bb
       -0.007694323 -0.013518983 -0.007912043 -0.0062278137
000060 3c 58 03 bd a5 f4 ca bc a6 a8 c8 bc 7d e7 a1 bc
       -0.03206657 -0.024774859 -0.02449448 -0.019763703
000070 b8 d6 5e bc 9e 50 45 bc 26 d0 30 bc b7 b5 01 bc
       -0.013600998 -0.012043146 -0.010791814 -0.007916859
000080 30 d8 00 bc 7f 01 a9 bf be 07 c8 be 7a d7 10 3e
       -0.007864043 -1.3203582 -0.39068407 0.14144698
000090 de 52 bf 3e ef 44 5f 3e 1b d1 c6 3e 6f e9 f9 3b
       0.3736791 0.2180364 0.3883141 0.0076267044
0000a0 5e 6e 14 be 3a 38 b2 bf f3 a3 18 bd ec 89 e1 bc
       -0.14495227 -1.3923409 -0.03726573 -0.027531587
0000b0 05 c9 c2 bc cb 4c 5b bc 2c fd f5 bb dd 23 b7 bb
       -0.023777494 -0.013385008 -0.007506987 -0.005588992
0000c0 20 0a cd 3f 4b cc 79 3f 8d 87 63 3d ca 22 d2 bf
       1.6018715 0.9757735 0.055549193 -1.6416867
0000d0 5a 56 a4 bf 05 ac d4 3e 26 7e 74 3e 81 e1 f8 3e
       -1.2838852 0.4153749 0.23876247 0.48609546
0000e0 f9 85 80 3e 04 da 0a 3f c6 fd 9f 3e 95 9d 14 3f
       0.25102213 0.54238915 0.312483 0.5805295
0000f0 04 60 60 bc 26 19 1b bc 2a bb 0e bc 60 db b6 3e
       -0.013694767 -0.009466445 -0.008711616 0.35714245
000100 24 17 7e 3e 7b 24 b1 3e b8 70 1f bc 7b c9 e3 bb
       0.24813515 0.34598145 -0.009731464 -0.0069515086
000110 2d c8 e3 bb 1b 66 b4 bc 84 58 56 bc 6e 97 40 bc
       -0.006951353 -0.022021344 -0.013082627 -0.011754854
000120 33 82 22 3e 1d 2c 88 3e 1b 0b a5 3e 92 e4 87 bc
       0.1586998 0.26596156 0.32235035 -0.016588483
000130 d3 56 30 bc 13 38 13 bc d2 77 bf bc 19 b9 8d bc
       -0.010762888 -0.008985537 -0.023372564 -0.017300176
000140 90 d0 7d bc ac b3 2a 3e ac 1d 25 3e 87 91 ba 3e
       -0.01549162 0.16670102 0.161246 0.36439154
000150 e3 aa 6a bc 43 f2 2f bc f0 d5 22 bc ef 08 ba bc
       -0.014322969 -0.010738912 -0.009938702 -0.022709338
000160 47 2e 5c bc 1c c9 48 bc 33 a2 3d bc 80 e8 00 bc
       -0.013438768 -0.012254979 -0.011574316 -0.007867932
000170 67 ee ed bb fc d9 90 bc ff de 3d bc a7 df 33 bc
       -0.007261086 -0.017682068 -0.011588811 -0.010978616
000180 46 f8 31 3e 34 b9 39 3f 5b 57 19 3d 10 76 76 bc
       0.17379865 0.7254822 0.037436824 -0.015042797
000190 48 fe 21 bc ae a6 18 bc 9e c6 6f bc ef 07 26 bc
       -0.0098872855 -0.009317083 -0.014634756 -0.010133727
0001a0 b5 62 20 bc fd 89 24 bf 5a 55 54 3d 44 10 fa 3d
       -0.009789159 -0.64273053 0.05183921 0.12210134
0001b0 35 03 2b 3e a4 2a 65 3e 66 4f d7 3e 52 b0 96 bc
       0.16700442 0.22379547 0.42052764 -0.018394623
0001c0 44 fc 5a bc c5 e8 5a bc cf 89 60 3d b3 8c 0b 3d
       -0.013365809 -0.013361161 0.054818925 0.034069728
0001d0 4c d3 ad 3e 4c 64 47 bc 03 86 0f bc fd c6 0c bc
       0.3395027 -0.012169909 -0.008759978 -0.008592364
0001e0 53 f9 36 bc 44 7c f4 bb 1d 98 fa bb 20 01 72 bc
       -0.011167842 -0.0074611027 -0.007647528 -0.014770776
0001f0 c0 e3 14 bc eb a5 02 bc 3e 85 42 3f 50 93 d9 3c
       -0.009087503 -0.007974128 0.7598456 0.026559502
000200 f9 16 3c 3f d5 d7 8a bc 4c 26 53 bc 2e c7 58 bc
       0.73472553 -0.01694862 -0.012887549 -0.013231082
000210 a0 22 82 bc a7 74 2d bc 21 6e 2d bc ad db 06 3f
       -0.015885651 -0.010586894 -0.010585339 0.5267895
000220 50 bd e2 3e 61 e9 75 3f 5f ae 97 bf 2c 38 6a bf
       0.4428506 0.9605923 -1.1850089 -0.9149196
000230 f9 38 d8 3d 5a 62 0a 3f 77 9a af 3e c2 b7 c5 bf
       0.10557742 0.5405632 0.34297535 -1.5446703
000240 9b 31 84 bc f0 8d 22 bc 96 45 33 bc af 8b 1d bc
       -0.016136935 -0.009921536 -0.010941884 -0.009615823
000250 5b 73 e6 bb c3 5a d7 bb c2 4a b7 bc a8 87 89 bc
       -0.0070327944 -0.006572099 -0.022374514 -0.016788319
000260 b5 6e 80 bc f0 f3 9c bd 66 2e 85 3e 56 3b 6d be
       -0.01567779 -0.07663715 0.26011962 -0.23167166
000270 8a 44 ab 3d 12 83 fa 3d f2 33 0c 3f ab 16 84 3e
       0.08362682 0.12232031 0.5476676 0.25798544
000280 23 5a 30 3e cb 6c de 3e c5 60 38 bd 18 12 c1 bc
       0.17221884 0.43442377 -0.04501416 -0.023568198
000290 bf d1 64 3d 1f d7 36 bc 2a ca f8 bb cd c1 d7 bb
       0.055864092 -0.011159687 -0.007592459 -0.006584382
0002a0 25 6a 4c 3d 89 25 45 3d 84 2b 02 3f e7 ab 63 bc
       0.049905915 0.0481315 0.5084765 -0.013895965
0002b0 a7 4c 1e bc bc 4b 1a bc cb e3 72 bc c8 92 29 bc
       -0.00966183 -0.009417471 -0.014824818 -0.010349937
0002c0 6f 67 1a bc cb 37 21 bc ed 4b ba bb 8a eb b6 bb
       -0.009424075 -0.009839962 -0.0056853206 -0.0055822777
0002d0 a9 23 48 3e fd f6 45 be 7a 0e 4b 3e de 94 a4 3e
       0.19544853 -0.193325 0.19829741 0.32144827
0002e0 9d 58 a7 3e f8 0e 12 3d 46 9a 1b bf 36 ad 8c bf
       0.32684794 0.035658807 -0.6078228 -1.099036
0002f0 33 7a 86 3e 47 8c 92 bc 38 d3 4a bc 3c 96 3d bc
       0.26265106 -0.017889155 -0.01237946 -0.011571463
000300 37 96 07 bc f3 06 ae bb 36 29 a9 bb c5 38 f7 bb
       -0.00827556 -0.005310887 -0.0051623834 -0.0075446093
000310 3e 7c e6 3e 8e 12 6b 3e fb 77 a1 3e 9b 5d 90 3e
       0.45016664 0.22956297 0.3153685 0.28196415
000320 fc cc a3 bd 4a eb 35 bc 6c be 0a bc 0a 99 fc bb
       -0.07998082 -0.011103461 -0.008468252 -0.0077086734
000330 c3 c0 52 bc 81 4b 1f bc 8a 5a 0f bc 2b 50 0d 3f
       -0.012863341 -0.009722591 -0.008749614 0.5520045
000340 6b 08 9a bd 9c 2b f4 be 72 46 09 bc 78 14 af bb
       -0.07521137 -0.4768952 -0.008378612 -0.0053430162
000350 fa bd 8f bb 14 0d 04 bc 74 bf 9d bb 58 92 59 bb
       -0.0043866606 -0.008059759 -0.0048140828 -0.00331988
000360 d8 e4 ba bc d9 5d 8a bc ad 84 77 bc 7f c8 57 bc
       -0.0228142 -0.016890453 -0.015107316 -0.013170361
000370 ba 86 0c bc e2 64 e8 bb c3 07 03 bc 24 c5 c5 bb
       -0.008577043 -0.0070921043 -0.007997456 -0.006035464
000380 eb 31 c2 bb f4 4b 37 bf 83 3f 84 be 7b 9f 93 3e
       -0.005926361 -0.7160027 -0.25829706 0.2883261
000390 32 59 c7 3d 54 32 50 3d 91 77 1e 3e 9a 89 16 be
       0.097338095 0.050829247 0.15475298 -0.14700928
0003a0 aa af c8 bd 75 c5 61 bf 94 93 cb bc c4 d5 91 bc
       -0.0979913 -0.8819192 -0.024850644 -0.017802127
0003b0 12 7f 74 bc 56 3a f9 bb 2b f3 90 bb 4f db 4f bb
       -0.014922874 -0.007605831 -0.004423519 -0.0031716411
0003c0 39 d7 d2 bd 43 a7 27 bc 5c 8f ae 3e 34 13 7c bd
       -0.10294957 -0.010232749 0.3409375 -0.06154175
0003d0 3c 71 2e be 33 5c 32 be d6 09 03 be 33 40 7e 3e
       -0.17035383 -0.17417984 -0.12796721 0.24829178
0003e0 9a 34 fb 3d 0a 21 08 be ef 0c 08 bd 18 97 82 3e
       0.12265892 -0.13293853 -0.03321546 0.255059
0003f0 bb 9e 1a bc b4 b6 de bb e5 a1 c7 bb 41 b7 c4 3c
       -0.009437258 -0.0067966823 -0.0060922974 0.024013164

rnn.weight_hh_l0 f4 [256, 64]
000000 78 03 56 36 74 07 2c ba 95 33 06 b9 ad 83 ac 37
       3.1890504e-06 -0.000656239 -0.00012798452 2.0565314e-05
000010 83 3d 82 37 f6 e1 47 b9 50 0b 27 b7 68 f1 ac 36
       1.5525851e-05 -0.00019062296 -9.95661e-06 5.154103e-06
000020 0e 6e 14 36 c0 ab ae 35 36 c4 59 36 3a cf 5f 39
       2.2117779e-06 1.3013996e-06 3.244973e-06 0.00021344135
000030 da 87 bc 37 2e 08 42 38 bf b3 40 35 68 44 95 b6
       2.2474607e-05 4.6260822e-05 7.178714e-07 -4.4485096e-06
000040 fc b2 47 38 3e 2c 59 b9 9d 8a 2e ba 50 9e 8e 39
       4.761199e-05 -0.00020711214 -0.0006658228 0.00027202303
000050 f9 2d 5b 37 9f 61 f3 39 4a f7 e2 34 25 7a dd 36
       1.3064121e-05 0.00046421305 4.2275707e-07 6.6005327e-06
000060 4a 93 fe 37 7d 28 0e 37 e5 d0 61 b6 a9 a2 84 b7
       3.0347746e-05 8.4732865e-06 -3.3649205e-06 -1.581137e-05
000070 51 dd af 37 6f f5 a4 b4 b2 ce 86 36 03 d2 ba b6
       2.0964684e-05 -3.0725957e-07 4.0175737e-06 -5.5676805e-06
000080 d8 de 73 3b 33 7f c0 35 a3 14 85 b6 38 b1 ff 39
       0.0037211683 1.4342135e-06 -3.9661113e-06 0.00048769428
000090 9b 5f 15 38 ec a2 04 b7 ef ad 02 ba 58 c7 a6 b6
       3.5613408e-05 -7.905746e-06 -0.00049850246 -4.970392e-06
0000a0 96 e8 5f b7 71 fa 1b b7 a1 b7 3b 3a 99 78 be b6
       -1.3345989e-05 -9.29703e-06 0.0007160847 -5.6764807e-06
0000b0 3e 15 80 37 40 d9 41 ba e1 03 8e b9 50 f8 04 b8
       1.526868e-05 -0.00073947385 -0.0002708724 -3.170251e-05
0000c0 19 12 11 37 7a a3 bf 35 cf 5b 96 36 33 69 39 39
       8.646887e-06 1.4278187e-06 4.4810363e-06 0.00017682165
0000d0 56 60 16 39 f9 0c fe 38 0b 05 19 39 39 09 2c b4
       0.00014341003 0.0001211408 0.00014593096 -1.6022103e-07
0000e0 88 f1 8e 39 11 cc 94 b7 f2 f5 5e 37 e8 08 0d b2
       0.00027264305 -1.7738e-05 1.3289495e-05 -8.209305e-09
0000f0 18 13 2e b9 3f 37 84 39 78 4d 21 b9 45 08 5d b7
       -0.00016601046 0.00025218164 -0.00015383016 -1.3174552e-05
000100 db 61 12 3c 55 49 5a 3b 6d 71 92 bd a0 af df ba
       0.008934463 0.003330787 -0.071505405 -0.001706589
000110 22 d9 9b ba 19 e7 e2 bd 90 3f e8 b9 b5 16 81 bb
       -0.0011890272 -0.11079235 -0.00044297846 -0.0039394745
000120 5c ad 0f 3a 71 48 16 bb 71 2e 19 3b 29 45 22 bc
       0.00054808496 -0.0022931362 0.0023373629 -0.009904184
000130 29 4f cf 3d 3c 30 34 3e 79 5a 9a b9 fc d1 c1 3b
       0.101225205 0.17596525 -0.00029440576 0.0059149247
000140 9c c0 e6 3b b0 bd 4a be d9 f3 86 3d df 9a 24 be
       0.007042004 -0.19798923 0.06589479 -0.16074704
000150 7d 08 7e 3a 17 71 49 bc 31 54 49 3a a7 f3 75 3b
       0.0009690596 -0.012295029 0.0007680087 0.0037529261
000160 15 4c 9c bd c5 f8 bb ba 4e 84 08 bb bf a0 89 3c
       -0.07631699 -0.0014341107 -0.0020830813 0.016800283
000170 c7 1d fc b8 00 9e 6a bb 00 9f 22 bb 1b cc 42 bb
       -0.00012021843 -0.0035799742 -0.002481401 -0.0029723707
000180 dc ec 45 3e 60 90 82 3a ab 67 fc ba d8 78 20 3d
       0.19328636 0.000996124 -0.001925697 0.039177746
000190 13 c0 b7 3c 2b e5 0c b9 db c8 59 3e 19 b4 ec ba
       0.022430455 -0.00013436812 0.21268027 -0.0018059044
0001a0 3a 36 cc ba ae 5c 38 bb d7 88 4a be 21 61 9c bb
       -0.0015580126 -0.0028131413 -0.19778763 -0.004772321
0001b0 67 e6 00 ba 91 a8 8a 3e 85 49 6e 3d 97 7e 5c 3d
       -0.0004917145 0.2708173 0.058175582 0.053831663
0001c0 08 d2 57 3a 13 38 eb 3a 19 d3 05 ba ad 5d 0c 3e
       0.0008232896 0.0017945789 -0.00051050034 0.1370761
0001d0 0a 37 4c bd 60 07 f6 bd 55 89 9b 3c 1b 81 09 3b
       -0.049857177 -0.120131254 0.018986383 0.0020981494
0001e0 61 4f 2d 3e ea 4b 03 3b 24 67 2c ba 42 31 eb 3a
       0.16924812 0.0020034262 -0.00065766484 0.0017943757
0001f0 3a 33 ed 3d 08 8c 84 3d 6a dd 54 3d 43 d9 34 bb
       0.11582036 0.06472021 0.05196897 -0.0027595318
000200 7c 04 33 3b 95 5f e0 3e d6 34 16 be 15 8d 44 3b
       0.0027315905 0.43822923 -0.14668593 0.0029991318
000210 6e 70 9f 3a a8 51 9b 3e 8f 05 8a bb c0 3e ab 3a
       0.0012164244 0.30335736 -0.0042120884 0.0013064966
000220 92 d8 2d bb 77 8b b5 bb 47 6c 6e 3a 1a 05 3d 3d
       -0.002652679 -0.005540307 0.0009095114 0.046147443
000230 62 bd ab be 60 5c 02 be d6 93 d5 3b d8 b1 18 bb
       -0.33542925 -0.12730551 0.0065178676 -0.0023299363
000240 f1 e5 8b bd 96 b1 11 3e 12 47 2b 3d b3 09 e5 bd
       -0.06830967 0.142279 0.041815825 -0.111834906
000250 7d 3d 91 3b 0e 87 5e 3e 55 c8 37 bb d4 64 7d 3b
       0.004432379 0.21731207 -0.0028042991 0.0038664835
000260 09 7e 95 3c d5 bb 1e 3b fb 51 d6 b9 62 e9 ad 3d
       0.018248575 0.0024220843 -0.0004087834 0.0849178
000270 36 f6 a5 3b 5e 2a d2 ba d8 8c 87 b9 de bb ed bb
       0.005064751 -0.0016034355 -0.00025854143 -0.0072550615
000280 40 8c 36 3e b2 d0 92 bb ca 44 5c bb de 15 6b be
       0.17826939 -0.004480445 -0.0033610337 -0.2295756
000290 75 c6 8a 3e e3 6a 03 ba d6 be 96 3d 9b 3d e2 3b
       0.27104536 -0.0005013181 0.07360618 0.0069043166
0002a0 5c 83 5b bb 1c d8 55 bb 23 95 19 bd 04 d6 14 b7
       -0.0033495044 -0.0032630032 -0.037495743 -8.871317e-06
0002b0 43 2e 53 3b b7 8a 13 3f d3 15 c0 bd 14 da 3c be
       0.003222362 0.5763354 -0.09379163 -0.18442565
0002c0 3f 88 93 3b 71 d0 52 b9 dd fd 84 39 25 c0 ec bd
       0.004502326 -0.00020104811 0.00025366145 -0.11560086
0002d0 da c4 ee 3d 6e cc 1f bc 27 04 c6 3d 00 59 22 bc
       0.1165864 -0.00975333 0.09668761 -0.009908915
0002e0 64 9b d1 3d cc f0 33 bb f4 12 b6 ba 6a a1 4b bb
       0.102347165 -0.0027456759 -0.0013891147 -0.0031071552
0002f0 ca c1 95 3d bd 28 03 3d be 5b 97 be be 5e 94 3b
       0.07312353 0.032021273 -0.2956218 0.0045278957
000300 38 17 d9 37 92 3d 9f b9 1f 90 64 ba 3b be f4 38
       2.5879228e-05 -0.00030372717 -0.00087189855 0.0001167026
000310 93 a6 c4 37 cd 92 3a ba cf ba 8d b7 9e e4 bf 37
       2.3442588e-05 -0.0007117212 -1.68955e-05 2.2875432e-05
000320 06 0c 2d b7 d9 d8 4b b8 71 7b 2b 37 d7 89 de ba
       -1.0314403e-05 -4.8600927e-05 1.0221135e-05 -0.0016978335
000330 98 18 a4 b9 68 92 a5 ba 20 04 20 b8 ba 61 26 b8
       -0.0003129884 -0.0012632133 -3.8150814e-05 -3.96685e-05
000340 4b 89 4a b8 c0 c1 19 3b aa 34 c8 ba a4 ca 63 3a
       -4.8288417e-05 0.0023461431 -0.0015274484 0.00086895586
000350 07 39 98 38 49 8d 00 ba 80 a8 ff b7 9d 4a 03 38
       7.258547e-05 -0.00049038656 -3.0476833e-05 3.1302323e-05
000360 6d 9b e0 3a 61 ac 75 36 f1 12 15 37 27 af 0b b9
       0.0017136164 3.6608183e-06 8.885502e-06 -0.00013321322
000370 29 e8 b1 38 4f 7d 99 35 6d e5 06 37 04 c1 91 b8
       8.483261e-05 1.1435858e-06 8.04044e-06 -6.950091e-05
000380 be 09 c5 3b 28 bb 46 37 6a 01 5b b8 7b 10 17 ba
       0.0060131242 1.1845295e-05 -5.2214986e-05 -0.00057626487
000390 78 59 cb b9 11 2d 31 b8 bc 4e 8c ba 15 6f 95 b6
       -0.00038785837 -4.224206e-05 -0.0010704617 -4.4534777e-06
0003a0 60 aa 7f b8 01 4a 72 b8 6e 4f b3 3a 11 e6 32 b8
       -6.095541e-05 -5.7766218e-05 0.0013680288 -4.2652773e-05
0003b0 c5 86 8d 38 35 1c 92 ba 88 0f 1a b8 14 ea 99 ba
       6.748507e-05 -0.0011147322 -3.6730926e-05 -0.0011742734
0003c0 bb b1 ad 37 4f 87 46 b7 d6 b4 b9 b7 c3 76 25 b9
       2.070597e-05 -1.1833224e-05 -2.2137927e-05 -0.00015779868
0003d0 00 7b 71 39 65 05 6a b7 89 d7 43 b9 b4 6d 3f b7
       0.00023029372 -1.3948743e-05 -0.00018676942 -1.1410029e-05
0003e0 43 65 f4 b9 6d 70 7e b8 d9 85 64 b5 33 95 08 b7
       -0.00046614753 -6.0663024e-05 -8.513139e-07 -8.14097e-06
0003f0 a3 ed a0 39 53 87 22 3a 2d 8d d3 ba 0e a2 92 35
       0.0003069463 0.00061999745 -0.0016140096 1.0925012e-06

rnn.bias_ih_l0 f4 [256]
000000 21 8f 57 bd ac 23 f6 3c 1d 8c 6b 3d 50 c2 3e bd
       -0.052626733 0.030046307 0.05750667 -0.04657203
000010 32 ef 60 bd 7d 5d 10 3f 62 ae 49 bd 03 bd 3a bd
       -0.054915614 0.5639265 -0.04923857 -0.045590412
000020 a1 94 95 bd c7 4b 6a bd 82 2c 0f bd ac 3b 18 3e
       -0.07303739 -0.057201173 -0.034954555 0.14866513
000030 a7 97 4c 3f b8 55 f3 bb 10 36 a5 bd 26 e7 4d bd
       0.79918903 -0.00742599 -0.08066952 -0.05026927
000040 4e 03 d6 be 4f e6 89 3e 02 26 00 3f 0c 86 d8 be
       -0.41799396 0.26933524 0.50057995 -0.4228977
000050 ea 14 48 bd 5a ef 43 3f 4d 06 04 bd a6 99 96 bd
       -0.04884807 0.76537097 -0.03223257 -0.07353525
000060 20 63 d4 3d db 43 56 bd b1 d3 60 bd 1c 59 16 3f
       0.10370469 -0.052310806 -0.054889385 0.5872972
000070 61 8c 39 bd 82 14 99 bd e9 27 26 bd 26 5d 5b bd
       -0.04529989 -0.07474615 -0.040565405 -0.05355563
000080 52 0a 72 3e 2a 48 41 bd d2 ba 2d bd 92 da d3 3e
       0.2363675 -0.04718796 -0.042414494 0.41377693
000090 f5 13 32 3f f1 4e 50 bd be 10 48 bd 44 cc 3b bd
       0.695617 -0.050856534 -0.04884409 -0.0458491
0000a0 b3 f2 3c bd dd 72 53 bd 2c dc cc be d6 f0 42 bd
       -0.046129894 -0.051623214 -0.40011728 -0.04759296
0000b0 68 6b 4f bd b8 f1 b9 3e 53 eb 72 3e 3c d4 06 be
       -0.05063954 0.3631723 0.23722582 -0.13166898
0000c0 2c a3 83 bd 1c cf 07 bd 6c f2 57 bd 94 c7 43 3d
       -0.06427607 -0.0331565 -0.052721426 0.047797754
0000d0 6a be 32 3f db 6c 1a 3f ce 9c 9b be 48 3c 02 bd
       0.698218 0.6032235 -0.3039307 -0.03179577
0000e0 9c 63 11 3f 7a d2 3c bd c3 88 39 bd f5 7d 52 bd
       0.56792617 -0.046099164 -0.04529644 -0.051389653
0000f0 e0 ab 66 be 4c 43 c9 3e 9c c0 92 3d a0 59 63 bd
       -0.22526503 0.39309156 0.071656436 -0.055505395
000100 eb 11 12 bd 56 ef 25 3c 9f 77 2a be 34 a7 0a bd
       -0.03566162 0.010127863 -0.16647194 -0.033850864
000110 11 63 2c bd 39 a5 eb bc 36 45 12 bd 71 ea f0 bc
       -0.042086665 -0.028765308 -0.035710536 -0.029408665
000120 79 db 61 bd 58 af 2d bd c2 54 ce bc 0e 51 78 be
       -0.055140946 -0.04240355 -0.0251869 -0.2424967
000130 3e 8b fd bd 7c 7e 9b 3e 06 9a 77 bd c0 7f 0a bd
       -0.12380074 0.30369937 -0.060449623 -0.03381324
000140 2c 7a 90 be fd 46 10 bd f2 e6 03 3d 83 81 d5 bd
       -0.2821821 -0.03522395 0.03220267 -0.10425093
000150 a6 e3 11 bd b4 d8 45 be 06 f2 c2 bc 73 ab 4b bd
       -0.035617493 -0.19320947 -0.023797046 -0.049724054
000160 28 80 56 3e 3d aa 16 bd 19 34 2e bd 7a 4e cb bd
       0.20947325 -0.036783446 -0.042530153 -0.099270776
000170 23 25 06 bd 72 50 4a bd 50 be f1 bc 38 3c 1e bd
       -0.03275026 -0.049393125 -0.029509693 -0.038631648
000180 d2 c3 a3 bd 36 3b 05 bd 45 8f f7 bc 8a 6f 41 bd
       -0.07996334 -0.03252717 -0.030219683 -0.047225513
000190 30 dc 75 3d 0c 8c 1f bd 9e ca 07 3e 21 99 0d bd
       0.06002444 -0.03895192 0.13260886 -0.034569863
0001a0 3c 51 f9 bc cc c6 16 bd c1 ff 13 be 0a b4 10 bd
       -0.030434243 -0.03681068 -0.14453031 -0.03532795
0001b0 32 f0 18 bd c1 ba 77 be 4b aa cb bd 67 9b ed 3b
       -0.037338443 -0.24192335 -0.0994459 0.0072511914
0001c0 be 5e 2f bd 13 a5 ba bc b7 93 27 bd 47 6c 52 3e
       -0.042814963 -0.022783792 -0.040912356 0.20549117
0001d0 66 6e ed bd 1c 2a 29 be 62 45 d4 3e dd a1 c3 bc
       -0.115933225 -0.1651997 0.41459185 -0.023880893
0001e0 c4 9e 5e be 45 55 05 bd 80 92 0f bd e8 e8 0f bd
       -0.21740252 -0.032552022 -0.035051823 -0.035134226
0001f0 ff cd 8b 3e 4d 0c 3b be 53 79 2b be f0 cd 29 bd
       0.273056 -0.18266411 -0.167455 -0.041456163
000200 cd 62 03 3d 85 68 7e bc 7a 7b 5b be 0f c2 8e 3c
       0.032076646 -0.015527849 -0.21433821 0.017426519
000210 59 8c 46 3c 5b fd e0 3c ed 42 a8 ba 9f a5 ed bc
       0.012118422 0.02746456 -0.0012837328 -0.029009638
000220 15 a2 28 3d fa f7 99 ba b2 37 fb bc 43 5e 7e bd
       0.0411702 -0.0011746876 -0.030666206 -0.062101614
000230 5b 92 a2 bd b2 ce f9 3c 65 34 8a 3d 1d 50 4d bc
       -0.07938071 0.030494068 0.06748275 -0.0125313075
000240 dd 14 63 3e cd 43 09 3e c6 75 28 be d7 05 88 3d
       0.22175927 0.1340477 -0.16451177 0.06641739
000250 7e 29 c5 ba ab a7 1c bc 66 6a 15 3c 6a 11 1d 3d
       -0.0015042273 -0.0095614595 0.009119606 0.038346685
000260 ef b1 86 3d fc 28 12 bc dd db db bc bf 8c 14 3c
       0.06576907 -0.008920904 -0.026838237 0.00906676
000270 0d 27 5d bc bb f9 c4 bb e2 45 3a bc 6d 80 84 3d
       -0.01349808 -0.0060112155 -0.0113692 0.06469808
000280 51 67 80 3d d2 e1 45 bc 82 67 58 bc 06 75 9d b9
       0.06269706 -0.012077766 -0.013208272 -0.00030032563
000290 05 88 a2 3d fe 5b 65 bc 8d 61 8b 3d 87 5f 8f 3c
       0.079361 -0.013998983 0.06805716 0.017501606
0002a0 ce 9e 12 3c 21 5e eb bc dc 61 55 3e 4c 67 8b 3c
       0.008948995 -0.028731408 0.20838112 0.01701703
0002b0 39 da ed bc ad c2 bd 3c 52 74 88 be fd 89 af bd
       -0.02903472 0.023164118 -0.26651245 -0.08571241
0002c0 c5 76 83 bc c7 cf f0 bb f0 bc 97 bc af 20 78 3d
       -0.016047845 -0.0073489877 -0.01852271 0.060578045
0002d0 50 77 d9 3c 4c ba 94 bd 58 5d 62 bc 44 a6 2f 3b
       0.02654615 -0.07262096 -0.0138162 0.0026801983
0002e0 4f 3c e0 bb 23 bb 7b bb 93 e1 e6 bb b5 7d 8f 3a
       -0.006843127 -0.0038411103 -0.0070459335 0.0010947498
0002f0 1d ba 48 bd 7e d0 a0 3d 35 d6 4c be 20 3b 9d bc
       -0.049005616 0.07852267 -0.20003588 -0.019193232
000300 77 85 57 bd 34 70 f8 3d 2c b1 7e bd 60 c1 3e bd
       -0.052617516 0.12130776 -0.062180683 -0.046571136
000310 a8 ee 60 bd 3f e2 b3 3d 95 ad 49 bd c7 bc 3a bd
       -0.0549151 0.087833874 -0.049237806 -0.04559019
000320 6c 94 95 bd 01 4e 6a bd b9 2b 0f bd ce 99 af bd
       -0.073037 -0.057203297 -0.034953807 -0.08574258
000330 1a 39 4b 3f ce 72 36 be 5f 2c a5 bd f5 ec 4d bd
       0.79384005 -0.17817232 -0.08065104 -0.050274808
000340 92 20 a9 3d ba cc 09 3f 47 34 1a 3f 22 e4 8b be
       0.082581654 0.5382801 0.6023602 -0.2732249
000350 87 18 48 bd 8d 4a 49 3f 5f 02 04 bd d2 98 96 bd
       -0.048851516 0.7862938 -0.032228824 -0.07353367
000360 cd 5e 40 bf 58 46 56 bd 27 cc 60 bd c5 02 15 3f
       -0.75144655 -0.05231318 -0.054882195 0.5820735
000370 da 8f 39 bd b6 0f 99 bd 9d 1f 26 bd 4f 62 5b bd
       -0.045303203 -0.074737 -0.040557493 -0.05356055
000380 3f d3 03 3e fe 54 41 bd ee bc 2d bd 87 82 89 3e
       0.12873553 -0.047200195 -0.042416506 0.26857397
000390 ed 4a 2e 3f 10 50 50 bd e6 ee 07 bf 20 cc 3b bd
       0.6808308 -0.050857604 -0.53098905 -0.045848966
0003a0 98 f9 3c bd ae 6e 53 bd 5c cf c8 be 75 ec 42 bd
       -0.04613647 -0.051619224 -0.39220703 -0.047588784
0003b0 e0 6b 4f bd 8f e8 92 3e 94 55 3d 3e b0 55 3a be
       -0.050639987 0.28693053 0.18489677 -0.1819675
0003c0 ec 9a 83 bd 20 d0 07 bd ca f4 57 bd c6 fd 4d bd
       -0.064260334 -0.033157468 -0.052723683 -0.050290845
0003d0 42 d8 31 3f 0b 94 19 3f 42 e1 e1 be 88 3e 02 bd
       0.6947061 0.5999152 -0.4411717 -0.031797916
0003e0 0e 13 15 3f 76 d5 3c bd 5b 89 39 bd a2 76 52 bd
       0.582322 -0.04610201 -0.045297008 -0.05138267
0003f0 5c d3 e8 be ce 43 c3 3e f7 4d c6 3d aa 62 63 bd
       -0.45473754 0.38137668 0.09682839 -0.055514015

rnn.bias_hh_l0 f4 [256]
000000 21 8f 57 bd b2 f0 f7 bc b4 32 9d bd 50 c2 3e bd
       -0.052626733 -0.03026614 -0.076756865 -0.04657203
000010 32 ef 60 bd 6c 5d 10 3f 62 ae 49 bd 03 bd 3a bd
       -0.054915614 0.5639255 -0.04923857 -0.045590412
000020 a1 94 95 bd c7 4b 6a bd 82 2c 0f bd 8f b4 b6 3d
       -0.07303739 -0.057201173 -0.034954555 0.089211576
000030 a7 97 4c 3f 53 77 ba bc 10 36 a5 bd 26 e7 4d bd
       0.79918903 -0.022761976 -0.08066952 -0.05026927
000040 e1 8e d5 be 3a a2 82 3e 90 55 db 3e 28 4b dc be
       -0.4171057 0.25514394 0.42838717 -0.4302609
000050 ea 14 48 bd 5a ef 43 3f 4d 06 04 bd a6 99 96 bd
       -0.04884807 0.76537097 -0.03223257 -0.07353525
000060 75 a5 e5 3d db 43 56 bd b1 d3 60 bd 1c 59 16 3f
       0.11213199 -0.052310806 -0.054889385 0.5872972
000070 61 8c 39 bd 82 14 99 bd e9 27 26 bd 26 5d 5b bd
       -0.04529989 -0.07474615 -0.040565405 -0.05355563
000080 1b f6 62 3e 2a 48 41 bd d2 ba 2d bd 3c 91 f0 3e
       0.22164194 -0.04718796 -0.042414494 0.46985805
000090 f5 13 32 3f f1 4e 50 bd 7b e6 e4 bc 44 cc 3b bd
       0.695617 -0.050856534 -0.027941933 -0.0458491
0000a0 b3 f2 3c bd dd 72 53 bd 50 b7 8c be d6 f0 42 bd
       -0.046129894 -0.051623214 -0.27483606 -0.04759296
0000b0 68 6b 4f bd 1b 52 bb 3e 05 6a 3c 3e 90 36 15 be
       -0.05063954 0.3658608 0.18399818 -0.14571595
0000c0 2c a3 83 bd 1c cf 07 bd 6c f2 57 bd a7 39 81 bc
       -0.06427607 -0.0331565 -0.052721426 -0.015774561
0000d0 6a be 32 3f db 6c 1a 3f 53 0a 95 be 48 3c 02 bd
       0.698218 0.6032235 -0.2910944 -0.03179577
0000e0 9c 63 11 3f 7a d2 3c bd c3 88 39 bd f5 7d 52 bd
       0.56792617 -0.046099164 -0.04529644 -0.051389653
0000f0 50 0f 5f be 99 38 ce 3e 84 64 25 3e a0 59 63 bd
       -0.21783185 0.40277556 0.16151625 -0.055505395
000100 eb 11 12 bd 4e 63 13 3e ac da 04 3d 34 a7 0a bd
       -0.03566162 0.1439335 0.032435104 -0.033850864
000110 11 63 2c bd 50 12 e7 bc 36 45 12 bd 71 ea f0 bc
       -0.042086665 -0.028206974 -0.035710536 -0.029408665
000120 79 db 61 bd 58 af 2d bd c2 54 ce bc e5 3e 49 be
       -0.055140946 -0.04240355 -0.0251869 -0.19652899
000130 dc 83 fd bd 72 46 9a 3e 06 9a 77 bd c0 7f 0a bd
       -0.12378666 0.3013187 -0.060449623 -0.03381324
000140 56 fa 8f be 6a 8b 12 bd f1 a4 72 3b bf bc e3 bd
       -0.2812068 -0.035777487 0.0037024582 -0.11119985
000150 a6 e3 11 bd b4 d8 45 be 06 f2 c2 bc 73 ab 4b bd
       -0.035617493 -0.19320947 -0.023797046 -0.049724054
000160 3d 40 5b 3e 3d aa 16 bd 19 34 2e bd 7a 4e cb bd
       0.21411224 -0.036783446 -0.042530153 -0.099270776
000170 23 25 06 bd 72 50 4a bd 50 be f1 bc 38 3c 1e bd
       -0.03275026 -0.049393125 -0.029509693 -0.038631648
000180 56 61 1a 3b 36 3b 05 bd 45 8f f7 bc d8 a6 20 bd
       0.0023556552 -0.03252717 -0.030219683 -0.039221615
000190 30 dc 75 3d 0c 8c 1f bd 4a b9 22 3e 21 99 0d bd
       0.06002444 -0.03895192 0.15890995 -0.034569863
0001a0 3c 51 f9 bc cc c6 16 bd 5f 1c 21 be 0a b4 10 bd
       -0.030434243 -0.03681068 -0.15733479 -0.03532795
0001b0 32 f0 18 bd 31 8b 68 be 6d 10 f3 bd 5e ca 9c 3c
       -0.037338443 -0.22709347 -0.11868367 0.019139465
0001c0 be 5e 2f bd 13 a5 ba bc b7 93 27 bd 6b a5 a9 3d
       -0.042814963 -0.022783792 -0.040912356 0.08283504
0001d0 66 6e ed bd 1c 2a 29 be 2b e3 cc 3e dd a1 c3 bc
       -0.115933225 -0.1651997 0.40017065 -0.023880893
0001e0 c4 9e 5e be 45 55 05 bd 80 92 0f bd e8 e8 0f bd
       -0.21740252 -0.032552022 -0.035051823 -0.035134226
0001f0 38 22 8b 3e dd ae 11 be 75 12 50 be f0 cd 29 bd
       0.27174544 -0.14226861 -0.20319541 -0.041456163
000200 65 74 2c bd 98 78 6e be 9d f6 db bc 9a 0c 9e bc
       -0.04210319 -0.2328819 -0.026850993 -0.019293118
000210 b3 15 45 bc 4f f8 86 3d 3a cc 49 3b 81 34 f0 3c
       -0.012029099 0.0659033 0.0030791895 0.02932191
000220 dd 5d 2b bd a3 eb 0a 3b c1 5d e4 3c 06 5d c9 3d
       -0.041837562 0.002119758 0.027876737 0.09832196
000230 a6 03 e6 bc 83 ad 2d be dd 2c 2b bd 88 38 60 3c
       -0.028077912 -0.1696072 -0.04179083 0.013685353
000240 dc 85 23 3e af 70 ab 3d d4 bf a6 bd 7a 45 43 3e
       0.15969032 0.08371102 -0.08142057 0.19069472
000250 99 eb 16 3a 1a 46 58 bd 0f 08 35 bc 36 76 25 bd
       0.00057571527 -0.05280123 -0.011049285 -0.040395938
000260 ef 53 02 3e 14 47 ad 3b b7 58 d0 3c 8c 81 cf 3d
       0.1272733 0.005288014 0.025432928 0.10132131
000270 2e 52 7d 3c df d3 c5 3b 30 38 2f 3c a2 08 9d bd
       0.015461488 0.00603722 0.0106945485 -0.07667662
000280 0f 0b ce 3b d8 51 26 3c ff 48 26 3c e4 fa 05 be
       0.0062879394 0.010151349 0.01014924 -0.13083988
000290 39 c7 ea 3d 87 7f 39 3c 09 30 81 bb e2 c4 5c bc
       0.1146378 0.011321909 -0.003942494 -0.013474675
0002a0 26 16 06 bc 64 eb f3 3c f3 45 82 3d 2b 62 94 bc
       -0.008183992 0.029775329 0.06360998 -0.018113216
0002b0 8f cd ee 3c 5a 85 5c 3a da 03 9b bd 6b 92 b9 bd
       0.029150752 0.0008412205 -0.07569094 -0.0906113
0002c0 d6 b6 8c 3c 4e 84 af 3b d7 71 a3 3c db 6e 07 3e
       0.017177027 0.005356348 0.019951744 0.13225882
0002d0 a2 b9 f1 3d 6f 60 9e 3d 85 f3 d4 bd 7a 34 22 bc
       0.11802985 0.07733237 -0.1039801 -0.009900207
0002e0 55 ab c2 3d 90 5b 3d 3b 2e 6d 0c 3c 4c 57 b0 39
       0.09505335 0.0028893687 0.008570952 0.00033634377
0002f0 6d 79 88 bb f6 39 29 3e 69 3e 8f be 2c 0b a5 3c
       -0.0041648657 0.16526017 -0.27977303 0.020146929
000300 77 85 57 bd 61 bd 2a 3b 4c a6 05 bd 60 c1 3e bd
       -0.052617516 0.002605282 -0.032629296 -0.046571136
000310 a8 ee 60 bd b8 9e b5 3d 95 ad 49 bd c7 bc 3a bd
       -0.0549151 0.08868164 -0.049237806 -0.04559019
000320 6c 94 95 bd 01 4e 6a bd b9 2b 0f bd 8a e6 9a bd
       -0.073037 -0.057203297 -0.034953807 -0.07563503
000330 1a 39 4b 3f 52 a8 2f be 5f 2c a5 bd f5 ec 4d bd
       0.79384005 -0.17154053 -0.08065104 -0.050274808
000340 3e 59 a5 3d dd 0c 0e 3f f4 82 1c 3f ef b2 8f be
       0.08073662 0.5548838 0.6113732 -0.28066203
000350 87 18 48 bd 8d 4a 49 3f 5f 02 04 bd d2 98 96 bd
       -0.048851516 0.7862938 -0.032228824 -0.07353367
000360 b8 41 3e bf 58 46 56 bd 27 cc 60 bd c5 02 15 3f
       -0.7431903 -0.05231318 -0.054882195 0.5820735
000370 da 8f 39 bd b6 0f 99 bd 9d 1f 26 bd 4f 62 5b bd
       -0.045303203 -0.074737 -0.040557493 -0.05356055
000380 13 34 f5 3d fe 54 41 bd ee bc 2d bd 3f c1 93 3e
       0.11972823 -0.047200195 -0.042416506 0.28858373
000390 ed 4a 2e 3f 10 50 50 bd e1 5a 0a bf 20 cc 3b bd
       0.6808308 -0.050857604 -0.5404492 -0.045848966
0003a0 98 f9 3c bd ae 6e 53 bd 82 80 e4 be 75 ec 42 bd
       -0.04613647 -0.051619224 -0.44629294 -0.047588784
0003b0 e0 6b 4f bd 3b 92 80 3e 55 55 2d 3e 52 2b 4b be
       -0.050639987 0.25111565 0.16927083 -0.19840744
0003c0 ec 9a 83 bd 20 d0 07 bd ca f4 57 bd 14 54 c7 3d
       -0.064260334 -0.033157468 -0.052723683 0.097328335
0003d0 42 d8 31 3f 0b 94 19 3f 90 9a dd be 88 3e 02 bd
       0.6947061 0.5999152 -0.43281984 -0.031797916
0003e0 0e 13 15 3f 76 d5 3c bd 5b 89 39 bd a2 76 52 bd
       0.582322 -0.04610201 -0.045297008 -0.05138267
0003f0 02 75 ef be 93 e3 c5 3e c4 5b a5 3d aa 62 63 bd
       -0.46768957 0.38650188 0.080741435 -0.055514015

rnn.weight_ih_l1 f4 [256, 64]
000000 4c dd 35 37 5e 45 33 39 81 d3 39 ba 52 a3 66 38
       1.0839965e-05 0.00017096612 -0.00070887065 5.4988377e-05
000010 e4 27 81 37 19 e2 17 ba dc c1 8b b7 25 26 84 37
       1.5396574e-05 -0.0005793884 -1.6660364e-05 1.5753389e-05
000020 02 ae 29 b8 65 92 41 b6 2c a1 3b b7 c6 36 84 ba
       -4.0454797e-05 -2.8844454e-06 -1.1183594e-05 -0.0010087125
000030 3e d3 05 3a 0e dc 7c ba 9b 25 07 35 e5 5b cc b7
       0.0005105025 -0.0009645828 5.034614e-07 -2.4361487e-05
000040 4f e2 20 b9 ab e6 e9 3a 4d 03 d1 b9 7e 5c fd 39
       -0.00015343096 0.0017845234 -0.00039866046 0.00048324832
000050 6b ea e0 37 de 03 f9 38 a0 df 19 b8 c6 3b 32 38
       2.681204e-05 0.000118739656 -3.668631e-05 4.2494175e-05
000060 42 6a 3a 3a 4b 57 e4 35 c9 c6 2c 34 79 a4 87 b9
       0.00071111706 1.7012729e-06 1.6091066e-07 -0.00025871748
000070 d2 49 0e 38 72 f9 3f b7 5f fd 87 37 49 5e 47 b8
       3.392419e-05 -1.1442566e-05 1.621124e-05 -4.7533107e-05
000080 62 44 b4 3b 06 e3 1d 35 1a 82 33 b8 ab d1 06 3a
       0.005501316 5.881742e-07 -4.2798092e-05 0.00051429373
000090 89 26 e7 b9 af b0 a4 b7 be 4b 88 ba 11 43 ac 36
       -0.00044088464 -1.9632598e-05 -0.001039855 5.133807e-06
0000a0 50 7b 4e b8 dd 5d 42 b8 13 88 82 3a f9 ec a3 b7
       -4.922907e-05 -4.634062e-05 0.0009958766 -1.9541463e-05
0000b0 b4 ef 42 38 09 5f dd b9 53 84 97 b8 21 6a a2 ba
       4.6476445e-05 -0.00042223211 -7.2248884e-05 -0.0012391248
0000c0 06 29 01 38 81 5a da b7 e3 ac b8 b6 9a ed 99 b8
       3.0794203e-05 -2.602977e-05 -5.503754e-06 -7.339865e-05
0000d0 8f 19 bb 38 4f fd 67 b9 17 ca 8c 38 0d 94 6a 35
       8.9216155e-05 -0.00022124242 6.7133624e-05 8.7387235e-07
0000e0 63 04 26 38 82 62 46 b8 7d 37 6e 37 9c 34 05 b7
       3.958157e-05 -4.729862e-05 1.4198825e-05 -7.939667e-06
0000f0 14 2f b9 b9 2a e9 d2 39 de 54 38 ba e9 e7 43 34
       -0.00035321026 0.00040228042 -0.0007031689 1.8245159e-07
000100 8a 87 7e 35 b0 a9 80 39 87 82 25 ba 98 96 41 37
       9.481961e-07 0.0002454049 -0.00063137006 1.1538759e-05
000110 24 d1 8c 37 96 9b 67 38 fb 43 54 36 3b d4 2d 37
       1.678669e-05 5.5219592e-05 3.1630032e-06 1.0361017e-05
000120 8a f8 b3 b6 2f b5 ab 37 f8 da f1 b6 61 84 2c b9
       -5.3635495e-06 2.0469159e-05 -7.207851e-06 -0.00016452513
000130 61 00 4f 39 2e bf 2c ba 4a 0f 08 b7 c3 7a 3e b7
       0.000197412 -0.0006589767 -8.109791e-06 -1.1353465e-05
000140 8f 02 18 38 c1 ee bd 39 8a 4b e1 b9 59 d7 7e 37
       3.6242007e-05 0.00036226775 -0.00042971625 1.5189719e-05
000150 8f 54 a9 b6 a4 0c bd 39 71 fc 45 b7 b1 2c 14 37
       -5.0464364e-06 0.00036058307 -1.1800891e-05 8.831893e-06
000160 c4 26 39 b9 29 9b cc b6 5a 59 70 b7 6a a0 cc b8
       -0.00017657416 -6.097737e-06 -1.43259185e-05 -9.7573575e-05
000170 3e 9e 55 36 21 8c 9c 34 c7 a6 0c 37 da 4c b5 33
       3.1831582e-06 2.9159222e-07 8.383481e-06 8.4424485e-08
000180 59 a1 c8 3b f8 f8 0a 37 24 cc 1f b7 c4 6b c7 39
       0.0061227498 8.2834085e-06 -9.524669e-06 0.0003803653
000190 d1 ed 8c b8 b1 d5 69 b7 ea a5 1b b8 76 3e bd b6
       -6.720017e-05 -1.3937636e-05 -3.71094e-05 -5.6399103e-06
0001a0 f4 5a 25 b7 50 e5 e2 b6 f8 83 67 3a 00 51 84 b6
       -9.855943e-06 -6.7620203e-06 0.00088316156 -3.943336e-06
0001b0 a7 11 85 37 a7 b8 cd 39 19 6b 83 37 93 eb 07 ba
       1.5863056e-05 0.00039238224 1.5666288e-05 -0.00051849446
0001c0 41 98 dc 36 1b cd 3c b7 27 26 d7 34 76 cb 5e 39
       6.5742356e-06 -1.1253428e-05 4.007463e-07 0.00021247365
0001d0 a4 37 9c 39 1f 71 36 b9 d6 02 cb b8 05 5b 66 37
       0.00029796094 -0.00017399013 -9.6803225e-05 1.373026e-05
0001e0 d4 5a e3 37 4d 41 29 b7 84 36 8a 37 98 90 b2 b4
       2.7102804e-05 -1.0088389e-05 1.6476268e-05 -3.326029e-07
0001f0 ed 6d db 38 97 f4 6a 39 ac 82 b2 b9 77 12 65 b7
       0.00010463209 0.00022407096 -0.00034048164 -1.3653763e-05
000200 7c 25 b6 37 9a 0d 09 38 ec 6d 1d 39 d4 3d a0 38
       2.1713546e-05 3.2676013e-05 0.00015013636 7.640911e-05
000210 7c 9d 10 37 f8 f6 2d ba be b1 c0 b7 cd 0c 01 36
       8.619736e-06 -0.00066362275 -2.2970951e-05 1.922995e-06
000220 f4 6b 0f b6 f3 ff 50 b8 01 e8 f2 37 1d 63 9b b9
       -2.1371497e-06 -4.9829436e-05 2.8956683e-05 -0.0002963775
000230 05 53 aa 38 20 7d 41 ba 2c 53 61 b7 9a b1 b3 b7
       8.121695e-05 -0.0007381011 -1.343041e-05 -2.1421165e-05
000240 30 4b 1b ba 6c 2a 8b 3a 76 b3 8e b9 fd b6 e1 39
       -0.00059239846 0.0010617501 -0.0002721806 0.0004305168
000250 ee 7c 45 38 df 53 13 b7 24 c7 02 b6 bd fd 09 38
       4.708481e-05 -8.7814105e-06 -1.9487425e-06 3.2899658e-05
000260 e3 bf be 39 d8 da ca 36 7b 3d fc 36 48 81 95 b9
       0.0003638259 6.045546e-06 7.5173425e-06 -0.00028515817
000270 10 7c 5d 38 f9 07 fb b6 15 a2 13 b5 8d 45 e4 b7
       5.280605e-05 -7.481311e-06 -5.499763e-07 -2.7212105e-05
000280 fe 70 ef 3b c2 02 79 37 2a 3e ed b7 4a 53 6a 3a
       0.007307171 1.4842199e-05 -2.8281549e-05 0.00089388026
000290 b5 cd d9 b9 0f 8b 00 b8 fb ba 86 ba 75 bd 69 b7
       -0.0004154273 -3.0647087e-05 -0.0010279113 -1.3931994e-05
0002a0 c7 d2 30 b8 10 47 03 b8 ad fb 9e 3a ef 93 5a b8
       -4.215797e-05 -3.1299016e-05 0.0012129449 -5.2113024e-05
0002b0 47 24 e3 37 a7 42 85 3a 43 bb 27 39 50 d4 31 ba
       2.7077402e-05 0.0010166959 0.00015996122 -0.0006783651
0002c0 ab e4 69 37 75 ff 4a 37 1e d3 90 b7 16 6e 7a ba
       1.3941123e-05 1.20996165e-05 -1.7264447e-05 -0.0009553147
0002d0 b1 63 2e b9 93 9b 82 39 d7 31 e1 39 2b 13 95 b4
       -0.00016631071 0.00024911444 0.00042952478 -2.776736e-07
0002e0 95 92 21 36 19 a2 13 b8 e8 fa 55 b7 7c 1c be 36
       2.4076191e-06 -3.5198496e-05 -1.2754208e-05 5.6657573e-06
0002f0 2c b3 0d ba 2e d6 f6 b9 2d d1 e4 b9 81 a6 24 37
       -0.0005405422 -0.00047080353 -0.00043643397 9.813929e-06
000300 76 df 0a b7 09 60 7f b9 a9 33 25 ba 5e db 1c 38
       -8.2774695e-06 -0.00024354471 -0.00063019485 3.73976e-05
000310 5c 0a d0 37 73 23 48 b9 24 c7 15 b7 b6 94 7d 37
       2.4800356e-05 -0.00019086692 -8.927458e-06 1.51146e-05
000320 87 5a 57 36 f3 7d a8 37 8e 07 24 b7 66 dd 60 ba
       3.209019e-06 2.008581e-05 -9.776921e-06 -0.0008577913
000330 93 65 0e ba 91 d7 c4 b9 f0 03 2f 37 d1 26 8b b7
       -0.0005432006 -0.00037544643 1.043173e-05 -1.6588167e-05
000340 3c 59 25 38 3b 57 83 3a ce f6 40 ba 95 e1 5b 39
       3.942217e-05 0.0010020504 -0.00073609955 0.00020969503
000350 0d 2b b7 36 89 29 34 39 4b f1 a3 b7 1b fc db 37
       5.4588368e-06 0.00017181611 -1.9543475e-05 2.622423e-05
000360 83 e6 94 3a 9d da 56 b6 35 8a 47 b7 e0 5e 86 37
       0.0011360202 -3.2015735e-06 -1.1893503e-05 1.6018224e-05
000370 68 7a e8 37 42 fb c6 b6 fe 27 14 37 69 0a be b6
       2.7713555e-05 -5.93011e-06 8.830799e-06 -5.663653e-06
000380 4f de be 3b 93 87 11 37 7b 99 1f b7 da 86 1d ba
       0.005824841 8.674239e-06 -9.5128735e-06 -0.0006009169
000390 b1 33 af b8 33 97 91 b7 f1 85 36 ba 05 ff 7b b7
       -8.3542785e-05 -1.7355755e-05 -0.0006962708 -1.5020142e-05
0003a0 eb 32 17 b8 ee 0f 25 b7 50 9c 74 3a bb fb 56 b7
       -3.6048626e-05 -9.838475e-06 0.00093311537 -1.2814005e-05
0003b0 c8 76 e5 37 bb af bd b9 67 8a 31 ba a5 bf 31 ba
       2.735424e-05 -0.0003617982 -0.0006772638 -0.00067805714
0003c0 53 6d a2 37 9b 64 9e b7 50 ca 51 37 67 17 a6 b6
       1.9362813e-05 -1.8881916e-05 1.2504475e-05 -4.94991e-06
0003d0 d7 f8 27 b9 c3 ba 9f 38 77 84 97 b8 39 5d e1 36
       -0.00016019061 7.616498e-05 -7.2249146e-05 6.716375e-06
0003e0 87 5f b1 b9 03 1d 0d b8 1d ac b7 37 39 ab 6b 37
       -0.00033831244 -3.364404e-05 2.1895446e-05 1.4046957e-05
0003f0 40 5e 4c b9 c9 03 34 3a ab 26 8f ba ac 88 28 b7
       -0.00019490067 0.0006867019 -0.0010921558 -1.0045402e-05

rnn.weight_hh_l1 f4 [256, 64]
000000 b2 72 ad 37 15 77 81 37 65 39 e4 b7 87 90 ab b7
       2.0676616e-05 1.543345e-05 -2.7206444e-05 -2.045209e-05
000010 15 e4 59 36 15 3e 3d 38 fd 67 90 37 db 3d b5 37
       3.246828e-06 4.511893e-05 1.7214561e-05 2.1605685e-05
000020 51 2c 97 b5 b0 90 4b b7 86 c8 32 38 35 9d 90 b7
       -1.1263274e-06 -1.2133431e-05 4.262526e-05 -1.7239343e-05
000030 6a fa 12 ba f7 b9 88 b7 38 4d 67 3a d3 e5 5c b7
       -0.00056067726 -1.629906e-05 0.0008823457 -1.3166532e-05
000040 47 0d ec 37 94 ce 41 b8 fa 63 eb 37 15 9b d2 36
       2.8139575e-05 -4.6207177e-05 2.8060738e-05 6.2765416e-06
000050 a6 61 82 37 b2 98 b4 b7 fb 82 3f 3a d4 c1 96 34
       1.5542679e-05 -2.1528776e-05 0.00073055894 2.8080706e-07
000060 0d c7 8c 3b 0c 1f 54 37 1f 3e 8e 37 46 13 32 b8
       0.0042961896 1.2643413e-05 1.6956647e-05 -4.2456457e-05
000070 74 11 26 37 a4 27 28 b7 57 56 3b 37 4b 46 25 b7
       9.898435e-06 -1.002281e-05 1.1166171e-05 -9.851133e-06
000080 38 63 f5 36 00 2e b1 37 0c 83 ca b4 d2 90 60 b6
       7.3131196e-06 2.1121465e-05 -3.772078e-07 -3.3462898e-06
000090 84 30 bc b7 41 1e 29 38 b2 17 a1 35 a3 f8 95 b7
       -2.2433938e-05 4.0320916e-05 1.2002331e-06 -1.7877965e-05
0000a0 ff ea 04 37 c9 63 92 37 d3 ca 71 b7 f5 60 c7 b7
       7.922527e-06 1.7451022e-05 -1.4411943e-05 -2.3767798e-05
0000b0 41 67 35 b6 1d ae c6 38 0c 97 9b b6 e6 e0 1a 38
       -2.7031203e-06 9.473807e-05 -4.636944e-06 3.6925914e-05
0000c0 4f d8 ec 37 13 c1 bb 37 55 81 b2 35 e0 aa 3a b7
       2.8234119e-05 2.2382044e-05 1.3299674e-06 -1.1126249e-05
0000d0 4a c8 8c b6 a5 84 2f 37 96 47 40 b8 f3 45 a4 3a
       -4.195642e-06 1.0461697e-05 -4.5843037e-05 0.0012533054
0000e0 68 36 a8 b7 ee 6a ab ba 61 45 20 37 34 6f 12 b6
       -2.0052496e-05 -0.0013078132 9.552897e-06 -2.1820424e-06
0000f0 ba 53 a3 b6 40 12 2c 37 79 74 98 37 42 65 16 b8
       -4.8675256e-06 1.0256248e-05 1.8174049e-05 -3.585709e-05
000100 c6 d6 82 37 5b e8 a9 37 6e 66 af b6 4c 50 19 b6
       1.559722e-05 2.0254569e-05 -5.227331e-06 -2.2845516e-06
000110 38 ce 3e 36 30 17 ec 37 07 d7 83 37 d1 74 53 37
       2.8432241e-06 2.814419e-05 1.5716547e-05 1.26037785e-05
000120 84 b3 e2 36 4a 31 9c b7 d7 ce 8a 37 ff 62 6c b7
       6.7562232e-06 -1.8619601e-05 1.65472e-05 -1.40897455e-05
000130 00 3f a7 38 08 4a cf b6 9e 83 f9 39 9d 2f 2f b7
       7.974915e-05 -6.177699e-06 0.00047591043 -1.0441899e-05
000140 1e 5e be 37 13 af e6 b7 25 81 0c 37 74 1e e2 37
       2.2693592e-05 -2.7499662e-05 8.374719e-06 2.695548e-05
000150 81 a3 e9 b6 75 5b 80 34 cc 55 8a 38 57 1d cf b6
       -6.9629755e-06 2.3908402e-07 6.596334e-05 -6.1724963e-06
000160 ab f3 8d 3b 3d d8 bd b6 df 1f c6 36 d9 da 0d b8
       0.004332026 -5.6578124e-06 5.90457e-06 -3.3820837e-05
000170 0a dc 4d b5 55 ba 90 b6 50 11 12 36 ad a8 da 36
       -7.668865e-07 -4.3132263e-06 2.1765773e-06 6.5165427e-06
000180 29 bc 2b 37 8f c3 c3 b6 0b 83 0d b8 85 1c 71 36
       1.0236204e-05 -5.834219e-06 -3.3739063e-05 3.59284e-06
000190 d2 97 6a b7 47 b7 84 37 d0 08 82 36 30 e1 ae 36
       -1.3982835e-05 1.5820971e-05 3.875328e-06 5.2118194e-06
0001a0 bd 26 71 b7 0b 5b 6f 36 23 6f 0d b7 53 ec 77 b7
       -1.4373739e-05 3.566677e-06 -8.430131e-06 -1.4777371e-05
0001b0 2a 18 8d b7 c6 0e 48 39 0d 6c 95 b7 c8 fc 87 37
       -1.6819762e-05 0.0001907899 -1.78125e-05 1.6210965e-05
0001c0 dc c7 c9 36 0a 8c da 37 76 ff 2a 37 7c 59 87 b7
       6.0135335e-06 2.6052836e-05 1.0192269e-05 -1.6134923e-05
0001d0 8b c1 bd b5 4c b7 ec 37 18 75 b3 b7 b5 bc 8c 3a
       -1.4137926e-06 2.8218747e-05 -2.1392989e-05 0.0010737391
0001e0 df 9b ab b7 4b d4 88 ba 8d 7e 10 b7 85 10 6a b7
       -2.0457372e-05 -0.0010439245 -8.612534e-06 -1.3951333e-05
0001f0 2a 5c 46 b5 d7 9b 3e b5 9a 61 38 37 ac 09 be b7
       -7.3894864e-07 -7.100729e-07 1.0989979e-05 -2.2654269e-05
000200 73 e7 cb 37 93 b7 48 37 29 4e 53 b8 de 5d 5d b7
       2.4307263e-05 1.1963671e-05 -5.0379113e-05 -1.3194482e-05
000210 c0 e0 8c 36 72 83 a4 37 55 72 25 36 68 ed 8e 37
       4.1984895e-06 1.9611532e-05 2.4653466e-06 1.703827e-05
000220 86 1e f2 36 74 de f9 36 60 ed 8a 38 35 4e cd b7
       7.2157154e-06 7.446675e-06 6.624567e-05 -2.4474322e-05
000230 6c 21 d2 b9 d4 35 c5 b7 65 39 ce b8 40 b9 fb b7
       -0.00040079223 -2.3509296e-05 -9.833536e-05 -3.0007795e-05
000240 94 be e5 37 18 2f 99 b7 93 e9 09 38 af 17 9d b7
       2.7387672e-05 -1.8260951e-05 3.288088e-05 -1.8726887e-05
000250 63 9e c1 36 b6 6c a7 b7 cc a2 f1 39 af 07 19 37
       5.770287e-06 -1.9958574e-05 0.00046088395 9.1213e-06
000260 8c db bc 3b 84 57 dd 37 2c ff da 36 ea 19 6a b7
       0.0057634767 2.6386006e-05 6.526612e-06 -1.39535205e-05
000270 64 c0 8d 36 7c 49 30 b7 6a 89 3b 36 b8 06 87 b7
       4.2245247e-06 -1.0507527e-05 2.7945157e-06 -1.6096383e-05
000280 96 45 b2 36 f6 4a 93 36 2e dc 0a 38 85 c5 a4 37
       5.3129143e-06 4.389668e-06 3.3106822e-05 1.96423e-05
000290 dc 6e e0 b7 40 92 c3 37 46 02 d8 36 dc a0 f5 b7
       -2.6754504e-05 2.3313914e-05 6.4375663e-06 -2.9281182e-05
0002a0 d0 90 4c 37 a8 a1 96 36 af 54 ab b7 50 a1 29 b7
       1.2193064e-05 4.4891676e-06 -2.0424222e-05 -1.01107435e-05
0002b0 94 67 31 37 ec 2c 51 b9 b3 89 52 37 20 bb 7a 36
       1.0574138e-05 -0.00019948528 1.2549036e-05 3.7361824e-06
0002c0 67 9d 1e 38 32 5d 06 37 04 03 b6 b7 82 c3 c4 36
       3.7816728e-05 8.008721e-06 -2.1697495e-05 5.8640153e-06
0002d0 1a 70 9c 36 a6 a9 52 b7 54 14 4d b8 57 ef 0d 3b
       4.6622126e-06 -1.2556475e-05 -4.889474e-05 0.002165755
0002e0 68 52 d8 b5 7f 89 ec ba 62 25 4e b7 dd 47 59 37
       -1.6117237e-06 -0.0018046348 -1.2287261e-05 1.295094e-05
0002f0 74 11 20 b7 81 aa ae b6 12 a8 07 b7 9a 30 28 b8
       -9.540807e-06 -5.2054534e-06 -8.085759e-06 -4.0099585e-05
000300 6a 6a a0 37 e7 7f 5b 37 40 33 80 b6 29 71 a0 b3
       1.912304e-05 1.3083197e-05 -3.8206636e-06 -7.471164e-08
000310 7f cd 38 36 9a 62 72 37 ff d1 ef 37 b7 55 b8 36
       2.753775e-06 1.44472815e-05 2.8588807e-05 5.493606e-06
000320 0b 85 be 37 d5 98 59 b7 a3 bd 8f 37 19 09 1f b7
       2.2711718e-05 -1.2969792e-05 1.7135235e-05 -9.479257e-06
000330 21 75 f4 37 1d a7 7e b7 b8 db 67 3a aa 01 9f b7
       2.9141609e-05 -1.5178489e-05 0.00088446913 -1.8955052e-05
000340 20 9c f2 37 eb d7 0d b8 a8 4d 40 37 45 ba 22 38
       2.892135e-05 -3.381811e-05 1.1462173e-05 3.8797287e-05
000350 56 d3 f0 b7 a4 4b 8e 37 cc 5b 0c 39 11 f7 9a b7
       -2.870864e-05 1.6962942e-05 0.00013385637 -1.847328e-05
000360 06 b9 93 3b c9 34 1d 37 58 77 c1 b6 d8 d2 46 b8
       0.0045081405 9.370219e-06 -5.7657417e-06 -4.7403242e-05
000370 dd 4d 8e b7 e0 80 7c b7 eb e8 29 b5 7c 3f dd 36
       -1.6963977e-05 -1.50503765e-05 -6.3296346e-07 6.593704e-06
000380 e6 18 ad 37 a5 82 8c b7 84 42 9c b8 b0 09 92 37
       2.0634801e-05 -1.6750137e-05 -7.451049e-05 1.7409067e-05
000390 f8 33 83 b7 74 e0 9d 37 dd c5 00 38 6b 94 b0 37
       -1.5640617e-05 1.8820378e-05 3.0701853e-05 2.1049947e-05
0003a0 de c3 3d b8 76 82 1c 37 75 78 14 35 66 8b ea 36
       -4.5243527e-05 9.3287e-06 5.5309584e-07 6.9899716e-06
0003b0 ee 14 c2 b7 43 e1 ed 38 c5 8a 0e b8 ae e8 c1 b6
       -2.3136348e-05 0.00011342999 -3.3984677e-05 -5.7789357e-06
0003c0 10 fe 41 b6 47 f9 25 38 5f 78 fb 37 e7 81 c7 b6
       -2.8907125e-06 3.9571223e-05 2.9977584e-05 -5.945785e-06
0003d0 df 3d 10 37 05 d8 22 38 28 af 44 37 f2 9b af 3a
       8.597474e-06 3.8824994e-05 1.1723292e-05 0.0013397916
0003e0 57 e4 50 b7 d2 f4 9b ba 31 e2 03 b8 31 a5 06 b8
       -1.2450931e-05 -0.0011898524 -3.144349e-05 -3.2101936e-05
0003f0 f1 00 d8 36 13 6a 06 b7 ef 65 b4 b7 ea dc 79 b7
       6.4374112e-06 -8.01172e-06 -2.1505139e-05 -1.4892992e-05
