checkpoints/Tend_LSTM_L2_bs16_traindeg0_bsfirst_pos1_rs_freq/Tend_LSTM_L2_bs16_epoch81_best2.4221760867133972.pt (torch, 206320 bytes, 9 tensors)

rnn.weight_ih_l0 f4 [256, 3]
0	0x3f88af43	1.0678486
1	0x800c1343	-1.108936e-39
2	0x3e845f0f	0.25853774
3	0x3eb14460	0.34622478
4	0x0010ce58	1.54339e-39
5	0x3e77a9cd	0.24185868
6	0x3f53f9a1	0.8280278
7	0x000528a6	4.7376e-40
8	0x3f39b0e5	0.72535545
9	0xbe0c266a	-0.13686529
10	0x000d8130	1.240205e-39
11	0xbdc7f8cc	-0.09764251
12	0x3ce2f80e	0.027706172
13	0x000c77cd	1.145002e-39
14	0x3e03bb19	0.12864341
15	0xbc8c930f	-0.017159967
16	0x000d1594	1.201602e-39
17	0xbb29eaaa	-0.0025927224
18	0x3e36ef23	0.17864661
19	0x0000b265	6.3996e-41
20	0x3d424cca	0.047436513
21	0x3e0527ca	0.1300346
22	0x8009d4fd	-9.02925e-40
23	0x3e1c4264	0.15259701
24	0x3e399371	0.1812265
25	0x000669dc	5.88988e-40
26	0x3dc45e9e	0.09588359
27	0xbe0563cd	-0.13026352
28	0x8006d8e5	-6.2882e-40
29	0x3e924a7a	0.28572446
30	0x3e85478e	0.26031154
31	0x0006d2ea	6.26675e-40
32	0x3e2a6420	0.16639757
33	0x3e097f0e	0.13427374
34	0x800cd55b	-1.178563e-39
35	0xbdcedc2a	-0.10100587
36	0x3e9b8799	0.3037689
37	0x80055e24	-4.92949e-40
38	0xbd41c1d9	-0.04730401
39	0x3e03ee7f	0.12883948
40	0x800bd5e0	-1.086914e-39
41	0x3d965a51	0.07341445
42	0x3e86d39c	0.2633332
43	0x800bb3cc	-1.07469e-39
44	0x3eb04b03	0.3443223
45	0x3f03728f	0.5134668
46	0x000c11b3	1.108375e-39
47	0x3f0878c0	0.5330925
48	0xbdccbd8c	-0.09997091
49	0x0010f5ab	1.557497e-39
50	0xbe9b16ce	-0.30290836
51	0x3ef630a9	0.48084
52	0x800c647f	-1.138077e-39
53	0x3ec4115d	0.38294497
54	0x3eb461da	0.35230905
55	0x800df5cf	-1.282041e-39
56	0x3c3eaa1d	0.011637238
57	0x3ce81ec7	0.028334988
58	0x0011a1f3	1.6193e-39
59	0x3c2e4aef	0.010637983
60	0x3d587e74	0.05285497
61	0x80123686	-1.672598e-39
62	0x3e561fe0	0.20910597
63	0x3edc92a9	0.43080643
64	0x800e1adf	-1.295336e-39
65	0xbc4bd6c1	-0.012441338
66	0x3f132d11	0.5749064
67	0x80078547	-6.9066e-40
68	0x3e11ebae	0.14250061
69	0xbe24c2c9	-0.1608993
70	0x800c79b5	-1.145686e-39
71	0xbdbb5f92	-0.09149088
72	0xbd649a91	-0.05581147
73	0x8009b38f	-8.90933e-40
74	0xbda03d41	-0.07824183
75	0x3e85e67b	0.26152405
76	0x000098b7	5.4784e-41
77	0x3e16f082	0.14740184
78	0x3d9dfab2	0.07713832
79	0x000ce387	1.183647e-39
80	0xbdac4d3d	-0.084131695
81	0x3dbd2cc4	0.09237054
82	0x801510c5	-1.934561e-39
83	0xbd21a69b	-0.039465528
84	0x3e3522ee	0.17689106
85	0x000fc2d7	1.447428e-39
86	0xbe67e829	-0.22647156
87	0xbbff49cf	-0.007790781
88	0x0001ecbc	1.7676e-40
89	0x3d6aa211	0.057283465
90	0x3ea0494f	0.3130593
91	0x0005a58f	5.18569e-40
92	0xbe28f186	-0.16498384
93	0x3e40ea34	0.18839341
94	0x8009f9ae	-9.16088e-40
95	0xbd977fc2	-0.07397415
96	0x3e40dadb	0.18833487
97	0x000d249b	1.206993e-39
98	0x3d1c6252	0.038179703
99	0x3e93ec39	0.2889116
100	0x80064538	-5.75844e-40
101	0x3e845f44	0.25853932
102	0x3ed39d55	0.41330972
103	0x801032b4	-1.487557e-39
104	0x3c47496e	0.012163503
105	0x3ecc880e	0.3994755
106	0x8002a064	-2.41208e-40
107	0x3d9494e8	0.07254964
108	0x3db9a094	0.09063831
109	0x800161e2	-1.26949e-40
110	0xbd64c101	-0.055848125
111	0x3e01e833	0.12686233
112	0x8008a689	-7.94426e-40
113	0xbd880664	-0.06641844
114	0x3f44bd22	0.76851094
115	0x800a8474	-9.6587e-40
116	0x3f0103c0	0.5039635
117	0x3f0bbe6f	0.54587454
118	0x80044cc9	-3.94887e-40
119	0x3d7c8fd7	0.061660614
120	0xbe19b0a9	-0.15008797
121	0x800eb663	-1.351125e-39
122	0xbd1fd78d	-0.039023925
123	0x3e1e0b9e	0.15434119
124	0x001366f5	1.781808e-39
125	0xbd5f8306	-0.054568313
126	0x3e9b390d	0.30316964
127	0x80121025	-1.65883e-39
128	0x3eb8cf48	0.36095643
129	0x3f0de4c4	0.55427194
130	0x000e6881	1.323186e-39
131	0x3e4b94b5	0.19880946
132	0x3e8c1c0a	0.27365142
133	0x000ac2c9	9.88231e-40
134	0x3e3b98b7	0.18319975
135	0x3e2899cc	0.16464919
136	0x0010aaae	1.530596e-39
137	0xbe10daba	-0.14145938
138	0x3ead9d8a	0.33909255
139	0x00015d50	1.2531e-40
140	0xbcb77335	-0.022393802
141	0x3ea6e746	0.32598323
142	0x000db695	1.25936e-39
143	0xbbf282ca	-0.007400845
144	0x3f5d0bba	0.8634602
145	0x800410bb	-3.73344e-40
146	0x3f89c80c	1.0764174
147	0x3f0c126e	0.5471562
148	0x800a0e45	-9.23474e-40
149	0x3ec51d48	0.38498902
150	0x3e0a4376	0.13502297
151	0x00008753	4.8545e-41
152	0x3e6e8540	0.23293018
153	0x3f49cdd8	0.7882972
154	0x000cd5c3	1.178709e-39
155	0x3f024115	0.5088056
156	0x3c417b37	0.011809162
157	0x00083caa	7.56446e-40
158	0xbde7d69d	-0.11320231
159	0xbda56fc9	-0.08077962
160	0x000c1647	1.110018e-39
161	0xbd8532b2	-0.0650381
162	0x3e8221d8	0.25416446
163	0x000e97de	1.340177e-39
164	0x3efddcf6	0.49582642
165	0xbd41b09b	-0.047287565
166	0x000c5191	1.131286e-39
167	0x3d50a72d	0.05094068
168	0x3d6087a0	0.054816842
169	0x80019bff	-1.47796e-40
170	0xbca7764e	-0.020442154
171	0x3ddb0e7a	0.106961206
172	0x0010d93b	1.547296e-39
173	0xbe263b4c	-0.16233557
174	0x3e451d4b	0.19249456
175	0x8007336f	-6.613e-40
176	0x3d9e7af8	0.07738298
177	0x3cbe3da0	0.023222744
178	0x00021712	1.91947e-40
179	0xbe862138	-0.2619722
180	0x3d8c2005	0.06842045
181	0x800b0467	-1.01177e-39
182	0xbe8b8ffe	-0.27258295
183	0x3f0bfde5	0.5468429
184	0x000a491c	9.44582e-40
185	0x3e6fc1a2	0.23413709
186	0xbe47d9cf	-0.19516681
187	0x000e76b7	1.328284e-39
188	0xbd7b7a22	-0.06139577
189	0x3e33a3e6	0.17542991
190	0x800b40bb	-1.033411e-39
191	0x3e407519	0.18794669
192	0xbde86174	-0.11346713
193	0x0010fd70	1.560284e-39
194	0xbe29f142	-0.16595939
195	0x3d144238	0.036195964
196	0x000c6371	1.137699e-39
197	0xbd5b6c2b	-0.053569954
198	0x3d28aaaa	0.041178383
199	0x000c0c3c	1.106415e-39
200	0x3e289076	0.16461357
201	0xbe5e7d18	-0.21727407
202	0x0005f321	5.46396e-40
203	0xbe1f1b1f	-0.1553769
204	0x3de3521f	0.11099648
205	0x800c3290	-1.120164e-39
206	0x3dde989b	0.10868951
207	0xbe8fe32c	-0.28103006
208	0x8011153e	-1.568824e-39
209	0xbe072499	-0.13197555
210	0xbe61a5c0	-0.22035885
211	0x80091df0	-8.37259e-40
212	0xbe85440f	-0.26028487
213	0x3e14f985	0.14548309
214	0x800c9745	-1.156291e-39
215	0x3e28d2e4	0.16486698
216	0x3e2a2622	0.16616109
217	0x800afd78	-1.009282e-39
218	0xbd1311eb	-0.03590576
219	0xbdc84a3f	-0.09779786
220	0x800a1ed3	-9.29413e-40
221	0xbd246a66	-0.040140532
222	0xbe6692e7	-0.22516976
223	0x00054e73	4.8732e-40
224	0xbf0842aa	-0.5322672
225	0x3c296b31	0.010340498
226	0x8006eedd	-6.36701e-40
227	0x39ed0798	0.0004520982
228	0x3e349aa8	0.17637122
229	0x800e7d12	-1.330564e-39
230	0xbe0f523d	-0.13996215
231	0xbe026b87	-0.12736331
232	0x0005e8fe	5.4276e-40
233	0xbcbe8bfc	-0.02326011
234	0xbf076023	-0.5288107
235	0x000e8288	1.332523e-39
236	0xbef4eb93	-0.4783598
237	0xbea518f9	-0.32245615
238	0x0005ef6f	5.4507e-40
239	0xbe8056c1	-0.25066188
240	0xbe2d6c2b	-0.16935794
241	0x8002da8d	-2.62072e-40
242	0xbdfb69c2	-0.12276031
243	0xbe265e35	-0.16246875
244	0x8011cd36	-1.634819e-39
245	0xba819fb0	-0.000988951
246	0xbd92ad5d	-0.07161973
247	0x80095842	-8.5818e-40
248	0xbe83a3ae	-0.25710815
249	0x3e3bfdf0	0.18358588
250	0x001304b9	1.746569e-39
251	0xbcf5f952	-0.030026112
252	0xbeaaf54a	-0.33390266
253	0x000284a8	2.31259e-40
254	0xbe5a363a	-0.21309748
255	0xbcb852f0	-0.022500485

rnn.weight_hh_l0 f4 [256, 64]
0	0x3e926416	0.28591985
1	0x3f12b523	0.5730764
2	0xbeba64bc	-0.3640498
3	0x3e65067f	0.2236576
4	0xbea1e27b	-0.31618103
5	0xbc20b6b4	-0.009809185
6	0x3d0d2395	0.03445776
7	0xbe5b3e4f	-0.21410488
8	0x3dd6e2c7	0.10492473
9	0xbee128ce	-0.43976444
10	0x3e98b70d	0.29827157
11	0xbe394e7c	-0.18096346
12	0xbdfc50cb	-0.123200975
13	0xbe3693f1	-0.17829873
14	0xbec8c287	-0.39210913
15	0x3dcdeb18	0.10054606
16	0xbee07448	-0.43838716
17	0xbe1f448f	-0.15553497
18	0xbc2c0a85	-0.010500555
19	0x3d02d3a3	0.031940114
20	0xbdb11a46	-0.086475894
21	0x3e1f73a7	0.15571462
22	0xbe1b18b3	-0.15146141
23	0x3d4689b9	0.048471186
24	0x3d7a22f1	0.06106848
25	0x3e31a6eb	0.1734883
26	0x3e6129da	0.21988621
27	0x3d6088e6	0.054818057
28	0x3eaf786a	0.34271556
29	0xbdd86f49	-0.10568101
30	0x3e37f9c6	0.17966375
31	0x3e761d31	0.24034573
32	0x3cd5c78b	0.026096126
33	0x3ce8bb0e	0.028409507
34	0x3e5a26cc	0.21303862
35	0x3f2fe303	0.6870577
36	0x3c9d2ee6	0.019187402
37	0xbce232b2	-0.027612064
38	0x3eff2e4f	0.49840018
39	0xbe10d6da	-0.1414446
40	0xbe5cc15b	-0.21558134
41	0x3dc7ac39	0.09749646
42	0xbd643283	-0.055712234
43	0xbd8f4cd6	-0.06997077
44	0xbe6661fd	-0.22498317
45	0x3e549a5b	0.20762007
46	0x3c030f43	0.007999244
47	0x3e5edd59	0.21764125
48	0xbf59d69e	-0.85093105
49	0xbe049ab4	-0.1294964
50	0xbe9e0946	-0.3086645
51	0xbeb40f40	-0.35167885
52	0x3cea8cd5	0.028631607
53	0x3e9609a1	0.2930422
54	0xbec58dcd	-0.38584748
55	0x3e2fca3f	0.17166995
56	0x3dba198b	0.09086903
57	0x3e0c2f45	0.13689907
58	0xbe06472a	-0.13113084
59	0x3dd111c6	0.10208468
60	0x3c60070e	0.013673557
61	0x3db7e1ac	0.0897859
62	0xbd4add74	-0.0495276
63	0xbe36dc3e	-0.17857453
64	0xbe0441f0	-0.12915778
65	0x3dd3c799	0.103408046
66	0x3e248589	0.16066565
67	0x3d97c1dd	0.07410023
68	0x3d7e4935	0.062081534
69	0xbe05b32e	-0.13056633
70	0xbdd79997	-0.10527342
71	0xbd353313	-0.04423816
72	0x3df0645e	0.117378935
73	0xbe9b1364	-0.3028823
74	0x3dd252ad	0.102696754
75	0xbc3d4eb6	-0.011554411
76	0xbc37a3a9	-0.011208453
77	0xbdf1d00b	-0.11807259
78	0xbea51c02	-0.3224793
79	0x3d0b89f9	0.034067128
80	0xbe4ffc7c	-0.20311159
81	0xbea6a444	-0.325472
82	0x3e56948b	0.20955102
83	0x3d6f73e7	0.058460142
84	0xbe5ecd96	-0.21758112
85	0x3dc7647e	0.09735964
86	0xbc2188b4	-0.009859253
87	0xbcfcafbd	-0.030845517
88	0xbdaff06b	-0.08590778
89	0xbd0a55e9	-0.033773337
90	0x3d46e8a8	0.048561722
91	0xbd660d0c	-0.056164786
92	0x3ee70c0a	0.45126373
93	0xbe58597d	-0.21127887
94	0x39e1a1fb	0.0004303603
95	0x3e8d0505	0.27542892
96	0x3d80c480	0.062874794
97	0x3d2b4090	0.04180962
98	0xbe3486cf	-0.1762955
99	0x3e74d3b2	0.2390888
100	0x3da531c7	0.08066135
101	0x3dd88f93	0.105742596
102	0xbe2a6d62	-0.16643289
103	0xbe3733e4	-0.17890888
104	0x3c29f6f2	0.010373818
105	0x3d0aa85a	0.03385196
106	0xbd87f308	-0.066381514
107	0x3dda6760	0.106642485
108	0xbe90094a	-0.28132087
109	0x3dc8c3ef	0.09802996
110	0x3d9cb8ca	0.07652433
111	0xbdc35708	-0.09538084
112	0xbebc67ab	-0.36797842
113	0xbddc65a9	-0.10761578
114	0xbe1735a0	-0.1476655
115	0x3db8ce15	0.09023682
116	0x3d5684c1	0.052372698
117	0x3e16e33a	0.14735118
118	0xbe8ca81e	-0.27472013
119	0x3ed07f16	0.4072196
120	0x3e2a34e1	0.16621734
121	0x3e58bb2e	0.21165153
122	0xbc7d7026	-0.015468633
123	0x3e50f054	0.20404178
124	0x3e6f37f4	0.23361188
125	0x3d510c0b	0.051036876
126	0xbd068485	-0.032841224
127	0xbe9af61e	-0.30265898
128	0x3ea250f1	0.31702378
129	0x3e26951c	0.16267818
130	0xbea26baf	-0.3172278
131	0x3deccfcf	0.11563074
132	0xbdcfa310	-0.101385236
133	0xbd04de5c	-0.03243862
134	0x3cf10ab8	0.029424056
135	0xbe7a72a8	-0.244578
136	0x3df7a58c	0.120921224
137	0xbf047215	-0.51736575
138	0xbea4010c	-0.3203205
139	0xbe4b5db8	-0.1985997
140	0xbb7da766	-0.0038704514
141	0x3ddbe91b	0.10737821
142	0xbf2e4951	-0.6808062
143	0x3e802f9a	0.25036317
144	0x3dc0eecc	0.09420547
145	0x3d99cb70	0.07509506
146	0xbdb753c3	-0.08951523
147	0x3e3252b9	0.17414369
148	0xbdc213ba	-0.09476419
149	0xbd85f746	-0.06541304
150	0xbddcd29e	-0.107823595
151	0x3cb1f289	0.021722095
152	0x3d1b658f	0.03793865
153	0x3da6df4c	0.08148059
154	0xbd0483f7	-0.032352414
155	0x3e008804	0.12551886
156	0x3d4dfe80	0.05029154
157	0xbda2626f	-0.07928931
158	0xbe629b9b	-0.22129671
159	0xbda598df	-0.080857985
160	0x3e865ca1	0.26242545
161	0xbdb6f56b	-0.089335285
162	0x3e3c4201	0.18384553
163	0x3ca53553	0.020167029
164	0x3c81be88	0.015837923
165	0x3e5f2753	0.21792345
166	0x3e8e2399	0.27761534
167	0x3d982380	0.07428646
168	0x3cf74ea9	0.030188875
169	0x3ad5bf98	0.001630771
170	0xbba42d96	-0.005010317
171	0xbed6b69e	-0.419362
172	0xbe66183e	-0.22470185
173	0x3dfdacac	0.1238645
174	0xbd95bfdf	-0.07311987
175	0x3ea2c672	0.31792027
176	0xbf534d32	-0.82539666
177	0xbec8ba88	-0.39204812
178	0xbe70f217	-0.2352985
179	0xbe91b4aa	-0.28458148
180	0xbe145ee8	-0.14489329
181	0x3cbf38ec	0.023342572
182	0xbe23dc1f	-0.16001938
183	0x3cf93126	0.030418944
184	0x3d91282e	0.07087742
185	0x3e691df6	0.22765335
186	0xbe243eb8	-0.1603955
187	0x3c2ddf64	0.0106123425
188	0x3cc7883d	0.024356956
189	0x3ea9f980	0.33198166
190	0xbe1f4280	-0.15552711
191	0xbe62a4bd	-0.22133155
192	0xbeb7fce0	-0.35935116
193	0xbe095cfb	-0.13414375
194	0x3e4fa36b	0.20277183
195	0xbe811fe2	-0.25219637
196	0x3e945388	0.2896998
197	0x3daad115	0.083406605
198	0x3dd2e2f8	0.10297197
199	0xbda16bf2	-0.07881917
200	0x3d76a858	0.06021914
201	0x3e1bfd49	0.1523334
202	0x3e808e67	0.25108644
203	0x3e1ab899	0.15109481
204	0xbd6528f5	-0.055947263
205	0x3e1bf8a3	0.15231566
206	0xbd921533	-0.0713295
207	0xbe286315	-0.16444047
208	0x3dd0aa73	0.101887606
209	0xbeb7f0e2	-0.35925967
210	0x3e6fb034	0.2340706
211	0x3c1c06f3	0.009523141
212	0xbd6cb245	-0.0577872
213	0x3df72320	0.120672464
214	0x3ba67f23	0.005081074
215	0xbdc76b1c	-0.09737226
216	0xbe158f52	-0.14605454
217	0xbd02452d	-0.031804252
218	0xbd8f03f4	-0.06983176
219	0x3dbbc001	0.09167481
220	0xbda9df2d	-0.082945205
221	0xbe87176b	-0.26385054
222	0x3d820e4f	0.063503854
223	0x3e34e1af	0.17664216
224	0x3d72fc45	0.059322614
225	0xbdbdf9fb	-0.092761956
226	0xbeb21632	-0.3478256
227	0x3e2b713b	0.16742413
228	0xbd13a541	-0.03604627
229	0x3ce8ae22	0.028403345
230	0xbe8af2e3	-0.27138433
231	0x3d77409a	0.060364343
232	0x3d1575ee	0.03648942
233	0xbe14a213	-0.14514951
234	0xbe1359f7	-0.14389788
235	0x3e36fafb	0.17869179
236	0x3d61d926	0.05513873
237	0xbca32f4c	-0.019920014
238	0x3e7598cf	0.23984073
239	0xbe2dcf17	-0.1697353
240	0x3e42760a	0.18990341
241	0x3db625dc	0.0889394
242	0x3dda88e1	0.10670639
243	0x3eaafbcd	0.33395234
244	0x3dc5f64d	0.09666119
245	0xbd68019b	-0.056642156
246	0xbe25928e	-0.16169187
247	0x3e431703	0.19051747
248	0x3c9c25de	0.019061025
249	0xbd91d96a	-0.071215466
250	0x3d919f24	0.07110432
251	0xbe1a5768	-0.15072405
252	0x3ca397b6	0.019969802
253	0xbd1dcdc2	-0.038526304
254	0x3e346b94	0.17619163
255	0xbd2101e1	-0.039308432

rnn.bias_ih_l0 f4 [256]
0	0x3f398cd3	0.72480506
1	0x3ed1b5a6	0.409589
2	0x3f563524	0.83674836
3	0xbcc2e4df	-0.023790775
4	0xbd41259d	-0.04715501
5	0x3e117d05	0.14207847
6	0x3de76149	0.112978525
7	0x3e94cb8f	0.29061553
8	0x3e29d413	0.16584806
9	0x3c9bde51	0.019026907
10	0x3f16c502	0.5889436
11	0x3e5bdae4	0.21470219
12	0x3e4b9e99	0.19884719
13	0x3e1e1d15	0.15440781
14	0x3edeb8e1	0.43500426
15	0x3f104afb	0.5636441
16	0xbcfd3a9b	-0.030911734
17	0x3f2451f9	0.6418758
18	0x3e9a8608	0.30180383
19	0x3d4c9c64	0.049953833
20	0x3e190d5a	0.149465
21	0x3ebe90de	0.372199
22	0x3dd5bb1f	0.10436081
23	0x3d15b215	0.036546785
24	0xbde6a521	-0.112619646
25	0x3d87e5eb	0.0663565
26	0x3e2559ef	0.16147588
27	0x3d66b660	0.05632627
28	0x3dd8abc8	0.1057964
29	0x3dccd19a	0.10000916
30	0x3de121e7	0.109927945
31	0x3e6eefd9	0.23333682
32	0x3e221057	0.15826546
33	0x3ea479ed	0.32124272
34	0x3ea42221	0.32057288
35	0x3d210509	0.039311443
36	0xbd80c0f9	-0.062868066
37	0x3e3f4e08	0.1868211
38	0x3f15d60f	0.5852975
39	0x3ed5466b	0.41655287
40	0xbe3ddf27	-0.18542157
41	0x3ddb1421	0.10697199
42	0x3e39f1ba	0.18158618
43	0x3ebb2fdb	0.36559948
44	0x3c76572b	0.015035431
45	0xbc329d04	-0.010901693
46	0x3eea7307	0.45790884
47	0xbc87849e	-0.016542729
48	0x3f65469c	0.89560866
49	0x3eba6446	0.36404628
50	0x3e9b42f5	0.30324522
51	0x3f36d073	0.7141182
52	0xbe35a488	-0.17738545
53	0x3ad49d98	0.0016221283
54	0x3e8766dd	0.26445666
55	0x3e926e93	0.28599986
56	0x3e6b574b	0.22982518
57	0xbdd55f92	-0.10418619
58	0xbe03b3a1	-0.12861492
59	0xbe05b04b	-0.13055532
60	0x3dc067d9	0.09394807
61	0x3e903828	0.28167844
62	0xbd761793	-0.060081076
63	0x3e78c9cc	0.2429573
64	0xbdb63449	-0.08896691
65	0xbdeccbb9	-0.115622945
66	0xbeaa90fb	-0.33313736
67	0xbb66f7b0	-0.0035242848
68	0x3db52ef4	0.08846846
69	0xbe7ae155	-0.2450002
70	0xbe71ffe1	-0.23632766
71	0x3cacc821	0.021091523
72	0xbbc049fd	-0.005868195
73	0xbed9daeb	-0.42549834
74	0xbd8a19bc	-0.0674319
75	0xbdc75806	-0.09733586
76	0xbdc3877e	-0.095473275
77	0xb98f6bf5	-0.0002735552
78	0xbf071306	-0.527634
79	0xbe08980f	-0.13339256
80	0xbe341846	-0.17587385
81	0xbe3b0b03	-0.1826592
82	0xbd5bafd6	-0.053634487
83	0x3dc7ac46	0.097496554
84	0xbee2ac36	-0.44272012
85	0xbcaf5ace	-0.021405604
86	0xb8913898	-6.92468e-05
87	0xbd1959b6	-0.03743907
88	0xbe642d68	-0.22282946
89	0xbe871c4a	-0.2638877
90	0x3cb054f0	0.021524876
91	0xbd33d2a1	-0.043902043
92	0xbe411ee1	-0.18859436
93	0xbce89302	-0.028390411
94	0x3d0386a0	0.03211081
95	0xbdbfd12d	-0.09366069
96	0xbdac5fb5	-0.08416692
97	0xbe8b6fc9	-0.27233723
98	0x3de35dbb	0.11101862
99	0xba8cc309	-0.0010739277
100	0xbe0dbe76	-0.13842186
101	0xbe8c6dce	-0.27427524
102	0xbdd8179a	-0.10551377
103	0x3cce93fa	0.025217045
104	0xbe439914	-0.19101363
105	0xbd78b540	-0.06071973
106	0xbde3f98f	-0.11131584
107	0xbe807e06	-0.25096148
108	0x3d04d826	0.032432698
109	0xbd56889e	-0.052376382
110	0xbd9f1a26	-0.07768659
111	0xbe2c4d92	-0.16826466
112	0xbf0c3ea3	-0.54783076
113	0xbe56ab23	-0.20963721
114	0xbe3e166c	-0.18563241
115	0x3cf9ad41	0.030478122
116	0xbd092c93	-0.033489775
117	0xbe856b3b	-0.26058373
118	0xbc18b285	-0.009319906
119	0xbe33fa62	-0.17575982
120	0x3e0f35b7	0.13985334
121	0xbc0c7a83	-0.008574131
122	0xbc87b5d2	-0.01656619
123	0xbe6bc121	-0.23022892
124	0xbe19d08b	-0.15020959
125	0xbe777601	-0.24166109
126	0xbcc75a4a	-0.024335045
127	0x3df77474	0.120827585
128	0x3dd8b8e1	0.10582138
129	0x3d8bc895	0.06825367
130	0xbe119d32	-0.14220122
131	0x3dd25a5b	0.1027114
132	0xbd46a655	-0.04849847
133	0x3c897642	0.016780023
134	0xbdaff446	-0.08591513
135	0xbcfb3a92	-0.030667577
136	0x3d87eab2	0.066365615
137	0x3d8b6055	0.06805483
138	0xbe1176a0	-0.14205408
139	0xbe100bc5	-0.1406699
140	0x3ad210a0	0.0016026683
141	0x3da07a88	0.07835871
142	0x3e3ad5d6	0.18245634
143	0xbcf930cb	-0.030418774
144	0x3cc4c605	0.024020204
145	0x3dd20c42	0.10256244
146	0xbe00a091	-0.12561251
147	0xbd87ef29	-0.06637413
148	0x3dce6154	0.100771576
149	0x3b5b7cf4	0.0033491226
150	0x3c8c3a92	0.017117772
151	0x3e04f4db	0.1298403
152	0x3d0e885c	0.03479801
153	0xbcce25ca	-0.025164504
154	0xbdd3a42b	-0.10334047
155	0xbd9ae0a8	-0.07562381
156	0xbe08d931	-0.13364102
157	0x3dba1c88	0.09087473
158	0xbd364a51	-0.044504467
159	0x3d888779	0.06666464
160	0xbcc2a9f2	-0.023762677
161	0xbc43ad75	-0.011943211
162	0x3c9c2e3b	0.019065013
163	0x3d9cd9cf	0.07658731
164	0x3d0c12be	0.03419756
165	0xbd9b3fc1	-0.075805195
166	0x3d967af3	0.073476695
167	0x3da65185	0.08121017
168	0xbc7734cf	-0.015088274
169	0xbd8b6830	-0.068069816
170	0x3dee9979	0.11650366
171	0x3c372a92	0.011179583
172	0xbd98df17	-0.07464426
173	0x3d1ddbfb	0.038539868
174	0xbe279433	-0.16365127
175	0xbce67803	-0.028133398
176	0x3da9e6fd	0.08296011
177	0xbd5bb73c	-0.053641543
178	0xbc9b49d8	-0.01895611
179	0xbda1c25a	-0.07898398
180	0xbd05d63f	-0.032675024
181	0xbd99e46c	-0.07514271
182	0x3e06d518	0.13167226
183	0xbdaf9a90	-0.08574402
184	0xbdb9aae5	-0.09065799
185	0xbd9522d6	-0.07282035
186	0xbb9b4488	-0.004738394
187	0x39226da3	0.00015490367
188	0xbdd05903	-0.10173228
189	0xbd3195d3	-0.043355774
190	0xbd9ce251	-0.07660354
191	0xbd185282	-0.03718806
192	0x3f600696	0.8751005
193	0x3ef28baa	0.4737218
194	0x3f2a7517	0.66584915
195	0xbe04f1fb	-0.12982933
196	0x3dc27931	0.09495772
197	0x3d765465	0.06013908
198	0x3e4f46e5	0.20241888
199	0x3e7f3ccd	0.24925537
200	0x3e312c73	0.17302112
201	0x3e0a7c43	0.13523965
202	0x3f07cf14	0.5305035
203	0x3cfbdf50	0.030746132
204	0x3d302178	0.04300067
205	0xbd3adc9a	-0.04562054
206	0x3ef2dbfe	0.47433466
207	0x3ef4f013	0.47839412
208	0xbd22d948	-0.039757997
209	0x3ef01066	0.4688751
210	0x3eb258a0	0.3483324
211	0x3d3be7ea	0.045875467
212	0x3e8b276b	0.2717851
213	0x3e44848a	0.19191185
214	0x3e341aa2	0.17588285
215	0xbd35b0b7	-0.04435798
216	0xbdbb79b0	-0.091540694
217	0x3e3a267a	0.1817874
218	0x3d8cf05f	0.06881785
219	0x3dc319fd	0.09526441
220	0x3e8739b1	0.26411203
221	0x3d9aa161	0.07550312
222	0x3e84a5c5	0.25907722
223	0x3e742bf1	0.23844887
224	0x3d1851dc	0.037187442
225	0x3ef80812	0.48443657
226	0x3eb4b8d8	0.35297275
227	0x3d8d5ef0	0.069028735
228	0x3ba280c8	0.0049591996
229	0x3da0d647	0.0785337
230	0x3f282f07	0.6569676
231	0x3ea4d8b7	0.3219659
232	0xbe7e2bef	-0.24821447
233	0x3e393eaa	0.1809031
234	0x3ec47604	0.3837129
235	0x3e959008	0.2921145
236	0xbcd89ac0	-0.026440978
237	0x3d6d172e	0.057883434
238	0x3ef20abf	0.47273824
239	0xbc9d4a93	-0.019200599
240	0x3f6eb523	0.9324514
241	0x3f0d3d3c	0.5517156
242	0x3ea27a0b	0.31733736
243	0x3f2e5c1a	0.68109286
244	0xbde71ea8	-0.11285144
245	0xbe16fbdd	-0.14744516
246	0x3e11d6ed	0.14242144
247	0x3e346dde	0.17620036
248	0x3e6337dc	0.22189277
249	0xbe05f97b	-0.1308345
250	0xbdd0ff9a	-0.10205002
251	0xbe1056b3	-0.14095573
252	0x3d931dde	0.07183431
253	0x3e338482	0.17531016
254	0x3db99665	0.090618886
255	0x3e11cf22	0.14239171

rnn.bias_hh_l0 f4 [256]
0	0x3f3e5d96	0.7436155
1	0x3ea30562	0.31840044
2	0x3f2bc9db	0.6710488
3	0xbcd68e5b	-0.026190927
4	0x3ddb74d2	0.10715641
5	0x3e0a3da3	0.13500075
6	0x3e530b57	0.20609795
7	0x3e931559	0.28727224
8	0x3dad4a99	0.08461494
9	0x3d25eee1	0.040511016
10	0x3f2df227	0.6794762
11	0x3da20636	0.07911341
12	0x3d547bf7	0.051876035
13	0xbd039fde	-0.032134883
14	0x3eeee9d0	0.4666276
15	0x3f11c3ce	0.569394
16	0xbc07c755	-0.008287271
17	0x3f13376c	0.5750644
18	0x3e62e2f1	0.22156884
19	0xbd9b8959	-0.07594556
20	0x3d4c1843	0.049827825
21	0x3e83b6be	0.2572536
22	0x3e3ce775	0.18447669
23	0xbd6e36e8	-0.05815783
24	0xbd3eca2f	-0.046579536
25	0x3ddc1e70	0.10747993
26	0x3d1f6590	0.038915217
27	0x3d76b6cd	0.060232926
28	0x3e1c9ea2	0.15294889
29	0x3e4998ce	0.19687197
30	0x3d6fd947	0.05855682
31	0x3e61bf0c	0.22045535
32	0x3e12464c	0.14284629
33	0x3e8ab28b	0.27089342
34	0x3eb355bd	0.3502635
35	0x3e34b19a	0.17645875
36	0xbe004c0f	-0.12529014
37	0x3dab8d27	0.08376532
38	0x3f2e70f6	0.68141115
39	0x3e9f04db	0.31058392
40	0xbe7d65c8	-0.24745858
41	0xbce67608	-0.028132454
42	0x3ecc8023	0.3994151
43	0x3ef10d70	0.47080564
44	0x3b3a3c25	0.0028417197
45	0x3cfe74ee	0.031061616
46	0x3eb1ba8c	0.34712636
47	0xbd80b4e6	-0.06284504
48	0x3f791beb	0.97308224
49	0x3f07b45a	0.5300957
50	0x3e94b533	0.29044494
51	0x3f226af8	0.6344447
52	0xbdb79907	-0.089647345
53	0xbcbd56b7	-0.023112638
54	0x3eab9588	0.3351252
55	0x3e84fd9a	0.25974733
56	0x3e105aa2	0.14097074
57	0xbe10cee7	-0.14141427
58	0x3c36a0e0	0.011146754
59	0xbe223da9	-0.15843834
60	0x3e41f065	0.1893936
61	0x3e985a9c	0.2975663
62	0x3e0397fa	0.12850943
63	0x3eabe6a9	0.33574417
64	0x3c26baf0	0.010176405
65	0x3d69ebf2	0.05710978
66	0xbdc96bd2	-0.09835018
67	0xbdf8f397	-0.12155836
68	0xbdc50c4b	-0.09621485
69	0xbe4fe9c5	-0.2030402
70	0xbe329578	-0.1743983
71	0xbdcc53c9	-0.09976918
72	0x3d57b4e0	0.05266273
73	0xbeb60cd6	-0.35556668
74	0xbdc1e89d	-0.094681956
75	0x3d579efc	0.052641854
76	0x3cd9d735	0.026591877
77	0xbd5ae215	-0.053438265
78	0xbef48d75	-0.47764173
79	0xbe303dc6	-0.17211065
80	0xbe1186eb	-0.14211623
81	0xbe406e9f	-0.18792199
82	0xbdab26b5	-0.08356992
83	0xbda36b2e	-0.07979427
84	0xbed083fb	-0.40725693
85	0xbd9208c5	-0.07130579
86	0x3aad2cfc	0.0013212259
87	0xbe0eed16	-0.13957629
88	0xbe4c977a	-0.19979659
89	0xbe89a3d5	-0.26882806
90	0xbc86dca5	-0.016462633
91	0x3d6de56d	0.058080126
92	0xbe6c8ba0	-0.23100138
93	0xbdcae4c1	-0.099069126
94	0x3d0358d1	0.032067124
95	0xbe18e991	-0.14932849
96	0x39eea94a	0.00045521028
97	0xbe29b0bc	-0.16571325
98	0xbd695a3a	-0.056970812
99	0x3c8baa12	0.01704887
100	0xbced8f61	-0.028999032
101	0xbe8bd7ff	-0.2731323
102	0x3c5a99b9	0.013342314
103	0xbdb390a1	-0.0876782
104	0xbe6ed245	-0.23322399
105	0xbdb716c8	-0.08939892
106	0xbe063275	-0.13105185
107	0xbdb6909a	-0.08914299
108	0xb9b90510	-0.00035289722
109	0x3c8f2b6b	0.017476758
110	0xbe0d6d28	-0.13811171
111	0xbdcb08ec	-0.09913811
112	0xbea20945	-0.31647697
113	0xbdf29aeb	-0.118459545
114	0xbe427e32	-0.18993452
115	0xbdf2d560	-0.11857104
116	0xbd0f5f6d	-0.035003114
117	0xbd9110fb	-0.07083317
118	0xbd9fc685	-0.078015365
119	0xbd8d7a11	-0.06908048
120	0x3dd402fe	0.10352133
121	0x3b54e364	0.0032484168
122	0x3d8c58cd	0.06852875
123	0xbd2f417c	-0.04278706
124	0xbe2b2f82	-0.16717342
125	0xbe434833	-0.1907051
126	0xbe054411	-0.13014247
127	0xbd0a6d7d	-0.033795822
128	0xbc9e2f85	-0.019309768
129	0xbe1bc8bd	-0.15213294
130	0x3d3cb920	0.046074986
131	0x3bfba3cd	0.0076794387
132	0xbdf463ff	-0.11933135
133	0x3d6774b3	0.056507777
134	0xbd97b658	-0.07407826
135	0x3e0fe3ef	0.14051794
136	0xbddfa8a9	-0.10920841
137	0x3d9eb030	0.07748449
138	0xba5fbd7c	-0.000853501
139	0x3cd5d6d2	0.02610341
140	0x3d6137ec	0.054984972
141	0xbe10600e	-0.14099142
142	0x3d22cf08	0.03974822
143	0x3d351d82	0.044217594
144	0xbd25a31a	-0.04043875
145	0x3d508d66	0.050916098
146	0xbd2ddf6e	-0.042449407
147	0x3d8c6e56	0.068569824
148	0x3ddae3b8	0.10687965
149	0xbd496f8a	-0.049178638
150	0xbcfe8812	-0.031070743
151	0xbd2a4bac	-0.041576073
152	0x3dcbdcbd	0.09954212
153	0x3c313ad4	0.010817248
154	0x3d118b93	0.0355335
155	0x3ce8f2bf	0.028436063
156	0xbd6f5e2e	-0.058439426
157	0x3e017fd5	0.1264642
158	0x3c96cb0b	0.018407365
159	0xbe2743fe	-0.1633453
160	0xbda48833	-0.080337904
161	0x3d11e14c	0.03561525
162	0x3d939d0e	0.0720769
163	0xbd669db5	-0.056302745
164	0x3d908138	0.070558965
165	0xbc1d50b7	-0.009601763
166	0xbaf91ee9	-0.0019006404
167	0x3ce15ecb	0.027511021
168	0xbd8005ae	-0.06251083
169	0x3dd7c66a	0.10535891
170	0xbcfee877	-0.031116707
171	0xbdc7a4e5	-0.09748248
172	0x3da687a8	0.08131343
173	0x3c743c0c	0.014906894
174	0x3d029d12	0.031888075
175	0xbd07f4a1	-0.03319228
176	0x3e319f0a	0.17345825
177	0xbcb760da	-0.02238505
178	0x3db063d6	0.08612792
179	0xbbe4ce96	-0.006982635
180	0x3d8c7ec0	0.06860113
181	0x3ddbe263	0.10736539
182	0x3d1ac6d2	0.037787266
183	0xbde20160	-0.110354185
184	0x3cc9d139	0.024635898
185	0xbd5e9960	-0.05434549
186	0x3d04b32a	0.032397427
187	0xbb05b21c	-0.002040035
188	0xbd4a9b60	-0.049464583
189	0x3d32a55f	0.04361474
190	0xbe25658f	-0.16152023
191	0x3d9df114	0.07711998
192	0x3f4263d7	0.75933594
193	0x3e9b10d4	0.30286276
194	0x3f33b107	0.70192
195	0xbdd72c1a	-0.105064586
196	0x3ca28785	0.019840011
197	0x3e3aa01b	0.18225138
198	0x3dac6921	0.08418489
199	0x3e157a38	0.14597404
200	0x3e4f50cf	0.2024567
201	0x3da35e4f	0.07976972
202	0x3f0fb3de	0.5613383
203	0x3d5df640	0.05418992
204	0x3c2b8b72	0.010470258
205	0x3cef987f	0.02924752
206	0x3eca614f	0.39527366
207	0x3ecfdc21	0.40597633
208	0xbdc3c749	-0.09559495
209	0x3f10451c	0.5635545
210	0x3eb79149	0.3585303
211	0xbda9cada	-0.08290644
212	0x3d8d22d2	0.06891407
213	0x3e366693	0.17812566
214	0x3d94911d	0.07254241
215	0xbdad3dde	-0.08459066
216	0xbd7ce86d	-0.061745096
217	0xbc892492	-0.01674107
218	0x3e5e4c81	0.21708871
219	0x3e00a93e	0.12564561
220	0x3e5a0d31	0.21294095
221	0x3e3ead7e	0.1862087
222	0x3e7fd9fd	0.249855
223	0x3e9a14ab	0.30093893
224	0x3ce4575d	0.02787369
225	0x3ee3895a	0.44440728
226	0x3e90e712	0.28301293
227	0x3dddf123	0.10837009
228	0xbd5fc707	-0.054633167
229	0x3e06e507	0.13173304
230	0x3f207632	0.6268035
231	0x3ed73974	0.4203602
232	0xbd446925	-0.047951836
233	0x3e182e9f	0.14861535
234	0x3e97606e	0.29565758
235	0x3ed257cf	0.41082618
236	0x3e436621	0.19081928
237	0xbe241ca8	-0.16026556
238	0x3ee27c38	0.44235396
239	0xbd8c3e83	-0.06847861
240	0x3f8ac148	1.0840235
241	0x3ef8253c	0.48465908
242	0x3e42ffb5	0.19042857
243	0x3f5e1908	0.86756945
244	0x3d40add5	0.04704078
245	0xbe221f61	-0.15832283
246	0x3e3abc7f	0.18235968
247	0x3e806c3b	0.25082573
248	0x3e36d385	0.17854126
249	0xbe0edab8	-0.13950622
250	0xbd916f16	-0.07101266
251	0xbe230af6	-0.1592215
252	0xbbd48dfa	-0.0064866515
253	0x3e3b9944	0.18320185
254	0x3d6c2cdc	0.05765997
255	0x3e28b40c	0.16474932

rnn.weight_ih_l1 f4 [256, 64]
0	0xbec9df12	-0.39428002
1	0x3e7d7450	0.24751401
2	0x3f15633a	0.5835453
3	0xbca7df08	-0.020492092
4	0xbbc62c1a	-0.006047738
5	0xbcd6457d	-0.026156181
6	0xbe349fca	-0.1763908
7	0xbd5508b5	-0.052010257
8	0x3e3e56ef	0.1858785
9	0xbd786096	-0.060638987
10	0x3eebfd9d	0.4609193
11	0x3dc920fc	0.098207444
12	0xbdee10bf	-0.11624288
13	0x3e1eff23	0.15527014
14	0x3df62e7a	0.120205835
15	0x3cd221e2	0.025650922
16	0x3cf6ff99	0.030151175
17	0xbf211bfa	-0.62933314
18	0x3e8fc40e	0.28079265
19	0x3d9e9beb	0.07744583
20	0xbd1277bd	-0.035758723
21	0x3e4b2d30	0.19841456
22	0x3e26e9e7	0.16300164
23	0xbe52bd66	-0.20580062
24	0xbcd00578	-0.025393233
25	0xbdeb537f	-0.11490535
26	0x3da3b158	0.0799281
27	0x3ca47152	0.020073567
28	0x3e04537b	0.1292247
29	0xbc2a14cd	-0.010380936
30	0x3e0ae711	0.13564707
31	0x3eaa53b9	0.33267
32	0x3e31ae63	0.1735168
33	0x3cd2d6a9	0.025737124
34	0xbea4970e	-0.32146496
35	0x3e727197	0.23676144
36	0x3d919be7	0.07109814
37	0x3e736e94	0.23772651
38	0xbecf9bff	-0.40548703
39	0xbe8414ca	-0.2579711
40	0xbdd9fbfb	-0.106437646
41	0xbdf041fb	-0.11731335
42	0xbe3f6c77	-0.1869372
43	0x3e629cce	0.22130129
44	0xbe610bb3	-0.21977119
45	0xbd541474	-0.051777318
46	0x3e57c262	0.21070245
47	0xbe244fe9	-0.16046108
48	0xbe37e45f	-0.1795821
49	0x3e1e9580	0.15486717
50	0xbd95f110	-0.0732137
51	0x3e8a078b	0.2695888
52	0x3a1b719b	0.00059297093
53	0x3d78cc81	0.060741905
54	0xbeb79f84	-0.35863888
55	0x3e50053b	0.20314495
56	0x3e03b858	0.1286329
57	0x3db12bf7	0.08650964
58	0x3a946241	0.0011320786
59	0xbd9cfb04	-0.07665065
60	0x3e76453a	0.24049845
61	0xbe8663b9	-0.26247957
62	0x3dfe158a	0.12406452
63	0xbe651b2a	-0.22373644
64	0x3e80f500	0.2518692
65	0xbedb461d	-0.4282693
66	0xbea1d7e1	-0.31610015
67	0xbd771bc5	-0.060329217
68	0xbe432c87	-0.19059955
69	0xbd3de2d1	-0.046358887
70	0x3d0cfb65	0.034419436
71	0x3e8ba660	0.27275372
72	0xbd44eab4	-0.048075393
73	0x3e763015	0.2404178
74	0xbf29ed1e	-0.6637744
75	0xbe633732	-0.22189024
76	0x3e6ae771	0.2293985
77	0x3a595a4b	0.0008291348
78	0xbe65bc68	-0.22435153
79	0x3e89e873	0.26935157
80	0x3e550657	0.208032
81	0x3f397dfb	0.72457856
82	0xbeed499f	-0.4634523
83	0xbe322c08	-0.17399609
84	0x3d6f471a	0.058417417
85	0xbe961391	-0.29311803
86	0xba44b4a0	-0.0007503722
87	0x3e40a131	0.1881149
88	0xbd0b0420	-0.03393948
89	0x3d6c8ecb	0.057753365
90	0xbe0c122d	-0.13678809
91	0xbd1f5b19	-0.038905237
92	0xbef9966f	-0.48747584
93	0x3e2b8333	0.16749267
94	0xbe0fdbfe	-0.14048764
95	0xbe88c92a	-0.26715976
96	0xbdbd2207	-0.09235006
97	0xbe20b3db	-0.1569361
98	0x3e2f6c4c	0.17131156
99	0x3d51616a	0.051118292
100	0x3d9f401f	0.07775902
101	0x3e4d06c6	0.20022115
102	0x3e486ed8	0.19573534
103	0x3e8aef77	0.27135822
104	0x3b165d88	0.0022943933
105	0x3de0a23e	0.10968445
106	0x3e7b7741	0.2455721
107	0xbeda51a0	-0.426404
108	0x3e4f5124	0.20245796
109	0x3bef94f5	0.0073114582
110	0xbf197771	-0.5994788
111	0xbcefa98d	-0.029255653
112	0x3e2475ac	0.16060513
113	0xbecc6839	-0.39923266
114	0xbcf979df	-0.03045362
115	0xbeca2a5c	-0.39485443
116	0x3d18ec9a	0.037335016
117	0xbe520291	-0.20508792
118	0x3f34b67a	0.7059094
119	0xbe83c0ed	-0.25733128
120	0xbdeb10e8	-0.11477834
121	0x3b6c7f97	0.0036086792
122	0xbc242f54	-0.0100210495
123	0xbe5aa483	-0.21351819
124	0xbea7c1e8	-0.32765126
125	0x3d916497	0.07099264
126	0xbdbdff2c	-0.09277186
127	0x3e58192b	0.21103351
128	0xbbbdb514	-0.0057894085
129	0x3d088360	0.033328414
130	0x3d9aab4e	0.07552205
131	0x3d8968dd	0.06709454
132	0x3e127d2a	0.14305559
133	0x3d3cc854	0.046089485
134	0xbe34898d	-0.17630596
135	0xbbd3fe49	-0.006469522
136	0x3de3a81a	0.11116047
137	0x3c90f6df	0.017695842
138	0xbe8e76bd	-0.27824965
139	0x3e800bee	0.25009102
140	0xbe21be8b	-0.15795343
141	0x3dcb01ca	0.099124506
142	0x3e0841f9	0.13306417
143	0xbb94f2bc	-0.0045455378
144	0x3e050703	0.12990956
145	0xbdbcfcab	-0.0922788
146	0x3b630655	0.0034641225
147	0xbd06086f	-0.032722887
148	0x3dcf2a66	0.10115509
149	0x3d17ff0d	0.03710847
150	0xbd08659a	-0.03330002
151	0xbd8e9a45	-0.06963018
152	0x3c94c97c	0.018162481
153	0xbdeedb37	-0.11662906
154	0x3dbcedbc	0.09225032
155	0x3e05d9ba	0.13071337
156	0xbd37830f	-0.04480272
157	0xbd240598	-0.040044397
158	0x3d112c99	0.035442922
159	0xbe8c0876	-0.27350205
160	0x3e38744d	0.18013115
161	0x3df0046c	0.117195934
162	0xbdcf8a1e	-0.10133766
163	0xbd334ce7	-0.04377451
164	0x3dd0f56d	0.10203061
165	0xbdedaf12	-0.11605658
166	0xbdff4c73	-0.124657534
167	0x3dffaf80	0.12484646
168	0xbd45c500	-0.048283577
169	0xbe6ca3c4	-0.23109347
170	0xbc627b90	-0.013823405
171	0x3dba0289	0.09082515
172	0x3dc192cd	0.09451828
173	0xbd47e957	-0.048806515
174	0x3d80147f	0.06253909
175	0xbdab8d6e	-0.08376585
176	0x3e48e0b9	0.19616975
177	0xbd096d6e	-0.033551626
178	0x3df11664	0.11771849
179	0x3d9755bc	0.073893994
180	0x3d06d747	0.03292015
181	0x3dd92d06	0.10604291
182	0x3d17c15f	0.037049647
183	0xbd9bdd45	-0.07610563
184	0x3e0d7741	0.13815023
185	0xbe1d4506	-0.15358362
186	0x3d740d3d	0.059582938
187	0xbbd1f004	-0.006406786
188	0x3d591577	0.052998986
189	0x3b71bad2	0.0036885035
190	0x3d8b3ddc	0.06798908
191	0xbde0aff5	-0.10971061
192	0xbd46f151	-0.04856998
193	0x3d6bec76	0.057598554
194	0xbf13a9e4	-0.5768111
195	0x3dadb2e9	0.0848139
196	0x3e5bd5fc	0.21468347
197	0x3e42052f	0.1894729
198	0xbd645832	-0.055748172
199	0xbcb9c694	-0.022677697
200	0xbe14f0ed	-0.14545031
201	0x3e3d9e83	0.18517499
202	0xbd381ea8	-0.04495111
203	0x3e109914	0.14120895
204	0xbbdba936	-0.006703521
205	0xbd237ce4	-0.039914027
206	0x3e5ee53b	0.21767132
207	0x3d0b6afb	0.03403757
208	0x3dc55abe	0.09636448
209	0x3ea1de67	0.31614992
210	0x3a297750	0.00064646173
211	0xbdcc2118	-0.0996725
212	0x3c0d88c9	0.008638569
213	0x3e2eb298	0.17060316
214	0xbebd17ee	-0.3693232
215	0xbe35bfe5	-0.17748983
216	0xbcfa226a	-0.030533988
217	0xbd97b54f	-0.07407629
218	0x3c639252	0.013889866
219	0x3db65045	0.08902029
220	0x3e1442ed	0.14478655
221	0xbe61cf59	-0.22051753
222	0x3d4fc5d6	0.05072578
223	0xbe73d3f6	-0.23811325
224	0x3c296584	0.010339145
225	0x3dbdee0e	0.09273921
226	0xbec72669	-0.38896492
227	0xbe6d0cad	-0.23149367
228	0xbda6b67f	-0.08140277
229	0xbe5912c8	-0.2119857
230	0xbd4485f9	-0.04797933
231	0xbd168671	-0.036749307
232	0xbcfc7729	-0.030818539
233	0xbcab2fc3	-0.020896798
234	0x3d2358ad	0.03987949
235	0x3d69cff5	0.05708309
236	0x3e056c61	0.13029625
237	0xbd9e484d	-0.07728634
238	0x3d1cab9b	0.038249593
239	0xbceb4dc1	-0.0287236
240	0x3dda0bfb	0.10646816
241	0xbe783e83	-0.24242596
242	0x3ad213c9	0.0016027625
243	0x3d39aa18	0.04532823
244	0x3dbb1f88	0.091368735
245	0x3e5b74af	0.2143123
246	0x3ddff6ac	0.10935721
247	0x3d41d382	0.04732085
248	0x3baba9de	0.0052387556
249	0xbe21524d	-0.15754052
250	0x3db5652b	0.08857187
251	0x3dbb6f51	0.09152091
252	0x3dcd02b0	0.10010278
253	0x3d9790be	0.07400654
254	0x3e706087	0.23474322
255	0x3def30b0	0.11679208

rnn.weight_hh_l1 f4 [256, 64]
0	0x3e66a5d3	0.22524194
1	0x3d0bd1b6	0.034135543
2	0xbcd6908c	-0.026191972
3	0xbe4256f2	-0.1897848
4	0xbd91e653	-0.07124009
5	0x3e06a2a5	0.13147981
6	0x3b93f967	0.004515815
7	0x3d7ef365	0.062243838
8	0xbea07a58	-0.3134334
9	0xbea2d827	-0.31805536
10	0x3e45db9a	0.19322053
11	0x3ea7d75c	0.32781494
12	0xbdaec23c	-0.08533141
13	0xbdceaf65	-0.100920476
14	0x3edf17fe	0.43572992
15	0xbec008d5	-0.37506738
16	0xbe00123b	-0.12506954
17	0xbc1e7e28	-0.009673633
18	0x3ecc76d6	0.39934415
19	0xbe99f691	-0.30070928
20	0xbe0d1ef1	-0.13781334
21	0x3e1877d7	0.14889465
22	0xbe08416b	-0.13306205
23	0x3e37ed67	0.17961656
24	0x3e3389b5	0.17533
25	0xbcfb5803	-0.030681616
26	0x3f0c8d33	0.5490295
27	0x3e49e1f6	0.19715104
28	0x3e02cc8a	0.12773338
29	0x3e4298ec	0.19003648
30	0x3db7ef03	0.08981135
31	0xbeab0444	-0.33401692
32	0x3cd0a7aa	0.025470573
33	0xbe2b96ad	-0.16756697
34	0x3e931215	0.28724733
35	0xbdd397d6	-0.10331695
36	0xbe1aa78c	-0.15102977
37	0x3ccdc0d8	0.02511637
38	0x3d61cf61	0.055129413
39	0xbb0b4e2a	-0.0021256306
40	0x3eb0fe13	0.34568843
41	0xbe16403a	-0.14672938
42	0x3d1e24ce	0.03860932
43	0x3da24081	0.079224594
44	0xbf0828c1	-0.53187186
45	0x3ebd6bdd	0.36996356
46	0x3eab2427	0.3342602
47	0x3d2392df	0.03993499
48	0x3de33f3b	0.11096045
49	0xbdecdbb4	-0.115653425
50	0x3df0de77	0.11761182
51	0x3c271a00	0.01019907
52	0xbccb4831	-0.024814697
53	0xbebeb0b2	-0.37244183
54	0x3e5e6f80	0.21722221
55	0xbd158912	-0.036507674
56	0xbdfccb65	-0.12343482
57	0x3e5a7dda	0.21337071
58	0x3e032756	0.12807974
59	0xbe32f5b2	-0.17476538
60	0xbe54c225	-0.20777185
61	0x3eec4c66	0.46152037
62	0x3da548b7	0.0807051
63	0x3ec6c75e	0.3882398
64	0x3eb15755	0.34636942
65	0xbcb9f0c4	-0.022697814
66	0x3d8a4b97	0.06752699
67	0xbdd59c1b	-0.104301654
68	0xbe23540c	-0.1595003
69	0x3d96980a	0.07353218
70	0x3e339ca8	0.17540228
71	0x3d69dfba	0.057098128
72	0x3e44d772	0.19222811
73	0x3efec60c	0.49760473
74	0xbcea0785	-0.028568039
75	0xbe78eaa5	-0.2430826
76	0xbd813553	-0.06308999
77	0xbea78d67	-0.3272507
78	0x3e38385d	0.17990251
79	0x3e0789ec	0.13236207
80	0xbde62a60	-0.11238551
81	0x3d787638	0.060659617
82	0x3ea70ab7	0.32625362
83	0x3cfa7fad	0.030578459
84	0xbc5c7358	-0.0134552345
85	0x3e60cc16	0.21952853
86	0x3e33018f	0.17481063
87	0x3e736b5d	0.23771425
88	0xbebecbcb	-0.37264857
89	0xbe5e72a1	-0.21723415
90	0xbdc45ee0	-0.095884085
91	0x3e615e1c	0.22008556
92	0xbd9571b3	-0.07297077
93	0x3eb38db7	0.35069057
94	0xbdbd60f8	-0.09247011
95	0xbe8db373	-0.2767597
96	0xbd840f8f	-0.0644828
97	0xbe3f5c6f	-0.18687604
98	0x3ec9e926	0.3943569
99	0xbe5ceb31	-0.21574093
100	0x3ca17691	0.019709857
101	0x3ec36909	0.38166073
102	0x3cbf6268	0.023362353
103	0xbf054510	-0.52058506
104	0x3e8ae2db	0.27126202
105	0xbb2c7a4f	-0.0026318019
106	0x3ea505f9	0.3223112
107	0xbd7f950b	-0.062397998
108	0xbd8113d6	-0.063026115
109	0x3e402e5c	0.18767685
110	0x3dde498f	0.10853874
111	0x3e40123a	0.18756953
112	0xbd38c225	-0.045107026
113	0xbc5b8f84	-0.013400916
114	0x3e1e6686	0.15468797
115	0xbe00e59a	-0.12587586
116	0x3db4cda8	0.08828288
117	0x3f5be6cc	0.85899043
118	0xbe97b59a	-0.29630738
119	0x3e479500	0.19490433
120	0xbce35153	-0.02774874
121	0x3f072124	0.52784944
122	0xbf0a4bb2	-0.5402175
123	0xbedc85fc	-0.43070972
124	0xbd03c3ca	-0.03216914
125	0x3e6ca82b	0.23111026
126	0x3efe237f	0.49636456
127	0x3d810f89	0.06301791
128	0xbdfbe6f3	-0.122999094
129	0x3dc048c0	0.09388876
130	0x3e00bed6	0.12572798
131	0x3e8fd402	0.28091437
132	0x3c3cbfa6	0.011520302
133	0xbdc4f219	-0.09616489
134	0xbdd1d92b	-0.102465
135	0xbda003ad	-0.07813201
136	0x3e89909e	0.26868147
137	0x3e25a757	0.16177116
138	0xbd8f33fd	-0.06992338
139	0xbdd5349c	-0.10410425
140	0xbeda8766	-0.42681426
141	0xbd490f4f	-0.049086865
142	0xbed0261a	-0.4065407
143	0x3d8a0fa0	0.067412615
144	0x3c87a5e0	0.016558588
145	0xbdcf5d88	-0.101252615
146	0xbe3202ad	-0.17383833
147	0x3ea8c11f	0.3295984
148	0x3d51fd92	0.051267214
149	0xbd7e14c8	-0.062031537
150	0x3e32d1ba	0.17462817
151	0xbe424b77	-0.189741
152	0xbe0dbdab	-0.13841884
153	0xbdbc6cd7	-0.09200447
154	0xbe2fa726	-0.17153606
155	0xbd839a31	-0.06425894
156	0x3db77810	0.08958447
157	0x3e056722	0.13027623
158	0xbd20ee25	-0.039289612
159	0x3e8bda9e	0.2731523
160	0x3da0e2ba	0.07855745
161	0xbd963a46	-0.073353335
162	0xbe8fc8a6	-0.2808277
163	0xbd8c4fea	-0.0685118
164	0x3d100e40	0.03516984
165	0xbea2db70	-0.31808043
166	0xbe0593ea	-0.13044706
167	0x3e878c39	0.2647417
168	0xbd62d410	-0.05537802
169	0x3d632390	0.055453837
170	0xbd92da57	-0.07170551
171	0xbe15deef	-0.14635824
172	0x3ec104af	0.37698886
173	0xbec8eb57	-0.3924205
174	0xbd701a84	-0.058619037
175	0x3e0810c9	0.13287653
176	0x3d068a4c	0.032846734
177	0x3e358145	0.17725094
178	0x3cac75a5	0.021052191
179	0x3bf82f3c	0.00757399
180	0x3ea9fec5	0.33202186
181	0xbdf7baa4	-0.12096146
182	0xbdf86732	-0.12129058
183	0x3e7868a5	0.24258669
184	0xbc0ef8fa	-0.008726353
185	0xbcf49aaa	-0.029858906
186	0xbe3791f2	-0.17926767
187	0x3d532f0c	0.05155854
188	0x3d37bb6a	0.044856466
189	0xbe3f32d9	-0.1867174
190	0xbe2bfb15	-0.16794999
191	0xbdfaa593	-0.12238612
192	0xbe7d3a62	-0.24729303
193	0x3e02ffac	0.12792844
194	0xbdf0c16e	-0.11755644
195	0xbb19d2d2	-0.0023471606
196	0xbdba4185	-0.09094528
197	0x3e7017ae	0.23446533
198	0xbd1b927c	-0.037981495
199	0x3e347aa1	0.17624904
200	0x3ce8ba0c	0.028409027
201	0xbdcf3f2a	-0.101194695
202	0x3e22a6fc	0.15884012
203	0xbe5b5e54	-0.21422702
204	0xbd91ad4c	-0.07113132
205	0x3cf6ea42	0.030141
206	0xbf3f1133	-0.7463562
207	0xbe02aea7	-0.12761937
208	0xbdedb75a	-0.11607237
209	0xbe512207	-0.20423137
210	0xbeb55af6	-0.3542096
211	0x3e11e3ab	0.14247005
212	0x3e56c6d5	0.20974286
213	0xbe67415b	-0.22583525
214	0x3f03ed4d	0.5153397
215	0xbe73365a	-0.23751202
216	0x3dcbacfb	0.09945103
217	0xbe83ad3d	-0.25718108
218	0x3db40d3c	0.08791587
219	0x3da7c0d8	0.08191079
220	0x3d975227	0.07388716
221	0x3df155e3	0.1178396
222	0x3cd50697	0.026004119
223	0x3d9d502f	0.076813094
224	0x3e440999	0.19144286
225	0x3f050cf0	0.51972866
226	0xbe39501e	-0.18096969
227	0x3d817f93	0.06323161
228	0x3e4c3311	0.19941355
229	0xbea501a5	-0.32227817
230	0xbddbdd1c	-0.10735533
231	0x3ec5f7dd	0.38665667
232	0xbdbd8590	-0.09253991
233	0x3cddaa57	0.027058763
234	0x3ded6059	0.115906425
235	0xbe8f6257	-0.28004715
236	0x3e5bfa1d	0.2148213
237	0xbe8ba140	-0.2727146
238	0x3d8df2e0	0.0693109
239	0xbd0285b6	-0.031865798
240	0x3d9bd7a1	0.07609487
241	0x3e220f5c	0.15826172
242	0x3e253187	0.16132174
243	0xbe6a0120	-0.22851992
244	0x3ec5623a	0.38551503
245	0xbe6b4dd0	-0.22978902
246	0xbda72ff4	-0.08163443
247	0x3de929ea	0.113849476
248	0xbb8e7101	-0.004346967
249	0x3e1a0607	0.15041362
250	0x3d7f61c8	0.06234911
251	0xbdf3e136	-0.1190819
252	0xbcb3c31c	-0.021943621
253	0xbf0cfd14	-0.55073667
254	0xbe53b0b2	-0.20672873
255	0xbda9f196	-0.08298032

rnn.bias_ih_l1 f4 [256]
0	0xbdadb385	-0.08481506
1	0x3e062bb7	0.13102613
2	0x3d3a956d	0.04555266
3	0xbe2b11cf	-0.16706012
4	0xbd99f529	-0.07517464
5	0xbdca6e8e	-0.09884368
6	0xbcaa39af	-0.020779459
7	0x3e481844	0.19540507
8	0x3daf25ae	0.08552109
9	0x3df3437f	0.11878108
10	0x3d234d63	0.039868724
11	0x3ef541e7	0.47901842
12	0x3ed927b4	0.42413104
13	0xbc88aea9	-0.016684847
14	0x3ed53b9a	0.41647035
15	0x3cb2140a	0.021738071
16	0xbdd7e072	-0.105408564
17	0x3e5b3544	0.21407038
18	0xbcb800b2	-0.022461269
19	0x3d6136a0	0.054983735
20	0xbce3a66d	-0.027789319
21	0x3cbe14f8	0.023203358
22	0x3e9dcc4b	0.30819926
23	0x3dd422b4	0.103581816
24	0x3d826f52	0.06368889
25	0xbe2e0aa7	-0.16996251
26	0x3ee5bf61	0.44872573
27	0xbcca8508	-0.024721637
28	0x3e2a1e02	0.1661301
29	0xbdee376c	-0.11631665
30	0x3bbd7136	0.005781318
31	0x3ecfe1c8	0.40601945
32	0x3d7ebbaf	0.062190708
33	0xbe2ac9a2	-0.1667848
34	0x3e91b034	0.28454745
35	0x3cf73be3	0.030179923
36	0x3f0a9c99	0.541452
37	0xbc3b7615	-0.011441727
38	0xbe2989f9	-0.16556539
39	0x3ebb4861	0.36578658
40	0xbd0b7ed0	-0.034056485
41	0x3cc54d33	0.024084663
42	0x3d6f5470	0.058430135
43	0x3e04fbd8	0.12986696
44	0xbe31d4cf	-0.17366336
45	0x3e1308fa	0.14358893
46	0x3d592f0e	0.05302339
47	0xbd908847	-0.07057243
48	0xbdd29b73	-0.10283556
49	0xbd67b68c	-0.056570575
50	0x3d8b7535	0.06809465
51	0xbd46419b	-0.04840241
52	0xbbc9f016	-0.0061626537
53	0x3f0f03c8	0.55865145
54	0x3ebe76a1	0.37199882
55	0x3eb2eb91	0.34945348
56	0xbde294b9	-0.11063523
57	0x3e236373	0.15955906
58	0x3d06c241	0.0329001
59	0x3e85b081	0.26111224
60	0xbd50d9ef	-0.050989088
61	0x3e395829	0.18100037
62	0x3e87259c	0.2639588
63	0x3e53ddc5	0.20690067
64	0x3e0eba76	0.13938317
65	0xbeb90f9c	-0.36144722
66	0xbbed632d	-0.0072444887
67	0x3e6f2a21	0.23355915
68	0x3cfe2746	0.031024586
69	0x3ddc986a	0.10771258
70	0xbe819542	-0.25309187
71	0xbce9399e	-0.028469857
72	0xbe35349d	-0.17695852
73	0xbe538f69	-0.20660175
74	0xbe3f2fab	-0.18670528
75	0x3d072ff0	0.0330047
76	0x3e373fd4	0.17895442
77	0xbe3f2777	-0.18667398
78	0xbd3c3636	-0.045950137
79	0xbd89e63a	-0.06733365
80	0x3d06d3c0	0.032916784
81	0xbdf2d083	-0.11856177
82	0xbe571190	-0.21002793
83	0xbda1c179	-0.0789823
84	0xbdaf1b1b	-0.08550092
85	0xbe4278b6	-0.1899136
86	0xbd54a84f	-0.051918324
87	0xbe8a14d9	-0.2696903
88	0xbe4cb40a	-0.19990554
89	0xbe100987	-0.14066134
90	0xbeee3892	-0.46527535
91	0xbe5245d8	-0.20534456
92	0xbe7f7878	-0.24948299
93	0xbe3d1f3b	-0.18468945
94	0x3e259bea	0.16172758
95	0xbec906fa	-0.39263135
96	0xbd980b98	-0.07424086
97	0x3ee526bc	0.44756114
98	0xbe3788f0	-0.17923331
99	0xbde08151	-0.10962165
100	0x3e8e7f83	0.2783166
101	0xbe54414b	-0.20728032
102	0xbd0855bc	-0.033284888
103	0xbe244bfb	-0.16044609
104	0xbe80f468	-0.25186467
105	0xbd362aa8	-0.044474274
106	0xbd926758	-0.071486175
107	0x3cdb49dc	0.026768617
108	0x3dddfc12	0.10839094
109	0xbda69655	-0.08134142
110	0x3ded90d5	0.1159989
111	0xbe0a1b0b	-0.13486879
112	0xbdc8d4c2	-0.09806205
113	0x3e0e5b69	0.13902058
114	0x3d1e505c	0.038650855
115	0x3e0ac66d	0.13552256
116	0x3d92a462	0.0716026
117	0xbcae4a85	-0.021275768
118	0xbcac3ca1	-0.021025004
119	0xbe2821b9	-0.16419114
120	0xbd8df1ae	-0.06930862
121	0xbd6c6336	-0.057711802
122	0x3e1f8d5f	0.15581273
123	0xbe1bce47	-0.15215407
124	0xbe722631	-0.23647381
125	0xbeaa5474	-0.33267558
126	0xbe374e62	-0.17900994
127	0xbe26ee82	-0.16301921
128	0x3c00a971	0.007852898
129	0x3e04a94f	0.12955211
130	0xbd4942c9	-0.049135957
131	0xbc3f31e1	-0.011669607
132	0x3d8ccc67	0.06874924
133	0xbcd9ace4	-0.026571698
134	0x3d913ba6	0.07091455
135	0xbdb94e03	-0.09048083
136	0xbba163b7	-0.004925217
137	0xbca9769f	-0.020686446
138	0xbdd1879c	-0.102309436
139	0x3e37ac2c	0.17936772
140	0x3e390901	0.18069841
141	0x3ddab372	0.10678758
142	0x3d6de133	0.058076095
143	0x3d5acea8	0.05341974
144	0x3db52d10	0.088464856
145	0xbe04ae19	-0.12957038
146	0x3d8c0fbd	0.06838939
147	0x3d5fe0d2	0.054657765
148	0xbda2bea7	-0.0794652
149	0xbd88b014	-0.06674209
150	0xbd4a0e1f	-0.049329873
151	0xbdeb0137	-0.11474841
152	0xbdebd1d6	-0.115146324
153	0xbdca4f39	-0.09878392
154	0xbe24770d	-0.1606104
155	0xbe07493c	-0.1321153
156	0xbd6069b2	-0.0547883
157	0xbd988bf0	-0.07448566
158	0xbdb1c5a6	-0.086802766
159	0x3d385ee4	0.04501237
160	0xbc3e68e6	-0.011621689
161	0x3dd0a85f	0.10188364
162	0x3d89b8d4	0.06724706
163	0x3d0b03fb	0.033939343
164	0x3c94a1a0	0.018143475
165	0xbd57cb2f	-0.052684005
166	0x3c5478b4	0.012968231
167	0x3dbcadcf	0.09212839
168	0xbd949ec5	-0.072568454
169	0x3d84c264	0.064823896
170	0xbd87902a	-0.06619294
171	0x3db3ed35	0.08785478
172	0xbe0d6130	-0.13806605
173	0x3d7d9661	0.06191099
174	0xbd6ac902	-0.057320602
175	0xbdfac749	-0.12245042
176	0x3da1a697	0.078931026
177	0xba64725f	-0.00087145524
178	0xbc1d9164	-0.009617183
179	0x3d837401	0.0641861
180	0xbded1b37	-0.115774564
181	0x3c315b35	0.010824968
182	0x3bba7fa8	0.0056914873
183	0xbe002765	-0.12515028
184	0xbda3a319	-0.07990093
185	0xbcbf3902	-0.023342613
186	0x3dd4dbce	0.10393487
187	0x3de2f714	0.11082283
188	0x3d38d074	0.04512067
189	0x3c7e2c12	0.015513437
190	0x3c1700fa	0.009216541
191	0xbd80d35c	-0.062903136
192	0x3d1ad0ee	0.037796907
193	0x3d6bd145	0.05757262
194	0xbcd1ddfa	-0.025618542
195	0x3d4f29d6	0.050577007
196	0x3dbcabf6	0.092124864
197	0xbdd1db43	-0.10246899
198	0xbc61bf07	-0.013778455
199	0x3dd6f90f	0.10496723
200	0x3de3f94f	0.11131536
201	0x3cd375e5	0.025813052
202	0xbde00e6e	-0.10940252
203	0x3e50ab8e	0.20377943
204	0x3ece8968	0.40339208
205	0xbc86c24a	-0.016450066
206	0x3e825017	0.2545173
207	0x3db7a97e	0.08967875
208	0xbe0418e5	-0.12900122
209	0x3d4d08f1	0.050057355
210	0x3e39b1c1	0.18134214
211	0x3d9441ac	0.072390884
212	0x3d323b77	0.04351374
213	0x3cce3cd6	0.025175493
214	0x3eb9435f	0.36184213
215	0x3d363603	0.044485103
216	0x3d69bbad	0.057063747
217	0xbe1a3528	-0.1505934
218	0x3ec81e4a	0.3908561
219	0xbd9696a2	-0.0735295
220	0x3e823316	0.254296
221	0xbd98b949	-0.07457215
222	0xbc8bf342	-0.017083768
223	0x3f0a587a	0.54041255
224	0x3df439f7	0.119251184
225	0x3e62cf2c	0.22149342
226	0x3e32b120	0.1745038
227	0x3be66cae	0.0070319986
228	0x3eb268cd	0.34845582
229	0x3e14c5fd	0.14528652
230	0x3d0ca49f	0.034336682
231	0x3e89aa5e	0.26887792
232	0x3c869b1f	0.01643139
233	0xbda4f7fe	-0.08055113
234	0xbe28c37b	-0.1648082
235	0xbcd2d605	-0.025736818
236	0x3db6ae3c	0.08919951
237	0x3e10cae8	0.14139903
238	0x3ce277bd	0.027644986
239	0xbe0baf54	-0.13641101
240	0xbdef5b95	-0.1168739
241	0x3d64b117	0.05583295
242	0x3c5c78cd	0.0134565355
243	0xbd1aa328	-0.037753254
244	0x3d755904	0.059899345
245	0x3e7f6d59	0.24944057
246	0x3e8177b6	0.25286645
247	0x3ebac0d3	0.36475238
248	0xbe0da3e6	-0.13832054
249	0x3da52ead	0.08065543
250	0x3d48d41e	0.049030416
251	0x3e487bba	0.19578448
252	0x3d6febe7	0.058574583
253	0x3deb96ac	0.11503348
254	0x3eb87da6	0.36033362
255	0x3d899a55	0.067188896
