checkpoints/TP_LSTM_L2_bs16_train0baseline02HZ_bsfirst_pos1_downsp_rs_freq/TP_LSTM_L2_bs16_epoch250.pt (torch, 206200 bytes, 9 tensors)

rnn.weight_ih_l0 f4 [256, 3]
00000000: 5655 763d 456b b13d 3084 543e 79dd 0f3e
00000010: 3a80 2b3b 075a 043e 729a 483d e7cd 2b3e
00000020: f15d 233e 392d 3e3d 40fa 2e3e 16c5 093d
00000030: 953c 20bd 2abd 5cbe 3288 5bbd bfb6 143e
00000040: 3e77 f03d 5765 02bc 7a6d 313e 2e9d 3e3e
00000050: 05c9 dbbc b2ef 083c 0012 8a3d 36f2 bfbc
00000060: ee53 ad3c 584f 343d 05ec b73d 5657 8a3d
00000070: 48a8 cbbd c917 873b 9da4 3a3e 7681 acbd
00000080: 504b 353e 02c7 d2bc 01b3 febc 8d9a f6bc
00000090: cb4a d33e 7145 543e a86d 793d 7ff9 023e
000000a0: 6383 1f3e 1534 5dbd 8ccb 4f3e de2a 37be
000000b0: 85e5 643d 9d92 f63d 09f6 0c3c 5b49 253d
000000c0: 3c96 d03d b1e1 063d 0c66 edbd 2f91 22ba
000000d0: 40f7 20be 17d7 f7bc 179b 403e edfb 30bb
000000e0: 57ef 613e 8dd9 a4bd cc3c ba3d 3a7c 3a3d
000000f0: b630 07bd da0f 2b3e 1173 603d 561d c53e
00000100: c75d d43d 81aa a9bb 466a 8f3d e345 493e
00000110: 4d2f 1fbc 8456 c2bd 1078 f63d 61d9 eabc
00000120: 5717 0a3e 9b6c efbd 6eac fc3c e57f 253d
00000130: 4aed 013d ccaf f63c 6694 93bc f398 0e3e
00000140: f93c 3fbc c7d7 2abe 725e 61be d936 193d
00000150: fc56 a93d 3101 513d 3805 bebd 847e 243d
00000160: 4d03 08be 7cad 3dbc cd37 0b3e 9eaa b13b
00000170: e071 903d f2ca 073d 4846 86be 01b3 433c
00000180: 0241 6dbd a388 213c 3cd4 183e d8c0 343d
00000190: 5d89 913e 3141 473d 4dca a53d edee 683d
000001a0: 8edc 91bd 0808 02bf 9ae9 5bbe 5df1 893c
000001b0: f631 173e d0b2 433d 03c7 cbbb c8b5 3b3e
000001c0: 7c63 4c3c 43e7 5dbd 069b f03d 4017 813d
000001d0: 5a13 3c3d e1e3 2f3e e4e4 263d 0173 56bc
000001e0: 7554 c8bb 595b 3e3e 86c3 0c3e 52b0 0e3e
000001f0: c053 1a3e 776e 3abd 9ac6 e93d b4ff e4bb
00000200: 618f 0b3d 3c57 cd3d eba0 0ebe 9ff0 93bb
00000210: 02d5 6b3e 0bec 653e 5d07 243e 1f52 8b3d
00000220: 04e4 cd3d fae1 6bbc 1e94 15be 728a 87be
00000230: 0208 6c3c 4226 753e acfe 2e3e a21b 82bc
00000240: 10ee 163e 0ccb 23be 942d d03d cace a83d
00000250: 870f 593e 70dd 113e 81ad 63bc 9b86 c03d
00000260: 19ef 1d3d d7ed 26be 3eb5 c2bc 66cd 3f3f
00000270: 20bc a6bd 9717 98bd c443 5b3d 1145 6f3b
00000280: 281c fcbd a681 303d 3817 ba3d f8cc 8c3e
00000290: ba46 f1ba c7c2 dc3d 1cf2 cdbe 7737 993b
000002a0: 152f b5bd 08c7 db3c 4322 963b 1a9d d63d
000002b0: 772c 00bd e7fd c83c 7f42 5e3e 3eb4 8e3e
000002c0: 575b 0f3e 6629 9f3d 681b 8fbc af5c 91bc
000002d0: 422e 4d3e 0288 4bbd b115 7cbd c000 e93d
000002e0: 6e26 b33e 0754 ce3e 541d 0fbe 71a7 edbe
000002f0: e4d5 8dbd 2516 403d 1338 213e f3bf eb3b
00000300: 1db7 f2bd 93a4 3b3d f560 893d d65b 88be
00000310: 4bc9 113e db75 9d3d 4349 073e 6049 0dbd
00000320: 5f58 4c3d 7676 88bd 2594 403e 5a35 75bd
00000330: 9eed efbc 93de cbbd d3f8 62bd 373a 60bb
00000340: 2d1e 553b c4ee 553c 143e 013d 32e5 d43d
00000350: cb3e 12be 20b1 fa3d 99b5 253e 180c c33d
00000360: 5ce8 a6bd 53d4 ddbd fa46 b8bd fa8b 8a3c
00000370: 0088 fabd 5d77 983c 2027 1bbe 9d28 a4be
00000380: 32d4 eb3c fc45 55bd 6831 2fbd 83f0 aebc
00000390: 3690 183d dd87 2a3d 0bba 97bd edff e2bd
000003a0: efee 393d c9f0 46bd 85d8 e6bd 38e6 18be
000003b0: c90c a4bd 49fa b23d 1b72 e23d 232f f4bd
000003c0: 6526 a0bc f697 8abd 547d aebd dca9 16be
000003d0: a28d 6abe 64e2 43bd 0b9f 0bbe dd64 30be
000003e0: 492d d4bd 079f 9e3d 3d3d b43d 31d7 86bd
000003f0: 0dae 103d 917b e63d e57e 70bc d58a 94bd
0.060139976 0.08663038 0.2075355 0.14049329 0.0026168958 0.12924968 0.048975416 0.16777764
0.15953805 0.046429846 0.1708765 0.03363522 -0.039120276 -0.21556535 -0.053596683 0.14522837
0.11741494 -0.007958732 0.17326918 0.18614647 -0.026829252 0.008357929 0.067417145 -0.023430925
0.021158185 0.04402098 0.08980564 0.06754939 -0.099442065 0.0041227085 0.18226857 -0.0842313
0.1770451 -0.02572966 -0.031091215 -0.030102992 0.41268 0.20729615 0.060895592 0.12790488
0.15577464 -0.054004747 0.2029249 -0.17887446 0.05588295 0.12039683 0.008603581 0.04035316
0.10184905 0.03293008 -0.115917295 -0.00062014436 -0.15719318 -0.03025393 0.18809162 -0.0027005628
0.22063957 -0.08049307 0.09093627 0.045528628 -0.03300544 0.16705266 0.054797236 0.38498944
0.10369449 -0.0051777964 0.07002692 0.19655566 -0.009715867 -0.09489158 0.12034619 -0.028668107
0.13485466 -0.11690637 0.03084394 0.040405173 0.031720437 0.030113123 -0.018015098 0.13925533
-0.011672252 -0.16683875 -0.22008684 0.037405822 0.08268544 0.051026527 -0.09278339 0.040159717
-0.13282509 -0.011577006 0.13595505 0.0054219505 0.0705297 0.033152528 -0.26225495 0.011944533
-0.057923324 0.009859237 0.14924711 0.044129223 0.28425112 0.048646156 0.080952264 0.056868482
-0.071221456 -0.50793505 -0.2147583 0.016838724 0.14765152 0.04777795 -0.0062187924 0.18331063
0.012474891 -0.054175626 0.117483184 0.06303263 0.045916893 0.17176773 0.04074563 -0.0130889425
-0.0061135837 0.18589534 0.13746461 0.13934448 0.1507101 -0.045515504 0.11414833 -0.00698849
0.034072284 0.10026404 -0.13928573 -0.0045147683 0.23030475 0.22453324 0.16018434 0.06802773
0.10053256 -0.014397139 -0.14607283 -0.26472813 0.014406206 0.23940375 0.17089337 -0.015882317
0.14739251 -0.15995425 0.10164943 0.08242567 0.2119733 0.14244628 -0.013896347 0.09400674
0.0385581 -0.16301666 -0.023768064 0.7492279 -0.08141351 -0.074263744 0.053531423 0.0036509673
-0.12310058 0.043092392 0.0908646 0.2750013 -0.0018407919 0.10779338 -0.40223777 0.0046758014
-0.08846871 0.026828304 0.004581721 0.104791835 -0.031292405 0.024535133 0.21705054 0.2787189
0.13999687 0.07771568 -0.017469123 -0.01774439 0.20037177 -0.049690254 -0.061544124 0.11377096
0.34990257 0.40298483 -0.13976032 -0.4641681 -0.06925562 0.04689612 0.15744047 0.007194513
-0.11851332 0.045811247 0.06707946 -0.26632565 0.14236943 0.07688495 0.13211541 -0.034493804
0.049888965 -0.0666322 0.18806513 -0.059865333 -0.02928811 -0.09954562 -0.05541308 -0.0034214386
0.0032519207 0.013057414 0.031553343 0.10395278 -0.14281766 0.12240815 0.16182555 0.09523791
-0.08149788 -0.10831513 -0.08997913 0.01691245 -0.12232971 0.018611604 -0.15151644 -0.32062235
0.028787706 -0.052068695 -0.042771727 -0.02135492 0.037246905 0.041633476 -0.07408532 -0.1108397
0.04539388 -0.048569474 -0.112717666 -0.14931571 -0.08010251 0.08739144 0.1105692 -0.11923053
-0.019549558 -0.067672655 -0.08519998 -0.14713234 -0.22905591 -0.047823325 -0.13634889 -0.17225976
-0.103602 0.07745176 0.08800743 -0.06584013 0.035322238 0.11254037 -0.0146786915 -0.072530426

rnn.weight_hh_l0 f4 [256, 64]
00000000: b4f7 20bc d3a1 983d 73c2 66bd fc63 483d
00000010: eccc 22be 1ead ad3d cd53 a03d 18dc 9fbd
00000020: 07b8 313d 1335 c1bc 6b95 63be 06a9 58bd
00000030: 7888 153d c629 3e3c 4fff a73d 224d c4bb
00000040: 1a4a dfbd 8390 683d d1be c8bd de79 ebbc
00000050: 5b44 113e 1b54 c5bc a896 a9bd edf7 3e3c
00000060: 4845 c03c 2b6c 5f3c 7679 133e 5509 723e
00000070: 497e 523d ae77 133b 381c f13c 70d4 2cbe
00000080: 766e 5d3d 7ced 1c3e 8656 b03d bc7f af3c
00000090: 3611 babc 40c0 5ebd 6dbf ab3d e0e0 833d
000000a0: 52b3 12be aea5 393d a42d cc3c 8e9e 44bd
000000b0: ef25 bd3b 60fc ce3c 29ba 12be 6296 983d
000000c0: d192 243e c59a 133e 4433 bb3d 620c 96bc
000000d0: 8407 083e e16a 103e 85e5 19bd e778 0ebd
000000e0: b5d9 ab3c 9920 d2bd 5cc9 89bd aa17 5f3b
000000f0: 9d11 9bbd 6e8d f1bd e3f9 e0bd 9bf1 7d3d
00000100: 189b 973d cac4 17bd 2153 ae3d 601f ac3d
00000110: 2e1b 733c f7c4 22be d71e 35be 2455 d13d
00000120: 76e6 1ebc 7ceb 3cbd 8af1 3dbc a06b ae3c
00000130: fcdb 8e3a f342 853c 3194 1b3e c1b3 28bd
00000140: 335d 283c 1f84 713d 9b8f eabd 7360 093d
00000150: ef5c 8a3d 4c39 2cbb 0192 493d 81fd ae3d
00000160: 92e7 56bd 89d4 28be 2d24 e4bd 0024 893d
00000170: f460 b8bd 2c13 5abd 2dfa c7bd 2d24 1fbe
00000180: a84e 39bc c3ce 1f3e a77b dcbc a848 c6bc
00000190: bae9 5abd 8d95 22bd 34fb 003d 8f63 163d
000001a0: bbbd 7fbd 43ae 253d 6448 84b9 edae e23b
000001b0: 585e 9fbd 4531 973d 6f7d 7dbe 67b7 f93c
000001c0: 2ef3 e23d 0766 9d3d e4d5 7fbd 1a46 96bd
000001d0: fab3 843d e457 67b9 4b3a 393e 6446 dcbd
000001e0: fa92 01be f922 c3bd 64c0 0ebd ea44 09bd
000001f0: 9d54 d7bb 2cec 4cbe 71d2 1dbc cbe0 c03c
00000200: 55f6 9abd 8e96 da3d 64fe a5bc 2ee0 103d
00000210: 3bd6 50be ada0 1d3d 2900 a1bd 2478 dbbd
00000220: eec2 ea3d 76ea d7bc 75e3 39be c855 26bd
00000230: 2849 d1bd 0165 803d 504d c33d 808d 033d
00000240: 11cb c53c 1a36 483e 77af 1bbc 6cbc 163e
00000250: e537 223e 3847 c03c 55c1 4f3b d279 b43c
00000260: 5cde a53d 7738 b4bc 5085 b4bd 4871 973e
00000270: c731 94bc c183 09bd b18e 893d ae8d 8fbc
00000280: 1009 553c cd56 113e 43e0 ac3c a092 d4bd
00000290: 3bd0 713d 7947 1f3d fa58 2ebd eb84 403c
000002a0: ca6b 98bc bc93 4dbc b733 edbc a0d2 7a3d
000002b0: 8b7d dfbd a75e f33d 704b c4bc b971 2bbd
000002c0: 16d4 483e 80ec 053d 13c7 4dbd e2e7 003d
000002d0: 8481 e53c b751 aa3d 0fb5 0a3e 5aff 41be
000002e0: 42e1 1a3d 325e 873d 4404 07be 81dd f63a
000002f0: 28d7 ccbb 27af 91bd 467b 05be 5f1f a0bd
00000300: 302b 04bd 578f c7bd a406 a1bd ddb8 e9bd
00000310: 92ca ce3d 8e8e e33d b624 193d 261c 68bd
00000320: f363 f63d 0c14 88bc 7e8c be3d 0294 45bc
00000330: fb74 3dbd e09d 39bc 5233 59bd 3106 eabd
00000340: 727f c1b9 2db8 24bd 4323 a53d 8a03 dc3d
00000350: 124f 74bc ea8b 5b3d 62e4 1f3d be6c 953d
00000360: 335a 91bd b022 f3bc 8b6a 2cbb 2077 ca3d
00000370: 6162 e8bd 0277 65bd 5ed5 3e3d a6c5 f73d
00000380: b21c 8c3d 660b c7bd b545 b7bd 96b9 ce3d
00000390: 850d 003d 95c2 a7bd 0499 5ebd 602e d93c
000003a0: 7102 04bd 19b9 b3bd d261 b0bd e331 27bd
000003b0: dfc9 13bd a138 353d 86ee e13d 1875 4abd
000003c0: 35ca c4bc 06d3 a9bd 2b07 d53d 7eea 2a3e
000003d0: 1794 053e f096 693d 0551 e9bc 7655 21bb
000003e0: ef83 bd3d de24 eabd 9dc8 53bc adf7 20bd
000003f0: 35c8 98bd 19ae 04bd e732 f5bc 1a2c d0bd
-0.009824682 0.074527405 -0.056337785 0.048923478 -0.15898484 0.08480285 0.07828484 -0.078056514
0.043388393 -0.023584878 -0.22224967 -0.05289557 0.0365071 0.011606639 0.08202993 -0.0059906403
-0.109028056 0.056778442 -0.0980202 -0.028744634 0.14186232 -0.024087956 -0.082806885 0.01165579
0.023470536 0.013636629 0.14401802 0.23636372 0.051389966 0.0022501755 0.029432401 -0.16877913
0.054060422 0.15324968 0.08610253 0.021423213 -0.022713285 -0.054382563 0.08386121 0.06439376
-0.14326218 0.04532402 0.024924107 -0.048002772 0.0057723443 0.025266826 -0.14328827 0.07450558
0.16071631 0.14414509 0.091406375 -0.018316451 0.13284117 0.14103271 -0.037572403 -0.03478327
0.020977834 -0.10260124 -0.067278594 0.0034041204 -0.07571719 -0.11794554 -0.10985162 0.06199799
0.07402629 -0.037052907 0.08511949 0.08404422 0.014838023 -0.15895449 -0.17687546 0.102213174
-0.009698501 -0.046123013 -0.011593232 0.021291554 0.0010899301 0.016267275 0.1519325 -0.04118705
0.010276127 0.05896389 -0.11453172 0.033539247 0.06756007 -0.0026279269 0.049211506 0.08544446
-0.052466936 -0.16487326 -0.111397125 0.066963196 -0.09002867 -0.05324094 -0.09764514 -0.15541144
-0.011310257 0.15606217 -0.02691443 -0.024204567 -0.053445555 -0.039693404 0.031489566 0.03671604
-0.0624368 0.040449392 -0.00025230937 0.0069178254 -0.077816665 0.07382444 -0.2475488 0.03048296
0.11081539 0.07685476 -0.06245984 -0.073375896 0.0647964 -0.00022062619 0.18088643 -0.107556134
-0.12653723 -0.09528155 -0.034851447 -0.033512987 -0.006571366 -0.20011967 -0.009632693 0.02354469
-0.07566515 0.10673247 -0.020262904 0.035370044 -0.20394222 0.03848331 -0.07861359 -0.107162744
0.11462961 -0.026356917 -0.18153174 -0.04060915 -0.102190316 0.06269265 0.095362306 0.032117367
0.024144681 0.19551888 -0.009502283 0.14720315 0.15841635 0.02347146 0.0031700928 0.022030745
0.08099052 -0.02199958 -0.0881449 0.29578614 -0.018090142 -0.033572916 0.06716669 -0.017523613
0.013002649 0.14193268 0.02110303 -0.10379529 0.059036475 0.03888652 -0.042565323 0.01175044
-0.018606085 -0.01254743 -0.028955324 0.061236024 -0.10912617 0.11883288 -0.023961753 -0.0418565
0.19612154 0.032696247 -0.05023868 0.03147114 0.02801586 0.08316367 0.13545631 -0.18945065
0.03781248 0.06609763 -0.13185221 0.0018834324 -0.0062512346 -0.07113486 -0.13035306 -0.078184836
-0.03226775 -0.09744137 -0.07862595 -0.11412213 0.10097231 0.111111745 0.037388526 -0.05666747
0.120307826 -0.016611122 0.093041405 -0.012059214 -0.04625414 -0.011329144 -0.05302746 -0.11426962
-0.00036906783 -0.040214706 0.08063366 0.107428625 -0.01491143 0.05360023 0.039036162 0.072961316
-0.07097282 -0.029679626 -0.0026308622 0.098860025 -0.11346889 -0.056021698 0.0465902 0.12098245
0.06841411 -0.09718971 -0.089488424 0.100939915 0.031262893 -0.081914105 -0.054345146 0.026511371
-0.03222889 -0.08775539 -0.08612408 -0.04081906 -0.03608119 0.04424346 0.11031823 -0.049428076
-0.024022201 -0.08292203 0.10401758 0.16691014 0.13044773 0.05702871 -0.028481016 -0.002461759
0.0925368 -0.11432813 -0.012926248 -0.039298702 -0.074600615 -0.032392595 -0.029931499 -0.10164662

rnn.bias_ih_l0 f4 [256]
00000000: e8ca 823e 7fe1 1e3e d60e 883e 9347 ab3d
00000010: b397 0cbe 1c8d fa3c 6aea d93c ae03 0f3e
00000020: db33 e93d 9b42 6bbd c80f e23d f483 22bd
00000030: 89bb 1f3e cd4c 863c 816f 153e 2929 a03d
00000040: 6a24 57bc 5906 a83d 39e0 613e d963 5e3d
00000050: e191 f3bc b58a bb3d b020 fc3c f3f7 8c3c
00000060: e090 72bd 3ef7 3ebd 492f 003e 1006 8c3d
00000070: 39b5 dbbd dc33 5ebd 278d 05bc ad2e 9c3d
00000080: ffd2 823e a6f9 813d d6fa 803d 4105 8abd
00000090: 33f2 dfbc bd19 fc3d b880 46ba d5bc 383e
000000a0: 9cb6 00bd 6aaf 8a3c 36e8 a9bd b039 36bd
000000b0: 5486 e73b df88 0e3c 6811 003e 2332 8abd
000000c0: 0704 90bc 7a36 28bb 3acf 003e a778 4e3f
000000d0: a18a 1ebe 0c1f ad3d 1a58 9f3d 6525 ea3d
000000e0: 04b9 c03d 305a b7bc a937 4bbd d7b2 95bd
000000f0: 1697 8bbd a7f4 aa3e 4b59 41be 4abc 383d
00000100: ebc9 fcbd 0791 65bd a7a0 c7bd 9ff1 a43d
00000110: cc88 363c 2c5b b9bd c193 abbd 7dc0 7b3d
00000120: c583 72bd f285 babd 46cb 4cbd 2167 21be
00000130: 150b 22be a75a 32bc 605a 9fbd 0495 2d3d
00000140: b433 63be 371d 0fbe a87b a6bd e7af 593d
00000150: 4909 17be 61ce 6bbd 5a32 e03c 7b9e 8cbc
00000160: 8a60 25be 6d10 12be 6a3e e5bc 1663 6abd
00000170: 76bf b3bd 319c f6bc 2ae5 633d 1d86 b23d
00000180: 99ae 2cbe f916 97bd 8d08 863d 17b7 e8bc
00000190: 1a9b 90bd 2550 f63c 695c eebd 4f93 e53c
000001a0: 757e dbbd fbb1 d2bd cbeb b1bd 6566 23be
000001b0: e99a 173b ea53 6bbc e332 00be 7621 cabd
000001c0: 5305 11be 7cdf ecbd 9669 04bc 2f64 8bbd
000001d0: b6c4 973c bcad e1bd 83ff 413d 7d23 0ebe
000001e0: ff34 cabb 246e 06bc 26e4 fbbc 5f3c 05be
000001f0: 724d 44be fcc1 82be b6ca b7bd 4f15 b43d
00000200: 7ca0 393d 252f a53d aabd ebbd 90e4 973d
00000210: caa0 fbba 0f9f 8e3b 3352 8cbd f9ea 72bd
00000220: 6b16 963d 403b 023d 2781 d3bd 2f48 bdbd
00000230: 94fb e4bc 1dc1 ba3d 315c f83d f2e7 f7bc
00000240: 3e88 853c b755 6c3d fa0e bcbd 0259 31bd
00000250: 7347 6e3d 4389 ea3c 6a57 1a3d 25ab cc3d
00000260: 612c ce3c 32c7 babd 3a97 b1bd b00d 83bc
00000270: bfc7 8fbd a134 0d3c f55c cbbc 5c1d b23d
00000280: 2649 d13c d37e ba3c 3355 ccbc 8217 9d3d
00000290: 538e a43c e214 19bd 90b0 063d bcf7 e73c
000002a0: 98d9 cfbc cbc5 b7bd 34d9 b83d c5c1 683d
000002b0: 52ed a0bd 5841 653d 00ca 13be d563 21bd
000002c0: 805e 003d 148d 1abc 905f 34bd 1de9 93bc
000002d0: 2488 99bc f7ad 88bd ca24 b13d 877e 7cbd
000002e0: f0c8 51bd 7715 e6bd fd6a e5bc e4dc b13c
000002f0: a4b8 28bd 14f7 8fbd da93 383a 20d5 30bd
00000300: a09b b33e 0a8a 503e 4bd7 043e cfe3 9bbc
00000310: 0916 b2ba d5f9 13bd f1ad f63d 7316 ce3d
00000320: df43 053e 9ec5 403d 479d 843d f3d9 0dbe
00000330: 94ab f03c 1b80 1abe ecdc 413e 7ac2 b4bc
00000340: 615a 01bd 3ff3 c4bd a6fe 8a3e e731 203d
00000350: bb9f bc3d afba 21bd 2ad6 e23d 447d 85bd
00000360: 2b2b 0bbd b636 873d 408f bd3c ffc3 013e
00000370: 9e85 1b3d fd20 84bd b2fc 173e d692 b83d
00000380: 60e6 fd3d 4188 483e 0a8a b63d 5757 6c3b
00000390: 8244 2f3d b7a0 1b3b 8b59 e13c b5ec b33d
000003a0: 84e0 bdbd d7c3 a83d 3b19 b63d 38d5 07be
000003b0: c523 24bd 8187 903d 3825 003e 79d2 89bd
000003c0: 0663 693c c98d 263e 6171 073e 8277 3a3f
000003d0: c2a4 a5bd 5f11 8cbd e428 3abd f5c1 9c3c
000003e0: 284f a53d fc69 1cbd 84a9 20bd 9810 abbd
000003f0: 9f65 b1bd 8504 5c3e a1f2 57bd bea2 5dbd
0.2554543 0.15515707 0.2657382 0.08363261 -0.13729744 0.030584864 0.026601035 0.13966247
0.11386844 -0.057436567 0.11038166 -0.03967662 0.15598883 0.016394043 0.14593317 0.07820351
-0.01313124 0.08204336 0.2205819 0.05429444 -0.029732646 0.09157316 0.030777305 0.017208075
-0.059220195 -0.046622507 0.12518038 0.06837094 -0.10727925 -0.054248676 -0.008151329 0.0762609
0.25551602 0.06346445 0.06297843 -0.06739283 -0.02733717 0.12309597 -0.0007572281 0.18040784
-0.03142415 0.016929347 -0.08296244 -0.04448861 0.0070655737 0.008699625 0.1250664 -0.06747844
-0.017580045 -0.0025667236 0.1257905 0.8065285 -0.1548257 0.08453187 0.07780476 0.11432914
0.09410289 -0.022381872 -0.04961363 -0.073095016 -0.06815927 0.3338978 -0.18881719 0.04510144
-0.123432 -0.056046512 -0.09747439 0.08053898 0.011141013 -0.09050593 -0.08377791 0.061462868
-0.059207696 -0.09107579 -0.049998544 -0.15761997 -0.1582454 -0.010885871 -0.077809095 0.04237844
-0.22187692 -0.13975988 -0.08129054 0.05314627 -0.14749636 -0.057569865 0.02736776 -0.017165413
-0.16150108 -0.14264078 -0.027983863 -0.057223402 -0.08776753 -0.030103775 0.05563847 0.08716986
-0.16863479 -0.073774286 0.065446 -0.028407617 -0.07060833 0.030067513 -0.116387196 0.028024344
-0.10717479 -0.10287853 -0.08687552 -0.15957029 0.0023133105 -0.014363268 -0.12519412 -0.098696634
-0.14162187 -0.11566064 -0.008081814 -0.06806218 0.018526416 -0.11019465 0.047362816 -0.13880725
-0.0061708684 -0.0082049705 -0.030748438 -0.13011311 -0.19170168 -0.25538623 -0.08974211 0.08793127
0.045319065 0.08065633 -0.11510785 0.07416642 -0.0019197699 0.0043524574 -0.06851616 -0.05930612
0.07328495 0.031794786 -0.10327368 -0.092422836 -0.027951993 0.09118865 0.12126959 -0.030261967
0.016300317 0.05769893 -0.09182544 -0.043297775 0.058173608 0.028629905 0.03768102 0.09993581
0.025167646 -0.09120025 -0.08671422 -0.015997738 -0.070205204 0.008618505 -0.024824599 0.08697006
0.025547575 0.022765553 -0.02494297 0.076704994 0.020087397 -0.03737343 0.032883227 0.028316371
-0.025372311 -0.08973273 0.09025803 0.056825418 -0.07857765 0.05597052 -0.14432526 -0.039401848
0.031340122 -0.00943305 -0.044036448 -0.018055493 -0.018741675 -0.06673806 0.08649595 -0.061644103
-0.05121702 -0.11234563 -0.028005118 0.021711774 -0.041191712 -0.07029548 0.00070410746 -0.043172
0.3507967 0.20365158 0.12972753 -0.019029526 -0.0013586889 -0.03612693 0.120448954 0.100628756
0.13014172 0.047063462 0.06475311 -0.13852672 0.02937869 -0.15087931 0.18931931 -0.02206539
-0.031580333 -0.09616708 0.27147406 0.03911009 0.09210154 -0.039484676 0.11076005 -0.06518033
-0.033976715 0.06602232 0.023139596 0.12672423 0.037969224 -0.064516045 0.1484249 0.09012382
0.12397456 0.19583227 0.089130476 0.00360628 0.042789944 0.0023746917 0.027508518 0.08785383
-0.092713386 0.082404785 0.08891531 -0.1326493 -0.040073175 0.07057095 0.12514198 -0.067295976
0.0142448 0.16265024 0.13226844 0.72838604 -0.08088066 -0.06839251 -0.045449153 0.019135455
0.080717385 -0.038187012 -0.039224163 -0.083527744 -0.08661961 0.21486099 -0.052721623 -0.05411028

rnn.bias_hh_l0 f4 [256]
00000000: e667 8c3e bfd9 8a3d cdfa cc3d 1f5d a63d
00000010: 06f9 91ba 97d4 c43c 8d21 f53d 2599 0b3e
00000020: 3147 133d 8b7a 1bbd 1e71 4d3e f19e efbd
00000030: dab7 d73c c0f4 10be 1ed2 353e bac8 ab3d
00000040: 9de5 d33b 4373 903c 6cfe 0f3e ff22 92bd
00000050: 0529 04be fbe2 08ba 0ce8 e23d f008 9ebd
00000060: ec08 c23b 4934 b4bb 2430 543b c703 943d
00000070: 39b5 76bd 1528 e73c 64a2 73bd 6bd8 813d
00000080: 5f35 763e d5e0 563c ecac bc3d 2372 653d
00000090: 2c9e b0bd 7ec6 ab3c 2426 b13d be34 993d
000000a0: a228 bfbd 2f94 cebd d1d7 df3d 0415 6a3d
000000b0: 7b6a a7bb 050b 4b3d a13b 763c 5630 d9bd
000000c0: 12b1 753d f336 273e aa7a e73d 3c2d 3a3f
000000d0: 538f 8abd b4fb 743d dcf7 173e f1c6 b43d
000000e0: 3b2f 063c 893e 74bd af3b b83d 27f5 bbbd
000000f0: d4fc 463a 9f0c b33e c679 6cbc 2de6 0c3e
00000100: a269 c8bc d8ba e53d 679f 0c3e 13a7 19bd
00000110: 6abb 17be 5b72 53bd 9405 b3bc c106 73bd
00000120: 3bdc 26bb 3e05 e4bc 3d0a 9ebd ebde 9cbd
00000130: 46b9 46bd dfa1 5dbd 6b71 e2bc b024 833b
00000140: ef5d 45be a048 14be 6397 e3bd 5c88 fdbd
00000150: b885 e5bd 985a c8bd 5593 eb3c caac f3bd
00000160: 0d30 0ebe b322 17be 4ec7 86bd 01c7 363d
00000170: ce30 05be f551 b7bd 51b7 633d 543e 013d
00000180: 573b afbd 4628 073d 7816 ccbd 74d8 49bc
00000190: f85e 033d db9f ff3c 158a f1bb 801f adbd
000001a0: e8e4 18be 9568 02be 388b d4bd 87ad 4fbb
000001b0: 1647 f9bc 4f32 5c3d 7b87 3dbe 1001 34bd
000001c0: 4c41 b83d 854c c8bc c2ca 4abc 850b 5ebe
000001d0: 1276 8b3c d4e4 a23d 8d64 aebc 8012 07bd
000001e0: bcf6 28bd 908b 6d3b 1534 5e3d 99a0 3dbc
000001f0: 43a6 4fbe 1c8b 51be 6469 3bbe c1c5 87bd
00000200: 8271 a3bd 52d3 0ebe ecd6 953d 05ed aabc
00000210: 5fa6 94bd 4033 343d fe28 68bd 4e1a e53d
00000220: f927 d1bd f1c2 283d 5154 1b3d 912f 963d
00000230: 0e0c d03c 95b3 02be ffa9 afbc ffa9 353d
00000240: 3ec5 44bd 1bd9 c73b c9f6 0dbc 6cab bb3d
00000250: 3ca5 833d 68ee c2bc e517 2cbc 5f5a 92bd
00000260: 4519 b83d 6c30 62bd 8f9b 553d 8158 b43d
00000270: 1032 a33b 7e21 343d 7aff 1b3d ab73 12be
00000280: b323 febc 0d05 903d ecd0 e53c 338c 65bd
00000290: eedb 663d ab32 ec3c 2664 2dbd 02e5 cfbc
000002a0: 7212 95bd 58e7 aa3d be1f 69bd f63f 54bd
000002b0: 4872 9e3d 2791 043d 4178 513d dd06 36bd
000002c0: 4686 f93d 1dc3 b23c e311 7a3d 27f6 5c3d
000002d0: bbfd a83d af17 ed3d 45f3 f1bb 33a3 b0bd
000002e0: e2ff 823d 3c3f c0bd 8186 153c 14ef 9f3c
000002f0: 6806 333c 708e 883c 44bb abbd 3cab 913d
00000300: d4e9 703e 8a20 253d 44c4 293e ccf4 bb3b
00000310: 36ff 89bd 5c38 9e3d 017a 133b 748a 21bb
00000320: c726 223e 7bf6 49bb e195 c33d ed0e ffbd
00000330: 2a2f 0d39 7627 b2bd c5ca e13d d7d9 bfbd
00000340: a52c a3bd acb9 95bb 5a32 903e 7525 b7bd
00000350: 7990 e1bd ebd6 50bd ec6e f73b e19d d7bd
00000360: cb23 96bb e4ad 07be cabc 2e3e e5d5 203e
00000370: 8467 56bc 9868 f63c 158d 0e3e 2f25 1c3e
00000380: 852a eb3d 4288 1f3e 697b a73c 4243 1f3d
00000390: be8b 5abc 55bc 613d 022a c0b8 8f63 3e3e
000003a0: a76d db3d 76d0 5f3d fc6a 493c a39d 8fbc
000003b0: 8f1a 353e 76d1 11be 5a81 c23d 014d debd
000003c0: 73fa 293e a7f0 c33d 92f3 b93b 98f1 693f
000003d0: b774 9f3d 2a55 a2bd 6094 b5bb 30f2 be3d
000003e0: f418 1f3d 79f2 3fbd a8ba 06bc 282a c4bd
000003f0: a72f 14be 2e11 643e 7a36 aabd b04c 02bd
0.27423018 0.06779813 0.10008774 0.0812323 -0.0011136837 0.024027152 0.1196929 0.13632639
0.035956565 -0.037958663 0.20062682 -0.117002375 0.026332784 -0.14155865 0.17755935 0.08387895
0.006466581 0.017633086 0.14061898 -0.07135581 -0.12906273 -0.0005221811 0.11079416 -0.077165484
0.0059214737 -0.005499397 0.0032377327 0.07227283 -0.06023142 0.028217355 -0.05948104 0.063401066
0.24043797 0.013115128 0.0921267 0.056017052 -0.08623919 0.020968672 0.08649853 0.07480763
-0.09333922 -0.100868575 0.109298356 0.05714895 -0.005109129 0.049571056 0.015028865 -0.106049225
0.05998332 0.16329555 0.11302693 0.7272527 -0.06765618 0.059810355 0.14840645 0.088270076
0.008189972 -0.05962995 0.08995759 -0.091776185 0.0007590775 0.34970567 -0.01443333 0.1375968
-0.024464432 0.11217278 0.13732682 -0.03751285 -0.14817587 -0.05162273 -0.021853246 -0.059332613
-0.0025460857 -0.02783453 -0.077167965 -0.07659706 -0.048516534 -0.05410945 -0.027641973 0.004002176
-0.19274114 -0.14480829 -0.11112859 -0.12379524 -0.112071455 -0.097829044 0.028756777 -0.11898191
-0.13885517 -0.1475933 -0.06580983 0.04462338 -0.13006899 -0.08951179 0.055594746 0.03155358
-0.0855624 0.032997392 -0.09965223 -0.012319673 0.03207299 0.031204155 -0.007371197 -0.08453274
-0.14931071 -0.12735207 -0.10378116 -0.0031689124 -0.030429404 0.053758916 -0.18508713 -0.043946326
0.089968294 -0.02445055 -0.012377443 -0.21684082 0.017024074 0.07953802 -0.02128818 -0.032976627
-0.04125093 0.0036246516 0.054248888 -0.011573934 -0.20278268 -0.20463222 -0.18301922 -0.066295154
-0.07980634 -0.139478 0.07316384 -0.020864973 -0.07258295 0.04399419 -0.05667972 0.11186658
-0.10212702 0.041201536 0.037922207 0.07333291 0.025396373 -0.12763818 -0.021443365 0.044351574
-0.048039667 0.006098879 -0.008664795 0.091635555 0.06428 -0.023795322 -0.010503744 -0.07146143
0.08989195 -0.05522196 0.052150305 0.08805943 0.004980333 0.043977253 0.03808544 -0.14301936
-0.031022882 0.07032213 0.028053723 -0.056041908 0.056362085 0.028832754 -0.042331837 -0.025377754
-0.07278909 0.083449066 -0.056915037 -0.05181881 0.07736641 0.03236499 0.051140074 -0.04444014
0.12183814 0.021821553 0.061052214 0.053945687 0.0825152 0.11576783 -0.0073837363 -0.08624878
0.06396462 -0.09387061 0.0091263065 0.019523181 0.01092682 0.016669482 -0.083853275 0.071127385
0.23526698 0.040314235 0.16578776 0.005735969 -0.06738131 0.077255934 0.002250314 -0.0024649175
0.15835105 -0.003081708 0.095500715 -0.12454019 0.00013464378 -0.08698933 0.11025003 -0.093677215
-0.079675 -0.004569253 0.28163415 -0.08942691 -0.11013884 -0.05098621 0.0075510647 -0.1052816
-0.0045819036 -0.13249928 0.17064205 0.15706594 -0.0130862035 0.030079171 0.13921006 0.1524856
0.11482719 0.15579322 0.020444589 0.0388825 -0.013338981 0.055111248 -9.163098e-05 0.18592666
0.10714274 0.054642163 0.0122935735 -0.017531222 0.17685913 -0.1424006 0.09497328 -0.10854531
0.16599445 0.09567385 0.005674788 0.9138427 0.077859335 -0.079264 -0.0055413693 0.09323537
0.038842157 -0.0468621 -0.008223213 -0.09578353 -0.14471303 0.22272179 -0.08311172 -0.031811416

rnn.weight_ih_l1 f4 [256, 64]
00000000: 8364 acbb bc4d 36bb c485 acbb 79a1 06bc
00000010: 83b2 85bb 9f7d 59bc 6edb 3f3b 8012 173c
00000020: 2639 6cbb 0184 bd3a 05ec a9ba fad5 e939
00000030: a8aa e2b8 5266 20b9 a4bf 423b f2e0 383b
00000040: 5105 193b 47ed 8e3a 6690 96bb 8b0e 62bb
00000050: de50 27bc a728 ff38 d768 43bc 8f09 06bb
00000060: c3ef a7bb 9326 83bb fb3c 91bb dc78 d63a
00000070: 6e1e 773b 6e00 4c3a ead2 33bb 7754 1cbb
00000080: 31b4 a83b 4a79 6cbc c506 9fba 1945 64bb
00000090: bef3 fcba 2399 5939 c358 c23a 83f5 173c
000000a0: 1503 433a 42cd 0e3a 1a75 953a 2d6f 04bb
000000b0: a384 df3b 2c93 fdbb 37eb 1fbb d53b f53a
000000c0: 0253 84bb 7613 c3bb 86ec 233a a64b 083c
000000d0: a451 833a cbf2 abba 198b d9bb 2875 033c
000000e0: f58a d9ba 438b 093c 0864 213c 317f f1b8
000000f0: 8fb3 003a 5bd8 0a3c e12f b93b 7b1e 833b
00000100: d1d7 cc3b e3da 06bd fd1c c43c 05cb db3c
00000110: 4139 97bc b19c 563c d3f1 2ebd b9e5 54bc
00000120: 2bf1 a83d 0572 503b b4ac 5b3d b7a6 5c3b
00000130: 1719 84bc 2294 2d3c 0be5 a9bd fa92 50bd
00000140: e327 bcbc 1e6e ebbc ced0 a83d 4f0b 31bd
00000150: ab5c a23d 2bfe 253c 099d 773d 04f1 393d
00000160: ed88 a3bc 86dc e9ba 1f9b 403d 4773 973b
00000170: ffea 013c cd63 9abc eb0a a73d 48d1 643d
00000180: 40ab 1d3d 8b47 643d f1d8 66bd db5d 94bc
00000190: 6c6a e83c e472 693b 43b8 0a3b 26ea 313c
000001a0: 708b 08bd 1948 0a3b 77c7 643a effb febb
000001b0: 2ff0 543c 0acd 753d d5d1 58bc 7bd9 fdba
000001c0: b2f8 383c df24 a83d ed55 b93c 3422 60bd
000001d0: e16c 743d 1294 e7bc cf4a dd3d db82 cd3b
000001e0: e6a2 ea3c 01c5 2e3d 68bd 0cbe 0c1c a6bb
000001f0: e4f4 343b 41a0 10bc 6859 243c 9d28 323c
00000200: 999b 45bc a7c5 953c 2dd2 eaba f77d b83c
00000210: dcde 133c d246 8dbc 4235 6cbd f3e3 b23c
00000220: dafe b73c c9f6 07bc 17e8 ce3b 0e43 433c
00000230: 45ce 0fbd 144c 983c 8d68 213c eb0b 2b3c
00000240: 14c9 d63b 76fa efbb 8e2b 623b 74c7 67bc
00000250: 2df7 883c 60bd e33c 8f98 8a38 c9b1 5ebb
00000260: 6fbc 1fbc 3eae 11bd 7d8a 10bb 03e6 053d
00000270: 9c44 563b 0436 85bc 5cb9 a43b a34b 17bd
00000280: f0f9 043d 090f 193d dcf0 c7bb 38ea 38bd
00000290: 653f 703c 347a d7ba 6a79 d7bb 432d 0c3d
000002a0: de28 76bc 8382 abbc 6ed0 69bc 3d88 7aba
000002b0: 387b 653d 01cb 30bc 61a8 83bc f9d6 42bc
000002c0: c1ab 2b3c 316b d33b ed92 fdbb 519c 5d3d
000002d0: ff00 4238 1932 7a3c 2352 1a3c 7387 b1bc
000002e0: 7445 873c 9512 4bbc 89f6 063d b5e5 16bc
000002f0: b124 1b3c fec2 8dbc 909a 793b 1f44 99bc
00000300: e385 a8bd 5dac 913d 1e0c cabd 3ddd 163d
00000310: 9452 013d e531 cb3d 1b34 533b 58ac 13bd
00000320: 5cac 42bd a5a1 c73c 61d0 b23b 6672 a83c
00000330: 6a5e 9bbd 6fb7 f73c 8323 bb3c 93e1 ae3c
00000340: b247 6d3c 5792 8cbc 8fcb a1bd 2c6e 2b3c
00000350: bfe2 18bc 3768 803d 37b3 a0bd c6cc 23bc
00000360: b642 9abb 10d8 acbd da60 e33c c096 d83d
00000370: 478d ce3c 277e 01bd 7e31 953c 02eb 85bd
00000380: 4f2d 663d a255 583d 9b62 6cbd 331d afbd
00000390: 6f5c dbbb 4f51 db3b a5da 13bd 5a59 8cbd
000003a0: 61d6 a4bd e1b4 64bd 3849 47bd 4494 c3bb
000003b0: 2d2e 6a3d 742b debb db43 ddbc a498 38bd
000003c0: 7e78 b63d c9ef 10ba c749 fb3b 5a1d 2b3e
000003d0: 424a 463d 24d6 893d 58e6 1cbd 3870 b7bc
000003e0: c933 173d 1294 babd c1ff 063d 36f6 d0bb
000003f0: b1a0 903c 6840 04bd 4844 f23b 886e 5f3d
-0.0052610054 -0.002781733 -0.0052649695 -0.008217209 -0.004080118 -0.013274579 0.0029275077 0.009220719
-0.0036044805 0.0014458896 -0.0012964016 0.00044600648 -0.00010808307 -0.00015296906 0.0029716277 0.002821025
0.0023349116 0.0010904454 -0.0045948504 -0.0034493532 -0.010212151 0.000121669196 -0.011926851 -0.0020452475
-0.0051250174 -0.004002401 -0.0044323183 0.0016362923 0.0037707346 0.00077820465 -0.0027438947 -0.0023854056
0.0051484336 -0.014433214 -0.0012132755 -0.0034831224 -0.0019298715 0.0002075178 0.0014827478 0.009274843
0.0007439119 0.0005447456 0.0011402697 -0.0020207867 0.0068212315 -0.0077384915 -0.0024401674 0.0018709848
-0.0040382156 -0.0059532477 0.0006253201 0.008318817 0.0010018838 -0.0013118623 -0.006638896 0.008023538
-0.0016597199 0.008395019 0.009850509 -0.00011515467 0.0004909569 0.008474435 0.0056514596 0.0040014363
0.0062513133 -0.03292359 0.023939604 0.026830206 -0.018459918 0.013098882 -0.04271109 -0.012994223
0.08249124 0.0031806242 0.0536315 0.0033668706 -0.016125245 0.0105944 -0.082956396 -0.050921418
-0.022968238 -0.028739031 0.08242951 -0.043223675 0.07927831 0.010131399 0.060452495 0.045395866
-0.019962752 -0.001784221 0.047022935 0.0046218964 0.007929563 -0.018846417 0.08156379 0.05586365
0.038493395 0.05573229 -0.056359235 -0.01811116 0.028371058 0.0035621459 0.0021166957 0.010859048
-0.033336103 0.0021100102 0.00087272323 -0.0077814977 0.012996717 0.060009994 -0.013233622 -0.0019367182
0.011289762 0.082101576 0.02262398 -0.05472012 0.059674148 -0.028268848 0.10805284 0.0062717027
0.02864213 0.042668346 -0.13744128 -0.0050692614 0.0027611786 -0.00882727 0.010031082 0.010873941
-0.012061023 0.018282725 -0.001791542 0.022521002 0.009025302 -0.017245684 -0.057667978 0.02183721
0.02246039 -0.008298584 0.0063142884 0.011917843 -0.035108823 0.018590964 0.009851587 0.010439853
0.006554732 -0.0073235584 0.0034510824 -0.014146674 0.016719425 0.027800262 6.608769e-05 -0.003398048
-0.009749516 -0.03556656 -0.0022055202 0.03269006 0.0032694703 -0.016261108 0.0050269794 -0.036937367
0.03246492 0.037367854 -0.0061017107 -0.045145243 0.014663552 -0.0016439618 -0.006575753 0.034222852
-0.015024392 -0.020936256 -0.014270885 -0.0009557044 0.056025714 -0.010790587 -0.0160715 -0.011892074
0.010477961 0.006451987 -0.007738462 0.054104153 4.6254132e-05 0.015270733 0.009418997 -0.021671033
0.01651261 -0.012394567 0.032949958 -0.00921004 0.009469197 -0.017304894 0.0038086511 -0.01870924
-0.08228662 0.07112954 -0.098655924 0.036832083 0.031572893 0.09921626 0.0032227102 -0.03605303
-0.047527656 0.02436907 0.0054569696 0.020562362 -0.075863674 0.030238835 0.022844082 0.021347797
0.0144824255 -0.017159624 -0.07900154 0.010463279 -0.009331404 0.062698774 -0.078466825 -0.009997552
-0.0047076596 -0.08439648 0.027756143 0.10575628 0.02521385 -0.03161445 0.018212076 -0.06538965
0.056195553 0.05281604 -0.057711225 -0.08550491 -0.0066943686 0.0066930423 -0.036097188 -0.0685298
-0.08048702 -0.055836562 -0.04865381 -0.0059686024 0.057172943 -0.0067800824 -0.027009895 -0.045067444
0.08909701 -0.0005528895 0.007668707 0.16710415 0.04841066 0.06730297 -0.03830561 -0.022392377
0.03691462 -0.091102734 0.03295875 -0.006377007 0.017654749 -0.032287985 0.0073933937 0.05454877

rnn.weight_hh_l1 f4 [256, 64]
00000000: 9d7a 803b 8c72 6fbb 4f52 31ba 4009 63ba
00000010: b6cc 39bc 0f3a a03c 6f3d f9b9 19f0 763b
00000020: e6a4 e0b8 9cb7 41bb 3fe0 9cbb 17f6 bcbb
00000030: e001 cf3a ec2c f23a b196 3e3a 88b6 5e3a
00000040: 31bd ddbb 2af7 43b7 66ed 0db9 b9d5 62b8
00000050: eb06 f9bb 06d7 9339 8c6d 24ba 3910 3fba
00000060: 499f 913b fb61 1bba 1065 dbb9 019b 243c
00000070: c533 0aba c209 173a 6f1c 003a 6bfc 2039
00000080: d324 87ba b5f3 f339 691e 113b d505 3bbb
00000090: 0204 053a 9c8a af3a 3d62 29b8 38de 9337
000000a0: 14b1 913a 38ac 63bb d0d9 2bbb 78cc 083b
000000b0: cfa2 edbb db78 9a3a 17d6 c5b8 00b4 123b
000000c0: 72ca a93b 6fbd 0339 b6a7 073c 20e6 00bb
000000d0: 1634 a8b8 4009 2d3a 59e2 4738 437c ea3b
000000e0: 20f0 39ba e3b6 48bb 898a 5bb9 efa7 15b8
000000f0: 8e39 bbbb d054 8b3a 5f38 893a 9939 64ba
00000100: a3e1 1038 993e 803d f5fe 1b3c 8703 aabd
00000110: 1e53 b7bd 2ed7 703d 9c1e 65bc f88d 843b
00000120: dae5 97ba 3896 f8b9 e7c2 edbc 867d b1bd
00000130: 3f9b 9a3d 0177 e03c fa1f d63c 32e7 19bb
00000140: 3ffc b93c 40ca b93b b2cc 103d 93f8 c9bb
00000150: 11c9 55bc 3be3 323d c259 9f3b 4b77 ddbc
00000160: 8bc8 e83d d956 65bc c482 5a3d 8229 cf3d
00000170: d4a7 12bd 6d66 fd3c 523c 52bd 0bbf 0ebb
00000180: a72b e83c d67f 113c 825f b03d 1a2d 60bd
00000190: 92f8 cabc 173c 903d a55c ba3a c870 b7bc
000001a0: 9802 1e3d 9280 1a3d 5dce fc3d dc13 25bd
000001b0: 9d56 29bc fd4e 9ebc 105d c53b deee 7b3c
000001c0: 1126 7bbd 6e7e 34bc 5ecd d83c 0dbb c1bd
000001d0: 5aa4 e5bc 4c0f 70bc 392e dbbb bc94 423d
000001e0: 27c1 27bc 005c 9c3c d9db 12bc 36be 243a
000001f0: c9ea 1cbc 9510 5c3d 9a92 433b 3bb7 813c
00000200: 92df 7abb ad72 063d 38d5 8cbb a10b 24bb
00000210: a271 8ebc d915 5fbd aa28 afba c537 c6bb
00000220: 980a 913b b16d c63b dab5 1abd 3e10 fdbb
00000230: 483e 3b3d dc55 9e3c 607d 2a3c f6e2 9b3c
00000240: b3c2 833d 10b4 d63a 363b 43bc 0e65 c9bb
00000250: 9e33 8f3c b218 b83c 8eca 1cbb e039 27bc
00000260: 374c 6b3d 5f3d 0fbc fa1d b2bc 2826 68bd
00000270: 3bfc 64bc a776 1f3c 75e4 adbc 9f20 c9bb
00000280: 1626 3abd b387 9e3b d42f 083d 7314 3fbc
00000290: 2486 033c 7d7e 163d 4c99 86ba 26d2 36bb
000002a0: b1bb 8cba aab7 8cba 77c8 d9bc 0365 d2bc
000002b0: 42d5 f63b a41b 083d a204 70bb ec88 9f3c
000002c0: c58d 493b 363c 073b 1cc7 583c 677d 8bbb
000002d0: 063c d7bb ecc3 0839 b574 483a 7d41 c63d
000002e0: 4fe8 7bbc 0e0b 6abd 7fbf 943b 1b8e be3b
000002f0: ab1c a8bc 37fb 9c3c c920 b7ba 77dd 10bc
00000300: 68a1 11bc 8c3f 87bd d681 66bc 4cf8 aebc
00000310: 4d83 103c b160 dd3d 845c f8bc 8cea 733d
00000320: cb11 db3b 3e84 933b 4040 d63b e921 c6bd
00000330: c54d ae3d 48b0 28bd 2ffa c0bb c316 363c
00000340: cbb7 1b3d 97bc 3cbc 281a fbbc 5f77 0c3c
00000350: 7494 c33c 4d44 eabb 4bc0 b9ba 7a0d 23bd
00000360: df07 3d3e 05e2 37bd 2713 9d3c 4a2b 2d3d
00000370: c8f7 9bbc 5eb4 d43c de71 143d 164e e2bb
00000380: a70a a1bb 92a7 e83c b98f 6c3c 68e9 093d
00000390: 9d04 2e3d abe3 ba3d 71cb 6eba 763e ab3b
000003a0: ea00 a0bc 5897 cf3b d996 913d c5e5 8abd
000003b0: 2d9e c2bc 5621 923d 49d4 fdbb 37e1 5bbc
000003c0: 6c7f 313d 8138 9539 3474 923d d61a 94bd
000003d0: 5e77 823c f40e 27bd 54e1 c6bb fe86 c83d
000003e0: 09c5 c7bc 831b 913c a22c 8a3c 506e 1d3a
000003f0: aaaa 37bc 8f47 75bc 7e7d 83bc e1ed b4bb
0.0039208666 -0.003653678 -0.0006764279 -0.0008660741 -0.011340311 0.019558934 -0.00047538753 0.003767973
-0.00010711867 -0.0029558903 -0.0047874744 -0.005766641 0.0015793405 0.0018476523 0.00072703796 0.0008495827
-0.006766938 -1.1680453e-05 -0.00013535246 -5.4081644e-05 -0.0075997016 0.0002819823 -0.0006272427 -0.0007288489
0.004444037 -0.0005927381 -0.00041846232 0.010046721 -0.00052719965 0.0005761647 0.00048870494 0.00015352822
-0.0010310657 0.00046530148 0.002214337 -0.0028537412 0.00050741446 0.0013392749 -4.038423e-05 1.7627244e-05
0.0011115395 -0.0034740102 -0.0026222356 0.0020873826 -0.0072520743 0.0011785285 -9.433569e-05 0.002238512
0.005181604 0.00012563703 0.0082797315 -0.0019668415 -8.020566e-05 0.00066008046 4.76561e-05 0.0071559264
-0.00070929714 -0.0030626587 -0.00020937076 -3.568077e-05 -0.005713648 0.0010630134 0.001046907 -0.00087060925
3.4542416e-05 0.062619396 0.009521236 -0.08301454 -0.089514 0.05879896 -0.013984349 0.0040452443
-0.0011588887 -0.00047414168 -0.0290236 -0.0866652 0.07549142 0.027400495 0.026138294 -0.002348375
0.022703288 0.005669862 0.035351463 -0.0061636656 -0.013048426 0.043673735 0.004862995 -0.027034422
0.113663755 -0.013997757 0.053347364 0.10115339 -0.035804585 0.03093263 -0.051327057 -0.002178135
0.028341128 0.008880576 0.08611967 -0.054730512 -0.02477673 0.07042711 0.0014218284 -0.022392645
0.038576692 0.03772027 0.12344048 -0.040302143 -0.010335592 -0.019324774 0.006023057 0.015376775
-0.0613156 -0.011016471 0.026465114 -0.09459505 -0.02803247 -0.014652085 -0.00668886 0.047505125
-0.010238922 0.019086838 -0.008963549 0.0006284447 -0.0095774615 0.05372675 0.002984202 0.015834441
-0.003828023 0.032824207 -0.0042978786 -0.0025031345 -0.017388169 -0.054464195 -0.0013363559 -0.0060491287
0.0044263117 0.0060555567 -0.037771083 -0.0077228835 0.045713693 0.01932805 0.010405868 0.019029122
0.0643362 0.0016380567 -0.011915972 -0.00614608 0.017480668 0.022472713 -0.0023924443 -0.01020667
0.05744573 -0.008742659 -0.02174281 -0.056677014 -0.013976152 0.009732879 -0.0212271 -0.006137922
-0.045446478 0.004837954 0.033248737 -0.01166259 0.008027587 0.036741722 -0.0010269075 -0.0027896254
-0.0010737089 -0.0010735888 -0.026584847 -0.025682932 0.0075327465 0.033229485 -0.0036623855 0.01947447
0.0030754667 0.0020635254 0.013231065 -0.0042568925 -0.0065684346 0.00013042957 0.0007646785 0.0968046
-0.015375211 -0.05713945 0.0045394297 0.00581528 -0.020521482 0.019162757 -0.0013971563 -0.008841864
-0.00888858 -0.066039175 -0.014069041 -0.021358632 0.008820367 0.10809458 -0.030317552 0.059549853
0.0066854707 0.0045018485 0.006538421 -0.096744366 0.08510927 -0.04118374 -0.005889199 0.011113825
0.038017076 -0.011519573 -0.03065212 0.008573382 0.023874499 -0.0071492554 -0.0014171688 -0.039807774
0.18460034 -0.044893283 0.019174172 0.04227761 -0.01903905 0.025964912 0.036241405 -0.006906281
-0.0049146 0.028400216 0.014438563 0.03366986 0.04248487 0.091254555 -0.00091092946 0.005225952
-0.019531686 0.0063351803 0.0710885 -0.06782106 -0.023757065 0.071352646 -0.0077462536 -0.013420395
0.04333441 0.00028461593 0.0715107 -0.07231681 0.01592606 -0.040785745 -0.0060693417 0.09791373
-0.024385946 0.017713314 0.016866986 0.00060055126 -0.011210123 -0.014970674 -0.01605105 -0.0055215214

rnn.bias_ih_l1 f4 [256]
00000000: 7293 ddbd 5808 cdbb ddad a03c abd1 73bd
00000010: d349 8abd a345 20bd c529 e6bd 5289 bc3d
00000020: 8849 693d 8181 f1bd f347 db3d 3ee4 f83c
00000030: 4c3a d23d 1f03 133d 6c58 af3d 45b1 a33c
00000040: 5194 3ebc 8d8d ee3d 18e2 5fbd 3af7 60bd
00000050: 8482 d4bd 6408 ffbc b9e9 4a3e fed9 273c
00000060: 938c f53e b5e3 15be d663 79bd 5072 15bd
00000070: 5cca ffba 279a cfbd 2bf1 0c3d e901 4bbd
00000080: 8907 f13c 2d7f 91bd 05a0 543e 68b9 493d
00000090: 6254 dd3b e29f a03c 77a2 f5bd b94c 103e
000000a0: 4073 11bd bf27 913d 0943 053e 9fa0 fd3d
000000b0: dd61 223c 3a7e 973e e98b 563c e45c 65bd
000000c0: 6bed ab3c ffb1 c73d e3fb ff3d 0f00 5ebc
000000d0: 42c2 37bd 2cd0 273d 21bd 1a3d 06e8 183f
000000e0: c74f 81bd 0920 343f ef7b 87bd b999 e8bc
000000f0: d356 273b 13e6 8c3d ad8f 18bd 248e 743d
00000100: 3296 803d 6372 f7bd 91bf d7bd a854 1cbc
00000110: f095 263b 2ace b43d f7b2 78bc 910c ffbd
00000120: bfdc aabd 51b8 43bd 35f2 cebd 6e1e 6abd
00000130: da1b 063b b4f3 f8bd c176 19bd c6ca c23c
00000140: dced bb3d b5ea 42bd 9cc9 09be 281d 08bd
00000150: 4752 c4bd c75e a1bd 2a36 8ebd 96f4 0fbe
00000160: 19c1 f5bd 4385 11be 8f39 33be 57f9 0bbe
00000170: 9156 43bc ee07 0dbe aa3d a63d 48fd 44bd
00000180: 1010 93bd 6092 b13c 5284 58be 30d4 49bd
00000190: a2e6 04bd b7f6 7fbd 3151 8e3c 3abe bf3c
000001a0: c645 45bc abbc 4a3d 5b5d bcbc 104b 26bd
000001b0: fb2a afbd 6989 03be bb1d 403d 56e9 34bd
000001c0: 15cb 7fbd 0332 0a3d 5b63 a53d 095f d23c
000001d0: 8f39 803d 3915 d3bd e25f 50bd 1d52 45be
000001e0: 3df2 80bc a116 1dbe 45b9 583c f33a 683d
000001f0: 1827 9abd 2543 c8bd 1c2c b9bd 2c3f cbbd
00000200: b032 12bd 5589 d33d cf9b 55bd 0526 be3c
00000210: 72ed de3c 46f1 1dbc 6097 093d db21 6cbd
00000220: ce94 adbc 7e41 db3b 1c4e b5bd d48a f73d
00000230: 05ce 0d3c c826 c23d ebd8 4c3d ecdc 2c3d
00000240: 9998 cb3d 51ed b4bd a8ee b93d 91b4 e039
00000250: 1d19 88bd 4f17 a4bc e4fd d83c 527a 8ebd
00000260: 2a9c f7bd f17d cebd 8ae1 20bd aecd ebbd
00000270: 9d04 913d 8866 73bd 9b31 ccbd 238c a7bd
00000280: 10b6 1db9 52c8 4e3d d0cf c13d ef81 943c
00000290: cd4d f83c 7d40 c5bd 61da a3bc c9fb b33d
000002a0: ca97 0ebd f387 113d 1b21 15bd ff91 6a3d
000002b0: a8b4 e5bd bc76 073d b53f bbbd 6e29 a2bd
000002c0: a0f0 ac3d f8e8 c5bc 2a7f 863b 8672 9f3c
000002d0: d212 a4bd 4f13 043d 843e 43bd 4cbf 6abd
000002e0: 42c5 d3bd a379 20bd 5276 683d c30d 493d
000002f0: b950 ab3c 3c2d 5dbd 1bc1 5a3d 6e8f 893b
00000300: c62d 6c3d 418e 5dbd eb0a 28bd 56b6 203c
00000310: a5ce f73d 71cf 2cbd 0430 babd 9c46 6a3d
00000320: 95ad a73d 3c13 fdbd 1064 02bd 48e4 80bb
00000330: 9284 ee3d 1c57 043d 1729 773d b7cb b93d
00000340: 2725 23bd e2c6 33bd f845 ec3d 3e37 37bc
00000350: b9b2 d53c 7888 fbbb 1296 7c3e 4739 55bd
00000360: b3d0 f03e 801e dfbd 6910 dfbd f212 69bd
00000370: bea2 1b3e a65f 85bd b412 8bbc 8d9d 443d
00000380: 8bd7 c83d 3d9b 23bd 45d6 ea3d f656 093d
00000390: 6f35 3fbd f182 ec3d 5ab5 733b d8a9 02bc
000003a0: 476a 9ebb c4ce 24bc 68bf b3bd c063 91bc
000003b0: 7fc7 743d 549e 8e3e a24f d8bb 36c6 c2bd
000003c0: ad73 b0bc b49b b23d 416d 923d a907 313c
000003d0: 1037 333c 7a48 84bd a236 8cbc f326 2e3f
000003e0: 2049 a6bd c887 1f3f f1d1 313d 3d1f f0bc
000003f0: 73f2 b83d 85f5 7a3d 0a33 593d 9942 8abd
-0.108191386 -0.006257098 0.019614154 -0.059526127 -0.06752362 -0.03912891 -0.11238436 0.09205879
0.05695489 -0.11792279 0.107070826 0.030382272 0.102650255 0.03589165 0.08561787 0.01998199
-0.011632041 0.116480924 -0.05465898 -0.054923274 -0.103764564 -0.03113193 0.1981572 0.0102448445
0.47958812 -0.14637645 -0.060886227 -0.03648597 -0.0019515264 -0.10136824 0.034409683 -0.04956237
0.029422538 -0.07104335 0.20764168 0.049249083 0.006754444 0.019607488 -0.11993878 0.14091767
-0.0355103 0.07087659 0.13013853 0.12384152 0.009911028 0.2958849 0.013094881 -0.05599679
0.020987233 0.09750747 0.124992155 -0.013549819 -0.044862993 0.040970013 0.037778024 0.5972904
-0.063140444 0.7036138 -0.06615435 -0.028393613 0.002553393 0.06879821 -0.037246395 0.05970587
0.062786475 -0.120823644 -0.10534585 -0.009541668 0.002541896 0.08828385 -0.015179387 -0.12453569
-0.08342885 -0.0477832 -0.10104791 -0.057157926 0.0020463378 -0.12155858 -0.03746677 0.02377833
0.091762275 -0.047587115 -0.13455814 -0.03323093 -0.09586006 -0.078794055 -0.06943925 -0.14058146
-0.11999721 -0.14210992 -0.17502426 -0.13669334 -0.0119224945 -0.13772556 0.0811723 -0.04809311
-0.07180798 0.021676242 -0.21144226 -0.049274623 -0.03244651 -0.062491145 0.0173727 0.023406137
-0.012040561 0.049496334 -0.022993734 -0.04059893 -0.0855312 -0.12845387 0.046903353 -0.04416784
-0.062449533 0.0337391 0.08075591 0.025680082 0.062609784 -0.10306782 -0.05087269 -0.19269605
-0.015740508 -0.15340663 0.013227765 0.056696843 -0.07526988 -0.09778432 -0.09041616 -0.099241585
-0.03569287 0.103289284 -0.052150544 0.023211489 0.027212832 -0.009640044 0.033591628 -0.057649475
-0.02118912 0.006691157 -0.08852789 0.12087026 0.008655076 0.09480053 0.050011557 0.042202875
0.09941215 -0.08834327 0.09078723 0.00042859142 -0.06645415 -0.020030646 0.026488252 -0.069569245
-0.12090333 -0.10082615 -0.03927759 -0.1151384 0.07080958 -0.059423953 -0.09970399 -0.08181026
-0.0001504051 0.05048401 0.09463465 0.018128363 0.030310536 -0.09631441 -0.020001592 0.087882586
-0.034812726 0.035530042 -0.036408525 0.05726814 -0.11216098 0.03307222 -0.091430105 -0.07918058
0.08444333 -0.02415894 0.0041045146 0.019463789 -0.08011402 0.032244977 -0.04766704 -0.05731134
-0.10340358 -0.0391785 0.056753464 0.04908539 0.020912515 -0.053998217 0.053406816 0.0041980064
0.05766084 -0.054090742 -0.041026037 0.009809097 0.12099961 -0.04219002 -0.090911895 0.057196245
0.08187405 -0.12357184 -0.03183371 -0.0039334632 0.116463795 0.032309636 0.06034192 0.09072059
-0.039830353 -0.04389084 0.11536783 -0.011182604 0.026086198 -0.0076761805 0.24666622 -0.052056577
0.47034225 -0.10894489 -0.10891802 -0.056902833 0.151988 -0.06512384 -0.016976692 0.048001815
0.098067366 -0.03994297 0.1146665 0.033530198 -0.046681818 0.115484126 0.0037186951 -0.007975064
-0.0048344466 -0.010059062 -0.08776742 -0.01774776 0.059760567 0.2785517 -0.00660129 -0.09510462
-0.021539534 0.08721104 0.07149745 0.010805049 0.010938421 -0.06459136 -0.017115895 0.6802818
-0.08119416 0.6231656 0.043413106 -0.02931177 0.090306185 0.061269302 0.05302719 -0.06750984
