checkpoints/TP_LSTM_L2_bs16_trainNon0baseline_bsfirst_pos0_downsp_rs_freq/TP_LSTM_L2_bs16_epoch800.pt (torch, 206200 bytes, 9 tensors)

rnn.weight_ih_l0 f4 [256, 3]
00000000: b512 093c 7b9a 0a80 2063 043f 5463 39bf
00000010: 7c0f 1280 29b9 08be fd0e d1be 5ccf 0c00
00000020: 100e f23c c903 13bf 42f4 0800 4e3e f73e
00000030: a4b9 96be de87 1380 9a23 44be 0e62 623f
00000040: 5e84 0800 0873 103f 2966 cabc 6e75 0880
00000050: 6a86 ddbf f307 e6be 0f6b 0e80 fac1 1ebe
00000060: c406 703e a0bd 0280 dc3d 743e f8c8 a0bc
00000070: 5c62 0280 78c4 7dbf 2bf0 88bf 4cce 0000
00000080: b7b0 30bf b083 a7be 0b6e 0880 3b50 213e
00000090: a928 433d 461b 1380 2568 9d3e eda4 92bf
000000a0: e785 0d80 0964 953e 7dfd 2c3e c747 1080
000000b0: 4084 02c0 dc29 7abf 839d 0a00 0fc5 21bf
000000c0: 4dcb 39bf d799 1080 ceef b3be 1bc0 913e
000000d0: 74d4 0480 6a6a 983e 170f b83e 7984 0980
000000e0: 28c5 18be 356e 80bf d85a 1180 ba65 13bf
000000f0: ce15 a4be 89c0 1000 111d 55be 14e7 7ebe
00000100: 69b3 0f80 66ae d1be 09eb 15bf 8769 1200
00000110: 4403 69be 0d23 e6be 4806 0b80 8d14 2c3f
00000120: 896e 973f 853c 1000 9bbd f53d 0667 983f
00000130: 71f5 1500 0ba4 4d3f 7858 e73c 7986 1100
00000140: f252 eb3d 69b3 81be 964a 0000 280f e7be
00000150: 5452 d9be 4a33 1080 7c4d d53f 0a8e 763e
00000160: 203b 0780 7016 fdbd beb2 553f d150 0d00
00000170: 70ec da3d a8cc cf3f 3f87 0880 46c8 2bbf
00000180: f0c7 57be ede2 1280 cfff 513e 7046 113f
00000190: 711f 1500 e305 a4bd 5ff7 08be 4fd5 1200
000001a0: 2f05 143f 8acd 8bbe 1c78 0600 f612 26be
000001b0: 99f4 18bf ebc5 0700 b64b 99be 95f0 97be
000001c0: 8563 0000 c898 2fbe 93b0 6b3f c7fe 0280
000001d0: 04a4 f1be d6f6 b7be f76d 0a80 ca8f b7be
000001e0: 5b09 b9be 4e5f 1400 2acb f0bf 3983 993d
000001f0: 37c6 0500 68ab 8abe 6719 d43e 7702 1100
00000200: b156 f8be 1098 16be 2df9 0c00 d529 853f
00000210: 413d 6b3e 48ac 0100 123d 5abe 38f8 8cbe
00000220: b8c9 1080 36dc 3ebe 8513 a5be ed4c 0980
00000230: 2687 be3e a549 f83e 9239 0900 33a1 633e
00000240: d03c 3f3f 542c 0a80 9489 9dbe 1818 833f
00000250: 7181 0280 5168 b33d ba4d 42bf 0caf 0900
00000260: 9cdb 5fbf e0ab 13bf 316e 0800 09c0 08bf
00000270: 5a1b ccbe 02f1 0380 9832 8fbf d4bd 05bf
00000280: 96b8 0d00 0ce7 4dbf 3699 7dbf 2b3a 0b80
00000290: 2823 c9be 84d8 92be 93b9 0400 fa70 29be
000002a0: 07f6 8ebe cec3 0a80 b078 8bbe ab15 d7be
000002b0: 2b3a 1280 707b edbe 4957 a8be 4ed5 0100
000002c0: f107 21bf cd87 b9bf 3094 0880 f21e b2be
000002d0: e999 85be 4964 0380 ef70 22be 8f29 b23f
000002e0: 0cbe 0200 963c 193f c228 8ebe 8e51 0b80
000002f0: 67d9 40be 8648 ea3e 0b2d 0580 32fb b4bd
00000300: a56c e4bd 9e0c 0f80 6e7e 423e 4c5b a5be
00000310: 26ec 0a00 94d7 9dbd cf09 183e 43b9 1000
00000320: b0de c03e 8b9e 9bbd e5a0 0d00 e558 41be
00000330: c5b9 f0bd 3ed8 1300 c0b5 98bd 1f9f cabd
00000340: 4bf1 0e00 8d1e bdbe 6b72 69bd fcb6 0d80
00000350: 8d93 0ebf b88b 423e 550a 0400 1468 dd3e
00000360: bba8 433f 499e 0c80 7434 6bbf 3186 3bbe
00000370: b5c7 0e80 c4f2 92bd 3842 4f3f 27f9 0c00
00000380: 1931 9f3e bc6a 3f3f 7735 0200 7bf2 223f
00000390: 1123 8c3f 7515 0a80 1c36 893b 902c 51be
000003a0: aeb9 1300 7223 43be e406 0fbd 8401 0d00
000003b0: 3f68 21bf 1df6 37be bfb5 1300 6aee dbbd
000003c0: 07e9 45be be4c 0600 7114 2cbe 951e f83e
000003d0: 5834 1100 4fe6 193d 4bf7 283f 9c85 1000
000003e0: 46c8 31bf 6684 debc d3cc 0c80 1feb 0cbe
000003f0: 5f45 02be 2d41 0e80 9b0b 9cbd b055 f23e
0.0083662765 -9.73772e-40 0.5171375 -0.7241719 -1.658594e-39 -0.13351883 -0.40831748 1.176412e-39
0.029547721 -0.5742765 8.22307e-40 0.48289722 -0.29438508 -1.793614e-39 -0.19154206 0.8843087
7.82168e-40 0.56425524 -0.024706917 -7.7681e-40 -1.7306645 -0.4492794 -1.324102e-39 -0.15503684
0.23440081 -2.51696e-40 0.23851722 -0.01962708 -2.18956e-40 -0.9912791 -1.0698293 7.4005e-41
-0.69019645 -0.32717657 -7.7416e-40 0.15753262 0.0476462 -1.754658e-39 0.30743518 -1.1456581
-1.241897e-39 0.29177883 0.16893573 -1.495117e-39 -2.039322 -0.9772012 9.7486e-40 -0.6319131
-0.7257584 -1.524555e-39 -0.35143894 0.28466877 -4.43556e-40 0.29768687 0.35949013 -8.74042e-40
-0.14918959 -1.0033633 -1.593792e-39 -0.575771 -0.32047886 1.538437e-39 -0.20811869 -0.24892837
-1.441893e-39 -0.40953368 -0.5856176 1.690895e-39 -0.22755152 -0.44948617 -1.012444e-39 0.6721886
1.1830608 1.491078e-39 0.11999055 1.190644 2.016593e-39 0.80328435 0.028240427 1.609443e-39
0.1149043 -0.25332192 2.6756e-41 -0.4512875 -0.42445624 -1.487767e-39 1.6664271 0.24077621
-6.64059e-40 -0.12357795 0.83475864 1.222853e-39 0.10689628 1.6234331 -7.83201e-40 -0.6710247
-0.21072364 -1.734445e-39 0.2050774 0.56748104 1.939824e-39 -0.08008935 -0.13375615 1.72956e-39
0.5782041 -0.2730525 5.941e-40 -0.1621817 -0.59748226 7.13848e-40 -0.29940575 -0.29675737
3.5701e-41 -0.17148125 0.92066306 -2.75068e-40 -0.47195446 -0.35930508 -9.57803e-40 -0.3585189
-0.3613995 1.870899e-39 -1.8812001 0.07495732 5.30284e-40 -0.27083898 0.4142563 1.562088e-39
-0.4850364 -0.14706445 1.191413e-39 1.0403391 0.22972585 1.53638e-40 -0.21312359 -0.27533126
-1.541731e-39 -0.18638691 -0.32241455 -8.54115e-40 0.37212485 0.48493686 8.47172e-40 0.22229461
0.7470217 -9.34257e-40 -0.30769026 1.0241728 -2.30106e-40 0.08760131 -0.7589985 8.89314e-40
-0.8744447 -0.57684135 7.74213e-40 -0.5341802 -0.39864618 -3.61964e-40 -1.1187315 -0.5224278
1.260078e-39 -0.80430675 -0.99061906 -1.031057e-39 -0.39284635 -0.28680813 4.33913e-40 -0.16547003
-0.2792208 -9.88596e-40 -0.27240515 -0.4200872 -1.673906e-39 -0.46383238 -0.32879093 1.68355e-40
-0.6290274 -1.4494568 -7.87844e-40 -0.34789234 -0.26093987 -3.11482e-40 -0.15863393 1.3918933
2.51847e-40 0.5985807 -0.2776547 -1.039447e-39 -0.18832932 0.45758456 -4.75336e-40 -0.08836974
-0.11153535 -1.382059e-39 0.18993542 -0.32296216 1.003069e-39 -0.07707134 0.14847492 1.535827e-39
0.37669897 -0.07598599 1.25158e-39 -0.18881567 -0.11754183 1.822448e-39 -0.07456541 -0.09893631
1.372257e-39 -0.3693737 -0.056993883 -1.259504e-39 -0.55693895 0.18998611 3.71048e-40 0.43243468
0.7642934 -1.158808e-39 -0.9187691 -0.18312909 -1.357338e-39 -0.0717521 0.80960417 1.191405e-39
0.31092146 0.7477224 2.0285e-40 0.63651246 1.0948201 -9.26052e-40 0.0041873585 -0.20427155
1.811484e-39 -0.1905649 -0.03491868 1.194405e-39 -0.6304969 -0.17964979 1.810073e-39 -0.10738833
-0.19327174 5.78543e-40 -0.16804673 0.48460832 1.579981e-39 0.037573155 0.6600234 1.517298e-39
-0.6944622 -0.027162742 -1.175503e-39 -0.13761567 -0.12721775 -1.309078e-39 -0.07619401 0.47331

rnn.weight_hh_l0 f4 [256, 64]
00000000: 25bf d1bc 7c42 363e dd1d 8fbe b05f 403e
00000010: 7216 6a3b 702e 213e 1080 593e b931 f03d
00000020: 67e9 a9be 7c04 9dbd 9855 b03e d9fb e33d
00000030: 8757 f83e efe1 cdbd 915f 41be c7e6 183d
00000040: 3880 183d 3389 a5be 92d3 1dbe 7362 6f3c
00000050: 455f 2fbb d4b4 24be f45c aebd 401e aa3e
00000060: a780 4d3e 09e5 043f ee34 293e 662e 3bbf
00000070: 68a4 93bc bee3 243d a4a0 1dbe e1f7 aebe
00000080: 9ab3 c1be 27bb 9c3e 96bf b93d cdd3 67bb
00000090: b312 bdbc 96a6 9bbb 990d b7bd 9a11 96bd
000000a0: 6cdc c2bd bd21 063e 8b93 513e b96d b2be
000000b0: dcd2 a6bd 5300 03bc 151c 8a3d ff8a 5a3e
000000c0: d2ca 0e3e 4eb1 d3bc 1758 393d 8c02 bb3c
000000d0: dc86 51bd 8043 1a3c 89e2 77bd c6fe 38bc
000000e0: 2a48 1bbe 0dfe 3ebe 905d 1dbe eb25 6d3e
000000f0: ea31 6ebb dcf8 f3bd b926 a03b 8bff e83e
00000100: de66 ec3d 011c 88be 5377 89be 8f66 96bd
00000110: 4baa e9bc 22d3 46be 599b bfbd 1f3b 1d3e
00000120: ad66 f3be 2187 7ebd 5111 18bf c868 9fbd
00000130: 7730 003f c481 193c bd9a 383e a025 cebb
00000140: 64f9 97bd 3c34 183f 41e8 79bf b62f bebd
00000150: 7a0f 163d 54e8 9d3e b56d 33be 43b2 1c3e
00000160: 1581 a2bd b92d 0f3f e0ef b2bf b61b 1e3e
00000170: c2a8 c43e 0ba6 923e c2e9 cbbd 8166 17bf
00000180: d5c4 c5be e915 f1be 3e7d 1d3e 56e8 a13c
00000190: 718a 6fbe b3e8 cf3a d2d1 4ebe c8f4 21be
000001a0: bf01 77be 0d17 a53e 191f 6dbe 47fb a3be
000001b0: 0c60 8dbe 39ef f0bc 0995 7abd e822 1e3f
000001c0: 4593 a93e 138a 2cbf da6b ea3e c016 60be
000001d0: f25b b13d 0478 ee3c 0275 2ebd ff6d f63b
000001e0: 00db 673d 1092 60be 0726 833e 4e51 dd3d
000001f0: decf 6e3c e142 063f 7685 173d e67a 44bd
00000200: 169f a83c af4f beba 1b79 5c3e 30be fabc
00000210: 0ac3 c5bb 638f bf3f a017 c93e 1bf6 c8bd
00000220: 7f5c 093f aba4 cc3e c614 0b3f 9dc2 08be
00000230: 5500 b9be 57e6 183e 14c2 82be 37c6 0b3d
00000240: c1e9 f1bc b3e3 c9be 3e54 373f 2865 853d
00000250: c783 2b3b 9d38 5ebc 2113 a93e 7047 d8bd
00000260: 29c9 2c3f b3fd c2bf 3267 593f 1404 1ebf
00000270: a21c b3bd 86b1 7cbe f05c 863e c7a3 11bf
00000280: 9265 d2bd 299a 453f c699 c0bc 863e 433b
00000290: e7e3 da3e 577c e2bb 140e 163f 577c e3be
000002a0: c26f 70be 86cb e3bd 4daf 073f eeef b1be
000002b0: c664 1d3e 5a88 00bb fd7a 2bbe 3bea d4be
000002c0: b883 223f 38b6 2a3f e2e8 2e3d 0dec 4bbe
000002d0: 6f58 893d 1163 0e3d 93fe c73b fe75 10bc
000002e0: 6142 c4be dbe1 f4be 21af 02bf 2fcf 9c3e
000002f0: 57b8 183b 5a5b a0bf 19d0 0d3b 3b50 a33d
00000300: 09ad 11bc 4db8 85be efdc 0f3e d91d a63a
00000310: ac6e d23b a477 fcbe aee1 023f 73d0 a0bd
00000320: 4790 ccbc 2c47 523a 2068 b33e cef0 91bd
00000330: 8299 533e 334e eb3b cf97 bfbe 0a5c 1abb
00000340: aab7 2d3d 14c8 ae3d 0f80 63bf f11b 7cbd
00000350: a67f 84bc a085 abbe be86 f23e 5ccd 97be
00000360: 38bc 33bf 6d0b 80bd aa33 35bf 47f2 aabe
00000370: 773b 313f 40d2 a73d b61a f5be b73a 783e
00000380: ee14 b53e 46d7 81bf a998 d53d c544 873c
00000390: 1d41 73be 8061 56bc b130 273e 3a2b 73be
000003a0: 14e9 24be 172c 26bc 5265 403e 42ba 4fbf
000003b0: a159 193d d360 d93c 748b 0cbe 0615 54bd
000003c0: 61ac db3d 037a f2bd e28f f7bd 0f31 82be
000003d0: e313 b7bc 2619 dc3c 45a0 91bc 26c4 c7bb
000003e0: 066e a4bd b595 18be f17e b03e d2eb 5abe
000003f0: 5a3a 873c a8da 903e 74c7 dbbc 18c3 ae3e
-0.02560384 0.177988 -0.2795247 0.18786502 0.0035718945 0.15740371 0.21240258 0.11728234
-0.33185884 -0.07666871 0.34440303 0.111320205 0.48504278 -0.10052859 -0.18884112 0.03732946
0.037231654 -0.32331237 -0.15412739 0.0146108745 -0.0026759666 -0.16084605 -0.08513823 0.33226204
0.20068608 0.5191198 0.16524097 -0.73117673 -0.018022731 0.040256254 -0.15393311 -0.34173492
-0.37832338 0.30611536 0.09069745 -0.0035374046 -0.023080206 -0.004750083 -0.089381404 -0.07327576
-0.095146984 0.13098808 0.2046644 -0.34849337 -0.08145687 -0.007995683 0.067436375 0.21342085
0.13944557 -0.025841381 0.045250025 0.022828363 -0.051154003 0.009415507 -0.060518775 -0.0112912115
-0.15164247 -0.186516 -0.15367723 0.23158996 -0.003634567 -0.119127005 0.0048874286 0.45507464
0.11543058 -0.26583865 -0.2684885 -0.0734378 -0.028523585 -0.19416478 -0.09355802 0.15354584
-0.47539273 -0.062140588 -0.5940142 -0.07783657 0.5007395 0.009369317 0.18027778 -0.0062911063
-0.07420614 0.59454703 -0.97620016 -0.09286444 0.036635853 0.30841315 -0.17522319 0.15302376
-0.07934777 0.5592914 -1.3979454 0.15440258 0.38410002 0.28642306 -0.09956695 -0.59140784
-0.38626733 -0.4708703 0.15379807 0.019764107 -0.23392655 0.0015862196 -0.20197228 -0.15816033
-0.2412176 0.3224415 -0.23156394 -0.32027647 -0.2761234 -0.029410945 -0.061177287 0.6177201
0.3312017 -0.67398185 0.4578541 -0.21883678 0.08660115 0.029109962 -0.042592056 0.007520437
0.05660534 -0.21930718 0.2561495 0.10806523 0.014575927 0.524458 0.036992513 -0.047968768
0.02058367 -0.0014519597 0.21530573 -0.030608267 -0.0060352134 1.4965633 0.39275837 -0.09812566
0.5365676 0.39969382 0.5432857 -0.13355489 -0.36133066 0.14931618 -0.25538695 0.03412458
-0.029530408 -0.39431533 0.7161292 0.06513435 0.0026171075 -0.013563302 0.33022407 -0.105605006
0.67494446 -1.5233673 0.8492309 -0.6172497 -0.08745696 -0.24677095 0.2624278 -0.5689053
-0.10273279 0.77188355 -0.023510825 0.0029791906 0.42752 -0.006911795 0.5861523 -0.444308
-0.23480132 -0.111228034 0.5300186 -0.34753364 0.15370473 -0.0019612522 -0.16746135 -0.41584954
0.63482237 0.66684294 0.042702563 -0.19914265 0.067063205 0.034762446 0.0061033457 -0.008817194
-0.38331893 -0.47828564 -0.51048476 0.3062682 0.0023303234 -1.2527878 0.0021638928 0.07974287
-0.008891352 -0.26117173 0.14049123 0.001267369 0.0064218845 -0.4931003 0.5112561 -0.078522585
-0.02497114 0.00080214697 0.3504038 -0.07126008 0.20664027 0.007180953 -0.37420508 -0.0023553395
0.042411484 0.085342556 -0.88867277 -0.061550085 -0.016174149 -0.33500385 0.47368425 -0.29648864
-0.70209074 -0.06252179 -0.7078196 -0.33387968 0.6923136 0.08194399 -0.4787194 0.24241148
0.3536753 -1.0143821 0.10429508 0.016512284 -0.23755307 -0.013084769 0.16327168 -0.23746958
-0.16104537 -0.010142348 0.1878865 -0.8114358 0.037438992 0.026535427 -0.13725072 -0.051777862
0.10726238 -0.11839678 -0.1208799 -0.25428054 -0.02234835 0.02686746 -0.017776618 -0.0060963808
-0.08028798 -0.14900859 0.3447185 -0.21379021 0.016507316 0.2829182 -0.026828505 0.3413322

rnn.bias_ih_l0 f4 [256]
00000000: d357 97be c19c 96be b83e e93d e21c bfbe
00000010: 123b 26bf f5f7 2a3f 3062 2e3e 288a c0be
00000020: d115 483f aa36 d73d 8876 ecbe fd1d 0bbf
00000030: 326c 093f d217 4fbe 5e35 f33e 837a 0bbf
00000040: b881 e8be f491 1e3f 7c6c 0c3f f4c3 f2be
00000050: 0ef6 29bf 4785 1bbf 41de 88be 185c a93f
00000060: 58c3 0c3f 2242 ba3f b00b f23e e056 34bf
00000070: 9f44 80be b6ca 573f 6501 0f3f 0c47 46be
00000080: 66d3 f03e ea20 8d3e b3f8 0abe 7802 1dbf
00000090: 5109 dabe 270e 1abf bfe0 2b3e 7a7b b9be
000000a0: c3e7 46be aa2b a73d ecae e2be 0238 63be
000000b0: eba8 7ebf 8457 22bf 461a e1be b0b8 d63e
000000c0: 3de2 b3bb b9d1 5b3e c718 9bbf cdd6 6abd
000000d0: 8050 34bf 788c 24bf ada3 2cbf c724 1abf
000000e0: 322f dfbe 87f9 1fbf d83c a7be d3de 95be
000000f0: 1055 1bbf 85e6 6e3f 6de4 23bf e0b0 e8bd
00000100: f027 04bf 21e1 bbbc c7da 0ebf 033d e2be
00000110: 7add 54be b6d0 08bf 89a2 b93d affe 203c
00000120: bcf9 32bf 7792 08bf 0416 553f d1e3 0c3f
00000130: a0d1 0ebf 2b76 bbbe 62cd d8be ff65 a8bd
00000140: 6fe5 1a3e e0d1 86be b593 4fbe b37b 0d3f
00000150: 48a2 62be cd96 d63e e06d 323d da17 1abf
00000160: 8a32 fbbe 9724 bcbe 90e2 8bbe c94f e73e
00000170: 2ffa 08bf d95f a6be 29c1 eebe f21e 10bf
00000180: 6a81 54bf 78e4 c0be 1e0c 72be 8f44 35be
00000190: 5308 fd3e 5d41 5cbe 3a6a 16be 554d 4b3f
000001a0: 6678 8f3e aa62 02bf fd13 723e 44b8 563e
000001b0: 9a22 06be f295 35be 5c82 3d3d 9e47 2fbf
000001c0: b4f6 f5be 39be 9fbe dca9 693e 60b3 7fbe
000001d0: 5b43 1ebe fb0c 00be 1214 ca3e 91e8 58be
000001e0: 2481 d93d 6d83 ee3e 7bc1 263f e4dc 263e
000001f0: 9a0e 35be 20ec 7e3e 498a 41be d418 8ebd
00000200: dbf0 383e 457a bb3d 98b0 a0be a7ad 523d
00000210: 44c2 f53c fe43 2fbd 3ed6 5abe 1583 413d
00000220: 8a5b 83bd e27b 193e 6f35 a2bd fe83 70be
00000230: 9295 fc3d fdaf 6f3c 628a 9b3e a0b2 09bd
00000240: a14a 4f3d f767 5d3e 7bcc 79be 610c f4bd
00000250: 8ada fcbb 9093 12be c73d 183d 7803 663e
00000260: 5d6c 843e a0af 033d 220f 7ebe d84b 1abe
00000270: 507d 7ebe 98d0 483e 377b 55be 59c5 9a3c
00000280: 3391 3bbe 3fc7 4bbe 91e9 d33d bbba 643d
00000290: b007 133c 74b1 b8bc 6405 6c3e a78a 993d
000002a0: c512 e13c 5d78 c73d d0a9 753e 154f c0bc
000002b0: 1929 df3d 72fb 663c 0249 72be e1f3 1d3e
000002c0: af08 563e fb29 5dbe 87fd 3bbe a2e6 19be
000002d0: 577a 4cbd 8596 bfbd 3469 0b3e 995a 023c
000002e0: 6694 4ebe 523c f3bc 537c 01bb 4dc5 773d
000002f0: f8d8 7cbc eef2 30bd 8409 bb3c 6312 e53d
00000300: f051 3fbe 2f5c 70be 1fb7 333c 14c9 c6be
00000310: 67cf 26bf 9050 2d3f 5738 833e 24bc a6be
00000320: 41a3 793f 8920 4e3d 6d80 f03e 4f1d 33bf
00000330: 28a7 d33e 7615 a6be 3a83 fc3e 421d 25bf
00000340: 2d3f 00bf a070 043f 47c0 a83e c478 acbe
00000350: b36b 2abf d7c4 40be 54f8 d4bd 5379 b43f
00000360: ddff 143f 5fbf c13f 8e59 d93e 2d8c 85bd
00000370: bb75 bcbd 295d 453f 5448 293f 16bf 9e3d
00000380: ad47 d53e 20e1 013f 21da b6bd 4f96 1dbf
00000390: 36e0 55be 158d 1abf 66fc 903e 4683 80be
000003a0: 10eb cdbe b1e5 6c3e f762 533e 2f9b 96be
000003b0: 9202 5dbf 68f0 22bf 23b6 e4be b0f8 fe3e
000003c0: f2d1 e43d c5c2 be3e bb42 30be 3249 03be
000003d0: 600c 15bf 9683 64bf 072c 26bf 0d98 1abf
000003e0: 8912 aabe a27b aebe c0c4 86bd 2742 c9bd
000003f0: cde4 1bbf 215b 2a3f 975f 24bf daee 89be
-0.29559192 -0.2941647 0.11388916 -0.37326723 -0.64933884 0.667846 0.17029643 -0.37605405
0.7815829 0.10508473 -0.46184182 -0.54342633 0.5368072 -0.2022393 0.47501653 -0.54483813
-0.45411468 0.61941457 0.54853034 -0.47415125 -0.66391075 -0.6075024 -0.26732066 1.323123
0.5498557 1.4551432 0.47274542 -0.7044506 -0.25052354 0.8429369 0.558615 -0.1936304
0.47036284 0.27564174 -0.13571434 -0.6133189 -0.42585233 -0.60177845 0.16784953 -0.36227018
-0.19424348 0.08162625 -0.4427408 -0.22189334 -0.994765 -0.6341479 -0.43965358 0.4193778
-0.005489616 0.21466722 -1.2116936 -0.057333756 -0.70435333 -0.6427684 -0.6743725 -0.6021237
-0.43590695 -0.62490124 -0.32663608 -0.29271564 -0.6067667 0.93320495 -0.64020425 -0.11361861
-0.5162344 -0.022934498 -0.5580258 -0.44187173 -0.20787612 -0.5344347 0.09064204 0.009826346
-0.69912314 -0.5334849 0.8323672 0.5503512 -0.5578861 -0.36613593 -0.42344195 -0.08222579
0.15126584 -0.26331997 -0.2027119 0.55266875 -0.22132218 0.41911927 0.043561816 -0.60192645
-0.49061996 -0.36746666 -0.2732129 0.4517806 -0.5350675 -0.32495 -0.46631745 -0.5629722
-0.8300997 -0.37674308 -0.23637435 -0.17701934 0.49420413 -0.21509309 -0.1468896 0.79414874
0.28021544 -0.509318 0.23640437 0.2096873 -0.13099137 -0.17732981 0.0462669 -0.68468654
-0.48039782 -0.31199816 0.22818702 -0.2497077 -0.15455382 -0.12504952 0.39468437 -0.21182467
0.10620335 0.46584645 0.6513898 0.162952 -0.17681351 0.24894762 -0.18900408 -0.06938329
0.18060629 0.091541804 -0.3138473 0.05143514 0.02999986 -0.04278945 -0.2137079 0.04724415
-0.06413944 0.14988664 -0.07920348 -0.23487851 0.12333216 0.014629361 0.30379015 -0.033617616
0.05060828 0.2162169 -0.2439441 -0.119164236 -0.0077164816 -0.14314103 0.03716829 0.2246226
0.25863925 0.03214991 -0.2481046 -0.15067995 -0.2485249 0.19610822 -0.20847784 0.01889293
-0.18317108 -0.19900225 0.10347284 0.055842143 0.008974001 -0.022545554 0.23048931 0.07497149
0.02747477 0.09739754 0.2399056 -0.02347521 0.10896511 0.014098035 -0.23660663 0.15425064
0.2090175 -0.21598046 -0.18358432 -0.15029386 -0.04992136 -0.09354881 0.1361435 0.0079561705
-0.20173797 -0.029691849 -0.001975794 0.060490895 -0.015432589 -0.043200426 0.022831686 0.111851476
-0.186836 -0.23472665 0.010968952 -0.38825285 -0.6516022 0.67701054 0.2562892 -0.32565415
0.9751473 0.050323997 0.4697298 -0.69966596 0.41338468 -0.32438248 0.49318868 -0.6449777
-0.500964 0.5173435 0.32959196 -0.33685887 -0.66570586 -0.18825088 -0.10398927 1.4099525
0.58202916 1.5136527 0.42451137 -0.06520877 -0.09202143 0.77095276 0.6612599 0.077512905
0.41656247 0.5073414 -0.089283235 -0.6155748 -0.20886311 -0.60371524 0.28317565 -0.25100154
-0.402184 0.23134495 0.20643221 -0.2941527 -0.86332047 -0.6364808 -0.4467021 0.49799109
0.111728564 0.37257972 -0.17212956 -0.1282089 -0.5822201 -0.89263284 -0.6491093 -0.6038826
-0.33217266 -0.340787 -0.06580496 -0.09827071 -0.60896 0.665453 -0.6420836 -0.26940042

rnn.bias_hh_l0 f4 [256]
00000000: a4bd 8ebe 200e c2be d37d 0dbd 02c8 bfbe
00000010: fa3a 26bf c04c 293f 2088 833e c7de c1be
00000020: eba1 343f 3fce fb3d 5477 bebe ecfe 2abf
00000030: d9cc ce3e 1dc9 9bbe 7214 013f 0588 0abf
00000040: 4a42 dfbe bc23 0e3f 2c5d f13e 246d 13bf
00000050: 18f6 29bf 9b5a 38bf 109d 43be 4835 9e3f
00000060: ce2b 1c3f bbd6 be3f b9a1 b53e 625a 33bf
00000070: a554 53be c421 6f3f 7f94 023f 2908 52be
00000080: 2476 e93e 02d2 683e 1564 ddbd 2bf6 1cbf
00000090: 8875 f4be 2f0e 1abf 0fad 853e 488c eabe
000000a0: e89e 7fbe 9092 32bd 8ccd 67be 0e8a fabd
000000b0: 7ac1 80bf 8457 22bf ac93 0abf 7082 c03e
000000c0: 5ab9 873d eb15 be3e e17c 9cbf 62d9 ffbd
000000d0: 5b70 21bf 7018 29bf fbd0 1fbf c824 1abf
000000e0: 51f5 03bf 7676 28bf 9815 43be 4c43 a3be
000000f0: 1055 1bbf 83d8 723f bae1 23bf bf21 dcbc
00000100: 5148 f4be ecfe 033e 16eb f5be 824a e4be
00000110: 7add 54be 15c5 00bf 726b 153e 87b6 eabc
00000120: fffa 26bf 4c87 fcbe 9c38 4e3f 5751 2c3f
00000130: 936c ebbe c4dc bdbe 48eb c3be a251 c4bd
00000140: 2e52 313e c655 89be c737 6dbe 5835 df3e
00000150: 48a2 62be 24e9 bd3e f9b4 373d 8977 30bf
00000160: a070 f3be a763 bebe dd0c 9ebe 0319 0d3f
00000170: 6b46 12bf 31f6 c6be 40c6 eebe 1e46 1cbf
00000180: f345 46bf 9616 91be dcde b3be 8f44 35be
00000190: 6133 143f 5d41 5cbe dc02 f5bc 990a 323f
000001a0: 1eae 7a3e a66d 07bf d105 5e3e 268d b83e
000001b0: 76fe 21be f295 35be dbd3 11bb f231 26bf
000001c0: edda 93be fe0e 6bbe c846 663e 3ca6 a9be
000001d0: b946 1fbe 4824 cbbc aa47 bb3e 91e8 58be
000001e0: 3f00 983d a8c5 f33e c55c 3b3f edd3 a63e
000001f0: 9a0e 35be fff9 983e 498a 41be 3305 58be
00000200: 0c6a 673d f04a 01be 5c98 02be e567 19bd
00000210: 4da6 9abc c923 55bb 03c3 4ebe 9a7b 5c3e
00000220: 701c 75be daff 223e 5d60 7d3d 6fff 8ebd
00000230: 69bf 343e 05a3 46be 5ac2 253e 6d2f 153d
00000240: 7227 36bc 8795 283e dbc9 24be d2d6 4f3c
00000250: fa09 6bbb 512d 48be 30f3 2dbc e0cf 5a3d
00000260: ae65 a53e 7854 8b3d 188e e0bd f521 40bd
00000270: 0eb1 32be 5135 6d3e 4f2c 15be 98b4 56be
00000280: 944f 75be a939 1bbe ffeb 1f3e 75ce 4abd
00000290: c37c 373d c13a c43c 94e7 1e3e 410b b33c
000002a0: fdad 9cbc 2126 8a3e 0e36 bd3d f603 07be
000002b0: 0293 863e 0b87 9fba 0192 2dbd 3cce 183e
000002c0: 1af9 983e 6f3b 3dbe 3919 a3bd f4a9 a2bd
000002d0: f8de 463d 1a49 a33d 2443 393d ffe0 16bc
000002e0: 61b3 b3bd 2d57 3cbc 5187 0f3d 0de0 6e3d
000002f0: c821 9f3c 65cb 323d b383 1fbd 023f 663e
00000300: b36f 94be ff8d cabe 2917 323d 167d bfbe
00000310: 76cf 26bf 1f0d 4a3f 503d 163e bb2b d0be
00000320: 4647 803f 464a 503b 3812 003f cb88 2dbf
00000330: 2b59 c43e 1dcd 90be 637d d73e 2a9a 31bf
00000340: b8cc 0bbf 44c4 1b3f 79d5 ad3e f679 e2be
00000350: c36b 2abf fc99 4ebe 169b 4fbe d4d6 af3f
00000360: 1107 1c3f d822 ab3f 6734 113f 72c9 10bd
00000370: c96f 0fbe 7e57 603f 4010 273f 1052 083e
00000380: c0c9 d03e 0647 f03e 092f 1ebe af92 1dbf
00000390: 91b4 84be 108d 1abf 9710 823e c506 24be
000003a0: 46bb 62be dec5 4e3e f1d6 f43d b789 38be
000003b0: 42cf 29bf 6af0 22bf 36fc f2be 5d34 e73e
000003c0: fb8c 803e 5163 9e3e 6aa2 90be d9d9 f33c
000003d0: 0a36 e7be 409d 66bf 69c0 1ebf 0398 1abf
000003e0: e85e bebe 4c7d b2be 0fa7 0fbd 79e5 ecbd
000003f0: cfe4 1bbf 3a5d 2c3f 0c60 24bf 99ee 7dbe
-0.2787906 -0.37901402 -0.034543823 -0.3745728 -0.6493374 0.66132736 0.25689793 -0.37865278
0.7055957 0.12295198 -0.37200415 -0.6679523 0.4039066 -0.30426875 0.5042182 -0.541138
-0.43605262 0.55523276 0.47141397 -0.5758841 -0.66391134 -0.7201325 -0.19102883 1.236001
0.6100434 1.490928 0.35474947 -0.7005979 -0.20637758 0.934109 0.5100784 -0.20510925
0.45597947 0.22736362 -0.10810105 -0.6131312 -0.4774592 -0.6017789 0.26108596 -0.4581015
-0.24962962 -0.043596804 -0.22637004 -0.12233363 -1.0059044 -0.6341479 -0.5413158 0.37599516
0.0662715 0.37126097 -1.222561 -0.12492634 -0.63062066 -0.66052914 -0.62428254 -0.60212374
-0.515462 -0.6580576 -0.19051206 -0.3188728 -0.6067667 0.9486162 -0.64016306 -0.02687156
-0.47711423 0.12890214 -0.4803092 -0.44588095 -0.20787612 -0.50300723 0.14591768 -0.028651489
-0.6522674 -0.49321973 0.8055513 0.67311615 -0.45981273 -0.37082493 -0.38265443 -0.09585883
0.17316505 -0.26823252 -0.23165809 0.43595386 -0.22132218 0.37091935 0.044850323 -0.68932396
-0.47546864 -0.37185404 -0.3086919 0.5511629 -0.571387 -0.38859704 -0.46635628 -0.6104449
-0.77450484 -0.28337544 -0.35130966 -0.17701934 0.578909 -0.21509309 -0.02990859 0.6954742
0.24480483 -0.52901685 0.21681906 0.36045188 -0.15819725 -0.17732981 -0.002225152 -0.6491996
-0.28877965 -0.22954938 0.22487938 -0.3313464 -0.15554322 -0.024797574 0.36578113 -0.21182467
0.07421922 0.47611737 0.7318843 0.32583562 -0.17681351 0.29878232 -0.18900408 -0.21095733
0.05649762 -0.12626243 -0.12753433 -0.037452597 -0.018878127 -0.003252255 -0.20191579 0.21531525
-0.2393663 0.15917912 0.061859477 -0.06982314 0.17651142 -0.19398125 0.1618742 0.036422182
-0.011117803 0.1646329 -0.16092627 0.0126854945 -0.00358641 -0.19548537 -0.010617062 0.0534209
0.32304138 0.068032205 -0.10964602 -0.046907384 -0.17450354 0.2316487 -0.14567684 -0.20967329
-0.23956138 -0.15158714 0.15617369 -0.0495133 0.044796716 0.023953797 0.15518028 0.021855952
-0.019125933 0.26982215 0.09238826 -0.13185105 0.26284033 -0.0012170983 -0.04237557 0.14922422
0.2987755 -0.18479703 -0.07963795 -0.07942572 0.048552483 0.079729274 0.045230046 -0.009208917
-0.08774448 -0.011495394 0.035041157 0.05831914 0.019425288 0.043651003 -0.038943958 0.22484973
-0.2899147 -0.3956146 0.04347912 -0.3740012 -0.6516031 0.7892627 0.14671826 -0.40658364
1.0021751 0.0031782552 0.500278 -0.67786855 0.3834928 -0.2828149 0.4208785 -0.6937586
-0.5460925 0.6084635 0.3395193 -0.44233674 -0.6657068 -0.20175928 -0.20274004 1.3737435
0.6094828 1.3370008 0.56720585 -0.035348363 -0.14007486 0.876335 0.6525917 0.13312554
0.40778923 0.46929187 -0.1544763 -0.61551946 -0.2591901 -0.60371494 0.25403282 -0.16018207
-0.22141752 0.20192668 0.11955059 -0.18021284 -0.66331875 -0.6364809 -0.47458047 0.45157138
0.2510756 0.30935147 -0.28248912 0.029766964 -0.45158416 -0.90083694 -0.62012345 -0.603882
-0.37181783 -0.3486122 -0.03507143 -0.11567206 -0.6089601 0.6732975 -0.64209056 -0.24798049

rnn.weight_ih_l1 f4 [256, 64]
00000000: 888c 41bd 594d 323d e978 0abe 1b2a 733e
00000010: 8a26 5e3c 8efb a3be 3989 413e 1fd0 853d
00000020: 62f7 993d 801a 24be 5351 343f d5c4 42be
00000030: 18f4 4d3e 699d 213d 56b4 16be 2782 943b
00000040: 978f 373a e346 1abe c32d d8be 397f 46bf
00000050: 4be6 00bc b62b c1be 835c f43e 8158 3fbe
00000060: 6e1d cabe eb36 8c3e 5335 82be 6751 23be
00000070: 5000 db3e ba9b 7dbe 5fb0 ca3d ba5a 88be
00000080: 0975 debd 5374 c13c cc9b 82bd e0ba 9aba
00000090: 2897 d93d 10a7 69bc 5e0b 1b3d 8243 2dbe
000000a0: 58eb 7ebe 2860 143b adfe 303e 7a08 04bf
000000b0: 5a7d e43c c302 053b f76c 94bd cf57 c1be
000000c0: 8192 06be b59d 373e 9adf 693c d269 83bd
000000d0: 6990 09bd 1c28 cc3c 4815 eebd 6ab1 32bc
000000e0: 3627 1ebd b4af 23be 710d 853f bdfb 23bf
000000f0: 2544 cd3b 3cb3 373f 5625 3f3b ae92 c23e
00000100: d08e 4b3c a211 293d ab17 2fbc aaf7 643c
00000110: 03f6 48ba a13f 8cbc d69f 6ebc 40fe abbb
00000120: b78b 83bc 3e46 f3ba 34db 583e d034 24bd
00000130: 3546 743c baa6 23bc 2f59 3b3c 0f8e 273b
00000140: 9775 d1bb cf00 353b 2479 03bd de12 2fbc
00000150: 1321 e539 fea3 093c b9bc c0bc 347d 6b3d
00000160: 17e1 8cbc 6205 fa3b f542 893c fda3 f7bd
00000170: e36f 5abc e1c8 84bc 28da e2bc 0e9e eeba
00000180: df5c 54bc 3760 e2bc 8cf4 533c e041 57ba
00000190: 6906 cf3c def5 34ba 95ce 823d ee46 04bd
000001a0: b414 e3bc 2b49 36bb fe40 f83d 1a7d 19bd
000001b0: 4174 d43c af0a 6cb9 779e 15bc 6120 ad3c
000001c0: 7837 003c 1110 fcb9 17e6 1abd 9377 5cbc
000001d0: 6d18 813c 9198 e53a 5ffb 033c 19f2 e2b9
000001e0: b35a cdbc e5b0 e3bc f00d c53b 42a0 7c3d
000001f0: e53a 06ba a57d 7b3e 424a 343a b170 553d
00000200: 5e6a 013b adf4 3d3c 0dc3 f0bb cb12 6f3b
00000210: 03ba 1ab9 834f d0bc d838 78bc 5de0 9b3b
00000220: 0029 29bc 7c28 483c 894c 6d3e f0c7 32bc
00000230: c150 373c aee5 50bb b153 a23c 0479 2e3b
00000240: 00f6 f2ba 79e0 2b3c 5914 77bd c995 9bbb
00000250: 47ca 2838 90b2 d63b e2f1 78bc f8d0 0b3d
00000260: ff96 a2bc 692c ebba 0f70 19bc abcf 05be
00000270: 674e 4fbc adb8 123c 8fba ffbc 431b 5e3c
00000280: da0c 0cbc 1e9d 17bd dff2 833a cc5c f6b8
00000290: 415c 433c 1f43 fdb8 4ecd a83d 1129 1fbd
000002a0: a0ab 6dbc a0c9 a43a d03f 123e 20c9 8abc
000002b0: a9a9 cd3b 62b6 37b8 13cc 413a f3a0 7b3c
000002c0: 1d13 28bc 077d 0bbc 01ca 87bc e55f f8ba
000002d0: d01f b53a ad52 333a ef56 ca3b 6a79 84b8
000002e0: d138 afbc 5a0d 9abc 665c af3c fa6a 593d
000002f0: cc2c 12b9 c32e 843e eb1d fc38 17db 863d
00000300: cc33 3d3c da8f 70bd 06ae 023e b582 19be
00000310: e522 c9ba d943 cbbe 2fa0 513e 7d3a f5bb
00000320: e1e8 9a3d 2c8d 893e e5f8 e83e fec5 dbbd
00000330: d706 ca3d adf3 143d a247 5fbe 4821 f83c
00000340: 89de 43bd 4662 883d 53c5 cfbe a4b7 523d
00000350: 2dd1 6a3b 7054 0d3c e845 673e 60cc 90be
00000360: 1978 31bf a531 69be 9230 59bf a96a 78be
00000370: 01e3 063f 35f5 bbbd f328 b7be 6afc 243e
00000380: df8c eb3e 21c7 1ebe 3250 2a3d 1944 0cbc
00000390: d60a 723e afbc 31bb 5421 a93e fe5d 5ebe
000003a0: e200 bcbd f903 c3bd e132 8e3e b8a2 cabe
000003b0: 52e4 f93c 10e1 33bc 3686 42be a004 9f3c
000003c0: 6a34 7d3d 03a4 45be 4144 5cbd c6f1 83bd
000003d0: 4402 1bbc 5a84 c43c 5d0d 53bc 5dde e13b
000003e0: 4989 f4bd f80e 5fbd 4008 d23d 5d19 44bd
000003f0: 0e0d f6bb 3d53 823f 7fb3 223c d978 f83d
-0.04725316 0.043530796 -0.13522686 0.2374653 0.013558993 -0.32027858 0.18900003 0.065338366
0.07517888 -0.16025734 0.7043659 -0.19020398 0.20112646 0.03945676 -0.1471723 0.004532117
0.00070022926 -0.15066104 -0.42222413 -0.77537876 -0.007867406 -0.3772866 0.4772683 -0.18686105
-0.39475578 0.2738565 -0.25431308 -0.15949021 0.42773676 -0.24766436 0.09896921 -0.2663172
-0.108621664 0.023615038 -0.06377372 -0.0011804961 0.10624534 -0.014261022 0.037852637 -0.16920283
-0.24894464 0.0022640321 0.17284651 -0.51575434 0.027891804 0.0020295836 -0.07247346 -0.37762305
-0.13141824 0.17931254 0.014274502 -0.06416668 -0.033584986 0.02492147 -0.11625153 -0.010906557
-0.038611613 -0.15984994 1.0394727 -0.64056 0.006264227 0.71757865 0.002916654 0.38002533
0.012424186 0.04127658 -0.010686795 0.013975063 -0.0007666053 -0.017120184 -0.014564475 -0.005248815
-0.016057832 -0.0018560363 0.2117737 -0.04008943 0.014909317 -0.009988481 0.011434837 0.0025566851
-0.0063921916 0.002761889 -0.03209795 -0.010685651 0.00043702926 0.008400915 -0.02352749 0.05749245
-0.017197175 0.007630036 0.01675556 -0.12091825 -0.01333234 -0.016209068 -0.027691916 -0.0018205063
-0.012961595 -0.02763377 0.0129367225 -0.0008211415 0.025271611 -0.0006903092 0.06387059 -0.032294206
-0.027719833 -0.0027814608 0.12121771 -0.03747282 0.02593434 -0.00022510694 -0.009132019 0.021133604
0.007825725 -0.00048077156 -0.037817087 -0.013456243 0.015758717 0.0017516782 0.008055537 -0.00043286456
-0.025067663 -0.02779431 0.0060136244 0.06167627 -0.00051204703 0.24559648 0.00068775204 0.052109424
0.0019747238 0.01159398 -0.0073474706 0.0036479707 -0.00014755879 -0.02542854 -0.015150271 0.004756971
-0.010324717 0.0122166835 0.23173727 -0.010911927 0.011188687 -0.003187518 0.019815298 0.0026622424
-0.0018536448 0.01049053 -0.06032214 -0.0047480804 4.0242707e-05 0.006552048 -0.015194388 0.034134835
-0.019847391 -0.0017942312 -0.009365096 -0.130675 -0.01265297 0.008955163 -0.031216888 0.013556304
-0.008547986 -0.037015073 0.0010066888 -0.00011747479 0.0119238505 -0.000120764824 0.08242284 -0.038857523
-0.014506251 0.0012572296 0.14282155 -0.016941607 0.0062763286 -4.3800457e-05 0.0007392775 0.0153581975
-0.010258463 -0.008513696 -0.016575815 -0.0018949477 0.0013818685 0.0006840628 0.006174914 -6.3168656e-05
-0.021389397 -0.018805195 0.021406364 0.053080536 -0.00013940333 0.25816926 0.00012021869 0.06584757
0.011547994 -0.058730938 0.12761697 -0.14991267 -0.0015345482 -0.397002 0.20471261 -0.007483779
0.075639494 0.26865518 0.4550239 -0.107311234 0.09864586 0.0363652 -0.2180467 0.030289307
-0.047819648 0.06659369 -0.40580234 0.051444665 0.0035830245 0.0086260885 0.22585261 -0.28280926
-0.6932388 -0.22772844 -0.8483974 -0.24259438 0.5269013 -0.09177629 -0.3577343 0.16111913
0.46005914 -0.15505649 0.041580386 -0.008561158 0.23636946 -0.002712052 0.3303324 -0.21715543
-0.09179856 -0.09522242 0.27773193 -0.3957727 0.03050438 -0.010978952 -0.1899651 0.019411385
0.061817564 -0.19300847 -0.05377603 -0.06442599 -0.009460989 0.023988891 -0.012881604 0.006892963
-0.119402476 -0.054457635 0.1025548 -0.04787575 -0.0075088805 1.0181652 0.0099304905 0.12132425

rnn.weight_hh_l1 f4 [256, 64]
00000000: edef d2be 8d75 bfbb 2fc9 2dbc 3836 48bf
00000010: 9f4b 7dbb bdaf 423b 45d2 d53b f552 be3e
00000020: 83a7 41bd 1eda c5be 7418 3abb 358d fdbc
00000030: 27a1 753e 5ff7 60bc 1da1 8cbd 5df7 19bc
00000040: 233b d9bb bff4 18bc dcc0 883e 9fd6 eabb
00000050: de27 00bf a109 883b 68ec 5cbc db9e 303b
00000060: 7571 343f a943 74bb 81d3 393a 7d9e df3b
00000070: db2a 09be 1063 4a3c af52 463c 4e43 cd3e
00000080: 5ada afbc acc7 f5bb 80b4 193f 672b 093c
00000090: 749d 97ba d799 6c3c 9e1e 803e 4928 cc3d
000000a0: 7500 c8ba 2162 d63b 15be 67bc 477e 4b3c
000000b0: 0cd1 4dbc 8a5d 163e f201 d4be d117 a3bd
000000c0: ab10 36ba d919 4dbc 67b2 ee3b dec7 e93d
000000d0: 38fe 753b b626 da3e 98e3 a9bd ba40 4b3f
000000e0: b1d9 72bc 67e8 7cbf fbc7 13bf 523b 413c
000000f0: 714f c2bb c2e3 08bf 7810 d43d 9cce d73b
00000100: bd30 e43c a932 23ba 22b9 9b39 053d aeba
00000110: ed48 a0bc 465f 8438 210d 80b9 6538 c4bc
00000120: 0c21 c7bb 8992 9c3c 69b7 0e39 f2e9 e738
00000130: f8a0 3fbd bd6f 7aba 75fa a8ba c502 ea39
00000140: d469 b5b9 510a 07ba 2db1 f5ba e103 ecb8
00000150: 97a2 79bc b862 283a c69d 88ba 99dd 8aba
00000160: b41a 1f3e 6efe 15ba 11b7 7f39 8b38 2e3a
00000170: e203 f0bc c6dc a439 dbf7 1b3a 61a0 ccba
00000180: 86ef b038 cc8c a739 2f04 b13a 3ed8 b83a
00000190: 4bed 9139 d873 0d3a 587b edbc 4bcd 113c
000001a0: 831d e3b7 f8e2 1f3a 8dbd 1fb9 f7ea 31b8
000001b0: 711e bd38 b991 45bc af2b 223d 26ea 863c
000001c0: cef9 d2b9 620e 9d38 a8da aa3a 00e9 1abc
000001d0: 8bf7 33ba e53f 163c 23a6 03bc 2d86 5e3e
000001e0: 4f04 2cba 69cc 73bd 5028 22bc d10c b239
000001f0: cae5 6239 95fe ab3c dbf2 b2bb 0802 2cb8
00000200: 5ede ca3c cbbe 14b9 ab1e 01b9 c46a 2f3a
00000210: 7900 beba 944c 5eb7 c23c 6eb8 482a 02bc
00000220: cbdf 0c3a a96c 76ba 5da8 6637 38fd 3638
00000230: 0a7a 77bc 89eb d5b7 e23b 35bb 8a2a 5c38
00000240: 98fe 7e36 cdbe 68b8 47b9 273b 2d49 8eb7
00000250: 69a5 d1ba ef48 0a39 8ab5 4fb8 e5bd cdb5
00000260: 0d00 383e eb01 a1b8 4a40 ee38 2861 5038
00000270: e948 c0bc 8905 a837 7d23 d938 2698 a6ba
00000280: c64a 0bb9 cb30 c738 aeaf 81b9 eb7a 74b8
00000290: b725 8837 68b6 2039 4cf0 9bbc f8bc 5d3b
000002a0: f439 8138 d6c8 89b8 e89c 98b7 1440 4b39
000002b0: 3b07 6fb8 f6f1 81bc ca11 033d 54b3 8e3b
000002c0: db42 0db8 389b 4938 0f4a c836 5de5 d8bb
000002d0: 3b1c 5ab8 a743 323a e7b9 1bbc a8c8 703e
000002e0: 0040 4cb8 0b17 afbd dbf0 043a b514 0e38
000002f0: a40e 97b7 f92d b53b 8d45 23bb d249 2637
00000300: 01df 3d3e f84f 1f38 b075 a03b b98b e73d
00000310: 70ec 113c 31a7 85ba ba0f 40bc e2d2 eb3e
00000320: 2a09 9ebb 6c9b debe f0fc a9bb f53f 62bb
00000330: 5bbf 463f e411 393c 87d3 07bc 6991 943b
00000340: d8e7 b53a 5f70 4a3b 9f7e 31bd 075c d8ba
00000350: 5f95 23bd b445 56bb 3e94 e03b 7bb2 00bc
00000360: d622 503f 081f 6fb9 c46c 9cbb 5293 60bb
00000370: 9f80 c9bc c02e aabb f168 3fbc ae0a 34bc
00000380: f0a3 143c ad95 953a ef04 61bd 435c 08bb
00000390: debd 5a3b 8808 40ba eba2 f3bd 5de0 6d3d
000003a0: 491a d33b 0299 39bb 0f26 553c ee1d 28bc
000003b0: fa94 5e3c 9465 17bf 920c e8bd bde4 cdbe
000003c0: 8bf6 90ba 08ec 883b 79b2 eb3a 950d a9bd
000003d0: 87a8 bbba fa2b 31be 34b0 b53d 58dc 8a3f
000003e0: aa62 d5bb e506 a0be 1110 b53c 3622 4a3a
000003f0: b6ac 47bc bbc2 debe eeb2 16bc 27cb 183c
-0.41198674 -0.0058428706 -0.010607048 -0.7820773 -0.003864981 0.00297068 0.00652531 0.37172666
-0.047278892 -0.38642973 -0.0028395923 -0.030951122 0.23987256 -0.013730853 -0.068666674 -0.009397355
-0.006629364 -0.009335696 0.2670964 -0.007166698 -0.5006083 0.0041515385 -0.013484098 0.0026950154
0.7048562 -0.0037271774 0.00070887065 0.006824313 -0.13395254 0.01235272 0.012104674 0.40090412
-0.021466423 -0.0075006094 0.60041046 0.008372164 -0.001156731 0.014440975 0.2502336 0.09968621
-0.0015258925 0.0065424596 -0.01414444 0.012420244 -0.012562048 0.1468412 -0.41407734 -0.07963527
-0.0006945233 -0.01251837 0.007284451 0.11415075 0.003753556 0.4260766 -0.08295363 0.7939564
-0.0148224095 -0.9879212 -0.5772702 0.011793928 -0.0059298803 -0.5347253 0.10354704 0.006585909
0.027855271 -0.00062255055 0.00029701839 -0.0013293332 -0.019566024 6.3119965e-05 -0.00024423844 -0.023952672
-0.0060769375 0.019112842 0.00013610501 0.00011058514 -0.04678437 -0.00095533935 -0.0012892025 0.00044634021
-0.00034601858 -0.00051513786 -0.0018744819 -0.000112540794 -0.015236518 0.00064234016 -0.0010422997 -0.0010594606
0.1553753 -0.0005721812 0.00024386893 0.0006645999 -0.029298726 0.00031445007 0.0005949714 -0.0015611761
8.436949e-05 0.00031957624 0.0013505275 0.0014102531 0.00027833352 0.0005395985 -0.028989479 0.008899043
-2.7074251e-05 0.00060991896 -0.00015234035 -4.2418917e-05 9.0178924e-05 -0.012058669 0.03959244 0.016469073
-0.0004024044 7.4890224e-05 0.0013035135 -0.009454966 -0.0006865195 0.009170507 -0.008035216 0.21730871
-0.00065619213 -0.059521113 -0.009897307 0.00033960355 0.00021638643 0.020995418 -0.0054610795 -4.1009887e-05
0.024764236 -0.00014185456 -0.00012313823 0.00066916295 -0.001449599 -1.3250061e-05 -5.6800207e-05 -0.007944651
0.0005373924 -0.0009400347 1.3748268e-05 4.362801e-05 -0.01510478 -2.5501258e-05 -0.00276541 5.2491705e-05
3.7997142e-06 -5.5490807e-05 0.0025592612 -1.6961794e-05 -0.0015994731 0.00013187875 -4.9521717e-05 -1.5328957e-06
0.1796877 -7.6774355e-05 0.00011360699 4.968155e-05 -0.023472266 2.0029738e-05 0.000103539765 -0.0012710139
-0.00013283928 9.498148e-05 -0.0002473569 -5.828861e-05 1.6230026e-05 0.0001532674 -0.01903548 0.0033834558
6.161994e-05 -6.570078e-05 -1.8192877e-05 0.0001938346 -5.6988774e-05 -0.015862446 0.031999387 0.0043548737
-3.3679284e-05 4.8066693e-05 5.969086e-06 -0.006619139 -5.2001542e-05 0.0006800242 -0.009504772 0.23514044
-4.8696995e-05 -0.08549317 0.00050712907 3.3874723e-05 -1.800742e-05 0.005529162 -0.0024913282 9.911559e-06
0.185421 3.798303e-05 0.004896842 0.11305947 0.008906469 -0.0010196922 -0.0117224995 0.46059328
-0.00482287 -0.43477952 -0.005187623 -0.0034522985 0.77635735 0.011295769 -0.008290178 0.004533936
0.0013878299 0.0030889732 -0.043333646 -0.0016506918 -0.039937373 -0.0032695355 0.0068536093 -0.007855053
0.81303155 -0.00022804376 -0.004773708 -0.0034267497 -0.024597464 -0.0051935613 -0.011682735 -0.010988874
0.009072289 0.0011412405 -0.054936346 -0.0020806945 0.003337733 -0.000732549 -0.118963085 0.058075298
0.0064423424 -0.002831996 0.013009562 -0.010261042 0.0135853235 -0.5913937 -0.113305226 -0.40213576
-0.0011059804 0.0041785277 0.0017982266 -0.08254544 -0.0014317193 -0.17301932 0.08871499 1.0848494
-0.006512006 -0.3125526 0.022102388 0.00077107863 -0.012187174 -0.43507943 -0.009197934 0.009325779

rnn.bias_ih_l1 f4 [256]
00000000: ec4e 6dbf 7606 1cbf 5ee4 1abf 7f75 25bf
00000010: bd50 64bf c51d 17bf 59de 1ebf f9cb 0c3e
00000020: 266e ebbe 7e7a 21bd cebc 1abf 577a 1dbf
00000030: 0d8c b73e 4ab1 21bf 1f32 16bf d5c1 17bf
00000040: 212b 16bf e4f9 1ebf 4e1f 31bf 02e6 26bf
00000050: da20 82be 9399 1abf 9637 1dbf ec8d 1dbf
00000060: 2488 853e 3119 1abf 6bc9 18bf 483f 20bf
00000070: 6e70 eabe 01b4 24bf c4b6 1abf 63db 04bf
00000080: 76d6 25bf b3ae 19bf be32 17bf 5a6c 1fbf
00000090: d3ee 1fbf aaf8 13bf 450f 1fbf 88f9 8bbe
000000a0: 5594 10bf 076d 1dbf d9f5 25bf 369d 1ebf
000000b0: cf38 23bf 9150 37be 1575 03bf b82c 49be
000000c0: cac9 1dbf 4b65 1abf f4bb 1dbf 4ba7 68bf
000000d0: 19fc 23bf fdc4 fabe de0d 84be c703 053f
000000e0: ccc2 1ebf d651 563e 9275 d8be 06b6 1cbf
000000f0: 4ff4 23bf 0f2c b8be ca24 53bf 1207 14bf
00000100: 8414 943e 0c73 69be e09c 72be fe20 c6be
00000110: f570 a5be 2dc1 69be 2297 6dbe bb68 84bf
00000120: 0738 8dbe b171 1dbf 1995 63be 3b04 7bbe
00000130: 1ecc 08bf 72fd 88be 0a67 17bf 6fce 5cbe
00000140: e5ce 5dbe 1e4d 84be 199d bdbd 2386 80be
00000150: 397c fcbe de78 60be e568 81be 56d8 72be
00000160: e914 8fbe 643f 67be eb08 59be b0d2 6fbe
00000170: f912 b2be 3b91 83be 91ee 70be d6a2 9e3d
00000180: c105 82be 0cce 5fbe 3d55 0ebf fee1 7dbe
00000190: a812 73be 2c7b 50be 2a40 103f 8bb4 74bf
000001a0: 4d7d 4abe 53f1 75be 3fe4 84be 819c 77be
000001b0: 15a4 83be 0fbf 59bf 2179 483e a5f8 3fbf
000001c0: a04c 63be 79f2 57be c3ce 79be ed24 f7be
000001d0: 1cad 7abe ecbb af3c f354 543e c003 033c
000001e0: a8ed 72be 13c7 c7bd 3a70 2abe 9734 66be
000001f0: bb46 80be b11e 42bf 3a80 c3bd 8640 5abe
00000200: f17d da3b e62c 233d dac8 8bbc a28a 8b3d
00000210: 9cde 853d 7148 e33c ebfd 2e3d 2cab 323c
00000220: 9a6c f5bb 9945 903d 9c18 9bbc c642 453d
00000230: 1c4a c3bb 5adb e73c 8966 d43d d9c1 66bc
00000240: 8324 d33b cc70 81bd 995b 2bbd e4b8 04bc
00000250: 0616 3cbe e5e3 d1bc 7e29 9e3a ecd2 0bbd
00000260: f857 ca3b 3410 71bd 66e8 5e3c 4f19 91b9
00000270: 4b8e aa3c 06e5 1ebc f1a8 38bd aa9d 04be
00000280: 8acc e13c 2890 cf3c 7460 d0bd d9d4 70bc
00000290: f745 c33a 7d48 74bd dca4 b43d c2f2 9d3c
000002a0: d5a3 a43b b31e 623c a102 aabb 1c78 7e3c
000002b0: e0de 97bd e8ce 24be f81e 06be 267f 70be
000002c0: ed3d 7f3d 8c73 22bb 49d6 363d 9c26 a0bd
000002d0: f853 90bd 869e 1bbd 86b5 223d d9e1 21bf
000002e0: fc57 4fbd 1895 24bd a814 833d baec 7a3d
000002f0: 3ab6 b7ba 7514 253e f907 443e 236a 9b3c
00000300: 533c e7be b25d 1cbf 1f41 1bbf bad2 0bbf
00000310: 27fb 4dbf 7f60 17bf bb32 1fbf f5d2 4fbd
00000320: 6b27 e8be 8637 e9be c931 1bbf 9bd7 1dbf
00000330: 4c1b 82bc 1611 22bf 92be 36bf 6d1b 18bf
00000340: 2786 16bf 7e60 1fbf f0c3 f5be 1748 27bf
00000350: 12c1 46be f201 1bbf cc94 1dbf 71f3 1dbf
00000360: 3332 aa3e 5b88 1abf ae2f 19bf 30ab 20bf
00000370: 4f1d 0dbf b909 25bf e818 1bbf c619 e3be
00000380: 142e 26bf 7720 1abf 68d1 26bf 3cc8 1fbf
00000390: b14f 20bf 6565 14bf be8a 84bd 5313 06bf
000003a0: c6f3 10bf 08b0 1dbf d161 26bf 74f7 1ebf
000003b0: f5a2 23bf 0b0b fdbe 592b 0cbe 43f1 acbe
000003c0: 8440 1ebf c6c6 1abf bc27 1ebf 0ebd 4dbf
000003d0: f36e 24bf b08c eabe 5ac5 fbbe 5530 1b3e
000003e0: 2b20 1fbf c19d 013e 3fb9 b8be cf10 1dbf
000003f0: fa5c 24bf 13a4 dfbe 9823 34bf 2a6d 14bf
-0.9269855 -0.6094736 -0.6050471 -0.6463241 -0.89185697 -0.590298 -0.62058026 0.13749684
-0.45982474 -0.03942346 -0.60444343 -0.615148 0.35849038 -0.63161147 -0.5867023 -0.5928014
-0.5865956 -0.6210005 -0.6918839 -0.65194714 -0.2541569 -0.60390586 -0.6141294 -0.6154468
0.2608043 -0.6019469 -0.5968234 -0.6259656 -0.45788902 -0.64337164 -0.6043513 -0.5189726
-0.64780366 -0.60032195 -0.590618 -0.62274706 -0.6247379 -0.57801306 -0.62132674 -0.27338815
-0.56476337 -0.6149449 -0.6482826 -0.61958635 -0.6375856 -0.17901827 -0.5135053 -0.19645965
-0.6163603 -0.6031081 -0.6161492 -0.9088027 -0.64056545 -0.48978415 -0.2579183 0.5195889
-0.62015986 0.20929655 -0.422772 -0.61215246 -0.6404466 -0.35971114 -0.8247801 -0.5782329
0.28921902 -0.22797793 -0.23692656 -0.38697046 -0.32312742 -0.22827597 -0.23202184 -1.0344461
-0.27581808 -0.61501604 -0.22224845 -0.24513333 -0.5343646 -0.26755863 -0.591416 -0.21563123
-0.21660955 -0.25840086 -0.092584796 -0.25102338 -0.49313524 -0.21921107 -0.2527534 -0.23715338
-0.2794564 -0.22582775 -0.21194808 -0.23420215 -0.347801 -0.2569674 -0.23528506 0.07745902
-0.25395015 -0.21855944 -0.55598813 -0.2479324 -0.23737586 -0.20359486 0.56347907 -0.95587987
-0.19774361 -0.24017839 -0.25955388 -0.24180795 -0.25711122 -0.8505716 0.19577457 -0.74988776
-0.22197199 -0.2108859 -0.2439528 -0.4827036 -0.24480098 0.021451913 0.2073553 0.0079965
-0.23723471 -0.09754767 -0.16644374 -0.22480999 -0.25053963 -0.7582808 -0.09545942 -0.21313676
0.0066678454 0.03983774 -0.017063547 0.068135515 0.065366 0.027744504 0.042722624 0.010905068
-0.007489753 0.07044525 -0.018932633 0.048159383 -0.0059597623 0.028302837 0.103711195 -0.014084303
0.0064435615 -0.063203424 -0.0418354 -0.008100722 -0.18367776 -0.025621364 0.0012066809 -0.034136698
0.0061750375 -0.058853343 0.013605213 -0.00027675412 0.020819804 -0.009698158 -0.04508299 -0.12950769
0.027563352 0.025337294 -0.10174647 -0.014699184 0.001489817 -0.059639443 0.08820507 0.019280795
0.005024413 0.013801265 -0.0051883017 0.015531566 -0.07415557 -0.16094553 -0.13097751 -0.23486003
0.062314916 -0.002478811 0.044637952 -0.07819864 -0.07047266 -0.037992977 0.039723895 -0.6323524
-0.050621018 -0.04018125 0.06400424 0.061260916 -0.00140161 0.16121085 0.19143666 0.018971508
-0.4516321 -0.6108047 -0.6064624 -0.5461842 -0.80461353 -0.59131616 -0.62186784 -0.050738294
-0.45342574 -0.45550174 -0.6062284 -0.6165711 -0.015882157 -0.6330732 -0.7138454 -0.5941685
-0.5879845 -0.6225661 -0.4800105 -0.65344375 -0.19409588 -0.60549843 -0.6155517 -0.6169959
0.33241424 -0.6036431 -0.5983838 -0.6276121 -0.55122846 -0.6446796 -0.6058488 -0.443556
-0.6491406 -0.6020579 -0.6516328 -0.6241491 -0.626216 -0.57967216 -0.064717755 -0.52373236
-0.5662197 -0.6159673 -0.64993006 -0.62096334 -0.6392053 -0.49422488 -0.13688411 -0.33777818
-0.61817193 -0.60459554 -0.6177938 -0.803666 -0.64231795 -0.4581046 -0.49174005 0.15155156
-0.6215846 0.12657835 -0.36078832 -0.6135377 -0.6420437 -0.43679866 -0.7036681 -0.5797907

rnn.bias_hh_l1 f4 [256]
00000000: f7ee 4fbf 7606 1cbf 5ee4 1abf 213c 04bf
00000010: 6a07 53bf c51d 17bf d1dd 1ebf 539d 833d
00000020: 6335 13bf 5204 5a3d cebc 1abf 577a 1dbf
00000030: b2dd 5b3e 4ab1 21bf 1c38 03bf 07c6 17bf
00000040: 212b 16bf e4f9 1ebf 2f0a 24bf 02e6 26bf
00000050: c570 efbd 9399 1abf 9637 1dbf ec8d 1dbf
00000060: 764f 353e 3119 1abf 6bc9 18bf 483f 20bf
00000070: 2a1c ccbe 01b4 24bf c4b6 1abf 4fec c6be
00000080: 76d6 25bf b3ae 19bf d691 30bf 596c 1fbf
00000090: d3ee 1fbf aaf8 13bf 3d95 10bf 3a37 aabe
000000a0: 5594 10bf 076d 1dbf d9f5 25bf 369d 1ebf
000000b0: cf38 23bf fe63 aebe 2fc9 14bf a882 1cbe
000000c0: cac9 1dbf 4b65 1abf f8bc 1dbf c8d0 4ebf
000000d0: 19fc 23bf f833 1ebf 0bf5 84be eb3c ec3e
000000e0: ccc2 1ebf 2473 383e 1c5d c5be 05b6 1cbf
000000f0: 54f4 23bf 9040 d8be 5e48 2dbf 1207 14bf
00000100: ebf9 043e 0c73 69be e09c 72be 2d7c c5be
00000110: 1619 b2be 2dc1 69be 2297 6dbe 5148 6abf
00000120: c144 93be 643c 1dbf 1995 63be 3b04 7bbe
00000130: 682e 16bf 72fd 88be 522f 1dbf 6fce 5cbe
00000140: e5ce 5dbe 1e4d 84be 7700 2ebd 2386 80be
00000150: c9b9 bfbe de78 60be e568 81be 56d8 72be
00000160: b40c 79be 643f 67be eb08 59be b0d2 6fbe
00000170: 605a b1be 3b91 83be 91ee 70be 01e3 e33d
00000180: c105 82be 0cce 5fbe 3923 10bf fee1 7dbe
00000190: a812 73be 2c7b 50be ed1b 0a3f ac53 82bf
000001a0: 4d7d 4abe 53f1 75be 3fe4 84be 819c 77be
000001b0: 15a4 83be d08b 45bf f464 303e 2352 3cbf
000001c0: a04c 63be 79f2 57be c3ce 79be 0082 06bf
000001d0: 1cad 7abe 31cf e0bc 5e22 4b3e 75ea eb3c
000001e0: a8ed 72be 2c4a 5ebd 3a63 3abe 9734 66be
000001f0: bb46 80be 8767 3cbf 9802 42bd 8640 5abe
00000200: 0ac3 143d 9a94 0ebd fbe6 873c 1338 45bd
00000210: 6f40 803d 4d99 a9bc 863f 30bd 2520 0f3e
00000220: 34e4 60bc b732 5a3d 0d06 b73c 17ca 6abd
00000230: 018f 0f3c 746f f5bc d8c3 4e3c dec2 d43c
00000240: f763 4938 11e0 793d 15f2 80be b89f 363b
00000250: ea33 aabd 763e 1b3d 2484 a4bb 3d95 c63c
00000260: 1032 4c3e 4da8 4c3d 3ae0 5cbc 7021 d7bb
00000270: 7764 e3bd 27b9 5b3c 7a47 1d3d 1b48 0b3d
00000280: 701d d2bc d94f dfbc 340f 95be d72a 1e3d
00000290: 1212 3939 79d3 353d f436 ee3d 756a 16be
000002a0: 00de a63b 8302 d8bb 04bf 883c 7f2a c6bc
000002b0: 454b 8a3d b26a 7fbe b4f4 263d df57 ccbd
000002c0: 7591 5abd 15e6 9639 3170 acbc 3590 b7bd
000002d0: 175d 3b3d 4127 0cbd 0401 c43d 8230 f3be
000002e0: fe72 6a3d 174c bc3b a752 8bbd cf9a 2dbd
000002f0: 6afe 833c d285 8b3e d7cb a73d 322f afbc
00000300: f916 0ebf b35d 1cbf 1f41 1bbf 2029 febe
00000310: d548 57bf 7f60 17bf 7532 1fbf c391 07be
00000320: e53e f2be f39b 86be c931 1bbf 9bd7 1dbf
00000330: 5179 bfbc 1611 22bf 011d 2dbf f124 18bf
00000340: 2786 16bf 7e60 1fbf 3f58 02bf 1748 27bf
00000350: 2a90 21be f201 1bbf cc94 1dbf 71f3 1dbf
00000360: ecfb 8c3e 5b88 1abf ae2f 19bf 30ab 20bf
00000370: 9056 3ebf b909 25bf e818 1bbf 9f23 03bf
00000380: 142e 26bf 7720 1abf 95cb 31bf 3dc8 1fbf
00000390: b14f 20bf 6565 14bf 8a5d 82be 9362 a7be
000003a0: c6f3 10bf 08b0 1dbf d161 26bf 74f7 1ebf
000003b0: f5a2 23bf 9e4f 07bf c837 49be f6e8 67be
000003c0: 8440 1ebf c6c6 1abf 4029 1ebf 47c6 3abf
000003d0: f36e 24bf 26ac debe 6856 0cbf 988a df3d
000003e0: 2b20 1fbf 346a c83d 03cc 00bf d710 1dbf
000003f0: fe5c 24bf 993a bcbe e031 40bf 2a6d 14bf
-0.81224006 -0.6094736 -0.6050471 -0.5165425 -0.8243319 -0.590298 -0.62057215 0.064264916
-0.57503337 0.053226776 -0.60444343 -0.615148 0.21471289 -0.63161147 -0.5125749 -0.5928654
-0.5865956 -0.6210005 -0.6407804 -0.65194714 -0.11691431 -0.60390586 -0.6141294 -0.6154468
0.17706093 -0.6019469 -0.5968234 -0.6259656 -0.39865237 -0.64337164 -0.6043513 -0.38852164
-0.64780366 -0.60032195 -0.6897253 -0.622747 -0.6247379 -0.57801306 -0.5647772 -0.3324526
-0.56476337 -0.6149449 -0.6482826 -0.61958635 -0.6375856 -0.34060663 -0.5811948 -0.15284216
-0.6163603 -0.6031081 -0.6161647 -0.80787325 -0.64056545 -0.6179805 -0.25968203 0.46140227
-0.62015986 0.18012673 -0.385476 -0.6121524 -0.6404469 -0.42236757 -0.6768855 -0.5782329
0.12985961 -0.22797793 -0.23692656 -0.385713 -0.34784764 -0.22827597 -0.23202184 -0.91516596
-0.28763393 -0.61420274 -0.22224845 -0.24513333 -0.5866456 -0.26755863 -0.6140033 -0.21563123
-0.21660955 -0.25840086 -0.042480912 -0.25102338 -0.3744643 -0.21921107 -0.2527534 -0.23715338
-0.24321252 -0.22582775 -0.21194808 -0.23420215 -0.34639263 -0.2569674 -0.23528506 0.11127282
-0.25395015 -0.21855944 -0.56303746 -0.2479324 -0.23737586 -0.20359486 0.5394886 -1.0181785
-0.19774361 -0.24017839 -0.25955388 -0.24180795 -0.25711122 -0.7716646 0.1722601 -0.7356283
-0.22197199 -0.2108859 -0.2439528 -0.52542114 -0.24480098 -0.027442547 0.19837329 0.028798321
-0.23723471 -0.054269955 -0.18201914 -0.22480999 -0.25053963 -0.7359547 -0.047365755 -0.21313676
0.036318816 -0.034809686 0.016589632 -0.04814918 0.0626229 -0.020702982 -0.04302933 0.13977106
-0.013726283 0.05327102 0.022341752 -0.057321634 0.008762122 -0.029960372 0.012619935 0.025971826
4.8015234e-05 0.061004702 -0.25184694 0.0027866196 -0.08310683 0.037901364 -0.005020635 0.024241084
0.19940972 0.04996519 -0.013481194 -0.0065652654 -0.111031465 0.013410843 0.038398243 0.034004312
-0.025648803 -0.027259754 -0.29113162 0.038615074 0.00017649707 0.04439113 0.11631575 -0.14689048
0.0050923824 -0.0065920963 0.016692646 -0.024190186 0.06752638 -0.24943045 0.04076071 -0.099776976
-0.053361375 0.00028781654 -0.02104959 -0.08963052 0.045743074 -0.034217123 0.09570506 -0.47497946
0.05723857 0.0057463753 -0.06802874 -0.042383965 0.016112525 0.27250534 0.08193176 -0.02138481
-0.55503803 -0.61080474 -0.6064624 -0.4964075 -0.8409551 -0.59131616 -0.62186366 -0.13239197
-0.4731361 -0.26290855 -0.6062284 -0.6165711 -0.023373278 -0.6330732 -0.6762238 -0.5943137
-0.5879845 -0.6225661 -0.509159 -0.65344375 -0.1577765 -0.60549843 -0.6155517 -0.6169959
0.2753595 -0.6036431 -0.5983838 -0.6276121 -0.74350834 -0.6446796 -0.6058488 -0.5122623
-0.6491406 -0.6020579 -0.69451267 -0.62414914 -0.626216 -0.57967216 -0.2546199 -0.32692394
-0.5662197 -0.6159673 -0.64993006 -0.62096334 -0.6392053 -0.5285586 -0.19650185 -0.22647461
-0.61817193 -0.60459554 -0.6178169 -0.729588 -0.64231795 -0.43490714 -0.54819345 0.109151065
-0.6215846 0.09785882 -0.503113 -0.6135382 -0.64204395 -0.36763456 -0.75076103 -0.5797907
