checkpoints/TP_LSTM_L2_bs16_train0baseline_bsfirst_pos0_downsp/TP_LSTM_L2_bs16_epoch121_best0.4973170349472447.pt (torch, 206215 bytes, 9 tensors)

rnn.weight_ih_l0 f4 [256, 3]
00000000: 07ca 103f cd29 0d00 44fc 233e fcf8 da3d
00000010: 7bc2 0700 de6d 1a3e 9aec 023f 59bf 0c00
00000020: c12f a43c 3dbd c8bd fbc4 0480 0e55 74bd
00000030: 8dc1 883d db42 0480 870f b4be b106 1c3e
00000040: 0422 1080 6e94 883d da0f d03e 9100 0d80
00000050: 46e5 253e 8d7f 713d ddd4 0980 2be8 73bd
00000060: c2f7 043e 8d5a 1300 970e ef3d adbf 2ebe
00000070: f0b2 0600 d203 5cbe b4aa 79be 8a8c 0c80
00000080: d68c 153e bbfe 0b3e e23d 0500 ed8d 183f
00000090: a5ee 833e 3f12 1600 3957 d83d c82b 303d
000000a0: db4d 0480 662a 0dbe 53b3 dbbd 89a9 1400
000000b0: 3497 52be 3a16 433e 8e97 0180 f1c2 93bc
000000c0: 4396 21bf ad48 0600 9dc6 00bf 0c85 1cbd
000000d0: 00da 0800 bf13 c6bc 282d a53b 2f2b 0400
000000e0: ec2d 803d 8767 3b3d c6fc 0300 d2ed 363d
000000f0: 9ef4 d7bd d322 0e00 e35d f83c c499 433e
00000100: 7484 0680 d5bf 663e fa45 7f3f 3f82 1280
00000110: f167 1fbe 859d 283d dd2e 0100 6729 843e
00000120: 97a7 043f dc9a 0800 aa90 10be 3989 203e
00000130: 9c2d 1380 e616 e73d 4fdd 173d e57e 0b80
00000140: c0e2 15bd 08e7 1c3d d27e 0c00 b95a fdbc
00000150: 7401 b33e 82bc 0d80 7c79 813d 7ef9 fbbc
00000160: 4d59 0c80 4997 1bbe d514 483e e233 0d00
00000170: 7a98 3e3e 991f 2fbe 5da0 0000 8ed0 38be
00000180: b04d 613d c29f 0380 0cf8 8fbf 13cc 203e
00000190: 2638 0b80 7f36 8e3e 14ed 4b3e 5a6c 0900
000001a0: 29af f2bc 8153 073e 4b70 0f00 e5bd 483e
000001b0: f098 3e3e 0055 0c00 317a 583d 2481 d13d
000001c0: 6334 0900 3def b2be 6ff2 773e 2da7 0a00
000001d0: 5b9e 163e 8290 2f3e ac84 0d80 535e 89bd
000001e0: 9532 72bc f6fc 0080 09fb 663d 2109 823a
000001f0: 8405 1180 a1fe 9fbd 0595 133d 2659 0480
00000200: 3a03 0a3d d99c 833d 32c4 0000 01d7 473d
00000210: 1929 a43e a870 0a80 a89e 263e 0561 4d3e
00000220: 520e 0600 582e 253d fbaa fabd 215d 0100
00000230: 1fd4 6239 ce09 ff3d 087a 0480 704b b93b
00000240: 50cc 343f d740 1080 f76f 0e3d 62eb 7f3c
00000250: 4b2a 0b00 be52 063e d15b 90bc e311 0e00
00000260: a90c 99be f704 5b3e 1c3e 0580 507d 62be
00000270: abf8 a13c 89ec 0580 1906 133e dcfe d7bd
00000280: c085 0400 3ddb 873d fc33 8a3d 5096 0e00
00000290: c7e3 92be 2083 a03d 6a5b 0e00 d5d7 bfbd
000002a0: f922 f63d 3d48 0f80 071a 863e 06eb 383d
000002b0: dab3 0700 3710 0cbc bf3c 903e ffde 0d00
000002c0: 1f49 b63d a7e9 353d f516 0200 fae6 d63d
000002d0: 4aec d1be 6b56 0a00 9475 d43c a6e9 843f
000002e0: 53ec 0a80 4202 5d3f 99a8 0ebe ae74 0e00
000002f0: 65ff a1bc d8c7 b03e 9a07 1680 c3d8 ab3e
00000300: 3e22 44be d069 0c00 8f51 6f3e d149 bcbc
00000310: f048 0180 da39 e43d 8574 cd3e b03e 1580
00000320: a540 3ebe 7e1e b8be 5a7d 0d00 0865 33be
00000330: 3014 223e 8b32 0c80 cd75 07be 3360 2ebe
00000340: 5382 0c80 b92d 41bc 78c1 18bd 7b80 0d00
00000350: 97ba 44be 69f7 3b3e 6f1b 1180 fecb c03d
00000360: 9f6c 6e3e 126c 0380 bc07 d8bb e8ac 463d
00000370: a01d 0a80 bf30 993d ab9e dbbe 7ade 0c00
00000380: 3780 d53d 1558 8cbe a0b9 1500 43a7 56bc
00000390: ccc0 773e a296 0300 4ea1 bb3c b8c4 05bc
000003a0: 0b15 0b00 27e4 a2bd 36e9 cbbe 3945 0d00
000003b0: 8a0f bfbd 27a3 063e 4e31 1300 8f32 0abe
000003c0: d509 3fbf 0e73 0f00 82c2 14be 774a 08bc
000003d0: 52b0 0880 9b27 14bd 5b53 a7be 50d0 0800
000003e0: 3f96 30be 171b fe3d 0d98 0080 2b12 01bd
000003f0: cd69 13be 3932 0e80 62f8 fabd 361e bcbc
0.5655827 1.208857e-39 0.160142 0.10692021 7.12615e-40 0.15080974 0.51142275 1.170669e-39
0.020042302 -0.09801719 -4.38005e-40 -0.059651427 0.06677542 -3.91325e-40 -0.35168096 0.15236928
-1.48157e-39 0.06668936 0.40637094 -1.194065e-39 0.16200742 0.058959533 -9.0288e-40 -0.059547585
0.12985137 1.777358e-39 0.11672705 -0.17065306 6.15204e-40 -0.21485832 -0.24381524 -1.152442e-39
0.14604506 0.1367139 4.81377e-40 0.5959156 0.2576801 2.026926e-39 0.105635114 0.043010503
-3.95271e-40 -0.13785705 -0.10727563 1.897528e-39 -0.20565492 0.19051448 -1.46203e-40 -0.018037291
-0.63119906 5.77084e-40 -0.5030306 -0.03821282 8.12888e-40 -0.024179338 0.0050407834 3.82833e-40
0.06258759 0.04575303 3.66185e-40 0.044660397 -0.10544704 1.29819e-39 0.030318206 0.19101626
-5.98528e-40 0.22534116 0.9971615 -1.699762e-39 -0.15566994 0.041165847 1.08647e-40 0.25812837
0.5181822 7.90237e-40 -0.14117685 0.15677346 -1.761236e-39 0.112836644 0.03707629 -1.055712e-39
-0.0365932 0.038306266 1.14752e-39 -0.030927049 0.34962046 -1.261485e-39 0.063219994 -0.030758616
-1.134061e-39 -0.1519443 0.19539197 1.212473e-39 0.18612853 -0.17101897 5.7528e-41 -0.18048307
0.05500573 -3.32817e-40 -1.1247573 0.15702848 -1.030333e-39 0.27775952 0.19914657 8.65389e-40
-0.029624538 0.13215448 1.417816e-39 0.19603689 0.18613029 1.132518e-39 0.052850906 0.1022971
8.45312e-40 -0.3494815 0.24213575 9.78326e-40 0.14708845 0.17144969 -1.241455e-39 -0.06707444
-0.0147825675 -9.0745e-41 0.05639175 0.0009920934 -1.563182e-39 -0.078122385 0.036030788 -3.99322e-40
0.033694483 0.06426401 7.0382e-41 0.048789028 0.32062605 -9.58768e-40 0.1627146 0.20056541
5.5615e-40 0.0403274 -0.12239643 1.25244e-40 0.00021632061 0.12453042 -4.11119e-40 0.005654745
0.70624256 -1.492628e-39 0.034774747 0.0156200845 1.025362e-39 0.13117501 -0.017621906 1.292113e-39
-0.2989247 0.21388613 -4.81458e-40 -0.22118115 0.019771894 -5.4403e-40 0.14357795 -0.105466574
4.15322e-40 0.06633613 0.067481965 1.339619e-39 -0.28689405 0.0783751 1.31849e-39 -0.093673386
0.12018389 -1.403447e-39 0.26191732 0.04514601 7.07367e-40 -0.008548788 0.28171346 1.273857e-39
0.089006655 0.04441228 1.91906e-40 0.10493274 -0.41000587 9.49356e-40 0.025934972 1.0383804
-1.003132e-39 0.8633157 -0.13931502 1.327554e-39 -0.019775102 0.3452747 -2.023108e-39 0.33563814
-0.19153687 1.139984e-39 0.23370956 -0.022984417 -1.18e-40 0.11143847 0.4012796 -1.951033e-39
-0.18579347 -0.35960764 1.238829e-39 -0.17519009 0.15828013 -1.120157e-39 -0.13228531 -0.17028885
-1.148777e-39 -0.011790686 -0.03729388 1.239952e-39 -0.19211803 0.18356098 -1.571045e-39 0.094139084
0.23283623 -3.14275e-40 -0.006592719 0.04850474 -9.28982e-40 0.07480001 -0.42894492 1.181836e-39
0.10424846 -0.2741095 1.995135e-39 -0.013101402 0.2419464 3.29543e-40 0.022904065 -0.008164577
1.017739e-39 -0.07953673 -0.39826363 1.218694e-39 -0.09329136 0.13148175 1.762562e-39 -0.13495849
-0.7462438 1.418806e-39 -0.14527324 -0.008318535 -7.97936e-40 -0.036170583 -0.32680783 8.09412e-40
-0.17244814 0.12407511 -5.4546e-41 -0.031511467 -0.14395829 -1.303713e-39 -0.122544065 -0.022963624

rnn.weight_hh_l0 f4 [256, 64]
00000000: 7fd5 d03c e677 05be 483d 98be fa4d 22be
00000010: 2567 a3be 45ba 22be 1ca2 c93e f0e6 9c3e
00000020: a882 6ebe 971a f43d 9433 3c3d 2712 84bd
00000030: c35f 493e e322 03be 456d 853d 933f 6f3e
00000040: ca73 80be 1839 ab3c c165 ebbd 1067 a6be
00000050: 56d5 713a 3f4d 90be 88e0 bebe 6e5a 03be
00000060: ec1e 4dbe 529d a73e 4937 24be 9e84 31be
00000070: 2583 e23e 6ddd a83d decb 94be 1e69 653d
00000080: 8990 9bbe f9c0 ecbd 8ac6 f43d d2e5 fc3e
00000090: c0ee 79be 0fff 153e e2d0 033e cd1e 9f3d
000000a0: df25 3b3d 30be 553e 5f7b b33e e958 b9bc
000000b0: aa07 ca3e 96b7 23be 0a1d bdbd db41 a0be
000000c0: 45ba 61bd deb4 a6bd 8446 0fbe 6927 afbe
000000d0: dfb0 dabd 50f9 62be cd75 223e 0e90 1f3e
000000e0: 7aa4 c6be a577 f63d cfb8 7a3e a6a1 59be
000000f0: 469d 8f3c b613 993e 8f17 453d 6cf7 213f
00000100: bb2c 38be 58d2 bdbd c06e 073d 2526 58bd
00000110: 9603 c53d 93d1 03be 63d9 373d bef1 853d
00000120: 287f 873d 94dc e63d eb63 c83d 2ab8 523c
00000130: f982 c13c 8968 06be cc7f f0bd 0dc8 043c
00000140: 8917 67be 389a e3bb c392 28bd 4827 8fbd
00000150: e626 1dbe 5cf7 75bc 9f6e cabd 6dab 643d
00000160: b776 2bbe c710 79bd a603 5abd 4b60 d9bd
00000170: 89ce af3e b603 233c bfd9 46bd c8c2 3d3e
00000180: f2da 94bd 5921 9cba 6758 c6bd 1543 7e3e
00000190: 258d fbba 704a 043e 200f 42be d4fd a8bd
000001a0: 0041 903c fc29 c6b9 eb04 44bc 99c2 4c3d
000001b0: bdae e7bd b689 a1bb 2d96 593a 8c2d 9ebe
000001c0: c21b cbbd bc0b 4fbd 44de 18bd 8ed7 c63d
000001d0: d8f2 783d 603f e3bd e74c 933d 9463 fa3d
000001e0: ab69 133a 47e7 fc3d 66b7 d83d 09bb 7e3d
000001f0: a0e1 ca3d 480f 073c b0d3 b63c 2256 a7bd
00000200: fad2 6c3d 4de3 153e c7cd 603e 35cd 473d
00000210: 4393 b6be 86dc 9f3d 8d94 45be 2691 5abd
00000220: 4bc4 a93d 6cf6 85be 17ea 8bbe 9e47 b1be
00000230: 23da a7bd bcbe 6a3e d58d 11bd 555a 8cbd
00000240: b97d dc3e c923 c93e 1ec4 cfbd 97da c33e
00000250: 1803 ad3e efbb 183e bccf e3bc a3b5 05bd
00000260: 60f9 b73d 42b9 86bc d65a 63bd c90f 943d
00000270: 15f4 eabe cba7 9e3d d652 ca3d a897 25be
00000280: 3f81 6d3e df32 ce3e 9b0d 913e 0396 d6be
00000290: 738e 213e dac5 90bd 0109 073e bf46 4d3e
000002a0: 241d 013e ab96 a4bc 8ed7 153c 652d 91be
000002b0: 24b6 2bbe 62c2 b13d a573 42bd ca66 933e
000002c0: f7bb 85be 9175 af3d c235 293e 84af 63bd
000002d0: 52e6 ea3d f592 613e bdd7 ab3e ea9b 1dbe
000002e0: 09ff 073e d9f4 41be e813 8fbe bae2 863d
000002f0: bae1 d93c e7a4 67bc 277d 6cbe 485c 18bd
00000300: 6ab8 00bf c165 043d 8b35 883c 565e 44be
00000310: bf9a 363e ab3e a93d 5cc1 a9bd 635f 82bd
00000320: faa9 403d 66fc 0e3e 009f 8f3e cece cc3e
00000330: be49 13bd 8100 60bd 4609 87bd 21d2 0fbd
00000340: 4fdd f6bd 71ec 36be 5500 8e3e 8f06 233d
00000350: 3854 82bd 4694 db3d 8d80 643d ddfe 53be
00000360: 540b 8dbd 297c bdbd 18d9 b5bd 2dee e53d
00000370: 1bec cabe c29a bfbd 9d87 57bd f2b9 803e
00000380: d1f3 9c3d 69f6 82bd 2238 38be d858 a13e
00000390: dff8 aa3c a15b a43b f587 95be b937 2dbe
000003a0: 55d7 79bd 23c5 e2bd ceef 1abe 135f 6c3e
000003b0: 56e8 1dbc a43e 3fbd 91c1 873e 3fca 40be
000003c0: 8c2f 9e3d f522 e83d 1d71 ac3c 29b3 ae3e
000003d0: 4741 eb3d d573 c6bc 2ff4 383d d12e ba3d
000003e0: 5108 883d c009 8bbc 16a5 793d 754a 02be
000003f0: 99fe 713c a897 c1bd 751c b93d 09e5 dbbe
0.025492428 -0.13034019 -0.29734254 -0.15850058 -0.3191463 -0.15891369 0.39381492 0.3064494
-0.23292029 0.11919134 0.045947626 -0.06448775 0.19665436 -0.12806277 0.06514982 0.23364095
-0.2508834 0.020901248 -0.114940174 -0.32500505 0.000922521 -0.28183934 -0.3728068 -0.12827465
-0.20031327 0.32737213 -0.16036715 -0.17335746 0.4424068 0.082453586 -0.29061788 0.05600845
-0.3038371 -0.11560244 0.11951931 0.4939409 -0.24407482 0.14648078 0.12872651 0.07769547
0.045690414 0.20873332 0.35055062 -0.022625403 0.39458972 -0.15988001 -0.092340544 -0.31300244
-0.05510928 -0.081399664 -0.13991743 -0.34209755 -0.10678267 -0.22165418 0.1586525 0.15582296
-0.3879736 0.12034539 0.24484561 -0.2125307 0.017531049 0.2989785 0.04811817 0.6326816
-0.17985813 -0.092686355 0.033064604 -0.052770752 0.096198246 -0.12872915 0.04488505 0.06540249
0.0661605 0.11272541 0.09784683 0.012861291 0.023622023 -0.13125814 -0.11743125 0.008104336
-0.22567572 -0.0069458745 -0.041155588 -0.06989914 -0.1534687 -0.015012588 -0.098843805 0.055827547
-0.16744505 -0.060807016 -0.053226136 -0.106140696 0.3433726 0.009949615 -0.048547503 0.18531334
-0.07268323 -0.0011911794 -0.0968483 0.24830277 -0.0019191845 0.1291902 -0.18951082 -0.08251539
0.01760912 -0.00037796784 -0.011964063 0.04999027 -0.113126256 -0.0049297465 0.0008300271 -0.30894125
-0.09917404 -0.0505483 -0.037321344 0.097090825 0.06077847 -0.11096072 0.07192402 0.12226024
0.0005623351 0.123488 0.105818555 0.06219009 0.09906316 0.008243389 0.022317737 -0.081707254
0.05781839 0.1463749 0.21953498 0.048779685 -0.35659227 0.078057334 -0.19294949 -0.05336108
0.08289393 -0.26164567 -0.27327034 -0.34624952 -0.08195903 0.22924322 -0.035535652 -0.06853167
0.4306467 0.39285114 -0.10144828 0.38252708 0.33791423 0.14915441 -0.027809016 -0.032643925
0.089831114 -0.01644576 -0.05550655 0.07229573 -0.45889345 0.07746848 0.09879081 -0.16171134
0.23193835 0.40273187 0.28330693 -0.41911325 0.15776996 -0.07068987 0.13187028 0.20046519
0.12608773 -0.020091375 0.0091456305 -0.28354946 -0.167687 0.08679654 -0.04747357 0.2878936
-0.26119968 0.08567346 0.16524413 -0.055587307 0.11469711 0.22028716 0.33563033 -0.15391508
0.13280882 -0.18941058 -0.27944875 0.065862134 0.026596893 -0.014138437 -0.23094617 -0.03719738
-0.50281394 0.032323603 0.016627094 -0.19176611 0.17832468 0.08263906 -0.082888335 -0.0636585
0.047037102 0.1396347 0.28050995 0.4000153 -0.035958998 -0.05468798 -0.06593566 -0.035112504
-0.1205393 -0.17863633 0.27734628 0.039801177 -0.0636372 0.1072164 0.055786658 -0.20702691
-0.06886926 -0.09252197 -0.08879298 0.11227069 -0.3963326 -0.093556896 -0.052619565 0.25141865
0.07663692 -0.06394655 -0.17990163 0.31513095 0.020870624 0.005015806 -0.2920529 -0.16915788
-0.060996372 -0.11072757 -0.1513054 0.23083143 -0.009637913 -0.046690598 0.26514867 -0.18827151
0.077239126 0.113347925 0.02105003 0.34121063 0.1148706 -0.024225155 0.045154747 0.09090961
0.06642211 -0.016972423 0.060948454 -0.12723716 0.0147701735 -0.09452754 0.09038631 -0.42948177

rnn.bias_ih_l0 f4 [256]
00000000: a3b8 803e 2cae 5c3d 711b 183f 2a84 5a3b
00000010: 8dfb bd3c 03ab 843d dcbe 4c3e 1d95 313e
00000020: b253 ce3d 525a dc3c 4368 133e 9337 333f
00000030: b6ca 133e f0aa af3d 3b98 f93c 9abd 743d
00000040: c194 173e b0dc 533e a65f 483e 2b6d db3d
00000050: 2d7d 85bd b9f1 413e e2eb 1a3f 3bfa 923e
00000060: 1e05 8e3e af02 2c3d 26a4 e53d 81e6 1f3d
00000070: 1f46 ce3e f5dc e83d 19a5 bbbb 740c 193d
00000080: 4e70 a13e 5a3c fc3d 2310 103e 6644 1c3f
00000090: a49c e1bc 0e40 ad3d c6de 083e dce9 733e
000000a0: 2e8d 96bd 42a3 6f3d f08d 573b 70cc babc
000000b0: fa1f 113d 6b9f d6bb 5bc5 a93d addc 963d
000000c0: f169 1b3e 1aa5 9fbd 329b be3d b8d8 693e
000000d0: 9f2c d1bd 17c6 173e 6f54 ba3d e8d1 783e
000000e0: 935b 493e 5010 a7bc 1254 3abd 8887 9bbd
000000f0: 172e 393d 89f4 4b3f b909 83bd f9b6 133f
00000100: fc24 20bd b552 b8bd 772f 56be ba36 7dbd
00000110: 270f d13d 1791 2bbe 2f8d 11be efb8 ad3d
00000120: 3e90 283d f8b6 f83c 6fab b43d e39d f5bd
00000130: 8e2a e6bc 6bea b53d a0ad 1abe 09e9 0a3d
00000140: 68b2 09bc 6ee4 f5bd 0138 a5bd 619e fc3d
00000150: f1e6 72be 29a7 3b3d 2cf4 923d 98d3 133e
00000160: ee3c a4be fdda 39be 10f8 d63c 6788 e1bc
00000170: 3faf 583e bfaa 49bc 9c2a 363e 415a 4e3d
00000180: f415 9fbd 0f36 e1bd 853c 403e 4b2c 023f
00000190: 10a5 cfbd afea 20bd 8c55 a6bd 43af babd
000001a0: e6e1 8fbe 58b7 f0ba 2ee4 9fbd 15c6 30be
000001b0: 6498 093d 0aa4 763c dff4 63bd 0142 963e
000001c0: 6f72 03bf 6752 28be f045 b53b 22c7 053c
000001d0: 11c9 96bc 78b9 1cbe 537a c23d 9c52 80be
000001e0: 22e8 813e 0823 93bd 71e8 4d3c bb3c 10be
000001f0: 2996 7ebe 3eb6 7dbe 8f88 963d 6297 103e
00000200: baf5 b73d 622b ca3d 593a 21be a130 e83d
00000210: 34c7 95bd 0d3d 553d 067f a0bd 12a8 3abd
00000220: c34f 933d f76c b83d 2780 2bbe 76c0 2fbe
00000230: 48c5 15bc 3049 653d f8a6 df3d 30c7 43bd
00000240: e5e6 c03b 7bba bb3d 1409 eebd cd6f 0cbd
00000250: f7b4 a43d 6155 d63c 7abb 8e3c f432 1e3e
00000260: 2cc1 0a3e 7000 9dbd e7e3 c4bd da2f a3bd
00000270: d883 e7bd 4cee d83d ef53 b2bc f0e3 c13d
00000280: c7ea 3bbd 7c98 773c 0205 fd3c 680f a23d
00000290: 79a9 5e3d 31a8 08bd ba57 543d a8bc c53c
000002a0: be42 48bd 718d 83bd a56c cc3d e0da af3c
000002b0: 5f65 b6bd b25b 3a3d 9314 13be d14b 5abd
000002c0: 1455 9c3d e49b 22bd 33bc 44bd 9998 b0bd
000002d0: 69a2 67bc 03a2 96bc e73f 223e fe2d efbd
000002e0: 67b0 68bd dbf5 20be b520 0bbd 0b8d f0bb
000002f0: b1e9 87bd 4ffd c3bc f59a b8bd 5592 0cbd
00000300: 0a6b c63e c24f e63d 885f f33e 09ee d5bd
00000310: 6383 363e 82e8 09bb 140b 973e 93f8 0d3e
00000320: 91bf fa3d 0104 0e3e 302c 653d 4f9c 073f
00000330: 97a7 2e3b f2c6 dfbd f5b4 533d bd2d cebc
00000340: d202 153e d402 9d3c fd2c 7a3e ea0d 813d
00000350: 4407 5b3d 9554 b43c 3c62 193f 4d37 313e
00000360: c2d6 953e 84d7 183e c501 623c 5129 b63d
00000370: caba e43e a0d6 b43d 82c1 383e d0a6 0f3c
00000380: aef7 6c3e 563b 613e 87b3 2a3e a549 9d3e
00000390: 1e30 263d f0c4 34bd 355b 333e 192e f23d
000003a0: 5029 08be 3fc1 0a3e 4ecc 423e eef5 f0bd
000003b0: 1ebd 65b9 f10e a53d 5b4a 993d 9d3d 153e
000003c0: 90a1 263e b5be ac3d fb58 be3d e582 2a3e
000003d0: f89e f1bc 605b 3cb9 e143 27bd fa0d 123e
000003e0: c671 373e cbf3 97bd a7fd 26bd 4ea7 aebd
000003f0: b567 033d ffdc 313f 38ca b63d a1f7 f03e
0.25140867 0.05387704 0.5941687 0.0033342936 0.023191238 0.064779304 0.19994682 0.17342038
0.10074557 0.026898537 0.14395241 0.70006675 0.14432797 0.085775256 0.030468097 0.05975113
0.14802839 0.20689654 0.19567737 0.107141815 -0.06518016 0.18939866 0.6051618 0.28706536
0.2773828 0.041994747 0.112129495 0.039038185 0.40287873 0.11370269 -0.0057264683 0.03736539
0.31530994 0.12316199 0.14068656 0.6104187 -0.027540512 0.08459483 0.13366231 0.23819679
-0.07351147 0.058505304 0.0032890998 -0.022802562 0.035430886 -0.006549766 0.08289596 0.07366309
0.15177132 -0.077951625 0.09306945 0.22836578 -0.10213589 0.14821659 0.09098136 0.24298823
0.19663839 -0.02039352 -0.045490332 -0.0759421 0.04520997 0.79670006 -0.06398339 0.5770107
-0.03909777 -0.0900015 -0.20916544 -0.06181977 0.10207968 -0.16754566 -0.14214014 0.08482539
0.041153185 0.030360684 0.08821761 -0.11993005 -0.028096464 0.08882602 -0.15105295 0.033913646
-0.008404352 -0.1200646 -0.080673225 0.12334896 -0.2372091 0.045813713 0.07175478 0.14436185
-0.32077736 -0.18149944 0.026241332 -0.027530862 0.21160601 -0.012308775 0.17789692 0.05037904
-0.07767859 -0.10996639 0.18773086 0.50848836 -0.10138905 -0.03928631 -0.081217855 -0.0911546
-0.28102034 -0.0018365188 -0.07807194 -0.17263062 0.033592597 0.015053758 -0.05565345 0.29347232
-0.51346487 -0.16437684 0.005532019 0.008165153 -0.018406423 -0.15305126 0.09495988 -0.25063026
0.25372416 -0.07184416 0.012567625 -0.14085667 -0.24861969 -0.24776551 0.07350265 0.14120248
0.089824155 0.09871556 -0.15744914 0.113374 -0.073133856 0.052060176 -0.07836728 -0.04557044
0.07192948 0.090051584 -0.16748105 -0.17163262 -0.009141274 0.055978 0.10920519 -0.047797382
0.0058869 0.09166428 -0.11622825 -0.03428631 0.08042329 0.026163759 0.01742338 0.15449125
0.13550252 -0.07666099 -0.096137814 -0.07968111 -0.11304444 0.105923265 -0.021768538 0.09467304
-0.045878198 0.015112039 0.030886177 0.07913095 0.05436084 -0.033363525 0.051841475 0.02413781
-0.048891775 -0.06423462 0.0998166 0.021466672 -0.08906054 0.045497604 -0.14363317 -0.05329496
0.07633415 -0.03969945 -0.048031043 -0.08622856 -0.014137843 -0.0183878 0.1584469 -0.11678694
-0.056808855 -0.15718786 -0.03396674 -0.0073410324 -0.0663637 -0.023924498 -0.09013931 -0.03431924
0.3875354 0.11245681 0.47533822 -0.10445792 0.17823558 -0.0021043126 0.2950064 0.13864355
0.1224357 0.13868715 0.055950344 0.52972883 0.0026650184 -0.10926618 0.051686246 -0.025168294
0.14551857 0.019166388 0.24431224 0.06301482 0.053473726 0.022012988 0.5991552 0.17306252
0.2926541 0.14925963 0.013794367 0.08894599 0.4467376 0.08829999 0.18042567 0.008767799
0.23141357 0.21995291 0.16670047 0.3072025 0.040573232 -0.044133127 0.17515261 0.11825199
-0.1329701 0.1355028 0.19023249 -0.11765657 -0.00021909593 0.080594905 0.07484885 0.14574285
0.16272569 0.08434812 0.092943154 0.16651495 -0.029494748 -0.00017963117 -0.04083622 0.14263144
0.17914495 -0.07419547 -0.040769245 -0.085280046 0.032081325 0.6947784 0.08925289 0.47063926

rnn.bias_hh_l0 f4 [256]
00000000: d45a 8a3e 3882 18bd 4b87 db3e c089 793a
00000010: ccaf 353e b957 6c3d 66ed 953e bc28 2e3e
00000020: c580 9f3c c67e 463d 6223 703e 8f94 103f
00000030: ce6c 30bb 7ac1 cebd f634 7e3d 8428 863d
00000040: 64c9 2e3e 8c8e 0f3e d398 ec3d f28d 99bc
00000050: 6ab1 28be f6de 983d 1068 2f3f 62e2 443e
00000060: 0dc4 af3e bc3c aa3d 8f7b 2abc 31e6 2f3d
00000070: 4d63 e63e 9a76 573e 0d12 6abd 7d65 c83c
00000080: df8e 993e d051 953d f477 2e3e 1859 3f3f
00000090: 0a47 b8bd 4fd6 9abc b044 6b3e 3884 073e
000000a0: c66f 0abe 8ce5 9cbd 7a3d 623e feb6 a83d
000000b0: 3f62 be3c dd34 113d 324d e3bc 27b4 df3c
000000c0: 8d98 6a3e 6ec0 b33d 0859 a43d 0a5d 183e
000000d0: 522f 6fbc 02fa fc3d 0d8f 253e 2c08 5e3e
000000e0: dbbc dc3d af0b 6cbd 3b0b c13d f9af d4bd
000000f0: 5f87 0f3e 3305 503f 571b ff3d 4670 2b3f
00000100: 51c1 753d b821 a93d 3492 ce3c 51c5 36be
00000110: 0adc a8bd a99c 00be 01ed a4bd 8ffa 13bd
00000120: 9434 cc3d 98b6 ce3d beaf 793d a7b9 f43c
00000130: 1588 c03d e8b2 113d 77d7 cebd ff8e a0bb
00000140: 7269 d03c 9651 00be 8a72 e2bd 27de 5cbd
00000150: b2aa 4ebe dc92 83bb 66cc 953d 66bd 2b3d
00000160: 1e7e 98be f7e7 3ebe 264f 40bc 336f 983d
00000170: 3149 2d3e 7180 a9bd 1f1f 363e bdc1 b0bb
00000180: 52ca d93b 3a7c 67bb bd86 a13c 50cf 063f
00000190: e014 033c fc39 1cbd 2ffe 193d eab1 50be
000001a0: 4435 a5be f301 fabc 9143 c8bd 7201 31bc
000001b0: 4dcc 553a 0911 ae3d c87c edbd 9eb8 b93e
000001c0: ff5d 91be 942b 96bd 795d a03a cec9 0fbe
000001d0: a724 a3bc cb42 133d a201 d73c f1d4 13be
000001e0: c29b 5e3e 58e3 75bd 99ff c73d b92b 403d
000001f0: 79d7 87be 6b7a 49be 213e 04bd d2be 58bc
00000200: 6f9a 10bd 2a2a f9bd 5e6f fc3c 5b9a 963c
00000210: 886b 13be fafa bb3d 2442 88bd e29f 003e
00000220: 0643 d4bd 62bd cb3d d35d d7bc 7e5b 9fbb
00000230: e135 353d ea49 27be 7e2a 09bd c3d8 db3c
00000240: 16eb 6fbd 76ed 233d 2573 07bd 8124 ce3d
00000250: dc36 b13d 2df4 d7bc f600 fcbc 9baf 8abc
00000260: ae0b 4d3e d5a2 26bd b308 2f3d 43ae c73c
00000270: 9405 1bbd 2be8 103e 7786 283d eb90 0abe
00000280: 7dd1 d1bd 1f57 803d 83d2 ab3d c832 5cbd
00000290: 15cc b93d 867d 063d 10ca c0bc e619 f2bc
000002a0: b03d c5bd 7f9e df3d ccc2 43bd e490 b2bd
000002b0: 79ff 883d 551c b33c e691 543d e304 6fbd
000002c0: b4d0 2a3e 4065 0abc 7aaf 693d b52a 69bc
000002d0: c16f b23d 9f08 283e 583b 843d 5fc9 10be
000002e0: 598d 6f3d 8d0b 0ebe 469f 4f3b 5b3d 1cbc
000002f0: f824 67bc b61d 813d 7241 33be 0bd0 a33d
00000300: 7422 8b3e cba1 6ebd 65e7 023f b28b a3bd
00000310: e645 d33d 8adb f53d 6d50 353e e0ca 103d
00000320: 8b88 1b3e 3afe a93d c5c2 b13d b199 0d3f
00000330: 9cbc f4bc ca98 0cbd f5b3 dfbc edfe c7bd
00000340: 977b b73d 88df e83d 804d 823e 9cb0 86bd
00000350: 62d3 18be 821d 073c 5ce7 fd3e 99f9 073e
00000360: a210 a53e f4e1 49bd f4ed 253e 985e f43d
00000370: c08d ca3e 669c 4b3e f84c 2f3e 5f28 923d
00000380: ea71 633e ef4f 383e 3d1d c63d 436f b13e
00000390: a5f3 9bbc 6ca0 173c 2579 143e d3c0 5d3e
000003a0: 4c48 873d 7a60 d33d 7864 d13d dee6 843a
000003b0: 5d32 5e3e 4e0f 0dbe 2445 363d 2271 c53d
000003c0: d8c5 a03e 55c1 8e3c aceb 0bbd 229c b43e
000003d0: 6a19 053e 03e9 34bc e5bf 66ba f036 5e3e
000003e0: 9b0c 0b3e 34b7 a9bd ce72 1fbc bc18 d4bd
000003f0: bcdf 3bbd 00e2 333f a09e 663d fd66 fc3e
0.2702242 -0.03723356 0.42876658 0.00095191225 0.17742842 0.057700846 0.29282683 0.17007726
0.019470582 0.048460744 0.23450997 0.5647668 -0.0026920321 -0.100954965 0.062062226 0.065506965
0.17069012 0.14019221 0.115525864 -0.018744443 -0.16473928 0.074644014 0.6851816 0.19226983
0.34329262 0.083123654 -0.010405435 0.042944137 0.44997635 0.21041337 -0.05714612 0.024462456
0.29991814 0.07290995 0.17037946 0.7474532 -0.089979246 -0.018901018 0.22975421 0.13234031
-0.135192 -0.0766097 0.22093764 0.08238028 0.023240207 0.035450805 -0.02774677 0.027307583
0.22909756 0.087769374 0.08024794 0.14879242 -0.014598684 0.12352373 0.16167851 0.21682805
0.10778209 -0.05762833 0.0942597 -0.103851266 0.14016484 0.81257933 0.124563865 0.6696819
0.059998814 0.082583845 0.0252162 -0.17848708 -0.08245094 -0.12559761 -0.080530174 -0.036127623
0.09970966 0.10093421 0.060958616 0.029873682 0.094009556 0.03557101 -0.100996904 -0.004899859
0.025440905 -0.12531123 -0.11057003 -0.0539228 -0.20182303 -0.0040153097 0.073143765 0.04192867
-0.2978372 -0.18643175 -0.01173762 0.074430846 0.16922452 -0.082764514 0.1778531 -0.005394189
0.006646433 -0.0035321848 0.019717569 0.52660084 0.008000582 -0.038141236 0.037595924 -0.20380369
-0.322672 -0.030518508 -0.09778512 -0.010803567 0.00081557484 0.08499343 -0.11596066 0.36273664
-0.28392026 -0.073325306 0.0012234888 -0.14041826 -0.019914938 0.03595237 0.026245896 -0.144367
0.21739104 -0.060031265 0.09765548 0.046916697 -0.2653158 -0.19675605 -0.032285813 -0.013229089
-0.03530353 -0.12166245 0.030814823 0.01838415 -0.14396489 0.09178729 -0.0665324 0.1256099
-0.10364346 0.09948231 -0.026289856 -0.0048632016 0.044240836 -0.1633679 -0.03348779 0.026836758
-0.058573805 0.040021382 -0.033068795 0.10065556 0.08653042 -0.02636155 -0.030762177 -0.016929438
0.20023987 -0.040682632 0.042732906 0.024375087 -0.037847117 0.14151065 0.04114386 -0.13531844
-0.10245035 0.06266617 0.08389761 -0.053759366 0.09072129 0.032834552 -0.02353385 -0.029553365
-0.096309066 0.109189026 -0.047793195 -0.08719042 0.066893525 0.021864096 0.051896952 -0.05835427
0.16681176 -0.008446991 0.057052113 -0.014231374 0.087127216 0.16409539 0.064566314 -0.14139317
0.05848441 -0.13871594 0.0031680628 -0.009536113 -0.014107935 0.06304495 -0.17505434 0.079986654
0.27174723 -0.058259767 0.5113433 -0.07985629 0.103160664 0.120047644 0.17706461 0.035349727
0.15188806 0.08300443 0.086797275 0.5531264 -0.029875092 -0.0343254 -0.02730749 -0.0976542
0.0895912 0.1137076 0.25449753 -0.06576654 -0.14924386 0.008246781 0.49590576 0.13278808
0.32239252 -0.04928775 0.16204053 0.11932105 0.39561272 0.1988388 0.17119205 0.071366064
0.22211424 0.17999242 0.096735455 0.34655198 -0.019037077 0.009254556 0.14499338 0.21655588
0.066055864 0.10321136 0.10224241 0.0010139605 0.216989 -0.1377537 0.04449953 0.09640719
0.31400943 0.017426172 -0.0341603 0.3527537 0.12997976 -0.011041882 -0.0008802398 0.21700644
0.13579027 -0.08286896 -0.009731961 -0.1035628 -0.045867667 0.70266724 0.05630362 0.49297324

rnn.weight_ih_l1 f4 [256, 64]
00000000: 7deb 8bbe 77c7 8a3e 8883 d83e a2d3 2b3e
00000010: 84a5 92bd 402c 4c3e db30 01bf a5a7 dbbd
00000020: efa0 debd 1868 9c3e 5690 b73e 38fb 8d3d
00000030: 2ae8 953d ade3 c3bd 8f75 a73e 788a 60bd
00000040: a00a 293b c934 9cbd f97a 323e 38a0 613e
00000050: 28e8 103e a2e8 d93e 93ff 693e b6f1 2abf
00000060: bfd0 cf3d c61f 9abe 36ff c8bc 7120 74bd
00000070: 4ab6 2cbf d989 413c a1de a8bd 6833 e9bc
00000080: 2273 4f3e 6bff a13e 4521 813e 0458 d13d
00000090: 9cde 553e 7d8c a4bd 4686 77bd dab7 47be
000000a0: 7885 41bd fecc f0bb eab9 d9bd 1164 f23c
000000b0: 5b4c 89be 5f80 f3bd d0a1 65bd 1b7d 0e3d
000000c0: 21a2 e03d bca3 f5bd 741e 9a3e 95c4 8c3e
000000d0: 7c1d c63e 0560 e23e 9eaa 693e 2c2a cebd
000000e0: 4726 403e e4a0 7fbe 724f 05be e7b5 c0bd
000000f0: f6fa 003e 4920 5fbe 1b9c 30be c0bc 0dbf
00000100: 247a 24be 077f fb3d b80b 333e b70a 593e
00000110: ccf6 79be 5135 9f3e ed0f 8bbe d4b2 0bbe
00000120: 2624 073e 8dae 083e 1511 d53d 4547 11bf
00000130: 5b84 55bd 1ae7 bcbd 7a37 fc3d 608a c3be
00000140: 31b7 f6bd 4254 ac3d 2983 4c3c c2d9 733e
00000150: 573a 943e 8c22 113e bbdb 7f3e ffce a03e
00000160: bea5 6a3e ab8f 70be 5d5c 423e 7330 8d3b
00000170: 3556 ddbe f239 3b3e 856d 3a3e 5436 253d
00000180: bba8 b93e 2151 ab3e 817a 0d3e b65a f93c
00000190: 086f 993e 7b59 82be 2ada 2ebd a328 acbd
000001a0: f8b1 00bd 7437 a6bd a25e abbd 61b4 a4bd
000001b0: e7e0 60be 53d5 323e 382b 76bb 80d1 593e
000001c0: 1b49 8f3d da90 f63d 6b5f ae3e a208 063e
000001d0: a840 c53e c1fb c83e 452a 8a3e b646 a1be
000001e0: 2817 c63e 3d78 8cbe e166 c3be cf1b 12bc
000001f0: b849 c0bd d32b 313d 2be9 edbd d4dc a0bd
00000200: 8bb1 9bbe 6787 903d 5893 43be 3b72 a73d
00000210: 9ba7 afbd ea69 edbc 1401 e5bd 762b a73c
00000220: 02f0 f63d 6832 cb3d 18de 4e3e fd3d a1be
00000230: fbef e8bd 894d 15be d0cb 28bc 2f10 913d
00000240: ff42 35be db56 67be 527e 9dbb d784 c7bd
00000250: 8ca2 923c 5fd4 533c 2590 aebc d92a cb3e
00000260: 75af 963e da30 f4bd 9046 373d 94ee 113d
00000270: ae4c adbd a1e2 b13d 5ecd a63d f478 143e
00000280: 3a94 983c 5759 8ebc 7975 023d 542e 033f
00000290: 11de c23d 29cf 153d 02e6 91bd e325 83bd
000002a0: c997 7dbe ce9d 27be 230a 4d3c e372 583e
000002b0: 33b9 b43d 1747 dbbc 1572 ba3d 230a 42be
000002c0: d667 1c3e 943a 253e a1ce 23be cbab bdbd
000002d0: 62ca 47bd 51bb b43d fd24 273d 9f8d 81be
000002e0: d000 cb3d f450 353d 4feb ec3d 57fb c9bd
000002f0: 93f0 82bd b903 94bd 4b55 bc3d 89f2 cfbd
00000300: e75c 9dbe ff36 2d3e 8b2e b7be 7cd8 a53d
00000310: 7ebd 963a 820e 033e 2cf8 9d3c 3b80 61bd
00000320: 3e71 2cbd 8cae 373e 4b57 543e 8755 68be
00000330: ea4e 63bd 2997 97bd a969 4f3d 67b4 d53c
00000340: 5379 07be 9220 7f3c 792d 6abd 3da5 5cbd
00000350: faf1 32bd 500d 7a3d 5b3f c8be d6e0 113e
00000360: 5079 b83e 2329 c0bd 103d 4e3d f171 a93d
00000370: de29 c43c ecb9 703d d795 d93d e448 c53d
00000380: c7eb 60bd d5b6 d73c e947 45be fc89 f03d
00000390: 40b4 82bd 1da9 3fbc 80da a2bd acc2 18be
000003a0: e9c0 83be 4683 aebd a5dd 88bd 0a6c b63d
000003b0: 23bd 053d ced3 a43b 9888 3c3d 2d72 75bd
000003c0: 39cf 663e e208 b33d ff2e 00be d94b aebd
000003d0: cef1 043b 10ba f43d fdaf 263c 86f0 4ebe
000003e0: 5da1 8d3d e7b9 6bbd 802e 483d 1b34 313d
000003f0: ff37 6dbb 9f2f 4c3e 3c5d 693e a493 073e
-0.273281 0.27105305 0.4228785 0.1677995 -0.07160476 0.19938755 -0.5046517 -0.10725335
-0.108705394 0.30548167 0.35852307 0.06932682 0.073196724 -0.0956491 0.32706878 -0.054819554
0.0025793687 -0.076272555 0.17429723 0.22033775 0.1415106 0.42560297 0.228514 -0.6677507
0.10147237 -0.30102366 -0.024535757 -0.05960125 -0.6746565 0.011812651 -0.08245588 -0.028466895
0.20258763 0.3164018 0.25220695 0.10221866 0.208857 -0.080346085 -0.060430788 -0.19503728
-0.047246426 -0.0073486557 -0.106311634 0.029588731 -0.26816067 -0.11889719 -0.05606252 0.03478728
0.10968424 -0.119941205 0.3010136 0.2749373 0.3869437 0.44213882 0.22818992 -0.100666374
0.18764602 -0.24963719 -0.13018587 -0.09409695 0.12595734 -0.2178966 -0.1724705 -0.55366135
-0.16062218 0.12280088 0.17484939 0.21195494 -0.24410552 0.31095365 -0.27160588 -0.13642436
0.13197383 0.13347836 0.10403649 -0.56749374 -0.052128177 -0.092237666 0.12315269 -0.3819151
-0.1204666 0.084145084 0.012482443 0.23813537 0.2895076 0.14173335 0.24986164 0.31407925
0.22914788 -0.23492305 0.18980546 0.004308754 -0.43229833 0.18283823 0.18205841 0.040335014
0.36261544 0.33460334 0.13816263 0.030438762 0.29967523 -0.25458893 -0.042688526 -0.08406188
-0.031419724 -0.081160456 -0.08367659 -0.08042217 -0.21960793 0.17464189 -0.0037562381 0.21271324
0.06996366 0.12039347 0.34057173 0.1308923 0.3852589 0.39254573 0.26985374 -0.3149926
0.38689542 -0.27435485 -0.38164428 -0.008917763 -0.09389061 0.043254685 -0.11616739 -0.078546196
-0.30408892 0.07057076 -0.19099176 0.081760846 -0.0857689 -0.028981168 -0.11181846 0.020406466
0.120574966 0.099217236 0.2020191 -0.31492606 -0.11373898 -0.14580359 -0.010302499 0.07083165
-0.17701338 -0.22591726 -0.0048063183 -0.09742134 0.017899774 0.012929051 -0.021308968 0.39681128
0.29430738 -0.1192338 0.044745028 0.035627916 -0.08461891 0.08685804 0.081446394 0.14499265
0.018625367 -0.017376585 0.031850312 0.51242566 0.09515012 0.036574516 -0.07123949 -0.06403711
-0.24764933 -0.16368791 0.012514624 0.21137576 0.088243864 -0.026767297 0.09103791 -0.1894918
0.15273985 0.16135627 -0.15996791 -0.092612825 -0.04877699 0.0882479 0.04080676 -0.2530336
0.09912264 0.044266656 0.11568319 -0.098623924 -0.06393542 -0.072272725 0.09195956 -0.10153682
-0.3073494 0.1691551 -0.35777697 0.08097932 0.0011500565 0.12798503 0.019283377 -0.05505393
-0.042100184 0.17937678 0.20736425 -0.22688876 -0.05549518 -0.074018784 0.050637875 0.026087
-0.13229875 0.01557173 -0.057172272 -0.05386852 -0.043687798 0.061047852 -0.39110836 0.14245924
0.36030054 -0.09382846 0.050351202 0.08273686 0.023945745 0.05877106 0.10624283 0.096330434
-0.054912355 0.026332298 -0.19265713 0.117450684 -0.06382036 -0.011698035 -0.07951832 -0.14918011
-0.25733116 -0.08521132 -0.066829 0.089073256 0.032651078 0.005030132 0.046028703 -0.05992334
0.22539987 0.08741929 -0.12517928 -0.085105605 0.0020285728 0.11949551 0.010173795 -0.2020894
0.06915543 -0.057550337 0.04887247 0.043262582 -0.0036196706 0.19940041 0.22789472 0.13239914

rnn.weight_hh_l1 f4 [256, 64]
00000000: 15a3 133e db0c b7be 813e 793e 7efb 3ebd
00000010: c9f3 51bc fd78 a93d 265b 153e 26bd 9cbe
00000020: 3630 cb3e b7c5 10bf 06e0 0cbe 1bde 973e
00000030: c750 de3d 6b57 263e 515d 85be 4f5b 453d
00000040: 88a5 7cbd 15fc 053e 9b81 d63c 0b52 203e
00000050: 6798 ddbe c37f 8fbe a0c8 7abe 6735 82be
00000060: 645a d9bd 1005 733e 6b72 3e3f c0a2 95bd
00000070: d086 553e 70a4 a8bd 43fd d1bd 4675 b63e
00000080: d3b6 be3d c9ed 39bd 9d81 3abe 0351 d83d
00000090: dd33 95be 6ae7 56bd 7453 4dbe 215a 643e
000000a0: b999 2f3f 6581 b1bc f13c 0b3d 7d3d b3bd
000000b0: 2483 04be 8291 9bbe f389 81bc dbd3 66be
000000c0: ad01 263d af3c 483e 2784 403e a2d3 2ebe
000000d0: 8849 c73d 181c 0b3f ead0 2b3f 41a7 7fbe
000000e0: 71dd c63d 92f7 eb3d 0c1e 93be f0ef f4bd
000000f0: 4bac 6b3e 32ae 35be 7a63 90be a71a 7cbe
00000100: a2f9 4abc 0078 5bbe c4d4 a83d 34c8 afbc
00000110: f768 dd3d 1c04 babd c511 20be 4abf b1be
00000120: d3b8 2c3e 9bb5 1cbf 76f3 1fbd 2945 ab3e
00000130: e243 e53d 094a feba 3b51 4dbe 3a74 933e
00000140: 52ed 7ebd d784 823e ad8c 553e 5bb4 df3c
00000150: cb83 ffbe d824 a93d 7716 ddbe 6554 babe
00000160: 14bf a6be ade7 85bc 6e2f 223f 30b6 28be
00000170: f936 16be 2ecc a2bd e0d0 c2bd 7ade 903e
00000180: ec2a aa3c bd57 40be 3b95 a7bd 5bd0 0c3e
00000190: 95a2 05bf dcb5 ac3c a0d3 fbbd 5bd5 a03e
000001a0: f2c5 193f ee2b 963e 48cc cfbd 8f99 86bd
000001b0: d277 4a3e 4dd3 95be ece2 ccbd a47f 8bbe
000001c0: bf7c 1dbe c85b be3e 3df8 cbbd 45d0 51bc
000001d0: a116 e93d 782d 2f3e b0c1 693e e46e 9bbe
000001e0: dfd2 413b f7bc 0b3e 3cf9 0c3d a648 723d
000001f0: 0574 153e f915 10be ce54 72be 7fc3 d7be
00000200: 169b 73bd 927e fb3d 0a29 333d 812e 87bc
00000210: 0049 1ebd d015 debc df61 cfbd 6dab 02be
00000220: 04ee d83e 15d3 9c3e 8e3d 713d 9027 a7bd
00000230: 1e56 ca3d 3012 40bd 6e58 9d3d b5a5 34be
00000240: be4c edbd 59e0 6ebd 051c f83c 22c6 283d
00000250: 5950 d33d a272 143e 3d41 ac3c 2716 79bc
00000260: 4307 21be e5cf c8bd bed1 bc3d 3260 0ebd
00000270: 8bf8 663d 36d7 013e 16aa e9bd 77eb 5e3c
00000280: 2319 2b3e 7ed4 2f3e 9a5c b9bc 749c 86bd
00000290: 8ceb ddbc 5298 8d3e c2a3 203d 12f0 6a3d
000002a0: 1818 08bd 19ed 22bd 7dd5 22bd 7f73 13be
000002b0: 0dd0 ca3d e02e 083d d915 61be 00f5 253e
000002c0: 6f18 133e 7b2e d5bd ba01 3b3d 2035 a13c
000002d0: e9de cd3c d679 81be d209 0e3f 37aa 983d
000002e0: e6af a8bd aa73 713e c661 103d 2f1c f5bd
000002f0: 8bb9 e6bd 0d09 1d3e 2721 65bd 4675 6bbd
00000300: da15 e9bd b8eb 7ebd be68 6f3b 92eb d3bc
00000310: 4bf2 313d 7fc0 fc3d eb48 8cbd a2b5 c7bd
00000320: a7fa 763e eeae ae3d eb71 df3d 52c3 e0bd
00000330: 207e 133e 3fd6 06be a085 c5bd d2d0 a73c
00000340: 1624 b2bd e306 74bb 3211 dd3d c5c2 80bc
00000350: 3615 633d 2a67 8a3d 23c0 de3d 53a3 80bd
00000360: 626e 05be fb05 4cbe e8f6 6b3e c970 513d
00000370: 6c25 eabd 5dac 233d 5333 d53d 549f bebd
00000380: 8350 003e e29c 2a3e a74b 873b e812 8d3d
00000390: 8b78 54bd bacc 653e 214c f23d 5b24 913c
000003a0: e876 d7bb 6aa3 2c3a 311d 9a3d b2a3 9dbd
000003b0: 1588 f43c 7038 9c3d 4c52 61be f8a3 383b
000003c0: f416 cc3d 8591 c33c 9670 5f3d 5772 103a
000003d0: 926f 843e d835 29be 462e e13e e64b 4cbe
000003e0: 1358 9a3b 62ec 993e a0ac 3fbd d036 aebd
000003f0: bdb8 dabd 2b02 42bd 4c97 b7bd 9294 a5bd
0.1441768 -0.35751995 0.2434025 -0.04662656 -0.012814471 0.0827503 0.14585552 -0.3061306
0.3968522 -0.5655169 -0.13757333 0.2966164 0.10855251 0.16244285 -0.26047757 0.04818278
-0.0616813 0.13084443 0.026184848 0.15656297 -0.43280336 -0.28027162 -0.24490595 -0.25431368
-0.10612944 0.237324 0.7439334 -0.07306433 0.20852208 -0.08234489 -0.10253384 0.35636348
0.09312215 -0.045392785 -0.18213506 0.10562327 -0.2914113 -0.052466787 -0.20051366 0.22300006
0.6859394 -0.021668145 0.033993665 -0.08751962 -0.12940651 -0.3038445 -0.01581285 -0.22541754
0.040528942 0.19554399 0.18800412 -0.17072919 0.09730822 0.5433974 0.6711565 -0.24966146
0.09710205 0.1152183 -0.2873386 -0.11959827 0.23014943 -0.17742231 -0.28200895 -0.24619542
-0.012388619 -0.21432495 0.08243707 -0.021457769 0.10811036 -0.09082815 -0.15631779 -0.34716254
0.1686738 -0.6121461 -0.03905054 0.33451203 0.11194588 -0.0019400726 -0.20050518 0.2879961
-0.062238045 0.25491974 0.20854445 0.02730768 -0.49905238 0.082589805 -0.43181202 -0.36392513
-0.32567656 -0.016345823 0.6335362 -0.16475749 -0.14669408 -0.079491004 -0.09512496 0.28294736
0.02077242 -0.1878347 -0.0818276 0.13751356 -0.52201205 0.021082811 -0.12296224 0.31412777
0.60067666 0.2933039 -0.101463854 -0.06572258 0.1977227 -0.29262772 -0.100042194 -0.2724582
-0.15379618 0.371794 -0.09959457 -0.012806003 0.11381269 0.17107189 0.22827792 -0.3035804
0.0029575152 0.13646303 0.034417376 0.059151314 0.14595039 -0.14070882 -0.23665163 -0.4214134
-0.059474073 0.12280001 0.04374031 -0.016501667 -0.038643837 -0.02711001 -0.10126089 -0.12760706
0.42369092 0.30629793 0.058896594 -0.08161843 0.09879707 -0.046892345 0.07682882 -0.17641337
-0.11586903 -0.058319423 0.030286798 0.04120458 0.103180595 0.14496854 0.021027202 -0.015203035
-0.15725426 -0.09805278 0.09219693 -0.034759708 0.056389373 0.12679753 -0.114093944 0.013605944
0.16708808 0.17170903 -0.022627164 -0.0657281 -0.027089857 0.27655274 0.03921867 0.057357855
-0.033226103 -0.039776895 -0.03975438 -0.14399527 0.09902964 0.03324783 -0.2198099 0.16206741
0.1436479 -0.10409256 0.045655943 0.019678652 0.025130706 -0.25288266 0.55483735 0.07454341
-0.08236675 0.23579279 0.035249494 -0.11968266 -0.11265858 0.15335484 -0.05593982 -0.057484888
-0.11381121 -0.062236518 0.0036530937 -0.025869165 0.04344396 0.12341403 -0.068498455 -0.097514406
0.24119054 0.08529459 0.109104 -0.109747544 0.14403582 -0.13167666 -0.096446276 0.020485315
-0.08698289 -0.003723555 0.10794295 -0.015717873 0.05544015 0.06757958 0.10876491 -0.062811516
-0.13030389 -0.19924156 0.23043406 0.05113295 -0.11432919 0.0399593 0.1041018 -0.09307733
0.12530713 0.16661409 0.0041288915 0.06888372 -0.05187277 0.22441378 0.11830927 0.017717531
-0.006575454 0.000658563 0.07525099 -0.07697238 0.029850045 0.07627952 -0.2200405 0.0028173905
0.099653155 0.0238731 0.05455073 0.0005510202 0.2586637 -0.16524446 0.43980616 -0.19950828
0.0047102063 0.30063158 -0.046795487 -0.085065484 -0.10679767 -0.04736535 -0.089644045 -0.08084978

rnn.bias_ih_l1 f4 [256]
00000000: 08aa c53d 5613 5e3e 451d 98bc 2710 d3bd
00000010: 2c73 a2bd 15f6 b5bd fed2 55be 1b9f 9a3d
00000020: b1df 613e 1c4f ef3d 084c 673d 4211 c23d
00000030: 7f51 8c3e 3f18 acbc 71ef 003b df08 803c
00000040: 6b6e f5ba 066f 52bd ddda 99bd 4562 f6bd
00000050: 4633 c7bd f73b 2cbd 9d24 483e 624c df3d
00000060: 29bf 66bd 878a 1bbe 482a 503e bfcb 02bd
00000070: fca0 dcbd 45d2 0ebe c4a0 8bbc c315 8fbd
00000080: c2db a8bd 5f29 88bd 96c4 793d fda2 113d
00000090: 075d f53d 36f0 10bd 1345 90bd 816a b73d
000000a0: 1b86 d03d d2bf be3c e000 283d 7b2c f03d
000000b0: 1f3d d9bc 9e5f 4e3e ffeb 70bc 9b5d a5bd
000000c0: f3b6 ffbb ceec 463e c01b 703d 91a2 f9bd
000000d0: 7a36 d43c 1669 093e 368b 343e 082f 733e
000000e0: 89d4 00be 9ff1 f53e d720 3f3e eb29 013d
000000f0: a2b0 f4bb a434 bf3c c2c4 b1bd 5575 aa3e
00000100: 29c7 7bbc 76de acbe 3448 e7bd 9362 633d
00000110: cd30 d43d 342e c83d be77 f1bd c9e0 02be
00000120: 0118 233e 2c3c 1b3e a8f5 20be a466 54bd
00000130: ae94 e23c 1453 33be 55ae db3a cfe2 8fbd
00000140: 19ee cb3d a97a 2dbe 1a74 4dbe 00ba 3abe
00000150: 576e e7bd 161e eebd c02c 65be 5481 1cbe
00000160: 3530 86be 85c3 18be 8496 37be dbcf 3fbe
00000170: 4ed9 24be 1066 3bbe ea3b 113e 8b11 c4bd
00000180: 44e0 43be 35ce 1b3d 153d 0abe 17af 96bd
00000190: cb93 b1bd 8109 c5bd 921e 49be 75be 893c
000001a0: 6857 85be 4957 803d c4be e9bc d71b 143d
000001b0: bb80 9cbd 3a10 b5bd 7655 2abd 4537 e7bd
000001c0: 3477 5ebd 0d68 3cbd f0ac c93d eaa2 773d
000001d0: b139 86bb 2011 82bd 9724 553e e6ee 15be
000001e0: 143b 0cbd 56a7 b33c 8b5a 24be 4eae c5bd
000001f0: 75ad 31be 21fe d8bd dea9 2ebe 951a 36be
00000200: a7ce 08be 0437 353e 5c42 8dbd 52dc 013d
00000210: 845e 043d 87b5 14bc 6a1c 633c 8f41 7bbd
00000220: c02e c9bd c667 5bbd 5614 b5bd fabe e63d
00000230: e5af 54bd 3586 ab3d 9c1a 6b3d 9967 5a3d
00000240: cd60 0b3e 15b1 7ebd 1ed2 d73d 2f26 f13c
00000250: 6a5a e8bd 69d3 27bc 2461 30be 2fe4 efbd
00000260: 9955 19be 9f58 03be dd5c 79bd 2d6b eabd
00000270: 797f 28bc 0172 90bd 467a d7bd f5b7 a9bd
00000280: 1558 efbc d9fd 0c3d 6d43 973d 3d2a 1f3d
00000290: 741c 553b 4921 efbd 3c9e 62bd 8b14 c03d
000002a0: e351 99bd dbfb 5c3d 46c1 34bd 0d4e 863d
000002b0: a943 edbd 3dc6 92bc 37bf 92bd 28a0 d4bd
000002c0: a851 913d d3c9 103d 2b7d beb9 1ac8 833c
000002d0: 077d 01be 2e13 cb3c 3d8c b7bd 0e61 bfbc
000002e0: 2b85 d8bd 7b65 03be e1bd 063e 9387 e239
000002f0: bc5d 353d 7f47 98bd 17f2 b73d 2846 68bd
00000300: 7f55 9e3e 4eac 523e ff0e afbd 8393 53bd
00000310: c40a 143e 71d9 b7bd 4f04 3ebe 9a6b 1f3d
00000320: 0975 643e 2e5f 3b3d 0e52 b7bd 0bfc 823d
00000330: 1033 873e fa08 e4bc 8f7f a4bc 0799 b63d
00000340: 53a7 3fbd 7482 6cbe 8b87 bf3d 40c8 18bd
00000350: 559f 2d3d aa1d 78bc b3f3 4f3e 3a13 723d
00000360: d66d 9bbd e815 f1bd 2f5e 5d3e 71dc 43bd
00000370: be6c a33c 343d d2bd 1128 adbc c1e9 1f3d
00000380: e223 36bc 79ed 09bd fabe 8fbd 8723 b53c
00000390: bd83 d03d 32ee 733d eb96 fe3d c85b 5bbd
000003a0: fcb8 213e 57be 55bd 864c 29be 7da7 63bc
000003b0: 694a d43c e2c5 263e e9f6 3abd c57c fabd
000003c0: ff06 62bd ffe2 4e3e ee76 2b3d 6f3b b7bd
000003d0: ada9 c23d 173c dc3c 2fec ba3d 5644 ad3e
000003e0: d7a2 0ebe 22ea be3e 556d 8b3e 3c02 f03c
000003f0: bc8f a93d 267a 353c 2b3a b53c a7c5 6f3e
0.096515715 0.21687064 -0.018568644 -0.10305815 -0.079321235 -0.08884827 -0.20881268 0.07549878
0.22057988 0.11685011 0.056468993 0.09475948 0.27405927 -0.021007655 0.0019673968 0.01562923
-0.0018724924 -0.05137541 -0.07512448 -0.12030462 -0.097265765 -0.042049374 0.19545217 0.10903241
-0.05633465 -0.15189563 0.20328629 -0.03193259 -0.10772893 -0.13947399 -0.017044432 -0.069865726
-0.082450405 -0.06648516 0.060978495 0.03555583 0.11980634 -0.035385333 -0.07044425 0.08955861
0.101818286 0.023284826 0.04101646 0.11727234 -0.026518403 0.20153663 -0.014704703 -0.080744945
-0.0078037917 0.19426271 0.058620214 -0.1218921 0.025904883 0.13418993 0.1763123 0.2374841
-0.12581076 0.48035905 0.18664871 0.031534117 -0.0074673453 0.02334053 -0.08680107 0.33292642
-0.015367308 -0.33763474 -0.112930685 0.05551393 0.103608705 0.097744375 -0.11790417 -0.12781061
0.15927126 0.15159672 -0.1571871 -0.0518557 0.027658787 -0.1751216 0.0016760329 -0.07025682
0.09957523 -0.16941322 -0.2006382 -0.18235016 -0.113003425 -0.11626832 -0.22380352 -0.1528371
-0.26208654 -0.14918335 -0.17928511 -0.18731634 -0.1609852 -0.18300653 0.14183012 -0.095736586
-0.1912852 0.03803845 -0.13499863 -0.073576145 -0.086707674 -0.09620953 -0.19640568 0.01681445
-0.26043248 0.06266648 -0.028533347 0.036159363 -0.07641741 -0.088409856 -0.04158541 -0.11289839
-0.0543129 -0.045997668 0.09847438 0.0604581 -0.004096233 -0.063509226 0.20814739 -0.14641914
-0.03423603 0.021930378 -0.16050164 -0.096523866 -0.17351325 -0.10595346 -0.17056987 -0.17783578
-0.13360082 0.17696768 -0.06897423 0.031704254 0.0323167 -0.009076483 0.013861755 -0.06134182
-0.0982337 -0.053565763 -0.088417694 0.11266895 -0.05192556 0.08375207 0.057398424 0.053321455
0.13611145 -0.062180597 0.105381235 0.029437153 -0.1134537 -0.010243275 -0.17224556 -0.117134444
-0.14974059 -0.12826775 -0.060879577 -0.114462234 -0.010284298 -0.070529945 -0.10521369 -0.0828704
-0.029216805 0.034421775 0.07385907 0.03885864 0.003251818 -0.116762705 -0.055326685 0.09378918
-0.07486322 0.053951126 -0.044129632 0.06557856 -0.11585171 -0.017916793 -0.071653776 -0.1038211
0.07095653 0.035348725 -0.0003633288 0.016086627 -0.1264535 0.024789419 -0.08962295 -0.023361709
-0.10572275 -0.1283168 0.1315837 0.0004320709 0.044278845 -0.07435512 0.08981722 -0.05670753
0.30924603 0.20573542 -0.08547782 -0.05165435 0.14457232 -0.089770205 -0.18556331 0.038920976
0.2231027 0.045745067 -0.089511976 0.0639573 0.26406145 -0.027836312 -0.020080356 0.089159064
-0.046790432 -0.23096639 0.09352025 -0.03730035 0.04238828 -0.015143791 0.20307808 0.059100367
-0.07589309 -0.117717564 0.2161796 -0.04781765 0.019949313 -0.1026558 -0.02113727 0.039041284
-0.011116954 -0.033673737 -0.07018848 0.022111667 0.10181377 0.059553333 0.12431129 -0.053554326
0.15793222 -0.052183475 -0.16533098 -0.013894913 0.025914388 0.16286424 -0.045645628 -0.12230829
-0.055182453 0.2020378 0.041861467 -0.08946883 0.09505019 0.026884122 0.0912708 0.338412
-0.13929306 0.37288004 0.2723185 0.02929794 0.08279368 0.011076486 0.022122463 0.23415242

rnn.bias_hh_l1 f4 [256]
00000000: 2946 6a3e 6298 453e 2013 513d 8328 ab3d
00000010: 34e3 db3c 6968 cfbd 0708 55bd f6c6 f0bb
00000020: 15e3 9b3d b781 693e cbf7 06be 87f7 5e3d
00000030: 83b5 ff3d 350b 613d c1b7 ff3d cf7c c8bd
00000040: d672 ad3d 3e7a 55be 5bb4 35bc f793 16be
00000050: 03f8 853d 6975 c2bd 4b89 e63d 0364 0a3e
00000060: f9c0 0ebe b7ff da3c 303a 713e 1598 64bd
00000070: bc19 37bd 963d cebd b657 06bd 07fa a83d
00000080: 55eb 6ebe 6e2c c43d d881 6bbd b636 d03d
00000090: e624 f23c 6953 593d 93e6 6bbc b7ee bd3c
000000a0: cb59 dd3d 8652 a3bd 76fa 0cbe 2c28 75bb
000000b0: cb42 f3bd 01e4 ca3c 07e7 b0bd 21f4 dbbc
000000c0: c55a c8bd 1821 5e3d 7c5b f1bc 2b53 8ebb
000000d0: ab45 773d 9552 bcbc 979e 323e 3bf8 363e
000000e0: 3b2e 33be efe0 e63e 40d5 683e 91c9 2c3d
000000f0: 8e07 15be 617e 6ebd 31c9 963d 3096 3d3e
00000100: e016 58be ace4 3bbe 1582 2dbe e9ae 8e3d
00000110: 9099 363d 95a7 323d 3085 eabd 9081 843d
00000120: 6fbb 0e3e e00f 1d3e ad30 393d 35f1 09be
00000130: a5a4 fbbc 6287 e8bc ea4a f3bd 5cda 47be
00000140: 8026 90bd 88d0 79be 4955 f9bd c171 86be
00000150: 6aa8 9f3d 72b0 aebd 2206 73bd 98cb 20bc
00000160: f30e 68be 0b8d 5ebd eb2c 06be 450d 17be
00000170: a154 23be 1e33 a4bd 4912 e53c 5632 52bd
00000180: 87ce 70bd 40ca 21be e13b 1abe 37c0 efbd
00000190: 9a92 4ebe 6f3c 543c 38ff 60be da52 1abe
000001a0: b719 9abe d32f c23d 1282 f1bd 1978 593d
000001b0: 8fdf 1f3d 29f3 c03c 7bb2 89bd ec09 65bc
000001c0: 37ba b33c e74d 85be ccf9 34bd 3db0 adbc
000001d0: 6827 5abe fdc8 15be b1f2 4a3e 7d68 00be
000001e0: 32cf 84bd 2498 863d ef35 38be 27bf 91be
000001f0: 9483 f73b 397c 87bc 9850 e9bd 2d0d 28be
00000200: f238 d4bd 6454 883d 5da7 54bc 950f bfbd
00000210: 20e1 f03c 0832 b7bd 8eff c6bd 535c 8d3d
00000220: 0996 d6bd 607d 91bd 72b5 b0bc 01bc 6fbd
00000230: 6819 18bd 529e 2dbc a2fe 18bd 894e d13d
00000240: 51a0 003e f8d3 ff3d cfa6 e3bd 481d 433d
00000250: c721 30bc becb bd3d 38d9 39be 0ef3 94bc
00000260: cc95 323d a294 553d 7299 d7bd eb3a 00be
00000270: 9a33 12be b6fa 02bd d360 0d3d 4702 aa3d
00000280: 0b14 f2bd 87de 41bd 6fbb f3bd 8967 ea3d
00000290: 5885 9f3a 84da 533d 268d debc fe03 99bd
000002a0: 7b15 99bd ef8d a53c 68eb 01bc ae24 0a3a
000002b0: 0aba dd3d 9f00 dcbd 6659 cf3d 23ba 163d
000002c0: e19b eabd 06e3 223d 003c a2bd 8a02 8e3b
000002d0: 1a29 193d e7c8 ea3c 95eb 07bd eef4 093e
000002e0: 91e8 903d ba83 a8bd f272 e3ba d2a6 11be
000002f0: 66b9 8e3d f5a0 253d 0e83 a9bc e0b9 f2bd
00000300: c72a 4e3e 03b5 213e 0f26 9c3c c6b4 963c
00000310: e84f b33d f0f6 febd 0bd6 d9bd d3e0 53bd
00000320: 3284 4a3e 5493 8a3e 2801 34bd f598 873d
00000330: 9a43 833e b960 97bd 61ba 0a3d 73fb 02be
00000340: 79cb be3b 3442 c6bc c0e8 663d 58ad 133d
00000350: c60d af3d 616b fcbd d4e2 803e a1e0 9d3d
00000360: ffb6 07be 3c5c 0b3c c047 a43e aa4a fb3a
00000370: 09df 37be fc5c a2bc aa9d 9dbd ef90 24bd
00000380: 0ec7 91bc c43a 923d 8c86 f9bd 091c 82bd
00000390: b95a 973c 1d4a bfbd 11b5 80bd 1e02 293e
000003a0: 6b79 193e fb3a 8c3d ddc3 14bd c9f4 ff3d
000003b0: 07e7 a1bd 0af7 ff3d c787 dbbd 74d0 4d3c
000003c0: 6909 923d 38d4 653e a3be acbd 49a9 5fbb
000003d0: a0f7 a33d 2d35 633d 852d 013d c07e 973e
000003e0: 9f14 32be 4e1f b03e 4d13 ed3d 9b97 d839
000003f0: e690 e4bd 7a5a cb3d a778 efbc ab9b a03e
0.22878326 0.1929641 0.05104363 0.08357336 0.026841737 -0.101273365 -0.05200961 -0.0073479367
0.07611672 0.22803389 -0.13180463 0.05443528 0.124857925 0.05494233 0.1248622 -0.0978943
0.08469169 -0.20847413 -0.011090363 -0.14704882 0.06541445 -0.094950505 0.11256655 0.13514714
-0.139408 0.026733262 0.23557353 -0.0558091 -0.044702277 -0.1007034 -0.03279849 0.08250814
-0.2333196 0.09578787 -0.057496876 0.10166685 0.02955861 0.05305806 -0.014398235 0.023185117
0.10808142 -0.079747245 -0.13767418 -0.0037407978 -0.11877974 0.024766924 -0.08637815 -0.026849808
-0.09782938 0.05423078 -0.029462568 -0.0043434105 0.060369175 -0.022988597 0.1744331 0.1786813
-0.17498104 0.45093486 0.22737598 0.042184416 -0.14553663 -0.058225993 0.07362593 0.18514323
-0.21102476 -0.1834895 -0.16944154 0.06966955 0.044580042 0.04361685 -0.11451185 0.064700246
0.13938688 0.15338087 0.045212436 -0.1347092 -0.030718157 -0.028384868 -0.11879523 -0.19516891
-0.07038593 -0.24395955 -0.1217447 -0.26258662 0.07795794 -0.08529748 -0.05933202 -0.0098141655
-0.22661953 -0.054333728 -0.13103072 -0.14751156 -0.15950252 -0.08017562 0.02796282 -0.051317535
-0.05879071 -0.15799809 -0.15061904 -0.11706584 -0.20173112 0.012953862 -0.21972358 -0.15070668
-0.30097744 0.09481778 -0.11792387 0.05309305 0.03903156 0.023553448 -0.067234956 -0.013979416
0.02193938 -0.26035997 -0.044183537 -0.021202201 -0.21304095 -0.14627452 0.19819142 -0.12539859
-0.06484832 0.06571987 -0.17989324 -0.2846615 0.007553527 -0.016538726 -0.11392325 -0.16411276
-0.10362424 0.06656721 -0.012979356 -0.09329144 0.029404223 -0.089450896 -0.09716712 0.06902375
-0.10477836 -0.071039915 -0.021570895 -0.058528904 -0.037133604 -0.010596829 -0.03735221 0.102200575
0.12561156 0.12491602 -0.111158006 0.047635347 -0.010750241 0.09267376 -0.18149269 -0.018182304
0.04359989 0.0521437 -0.10527314 -0.12522475 -0.14277497 -0.031977378 0.034516167 0.083012156
-0.11820229 -0.04733136 -0.119009845 0.11445529 0.0012170477 0.051722065 -0.027166914 -0.074714646
-0.074748 0.02020928 -0.00792966 0.0005269748 0.108265 -0.10742306 0.10124473 0.036798608
-0.11455513 0.039767288 -0.079216 0.004333799 0.037392713 0.02866025 -0.033183653 0.1347234
0.070756085 -0.0822825 -0.0017352982 -0.14223793 0.06968956 0.040436704 -0.020692375 -0.11851859
0.20133506 0.15791707 0.019061117 0.018396746 0.08755475 -0.12449443 -0.106365286 -0.05172808
0.19776991 0.27065527 -0.043946415 0.06620971 0.25637513 -0.07391495 0.03386915 -0.12791233
0.0058225957 -0.02420149 0.05637431 0.036053985 0.08547549 -0.123251684 0.25173056 0.0770886
-0.13253401 0.008505877 0.3208599 0.0019172032 -0.17956175 -0.019819729 -0.07696088 -0.040177282
-0.017795112 0.07140115 -0.12183866 -0.063530035 0.018475877 -0.09340308 -0.06284536 0.16504714
0.14987724 0.06847187 -0.036319602 0.12497861 -0.07905393 0.12498291 -0.10719257 0.012561906
0.07130701 0.22444236 -0.084347986 -0.0034128001 0.08006215 0.055470634 0.03153755 0.2958889
-0.17390679 0.34398884 0.11575947 0.00041311685 -0.1116045 0.099293664 -0.029232336 0.31368765
