checkpoints/TP_LSTM_L2_bs16_trainNon0baseline_pos1_downsp_rs_lastloss/TP_LSTM_L2_bs16_epoch13_best0.22384283691644669.pt (torch, 206215 bytes, 9 tensors)

rnn.weight_ih_l0 f4 [256, 3]
00000000: 0d04 c23d 0dac 313c 6777 52bd cc36 f03d
00000010: 17c3 bdbc b98b 253e 9a4d 663d 194a 4a3e
00000020: 8a75 5a3d 23de af3c c85e de3d 2f3f 823c
00000030: 3b96 2d3d 254b 95bd 64a0 adbc 1bc2 723c
00000040: 298e 8a3d 8338 1eba 9c67 0e3e 83dd cc3d
00000050: bbac 39bd eaef 23bd fe5f 3a3d b6c1 3cbd
00000060: fcf0 dc3a fe24 6f3d e193 b23d 1598 723d
00000070: 89af 0dbe 20a3 a03d ef0c d4bb 1048 2e3d
00000080: 34b9 dd3d 44ec c5bd 28d3 fdbd c15d 4ebd
00000090: 5f05 603e 593b e33c 6055 ddbc b666 3ebd
000000a0: 97bc 173e 74fb 42bc 7165 333e 51c2 0d3e
000000b0: b4f2 cfba 350f cc3d 5403 0a3c fe6e 0d3d
000000c0: f87d 6e3b f958 923b 0be9 d5bd b1f2 c0bd
000000d0: a610 da3c 7bb6 b3bc e70e 533e a970 7b3e
000000e0: ee3d 603e 7395 38bd d177 e43d 8d34 2b3d
000000f0: fb2b 35bd f84c ff3d 1544 ae3d f8fb 5c3e
00000100: 0e11 91bc 7558 8abc 57b7 3c3d beee ed3d
00000110: 1b36 c5bd 9d82 afbd 2964 d33d 01d6 18bd
00000120: 4462 963d 9253 de3c dc75 033d 0edc 8a3d
00000130: 17b8 6c3d b3be 6e3d b1cf 24bc f6c7 393e
00000140: d3d3 06bc 0e16 cabd 11a3 c7bd 08e6 07be
00000150: a6b5 ba3d 0e54 19bd dcd2 f8bd 7168 9d3d
00000160: bb47 09bd d7e0 293d 783b a83d 01b1 16bc
00000170: 1477 9f3d 77d1 493e 7cc7 f83d 1150 653e
00000180: 017f 403d fa38 153d 05f9 13bd 400b 4a3b
00000190: a4e8 453e df33 b83b 6a8b d33d 7a37 9a3d
000001a0: 77f1 96bd 0370 b2bd 1d06 243e b78e ae3d
000001b0: b90a ed3d 08aa 923d 55e5 3e3d 17d2 c83d
000001c0: 2243 be3d b915 98bd d589 3d3d 59c7 083e
000001d0: c228 f53d f843 d73d 1eb7 ccbc 828d a1bd
000001e0: 327d 5dbd 88d7 a23d 1c9b f73d b5e8 eabd
000001f0: 3d83 b33c ecab a1bd 1576 67bd 239a 2f3d
00000200: 4c01 ea3d 7efa f63d 4c7f 8cbd df52 b13d
00000210: a1e0 2a3e d2f9 3e3e 5a64 e03d 09c9 053e
00000220: 0afc fd3d e9f4 173d 477a cebd ab09 9a3d
00000230: 420b 033e 61ce d439 22cd 9ebd 1407 733d
00000240: 29fb c53d dd06 51bd df5d 6e3d a7a8 623d
00000250: 07d6 083e 0692 933d 482a 04bc cebc ef3d
00000260: a77b da3b 4455 ea3d b532 853d 87d6 293e
00000270: bafd 16bd 9a65 0dbd 01e5 a23d 4f67 393c
00000280: 9187 cebd 19d1 2f3d 41e3 8e3d 19d8 1e3e
00000290: d14e 1cbd ca23 5b3c 00e3 3bbd 4b08 47bd
000002a0: 281c 473c 14eb 64bb 2274 8bbc 1b8e c93d
000002b0: f3da e13b 7556 c23c b7cb 453e dea2 5b3e
000002c0: adcc d93d 6fa5 1b3d 0089 bbbd b24f 943d
000002d0: 8005 133c 4ec9 dfbc 2c17 b2bd 2efa e13c
000002e0: 1a90 613b 7174 3b3e 9992 e4bd 6fdd 16be
000002f0: 3cb2 cfbc 807c d8bc 8c0f e93d 4fe5 23bd
00000300: 4ecd 35bd 6b52 6a3d 280e 3d3d 942f 82bd
00000310: 94d6 f03d db38 dc3d 346b 293e 86bf 7d3b
00000320: 61b2 763b efd2 7abd 526a 323e c519 4ebd
00000330: 0411 9a3d 05bd 83bc 59b4 99bc 5e5e 9e3c
00000340: 022b 893d 82e7 593d 30b0 383d 0f74 c33d
00000350: 636d ecbd 25bc ef3d 41c7 283e 79bb c33d
00000360: 6c21 e33d ef52 7cbd bd8d 8abd d7d2 c53d
00000370: 6ae0 edbd fd79 d23d 34bf 3fbe 6850 5cbe
00000380: 6cbc 0d3d b6c8 b4bd 139a 44bd e27b a33d
00000390: 40e3 fd3d f41d a83d 6884 6cbe 59f5 24be
000003a0: 353b 8a3d fab6 03be 71c0 74bd 47f3 8c3d
000003b0: 4e93 2abe 656d d03d d5ca 0a3e 4d27 f9bd
000003c0: 91da abbd 9872 57bc ff76 173d 1e1f 09be
000003d0: d835 53be 0bce 08be 2b94 2abe d669 a2bd
000003e0: 33c5 b3bd c711 0d3e b44f 113e d49d 39bd
000003f0: c068 243d e913 c73d d593 a03c edf1 75bc
0.09473429 0.010844243 -0.051383402 0.11729202 -0.023164315 0.16166581 0.05622635 0.19754829
0.05333475 0.021468228 0.10857922 0.015899269 0.0423796 -0.07289723 -0.021194644 0.014816786
0.06765396 -0.00060356426 0.13906711 0.100031875 -0.045330744 -0.04002372 0.0455017 -0.046083175
0.0016856487 0.058384888 0.08719612 0.059227068 -0.13836493 0.078436136 -0.0064712684 0.042549193
0.1082634 -0.09664205 -0.123937905 -0.05038238 0.21877049 0.02773826 -0.027018249 -0.04648467
0.14818035 -0.011900771 0.17519166 0.13843657 -0.0015865178 0.09963838 0.008423645 0.03452968
0.0036391001 0.004466173 -0.1044484 -0.0942129 0.026619267 -0.0219376 0.20611154 0.24554695
0.21898624 -0.0450644 0.11155666 0.041798163 -0.044231396 0.124658525 0.08509079 0.21580493
-0.017708328 -0.016887883 0.046073284 0.11617802 -0.096294604 -0.085698344 0.103218384 -0.037313465
0.073429614 0.027139459 0.03209482 0.06780253 0.05779275 0.058287334 -0.010059283 0.18142685
-0.008229214 -0.09867488 -0.09747899 -0.13271344 0.09116678 -0.037433676 -0.12149593 0.07685936
-0.033515673 0.04147419 0.08214468 -0.009197474 0.07786384 0.19708811 0.121474236 0.22393824
0.04699612 0.03643129 -0.036126155 0.003082946 0.19327027 0.005621418 0.103293255 0.075301126
-0.073702745 -0.08712771 0.16017957 0.085233144 0.11574311 0.07161337 0.046605427 0.098056965
0.09290148 -0.07426018 0.046274025 0.13357295 0.119706646 0.10511011 -0.02498966 -0.078883186
-0.054074474 0.079512656 0.12090132 -0.114701666 0.021913165 -0.078941196 -0.056509096 0.042871606
0.114260286 0.12059496 -0.068602175 0.086583845 0.16687252 0.18649986 0.109566405 0.1306497
0.12401588 0.0370988 -0.10081916 0.07521375 0.12797263 0.00040589555 -0.0775397 0.059332922
0.096670456 -0.051031936 0.05819499 0.05533662 0.13362895 0.07205586 -0.008066721 0.117059335
0.0066675725 0.114420444 0.06503812 0.16585742 -0.036863066 -0.034520723 0.07953835 0.011316135
-0.10084451 0.04292402 0.06976939 0.15512122 -0.038161103 0.013375232 -0.04587078 -0.048591893
0.012152709 -0.0034930157 -0.01702315 0.098415576 0.006892556 0.023722867 0.19315992 0.21448848
0.10634742 0.037999567 -0.0915699 0.07241763 0.008973479 -0.02731767 -0.08695826 0.027585115
0.0034418167 0.18306138 -0.11160774 -0.14732908 -0.025353543 -0.026426554 0.113799185 -0.040013608
-0.044385247 0.057207506 0.04615608 -0.06356731 0.117596775 0.10753032 0.16544801 0.0038718893
0.0037642943 -0.06123632 0.1742337 -0.050317544 0.07522777 -0.016081342 -0.018762754 0.019332107
0.06697656 0.0531993 0.0450899 0.09543621 -0.11544301 0.117058076 0.1648226 0.09557242
0.11090359 -0.06160253 -0.06765316 0.09659355 -0.11615069 0.10277174 -0.18725282 -0.21515048
0.03460352 -0.08827345 -0.0479985 0.07982613 0.1239686 0.08208838 -0.23097384 -0.16109218
0.06749574 -0.12862769 -0.05975384 0.06882339 -0.16657755 0.10177115 0.13553937 -0.12165699
-0.083912976 -0.01314988 0.036978718 -0.13390777 -0.20626009 -0.13359849 -0.16658084 -0.07930343
-0.08777847 0.13776313 0.1419056 -0.045316532 0.04013896 0.097205944 0.019601742 -0.015011293

rnn.weight_hh_l0 f4 [256, 64]
00000000: 6667 21bd 3541 383d 19eb d4bd 7e0d e13c
00000010: 9311 18be 74fb a83d e635 d83d 8921 3cbd
00000020: 0914 333c bc98 9f3d fc85 bcbd 014d 80bd
00000030: 7801 e1bd 0b13 95bc 12a8 e83c a8af 913c
00000040: 6c10 eabd 4296 ab3d 8158 a7bd dd83 b5bd
00000050: 11fe fe3d 1638 e03d 2fbb f9bd 96ce 0e3c
00000060: 2a13 163c fd57 623d aebc e83d dec7 e63d
00000070: 2a60 ab3d 0a91 01bc 2d8b a63c b341 e6bd
00000080: c9ba f33c e097 093e c284 ad3d ddf4 103e
00000090: e27c 47bd ed9e 90bc 416d ec3d 9a83 ad3d
000000a0: c32f f8bd 3705 aabc f2cb 413d 742f b53c
000000b0: 44fa 483d bb4d b2ba 1fc0 cbbd fc90 543c
000000c0: cde5 c53d cc1d 023e 59e7 223d d423 693d
000000d0: a889 f83d a5e4 db3d dcde 01bd fa67 5c3d
000000e0: 3f76 563c 21cb 8abd 9f14 f5bc 6f48 0cbd
000000f0: 575b b5bd 9182 77bd 3344 ab3c 3f61 bd3d
00000100: 00d4 1c3d 44c5 f2bd 0962 003e a1a4 fb3b
00000110: adf9 a33d cc60 9dbd 3ef6 a2bd 80c6 3a3d
00000120: f566 963d e8a3 3fbc 6b48 3ebe a513 05bd
00000130: 6610 bc3d 21c1 00bd 177d 1ebe 5b01 5bbd
00000140: f892 d8bc ca74 033e fd73 c2bd 2496 a93c
00000150: e8ba 5dbd a14e 68bc 2b91 8ebb 7a78 083e
00000160: 27b6 8fbd 3162 0dbe 8acb 4bbd f46c 77bd
00000170: 44a1 1b3d b4c8 e33c 85ef 0dbd 32d0 693d
00000180: e3c7 01bd 0143 e13d 910f 58bc 07e4 f9bd
00000190: b438 8d3d f94e 843d 9471 e9bd 6ad3 05bd
000001a0: a99e 87bc 35ce 343d c539 d0bc 4905 aabd
000001b0: a1b8 12be bf7e 653d ea4e b8be b602 1fbe
000001c0: 3352 20bc 5b6a 1abd 425d 503d d688 c33d
000001d0: ca93 053e 1060 50bd 575a ea3d bd32 1c3d
000001e0: efaa 4cbc c7ec 5d3c fde4 da3c 4f70 c03d
000001f0: 2bb7 fe3c ab71 c63c 681e c7bd 431c d4bd
00000200: e3c9 4ebd d7f3 e23d be25 8c3b 8b4e 8f3d
00000210: fc7c 5fbe 0bcd 4c3d 5357 d3bd c2d7 01be
00000220: 129d f03d ec06 d73d 10db 01be f4ae 45bd
00000230: 3709 f0bd 6ac3 a93c 0280 04bc 6d4e 8a3c
00000240: 8aa2 fc3c ab6e c13e 394b 0a3d 2cf2 0e3e
00000250: ec43 403e f79d bd3d ce18 bb3c adf0 8f3d
00000260: a5b7 8d3d 3bc9 80bc 652b bebd 19c0 6c3e
00000270: 970a 07bd 839d fbbc 4dd0 d33d ec80 09bd
00000280: 237f 093d cb78 2e3e a8be 4b3d e615 16be
00000290: bf53 643d 892e 683d 1086 4e3d 205f 3abc
000002a0: 4c26 d7bc b109 ab3d 9c30 633c 0600 813c
000002b0: 7632 04be 00be 0c3e 123b 08be 6077 09bd
000002c0: 4e96 313e 3dfc 393d 6830 a3bd 2e9c dd3d
000002d0: 1de5 053d ce21 c33d 05d7 423e 0847 0bbe
000002e0: 7bfa 5c3c 4de8 683d 0aa9 12be f042 993b
000002f0: 1d9b b03d 59de 463d efa3 3fbd e403 bbbd
00000300: e132 1bbc a840 d2bd cbbc b5bd 1e7c cfbd
00000310: 0624 ef3d 4bf0 dd3d 7a35 fc3c a36b 49bd
00000320: 66ae e73d 0001 c3ba 1f79 d43d dc02 60bc
00000330: 6faa 8abd dc8a 41bc 104e 75bd 8f82 01be
00000340: cef4 fb3c b3ec 67bc 192b c73d 5c29 b93d
00000350: 6dc3 ceba b763 af3d 45f6 2b3d 2959 d33d
00000360: 75c1 a5bd 3593 bcbc 21cd f5bc 0421 d73d
00000370: eff8 ffbd b03b 47bd c7d5 1f3d d927 eb3d
00000380: a05e a13d c849 c6bd 60c3 9cbd 167c 0e3e
00000390: e8f4 d63c 9c22 c3bd cdb7 06bd 6c90 0c3d
000003a0: 9c12 1dbd b318 bbbd 4e0b aebd feaf debc
000003b0: 6108 bcbc 001e 513d fd72 493d 73e3 a0bd
000003c0: 7a6a 92bc 4ab7 a6bd 3245 b13d 9f3b fa3d
000003d0: efb2 053e db66 6e3d 58d0 cebb 4360 ecbb
000003e0: 13d8 483d 1db9 f6bd e06b d5bb 8da4 e9bd
000003f0: 8145 07be 9e6a 92bc f3ae 46bd 3454 bbbd
-0.03940525 0.04498406 -0.10396404 0.027472254 -0.14850454 0.08251086 0.10557155 -0.04593042
0.01093007 0.07792804 -0.09205243 -0.06264687 -0.10986608 -0.018197557 0.028400455 0.017783955
-0.114289135 0.08378269 -0.08171178 -0.088630415 0.12450803 0.109481975 -0.121939056 0.008716246
0.0091598425 0.055259693 0.11364113 0.112685904 0.08367951 -0.007908115 0.020330036 -0.11243
0.029752152 0.13436842 0.08472587 0.14155908 -0.048703082 -0.017653907 0.11544276 0.08472367
-0.12118485 -0.02075444 0.047313638 0.022117354 0.049066797 -0.0013603488 -0.099487536 0.01297402
0.09662972 0.12706679 0.03977141 0.056918934 0.12135631 0.1073697 -0.031706676 0.053810097
0.0130897155 -0.06777025 -0.02991706 -0.034248766 -0.08855312 -0.060427252 0.020906543 0.09247064
0.038288116 -0.11854032 0.12537397 0.0076795374 0.08006606 -0.07684478 -0.07957123 0.04559946
0.07343856 -0.011696793 -0.18582313 -0.032489438 0.09182815 -0.031434182 -0.15477405 -0.05346809
-0.026437268 0.1283752 -0.09494779 0.020701475 -0.054133326 -0.014178903 -0.0043508015 0.13327208
-0.07017165 -0.13806988 -0.049754657 -0.06040664 0.03799559 0.027805664 -0.03465225 0.057083316
-0.031684767 0.10999108 -0.013187305 -0.12201696 0.06895581 0.06460375 -0.113986164 -0.032672323
-0.016555147 0.044141967 -0.025418172 -0.08301789 -0.14328243 0.056029078 -0.35997707 -0.15528378
-0.009785223 -0.037699085 0.050870188 0.09547584 0.13044658 -0.050872862 0.11443012 0.038134325
-0.012491926 0.013545222 0.026720518 0.09396421 0.0310932 0.024224123 -0.097225964 -0.10356953
-0.050485503 0.11081665 0.00427696 0.06997403 -0.21825022 0.05000023 -0.1031939 -0.12679961
0.11748709 0.10499367 -0.12681222 -0.04826255 -0.117205076 0.020723063 -0.00808716 0.0168831
0.030839223 0.37779745 0.033763144 0.13959569 0.1877591 0.09258645 0.022838976 0.07028327
0.06919793 -0.015720954 -0.092856206 0.23120154 -0.032969084 -0.030714756 0.103424646 -0.033570215
0.033568513 0.17038266 0.04974237 -0.14656791 0.05574393 0.056685004 0.05042082 -0.011375219
-0.026263379 0.08351458 0.01386657 0.015747081 -0.12909874 0.13744354 -0.13303784 -0.03356111
0.17342493 0.04540657 -0.07968217 0.108208045 0.032689203 0.09527932 0.19027336 -0.13601315
0.013487454 0.056862164 -0.14322296 0.004677169 0.086233355 0.04855189 -0.0467872 -0.091316015
-0.00947258 -0.102662385 -0.088739 -0.10131095 0.11676793 0.10836848 0.030787218 -0.049174916
0.11312561 -0.0014877617 0.103746645 -0.013672557 -0.06770789 -0.011812892 -0.0598889 -0.1264746
0.03075638 -0.014155555 0.09725017 0.09041092 -0.0015774794 0.08563941 0.041982908 0.1031974
-0.080935396 -0.023019413 -0.03000504 0.10504344 -0.12498652 -0.048640907 0.039022233 0.1148221
0.078793764 -0.096820414 -0.07654452 0.13914523 0.026239827 -0.095280856 -0.03289013 0.03431742
-0.038347825 -0.091355704 -0.0849825 -0.027183529 -0.022953214 0.051054 0.049181927 -0.078558825
-0.017873038 -0.08140428 0.08655776 0.12218403 0.13056539 0.05820356 -0.0063114576 -0.0072136237
0.04903419 -0.12047026 -0.006513104 -0.11408339 -0.13210107 -0.017873105 -0.04850669 -0.0914692

rnn.bias_ih_l0 f4 [256]
00000000: cd36 313d 22f6 043e 9f1c 563e f02b 913d
00000010: 1e26 96bd ac9a 2f3d e775 f03b 5eec 043e
00000020: 03e7 bd3d d39b 66bb a027 5f3d c1d2 513d
00000030: 9390 493e e7d3 db3d 9fdc 513e 0a39 ba3d
00000040: dbb7 bb3d 7f33 243e be85 403e dc6f 643d
00000050: ce8a 54bb 3b06 133e 5320 d7bc 1043 033d
00000060: b065 7fbd 4800 4fbc 03ff e63d 70c7 2f3d
00000070: 5095 07be 5611 50ba 2106 f4bc 91a2 993e
00000080: 5377 273d e6c7 e93b b932 9f3d d793 24bd
00000090: 76b0 8d3c 2b5b d23d 430a af3d 2ddb de3d
000000a0: cb4e 3bbd 6290 843d 499e 5cbd 0076 2b3c
000000b0: 216b 16bd 28ba 613d acf8 9f3e 4d96 51bc
000000c0: 7b15 64bd 7228 7fbd dfbf 953d 411a 783e
000000d0: 3ab1 f5bd 8d37 c53d 6b59 023d 1e23 993d
000000e0: 4fad d43d def3 1fbc 7d1b a9bd 106b 8abc
000000f0: ca6d e5bb 2183 623d cd81 f1bd bc0a dc3a
00000100: 66e3 c0bd be1f 5fbd 6a44 a7bd 5246 cb3d
00000110: 2f61 e53d 2b19 81bd a1b0 69bd 0266 9d3d
00000120: 4dcd 49bc 5afd 15bd 198d a9bc 33c7 09be
00000130: 26aa bbbd 5074 ec3c b26b b8bc ba4a 943d
00000140: d726 63bd a109 dcbd df71 cbbb 28f9 a53d
00000150: 9b54 e9bd c010 083d 1776 483d 7e9d 033d
00000160: aae6 f0bd 7566 c4bd 9c1c 13bd fbd6 14bc
00000170: c21d 6abd 14da a73c 8004 833d a478 c73d
00000180: 75fb 9ebd bc7e 80bd fe35 bc3d 7fda f4bc
00000190: 45b9 21bd 67dd 813d 0ec4 d3bd 81b6 273d
000001a0: bc8f 67bd 0cb0 5bbc b172 6bbd 32ef f9bd
000001b0: 4f4b b43b d316 c43c 2d1d 9ebc 68d0 833c
000001c0: b0ac e0bd af6b c7bd c63d 2f3d 247c 163e
000001d0: 0ec9 843d ab31 a2bd ec4f b93d 6880 aabd
000001e0: 9c4d 1f3d 7c3a b53c 4b13 d6bc 3f09 00be
000001f0: c5df f3bd 2de2 4fbe b449 d2bc f4df c13d
00000200: 0c8e 2f3d d8c8 c43d eb0f e3bd 2364 ad3d
00000210: e78a 03bd b4ae 803d 9331 a8bd c5cd a5bd
00000220: b488 cc3d c0d7 853d ec49 dabd 8786 cabd
00000230: 30b2 13bd acaf c33d 1a11 f83d 241d 51bd
00000240: 9735 533c 0ec7 863d 405f c6bd d338 c5bc
00000250: 508d c63d 5570 423d e19c 403d 92c7 c43d
00000260: cdfd 5c3d 3faa fcbd 133e 97bd 3d28 c6bc
00000270: fdd7 a8bd 28d3 6b3d 2297 a0bb 71db b13d
00000280: 570f c93b 3ea1 033d 51bd 52bc 7dcd a93d
00000290: 0db0 b13d e327 24bd 4d9b aa3c de1c af3b
000002a0: ed74 59bd 1346 a9bd 2676 a33d c572 6b3d
000002b0: fdf6 bdbd 28cc c33d ea8c 06be 07f7 afbd
000002c0: 9979 123d 4a9e f63a ec00 19bd d113 123b
000002d0: d798 923c 74f0 74bd 3a80 ce3d 0bd2 91bd
000002e0: 8dca 07bd 93c3 02be 5eba 03bd 5a96 a43c
000002f0: 7ac2 63bd 8218 a2bd 2731 4ebd 661b 8bbd
00000300: 4602 113e 43c8 353e c509 a13d 71e1 08bd
00000310: 77b1 9d3d 3bc3 ccbc de84 cd3d a570 c13d
00000320: dab2 de3d 73e8 e33d e9cd 213c 452e f2bd
00000330: feb1 283d de66 aabd 6106 7a3e da47 3fbc
00000340: 2a9a bb3d 0501 bcbc c448 763e 8e4b 303d
00000350: 97be f13d 9fed 1bbd a65a 5e3d 9a68 50bd
00000360: 7302 1bbd 9a7b cd3d 4c0d 783c f31f d33d
00000370: 4e79 a53c acac 8bbc 9e4c 053e 6af2 9e3e
00000380: 287d b2bd 9d6d 073e 3cab d43d 5803 d93c
00000390: 2dea b43d 4326 a1bc 9dec e93d 45b4 7b3c
000003a0: a2a5 d2bd ec14 163e d77f 113e 7dde adbd
000003b0: f27e a1bd 50bd f33d 9f75 9e3e 1ce3 2ebc
000003c0: 318c d3bc 8ecd cd3d cf77 a63d 6b48 243e
000003d0: 1836 3abd 6f65 67bd 877a c3bd 46a1 d5bc
000003e0: 0b54 cb3d ef16 c7bc 7fd1 82bd 621a 0abd
000003f0: c3e5 efbc c691 58bd 68ba 043d 93f9 bbbd
0.043265153 0.12984517 0.20909356 0.070884585 -0.07331489 0.042872116 0.007338274 0.12980792
0.092725776 -0.0035188093 0.05448115 0.05122638 0.19684057 0.107337765 0.20494317 0.090929106
0.09165927 0.16035269 0.18801019 0.05577074 -0.0032431367 0.14357845 -0.02626053 0.032046378
-0.062352836 -0.012634344 0.112791084 0.042914808 -0.13240552 -0.00079371536 -0.029788079 0.3000684
0.04088528 0.0071344255 0.077733465 -0.040180054 0.017296057 0.10271295 0.08546879 0.10881648
-0.04572944 0.06472851 -0.05386189 0.010465145 -0.03672326 0.055109173 0.3124441 -0.012792182
-0.055684548 -0.06229443 0.07311987 0.24228765 -0.11996694 0.09629736 0.031823557 0.07477401
0.103846185 -0.009762732 -0.08257196 -0.016896755 -0.0070016133 0.055300836 -0.11792336 0.0016787867
-0.09418373 -0.05447363 -0.08167346 0.09925522 0.11200177 -0.063036285 -0.057053212 0.07685472
-0.012317014 -0.036618568 -0.020697163 -0.13454895 -0.091633126 0.028864056 -0.02251229 0.072408155
-0.055456962 -0.10744024 -0.006208643 0.081041634 -0.1139309 0.0332191 0.048940744 0.032132618
-0.11762746 -0.09589855 -0.035915956 -0.009084458 -0.057157286 0.02048973 0.06397343 0.09739807
-0.07762805 -0.06274173 0.09189986 -0.029889343 -0.039483327 0.06341057 -0.10340129 0.040945534
-0.05653356 -0.013408672 -0.057482425 -0.12203826 0.0055021415 0.023936665 -0.019301021 0.016090587
-0.109704375 -0.09737336 0.04278352 0.14695793 0.06483661 -0.0791963 0.09048447 -0.08325273
0.038892373 0.022122614 -0.026132246 -0.12503527 -0.11907915 -0.20301123 -0.02566991 0.09466544
0.042860076 0.096086204 -0.110870205 0.08466365 -0.03211489 0.06283322 -0.082125805 -0.08095888
0.099870116 0.06535292 -0.10658631 -0.0988894 -0.036058605 0.09554991 0.12112637 -0.05105318
0.012891195 0.065809354 -0.09686136 -0.024074947 0.09694922 0.04747041 0.04702461 0.096083775
0.05395298 -0.12337159 -0.073848866 -0.024189109 -0.082443215 0.05757442 -0.004900829 0.08684433
0.006135862 0.032136194 -0.012862519 0.08291147 0.08676157 -0.0400771 0.020826006 0.0053440174
-0.053090025 -0.08265319 0.079815194 0.0574825 -0.09275625 0.09560424 -0.13139692 -0.085920386
0.035760496 0.0018815484 -0.037354395 0.0022289644 0.017895145 -0.059799626 0.10083051 -0.07120141
-0.03315215 -0.12769918 -0.032160155 0.020091224 -0.05560539 -0.07914831 -0.050339844 -0.06792335
0.14161023 0.17752175 0.078631915 -0.033418123 0.07699864 -0.024995437 0.10035108 0.09445313
0.10873957 0.111283205 0.009875753 -0.118252315 0.04118537 -0.083204016 0.24416496 -0.011674846
0.09160264 -0.022949705 0.24051195 0.043040805 0.1180393 -0.03806841 0.054285668 -0.050881006
-0.037844133 0.10033341 0.015139889 0.10308828 0.020199444 -0.01705011 0.13017508 0.31044322
-0.08715278 0.13225408 0.10384223 0.026490852 0.08833728 -0.019671565 0.114220835 0.015362804
-0.10285498 0.14656419 0.14208923 -0.08489702 -0.07885541 0.11901343 0.30949113 -0.010674264
-0.025823684 0.10048972 0.081283204 0.1604325 -0.045461744 -0.05649322 -0.095448546 -0.026077878
0.09928139 -0.024302928 -0.063876145 -0.033716567 -0.029284364 -0.052873395 0.032404333 -0.09178462

rnn.bias_hh_l0 f4 [256]
00000000: a858 7e3d d905 1e3d c8ca 303d 763f 8c3d
00000010: 31f9 a53d 5d8b 123d 33f1 cd3d db7e 013e
00000020: 263c 3b3c 8be1 933c 008e 143e 08de acbd
00000030: cbed 4b3d c1a1 a2bd 4455 723e 5708 c63d
00000040: c226 ea3d 4b76 bf3d fba6 dc3d 51c1 8fbd
00000050: 3b4e d3bd b596 e93c 9eb1 5c3d 3ed5 80bd
00000060: 418d 783b 7555 ea3c 1277 20bc 0cca 3f3d
00000070: c96a aebd 63d8 c43d 0c56 a6bd 6205 933e
00000080: a28d d03c d957 31bd 620a dc3d 0199 c63d
00000090: dc3c 39bd 202a 91ba e1fe 393e 1633 373b
000000a0: 64e9 dcbd 9c52 90bd 4d0d 283e bb3f ed3d
000000b0: a060 48bd 85f2 c63d b666 4e3e 014c 72bd
000000c0: 890f b43c 3703 d53d 05e4 763d f671 263e
000000d0: 4280 03bd 5d7b 923d be15 d23d 89a6 463d
000000e0: b644 753c 77b6 40bd 0f7b 6a3d a5ab 37bd
000000f0: 9d4f b53d 64d0 913d a6cc 903d d389 c13d
00000100: 555f a43b f6a2 f23d 3b14 1d3e 2639 9bbc
00000110: 5ef7 94bd 3d6d abbc 0c6e a23b 4637 35bd
00000120: 8773 3d3d 9534 0b3d 0a75 44bd f07c 7d3c
00000130: 7cc6 f93c 3fde c7bc 448e e33c 6a51 093d
00000140: 91d9 b0bc 9ad3 e6bd 5b1b 14bd eb4c c5bd
00000150: d842 a0bd d564 89bc 6628 4e3d 9831 90bd
00000160: aaa1 c1bd c393 cebd fb5d 97bd 9359 be3d
00000170: 6124 ccbd e9bf 4dbd 88ed 823d 6a2a 2a3d
00000180: da49 e63b f5fd 343d a208 9cbd f8ce 40bc
00000190: 1c8f 8f3d 353a 843d 3471 7e3c 8e70 93bd
000001a0: 2a74 cabd 2e80 2cbd 732e 9ebd e1bb 243d
000001b0: 9994 dfbc 9f56 c03d 8f65 a3bd aad0 ae3d
000001c0: e646 fa3d 13f3 c1bb 538b 1d3d 5031 14bb
000001d0: 04ae 813d a82a e33d f4d3 b13c c6c2 c03c
000001e0: 9652 273b 7f1e 0b3d 9da8 713d 3a03 813d
000001f0: af53 0bbe 07a2 1bbe f2a8 06be 2dcd 75bd
00000200: d27d a8bd 3d93 febd 5087 9e3d 91fe 29bc
00000210: a3d6 d2bd 420e d23d 43f3 8fbd dac9 b83d
00000220: 0b0c 9bbd 5928 993d 06c9 0d3d fd06 8b3d
00000230: 44ec 8d3c cf8c fdbd 88e3 b0bc d03a c13c
00000240: 673f 53bd 660c 683c 356c 60bc ef11 e33d
00000250: 7510 d33d 75c5 a5bb 009b 98ba 524d 9abd
00000260: 6719 f33d 7bf7 b2bd 982c 853d 0094 a33d
00000270: e231 edbb 11cd be3d 799e 6d3d e49c 12be
00000280: 6499 4ebd 6a38 a33d f873 243d 2db8 4cbd
00000290: 4729 fc3d 0f18 d63c ba71 5fbd 8710 46bd
000002a0: aedc cdbd 7ee9 b93d a5dd 8abd 80a5 51bd
000002b0: 4171 813d ec64 933d 105f 833d 8053 babd
000002c0: 214b 013e d2bc 073d 81ba 8a3d bf06 983d
000002d0: f113 f43d 3756 fb3d 7c8e e33b f638 c4bd
000002e0: cf3a a83d 36b0 dfbd b412 a33b bd9a 923c
000002f0: 0fa6 5abb 272d 003c fa80 0abe e4fe 3d3d
00000300: 4aaf d23c 5c5b d53b e800 eb3d 2d3b 0dbc
00000310: 519e f33a df84 c73d 3c7e 93bc 049c 12bc
00000320: 7484 0d3e b7a5 633d a2d2 263d 1c27 c2bd
00000330: 578b 0d3c 4a4d 07bc 84d7 283e f096 acbd
00000340: f507 123d 3c0b 933d 9a5d 803e 0ab6 afbd
00000350: a60e afbd c171 54bd 060e 49bd 57d0 babd
00000360: 9218 03bc 3533 cabd 175d 273e eeb0 083e
00000370: fc94 febc cce8 bf3d d5ae f73d 8a07 bf3e
00000380: 2992 c5bd ebb2 bc3d d09b 0a3d 5fd3 863d
00000390: faae ea3c d7bb 0a3d c81b ac3d f212 e93d
000003a0: d82e c83d bcfb e93d 4911 5d3d 4d30 0b3d
000003b0: 05ca 0d3e 0bac cbbd e4e2 8e3e 29d1 75bd
000003c0: 202c 013e 427d 083d bc80 3cbd d6b8 b13e
000003d0: c9e0 ea3d cc00 8abd 3f30 63bd 4117 473d
000003e0: a20d 653d 101d 07bd 2977 06bd 6d13 55bd
000003f0: 4382 dcbd c13a 38bd ac1a 13ba 912b 8ebd
0.062096268 0.038579796 0.043162137 0.06848042 0.0810417 0.03577744 0.10055771 0.12646048
0.011427915 0.018051883 0.14507294 -0.084407866 0.049787324 -0.07941008 0.23665339 0.096695594
0.11433174 0.093487345 0.107740365 -0.07019294 -0.10317656 0.028514246 0.053880326 -0.06290673
0.003792599 0.028605202 -0.009794014 0.046823546 -0.085164614 0.09611585 -0.08121881 0.28715044
0.02545816 -0.04329667 0.10744168 0.09697152 -0.045224056 -0.0011075176 0.18163635 0.0027954034
-0.10786703 -0.070470065 0.16411324 0.11584421 -0.048920274 0.09714226 0.20156369 -0.059154514
0.021980064 0.10401004 0.06027605 0.1625441 -0.032104738 0.07152436 0.10258053 0.048498664
0.014969995 -0.047049012 0.057246264 -0.044841427 0.08853076 0.071198255 0.070702836 0.09450116
0.0050162473 0.118474886 0.15339749 -0.018948149 -0.07273744 -0.020926112 0.0049569663 -0.044242166
0.046252754 0.033985693 -0.04796318 0.015471682 0.030490153 -0.024397967 0.027777798 0.033524908
-0.021588119 -0.112708285 -0.0361589 -0.096338116 -0.078252494 -0.016771713 0.050331496 -0.07040709
-0.09454663 -0.10086777 -0.07390972 0.09294429 -0.09967876 -0.050231848 0.06392962 0.041544355
0.0070278468 0.044187505 -0.07618834 -0.011768095 0.07009718 0.064564146 0.015529919 -0.071992025
-0.09885438 -0.04211443 -0.07723703 0.040218238 -0.027292537 0.09391522 -0.07978355 0.08535893
0.12220554 -0.0059188693 0.038462948 -0.00226124 0.06332019 0.110921204 0.021707512 0.023530375
0.0025531403 0.03396463 0.058998693 0.062994435 -0.13606142 -0.15198527 -0.13150385 -0.060010124
-0.08227123 -0.12430427 0.077406526 -0.010375635 -0.10294845 0.10256626 -0.0702882 0.09022875
-0.075706564 0.07478399 0.03461554 0.06788442 0.017324574 -0.12380373 -0.02159287 0.023587614
-0.051574137 0.014163112 -0.013697674 0.11087405 0.10305873 -0.005058939 -0.0011642873 -0.07534279
0.118700795 -0.087386094 0.06502646 0.07987213 -0.0072386125 0.09316457 0.05801246 -0.14317662
-0.050439253 0.079697445 0.04014966 -0.04998033 0.123125605 0.026134519 -0.054551817 -0.048355605
-0.10051857 0.09077738 -0.067805566 -0.051183224 0.063204296 0.07196984 0.06414616 -0.090979576
0.12626316 0.033139057 0.06773854 0.07423162 0.11917866 0.122723036 0.0069444757 -0.09581177
0.08214342 -0.109222814 0.004976595 0.01789605 -0.0033363139 0.007823265 -0.13525763 0.04638566
0.02571835 0.006511135 0.11474782 -0.008620066 0.0018586611 0.0974214 -0.01800453 -0.00894833
0.13820058 0.05557796 0.04072822 -0.09480116 0.008639178 -0.008258173 0.16488463 -0.084272265
0.03565212 0.07179877 0.25071412 -0.08579643 -0.08547716 -0.051866297 -0.04908564 -0.09121769
-0.0080014635 -0.09873048 0.16344105 0.13348743 -0.0310769 0.09370574 0.120938934 0.3731044
-0.096470185 0.092138134 0.03384 0.065832846 0.028647888 0.033870544 0.08403736 0.11380567
0.0977456 0.11424968 0.053971563 0.03398161 0.13846596 -0.09944924 0.2790748 -0.060013924
0.12614489 0.03332258 -0.04602121 0.3471133 0.114686556 -0.06738433 -0.055465933 0.04860616
0.055921204 -0.0329867 -0.032828484 -0.05202048 -0.10767033 -0.044977907 -0.00056115794 -0.069419034

rnn.weight_ih_l1 f4 [256, 64]
00000000: dd48 18bd 163d d33d a880 98bc 1b62 b53b
00000010: feb3 82bd 04fa a9bd 0894 d0bd 1d70 b03d
00000020: 611d c23d da0a c13d b488 d13d bef8 a13d
00000030: 81c7 b1bd ef23 49bd b165 3b3d 0400 de3d
00000040: 7a79 e13d fc9d 16bd 157d 2e3e 03c5 073d
00000050: bf85 08bd 722c 803d 9215 9ebd 72cc e3bd
00000060: 2bfa 87bd bc40 85bd 27f9 5e3d bcd3 4cbd
00000070: e97c 80bd 2448 443d 2cb0 953d 8cde 6c3d
00000080: 2bbe 963d 71a7 4abd 3eed a83c f19f 49bd
00000090: 464a abbb bf10 003e e73c 0b3d d64c b03c
000000a0: d403 95bd ceb9 d4bc 24c4 8f3a c1de 97bd
000000b0: 961b 07be 8e52 83bd eab5 123d 1483 283d
000000c0: 8cb9 dbbd d0de 50bd cf87 133d eec0 0abe
000000d0: 4576 073d 3d23 573d 5219 31bd 6a59 ec3d
000000e0: 3b88 aa3c 7d98 9838 fc4d 80bb 5b8f fcbd
000000f0: c6b9 5f3d 16c6 a7bd 0919 d33d 3610 b5bd
00000100: 38c5 1ebc 7366 85bd 4b5f a23c fadf 233d
00000110: 4bf6 c8bd 4066 303d f226 23bd 33ab 8abc
00000120: df0b ed3d fc7e 8b3d 91f9 bd3d d638 dbbc
00000130: 0f1b b53d 2400 d23d c95f 50be e5cd aabd
00000140: 6ac3 c1bd b4a0 7ebd 3dd4 543e 53da 7cbd
00000150: ed10 ce3d 3aa5 90bd c805 623d 0898 023e
00000160: 5d19 7fbc dd24 7f3a d06f 843d 6fa4 a23c
00000170: 9269 753c 0f75 0cbd efd2 e63d 2d35 033e
00000180: 3e73 e13d 73c5 5f3d dcf3 83bd e8cd 7a3c
00000190: 86dc 713d 3afa 8f3d dfd4 e7bc d30d 8e3c
000001a0: 00cf 30bd 22f9 9e3d a13f 283d 65fb 3ebc
000001b0: fc99 b83c 233f b33d 2352 92bd 8fa7 5cbd
000001c0: 03fe 143d 3aa0 c93d ceb1 c63d 43e6 06be
000001d0: 47e4 d03d 2405 79bc 3f87 133e 4af6 8cbb
000001e0: 30dc 3e3d e97e 1b3d 95c7 0fbe 5bf6 8fbd
000001f0: a3c9 b2bc cc13 293d 1af0 d33c 95ae 9d3c
00000200: 257b b23d e120 8d3d af8d 933c de66 a73d
00000210: f896 f2bc fb3c 1abd 6dc7 06be 7ed6 3f3d
00000220: b924 c23d e830 ad3b 2e63 a7bd 0f17 4bba
00000230: f19a 8ebd a6ce 29bd 093d fabd c617 703d
00000240: a5cc ab3d 319e 18be 91be 993d b9a4 80bd
00000250: d55c 783d 8177 b9bb bc7a a637 2826 d83c
00000260: 1078 ebbb b02c c7bd 48f2 0e3d d0fd a83c
00000270: 210d 593b 1c26 523d 1c28 493d 4cd6 253a
00000280: 729c fd3d 037f 9c3d db15 de3d a06c 263d
00000290: 6b45 973d 109e 62bc 5f3e 3f3b c6a6 793d
000002a0: 37f3 9dbd 03a7 fbbd 6a29 7a3c e489 0a3e
000002b0: ac42 c23d 9237 afbc dc35 50bd 8917 cabd
000002c0: d146 c23d 8002 10bc 6770 82bd d45d 80be
000002d0: a4c4 30bd 754b b23d e8ff 9f3d 3260 e4bd
000002e0: c13e 113d f85e 00bd f2b5 c43d 0c29 8bbd
000002f0: c1cb 50bc 24f3 193d a714 dbbc 1b2f b6bd
00000300: 3344 533c 828f 093e e3a6 3fbd 157d b73d
00000310: 7ceb b93d e272 f03d 9f2e b8bb 6f70 34bd
00000320: 69bf a1bd 61b9 053e f28d 38bc 1409 393a
00000330: 44e5 1b3d 8297 073b 7a43 05be 1035 973c
00000340: 5c37 c43d 3d0f 2c3d 44fe 1fbd 001a c7bc
00000350: f172 0d3b a0d0 5e3d 7dce 80bd 5cff 07bb
00000360: 13c6 71bd fe3a d3bd cbf9 d03c f5d0 e03d
00000370: 32e2 733c fd9a 1dbd 0229 b03c ca48 143d
00000380: 067e fc3d f26d 903d fd5d aabd 9759 f0bd
00000390: 1ac4 85bd 90b0 95bd 751b a83c fb5b aebd
000003a0: b320 febd 2558 b7bc d065 b1bd 3f0c 5fbd
000003b0: 7a96 693d c238 22bc 7776 2dbe ef18 adbd
000003c0: 457b e53d f22c 313c 6b1f 80bd 0b2a ddbd
000003d0: 8c79 253d 0bcf b73d 9a1f cabb f4d3 0fbd
000003e0: 5294 95bd 7bbf dcbd f926 0d3d b91c 003c
000003f0: d10f a5bb 30b7 5fba 010a 273c 9229 c73d
-0.037178863 0.103143856 -0.018616036 0.0055353767 -0.06381987 -0.0829964 -0.10184485 0.08615134
0.0947826 0.09425898 0.10231152 0.07908772 -0.086806305 -0.049106535 0.045751277 0.10839847
0.11009498 -0.03677176 0.17039903 0.03314687 -0.033330675 0.06258477 -0.07718958 -0.11122979
-0.06639513 -0.06506488 0.05443683 -0.050006613 -0.06273825 0.04792036 0.07308993 0.057829425
0.073604904 -0.04947609 0.020620938 -0.049224798 -0.00522736 0.12506388 0.033993628 0.021521013
-0.07276121 -0.025967505 0.0010968489 -0.07415534 -0.13194117 -0.064122304 0.035818018 0.04114063
-0.1072875 -0.05099374 0.03601819 -0.1355016 0.033071775 0.05252384 -0.043237038 0.11540492
0.020816913 7.276328e-05 -0.0039155465 -0.123320304 0.054620527 -0.08192079 0.103075095 -0.088409826
-0.009690575 -0.06513681 0.01982083 0.040008523 -0.09812602 0.043066263 -0.039832063 -0.016927337
0.1157453 0.0681133 0.09276117 -0.0267605 0.08843052 0.10253933 -0.20349039 -0.083400525
-0.094611004 -0.062164977 0.20784087 -0.061731648 0.10061822 -0.070627645 0.055181295 0.12753308
-0.015570012 0.0009732971 0.06466639 0.019853799 0.014978783 -0.034291323 0.11270701 0.12813254
0.11008309 0.05463166 -0.06442997 0.015307881 0.0590482 0.07030149 -0.028299747 0.017340576
-0.04316616 0.07762362 0.041076306 -0.011656617 0.022534363 0.08752277 -0.071445726 -0.053870734
0.036375057 0.09845014 0.09701882 -0.13173775 0.101997904 -0.0151989795 0.14407061 -0.004301821
0.046596706 0.037962828 -0.14040978 -0.070294105 -0.021824664 0.041278645 0.025871325 0.019248286
0.08714894 0.06891037 0.018011896 0.08173917 -0.029613003 -0.03765581 -0.13162012 0.046835415
0.094796605 0.005285371 -0.08173214 -0.00077472714 -0.069631465 -0.04145684 -0.12218673 0.058616422
0.08388642 -0.14904095 0.07507051 -0.06281418 0.060635407 -0.005659998 1.9845895e-05 0.026385382
-0.0071859434 -0.0972532 0.034899026 0.02062884 0.0033119398 0.051305875 0.049110517 0.0006326183
0.12383355 0.07641413 0.10844012 0.040630937 0.07386287 -0.01383163 0.0029181463 0.060950063
-0.07712405 -0.12287714 0.015268663 0.13529164 0.09485373 -0.021388803 -0.050832614 -0.0986777
0.094861634 -0.008789659 -0.06369095 -0.25071585 -0.04315628 0.087057985 0.07812482 -0.1115116
0.035460237 -0.03134057 0.09605016 -0.067949384 -0.012743891 0.037585393 -0.026743246 -0.088957034
0.012894678 0.1343365 -0.046790015 0.089594044 0.09078118 0.11740662 -0.005620792 -0.044052538
-0.07897837 0.13058998 -0.011264311 0.00070585427 0.03806044 0.002068967 -0.13014022 0.01845792
0.095808715 0.04200672 -0.039060846 -0.02430439 0.0021583403 0.05439818 -0.062893845 -0.0020751571
-0.05902679 -0.10313986 0.025509736 0.109773554 0.014885472 -0.038477886 0.021503929 0.03620223
0.123287246 0.070522204 -0.08318708 -0.11735838 -0.06531544 -0.07309067 0.020520905 -0.08513638
-0.12408581 -0.022380898 -0.08661997 -0.05445504 0.05702827 -0.009901227 -0.16939722 -0.08452021
0.112051524 0.010813938 -0.062559925 -0.10799035 0.04039912 0.08975037 -0.006168318 -0.035114244
-0.073036805 -0.107787095 0.034460995 0.007819348 -0.005037286 -0.0008534072 0.010195256 0.09724726

rnn.weight_hh_l1 f4 [256, 64]
00000000: 2c1a a33d 1693 b8bc 9ebf c7bc 4568 a7bd
00000010: b252 26bd 3040 fc3d ff5a eabc a719 cf3d
00000020: 1404 cb3b b2f9 cdbd 77fc bbbd bfb6 bebc
00000030: 7559 303c d3a2 a33d c60a e63c e691 4a3d
00000040: 58ae 99bc 2408 ecbd 85a5 9b3d fff3 ebbd
00000050: 0fab 9dbd 32c5 90bd d5a5 933b 6517 45bd
00000060: 4350 fa3d 657b 08be dff0 b7bd f8a1 c43d
00000070: 87af 003d 4509 dabd 1388 983d ff90 8d3d
00000080: 0d6c d9bc 802b babd aaaa b7bd e2e8 23bc
00000090: f283 8dbd 5984 dd3d 428f 40bd 5192 b43d
000000a0: 953b aa3c 3b98 0fbd 5457 abbd 33eb ef3d
000000b0: c3dd f8bd 4fd3 e9bd c4c8 ff3d 3cf0 513d
000000c0: e34f a73d ea87 06bd d9bb b23c 8919 6ebc
000000d0: 0687 bf3d 6cc0 03bd bfac 723d 69ac 9dbc
000000e0: 3daf 46bc 18c1 583b 1e46 7d3d 0f92 84bd
000000f0: 2b28 57bd ad8d f53d 7708 ae3d d301 9bbd
00000100: e746 1bbd 8faf f83d 75a7 d93d 369c c4bd
00000110: adc9 81bd 12de e73c 7dfc a4bc 9fb6 77bd
00000120: c834 953d 7fed ce3c 865f 8cbd ec29 87bd
00000130: 72d2 b63d d398 8e3d 2c55 bb3c d65f 1cbb
00000140: 0c32 523d 9c82 ccbb 8041 da3c 7c4a 233a
00000150: 6230 84bd dd82 8d3d 68d7 873d 9d10 c7bd
00000160: 64c1 243d 5f80 6a3c e88c 713d 1c2e b53d
00000170: 5ebe b0bd 73d8 4a3b cbf4 9abd 6121 2dbc
00000180: 5856 6f3d b9e9 10bd 67fa a73d b2fb 2fbd
00000190: 8f29 a8bd b69b 5e3d 5b86 903d 0065 f3bd
000001a0: 9b56 d03d 545f d73d f489 d93d a14c dbbb
000001b0: 7251 0e3d 85cd 91bd d7cc 703d 6daf 16bc
000001c0: 3904 fcbd 0b1d c1bd 3b0e 12bb 3131 8dbd
000001d0: 71d7 01be 3c13 8ebd 2eb8 c1bd eff3 2ebd
000001e0: 7936 633d c19d 493d 1828 29bd da34 28bd
000001f0: 3830 7bbc f189 543d f6be 03bd cd0a 913d
00000200: dd71 c3bd b782 f03d 0b80 a63d bbf6 8c3d
00000210: be9d 8a3c b154 c8bd b80a 0dbe 084c e8bd
00000220: 0422 713c 5851 7e3d da2b 8bbd 50cd 51bc
00000230: 7c6b 0ebd a549 583b a491 6eb9 3c6a 90bd
00000240: d040 4a3d 2631 9d3c 8704 723c e6fa d23c
00000250: ef39 d23c e0e5 2ebd 2994 34bd e864 a2bd
00000260: ed76 3f3d c7c4 0dbd db9b ce3d 7365 73bd
00000270: 5f1b 0f3d 1402 cf3d 7ad1 a5bd 9642 943d
00000280: afe5 aabc c224 05bd e767 0ebd fe7d 7bbd
00000290: 246e 28bd 9f53 fe3d 2155 9ebd 6e1a f03c
000002a0: a998 1fbd 731b c93c 248c a4bd b7d0 f6bd
000002b0: 2d80 e53d 9b62 24bd cca2 a23c 8de0 b23d
000002c0: 3d06 293d f760 193c 2db3 e33c c8e8 f53b
000002d0: 1ded 08be 0b18 e8bd d02f 843d 131f 9f3d
000002e0: 5582 54bd 06af aebd 2809 003e 0f3d d6bc
000002f0: 973c 8bbd e284 3bbc be8a 4fbd 0702 4dbc
00000300: 0476 00be f9c8 91bd d627 8fbb f5ce 90bb
00000310: 9912 143d 798e d83d c357 b9bd 934b 4f3d
00000320: 9869 9fbd 5b06 15bc f096 18b8 86c9 e8bd
00000330: 5b22 883d 6f0e 25bd 4da4 d8bd dc17 a13c
00000340: 7cac 3b3d 33fc 8d3c 7e22 1dbd 78b8 9b3d
00000350: 1cb7 4c3d 96d9 a8bd 0081 aa3d 7dd5 cabd
00000360: 956e 063e a1e5 05be a8fc c43d e208 4e3d
00000370: 7976 c7bd 8534 8a3c aed2 a23d a85a 6dbd
00000380: bc2c db3d 8277 5a3d ddd3 293c fa6e 833d
00000390: 009d 403d edba e83d 4c69 a53c 96a1 f6bd
000003a0: 0424 c7bd a682 1c3c 06a8 893d 56b7 dfbd
000003b0: c2bb e1bb bbfb 6b3d e59e 65bd 2e9e 54bd
000003c0: 6bca 403d c7c8 473d ec55 9c3d a777 ccbd
000003d0: 7f46 11bd 23fc cabd 7d9a 0fbd d637 ec3c
000003e0: 764a bbbc f90d dfbb 8316 b93d e2fc ffbd
000003f0: a1e0 adbd 8025 f6bd b24a 8fbd 1ddd 223c
0.07963976 -0.022531074 -0.024383362 -0.08174185 -0.04060621 0.1231693 -0.028607843 0.10112315
0.0061955545 -0.10057391 -0.09179013 -0.0232805 0.010763516 0.07990041 0.028081309 0.049455546
-0.018759891 -0.1152499 0.0759993 -0.11521148 -0.076986425 -0.07068862 0.0045058527 -0.048118014
0.1222234 -0.13328321 -0.089814894 0.096012056 0.031417396 -0.10646299 0.07447829 0.069124214
-0.02654078 -0.09090328 -0.089680985 -0.010004254 -0.06909932 0.10816259 -0.04701162 0.0881697
0.020780364 -0.035057288 -0.08366266 0.117147826 -0.12151673 -0.11417257 0.12489465 0.051254496
0.08169534 -0.03284446 0.021818088 -0.014532455 0.093519256 -0.03216593 0.059246775 -0.01924725
-0.012126741 0.0033074077 0.061834447 -0.06473171 -0.05252854 0.11989913 0.08497708 -0.07568707
-0.037909415 0.1214286 0.10627643 -0.09600107 -0.06337295 0.028304134 -0.020139927 -0.060476895
0.07285458 0.025259731 -0.06854157 -0.06599793 0.08926858 0.06962743 0.022867762 -0.0023860834
0.05131726 -0.006241156 0.026642561 0.00062290556 -0.06454541 0.06909726 0.06632882 -0.097199656
0.040223494 0.014312833 0.05897227 0.08846685 -0.0863006 0.0030951768 -0.07566222 -0.01056704
0.058431953 -0.035379145 0.08202057 -0.042964645 -0.08211052 0.054347716 0.07056876 -0.118844986
0.10172769 0.10516229 0.106220156 -0.0066924845 0.03474564 -0.07119278 0.0587891 -0.009197098
-0.12305493 -0.09429368 -0.0022286314 -0.06894148 -0.1267984 -0.069372624 -0.094589576 -0.042713102
0.05547187 0.04922271 -0.041298002 -0.04106603 -0.01533132 0.051889364 -0.032164536 0.07082138
-0.09543202 0.11743682 0.08129891 0.068829976 0.01692092 -0.097817786 -0.1377362 -0.11342627
0.014717583 0.062089294 -0.067954734 -0.012805298 -0.034770474 0.003300288 -0.00022751704 -0.070515126
0.049378216 0.019188475 0.014771587 0.025754403 0.02566239 -0.042699695 -0.04408661 -0.079294026
0.046744276 -0.03461149 0.10088321 -0.05942292 0.034938212 0.10107818 -0.08096595 0.07239263
-0.020861475 -0.032505758 -0.034767058 -0.061399452 -0.041120663 0.12418293 -0.07731081 0.029309478
-0.038963947 0.024549222 -0.08034542 -0.12051528 0.11206088 -0.0401331 0.019853018 0.08734236
0.041265715 0.009361497 0.027795399 0.0075045563 -0.13371702 -0.11332711 0.06454432 0.07769599
-0.051882107 -0.08529477 0.12503493 -0.026152162 -0.06798666 -0.011445256 -0.050669424 -0.01251269
-0.1254502 -0.071184106 -0.0043687625 -0.0044192025 0.03615055 0.105740495 -0.09049942 0.050609183
-0.07783812 -0.009095754 -3.6380196e-05 -0.113665625 0.06647178 -0.040296968 -0.10578213 0.019664697
0.04581879 0.017332172 -0.038362972 0.07603544 0.049979314 -0.08244626 0.08325386 -0.09904001
0.13128121 -0.13075878 0.09618503 0.05030144 -0.09739394 0.016870746 0.0795034 -0.057947785
0.10701892 0.053336628 0.010365454 0.064176515 0.047024727 0.11363778 0.020191811 -0.12042539
-0.09723666 0.009552633 0.06721501 -0.109236404 -0.0068888376 0.057613116 -0.056059737 -0.051908664
0.04706804 0.04877546 0.07633576 -0.099837594 -0.03546762 -0.099113725 -0.03505944 0.028835218
-0.022862654 -0.0068070856 0.09037497 -0.124994054 -0.0849011 -0.12018871 -0.06996669 0.009940413

rnn.bias_ih_l1 f4 [256]
00000000: 29d5 bdbd 88b5 ddbb 15ac 3f3d 4884 79bd
00000010: 2164 a7bd b362 29bd 3bda 02be 6b13 9d3d
00000020: 5f8c 0b3d 8e95 cbbd 98cf e93d 1008 333c
00000030: 3b0b c93d 62dd 163d 183f 76bd 282f 093d
00000040: 8507 883b 021d 9a3d 51fa 4dbd 835f 83bd
00000050: 2193 b2bd 11a6 94bc 1eb3 333d a86b ba3c
00000060: 1aca 373d 03c0 f0bd 9583 1bbd 8f1e 3bbd
00000070: 97b5 b2bd 452c d2bd 094b 4a3d 1fa9 c0bd
00000080: d44a 3a3d baaa b0bd c80d c53d d9df 793d
00000090: 5525 a63d 44a7 3dbd 4ff7 febd 831a b43d
000000a0: a99b 81bc 80c0 9f3d 3d58 043e 0b1f 083e
000000b0: 808b faba 5d69 023e e62e fb3b 4d23 2fbd
000000c0: 7737 d03c ee4e 9c3d 08b2 ee3d 045e bbbd
000000d0: bead 10bd 4686 a33d b485 a23d 8533 143e
000000e0: a2d8 45bd 403e 6f3e 3dc7 1ebd eb5f b9bb
000000f0: 8d7a ff3c c3c2 b63b 528b 9fbd ad2b c53d
00000100: 1fde ed3d 4324 b6bd 23bb 72bd 1871 363d
00000110: c8a8 bf3c 45b6 e23d 81c8 21bb d76e 96bd
00000120: c9e4 813d e23e 41bc efdf 9cbd cb15 7dbc
00000130: 2314 803d 99c8 cbbd 08e2 ae3c 48c3 3f3d
00000140: 1376 f63d aa39 253c c69a c4bd 9e75 8b3b
00000150: d6bd 92bd ae75 3fbd ae1d 42bd 259f debd
00000160: f003 58bd a39f ccbd d93e 14be b406 ebbd
00000170: 08bc e33c ab96 e7bd 7757 fa3d 22ef 6dbd
00000180: 079a 4abd e224 5a3d f4fc abbd 0fae 8fbc
00000190: ed93 3d3d 2ecb c3bc 0691 bb3d 1acf a23d
000001a0: 1800 9c3b 4438 993d 9a64 363a 38a1 89bb
000001b0: 219c 7abd 4e0c 73bd d827 b13d f664 88bc
000001c0: 70d1 1ebd c3ca 9f3d 0a22 c73d db96 743d
000001d0: 3e2d db3d 5b65 2aba 7bf4 8d3c 69cf d2bd
000001e0: 4ca1 1c3d eacd 953c 049e 653d 8505 d33d
000001f0: 4d85 8bbd e5d2 68bd 04c3 4bbd b35b 82bd
00000200: 1049 92bd 0996 f83d ba49 65bd 9b46 9f3c
00000210: 2eae 0b3d b75d 6abc 7a60 a13c 04d0 81bd
00000220: 4c37 06bc ec29 92bc e49c c3bd bafb fe3d
00000230: 5d1b 163d 2554 ce3d 673f 0e3d f434 6d3d
00000240: 2b8e ea3d 380d bfbd 1926 a73d 0bbf 583c
00000250: 6e3a c7bd 280b baba 444c 543d 0e7a a2bd
00000260: 6df3 e9bd 5207 e5bd 8fc6 35bd 3b4a f8bd
00000270: 422a a43d 0bd8 8fbd eb40 cabd e43c 9cbd
00000280: b2ef 12bc 0c74 523d 69c3 ae3d 4137 253d
00000290: 7d4b 853d cb38 dfbd edaa c5bc 9617 c73d
000002a0: 0505 8bbd 6319 343d 606e 32bd d40a 983d
000002b0: 280a d5bd 012f 9b3c 51ed b4bd 7ee5 c0bd
000002c0: 93fd 9f3d 23b7 37bd 3b22 71bb 3c72 ad3c
000002d0: ef15 aebd b003 603d 49b0 80bd acb2 71bd
000002e0: dbb3 d6bd e238 c9bc 3358 423d 4912 f73c
000002f0: 56d2 713d dfcc 70bd afb0 383d 4b01 85bc
00000300: 4e41 f23d ba7b 5ebd 4926 babc a239 f73b
00000310: f198 df3d 268e 31bd 0d92 d6bd b918 303d
00000320: 8e28 a63d 3a79 ddbd 7062 cdbc 7863 b4bc
00000330: 7139 073e 3454 053d f4dc cdbd fc71 d73d
00000340: 0145 c8bc 0047 cfbd 4655 f73d 109f 87bc
00000350: 17db 4a3d d109 bc3b 1388 a23d 6846 24bd
00000360: 11b2 d53c e9de a0bd 8af8 afbd 4156 85bd
00000370: e61b 9c3d 5d63 89bd b1b0 32bb 6bf2 873c
00000380: 7cd9 ea3d ae27 4ebd f0a0 0ebd d991 3c3d
00000390: 6a93 ba3c ffef 5d3d 3148 ab3d 6c6a 95bd
000003a0: 60b4 9d3c e835 9fbb 68da b6bd 6950 2fbc
000003b0: faf8 433d a946 c03d b32b 5ebc c3b3 abbd
000003c0: 768a 8dbc 3d4d 8a3d 25c2 823d 7b09 8bbd
000003d0: 3926 a83c d01d 11bd 33f7 21bc 0266 3b3e
000003e0: 4008 87bd 860c ef3d 4061 a43d ef61 f9bb
000003f0: 2a53 043e e046 bcbb d408 073d 3089 0abd
-0.09269173 -0.006766025 0.04679497 -0.06091717 -0.08173395 -0.041353893 -0.12778561 0.07669719
0.034069415 -0.09940635 0.114165485 0.010927215 0.09816595 0.03683222 -0.060118765 0.033492237
0.004151287 0.07525064 -0.05028755 -0.06414702 -0.08719469 -0.018145593 0.04387199 0.022756413
0.044870473 -0.11755373 -0.037967283 -0.04568344 -0.08726042 -0.1026235 0.049387965 -0.09407257
0.045481518 -0.086263135 0.09621769 0.061004493 0.08112589 -0.046302095 -0.12449514 0.08794119
-0.015821295 0.07800388 0.12924285 0.13293092 -0.001911506 0.12735505 0.007665503 -0.042758275
0.025417073 0.07632242 0.116550505 -0.091487914 -0.035321943 0.07984595 0.07935658 0.14472778
-0.0483023 0.2336359 -0.038764227 -0.0056571863 0.031186366 0.0055774166 -0.07790245 0.09627471
0.11614632 -0.08893635 -0.0592605 0.04454145 0.02339591 0.110699214 -0.002468616 -0.0734536
0.063424654 -0.011794778 -0.076598994 -0.01544709 0.06253841 -0.0995037 0.021348014 0.046817094
0.120342396 0.010084549 -0.09599833 0.0042559644 -0.071651146 -0.046743087 -0.047391586 -0.10870198
-0.05273813 -0.09991386 -0.144771 -0.11475888 0.027799621 -0.113080345 0.12223714 -0.058089383
-0.0494633 0.05325783 -0.08397856 -0.017539052 0.04628365 -0.023900595 0.091585204 0.07949658
0.0047607534 0.07481435 0.000695774 -0.004200127 -0.061184052 -0.059337907 0.08650178 -0.016649704
-0.038773954 0.078023456 0.09723289 0.05971418 0.10701989 -0.00065000885 0.017328491 -0.102934666
0.038239762 0.018286664 0.0560589 0.10303787 -0.068125345 -0.05684175 -0.04974653 -0.063651465
-0.07142842 0.12137992 -0.055978514 0.019442847 0.034101658 -0.01430457 0.019699324 -0.06338504
-0.008191895 -0.017842256 -0.09551409 0.12450357 0.03664719 0.10074643 0.034728434 0.05791183
0.11452898 -0.09328693 0.081615634 0.013229142 -0.097279415 -0.0014193999 0.051830545 -0.07933436
-0.11423383 -0.11183037 -0.044378813 -0.12123533 0.080158725 -0.07023629 -0.09875663 -0.076288015
-0.008968281 0.051380202 0.08533365 0.040335897 0.06508539 -0.10899504 -0.024129355 0.097212955
-0.06788067 0.043969523 -0.043562293 0.0742394 -0.10402328 0.018943312 -0.08834327 -0.09418772
0.07812037 -0.044852387 -0.0036794085 0.021172635 -0.08500277 0.054691017 -0.06283624 -0.059008285
-0.104835235 -0.024563257 0.047447395 0.030160086 0.059038483 -0.05878913 0.045090374 -0.016235968
0.11828862 -0.054317214 -0.022723334 0.007544712 0.10917843 -0.043348454 -0.10477076 0.042992327
0.08113204 -0.10814138 -0.025071353 -0.022020087 0.13205506 0.032551005 -0.10051909 0.10519788
-0.024446966 -0.10120964 0.120768115 -0.01655534 0.049525347 0.005738475 0.0793611 -0.040106207
0.026085885 -0.07855017 -0.08592327 -0.06510592 0.07622509 -0.06708405 -0.002726596 0.016595086
0.11467263 -0.05033081 -0.03482145 0.04603753 0.02277537 0.054183956 0.08363379 -0.07295689
0.019251049 -0.004858721 -0.089283764 -0.010700324 0.047844864 0.09388477 -0.013560223 -0.08383896
-0.017277937 0.06753013 0.063846864 -0.06788918 0.020526038 -0.035428822 -0.009885597 0.18300632
-0.065933704 0.116723105 0.080263615 -0.0076105515 0.1292235 -0.0057457536 0.032967404 -0.03382224
