checkpoints/TP_LSTM_L2_bs16_train0baseline_bsfirst_pos1_downsp_rs/TP_LSTM_L2_bs16_epoch450.pt (torch, 206215 bytes, 9 tensors)

rnn.weight_ih_l0 f4 [256, 3]
00000000: 6f48 cf3c fc4b 363e 9017 e53b 296e b13e
00000010: 8120 fc3e 8bcf 05be c63c ab3d 483b 633e
00000020: 8c0f 523c 71e9 773d 2769 723e b01a 24bc
00000030: 206e 60bd 2db5 30bd 6d76 0abd 175c babe
00000040: 05fc 0fbf 61c2 b23d 043a c9bc 8bbe f5bb
00000050: 7b23 38bd f821 0bbd 59b8 303d b104 ccbd
00000060: 6645 fdb9 f219 823e 5ff3 b7bd d85c 8dbf
00000070: b035 7cbf cb0d eabe c4e3 a63c 4a06 fd3c
00000080: 0599 06bd 03a9 92bf f410 25bf d528 543e
00000090: 9a9f 6b3f 7b5a 643f 64f5 583e 3837 11be
000000a0: 29e6 473e 2a17 483c 8648 3d3e 861c b9be
000000b0: 0954 2abe 11f2 48bb 8c36 c9bb 7251 d4bb
000000c0: 52be 893e c73b 113e 0b3e c83d d3ca 66bc
000000d0: f9fa 4bbc 7f09 56bc 6b79 9a3e 350b a9bd
000000e0: d247 0638 c72c adbb f49d 0dbc 5d38 40bc
000000f0: 582c ddbc ae69 b4bc d611 d4bc d02e 05bd
00000100: 34d3 dcbc e799 2bbd 6954 bd3d 5eea 8c3e
00000110: 72ad a5bd 00f9 26bd 0511 0bbd e312 3cbc
00000120: 3bd9 2e3d f70e d93c eded 123c 05c3 7abb
00000130: 1100 dfbb 74db 66bc fd9c 84bd 746e 973d
00000140: 1e4f b9bd 606d 85bd 6509 abbd 49b1 21bd
00000150: c87d be3c 114d 963b e9fd 813c db14 d6bc
00000160: dfc8 9abc 9d20 6dbc 16a3 3f3e ce6b a03d
00000170: cf8d fc3c 2358 95bb 2d3e 1ebc 19ac 10bb
00000180: cc72 0a3f a481 1cbe 3f4f 28bc adc8 d23d
00000190: d6e0 c93e 566f 9c3d 0260 05bc 2790 f9bb
000001a0: 0e0e 66bc 38b1 08bf 15ef 33bf 7f9b 1ebe
000001b0: 6059 223f c152 bd3e c026 743e 91d8 28bd
000001c0: 3f98 10bd e043 c8bc aa41 18be 7d8c 74be
000001d0: b6e0 043d 6308 933e a086 023e 9caf e03c
000001e0: a1ad 443d 13da 923e 9dc9 013e 4b29 fd3b
000001f0: b9ca 03bb 378f 27bc 87ae 6bbe 9ff8 15bf
00000200: fd66 d5bd 3b9d 85bd 2028 50bd 2adb 19bd
00000210: dfeb a23e 6d6f ae3e 3ac8 2b3e a93c 76bd
00000220: c8f2 4fbd c4a5 4abd e782 d2be 9aad 1cbf
00000230: e4d8 a9bd 3436 383f 2fe8 a33e 9d85 debc
00000240: c620 873d b3a1 92be 8934 31bd 2b19 d53d
00000250: ff1a 803e 972c 823c f91c 873d 113b e03c
00000260: 7e77 463c b6b6 11ba 6d49 483d 888b 913e
00000270: ddc6 fb3d 5d45 793d cb11 dd3c 188f 9ebc
00000280: bd7b 87bc 68c8 61bc a311 ea3d 7deb b93e
00000290: 1c3e 6c3d 2897 abbd abac 87bd a867 56bd
000002a0: f95b bdbb 2025 103c de2b 803c 367f 72bd
000002b0: 4882 4fbd 2985 0dbd 2713 563e 032e bb3e
000002c0: f925 0d3d 512a 2dc0 0c9c bfbf c445 adbe
000002d0: a125 05bc 3022 f5bb c422 e0bb c4bd 30be
000002e0: 1d91 f7bd 48b3 3e3d 72bf 95bb 2227 e5bb
000002f0: 6b43 ffbb 0e58 a63d 174f 6e3e 400d 353b
00000300: 83fb 43be 92eb 123e a817 7a3d e695 4bbe
00000310: 3cb4 ad3e 5223 e5bc efeb ba3d 65bc 843c
00000320: 6059 3b3d 863a c9bd ade4 7a3e a4af eabd
00000330: ad6d b2bc 331e 8abc 9884 8bbc 9f46 873e
00000340: f6dd 07be f694 d03e e33b 0abd c4b8 9bbc
00000350: dacf 80bc 0857 03bd 8bc2 843c 76c3 50bd
00000360: 7956 debd f1a5 4d3c c999 2dbe b1d1 5cbf
00000370: fc34 21bf 9601 073f ff2a c1bd abe1 8fbd
00000380: c556 86bc 9423 a3bc eeb7 31be edc8 d7bd
00000390: 26cd 30be 161b ddbd ac71 7abd 1ada 65be
000003a0: c3cc 813d 9b09 2b3f e880 64be ac55 b8be
000003b0: 7fce bfbb e902 1abc f729 f7bb 8650 18bc
000003c0: c8be 35bd e7b5 43bd 258e 08bd a463 24bc
000003d0: 937b 15bc 09b2 edbb 3a31 fcbd 88d5 54be
000003e0: 774f b13d 25d0 81bc 8d5a 4abc d7db 4dbc
000003f0: b3c7 75bc fdd6 57bc f6c5 b9bc b67b 8bbc
0.025303094 0.17802423 0.0069913343 0.34654358 0.4924355 -0.13067453 0.08361201 0.22190583
0.0128210895 0.06052536 0.23672925 -0.010016128 -0.054792523 -0.043141533 -0.033804346 -0.36398384
-0.56243926 0.08728481 -0.024563797 -0.007499521 -0.04495571 -0.033967942 0.043144558 -0.09961832
-0.00048307626 0.2541042 -0.08981966 -1.1043959 -0.9851942 -0.45713648 0.020372279 0.030886788
-0.032860775 -1.1457828 -0.64478993 0.20718701 0.9204041 0.8920056 0.21187359 -0.1418122
0.19521393 0.012212554 0.18484697 -0.36154574 -0.1663362 -0.003066186 -0.0061405357 -0.0064794356
0.26903015 0.1418296 0.09777459 -0.014086443 -0.012449973 -0.0130637875 0.3017076 -0.08254091
3.2014977e-05 -0.005284879 -0.008643616 -0.011732188 -0.026998684 -0.022023048 -0.025887411 -0.032515347
-0.026956178 -0.04189482 0.092446156 0.27522558 -0.08089723 -0.04076481 -0.033951778 -0.011479112
0.042687636 0.026496394 0.008967859 -0.0038263213 -0.006805428 -0.014090408 -0.06475256 0.07394114
-0.090482935 -0.06515002 -0.08351401 -0.039475713 0.023253337 0.0045868238 0.015868144 -0.026132992
-0.01889461 -0.014473108 0.18714556 0.07833062 0.030829338 -0.004557626 -0.009658379 -0.0022075234
0.54081416 -0.15283829 -0.0102728 0.10292182 0.3942935 0.07638423 -0.008140566 -0.0076160613
-0.014041437 -0.53395414 -0.70286685 -0.15489005 0.63417625 0.369772 0.23842907 -0.04122216
-0.035301443 -0.024446428 -0.14868799 -0.23881717 0.032440864 0.28717336 0.12746668 0.027427487
0.048017148 0.28682002 0.12674566 0.00772587 -0.0020109846 -0.010227016 -0.23015796 -0.5858249
-0.10420034 -0.0652413 -0.050819516 -0.037562527 0.3182058 0.34069386 0.16775599 -0.060116444
-0.050768644 -0.049474493 -0.41115496 -0.61202395 -0.08293322 0.7195771 0.3201308 -0.027163321
0.06598048 -0.28638992 -0.043262992 0.10405191 0.25020596 0.015890403 0.06597323 0.027371915
0.01211345 -0.0005558537 0.04889815 0.28426766 0.122937895 0.060857166 0.026986023 -0.019355342
-0.016538495 -0.013780691 0.11429145 0.36312476 0.05767642 -0.0837844 -0.06624731 -0.052344948
-0.0057787863 0.008797914 0.015645918 -0.05920335 -0.050661355 -0.03455082 0.20905744 0.36558542
0.03446004 -2.7057078 -1.4969497 -0.3384229 -0.008126647 -0.007480882 -0.006840082 -0.1725989
-0.12088225 0.046557695 -0.004569941 -0.0069931904 -0.0077900193 0.08122264 0.23272358 0.0027626306
-0.19138913 0.14347675 0.061057717 -0.198814 0.3392657 -0.027970944 0.09127032 0.016203115
0.04573953 -0.098256156 0.24501295 -0.11459282 -0.021780813 -0.016860103 -0.017030999 0.26421067
-0.13268265 0.40738648 -0.03374852 -0.019009002 -0.015724111 -0.03206542 0.016206047 -0.050967656
-0.10856337 0.012551771 -0.16953196 -0.86257464 -0.6297147 0.52736795 -0.09432029 -0.070254646
-0.016398797 -0.019914426 -0.1735532 -0.105363704 -0.17265758 -0.10796182 -0.061143562 -0.2244648
0.06337883 0.6681153 -0.22314799 -0.36002862 -0.0058534737 -0.009400108 -0.0075428444 -0.009296542
-0.044371396 -0.047780897 -0.033338685 -0.010033522 -0.009123701 -0.0072538895 -0.12314077 -0.2078458
0.08657735 -0.015846321 -0.012350691 -0.012564621 -0.015001225 -0.013173816 -0.022677403 -0.017026763

rnn.weight_hh_l0 f4 [256, 64]
00000000: 7f7d 773d ead6 663e 0ebd 833c e97d ed3d
00000010: 66a5 adbc b36c 063d 90ed f13c b6cf d23b
00000020: 7ff3 f13d 8f9e b03d 61a1 d4bc 03d4 d93d
00000030: 41f5 cbbd 19a0 833d e5b5 a53d 49e6 883c
00000040: ce9f b4bd 05ef 973b 6d4d 93bc 88f2 af3b
00000050: 6613 9ebc 9897 873c 0d9f a23c 46c1 febc
00000060: d308 333d 00bb 26bc e612 eb3c e69d 233d
00000070: b76b 453d f144 623c b61f 983c 5da3 0bbd
00000080: 46e0 5f3e 46d7 5f3e a861 0fbc 31d2 bf3d
00000090: d8cd c4bd dcf3 c9bc 0fc7 503d b508 593b
000000a0: 6800 3ebe fb81 71bc 6257 3c3e 431a c6bc
000000b0: 09e5 efbd 8f28 993b 6841 773c b4b8 d13c
000000c0: 4975 3a3e 95d0 493d c59f b53c 6d56 43be
000000d0: dbba 173d b78e 783c dbe4 9e3d 40bb 24bd
000000e0: 2129 623d fd4e ecbc edb3 f5bd cba8 9c3d
000000f0: 7fb8 293b 8de1 853d 088a 4bbc b13d aabc
00000100: ee3c 973c 9e74 9f3c 7e2c c83c e2ae 193d
00000110: ccf1 6a3b 2a4e 6fbd c2f4 ecbb e1fb 6bbc
00000120: 9698 883c 390c e5bc 65bf 813c 2239 a33b
00000130: b3c7 07be a762 a03d 5084 d63c c6c2 8dbb
00000140: d066 4dbc 1603 17bb d9d8 b5ba 0ac8 87bb
00000150: 4c41 283b 1b15 0a3c 3f40 873d a6df 1b39
00000160: 0dbc 15bc ee79 7a3b 09f1 a23c 6860 85ba
00000170: cdc4 063b cf5a a6bb ca88 4b3d 01ea 803a
00000180: 6d5d 0d3c ebba d83d 4905 c5b7 1d15 943d
00000190: 388d fabc a916 263a 9414 2a3a 797e 983c
000001a0: 024e 7fbd d63f c73a 706b 513c 5cb5 123c
000001b0: 0f8c 72bd b070 ed3a d1f4 023d 8a3e 0b3c
000001c0: 08de 053d db1f df3c d3b6 0bbb 7237 bebd
000001d0: 845a 9b3a 6e29 4cbb 3c89 823d 13fb 353c
000001e0: 8709 a53c fa53 043c 9bd1 94bc b8c6 1cbd
000001f0: 13da d3ba 1bf8 79bc 8cb3 dc3a f868 e33c
00000200: af1a 7abd c692 1e3e aa68 04bd 4066 e93c
00000210: bf8b b8bc cb1e 5b3c 1558 b43c afca 6d3c
00000220: 478e c83d f6ca 6a3c 44ac c7bc 5af3 933d
00000230: 830e 23bd c1e1 1c3e 4424 073e 9dff 1d3c
00000240: 3afb 3bbd c6c5 963b cb1a 4dbd 8970 ab3a
00000250: 83ba 20bc 4b3b 6d3c 96b4 2fba f581 b7bc
00000260: 0a91 df3c 413f 4ebb 8555 bfbd 3fef ab3c
00000270: 0c25 043d 2237 e03b f0da dc3a b37d aabc
00000280: d966 6a3e 9686 ec3d 076b 1bbc 70ac 853b
00000290: b14a 85bd 6f3a 9dbc 369e 823d 9c31 363d
000002a0: 90ba 8abc edb1 e2bb 2924 253e 085e afbc
000002b0: a247 e3bd 85b3 be3b b1f1 6a3c 530c 813d
000002c0: 85fc 2f3e a446 ebbc 29e0 8c3c 3b65 ba3c
000002d0: 8233 cb3c 2718 0b3c 91cd d13d 0a4c 3cbd
000002e0: c783 a63c 57bc a7bc 9145 cebd 5f7a a0bb
000002f0: da68 0539 6202 a43d 9289 ecbb 2c05 18bd
00000300: 00b3 e7bc 7c48 24bd 17de 89bd 659f acbd
00000310: 7baf 6eba 5c50 4d3d 86d7 8aba 52e7 da3b
00000320: 6da6 533d 941c e23c a6f2 0d3b 2436 e93b
00000330: a6f0 32bd 49c0 223d 4f90 1f3c 715c 9339
00000340: 029b 68bb 4293 033a 3227 813d 696e 95ba
00000350: 9813 35b9 e216 953b 1dbd 8c3c fb75 a8ba
00000360: 43b6 16ba 46b2 c53a 6d2c 8bbc 9152 ca39
00000370: ae68 153b b4b4 16ba 0c87 763b 4a32 82b9
00000380: 64cc 673d 5a38 b3bd 4260 97ba c8a2 453d
00000390: 0093 bcbc 7a5a 25b9 e337 c73b 335d a13c
000003a0: 1f7a 45bc 7a2e b6b8 1339 c03c 063f 73ba
000003b0: 22b0 cbbc 0358 cfb8 5720 863c b2d3 863c
000003c0: 3fc6 1c3c 92be 3dbd b6a4 a9ba c317 f93d
000003d0: 0c44 333b 7bec bab9 93c4 06bd 54ab f2ba
000003e0: 8e91 963b b1d1 3639 71b7 553b 4e40 323c
000003f0: f69e 04ba dcfc 723c d32c 1439 41b9 3dbd
0.060422417 0.2254292 0.01608136 0.11596281 -0.021197032 0.032818507 0.029532224 0.0064334525
0.11814021 0.08623993 -0.025955858 0.10636141 -0.09958888 0.064270206 0.08091334 0.016711371
-0.08819543 0.0046366476 -0.017981255 0.005369488 -0.01929636 0.016551778 0.019851232 -0.03109802
0.043709587 -0.01017642 0.028695535 0.039945506 0.048198428 0.013810382 0.018569808 -0.034091342
0.21862897 0.21859464 -0.00875131 0.09366263 -0.09609574 -0.024652414 0.050971087 0.0033116762
-0.18554842 -0.014740462 0.18392709 -0.024182444 -0.11713607 0.0046740244 0.015091278 0.025600769
0.18208803 0.049271185 0.02217091 -0.19075938 0.037043434 0.015170745 0.077584945 -0.040217638
0.055215005 -0.028846258 -0.11997209 0.07649382 0.0025897322 0.06537161 -0.012423046 -0.02078137
0.01846167 0.019464787 0.024435278 0.037520297 0.0035849689 -0.058424152 -0.007231326 -0.014403314
0.016674321 -0.02795993 0.015838334 0.004981176 -0.13259773 0.078313164 0.026186138 -0.0043261973
-0.012536719 -0.002304261 -0.001387383 -0.0041437196 0.0025673686 0.0084278835 0.06604051 0.00014865267
-0.009139073 0.0038219648 0.019890325 -0.0010175826 0.002056408 -0.005076743 0.049691 0.0009835364
0.0086282315 0.10582527 -2.3486691e-05 0.072305895 -0.030584916 0.0006335774 0.0006488052 0.018614994
-0.062330253 0.001520152 0.012781963 0.008954372 -0.0592156 0.0018115249 0.031971756 0.008498797
0.03268245 0.02723687 -0.0021318689 -0.09287919 0.0011852537 -0.0031152624 0.06373832 0.011107224
0.020146145 0.008076662 -0.018166354 -0.03827545 -0.0016163014 -0.015256907 0.0016838177 0.027760014
-0.061060604 0.15485677 -0.032326378 0.02849114 -0.022527574 0.013374041 0.022014657 0.014513656
0.09792762 0.014330616 -0.024374135 0.0722415 -0.03980876 0.15320493 0.13197428 0.0096434625
-0.045893885 0.004601213 -0.05007438 0.0013079803 -0.009810093 0.014479469 -0.00067026296 -0.022400836
0.02729084 -0.0031470808 -0.093424834 0.020988105 0.032261893 0.00684251 0.0016849916 -0.020811891
0.22890796 0.11549108 -0.0094859665 0.004079394 -0.06508387 -0.019192902 0.063778326 0.044480905
-0.016934663 -0.006918183 0.16127075 -0.021407142 -0.11097647 0.0058197402 0.01433985 0.06301179
0.17186172 -0.028720208 0.017196732 0.022753349 0.024804834 0.008489645 0.10244287 -0.045970954
0.020326508 -0.02047555 -0.100718625 -0.0048974003 0.00012722929 0.08008267 -0.007218548 -0.037114307
-0.028283596 -0.04010819 -0.067318134 -0.084288396 -0.0009105128 0.050125465 -0.0010592795 0.0066804076
0.051672388 0.027601518 0.0021659522 0.00711705 -0.04368653 0.03973416 0.009738996 0.000281069
-0.0035492782 0.00050191965 0.06306304 -0.0011400703 -0.00017268804 0.004549847 0.01718002 -0.0012852544
-0.0005749205 0.0015083037 -0.016988957 0.0003858996 0.002279799 -0.0005748973 0.0037617115 -0.00024833
0.056591406 -0.087509826 -0.0011549073 0.048250943 -0.023019314 -0.00015769331 0.0060796603 0.019697761
-0.012053042 -8.687093e-05 0.023464715 -0.00092791056 -0.02486426 -9.8869226e-05 0.016372843 0.016458366
0.00956875 -0.04632432 -0.0012942764 0.12162735 0.0027353792 -0.00035652876 -0.03290231 -0.0018514195
0.004594988 0.00017434989 0.003261056 0.010879589 -0.00050590874 0.014830794 0.00014131078 -0.04631925

rnn.bias_ih_l0 f4 [256]
00000000: 81d7 a93e dc24 0c3e 9101 903e 29af 453d
00000010: 1ac1 06be 0812 50bc 5681 13be cbc3 9cbd
00000020: 64b3 223d f348 08bd 1f53 dfbd 3a14 1c3e
00000030: 9d31 663e 3e4e 4abd 7a3b 323e fe89 1cbd
00000040: e729 5f3e 119f 55bd 80c3 853e 9a6f 4bbd
00000050: e122 bebd 8cd7 dabd 6edc 993c 2d04 73bd
00000060: b3b8 83bc 9c3c 65bd ac3f b6bc 5462 fdbd
00000070: b855 823c e040 6cbd fab0 07be 426c ccbc
00000080: 51e6 a2bd aecd 853d fd43 63bd fef0 47bd
00000090: a8f9 fc3e 4385 afbd bcb5 79bc 2860 8e3e
000000a0: 0583 38bd 497f 13bd 39d7 a339 5488 08be
000000b0: 8cf3 f93c 8035 1fbe 1b16 d1bd 50ec 9b3d
000000c0: 67af 88bd b0c3 36bd b92c a8bb 3ae7 363f
000000d0: eb33 423d 5e40 30bd 7e3c 663d c9d5 03be
000000e0: 94f7 d63c d90f f6bd e297 e3bd 4997 b53e
000000f0: 4bf3 09bd 8150 d03b 5c26 1abd decf 493d
00000100: ce4f c6bd e9e4 41bd 684b fdbd 5c63 1a3d
00000110: dd6d 89bd a1b7 113f db61 93bd 9343 c5bd
00000120: 3bdc 9fbd 5866 bc3a b282 03be 5ac7 61be
00000130: dafe 89be b67c 063f c67f babd a857 1bbd
00000140: 48a1 a9bd 7410 15bd 6c1c 6abd 777d 4ebd
00000150: 12e5 95bd a102 91bd fed5 633c ccc2 52bd
00000160: a57d 99bd d0e6 4dbd d92c e6bd aa54 e0bd
00000170: 4d96 1bbd 68a0 28bd f5e4 61bd 3887 66bd
00000180: e010 3a3d 8110 bcbd ccfd 3cbd a0a6 943e
00000190: ff70 5e3d 511b 6fbd 7411 c3bd 5236 5d3d
000001a0: 5725 16be c33e 5ebd 5743 82bd ce78 cdbd
000001b0: 5282 3d3c b723 adbd 175d a8bd 1959 3b3d
000001c0: 0632 11be 0fbb 15be cb8c c6bd 0364 f4bc
000001d0: 1cfc 94bd be79 23bd 3d4b 273c 3f1e d0bd
000001e0: f8c0 b1bd 7064 a4bd a3fb 8bbd b2ae 74be
000001f0: efdc d6bc 210d 35be 77f5 19bd d27d c63d
00000200: 14ee dc3c 1f5d 853d 1e3d 05be 253b 203d
00000210: 5ccc 253c 8abe 09bc 7562 93ba c69e 4ebd
00000220: 698a 393d 8386 563d 4840 bfbd 9320 cabd
00000230: 5647 bf3c 1195 b03d 037d f33d 20e2 d3bc
00000240: 74ee 673c bad4 0b3d a788 d1bd f8e4 70bd
00000250: 7734 983a 2f2d cd3c 5d44 693c 2255 9b3d
00000260: 4de8 1c3b 2071 c0bc fec7 c4bd 3b42 bbbc
00000270: 3817 b7bc ef57 84bb 1968 1ebd 41d1 c93d
00000280: 2dd6 0f3d 5f89 92bb db77 d9bc 13b5 193d
00000290: 0d6e 733c 798a 15bd 77c2 273d a89c 803d
000002a0: d324 943c 4c0b b6bd b5ef da3d a5ec 433d
000002b0: 16bb 6abd 3c2e 013d 05c4 0bbe 178a 0bbd
000002c0: 23ef 9a3c 4b54 19bd 3aaf 41bd 2935 c4bc
000002d0: 7f51 f1bc dd05 abbd ea45 863d a539 fabc
000002e0: 3a52 3abd b25b 20bd ac77 d43c 63bf 183d
000002f0: 379a b7bc a57a 10bd ad59 ff3c 9b5d 87bc
00000300: 36fe da3e 3925 1c3e 5f67 193e 6cd3 4cbd
00000310: d548 06be 228b 863c 5e5d d9bd 4d6b c7bd
00000320: 729e 563d 2fee 203d 1dd1 f9bd b17e d23d
00000330: 24c8 2c3e 7d34 96be ada8 673e 2280 1cbd
00000340: 6702 5e3e d159 55bd 48d3 a23e aa69 4bbd
00000350: 433a bebd 09f2 dabd 3fe9 c33d e096 73bd
00000360: 44c9 73bc 003b 65bd e5b8 c4bd d046 d2bd
00000370: 6da1 823c 004a 6cbd a512 193c 2db2 ccbc
00000380: 2c1c 29be 66e3 4c3e d13b 63bd 9461 8cbd
00000390: d05e f83e 69a0 afbd a9ca bdbb a433 3d3e
000003a0: 7c97 dbbd 8a7f 13bd d36c 123e 7f87 09be
000003b0: 3583 4cbc 8d2d 1fbe 187d 1ebe 390b 3e3d
000003c0: 12e4 0ebd 290c eb3d 768d b1bb 4e4f 2f3f
000003d0: 521d 413d 7a39 30bd ab75 7cbd aea7 1abe
000003e0: b198 d13c 0241 fabd a50c c1bd 40fa aa3e
000003f0: 25da 09bd b859 88bd 680f 1abd 23a7 37bd
0.3317223 0.13685936 0.28126195 0.04826275 -0.131596 -0.0126996115 -0.14404806 -0.07654532
0.03972186 -0.033272695 -0.10904526 0.15242091 0.22479863 -0.049391024 0.17405501 -0.038217537
0.21793328 -0.05215365 0.26125717 -0.04966698 -0.092839964 -0.106856436 0.018781867 -0.059330154
-0.016079282 -0.055966005 -0.022247158 -0.1237227 0.015910015 -0.057679057 -0.13251105 -0.024953965
-0.079540856 0.06533371 -0.05548476 -0.048813812 0.49409223 -0.085703395 -0.015241083 0.27807736
-0.045046825 -0.03601006 0.00031250136 -0.13333255 0.03051164 -0.15547752 -0.102092944 0.076134324
-0.0667408 -0.044620216 -0.0051322845 0.71446574 0.047412794 -0.043030135 0.056210034 -0.12874521
0.026241101 -0.120147415 -0.11112954 0.35466984 -0.033679288 0.006357253 -0.03763424 0.049270503
-0.0968319 -0.047337446 -0.12367898 0.037692413 -0.06710408 0.5692082 -0.07196399 -0.096320294
-0.078056775 0.0014373763 -0.12842825 -0.22048703 -0.2695225 0.52534044 -0.09106402 -0.037925392
-0.08282715 -0.036392644 -0.05715601 -0.05041262 -0.07319082 -0.070805795 0.013906 -0.051455304
-0.07494668 -0.050268948 -0.11239023 -0.109536484 -0.037985135 -0.0411686 -0.05514999 -0.0562813
0.04542625 -0.09182835 -0.046140477 0.29033375 0.05430698 -0.05837566 -0.09524813 0.054006882
-0.14662682 -0.054259073 -0.063605 -0.10032807 0.011566715 -0.08454078 -0.082208805 0.045739267
-0.14179239 -0.14622138 -0.09694823 -0.029832846 -0.072746485 -0.039911024 0.010210809 -0.10162019
-0.08679384 -0.080269694 -0.06835105 -0.23894766 -0.026228396 -0.1768079 -0.03758761 0.09691967
0.026968993 0.06511902 -0.13011596 0.039118905 0.010119524 -0.008407244 -0.0011244552 -0.050444387
0.045298014 0.052374374 -0.093384326 -0.09869494 0.023349445 0.08622182 0.118890785 -0.02586466
0.014155973 0.03413842 -0.102311425 -0.05881211 0.0011612315 0.02504596 0.0142374905 0.07584597
0.0023942173 -0.023491442 -0.09608458 -0.02285873 -0.022349939 -0.004038803 -0.038673494 0.09854365
0.035116363 -0.0044719423 -0.02654641 0.0375262 0.014857781 -0.03650901 0.04095694 0.0627988
0.018083965 -0.088888735 0.10690252 0.047833104 -0.057307325 0.031538233 -0.13648994 -0.03406724
0.018912857 -0.037433904 -0.04728625 -0.02395113 -0.029457806 -0.08350728 0.06556304 -0.030545065
-0.045488574 -0.039149947 0.02593597 0.037291896 -0.022412403 -0.035273213 0.03117069 -0.016524127
0.42772073 0.15248574 0.14980839 -0.050006315 -0.1311372 0.016423766 -0.106135115 -0.09737263
0.0523972 0.03928965 -0.12198088 0.10278071 0.16873223 -0.2933692 0.22622938 -0.038208134
0.21680604 -0.05208761 0.3180182 -0.049661316 -0.09288456 -0.10690696 0.095659725 -0.059470057
-0.014879528 -0.05596447 -0.09605578 -0.10267413 0.015946114 -0.05768776 0.009342824 -0.024987305
-0.16514653 0.2000862 -0.055476967 -0.06854549 0.48509836 -0.08575518 -0.0057919812 0.1847673
-0.10722253 -0.036010303 0.14299326 -0.13430594 -0.012482454 -0.1554472 -0.15477407 0.04639742
-0.034885474 0.11476929 -0.005418475 0.68480384 0.047147103 -0.043023564 -0.061635654 -0.15103027
0.025585504 -0.122194305 -0.0942624 0.3339405 -0.033655304 -0.066577375 -0.03761235 -0.04483713

rnn.bias_hh_l0 f4 [256]
00000000: 3d3a b33e e203 7c3d 2d1d f23d 5214 3c3d
00000010: 518c 06be ebaf 51bc 5d0a debd 80da a0bd
00000020: 6ea7 ebbc fb14 6dbc e4fd 9dbd 4ce0 f23d
00000030: 0e8f 443e ad8b 2abe cbef 513e fe89 1cbd
00000040: e729 5f3e 119f 55bd cebe 3a3e 9a6f 4bbd
00000050: 1823 bebd b9d8 dabd 6f3a c93d bb1d 73bd
00000060: 8665 7cbc 9c3c 65bd e7f3 ebbd 1bb5 fbbd
00000070: 3ec6 823c 9940 6cbd 6b3b 35be 426c ccbc
00000080: a9dd adbd c32a 7c3c fd43 63bd f12d 593d
00000090: 8ff8 fc3e a285 afbd b6a0 a23a 552b 323e
000000a0: da03 d9bd 497f 13bd df44 183e 313d 08be
000000b0: ade4 963c 8d33 1fbe ba80 39be b6f3 8e3d
000000c0: d48c 223c 7622 e43d d72c a8bb 8814 233f
000000d0: eb33 423d 5e40 30bd f4a6 003e 430c 09be
000000e0: cf20 d63c cf3f ffbd 2c3c 943c 5f25 aa3e
000000f0: 4bf3 09bd 1f29 813c 5c26 1abd 100d 0e3e
00000100: 8937 183a 54e5 d73d cd35 de3d bc77 9fbd
00000110: f76d 89bd d8c6 113f af3a 84bd f983 26be
00000120: eaac e7bc b00b 7d3d fb03 07be d37c 56be
00000130: 5073 7cbe 95f4 fc3e a2c3 2bbd a857 1bbd
00000140: 48a1 a9bd 7410 15bd ac5e b1bd 777d 4ebd
00000150: 11e5 95bd a102 91bd 1b74 7a3c cdc2 52bd
00000160: 397a 99bd d0e6 4dbd c9cb 0ebe fd88 cbbd
00000170: 5396 1bbd 68a0 28bd fd0c 62bd 3887 66bd
00000180: bb42 913d 6f1b 683c ccfd 3cbd ba5e 9b3e
00000190: 1a7b 5e3d 511b 6fbd ac4d b9bd 3086 6bbd
000001a0: e062 40be c33e 5ebd ff3f 98bd 7e78 cdbd
000001b0: 5c10 acbc af23 adbd 361a f1bd 4a09 583d
000001c0: c2bb b13d f7ae 77bd cb8c c6bd e39c 35be
000001d0: 1cfc 94bd be79 23bd 4b6e 6bbd 9192 c5bd
000001e0: 4cc3 b1bd d661 a3bd 6857 2a3c bfcd c5bd
000001f0: efdc d6bc 4162 1ebe 77f5 19bd 48b2 58bd
00000200: c8f7 c8bd 1384 1dbe c910 6e3d d8c5 64bd
00000210: 7ceb 6fbd 4297 f93c f63c 2e3c 24d0 f53d
00000220: 8f19 04be 7119 7d3d 2488 403d 433a 843d
00000230: a52b 9b3d 1320 07be 69ef c2bc 014a 3b3d
00000240: 692b 47bd 8e50 79bc 97fc 9cbc 775d 903d
00000250: 87c2 e83b 66d4 cbbc 5ff3 0abd af15 bcbd
00000260: f566 883d b10a 313c 1ec1 2d3d d1c3 a53d
00000270: d5eb 513d af85 f73c 76f6 c53c cdc7 febd
00000280: a108 a9bc b164 303d 0e27 c33c 4e2f c1bd
00000290: 595b 4d3d a5c9 e43c 179b 03bd 106a 153c
000002a0: 11e8 efbc 6584 9f3d 6f54 1fbd 6aad 6cbd
000002b0: 60db c93d a84d 0b3c c6b5 633d 7200 20bd
000002c0: 62fb df3d 3427 cbbb 452b 623d f7ca 443d
000002d0: 557f 8c3d f85f c23d afaa e7bc afd0 60bd
000002e0: fa34 883d 5866 aabc 16f2 803d acc3 0f3d
000002f0: fb03 db3c 1197 4f3d b1de 48bd 370f c83d
00000300: d84b a13e 8485 1a3c d7ca 3d3e 8af7 d2bc
00000310: 1960 06be 74e7 933c 7012 1cbe 84e5 24be
00000320: 9bbc 9d3d b845 11bc 250b e2bd 09db df3d
00000330: a7c6 243e e3f2 7bbe 6672 183e 2280 1cbd
00000340: 6702 5e3e d159 55bd 1cf3 a73e aa69 4bbd
00000350: 8d3a bebd 36f2 dabd 556b e0bb 2ba2 73bd
00000360: bbd5 6ebc 003b 65bd 5ecb 853c c999 c6bd
00000370: 5832 823c bd49 6cbd 1b02 ce3a 2db2 ccbc
00000380: 02ab 2cbe 754a 243e d13b 63bd 29e1 1fbd
00000390: bd5d f83e 2da0 afbd 3eb2 35bc 202e 903e
000003a0: 679c b63d 8a7f 13bd 5b2a af3d 8b29 09be
000003b0: ab01 503e 4a38 1fbe acd5 34be b9cf 213d
000003c0: 4d73 eb3d 8883 543d 348e b1bb 676e 5d3f
000003d0: 521d 413d 7939 30bd 517c b6bc 71d0 0abe
000003e0: 1430 d13c 4c67 fcbd 7bc6 85bd bb6e a33e
000003f0: 25da 09bd 0e4a 7cbd 680f 1abd f0be bdbc
0.3500537 0.06152714 0.11821971 0.045917816 -0.13139464 -0.01279829 -0.108418204 -0.078541756
-0.02876636 -0.014470334 -0.077144414 0.118591875 0.19195196 -0.16654845 0.2050163 -0.038217537
0.21793328 -0.05215365 0.18236849 -0.04966698 -0.09284037 -0.10685868 0.098255984 -0.059354525
-0.015405064 -0.055966005 -0.1152113 -0.122904025 0.01596367 -0.057678793 -0.17698447 -0.024953965
-0.08489544 0.015391055 -0.05548476 0.05302233 0.49408385 -0.0857041 0.0012407515 0.17399342
-0.10596438 -0.03601006 0.14870022 -0.13304593 0.018419588 -0.15547009 -0.18115512 0.06980078
0.009921271 0.111393854 -0.0051322985 0.63703203 0.047412794 -0.043030135 0.12563688 -0.13383584
0.026138691 -0.124633424 0.018095098 0.33231637 -0.033679288 0.015766678 -0.03763424 0.1387217
0.0005806615 0.10541788 0.108501054 -0.077865094 -0.06710427 0.56944036 -0.064565055 -0.16261281
-0.028280694 0.061778724 -0.13185112 -0.20946054 -0.24653363 0.4940535 -0.041934617 -0.037925392
-0.08282715 -0.036392644 -0.08660635 -0.05041262 -0.073190816 -0.070805795 0.015286471 -0.051455308
-0.07494015 -0.050268948 -0.13944925 -0.09938238 -0.037985157 -0.0411686 -0.055188168 -0.0562813
0.07092806 0.014166697 -0.046140477 0.30345708 0.054316618 -0.05837566 -0.09048018 -0.057501018
-0.18787718 -0.054259073 -0.07434081 -0.10032748 -0.021003895 -0.08454072 -0.117725775 0.052743234
0.0867839 -0.060469594 -0.09694823 -0.17735629 -0.072746485 -0.039911024 -0.05747823 -0.09647096
-0.08679828 -0.07977645 0.010396816 -0.096583836 -0.026228396 -0.15467168 -0.03758761 -0.052904397
-0.098128855 -0.15382414 0.058121476 -0.05585274 -0.058574185 0.030467633 0.010634651 0.1200259
-0.12900375 0.06179184 0.047004834 0.06456425 0.07576684 -0.13195829 -0.0237958 0.045724872
-0.048625384 -0.01521696 -0.019163413 0.07049077 0.0071032676 -0.024881553 -0.033923503 -0.09183823
0.066602625 0.010805772 0.0424205 0.0809399 0.051250298 0.030215112 0.024165373 -0.12440453
-0.020633997 0.043064777 0.023822334 -0.09432851 0.050135944 0.027928183 -0.032130327 0.009119526
-0.029285463 0.07788924 -0.03889888 -0.057782568 0.098562956 0.008502401 0.055593275 -0.039062925
0.10936619 -0.0061997417 0.055217046 0.048045125 0.06860224 0.09490961 -0.02827963 -0.054886516
0.066507295 -0.020800754 0.06296174 0.035098717 0.026735296 0.050681178 -0.0490405 0.09768527
0.31503177 0.009431247 0.18534409 -0.025752801 -0.13122596 0.018054701 -0.15241408 -0.16103178
0.07701989 -0.00886672 -0.11037282 0.109304495 0.16091405 -0.24604373 0.1488739 -0.038208134
0.21680604 -0.05208761 0.32802665 -0.049661316 -0.092885114 -0.10690729 -0.0068487325 -0.059480827
-0.0145773245 -0.05596447 0.016332325 -0.09697301 0.015893146 -0.05768751 0.001571718 -0.024987305
-0.1686211 0.16044028 -0.055476967 -0.03903309 0.48509017 -0.08575473 -0.0110898595 0.2816019
0.0891655 -0.036010303 0.085530005 -0.13394754 0.20313136 -0.15548816 -0.17659634 0.03950474
0.11496601 0.05188325 -0.0054185633 0.86496586 0.047147103 -0.04302356 -0.022276076 -0.13556077
0.02553562 -0.1232439 -0.06531998 0.31920418 -0.033655304 -0.06159406 -0.03761235 -0.023162335

rnn.weight_ih_l1 f4 [256, 64]
00000000: a0d9 13ba eab4 12ba 3588 19ba 616d 02ba
00000010: 29a8 edb7 869c f739 5440 0838 d57f 9938
00000020: 0448 ddb9 d5d8 2637 21d3 9eb8 25e5 91b7
00000030: 22ad 5639 ed11 d536 9bc1 b639 c980 ca37
00000040: e927 d0b8 34bc 47b8 878d f9b9 ef15 6bb8
00000050: f601 81b8 23d6 8538 8b5b 01bb ca3c 88b8
00000060: d895 c838 b3c3 0537 5b51 41b9 33a2 7838
00000070: 9be5 cd38 947c eab6 947c 6eb9 ea42 38b8
00000080: f904 8538 19c5 91ba ffef 8eb8 8cf6 85b9
00000090: 6a9b 2139 8373 55b8 7723 3738 a83b 3e3a
000000a0: b3ba 163a a31e 79b8 c97d 0b39 431e 7cb8
000000b0: dc6c 2f3b 1822 15b8 b8fc 94b9 992d b7b8
000000c0: 3af0 2eb9 5cde afb9 8bda de38 db0e 973a
000000d0: a219 1b38 09be 8c37 e1cf 16ba 9fd7 bfb8
000000e0: 67d2 b038 1af9 34b8 c409 e039 27f4 ac38
000000f0: ebe4 1eb8 fea2 3839 783f 32b8 74a8 f539
00000100: 7d6f 0aba 3612 00ba 588f 13ba 1bca f9b9
00000110: 8054 f0b7 69b0 c939 5acf 20b6 ce20 8338
00000120: 21f7 d1b9 07ba ca36 b168 49b8 5e5b 88b7
00000130: 5a3e b439 5f7c beb6 a3de a939 4a50 9337
00000140: 0791 2db8 89b2 e8b7 f094 e4b9 8489 18b8
00000150: e76f e5b7 9849 2238 5b35 d3ba 35cf c0b7
00000160: deed 8838 1b13 0237 cf3f 37b9 28cd 0a38
00000170: b08a 7438 f650 17b6 4237 83b9 c563 8ab7
00000180: eb3b 3139 5709 79ba fddd 38b8 baf9 a5b9
00000190: 8703 d237 9c94 acb7 7708 b037 d6ab 2b3a
000001a0: ea73 143a 6f59 03b8 271b 3f39 1b46 17b8
000001b0: ccbc 0b3b 7380 d1b7 2fe5 a3b9 d01e 8737
000001c0: 9e22 4fb9 98c5 c7b9 a29b 5938 99b4 783a
000001d0: f51c 8f37 1080 b536 f987 12ba 0d8a 8fb8
000001e0: c99d 0638 cf96 fdb7 6ad8 d639 a6f9 a6b6
000001f0: c070 d9b7 6179 4639 68b8 0ab8 1ffe e539
00000200: a308 87ba 0ecb a1b6 c047 a3ba 8398 5cba
00000210: 487e 4138 df30 99ba 77a0 9b39 279b a039
00000220: 87c5 e2b9 8da2 2bba 3599 0a39 9484 a83a
00000230: a301 b63a 8124 0cba 3a83 3c3a 67c0 ec37
00000240: ad5b 8239 0e9a f8b8 d407 ceba 87ef 3f37
00000250: 02c8 68b9 a566 9b38 9d48 11bb 7d1d 68b9
00000260: 419b 90b9 1569 86b8 83d0 4aba d9ea 8bb8
00000270: 41fb 36b8 6295 c0b7 00ae 9bba fe7e d2b8
00000280: 776a eb3a 94ee 1dbb 62c8 40b8 c2c6 40ba
00000290: ba0c 01bb 3cfa 53b9 068b 3c3a af38 283b
000002a0: c9d2 ae3a 8e17 1ab9 165a 063b f3aa cdb8
000002b0: 5b7e 633b dadb 8d38 5737 8fb9 51b8 1b3a
000002c0: 44fd 2eb9 a40a 96ba 867c 5639 a3d8 053b
000002d0: dd58 33b9 3580 3b39 d34e 8cba 0db9 2139
000002e0: 0068 6038 a1d6 e938 aedb 103a 16a0 ef38
000002f0: b5c5 0038 ce71 8c3a 633e cf37 3856 a93a
00000300: b1a4 883b 60d2 423c d400 813b 2c27 b73a
00000310: e0a2 05ba f967 61bc a5e5 7e3a 1855 b23a
00000320: b62c 2a3b fe19 7fba ab15 903a 7119 d73b
00000330: a18b a1ba 6a95 2d3a 7513 883a 7bfd 5aba
00000340: a109 973b dd90 d9b9 7d32 6e3b d581 8fba
00000350: 42ad 3db9 0636 1c39 a593 0c3c b8b1 1fba
00000360: 66c2 0bbb f6c8 9a3a 8188 aeba edb3 04ba
00000370: 4c7e 81ba 81b7 89b6 0725 94ba 5710 4139
00000380: ab6b 153c 0e86 253b d2df ff37 0e8c 11bc
00000390: 7764 a7bc c079 d3b9 02e9 7f3b 9fd1 e43a
000003a0: e6e7 0cba ffe9 983a 2dd7 1b3c 7bc7 2ab9
000003b0: b9a8 d9bb 847c 9c38 7f5d e3bb e6a5 f93b
000003c0: 64b0 923a 70ce e737 87df 64ba fdc7 2abc
000003d0: 3e2a 1bbb b1ab 7137 7a5b 283b e530 2739
000003e0: 5b5f adb9 eb11 09b8 5e75 8cbb 6584 233c
000003f0: 08e2 0238 d770 373b 646a 523a f732 bf3a
-0.00056400336 -0.00055964163 -0.0005856783 -0.0004975405 -2.8330907e-05 0.0004722813 3.2484837e-05 7.319419e-05
-0.0004220606 9.944856e-06 -7.573353e-05 -1.739205e-05 0.00020473127 6.3499815e-06 0.00034857992 2.4140247e-05
-9.925647e-05 -4.7620575e-05 -0.00047598427 -5.6048793e-05 -6.1515646e-05 6.38182e-05 -0.0019738402 -6.496308e-05
9.564654e-05 7.9729825e-06 -0.00018436222 5.9278867e-05 9.817929e-05 -6.9882462e-06 -0.00022743858 -4.3931337e-05
6.3428604e-05 -0.0011121362 -6.8157904e-05 -0.0002555143 0.00015412053 -5.0890736e-05 4.366363e-05 0.0007256814
0.0005749866 -5.939476e-05 0.00013302932 -6.0109665e-05 0.0026767766 -3.555612e-05 -0.0002841705 -8.734613e-05
-0.00016683424 -0.00033544272 0.00010626492 0.0011524813 3.6978752e-05 1.6777793e-05 -0.0005753022 -9.147752e-05
8.4315245e-05 -4.3147338e-05 0.00042731885 8.247076e-05 -3.7883332e-05 0.00017608327 -4.2497617e-05 0.0004685555
-0.0005280895 -0.0004885526 -0.0005628965 -0.0004764356 -2.8649578e-05 0.00038469143 -2.3962552e-06 6.252677e-05
-0.00040047712 6.0417256e-06 -4.8019636e-05 -1.625501e-05 0.0003437873 -5.67692e-06 0.0003240007 1.7561153e-05
-4.138148e-05 -2.7739692e-05 -0.00043598516 -3.6367695e-05 -2.7351036e-05 3.869235e-05 -0.0016113924 -2.2984672e-05
6.5292916e-05 7.753052e-06 -0.0001747601 3.309283e-05 5.8303296e-05 -2.254788e-06 -0.00025027437 -1.649734e-05
0.00016902357 -0.0009499988 -4.407576e-05 -0.00031657313 2.5035593e-05 -2.05732e-05 2.0984777e-05 0.0006548738
0.00056630245 -3.1316125e-05 0.00018225294 -3.6066496e-05 0.0021322249 -2.4974555e-05 -0.00031260538 1.6107602e-05
-0.00019753954 -0.00038103457 5.1881776e-05 0.00094873604 1.7060413e-05 5.409129e-06 -0.00055897195 -6.844485e-05
3.209504e-05 -3.0230176e-05 0.00040978502 -4.9762484e-06 -2.592092e-05 0.00018927969 -3.3073506e-05 0.0004386762
-0.0010302257 -4.8218126e-06 -0.0012457296 -0.000841506 4.6132394e-05 -0.0011687538 0.0002968346 0.00030633176
-0.00043253248 -0.0006547354 0.0001321778 0.0012856894 0.0013885986 -0.00053460157 0.0007191185 2.8222987e-05
0.00024863836 -0.000118542564 -0.0015718886 1.14402565e-05 -0.00022199753 7.410095e-05 -0.0022168525 -0.0002213623
-0.00027581493 -6.409191e-05 -0.0007736759 -6.67178e-05 -4.362618e-05 -2.2957745e-05 -0.0011877418 -0.000100372345
0.0017960806 -0.0024098502 -4.596299e-05 -0.0007353836 -0.0019691424 -0.00020215748 0.0007192347 0.0025668552
0.0013337965 -0.0001469536 0.0020500473 -9.8070035e-05 0.0034712765 6.7643545e-05 -0.00027316317 0.0005940246
-0.00016688282 -0.0011447263 0.00020455019 0.0020423315 -0.00017103874 0.0001788147 -0.0010704644 0.00015423093
5.350262e-05 0.000111502835 0.0005525899 0.000114262264 3.0701707e-05 0.0010715069 2.4705374e-05 0.0012919372
0.0041700234 0.011890978 0.0039368663 0.0013973466 -0.00050978176 -0.013757699 0.0009723551 0.0013605682
0.0025966591 -0.0009731351 0.0010992786 0.006564312 -0.0012324938 0.00066216907 0.0010381775 -0.00083538116
0.004609302 -0.00041497397 0.0036346011 -0.0010948727 -0.00018088988 0.00014897445 0.008580123 -0.0006091851
-0.0021325587 0.0011809159 -0.0013315828 -0.00050622114 -0.0009879558 -4.104281e-06 -0.0011302539 0.00018412001
0.009119908 0.0025256905 3.0502593e-05 -0.008883489 -0.020433648 -0.00040335767 0.0039048796 0.0017457491
-0.0005375132 0.0011666416 0.009511751 -0.00016286776 -0.0066424278 7.4618525e-05 -0.006938636 0.0076186536
0.0011191485 2.7633476e-05 -0.0008730818 -0.0104236575 -0.0023676301 1.4404694e-05 0.002568929 0.00015944576
-0.00033068177 -3.2680033e-05 -0.004286452 0.009980296 3.1204923e-05 0.0027990842 0.00080267177 0.0014587332

rnn.weight_hh_l1 f4 [256, 64]
00000000: 7bc5 0a38 fd3c 1938 eb1b b037 8a5a b0b7
00000010: bce9 08ba c31a 043a a5ef 24b8 e2eb 8337
00000020: 9ef1 f1b7 9d4e e9b6 adec c339 b787 c337
00000030: b750 8639 914d 1aba 9588 103b 6496 3f38
00000040: b867 c4b8 df88 90b8 a742 6c37 f4f1 fd36
00000050: 09d6 38b7 e6af 97b7 237c 55b8 30ff a8b8
00000060: a10c 4f3b eb3e 40b7 e65d 87b7 05f5 993a
00000070: 8a7d 8fb8 6643 e336 f8b8 05b8 2f40 b137
00000080: 825d 0fb4 2363 a337 454a 2a39 304f 9738
00000090: 2862 8cb6 48c2 a439 bd1d a137 f4b4 81b9
000000a0: 5774 0cb8 0c3b b037 1c44 db39 9422 1cb8
000000b0: d942 4db9 8799 7639 3251 99b7 a377 a337
000000c0: af11 66b7 3ed1 63b7 acf6 233a 796f 4cba
000000d0: 76d7 7938 489a e637 8313 d137 9464 303b
000000e0: a15f 30b8 e507 acb9 c359 8435 029b d036
000000f0: 1e9c 9f36 bc1a ed39 94b2 3d37 32e4 66b7
00000100: 00de 0738 3b94 9837 9bde 6337 8c7a 76b7
00000110: c22e fab9 bc5e f839 bf2b deb7 48a2 be36
00000120: 4e6d 92b7 fbea 95b6 a863 ac39 f7c4 e837
00000130: 986f 5439 d5a0 13ba e4aa de3a 5dda 0238
00000140: ea2e a5b8 e858 37b8 8f63 0e37 6bf7 4737
00000150: 85e4 54b7 5702 5eb7 15ea b3b7 6b68 54b8
00000160: 46ef 233b b446 afb6 ec5e 7bb7 19b7 833a
00000170: bc32 0ab8 01bf 4db6 66bf ddb7 8fb4 4837
00000180: f265 c0b5 0362 9537 bfa0 eb38 f6c0 4b38
00000190: d944 8eb4 99b3 8b39 5e3a 3937 4fb2 54b9
000001a0: f3da b7b7 c15a 4d37 e1b8 c439 dfdf 04b8
000001b0: 2281 22b9 1295 3339 8a04 08b7 70cd 7c37
000001c0: 7d4f d3b7 be32 88b7 7f43 173a ce02 32ba
000001d0: c8d4 2b38 1518 a537 30cd 7f37 7686 093b
000001e0: 09c7 b8b7 5445 80b9 d0c0 dd35 5c79 4a36
000001f0: 6668 2b37 2959 d139 202e 7537 9228 26b7
00000200: de59 9937 84d4 0237 9870 2c38 4398 c038
00000210: 0d76 fcb9 949f 7639 4901 9537 4641 9eb7
00000220: 9a07 47b7 4584 b9b6 495f dd39 bb3a bcb8
00000230: 76b6 c539 8e35 07ba f2d4 bd3a c982 e0b7
00000240: 9698 68b9 b025 17b8 8629 e2b7 2061 9038
00000250: 02a9 2bb8 4397 2fb8 2844 2038 1d05 90b8
00000260: e1a0 1d3b 20f1 ee37 5e41 1935 8b73 eb39
00000270: 66e9 42b9 052d 5e39 9833 fbb7 7695 df36
00000280: de90 5a38 ce78 28b8 4213 7339 c1be 9338
00000290: a96a 70b5 e323 8838 c7e8 6a37 00ab 42b9
000002a0: 03d0 82b7 5de7 4438 6610 9539 825b 1db7
000002b0: aeee 41b9 ed60 1d3a 857e 3537 0d95 7e36
000002c0: 303f 4639 fcc4 80b8 cddf 0c3a 3139 2cba
000002d0: b05c 1638 dfe5 7cb7 ce08 8938 bca6 173b
000002e0: 5d0e 6336 ea27 aeba 1727 8736 0db7 bab7
000002f0: 5c82 f237 9aa1 13b9 012c 1537 8941 5e37
00000300: 7ee2 0fba 40f8 22ba 9335 2f39 729d 76b9
00000310: 3793 2bb7 e4c8 02bb 9a6c 013a 0ac1 cfb8
00000320: 8281 8739 6021 8ab7 a713 5b3a 9c3e 86ba
00000330: 36ff 863b 9982 523b d9ed c5bb 40aa a3b9
00000340: 3616 fbba f6fb 0b3a 263e 6a38 2aba c6b9
00000350: 461c b839 c800 7439 61ce e5b8 e2ac 493a
00000360: 5d5f d9bb 29e6 b4b9 ee90 2c39 b99d 36bc
00000370: a2ac 00bb 6684 c33a 05e8 9d39 e33f b3b7
00000380: 6a92 5139 3a0d d7b9 6a79 353b 5e4d 51ba
00000390: 75c5 92b9 4189 063b afc6 66b8 1226 38bb
000003a0: 07f4 8539 4779 3a37 fa7f 8f3a 64c5 a539
000003b0: 5267 1abb 60cb a13b 9973 30b9 3613 b7b8
000003c0: d141 c33a 03d0 073a fe2c 5abb 837c 893b
000003d0: d91b 7eb9 577d abb9 42fc 64ba d801 85bb
000003e0: 40d3 1fb8 305a 1dbc 0787 61b9 296a 3d39
000003f0: f7e2 ccb9 57ef c4ba d60e eeb9 6dfe 5739
3.3085682e-05 3.6534842e-05 2.0993835e-05 -2.1022995e-05 -0.00052228174 0.0005039388 -3.9323833e-05 1.5726258e-05
-2.884195e-05 -6.953093e-06 0.00037369636 2.3309009e-05 0.0002561861 -0.0005886192 0.0022054065 4.567801e-05
-9.3653274e-05 -6.891949e-05 1.4082215e-05 7.5681546e-06 -1.1017089e-05 -1.8082512e-05 -5.089877e-05 -8.0583966e-05
0.003159322 -1.1458741e-05 -1.6136979e-05 0.0011745995 -6.842155e-05 6.7729734e-06 -3.1881937e-05 2.1129932e-05
-1.3351931e-07 1.9477278e-05 0.00016240131 7.214991e-05 -4.183752e-06 0.00031425268 1.9206544e-05 -0.00024739618
-3.348695e-05 2.100833e-05 0.0004182168 -3.72255e-05 -0.00019575226 0.00023517582 -1.827683e-05 1.9486824e-05
-1.3713186e-05 -1.3578972e-05 0.00062547135 -0.0007798593 5.956689e-05 2.748998e-05 2.4923827e-05 0.0026915418
-4.205073e-05 -0.00032812278 9.86089e-07 6.2169283e-06 4.7567437e-06 0.0004522408 1.1306856e-05 -1.3762199e-05
3.239326e-05 1.8188837e-05 1.3582084e-05 -1.4691275e-05 -0.00047718553 0.0004737283 -2.6484833e-05 5.6813333e-06
-1.7455455e-05 -4.4679014e-06 0.00032880646 2.7748274e-05 0.00020259467 -0.0005631571 0.0016988185 3.1197782e-05
-7.8765515e-05 -4.37134e-05 8.48704e-06 1.1918931e-05 -1.2689391e-05 -1.3232776e-05 -2.1447466e-05 -5.0641986e-05
0.0025014444 -5.2236373e-06 -1.4982867e-05 0.0010049074 -3.2949014e-05 -3.065856e-06 -2.643438e-05 1.19629685e-05
-1.4334785e-06 1.7807824e-05 0.000112356145 4.857868e-05 -2.6499654e-07 0.00026645957 1.1040449e-05 -0.0002028432
-2.1917256e-05 1.22400825e-05 0.0003752178 -3.167975e-05 -0.0001549763 0.00017126303 -8.1072885e-06 1.5068203e-05
-2.5190175e-05 -1.6236092e-05 0.00057702506 -0.0006790579 4.0967745e-05 1.9680747e-05 1.5246958e-05 0.0020984686
-2.2027192e-05 -0.00024465716 1.6521899e-06 3.0170986e-06 1.0216701e-05 0.00039930016 1.4613877e-05 -9.903817e-06
1.8280869e-05 7.798084e-06 4.1112857e-05 9.1836344e-05 -0.0004815314 0.00023519836 1.7762783e-05 -1.8865463e-05
-1.1863094e-05 -5.528828e-06 0.00042223398 -8.975478e-05 0.00037710712 -0.00051578216 0.0014483018 -2.6763782e-05
-0.00022182087 -3.6036305e-05 -2.6960635e-05 6.884546e-05 -4.0926978e-05 -4.1864125e-05 3.8210448e-05 -6.8674075e-05
0.002405219 2.8484093e-05 5.7092063e-07 0.0004490878 -0.0001858823 0.00021188341 -2.9945557e-05 6.6633174e-06
5.211017e-05 -4.016683e-05 0.0002318146 7.045037e-05 -8.956218e-07 6.49167e-05 1.4001685e-05 -0.00018564984
-1.559407e-05 4.6945515e-05 0.00028431712 -9.379235e-06 -0.0001849483 0.0006003518 1.0817898e-05 3.7935708e-06
0.0001890629 -6.140207e-05 0.0005373925 -0.00065698015 3.584911e-05 -1.50738915e-05 6.534309e-05 0.0023140153
3.3833996e-06 -0.0013287042 4.027864e-06 -2.2258168e-05 2.8909351e-05 -0.00014079214 8.8913375e-06 1.324749e-05
-0.0005488767 -0.00062168017 0.00016709258 -0.00023519041 -1.022667e-05 -0.0019956166 0.00049371424 -9.9064855e-05
0.00025845697 -1.6466423e-05 0.00083571154 -0.0010242048 0.004119779 0.00321213 -0.0060403165 -0.0003121663
-0.00191564 0.00053399743 5.5847828e-05 -0.00037904206 0.0003511628 0.00023269944 -0.00010958012 0.0007693303
-0.0066336826 -0.00034503758 0.00016457189 -0.011146002 -0.0019634147 0.0014916777 0.00030118242 -2.1368212e-05
0.00019986337 -0.0004101785 0.0027690777 -0.0007984246 -0.00027994407 0.0020528587 -5.502131e-05 -0.0028098864
0.0002554955 1.1114701e-05 0.0010948174 0.0003161832 -0.002356012 0.0049375743 -0.00016827731 -8.729698e-05
0.0014896934 0.00051808375 -0.0033290978 0.004195751 -0.00024233702 -0.00032709047 -0.0008735099 -0.0040590577
-3.8105296e-05 -0.009604022 -0.00021507974 0.00018063992 -0.00039079014 -0.0015024942 -0.0004540595 0.00020598779

rnn.bias_ih_l1 f4 [256]
00000000: 9bfa f5bc fa69 e9bc 7811 3ebd 4769 e5bd
00000010: 47cc afbd 3f44 aebd 9971 6ebd 2a2a 07bd
00000020: 14e6 87bd e172 e7bc 93f2 5d3d 6b43 b6bd
00000030: 4543 023e 7193 a23b 60f8 973e 48f3 20bd
00000040: 1aac 03be 7f8b 58bd 74df f3bc 0b17 dcbd
00000050: c032 cdbd bf90 debd d8cf f9bd bd2e 95bd
00000060: 97ac 113f 1012 21bd 215a 83bc 241b 7ebd
00000070: c6f7 91bd c030 2dbe 59bd 95bd b0d7 b2bc
00000080: 51b8 6ebd b63b 43bd eed9 e63d db38 77bd
00000090: 1d6a b5bc 8023 fa3b fac9 a0bc 42cb 393d
000000a0: 1c02 85bd 7bf5 68bd fe32 923d ae1a 24bd
000000b0: 79b1 8dbd 9e94 473e 2802 f0bc 8819 ddbc
000000c0: 3254 fcbd 98e6 bbbd 27b1 cd3d 944c ce3a
000000d0: dea5 13bd a1b5 36bd 9d6b 0fbd 077e 103f
000000e0: 168c 08bd 6d40 c33e f183 b0bc 4f8e 51bd
000000f0: 366b 04bd b34f d03d a54d 26bd 5bd6 04bd
00000100: 44cf cdbc bcd2 c2bc 6c49 93bc 1e99 83bd
00000110: 635b 16bd cc98 023d bf5f c4bc 6a4c b5bc
00000120: dc97 77bd 47d8 b3bc ae46 22be 2686 f8bc
00000130: f80b 2ebe 005d 2bbe f03b 483d d393 cdbc
00000140: 4af6 00bd a6a9 3abd a56c 8cbc da00 b9bd
00000150: 3545 b6bd 029c 1ebd c1cc ccbd c65e 80bd
00000160: 0be6 30be ea45 fdbc 87a2 3ebc 1eb6 2abe
00000170: e392 fbbd 3b6b c5bd e480 7cbd 36c7 6bbc
00000180: 0d40 c3bc 6d7b c0bc c8d7 2bbe 2b2c 54bd
00000190: 8125 67bc 0777 10be 2718 43bc 5888 26be
000001a0: 62a7 68bd 3f77 08bd 2677 bebd e50c eebc
000001b0: 5564 1bbe 64e1 1cbe 2af5 cbbc 93c2 98bc
000001c0: 32bc 9ebd 731f a5bd 425b 213d ce78 b53a
000001d0: 0463 c2bc 5e4f e2bc 21ff f7bc ab22 54be
000001e0: 13db dabc 2552 ecbd 398b 73bc c3af 3abd
000001f0: 9c03 dabc 26c9 26be 27c9 08bd 759c ccbc
00000200: 3642 79bc a178 4b3d 1cce fbbc 6c6f 353d
00000210: daf8 003c d8e1 bf3c 2ba1 383d 28dd 63bd
00000220: 8845 d03a d28d 043c c996 8ebd 9aaf a63d
00000230: 98fd 64bb 9ce4 a83d e530 5b3d 9027 80bc
00000240: f9b1 bc3c 058c aabd 499a da3d 0d0b 48bc
00000250: cb55 3ebd 014b 24bd 8843 d1bb 1f6c 37bd
00000260: df34 f1bd 0d24 b3bd d85e 913c f0c6 c5bd
00000270: aa0f 703d ec7b 9abc 8f34 91bd f078 a3bd
00000280: ef00 0c3d 77ec 363d 6182 b63d c565 10bd
00000290: 06df 003b 02bb 9bbd c74b 3cbc 7c0f 9d3d
000002a0: 831b 57ba eb71 1c3c 000c 8ebc d357 de3c
000002b0: 9f39 e1bd ad0e 1f3d 7d7e a9bd 78cb 80bd
000002c0: 997d c33d 8578 e4ba 0e21 683c 8222 8d3c
000002d0: 23b2 a5bd 32ca b33b be57 f7bc dbbf 9abd
000002e0: dddb abbd f056 a8bc 9d1b 793d 9df3 8a3d
000002f0: ad02 3ebc 59ad cabc 4fa3 603d 2b28 e53c
00000300: cd04 f6bc 726f e9bc 550e 3ebd 4b19 debd
00000310: 568e c13d 8869 b9bd 3d63 6ebd c529 07bd
00000320: 01ec 87bd 287e e7bc 37bc 9fbd b272 b9bd
00000330: a388 2b3e ccc9 ad3a d34e ef3e 7804 21bd
00000340: 4b95 18be 6c89 58bd 34f0 f3bc bf18 dcbd
00000350: 173a cdbd 8850 ddbd b7f3 f9bd 8a26 95bd
00000360: c916 123f ce11 21bd 1463 83bc 9805 a9bd
00000370: cd20 66bc 4f38 1dbe e6b5 95bd 80de b2bc
00000380: 313e 6ebd c23b 43bd c10f 923d 2b2e 77bd
00000390: 8a6e b5bc e7d5 833d 7dce a0bc e7a6 bfbb
000003a0: 98ff 84bd 62e8 68bd 6ddd 08be 081c 24bd
000003b0: 72b3 f0bc 3aa9 633e 3407 f0bc d924 ddbc
000003c0: 5dd1 09be bbe9 bbbd e773 443d 3a17 dd3c
000003d0: 58a5 13bd 31b4 36bd c06c 0fbd 522a 273f
000003e0: ca8d 08bd 322c d23e 728d b0bc 8492 51bd
000003f0: 8572 04bd 3314 cd3d 6a54 26bd 69df 04bd
-0.030026725 -0.028492916 -0.04640338 -0.11201721 -0.08583885 -0.08509111 -0.058213804 -0.032999195
-0.06635681 -0.02825302 0.054186415 -0.08899578 0.12720974 0.004961424 0.29681683 -0.03929451
-0.1285862 -0.05286741 -0.029769637 -0.107465826 -0.100194454 -0.10867452 -0.12197846 -0.07284305
0.56903976 -0.039323866 -0.016034188 -0.062037602 -0.07127337 -0.16913128 -0.07311506 -0.021831363
-0.058281247 -0.047664367 0.112720355 -0.060356956 -0.022145325 0.0076336265 -0.01962756 0.045359857
-0.06494543 -0.056874733 0.07138632 -0.040064506 -0.06918616 0.19490287 -0.029297903 -0.026989713
-0.123207465 -0.09174842 0.10043555 0.0015739375 -0.036046855 -0.04460681 -0.035014737 0.564423
-0.03333672 0.3813509 -0.02154729 -0.051161107 -0.032328807 0.101714514 -0.04060139 -0.032430988
-0.025123246 -0.023782127 -0.017979346 -0.06425689 -0.036708247 0.031884 -0.023971437 -0.022131164
-0.06044756 -0.021953715 -0.15847275 -0.030337404 -0.16996753 -0.16734695 0.048885286 -0.025094902
-0.03148488 -0.045571946 -0.01714165 -0.090333655 -0.08899919 -0.038723 -0.09999991 -0.062680766
-0.17275254 -0.030917127 -0.011635429 -0.16671035 -0.12283876 -0.09639593 -0.061646357 -0.014390757
-0.023834253 -0.023496354 -0.16781533 -0.051799934 -0.014108063 -0.14107905 -0.011907614 -0.16262949
-0.056800254 -0.033316847 -0.093000695 -0.029058883 -0.15174992 -0.15320355 -0.024897177 -0.018647468
-0.07750739 -0.08062639 0.03939367 0.0013845207 -0.023728855 -0.027625736 -0.030273022 -0.2071635
-0.02671579 -0.11539105 -0.014864736 -0.045577776 -0.02661305 -0.1628767 -0.03339496 -0.024976948
-0.01521354 0.049675588 -0.030737929 0.044295713 0.007871831 0.02342312 0.045075577 -0.055630833
0.0015889863 0.008090453 -0.06962354 0.08138962 -0.0034941193 0.08246729 0.053513426 -0.015643865
0.023034083 -0.08327488 0.10673959 -0.012209666 -0.046468537 -0.04011059 -0.006386224 -0.044780847
-0.117776625 -0.087471105 0.01774542 -0.09657085 0.05860869 -0.018857919 -0.07090103 -0.07982051
0.034180578 0.044659104 0.089115866 -0.035253305 0.0019664182 -0.07604028 -0.011492676 0.07668969
-0.00082056987 0.009548645 -0.017339706 0.027141487 -0.109973185 0.038832355 -0.08276079 -0.062888086
0.0954544 -0.0017430937 0.014168037 0.017228369 -0.080906175 0.00548675 -0.030193206 -0.07556125
-0.08391545 -0.020549268 0.06081735 0.06784747 -0.011597318 -0.024740862 0.054843243 0.027973255
-0.030031586 -0.028495524 -0.046400387 -0.10844668 0.094509766 -0.090533316 -0.05820011 -0.03299882
-0.06636811 -0.028258398 -0.07799571 -0.090550795 0.16751342 0.0013258993 0.46739826 -0.039310902
-0.14900701 -0.05286543 -0.029777624 -0.107469074 -0.100208454 -0.10806376 -0.12204688 -0.07282741
0.5706602 -0.03932362 -0.016038455 -0.0825302 -0.014045906 -0.15353511 -0.07310085 -0.021834612
-0.05816478 -0.04766441 0.07131911 -0.060346764 -0.022147436 0.06437283 -0.019629711 -0.0058487537
-0.06494063 -0.056862243 -0.13365717 -0.040065795 -0.029382441 0.22232524 -0.02930031 -0.02699511
-0.13458772 -0.0917544 0.047962096 0.026988614 -0.036046356 -0.044605438 -0.03501582 0.6529895
-0.033338346 0.41049343 -0.021551821 -0.05116512 -0.032335777 0.10013618 -0.040607847 -0.032439623
