checkpoints/TP_LSTM_L2_bs16_trainNon0baseline_bsfirst_pos1_downsp_rs/TP_LSTM_L2_bs16_epoch300.pt (torch, 206215 bytes, 9 tensors)

rnn.weight_ih_l0 f4 [256, 3]
0	0x3debb1af	0.115085
1	0x3dce871e	0.10084365
2	0x3de1fc8c	0.110344976
3	0xbdeacd92	-0.11464991
4	0x3f04ed41	0.5192452
5	0xbd583fca	-0.05279521
6	0x3dcf272d	0.10114894
7	0x3ec52e5b	0.3851193
8	0x3da5084d	0.08058224
9	0xbd291529	-0.041279946
10	0xbcb1a0be	-0.021683093
11	0xbc621869	-0.013799765
12	0x3f4a69ae	0.79067504
13	0x3dda83a3	0.10669639
14	0x3f885af6	1.0652759
15	0xbf0061a2	-0.50148976
16	0xbcce2121	-0.025162281
17	0x3f321acb	0.6957213
18	0xbd053a45	-0.032526273
19	0xbc67da73	-0.014151203
20	0xbc308575	-0.010774006
21	0xbd54537a	-0.051837422
22	0xbd1dd5fc	-0.03853415
23	0xbcdf7e08	-0.027281776
24	0xbf6a0b47	-0.9142346
25	0xbd29bc84	-0.041439548
26	0x3eb4deb2	0.35326153
27	0xbd3ca9f2	-0.04606051
28	0xbd0fda32	-0.035120197
29	0xbcec700b	-0.02886202
30	0xbd91c930	-0.071184516
31	0xbd1d291d	-0.038369287
32	0xbd1855b0	-0.037191093
33	0x3e7691d6	0.2407907
34	0x3e8e6088	0.27808022
35	0x3ec7e596	0.39042348
36	0xbe77e619	-0.24208869
37	0xbdec97a7	-0.11552363
38	0xbf9f2ffa	-1.2436516
39	0xbcb71749	-0.02234997
40	0xbc6d4f51	-0.014484243
41	0xbc5840b4	-0.01319902
42	0x3d92cd45	0.07168058
43	0x3e82de77	0.25560352
44	0xbc8bd163	-0.017067617
45	0xbd447938	-0.047967166
46	0xbcfe7129	-0.031059818
47	0xbca2b3c2	-0.019861106
48	0xbd17baaa	-0.03704325
49	0xbcda2818	-0.026630446
50	0xbcaeb6df	-0.021327434
51	0xbf745a39	-0.9545017
52	0xbf98767c	-1.1911159
53	0x3f97818c	1.183641
54	0x3e3a6b05	0.18204887
55	0x3edea3b1	0.43484262
56	0x3e698f13	0.22808485
57	0xbb84af5f	-0.004049226
58	0x3b0b5465	0.002126002
59	0x3bfc87ae	0.007706604
60	0xbd4d4c40	-0.050121546
61	0xbd09073c	-0.033454165
62	0xbca5c316	-0.020234626
63	0x3fa647da	1.2990677
64	0x3ee34532	0.4438873
65	0xbf8894da	-1.0670426
66	0xbd3722f7	-0.04471108
67	0xbce7b423	-0.028284138
68	0xbcbd9383	-0.023141628
69	0x3e50e34c	0.20399207
70	0x3dfacc12	0.122459546
71	0xbe149279	-0.14509
72	0xbd29648d	-0.04135566
73	0xbd049179	-0.032365296
74	0xbcd556fb	-0.026042452
75	0xbd60089f	-0.05469572
76	0xbd2b785e	-0.041862838
77	0xbcf00156	-0.029297512
78	0xbe127fb9	-0.14306535
79	0xbd97cc63	-0.074120305
80	0xbd8dd083	-0.06924536
81	0x3e5b4bb0	0.21415591
82	0x3e40b77e	0.18819997
83	0x3e294b50	0.16532636
84	0x3b2140c3	0.0024605251
85	0x3c5bfde1	0.013427229
86	0x3c3dd8b3	0.01158731
87	0xbe86f864	-0.26361382
88	0xbeec2c77	-0.46127674
89	0x3e957811	0.29193166
90	0xbe06f054	-0.13177615
91	0xbd873e9f	-0.06603741
92	0xbda25bd1	-0.07927669
93	0x3e9fde65	0.3122436
94	0xbd6db588	-0.05803445
95	0xbf08e826	-0.5347923
96	0xbc9e5b25	-0.01933057
97	0x3c3089bc	0.010775026
98	0x3b99fd01	0.00469935
99	0xbe60e60d	-0.21962757
100	0xbd78b113	-0.060715746
101	0xbe300983	-0.17191128
102	0xbc4f3930	-0.012647912
103	0xbaa3ab87	-0.0012487032
104	0x3b9e06e5	0.0048225992
105	0xbd912426	-0.07086973
106	0x3f1a9aa9	0.6039224
107	0x3efc2e26	0.49253958
108	0x3e93d0f8	0.28870368
109	0x3e38ea92	0.18058231
110	0xbc0bb7bf	-0.008527695
111	0xbfaa99bb	-1.3328165
112	0xbdf55262	-0.11978604
113	0xbc7918bf	-0.015203654
114	0x3ea6e38f	0.32595488
115	0x3e643972	0.22287539
116	0x3e152012	0.14563015
117	0xbdc61f21	-0.09673906
118	0xbd734254	-0.059389427
119	0xbcbcd3a8	-0.023050144
120	0xbd9200f4	-0.07129088
121	0xbd7b63ae	-0.06137436
122	0xbd509bd5	-0.050929863
123	0xbf09e805	-0.5386966
124	0xbef43b95	-0.47701707
125	0xbed49cea	-0.41525966
126	0xbe1c878e	-0.15286085
127	0x3e962516	0.2932517
128	0xbec920b5	-0.39282766
129	0xbecb3b94	-0.39693892
130	0x3eb638a0	0.35590076
131	0x3db9bf96	0.09069745
132	0xbdae4f41	-0.0851121
133	0xbd5d290f	-0.053994235
134	0xbda56917	-0.08076685
135	0xbccdc064	-0.025116153
136	0xbc45493e	-0.012041388
137	0xbb0cb560	-0.0021470413
138	0x3f0a84c3	0.5410883
139	0xbe98a2e2	-0.2981177
140	0xbf2a66ef	-0.66563314
141	0x3f3f3e65	0.7470458
142	0x3ebeed8b	0.37290606
143	0x3f46f4c0	0.7771721
144	0xbd5b6570	-0.053563535
145	0xbd29e6e4	-0.04147996
146	0xbcdd31d4	-0.027001299
147	0xbcfde500	-0.030992985
148	0xbc64b29b	-0.0139585985
149	0xbc1bb64f	-0.009503915
150	0xbd41d78c	-0.047324702
151	0xbd0f94af	-0.035053905
152	0xbcd92294	-0.026505746
153	0x3d192c3a	0.037395693
154	0xbe20d7f4	-0.1570738
155	0xbe54c69c	-0.20778888
156	0x3e38f677	0.18062769
157	0x3e1aea41	0.15128423
158	0x3e00d198	0.12579954
159	0xbd491ba6	-0.049098633
160	0xbd1d7490	-0.03844124
161	0xbd05dc9d	-0.032681096
162	0xbd3548fa	-0.04425905
163	0xbbc903e4	-0.006134497
164	0xba86f623	-0.0010296743
165	0xbd55b811	-0.052177493
166	0xbd1d0b44	-0.03834082
167	0xbce7f251	-0.028313788
168	0x3e7d355a	0.24727383
169	0x3f1dc89b	0.61634225
170	0x3f26d4a5	0.6516822
171	0xbd4d4676	-0.050116025
172	0xbd175fbb	-0.03695653
173	0xbcbb3539	-0.022852527
174	0xbd7d0d0a	-0.061780013
175	0xbd250afb	-0.040293675
176	0xbce7996e	-0.028271403
177	0xbd457bd0	-0.04821378
178	0xbd1a94cb	-0.037739556
179	0xbd132e4f	-0.035932835
180	0xbd6179e3	-0.05504788
181	0xbd32bb77	-0.04363581
182	0xbd194a4b	-0.037424367
183	0x3e6dcc8e	0.23222563
184	0x3ef55e3e	0.47923464
185	0x3ea1043a	0.31448537
186	0xbd28051f	-0.04102051
187	0xbd049cab	-0.032375973
188	0xbce0d719	-0.027446317
189	0xbd1e42ba	-0.038637854
190	0xbce0bcfd	-0.027433867
191	0xbcb36eed	-0.02190348
192	0xbd1b086d	-0.037849832
193	0xbcbdb70f	-0.023158578
194	0xbc488e26	-0.012240922
195	0xbe508aba	-0.2036542
196	0x3f0f6375	0.56011134
197	0x3e4563be	0.1927633
198	0x3dc135d0	0.09434092
199	0x3daa1bf6	0.083061144
200	0xbdaa28ef	-0.08308589
201	0xbd267c42	-0.040645845
202	0xbcf4f546	-0.029902112
203	0xbcc57a5a	-0.024106193
204	0x3f175c66	0.59125364
205	0x3e833cf0	0.2563243
206	0x3f6cfb73	0.9257118
207	0xbe5d46df	-0.21609066
208	0x3dfeec9e	0.12447475
209	0x3f030136	0.5117372
210	0xbd2c54fe	-0.042073242
211	0xbce6a479	-0.028154599
212	0xbcafba97	-0.021451278
213	0xbd113702	-0.03545285
214	0xbcc98f2a	-0.024604399
215	0xbc81274a	-0.015765805
216	0xbe15dce6	-0.14635047
217	0xbd9cd5a9	-0.0765794
218	0xbdc46a65	-0.09590606
219	0xbd09fe09	-0.033689532
220	0xbcc90bc5	-0.024541745
221	0xbc97e07e	-0.018539663
222	0xbd0905ee	-0.03345292
223	0xbcbc47a9	-0.022983389
224	0xbccb97b1	-0.024852606
225	0x3e44523d	0.19171996
226	0x3d5cd340	0.0539124
227	0x3d338de7	0.0438365
228	0xbcc49eb2	-0.024001453
229	0x3dca05b5	0.0986437
230	0xbf9b7acd	-1.2146851
231	0xbd27a7f3	-0.040931653
232	0xbcf89a9a	-0.030347157
233	0xbce19031	-0.027534576
234	0xbe7454b4	-0.23860437
235	0x3dd7697e	0.10518168
236	0xbe4ce54c	-0.20009345
237	0xbd1e16c0	-0.038595915
238	0xbce94419	-0.028474854
239	0xbc99076d	-0.018680299
240	0xbcdf5083	-0.02726007
241	0xbca7abe4	-0.020467706
242	0xbc835d74	-0.016035773
243	0x3e132d55	0.14372762
244	0x3d2207d6	0.039558254
245	0x3f03a96a	0.5143038
246	0xbe6789ac	-0.22611111
247	0x3d12a39d	0.035800565
248	0xbdea2614	-0.11433044
249	0xbd8e7a5f	-0.06956934
250	0xbd5b4e34	-0.053541377
251	0xbd1b83e3	-0.037967574
252	0xbd0c5069	-0.034256373
253	0xbcbee801	-0.023303987
254	0xbc641975	-0.013922085
255	0x3e22b526	0.15889415

rnn.weight_hh_l0 f4 [256, 64]
0	0xba81e74c	-0.0009910851
1	0x3cf1e45c	0.029527836
2	0x3ce5642b	0.028001865
3	0x39a01291	0.0003053141
4	0x3cc27a2d	0.023739899
5	0xb8dcb1ab	-0.00010523511
6	0x398961fb	0.00026203677
7	0x390a6320	0.00013197633
8	0x3b092808	0.0020928401
9	0xb98d3fab	-0.00026941052
10	0x3a00b0c2	0.00049091515
11	0xbb4470da	-0.0029974491
12	0x3b7b0ee8	0.0038308445
13	0xb9f35af9	-0.00046416352
14	0xbc36a511	-0.011147753
15	0x3a05dd46	0.00051065197
16	0xb92b9466	-0.00016363114
17	0xbc605f5f	-0.013694613
18	0x3cad87e7	0.021182967
19	0xb954aa36	-0.00020281304
20	0xb9eeba68	-0.0004553378
21	0xbc18b3c4	-0.009320203
22	0xba592892	-0.00082839385
23	0x3b39d986	0.0028358414
24	0x38dc5876	0.000105068946
25	0x37f62640	2.9343297e-05
26	0x3a58836f	0.0008259331
27	0x3a944528	0.0011312114
28	0x3a47e8b1	0.0007625921
29	0xbb98a511	-0.0046583493
30	0x3aa32902	0.0012448134
31	0x3bc4516b	0.005991151
32	0x39ccf59a	0.000390929
33	0x3a774e98	0.00094340136
34	0xba1033b6	-0.00055008696
35	0x3c945018	0.018104598
36	0xbb4858db	-0.003057054
37	0x3bc258cf	0.005930997
38	0x3bc14d61	0.005899117
39	0xb822fdfb	-3.8860348e-05
40	0xba3cf06d	-0.0007207457
41	0xba2a25e2	-0.00064906303
42	0xba071f75	-0.0005154529
43	0xbbbcc5cf	-0.0057608853
44	0xba30f36b	-0.00067501393
45	0x399c6cf3	0.00029835812
46	0x3c6433ef	0.013928398
47	0xbce706c8	-0.028201476
48	0x3a248eb1	0.0006277366
49	0xb942ac31	-0.00018565428
50	0x39913714	0.00027697592
51	0xbb384004	-0.0028114328
52	0x3b2e3f4f	0.0026588028
53	0xba1509dd	-0.00056853687
54	0xb9fcbc78	-0.00048205606
55	0xb91429aa	-0.00014129901
56	0x3bde8405	0.0067906403
57	0xba0b4ddb	-0.00053140306
58	0x3918bdfc	0.00014566624
59	0x38a6db8d	7.956391e-05
60	0x3a1a21cd	0.00058796705
61	0xbd23f9f4	-0.040033296
62	0xb7edca51	-2.8346813e-05
63	0x39bee090	0.00036406936
64	0xbb3a3c92	-0.002841745
65	0x3c715214	0.014729042
66	0x3dcb8649	0.09937722
67	0x3ba646b5	0.005074347
68	0x3e27dbfc	0.16392511
69	0xbe0656a9	-0.13118996
70	0x3950af90	0.00019901828
71	0x39efdd8a	0.00045750692
72	0x3cc3c3e8	0.023897126
73	0xb9df05c9	-0.00042538185
74	0x3c86e1e2	0.016465131
75	0xbd7db19d	-0.061936963
76	0xbbe1c76a	-0.006890227
77	0x3b442bf7	0.0029933432
78	0xbd38157d	-0.044942368
79	0x3b1edc42	0.002424017
80	0xba4b5b15	-0.0007757408
81	0xbd9b74c2	-0.07590629
82	0xbdacc440	-0.08435869
83	0xbc119680	-0.00888598
84	0xbb8de18e	-0.0043298667
85	0x3cabe7bb	0.020984521
86	0x3bbe31e6	0.005804288
87	0xbda9b4a9	-0.08286411
88	0xb9bb6ba6	-0.00035747624
89	0x3b7653fa	0.0037586675
90	0x3c45fb42	0.01208383
91	0x3cfc2548	0.030779496
92	0xbb3e49ad	-0.0029035613
93	0xbe16747e	-0.14692876
94	0x3c3432e5	0.010998462
95	0x3e38e7d2	0.18057182
96	0xbaa62603	-0.0012676123
97	0xbb29765c	-0.0025857901
98	0x3b322388	0.0027181823
99	0xbd35ffef	-0.04443353
100	0xbd835e69	-0.06414492
101	0xbd7d3e74	-0.061827138
102	0x3d97864a	0.073986605
103	0xbc25548d	-0.010090959
104	0xb9a642c7	-0.0003171174
105	0xbd96920d	-0.07352076
106	0xbdac43f2	-0.08411397
107	0x3c59a657	0.013284287
108	0xbc397f70	-0.011321887
109	0xbb8f08dc	-0.00436507
110	0x3d9486b1	0.07252253
111	0x3eccb202	0.3997956
112	0xbb55ecf3	-0.0032642453
113	0xb9bd828c	-0.00036146154
114	0xbadf30e1	-0.0017028117
115	0x3d1e0a44	0.03858401
116	0x3cd87843	0.026424533
117	0xbae43175	-0.0017409759
118	0x3bf29a0f	0.007403619
119	0x3aa2a258	0.0012408001
120	0x3d10da11	0.035364214
121	0x3b4389d5	0.0029836793
122	0xbbc63421	-0.0060486947
123	0xba12e320	-0.0005603302
124	0x3b18a6ca	0.0023292773
125	0x3d6da5b6	0.058019362
126	0xb9d9342e	-0.00041428342
127	0x3b123550	0.0022309609
128	0xbcf9109a	-0.030403424
129	0x3d10bbfb	0.035335522
130	0xbd76281d	-0.06009685
131	0xbbadd681	-0.005305112
132	0xbd6d1871	-0.057884637
133	0x3c69976c	0.014257293
134	0x3ba530c3	0.0050412132
135	0x3c1df7b5	0.0096415775
136	0xbc55afc4	-0.013042394
137	0xbacd0b96	-0.0015643712
138	0x3c357ec0	0.011077583
139	0xbbf51977	-0.0074798423
140	0xbe4b2b0e	-0.19840643
141	0x3bc0b0ad	0.0058804364
142	0x3db4e17b	0.088320695
143	0x3bddc62a	0.0067680078
144	0xbadb4707	-0.0016729542
145	0x3c7a52fb	0.015278573
146	0xbc179f3c	-0.009254273
147	0x3c8924af	0.016741125
148	0xbc182c8b	-0.009287964
149	0x3e5f48d5	0.21805127
150	0x3be55366	0.0069984673
151	0xbddc40e9	-0.10754568
152	0x3be80bf3	0.0070815026
153	0xbbf10a54	-0.0073559675
154	0x3cb4cbc6	0.022069823
155	0x3cfad025	0.03061683
156	0x3c9c60cc	0.019089125
157	0xbc23ba9f	-0.009993224
158	0x3cac5418	0.021036193
159	0x3d52b2c3	0.05144001
160	0xbb83d4ae	-0.004023156
161	0x3d82a4fb	0.06379124
162	0xbc8d3d72	-0.017241213
163	0xbe219f32	-0.15783384
164	0x3ca71d68	0.020399764
165	0xbcf4ab9d	-0.029866988
166	0xbc82e0bc	-0.015976302
167	0xbbf6c2f3	-0.007530564
168	0xba143e08	-0.00056549953
169	0xbdc605fb	-0.096691094
170	0xbb3f945f	-0.0029232723
171	0x3b9f36f1	0.0048588444
172	0xbd57cc93	-0.05268533
173	0x3c96a76b	0.018390378
174	0x3df4de9e	0.11956523
175	0xbe3a3144	-0.18182856
176	0x3c43d25d	0.01195201
177	0xbbc5ac7a	-0.0060325237
178	0x3c118c67	0.008883572
179	0x3dc3eecb	0.095670305
180	0xbb89e6f8	-0.004208442
181	0x393a2766	0.0001775302
182	0x3c02badc	0.007979121
183	0xbbbdf56f	-0.00579708
184	0x3e3a2acb	0.18180387
185	0xbc4b11f6	-0.012394419
186	0xbbe5089e	-0.0069895526
187	0xba51d449	-0.000800435
188	0x3aa48eb5	0.0012554737
189	0x3d9c5056	0.0763251
190	0xb9f57793	-0.0004681913
191	0x3b51897c	0.0031972816
192	0xb91700f5	-0.00014400839
193	0xbc338411	-0.01095678
194	0xbb905622	-0.004404799
195	0x383a2a0e	4.4385022e-05
196	0x3b4797f3	0.003045556
197	0x38b3d809	8.575625e-05
198	0xb6b05892	-5.2555197e-06
199	0xb90128f5	-0.00012317656
200	0xb9751b5d	-0.00023375214
201	0x372d6e05	1.03372195e-05
202	0xb8ae9f25	-8.3266095e-05
203	0x39243ea1	0.0001566359
204	0x3956fafb	0.00020502128
205	0x380d12be	3.3634475e-05
206	0x397dc742	0.0002420219
207	0xb933bf32	-0.00017141996
208	0x38ebae6f	0.00011238164
209	0xbb243791	-0.0025057534
210	0xbb24d237	-0.0025149712
211	0xb80934b1	-3.2712418e-05
212	0x37fb6c48	2.9971954e-05
213	0x3a0bd5a8	0.00053342665
214	0x392c4e9f	0.00016432487
215	0xb7b1257d	-2.1117501e-05
216	0xb88d8f67	-6.750115e-05
217	0x391a1e64	0.00014697906
218	0xb955b275	-0.00020379743
219	0xb8742903	-5.821233e-05
220	0xb75f9c04	-1.3328161e-05
221	0xb9daa866	-0.00041705667
222	0xb926506d	-0.00015860955
223	0x3b42dcca	0.0029733651
224	0x38ab01b7	8.154235e-05
225	0xb9ca92b0	-0.00038637733
226	0x379b22ab	1.8493583e-05
227	0x3ba59ec9	0.005054329
228	0xba1c6c8a	-0.00059671013
229	0x3a273ec2	0.0006379896
230	0x3ac8bb53	0.0015314616
231	0x3830da55	4.2165007e-05
232	0xb7191ef9	-9.126722e-06
233	0xba222a11	-0.0006186078
234	0x3a1a6b35	0.0005890609
235	0xb9018102	-0.00012350458
236	0xb88d8550	-6.748235e-05
237	0xb7bc3c4d	-2.2439426e-05
238	0x3b9fc920	0.004876271
239	0xbb4aede6	-0.0030964552
240	0xb90d512c	-0.00013477047
241	0x38697b02	5.566609e-05
242	0xb8dc98e7	-0.00010518898
243	0xbacadc1c	-0.0015476975
244	0xb88f0c58	-6.8210706e-05
245	0x383f9a3c	4.568159e-05
246	0xb8d49849	-0.00010137313
247	0x38b8316c	8.783009e-05
248	0x3a990e7a	0.0011677288
249	0x38feb74c	0.000121458055
250	0xb8ba0083	-8.8692665e-05
251	0x39182725	0.00014510432
252	0xb9064e1a	-0.00012808331
253	0x3c249e0c	0.010047447
254	0xb852cb7e	-5.025742e-05
255	0xb8c20461	-9.2514565e-05

rnn.bias_ih_l0 f4 [256]
0	0x3e26f43a	0.16304103
1	0x3ed5eb29	0.41780975
2	0x3ea5a67f	0.3235359
3	0xbd844802	-0.06459047
4	0xbf0dbe5e	-0.553686
5	0xbe58b1ce	-0.21161577
6	0xbd788bc5	-0.06068017
7	0xbdcc37e1	-0.099715956
8	0x3ca2767b	0.019831887
9	0xbdc65495	-0.096841015
10	0xbe011ae4	-0.12607914
11	0x3ee58e20	0.44834995
12	0x3d7294e4	0.059224024
13	0xbd401035	-0.046890456
14	0x3e970129	0.29493073
15	0xbdab6566	-0.083689496
16	0xbd9ffb4b	-0.07811602
17	0x3f1ca0bb	0.61182755
18	0x3ec58568	0.38578343
19	0xbc18682b	-0.009302179
20	0xbdbcd79f	-0.09220814
21	0xbdce4d4d	-0.10073338
22	0xbd9a9144	-0.075472385
23	0x3e0c154f	0.13680004
24	0xbdb4a40e	-0.088203534
25	0xbdddffe8	-0.10839826
26	0xbe611ef7	-0.21984468
27	0x3e957f69	0.2919877
28	0xbc18cff4	-0.009326924
29	0xbc0c9371	-0.008580075
30	0xbe6152d6	-0.22004256
31	0x3ede3220	0.43397617
32	0xbbc1bb5f	-0.005912229
33	0xbe5a3fc3	-0.21313386
34	0xbc95a4aa	-0.018266995
35	0x3cfb0e97	0.030646605
36	0x3e7f24f3	0.24916439
37	0x3d6ef722	0.058341153
38	0x3e35dbc0	0.17759609
39	0xbe0498ad	-0.12948866
40	0xbde2fe19	-0.110836215
41	0x3db55bfe	0.08855437
42	0x3dff89c3	0.12477448
43	0xbdc1bca3	-0.09459808
44	0xbe66e6bc	-0.22548956
45	0xbd4b5aa3	-0.049646985
46	0x3f3f7b29	0.747973
47	0x3e10ae7c	0.1412906
48	0xbdd54c5d	-0.10414956
49	0xbd85727d	-0.065159775
50	0xbdc3d857	-0.09562748
51	0x3e65d298	0.22443616
52	0x3e7296f6	0.236904
53	0xbdd23f2e	-0.10265957
54	0xbd1146df	-0.03546798
55	0xbdd2249b	-0.10260888
56	0x3f21d168	0.63210154
57	0xbdd07993	-0.101794384
58	0xbdeb4f24	-0.11489704
59	0xbdd520ad	-0.10406623
60	0xbdcfe7b0	-0.10151613
61	0x3e8cb3f3	0.2748104
62	0xbdb85acf	-0.09001695
63	0xbdb26adb	-0.08711787
64	0xbddba695	-0.107251324
65	0x3c8d1567	0.01722212
66	0xbdea5a48	-0.11443001
67	0xbd9d04d1	-0.07666934
68	0xbe604198	-0.21900022
69	0xbd986984	-0.074420005
70	0xbdafdde7	-0.085872464
71	0xbd92f140	-0.07174921
72	0xbe481451	-0.19539
73	0xbd997383	-0.07492735
74	0xbd7ff366	-0.062487982
75	0xbddd2300	-0.10797691
76	0xbdfd6ec7	-0.12374645
77	0xbdaffc50	-0.08593047
78	0xbd584c16	-0.052806936
79	0xbd9d21a7	-0.07672434
80	0xbd655a1d	-0.05599414
81	0xbda1e3fa	-0.07904811
82	0xbd769602	-0.060201652
83	0xbddc0643	-0.10743382
84	0xbd9867f9	-0.07441706
85	0xbe4bbe2f	-0.19896768
86	0xbd9d3e9a	-0.07677956
87	0xbdeb8c7c	-0.11501405
88	0xbd920748	-0.07130295
89	0xbdb08cca	-0.086206034
90	0xbd9efa60	-0.07762599
91	0xbdb20be2	-0.08693673
92	0xbd8b96ca	-0.0681587
93	0x3c29bcd3	0.010359961
94	0xbdb62f24	-0.0889571
95	0x3d7074ac	0.058705017
96	0xbdb9d881	-0.09074498
97	0xbdc6afa7	-0.09701472
98	0xbd9d73cf	-0.07688104
99	0x3d7ed0c5	0.062210817
100	0xbd2cef8f	-0.04222065
101	0x3e0b35ef	0.13594793
102	0xbe141015	-0.1445926
103	0xbd885799	-0.06657333
104	0xbdd4c011	-0.10388196
105	0x3e64f40f	0.22358726
106	0xbd9557e5	-0.07292155
107	0xbd99dbbd	-0.07512615
108	0xbd82b040	-0.06381273
109	0xbd944e37	-0.07241481
110	0xbe3d532d	-0.1848876
111	0x3c3d496a	0.011553148
112	0xbdb2fce3	-0.087396406
113	0xbd8daa85	-0.0691729
114	0xbdad09f0	-0.08449161
115	0x3c5f57ef	0.013631805
116	0xbdf6d418	-0.120521724
117	0xbda3d528	-0.07999641
118	0xbda76320	-0.081732035
119	0xbdabc683	-0.083874725
120	0xbde1525b	-0.11002036
121	0xbd9b5ecd	-0.07586441
122	0xbd8b7f44	-0.06811383
123	0xbdb58a61	-0.08864284
124	0xbdb158c5	-0.086595096
125	0xbe694395	-0.22779687
126	0xbd8d600f	-0.06903087
127	0xbd8192d8	-0.06326836
128	0x3d1e209c	0.038605317
129	0x3e04c4f9	0.12965764
130	0xbde9b31e	-0.11411117
131	0x3d1e1f2b	0.038603943
132	0xbdc016d3	-0.093793534
133	0x398beca3	0.00026688454
134	0xb9f87af7	-0.00047393862
135	0xbd897a02	-0.06712724
136	0x3dca0b3a	0.098654225
137	0xbba3a59f	-0.004994109
138	0xbdb47f27	-0.08813315
139	0xbdd54a1f	-0.10414528
140	0xbcbdb5e6	-0.023158025
141	0x3dd4dc90	0.103936315
142	0x3e064a0d	0.13114186
143	0xbcd700f8	-0.02624558
144	0x3ccf31e0	0.025292337
145	0x3e588dc3	0.21147828
146	0xbdb4e310	-0.08832371
147	0xbd807014	-0.06271377
148	0xbb9e055e	-0.004822417
149	0xbce9c538	-0.028536424
150	0x3c12440f	0.008927359
151	0x3da5ae06	0.08089833
152	0xbcbc8017	-0.023010297
153	0xbcc227d6	-0.023700636
154	0xbdc100ce	-0.094239816
155	0xbcf9493b	-0.030430427
156	0xbcb1f9ae	-0.021725502
157	0x3d11dc12	0.035610266
158	0xbd4222a2	-0.04739631
159	0x3c71ef85	0.014766579
160	0x3cbde700	0.023181438
161	0xbcb4b432	-0.02205858
162	0xbd017fb6	-0.031615935
163	0x3b00da3d	0.001966133
164	0xbc949f05	-0.018142233
165	0xbd4277cd	-0.047477532
166	0x3ccc7c0b	0.024961492
167	0x3d2d4e14	0.04231079
168	0x3cb3d9e9	0.021954494
169	0xbb6dcd11	-0.003628556
170	0x3d96d186	0.07364182
171	0x3d010857	0.031502094
172	0xbd474f5d	-0.04865967
173	0x3d05aa41	0.03263307
174	0xbe69fad6	-0.22849593
175	0x3baa42a8	0.0051959343
176	0xbcc60807	-0.02417375
177	0xbcb72213	-0.022355115
178	0xbd1d42f2	-0.038393922
179	0x3d304b1d	0.043040384
180	0xbd5422d3	-0.051791023
181	0xbda0225c	-0.078190535
182	0x3d4e9d6f	0.05044311
183	0x3b969960	0.0045959204
184	0xbddaff7c	-0.10693261
185	0xbcff70ac	-0.031181656
186	0x3b8baac8	0.004262302
187	0xba69620c	-0.0008902855
188	0xbcdb0257	-0.026734514
189	0xbd966fe6	-0.07345562
190	0x3d094c6d	0.03352015
191	0xbd4357fe	-0.047691338
192	0x3e25fdab	0.16210048
193	0x3ecbadeb	0.39781126
194	0x3e3bc53e	0.1833696
195	0xbd8423e9	-0.06452162
196	0xbeea4a80	-0.45759964
197	0xbe9b97a7	-0.3038914
198	0xbd786993	-0.06064756
199	0xbdcc491e	-0.099748835
200	0x3c4d8096	0.012542864
201	0xbdc66274	-0.09686747
202	0xbe00d2d6	-0.12580428
203	0x3ed6c341	0.41945842
204	0xbd9e521c	-0.07730505
205	0xbd402d77	-0.04691836
206	0x3ead48a0	0.3384447
207	0xbdab497a	-0.08363624
208	0xbda00bf3	-0.07814779
209	0x3ea7bb82	0.32760245
210	0x3ee3e0a8	0.44507337
211	0xbc185750	-0.009298161
212	0xbdbcc1bc	-0.092166394
213	0xbdbb27a6	-0.09138422
214	0xbd9a60e0	-0.07538009
215	0x3d69ea82	0.05710841
216	0xbdb491c4	-0.08816865
217	0xbdde018e	-0.1084014
218	0xbe652e61	-0.22380973
219	0x3e941645	0.2892324
220	0xbc19aa2e	-0.009378953
221	0xbab8a52b	-0.001408731
222	0xbe55e02f	-0.208863
223	0x3ee408ed	0.4453806
224	0xbbc33ca9	-0.005958159
225	0xbe27b7f8	-0.16378772
226	0xbc95a3cd	-0.018266583
227	0x3c0fcf12	0.008777397
228	0x3e6e5320	0.23273897
229	0x3d744093	0.059631895
230	0x3e3ad88d	0.1824667
231	0xbe03e5bc	-0.12880605
232	0xbde2f53f	-0.11081933
233	0x3da43a45	0.080189265
234	0x3e17dbe4	0.14829975
235	0xbe6fd133	-0.23419647
236	0xbe6654f0	-0.22493339
237	0xbd4b086c	-0.04956858
238	0x3f4e3309	0.80546623
239	0x3dae26fc	0.085035294
240	0xbdd548dc	-0.104142874
241	0xbd85463f	-0.06507539
242	0xbdc3d46c	-0.09562001
243	0x3e2280d6	0.1586946
244	0x3e71992e	0.2359359
245	0xbdd24c7b	-0.10268494
246	0xbd12040f	-0.0356484
247	0xbdd22d9f	-0.10262608
248	0x3f24caef	0.6437215
249	0xbdd07012	-0.10177626
250	0xbdeb11ac	-0.1147798
251	0xbdd52558	-0.104075134
252	0xbdcffc21	-0.10155512
253	0x3e287845	0.16452129
254	0xbdb863ea	-0.09003432
255	0xbdb28475	-0.087166704

rnn.bias_hh_l0 f4 [256]
0	0x3e26f43a	0.16304103
1	0x3ea8dc92	0.32980782
2	0x3e228f6d	0.15875025
3	0xbd844802	-0.06459047
4	0xbee88151	-0.4541116
5	0xbe5b97e9	-0.21444668
6	0xbd788bc5	-0.06068017
7	0xbdcc37e1	-0.099715956
8	0x3c5f918e	0.013645543
9	0xbdc65495	-0.096841015
10	0xbe01074c	-0.1260044
11	0x3ee57b28	0.44820523
12	0xbd93e4b6	-0.072213575
13	0xbd401035	-0.046890456
14	0x3ea71db6	0.32639855
15	0xbdab6566	-0.083689496
16	0xbd9ffb4b	-0.07811602
17	0x3f0f12a1	0.558878
18	0x3e9cc790	0.30621004
19	0xbc18682b	-0.009302179
20	0xbdbcd79f	-0.09220814
21	0xbe203f92	-0.1564925
22	0xbd9a9144	-0.075472385
23	0x3d389d23	0.045071732
24	0xbdb4a40e	-0.088203534
25	0xbdddffe8	-0.10839826
26	0xbe67406d	-0.2258317
27	0x3e957f69	0.2919877
28	0xbc18cff4	-0.009326924
29	0x3cb7a76d	0.022418702
30	0xbe634939	-0.22195901
31	0x3ed7fd7e	0.42185587
32	0xbbc1bd6b	-0.005912473
33	0xbe6b1f3e	-0.22961137
34	0xbc95a4aa	-0.018266995
35	0x3e0bb4fb	0.13643257
36	0x3e7f24dd	0.24916406
37	0x3d278853	0.040901493
38	0x3e49c78c	0.19705027
39	0xbe0498b2	-0.12948874
40	0xbde2fe19	-0.110836215
41	0x3c035852	0.008016663
42	0x3e6f2035	0.2335213
43	0xbc951ddd	-0.018202716
44	0xbe6895ff	-0.22713469
45	0xbd4b5aa3	-0.049646985
46	0x3f2670e8	0.6501603
47	0x3de79825	0.11308316
48	0xbdd54c5d	-0.10414956
49	0xbd85727d	-0.065159775
50	0xbdc3d857	-0.09562748
51	0x3e196166	0.14978561
52	0x3e7296f6	0.236904
53	0xbdd23f2e	-0.10265957
54	0xbd10ea0b	-0.03537945
55	0xbdd2249b	-0.10260888
56	0x3f217b51	0.6307879
57	0xbdd07993	-0.101794384
58	0xbdeb4ed9	-0.11489648
59	0xbdd520ad	-0.10406623
60	0xbdcfe7b0	-0.10151613
61	0x3e94c449	0.29056004
62	0xbdb85acf	-0.09001695
63	0xbdb26adb	-0.08711787
64	0xbddba695	-0.107251324
65	0x3e3f7dca	0.18700328
66	0x3df4d726	0.11955099
67	0xbd9d04d1	-0.07666934
68	0xbead1f08	-0.33812737
69	0xbd721dbd	-0.059110392
70	0xbdafdde7	-0.085872464
71	0xbd92f140	-0.07174921
72	0xbe48087d	-0.19534488
73	0xbd997383	-0.07492735
74	0xbd7ff368	-0.06248799
75	0xbddcfca0	-0.10790372
76	0xbcaabb35	-0.02084122
77	0xbdaffc50	-0.08593047
78	0xbb39e71c	-0.0028366512
79	0xbd9d21a7	-0.07672434
80	0xbd655a1d	-0.05599414
81	0xbdaa4c01	-0.08315278
82	0xbdb83d32	-0.08996047
83	0xbddc0643	-0.10743382
84	0xbd9867f9	-0.07441706
85	0xbe63a1ab	-0.2222964
86	0xbd9d3e9a	-0.07677956
87	0xbe5b98d9	-0.21445026
88	0xbd920748	-0.07130295
89	0xbdb08cca	-0.086206034
90	0xbd9f2df1	-0.077724345
91	0xbdb20be2	-0.08693673
92	0xbd8b96ca	-0.0681587
93	0xbc1439e7	-0.009047008
94	0xbdb62f27	-0.08895712
95	0x3ba489e4	0.0050213207
96	0xbdb9d881	-0.09074498
97	0xbdb0e954	-0.08638254
98	0xbd9d73cf	-0.07688104
99	0x3d9d8f7b	0.07693382
100	0xbd2cef5a	-0.04222045
101	0x3e0b5343	0.1360598
102	0xbe0b7af2	-0.13621119
103	0xbd885799	-0.06657333
104	0xbdd4c011	-0.10388196
105	0x3e54bb67	0.20774613
106	0xbda728e5	-0.08162097
107	0x3d21a040	0.039459467
108	0xbd834c0d	-0.0641099
109	0xbd944e37	-0.07241481
110	0xbe750936	-0.23929295
111	0x3d7c461d	0.061590303
112	0xbdb2fce3	-0.087396406
113	0xbd8daa85	-0.0691729
114	0xbdad09f0	-0.08449161
115	0xbe01693e	-0.12637803
116	0xbdf6d418	-0.120521724
117	0xbda3d528	-0.07999641
118	0xbda76321	-0.08173204
119	0xbdabc683	-0.083874725
120	0xbde1b444	-0.11020711
121	0xbd9b5ecd	-0.07586441
122	0xbd8b7f44	-0.06811383
123	0xbdb58a61	-0.08864284
124	0xbdb158c5	-0.086595096
125	0xbe3560c1	-0.1771269
126	0xbd8d600f	-0.06903087
127	0xbd8192d8	-0.06326836
128	0xbda0633b	-0.07831427
129	0xbdb8ae11	-0.090175755
130	0x3d97c038	0.0740971
131	0xbd54cd4b	-0.051953595
132	0xbe2798d2	-0.1636689
133	0x3d1fe570	0.039037168
134	0x3c2a7db4	0.0104059465
135	0x3db1f4b7	0.08689254
136	0xbd8b68fe	-0.06807135
137	0x3b569b14	0.0032746242
138	0x3d39e646	0.04538562
139	0x3d6afbba	0.05736897
140	0x3cf71769	0.03016253
141	0xbdb8e8d0	-0.090287805
142	0xbc3cee03	-0.011531356
143	0x3d29ba90	0.041437685
144	0xbcf757bd	-0.030193204
145	0x3e244a01	0.16043855
146	0xbba9d9d0	-0.005183436
147	0x3d827ec1	0.06371833
148	0x3a365544	0.00069554546
149	0xbda4924b	-0.08035716
150	0xbd1366a2	-0.03598655
151	0xbdb947d9	-0.09046907
152	0x3d0f683b	0.03501151
153	0x3c0aff5d	0.008483735
154	0x3d1b15b2	0.037862487
155	0x3d8c4124	0.06848362
156	0x3d3bff97	0.045898046
157	0x3d8f3f3f	0.06994485
158	0x3c582f1e	0.013194827
159	0xbe5c5b3d	-0.2151918
160	0xbcf30758	-0.029666588
161	0x3cc807ac	0.02441772
162	0x3c8ee3b1	0.017442556
163	0xbe053767	-0.13009416
164	0x3c8ca83e	0.017170068
165	0x3c8c5c7a	0.01713394
166	0xbd45b0f1	-0.048264448
167	0xbc0c7d65	-0.008574818
168	0xbcba9514	-0.022776164
169	0x3e299d54	0.16563922
170	0xbd949811	-0.07255567
171	0xbd9cb2f5	-0.07651321
172	0x3dd0b965	0.10191611
173	0x3c320c94	0.010867257
174	0xbd07cbb9	-0.03315327
175	0x393b81a5	0.00017882006
176	0x3d763837	0.060112204
177	0x3bd60b47	0.006532106
178	0x3d6bdf72	0.05758614
179	0x3deb8ade	0.11501096
180	0x3d34d398	0.044147104
181	0x3dae0da9	0.08498699
182	0xbd1e1abe	-0.038599722
183	0xbc8c5c2f	-0.0171338
184	0x3bb10e64	0.005403327
185	0xbc63ec9f	-0.013911395
186	0x3d20662d	0.039159942
187	0xbb3c1df9	-0.0028704389
188	0x3ca6b099	0.02034788
189	0x3c5c3a37	0.013441614
190	0xbd242368	-0.04007283
191	0x3d59805a	0.05310092
192	0x3e25fdab	0.16210048
193	0x3e6de61c	0.23232311
194	0x3e608666	0.21926269
195	0xbd8423e9	-0.06452162
196	0xbf0150d2	-0.50513947
197	0xbe817304	-0.25283062
198	0xbd786993	-0.06064756
199	0xbdcc491e	-0.099748835
200	0x3c7115a8	0.014714636
201	0xbdc66274	-0.09686747
202	0xbe00cb9d	-0.12577672
203	0x3ed6c695	0.4194838
204	0xbddaed93	-0.10689845
205	0xbd402d77	-0.04691836
206	0x3e84ffe7	0.25976488
207	0xbdab497a	-0.08363624
208	0xbda00bf3	-0.07814779
209	0x3ed010e7	0.40637895
210	0x3ee90d0d	0.4551777
211	0xbc185750	-0.009298161
212	0xbdbcc1bc	-0.092166394
213	0xbdc92b53	-0.098227166
214	0xbd9a60e0	-0.07538009
215	0x3c9430bc	0.018089645
216	0xbdb491c4	-0.08816865
217	0xbdde018e	-0.1084014
218	0xbe5e0ff3	-0.21685772
219	0x3e941645	0.2892324
220	0xbc19aa2e	-0.009378953
221	0x3d19235f	0.037387248
222	0xbe5629ca	-0.20914379
223	0x3f00fb1f	0.5038318
224	0xbbc33e27	-0.005958337
225	0xbe33ec82	-0.1757069
226	0xbc95a3cd	-0.018266583
227	0x3d2031f4	0.03911014
228	0x3e6e530c	0.23273867
229	0x3d8d07e4	0.06886271
230	0x3e33ada5	0.17546709
231	0xbe03e5bc	-0.12880605
232	0xbde2f53f	-0.11081933
233	0x3d7cbd0e	0.061703734
234	0x3dd0d05e	0.10195993
235	0xbe13f636	-0.14449391
236	0xbe49a6f7	-0.19692598
237	0xbd4b086c	-0.04956858
238	0x3f47683a	0.7789341
239	0x3d59300b	0.053024333
240	0xbdd548dc	-0.104142874
241	0xbd85463f	-0.06507539
242	0xbdc3d46c	-0.09562001
243	0x3ea97c87	0.3310282
244	0x3e71992e	0.2359359
245	0xbdd24c7b	-0.10268494
246	0xbd11c6cf	-0.03558999
247	0xbdd22d9f	-0.10262608
248	0x3f249c4f	0.6430101
249	0xbdd07012	-0.10177626
250	0xbdeb1198	-0.11477965
251	0xbdd52558	-0.104075134
252	0xbdcffc21	-0.10155512
253	0x3e307ffa	0.17236319
254	0xbdb863ea	-0.09003432
255	0xbdb28475	-0.087166704

rnn.weight_ih_l1 f4 [256, 64]
0	0x376618ad	1.3714814e-05
1	0xbc9b33d5	-0.018945614
2	0xbc4bcfdf	-0.012439697
3	0x3744be7e	1.1726863e-05
4	0xb8eb3764	-0.000112159905
5	0x38003de5	3.0575222e-05
6	0xb6d51e71	-6.3514385e-06
7	0x3620cb4f	2.39602e-06
8	0x38138558	3.5171717e-05
9	0x35cac5b1	1.5107709e-06
10	0x37c269cc	2.3175868e-05
11	0x3933f96a	0.00017163684
12	0xb8921c42	-6.967086e-05
13	0x3720504a	9.555437e-06
14	0x3bac0cba	0.0052505406
15	0xb73db464	-1.1307278e-05
16	0x37793af0	1.4855279e-05
17	0x3b2bc7c8	0.0026211608
18	0xbc224c69	-0.009905913
19	0xb8455397	-4.704631e-05
20	0x373009ad	1.049267e-05
21	0x39a2d279	0.00031055862
22	0x37a85a97	2.0069345e-05
23	0xb980af94	-0.00024544878
24	0x350788e9	5.049065e-07
25	0xb49307cd	-2.738656e-07
26	0x37b0bb56	2.106807e-05
27	0xb881d22c	-6.190347e-05
28	0xb79f3c08	-1.8982231e-05
29	0x37b4e452	2.1563992e-05
30	0x3729522c	1.0092317e-05
31	0x39281b38	0.00016031868
32	0xb8342842	-4.2952837e-05
33	0x36b8f169	5.511731e-06
34	0x37365ab4	1.0869164e-05
35	0xb9daee96	-0.0004175796
36	0x384e74dd	4.9223065e-05
37	0xb8e44cfd	-0.000108862274
38	0x393457fd	0.00017198916
39	0xb767c3dc	-1.3814275e-05
40	0x37990d0d	1.8245099e-05
41	0xb9785a04	-0.00023684656
42	0x3745cd40	1.17899035e-05
43	0xb90ba91b	-0.0001331907
44	0xb781ab91	-1.545789e-05
45	0xb7907c63	-1.722406e-05
46	0xb8ed46cf	-0.0001131423
47	0x3b5d60fb	0.0033779729
48	0xb553725b	-7.8770034e-07
49	0x37290437	1.0074166e-05
50	0xb78c385c	-1.6715545e-05
51	0x380b0ab7	3.315016e-05
52	0xb8d00fac	-9.921132e-05
53	0x37775f4e	1.4744537e-05
54	0x38409b81	4.592119e-05
55	0x36a46f23	4.900519e-06
56	0x38743057	5.8219153e-05
57	0x364f9c5c	3.0936417e-06
58	0xb79109cb	-1.7289907e-05
59	0xb6ae7cc7	-5.20013e-06
60	0xb7a6b8f8	-1.9874875e-05
61	0x3c955c6a	0.018232543
62	0x36a0bd41	4.7904036e-06
63	0xb71250fa	-8.721132e-06
64	0x3828ae9a	4.021693e-05
65	0xbcd5d166	-0.026100826
66	0xbc36c1f0	-0.011154637
67	0xb5ebfd83	-1.7582646e-06
68	0x39249140	0.00015694369
69	0x38969418	7.180142e-05
70	0x370e5d5a	8.485595e-06
71	0xb6a0835c	-4.783664e-06
72	0xb78c6e9b	-1.6740805e-05
73	0x363a2ed9	2.7743429e-06
74	0xb793f6b9	-1.7638655e-05
75	0x3872cdff	5.7889145e-05
76	0x38041856	3.1493917e-05
77	0xb7672d5e	-1.3779236e-05
78	0x3b335d27	0.0027368756
79	0xb68c5b12	-4.182927e-06
80	0xb58d1313	-1.051087e-06
81	0x3a226b88	0.0006195833
82	0xbbeef1dc	-0.0072920155
83	0xb7588b7f	-1.2907082e-05
84	0xb60f7c6c	-2.1381084e-06
85	0x391e6881	0.00015106985
86	0x3727f33a	1.0010606e-05
87	0x37d248d9	2.5067873e-05
88	0xb65efd01	-3.3227846e-06
89	0x368f669a	4.2736765e-06
90	0xb7f9f8a4	-2.9798895e-05
91	0xb85f4d78	-5.323949e-05
92	0xb789ab63	-1.641148e-05
93	0x3705aba6	7.967383e-06
94	0xb7f0fdf4	-2.8728486e-05
95	0x3882c147	6.234884e-05
96	0x381102e2	3.457338e-05
97	0xb82cf9c6	-4.1240615e-05
98	0x3789dea1	1.6435342e-05
99	0xb9a7683e	-0.0003193039
100	0x38c73cde	9.500397e-05
101	0x37d5c829	2.5484786e-05
102	0x37f3cffc	2.9064708e-05
103	0x3831ff1f	4.243769e-05
104	0x375777d7	1.2842901e-05
105	0xb8f94b40	-0.00011887262
106	0xb7b0c42d	-2.1072186e-05
107	0xb8ff3902	-0.00012169966
108	0x36c72ec6	5.9361073e-06
109	0xb7f0cbf7	-2.8705208e-05
110	0x388935de	6.5427026e-05
111	0x3a86682c	0.0010254434
112	0xb74cc449	-1.2205049e-05
113	0xb5977acc	-1.1286115e-06
114	0xb686d835	-4.018681e-06
115	0xb86bd163	-5.6223373e-05
116	0x38a77532	7.98501e-05
117	0x371e0cf8	9.420553e-06
118	0xb7eff864	-2.8606686e-05
119	0xb6cce3f6	-6.106212e-06
120	0x39352b9f	0.00017277755
121	0x37e172fa	2.687563e-05
122	0x378314a0	1.5626021e-05
123	0x36b584f7	5.4096995e-06
124	0x34037339	1.2242243e-07
125	0x3cb2fcb5	0.021849016
126	0xb4a498cc	-3.0658555e-07
127	0x366a8c20	3.495028e-06
128	0x3704b1f9	7.909251e-06
129	0xbc039d15	-0.008033057
130	0xbb2efec2	-0.002670214
131	0x3650be9b	3.1105362e-06
132	0x3856ed1e	5.124241e-05
133	0xb8861043	-6.392647e-05
134	0xb5134a1c	-5.486961e-07
135	0x3601f906	1.9367449e-06
136	0xb56d0af5	-8.8305325e-07
137	0xb5067301	-5.008624e-07
138	0x3599e7b2	1.146682e-06
139	0x389f1d15	7.587128e-05
140	0xb7ea3857	-2.7921209e-05
141	0x35cf6b88	1.5453998e-06
142	0x3a05fe53	0.00051114446
143	0xb604652a	-1.9728418e-06
144	0x35b3aa6c	1.3386139e-06
145	0x389b89c9	7.4166404e-05
146	0xbacc6906	-0.0015595264
147	0xb691ec71	-4.348862e-06
148	0x36402cee	2.8636382e-06
149	0xb79492ed	-1.7711393e-05
150	0x36c810c1	5.962415e-06
151	0xb8f14c37	-0.000115059716
152	0x32c27ab0	2.2640364e-08
153	0xb5f4c236	-1.823594e-06
154	0x361034aa	2.1488327e-06
155	0xb7015ef4	-7.711107e-06
156	0xb4d6eb47	-4.0031793e-07
157	0xb81f2709	-3.794491e-05
158	0x36941350	4.412992e-06
159	0xb63a7e00	-2.7789501e-06
160	0xb6b0ab75	-5.265169e-06
161	0x35c811c8	1.4906336e-06
162	0x35b54753	1.3506309e-06
163	0xb8bf0634	-9.108745e-05
164	0x3868f9a8	5.554562e-05
165	0x35bef826	1.4228324e-06
166	0x38e2dc7f	0.000108175904
167	0xb6d9988b	-6.4848623e-06
168	0x3633d1cf	2.6795203e-06
169	0xb848e880	-4.790025e-05
170	0x38654fd7	5.467221e-05
171	0xb8e02ab7	-0.000106891086
172	0xb5605259	-8.3566334e-07
173	0x364450ae	2.9253238e-06
174	0xb821fb3c	-3.861937e-05
175	0x3825638a	3.943177e-05
176	0x3572e741	9.0488544e-07
177	0x3609b22a	2.0518296e-06
178	0xb604732c	-1.9736572e-06
179	0x3874cd5d	5.8365393e-05
180	0x35804220	9.555988e-07
181	0x3637f288	2.7410297e-06
182	0x370ca7e0	8.383737e-06
183	0x35f1f801	1.8028078e-06
184	0xb69d7c9b	-4.6934706e-06
185	0xb690081d	-4.292479e-06
186	0xb61c7463	-2.3313557e-06
187	0xb5edaace	-1.7707587e-06
188	0xb6a29e34	-4.8463935e-06
189	0x3be5856c	0.0070044305
190	0xb5c4a894	-1.4652201e-06
191	0xb5d92ac7	-1.618021e-06
192	0x37ab93e5	2.0453657e-05
193	0xbc284e16	-0.010272523
194	0xbb8a5c99	-0.0042224643
195	0xb83ee70e	-4.5514716e-05
196	0x3946be04	0.00018953538
197	0xb947ebba	-0.00019065934
198	0x373db755	1.1307963e-05
199	0x379f6b9f	1.9004392e-05
200	0xb8bed855	-9.100201e-05
201	0xb3baa629	-8.691524e-08
202	0xb8b25ce9	-8.505007e-05
203	0xb9b786d2	-0.0003500493
204	0xb806813b	-3.2068445e-05
205	0xb7265772	-9.914731e-06
206	0x3a503226	0.0007942043
207	0xb5698228	-8.6988666e-07
208	0x35afc969	1.3097134e-06
209	0x398eecb6	0.00027260714
210	0xbb1c7367	-0.0023872496
211	0x37fd2d51	3.0181052e-05
212	0x36decda3	6.640055e-06
213	0x38c7095f	9.490805e-05
214	0xb7f050fb	-2.8647939e-05
215	0xb88e88e9	-6.796589e-05
216	0x3774d3e9	1.45928725e-05
217	0xb774b14d	-1.4584814e-05
218	0xb8ebaed2	-0.00011238236
219	0xb76afd9a	-1.4006533e-05
220	0x36507a2c	3.1065529e-06
221	0xb84ea7bf	-4.9270453e-05
222	0xb8f9c729	-0.00011910342
223	0x39a4bb6b	0.00031420155
224	0x36957fea	4.455437e-06
225	0xb91328be	-0.0001403419
226	0x3788510b	1.6250202e-05
227	0x399b8018	0.0002965934
228	0xb98b786a	-0.00026601861
229	0x3900434a	0.00012232098
230	0x37948532	1.7704999e-05
231	0x3906a792	0.0001284166
232	0x38011cdc	3.0782874e-05
233	0xb9271dba	-0.00015937435
234	0x389c5679	7.4547665e-05
235	0xb8d0fd60	-9.965408e-05
236	0x38cf4318	9.883026e-05
237	0x3837ec12	4.3850458e-05
238	0x39930b4d	0.00028046445
239	0x379608a2	1.7885413e-05
240	0x37e74bdf	2.7572676e-05
241	0xb7ebeb95	-2.8123884e-05
242	0x37b785bc	2.1877575e-05
243	0xb8bc3b14	-8.975543e-05
244	0x37a200c1	1.9312256e-05
245	0x37847c18	1.5793412e-05
246	0xb88365e8	-6.265548e-05
247	0xb6ee0a8a	-7.0941796e-06
248	0xb9ded971	-0.00042505146
249	0xb8220cfa	-3.8635895e-05
250	0x38bf6fd5	9.12842e-05
251	0xb69cdd83	-4.6749497e-06
252	0xb7a9e951	-2.0255016e-05
253	0x3c0f3910	0.008741632
254	0xb68cc4fa	-4.195256e-06
255	0xb5f27382	-1.8064022e-06

rnn.weight_hh_l1 f4 [256, 64]
0	0x3717f8a9	9.058197e-06
1	0x374260fd	1.1585883e-05
2	0xb60ff087	-2.1448666e-06
3	0x362e5938	2.5979953e-06
4	0xba9fb419	-0.0012184411
5	0x3950f410	0.00019927346
6	0x36e647dc	6.8628997e-06
7	0xb6e513ff	-6.8270597e-06
8	0xb76e5d44	-1.4207621e-05
9	0xb7030364	-7.808998e-06
10	0x3a9e6ff0	0.0012087803
11	0xb711d399	-8.69194e-06
12	0x3b73fe07	0.003723027
13	0xbb9a7805	-0.0047140145
14	0xb76558e7	-1.3670163e-05
15	0xb6c37efd	-5.8262362e-06
16	0xbb86fa56	-0.004119198
17	0xb7a722bd	-1.9924128e-05
18	0xb736e09a	-1.09003395e-05
19	0x36193b84	2.283342e-06
20	0x36c77f9d	5.9455183e-06
21	0x386fc9a8	5.7169847e-05
22	0xb723231b	-9.723731e-06
23	0xb58394c0	-9.803553e-07
24	0x3cdbf9d0	0.026852518
25	0xb6629872	-3.376536e-06
26	0xb78cfc4e	-1.6806789e-05
27	0x3c425ebf	0.01186341
28	0xb9185275	-0.00014526567
29	0x3a47389e	0.0007599684
30	0xb70b51cd	-8.304091e-06
31	0x369f3693	4.7449225e-06
32	0xb738bf79	-1.1011835e-05
33	0x36454ff2	2.9401822e-06
34	0x3608d360	2.0388616e-06
35	0x3449e7af	1.880387e-07
36	0xb77a01fb	-1.4901622e-05
37	0xb5cc77b2	-1.523402e-06
38	0xb6acba48	-5.1476854e-06
39	0x36eb2bb3	7.008633e-06
40	0xb62a0040	-2.533212e-06
41	0x37204bd5	9.554399e-06
42	0x3a6c728d	0.0009019755
43	0x36bf80c8	5.7072357e-06
44	0xb9833367	-0.00025024565
45	0x3c0508c6	0.0081197675
46	0x3250c2e2	1.2151505e-08
47	0xb78984f9	-1.6393593e-05
48	0x389406ae	7.058434e-05
49	0xb6868f19	-4.01017e-06
50	0x3bde98b4	0.006793106
51	0xbb891a87	-0.0041840705
52	0xb92bc604	-0.00016381597
53	0xb7293abe	-1.0086862e-05
54	0x36e44137	6.8025215e-06
55	0x3b6f865b	0.0036548588
56	0x37513f8f	1.2472169e-05
57	0xbb8d9322	-0.004320518
58	0xb7196800	-9.143725e-06
59	0xb6e621e5	-6.85848e-06
60	0xb5cbb1f1	-1.5176466e-06
61	0x3902ddff	0.00012480466
62	0xb69c6877	-4.6613236e-06
63	0xb6da830c	-6.512162e-06
64	0xb709abda	-8.205849e-06
65	0x360cc251	2.0974733e-06
66	0xb6cac151	-6.042574e-06
67	0xb6a4c36a	-4.91033e-06
68	0xb85f59e2	-5.3251053e-05
69	0x38da7ea6	0.0001041864
70	0xb64f2708	-3.0868123e-06
71	0xb6d55736	-6.3580474e-06
72	0xb6c62cd0	-5.9060767e-06
73	0xb71041c6	-8.598383e-06
74	0xb744512a	-1.1701408e-05
75	0xb670a201	-3.5857086e-06
76	0x3ae32fdc	0.0017332989
77	0xba8da170	-0.0010805558
78	0x354d8382	7.655982e-07
79	0x35d347fa	1.5741673e-06
80	0xba46eb45	-0.00075881585
81	0xb6886efc	-4.066036e-06
82	0xb6c5307b	-5.8767014e-06
83	0x35c426a8	1.4614388e-06
84	0xb727147d	-9.958746e-06
85	0x3709e361	8.218777e-06
86	0x34812165	2.405242e-07
87	0xb5e9fd39	-1.743355e-06
88	0x3d20a391	0.03921849
89	0xb6b2c5f7	-5.3278595e-06
90	0x35aec981	1.3022656e-06
91	0x3c22c7a6	0.009935295
92	0x371bd6d9	9.288743e-06
93	0xb7872aaa	-1.6113121e-05
94	0x3683ce65	3.9281317e-06
95	0xb59ef996	-1.1844556e-06
96	0xb5418208	-7.2087323e-07
97	0x3634d230	2.6944435e-06
98	0xb8441870	-4.67528e-05
99	0x3654b8f7	3.1698125e-06
100	0xb645f682	-2.9498774e-06
101	0xb78bc88d	-1.666348e-05
102	0x358468db	9.865283e-07
103	0x380ef487	3.4083172e-05
104	0xb538ae85	-6.87993e-07
105	0x363bc54b	2.798001e-06
106	0x37ecf963	2.8249522e-05
107	0xb6c5ceb2	-5.89512e-06
108	0xb848eb34	-4.7902766e-05
109	0x3be2bd97	0.0069195735
110	0x3755b233	1.273728e-05
111	0xb6e9d0db	-6.968255e-06
112	0x3726cac9	9.941586e-06
113	0xb6b4b162	-5.385068e-06
114	0x3b78d3c2	0.0037968014
115	0xbac2c50b	-0.0014859749
116	0xb851bded	-5.0006365e-05
117	0xb69e19a9	-4.711754e-06
118	0x36106501	2.1516464e-06
119	0x3acfbacf	0.001584852
120	0x36bf7ded	5.7069033e-06
121	0xbb0103da	-0.0019686134
122	0x368cebc9	4.199774e-06
123	0xb6cb957d	-6.067274e-06
124	0xb58d8be8	-1.0546037e-06
125	0x3795de89	1.786581e-05
126	0xb66a7774	-3.4938248e-06
127	0x3622ea0c	2.4276114e-06
128	0x35888529	1.0171544e-06
129	0x35b5050b	1.3487019e-06
130	0xb58437b2	-9.850976e-07
131	0xb59dc258	-1.1753973e-06
132	0xb8933e4f	-7.021112e-05
133	0x38cccf50	9.766093e-05
134	0xb5a1bcfc	-1.2050436e-06
135	0xb59919ff	-1.1406954e-06
136	0xb64efa87	-3.0842218e-06
137	0x35bc7e90	1.4043926e-06
138	0x388964c4	6.551438e-05
139	0xb6447fe7	-2.9280725e-06
140	0x397ae5e2	0.00023927496
141	0xb9bd341a	-0.00036087708
142	0xb62c3605	-2.566144e-06
143	0xb5606ec0	-8.3607665e-07
144	0xb98902af	-0.00026132676
145	0xb62c434d	-2.5669171e-06
146	0xb6009b20	-1.916378e-06
147	0x35476fce	7.4295974e-07
148	0x3548b7a1	7.477302e-07
149	0x358f63f0	1.0683416e-06
150	0xb6441db9	-2.9223577e-06
151	0x3595b529	1.115409e-06
152	0x3c8e2947	0.017353667
153	0xb5a83bc2	-1.2534367e-06
154	0xb628de12	-2.5163213e-06
155	0x3b0eab8d	0.0021769733
156	0xb8233b2b	-3.8917333e-05
157	0x386192d4	5.3780925e-05
158	0xb5b47fc6	-1.3448232e-06
159	0x35381fca	6.85916e-07
160	0xb6227681	-2.420886e-06
161	0x35009803	4.790492e-07
162	0xb6b83f8d	-5.4910256e-06
163	0xb49d9b88	-2.9356693e-07
164	0xb5c17e93	-1.4416458e-06
165	0xb68a0d52	-4.114271e-06
166	0xb5acbb0d	-1.2869438e-06
167	0x369203d1	4.3515834e-06
168	0x328fcce6	1.6740568e-08
169	0x354b31bc	7.5695766e-07
170	0x38600028	5.3405907e-05
171	0xb545d5fd	-7.369961e-07
172	0xb8bb4fcb	-8.9317175e-05
173	0x3a8c73fa	0.0010715716
174	0xb51b95d3	-5.796002e-07
175	0xb60e4176	-2.1197752e-06
176	0x37be003e	2.2649878e-05
177	0xb5148e37	-5.5341246e-07
178	0x3a4b62d1	0.000775856
179	0xb9b04e9e	-0.0003362791
180	0xb864d0b1	-5.4553795e-05
181	0x348e0c1f	2.645838e-07
182	0x3593070b	1.0954403e-06
183	0x396970b7	0.00022262601
184	0x35468c69	7.396507e-07
185	0xb9a77b3d	-0.00031944542
186	0xb6054428	-1.9858217e-06
187	0xb604ec16	-1.9806953e-06
188	0xb4bef148	-3.5565813e-07
189	0x3842fa45	4.6486286e-05
190	0x34877033	2.5227345e-07
191	0xb54539a6	-7.347211e-07
192	0x36a9601a	5.04778e-06
193	0xb614e2a3	-2.2185638e-06
194	0xb61467c7	-2.2114125e-06
195	0xb7675c4f	-1.3790165e-05
196	0x35ddca6d	1.6524697e-06
197	0xb8ada626	-8.2802304e-05
198	0xb686b441	-4.0144955e-06
199	0xb6bab745	-5.5645673e-06
200	0xb70760a6	-8.06913e-06
201	0xb7886884	-1.6261132e-05
202	0xb6d2adc1	-6.2787153e-06
203	0xb69a0ec7	-4.591278e-06
204	0x3963e4f4	0.00021733699
205	0xb9ad2dfa	-0.00033031387
206	0xb620a5eb	-2.3938435e-06
207	0xb538c721	-6.883511e-07
208	0xb97f7a74	-0.00024364312
209	0xb681a336	-3.8635e-06
210	0x34a91c76	3.149941e-07
211	0x36915374	4.331052e-06
212	0x368bb4c4	4.1635667e-06
213	0xb8957163	-7.1259936e-05
214	0xb6881579	-4.0556156e-06
215	0x367ebabc	3.7957643e-06
216	0x3c8b930e	0.017037895
217	0xb705c89c	-7.974126e-06
218	0xb58f73bc	-1.0688013e-06
219	0x3b5a9146	0.003335075
220	0x391f78f8	0.00015208486
221	0xb796e8cf	-1.7989803e-05
222	0x376aeffe	1.4003364e-05
223	0x355ddf5f	8.2653963e-07
224	0xb5ced961	-1.5411462e-06
225	0x378d3c10	1.6836479e-05
226	0xb6fb51e8	-7.489918e-06
227	0x36cbb106	6.0704797e-06
228	0xb555515e	-7.946709e-07
229	0x37fa697f	2.9851448e-05
230	0x37108f58	8.616444e-06
231	0xb72f346a	-1.0443016e-05
232	0xb5c7f165	-1.489691e-06
233	0x3413dbcd	1.3770405e-07
234	0xb7e26360	-2.6987575e-05
235	0x34aa25e2	3.169253e-07
236	0x38fe43c6	0.000121242876
237	0x3af7c4a9	0.0018903214
238	0xb5bbbb8b	-1.3987168e-06
239	0x36fc66c9	7.522151e-06
240	0xb891c6c8	-6.951165e-05
241	0xb67ae4f9	-3.7386183e-06
242	0x3a95bb28	0.0011423575
243	0xb9d3345f	-0.00040284076
244	0x39848d2f	0.00025282192
245	0xb7c127a7	-2.3025857e-05
246	0x36e0bd20	6.6977373e-06
247	0x39d403d9	0.00040438658
248	0xb760ed76	-1.3406729e-05
249	0xb9cc6be8	-0.00038990309
250	0xb6d8e5a4	-6.4640353e-06
251	0xb68e58dc	-4.2422744e-06
252	0x365fd50b	3.3353597e-06
253	0xb934c747	-0.00017240374
254	0x3713ffaf	8.821414e-06
255	0xb694cfaa	-4.434919e-06

rnn.bias_ih_l1 f4 [256]
0	0xbdba0bb4	-0.090842634
1	0xbdd1bb39	-0.10240788
2	0xbd87ed1c	-0.06637022
3	0xbd83b984	-0.06431869
4	0xbdcba9e4	-0.099445134
5	0xbdcc136a	-0.099646404
6	0xbd90a382	-0.07062437
7	0xbd964020	-0.073364496
8	0xbd91addd	-0.0711324
9	0xbe021ab2	-0.12705496
10	0x3db296ee	0.08720194
11	0xbd9670a1	-0.07345701
12	0x3e5477fa	0.20748892
13	0x3c500c8f	0.012698307
14	0xbd77ed37	-0.06052896
15	0xbda990ae	-0.082795486
16	0xbd09bbb9	-0.033626292
17	0xbdc6584d	-0.09684811
18	0xbd823152	-0.06357063
19	0xbd9eeb89	-0.077597685
20	0xbda86b5f	-0.082236044
21	0xbcea963c	-0.02863609
22	0xbd8a0829	-0.06739838
23	0xbd893d83	-0.067011856
24	0x3f203ac7	0.6258969
25	0xbd91d24c	-0.07120189
26	0xbd92b03c	-0.0716252
27	0xbcca1862	-0.02466983
28	0xbcbc4eab	-0.02298673
29	0xbdf2364d	-0.11826763
30	0xbdc49743	-0.095991634
31	0xbd894729	-0.06703026
32	0xbdadf201	-0.08493424
33	0xbdbc1de2	-0.09185387
34	0xbd616858	-0.05503115
35	0xbda37217	-0.07980745
36	0xbe01e468	-0.12684786
37	0xbe339d83	-0.17540555
38	0xbdd07c1d	-0.10179923
39	0xbe0e4a24	-0.1389547
40	0xbd83d00d	-0.06436167
41	0xbe290ef9	-0.16509618
42	0x3d9664b4	0.07343426
43	0xbd90eb60	-0.07076144
44	0xbd521a79	-0.051294778
45	0x3e94c282	0.29054648
46	0xbdc20f48	-0.09475571
47	0xbdcc8e91	-0.0998813
48	0xbde4d153	-0.11172738
49	0xbd94c541	-0.07264186
50	0x3ddef080	0.108857155
51	0xbd39000a	-0.045166053
52	0x3d2bb37f	0.041919228
53	0xbe121a12	-0.14267758
54	0xbd97727a	-0.073948815
55	0x3e3aa8d4	0.18228465
56	0xbdf9e1fd	-0.12201307
57	0x3f0d7268	0.55252695
58	0xbde0ebf0	-0.109825015
59	0xbda6e681	-0.08149434
60	0xbd8591e0	-0.06521964
61	0xbcbe3ec3	-0.023223286
62	0xbdc0ed38	-0.09420246
63	0xbd8f77de	-0.07005285
64	0xbd8abf64	-0.06774786
65	0xbdb014bb	-0.08597704
66	0xbd59479d	-0.05304681
67	0xbd4336e0	-0.047659755
68	0xbd4c798e	-0.04992061
69	0x3c03b031	0.008037613
70	0xbd5989c7	-0.05310991
71	0xbd6a167b	-0.057150345
72	0xbd6ea0c7	-0.058258798
73	0xbddadf56	-0.10687129
74	0xbe1232de	-0.14277217
75	0xbd72d87c	-0.059288487
76	0xbd01a7da	-0.031654216
77	0xbe27b0aa	-0.16375986
78	0xbd426760	-0.047461867
79	0xbd81ca60	-0.06337428
80	0x3d59903a	0.05311606
81	0xbda36351	-0.079779275
82	0xbd511f98	-0.05105552
83	0xbd79d31b	-0.06099234
84	0xbd6f02e3	-0.058352362
85	0xbe5b9f76	-0.21447548
86	0xbd58f7cf	-0.052970704
87	0xbd4da848	-0.050209314
88	0xbe20ccee	-0.15703174
89	0xbd67bb66	-0.0565752
90	0xbd642c60	-0.05570638
91	0xbe12112f	-0.14264368
92	0xbe646247	-0.22303115
93	0xbe392258	-0.18079507
94	0xbd9ea565	-0.0774639
95	0xbd4de0d5	-0.050263245
96	0xbd8ce5c1	-0.068797596
97	0xbd98e768	-0.07466012
98	0xbe53698b	-0.2064573
99	0xbd81457e	-0.06312083
100	0xbdd3e08b	-0.103455625
101	0xbd9e46cc	-0.07728347
102	0xbda6b620	-0.08140206
103	0xbe308b6d	-0.17240687
104	0xbd52e3fb	-0.05148695
105	0xbe0c29a4	-0.1368776
106	0xbdb7e16e	-0.08978544
107	0xbd65cd8d	-0.05610423
108	0xbe1208c8	-0.14261162
109	0xbdc7f22c	-0.097629875
110	0xbda0f07a	-0.07858367
111	0xbdabb2f5	-0.08383743
112	0xbe1be3fc	-0.15223688
113	0xbd70d3fd	-0.058795918
114	0x3d3edacc	0.04659538
115	0xbbf1e813	-0.0073824017
116	0xbe3ef228	-0.18647063
117	0xbdf599b1	-0.11992205
118	0xbd6f8e72	-0.058485456
119	0xbe4cc496	-0.19996867
120	0xbdc78551	-0.09742225
121	0xbe1368f3	-0.14395504
122	0xbdb494fc	-0.08817479
123	0xbd82101d	-0.063507296
124	0xbd41d648	-0.047323495
125	0xbe2d04f8	-0.16896427
126	0xbd9fd9e4	-0.07805231
127	0xbd5a467e	-0.053289883
128	0xbc7b57c8	-0.015340753
129	0x3d408c18	0.047008604
130	0xbcc4100f	-0.023933439
131	0x3d2ac5cf	0.04169255
132	0x3d3508a5	0.044197697
133	0xbb990be0	-0.004670605
134	0x3d308556	0.04309591
135	0xbd589c7f	-0.05288362
136	0x3b2bc0f3	0.0026207536
137	0x3bf1b8ee	0.0073767817
138	0xbdd7b3d8	-0.10532349
139	0x3d8c4e5e	0.06850885
140	0x3be904a7	0.0071111503
141	0x3deb2cf6	0.11483185
142	0x3d4e1c4f	0.050319966
143	0xbc6d792a	-0.01449422
144	0x3dd6a998	0.10481566
145	0xbda11359	-0.078650184
146	0x3dc16dae	0.09444748
147	0xbc77f99c	-0.015135195
148	0xbd322c4a	-0.04349927
149	0xbc92dd07	-0.01792766
150	0x3b2d8b96	0.0026480905
151	0xbd20e2be	-0.03927874
152	0xbe418237	-0.1889733
153	0xbdb3f91e	-0.0878775
154	0x3c9ef870	0.019405574
155	0xbe0f4f74	-0.13995153
156	0x3d538b13	0.051646303
157	0xbd78d890	-0.060753405
158	0xbd81d003	-0.06338503
159	0xbd93aa3a	-0.072102025
160	0x3d101a1a	0.035181142
161	0x3d1256e3	0.035727393
162	0x3dd787c0	0.10523939
163	0xbd0dd569	-0.034627352
164	0x3b0362cd	0.0020047904
165	0xbd9be07e	-0.07611178
166	0xbc795552	-0.015218096
167	0x3d82e652	0.06391586
168	0x3a9fc344	0.0012188931
169	0x3c373b24	0.011183534
170	0xbd4a57f0	-0.04940027
171	0x3cd23956	0.025662106
172	0xbdbaf09b	-0.09127923
173	0x3b6acfbb	0.0035829383
174	0xbda82530	-0.08210218
175	0xbd6f0451	-0.058353726
176	0x3da74e70	0.08169258
177	0x3a14aa49	0.00056711264
178	0xbcb8faa9	-0.022580462
179	0x3d481022	0.04884351
180	0xbdc8c7e1	-0.09803749
181	0x3b15a5a2	0.002283432
182	0xbcca9dfb	-0.024733534
183	0x3cf31198	0.029671475
184	0xbdb2c027	-0.087280564
185	0xbc2c37b8	-0.010511331
186	0x3d639387	0.055560615
187	0x3d7edbc1	0.062221292
188	0xbc35b14d	-0.011089635
189	0xbd6ef1ea	-0.058336176
190	0x3d441682	0.047873028
191	0x3cd58a00	0.02606678
192	0xbdba0d5a	-0.09084578
193	0xbdd1be7e	-0.102414116
194	0xbd87f509	-0.066385336
195	0xbd83c0a6	-0.06433229
196	0x3daf7c9a	0.08568688
197	0xbdd60649	-0.104504175
198	0xbd90a56d	-0.070628025
199	0xbd96456f	-0.07337462
200	0xbd91b757	-0.071150474
201	0xbe022101	-0.12707902
202	0xbd44bdc1	-0.048032526
203	0xbd967bd0	-0.07347834
204	0x3e8ef625	0.27922168
205	0x3c1742e3	0.009232256
206	0xbd7806ba	-0.06055329
207	0xbda99ed8	-0.0828225
208	0xbd764a0a	-0.060129203
209	0xbdc665b6	-0.096873686
210	0xbd823835	-0.06358377
211	0xbd9ef65e	-0.077618346
212	0xbda87002	-0.08224489
213	0xbb59e34b	-0.003324705
214	0xbd8a0dae	-0.067408904
215	0xbd894405	-0.06702427
216	0x3f145e35	0.5795625
217	0xbd91d931	-0.07121504
218	0xbd92b75f	-0.071638815
219	0xbd55ad5c	-0.05216728
220	0x3d9b7b1f	0.07591843
221	0xbdb3fcf3	-0.087884806
222	0xbdc4a256	-0.096012756
223	0xbd894d61	-0.06704212
224	0xbdadf2be	-0.08493565
225	0xbdbc2581	-0.09186841
226	0xbd74fee6	-0.059813403
227	0xbda37bbe	-0.07982586
228	0xbe01dde6	-0.12682304
229	0xbe2ae826	-0.1669012
230	0xbdd08ba4	-0.10182884
231	0xbe11fc1f	-0.14256333
232	0xbd83d345	-0.06436781
233	0xbe291192	-0.16510609
234	0xbe0fdf99	-0.1405014
235	0xbd90f031	-0.07077063
236	0xbb42b0a2	-0.0029707332
237	0x3ea4fa0f	0.3222203
238	0xbdc216c7	-0.09477001
239	0xbdcc9d10	-0.09990895
240	0xbe0f6b0b	-0.14005677
241	0xbd94ca70	-0.072651744
242	0x3d52b488	0.0514417
243	0xbcadbf68	-0.021209434
244	0x3df546e5	0.11976413
245	0xbe12225b	-0.14270918
246	0xbd977775	-0.073958315
247	0x3ddf167e	0.10892962
248	0xbdf9e93f	-0.12202691
249	0x3ee6ad5f	0.45054147
250	0xbde0eaf0	-0.10982311
251	0xbda6ee26	-0.08150892
252	0xbd859cbc	-0.06524035
253	0xbcb9df50	-0.022689492
254	0xbdc0e482	-0.094185844
255	0xbd8f7e45	-0.07006506
