checkpoints/TP_LSTM_L2_bs16_trainNon0baseline_bsfirst_pos1_downsp_rs_epoch1000/TP_LSTM_L2_bs16_epoch92_best0.007307228411694891.pt (torch, 206215 bytes, 9 tensors)

rnn.weight_ih_l0 f4 [256, 3]
0.08914085 0.076476365 -0.098159775 -0.20462796 0.41247916 0.015648043 0.08224082 0.31975648
0.10818648 0.031491134 0.12881523 0.0066167875 0.2328605 -0.12550895 0.35325667 -0.13257068
-0.14698267 0.10784901 0.1180672 0.13500221 -0.10059713 -0.012889056 0.060465667 -0.036692347
-0.10217582 -0.054958858 0.34413254 -0.1855956 -0.27330995 0.24850188 -0.0029587527 -0.034835804
0.11076896 0.03849864 0.009848457 0.19491062 0.16814668 -0.029079566 -1.1047174 -0.29840353
-0.19135474 -0.09507805 0.085656025 0.18512702 0.02389565 0.03705943 0.00086795207 -0.041948125
-0.15572718 -0.109346144 -0.053387325 -1.1791388 -1.2963051 -0.03160687 0.117519505 0.33134773
0.18289755 -0.06929183 0.083493404 0.02903292 -0.16871342 -0.032062616 -0.063812144 0.7653878
0.5107544 -0.36069906 0.086568214 0.1963566 -0.048290145 0.17121245 0.11626568 -0.094769135
-0.48789427 -0.39651147 -0.012557589 -0.05103716 -0.06702465 -0.020320803 0.0069375597 0.24945256
0.08603189 -0.17385492 -0.1774319 -0.29545337 0.03879127 0.044532564 -0.18965687 0.14225802
-0.08041188 0.13172658 0.1254946 0.072620764 0.09330725 0.3495084 -0.38340637 -0.5681646
0.022711705 0.15564157 -0.095607534 0.031159228 0.27350527 0.0379319 0.15343249 0.13405085
-0.13320713 0.21010138 0.43482053 0.26767316 0.052891422 -0.038795397 -0.0029712017 0.100536145
0.22304562 -0.2198484 -0.18065992 -0.023474056 -0.1380781 0.14055984 0.037463807 -0.058303982
-0.0080617815 0.12374352 0.1267686 -0.703458 -0.5052866 0.671081 0.03351691 0.4096586
-0.13829264 -0.14812888 0.022781631 0.04629063 0.17342411 0.25117135 0.12921128 -0.037164796
0.11392342 0.20187649 0.16704877 -0.7176112 -0.3941829 0.3901938 0.2446613 0.30260652
0.0689663 -0.11102425 0.007663849 0.06976764 0.19192648 0.07199599 -0.09868649 0.053248663
-0.07672406 0.13310409 -0.326359 -0.6489441 -0.054530486 -0.06901787 -0.087141775 -0.049325388
-0.1306322 0.040067364 0.040453915 0.2567246 -0.21810389 -0.059891954 -0.19135639 -0.047266163
-0.053824537 -0.030135123 -0.1405702 0.04750754 -0.031333584 -0.011608042 0.13313037 0.2883275
0.10822434 -0.095747516 -0.23636839 0.13540834 -0.04033101 -0.11592608 -0.18420674 0.20453463
0.40780762 0.2993162 -0.5381581 -0.56547093 0.25623208 0.005528863 0.15602753 -0.026634658
-0.09797196 0.092145845 -0.005449021 -0.20885453 0.44367513 0.18777116 0.11682299 0.029632231
-0.040525984 -0.09366622 0.1580194 -0.082994975 0.41691968 0.12034978 0.572818 -0.13007945
-0.06333035 0.2892919 0.008193875 0.089147724 -0.19191463 0.11744243 0.15989354 0.10094944
0.24288377 -0.014513349 -0.062181976 0.017756902 -0.09543356 0.2730635 -0.14919588 -0.2633097
0.025935363 0.074411996 0.04665558 0.37202275 0.04604314 0.0013426115 -1.1465988 -0.23114608
-0.0687633 -0.07788014 -0.22629152 0.042210877 -0.16104764 -0.003945058 0.07404402 -0.17982267
-0.11230604 -0.09455753 -0.043278847 -0.44177336 -0.4038525 0.16819622 -0.2980149 -0.059188366
-0.14445212 0.06700842 0.062821254 -0.08834472 -0.03719175 -0.008760493 -0.06202992 0.037738647
00000000: 7a8f b63d a49f 9c3d fe07 c9bd fe89 51be
00000010: 7830 d33e 5330 803c e06d a83d 1fb7 a33e
00000020: e090 dd3d d9fc 003d 24e8 033e a3d1 d83b
00000030: fc72 6e3e 6b85 00be 0fde b43e 9cc0 07be
00000040: a082 16be f1df dc3d 37cd f13d 053e 0a3e
00000050: de05 cebd 9e2c 53bc d9aa 773d b74a 16bd
00000060: 8e41 d1bd 8a1c 61bd 2432 b03e c60c 3ebe
00000070: 48ef 8bbe 4777 7e3e a2e7 41bb fdaf 0ebd
00000080: d6da e23d c0b0 1d3d 6c5b 213c a696 473e
00000090: a52e 2c3e 4538 eebc 6167 8dbf 59c8 98be
000000a0: 7ff2 43be 48b8 c2bd 6d6c af3d f091 3d3e
000000b0: cfc0 c33c a1cb 173d 4787 633a ccd1 2bbd
000000c0: f276 1fbe dff0 dfbd abac 5abd 05ee 96bf
000000d0: 53ed a5bf 3576 01bd 11ae f03d 69a6 a93e
000000e0: 7f49 3b3e e0e8 8dbd 97fe aa3d 72d6 ed3c
000000f0: 36c3 2cbe 1754 03bd f1af 82bd 74f0 433f
00000100: cdc0 023f 8cad b8be ad4a b13d b411 493e
00000110: e3cb 45bd 5152 2f3e b31c ee3d 5216 c2bd
00000120: 47cd f9be 8d03 cbbe 59be 4dbc 570c 51bd
00000130: 3844 89bd d077 a6bc 7854 e33b 7e70 7f3e
00000140: 7d31 b03d 0607 32be b5b0 35be aa45 97be
00000150: 98e3 1e3d c767 363d 6935 42be 16ac 113e
00000160: fcae a4bd 55e3 063e a881 003e 32ba 943d
00000170: df17 bf3d c4f2 b23e d74d c4be 3c73 11bf
00000180: e60d ba3c 8160 1f3e e2cd c3bd a341 ff3c
00000190: e208 8c3e 7b5e 1b3d 681d 1d3e a044 093e
000001a0: 7367 08be d124 573e cca0 de3e 750c 893e
000001b0: ada4 583d ece7 1ebd 7eb8 42bb e5e5 cd3d
000001c0: 1266 643e f01f 61be eafe 38be aa4c c0bc
000001d0: 5864 0dbe ebee 0f3e a673 193d 28d0 6ebd
000001e0: 9015 04bc 3e6d fd3d a1cf 013e d315 34bf
000001f0: 765a 01bf f7cb 2b3f 0749 093d c6be d13e
00000200: 969c 0dbe 19af 17be 8ba0 ba3c 3e9b 3d3d
00000210: 1796 313e 8899 803e f64f 043e 1d3a 18bd
00000220: af50 e93d b6b8 4e3e d50e 2b3e 5eb5 37bf
00000230: 57d2 c9be 7bc7 c73e 7e88 7a3e 3eef 9a3e
00000240: 343e 8d3d af60 e3bd 0621 fb3b 56e2 8e3d
00000250: 6088 443e a272 933d 241c cabd 451b 5a3d
00000260: 8121 9dbd 704c 083e 8718 a7be 3321 26bf
00000270: 5c5b 5fbd 3e59 8dbd 6377 b2bd 6b09 4abd
00000280: 73c4 05be ad1d 243d 01b3 253d 6871 833e
00000290: a056 5fbe 4451 75bd eef2 43be 2a9a 41bd
000002a0: 1e77 5cbd efdd f6bc a2f1 0fbe 4497 423d
000002b0: a557 00bd a82f 3ebc 5453 083e a99f 933e
000002c0: b9a4 dd3d 4617 c4bd 8e0a 72be 7ca8 0a3e
000002d0: 2132 25bd a76a edbd b1a0 3cbe 8771 513e
000002e0: 29cc d03e f93f 993e bbc4 09bf b4c2 10bf
000002f0: da30 833e 772b b53b aec5 1f3e ed30 dabc
00000300: 86a5 c8bd f6b6 bc3d b38d b2bb f6dd 55be
00000310: 6329 e33e 1547 403e e440 ef3d 4bbf f23c
00000320: 93fe 25bd 13d4 bfbd d6cf 213e 45f9 a9bd
00000330: 7f76 d53e f279 f63d 33a4 123f 8c33 05be
00000340: 58b3 81bd 111e 943e 9a3f 063c 1593 b63d
00000350: 4585 44be a885 f03d 22bb 233e 94be ce3d
00000360: 86b6 783e 66c9 6dbc 87b2 7ebd ec76 913c
00000370: ac72 c3bd fbce 8b3e cec6 18be 87d0 86be
00000380: 6676 d43c 5165 983d ec19 3f3d c479 be3e
00000390: bb97 3c3d 91fa af3a c0c3 92bf 8fb1 6cbe
000003a0: c6d3 8cbd 9f7f 9fbd f7b8 67be 50e5 2c3d
000003b0: ace9 24be 8c45 81bb 64a4 973d 6f23 38be
000003c0: b600 e6bd 61a7 c1bd 2945 31bd 1e30 e2be
000003d0: c1c5 cebe a13b 2c3e 6995 98be 806f 72bd
000003e0: 42eb 13be b63b 893d 6ea8 803d 14ee b4bd
000003f0: 6056 18bd 2c88 0fbc 1613 7ebd d793 1a3d

rnn.weight_hh_l0 f4 [256, 64]
0.0033746825 0.059089378 -0.08419148 0.024990894 -0.09594647 -0.05339827 0.07315304 -0.027993707
-0.044663027 -0.06599019 -0.074064836 0.010043052 -0.032384384 0.029328678 0.008858257 -0.0045849644
0.0008497238 -0.27388147 -0.072531864 -0.051068693 0.012402192 0.010354657 -0.10002079 -0.11510026
-0.009856499 0.035326134 0.03993213 -0.020062385 0.049284115 -0.12762316 0.018490123 -0.0032813563
-0.00922676 0.11735445 0.07155006 -0.014029136 -0.019916916 0.010601831 0.04241747 0.08003054
-0.09913884 -0.06353115 0.0162668 0.009663516 0.02939139 0.026875313 -0.022355918 0.15779884
0.10020859 0.07310062 0.041780904 -0.049039923 -0.00721878 0.07300665 -0.041251294 0.0023553334
0.028443905 -0.06558295 -0.04124764 0.020791743 -0.0046929447 -0.032539655 -0.012463491 0.06445305
0.07183301 -0.0668099 0.07531437 -0.00074989366 -0.038432084 -0.14954463 -0.12142122 0.07670705
-0.073684864 -0.04361849 -0.18082865 -0.06807873 0.21712132 -0.015736602 0.014104447 -0.060860932
0.0015001749 0.031825732 -0.22580397 -0.0032719485 -0.008957066 0.009336871 -0.04420091 0.045723602
-0.020366317 -0.07356747 -0.1336413 -0.13912533 -0.038296517 -0.08416079 -0.15253654 0.18955266
-0.12826814 0.046657722 0.011691273 -0.023613675 0.007000341 0.1751996 0.039301082 -0.049796175
0.0008634472 0.14430484 -0.14674583 -0.035825238 -0.109952435 0.062179793 -0.108528115 0.15211718
0.039088108 -0.08280055 -0.021690205 0.19173571 0.006183142 -0.021817612 0.063578196 -0.0007306625
-0.07931127 -0.008935473 0.08991013 0.096196994 -0.018537985 0.08815746 -0.0895635 -0.055696744
-0.07794453 0.07842904 -0.029148502 0.049091116 -0.15671714 0.04218103 -0.08558509 -0.100227654
0.09663011 -0.01702147 -0.123852104 0.0017346763 -0.23004739 0.0012538072 0.06877671 0.03963595
-0.017950207 -0.110168576 -0.022126036 0.1429216 0.14649822 0.13070348 0.009004699 -0.006666881
0.010961164 -0.024312487 -0.07841434 0.20389372 -0.012716434 -0.06519365 0.08948685 0.06990538
0.057935074 0.15573569 0.05687577 -0.15551132 0.07910306 0.04719777 -0.044956267 0.0044834726
-0.01474131 0.043119825 0.029810715 -0.028286712 -0.111668676 0.12227188 0.03329827 -0.071615055
0.19893733 0.012498157 -0.03279846 0.16779347 0.0041045514 0.11492981 0.13996944 -0.08512159
0.105534755 0.046274066 -0.13278913 -0.0016635509 0.01376453 0.061533045 -0.027945979 -0.07574932
-0.039258625 -0.12142269 -0.105550304 -0.13087682 0.1033884 0.05662946 0.055532053 -0.024983604
0.095481746 -0.05402029 0.1126776 0.018681036 -0.17050785 0.012963258 -0.06556015 -0.089020535
0.013313623 -0.12490666 0.08416821 0.08981 -0.0148456935 0.13100015 0.02389918 0.021921203
-0.045260664 -0.013696864 -0.024020163 0.109373115 -0.0939042 -0.10195241 0.017383032 0.1308283
0.111734696 -0.115779266 -0.10263031 0.048483476 0.025145316 -0.072084986 -0.041595865 0.05738828
-0.011603142 -0.11557186 -0.078412585 -0.046011634 -0.0067576007 0.055647206 0.118384115 -0.10927994
-0.011094034 -0.10208797 0.09852166 0.23975188 0.04641683 0.056417927 -0.06518247 -0.009024741
0.10237088 -0.11305866 0.0006277084 -0.057392407 -0.057912927 -0.01067803 -0.02910965 -0.070835955
00000000: c729 5d3b b407 723d 956c acbd b4b9 cc3c
00000010: 957f c4bd 25b8 5abd 43d1 953d 0f53 e5bc
00000020: 94f0 36bd dd25 87bd 4eaf 97bd 9d8b 243c
00000030: 7da5 04bd b242 f03c 3922 113c 783d 96bb
00000040: 00c0 5e3a 313a 8cbe 968b 94bd 682d 51bd
00000050: 9032 4b3c 94a6 293c b3d7 ccbd afb9 ebbd
00000060: 277d 21bc 23b2 103d e08f 233d df59 a4bc
00000070: 24de 493d a5af 02be 9978 973c 060c 57bb
00000080: d62b 17bc 8857 f03d d688 923d 76da 65bc
00000090: cd28 a3bc 4db3 2d3c f1bd 2d3d 0de7 a33d
000000a0: 4e09 cbbd 9f1c 82bd f441 853c b953 1e3c
000000b0: 36c6 f03c 9e29 dc3c c223 b7bc 0596 213e
000000c0: 293a cd3d c7b5 953d 7422 2b3d 16de 48bd
000000d0: 848b ecbb 8384 953d 1ef7 28bd f05b 1a3b
000000e0: 3103 e93c 5b50 86bd 49f3 28bd 7253 aa3c
000000f0: 46c7 99bb 4d48 05bd ac33 4cbc f6ff 833d
00000100: 2f1d 933d a1d3 88bd 6c3e 9a3d 8394 44ba
00000110: f66a 1dbd 3a22 19be b0ab f8bd 9618 9d3d
00000120: 17e8 96bd 4da9 32bd 252b 39be dc6c 8bbd
00000130: 0d55 5e3e 0cea 80bc 5716 673c 5049 79bd
00000140: 84a1 c43a b35b 023d 2839 67be 306e 56bb
00000150: a8c0 12bc adf9 183c 030c 35bd ac48 3b3d
00000160: 43d7 a6bc 8baa 96bd 44d9 08be df76 0ebe
00000170: cfdc 1cbd 7e5c acbd 8a32 1cbe 181a 423e
00000180: b958 03be 2b1c 3f3d c18c 3f3c 7771 c1bc
00000190: 1e63 e53b 8667 333e 2cfa 203d 13f7 4bbd
000001a0: f658 623a a6c4 133e 8a44 16be 7cbd 12bd
000001b0: be2e e1bd 3db0 7e3d fd43 debd 9bc4 1b3e
000001c0: da1a 203d 5693 a9bd a8af b1bc 5e56 443e
000001d0: f49b ca3b d9ba b2bc 4935 823d ee89 3fba
000001e0: f26d a2bd 1766 12bc cd22 b83d ee02 c53d
000001f0: f9dc 97bc e68b b43d 116d b7bd 4522 64bd
00000200: 62a1 9fbd 689f a03d d7c8 eebc c413 493d
00000210: 757a 20be 04c6 2c3d 3c47 afbd 2844 cdbd
00000220: 02e6 c53d 9c70 8bbc 2ca6 fdbd 145e e33a
00000230: 8b91 6bbe ca56 a43a ceda 8c3d 4e59 223d
00000240: 500c 93bc 10a0 e1bd a941 b5bc 0a5a 123e
00000250: a103 163e 22d7 053e 7288 133c da75 dabb
00000260: 7496 333c fb2a c7bc b397 a0bd 84c9 503e
00000270: 9758 50bc 4084 85bd e244 b73d 8d2a 8f3d
00000280: 544d 6d3d 2d79 1f3e 91f6 683d 5c3e 1fbe
00000290: c900 a23d 7352 413d 1024 38bd 18ea 923b
000002a0: 8985 71bc 6a9e 303d 9a35 f43c 89b9 e7bc
000002b0: 8cb2 e4bd ae69 fa3d c463 083d eaaa 92bd
000002c0: 3ab6 4b3e 12c5 4c3c ae57 06bd 0dd2 2b3e
000002d0: 797f 863b 5260 eb3d 2654 0f3e 3a54 aebd
000002e0: 9b22 d83d e089 3d3d e0f9 07be 810b daba
000002f0: a084 613c 130a 7c3d f7ee e4bc 7622 9bbd
00000300: a7cd 20bd 76ac f8bd c22a d8bd 9304 06be
00000310: 4cbd d33d 4bf4 673d 9475 633d 6aaa ccbc
00000320: ef8b c33d 6144 5dbd 83c3 e63d f908 993c
00000330: 9c99 2ebe d863 543c 6644 86bd 6650 b6bd
00000340: 6221 5a3c 10cf ffbd 6260 ac3d 4eee b73d
00000350: 5a3b 73bc e724 063e 37c8 c33c 1894 b33c
00000360: 3f63 39bd d068 60bc efc5 c4bc 03ff df3d
00000370: d850 c0bd 6dcc d0bd dc66 8e3c dbf7 053e
00000380: 29d5 e43d ae1d edbd d72f d2bd 9c96 463d
00000390: 8dfd cd3c 4ba1 93bd 6d60 2abd f90f 6b3d
000003a0: 1b1b 3ebc f0b0 ecbd c796 a0bd b276 3cbd
000003b0: dd6e ddbb 53ee 633d 5f73 f23d 29ce dfbd
000003c0: c0c3 35bc 7f13 d1bd b9c5 c93d 8481 753e
000003d0: 931f 3e3d 7c16 673d 637e 85bd 82dc 13bc
000003e0: d3a7 d13d 4c8b e7bd cc8c 243a 4d14 6bbd
000003f0: 1b36 6dbd e7f2 2ebc 5c77 eebc 7112 91bd

rnn.bias_ih_l0 f4 [256]
0.07054184 0.4432501 0.33270735 0.06656525 -0.16896756 -0.035285287 -0.010715135 0.108096555
-0.028038431 -0.23024604 0.105408706 0.052263882 0.2022181 -0.062276807 0.31233743 0.05716493
-0.15038247 0.255218 0.36645642 0.022228649 -0.17850071 0.07741051 0.0038062944 0.16945991
-0.18444902 -0.13604099 0.1330623 0.029303357 -0.12736265 0.10721355 -0.032601677 0.43031305
0.067557454 0.026741039 0.07090296 -0.030657642 -0.07027603 -0.06072163 0.00990834 0.12059747
-0.049436923 0.05190403 0.10982525 -0.09421952 -0.019730167 -0.05453739 0.55776024 -0.060274232
-0.07226192 -0.04573152 0.029707115 0.65288997 -0.18412834 0.05885731 0.057495803 -0.15262944
0.026162418 -0.04067087 -0.053488825 -0.14523327 -0.14970689 0.28397414 -0.12596136 -0.0019845283
-0.10778415 0.03413051 -0.0942084 0.07211824 0.09537189 0.07368398 -0.096894205 0.04500817
-0.061230224 -0.12536831 -0.03517481 -0.07267663 -0.116729654 -0.02415648 -0.04073154 0.024038183
-0.14100975 -0.116530515 -0.06386882 0.028369254 -0.13313083 -0.22974797 0.023788486 -0.0045873025
-0.2044861 -0.16828555 -0.06924287 -0.082359575 -0.08980368 0.06868648 0.03290746 0.0820401
-0.101876006 -0.08141244 0.05293487 -0.007860544 -0.10826205 0.038012974 -0.15115905 0.0045415894
-0.09160187 0.1485388 -0.031103412 -0.16249362 -0.017666558 -0.026668657 -0.3124057 -0.016413614
-0.1579365 -0.12594903 0.005863218 0.023474427 -0.071790405 -0.116171084 0.034140475 -0.18807897
-0.06714849 -0.011942812 -0.04952248 -0.1730711 -0.13944644 -0.2013843 -0.07961391 0.06711273
0.04190282 0.17594445 -0.10874401 0.08040063 -0.038415246 0.016483286 -0.042592235 -0.052150734
0.106079556 0.035851628 -0.11785374 -0.09962296 -0.025139155 0.08362075 0.11872049 -0.031757936
0.019353038 0.12125084 -0.08223273 -0.06274614 0.029104859 0.013700534 0.04830251 0.10228436
0.009771981 -0.070308805 -0.0910718 -0.011618359 -0.061531432 0.042981733 -0.0282488 0.033364076
0.0045229094 0.027496317 -0.012475965 0.04438638 0.03549886 -0.049161743 0.023169039 0.034321178
-0.042294674 -0.034313645 0.056718275 0.0403051 -0.088158555 0.044651024 -0.22583273 -0.04367313
0.02662264 0.0003087497 -0.0464844 0.024193179 -0.027132317 -0.0694218 0.09442805 -0.04180234
-0.05972864 -0.11126405 -0.031563394 0.012762298 -0.03580514 -0.08981196 -0.027327076 -0.03786035
0.1671297 0.44514605 0.19250655 -0.036828212 -0.050019726 -0.08368891 0.0815283 0.07311061
-0.019970892 -0.13204895 0.058548875 -0.074001946 0.05564125 -0.20507514 0.35768592 -0.038823374
-0.14953725 0.121461704 0.42159674 0.009390866 -0.08920639 -0.055779677 0.082048304 0.084564485
-0.18566965 -0.03608671 0.043314178 0.088604495 0.014475259 0.08262501 0.12482993 0.46281922
-0.06288621 0.15710314 0.10197987 0.021310292 -0.01462931 -0.15299495 0.021906383 0.030425623
-0.10984269 0.09559373 0.25606605 -0.1936395 -0.055121724 -0.0060165445 0.5964815 -0.07474881
-0.043305982 0.11836105 0.03797957 0.6656816 -0.13947661 -0.090144575 -0.06695378 -0.20638949
0.022054162 -0.055889983 -0.048676047 -0.16130915 -0.16378267 0.16812722 -0.010044955 -0.0947218
00000000: 3d78 903d adf1 e23e 9e58 aa3e 5d53 883d
00000010: d505 2dbe 4e87 10bd 898e 2fbc ba61 dd3d
00000020: dab0 e5bc 9ec5 6bbe 85e0 d73d a712 563d
00000030: 4312 4f3e f715 7fbd b1ea 9f3e c625 6a3d
00000040: ddfd 19be efab 823e 2da0 bb3e db18 b63c
00000050: e4c8 36be 6789 9e3d 0673 793b e686 2d3e
00000060: 34e0 3cbe 544e 0bbe 7c41 083e 980d f03c
00000070: 5b6b 02be c792 db3d 5689 05bd fe51 dc3e
00000080: 905b 8a3d 0610 db3c 9235 913d bc25 fbbc
00000090: e1ec 8fbd 3eb7 78bd 9756 223c cefb f63d
000000a0: 5f7e 4abd 5299 543d 10ec e03d 2af6 c0bd
000000b0: 29a1 a1bc 9962 5fbd 60c9 0e3f 1de2 76bd
000000c0: 0ffe 93bd f950 3bbd 565c f33c cc23 273f
000000d0: 248c 3cbe 5d14 713d b880 6b3d e44a 1cbe
000000e0: 9152 d63c 8096 26bd 1917 5bbd 08b8 14be
000000f0: c34c 19be 0f65 913e 04fc 00be dc0e 02bb
00000100: f0bd dcbd 6fcc 0b3d 55f0 c0bd bab2 933d
00000110: 5652 c33d a0e7 963d 7870 c6bd 7d5a 383d
00000120: 8bcc 7abd 8d60 00be 7613 10bd 7cd7 94bd
00000130: f50f efbd cfe3 c5bc 1ed6 26bd b9eb c43c
00000140: dc64 10be 8da7 eebd a8cd 82bd a366 e83c
00000150: 7353 08be 0d43 6bbe 12e0 c23c 1551 96bb
00000160: ce64 51be 0c53 2cbe 35cf 8dbd 23ac a8bd
00000170: feea b7bd 7fab 8c3d f9c9 063d a404 a83d
00000180: 5ea4 d0bd 91bb a6bd 3cd2 583d 83c9 00bc
00000190: 7eb8 ddbd 7eb3 1b3d 70c9 1abe 9dd1 943b
000001a0: c399 bbbd 8e1a 183e 95cc febc ba64 26be
000001b0: 75b9 90bc 3a78 dabc a4f3 9fbe d875 86bc
000001c0: 1bba 21be c8f8 00be 3d20 c03b 714d c03c
000001d0: d906 93bd 1beb edbd e2d6 0b3d c697 40be
000001e0: 2685 89bd c9ab 43bc 16d8 4abd 8d39 31be
000001f0: 0ccb 0ebe b037 4ebe 9e0c a3bd 6672 893d
00000200: 4ba2 2b3d c82a 343e 2eb5 debd 16a9 a43d
00000210: 4e59 1dbd f507 873c 3275 2ebd 029c 55bd
00000220: 3d40 d93d 28d9 123d 4d5d f1bd 1f07 ccbd
00000230: a1f0 cdbc 5b41 ab3d ba23 f33d 9c14 02bd
00000240: 438a 9e3c 5c52 f83d a269 a8bd 0c81 80bd
00000250: 506d ee3c 3478 603c dad8 453d 767a d13d
00000260: a91a 203c 10fe 8fbd da83 babd ee5a 3ebc
00000270: 6208 7cbd 9d0d 303d 076a e7bc c5a8 083d
00000280: ea34 943b f53f e13c fd67 4cbc 7ece 353d
00000290: 4167 113d d35d 49bd ffcc bd3c 5d94 0c3d
000002a0: 2e3d 2dbd 778c 0cbd 6c51 683d f616 253d
000002b0: 798c b4bd fee3 363d b240 67be 99e2 32bd
000002c0: b917 da3c afdf a139 6d66 3ebd c630 c63c
000002d0: 9844 debc 042d 8ebd 7e63 c13d ee38 2bbd
000002e0: 05a6 74bd 68de e3bd 9e48 01bd f518 513c
000002f0: 69a8 12bd 55ef b7bd 08dd dfbc 7413 1bbd
00000300: 0c24 2b3e 2fea e33e 7020 453e 2ed9 16bd
00000310: 7ce1 4cbd 1765 abbd 4ff8 a63d 04bb 953d
00000320: ff99 a3bc d737 07be f2d0 6f3d 558e 97bd
00000330: 14e8 633d 38ff 51be 9c22 b73e 4205 1fbd
00000340: 4b20 19be eac0 f83d 87db d73e 26dc 193c
00000350: d7b1 b6bd 3b79 64bd f108 a83d 2530 ad3d
00000360: 2f20 3ebe a8cf 13bd 356a 313d 4676 b53d
00000370: a329 6d3c 4d37 a93d d6a6 ff3d a4f6 ec3e
00000380: 7cca 80bd a5df 203e d2da d03d ec92 ae3c
00000390: c6af 6fbc b5aa 1cbe 0475 b33c 283f f93c
000003a0: 34f5 e0bd a5c6 c33d 171b 833e 6f49 46be
000003b0: 51c7 61bd 6f26 c5bb 03b3 183f e715 99bd
000003c0: 9d61 31bd 4767 f23d 7790 1b3d 1c6a 2a3f
000003d0: f5d2 0ebe b89d b8bd 101f 89bd c457 53be
000003e0: eeaa b43c e5ec 64bd 8960 47bd 3a2e 25be
000003f0: a5b6 27be 8b29 2c3e 9893 24bc 81fd c1bd

rnn.bias_hh_l0 f4 [256]
0.08916821 0.3535314 0.16692281 0.06416613 -0.024262978 -0.040799703 0.08157269 0.104766764
-0.098702356 -0.21364503 0.19574511 -0.04345486 0.057052914 -0.20443562 0.34402034 0.06241766
-0.14486396 0.19690813 0.286281 -0.098208696 -0.2505333 -0.020168873 0.08383773 0.07557909
-0.14708243 -0.0996714 0.015014108 0.03317855 -0.08094517 0.19491468 -0.08380883 0.41763645
0.052201264 -0.023562504 0.099980645 0.101375304 -0.11929346 -0.15193562 0.09664594 0.015528381
-0.11144971 -0.07336113 0.3155189 0.001790571 -0.031909756 -0.017177586 0.44895762 -0.10276283
0.0051367786 0.119644344 0.017277364 0.5740183 -0.13210253 0.034486227 0.127719 -0.16743693
-0.059436835 -0.077889346 0.08551075 -0.16641434 -0.1008561 0.29985267 0.020216534 0.09029901
-0.009645762 0.2055199 0.14072861 -0.045874655 -0.07843889 0.1053507 -0.035522237 -0.07553034
-0.014684493 -0.0749594 -0.06237378 0.02509222 0.0041311956 -0.057036646 0.00952194 -0.011395951
-0.13576403 -0.12072786 -0.093788676 -0.14069642 -0.1131402 -0.27047542 0.02517746 -0.105999194
-0.19530024 -0.17240204 -0.10607566 0.018678263 -0.13129301 0.0056571066 0.032863814 0.026878022
-0.017627545 0.025253307 -0.11205529 0.009807176 -0.030469919 0.03904759 -0.05601601 -0.10743788
-0.13381867 0.12222518 -0.049802974 -0.015156157 -0.050416987 0.035859548 -0.37119678 0.04809796
0.07303591 -0.0350725 0.0016940351 -0.12494891 -0.07257713 0.070706956 -0.034196783 -0.1564822
-0.10167111 -0.00012342993 0.03511436 -0.043476358 -0.14520161 -0.15040499 -0.15238425 -0.086707026
-0.08319952 -0.044175163 0.079525866 -0.014628156 -0.10917759 0.05598998 -0.030759992 0.11900039
-0.068497 0.045239978 0.023338541 0.06638116 0.028241228 -0.13444144 -0.02399358 0.042777166
-0.044746313 0.06976963 0.0009280726 0.0719126 0.035169955 -0.03874047 0.00012049222 -0.06913391
0.074025564 -0.03445777 0.04774421 0.092434675 0.013585388 0.07849176 0.034657933 -0.19661157
-0.05204149 0.07505026 0.040509388 -0.08842373 0.07174195 0.017014073 -0.05191425 -0.019366005
-0.0897143 0.13865957 -0.09066889 -0.068275936 0.067773566 0.021083241 -0.030387215 -0.048725728
0.11711294 0.03156035 0.05856835 0.09619418 0.0736785 0.11303971 0.0005556066 -0.06631424
0.05551857 -0.092789575 0.005550594 0.010575592 0.016164247 -0.0028498473 -0.111628175 0.076421656
0.05251968 0.27688685 0.2285933 -0.012073353 -0.12028113 0.01151561 -0.035690136 -0.029758578
0.005285241 -0.17444016 0.08932602 -0.05721356 0.02339409 -0.14760733 0.27847672 -0.10581699
-0.16291545 0.20475525 0.43178442 -0.11411095 -0.23450683 -0.0677244 -0.021181563 0.04467203
-0.16853102 -0.21250555 0.18555388 0.118715435 -0.035833847 0.1842153 0.11564469 0.52422184
-0.07216993 0.117110945 0.033498622 0.059095003 -0.061150473 -0.10563638 -0.0055660396 0.12801161
0.09033685 0.065877624 0.17337577 -0.08454574 0.16188447 -0.20259714 0.56665987 -0.11998122
0.10808837 0.051591106 -0.08555794 0.84952205 -0.050747707 -0.10087512 -0.02722278 -0.16342977
-0.019692324 -0.06455817 -0.017785236 -0.17520982 -0.2050214 0.17601615 -0.035336375 -0.07247053
00000000: d39d b63d 1102 b53e d0ed 2a3e 8869 833d
00000010: 27c3 c6bc 971d 27bd 950f a73d f58f d63d
00000020: 7624 cabd c3c5 5abe 6871 483e b9fd 31bd
00000030: 51b0 693d 9257 51be 6f23 b03e a9a9 7f3d
00000040: 3857 14be 49a2 493e 6c93 923e a421 c9bd
00000050: e745 80be 3139 a5bc 1eb3 ab3d 36c9 9a3d
00000060: c79c 16be 8520 ccbd bcfd 753c 3be6 073d
00000070: 95c6 a5bd b797 473e f7a3 abbd 72d4 d53e
00000080: fed0 553d 2706 c1bc a7c2 cc3d db9d cf3d
00000090: 2150 f4bd 0395 1bbe 4eee c53d c06a 7e3c
000000a0: bf3f e4bd 5c3e 96bd b18b a13e 98b1 ea3a
000000b0: ceb3 02bd 02b8 8cbc c6dd e53e 5275 d2bd
000000c0: 6c52 a83b 1808 f53d 4289 8d3c ddf2 123f
000000d0: e345 07be 6e41 0d3d c5c8 023e 9674 2bbe
000000e0: 0a74 73bd 7384 9fbd 4320 af3d 8568 2abe
000000f0: a58d cebd 4a86 993e 259d a53c b0ee b83d
00000100: 4209 1ebc cf73 523e 291b 103e 10e7 3bbd
00000110: 92a4 a0bd 1cc2 d73d c47f 11bd a7af 9abd
00000120: 3a97 70bc 5084 99bd a67b 7fbd 338e cd3c
00000130: fb5e 873b 429f 69bd e901 1c3c 15b6 3abc
00000140: ba05 0bbe 2b40 f7bd 4714 c0bd b912 10be
00000150: 0db6 e7bd c17b 8abe f640 ce3c 1b16 d9bd
00000160: c9fc 47be 298a 30be 323e d9bd 2803 993c
00000170: ad71 06be 405f b93b 359c 063d 4c2f dc3c
00000180: a467 90bc 06e0 ce3c 3e7d e5bd 47ae 203c
00000190: 0d9c f9bc 5ef0 1f3d 0b71 65bd 6408 dcbd
000001a0: c307 09be 3251 fa3d 34fe 4bbd 8851 78bc
000001b0: 0b82 4ebd 76e1 123d 810d bebe 5e02 453d
000001c0: da93 953d 2fa8 0fbd 630a de3a 37e5 ffbd
000001d0: 51a3 94bd cfce 903d ed11 0cbd df3c 20be
000001e0: f138 d0bd f86c 01b9 13d4 0f3d 4414 32bd
000001f0: bbaf 14be c403 1abe 9e0a 1cbe 7493 b1bd
00000200: 8364 aabd 04f1 34bd 75de a23d efaa 6fbc
00000210: 8098 dfbd c055 653d 61fc fbbc 7ab6 f33d
00000220: 2848 8cbd 8e4d 393d 7830 bf3c d8f2 873d
00000230: 265a e73c 04ab 09be 2f8e c4bc 1c37 2f3d
00000240: e947 37bd 61e3 8e3d e649 733a ea46 933d
00000250: 5f0e 103d 54ae 1ebd c5b0 fc38 1496 8dbd
00000260: b79a 973d 9723 0dbd 6f8f 433d 644e bd3d
00000270: 3f95 5e3c 4ac0 a03d 7af5 0d3d 8b54 49be
00000280: 7529 55bd f3b3 993d 2ced 253d 8017 b5bd
00000290: 72ed 923d 1961 8b3c 09a4 54bd 75a5 9ebc
000002a0: 22bc b7bd c6fc 0d3e 9cb0 b9bd 41d4 8bbd
000002b0: decc 8a3d c3b6 ac3c 9cee f8bc a194 47bd
000002c0: e9d8 ef3d 6d45 013d 5ee5 6f3d 7401 c53d
000002d0: c1e4 963d 5d81 e73d 21a6 113a c3cf 87bd
000002e0: 7167 633d 7608 bebd c2e1 b53b 3f45 2d3c
000002f0: e26a 843c 81c4 3abb 509d e4bd f582 9c3d
00000300: e01e 573d 1dc4 8d3e 5d14 6a3e 50cf 45bc
00000310: f455 f6bd f8ab 3c3c d22f 12bd 43c8 f3bc
00000320: d12f ad3b 71a0 32be 8ff0 b63d c458 6abd
00000330: f6a4 bf3c 6026 17be 8094 8e3e 94b6 d8bd
00000340: 4fd3 26be 5cab 513e d912 dd3e 00b3 e9bd
00000350: 8f22 70be 17b3 8abd f584 adbc 05fa 363d
00000360: 6593 2cbe 0e9b 59be d601 3e3e 1421 f33d
00000370: 83c6 12bd f0a2 3c3e 20d7 ec3d 6733 063f
00000380: d4cd 93bd ddd7 ef3d da35 093d 9a0d 723d
00000390: eb78 7abd e357 d8bd 5363 b6bb 7a15 033e
000003a0: 8702 b93d d9ea 863d 6b89 313e 5126 adbd
000003b0: 0bc5 253e a075 4fbe 9f10 113f b7b8 f5bd
000003c0: 6f5d dd3d 3251 533d 0039 afbd 477a 593f
000003d0: d4dc 4fbd 9d97 cebd 4f02 dfbc 225a 27be
000003e0: cc51 a1bc 1337 84bd 58b2 91bc 346a 33be
000003f0: 21f1 51be 943d 343e e0bc 10bd 6e6b 94bd

rnn.weight_ih_l1 f4 [256, 64]
-0.0018893247 -0.046590954 -0.023470223 -0.013766907 0.0043517794 -0.0034168214 0.0067430655 0.0066390014
-0.0046383366 -0.0015798854 -0.0009708091 -0.0014370997 0.0047766725 -0.00096360483 0.019463522 0.0016535787
0.0004969989 0.011127228 -0.023591384 -0.0002753614 -0.001476622 -6.5653236e-05 -0.024782272 -0.008456425
0.0021390563 0.0008506696 -0.006633798 -0.0025249827 0.005423465 -0.010798627 -0.009845334 -0.0013458143
0.00911239 -0.020578193 -0.00292337 1.2121196e-05 -0.0012842627 -0.0011182639 0.0059195952 0.0074519757
0.016174776 0.008395061 0.006852579 -0.004214405 0.023835965 0.0015688824 -0.009178901 0.0067655914
-0.0054354756 -0.009970891 0.0016162925 0.012240787 -9.144075e-05 -0.00027201982 -0.010815558 -0.00085012044
-0.0012087754 0.011123059 0.018850934 0.000856308 -0.0003003319 0.035220493 -0.0041840146 0.0074234097
-0.008673429 -0.045922164 0.026599132 -0.0032076954 0.03585043 -0.00344969 -0.0074672676 -0.014738996
0.0040986286 -0.0031592145 0.021488976 0.0041215196 0.010186243 -0.0050854506 -0.09696036 0.0010630296
0.0028767672 0.04683411 0.10524088 -0.005890594 -0.006474374 0.035276793 0.026301274 0.0024130438
0.003952666 0.004185608 0.015578223 0.00090983725 0.0043508722 -0.03851499 0.033363104 0.011646003
0.017333485 0.019449376 -0.01878433 0.07902023 -0.0058224904 0.005474462 0.01504794 -0.0077617154
-0.004842855 0.047239788 0.0035889538 0.0028278613 0.01324716 0.009768867 -0.009621693 -0.030768596
-0.005750885 0.011209 -0.006323396 -0.03244166 0.00096596923 -0.0057751304 -0.0024622323 0.002963523
0.0059029367 0.02373824 -0.06989702 -0.0012818258 0.0027327146 0.0038557977 -0.0015241916 -0.0011956483
0.01563566 0.030963158 0.0013953035 0.015418526 -0.010376395 -0.017604765 -0.04443163 0.023677465
0.0034830985 0.0008113983 -0.00083470216 -0.014901163 -0.013025435 -0.00075016666 -0.04232598 0.00025579488
0.0048250924 0.014725934 0.005638444 -0.010944246 -0.0059381733 0.04677936 -0.01677599 -0.0065188035
0.014438914 -0.0010655567 0.005174741 -0.013433421 0.0016497726 -0.035720963 0.019962998 0.05153894
0.022242513 0.02315773 0.019320855 0.082981415 -0.0051334235 0.0035005917 0.0097771995 0.010215763
-0.020058835 0.06992322 0.00813168 -0.0014988862 0.07871373 0.0051872954 6.060193e-05 0.003324779
0.010771158 -0.0066077244 -0.009292408 -0.0755154 -0.0021817354 0.00017887748 0.007085849 0.0039663287
0.00860596 -0.0012119625 0.06903779 -0.0034682632 -0.0006222884 0.04093403 -0.026107479 -0.021619914
-0.0052013937 0.12522894 0.0069765546 0.0035943019 0.040694337 -0.017583476 -0.0069502485 -0.041604377
0.0014670577 -0.002397738 -0.004177196 -0.016157595 -0.011744398 -0.010936966 -0.049134217 0.0060415817
0.00894721 0.11473779 0.03197883 0.008481618 -0.020396305 0.09531835 0.0028921077 -0.0041217874
0.018368838 0.005519779 0.004545014 -0.0072495723 -0.008003514 -0.09944304 0.024878819 0.066311084
-0.0009347036 0.016921507 -0.02151102 0.19980173 -0.01704052 0.016053045 0.02971427 -0.024330983
-0.018353757 0.15651804 -0.051081043 -0.010671562 -0.011784658 0.01571666 -0.030351847 0.0063129663
-0.005283579 0.0014080846 -0.0161123 -0.025083994 -0.00019231252 -0.0041991356 -0.0128649 0.010081141
0.010845443 -0.01294607 -0.0047404463 -0.007266519 0.005374953 -0.025106264 -0.02780726 -0.001950167
00000000: 38a3 f7ba 28d6 3ebd a044 c0bc 988e 61bc
00000010: 5f99 8e3b c0ec 5fbb eff4 dc3b fb8b d93b
00000020: 30fd 97bb 2814 cfba e57d 7eba 105d bcba
00000030: a285 9c3b 6d9a 7cba f771 9f3c e5bc d83a
00000040: 0849 023a fa4e 363c b842 c1bc 625e 90b9
00000050: 368b c1ba 50af 89b8 3104 cbbc d18c 0abc
00000060: 692f 0c3b 78ff 5e3a 5560 d9bb 2e7a 25bb
00000070: 52b7 b13b b9ec 30bc 534e 21bc 0966 b0ba
00000080: 224c 153c 9993 a8bc 0396 3fbb 245c 4b37
00000090: b554 a8ba b692 92ba 2af9 c13b b42f f43b
000000a0: f780 843c 708b 093c 998b e03b fe18 8abb
000000b0: a443 c33c f5a2 cd3a 1a63 16bc e5b1 dd3b
000000c0: 131c b2bb f35c 23bc c7d9 d33a 958d 483c
000000d0: e1c3 bfb8 e29d 8eb9 bd33 31bc 9eda 5eba
000000e0: c66f 9eba 7e3d 363c 466d 9a3c db79 603a
000000f0: de75 9db9 5d43 103d 0f1a 89bb 1340 f33b
00000100: ff1a 0ebc e118 3cbd 6ce6 d93c 3338 52bb
00000110: e7d7 123d 3214 62bb fbaf f4bb d47b 71bc
00000120: ca4d 863b d30a 4fbb a609 b03c d00d 873b
00000130: 33e4 263c daa3 a6bb 2793 c6bd 5b55 8b3a
00000140: 2588 3c3b 20d5 3f3d 8888 d73d e205 c1bb
00000150: fc26 d4bb 667e 103d c575 d73c 2824 1e3b
00000160: 5e85 813b 6d27 893b ce3b 7f3c 2582 6e3a
00000170: c391 8e3b e5c1 1dbd c0a7 083d e1ce 3e3c
00000180: f4fe 8d3c 4c54 9f3c 98e1 99bc 5cd5 a13d
00000190: 97ca bebb 1e63 b33b a38b 763c fd55 febb
000001a0: d0b0 9ebb 827e 413d a734 6b3b a453 393b
000001b0: 9e0a 593c 990d 203c 4ea4 1dbc 6c0e fcbc
000001c0: eb71 bcbb f4a5 373c 7e34 cfbb 8ce1 04bd
000001d0: 1939 7d3a 4e3d bdbb 675d 21bb aa37 423b
000001e0: 6c6d c13b b376 c23c 2b26 8fbd f002 a8ba
000001f0: 5817 333b 8db1 7c3b 62c7 c7ba 4db7 9cba
00000200: 5b16 803c 73a6 fd3c 9ee2 b63a fc9d 7c3c
00000210: c101 2abc de37 90bc f1fd 35bd 3ef7 c13c
00000220: b244 643b 05b4 543a eacf 5aba 0224 74bc
00000230: a268 55bc d5a6 44ba 025e 2dbd 351c 8639
00000240: cf1b 9e3b 0b45 713c b2c2 b83b 7f4f 33bc
00000250: 0295 c2bb b79b 3f3d cd6d 89bc b09b d5bb
00000260: 3291 6c3c 26aa 8bba e090 a93b da17 5cbc
00000270: 2f3d d83a 2550 12bd 7189 a33c 7f1a 533d
00000280: ee35 b63c 48b5 bd3c c546 9e3c 29f2 a93d
00000290: 4736 a8bb 2f6a 653b 8c30 203c 0460 273c
000002a0: 6d52 a4bc e833 8f3d bd3a 053c 4676 c4ba
000002b0: aa34 a13d 30fa a93b d42e 7e38 89e4 593b
000002c0: 8379 303c 9c85 d8bb 2f3f 18bc d1a7 9abd
000002d0: 72fb 0ebb 0f91 3b39 6930 e83b faf7 813b
000002e0: 0300 0d3c b7da 9eba af63 8d3d cd4b 63bb
000002f0: 1121 23ba 71aa 273d 5adf d5bc 3f1c b1bc
00000300: 7470 aabb 043c 003e 959b e43b 618e 6b3b
00000310: 1baf 263d 390b 90bc e9be e3bb 5a69 2abd
00000320: 4a4a c03a 5e23 1dbb dce0 88bb ef5c 84bc
00000330: 936b 40bc f630 33bc f640 49bd 76f8 c53b
00000340: 5297 123c a5fb ea3d 3cfc 023d 7cf6 0a3c
00000350: 2716 a7bc 4436 c33d 8489 3d3b 0f10 87bb
00000360: 3f7a 963c 43df b43b 57ee 943b d28d edbb
00000370: 2c21 03bc cba8 cbbd aace cb3c 1bce 873d
00000380: e606 75ba f99e 8a3c e137 b0bc d398 4c3e
00000390: 9098 8bbc ad81 833c 576b f33c c551 c7bc
000003a0: 9e5a 96bc 4446 203e 5b3a 51bd c6d7 2ebc
000003b0: 7014 41bc 3ac0 803c 70a4 f8bc 00dd ce3b
000003c0: e021 adbb 7b8f b83a f1fd 83bc f37c cdbc
000003d0: 80a7 49b9 e798 89bb 4dc7 52bc 5f2b 253c
000003e0: 16b1 313c c11b 54bc bf55 9bbb fb1b eebb
000003f0: 6020 b03b a7ab cdbc 0dcc e3bc bf9c ffba

rnn.weight_hh_l1 f4 [256, 64]
-9.8877215e-05 -0.0023415906 -0.0010933655 -0.0024969047 -0.015384868 0.013545547 0.00072120817 0.0016625002
0.0002019523 0.00014880928 0.013078639 -0.012635972 0.0019997049 -0.015998153 0.0017240086 -8.368392e-05
-0.016229315 8.097018e-05 0.0013567547 -0.0017772838 0.0005369998 0.00017292345 -0.0010865362 0.005236813
0.048539907 0.001423647 -4.5279663e-05 0.022490041 -0.0078078657 0.012728868 -0.0012634081 -0.0008152525
0.00024406685 0.0022270721 0.0028096 -0.005925632 0.00013042602 0.012072688 -1.3230268e-05 -0.0031138156
0.0007555213 -0.0059016687 0.014140445 -0.008120222 -0.010310266 0.01356778 -0.00011008196 0.0025313017
0.009762283 0.00035191647 0.018815475 -0.015533794 -0.0022269494 -0.0002150427 -7.142535e-05 0.02696384
-0.0029431244 -0.009187593 0.0001977657 0.000921138 -0.0010555675 0.010642653 -7.637733e-05 0.0003734846
-8.028882e-05 0.0022688443 -0.009898364 -0.019455181 -0.047893785 0.031192966 -0.0049589733 0.0014294435
0.00086933805 -8.872223e-05 -0.0012120141 -0.04464769 0.029902764 0.0012196788 0.01554637 0.005483271
-0.0020746628 0.00052346423 0.0028977115 -0.005595818 0.0033001055 0.008561636 -0.004945305 0.00690652
0.0812891 -0.0030924438 0.0016511291 0.06964319 -0.015024605 0.016939485 -0.0048602014 -0.0061584897
-0.0047462657 0.0115858205 0.023035433 -0.015414057 -5.2418673e-05 0.039175842 -0.0013587018 -0.01694371
0.0022138504 -0.008567842 0.06895494 -0.013336894 -0.00028375557 0.012356172 -0.002944244 0.012636368
-0.012951035 0.0014093942 0.022642493 -0.04655037 -0.016186832 -0.00041101195 0.00062352483 -0.0003139
-0.0023857686 -0.019543935 -0.0009368365 0.0033123207 -0.0033660503 0.02618288 0.00034936867 0.0007647494
-0.005663858 0.00537938 0.007894374 0.0013812449 -0.012216001 -0.04399383 0.00063111295 -0.0065117124
0.0032868665 0.001715057 -0.010127649 -0.02980656 -0.087864436 -0.018196475 -0.00013967288 -0.0053031575
0.015234632 -0.0021672356 0.005392241 -0.007828932 0.0011162476 -0.003119888 -0.00087877293 0.0062064105
0.050795246 0.0053810985 -0.003187876 -0.018755404 0.021641288 0.054963894 -0.013164716 -0.001598155
-0.0045928373 0.00052433315 0.00026800114 -0.022225814 0.0036076533 0.077679306 -0.001901517 -0.016878754
0.003356055 -0.01751243 -0.027779466 -0.048767276 0.044238213 -0.008109267 -0.009829088 0.0038255793
0.026281608 0.00029022657 0.033748094 -0.012009648 -0.014835342 -0.0024284753 -0.00026681318 0.1048636
-0.0063607367 -0.032099277 0.00020089552 0.0046953605 -0.008598924 0.0021371308 -0.005346481 0.0030891793
-0.005358364 -0.025832325 -0.01747677 -0.04667714 0.0058399937 -0.011890875 -0.0054828925 0.008817205
0.005826099 0.00084445864 -0.0038281917 -0.03949034 -0.05460419 -0.008135899 0.033570472 0.006428607
0.04917205 0.00010320181 0.007587472 -0.020140884 0.00946401 0.017077733 -0.017112454 0.026681624
0.07430344 0.005054965 0.004073763 -0.02401685 0.12518096 -0.016000368 -0.023615956 -0.018981382
-0.014227571 0.015490549 0.030515337 -0.024101732 0.002661159 -0.00012820393 -0.0037309302 -0.05299197
0.008040237 -0.037597697 0.00095048134 0.010898505 0.027632112 0.04451064 -0.012634259 0.025253825
0.0037453752 0.0047186487 0.0045077866 -0.021010723 -0.039120793 -0.003575974 -0.00056305993 0.046919364
0.005765139 -0.05674695 -0.0018924844 0.010795106 -0.014434052 -0.032890573 -0.0019476261 0.0059603853
00000000: 4d5c cfb8 5f75 19bb 424f 8fba 1ca3 23bb
00000010: d010 7cbc 24ee 5d3c 760f 3d3a 40e8 d93a
00000020: 28c3 5339 b009 1c39 ca47 563c 1c07 4fbc
00000030: 7b0d 033b 8f0e 83bc 21f8 e13a 767f afb8
00000040: 57f3 84bc 89ce a938 22d5 b13a c0f3 e8ba
00000050: 72c5 0c3a c952 3539 1b6a 8eba 9299 ab3b
00000060: c8d1 463d ab99 ba3a abea 3db8 093d b83c
00000070: 20d9 ffbb be8c 503c f198 a5ba abb6 55ba
00000080: 32ec 7f39 12f4 113b 4421 383b ce2b c2bb
00000090: f8c2 0839 86cc 453c 92f7 5db7 2811 4cbb
000000a0: 2d0e 463a c962 c1bb 53ad 673c ae0a 05bc
000000b0: 64ec 28bc 654b 5e3c cddb e6b8 32e4 253b
000000c0: fcf1 1f3c 6e81 b839 e922 9a3c 7481 7ebc
000000d0: 03f2 11bb 167d 61b9 31ca 95b8 45e3 dc3c
000000e0: 6fe1 40bb 8f87 16bc 535f 4f39 8678 713a
000000f0: f85a 8aba 865e 2e3c c42c a0b8 41d0 c339
00000100: bb60 a8b8 e4b0 143b bf2c 22bc 7960 9fbc
00000110: 462c 44bd 6488 ff3c e27e a2bb 2a5c bb3a
00000120: 4ae4 633a 6210 bab8 72dc 9eba 7fe0 36bd
00000130: a4f6 f43c a1dd 9f3a 34b6 7e3c 03ad b33b
00000140: 11f7 07bb 1739 093a 88e7 3d3b 205d b7bb
00000150: 9546 583b 1b46 0c3c 3a0c a2bb 1750 e23b
00000160: e67a a63d 99aa 4abb b36a d83a 17a1 8e3d
00000170: c329 76bc adc4 8a3c 5342 9fbb 28cd c9bb
00000180: 9086 9bbb 74d2 3d3c ceb4 bc3c 3e8b 7cbc
00000190: 1fdc 5bb8 d976 203d 7816 b2ba 89cd 8abc
000001a0: 3f16 113b 2260 0cbc 3f38 8d3d fd82 5abc
000001b0: 07c5 94b9 8b71 4a3c 38f4 40bb c508 4f3c
000001c0: 9430 54bc 6cbb b83a c07c b93c 9aab 3ebd
000001d0: 3f9a 84bc 177d d7b9 0b74 233a f292 a4b9
000001e0: 8e5a 1cbb 9a1a a0bc 0996 75ba 8513 593b
000001f0: f498 5cbb 7b7d d63c 782b b739 7779 483a
00000200: e297 b9bb 8345 b03b 6857 013c e30a b53a
00000210: 9f25 48bc e032 34bd 4671 253a 3460 d5bb
00000220: 7868 573b c3cb e03a 70ee 25bc e32c f4bc
00000230: 45f2 b3bd c610 95bc 2775 12b9 1cc6 adbb
00000240: ae9a 793c 2e08 0ebb 65b1 b03b ec44 00bc
00000250: 0e4f 923a 0977 4cbb 745d 66ba 255f cb3b
00000260: ad0e 503d ed53 b03b afeb 50bb efa4 99bc
00000270: 1249 b13c d221 613d d2b0 57bc 2f79 d1ba
00000280: 837f 96bb 6773 093a 8182 8c39 e912 b6bc
00000290: 616e 6c3b 5416 9f3d 533c f9ba 5045 8abc
000002a0: 42f1 5b3b 3a76 8fbc c391 e3bc 32c0 47bd
000002b0: 2133 353d bbdc 04bc 2f0a 21bc 92b6 7a3b
000002c0: 874c d73c 8d29 9839 713b 0a3d 1dc4 44bc
000002d0: ef0f 73bc 0e27 1fbb 0fe3 8bb9 bac2 d63d
000002e0: ba6d d0bb 887a 03bd 7ba7 5239 8adb 993b
000002f0: 80e2 0cbc 1b0f 0c3b 8931 afbb d473 4a3b
00000300: 3795 afbb 509e d3bc 712b 8fbc 8730 3fbd
00000310: 6b5d bf3b f2d1 42bc d6a9 b3bb 0a76 103c
00000320: dce8 be3b a95e 5d3a 66e2 7abb 9fc0 21bd
00000330: a5a8 5fbd 6f4c 05bc 3181 093d 10a7 d23b
00000340: a268 493d 0d6e d838 54a0 f83b 7ffe a4bc
00000350: ef0e 1b3c 9ae6 8b3c 6b2f 8cbc 6c93 da3c
00000360: 672c 983d 1fa4 a53b 337d 853b fcbe c4bc
00000370: 702f 003e 3413 83bc 4076 c1bc d87e 9bbc
00000380: c21a 69bc 12cc 7d3c 4dfb f93c ff70 c5bc
00000390: d766 2e3b 7b6e 06b9 9f82 74bb 1c0e 59bd
000003a0: 33bb 033c 0b00 1abd b929 793a a58f 323c
000003b0: bd5c e23c ca50 363d ecff 4ebc 1ce1 ce3c
000003c0: f874 753b e59e 9a3b 0eb6 933b ae1e acbc
000003d0: 203d 20bd e35a 6abb 509a 13ba 852e 403d
000003e0: 7ee9 bc3b 7d6f 68bd 3d0d f8ba f5dd 303c
000003f0: cd7c 6cbc 44b8 06bd 7d47 ffba 564f c33b

rnn.bias_ih_l1 f4 [256]
-0.17708556 -0.031283636 0.012267599 -0.050339233 -0.07596306 -0.04074638 -0.14591314 0.03247155
-0.09969159 -0.1297411 0.115818605 0.021531414 0.14646907 0.039881863 -0.014510212 -0.023450572
-0.00038885037 -0.13229516 -0.0841482 -0.07986971 -0.2009992 -0.04737643 0.010800865 0.0060919495
0.64395607 -0.13643242 -0.15766038 -0.025619933 0.006699727 -0.09477163 -0.03183908 -0.14819467
-0.018253297 -0.10204174 0.18175529 0.045286093 -0.18266964 0.0008472558 -0.1903999 0.09801766
-0.13322808 0.0721622 0.12720674 0.11646853 -0.001026211 0.25318632 -0.003061647 -0.07749792
0.017569745 -0.012380744 0.12861119 -0.037045427 0.00071767985 -0.12813255 -0.1445205 0.21800658
-0.053758748 0.53409696 -0.13279627 -0.1014373 -0.1567863 0.06172005 -0.1327973 -0.10179307
-0.07960458 -0.12155183 -0.11773232 -0.049800422 0.0010587657 0.091104485 -0.08013919 -0.120125
-0.07216937 -0.09750517 -0.10057046 -0.051003553 0.038321644 -0.11909651 -0.09361044 -0.02022487
0.09821347 -0.098983824 -0.13441843 -0.045361575 -0.122371085 -0.133448 -0.09916846 -0.15223451
-0.18907401 -0.13612497 -0.11940067 -0.12961479 0.04342054 -0.13387662 0.03292522 -0.11993674
-0.13451964 0.008731579 -0.16636004 -0.05698605 -0.11812565 -0.05669962 -0.030925862 0.0037429074
-0.05274058 0.038701274 -0.01988017 -0.037911136 -0.0806364 -0.097406946 0.046450347 -0.069611974
-0.066549085 -0.022776574 0.083683446 0.030973872 0.031422794 -0.11447421 -0.11127613 -0.12867399
0.0080288 -0.080988 -0.07307867 0.00946486 -0.07799711 -0.09192312 -0.09926173 -0.090370476
-0.039155014 0.09077619 -0.050661493 0.021975916 0.03801532 -0.020809263 0.029602045 -0.055587687
-0.006778314 0.002139727 -0.09808605 0.1273916 0.018205617 0.10488527 0.048817623 0.026362736
0.110436596 -0.09090311 0.08659621 0.0011898854 -0.07134861 -0.01440031 0.031977806 -0.07162148
-0.15016782 -0.11104113 -0.0065703155 -0.124972746 0.07148594 -0.07026874 -0.09584677 -0.07175826
0.0075143627 0.045143805 0.10424034 0.017889753 0.02105737 -0.11266753 -0.020302236 0.09225228
-0.03036369 0.046984244 -0.048589908 0.06961389 -0.10210741 0.021538408 -0.10178788 -0.083566606
0.075550824 -0.022474345 -0.006816229 0.030929621 -0.08578242 0.029397838 -0.04423881 -0.069175154
-0.096916884 -0.041974343 0.05421667 0.04048393 0.03334311 -0.062069383 0.056106124 0.013047825
-0.118801564 -0.07499714 -0.05587844 0.00837912 0.11538655 -0.04421025 -0.12672186 0.0022469189
-0.09853485 -0.1288509 -0.023483906 -0.011662045 0.17081152 0.036427822 -0.03641485 0.04553346
-0.027736254 -0.21616276 0.07023816 -0.03778416 -0.11270351 -0.024434485 0.04027946 -0.055712175
0.60420847 -0.09830353 -0.17741264 -0.048288416 0.14260364 -0.059664432 -0.07466243 -0.05509342
0.042404305 -0.06849338 0.081699274 0.030717112 -0.18542345 0.10041252 -0.08166858 -0.03379752
-0.11205784 -0.0026561704 -0.09135581 -0.024896316 0.049250495 0.2531846 -0.02323678 -0.11060669
-0.025003169 -0.020168955 0.073800266 -0.012928441 0.051189434 -0.17070976 -0.14525448 0.23908332
-0.07191017 0.40905532 -0.08602285 -0.10389685 -0.10565781 0.051150564 -0.07078691 -0.13341995
00000000: eb55 35be 4523 00bd 0afe 483c 8330 4ebd
00000010: 8592 9bbd ade5 26bd 416a 15be e300 053d
00000020: 1b2b ccbd dada 04be 4e32 ed3d a662 b03c
00000030: fdfb 153e 2a5b 233d 3dbc 6dbc 6a1b c0bc
00000040: 9dde cbb9 6278 07be e455 acbd bb92 a3bd
00000050: bcd2 4dbe ca0d 42bd 1cf6 303c fa9e c73b
00000060: 4eda 243f f1b4 0bbe b971 21be e5e0 d1bc
00000070: 6289 db3b a117 c2bd b269 02bd 58c0 17be
00000080: f087 95bc 43fb d0bd 0f1e 3a3e e97d 393d
00000090: c00d 3bbe 601a 5e3a 31f8 42be 7cbd c83d
000000a0: f16c 08be c7c9 933d 7c42 023e 0d87 ee3d
000000b0: ed81 86ba a3a1 813e eaa5 48bb 3bb7 9ebd
000000c0: 6dee 8f3c 9bd8 4abc a7b2 033e f2bc 17bd
000000d0: ae22 3c3a 2e35 03be 2ffd 13be 1e3d 5f3e
000000e0: 2232 5cbd 94ba 083f bffb 07be 5cbe cfbd
000000f0: 968c 20be 2ace 7c3d 04fc 07be e378 d0bd
00000100: ba07 a3bd 2af0 f8bd a51d f1bd 87fb 4bbd
00000110: 48c6 8a3a fd94 ba3d 0420 a4bd 1904 f6bd
00000120: 89cd 93bd cab0 c7bd e3f7 cdbd 1ae9 50bd
00000130: 28f7 1c3d dfe8 f3bd d5b6 bfbd a0ae a5bc
00000140: 2524 c93d 08b8 cabd fca4 09be 0fcd 39bd
00000150: b19d fabd 98a6 08be d518 cbbd 5de3 1bbe
00000160: 9e9c 41be 5864 0bbe 5788 f4bd bdb9 04be
00000170: bcd9 313d f416 09be 98dc 063d 65a1 f5bd
00000180: 84bf 09be e60e 0f3c 495a 2abe 346a 69bd
00000190: dceb f1bd dc3d 68bd 3c58 fdbc 914b 753b
000001a0: 8206 58bd 3a85 1e3d bddb a2bc b548 1bbd
000001b0: b224 a5bd 4b7d c7bd b842 3e3d b990 8ebd
000001c0: e34a 88bd f095 babc 3a62 ab3d ebbc fd3c
000001d0: 30b5 003d 7471 eabd bde4 e3bd 1dc3 03be
000001e0: 3a8b 033c 09dd a5bd 45aa 95bd 8012 1b3c
000001f0: f3bc 9fbd 3042 bcbd bc49 cbbd 2814 b9bd
00000200: 0261 20bd dee8 b93d 6d82 4fbd d606 b43c
00000210: f4b5 1b3d 3078 aabc fd7f f23c eaaf 63bd
00000220: 9e1c debb a93a 0c3b 57e1 c8bd f272 023e
00000230: f223 953c 17ce d63d fdf4 473d aaf6 d73c
00000240: 952c e23d 692b babd 5b59 b13d eef5 9b3a
00000250: 381f 92bd 47ef 6bbc 29fb 023d 48ae 92bd
00000260: 98c5 19be 8869 e3bd cd4b d7bb b6f1 ffbd
00000270: 3867 923d 0fe9 8fbd 504b c4bd fff5 92bd
00000280: 0b3b f63b b6e8 383d f67b d53d 888d 923c
00000290: 8180 ac3c 3cbe e6bd e050 a6bc c3ee bc3d
000002a0: 46bd f8bc 8d72 403d 3606 47bd ba91 8e3d
000002b0: b11d d1bd 5171 b03c 2a76 d0bd f824 abbd
000002c0: 64ba 9a3d 1e1c b8bc ac5a dfbb 1e60 fd3c
000002d0: b2ae afbd bcd3 f03c c133 35bd b4ab 8dbd
000002e0: 5c7c c6bd 4aed 2bbd 4d12 5e3d 7ad2 253d
000002f0: c992 083d 773c 7ebd 89cf 653d 8bc6 553c
00000300: 3c4e f3bd 1a98 99bd cbe0 64bd 9448 093c
00000310: c94f ec3d cf15 35bd 60c3 01be 0b41 133b
00000320: a4cc c9bd 7ef1 03be 5261 c0bc 2912 3fbc
00000330: 37e9 2e3e 5735 153d bd27 15bd 4b81 3a3d
00000340: 2437 e3bc c559 5dbe 06d9 8f3d 90c3 1abd
00000350: 19d1 e6bd d42a c8bc 13fc 243d 7332 64bd
00000360: 68ad 1a3f 5c53 c9bd a9ab 35be 13ca 45bd
00000370: b006 123e b162 74bd 9ee8 98bd a3a9 61bd
00000380: 23b0 2d3d 4246 8cbd f351 a73d 74a2 fb3c
00000390: a5df 3dbe 14a5 cd3d db41 a7bd 456f 0abd
000003a0: 957e e5bd 2513 2ebb c118 bbbd 5cf3 cbbc
000003b0: e3ba 493d 69a1 813e 0f5b bebc c385 e2bd
000003c0: 72d3 ccbc 5d39 a5bc 9824 973d d0d1 53bc
000003d0: 03ac 513d 8ace 2ebe 97bd 14be 42d2 743e
000003e0: a445 93bd b36f d13e bf2c b0bd dfc7 d4bd
000003f0: 1f63 d8bd 4183 513d baf8 90bd 3d9f 08be
