checkpoints/TP_LSTM_L2_bs16_trainNon0baseline_bsfirst_pos1_downsp_rs_epoch1000/TP_LSTM_L2_bs16_epoch11_best0.17430939643006577.pt (torch, 206215 bytes, 9 tensors)

rnn.weight_ih_l0 f4 [256, 3]
000000 94 f9 b0 3d 10 38 4b 3d 13 73 ef bc d2 91 e3 3d
       0.08641353 0.049614012 -0.029229676 0.111117974
000010 64 c5 79 3e db 67 78 3e cd 64 ba 3d 15 28 96 3e
       0.24391705 0.24258368 0.091012575 0.29327455
000020 ca d2 09 3e 93 21 14 3d cf 52 e5 3d 43 d8 f0 3c
       0.13459316 0.03616483 0.11197435 0.029399997
000030 2e 49 32 3d 35 8b b4 bd 10 60 02 bd 55 16 44 3d
       0.04352682 -0.08815614 -0.031829894 0.04787286
000040 66 48 91 3d 61 3f 9a 3c d9 69 30 3e 21 8a 0e 3e
       0.07093887 0.01882905 0.17227878 0.1391988
000050 5d 5a 0c bd 75 c9 f0 bc a8 96 48 3d 6f 8a ed bc
       -0.034265865 -0.029392937 0.048971802 -0.028996674
000060 7d a3 6b 3c 5b e8 0a 3e a9 71 f1 3d 71 62 2e 3d
       0.01438224 0.13565199 0.11789257 0.04257435
000070 86 e2 17 be ee 5e 40 3d 1d 9d 60 3c ec d7 3b 3c
       -0.14832506 0.046965532 0.013709334 0.011465054
000080 b1 24 17 3e f7 99 ce bd 58 a9 09 be 54 05 1e bd
       0.1476009 -0.1008796 -0.13443506 -0.0385793
000090 d3 5e 9d 3e f0 16 f1 3d dc 8e e8 bc f1 d9 13 be
       0.30736408 0.11771953 -0.028388433 -0.14438607
0000a0 22 76 d9 3d 63 74 dd bd d5 85 cf 3d 80 b1 25 3e
       0.10618235 -0.10813215 0.10132948 0.16180992
0000b0 31 e9 49 3d 61 59 e7 3d 61 26 71 3d 23 a5 80 3d
       0.049294654 0.112963445 0.05887449 0.06281497
0000c0 70 44 fb bb b6 05 9c 3b 82 4b ea bd 84 59 6c be
       -0.0076680705 0.004761423 -0.11440183 -0.23081023
0000d0 05 35 11 be 9a 44 e8 bd 7d 75 1e 3e 1e a1 9d 3e
       -0.14180382 -0.1134121 0.15474506 0.30786985
0000e0 9f 94 78 3e f3 37 df bc 59 50 0c 3e eb 3f 56 3d
       0.24275444 -0.027248358 0.13702525 0.05230705
0000f0 cc b0 ee bc 69 bc 16 3e 09 23 cf 3d 17 39 83 3e
       -0.029137038 0.1472031 0.10114104 0.25629494
000100 35 bf 6d 3c 3b bb e4 bd 58 03 b4 3d 6c 9d 3a 3e
       0.014510919 -0.11168524 0.087897 0.18224114
000110 08 7d 33 bd b2 81 68 bc 8a 9e 1d 3e 98 ec 06 bd
       -0.04382041 -0.014191078 0.15392509 -0.032940477
000120 6b c4 c8 3d 8c 9f 7d 3c 06 81 1c 3d 83 9e a0 3d
       0.09803089 0.0154799335 0.038208984 0.07842734
000130 55 c6 aa 3d a1 4d 8c 3d 11 14 a1 bc b1 2b 85 3e
       0.0833861 0.06850744 -0.019662889 0.26009896
000140 af 20 b1 3b 53 46 9a bd 1d fd a6 bd a6 1b be bd
       0.0054055075 -0.075329445 -0.08153746 -0.09282617
000150 8a 75 e8 3d e3 9a 04 3d 73 d0 c3 bd 3a ed d6 3d
       0.11350544 0.032374274 -0.09561243 0.10494466
000160 37 dc 1d bb 4c 8b 70 3d 77 fc cb 3d 32 1e 2b 3c
       -0.0024087557 0.058726594 0.09960263 0.010444211
000170 54 3f eb 3d 53 e6 c9 3d 34 a1 92 be de 10 45 bb
       0.11486688 0.09858384 -0.28638613 -0.0030069868
000180 d4 aa 8e 3d c5 a1 eb 3d 3d 8c 0f bd f3 f7 fe 3c
       0.06966177 0.115054645 -0.03504585 0.03112409
000190 8d 03 71 3e 56 80 20 3d d7 79 06 3e 94 c6 e7 3d
       0.23536511 0.03918489 0.13132416 0.11317173
0001a0 30 c9 4a bd f8 f6 97 3d 0d b5 72 3e 62 8b 21 3e
       -0.049508274 0.074201524 0.23701878 0.15775827
0001b0 74 36 17 3e b2 89 bf 3d db c1 7d 3d ac e3 f0 3d
       0.14766866 0.09352435 0.061952453 0.11762175
0001c0 a1 8c e0 3d d7 8a 55 bd 63 4f 06 3e 81 ab 9f 3e
       0.10964323 -0.05213436 0.13116221 0.31185535
0001d0 8c 73 c0 3d a0 e4 13 3e 1d 49 9f 3c cc 71 4c bd
       0.09397039 0.14442682 0.019444043 -0.049913213
0001e0 ce 2d c2 bb 0c 83 e1 3d ee 9a 1a 3e a7 c5 15 be
       -0.0059258705 0.11011323 0.15098163 -0.1462618
0001f0 3a 43 b6 bc 9e 20 d7 bd c1 8d 65 bc a9 fa 87 3e
       -0.022248853 -0.10504268 -0.014010848 0.26558426
000200 5e df 21 3e 72 5e 03 3e f4 eb a5 bd 33 5e bb 3d
       0.15807864 0.12828997 -0.08101645 0.091488265
000210 6e 32 3d 3e 7d 06 68 3e 1c 64 0f 3e 8e e5 07 3e
       0.18476269 0.22658725 0.14003032 0.13271162
000220 c5 9d 13 3e c6 80 20 3d 9d a1 ad bd fe db ca be
       0.14415653 0.039185308 -0.08478091 -0.39620966
000230 41 25 17 3d 77 80 ab 3c 18 31 6c bd 48 b7 4b 3d
       0.036900762 0.02093528 -0.057664007 0.049735337
000240 d3 84 f8 3d 39 7f 13 bd 0c 4b 90 3d 99 15 9d 3d
       0.12134709 -0.03601 0.07045564 0.07670135
000250 8c 18 3e 3e ef 78 db 3d 26 bd 7b bb 4c 2e 02 3e
       0.18564051 0.107164256 -0.0038412302 0.12712973
000260 dd f0 0e 3c 3f 58 07 3e 7e 6d 25 be a4 ef 17 3e
       0.0087244185 0.13217257 -0.16155049 0.1483751
000270 1a 39 e0 bc c2 df ca bc 3b 66 b9 3d be 5d 3b 3c
       -0.027370978 -0.0247649 0.09052702 0.011435924
000280 8e 14 8c bd d1 f9 85 3d 8c e0 c0 3d 0d 1c 51 3e
       -0.06839858 0.06541789 0.09417829 0.20420857
000290 eb 0a cf bc e9 80 5f 3d 74 53 ef bd 4e b8 e3 bc
       -0.02527376 0.054566298 -0.11685839 -0.027797844
0002a0 d0 a4 6e bc c2 8e 65 3a 80 2b 6f bd a3 57 d3 3d
       -0.014565662 0.00087569293 -0.058391094 0.1031945
0002b0 fb 47 07 3d d3 e2 10 3d 10 74 33 3e b2 37 96 3e
       0.03302763 0.035372566 0.17524743 0.29339367
0002c0 47 5b f8 3d 33 7d 19 3d 34 72 e8 bd 08 55 8e 3d
       0.12126785 0.037472915 -0.113499075 0.06949812
0002d0 cc 1d 89 3c b7 11 0e bc 1a 30 b4 bd db 9c 8f 3e
       0.016737841 -0.008671216 -0.08798237 0.2804936
0002e0 51 73 c1 3e 83 d8 a4 3e 44 49 83 bd d3 da 1e be
       0.37783292 0.32196435 -0.06410459 -0.15513162
0002f0 33 c0 98 bb 42 2c 2d bb ff da 13 3e dd 95 c7 bb
       -0.004661584 -0.0026424085 0.14439009 -0.006090863
000300 bd d8 a7 bd ad e1 82 3d 47 a2 1f 3d 64 9d 7b be
       -0.081956364 0.063907005 0.03897312 -0.24571759
000310 38 e7 2f 3e 1f 89 ca 3d c2 7c e7 3d f9 57 d6 bb
       0.17178047 0.09889435 0.113030925 -0.006541249
000320 61 70 c2 bc 8a 75 93 bd 05 ac 17 3e fa 09 55 bd
       -0.023735227 -0.07200153 0.14811714 -0.052011468
000330 ff 0d bd 3d d9 a7 f7 bb d7 ae 5e bc 4c 58 ec 3c
       0.09231185 -0.007557851 -0.01359149 0.028850697
000340 96 60 42 3d df 84 80 3d 95 8a e5 3c a4 de 9e 3d
       0.047455393 0.06275343 0.028020183 0.07757309
000350 7d 3c 05 be dc 6d ed 3d fb ec 1a 3e d3 98 d5 3d
       -0.13011356 0.1159322 0.15129463 0.104295395
000360 07 b1 1c 3d 07 94 b1 bd 4c 45 89 bd 66 ba ab 3d
       0.038254764 -0.08670812 -0.067026705 0.08385162
000370 76 22 f7 bd 24 79 ab 3d 6f db 15 be 55 86 5d be
       -0.1206712 0.08372715 -0.14634489 -0.21633275
000380 d5 d0 6f 3d 55 9a b2 bd 01 d6 53 bd 39 06 cf 3d
       0.058548767 -0.08720843 -0.051717762 0.10108609
000390 66 57 5e 3d f4 c1 27 3d f5 2a a1 be e6 9a 5a be
       0.05428257 0.040956452 -0.31478086 -0.21348152
0003a0 56 08 55 3d 3f 0a dc bd 08 9a 5b be 64 a0 3c 3a
       0.052009903 -0.10744142 -0.21445477 0.0007195531
0003b0 30 10 41 be ff a0 94 3d af ec 03 3e 8d c9 fe bd
       -0.18853831 0.0725727 0.12883256 -0.124407865
0003c0 5d 34 c4 bd 33 93 39 bc 8a 59 3c 3d e0 92 08 be
       -0.095803 -0.011326599 0.04598383 -0.13337278
0003d0 ca de 6c be d0 fd fa bd 19 ca 92 be 9c 22 c7 bd
       -0.23131862 -0.12255442 -0.28669813 -0.09723398
0003e0 53 3d 09 be ae b7 02 3e 84 b5 0b 3e f1 6f 3a bd
       -0.134023 0.1276538 0.13643461 -0.045516912
0003f0 d4 dc ed 3c e3 b1 b4 3d 1c 42 ad 3c 29 07 9e bc
       0.029035963 0.08822992 0.021149687 -0.019290524

rnn.weight_hh_l0 f4 [256, 64]
000000 ce ef 51 bc ce 30 4c 3d d4 b9 c7 bd fe eb 25 3d
       -0.012813522 0.04985123 -0.09752241 0.040508263
000010 c5 d1 09 be 53 0f be 3d aa a6 ca 3d a3 3d 56 bd
       -0.13458927 0.092802666 0.0989507 -0.052304875
000020 f8 46 19 3d ce fb 40 bd b5 c2 a7 bd f7 8a a0 bd
       0.037421197 -0.04711514 -0.08191434 -0.078390054
000030 f4 2c a4 bd 65 26 07 bb e1 22 0d 3d d2 e9 6b 3b
       -0.08016387 -0.002062225 0.03445709 0.0035997522
000040 44 7b bc bd df 7e 20 3c 95 f0 a1 bd 63 b1 b9 bd
       -0.092031986 0.009795873 -0.079072155 -0.09067037
000050 24 20 03 3e 82 7a 4e 3d 8e 55 da bd 3e 37 40 bd
       0.1280523 0.0504098 -0.106608495 -0.046927683
000060 aa 5a 8c 3c 53 bc 60 3d 7b d8 03 3e 91 4f 91 3d
       0.017133076 0.0548671 0.1287555 0.07095254
000070 1d e0 94 3d 65 8d 26 bd 38 6b b0 3c 2f 32 c5 bd
       0.07269309 -0.040662188 0.0215355 -0.096287124
000080 2c 62 af 3b 63 01 13 3e 1e 95 cb 3d a4 a6 d9 3d
       0.005352279 0.14355998 0.09940551 0.10627487
000090 d6 38 2f bd 15 96 76 bc 2e e9 71 3d ba 2e b4 3d
       -0.042778812 -0.015050431 0.059060268 0.08797975
0000a0 b5 ca 03 be 5e 8d 7f ba b5 d4 f5 3c 34 2e 2a bd
       -0.12870295 -0.00097485434 0.030008653 -0.04154797
0000b0 da f2 1b 3d d6 6c 1c 3c 19 06 a3 bd db d5 77 3d
       0.0380734 0.009547433 -0.079601474 0.060506683
0000c0 76 1f d8 3d a1 cf 08 3e 39 e0 76 3d 40 9d 33 3d
       0.10552876 0.13360454 0.06027243 0.043851137
0000d0 80 14 eb 3d 5a 2a ce 3d 0e 43 11 bd da 87 18 3d
       0.114785194 0.10066672 -0.03546434 0.037238933
0000e0 e7 b4 ef 3c e6 d5 85 bd 3c f2 22 bd 37 b1 3e bc
       0.029261066 -0.065349385 -0.039781794 -0.011638931
0000f0 63 7a d6 bd f9 f3 3a bd ed f7 b0 3c de 43 a2 3d
       -0.10472562 -0.045642827 0.021602595 0.07923101
000100 7d f1 e5 39 b5 22 61 be f7 d0 56 3d ad 8a a5 bc
       0.00043858206 -0.21985896 0.05244538 -0.020207727
000110 ee ac 02 3e 6a 20 0b be f3 9a 02 bd bc f9 c7 3d
       0.1276128 -0.13586584 -0.031886052 0.0976443
000120 2d d8 6f bd 12 86 95 3d 76 65 b4 bd 33 b2 c4 3b
       -0.05855577 0.073009625 -0.08808415 0.0060026883
000130 e4 4e ad 3e 6c a8 b0 be 2c 27 8b 3d 8e 23 f4 3c
       0.3384925 -0.34503496 0.06794581 0.02980211
000140 de 6b e8 bc c7 13 aa 3e 4f bd 92 be 0f be 34 bd
       -0.028371748 0.33218214 -0.28660056 -0.044126566
000150 c3 ec cd bd ad 34 c8 bd 11 5b 9c bd 8a 5b e8 3d
       -0.10054924 -0.09775672 -0.07634557 0.11345585
000160 50 10 e1 bd fe 03 b4 bd af 9a c9 bd 98 44 2e be
       -0.109894395 -0.08789824 -0.09843957 -0.17018354
000170 42 fc c3 3d b0 12 81 3d 68 eb 6c bd fb ce f9 3d
       0.09569599 0.063023925 -0.05784169 0.121976815
000180 3d d3 0b bd 12 fe 89 3d 5d f6 81 ba e9 c9 d3 bb
       -0.034137 0.06737913 -0.0009915341 -0.0064632786
000190 75 8c be 3b 95 b7 03 3e 97 36 af 3d 53 90 fc ba
       0.0058150836 0.12863 0.08555334 -0.0019269086
0001a0 91 fb 97 3c 8d 2d f7 3d 71 79 e3 3d a1 f1 f2 bb
       0.018552573 0.12069235 0.111071475 -0.0074140583
0001b0 a8 f8 b6 bd 41 0e 9e bc 72 04 20 be 6a 54 d4 bd
       -0.08934146 -0.019293906 -0.15626696 -0.10367663
0001c0 58 5a bc bd 7e b5 f6 bd f8 7c e6 bc 28 72 52 bd
       -0.09196919 -0.12046336 -0.028135762 -0.0513784
0001d0 c0 6e 9e 3d 74 11 aa bd b8 e7 d0 3d 09 a8 ea 3d
       0.07735968 -0.0830411 0.10200447 0.114578314
0001e0 b0 6d 7d bc d8 cf 80 3d 00 b3 e6 3d 75 9f 98 3d
       -0.015468046 0.06289643 0.1126461 0.07452289
0001f0 a5 ce df 3d 09 b0 23 3e f3 a2 17 bd 82 d4 7e bd
       0.10928086 0.15985121 -0.037020635 -0.062214382
000200 82 8d 86 bd d2 a1 b8 3d 84 8f df bc ae 53 8c 3d
       -0.06569959 0.0901524 -0.027290113 0.06851898
000210 51 5d 5d be 01 45 46 3d 84 f4 c6 bd ec d6 e2 bd
       -0.21617629 0.04840565 -0.097146064 -0.11076149
000220 41 8b db 3d af f4 86 3d 22 b1 fb bd 0d db 4e bd
       0.1071992 0.065896384 -0.12289645 -0.05050187
000230 b7 c8 9e bd 79 5a 51 bd 01 a9 9b 3d 3b b6 00 3d
       -0.07753127 -0.051111672 0.07600594 0.03142379
000240 5a bd 07 3d 95 eb a1 3e c3 4d a6 bc 0d 88 03 3e
       0.033139564 0.31625047 -0.020300752 0.12844868
000250 94 a3 3a 3e 20 c4 30 3d b0 a3 7c 3c 8e a0 2e 3d
       0.18226463 0.04315579 0.0154198855 0.042633586
000260 8f 5c a6 3d c6 3d 84 bc 3b 54 c2 bd cd 31 54 3e
       0.08123123 -0.016142737 -0.09488722 0.20722122
000270 d7 f0 e1 bc e8 72 63 bb 09 ac a8 3d 2a d8 18 bc
       -0.027580662 -0.003470594 0.08235938 -0.009328881
000280 72 ce f7 3c 83 03 29 3e 8d 64 88 3d 79 00 0f be
       0.030249808 0.16505246 0.066598035 -0.13965024
000290 90 06 65 3d 4c 4f 52 3d c8 54 04 3d 63 84 0d 3b
       0.05591446 0.051345155 0.032307416 0.0021593801
0002a0 ce d6 d9 bc 3c ec f9 3d bb 95 15 3d c6 74 1f bc
       -0.026591685 0.12203261 0.036519747 -0.009732431
0002b0 f7 46 eb bd 7d d3 0b 3e c8 81 35 bd 4a 61 fe bc
       -0.11488145 0.13654895 -0.044313222 -0.03105225
0002c0 ff 2b 3c 3e 61 fd ec 3c 01 ec 98 bd cb 2a 2c 3e
       0.18376158 0.028929414 -0.07466889 0.16813199
0002d0 02 e0 b5 3c ed ea b6 3d 39 11 44 3e 01 95 11 be
       0.022201542 0.08931527 0.19147195 -0.14216997
0002e0 f3 99 b2 3b 57 df 6c 3d 05 74 08 be 11 92 11 3c
       0.005450481 0.05783018 -0.13325508 0.008884923
0002f0 fd 27 a1 3d 4f 9b 8a 3d c3 bc 6f bd a3 fe a4 bd
       0.07868955 0.06767904 -0.058529627 -0.080563806
000300 58 11 53 bc b9 45 d5 bd cc 9b b6 bd 38 b8 dd bd
       -0.012882553 -0.10413689 -0.08916435 -0.108261526
000310 15 4d fc 3d 02 b4 e0 3d 11 8f 17 3d 57 2a 45 bd
       0.1231939 0.10971834 0.037001673 -0.04813608
000320 9a e9 fe 3d a1 ae b8 bc 93 80 f1 3d 22 f3 ba bb
       0.124469 -0.022544207 0.11792102 -0.005705253
000330 13 56 af bd 6b cf 3a bb 66 cf 9d bd f3 dc 02 be
       -0.08561339 -0.0028504978 -0.07705574 -0.12779598
000340 33 ae 22 3d 94 d2 2a bd 26 03 ce 3d d6 a5 bb 3d
       0.03971691 -0.04170473 0.10059194 0.0916249
000350 27 29 24 bc d2 71 8e 3d e6 60 2d 3d cd 55 bf 3d
       -0.010019577 0.06955303 0.042328738 0.09342537
000360 5e dd a4 bd ae 15 a7 bc 49 1d d4 bc 5f 27 d9 3d
       -0.08050035 -0.02039608 -0.02589287 0.106032126
000370 34 3a fa bd f7 e9 7a bd 34 2b f5 3c d8 8e dd 3d
       -0.122181326 -0.061258283 0.029927827 0.10818261
000380 c2 53 ab 3d e3 5a cf bd 86 0e b0 bd de 46 f2 3d
       0.08365585 -0.10124757 -0.0859652 0.11829923
000390 47 88 e2 3c 8d e9 cd bd 93 f9 69 bd bd 5d 29 3d
       0.027652873 -0.10054312 -0.05712278 0.04134916
0003a0 18 aa 0b bd 5f 70 e6 bd 06 33 b8 bd 6c 56 20 bd
       -0.03409776 -0.11251902 -0.08994107 -0.03914492
0003b0 93 87 b9 bc d5 19 5c 3d d0 b6 95 3d 96 04 9a bd
       -0.022647655 0.053735573 0.07310259 -0.07520406
0003c0 ae 5f b5 bc 31 4c a5 bd 71 91 c0 3d 99 69 45 3e
       -0.02214035 -0.08071173 0.09402741 0.19278564
0003d0 8d 29 03 3e 74 cc 44 3d 60 b1 c3 bc d9 04 2a bc
       0.12808819 0.048046544 -0.02388829 -0.010377132
0003e0 6c ca 3f 3d 7a 0a ec bd 7b 5d 24 bc 68 aa eb bd
       0.046823904 -0.11525436 -0.010032053 -0.11507112
0003f0 4b a7 06 be 79 70 a6 bc fe 06 34 bd 45 e6 b9 bd
       -0.13149755 -0.020317303 -0.04395198 -0.090771236

rnn.bias_ih_l0 f4 [256]
000000 0e 7a 9f 3d e4 f6 a8 3e 01 6e aa 3e 0f 40 a4 3d
       0.07786952 0.33000863 0.3328705 0.08020031
000010 8e de 89 bd d7 ee 6c 3d 24 72 e3 3c 70 d3 10 3e
       -0.06731902 0.057844963 0.027764387 0.14143157
000020 09 31 1f 3e d1 14 a6 bb 9d 9d e8 3d 65 2f 5d 3d
       0.15546049 -0.0050683995 0.11358187 0.054000277
000030 6b 9a 96 3e e2 11 e4 3d 05 1f 9e 3e de 44 02 3e
       0.29414687 0.111362234 0.3088304 0.12721583
000040 e1 fe ac 3d 07 ff 44 3e 25 2f b3 3e c4 9c 8d 3d
       0.08447052 0.1923791 0.34996906 0.06914666
000050 c9 93 fc 3b 20 08 2c 3e 92 b1 9e 3c f0 d0 f3 3d
       0.007708047 0.16799974 0.019371781 0.11905086
000060 f4 cf 4a bd b2 9d f8 bb 14 5d 3d 3e 2f 40 8b 3d
       -0.049514726 -0.007587158 0.18492538 0.067993514
000070 4b 1b d0 bd 1d e0 1a 3d 88 5e cb bb 4b 72 51 3e
       -0.10161456 0.037811387 -0.0062063374 0.20453756
000080 f2 7d 8a 3d 18 61 06 3d 8c 5b bd 3d d0 02 11 3d
       0.067623034 0.03280744 0.09245977 0.035403073
000090 29 80 13 3d 11 01 01 3e aa 1b 41 3e 7a f0 13 3e
       0.036010895 0.12598063 0.18858209 0.14447203
0000a0 54 b4 cb bc 18 21 97 3d 2e fe e8 3d ce 05 ee 3c
       -0.02486626 0.07379359 0.11376606 0.029055502
0000b0 6c 44 2d bb 10 77 5e 3d 87 69 04 3f 48 7b 7f bc
       -0.0026438488 0.054312766 0.5172352 -0.015593357
0000c0 a6 ff 1b bd 73 fe df bc 6f f3 a9 3d 06 a5 f6 3e
       -0.038085602 -0.02734301 0.082983844 0.48172778
0000d0 ab 49 ee bd 81 cc c1 3d fb f3 83 3d 2d 30 e1 3d
       -0.11635145 0.09462834 0.0644302 0.10995517
0000e0 f9 4f ee 3d 55 84 05 bc ef 91 d5 bc 13 fd 8a bc
       0.11636347 -0.008149226 -0.026070563 -0.016966378
0000f0 c7 b3 67 38 a8 c2 91 3e 58 89 ae bd 28 63 e7 3c
       5.5242122e-05 0.28468823 -0.0852229 0.028245524
000100 8d d3 b5 bd a0 ab 5e bd 2f e8 a9 bd 7c c7 c2 3d
       -0.08878241 -0.054362893 -0.08296239 0.09510705
000110 4e c1 ce 3d fe 8a 71 bd 98 f1 87 bd 88 af 99 3d
       0.10095464 -0.058970444 -0.06637877 0.07504183
000120 52 22 97 bc 7d c4 39 bd 34 7a a5 bc 82 81 04 be
       -0.018448982 -0.0453534 -0.020199873 -0.12940028
000130 d2 00 ed bd b1 25 24 3d 2a 79 0d bd 39 76 96 3d
       -0.11572422 0.040075008 -0.03453938 0.07346768
000140 f4 ca 6e bd ef f7 22 be c4 d7 5f bd c5 d0 a2 3d
       -0.05829902 -0.15914892 -0.05464913 0.07949976
000150 f2 8a ea bd c3 6d aa 3c b5 7f 32 3d a8 c6 15 3c
       -0.11452283 0.020804292 0.043578822 0.009141602
000160 f8 c1 f1 bd e7 fe c6 bd 4a 7e f8 bc 2a d7 4e bd
       -0.11804575 -0.097165875 -0.030333657 -0.050498165
000170 42 c4 6b bd f7 ef 27 bb 2c cd 71 3d 0f 31 54 3d
       -0.057560213 -0.0025625208 0.059033558 0.0518046
000180 1c 35 a8 bd 6f 53 87 bd bd f5 aa 3d 30 17 25 bd
       -0.08213255 -0.066077106 0.08347652 -0.040305316
000190 92 b3 0d bd 1e f4 84 3d 48 02 40 be 96 75 1e 3d
       -0.03459508 0.06491874 -0.1875087 0.038686357
0001a0 67 a8 80 bd 77 84 25 bd 45 0a b0 bd a7 c8 f1 bd
       -0.0628212 -0.04040953 -0.08595709 -0.118058495
0001b0 ac 2f be 39 af ff a6 3c 64 a8 89 be 77 e3 d6 ba
       0.00036275142 0.020385591 -0.26886284 -0.0016394694
0001c0 74 75 04 be a3 f7 c0 bd 25 bb 40 3d f0 f3 a6 3d
       -0.1293543 -0.09422233 0.047053475 0.08151996
0001d0 61 96 80 3d 23 d3 aa bd ec 3e 95 3d 22 de b5 bd
       0.062786825 -0.083410524 0.07287392 -0.08880259
0001e0 5f 21 f3 3c 02 a9 86 3c ee 95 e2 bc ea 4a 06 be
       0.029678999 0.016438011 -0.027659383 -0.13114515
0001f0 10 80 f3 bd b6 21 57 be 30 3d 0f bd d0 ad c5 3d
       -0.1188966 -0.21008953 -0.034970462 0.09652293
000200 0e 26 7b 3d 3f 97 05 3e 01 65 d0 bd 1d 6f bd 3d
       0.06131559 0.13045977 -0.10175515 0.09249709
000210 d9 ed 38 bd c5 52 8d 3d 63 e3 b1 bd ba b0 a2 bd
       -0.045148704 0.06900553 -0.08685949 -0.07943864
000220 61 a7 e3 3d dc 86 81 3d f1 f0 f6 bd 4c 19 fa bd
       0.11115909 0.063245505 -0.12057675 -0.12211856
000230 f0 fe 08 bd 01 ec c8 3d 2e 78 e1 3d b2 9e 98 bd
       -0.033446252 0.09810639 0.110092506 -0.07452144
000240 6d 4b ae 3b 00 f0 b5 3d d3 fe a3 bd 5b 75 95 bc
       0.00531905 0.08883667 -0.08007588 -0.018244436
000250 cf 39 d9 3d a1 7b 27 3d 20 1e 84 3d 3a fc d4 3d
       0.10606729 0.040889386 0.064510584 0.10399671
000260 95 d7 84 3d 5b f1 01 be 4c d6 87 bd 9a 2e 52 bc
       0.064864315 -0.12689726 -0.06632671 -0.0128284935
000270 04 77 ce bd e6 f6 9a 3d 6c 31 d1 bb 49 6b 9f 3c
       -0.10081294 0.075666234 -0.0063840654 0.019460337
000280 7a 13 aa ba e8 e2 19 3d 46 79 6a 3c 5b fb 90 3d
       -0.0012975775 0.03756991 0.01431114 0.07079192
000290 35 34 c4 3d b8 c7 49 bd fa 30 05 3d ee 19 5f 3b
       0.0958027 -0.049262732 0.03251741 0.0034042555
0002a0 7e 73 81 bd ea d5 86 bd 63 c4 7f 3d eb ef 37 3d
       -0.063208565 -0.065837696 0.06244315 0.044906538
0002b0 c8 8f d6 bd 93 90 cb 3d 1e 72 8e be 86 ca 8a bd
       -0.10476643 0.09939685 -0.2782144 -0.067769095
0002c0 ad 7e 21 3d e8 20 5f 3c f5 39 e4 bc 43 02 fd 3c
       0.039427448 0.013618685 -0.027859667 0.030884868
0002d0 0f cd b7 3c b3 97 68 bd ed 7e d9 3d ee a2 d0 bd
       0.022436647 -0.056785297 0.10619912 -0.10187326
0002e0 39 cf 36 bd 34 9a 04 be a7 38 87 bd e1 5d d3 3c
       -0.044631217 -0.12949449 -0.066026025 0.0258016
0002f0 3e c9 7a bd 35 10 b7 bd 84 85 9e bd b6 31 8a bd
       -0.061227076 -0.08938638 -0.0774031 -0.06747763
000300 d3 32 34 3e 5d 71 be 3e 16 8b 46 3e 3a 1d c9 bc
       0.17597513 0.37195864 0.19388995 -0.02455007
000310 10 05 aa 3d d0 79 2d bc 44 ae f9 3d 8d ee d9 3d
       0.08301747 -0.010588124 0.12191442 0.10641203
000320 53 77 28 3e be 14 de 3d 56 53 8a 3d 02 93 eb bd
       0.16451769 0.108438 0.06754176 -0.11502649
000330 c2 e0 0a 3e b0 05 a0 bd a7 e9 b4 3e be a0 c6 3c
       0.13562301 -0.07813585 0.35334513 0.02424657
000340 82 23 ae 3d 8e 58 42 3c 6d a2 ce 3e 51 2a 63 3d
       0.08502866 0.011861933 0.40358296 0.055460278
000350 cc fb 04 3e 36 0b 43 bc ca 18 cb 3d 4f 3b 20 3d
       0.12986678 -0.011904528 0.099168375 0.03911906
000360 35 e7 cc bc 47 5b d9 3d a7 51 bf 3d 1c 5d 00 3e
       -0.025012592 0.10613113 0.09341746 0.12535518
000370 1a 9d 3f 3d a0 44 a5 3c d5 24 1d 3e e8 06 5c 3e
       0.046780683 0.020174325 0.15346082 0.2148701
000380 f6 70 7a bd ee 2b 26 3e e3 15 f5 3d 6b a4 cb 3d
       -0.061142884 0.16227695 0.11967065 0.099434696
000390 35 4d dc 3d ba 99 72 3b cc 9e 5c 3e 5e 53 51 3d
       0.107569136 0.0037017898 0.21544951 0.051104896
0003a0 13 49 af bd b6 4e 1d 3e b1 6e 9e 3e 56 33 88 bd
       -0.0855886 0.15362057 0.30943826 -0.066504166
0003b0 2d 00 2a bd d4 60 f3 3d 76 67 03 3f cc c8 7f bc
       -0.041504074 0.11883703 0.51329744 -0.015611839
0003c0 55 19 16 bc 9d 5f 0c 3e fb 06 ba 3d 20 55 d3 3e
       -0.009161313 0.13708349 0.09083363 0.41275883
0003d0 cb b3 2b bd f8 ef 6f bd b4 ae 7e bd 6f 01 2d 3c
       -0.04191951 -0.05857846 -0.06217833 0.010559424
0003e0 84 cd e7 3d 31 df ba bc 1a 2a b8 bc f4 29 08 bd
       0.11318496 -0.022811504 -0.022481013 -0.033243135
0003f0 27 b2 b5 bc 1e d3 2d 3e 61 03 80 3d aa b1 86 bd
       -0.022179676 0.16975066 0.062506445 -0.065768555

rnn.bias_hh_l0 f4 [256]
000000 ac 0a c6 3d cc 78 74 3e 68 f2 2a 3e ab 53 9f 3d
       0.09670004 0.23874205 0.16694033 0.0777963
000010 d3 41 b2 3d 95 df 4f 3d 1d c5 f7 3d f3 65 0d 3e
       0.08703961 0.050750334 0.12098143 0.13808422
000020 4f e2 97 3d 94 30 87 3c cb 13 51 3e 4c 31 a7 bd
       0.07416212 0.016502656 0.20417707 -0.081636995
000030 db 9e 16 3e 28 6b 9a bd 4e 5b ae 3e 7a 2c 08 3e
       0.14709036 -0.0753997 0.34054035 0.13298216
000040 ef 6d db 3d f7 84 00 3e 77 15 8a 3e ce b9 68 bd
       0.107143275 0.12550722 0.269695 -0.056817822
000050 d8 e0 bc bd 42 d5 58 3d d9 cc cb 3d 98 5b c5 3c
       -0.09222573 0.052937753 0.09951181 0.024091527
000060 f9 3c 88 3c 6c d7 09 3d 68 55 7f 3d 66 41 93 3d
       0.016630637 0.033652708 0.06233731 0.07190208
000070 2d b7 5e bd df f4 09 3e fe 13 6c bd 38 38 44 3e
       -0.05437391 0.13472317 -0.057636254 0.19162071
000080 1b ca 55 3d c6 5e 90 bc e1 32 fa 3d 08 b7 30 3e
       0.052194696 -0.017623316 0.12216736 0.17257321
000090 b7 29 d9 bc 0c 83 b5 3c 74 cb 91 3e be 81 1d 3d
       -0.026509149 0.022157215 0.28475535 0.03845381
0000a0 d3 2e b2 bd cc 80 7b bd e5 db a9 3e 23 aa 09 3e
       -0.08700337 -0.061402127 0.3317558 0.13443808
0000b0 66 26 73 bc 02 51 c5 3d ff 0d d0 3e af c6 7d bd
       -0.014840698 0.09634592 0.40635678 -0.061957058
0000c0 06 1d 22 3d 1f 4b 0e 3e a9 a5 8f 3d e4 d0 cd 3e
       0.03957846 0.13895844 0.07014019 0.40198433
0000d0 e5 61 e9 bc 8a 10 8f 3d 3f 6e 0a 3e 2d 60 ab 3d
       -0.028489063 0.069855765 0.13518618 0.083679534
0000e0 5f 2d e1 3c 80 1a 3a bd e6 f3 e8 3d 57 f5 37 bd
       0.027487455 -0.04543543 0.11374645 -0.04491171
0000f0 96 c2 c3 3d 8e e7 99 3e 51 c2 d3 3d b2 f1 f7 3d
       0.09558599 0.30059475 0.10339797 0.121066466
000100 05 a6 2a 3c a6 dc f2 3d 12 c2 1b 3e d8 33 bd bc
       0.010415559 0.118584916 0.1521075 -0.02309601
000110 fd 97 ab bd 53 1f 8a bc 95 34 8f bb c8 a2 3c bd
       -0.08378599 -0.01686064 -0.004370282 -0.046053678
000120 c1 55 24 3d ba dc ce 3c ba 6c 42 bd 8e f0 a8 3c
       0.040120844 0.025251735 -0.04746697 0.020622518
000130 ba cc d1 3b c7 18 58 bc 24 07 81 3c 42 aa 0d 3d
       0.006402579 -0.013189501 0.015750475 0.0345862
000140 ab 20 c8 bc fb 5c 28 be cf 42 ad bd 68 75 c8 bd
       -0.02442964 -0.16441719 -0.08460008 -0.097880185
000150 04 79 a1 bd 68 15 ef bc 0e 32 38 3d 9a 4a bf bd
       -0.0788441 -0.029185012 0.04496961 -0.09340401
000160 ef 7c c2 bd 3c 2c d1 bd 60 ef 8b bd fe 0f 53 3d
       -0.094964854 -0.10213515 -0.068327665 0.051528923
000170 b2 f7 cc bd be 16 96 bd 3d 9f 71 3d 2c 62 84 bb
       -0.10008182 -0.073285565 0.058989752 -0.0040400233
000180 f2 d4 25 3b 89 53 27 3d c7 46 ad bd c2 b5 b5 bc
       0.0025303927 0.04085115 -0.08460765 -0.022181395
000190 d5 91 99 3d f2 50 87 3d c5 71 8c bd 51 0f 98 bd
       0.074985184 0.06607236 -0.06857637 -0.074247964
0001a0 76 54 d7 bd cd 8b 8d bd d6 7f d8 bd 37 0d 35 3d
       -0.105141565 -0.069114305 -0.10571258 0.044202056
0001b0 03 d7 04 bd c8 10 b9 3d 1e 9f a8 be e8 81 8a 3d
       -0.032431614 0.09036404 -0.32933897 0.06763059
0001c0 c0 07 d2 3d c2 83 35 bb a0 08 2f 3d c1 a1 8a bd
       0.102553844 -0.0027696942 0.042732835 -0.06769133
0001d0 fa f6 7a 3d 55 87 da 3d d5 49 86 3b 04 4e 93 3c
       0.06127069 0.10670344 0.004098157 0.017981537
0001e0 31 3c da bb b0 ab e7 3c 1d 66 6b 3d 6a 03 69 3d
       -0.0066600074 0.02828011 0.05747043 0.05688802
0001f0 d5 23 0b be 6c d9 22 be 04 2e 10 be 65 2f 6e bd
       -0.13587888 -0.15903252 -0.14080054 -0.058150668
000200 cb b1 82 bd 83 2d b8 bd 38 32 b1 3d 92 99 26 bb
       -0.063815676 -0.08993056 0.086521566 -0.0025421125
000210 26 88 ed bd 46 b2 de 3d 16 a5 99 bd c0 e6 bb 3d
       -0.11598234 0.10873847 -0.07502191 0.091748714
000220 6f ed 83 bd 72 d7 94 3d 06 f6 a8 3c af e8 36 3d
       -0.06441771 0.072676554 0.020625126 0.044655498
000230 b6 52 a3 3c 9e 50 f8 bd 1e a3 05 bd a3 4b fa 38
       0.0199369 -0.121247515 -0.032626264 0.000119350174
000240 7a 43 72 bd 20 55 18 3d 69 5b 4a 3b bc 02 ef 3d
       -0.059146382 0.037190557 0.0030877239 0.116704434
000250 f3 bc e5 3d d4 b5 3e bc 39 b5 85 3c 0d 19 8a bd
       0.1121768 -0.011640031 0.016321765 -0.06743059
000260 08 b9 04 3e 4e 2f ba bd 6b 94 94 3d 23 d8 ba 3d
       0.12961209 -0.09091054 0.07254871 0.09123256
000270 37 c8 d1 bc 74 da e3 3d 02 8b 67 3d 5d 9c 57 be
       -0.025608165 0.11125651 0.056529053 -0.21055742
000280 1f 0c 6d bd 37 59 ae 3d bf e0 89 3d 31 5c 7e bd
       -0.057872888 0.0851311 0.0673232 -0.06209964
000290 a8 56 07 3e 5a d8 8a 3c 80 8e 2f bd 3e 02 4e bd
       0.1321665 0.016948868 -0.042860508 -0.050295107
0002a0 9c 95 e2 bd 88 59 dc 3d ad 71 ae bd 2c 94 82 bd
       -0.11063692 0.10759264 -0.08517776 -0.06375918
0002b0 96 b0 51 3d 59 29 9b 3d 65 50 a9 bd 05 27 95 bd
       0.051193796 0.07576246 -0.08267287 -0.07282833
0002c0 7c 0c 05 3e d4 cf 37 3d bd 2c 9e 3d a2 b6 d2 3d
       0.12993044 0.044875935 0.07723377 0.10288741
0002d0 06 61 fd 3d 6c c1 00 3e 25 bd 49 3c e2 84 01 be
       0.123720214 0.12573785 0.012313162 -0.12648347
0002e0 5e b8 90 3d 3b 5d e3 bd 66 a9 ec bc 43 62 c1 3c
       0.07066415 -0.11101767 -0.02888937 0.023606425
0002f0 b6 c4 12 bc d5 3c 1e bb 50 37 26 be 52 d2 3f 3d
       -0.008958032 -0.0024145145 -0.16232038 0.046831436
000300 5a 1c 76 3d 1b c5 4d 3e 80 86 6b 3e c3 e7 81 39
       0.060085632 0.20094721 0.23000526 0.00024777473
000310 e5 0c 01 3c da 05 e5 3d cd 69 69 3b e3 62 45 3b
       0.007876609 0.11182757 0.003561604 0.0030118756
000320 81 a2 46 3e 2d fd 57 3d 97 83 c9 3d 83 8b bb bd
       0.19397928 0.05273168 0.09839552 -0.09157469
000330 6c 19 d3 3d 79 b0 50 bb 2a 52 8c 3e 18 08 46 bd
       0.10307583 -0.0031843467 0.27406436 -0.048347563
000340 37 33 ee 3c 3f 5b da 3d ba db d3 3e 26 47 96 bd
       0.029077156 0.10661935 0.41378576 -0.07337789
000350 3e d6 96 bd 88 8d d2 bc ed af 89 bb b9 f3 9f ba
       -0.07365082 -0.025702253 -0.00420188 -0.0012203372
000360 cf 45 9e 3b 57 54 be bd d3 85 77 3e 06 7e 1f 3e
       0.004830099 -0.0929343 0.24172144 0.15575418
000370 4e 53 93 bb 2a 13 06 3e b2 af 13 3e cd 17 8e 3e
       -0.0044960147 0.13093248 0.14422491 0.27752534
000380 e5 4d 90 bd 28 2f fa 3d 33 73 4b 3d f3 1c 0e 3e
       -0.07046107 0.122160256 0.04967041 0.13878231
000390 e7 1d 44 3d e4 79 6a 3d 00 b6 3d 3e 66 22 19 3e
       0.04788008 0.05724515 0.18526459 0.14954528
0003a0 9e 8a eb 3d c1 6f f8 3d 6d a0 62 3e ff 89 56 3d
       0.115010485 0.1213069 0.2213151 0.052377697
0003b0 c6 08 34 3e c4 08 cc bd 52 3c f7 3e 07 06 85 bd
       0.17581472 -0.099626094 0.48288208 -0.0649529
0003c0 d6 3b 12 3e f7 30 8f 3d 19 64 15 bd b6 74 19 3f
       0.14280638 0.06991761 -0.036472414 0.5994371
0003d0 32 22 f2 3d ed 45 8e bd 28 d5 b5 bc 76 94 ae 3d
       0.118229285 -0.06946931 -0.022196367 0.085244104
0003e0 79 00 8f 3d 24 01 01 bd c1 5a 0c 3c 6d 23 53 bd
       0.06982512 -0.03149523 0.008566559 -0.051547457
0003f0 c1 f4 cd bd f3 e9 35 3e 3b 02 f2 3c 70 c7 31 bd
       -0.10056449 0.17765026 0.02954208 -0.04340309

rnn.weight_ih_l1 f4 [256, 64]
000000 fd 49 24 bd cf da de 3d 27 3f 5a bc 81 22 0a 3b
       -0.040109623 0.10881578 -0.013320721 0.0021077695
000010 ab a9 7e bd 9c 94 aa bd 9b bd ce bd 7e 50 b2 3d
       -0.062173527 -0.08329126 -0.10094758 0.08706759
000020 a1 6a c8 3d c1 91 c0 3d a4 42 02 3e a6 ac ab 3d
       0.09785963 0.094028 0.12720734 0.083825395
000030 74 c7 c1 bd b0 bf 3c bd ae 37 28 3d 0d 20 e0 3d
       -0.09461871 -0.046081245 0.041068725 0.10943613
000040 34 bf e1 3d b8 54 37 bd 5d 45 35 3e 08 8f 08 3d
       0.11022797 -0.04475853 0.17702241 0.03333953
000050 bd c7 11 bd 47 ce 87 3d 95 cc a0 bd 02 82 e0 bd
       -0.035590876 0.06631141 -0.07851521 -0.10962297
000060 7e 23 89 bd 2b 81 83 bd 3c 56 73 3d f9 1b 52 bd
       -0.06696223 -0.06421121 0.05940841 -0.051296208
000070 71 09 7f bd d9 05 3d 3d 67 c5 97 3d 2b 81 0b 3d
       -0.062264863 0.046148155 0.074106984 0.03405873
000080 6e ab 94 3d 00 23 4e bd 9d 2e 91 3c a9 44 09 bd
       0.0725926 -0.050326347 0.017722422 -0.033512745
000090 01 97 4f bb b6 a6 02 3e 0b 64 8a 3c b3 8c aa 3c
       -0.0031675699 0.12758908 0.016893407 0.020819044
0000a0 16 03 94 bd fc 8f 56 bd 93 3d bd bb 3a cf 79 bd
       -0.07227151 -0.052383408 -0.0057751625 -0.060988642
0000b0 71 a8 07 be 80 35 81 bd de 12 95 3d 1e 8d 1b 3d
       -0.13247849 -0.063090324 0.07278989 0.037976377
0000c0 1e b8 df bd ae 64 4e bd ca d5 11 3d 58 fa 17 be
       -0.109237894 -0.050388984 0.035604276 -0.14841592
0000d0 85 be 06 3d bd 65 4d 3d ad 4f 3a bd 04 54 f1 3d
       0.032896537 0.050145853 -0.04548614 0.11783603
0000e0 c1 f3 cf 3c 14 a0 15 3b 29 74 a6 bb 86 5b 00 be
       0.025384786 0.002283101 -0.0050797653 -0.12534913
0000f0 23 9c 6b 3d b0 85 ba bd c8 4e d9 3d 71 34 b6 bd
       0.05752195 -0.0910753 0.106107295 -0.08896721
000100 da 95 7b ba de 0b 28 bd c4 a6 69 3d d0 e9 31 3d
       -0.000959722 -0.041026942 0.057043806 0.04343587
000110 9d 98 c0 bd 36 18 47 3d e4 04 50 bd 7e cc c2 bc
       -0.09404109 0.048607074 -0.050785914 -0.02377915
000120 2d b7 01 3e 12 5c 9d 3d c7 66 f6 3d c7 e4 d1 bc
       0.12667532 0.07683577 0.12031322 -0.025621785
000130 1a 95 b7 3d 6c 9b d8 3d 62 3b 5f be c5 2e bd bd
       0.08963986 0.10576519 -0.21799996 -0.09237436
000140 41 e4 c7 bd bb 56 82 bd 1f a0 60 3e 3d 96 6c bd
       -0.09760333 -0.06364199 0.21936081 -0.057760466
000150 c4 e7 d7 3d b9 a0 8f bd 94 32 8c 3d 52 07 15 3e
       0.10542253 -0.07013077 0.068455845 0.14553574
000160 54 86 28 bc 3e 87 a7 bb 36 96 b1 3d 46 7f f7 3b
       -0.010285933 -0.0051125577 0.086712286 0.007553014
000170 b9 8f 83 3b 63 58 84 bc a8 6c f8 3d c4 a1 86 3d
       0.004014936 -0.016155427 0.121300995 0.06573823
000180 98 ef c3 3d 91 e9 82 3d 8a a7 5a bd 10 03 59 3d
       0.09567183 0.063922055 -0.053382434 0.052981436
000190 c8 e7 8e 3d c5 cd 9c 3d 1f 61 b0 bd ca d6 c2 3b
       0.069778025 0.07656435 -0.086122744 0.005946015
0001a0 1f 56 59 bd b5 9f 4d 3d c5 d7 d7 3b e5 b0 42 3c
       -0.053060647 0.050201137 0.006587001 0.011882995
0001b0 38 1e 25 3c 0f be b6 3d 04 ed 18 bd ae 2a 8b bd
       0.0100780055 0.089229695 -0.03733541 -0.0679525
0001c0 54 fa 31 3d ac c6 e2 3d d9 12 cb 3d ae 63 44 be
       0.043451622 0.1107305 0.09915704 -0.1917865
0001d0 b4 e8 d2 3d ac 3a 96 bc ca 4c 1d 3e 9d b1 e9 bb
       0.10298291 -0.018338524 0.15361324 -0.007131769
0001e0 d7 15 5c 3d 36 98 15 3d 34 5e 1c be 00 0f 96 bd
       0.053731766 0.036522113 -0.1527031 -0.0732708
0001f0 7a 84 e7 bc 97 2a dd bb 1a 68 a0 3c 89 9a 1c 3c
       -0.028261412 -0.006749462 0.01958089 0.009558328
000200 c1 73 a8 3d 34 3f 73 3d be b9 0d 3c a1 3a a0 3d
       0.08225203 0.059386447 0.008650241 0.078236826
000210 5a c4 de bc 8b ae 23 bd 69 5c 05 be 5e 7f 52 3d
       -0.027193237 -0.03996138 -0.13023533 0.051390998
000220 c1 28 b2 3d fd 6a 81 3c c1 c6 8a bd 07 6e 0d 3b
       0.086991794 0.015798086 -0.067761905 0.0021580474
000230 d3 a3 4d bd 92 1a 9d bd 91 10 84 bd a4 8e 87 3d
       -0.050205063 -0.076710835 -0.06448472 0.066190034
000240 8e d5 a8 3d b4 03 e3 bd ff a3 18 bc 01 6a 8a bd
       0.08243857 -0.11084691 -0.009316443 -0.067585
000250 88 c6 68 3d 97 b1 9a bc 2a 1c ba bb 6f 3f 00 3d
       0.05682996 -0.01888351 -0.005679627 0.031310495
000260 50 d9 50 bb b6 46 c7 bd 63 c6 03 3d 5d c3 84 3b
       -0.003186781 -0.09730284 0.03217162 0.0040516094
000270 f6 6a 5b 3b d8 6f 8d 3d 5d 1d 32 3d 2f 7f 99 bd
       0.0033480502 0.06906098 0.043485034 -0.074949615
000280 97 74 f1 3d 4b 1f 97 3d e0 0c e5 3d 5d 36 87 3d
       0.11789816 0.073790155 0.11184096 0.06602166
000290 9a b4 99 3d 50 30 30 bc 6f 5f 6e bc 77 c9 80 3d
       0.0750515 -0.010753706 -0.01454912 0.06288426
0002a0 1f cc a0 bd b1 4a f3 bd 27 8a 60 3c fe d7 08 3e
       -0.07851433 -0.11879481 0.013704813 0.13363644
0002b0 20 49 ce 3d 2b 38 db bc f0 ae fa bc 96 60 df bd
       0.10072541 -0.026760181 -0.030600995 -0.10907094
0002c0 23 c0 ca 3d be b8 47 bc a5 63 91 bd dd 34 46 be
       0.098999284 -0.012190042 -0.07099084 -0.19356103
0002d0 3e 9f 3f bd 79 0b a9 3d bc 26 9d 3d a6 57 e3 bd
       -0.046782725 0.08254141 0.076734036 -0.11100702
0002e0 d6 25 1a 3d c1 23 ed bc ec 72 d2 3d 36 c7 8e bd
       0.03763374 -0.028947713 0.10275826 -0.0697159
0002f0 c8 c9 31 bc e8 4f 03 3d a5 dc fc bc 6e ff b1 bd
       -0.010851331 0.032058626 -0.03086693 -0.086912975
000300 f1 24 d4 bb df bc e8 3d 45 5f bd bd d4 61 a6 3d
       -0.0064741303 0.11364149 -0.09246687 0.08124128
000310 6b 0c ae 3d b2 ee de 3d ca e5 d3 ba a4 62 c2 bc
       0.08498462 0.10885371 -0.0016166505 -0.023728676
000320 a9 ca e0 bd 81 6e 14 3e d6 52 a6 bc 2d 79 11 3b
       -0.10976154 0.14495279 -0.020303171 0.002219747
000330 41 43 b6 3d c0 92 51 bd 8f 16 d0 3c e1 a0 2a 3d
       0.088995464 -0.051165342 0.025401382 0.041657332
000340 ca 3f b0 3d ef a9 ed 3d 84 0c 27 be b9 3a 10 bd
       0.08605917 0.11604678 -0.16313368 -0.035212252
000350 db 72 84 b9 4e 2c 1d 3d 0f 5d ad bd 1a da ea bb
       -0.00025262576 0.03837233 -0.08465015 -0.007167113
000360 b1 55 41 bd 6d 17 d2 bd 57 f6 1e 3c e9 b2 c5 3d
       -0.047200862 -0.10258374 0.009702287 0.09653265
000370 a2 e4 7c 3c 22 93 91 bc 58 91 27 3c 41 f2 ae bd
       0.01543537 -0.017770354 0.010227524 -0.085423
000380 f8 de e0 3d ed 79 80 3d 3c f1 83 bd 50 1d cd bd
       0.10980028 0.062732555 -0.06442496 -0.100153565
000390 0b a5 7f bd c3 47 71 bd 2e 96 9c 3c 46 29 9f bd
       -0.062413257 -0.058906328 0.01911458 -0.07771544
0003a0 7a d6 fe bd 59 47 c5 bb 3a 0d 8f bd c7 0f 62 bd
       -0.12443252 -0.006020468 -0.06984945 -0.055190828
0003b0 ab 76 9b 3d 38 18 b3 bc 66 ff 56 be 2b 43 c0 bd
       0.075909935 -0.021862134 -0.20995864 -0.09387811
0003c0 d2 fb 0a 3e 77 fd 9e bb 38 4d a0 bd 8d 8a 71 3d
       0.13572624 -0.0048519927 -0.07827228 0.058970023
0003d0 8f a0 0c 3d 5d c7 ad 3d 6a 98 05 bb d8 74 21 bd
       0.034332808 0.08485291 -0.0020385035 -0.03941807
0003e0 df c7 7a bd 0f c4 da bd e0 f8 66 3d 5b 1b 52 3c
       -0.06122577 -0.106819265 0.05638969 0.012823905
0003f0 da 11 f2 3a 31 ab 35 bc b0 09 15 bc 8c a8 e0 3d
       0.0018468455 -0.0110881785 -0.009096548 0.10969648

rnn.weight_hh_l1 f4 [256, 64]
000000 6e 33 a9 3d 8e cf c0 bc b1 b8 b8 bc df ee a6 bd
       0.082617626 -0.02353647 -0.022549005 -0.0815103
000010 d5 64 28 bd 2f 63 fc 3d a2 46 bb bc fc 9f cb 3d
       -0.041111786 0.12323605 -0.022860829 0.09942624
000020 f9 cb eb 3b 7a ca ca bd 1e ad b7 bd d9 ac c2 bc
       0.0071959463 -0.099019006 -0.08968566 -0.02376406
000030 88 96 05 3a 9c 49 9f 3d 91 d6 e8 3c 6e 4d 3c 3d
       0.0005095978 0.07777712 0.028422626 0.04597228
000040 ce 95 b7 bc 35 87 ed bd b4 0e a1 3d 9d 38 ed bd
       -0.0224103 -0.11598054 0.078641325 -0.11583064
000050 4e f0 9a bd 8a 60 99 bd 25 c5 a9 3b 78 83 43 bd
       -0.07565366 -0.074891165 0.005180972 -0.0477328
000060 c2 63 00 3e 7b d4 ff bd ab ec bb bd 29 a0 c8 3d
       0.12538055 -0.12491699 -0.09176 0.09796173
000070 58 c7 f5 3c 81 f6 d6 bd 70 ab 97 3d e1 18 8a 3d
       0.030002281 -0.10496236 0.07405746 0.067430265
000080 5f 75 b0 bc 64 81 be bd 9b 34 b5 bd 47 8d 37 bc
       -0.021540342 -0.09302023 -0.08847924 -0.011203117
000090 79 d8 87 bd b4 bb da 3d bc c2 72 bd cc 63 b3 3d
       -0.06633086 0.10680333 -0.059267744 0.08759269
0000a0 44 70 b2 3c 28 e0 0d bd 02 bd a9 bd 7a b5 f0 3d
       0.021782048 -0.0346376 -0.082880035 0.11753364
0000b0 f7 5f f9 bd b7 fe e8 bd 79 19 0d 3e 9e e8 53 3d
       -0.12176507 -0.11376708 0.13779248 0.051735513
0000c0 9d 5b a8 3d 8c 9b 35 bd 5a 66 c4 3c a9 1d 5b bc
       0.08220599 -0.044337794 0.023974586 -0.013373771
0000d0 be a9 cb 3d 94 5b fd bc f4 37 84 3d 9a 84 30 bc
       0.09944485 -0.030927457 0.06455985 -0.010773802
0000e0 1a cb 43 bc f0 4d a9 3c 71 ac 5a 3d c2 53 7b bd
       -0.011950279 0.020667046 0.05338711 -0.061359175
0000f0 c2 ea 5d bd 6e e1 f4 3d a7 38 ae 3d fa 24 8c bd
       -0.05417896 0.1195706 0.08506899 -0.0684299
000100 9c a2 02 bd 07 1c f3 3d c8 bf de 3d 2a 38 c2 bd
       -0.031893358 0.1187058 0.10876423 -0.09483369
000110 b1 7e 85 bd 99 5e ff 3c ce 2e 37 bc f3 41 7a bd
       -0.06518305 0.031173037 -0.011180593 -0.06109805
000120 cf 9e 97 3d af 10 e6 3c 4b c7 82 bd 2b bf 89 bd
       0.07403337 0.028084127 -0.06385668 -0.067259155
000130 cc 88 a6 3d 62 be 84 3d f0 52 a4 3c 43 71 38 bc
       0.08131561 0.06481625 0.020059079 -0.011257472
000140 94 3e 35 3d 7a 69 29 bc a9 05 f3 3c e0 c8 60 bb
       0.044249132 -0.010340089 0.029665785 -0.0034299418
000150 dc 27 7b bd 13 15 6a 3d 07 3e 85 3d 55 b9 c5 bd
       -0.06131731 0.057149004 0.065059714 -0.0965449
000160 3c 24 3b 3d a9 1d cd 3c 66 cc 80 3d 71 c0 c1 3d
       0.045688853 0.025038557 0.06288986 0.094605334
000170 44 30 ac bd 0a 9a 04 3c 55 5f 9d bd 8f 16 38 bc
       -0.084076434 0.008093366 -0.07684199 -0.011235847
000180 83 cf 90 3d c3 e8 13 bd f5 44 ae 3d 37 01 38 bd
       0.0707083 -0.03611065 0.08509246 -0.044923034
000190 91 0b b3 bd 0c c2 64 3d 66 f5 52 3d e7 d4 ed bd
       -0.087424405 0.05584912 0.05150356 -0.116128735
0001a0 af ab d5 3d 0f ee d5 3d 53 b2 dd 3d 93 b6 fe bb
       0.10433137 0.10445797 0.10825028 -0.0077732294
0001b0 52 ea 0c 3d 57 be 95 bd d1 51 9c 3d 87 8a 08 bc
       0.034403153 -0.07311695 0.07632793 -0.008333809
0001c0 a4 00 f7 bd 5c 59 da bd b5 27 fe 3a fc 13 8a bd
       -0.12060669 -0.10661575 0.0019390496 -0.06742093
0001d0 b8 fb e8 bd 49 7f 91 bd 2a b3 b3 bd df 52 07 bd
       -0.113761365 -0.07104356 -0.08774407 -0.033038016
0001e0 4f 07 62 3d ee d5 5e 3d 83 43 50 bd bb 6c 18 bd
       0.05518275 0.054403238 -0.050845634 -0.03721307
0001f0 fa 69 9b bc 59 28 5d 3d 8e 91 09 bd b7 30 a6 3d
       -0.018971432 0.053993557 -0.033586077 0.0811476
000200 55 b2 b2 bd 24 55 e4 3d 56 2f a8 3d 09 be 8f 3d
       -0.087254204 0.11149052 0.082121536 0.07018668
000210 50 61 53 3c 54 4d bc bd fe ae 02 be fc c0 e7 bd
       0.012901619 -0.09194437 -0.12762067 -0.11316106
000220 43 f5 6e 3c e7 f9 89 3d 95 73 76 bd 03 f1 83 bc
       0.014584842 0.06737118 -0.06016882 -0.016106134
000230 22 cb 29 bd 36 9d a7 bb 3c 87 f2 ba f3 60 b0 bd
       -0.04145349 -0.0051151766 -0.0018503438 -0.086122416
000240 b4 df 1b 3d 1e bf 76 3c e9 11 aa 3c 4c 0b 9b 3c
       0.038055137 0.015060214 0.020760493 0.018926285
000250 71 79 f7 3c e3 f8 82 bd a3 6c 4b bd 56 a4 9e bd
       0.030209275 -0.063951276 -0.04966415 -0.07746188
000260 71 2c 80 3d 9c 13 af bc 23 55 e4 3d de fa 44 bd
       0.062584765 -0.021371655 0.11149051 -0.048090808
000270 d8 12 22 3d 16 2f e1 3d 4b 49 aa bd aa 0a 8e 3d
       0.039568752 0.10995309 -0.08314761 0.06935628
000280 4f b4 18 bb 8a 58 f1 bc 6b e7 f9 bc e0 65 84 bd
       -0.0023300832 -0.029461164 -0.030505856 -0.064647436
000290 ee 73 2b bd 18 bc 05 3e 7b 77 e2 bd bf 00 0e 3d
       -0.041858606 0.13060033 -0.11057945 0.03466868
0002a0 8f 96 0c bd 18 84 b9 3c c0 d5 9a bd fa c9 fd bd
       -0.03432327 0.022645995 -0.07560301 -0.123920396
0002b0 ea 76 e1 3d 8f 56 1c bd f3 54 51 3d fe 17 b6 3d
       0.11009009 -0.038168486 0.051106405 0.08891295
0002c0 5a 55 3e 3d f6 ff b2 bc 79 d1 10 3d 34 5d 14 3c
       0.046468116 -0.021850567 0.03535602 0.0090554245
0002d0 06 c6 e8 bd 37 0c f1 bd 9c 3d 91 3d 7e 21 dd 3d
       -0.11365895 -0.11769908 0.07091829 0.10797404
0002e0 e3 31 5c bd 1d 0f 29 bd 7c 12 d5 3d e3 e8 ab bc
       -0.053758513 -0.04127418 0.10403916 -0.020985072
0002f0 1e 0b 95 bd 07 01 c8 bb 28 cc 54 bd 32 cd 93 3a
       -0.07277511 -0.006103638 -0.05195251 0.0011276363
000300 64 7a cd bd bc e5 b5 bd 89 d1 13 bc 43 54 87 bb
       -0.1003311 -0.08881709 -0.009022125 -0.004129918
000310 72 4b b5 3c 3f 73 00 3e 13 94 a2 bd 11 ca 4f 3d
       0.022130702 0.12543963 -0.07938399 0.050729815
000320 c8 a2 a8 bd 00 82 20 3c 52 ec d1 3c 2a cb ff bd
       -0.08234173 0.009796619 0.025625382 -0.12489922
000330 c4 78 59 3d 79 80 8a bd 19 0d d8 bd 0e cf 21 bc
       0.053093687 -0.067627855 -0.10549373 -0.009876026
000340 3b a1 6f 3c d1 4b 54 3c 36 5a 64 bc d6 f7 5d 3d
       0.014625843 0.012957529 -0.013937524 0.054191433
000350 75 8a 82 3d bb ac e8 bd 71 14 73 3d 00 b8 b4 bd
       0.06374065 -0.11361071 0.059345666 -0.08824158
000360 fb 41 2a 3e 36 18 f7 bd 4a 29 e3 3d 73 90 9a 3d
       0.16626732 -0.12065165 0.1109186 0.07547083
000370 95 8c b4 bd 36 07 33 3d 1f 15 8f 3d 7e e1 97 bd
       -0.088158764 0.04370805 0.069864504 -0.07416056
000380 35 59 ff 3d ed 84 71 3d 94 1c c2 3c 26 76 5a 3d
       0.12468187 0.05896466 0.023695268 0.05333533
000390 f2 30 0b 3d 7c 7f 06 3e 05 a5 cc bc 27 d2 e5 bd
       0.033982225 0.13134569 -0.024981031 -0.11221724
0003a0 79 04 a5 bd 7c 97 ef 3a 9c a9 ab 3d 15 d4 01 be
       -0.08057494 0.0018279399 0.0838196 -0.12678559
0003b0 13 0d 85 bc 05 27 80 3d 41 58 0f bb 01 4b 37 bd
       -0.016241586 0.062574424 -0.0021872672 -0.044749264
0003c0 53 33 84 3d 15 0a 9d 3c 0c 25 cb 3d 01 70 d2 bd
       0.06455102 0.019169847 0.099191755 -0.10275269
0003d0 c2 54 35 bc 42 1b e9 bd dd 79 dc bc 20 be b3 3d
       -0.011067571 -0.11382152 -0.026913578 0.08776498
0003e0 40 a0 07 bd 54 81 be 3d 79 67 a1 3d 9a 6c dd bd
       -0.03311181 0.09302011 0.07881064 -0.1081173
0003f0 7a e0 c9 bd bc 96 cb bd 9c fd 8d bd 6c 9b e0 3c
       -0.09857269 -0.0994086 -0.06933138 0.02741786

rnn.bias_ih_l1 f4 [256]
000000 98 b2 be bd 7b e4 ee 3b 83 bb 5e 3d dc 02 27 bd
       -0.09311408 0.0072904206 0.054378044 -0.04077421
000010 16 fa 8b bd a9 a2 06 bd b6 91 02 be 5c 9a b6 3d
       -0.068348095 -0.03286997 -0.12750897 0.089161605
000020 d1 3b 19 3d 5e 76 cb bd bf bf fd 3d 01 e8 11 3d
       0.03741056 -0.09934686 0.12390088 0.035621647
000030 95 f7 06 3e e1 bc 40 3d b4 cc 9c bc ed 46 17 3d
       0.13180383 0.04705513 -0.019140579 0.036932874
000040 59 8d 33 3c 75 b4 bb 3d 70 eb 28 bd ed 27 30 bd
       0.010958993 0.09165279 -0.041240156 -0.043006826
000050 fe 46 a0 bd 30 c6 2a bc 8b d6 ad 3d 54 d6 0e 3d
       -0.07826041 -0.010423228 0.084881864 0.034872368
000060 57 7d e8 3e c5 8b e8 bd 92 e0 2e bc a0 6d c5 bc
       0.45408127 -0.11354784 -0.010673659 -0.024100125
000070 1f b2 9f bc 2f 85 b3 bd 6f 11 5e 3d ed 2f 7b bd
       -0.019494114 -0.08765637 0.054215845 -0.061325002
000080 26 d1 4c 3d 6f 7f a4 bd 5e 40 37 3e fe cf 96 3d
       0.050004147 -0.080321185 0.17895648 0.0736389
000090 83 ac 90 3d 38 8f f6 bb bd 74 cd bd e4 b6 fb 3d
       0.07064154 -0.007524397 -0.10032032 0.12290743
0000a0 da 27 16 bc 9f 62 bc 3d 04 e6 0c 3e f2 f7 12 3e
       -0.009164775 0.09198498 0.13759619 0.14352396
0000b0 dc b3 dc 3b 80 46 4e 3e d4 6d 62 3d 29 9e 0e bd
       0.006735308 0.20144081 0.05528052 -0.034818802
0000c0 e2 0d 0c 3d 79 1f f8 3d eb d0 05 3e ca 13 28 bd
       0.034192927 0.12115378 0.13067977 -0.041034497
0000d0 12 45 32 bc 92 6c b1 3d 96 cc 98 3d 0e 43 78 3e
       -0.010880725 0.08663286 0.07460897 0.2424433
0000e0 d2 33 28 bd 45 9a 06 3f 49 7a 01 bd 64 08 52 3c
       -0.041065045 0.52579147 -0.03161076 0.012819383
0000f0 f1 68 13 3d 6d ed 64 3d bc d1 84 bd ab 51 c6 3d
       0.03598875 0.05589049 -0.06485316 0.09683546
000100 8b 59 e7 3d b7 ea b7 bd e7 e8 75 bd 21 59 1f 3d
       0.11296376 -0.08980315 -0.060036566 0.03890336
000110 cb c7 88 3c a3 3e da 3d 2f 59 68 bb 0c ab 9a bd
       0.016696831 0.10656478 -0.0035453548 -0.07552156
000120 98 87 83 3d c2 09 49 bc 76 a6 a8 bd 99 c0 b8 bc
       0.06422347 -0.012270393 -0.08234875 -0.022552775
000130 cd 93 31 3d 67 b4 d5 bd 5a 45 6d 3c bb e0 40 3d
       0.043353844 -0.104348 0.014481867 0.04708932
000140 fd 3d eb 3d 7a ca 60 3c 91 11 cf bd 80 aa ad 3a
       0.11486433 0.013720149 -0.101107724 0.0013249665
000150 ab 6a 98 bd 7d d5 4f bd ee 8c 57 bd 51 a4 e3 bd
       -0.0744222 -0.050740708 -0.052624635 -0.11115325
000160 04 b5 2a be db c3 ce bd cd 2e 13 be d7 7b f9 bd
       -0.16670614 -0.1009595 -0.14373322 -0.12181824
000170 ed b7 7b 3c c7 da f1 bd 38 ff f4 3d 78 1d 88 bd
       0.015363676 -0.118093066 0.119627416 -0.06646246
000180 51 c1 48 bd 20 9e 4f 3d 5e 61 f2 bd 1e 2d ad bc
       -0.049012486 0.05068791 -0.118349776 -0.021139678
000190 67 b1 4e 3d e1 4a 0f bd 46 c5 d3 3d df 71 93 3d
       0.050462153 -0.03498352 0.10340361 0.071994536
0001a0 97 ce 78 3b 5b 89 8f 3d 27 9d 6a bb b3 00 c9 bb
       0.0037964934 0.0700862 -0.0035799237 -0.0061341166
0001b0 b1 8f 86 bd 2a 42 91 bd 3e 5b d2 3d 10 7d a1 bc
       -0.06570376 -0.07092698 0.10271309 -0.019712955
0001c0 16 8d 2d bd 84 54 ac 3d c6 04 bd 3d cc 68 4b 3d
       -0.04237088 0.084145576 0.09229426 0.04966049
0001d0 0d ce ce 3d 29 53 7f ba fb c2 1a 3c 26 83 ca bd
       0.10097895 -0.000973987 0.009445901 -0.09888296
0001e0 c7 22 09 3d 47 a8 52 bd 97 56 7e 3d 9f 78 c6 3d
       0.033480432 -0.051430013 0.062094297 0.096909754
0001f0 fd 68 8d bd 07 b8 87 bd 03 49 50 bd da f0 82 bd
       -0.069047906 -0.06626897 -0.05085088 -0.06393595
000200 19 9d 8d bd 08 af 01 3e 0b 6f 53 bd b6 e3 ca 3c
       -0.069147296 0.12664425 -0.05161957 0.024766784
000210 cf 6c 1f 3d 1e aa 95 bc 49 d2 b6 3c 55 40 8b bd
       0.038922127 -0.018269595 0.022317069 -0.0679938
000220 df 40 39 bc 82 4f 8e bc f4 15 c9 bd 81 5c 09 3e
       -0.01130697 -0.017371897 -0.0981864 0.13414194
000230 b0 3b a3 3c dc 93 d4 3d 3d 4d 08 3d 81 7a 6d 3d
       0.019925922 0.103797644 0.033276785 0.057978157
000240 68 27 f0 3d a4 4d af bd 40 72 a4 3d 70 f8 7a 3c
       0.11726266 -0.08559731 0.08029604 0.015318021
000250 32 ae d0 bd 04 48 a5 bb 2d b8 60 3d e9 19 a8 bd
       -0.10189475 -0.0050439853 0.054863144 -0.08208067
000260 ff 46 e1 bd 0e eb de bd 60 b9 28 bd ef 0a 00 be
       -0.109998696 -0.10884677 -0.041192412 -0.12504171
000270 a1 30 aa 3d 18 3e 9b bd 01 92 c7 bd 87 8a 86 bd
       0.083100565 -0.07580203 -0.09744645 -0.06569391
000280 81 36 11 bc 35 c8 3f 3d 93 aa 9b 3d 4a 71 2b 3d
       -0.008863092 0.04682179 0.07600894 0.041856088
000290 d6 57 21 3d 17 56 e8 bd 35 d7 10 bc 6e 68 c3 3d
       0.039390408 -0.11344545 -0.008840372 0.09541403
0002a0 52 a8 8a bd 2e 9e 43 3d 0f 43 3d bd 14 c2 9e 3d
       -0.06770386 0.047758274 -0.04620653 0.07751861
0002b0 93 d2 d2 bd d3 7e 0d 3c 5b f1 fc bd b5 96 c9 bd
       -0.1029407 0.008636194 -0.123507224 -0.09843198
0002c0 8a a2 9a 3d 69 74 9d bc 58 65 e5 bb 28 1f df 3c
       0.07550533 -0.019220548 -0.0070006065 0.027236536
0002d0 b6 1b aa bd a5 97 29 3d f7 63 79 bd 3b 35 b0 bd
       -0.08306067 0.041404385 -0.06088635 -0.08603903
0002e0 b1 b0 cd bd 12 c2 70 bd d2 bc 90 3d 03 8c 04 3d
       -0.10043467 -0.05877883 0.070672646 0.032360088
0002f0 87 e5 75 3d 6c e9 84 bd 43 6c 26 3d 0a e2 77 bc
       0.060033347 -0.06489834 0.04063059 -0.0151295755
000300 e9 65 f1 3d 05 c9 28 bd 12 37 81 bc ad c5 e5 3c
       0.11787016 -0.041207332 -0.01577333 0.02804836
000310 b6 9a fb 3d f3 41 10 bd b9 db d5 bd 33 29 60 3d
       0.12285368 -0.035219144 -0.104422994 0.05472679
000320 7a 43 ad 3d 4b b1 dd bd a1 2a 74 bc c3 f1 fd 3a
       0.08460136 -0.108248316 -0.014902742 0.0019374419
000330 61 5d 28 3e 3e 3b 34 3d 21 5c 72 bd ec 73 de 3d
       0.16441871 0.04400181 -0.059169892 0.10861954
000340 3e f4 8d bc 3f 70 a8 bd fe 9a 04 3e 9f a8 7b 3b
       -0.017328378 -0.08224534 0.1294975 0.0038400067
000350 d2 5c 6b 3d ff d7 5a 3c b3 0b f6 3d b2 4f e9 bc
       0.057461567 0.013357162 0.1201395 -0.028480384
000360 dc 85 de 3e af a4 98 bd b0 66 75 bd ce bb 37 bd
       0.43461502 -0.07453286 -0.059912384 -0.04485684
000370 ca 59 15 3e b1 aa 52 bd ee 26 01 3b d9 30 52 3d
       0.14585033 -0.051432315 0.0019707042 0.051316116
000380 56 36 f3 3d 10 c3 39 bd 85 cb 51 3d 3e 02 6e 3d
       0.11875598 -0.04535204 0.051219482 0.058107607
000390 e6 b9 5e 3c 79 81 be 3d b7 97 dd 3d 02 89 1b bd
       0.013594126 0.09302039 0.10819953 -0.037972458
0003a0 7b 62 d5 3c 6a 8e 2a 3c c5 ac a4 bd 25 3f ca 3a
       0.026047936 0.010409931 -0.08040766 0.0015430195
0003b0 c4 9d 6b 3d db b5 2b 3e 2d 74 0b 3d a6 b0 9b bd
       0.057523504 0.16768591 0.03404634 -0.076020524
0003c0 60 cb 12 bc 78 d7 e5 3d 45 f5 9c 3d a7 79 88 bc
       -0.008959621 0.11222738 0.07663969 -0.01665957
0003d0 84 61 3c 3d 93 11 e9 bc c5 9b 6c bc 65 42 89 3e
       0.045991436 -0.028450763 -0.014441435 0.26808468
0003e0 0e 24 72 bd 8e ba ca 3e 06 a2 b2 3d ef 7f 33 3c
       -0.059116416 0.39595455 0.0872231 0.010955795
0003f0 8d 5f 09 3e cf fc 39 3d 1d 5f 39 3d 5b d2 07 bd
       0.13415356 0.045407113 0.045256723 -0.033159595
