checkpoints/Tend_LSTM_L2_bs16_traindeg0_bsfirst_pos1_freq/Tend_LSTM_L2_bs16_epoch297_best1.9024102035022916.pt (torch, 206325 bytes, 9 tensors)

rnn.weight_ih_l0 f4 [256, 3]
000000 8d dd 90 3f 1b 21 0c 80 2d a1 42 3e cd 69 9d be
       1.1317612 -1.113902e-39 0.19006796 -0.30744782
000010 3c 02 0f 80 30 a3 07 bf 12 02 c1 3e 3c 2e 05 00
       -1.378334e-39 -0.5298338 0.37696892 4.75763e-40
000020 d6 f9 fc 3d 66 53 1b bf 22 88 0d 00 71 95 50 bf
       0.1235234 -0.6067413 1.242697e-39 -0.8147803
000030 c2 81 c0 3d 9e 45 04 80 84 90 38 3e 80 37 11 3f
       0.09399749 -3.92316e-40 0.18023878 0.5672531
000040 3e 18 0d 00 9b 51 19 3f a7 7a ac bd 52 b2 00 00
       1.202558e-39 0.59890145 -0.084218316 6.3969e-41
000050 e8 db b7 be fe 76 1d 3e 2f d7 09 80 23 8e db 3e
       -0.35909963 0.15377423 -9.03713e-40 0.4288188
000060 40 54 3d 3e 20 6a 06 00 44 4f 00 3e 7b 99 75 bd
       0.1848917 5.89083e-40 0.12530237 -0.059960824
000070 7c 03 0a 80 d9 91 8a 3f ef f1 58 3f 6c 6f 08 00
       -9.19605e-40 1.0825759 0.8474416 7.74655e-40
000080 f0 ea 36 3f 1d e7 5a be eb 01 0d 80 b5 e1 8c bf
       0.71452236 -0.21377225 -1.19455e-39 -1.100638
000090 a3 b9 f8 3d e6 a1 14 80 a9 bc 0d bf 3b 86 a2 be
       0.121447824 -1.894788e-39 -0.55366 -0.31743035
0000a0 47 ff 0b 80 89 58 04 bf bf 9a 0f 3f a7 db 14 80
       -1.101767e-39 -0.51697594 0.560955 -1.915506e-39
0000b0 3f 5e 83 3e 30 f6 a1 bd 23 24 0c 00 27 09 70 be
       0.25657842 -0.07908285 1.11499e-39 -0.23440991
0000c0 99 ea c2 38 77 eb 05 80 e2 46 46 be 90 b4 f0 3e
       9.294338e-05 -5.43646e-40 -0.19362977 0.47012758
0000d0 94 75 0c 80 51 6f 78 3e 46 96 ea 3e 59 18 0e 80
       -1.144205e-39 0.24261214 0.45817775 -1.294431e-39
0000e0 25 00 8b be bb b2 05 bf 18 33 08 80 8d 66 ed be
       -0.27148548 -0.52225846 -7.53013e-40 -0.46367303
0000f0 8a 80 10 bf 49 b3 0d 00 cb fe a6 be c3 4e bf 3e
       -0.56446135 1.258177e-39 -0.32616267 0.37364778
000100 c9 2c 0e 80 c6 c4 f3 be 94 22 fd 3e 99 6c 01 80
       -1.301763e-39 -0.47611064 0.49440444 -1.30793e-40
000110 18 c6 9b 3e 28 ec a2 3d e8 8c 0c 80 ea e6 30 bf
       0.3042457 0.079551995 -1.152574e-39 -0.69102347
000120 94 0f 04 3f 9b 99 03 80 87 8e 04 be 53 68 04 3e
       0.5158627 -3.3061e-40 -0.12944995 0.12930422
000130 d1 6e 14 00 1d f2 ab 3d f3 31 00 bd 59 1a 16 00
       1.876463e-39 0.08395789 -0.031297635 2.029833e-39
000140 58 3c af bd 99 84 81 bd 6a ea 0b 80 3e 1f a4 bf
       -0.085564315 -0.06324119 -1.094282e-39 -1.2822034
000150 d0 e1 01 3f 0a f1 00 80 72 f8 4f 3e c8 ab a8 3e
       0.5073519 -8.6469e-41 0.20309618 0.3294356
000160 a0 ec 01 00 94 d7 29 be d9 28 3c 3e b1 af 05 00
       1.7672e-40 -0.16586143 0.18374957 5.22204e-40
000170 7c ad 3d bf 47 9a ec bd df 0d 0a 80 a3 d0 72 be
       -0.7409284 -0.115528636 -9.23331e-40 -0.23712401
000180 c0 ad 43 3f ad a0 03 80 b0 db ff 3e d5 36 89 3f
       0.76436996 -3.33146e-40 0.49972296 1.0719858
000190 91 8b 10 00 ec 20 24 3f a6 8c 8f 3d 8f ad 09 00
       1.519435e-39 0.64112735 0.070092484 8.8878e-40
0001a0 4f 48 85 bf 20 49 a1 3e a4 af 02 80 c4 ae 16 3e
       -1.0412692 0.31501102 -2.46679e-40 0.14715105
0001b0 bd 65 18 bf d5 61 01 80 27 0b ba be 1f ad 02 3f
       -0.5953024 -1.26931e-40 -0.36336634 0.5104541
0001c0 3b c4 08 80 44 ec 4d bc 59 7b 0e 3e e7 9f 0a 80
       -8.05078e-40 -0.012568537 0.13914241 -9.75717e-40
0001d0 d6 08 19 3e 0c 64 52 3f 69 75 0c 00 fc 66 fd 3e
       0.14944777 0.8218391 1.144145e-39 0.49492633
0001e0 4d c0 f8 be 8e 37 0b 00 f4 73 83 be 39 81 a6 3b
       -0.48584214 1.03012e-39 -0.25674403 0.0050813225
0001f0 97 74 10 00 e5 f4 69 bd 01 ea b8 3e b7 da 07 00
       1.511192e-39 -0.057118315 0.3611603 7.21309e-40
000200 48 c7 12 3f 4e df 0a 3f cd 7f 0e 00 6f 66 d3 be
       0.5733533 0.54246986 1.331543e-39 -0.41289088
000210 f6 bb 79 3d 08 d4 0a 00 86 f6 0d 3d 45 1f 35 3e
       0.06097027 9.94417e-40 0.03465893 0.1768771
000220 58 1b 06 80 b9 c7 10 c0 55 f6 5d 3e 73 61 01 00
       -5.60822e-40 -2.26219 0.21676 1.26794e-40
000230 d1 d8 99 be 75 e7 1c bf 72 cd 0d 00 9f 87 3d bf
       -0.3004823 -0.61290675 1.267561e-39 -0.74035066
000240 e0 e0 19 bf 0c b7 0c 00 76 69 a5 be b3 7d 37 3f
       -0.60108757 1.167691e-39 -0.32307023 0.71676177
000250 91 22 0a 80 76 e5 07 3f ca 8c 97 be 4c 87 00 00
       -9.30755e-40 0.53084505 -0.295996 4.8535e-41
000260 05 ea 8c be 53 29 26 bf 11 02 0d 00 0a de da be
       -0.27522293 -0.64906806 1.194603e-39 -0.42747527
000270 a7 d7 1a bf fe 43 08 00 f8 b8 2d bf 59 3a a2 3e
       -0.6048531 7.59075e-40 -0.67860365 0.3168514
000280 f6 31 0c 00 69 3c bb 3e 7b 2c d3 3e eb 61 14 80
       1.119949e-39 0.36569527 0.41244873 -1.871836e-39
000290 e0 8d 07 3e 7e 00 0a 3f b3 5a 0c 00 a5 8c 30 3d
       0.13237715 0.53907 1.134563e-39 0.04310288
0002a0 98 af 1b 3e 0e 9c 01 80 f0 5a 22 be 99 6c 0a bf
       0.15203702 -1.47817e-40 -0.15855002 -0.54071957
0002b0 eb 2c 0f 80 25 cb a4 be 14 a8 b5 be 72 52 07 80
       -1.393646e-39 -0.32186237 -0.35479796 -6.72424e-40
0002c0 6b b2 7f be 29 bb ac be 30 1a 02 00 b4 04 cd bf
       -0.24970405 -0.33736542 1.93065e-40 -1.601706
0002d0 aa 41 a6 be 69 05 0b 80 ad d3 a0 bf 0d a2 28 3f
       -0.32471973 -1.012131e-39 -1.2564598 0.6587227
0002e0 2c 5f 0a 00 42 3e a9 3e 5a 6e 9b be 4e 79 14 80
       9.52496e-40 0.3305531 -0.3035763 -1.880226e-39
0002f0 5f d4 60 be 2b ac f9 3e 15 a9 0e 00 93 77 c3 3e
       -0.21956013 0.48764166 1.346352e-39 0.38177165
000300 f4 b2 62 3e de 19 12 80 2c 09 0e be 9f ef 42 be
       0.22138578 -1.662318e-39 -0.13870686 -0.1903672
000310 c6 72 0c 00 70 70 d9 bd f5 63 80 3e 23 4d 15 00
       1.143199e-39 -0.10617149 0.2507626 1.956217e-39
000320 62 db 48 be 69 d7 97 be c5 ff 05 00 88 88 8c bd
       -0.19614938 -0.29656532 5.5093e-40 -0.06861979
000330 38 93 47 be 1e 37 0c 00 a0 b9 d6 be 6e 02 19 be
       -0.19489753 1.121798e-39 -0.41938496 -0.14942333
000340 8b fe 11 00 56 79 77 be d0 dc 0a bf 1c 23 09 80
       1.652516e-39 -0.2416738 -0.54243183 -8.39114e-40
000350 e9 6d d2 be 98 b3 89 3e 95 4c 13 00 53 dd a3 3e
       -0.4109948 0.26894832 1.772347e-39 0.32004794
000360 3f 0a 27 3e a9 17 0b 80 8c 5d 9e bd 0c 48 b9 3e
       0.16312502 -1.018678e-39 -0.077326864 0.3618778
000370 d5 33 0a 80 95 e3 63 3f fd 64 e8 be 07 58 05 00
       -9.36949e-40 0.8901914 -0.45389548 4.90756e-40
000380 d5 f3 b6 be 57 23 20 be 49 f2 06 80 11 fb 0a bf
       -0.35732904 -0.15638481 -6.37929e-40 -0.54289347
000390 35 33 67 3d 55 a9 0e 80 88 7c 90 be 5c 33 e8 bd
       0.05644532 -1.346442e-39 -0.2822001 -0.11337921
0003a0 4e 40 15 00 3d 37 24 be b7 f7 ea be 24 88 0e 00
       1.951614e-39 -0.16036697 -0.45892116 1.334535e-39
0003b0 e9 7b b8 be d2 b8 39 be 5f 3c 15 00 c6 32 dd be
       -0.36032036 -0.1813691 1.950202e-39 -0.432028
0003c0 ed 62 3b bf 02 db 02 80 97 af 63 bd b6 13 0d bd
       -0.73197824 -2.62236e-40 -0.055587377 -0.034442626
0003d0 18 27 0e 00 d9 37 9c be 95 23 81 bd 84 50 03 80
       1.299721e-39 -0.30511358 -0.06305615 -3.0439e-40
0003e0 57 49 7d be 3b 64 fb bd d3 97 00 80 09 9f 21 be
       -0.24735008 -0.12274977 -5.4464e-41 -0.15783323
0003f0 47 92 ab bd 33 a2 08 00 6b bc 62 bd c5 c1 98 bd
       -0.083775096 7.9287e-40 -0.05535547 -0.074588336

rnn.weight_hh_l0 f4 [256, 64]
000000 7e e3 65 be 44 41 23 be c6 9a 61 3c 36 cc 92 3b
       -0.22450063 -0.15942866 0.013769811 0.0044799102
000010 4c d2 87 be 6f d0 23 3d cb 33 87 bc 4d 30 13 3e
       -0.2652763 0.0399937 -0.016504189 0.14373894
000020 58 d4 3a be a5 7a 26 3d 5a c3 96 3d 2a 1d 8e be
       -0.18245065 0.040644307 0.07361479 -0.27756625
000030 1b 55 59 3e 60 e7 16 be 1f fe 79 3d df ba 1f 3d
       0.21223871 -0.147367 0.061033364 0.038996574
000040 54 13 82 be bc 8c 77 3d d4 97 93 be 52 41 a1 bd
       -0.2540537 0.06043695 -0.28826773 -0.07873787
000050 f1 36 1b ba e4 bb d4 bd c8 a0 84 3e e4 08 bb 3a
       -0.00059209677 -0.103874 0.25903916 0.0014269617
000060 7d 2a ba 3b e7 92 1c 3e 19 26 0a 39 e9 4d 7f be
       0.0056813345 0.15290414 0.00013174898 -0.24932064
000070 a0 85 b6 3d 8d 69 03 3e e9 13 66 be d1 d4 ab bd
       0.08912206 0.12833233 -0.22468533 -0.08390201
000080 53 d0 ed bd 14 c5 bf 3d 84 dc 33 3e ba 3c 12 3f
       -0.11612 0.093637615 0.17564589 0.5712391
000090 39 41 3d bc bd 8b 2c 3e c1 b1 34 3d bd ea 0c be
       -0.011551195 0.16850181 0.04411483 -0.1376142
0000a0 f7 39 bd 3b cc 5f a1 3d 40 5b 12 3e 55 8d 4f be
       0.005774732 0.078796 0.14292622 -0.20268758
0000b0 d8 3a f8 3d fa d6 29 be 8a c4 0b be 28 8c 69 3c
       0.121205986 -0.16585913 -0.13649192 0.014254607
0000c0 5e c0 af bb 26 97 21 be 65 c9 ad bd d4 5f b9 bc
       -0.005363508 -0.15780315 -0.084856786 -0.022628702
0000d0 84 5f 30 bc e9 c0 2a 3e 7f a3 d4 3d 3e e1 ef 3d
       -0.01076496 0.16675152 0.10382747 0.117128834
0000e0 ea 26 00 be 42 28 e6 bb 27 fd 8c 3b 1d 7e 7a be
       -0.12514845 -0.007023842 0.004302639 -0.24462171
0000f0 69 03 f6 bd 62 3a 07 be 76 c6 66 bd ff 99 ca 3d
       -0.12012369 -0.13205865 -0.05634161 0.09892654
000100 50 46 2b be c7 cf 95 3b 6e 59 05 3d d9 2c 02 ba
       -0.16726041 0.004571888 0.03255599 -0.0004965789
000110 dd 85 42 3c 54 c9 4a bd 48 da b9 bb 47 14 d3 3d
       0.011872736 -0.049508408 -0.005671773 0.10306602
000120 46 0c e2 3c c0 58 00 be 30 55 0e bc d5 0f 11 3c
       0.027593743 -0.12533855 -0.0086873025 0.008853872
000130 53 46 a6 bb 43 bf ac 3b eb dd e3 bc cb ec 04 3b
       -0.0050743013 0.0052718236 -0.02781578 0.0020282741
000140 e6 8e 53 bc 74 e5 38 bd a5 56 74 3d b0 7d 98 ba
       -0.012912488 -0.0451407 0.059652943 -0.0011634137
000150 b8 74 8c ba 77 13 36 3b 13 a9 8b bc 02 8e 92 bb
       -0.0010715937 0.0027782598 -0.017048394 -0.004472495
000160 3b c7 22 3c eb 63 a4 3b f4 9c 1c 3d 04 cf ea bc
       0.009935196 0.005016794 0.03823562 -0.028663166
000170 49 73 3e 3d 2c 54 c6 bb 6a 1d 3e 3c b9 a2 2c 3a
       0.046496663 -0.0060525145 0.011603693 0.0006585527
000180 79 0f d8 bc 37 d0 ad 3c 39 4e 04 be 72 4f 84 bd
       -0.026374565 0.021217449 -0.12920465 -0.064604655
000190 c5 c7 ad ba 40 14 50 3c 23 f9 05 bc 4f 6b c3 3d
       -0.0013258388 0.0127001405 -0.008177075 0.09541952
0001a0 92 c7 14 ba 62 58 2f 3b 73 fb 22 3d 88 bd 86 3b
       -0.000567549 0.002675556 0.039790582 0.0041119494
0001b0 f4 8c a9 3a 3d 5b 8e 3d 0f 65 84 bb 77 35 c5 3a
       0.0012935684 0.06950996 -0.0040403674 0.0015045841
0001c0 7c 75 4c ba aa ba 97 bc 10 2a b7 3b 8f 8d b6 39
       -0.0007799489 -0.018521626 0.005589731 0.00034819214
0001d0 6e 3a 42 ba 98 2c f4 bc 44 20 30 3b 68 5c 38 3d
       -0.00074092194 -0.02980642 0.00268747 0.04501
0001e0 d2 1a 67 3c 74 77 d3 3a a2 77 24 b9 89 3a c6 3b
       0.014105516 0.0016133622 -0.00015684825 0.0060494584
0001f0 5f 71 ae 3b 6e 09 5c 3d 88 43 c8 3d 16 b6 d6 3c
       0.0053235735 0.05371993 0.097785056 0.026209872
000200 6f bd aa be c4 f9 2b 3d 7e f8 1f 3d af 94 47 3c
       -0.3334765 0.041986242 0.03905534 0.012181445
000210 45 5a 07 bd 6d ba c7 3e d3 d0 c3 be f9 a7 ec bc
       -0.033045072 0.3900942 -0.38245258 -0.02888869
000220 c5 78 ea 3d 0a e3 6f be 91 d1 4e 3e 83 29 b4 3d
       0.11448816 -0.23426452 0.2019713 0.0879698
000230 b6 bc 07 be 77 a2 96 3d a5 11 ab 3e 6a 7f a7 bd
       -0.13255581 0.073552065 0.334119 -0.08178599
000240 84 59 50 be c2 1d 5c 3d a4 5b 83 3e 32 be 2c 3d
       -0.20346648 0.053739317 0.25655854 0.042173572
000250 92 ea 29 3b 84 2a 01 3e c5 72 b0 bd 18 ad 83 be
       0.0025927168 0.12613875 -0.086156406 -0.25717998
000260 1d 0a 51 3a 6e d8 b5 bd c2 6f 49 bd 8e 97 10 3d
       0.0007974224 -0.08879171 -0.049178846 0.035300784
000270 52 f3 d1 3e d4 a3 57 be aa b9 23 3e 79 52 64 be
       0.4100595 -0.21058589 0.15988794 -0.22297086
000280 89 10 da 3d d0 7e ba 3e a9 09 c0 bd ca 56 bb bd
       0.10647685 0.36424875 -0.093768425 -0.09147413
000290 5c 25 37 bc ad 94 b6 be 2d ac 2f be 8d b4 58 be
       -0.011178341 -0.35660306 -0.17155524 -0.21162625
0002a0 15 c4 4c 3c ec e6 ec bb 92 e8 8e bc 1b ea 06 3e
       0.0124979215 -0.0072296765 -0.017444883 0.13175242
0002b0 04 d0 2b be 43 da 5f 3d 7a 51 7c 3e 47 73 23 3c
       -0.1677857 0.05465151 0.24640456 0.009976215
0002c0 99 05 0d bc 97 b0 3e bb be 6e 2d 3d 6d 22 13 3c
       -0.008607292 -0.0029096955 0.04234194 0.008980376
0002d0 b2 86 db 3a 8a 0e 2f 3f f8 19 b3 bc 87 ae 39 3e
       0.0016748516 0.6838156 -0.021862969 0.18132983
0002e0 67 12 82 3e f1 62 30 bb 64 93 81 bd 60 c7 07 3d
       0.25404665 -0.0026914442 -0.06326941 0.033149123
0002f0 3a 62 44 3e 85 85 81 bc b9 49 06 3e 2c 96 85 be
       0.19178095 -0.015810737 0.1311406 -0.26091135
000300 b7 56 2c be ea 4b 9b 3a 56 9d 57 ba cf 05 36 ba
       -0.16829954 0.0011848186 -0.0008225044 -0.00069436146
000310 d8 25 5f 3b 1e c9 b4 3d 0c 0c f0 bb 49 f9 20 3c
       0.0034049656 0.088274226 -0.007325655 0.009825059
000320 70 83 e0 bb 5f 22 df 3c 45 6d 1f 3d d2 93 12 3b
       -0.006851606 0.02723807 0.038922567 0.002236594
000330 08 99 1b ba 1f 6c 48 3a 5a 0d b5 3d aa e0 d4 3a
       -0.0005935584 0.0007645506 0.08840437 0.0016241272
000340 a2 ca 3a bd 3d e3 93 bd 8a bf 3e 3d 59 6a bc 38
       -0.045603402 -0.07221077 0.046569385 8.9843474e-05
000350 35 fe 7f b8 93 78 23 3c 18 38 8e bc cd e7 b4 bc
       -6.1033486e-05 0.009977478 -0.017360732 -0.022083187
000360 fd 15 89 bc 05 72 15 bc 1d 03 7b bb 35 62 33 bb
       -0.016734118 -0.009121423 -0.0038301416 -0.0027371768
000370 ea a1 a2 3c 7a 14 b6 bc de fb fe 3b 6d 8b 95 3b
       0.019852597 -0.02222656 0.0077814898 0.00456374
000380 69 82 87 3c 68 d5 77 3d 9d 86 ad 3c 75 a2 42 3d
       0.016541677 0.060506254 0.021182353 0.047518212
000390 fa d8 31 b9 2d 01 13 bd dd 14 23 bb 89 09 68 bd
       -0.00016960865 -0.035889793 -0.0024884262 -0.05664972
0003a0 db a0 88 b8 f7 b2 46 ba 36 f3 22 3c 63 82 51 3c
       -6.514947e-05 -0.00075797684 0.009945681 0.012787434
0003b0 ee 7d f0 3a 99 6a b5 bc ef aa 9d 3c 48 7e 1d b9
       0.0018348077 -0.022145556 0.019246547 -0.0001501973
0003c0 21 ce eb b8 8f 0a f3 3c 2a b8 a7 ba 98 bb 41 3a
       -0.00011244068 0.02966812 -0.0012795974 0.00073903194
0003d0 14 81 bb 39 3b 93 a1 3d 35 f7 e4 bb be 05 aa 3b
       0.0003576359 0.0788941 -0.006987477 0.005188673
0003e0 a6 c8 8e 3c 0e e7 01 b9 b8 38 78 b9 1f 0f 8e 3a
       0.017429661 -0.00012388473 -0.00023672252 0.0010838247
0003f0 87 dc 1f 3b c2 26 c8 bc 26 39 88 bc c2 1b b9 bc
       0.002439292 -0.024432544 -0.016628813 -0.022596244

rnn.bias_ih_l0 f4 [256]
000000 e4 94 38 3f c1 c7 ef be a9 b5 e0 3e 9c dc 3f bf
       0.7210219 -0.46832088 0.43888596 -0.74946
000010 d1 06 e6 3b de f9 04 3f 4a 5a cb be 13 f9 48 3e
       0.0070198555 0.5194377 -0.39717323 0.19626264
000020 d7 8c 99 3d fb 86 34 bd cc a6 8f 3f 06 83 6e be
       0.07497566 -0.04407404 1.1222777 -0.23292169
000030 ee 60 07 be 01 5e e7 be d4 f6 f4 3e df e3 e3 be
       -0.1322057 -0.45188907 0.47844565 -0.4450979
000040 32 a6 a8 3e b3 b6 55 3f 20 1b fb 3e 27 95 28 bf
       0.32939297 0.834819 0.49044132 -0.6585259
000050 47 e2 95 bf 3a ac 47 3e 28 27 db 3d 42 c2 3a 3e
       -1.1709679 0.19499293 0.10700828 0.18238166
000060 56 f8 9b 3e e6 6b bc bb f7 70 03 be 8a d6 b1 be
       0.30462903 -0.005750167 -0.12836061 -0.34733993
000070 06 92 21 3f 80 32 c0 3e ae 86 ca bd e3 fe 2f bd
       0.6311344 0.37538528 -0.09888969 -0.04296769
000080 d0 12 5a 3f 51 e8 68 3f 0b 74 7b be a2 0a 37 3e
       0.85184956 0.90979487 -0.24555986 0.1787515
000090 87 af 91 bf ce 85 bf 3e 17 76 ab bc c7 ae 67 3f
       -1.1381692 0.37406772 -0.020930333 0.90501064
0000a0 35 ae 96 bf 72 33 7e bc 33 11 34 3e a8 79 a4 3e
       -1.1771914 -0.015515195 0.17584686 0.32124066
0000b0 f8 ed ac be d9 64 54 be 13 97 b3 3e 4d f8 2d bf
       -0.33775306 -0.20741595 0.35076198 -0.67957
0000c0 3d 95 99 bf 3f a7 3b 3f 55 cc 50 be ae 2d 53 bf
       -1.1998669 0.7330207 -0.20390446 -0.82491577
0000d0 63 87 8d bf c3 f3 b0 3e de cc ca 3e ed 07 3d 3f
       -1.1056942 0.34560975 0.39609426 0.7384022
0000e0 bd 41 4f 3e 0c 5b 94 bf 5d fd 3b bf 30 e2 34 bf
       0.20239921 -1.1590285 -0.73433477 -0.70657635
0000f0 52 a5 c8 be cf 5e f0 3e 15 27 d9 be e4 78 f5 3e
       -0.3918863 0.46947333 -0.4241263 0.47943795
000100 63 6d 35 be 77 47 e2 be 39 18 9e be 14 5e dc be
       -0.17717509 -0.44195148 -0.30877855 -0.43040526
000110 b1 69 91 be 03 38 d5 be 72 4a ad be ca 61 2b be
       -0.2840095 -0.41644296 -0.3384586 -0.16736522
000120 26 53 97 be e8 4d f5 bc 9f 59 c8 be d7 e7 ba be
       -0.29555625 -0.029944375 -0.39130875 -0.36505005
000130 9a 88 cd be ab 5f 66 be 31 87 e7 be 26 9e fc be
       -0.4014328 -0.22497432 -0.4522033 -0.49339408
000140 3e 43 e0 be a9 4f ad be 58 71 57 be 13 db b4 be
       -0.43801302 -0.33849838 -0.21039331 -0.3532339
000150 c7 aa 7a be 0b 2d 66 be 3e 66 07 be 0b f5 a2 be
       -0.24479209 -0.2247812 -0.13222596 -0.31827578
000160 ea 4e ff be 1d 24 ef be b0 3b 84 be c4 39 a9 bd
       -0.49864894 -0.4670724 -0.25826788 -0.08262971
000170 22 75 90 be 70 ce 94 be 74 b6 99 be 3d c4 a7 be
       -0.28214365 -0.2906375 -0.30022013 -0.32766905
000180 23 ad 6c be 42 77 75 be b0 33 28 3e d0 cf 54 3e
       -0.23112921 -0.23971274 0.16425967 0.20782399
000190 4d 82 94 be 31 11 d8 be ae db d7 be 70 09 09 be
       -0.29005662 -0.42200616 -0.4215979 -0.13382506
0001a0 dc ed 83 be 31 2b a3 be a2 fa 8f be 31 ff c9 be
       -0.2576741 -0.3186889 -0.28120905 -0.39452508
0001b0 d9 0f b7 be f9 f4 2f bd 3a 9b 85 be 43 8e 26 bf
       -0.35754278 -0.042958234 -0.2609499 -0.65060824
0001c0 7a d1 9e be d0 a4 bd be 0d 2a 24 bf 97 ea a2 be
       -0.31019193 -0.37039804 -0.64126664 -0.31819603
0001d0 83 a9 99 be 54 df 00 bf e6 67 71 be 50 a4 f6 be
       -0.3001214 -0.5034077 -0.2357479 -0.48172235
0001e0 62 48 56 be 72 10 8b be 60 a0 00 bf ae a9 ed be
       -0.2092605 -0.27160984 -0.5024471 -0.46418518
0001f0 a4 43 00 bf c4 f9 03 bf 1a c7 c2 bc 5c 37 0b be
       -0.5010321 -0.5155299 -0.02377658 -0.13595337
000200 06 4e 34 3e 01 9d 4b 3d 78 e9 5e be ff 61 02 3e
       0.17607889 0.049710277 -0.21768749 0.12732695
000210 44 b0 d6 bd 19 7b 0e be 21 02 2d 3c c5 a0 20 3d
       -0.10482839 -0.13914146 0.01055959 0.03921582
000220 0e e8 9d bc 85 a6 04 3e 01 84 7a be e8 f6 19 be
       -0.019275691 0.12954147 -0.24464418 -0.15035594
000230 45 65 6f 3d bb 7c 21 3d df 26 56 bd e8 b8 d6 3c
       0.058446188 0.039425593 -0.052283164 0.026211217
000240 5f 99 0a 3e 7d 1d 67 3e 73 d4 35 be 01 90 ec bd
       0.13535069 0.22569843 -0.17756824 -0.11550904
000250 34 57 c6 bc bd a0 a4 bd 0d 4e a2 bd bf 8c 5a 3e
       -0.024211504 -0.08038471 -0.07925043 0.21342753
000260 7e ed 18 3e 85 e0 da 3d 98 9b 22 be 64 31 ab bd
       0.14934346 0.10687355 -0.15879667 -0.0835903
000270 ed 98 69 be 57 53 1a 3e 2e 18 ec bd 7b 90 10 bc
       -0.22812243 0.15070854 -0.115280494 -0.008823509
000280 17 2b 1e be fb ad 48 be 02 da 13 3d b5 de 00 3d
       -0.15446125 -0.19597618 0.03609658 0.03146239
000290 85 b5 1c bd 15 87 9d 3d 35 72 08 3e ae 43 3d 3e
       -0.038259048 0.076917805 0.13324817 0.18482849
0002a0 56 a2 b1 3c 79 d2 a9 3c cc cd 52 3e 8f f7 a4 bd
       0.021683853 0.020730244 0.20586318 -0.080550306
0002b0 6f 6b 1a 3b 58 19 2d 3d c5 ee 6e be c5 7c 50 3d
       0.002356257 0.042260498 -0.23333271 0.05090024
0002c0 5b 19 4a bd 11 d8 6b be 35 02 32 be a1 4f b8 bd
       -0.049340587 -0.23031642 -0.17383654 -0.08999563
0002d0 dc b2 86 bd 1a f2 2c be 45 38 65 3e dd 57 3c be
       -0.065770835 -0.1688923 0.22384746 -0.18392892
0002e0 f1 49 1d be 53 4d e6 bc e9 bf 33 3d 6f 76 75 3c
       -0.15360238 -0.028113043 0.04388419 0.01498185
0002f0 40 59 b6 bd f2 36 b8 3d 48 45 bf bd c6 16 98 3d
       -0.08903742 0.08994855 -0.09339386 0.07426219
000300 e7 ae 62 3f 20 8a d2 be 5f 30 97 3e 0c 36 59 bf
       0.8854813 -0.41121006 0.29529092 -0.84848094
000310 d1 fb 2e 3e ee 21 e3 3e 6e a2 96 be 53 b6 3a 3e
       0.17088248 0.44361824 -0.294208 0.18233614
000320 e5 ca a8 3d 02 c0 4d 3d d7 6d 88 3f 36 9d cd be
       0.08241824 0.05023194 1.065852 -0.40159005
000330 3c 98 8b be b7 5e 24 bf c7 ce 04 3f 46 26 07 bf
       -0.27264583 -0.64207023 0.5187802 -0.52792776
000340 d1 57 af 3e 59 f2 42 3f 20 6b 15 3f 5c 3c 2d bf
       0.34246686 0.76151043 0.58366585 -0.67670226
000350 cf a4 8e bf e0 62 d1 3c 7c b1 36 3e 51 a1 0d 3e
       -1.1144046 0.025559843 0.17841142 0.13831069
000360 f4 10 ac 3e ec 69 df 3d ec 8c 6f be de 34 73 be
       0.33606684 0.10908875 -0.23393601 -0.23750636
000370 24 d1 4f 3f 94 f4 c1 3e dd 74 1b 3d a3 8f 05 bd
       0.811785 0.3788191 0.037953246 -0.032607686
000380 85 22 40 3f b5 b5 85 3f 04 c0 d6 bc 93 d8 1e 3e
       0.7505267 1.0446078 -0.026214607 0.15512304
000390 35 a4 8b bf 85 ce 89 3e 33 cf 71 3c fc 69 51 3f
       -1.0909487 0.26915374 0.014758873 0.81802344
0003a0 92 d1 97 bf 93 7c 8a 3d f6 9b b6 3e b8 47 81 3e
       -1.1860831 0.06762042 0.35665864 0.2525003
0003b0 9c 89 c2 be 1f 00 fd bd cc 40 bd 3e 1c 55 2d bf
       -0.37995613 -0.12353539 0.369635 -0.6770799
0003c0 66 c1 97 bf de 65 76 3f 3e 02 41 be 41 ea 66 bf
       -1.1855896 0.96249187 -0.18848512 -0.90201193
0003d0 73 c4 86 bf 69 4c 39 3e e4 32 9b 3e 25 27 2f 3f
       -1.0528702 0.18095554 0.30312264 0.68419105
0003e0 6a 37 38 3e 99 8e 95 bf 92 8b 3a bf ac 9d 34 bf
       0.17989889 -1.1684142 -0.7286922 -0.7055309
0003f0 e1 99 d0 be 14 c9 bf 3e 1c c8 1c be b0 08 c5 3e
       -0.407424 0.37458098 -0.1531071 0.3848319

rnn.bias_hh_l0 f4 [256]
000000 05 64 3d 3f f3 77 0e bf fd 14 8c 3e 09 6d 40 bf
       0.7398074 -0.5565178 0.27359763 -0.75166374
000010 fa d3 23 3e b1 2a 03 3f 77 02 9c be d8 92 45 3e
       0.15998831 0.51237017 -0.3047063 0.19294298
000020 65 ce b7 bb 6b f4 b8 bc fd 36 9b 3f a4 d8 bb be
       -0.005609321 -0.022577485 1.2126156 -0.3668872
000030 75 cd 8d be c2 a0 21 bf bc 8b 02 3f ac 0a e1 be
       -0.27695814 -0.6313592 0.5099447 -0.43953454
000040 8b 32 b4 3e 7e a4 44 3f a1 20 d2 3e 8d ed 46 bf
       0.3519481 0.76813495 0.4104052 -0.77706224
000050 db c8 9b bf 93 94 a6 3d 3b 6d 3f 3e 61 a9 b4 3d
       -1.2170671 0.08133807 0.18694012 0.08821369
000060 8e 8c bd 3e 24 13 0f 3d 20 9d 7f be b3 d8 af be
       0.37021297 0.034930363 -0.24962282 -0.34345016
000070 83 9d 2d 3f e7 8c f1 3e cc 53 19 be 70 87 64 bd
       0.6781847 0.47177812 -0.14973372 -0.055793226
000080 70 24 56 3f 65 0b 5c 3f 4d 19 5d be 78 bc a1 3e
       0.8364935 0.85954887 -0.21591683 0.31589103
000090 c7 b4 96 bf f7 c8 8a 3e 03 c5 98 3d 66 a5 4c 3f
       -1.1773919 0.2710645 0.07459452 0.7993988
0000a0 1d 55 98 bf 86 ea 18 be 80 d9 c8 3e 6f f8 d9 3e
       -1.1900975 -0.14933214 0.3922844 0.42572352
0000b0 b6 18 b3 be 03 ea 29 be 47 3c 76 3e a7 1e 39 bf
       -0.3497979 -0.16593175 0.24046431 -0.72312397
0000c0 79 bd 94 bf 21 f7 65 3f 31 82 5d be ee ae 65 bf
       -1.1620322 0.89830214 -0.21631695 -0.89720047
0000d0 4a e3 84 bf 6a 5a a4 3e b6 cf ee 3e 42 55 36 3f
       -1.0381863 0.3210023 0.46642846 0.71223843
0000e0 3c 83 e9 3d 0f a8 96 bf 95 fd 19 bf 45 d6 3b bf
       0.11401984 -1.1770037 -0.6015256 -0.73373824
0000f0 a4 0d 99 be ae 7a f8 3e c0 8c 71 be 09 64 12 3f
       -0.2989322 0.48531097 -0.23588848 0.5718389
000100 e3 f2 9f bd 82 9a 96 be 87 f4 98 bd 7e 74 00 bf
       -0.07809999 -0.29414755 -0.07468515 -0.5017775
000110 91 1f ee be 4a cc bf be 9b 47 8e be 9b 33 93 be
       -0.46508458 -0.37460548 -0.27789006 -0.2875031
000120 84 eb 73 be d4 57 25 3d ca 47 d6 be 99 44 61 be
       -0.23820311 0.040366963 -0.41851646 -0.21998824
000130 2c e3 91 be 3b d8 8a be df 22 ce be 74 f7 06 bf
       -0.2849363 -0.27118096 -0.4026098 -0.52721334
000140 ec 2e cf be 63 00 b0 be c7 02 76 be d2 1f f5 be
       -0.40465486 -0.34375295 -0.24024497 -0.4787584
000150 bc 62 79 be 45 f6 8b be d5 fa 05 be e4 54 d6 be
       -0.2435407 -0.27336326 -0.13083966 -0.4186164
000160 2a df f3 be d7 8a f1 be ee 2f 97 be 3f 96 9a 3c
       -0.47631198 -0.4717624 -0.29528755 0.018870471
000170 68 1f a6 be d1 a0 b8 be fe bb 99 be 36 97 c3 be
       -0.32445836 -0.36060193 -0.3002624 -0.38201302
000180 96 53 16 be ad 32 08 be 7b 85 62 bb 71 5e 67 3e
       -0.14680323 -0.13300581 -0.0034564424 0.2259462
000190 48 12 8c be e9 7c d7 be 18 75 9c be 52 4d 7c be
       -0.27357697 -0.42087486 -0.30558085 -0.2463887
0001a0 2e f9 83 be ab 5c b1 be 95 f7 99 be 7a 9c 70 be
       -0.25776047 -0.34641013 -0.30071703 -0.23497191
0001b0 78 03 c7 be 51 09 d3 3c 43 42 a4 be c3 ab 1c bf
       -0.38869834 0.025761278 -0.32081804 -0.6119959
0001c0 94 33 98 be 13 46 8f be b0 21 25 bf 96 34 cc be
       -0.2972685 -0.2798315 -0.6450453 -0.3988387
0001d0 77 e2 99 be 78 d2 a1 be 35 83 9b be 50 5b c0 be
       -0.3005559 -0.31605887 -0.3037354 -0.37569666
0001e0 83 f0 7a be d7 d7 8a be 29 43 e1 be bb d3 93 be
       -0.2450581 -0.27117798 -0.43996552 -0.28872475
0001f0 19 26 04 bf 6a 21 ee be ea 66 04 be 11 2a 94 be
       -0.5162063 -0.46509868 -0.12929884 -0.28938344
000200 0b b4 50 3d 6c 66 2e be 35 10 f1 bc 39 82 06 3d
       0.050952952 -0.17031258 -0.029426673 0.032839034
000210 70 da 33 be 02 98 cb bd 49 72 b7 3c 6b 6a 57 3e
       -0.17563796 -0.099411026 0.022393363 0.21036689
000220 3e 77 47 be 5f 4e 0e 3e bb dc d3 bd 00 c9 85 3c
       -0.19479081 0.13897084 -0.10344835 0.016331196
000230 9b ec e4 3d a2 ed 37 be e4 a5 47 be 7e 65 ce 3d
       0.111779414 -0.17961743 -0.19496876 0.10077952
000240 b6 3b 91 3d ea 3b 32 3e 7e 5b c1 bd 72 40 9d 3c
       0.07091467 0.17405668 -0.09441279 0.019195769
000250 0a 3f 95 bc c6 12 08 be d5 7e 02 be 42 61 2c 3d
       -0.018218536 -0.13288411 -0.12743695 0.04208494
000260 2d 32 5b 3e 97 42 12 3e e3 96 a3 bc ff 72 a7 3c
       0.2140586 0.14283215 -0.01996941 0.020440577
000270 09 99 1c be 9c c2 3e 3e 2b a5 56 bd 5b 67 74 be
       -0.15292753 0.18628925 -0.05240361 -0.23867552
000280 90 18 58 be d1 fa 17 be fb 7a b6 3d 41 b9 cf bd
       -0.2110312 -0.14841773 0.089101754 -0.10142756
000290 81 bf 16 bb 36 8a 12 3e f1 1b 6d 3d f8 47 06 3e
       -0.0023002329 0.14310536 0.057887975 0.13113391
0002a0 ed 85 c4 bc 38 b8 46 3e 8a ab 6e 3d eb b5 41 be
       -0.023989642 0.19406211 0.05826906 -0.18917052
0002b0 55 0c 22 3e 92 a6 98 3c cb 08 1b bd 8e e0 3b 3d
       0.15825017 0.018634114 -0.037850183 0.04586845
0002c0 11 df 21 3d 2e d8 4b be fc 0d 8d bd f2 52 95 bc
       0.039519373 -0.19906685 -0.06887433 -0.018228028
0002d0 db d8 0d 3d 1e b9 5e 3c d2 1b 05 3e 66 8a 55 be
       0.034630638 0.01359394 0.12998894 -0.20853576
0002e0 91 02 1d bd 5d 0e 23 bc 84 ce a5 3d 05 8e 51 3c
       -0.038332526 -0.009952155 0.0809603 0.012790208
0002f0 74 f7 16 bd 37 27 35 3e 34 95 36 be d4 15 41 3e
       -0.036857083 0.1769074 -0.17830354 0.18855983
000300 16 19 45 3f 19 93 13 bf 21 9d a9 3e 69 5d 53 bf
       0.76991403 -0.5764633 0.33127692 -0.8256441
000310 48 8b c5 3d b2 cb 10 3f 11 c4 d2 be 3e 40 a3 3d
       0.096457064 0.56560814 -0.41165212 0.079712376
000320 4b 8c e4 3d 19 cf ac bb a4 5e 8c 3f 87 bf c1 be
       0.11159571 -0.0052737114 1.0966382 -0.37841436
000330 28 06 9c be f0 ea 11 bf 45 48 e1 3e ff 28 19 bf
       -0.30473447 -0.5699911 0.4400045 -0.5982818
000340 50 d8 92 3e a2 21 5b 3f 5f 05 18 3f bb 4e 4c bf
       0.28680658 0.85598195 0.59383196 -0.79807633
000350 da 93 9a bf 1a 02 43 3c eb 3c 9a 3d 2d 59 c9 3d
       -1.2076371 0.0119023565 0.075311504 0.09831462
000360 45 39 bb 3e 50 ee b2 bd 4d d0 b2 bd c7 3e 54 be
       0.3656713 -0.08736861 -0.087311365 -0.20727073
000370 b2 bf 42 3f 0d 62 fa 3e 64 44 ec 3c d3 8a f2 3c
       0.76073754 0.48902932 0.028841205 0.029607212
000380 e7 c1 3d 3f 82 99 80 3f 42 c2 c4 bd 66 22 47 3e
       0.74123996 1.0046847 -0.09607364 0.19446716
000390 47 69 90 bf 30 04 a5 3e 0b 8b 79 bc ac 85 6a 3f
       -1.1282128 0.32229757 -0.015230904 0.9161022
0003a0 8b 8f 92 bf 67 37 12 3d 2e d4 89 3e 19 b0 bd 3e
       -1.1450056 0.035697367 0.26919693 0.37048414
0003b0 28 72 29 be 99 c5 ad be 05 c5 ad 3e cb 32 39 bf
       -0.16547453 -0.33939818 0.33939376 -0.7234313
0003c0 c6 56 8e bf 9a 51 65 3f f4 90 9f be 71 b0 3b bf
       -1.1120231 0.8957764 -0.31165278 -0.73316103
0003d0 36 40 6e bf 2b 34 2e 3e 1d 91 af 3e c6 31 42 3f
       -0.9306673 0.17012088 0.342904 0.758572
0003e0 41 11 0c 3e d5 17 96 bf aa fa 32 bf 9a 2b 39 bf
       0.13678457 -1.1726023 -0.69913733 -0.72332156
0003f0 37 b3 f7 be a4 d0 c3 3e c2 76 3e be f5 70 d0 3e
       -0.48378918 0.38245118 -0.1859999 0.4071118

rnn.weight_ih_l1 f4 [256, 64]
000000 4c 41 9b bf c8 7f 39 3e bd 89 96 bd 3a 40 a2 3d
       -1.2129302 0.18115151 -0.0735049 0.079224065
000010 f0 78 4e bc 4a ef 2c 3f 28 b6 1c bf 19 68 a7 3d
       -0.012602076 0.67552626 -0.6121545 0.08174152
000020 d0 0d 77 3e 99 b5 8d be 27 73 50 3f d3 08 fd 3e
       0.24126363 -0.2767761 0.8142571 0.49420795
000030 e4 50 96 be ee b8 5d 3d f0 63 09 3f fb da a0 bd
       -0.2935859 0.05413144 0.5366812 -0.07854267
000040 b1 86 ed be 0f 18 16 bf e5 6b 49 3f 22 74 53 bc
       -0.46391824 -0.5863046 0.7868026 -0.012906106
000050 62 1c 5d bc 4d ed ba 3e cd 4d 07 bf 6d 3b a5 be
       -0.0134955365 0.3650917 -0.5285309 -0.322719
000060 9d ee 70 be f4 f7 33 be 70 b1 7e 3e a5 d7 dd 3e
       -0.23528524 -0.17575055 0.24872375 0.43328586
000070 a5 4e 90 3f ea 00 50 be f2 bd fa 3e 46 8a e1 be
       1.1274 -0.20312849 0.48973042 -0.44050807
000080 bd fa 37 3f c9 29 5d 3f f3 f3 a5 be b9 a9 84 be
       0.7186697 0.86391884 -0.3241268 -0.25910738
000090 05 9e c5 3c 24 fc 04 bf 22 c4 52 be 01 3d 44 bf
       0.024123201 -0.51947236 -0.20582631 -0.76655585
0000a0 63 90 2f bb f6 80 66 be 31 c4 94 bc 11 62 a2 3e
       -0.0026788942 -0.22510132 -0.018159958 0.31715444
0000b0 44 85 3a be 15 f5 5e 3f 9c 33 2b 3f c9 a1 85 3d
       -0.182149 0.87092716 0.66875625 0.06524999
0000c0 95 65 c5 3c 54 67 c4 3e 00 be e5 bd 92 cd a1 3b
       0.02409629 0.38360083 -0.1121788 0.004937836
0000d0 64 0d 14 3c 66 5c 60 3f 07 c4 70 be 70 fb b1 3e
       0.009036396 0.8764099 -0.23512278 0.34762144
0000e0 bf d5 1e 3f 17 12 c9 bc 0b c3 16 bd 1f b8 ac 3e
       0.620449 -0.024544759 -0.0368071 0.33734223
0000f0 b2 9c e8 3e 1a db 07 bf 82 43 a9 3e d1 93 2f bf
       0.4543205 -0.530687 0.33059317 -0.68584925
000100 2f fc 5c bf d6 d2 c5 bd a9 6b db 3d 2d 85 68 bc
       -0.863223 -0.096593544 0.10713894 -0.014191908
000110 0e 11 47 be 41 e5 c9 3d 2a 53 b9 be 53 56 ae 3e
       -0.194401 0.0985818 -0.36196262 0.34050235
000120 c0 a6 0a be ad 9c d9 3e 93 a5 11 3e cc e8 70 3e
       -0.13540173 0.42502347 0.14223318 0.23526305
000130 33 9e 8f 3d e2 b1 87 3c 2e 9b 81 bd 41 5e 1d be
       0.07012596 0.016564313 -0.06328426 -0.15367986
000140 2f a2 90 be 7b a4 5d 3c f6 a0 f7 3e 6f 37 56 3d
       -0.28248736 0.013527985 0.4836499 0.05229896
000150 e6 88 9f bb 5f 9d 86 3d 9a 00 48 be d6 d9 b0 be
       -0.0048686145 0.06572985 -0.1953148 -0.34541196
000160 a0 e4 8b 3d 3d 16 07 bc 18 04 ae bd d5 46 25 be
       0.06830716 -0.008245048 -0.084968746 -0.16140302
000170 e9 bb ae 3e 58 c3 92 bd 40 4c 33 3e 40 a2 4b be
       0.3412774 -0.07166165 0.17509556 -0.19886112
000180 89 62 48 be e0 f9 8f 3e 25 89 13 bd 04 ae 53 be
       -0.19568838 0.28120327 -0.036019463 -0.2067185
000190 88 1e 98 bb 20 97 37 3d 4e 2e 53 be b0 a8 33 be
       -0.0046423115 0.04482186 -0.20623133 -0.17544818
0001a0 a1 ee 26 3c c4 c6 14 3e 5f c9 87 3e f5 d3 20 bd
       0.0101887295 0.14528948 0.2652082 -0.039264638
0001b0 75 0c 59 bd 5e 88 ab 3e fa f6 87 3e 8b 01 60 3c
       -0.052990396 0.33502477 0.26555616 0.013672243
0001c0 29 f8 91 bc 47 d0 29 be c3 a2 2c be 18 1e 90 3b
       -0.017818527 -0.16583358 -0.16858964 0.0043981187
0001d0 30 a9 0f 3c 87 36 34 3e 5d e2 44 3e 41 84 a3 bd
       0.008768365 0.17598926 0.19226976 -0.0798421
0001e0 48 4f a0 3e a3 af 63 3c 98 5b ac bd 4f a5 37 bc
       0.31310487 0.0138968555 -0.084159076 -0.011208846
0001f0 f4 8b a5 3e a8 47 a6 be 3a 04 c1 bd 6a 43 c4 bd
       0.32333338 -0.32476544 -0.09424634 -0.09583171
000200 79 1f 01 bf 45 37 47 3e 13 53 02 3e 68 d1 3d bc
       -0.5043865 0.19454677 0.12727003 -0.011585571
000210 36 da 93 3e 09 b3 d7 3e cb ec d8 be 01 05 a4 be
       0.2887742 0.4212878 -0.4236816 -0.32035068
000220 0f 7f 3e 3e 69 3d 66 be 31 62 7e 3e 0c 2a db 3e
       0.18603157 -0.22484364 0.24842145 0.42805517
000230 7b b2 92 be f0 2f 04 3e 43 75 d1 3e a0 1b 41 be
       -0.28651795 0.12908912 0.40909776 -0.18858194
000240 48 02 af be be bd c5 be 04 a3 78 3e 52 0b 03 3e
       -0.34181428 -0.38621324 0.24280936 0.12797287
000250 55 7b c7 bb 6e 11 4d 3e 8f 81 f6 3a 53 06 86 be
       -0.0060877004 0.2002618 0.0018806922 -0.261767
000260 14 1c 44 bd 23 95 9b be 43 c4 4c 3e c1 7c 9c 3e
       -0.04787834 -0.3038722 0.19996743 0.3056393
000270 ee 53 ef 3e 4e 2f ad bd 40 96 76 3e a1 0f 41 be
       0.4674372 -0.08456288 0.24080753 -0.18853618
000280 28 cb c1 3e 28 b8 e1 3e a2 17 78 be 7f 8c 9f be
       0.37850308 0.44085813 -0.24227765 -0.31161878
000290 5e 34 e7 b9 dc ae b3 be af 50 d5 be 17 f4 e8 be
       -0.0004409877 -0.35094345 -0.4166312 -0.45498726
0002a0 fc 44 6c bc 54 5b c7 be 0d 41 38 be 71 8b 80 3e
       -0.014420744 -0.38936865 -0.17993565 0.25106385
0002b0 7a 6d 4a be bb 68 cc 3e 1e 05 b4 3e 4c 3a d6 bd
       -0.19768324 0.39923653 0.35160154 -0.10460338
0002c0 b8 e8 68 3b 2f c4 45 3e 57 ab c8 bc aa 5b 6e 3d
       0.0035539102 0.1931312 -0.024495764 0.058192886
0002d0 93 4f 32 3c f9 0f 13 3f 75 62 39 be af 7c 6e bd
       0.01088323 0.5744625 -0.18103965 -0.058224376
0002e0 f0 72 f4 3e 2f 27 81 3c c7 a3 bf bd 67 6f 26 3e
       0.4774394 0.015765755 -0.0935741 0.16253434
0002f0 60 91 b6 3e a6 f2 c2 be bb aa 2f 3e 0c b8 df be
       0.35657787 -0.3807575 0.17154972 -0.43695104
000300 e2 8c 9c be 0e 56 1a 3e 46 5b a1 3c a4 69 b7 3a
       -0.30576235 0.1507189 0.019696843 0.0013993275
000310 06 6c 4f 3d 7b 9b 47 3e 66 27 4a be b8 70 9c bd
       0.05064013 0.19492905 -0.19741592 -0.07638687
000320 7d 7f 8e bc 7f 0f 1a 3f f7 46 8c be 28 8a 19 3e
       -0.017394776 0.60179895 -0.27397892 0.14994109
000330 e0 d3 43 bd e8 7d e8 3d 03 43 b5 bd 89 36 1b be
       -0.04780948 0.1135214 -0.08850672 -0.15157522
000340 89 e4 d2 3e 2e 18 0b 3e 62 08 b7 bd f9 56 30 3e
       0.41189983 0.13583443 -0.08937146 0.17220677
000350 28 18 7e bb 50 f0 91 3d 60 43 43 be 8f 9f 43 bd
       -0.0038771722 0.07125914 -0.1906867 -0.04775959
000360 f2 5e 05 3e 85 0c 40 be 9f d0 53 3e 14 8e 3f 3e
       0.130245 -0.18754776 0.20685051 0.18706542
000370 54 73 88 be 3c ad 03 3d 99 99 1d bc 58 fb 0d be
       -0.26650488 0.03214763 -0.00961914 -0.13865411
000380 ad c3 c7 bd 1a 29 af 3d 00 96 9f be 6e dd ef be
       -0.09754119 0.085527614 -0.31169128 -0.46848625
000390 6e 5e 9a 3d 2c 1b 0e 3e ba ea 5b be 98 cc 09 be
       0.07537542 0.13877553 -0.2147626 -0.13456953
0003a0 0f 01 3c bd f2 de 5d be 8b 35 21 be b2 36 13 bc
       -0.045899447 -0.21667078 -0.15743081 -0.008985208
0003b0 ab d9 10 be 63 82 84 be b5 75 51 bd 35 af 4b be
       -0.14145534 -0.25880727 -0.051137645 -0.19891055
0003c0 a7 3e b4 3d 73 88 be bc c5 7c ad 3d 13 7a 3f 3e
       0.088010125 -0.023258423 0.084710635 0.18698911
0003d0 1d 7a 58 3e 14 5b 3d 3e e7 24 e3 3c a0 14 cf bd
       0.21140333 0.18491775 0.027727557 -0.10111356
0003e0 25 8d a9 3d 38 94 cb bd c6 c1 23 be d1 1f f8 3d
       0.08278874 -0.0994038 -0.15991887 0.121154435
0003f0 a7 d8 25 3d b1 e3 3e be e3 b5 d5 3d 6e 63 a7 3c
       0.04048982 -0.18641545 0.10435083 0.020433154

rnn.weight_hh_l1 f4 [256, 64]
000000 36 5d 42 bc 61 cb fb 3e 73 ee cc be 21 6f b1 be
       -0.0118630435 0.49178603 -0.40025672 -0.34655097
000010 9a 43 b9 be 94 de 92 3e 86 3f 5d 3c 54 1a 7f 3e
       -0.36184388 0.2868544 0.013503915 0.24912387
000020 0e a7 f7 3e ec 75 a1 3e 4d 30 24 bd e5 66 cf bd
       0.4836964 0.3153528 -0.040085126 -0.101270474
000030 14 3b 63 3f fc 4a e5 3e 1b ff 21 3f 69 18 1f be
       0.8876202 0.4478377 0.63279885 -0.15536655
000040 6b f6 d8 bd 7c 1c 14 c0 44 55 a9 3e be 6b 27 bd
       -0.105938755 -2.3142385 0.33072865 -0.040874235
000050 9c 9e 39 3e 16 fb ce 3e e5 d8 31 bf 0b c6 80 bf
       0.18126911 0.40425938 -0.6947158 -1.0060438
000060 36 8e 35 3e 83 fc a9 3e 7e da fc bd 10 79 f2 be
       0.1773003 0.33200464 -0.123463616 -0.47357988
000070 95 55 33 be 75 bd df bd d3 89 50 be d5 4e 78 be
       -0.17513116 -0.10924808 -0.20365076 -0.24248822
000080 2b 70 27 3d 7a b9 8b be c2 ec e0 bf 43 73 42 be
       0.040878456 -0.27289945 -1.7572253 -0.18989281
000090 ff 7b 45 3e 08 b8 c1 bf 41 95 af 3d 9f 76 b3 3e
       0.19285582 -1.5134287 0.0857339 0.35051438
0000a0 a9 fb 80 3f 5f 71 9b b9 e1 e7 ac 3e 03 c8 2e be
       1.00768 -0.00029648372 0.3377066 -0.17068486
0000b0 44 4d f1 be 6a 1c 5c 3f 8b ad 3b be fe 7d 92 be
       -0.47129261 0.85980856 -0.1832792 -0.2861175
0000c0 38 27 91 3e 03 15 f9 3d 54 39 87 3e 7b bc 89 be
       0.28350234 0.12162211 0.26410925 -0.26901612
0000d0 54 b9 df be 3b bf 18 c0 52 d6 7f bd 48 b0 93 3e
       -0.43696082 -2.3866718 -0.06246025 0.2884543
0000e0 76 b9 a7 bd 33 29 37 3c 8f 3d 9b 3f 0c 11 3c 3f
       -0.08189671 0.011179256 1.2128161 0.7346351
0000f0 98 b2 a0 be 0b 33 1d 40 19 d5 d8 bd dc 74 20 bf
       -0.31386256 2.4562404 -0.1058752 -0.62678313
000100 8e 82 8e 3e 37 26 9a be 3a 41 90 3e f4 c1 ce bd
       0.2783398 -0.3010728 0.28174764 -0.100955874
000110 54 06 a3 bd 7e 01 1b 3e 36 0c e8 be 8b 9a 3b 3e
       -0.07960191 0.15137288 -0.45321816 0.18320672
000120 83 e2 17 3f 08 d4 32 be 9b e4 14 3f ec 65 85 be
       0.59330004 -0.17463696 0.58161324 -0.26054323
000130 f4 7c 5b ba 3b 23 d1 be 1e fb ab 3e 2f b9 df 3e
       -0.00083728065 -0.4084719 0.33590025 0.4369597
000140 c5 a6 ec be e1 90 54 3f 7a 2c 51 3e 20 c6 86 3f
       -0.46220985 0.8303357 0.20427123 1.0529213
000150 54 58 a5 be 33 87 47 3f 1e 09 ed 3d 74 07 0d 3e
       -0.32293952 0.7794067 0.115740046 0.13772374
000160 c6 e7 7f 3e a0 4b f1 bd 88 79 5c 3f 8f b7 d1 3e
       0.24990758 -0.117820024 0.8612294 0.40960357
000170 7a 0e 6a be de 59 5e 3f 43 6a 0c 3d 09 0e 95 3e
       -0.22857085 0.86855876 0.034281027 0.2911227
000180 df 48 99 3c a9 cf 99 3e 9f a3 a3 be 0a ec 40 be
       0.018711505 0.30041245 -0.3196077 -0.18840042
000190 a2 ed e9 bd 25 83 9f be 26 2e 8e 3c 3a 3d cb bd
       -0.11422278 -0.31154743 0.01735599 -0.099237874
0001a0 12 c8 76 3e cc af 3b be 62 54 30 3f 30 42 7f 3e
       0.24099758 -0.1832878 0.6887876 0.24927592
0001b0 1a 5f 69 bd dd dd 26 3e 03 0c 8e 3e 67 3f 18 bc
       -0.05697546 0.16295572 0.2774354 -0.00929246
0001c0 c1 ca a9 3e e7 6e 6e 3c a5 05 93 3e c4 3d ca bc
       0.331625 0.014552808 0.28715244 -0.024687655
0001d0 3c 4c b1 bc f5 37 ec 3d 00 10 ec bd c1 2d 3f bc
       -0.021642797 0.115341105 -0.11526489 -0.011668623
0001e0 9a d7 4c 3c ef 01 16 3e 62 db 95 be b8 23 36 be
       0.012502575 0.14649175 -0.29268938 -0.17787063
0001f0 c9 25 a3 bc 51 76 23 3e f7 f5 37 3d 40 b9 7b 3e
       -0.019915478 0.15963103 0.044912305 0.24582386
000200 e1 3f 80 be ae 70 ae be d2 d9 df 3e ca ae 18 3e
       -0.25048736 -0.34070343 0.4372087 0.14910427
000210 9f 02 3a 3e 7d 2d 26 ba 14 77 b2 be f4 f0 ae bc
       0.18165062 -0.0006339176 -0.34856474 -0.02135513
000220 4a 49 64 3f e3 3c 6d be 80 c6 28 3e e0 43 d5 bb
       0.8917433 -0.23167758 0.16481972 -0.0065083355
000230 9c 18 8e be 02 69 92 be 0f 8d 5f bd 13 d4 c0 3d
       -0.2775315 -0.2859574 -0.054577883 0.0941545
000240 e2 13 4b be 7a b1 a5 be 64 76 a7 bd f1 bc 95 3f
       -0.19831803 -0.32361966 -0.08176878 1.1698285
000250 eb 24 c9 be fb db be 3e d3 20 be ba a3 a8 30 bd
       -0.3928598 0.37277207 -0.0014505632 -0.043129575
000260 ab 8e 89 bd 84 76 bc 3d 6d cb 25 3f e4 90 26 3e
       -0.06716665 0.092022926 0.6476353 0.16266209
000270 96 5c 94 3e 17 1c 0b 3f 74 82 36 3e f2 13 f2 3e
       0.28976887 0.54339737 0.17823201 0.47280842
000280 89 51 01 be ac 2e 96 be 62 93 07 be 6a 29 a1 bd
       -0.1262876 -0.29332483 -0.13239816 -0.07869227
000290 53 7c 5e bd 90 10 a5 be 9c 01 f4 bd d9 a2 25 3e
       -0.054317784 -0.322392 -0.119143695 0.16175403
0002a0 37 d8 cd 3e 0c 3f b7 bd a1 f0 f4 3d 51 91 29 3e
       0.4020402 -0.08947572 0.11959959 0.1655934
0002b0 e4 3e e0 3d bb 57 3e bf 00 79 ac 3e ef 33 bd 3e
       0.109494954 -0.74352616 0.33686066 0.36953685
0002c0 f2 e7 60 3e 12 b8 6c bd bd a4 3c 3e 8c b6 4c 3e
       0.2196348 -0.05779273 0.18422218 0.19991511
0002d0 bf 25 80 3e 1b 5a bf be 86 0e e8 b9 3b d5 06 3e
       0.25028798 -0.37373433 -0.0004426131 0.13167278
0002e0 8d d0 31 bd c5 de 71 3d ad 52 0d be 88 fb b7 be
       -0.04341178 0.05905034 -0.1380107 -0.3593409
0002f0 27 d3 70 3d ba 45 e2 3e 68 9c e7 be a2 09 e9 3d
       0.05879512 0.44193822 -0.45236516 0.113787904
000300 3f a2 a6 be c9 23 ff bd f0 3f a6 3e 42 cb 89 bd
       -0.3254566 -0.12457997 0.32470655 -0.067282215
000310 30 b5 90 3e 2f b6 40 bd 99 82 33 3d fe cb 82 3e
       0.28263235 -0.047048744 0.04382572 0.2554626
000320 b5 44 ed 3e 74 9e c0 3e ae dc d8 be d2 72 0c be
       0.46341482 0.3762089 -0.42355865 -0.13715675
000330 36 ce f9 bd 18 95 64 3e ef 1a c1 be 58 8c 2e 3f
       -0.12197535 0.223225 -0.3771586 0.681829
000340 a5 90 69 3e 4c 5a 36 bd 98 6b 81 be a2 af 62 3f
       0.22809084 -0.044519708 -0.252774 0.88549244
000350 ef 76 6b be f3 b3 2e 3e 57 74 70 3e a5 4e fd be
       -0.22994588 0.17060833 0.2348188 -0.49474064
000360 35 67 11 bf 2b 0d f5 be 38 51 34 3d c2 7d 97 be
       -0.56798106 -0.4786161 0.04402277 -0.29588133
000370 2d d9 81 3e 88 55 e4 bc db 10 21 3f 93 75 37 3e
       0.25361004 -0.027872816 0.62916344 0.17915945
000380 2c 87 b6 3d e4 f8 e6 3e 7c c7 25 be 43 1f 2c 3e
       0.08912501 0.45111763 -0.16189378 0.168088
000390 7d aa b5 3e da 75 95 bd f6 1e 94 3e 14 aa b1 be
       0.35481635 -0.07297869 0.2892987 -0.34700072
0003a0 4b 1e 4c 3d 9f 22 51 3e 7a ac b7 3d 5d dc 8a 3d
       0.049833577 0.20423363 0.08968444 0.06780312
0003b0 6d c7 1d 3e 93 e9 30 bf f1 a8 4d 3e 16 7c a3 be
       0.15408106 -0.69106406 0.20083977 -0.31930608
0003c0 c4 9e bc be 30 ac 37 3c e4 70 6c 3e 9e 87 b6 3d
       -0.3683988 0.011210486 0.2308994 0.08912586
0003d0 e8 26 a8 3e 50 ba c2 3d 9b 8d 9e 3d 56 0c e9 bd
       0.32842183 0.095081925 0.07741853 -0.11379306
0003e0 f5 c4 63 bd c4 71 65 3e 0c 70 cf 3e 9a 05 e6 be
       -0.055607755 0.2240668 0.40515172 -0.4492615
0003f0 8b 9f d9 3e 94 d6 af bd 0c 99 9b be 9c 58 30 bf
       0.42504534 -0.085858494 -0.30390203 -0.6888521

rnn.bias_ih_l1 f4 [256]
000000 32 3c 09 be 63 d3 a4 3b 6b 74 33 3c 0c 2d 86 bc
       -0.13401869 0.005030082 0.010953049 -0.016378902
000010 7e 61 36 bd 66 60 27 be cd 45 0e bf c8 26 ea 3e
       -0.04452657 -0.16345367 -0.5557526 0.45732713
000020 a4 c1 97 3d 77 26 b5 be ba 8d b3 3e 4b e5 ec 3e
       0.07409981 -0.3538091 0.35069066 0.46268687
000030 fb 92 94 3e 71 d7 f3 bd fd f0 b4 bd 39 22 45 be
       0.29018387 -0.119063266 -0.08835027 -0.19251336
000040 5c f2 2e be cf a9 02 bc b6 6a 1b be b0 1a 86 3e
       -0.1708464 -0.007975056 -0.15177426 0.26192236
000050 31 0b 2d 3e 72 da 0b 3e 3d 79 a6 bd aa e2 91 3e
       0.168988 0.13657549 -0.08128593 0.28493243
000060 c4 57 80 3e 2d 02 4d 3c c6 77 30 3d 72 c8 4e 3e
       0.2506696 0.012512726 0.043082975 0.20193651
000070 79 7f 71 3e 28 3f 82 bd 05 24 48 bc 9f 93 c5 bd
       0.23583783 -0.06359702 -0.012215619 -0.09647297
000080 d7 b3 c8 3d 6a 64 d7 3e 11 e8 51 be fe 27 fb 3d
       0.09799927 0.42068797 -0.20498683 0.12263487
000090 58 33 2b 3e 47 8e 99 be 61 8a 22 bf 7f d0 76 be
       0.16718805 -0.29991361 -0.634924 -0.24102972
0000a0 14 79 27 3e 78 88 0e 3e ee f8 1f bd 57 46 1d 3e
       0.16354781 0.13919246 -0.039055757 0.15358864
0000b0 8c 0e 64 bc 4c 30 cb bd e6 13 b0 bd 8f bb f3 bb
       -0.013919484 -0.09921321 -0.08597545 -0.00743813
0000c0 2c 83 2a be 06 97 1a 3e 40 e4 7c bd 26 a9 04 be
       -0.166516 0.15096673 -0.061741114 -0.1295515
0000d0 63 35 e1 bd 61 63 8a 3f b7 2b a5 3e 42 94 56 3e
       -0.10996511 1.0811578 0.32259914 0.20954993
0000e0 82 fa 2d bf 01 ca 0a be b0 c1 b2 bc e2 1a f4 bc
       -0.6796037 -0.13553621 -0.021820873 -0.029797975
0000f0 39 e8 a7 bd 78 51 e4 bd 23 81 d5 bd 3b 8c c6 3e
       -0.0819859 -0.111483514 -0.104250215 0.38778862
000100 85 94 23 3e 04 4b 5f 3c a5 9e 2a 3e eb f6 05 3f
       0.15974624 0.013628725 0.1666208 0.5232989
000110 12 3e e1 3b 60 8e 32 be 48 ea 26 bf 24 a3 69 bd
       0.0068738544 -0.17437124 -0.65201235 -0.05704035
000120 10 90 8c 3b f7 d9 30 bd 2e 14 29 be 42 e5 5b be
       0.0042896345 -0.043176617 -0.16511604 -0.21474174
000130 c3 66 6a 3d 83 83 70 be e1 40 29 3e e7 d1 5d be
       0.057226907 -0.23487668 0.16528656 -0.21662103
000140 c3 7a d4 bd 63 dd 1f bf 10 d9 1e bf 20 d4 f9 3d
       -0.103749774 -0.62447184 -0.6204996 0.12198663
000150 58 98 cd bd 05 90 9c be dd 5f ad be 79 0e b4 be
       -0.10038823 -0.30578628 -0.338622 -0.35167292
000160 34 01 a4 be c7 07 bb be 9a b4 ac be 19 a6 87 be
       -0.32032168 -0.3652937 -0.33731538 -0.2649391
000170 b7 1a 84 3e 3c 18 c5 bd 0b 2c f0 3e 60 b0 86 bd
       0.25801632 -0.09623763 0.46908602 -0.065766096
000180 b8 97 fa be 8b c8 d5 be 7c ae f9 be 4e 8d a1 be
       -0.48943877 -0.41754565 -0.48765934 -0.3155312
000190 5d 8b ae 3e 5b fa a1 be bf 7e 85 3e e1 24 92 be
       0.340907 -0.3163632 0.26073262 -0.2854376
0001a0 92 0d b3 3d a7 ee b3 be b3 b4 7c 3d 6c b9 40 3e
       0.08742823 -0.35143015 0.061695766 0.18820733
0001b0 ba 5e a7 be 1f 5b 0d 3f 6c ec 88 be 0c e7 92 3e
       -0.32689458 0.55217165 -0.26742876 0.286919
0001c0 c2 b4 ea be 68 e2 d7 3c 6e 36 15 bc 3e ea 09 3d
       -0.45841032 0.026353076 -0.009107215 0.033670656
0001d0 cf c2 a0 bd e8 d7 d0 be a3 96 80 bd 50 29 ef bd
       -0.07849657 -0.40789723 -0.06278732 -0.116778016
0001e0 9a 0f f2 bd ad 6c 9c be 0b 97 61 3e eb f9 bb 3d
       -0.11819382 -0.30551663 0.22030275 0.091785274
0001f0 5e 8e e5 3e a0 60 fe be df fc aa bd ef 55 d9 be
       0.4483518 -0.49683094 -0.083490126 -0.42448375
000200 4d 8d ca 3d d9 ad 6a 3e 93 56 1f 3b 80 41 26 3e
       0.09890232 0.2291788 0.0024313077 0.16235924
000210 f0 f4 2d 3e a3 95 3f be 1f e8 89 3d 01 87 b8 be
       0.16987967 -0.18709426 0.06733727 -0.360405
000220 c1 64 d3 bd 84 c2 4c 3d 87 fb 8d be e0 6d f9 3e
       -0.10321952 0.049990192 -0.27730963 0.4871664
000230 27 63 35 3e fe a6 49 3e f7 5a a7 3c bb b4 10 3e
       0.17713605 0.19692609 0.020429118 0.14131443
000240 7f 1d 18 3e cb ac f1 bd 98 b6 08 3e d6 b7 ea bc
       0.14855002 -0.11800536 0.13350904 -0.028652113
000250 3d c3 21 be a2 cf 6b bc 5d a7 c5 3d 55 5b a1 be
       -0.15797134 -0.014392765 0.09651063 -0.31514993
000260 27 ce c7 be 08 2f 1a be f6 09 39 be 63 30 81 be
       -0.3902447 -0.15057003 -0.18070206 -0.2523223
000270 1e 58 11 be 5f a2 8b be 20 c5 73 bd 34 f5 16 bd
       -0.1419377 -0.27272317 -0.059514165 -0.036854938
000280 21 d8 8e be c7 4e 76 bd fb ad 2d bd 99 32 80 3e
       -0.27899268 -0.06013372 -0.04240225 0.25038603
000290 33 b9 cd bd 27 ed da bd 41 7f c8 bc a5 72 ad 3d
       -0.100450896 -0.106897645 -0.024474742 0.08469132
0002a0 b5 04 7e be 4d 0c 8a 3e 51 8f 2f be de 38 11 3e
       -0.24806483 0.2696251 -0.17144515 0.1418185
0002b0 9d 09 f6 3d e7 67 65 3d 81 40 d8 bd 78 fd 5c be
       0.12013552 0.056007292 -0.10559178 -0.21581066
0002c0 89 6d c8 bd a3 ba 42 3e 7f 01 d3 bd fa b5 bb 3d
       -0.09786517 0.19016509 -0.1030302 0.09165569
0002d0 f2 76 00 be 0f 1d 07 3e f4 2a 8f 3e 62 d1 85 be
       -0.12545374 0.13194679 0.27962458 -0.2613631
0002e0 c9 dd ca bd e8 69 e1 bd 6e 81 4c 3e 7b f6 f5 3d
       -0.099055834 -0.11006528 0.19971249 0.12009903
0002f0 07 fa a9 3d ca cd c6 3d bf c3 eb bc 57 03 92 bd
       0.08299642 0.0970722 -0.028779862 -0.07129543
000300 03 5d 94 3d e8 3e 85 bd b3 fd 4b be 6a 6e f4 3d
       0.07244303 -0.06506139 -0.19920997 0.11935122
000310 72 ea 93 3d a2 41 63 be 17 de 0b bf d8 3a 21 3e
       0.07222451 -0.22193006 -0.5463576 0.15745103
000320 78 06 17 3d e1 68 d5 be a6 d0 3a 3e 81 af c1 3e
       0.036871403 -0.4168158 0.18243656 0.3782921
000330 0e 76 5b 3e 40 31 24 be 36 fd d1 bd c5 ca 28 be
       0.21431753 -0.16034412 -0.10253374 -0.164836
000340 b1 c2 5e be 38 f0 e8 bd 2b 16 f4 bb 4c da bf 3e
       -0.21753956 -0.11373943 -0.0074489317 0.37471235
000350 fa ea 0e 3e 40 23 df 3d 71 5f af bd ef 63 49 3e
       0.13956824 0.10895395 -0.08563126 0.19667028
000360 99 b7 81 3e b5 f8 6e 3d 2d aa 89 3b 5f b0 b6 3d
       0.25335386 0.058342654 0.0042011947 0.08920359
000370 91 db b6 3e ae c1 f0 bc f2 2d 57 bd 80 0c c1 bd
       0.3571439 -0.029389229 -0.05253405 -0.09426212
000380 50 14 81 3e 2f fd e9 3e 26 7d ad be 7b 83 da 3c
       0.2521081 0.45700976 -0.33884543 0.026674023
000390 04 c6 85 3d d6 fd 11 be cc ec ee be ff 92 ca be
       0.06531909 -0.14256987 -0.46665037 -0.39565274
0003a0 7b 87 18 3e f6 a4 02 3c 3b e7 8c be 7d 35 53 be
       0.14895432 0.0079739 -0.27520165 -0.20625873
0003b0 93 c8 42 bd f0 de 01 3f 27 5d 96 bd cc 49 4d 3d
       -0.047554564 0.507308 -0.07341986 0.050119206
0003c0 84 3a 6e be a9 50 0d 3e 00 d4 3a be 74 e5 62 be
       -0.2326451 0.138003 -0.18244934 -0.22157842
0003d0 74 65 72 bd f3 b7 76 3f 16 a7 24 3e 8c e4 2c 3e
       -0.059178784 0.96374434 0.16079363 0.16884059
0003e0 9d 77 2a bf 8d 41 88 be fa 14 11 3b 08 c6 14 3c
       -0.66588765 -0.2661251 0.0022137747 0.009080417
0003f0 af 57 0b 3e ee e2 04 3e 34 5d 71 3d fc 29 8f 3e
       0.13607667 0.12977192 0.058926776 0.2796172
