checkpoints/Tend_LSTM_L2_bs16_traindeg0_bsfirst_pos1_freq/Tend_LSTM_L2_bs16_epoch124_best2.8170304506544084.pt (torch, 206325 bytes, 9 tensors)

rnn.weight_ih_l0 f4 [256, 3]
00000000: 2c5b 8f3f 3a9a 0a80 7863 663e 21b1 cb3d
00000010: 9ce0 0700 7a9f 29be 2c4e a93e 1ccf 0c00
00000020: e2e7 343e 6727 93be 25f4 0800 aa89 55be
00000030: 2129 d43d 3590 0f00 7631 5b3d 62cc 023f
00000040: 5d84 0800 e225 b23e bf46 803e 4975 0880
00000050: 6065 b0bd b694 0e3e 006b 0e80 0005 083e
00000060: e181 703e 9ebd 0280 a1b7 253e 8373 3a3d
00000070: 2462 0280 07ed 0a3f 0401 313f 2bce 0000
00000080: c9a0 183f 2129 5b3d 9f6d 0880 461f d4be
00000090: 9fff 823e cdef 0c00 3607 69be 09ed 023d
000000a0: 0285 0d80 2763 21be 07d2 083f f949 1100
000000b0: 2b2d 923d 1297 903e 309d 0a00 ab9c 8cbc
000000c0: 1f85 39bd ec05 0c80 3f74 8dbe 828c 983e
000000d0: 3ed4 0480 3106 123e 07ed c83e 1984 0980
000000e0: 3399 dfbd d5a3 f13b e2af 0e00 c600 8ebd
000000f0: b5ae 89bd c82f 0980 6c1e 95be 3d47 ad3e
00000100: 1ab3 0f80 224a 93be bf16 233f c4ae 1080
00000110: 2981 893e 7b1d 1bbc 0006 0b80 b581 b6be
00000120: b829 183e d8db 1280 3b5f 50bc 7fc6 4d3e
00000130: b881 0580 64f1 aebc c739 fc3d df0a 1080
00000140: eb5f 373c ca3e 833d 4ca7 1500 69c5 d7be
00000150: 4a74 8a3e a1e4 1200 91f5 ca3d 3c1c 0d3e
00000160: 133b 0780 69d8 3fbd df14 603e 5650 0d00
00000170: b121 b3be ba5c eebd f686 0880 afbf c8bd
00000180: b87b fe3e 5b35 1000 ba5a 8f3e 8834 5d3f
00000190: 5d3d 0080 2d31 e93e f14e 6a3e 8a35 0d80
000001a0: 8c27 ffbe 6f0a be3e c777 0600 8d38 3e3e
000001b0: 0e2c b33c d2c5 0700 8f49 febd 8ebc ee3e
000001c0: 8763 0000 2a06 393d 6248 8a3e 93fe 0280
000001d0: a81b 493e aabc 213f 1082 0f00 265c 733e
000001e0: c4b1 f3be cbab 0b80 ecf4 b8be ad8b f53d
000001f0: 83b0 1580 9154 afbd bb72 763e 9908 0f80
00000200: e753 933e 3b52 b13e c5f8 0c00 0f3e b5be
00000210: 2436 a23e 35ac 0100 fd9b 0e3e b488 e43d
00000220: 8835 0c80 4e5f 31bf bc00 c13d 7a4c 0980
00000230: 19f4 77be 5b15 90bd 5239 0900 b698 85be
00000240: 6fb3 2ebe 35c4 0f00 1dba abbe bf80 cf3e
00000250: 3881 0280 b278 833e d92a 3fbe 69ae 0900
00000260: 34fb 1ebe 5d7d 223d bb6d 0800 3dbd 05be
00000270: 2efd 96bd f1f0 0380 d848 f9be cde6 af3e
00000280: 09b8 0d00 2b14 793e ab1b 4d3e a21f 0580
00000290: e0f7 ce3c 48cc 883e 95b9 0400 7f00 d53d
000002a0: 67a0 653e 93c3 0a80 0198 10bd 4aa7 31be
000002b0: 66b6 0700 7b45 a3be bf63 6d3e 60d5 0100
000002c0: cd4e 813d 4223 93bd d193 0880 7da9 06bf
000002d0: d672 08be 4264 0380 5d9f 06bf 212a f33e
000002e0: eebd 0200 dfe5 4e3e c27c 0bbe ec36 0580
000002f0: 7f91 c3bd 757a c13e a09b 0b00 7d35 433e
00000300: 89e4 603e 41bc 0100 62a6 efbd e9ed d0bb
00000310: f2eb 0a00 1614 babc 001b 703e d1d7 1080
00000320: 0c88 00be f103 dfbe 3aa0 0d00 407e 1bbf
00000330: 5e4a 293b a01c 0600 9504 1abe 05eb 18bd
00000340: 94d7 0180 ae40 1ebe 139e 56be e1b6 0d80
00000350: 3201 b0be d1e8 7e3e 5524 0a00 955d 8f3e
00000360: 068d 673e cb9d 0c80 3f29 ab3c 7c60 af3e
00000370: 3fc7 0e80 22a4 093f a489 b5be a4f8 0c00
00000380: 4626 77be 4664 413d 7535 0200 088f 53be
00000390: 6303 4c3e f914 0a80 6444 3dbe 169b 10bd
000003a0: c050 0c80 e701 b2bd c474 9ebe 6e01 0d00
000003b0: d2ce 85be 3355 dfbc 0b55 0c80 ac58 d9be
000003c0: bbf2 f8be b84c 0600 8024 80bd 3236 b0bc
000003d0: 18bc 0880 bb69 60be 18aa 2fbd 0d92 1280
000003e0: f4cf 93be aac7 b33d c75f 1180 c1a3 1fbe
000003f0: 2594 26be a5c9 1100 bfab 7ebe f3cf c4bc
1.1199698 -9.73681e-40 0.22498882 0.09945894 7.23423e-40 -0.16564742 0.33067453 1.176323e-39
0.17666581 -0.28741 8.22267e-40 -0.20853296 0.10359407 1.429264e-39 0.053513967 0.51093113
7.82167e-40 0.34794527 0.25053975 -7.76758e-40 -0.08613086 0.13923916 -1.324081e-39 0.13283157
0.23487045 -2.51693e-40 0.1618333 0.045520317 -2.18877e-40 0.54267925 0.69142175 7.3959e-41
0.5962034 0.05350602 -7.74009e-40 -0.4143011 0.25585648 1.18805e-39 -0.22756657 0.031964336
-1.241576e-39 -0.1576048 0.53445476 1.58774e-39 0.07137521 0.28240258 9.74743e-40 -0.017164549
-0.04529297 -1.10415e-39 -0.2762775 0.297947 -4.4348e-40 0.14260174 0.39243338 -8.73907e-40
-0.10917892 0.0073742666 1.348792e-39 -0.06933741 -0.06722776 -8.4366e-40 -0.29124773 0.33843413
-1.441782e-39 -0.28767496 0.6370658 -1.532062e-39 0.26856354 -0.009467478 -1.012343e-39 -0.35645834
0.14859664 -1.731904e-39 -0.012718017 0.20095252 -5.05712e-40 -0.021355338 0.12315708 -1.473268e-39
0.011192302 0.064084604 1.98856e-39 -0.421428 0.27041847 1.735056e-39 0.09910119 0.13780302
-6.6404e-40 -0.046837244 0.21882962 1.22268e-39 -0.34986642 -0.1163878 -7.83099e-40 -0.09802186
0.49703765 1.488508e-39 0.27998906 0.8640828 -2.2013e-41 0.4554533 0.22881676 -1.213068e-39
-0.4983486 0.37117335 5.93981e-40 0.1857626 0.021871593 7.13813e-40 -0.12416374 0.4662823
3.5704e-41 0.045171894 0.2700835 -2.74995e-40 0.19639456 0.63178504 1.42419e-39 0.2376562
-0.47596562 -1.071818e-39 -0.3612436 0.11989532 -1.991866e-39 -0.08561052 0.24067204 -1.380617e-39
0.2877495 0.3463305 1.191268e-39 -0.3539891 0.3168193 1.53612e-40 0.13926692 0.111588866
-1.12123e-39 -0.6928605 0.09423968 -8.53954e-40 -0.2421421 -0.07035323 8.47082e-40 -0.26093072
-0.17060636 1.447918e-39 -0.3354043 0.40527913 -2.30026e-40 0.2567802 -0.18668689 8.89086e-40
-0.15525514 0.039670337 7.74048e-40 -0.1306047 -0.07372509 -3.6194e-40 -0.48688388 0.34355775
1.259881e-39 0.243241 0.20030086 -4.70525e-40 0.02526468 0.26718354 4.33916e-40 0.10400485
0.2242447 -9.88514e-40 -0.035301212 -0.17348972 7.08281e-40 -0.31888947 0.23182581 1.6838e-40
0.06313858 -0.07184459 -7.8771e-40 -0.5260237 -0.13325056 -3.11472e-40 -0.5258692 0.4749308
2.51805e-40 0.20204876 -0.1362181 -4.7888e-40 -0.095492356 0.3778874 1.066018e-39 0.19063373
0.21962179 1.59368e-40 -0.11701657 -0.0063760174 1.002996e-39 -0.022714656 0.234478 -1.546788e-39
-0.12551898 -0.43557695 1.25134e-39 -0.6073952 0.002583168 5.61282e-40 -0.1504081 -0.037333507
-1.6917e-40 -0.15454361 -0.20958738 -1.259466e-39 -0.34375912 0.248935 9.31388e-40 0.28001085
0.2261239 -1.158631e-39 0.020893691 0.342533 -1.357173e-39 0.5376607 -0.35456574 1.191221e-39
-0.24135694 0.04721477 2.02848e-40 -0.20660031 0.19923167 -9.25879e-40 -0.1848312 -0.03530415
-1.130994e-39 -0.08691769 -0.3094846 1.194374e-39 -0.26134354 -0.027262306 -1.132534e-39 -0.42450464
-0.4862269 5.78534e-40 -0.06256962 -0.021510217 -8.02159e-40 -0.21915333 -0.042886823 -1.705432e-39
-0.28869593 0.08778317 -1.595562e-39 -0.15589811 -0.1626745 1.63354e-39 -0.24870203 -0.02402494

rnn.weight_hh_l0 f4 [256, 64]
00000000: 4ffe 97be c81e b1bd 73b2 cc3d a7c4 62be
00000010: a6d7 28be 2152 c33c 3e2d e73c bf32 dc3d
00000020: 50bf 0fbe c777 533d 3650 5a3e cc3f 19be
00000030: d799 f53d 497d 1bbe 1958 f43d cde2 ce3b
00000040: a922 a1be 8484 f3bd 5939 cebd f917 f2bd
00000050: 3540 0e3e 100c c23c 2fa6 5a3e 1bf0 32be
00000060: d183 2dbe e147 fa3d 7c64 f8bc 57eb 18be
00000070: 8b72 543e a0e5 80bd d63c f1bd a3f0 6e3c
00000080: 4303 96bd c293 183e 0665 d53d 16cd 103f
00000090: a205 54bc d26d 0a3e 156d 00bc 81cd 48be
000000a0: e81b ad3d 12aa d93c 7c2b f23d 40fa bbbd
000000b0: 0ed7 f93d 752f 86bd 2cd5 82bb 2ea1 313d
000000c0: 4c61 88bd 5c74 23bc 96ac 62bd 46ae 843b
000000d0: ede0 983d 781d df3d 58cb 233c 411e 953e
000000e0: 68a4 c9bc 744b cb3c ba4f e03c c039 48be
000000f0: 2c38 973c 679f 05be d079 9c3c 2aaf 823d
00000100: 1c80 8abe 1bf5 9dbd 20ad 773d fc72 abbd
00000110: 7dce 1b3e 6c35 93bd 3ad3 2d3d bf9a 12bd
00000120: 307e a23d 11ff b8bd 9f92 d8bd 43a7 cc3d
00000130: 0819 4c3a a775 80bd c9b9 dabd c6ab 453b
00000140: 8ae2 0abd 8621 1cbd e351 f53c 7102 06bd
00000150: 4a19 1cbe c387 9b3c 1f81 4dbe 4419 e9bc
00000160: 76d4 1abe 0331 8abd 7f50 bdbc 3268 9c3b
00000170: 13ab f73c 0127 42be 5726 7abd 451c a93d
00000180: a2d6 b53c bd3c b53d 937e 4ebe 72e4 33bd
00000190: b823 82bc b53c c53d 992a ebbd 4a47 9cbc
000001a0: 40b3 4b3d ab11 813b 4c16 61bc dec1 23bd
000001b0: b34d e0bd 6418 5bba 1199 95bc f8f8 a7bd
000001c0: afe3 bebd f750 983c 088f 913d f82f 9d3d
000001d0: 1d31 9a3d ab4d ccbd e677 7d3c 09a7 513e
000001e0: 261a 3f3c 3aaf fa3d 7b9e 973d 93b7 123e
000001f0: e57e 9b3d 435f 9c3d ab0c 533e 6bb8 dbbd
00000200: d99b 38be efe3 273e 3560 dbbc 9e36 32bd
00000210: c368 bb3c 96ba 273e ec6a 4bbe dfdf dabd
00000220: 3f16 ea3d 252e cdbe 2503 963e fe7e c83c
00000230: 59ad 0abe 24d5 c53d db3b 763e 9c8f 9ebd
00000240: 8fd7 90bd 6605 f83c bef5 3b3e 093a 363e
00000250: 9420 2a3e 52b0 ea3d 1407 bfbc 5618 88be
00000260: b80f cabd b742 3dbd 2b13 a4bd 11d8 9d3d
00000270: 0a9d df3e 7d13 8cbe ef11 eb3d f7e7 49be
00000280: 3ef8 2a3e 8639 763e 2ac0 f13a f781 c63c
00000290: 33ee dc3d 249e 63be cf69 1dbe fd0a 39be
000002a0: 1390 5e3e 7f0c 3fbd 88f2 3ebd 57d5 d43d
000002b0: 3e76 3abe 4961 1d3e bbf7 543e bf15 833e
000002c0: e531 fb3d 68b7 793c d9f1 ee3c b3e0 dc3d
000002d0: a38a 6f3d 1898 e43e 50c3 26bd 9fbe 6a3e
000002e0: acf0 173e d5cb 033d 478c 4cbe b499 803b
000002f0: 0575 a93e 972a 3a3d 300d 073e d736 57be
00000300: 18da 3db9 2ecc 3bbe b573 98bd 68bf a5bd
00000310: afc3 de3d bf7c e0bc 1893 f13d b3ef d53d
00000320: d9a7 d7bd 74d7 693d ae31 8f3d 2fc9 68bd
00000330: af22 203e f383 2abd dc6b 86bd 4b41 943d
00000340: cd22 f83d 0309 923d e05f b8bb 88e3 e4bd
00000350: 34a7 92bd 3a31 20be 280f bf3d 6692 9a3c
00000360: dbdf 513d 4604 683d a65d 11be 5914 c8bd
00000370: a8b6 43be c58e 5fbc 4fab 32be 8321 85bd
00000380: c015 65bd 54ff 81be b248 af3c d16e a23e
00000390: efc4 73bd b11e 173e 27bf 4cbd 5e9c 0b3e
000003a0: c011 653d 9577 163c be3f c33c 3a3a 14be
000003b0: f07d a23d 73cf 1dbe 3c9f 85bd ce29 82bc
000003c0: fc44 96bd 0a50 2abe b6fe 4a3d f903 453d
000003d0: 92cd 80bd ead8 0cbd d390 783d c7ab dbbd
000003e0: 1524 f2bc dfb0 863d 2fa5 203e e073 5cbe
000003f0: 7bf4 12bd 6b1e a33c 9101 35bd 7601 be3c
-0.2968621 -0.08648449 0.09994974 -0.2214533 -0.16488513 0.023842873 0.028219815 0.107518665
-0.14037824 0.0516279 0.2131966 -0.14965743 0.11992233 -0.15184511 0.11930866 0.006313658
-0.31471756 -0.1189051 -0.10069532 -0.11820979 0.1389168 0.023687392 0.21352457 -0.17474405
-0.16944815 0.12220741 -0.030321352 -0.14933525 0.2074682 -0.062937975 -0.11779182 0.014583739
-0.07324841 0.14900115 0.10419659 0.56562936 -0.012940796 0.13518456 -0.007838507 -0.19609644
0.08452588 0.026570354 0.118247 -0.09178591 0.121992216 -0.065520205 -0.003992697 0.043366604
-0.06659183 -0.009976473 -0.055340372 0.0040490953 0.07464776 0.108942926 0.009997211 0.29124644
-0.024614528 0.024816252 0.027381767 -0.1955328 0.018459402 -0.13049088 0.019101053 0.06381066
-0.27050865 -0.07712766 0.06046784 -0.08371541 0.15215488 -0.07187924 0.04243777 -0.03579211
0.079342246 -0.09033025 -0.10574841 0.0999284 0.00077857124 -0.062724404 -0.10679967 0.00301622
-0.03390745 -0.038117908 0.029946273 -0.032717172 -0.15244022 0.018985635 -0.20068787 -0.02845443
-0.1512011 -0.067476295 -0.023109673 0.0047731632 0.030232942 -0.18960191 -0.06107172 0.08257345
0.022197071 0.088494755 -0.20165472 -0.043919034 -0.015886173 0.096307196 -0.11482734 -0.019076962
0.049731493 0.0039388738 -0.013738226 -0.039979808 -0.1095232 -0.00083578215 -0.018261464 -0.08201784
-0.09320771 0.018593295 0.07107359 0.07675165 0.07528899 -0.099757515 0.015470481 0.20473875
0.011663949 0.12240453 0.074032746 0.1432784 0.075925626 0.07635357 0.20610301 -0.10728534
-0.18028201 0.16395544 -0.026779274 -0.04350912 0.022877103 0.1637977 -0.19865006 -0.10687231
0.11430024 -0.40074268 0.29299274 0.024474617 -0.1354269 0.09659794 0.2404627 -0.07742235
-0.070723645 0.030276012 0.18355462 0.17795576 0.1661399 0.11459412 -0.023318805 -0.26581067
-0.09866279 -0.046206202 -0.080114685 0.07707227 0.436745 -0.27358618 0.1147803 -0.19717394
0.1669626 0.24045381 0.001844411 0.024231894 0.107876204 -0.22228295 -0.15372394 -0.18070598
0.21734647 -0.046642777 -0.046618015 0.10392254 -0.18209168 0.15369143 0.20797627 0.25602528
0.12265376 0.015241481 0.029168056 0.107850455 0.058481824 0.44647288 -0.04071361 0.22924279
0.14837903 0.03217681 -0.19975387 0.003924573 0.3309709 0.045450773 0.13188624 -0.21017013
-0.00018105691 -0.18339607 -0.07443944 -0.080931485 0.108771674 -0.027403234 0.11795634 0.104461096
-0.10530061 0.057090238 0.069918975 -0.05683249 0.1563823 -0.041629743 -0.06563541 0.07239016
0.12116013 0.07130625 -0.0056266636 -0.11176211 -0.07160798 -0.15643778 0.09329063 0.018868636
0.051238876 0.0566447 -0.1419588 -0.09769506 -0.19112647 -0.013644879 -0.17448162 -0.065005325
-0.055928946 -0.25390112 0.021396969 0.3172517 -0.059513982 0.14757802 -0.049986985 0.13633868
0.05592513 0.009183784 0.023834106 -0.14475337 0.07934177 -0.15411167 -0.06524512 -0.015889075
-0.073373765 -0.16632095 0.049559318 0.04809949 -0.062892094 -0.034386553 0.06068499 -0.10726123
-0.02955822 0.06576704 0.15688013 -0.21528578 -0.035877686 0.019911965 -0.044190947 0.023194056

rnn.bias_ih_l0 f4 [256]
00000000: d98f 253f 8f20 afbc c03e ef3e a65a 50be
00000010: eb09 9fbc f382 e33e c156 743c 1060 5b3e
00000020: 6727 0e3e 7155 0f3e db6a 6a3f 25fe db3d
00000030: 0c8f 6d3d 56ba 75bc f79e cd3e d1c1 4f3d
00000040: 1b8f 573e d9eb 173f 6d37 cc3e cfdf d3bc
00000050: 089e 75be 83f3 1f3e 2a48 843e 4bb1 083e
00000060: 73e4 0d3d 034a fdbb 8f6b f33d f36e 83bd
00000070: 3253 c83e 5c81 493e f9a0 3bbd 3cd1 2ebb
00000080: 5076 093f 2722 2b3f e582 e73c 9dcc 5a3e
00000090: 8a45 27be d0d2 cc3e a37a f63d f781 283f
000000a0: d80d 17bf 7abb 613d b0ad 733d 1dd7 ad3d
000000b0: 6512 20bd 9522 29be 2155 703e cbd9 5bbe
000000c0: cf77 7dbe 1890 a13e f546 febd 2163 19be
000000d0: aea8 9ebe 38f0 d33e 5305 2f3e 2acc 0a3f
000000e0: 0639 8c3e 90ab 8ebe 4bf5 1fbe 3e23 85be
000000f0: 3259 b2bd e898 873e a9a2 10be 429b af3e
00000100: 52e8 fdbd 8c8a 36be 6835 4dbe 0353 c7be
00000110: 8735 17bd be59 9abe 4f62 90be 03b4 8dbc
00000120: aa48 a8bd 5309 dbbc 080d 6abe 06fb f7bd
00000130: 7366 30be ce3f adbb 5e0e c9be 41f4 6cbe
00000140: 8180 8dbe 6060 7ebe f32c e2bd 1dc0 d5bc
00000150: 5fef aabe 6685 a8bd f36a 7abd 0fa6 24be
00000160: 9954 d2be 295c cbbe 61a2 8fbd 6d81 06bd
00000170: 01aa 2dbe c083 0dbe 124f b6bd 16b9 5cbe
00000180: 5486 20be 217d 24be f344 383e b6b7 223e
00000190: 6b20 59be 04a2 b8be af62 6bbe c0a3 8dbd
000001a0: 9ea1 15bf 3877 09be dd08 08be f030 91be
000001b0: 09e8 ecbd cc0b 55be ab09 ffbd ad84 e6be
000001c0: 76ef ebbe 2fbd 99be dd01 c2be a621 babd
000001d0: f1d3 f5bd 4a97 f9be a27e 8bbd a9f2 babe
000001e0: ea12 a6bd 1cfc 7cbe b3ad 66be 7b1d 5fbe
000001f0: 6b71 8bbe bc70 b8be d649 bcbc a14a d5bc
00000200: 6758 073e 6b7b a13d e7ae 31be 523e cc3d
00000210: 2dff 61bd d4d3 b3bd 3104 f0bc 50ea 15bc
00000220: 59fc 093d 01cc dd3d a6cb 43be 335d 0bbe
00000230: a7f2 383c 6a61 8e3d 019b d53b 9c78 8dbc
00000240: 2dda 993d 450e 103e 3448 0fbe ca55 aebd
00000250: 6c2f 7f3c a178 bbba a283 f9bc 0695 183e
00000260: 475c 593d 42bf 5f3c 42a5 fcbd d824 a3bd
00000270: 8d31 28be dfcc 9d3d 295b 7fbd 6697 723d
00000280: 6a23 9dbd 7a6d 0fbe 3f84 de3c f4dc 233d
00000290: e5e0 893b c25f 8b3c f99b b13d cda2 043e
000002a0: 11e8 413c b1f1 26bd 957e 153e fdb8 eb3b
000002b0: 292c 01bd 3011 f03c e384 1fbe 5441 cc3b
000002c0: df52 37bc f2b8 e9bd 0ddf e2bd 212d 92bd
000002d0: 9f85 07bd 661b f9bd c991 113e a1dd e4bd
000002e0: fa18 debd 2653 92bd 236b f53b 08c5 113c
000002f0: cb4b 79bd 17a3 9d3c b825 7abd 486d b73c
00000300: 4720 4b3f cb59 153d 5cce a53e 5471 9ebe
00000310: 01bf 023e d77b b93e 444e e53d f1df 433e
00000320: 507e 133e 976a 793e e35b 593f 0293 8cbd
00000330: 8d0d b0bd c311 58be 8906 df3e 0122 2abd
00000340: 61ea 573e 4f6a e93e 6835 ed3e 631a 41bd
00000350: 8f46 febd cd5d 82bc 006b b23e c1b3 7a3d
00000360: f806 6d3d f12f c83d 00b1 913c 112c ddbb
00000370: 6235 0b3f f8ad 2a3e 65a8 d03d 219c 75ba
00000380: b6ad d03e d33f 4b3f 2936 f33d 4a79 493e
00000390: c432 c1bd 7236 913e 476c 1b3e 82f6 0b3f
000003a0: daba 26bf 93f8 023e 5ad7 7c3e 5428 303b
000003b0: 6241 adbd 3156 b3bd 5730 713e 33c6 58be
000003c0: 3da8 65be 4cfe fb3e c7bb f0bd 42cb 6cbe
000003d0: 80c1 76be a820 7e3e 5ede 223d 4fc9 e13e
000003e0: 49b3 783e a7b0 97be 236d 1abe 8f03 84be
000003f0: c9be d6bd 79d6 213e c601 9d3c 7ae7 723e
0.6467262 -0.02137783 0.46727562 -0.2034708 -0.019413909 0.44435844 0.014913262 0.21423364
0.13882218 0.13997437 0.915693 0.107418336 0.05799775 -0.014998039 0.40160343 0.050721947
0.21050684 0.5934425 0.39886037 -0.025863556 -0.23986065 0.15620236 0.25836307 0.13348882
0.034641694 -0.00772977 0.118857495 -0.06417646 0.39125973 0.19678253 -0.045807812 -0.0026675006
0.53696156 0.6684899 0.028260658 0.21367116 -0.16335121 0.40004587 0.1203511 0.6582331
-0.590055 0.055110432 0.059491813 0.08488295 -0.039080042 -0.16517098 0.23469974 -0.214698
-0.24752735 0.31555247 -0.12415878 -0.14979221 -0.30988067 0.4139421 0.17091875 0.5421778
0.27387255 -0.27865267 -0.15620916 -0.2600345 -0.08708419 0.26483846 -0.1412455 0.3429814
-0.12397827 -0.17826289 -0.20039904 -0.3893052 -0.036916282 -0.30146593 -0.28200004 -0.01729775
-0.082169846 -0.026737845 -0.22856534 -0.12108426 -0.17226581 -0.005287147 -0.39268774 -0.2314005
-0.27637103 -0.24841452 -0.1104373 -0.026092583 -0.3338575 -0.08228569 -0.06113715 -0.16078971
-0.41080168 -0.3971875 -0.07013393 -0.032838274 -0.16959383 -0.1381979 -0.089018 -0.2155498
-0.15676242 -0.16063358 0.17995052 0.15890393 -0.21203773 -0.36061108 -0.22986864 -0.069159985
-0.58449733 -0.13424385 -0.13284631 -0.2835765 -0.11567695 -0.20805281 -0.12453016 -0.450231
-0.46081132 -0.30027148 -0.37892047 -0.09088449 -0.12003315 -0.48748237 -0.06811263 -0.3651326
-0.08109076 -0.24705547 -0.22527198 -0.2178859 -0.2723497 -0.3602351 -0.022984426 -0.026036562
0.13217317 0.07884868 -0.17351876 0.09972824 -0.055174995 -0.087806374 -0.029298874 -0.009150103
0.033687923 0.10829926 -0.19120654 -0.13609771 0.011288322 0.06952174 0.006518722 -0.017269425
0.07512317 0.14067943 -0.13992387 -0.08512457 0.015575271 -0.0014302918 -0.030458275 0.14900598
0.05306652 0.013656439 -0.12336208 -0.07966012 -0.16425152 0.07705092 -0.062342796 0.059226416
-0.0767277 -0.14006606 0.02716267 0.04000564 0.0042077177 0.017013434 0.086723275 0.12952729
0.011835114 -0.04075784 0.14599068 0.007193683 -0.031536255 0.02930507 -0.15578036 0.0062333737
-0.011189192 -0.11412229 -0.110777 -0.07137514 -0.033086415 -0.12163429 0.14215769 -0.11175085
-0.10844608 -0.071447656 0.0074895783 0.008897074 -0.060863297 0.019242806 -0.061071128 0.022390977
0.79346126 0.036462586 0.32384002 -0.30945837 0.12768175 0.36227295 0.111965686 0.19128396
0.14403653 0.24357067 0.84905833 -0.06863977 -0.085963346 -0.21100526 0.43559673 -0.041536335
0.21085502 0.4558892 0.46329808 -0.047144305 -0.12415802 -0.015913868 0.3484726 0.061206583
0.057867974 0.09774769 0.017784595 -0.006749638 0.5437833 0.16667926 0.10188369 -0.00093692733
0.4075753 0.79394263 0.118755646 0.19675174 -0.09433511 0.2836185 0.15178023 0.54673016
-0.6512886 0.12790136 0.24691525 0.0026879506 -0.084597364 -0.08756674 0.23553596 -0.21169357
-0.22427459 0.4921745 -0.11754566 -0.23124412 -0.24097252 0.24817145 0.039762847 0.440989
0.24287142 -0.29626963 -0.15080695 -0.25783965 -0.10485608 0.15804471 0.019165885 0.23721114

rnn.bias_hh_l0 f4 [256]
00000000: 6861 2a3f 3f5a e6bd 3b64 9a3e d9c5 52be
00000010: 0fdc 093e c2e1 df3e df1c dd3d 32f4 573e
00000020: 3826 6c3d fc63 253e 35cc 803f 4921 e6bc
00000030: 17f6 b5bd 4a52 4ebe 3dcf dd3e 3442 673d
00000040: cab9 6e3e 15d0 063f af24 a33e 7855 1bbe
00000050: 098a adbe f2df 293d e74b ad3e 51e5 1e3d
00000060: 5bea cd3d f2a3 083d 5e87 6bbb f2de 76bd
00000070: 5a7b e03e 124f 963e 4ed9 c6bd 83d0 7ebc
00000080: bb84 053f ce3b 1e3f 8d60 6d3d 93a1 b33e
00000090: 5c19 67be 92da 973e efa2 5d3e c063 0d3f
000000a0: 3f81 26bf 6992 a3bd e3eb 8d3e 4b6f 423e
000000b0: 68fb 51bd 88da fcbd 40e8 fd3d f18c 85be
000000c0: 33ac 2ebe 067b f63e 0323 0cbe a1bd 6abe
000000d0: cfbb 63be c748 c73e 4558 773e bd14 043f
000000e0: 8587 3d3e bb9d a1be a73d 88bc f86a 93be
000000f0: 3d74 063c e8bb 8f3e dfab 413d 1716 df3e
00000100: be4a cbbc a35a bdbb aaf6 0c3d 03ca 00bf
00000110: ac65 62be 71d6 84be dc6e 61be d284 0dbe
00000120: e107 c2bc ca28 333d f0fa 82be eac7 eb3c
00000130: dc0a 4ebd a772 6fbd d87a afbe 8039 8abe
00000140: 908e 78be d7e1 81be a8bc 0fbe b70f 50be
00000150: c2f2 98be 0231 07be 10b9 74bd 3a93 86be
00000160: e7b0 c6be 46dc cdbe ae56 ddbd 9a8f 8d3d
00000170: 0120 59be 5cd1 55be e565 b6bd bacb 8abe
00000180: 31df 93bd f02c 5cbd cd5e 433c 5a47 353e
00000190: 17e1 d2bd e30b b8be da07 e4bd 2060 3abe
000001a0: 281d 1fbf 14c4 26be 2e3a 1cbe c671 fabd
000001b0: 28f9 17be b61d 0ebe 5750 3dbe 8020 c4be
000001c0: 4611 6ebe 865c 56be 3d24 c4be 9fc8 74be
000001d0: 6fea f8bd 8acb 98be ddf8 0bbe f36a 84be
000001e0: bf4f f0bd d009 71be 14d4 0fbe 175b f8bc
000001f0: 9817 94be 9d68 9ebe c3d4 03be dec8 38be
00000200: 44c0 e63b caed 10be efbf 713c 4b29 9b3b
00000210: 8807 01be 62ea 44bd a40c 8fbc 89eb 253e
00000220: 7049 11be 811c f13d bdd2 4cbd 2942 fb3c
00000230: 5c71 843d b76a 19be 9d73 0bbe d4f4 6a3d
00000240: 13bd 2e3c 7b57 b63d ec7e 68bd 680c 4c3d
00000250: f1a0 b13c 5a00 5dbd 9f11 a1bd 0c8e b7bc
00000260: 0443 f13d 0c50 4b3d 0d1d 7e3c 57dd c73c
00000270: 115f b6bd cbaf e63d c004 143a 73d9 2ebe
00000280: 3880 08be bf73 bdbd 3332 a43d ee3a bebd
00000290: a02a 263d 286c aa3d ade8 393c 214c 9b3d
000002a0: ae94 11bd 3bd9 073e 2a2a d5ba 95c8 cfbd
000002b0: 92cf fe3d 6cec b93b 54d7 223d 9e1f 9a3a
000002c0: 2d5e a23d 6bb6 a9bd 2e1a bbbb 82ef 223a
000002d0: 20a3 8b3d 4e54 793d b6bd 453d 07a2 0bbe
000002e0: a255 e03b c8fc 58bd b0c7 363d 469d db3b
000002f0: a6df 0cbc 4f85 d93d 717d 15be 9efa 0b3e
00000300: 0679 2d3f db74 09be d446 b83e 7ff3 91be
00000310: b1db 573d 381b f83e fbb0 cabb af54 b43d
00000320: fa9b 313e 9476 403e 0741 613f f02c 39bd
00000330: 30a0 f2bd aa6d 0bbe d88c b63e 8b20 e9bd
00000340: 50be 1e3e edf2 0c3f c16d f23e 3e13 34be
00000350: 8ed8 a6be 4420 f3bc bd07 7b3e f5dd ab3c
00000360: 676a b33d 7e11 cebd 7ee4 293e fb7d c13c
00000370: 0933 fc3e 59fb 8d3e 4fce bd3d a02d 7c3d
00000380: 96e9 cb3e a2fd 403f f7d2 473d efc4 713e
00000390: f087 1dbe e188 ac3e 5f14 f93d fc24 253f
000003a0: 7ada e9be 4fe3 c33d 6dba 223e 6a2e f83d
000003b0: 7caf 073e 1de8 9bbe c617 523e d987 85be
000003c0: a21c 97bd 9bb3 d93e 9943 79be 0984 39bd
000003d0: 2118 a7bd 1bff 723e a031 a33d dbfb 033f
000003e0: bc58 4c3e 6e1a 9cbe e25d f5bd 665e 8dbe
000003f0: ce72 3bbe 9beb 293e 08c9 61bc d9e4 843e
0.6655488 -0.11247682 0.30154595 -0.20583285 0.13462852 0.43726927 0.10796522 0.21089247
0.057653636 0.16151422 1.0062319 -0.028092043 -0.088848285 -0.20148578 0.43322173 0.05645962
0.2331306 0.5266126 0.31863925 -0.15169322 -0.33894375 0.041473337 0.3384697 0.038792912
0.100544654 0.033359475 -0.003593884 -0.06027121 0.4384411 0.293572 -0.09709416 -0.015552643
0.52155656 0.61810005 0.057953406 0.3508421 -0.22568268 0.29658943 0.21644185 0.5523033
-0.65040964 -0.0798691 0.2771903 0.18987767 -0.05126515 -0.12346369 0.12397814 -0.26084092
-0.17057876 0.48140734 -0.13685231 -0.229239 -0.22239612 0.38922712 0.24154766 0.51594144
0.18508728 -0.3156565 -0.01663096 -0.28792548 0.008206424 0.2807305 0.04728305 0.4357154
-0.024815913 -0.005778627 0.034414925 -0.50308245 -0.22109097 -0.25944856 -0.22014946 -0.13820198
-0.023685398 0.04374007 -0.25582075 0.02878185 -0.050303325 -0.05845895 -0.3427341 -0.26996994
-0.24273133 -0.25367615 -0.1403681 -0.20318495 -0.2987271 -0.13202289 -0.0597468 -0.262842
-0.3880684 -0.40207118 -0.108075485 0.069121554 -0.21203615 -0.20880646 -0.089061536 -0.27108556
-0.07220305 -0.053753793 0.011924458 0.17703 -0.10296839 -0.3594657 -0.1113431 -0.18200731
-0.62153864 -0.16285735 -0.15256569 -0.12228732 -0.1484114 -0.13878521 -0.18487678 -0.38306046
-0.23248777 -0.20933732 -0.38308898 -0.23904656 -0.1215409 -0.29842788 -0.13669153 -0.25862846
-0.1173396 -0.235389 -0.14045745 -0.030316873 -0.2892425 -0.3093919 -0.12874131 -0.18045375
0.007041963 -0.1415321 0.014755233 0.004735147 -0.12600529 -0.048075087 -0.017462082 0.16203131
-0.1418817 0.11773015 -0.050005663 0.030671196 0.06466934 -0.14982115 -0.13618322 0.057362393
0.010665196 0.08903404 -0.056761667 0.04981652 0.021683188 -0.053955413 -0.07864689 -0.0224066
0.1178036 0.049636886 0.015509856 0.024397535 -0.08904851 0.112639986 0.000564646 -0.17075138
-0.13330162 -0.092505924 0.08017387 -0.09288584 0.040567994 0.083214104 0.011346978 0.0758288
-0.035542183 0.1326646 -0.0016263176 -0.1014568 0.12441935 0.0056739356 0.039756134 0.001175869
0.07928119 -0.082867466 -0.005709908 0.0006215499 0.06818223 0.060871415 0.048276626 -0.13636027
0.0068461457 -0.052975446 0.04462403 0.006702098 -0.008598244 0.1062113 -0.14598633 0.13669822
0.6776279 -0.13423483 0.35991538 -0.28506085 0.05269975 0.48458266 -0.0061856485 0.088052146
0.17344657 0.18795234 0.8798985 -0.04520887 -0.118469596 -0.13616052 0.3565433 -0.1138316
0.15502286 0.55058175 0.4734936 -0.17585465 -0.32587093 -0.029678471 0.2451467 0.02097986
0.08760529 -0.1006193 0.16591069 0.023619642 0.49257687 0.27730826 0.09267866 0.06156695
0.3982665 0.7538701 0.048785176 0.2361028 -0.15383887 0.3369818 0.121620886 0.6450956
-0.45674497 0.0956484 0.15891428 0.12118228 0.13250536 -0.30450526 0.20516881 -0.26080206
-0.07378508 0.4251984 -0.24342193 -0.045291934 -0.08158899 0.23730128 0.079684496 0.51556176
0.19955724 -0.30488914 -0.11980797 -0.27611083 -0.18305513 0.16593783 -0.01378084 0.25955847

rnn.weight_ih_l1 f4 [256, 64]
00000000: a8b4 90bf ffc4 b33e d50e 0abe 115b ca3d
00000010: 996c 80bb 5fda 333f 6baf febe 02ce d6bd
00000020: c58a 713e 8bf1 7dbe 3ced 6f3f 1bbc dd3e
00000030: e8a7 d2be bc4c 9e3d 1af4 1a3f d704 8dbe
00000040: 89b2 13bf 9b35 0cbf db81 2c3f 5911 813e
00000050: d828 3a3e f146 053f 5e37 a6be 3a37 a4be
00000060: 15ed 4abe 4f02 c3be b8f3 903e 6e0a 4d3e
00000070: ac43 7b3f c440 3ebe 2f64 023f 1024 4ebe
00000080: 95ab 403f 1f5d 4f3f 4eb6 2dbe f908 cebd
00000090: eaa5 a13e e83a 09bf a078 aebe be94 68bf
000000a0: 8e9e 11be c14a a0be d9f3 35be f948 863e
000000b0: 46e0 e5be 0242 8d3e bf1e 2b3f 21c1 333d
000000c0: 03f6 883e 3d44 b33e b31d 903d 60a0 f23d
000000d0: 84af 9e3e e604 523f 1611 2bbe 7bb6 813e
000000e0: 01a9 2c3f f318 acbe bc57 77be 02c9 c13d
000000f0: 939d 133f ec09 33bf 3596 803e fd18 48bf
00000100: bafe 22bf 9825 1abe c9c7 3d3e 370a 9b3d
00000110: d08c d5bc 67b7 1e3e 0e30 90be 88fd 763e
00000120: 8455 d6bc 1dbb 4e3e ee4a 8f3e 87fe 143d
00000130: b771 303e bca9 bd3d cb59 0d3d aba6 aebd
00000140: 6ac0 9bbd d267 5e3d 8cf0 933e b254 16bc
00000150: a3a4 643e f078 89bd 548f 103e 4623 8bbe
00000160: fc71 c63d a891 b9bd 6a18 b63c b697 1fbe
00000170: 57a8 5c3e 3338 5ebd e31d b73d 322a 5dbe
00000180: a476 afbb e573 7d3e 9ad4 1f3d c25f 84bd
00000190: e766 5c3e e0a5 be3c 1069 88be b7fa 15be
000001a0: a9da 4cbd eb49 023e 605c c53d 3af6 c3bc
000001b0: 1756 67bd b846 253e 3c6e c23d 28ac 55be
000001c0: 86af d03e aa89 e4bd 9623 763d a26b 163c
000001d0: 6f96 273e 3a90 263e 5c46 3b3e d3e2 c2bd
000001e0: 66df 8b3e 6bda 8cbd 656a 20be 2e2e 33be
000001f0: f265 8b3e 1ca7 aabe 30a5 04be a068 3ebe
00000200: 5600 98be 4e6d 583e ed29 c0bc 951f 913c
00000210: 7c69 713e a92e 343e 3254 85be 071b 74be
00000220: 38c2 2b3e b945 8bbe 94be e43d 8047 7e3e
00000230: 3aaa 42be 8eb8 0c3e fa6f 013e 91e7 82bd
00000240: 6b8b c9bd 2eed 9fbe ffae 003e d2c5 133d
00000250: 7c36 d73d 2859 e53d 2484 c8bc e08c 09be
00000260: 472c a43c d451 53be 6dbd 393e adca d83d
00000270: 9156 bd3e 7585 4fbd 43a3 0b3e 4ad2 91be
00000280: a0c6 b33e c8f7 953e 2c56 ddbd dc1e 2dbd
00000290: 9130 3a3e fd9f 1abe 3aeb 6ebe ea18 66be
000002a0: ab7b a4bd 0b4e 9cbe 9f47 0abe af78 133e
000002b0: fe2b 66bd 20b4 b93d fcc3 273e e7b2 cfbd
000002c0: 57b3 d33e 5934 033e 52d5 3abc 7741 b23d
000002d0: 1cc7 fb3d c4fc 943e 4335 18be 035b ffbd
000002e0: 7c4a 873e 239d 22be d9cd a13c 9a9a 553d
000002f0: 6e7c 843e 7ed6 18be f151 b93d 79b6 95be
00000300: 96fc 81be 0e42 7d3e 37f4 96bd 091e 643d
00000310: 28d9 d63d af83 883e 9588 3cbe ab48 43be
00000320: a802 a3bc 2865 0b3f 2fad cebd 1723 253e
00000330: 2d4b fcbd 1fd4 1f3e 2efe 1f3d d300 bfbd
00000340: d277 113e 154c e23d 9e4b e7bd 73cf dd3d
00000350: 7df1 ef3d 2c60 353e c2e3 1fbe 7fc5 abbd
00000360: 8a18 2c3d cd6c 95be f027 293e 992e 723e
00000370: f52d 5abe cf3b 29bd 368d 943d 3662 bd3c
00000380: db47 edbc accb 453e 3104 7dbe f65f 9fbe
00000390: 07a3 8d3d 391b 953b c44a 56be d1b9 66be
000003a0: e113 3dbe 4468 78be fe8d 4ebe 36a4 af3d
000003b0: ae3f e0bd 512c 953d fc0c afbb d070 98be
000003c0: 6617 a53e 10ff a33d 2fe3 873d 51f7 283e
000003d0: 25ed 963e 173f 583e 89bb 00bd 8022 dfbd
000003e0: c648 163e 04b8 59be 71df b2bd 54c6 323e
000003f0: 30ad b73d 71cc 43be 84ba df3c c1a0 81bd
-1.1305132 0.35111234 -0.1348222 0.09880651 -0.003919196 0.7025508 -0.49743208 -0.104885116
0.23588093 -0.24799173 0.93721366 0.43307576 -0.41143727 0.0772948 0.6052872 -0.27542755
-0.576943 -0.54769295 0.67385644 0.25208548 0.18179643 0.52061373 -0.32464117 -0.32073385
-0.19817002 -0.380877 0.28310943 0.2002351 0.98150134 -0.18579394 0.5093412 -0.20130944
0.75261813 0.81001467 -0.16964075 -0.10060305 0.31571895 -0.5360551 -0.34076405 -0.9085196
-0.1422064 -0.31307033 -0.17768802 0.2622755 -0.4489767 0.27589422 0.6684379 0.043885354
0.26750192 0.35013 0.07036915 0.11846995 0.30993283 0.82038724 -0.16705737 0.25334534
0.6744538 -0.33612785 -0.24154562 0.09462167 0.57662314 -0.69937015 0.251146 -0.7816313
-0.6366993 -0.15053403 0.18533243 0.07570308 -0.026068121 0.1549965 -0.28161663 0.24120152
-0.026163824 0.20188566 0.27986854 0.03637555 0.17230879 0.0926089 0.03450946 -0.08527883
-0.076050594 0.05429823 0.2889446 -0.009175466 0.22328429 -0.0671252 0.14117175 -0.2717535
0.096897095 -0.09060985 0.022228438 -0.15585217 0.21548592 -0.054252815 0.08941247 -0.21598127
-0.0053547192 0.24751242 0.039021112 -0.06463577 0.21523629 0.023272455 -0.26642656 -0.14646421
-0.050013218 0.1272351 0.0963676 -0.02392112 -0.056478586 0.16140258 0.09493682 -0.20866454
0.40758914 -0.1115907 0.06009253 0.009180935 0.1636598 0.16265956 0.18288559 -0.095159195
0.27318877 -0.068775974 -0.15665586 -0.17498085 0.27226216 -0.3333062 -0.12953639 -0.18594599
-0.29687756 0.21135446 -0.023457492 0.017715255 0.23575395 0.17595924 -0.26040798 -0.23838435
0.16773307 -0.27201632 0.111691624 0.24831963 -0.19010249 0.13742277 0.12640372 -0.06391824
-0.09841045 -0.3123564 0.12566756 0.036077328 0.10508439 0.11198646 -0.024477072 -0.13432646
0.020040644 -0.20636684 0.18138666 0.10585532 0.36980107 -0.050664384 0.13636498 -0.2848075
0.35112476 0.29290605 -0.108074516 -0.042265758 0.18182589 -0.15100093 -0.2333192 -0.22470441
-0.080314 -0.30528292 -0.13503884 0.14401506 -0.056194298 0.09067559 0.16383356 -0.10141545
0.41347763 0.12812938 -0.011403399 0.08703893 0.122938365 0.29099095 -0.14864068 -0.12468531
0.26424015 -0.15880255 0.019751476 0.052149393 0.25876182 -0.14925572 0.09048832 -0.29240778
-0.2538802 0.24732229 -0.07370799 0.055692706 0.10490638 0.26662967 -0.18411477 -0.1907069
-0.019898728 0.5445123 -0.10091626 0.16126667 -0.12319026 0.15608262 0.039060764 -0.09326329
0.14205864 0.11049668 -0.1129372 0.108305834 0.11715982 0.17712468 -0.15614226 -0.08387279
0.04201559 -0.2918457 0.16519141 0.23650588 -0.21306594 -0.041316804 0.07253496 0.02311812
-0.028964927 0.19315976 -0.2470863 -0.311279 0.069158606 0.0045503643 -0.20926958 -0.22531821
-0.18464614 -0.24258524 -0.20171353 0.085762426 -0.10949646 0.07283843 -0.005342124 -0.2977357
0.32244414 0.08007634 0.06635129 0.16500594 0.29477802 0.21117817 -0.031428847 -0.10895252
0.14676198 -0.21261603 -0.08734024 0.17458469 0.0896858 -0.19120957 0.027310617 -0.063294895

rnn.weight_hh_l1 f4 [256, 64]
00000000: 57e1 68bd 603c aa3e eccb 85be 79c8 57be
00000010: 53c4 5fbe 0e32 593e 8a0e 0f3d f66c 073e
00000020: be0a 123f 4839 c33d b313 72be 0d5e 1b3e
00000030: 330f 113f a4e8 e23e 2bc9 c03e 6e1f 1cbe
00000040: 3f6c 713e 901d 88bf b2d6 3d3e d882 84bd
00000050: 337f bf3d 052e 993e 5667 d7be 170a 4cbf
00000060: ef99 a23d 0759 84bc 2518 62be ef43 02bf
00000070: 0f7e a6bd 0ee3 5bbe e4ac b6bd 2728 2fbe
00000080: 8ea4 c4be 20b8 bebe 7ed8 1ebf 0d36 0dbd
00000090: 126a 933d 983d 8bbf a236 01bd 1737 823e
000000a0: 5f48 673f e4f3 b73d 63e1 e53d de08 54bd
000000b0: b034 a2be 278a 433f a06a 3ebd 9c92 07be
000000c0: 502e 413d a1a4 e63d bc78 273e 4013 16be
000000d0: ca93 05be 5b8e cdbf f9b8 7d3c d6e7 993e
000000e0: f175 18be 74b8 3c3d 3222 643f 1be9 b93e
000000f0: 3982 4dbe 6872 ed3f f9a2 54be dca1 9fbe
00000100: 1605 b53e 1159 37be 675f 343e dad3 12be
00000110: 892c c7bd cc32 fa3d 745e e3be 1b30 b83d
00000120: a63b fe3e 61d4 05be ffcc 423e c044 85bd
00000130: 241e a93d 1c76 65be 9191 9b3d 9fbe 633e
00000140: 0cb7 13be a64e e63e 07d1 5a3e 81ff 323f
00000150: b355 49be 2ae3 e53e b841 213d b12b d33c
00000160: 8c07 5b3e ebf9 2cbe 2062 fb3e 0b12 5e3e
00000170: 6eac 66be 5572 023f 1522 aabd bf36 863e
00000180: 980c d2bd 1f13 db3d 5301 233c 9577 d7bd
00000190: 8a48 f1bd b7b6 d1bc 377c 34be c3fa 5bbc
000001a0: 636f 1b3e 8554 8bbd fb38 a53e 0e7e d43d
000001b0: 976e 083c ef3a 903e 54aa 873e 8766 0ebd
000001c0: 5185 e73d 4405 d9bb b266 f13d c5b5 0cbd
000001d0: 39ce b33a 6406 3b3d b26e afbd 2677 a3bb
000001e0: 4225 bb3d ac6d 0d3e 5e65 89be 7b08 b5bd
000001f0: 1288 eebd 0432 fb3d 459f 853d cf34 3dbc
00000200: 6605 2abe 2ccd e93c 18d8 713e 3ddf a13d
00000210: 8d6a 083e 0b79 d2bd 5bbc aabe d34a ccbd
00000220: 990e 1d3f 2337 98bc c7fa 27bd 5261 d23d
00000230: 9638 4dbe 13a1 fdbd f796 09bd 95d4 043e
00000240: 31da 11bd 1942 36bd 568d 20bd f3ea 573f
00000250: ee9c 4ebe df70 913e c4b9 55bc 0cd4 f5bd
00000260: 5995 f0bc 2c43 fbbc a8b4 fa3e c822 1ebc
00000270: 58c2 523e 0651 913e 16fe 853c 3e6e c13e
00000280: 7f16 17be ca9d 6cbe 323c f9bd 6d13 ddba
00000290: cf34 79bd 32da adbc 58f2 04be 68fe 023e
000002a0: a80b 003e da3e 753c 3944 f4bd 3bd1 233d
000002b0: d189 373e 538c 05bf f1c1 8d3e df72 fd3d
000002c0: e4dd 673d 03a1 18bd 429d 8e3d e51b 073e
000002d0: 6285 2a3e f72e 20be 0398 c63d b6b0 cc3c
000002e0: a9f0 6a3c 0e8f 15bd 4945 813c f288 51be
000002f0: 04f3 4abd cce3 a13e 8479 cbbe cd5c 0cbe
00000300: aa52 92be 6097 a3bd 491f 923e f1f0 c0bd
00000310: ba6e 683e 9ff9 51bd 5fe5 96bd 19d4 d83d
00000320: 3944 953e 8718 263e 73a0 48be d65c e13d
00000330: a271 05bd 6175 e9bb 3c55 98be 8655 c43e
00000340: 941a af3d 9bda cc3d 0711 57be 4ce0 1f3f
00000350: 7c6a 2dbe abfc 66bc 883c 3c3e 3adb acbe
00000360: a981 f5be f735 60be 5480 e13d 7470 3dbe
00000370: 2704 c13d 4722 e0bd 05fd ba3e e3de 143e
00000380: 0914 ffbd 94c2 543e 69e2 1bbe fb5f 6f3e
00000390: 6c8b 513e abd3 283b 4b0e 273e c246 b9be
000003a0: 7721 fcbd e3df de3d f838 a1bc b868 603d
000003b0: 0098 683e 36c1 b6be ac6c ba3d 87e3 96be
000003c0: a3cf 03be 5ee8 a23c 5431 133e 315c 1d3d
000003d0: 4b3d 583e 6c86 7d3d 2a10 4b3e 0a7b 29be
000003e0: cbbf cf3d 07c5 273e 4de6 743e 03e1 9bbe
000003f0: 59e9 793e d55f d83c dddf 8dbe bd11 0cbf
-0.056855526 0.33249187 -0.26132143 -0.21072568 -0.21852235 0.212105 0.034925975 0.13225159
0.5704764 0.0953241 -0.23640327 0.15172596 0.5666382 0.44318116 0.3765348 -0.15246364
0.23576449 -1.0634022 0.18538931 -0.06470269 0.09350433 0.29917923 -0.42071027 -0.79702896
0.07939517 -0.016155733 -0.22079523 -0.5088491 -0.081295125 -0.21473333 -0.08919695 -0.1710516
-0.38406795 -0.3724985 -0.6204909 -0.034475375 0.07197966 -1.0878172 -0.031546243 0.25432655
0.90344805 0.08982065 0.1122463 -0.05176627 -0.31680822 0.7638268 -0.046488404 -0.13239521
0.047163308 0.11261869 0.1635465 -0.14655781 -0.13044658 -1.6059068 0.015485995 0.3005969
-0.14888741 0.046074346 0.8911468 0.36310658 -0.20069207 1.8550539 -0.20765294 -0.31178176
0.35355443 -0.1790507 0.17614518 -0.14338627 -0.09725291 0.1221672 -0.44408 0.089935504
0.49654883 -0.13069297 0.19023512 -0.06507254 0.08257702 -0.22408336 0.07596124 0.22240685
-0.14425296 0.4498188 0.213688 0.6992112 -0.19661598 0.44899875 0.039369315 0.02577767
0.21389598 -0.16892211 0.490983 0.2168657 -0.22526714 0.50955707 -0.08307282 0.26213643
-0.10256308 0.106970064 0.009949046 -0.10520855 -0.11781414 -0.02559982 -0.17625509 -0.0134264855
0.1517921 -0.0680323 0.32270035 0.103756055 0.008327148 0.28169963 0.26497138 -0.034765746
0.11304725 -0.006622942 0.11787166 -0.034353036 0.0013718075 0.04566039 -0.08566035 -0.004988569
0.09137966 0.13811368 -0.2683515 -0.08839508 -0.11647047 0.12265399 0.06524519 -0.011548235
-0.16603622 0.028540216 0.2361759 0.079039074 0.13321896 -0.10276993 -0.3334683 -0.09975209
0.613504 -0.018580979 -0.041010644 0.102724686 -0.20041117 -0.12384238 -0.033591237 0.12971719
-0.035608474 -0.04449663 -0.03919729 0.8434288 -0.20177051 0.28406426 -0.013044778 -0.12003335
-0.02936809 -0.030671678 0.48965955 -0.009651847 0.20581949 0.28382128 0.01635651 0.3777942
-0.14754675 -0.23107067 -0.121696845 -0.0016866751 -0.060841378 -0.021222208 -0.12983072 0.12792361
0.12504447 0.014968598 -0.11927075 0.03999446 0.17923667 -0.5216724 0.27687028 0.123754255
0.056608096 -0.037262928 0.06963588 0.13194235 0.16652444 -0.15642916 0.09696963 0.024986606
0.014339604 -0.03651338 0.015780108 -0.20462397 -0.049548164 0.31619108 -0.39741147 -0.13707276
-0.28578693 -0.07987857 0.28539494 -0.09420956 0.22698489 -0.051263448 -0.07367968 0.105873294
0.29153612 0.16220294 -0.19592457 0.11004035 -0.03257907 -0.0071245884 -0.2975253 0.383465
0.08549991 0.10002633 -0.21002589 0.62451625 -0.16935152 -0.014098327 0.18382466 -0.33761007
-0.47950485 -0.21895586 0.11010805 -0.18499929 0.0942462 -0.10944038 0.36521164 0.1453815
-0.12454993 0.2077735 -0.15223087 0.23376457 0.20463341 0.002576093 0.16314046 -0.36186796
-0.123110704 0.10882547 -0.019680485 0.054787368 0.22714233 -0.35694283 0.09102759 -0.29470465
-0.12872176 0.019886192 0.14374286 0.038418 0.21117131 0.061895773 0.19830385 -0.16550842
0.101440035 0.16383754 0.23915978 -0.30445108 0.24405421 0.026412884 -0.27709857 -0.54714566

rnn.bias_ih_l1 f4 [256]
00000000: c281 8ebd d2e2 ec3d 5a31 b23d 61ce 433d
00000010: a1ca c2bb 0c02 b0bd fc76 34be 5320 d73e
00000020: d45d ac3d 2085 2dbe 3350 323e 71fb ce3e
00000030: 4449 8b3e 4b3e 153c 05b0 2f3e f37e e23c
00000040: d091 213d c542 6c3e 7207 e7bd 1c8f 9a3e
00000050: ddfd a23d a9f9 343e 37da 223e a1c3 443e
00000060: 0564 473e d75d 5dbc 66fb 743d f23b 5b3e
00000070: 8867 7f3e 3d11 90bd d8d0 7c3d 1ffc 4e3d
00000080: 2648 a83d e0e5 0e3f 879c 763d 3784 9c3d
00000090: bf40 793e 0072 77bc 8ea0 b1be e4fa 133e
000000a0: a8e5 733e 4696 ba3d fc2a 193d 3972 2e3e
000000b0: 3700 92bc d78b 48bc 5e38 41bb 23d4 cc3c
000000c0: b47c 9cbd 6ce2 5f3e 6f81 df3d 8030 9fbc
000000d0: 3b90 e0bb 1c78 9c3f 0df3 863e 2c26 553e
000000e0: 549a d9bd aa71 183e 752b 383c 79cb ac3d
000000f0: 3931 55bb b258 d83d e28e 2d3d db85 bc3e
00000100: 1822 283e 1347 9ebd faff d13d 54fe bd3e
00000110: 5d24 c93c 14d7 713c 83c2 a6be 1d01 02bb
00000120: 8343 f73c 404b 08bd 3059 8abe ef8c e2bd
00000130: 9ce9 f73c d6f4 68be 4f96 233b 9449 b1bd
00000140: f0e1 3fbd fb3d 03bf 959e b7be 4b83 0b3e
00000150: a1bf 5ebd 0a34 92be d626 82be c81c 8cbe
00000160: f24d 39be d6c7 e6be 0c04 95be fa9d 09be
00000170: 95a6 463e 761a 12be a06e b73e 40b6 1bbc
00000180: 3888 d8be c467 cabe 3768 d4be e617 dabd
00000190: f51e 8d3e 235c 78be 091b 5abd 2541 25be
000001a0: d446 b13c 5b0b 91bd 695a c5bd ec6f b13d
000001b0: 63e7 10be 9892 c33e c7b4 9bbd 9103 003e
000001c0: c4df 74be a6ef 973d 3a83 9c3d 0359 d03d
000001d0: 1bff 8b3b 4a23 7cbe 77ac 573b 8057 86bd
000001e0: c132 78bc 81bb 25be 0454 2c3e 8cb8 963d
000001f0: 06ec a03e e3b3 aebe c7ce cabd 0b74 b1be
00000200: fa94 8f3c 8a77 803e 9e1c 21bd e3c1 d03d
00000210: 7063 b63d 81b6 dfbd bfeb 193d 4591 67be
00000220: 4acd 14bd 1580 7d3d d064 5cbe 0b30 b23e
00000230: 5080 903d cca6 363e f711 8b3c a689 d83d
00000240: 21ce 253e 054a 8dbd 85c6 d13d d27e c03c
00000250: 1244 b5bd b864 603d 8403 9c3d afee 72be
00000260: f2fc 91be fde6 1bbe 56e1 d3bd 91da 61be
00000270: 741b 86bd 07ae 44be 6d85 d4bd dc88 82bd
00000280: f087 f2bd 6422 a23c 10f3 f23c 335f ec3d
00000290: f013 e6bc 674e b6bd f274 ebbc 0d25 fc3d
000002a0: 3cee 3ebe 5075 253e b05e afbd a9ce b83d
000002b0: 2722 0bbc b461 f53c 1ca3 afbd 886c 3abe
000002c0: f083 d6bc 289d b23d e601 aabd 3de9 323d
000002d0: 2c29 ecbd 317d 063e 4459 ed3d 8783 27be
000002e0: 9e56 a7bd efd3 90bc 9d9f 373e f5f4 963d
000002f0: 52b5 403d a954 2d3d 5c58 d2bb 08fe bcbd
00000300: 2c5c cb3d abef d23d c0dd 16bc 02a7 a83d
00000310: 9443 013e 6be8 f6bd eca4 21be 5926 3b3e
00000320: 43bb ce3d 4679 65be fd1d de3c b99d a63e
00000330: 4cba 7e3e d754 5bbc 6da0 97bc f9ad 8b3d
00000340: 6599 0b3c eee6 563d 4541 4a3d e34b b63e
00000350: 0e93 403e 0f84 333e b278 1a3e af39 f93d
00000360: ffcd 333e 4009 8d3c 71c7 8a39 bbd2 0c3e
00000370: bd4e c33e 8f1d 70bd 7030 bb3c 23c6 913d
00000380: 2575 163e 639f 063f 612e c7bd 00a6 cfba
00000390: c150 e43d d9b0 013e b2d5 16be 80b9 92bc
000003a0: 9d6e 5e3e 2b0e 48bc 27cb 51be 5a1d 01bd
000003b0: 2e00 e7bb 6c37 c53e 019e 01bc fc2d 1f3d
000003c0: c9c7 05be 2666 393e f49c 9e3c 48c5 5bbd
000003d0: ed0b e03c f85d 923f 85b7 0c3e 58e3 633e
000003e0: 04d3 21be 60fe a33b c01d a83d 7f0c 603d
000003f0: bdbc 0c3e 7b6f 2a3e fa08 1f3e ac38 4f3e
-0.06958343 0.115667 0.08700819 0.04780424 -0.0059445654 -0.085941404 -0.17623514 0.4201685
0.08416334 -0.16945314 0.17413406 0.4042621 0.27204335 0.00910909 0.1715699 0.027648425
0.0394457 0.23072346 -0.11280717 0.3018731 0.07958577 0.17673363 0.15903555 0.19215252
0.19471748 -0.013511143 0.059810065 0.21409586 0.24941838 -0.07034538 0.061722606 0.05053341
0.08216886 0.5581951 0.06020787 0.076424055 0.24341105 -0.015102863 -0.34692806 0.14451176
0.23818076 0.09110694 0.03739451 0.1703576 -0.017822368 -0.012240372 -0.002948306 0.025003498
-0.07640973 0.21863717 0.109133594 -0.019432306 -0.006853131 1.2224154 0.26357308 0.20815343
-0.10625139 0.1488711 0.01124083 0.08437247 -0.003253056 0.10563792 0.04237259 0.36820874
0.16419256 -0.077284 0.10253902 0.371081 0.024553472 0.014760751 -0.32570276 -0.001983709
0.03018356 -0.03327489 -0.2702117 -0.11062037 0.03026276 -0.22749647 0.0024961417 -0.08656612
-0.04684633 -0.5126645 -0.35863176 0.13624303 -0.05438197 -0.28555328 -0.25420254 -0.27365708
-0.1809614 -0.45074338 -0.2910465 -0.1343917 0.19399484 -0.14267907 0.35826588 -0.009503901
-0.42291427 -0.39532292 -0.4148576 -0.106490895 0.2756268 -0.24253897 -0.05324844 -0.16138132
0.021640219 -0.07082244 -0.09636385 0.086639255 -0.14150767 0.3819778 -0.0760284 0.1250136
-0.23913485 0.07418756 0.07642217 0.10173228 0.0042723543 -0.24622837 0.0032909194 -0.06559658
-0.015148819 -0.16184808 0.16828924 0.07359418 0.31430072 -0.34121618 -0.09902721 -0.34658846
0.017527092 0.250912 -0.039333932 0.10193231 0.08905685 -0.10923482 0.03757834 -0.2261401
-0.03632859 0.061889727 -0.21522832 0.3480228 0.07055724 0.17837065 0.01697634 0.10573129
0.16191913 -0.06898884 0.10242943 0.023497973 -0.08850874 0.054783553 0.07617858 -0.23723863
-0.28513294 -0.15224834 -0.10345714 -0.22056033 -0.06548205 -0.19207011 -0.103770114 -0.0637376
-0.11842334 0.01979179 0.029656917 0.11541595 -0.028085679 -0.08901673 -0.028742287 0.123117544
-0.18645567 0.16158032 -0.08562982 0.09023792 -0.008492029 0.029953815 -0.085760325 -0.18205464
-0.02618596 0.087213814 -0.08301143 0.043679465 -0.115312904 0.13133694 0.11589292 -0.16358767
-0.08170818 -0.017679183 0.17931981 0.073709406 0.04704792 0.042317066 -0.0064192247 -0.0922814
0.0992969 0.10299619 -0.009208143 0.08234979 0.12623435 -0.12056049 -0.15785569 0.18276347
0.10094311 -0.22409543 0.027113909 0.32542208 0.24875754 -0.013386927 -0.018509114 0.06820292
0.008520459 0.052466325 0.049378652 0.35604772 0.18806097 0.17530845 0.15085104 0.121692054
0.1755905 0.017216325 0.00026470007 0.13752262 0.3814601 -0.05862194 0.022850245 0.0711787
0.14693125 0.52586955 -0.09725643 -0.0015842319 0.11148215 0.12665118 -0.14729956 -0.017910719
0.21721883 -0.012210409 -0.20487653 -0.031522132 -0.007049582 0.38518846 -0.007911206 0.038862213
-0.13064493 0.18105373 0.01936195 -0.05365494 0.027349437 1.1434927 0.13741882 0.22254694
-0.15803152 0.005004689 0.08208799 0.054699417 0.13743873 0.16644089 0.15530768 0.20236462

rnn.bias_hh_l1 f4 [256]
00000000: 5429 863d 25c2 ba3d 1192 203e 9d28 703e
00000010: 3a3e cd3d df72 c9bd 6131 9cbc 7794 ac3e
00000020: a6fa 76bd 7088 6bbd c12b 65bc 264f ba3e
00000030: a6ab fb3d a56e ae3d 41d2 963e 75ec b0bd
00000040: c8ef 003e a0d9 923d c6f7 45bd a7c4 8c3e
00000050: ad75 783e c997 fd3d b07b 9b3d 7bb7 5f3e
00000060: e3b7 e23d 861f 293e cc22 bd3d f0ba 423e
00000070: 6424 a03e c0de 00bd 2742 3c3d a443 503e
00000080: 6a9f 8ebd f868 383f 9c31 76bd 0c21 123e
00000090: 7895 1c3e 57fd 953d 2b33 94be fea1 9f3d
000000a0: c568 7a3e dbc2 42bc e550 10be aa20 4a3d
000000b0: 765f e1bd 0ee7 41be f62d 99bd 6031 a23d
000000c0: bc40 2abe 5e4e a03d 6e5a ac3c 1aff c83d
000000d0: 38f9 e33c e840 883f c9fc 853e bee5 183e
000000e0: 7839 1fbe eab1 f43d c02b 563d d8fd c23d
000000f0: 47e5 11be 9ac6 c43c 406e 513e 4f97 603e
00000100: 260c 20bd fb21 aa3d 995f 3b3d c23e c53e
00000110: 552f 0dbd a512 21bd 9d05 a5be 6a3a 443e
00000120: eab3 283c 02e7 00bd f2d3 8dbd 9d6d 46be
00000130: bd2f e6bc 3fd8 a4bd af67 f3bd 8ee1 59be
00000140: 04ba 5dbe 0ece 16bf 40aa 8ebe f96f 603d
00000150: b57f 0c3e c45a 82be 2cbc b4bd a32e 04be
00000160: 9617 14be 8466 b6be 4479 78be 1770 c1bd
00000170: ad30 483e d166 21bd a93c 7a3e ef30 103d
00000180: 5474 94be e829 17bf 1b9e dcbe a8a5 19be
00000190: ebea 233e 39be 08be 1fb2 9ebd c52a a8be
000001a0: 954b a2bc 97b2 1ebd 3988 3dbe 951b d43d
000001b0: 53f1 d6bc 371d fd3e 9c87 d0bd 9a30 663e
000001c0: ae7b 27be 4e29 10be 8aa9 87bd 4348 a43c
000001d0: 7639 55be e4c6 a8be 98c7 d9bb fe71 36bd
000001e0: c2ae 3bbd 1706 f2bd d74a 183e bdf4 f9bd
000001f0: 18b1 fe3e 59d1 80be 9d4a 27bd 0956 aabe
00000200: 4bb9 423d d2ba 0f3e 6190 883c 4001 bdbc
00000210: aa6c b03d b326 42be d46a 96bd 8512 c4bd
00000220: bb9c 2fbd 4be5 353d f0f3 17be a807 353e
00000230: bdcf ae3d 2612 ac3d e054 9fbd fc54 1e3e
00000240: d90d 1b3e 9c12 f23d b8d6 e9bd 39d2 2a3d
00000250: c6bc 683c bf7e 213e f40f 893d c493 0dbe
00000260: 62b5 bbbd 32bb e63c e967 17be 41e0 6cbe
00000270: b9d2 4abe bc32 1dbe 3c4e 133d 6a4d d13d
00000280: 5c64 54be c2d3 7dbd 5141 27be 859a 433e
00000290: cdbf f6bc 1ad1 a23d b210 11ba 72f7 39bd
000002a0: fccf 3ebe c7e8 023e e17f 4abd 1b56 ce3c
000002b0: 75c8 5c3e 7c0c 74bd 60a0 b23d ab93 29bd
000002c0: 91ba 58be 05aa bb3d 1cbf 25be 83c5 023d
000002d0: d7ec 463d 2774 0a3e 7c77 303e 3220 b4bb
000002e0: 6f1a c23d cb3f e83c 033d 3c3d e77e 8dbd
000002f0: db6a 943d 9de7 203e 0baa efbd d4d0 1dbe
00000300: 6720 37bc ccef 5d3d 71c8 c33d 5b17 1c3e
00000310: 7fc1 8d3d 5401 1fbe 24b8 a0bd cb15 bc3d
00000320: b3d9 9a3d 4e46 1e3b 7ac7 943d 53c5 a73e
00000330: 0fdc 763e efdd 73bd b49f 113d 587e 19be
00000340: 472b 7a3d 4628 863e 8806 443c 7029 dc3e
00000350: 32cd 6c3e 4d94 893d 5a6a 4c3e dd2b 0f3e
00000360: 335c f23d e2df 123e 784a d83d 17d5 3f3e
00000370: e058 393e ad2c c83c 5824 07bd 6fde 07bc
00000380: 1992 0f3e bf82 213f 9b42 19be 5914 b3bd
00000390: ffad e43c 021c d6bc dcae adbe fc0a 4e3e
000003a0: e00c 563e 10fd dd3d 8fd5 9bbd a1e3 db3d
000003b0: 8a55 e5bd ccc8 b13e 5d8a 8ebd cc9c 323e
000003c0: f07a 90bb c96b 503e e4d8 dabd bccf 043d
000003d0: 99dc 483c 190b 963f 7226 9f3d 674f 383e
000003e0: fd52 45be cd81 c3bc a5f5 9abd 654f cf3c
000003f0: c356 70bd 9f6a 823e dec6 d33d 7b9e 903e
0.065508515 0.091190614 0.1568072 0.23452993 0.100216344 -0.09836363 -0.019066514 0.3370702
-0.06029763 -0.057503164 -0.0139874825 0.3638851 0.12288599 0.085171975 0.29457286 -0.086388506
0.1259147 0.07170415 -0.048332 0.27493784 0.2426364 0.12382466 0.07591951 0.21847336
0.1107023 0.16515931 0.092351526 0.19016623 0.31277764 -0.03146243 0.045961525 0.20338303
-0.069639996 0.7203517 -0.060105905 0.14270419 0.15291393 0.07323711 -0.28945288 0.077945694
0.24454029 -0.0118872775 -0.14093359 0.049347557 -0.11004536 -0.18935797 -0.074794695 0.07919574
-0.16626257 0.07827447 0.021039214 0.09814282 0.027828798 1.0644808 0.26169422 0.1493139
-0.15549266 0.11947997 0.052287817 0.09521073 -0.14247619 0.024020482 0.20452213 0.2193272
-0.039074086 0.083072625 0.045745466 0.38524443 -0.034468967 -0.03932442 -0.32230845 0.19162908
0.010296801 -0.031470306 -0.06925191 -0.19377752 -0.028098935 -0.08049058 -0.118850105 -0.21277449
-0.2165299 -0.58908165 -0.27864265 0.054794285 0.13720591 -0.25459874 -0.088249534 -0.12908415
-0.14462122 -0.35625088 -0.24265009 -0.094452076 0.19549818 -0.039404694 0.24437203 0.035202917
-0.28995 -0.5904832 -0.43089375 -0.15004599 0.16007583 -0.13353814 -0.07748818 -0.3284513
-0.019811431 -0.038744535 -0.18508996 0.10356823 -0.02623812 0.49436352 -0.101821154 0.22479478
-0.16355774 -0.14078256 -0.06624134 0.020053988 -0.20822701 -0.32964242 -0.006646108 -0.044542305
-0.04582096 -0.11817568 0.14872299 -0.12204883 0.49744487 -0.2515972 -0.04084264 -0.33268765
0.04753999 0.1403611 0.016670408 -0.023071885 0.08614476 -0.18960075 -0.073445946 -0.09573845
-0.04287408 0.044408124 -0.14839149 0.17678702 0.08535717 0.08401899 -0.077798605 0.15462106
0.15142001 0.11819956 -0.114179075 0.04170439 0.014205163 0.15771006 0.06692496 -0.138259
-0.091654554 0.028165434 -0.14785732 -0.23132421 -0.19806947 -0.15351385 0.035963282 0.10219844
-0.20741409 -0.061969526 -0.1633351 0.19101913 -0.030120755 0.07950039 -0.0005533799 -0.045401998
-0.18634027 0.1278411 -0.04943836 0.025187543 0.21560843 -0.05958222 0.08721995 -0.041400593
-0.2116492 0.09163288 -0.16186184 0.031926643 0.04856571 0.13520871 0.1723308 -0.005497002
0.09477698 0.028350731 0.045956623 -0.0690897 0.072469436 0.15713353 -0.11702355 -0.15411693
-0.011177159 0.054183766 0.095597155 0.15243284 0.06921672 -0.1552785 -0.07847622 0.09183844
0.07561054 0.0024150792 0.0726461 0.32767734 0.24107383 -0.059537824 0.035552695 -0.14989603
0.06107643 0.262026 0.011964448 0.43000364 0.23125151 0.06717739 0.19962445 0.13981576
0.11833992 0.14343217 0.10561079 0.18733631 0.1810031 0.024435366 -0.032993644 -0.008292778
0.14020576 0.6309013 -0.14966814 -0.087441154 0.027914999 -0.026136402 -0.3392247 0.20121378
0.20903349 0.108392835 -0.076090924 0.10736776 -0.11197956 0.34723508 -0.069599845 0.17442626
-0.0044091865 0.20353617 -0.106859 0.032424673 0.012259626 1.1722137 0.07771005 0.1799904
-0.19269939 -0.023865605 -0.07566384 0.025306413 -0.058676492 0.2547197 0.10340665 0.2824591
