checkpoints/TP_LSTM_L2_bs16_trainNon0baseline_bsfirst_pos0_downsp_rs_freq_flag/TP_LSTM_L2_bs16_epoch11_best3.3036509564048364.pt (torch, 206310 bytes, 9 tensors)

rnn.weight_ih_l0 f4 [256, 3]
0.08622329 -0.039663665 -0.028573494 0.109729126 0.09732606 0.28440845 0.08030617 0.11511321
0.06571166 0.039511357 0.043619443 0.017007895 0.06718282 -0.019935705 -0.21620102 0.03387999
0.038811665 0.00934062 0.15561986 0.067059726 -0.049190633 -0.0060100495 0.0050024246 -0.034417167
0.55107784 0.3737549 0.42419285 0.040267963 -0.12805194 0.03499272 -0.086418815 0.07731449
0.2560889 -0.14605935 -0.13362987 -0.062124398 0.055460073 -0.006784792 0.055071674 -0.0744985
0.1714876 -0.05856091 0.023280093 0.15792061 0.14808626 0.13290167 -0.035479832 0.033279613
-0.031695977 -0.010199902 -0.20234922 -0.296814 0.12606892 0.053080667 0.28469265 0.24205403
0.5119944 0.008896199 0.19942883 0.07930748 -0.022973306 0.114881955 0.0843268 0.22143134
0.25504398 0.5637098 0.113595776 0.06881251 -0.04814538 0.046021342 0.10185358 0.012423841
0.07716277 0.0039533963 0.043929182 0.10269542 0.06831142 0.052188326 0.19010748 0.24327101
0.1984853 -0.090643376 -0.027111977 0.007974957 0.11519883 -0.04604535 -0.13537173 0.06296425
-0.013708423 0.07010635 0.11333068 -0.06272646 0.09890449 -0.14116865 -0.002992972 0.14402826
0.04041508 0.007291234 -0.08942789 0.06540476 0.15915827 0.05479433 0.069139495 0.057855457
-0.06618471 -0.0446891 0.17689395 0.11870435 0.17284648 0.089474 0.078945465 0.043493528
0.15415129 0.056182966 0.40230724 0.3621811 0.2052305 0.10673227 -0.062231027 -0.066124156
-0.009074784 0.049818322 0.12708087 -0.17504174 0.13371707 -0.08943209 0.13810666 0.21906832
0.24852277 0.11716081 -0.061162036 0.16896775 0.20273827 0.1419295 0.126249 0.10307079
0.08428723 -0.052113112 -0.0958987 -0.10120055 -0.12059462 0.054675765 0.051806815 0.018328162
-0.3052631 -0.06839653 0.14762291 0.13329698 0.106175825 0.11204605 -0.067277595 0.091429405
0.04546259 0.0012333618 -0.0830502 -0.093996406 0.0015115057 -0.022904066 0.14337486 -0.013564264
-0.10009246 0.048167184 0.068225026 0.07584773 -0.089973785 -0.06996394 -0.05676977 -0.005456538
0.02868579 0.05711587 0.17118189 0.06321124 0.030418005 0.036420673 0.26746118 0.1882001
0.11912384 -0.02679086 -0.10538553 0.043702584 -0.04880708 -0.018903313 -0.09894923 0.47021234
0.22446345 0.35775986 -0.15938367 -0.08679082 0.004858021 0.0048967847 0.07321999 -0.0025379015
-0.06340293 0.014886572 0.07216156 -0.11162789 0.21908596 0.1091087 0.16055956 -0.062354315
0.016885618 -0.072985716 0.09754683 -0.049398888 0.17177926 0.07799143 -0.22510001 0.010702109
0.02393121 0.07253311 0.008151522 0.033352148 -0.1296481 0.116429776 0.10999164 0.07433232
0.0062369592 -0.21427761 -0.0840919 0.085730895 -0.111673884 0.05517537 -0.1861633 -0.124527924
0.14619085 -0.10348507 -0.05077477 0.07477654 0.08035783 0.09589511 -0.07764846 -0.227868
0.08346972 -0.1833177 -0.25013927 0.19317439 -0.088659 0.09857245 0.07849012 -0.1357737
-0.11053907 -0.0072480063 -0.02214595 -0.17184839 -0.036483746 -0.118850134 -0.11877273 -0.05762774
0.053012423 0.17649494 0.17968126 -0.07478122 0.020041494 0.06524592 0.018277178 -0.2320483
00000000: d695 b03d 5e76 22bd f612 eabc aab9 e03d
00000010: e352 c73d fc9d 913e 9077 a43d 7ac0 eb3d
00000020: d693 863d a9d6 213d 4daa 323d 2454 8b3c
00000030: 2597 893d 3450 a3bc cd63 5dbe bfc5 0a3d
00000040: fbf8 1e3d 6609 193c d05a 1f3e 9c56 893d
00000050: 1e7c 49bd f3ef c4bb 61eb a33b 04f9 0cbd
00000060: 7013 0d3f cd5c bf3e ce2f d93e 05f0 243d
00000070: 0c20 03be 8754 0f3d 59fc b0bd 0f57 9e3d
00000080: 161e 833e 9590 15be 45d6 08be 2776 7ebd
00000090: 1a2a 633d f652 debb d692 613d ab92 98bd
000000a0: 729a 2f3e 91dd 6fbd e5b5 be3c f1b5 213e
000000b0: eda3 173e 6017 083e 4d53 11bd 3450 083d
000000c0: a4d3 01bd 7d1d 27bc a234 4fbe 01f8 97be
000000d0: 3618 013e 1d6b 593d 3cc3 913e 03dd 773e
000000e0: 1112 033f 5dc1 113c 1237 4c3e f66b a23d
000000f0: 8432 bcbc 3b47 eb3d 88b3 ac3d e6be 623e
00000100: 2095 823e 494f 103f e7a4 e83d 93ed 8c3d
00000110: 1734 45bd e080 3c3d 9c98 d03d 5e8d 4b3c
00000120: 8407 9e3d 7e8b 813b 16ef 333d fa51 d23d
00000130: dce6 8b3d 6dc3 553d 89ab 423e 091c 793e
00000140: bb3f 4b3e 3ca3 b9bd f019 debc 65a9 023c
00000150: 5ded eb3d 0d9a 3cbd e39e 0abe 67f3 803d
00000160: 4b99 60bc eb93 8f3d ea19 e83d bb76 80bd
00000170: 708e ca3d 848e 10be bd25 44bb 257c 133e
00000180: 488a 253d 4eeb ee3b f825 b7bd eef2 853d
00000190: 63fa 223e 0570 603d 0299 8d3d d8f9 6c3d
000001a0: d98b 87bd eb0b 37bd b023 353e 441b f33d
000001b0: abfe 303e 253e b73d 29ae a13d 4526 323d
000001c0: d6d9 1d3e 1c20 663d 37fb cd3e cd6f b93e
000001d0: f227 523e 7396 da3d f6e5 7ebd 1a6c 87bd
000001e0: 67ae 14bc 4c0e 4c3d 7d21 023e 243e 33be
000001f0: 21ed 083e 2c28 b7bd d56b 0d3e 7253 603e
00000200: c17c 7e3e 02f2 ef3d 0b85 7abd e205 2d3e
00000210: 9f9a 4f3e f855 113e 6b47 013e c716 d33d
00000220: c99e ac3d 8f74 55bd 8a66 c4bd 3c42 cfbd
00000230: 50fa f6bd b2f3 5f3d 6233 543d f124 963c
00000240: 724b 9cbe 7b13 8cbd 762a 173e 017f 083e
00000250: b672 d93d 6678 e53d d6c8 89bd 573f bb3d
00000260: fb36 3a3d c1a8 a13a 3916 aabd 3081 c0bd
00000270: b71d c63a 4fa1 bbbc dcd0 123e a63c 5ebc
00000280: 47fd ccbd f44a 453d 90b9 8b3d 0e56 9b3d
00000290: 2d44 b8bd 4149 8fbd 6b87 68bd c2cc b2bb
000002a0: 76fe ea3c 55f2 693d 4e4a 2f3e e574 813d
000002b0: 2e2f f93c d82d 153d acf0 883e 87b7 403e
000002c0: 33f7 f33d 8178 dbbc 5ed4 d7bd 7b01 333d
000002d0: efe9 47bd 1fdb 9abc e5a5 cabd acbf f03e
000002e0: bfd9 653e 4d2c b73e 7935 23be 63bf b1bd
000002f0: 0930 9f3b 3575 a03b 5df4 953d ec52 26bb
00000300: 65d9 81bd cfe6 733c 71c9 933d 2a9d e4bd
00000310: 1258 603e 6274 df3d ba69 243e 3d67 7fbd
00000320: b553 8a3c 8979 95bd a2c6 c73d 7d56 4abd
00000330: e7e6 2f3e f9b9 9f3d 9e80 66be e657 2f3c
00000340: 630b c43c 3d8c 943d f68d 053c 439c 083d
00000350: 79c2 04be bc72 ee3d 4c43 e13d 8b3b 983d
00000360: 685f cc3b 976b 5bbe 6038 acbd ae93 af3d
00000370: 47b5 e4bd 92ff 613d 98a1 3ebe 7f08 ffbd
00000380: 0eb3 153e fbef d3bd 35f9 4fbd 7124 993d
00000390: a592 a43d a864 c43d 2806 9fbd 3b56 69be
000003a0: 2cf2 aa3d a3b7 3bbe 4112 80be 82cf 453e
000003b0: da92 b5bd 5ae0 c93d 6ebf a03d 4308 0bbe
000003c0: 4f62 e2bd af80 edbb 6c6b b5bc 06f9 2fbe
000003d0: fb6f 15bd b367 f3bd 1e3f f3bd 110b 6cbd
000003e0: 8e23 593d 17bb 343e 5dfe 373e e526 99bd
000003f0: 0f2e a43c a79f 853d 05ba 953c 129e 6dbe

rnn.weight_hh_l0 f4 [256, 64]
-0.030451667 0.04786435 -0.09639298 0.004214661 -0.09910526 0.063883185 0.12351211 -0.034658216
0.039615054 -0.049722064 -0.049064014 -0.06668031 -0.045949597 0.015326451 -0.1516094 0.013802096
-0.08805155 -0.08314738 -0.16029403 -0.11154788 0.090479024 -0.010634337 -0.13148308 -0.0025680936
0.0005033301 0.07116402 0.08846824 0.016580619 0.09405146 -0.03663716 -0.008140807 0.0038872522
0.02454896 0.10099362 0.075082056 0.13582024 -0.070451096 0.056253944 -0.02917374 0.10295134
-0.11647098 -0.07859758 -0.01485997 0.045017075 0.058918748 -0.048152905 -0.024154259 0.06210168
0.09186858 0.1261686 0.008951035 0.00262218 0.07775056 0.075751275 -0.0632489 0.06508525
0.028139163 -0.029857974 -0.0146782845 -0.08126067 -0.09266195 0.04323184 0.05044796 0.09423241
0.01715669 -0.18340303 0.08759193 -0.030209435 0.12700993 -0.15342185 -0.08048198 0.118220925
0.036794752 0.002837474 -0.25101802 -0.08241095 0.18941146 -0.2004762 -0.0062344717 -0.028808076
0.07755113 0.30258322 -0.29170936 0.002144095 -0.075496756 -0.20108385 -0.07946051 0.18231525
-0.10860783 -0.12033659 -0.25937122 -0.15795755 0.034899883 0.1022355 -0.07513445 -0.02228623
-0.06623698 0.056607544 0.029350087 -0.16545877 0.025509726 0.06927892 -0.053335585 0.0051599876
-0.020313755 0.11884733 0.035766695 -0.014526766 -0.09465904 -0.0044333707 -0.11713904 -0.1781352
0.23069704 -0.02340567 0.041402172 0.10742473 -0.08403217 -0.14328893 0.093396015 0.007013064
-0.14039896 0.055097576 0.066253215 0.03653745 -0.05689532 0.14742148 -0.12625304 -0.026410352
-0.06305948 0.09047443 -0.014667794 -0.030043041 -0.022623228 -0.019934524 -0.022686774 -0.072894976
0.18295605 -0.09940795 -0.018653544 0.0024649894 -0.113907814 0.05146056 -0.12041637 0.060075764
0.09515769 0.06877563 0.002508215 0.11378934 0.0958185 -0.010994892 -0.037210394 -0.023800708
-0.018706162 0.049916007 -0.08896307 0.03971314 0.031240243 -0.13263728 0.035645314 0.14215198
0.05073754 0.063353784 -7.84622e-05 -0.07785289 -0.015557474 0.18268028 -0.17299968 0.058749247
0.047663484 -0.07879436 -0.060580615 0.24283907 -0.08555691 0.043112073 0.09755898 0.083339654
0.09769105 0.0028562173 -0.11442493 0.009755171 -0.050130326 0.012308721 0.077387504 -0.040463578
0.09588767 0.15003341 -0.107571885 -0.08247643 0.12727728 0.043987013 0.08510021 -0.05242724
-0.026728103 -0.14289904 -0.120641924 -0.12842749 0.14337113 0.09805216 0.053480808 -0.03511315
0.09568698 -0.021459447 0.12145548 0.005994685 -0.075473554 -0.008853988 -0.03873027 -0.11302287
0.04094459 -0.054840054 0.025497273 0.08949478 -0.027909761 0.050232634 0.020898912 0.08308358
-0.08681522 -0.014523969 -0.042651836 0.11200306 -0.107602954 -0.07178011 0.01644924 0.21723047
0.093607955 -0.12410176 -0.09809775 0.12710868 0.019688366 -0.0687285 -0.090818904 0.056257788
-0.023155581 -0.13506462 -0.10048667 -0.036196288 -0.0024373152 0.02063644 0.07800186 -0.08270302
-0.025434276 -0.09387825 0.06544719 0.13874345 0.12424315 0.041647907 -0.038838226 0.0039767493
0.05651354 -0.10274987 0.010113461 -0.13944834 -0.120591015 -0.02445964 -0.028396266 -0.07876453
00000000: c675 f9bc 690d 443d af69 c5bd 241b 8a3b
00000010: b3f7 cabd 30d5 823d ebf3 fc3d c6f5 0dbd
00000020: 6543 223d 5da9 4bbd 59f7 48bd b08f 88bd
00000030: a535 3cbd cb1b 7b3c 7f3f 1bbe 3022 623c
00000040: 5f54 b4bd 2c49 aabd 1e24 24be 3773 e4bd
00000050: 114d b93d a43b 2ebc 80a3 06be 764d 28bb
00000060: e9f1 033a 71be 913d d62e b53d 14d4 873c
00000070: 0d9e c03d d910 16bd 0561 05bc 45c1 7e3b
00000080: e71a c93c bed5 ce3d 9fc4 993d 7614 0b3e
00000090: aa48 90bd 896a 663d c4fd eebc 27d8 d23d
000000a0: 5688 eebd c5f7 a0bd 3b77 73bc d363 383d
000000b0: c954 713d fb3b 45bd 27df c5bc 555e 7e3d
000000c0: 9825 bc3d 5732 013e 5da7 123c e1d8 2b3b
000000d0: b03b 9f3d 7c23 9b3d a488 81bd 6a4b 853d
000000e0: 1a84 e63c b698 f4bc 307d 70bc ff6b a6bd
000000f0: 8cc5 bdbd df13 313d 85a2 4e3d ecfc c03d
00000100: 308c 8c3c 01ce 3bbe 6663 b33d c779 f7bc
00000110: e40e 023e 9e1a 1dbe bdd3 a4bd d01d f23d
00000120: 18b6 163d eaf4 393b 6f85 80be 12c7 a8bd
00000130: 14f5 413e a249 4dbe 8a4a ccbb eafe ebbc
00000140: 20d3 9e3d 30ec 9a3e ee5a 95be f283 0c3b
00000150: 0b9e 9abd ede8 4dbe 31bc a2bd d9b0 3a3e
00000160: c86d debd 0873 f6bd 4ecc 84be a0bf 21be
00000170: 2ef3 0e3d d960 d13d 17e0 99bd 9d91 b6bc
00000180: 41a7 87bd 50dd 673d 986f f03c 066e 29be
00000190: c6f9 d03c 1be2 8d3d 6a76 5abd 1d15 a93b
000001a0: 0869 a6bc 3b66 f33d 1980 123d ac01 6ebc
000001b0: 99dc c1bd cf45 91bb 98e6 efbd 1369 36be
000001c0: d83b 6c3e 3fbd bfbc 5395 293d 7f01 dc3d
000001d0: 0f19 acbd 55ba 12be 6946 bf3d d8cd e53b
000001e0: bfc4 0fbe ffad 613d c4af 873d 4ba8 153d
000001f0: 110b 69bd a8f5 163e 7a48 01be 865a d8bc
00000200: 5425 81bd a84a b93d 3051 70bc d31c f6bc
00000210: 5954 b9bc ba4d a3bc 9dd9 b9bc f649 95bd
00000220: d558 3b3e 6596 cbbd 51cf 98bc a98b 213b
00000230: 8048 e9bd 4fc8 523d dc9c f6bd 0112 763d
00000240: 09e2 c23d 3dda 8c3d dd60 243b 630a e93d
00000250: 7d3c c43d eb23 34bc ed69 18bd b4f9 c2bc
00000260: aa3d 99bc ba74 4c3d 4532 b6bd 3faa 223d
00000270: 8aeb ff3c 11d2 07be d200 123d 4a90 113e
00000280: 2bd2 4f3d a1bf 813d 138c a4b8 5671 9fbd
00000290: c7e4 7ebc 8a10 3b3e d426 31be 0da3 703d
000002a0: c93a 433d f05e a1bd 6123 78bd ceaa 783e
000002b0: 7638 afbd 4996 303d 01cd c73d fbad aa3d
000002c0: 3f12 c83d 602f 3b3b 9e57 eabd 27d4 1f3c
000002d0: 7555 4dbd 85aa 493c 577d 9e3d 23bd 25bd
000002e0: c160 c43d 5ca2 193e a64e dcbd 67e9 a8bd
000002f0: fa54 023e ba2b 343d 0549 ae3d f2bd 56bd
00000300: e5f4 dabc 2054 12be 1d13 f7bd 7f82 03be
00000310: e2cf 123e 92cf c83d b10e 5b3d ced2 0fbd
00000320: 89f7 c33d b9cb afbc a7bd f83d 106f c43b
00000330: e191 9abd 5110 11bc a2a3 1ebd 8978 e7bd
00000340: 84b5 273d f79f 60bd a8df d03c 0a49 b73d
00000350: 03a3 e4bc bcc0 4d3d 3234 ab3c b927 aa3d
00000360: 2ecc b1bd f1f5 6dbc b1b3 2ebd dc61 e53d
00000370: f05e dcbd 7301 93bd 8ec0 863c aa71 5e3e
00000380: 87b5 bf3d 1029 febd 79e7 c8bd c728 023e
00000390: 7f49 a13c 87c1 8cbd 43ff b9bd 916e 663d
000003a0: c6b0 bdbc 614e 0abe f5cb cdbd 8f42 14bd
000003b0: 5dbb 1fbb c00d a93c 70bf 9f3d 3360 a9bd
000003c0: 8b5b d0bc 3d43 c0bd 2d09 863d c312 0e3e
000003d0: 3173 fe3d ff96 2a3d d514 1fbd 644f 823b
000003e0: be7a 673d 866e d2bd eeb2 253c 8ccb 0ebe
000003f0: 6cf8 f6bd 955f c8bc 499f e8bc 4c4f a1bd

rnn.bias_ih_l0 f4 [256]
0.025218349 0.25449395 0.15907443 0.062055178 -0.046723094 0.046865102 0.017921906 0.13570632
0.4067637 -0.0089933 0.0747539 0.055419184 0.16469137 0.1523182 0.245085 0.08359061
0.07689393 0.18352415 0.26992297 0.11771496 0.0070006447 0.46711808 -0.026602698 0.04667988
-0.057655323 -0.009741693 0.20604633 0.0137895085 -0.118794344 0.030092321 -0.028819157 0.16791262
0.039424356 0.04462275 0.08255276 -0.07737198 0.03686077 0.1982618 0.23833972 0.122247264
-0.028374124 0.08074896 0.087165624 0.04813278 -0.03403566 0.031511627 0.05526655 0.054593172
0.044345535 -0.055577226 0.12797451 0.007998527 -0.10773314 0.07877005 0.006057453 0.11873932
0.1679494 -0.009819661 -0.063111216 -0.01200812 -0.00094446976 0.25076312 -0.08754957 0.011482285
-0.10472798 0.037853993 -0.114084 0.08634503 0.15888637 -0.06445812 -0.06230123 0.071993224
-0.24304557 -0.05854463 -0.04409694 -0.13579993 -0.09398468 0.058780592 0.026252858 0.061927166
-0.053095333 -0.11594913 -0.011401457 0.124967836 -0.112274006 0.049829084 0.022415435 0.02325802
-0.119507074 -0.10048768 -0.029032059 -0.057405192 -0.054216754 0.0039485837 0.05703705 0.13935982
-0.08449546 -0.041580547 0.09045221 -0.018558476 -0.040816836 0.063446544 -0.08396537 0.03936205
-0.06169898 -0.004132969 -0.051323406 -0.08643037 -0.009470292 -0.013414238 -0.07983312 0.08319692
-0.17067948 -0.095670685 0.0068838685 0.10743013 0.06419639 -0.08975724 0.07357115 -0.09862781
-0.0018284223 0.018424248 -0.030900614 -0.104057305 -0.11762659 -0.059669547 -0.026032336 0.09664872
0.048539173 0.10842282 -0.11831721 0.08957846 -0.044377122 0.057448093 -0.0857718 -0.068686314
0.07954138 0.064393885 -0.11792417 -0.116141126 -0.011442575 0.08722677 0.14655432 -0.05292063
-0.0046389834 0.085410394 -0.09978168 -0.02531771 0.10413622 0.033106253 0.04819736 0.08905749
0.05774727 -0.10732494 -0.07447481 -0.0040163985 -0.105377674 0.07832287 -0.0068535926 0.042077374
0.0062574986 0.061175637 0.0011417398 0.09022816 0.08417313 -0.07364893 0.05444681 0.02004602
-0.060315643 -0.081539586 0.090652764 0.0308419 -0.092587985 0.09693285 -0.111172445 -0.06003171
0.056303833 -0.009871197 -0.013030768 -0.020151163 0.012436538 -0.061992377 0.09012473 -0.10062698
-0.063068785 -0.1366855 -0.040652774 0.038210113 -0.06704711 -0.07836855 -0.077425405 -0.06040743
0.12261644 0.28946117 0.03073419 -0.043720387 0.10193996 -0.02082315 0.11171386 0.10065743
0.37932396 0.104049705 0.033194344 -0.11256551 0.0041708965 -0.040024437 0.25828087 -0.016273465
0.07920637 0.008888772 0.32479393 0.101517 0.12768802 0.25783023 0.055024724 -0.039100904
-0.033402584 0.10513902 0.11126353 0.06985323 0.030664504 0.011430232 0.1288198 0.16689278
-0.08946628 0.16818455 0.107136495 -0.005692006 0.11030846 0.069229044 0.26997456 0.02384015
-0.08905897 0.17012212 0.28747424 -0.047935206 -0.07593947 0.09549375 0.0526669 0.009215597
0.08996135 0.11245708 0.12893045 -0.07384069 -0.03261396 -0.073588386 -0.12282332 0.016171746
0.15549836 -0.023951245 -0.043233536 -0.0287673 -0.021174503 0.15657191 0.06581247 -0.08413186
00000000: b696 ce3c 084d 823e 68e4 223e 922d 7e3d
00000010: b760 3fbd 9ff5 3f3d f6d0 923c 99f6 0a3e
00000020: 5543 d03e a258 13bc 9318 993d 3aff 623d
00000030: dba4 283e 4df9 1b3e 90f7 7a3e 8e31 ab3d
00000040: 917a 9d3d c1ed 3b3e 5833 8a3e 8a14 f13d
00000050: aa65 e53b 1a2a ef3e e7ed d9bc 6733 3f3d
00000060: fd27 6cbd 9f9b 1fbc cffd 523e 64ed 613c
00000070: 734a f3bd 2c84 f63c 2716 ecbc 49f1 2b3e
00000080: 6f7b 213d 58c6 363d 6c11 a93d 3375 9ebd
00000090: 52fb 163d 2405 4b3e 540f 743e c65c fa3d
000000a0: da70 e8bc b65f a53d e483 b23d e126 453d
000000b0: fa68 0bbd 5612 013d 2e5f 623d 179d 5f3d
000000c0: aaa3 353d f2a4 63bd c00b 033e 410c 033c
000000d0: 31a3 dcbd 3152 a13d 997d c63b 9a2d f33d
000000e0: edfa 2b3e a5e2 20bc 7440 81bd b5bd 44bc
000000f0: 4b96 77ba 0664 803e 304d b3bd 3220 3c3c
00000100: a07b d6bd ca0c 1b3d dfa4 e9bd aad5 b03d
00000110: 1cb3 223e 9e02 84bd 932f 7fbd 2f71 933d
00000120: f0e0 78be 7ecc 6fbd fe9e 34bd 230f 0bbe
00000130: 0a7b c0bd ebc3 703d 3c10 d73c 57a7 7d3d
00000140: 7e7a 59bd bd76 edbd 2dcd 3abc 23ef ff3d
00000150: eaef e5bd 9519 4c3d 93a0 b73c 9a87 be3c
00000160: 20c0 f4bd 7ccc cdbd a4d4 edbc b521 6bbd
00000170: 6312 5ebd 1f63 813b af9f 693d 57b4 0e3e
00000180: f50b adbd 5d50 2abd 023f b93d f207 98bc
00000190: 8e2f 27bd 43f0 813d 09f6 abbd 1a3a 213d
000001a0: 12b8 7cbd db6d 87bb 7e38 52bd 6802 b1bd
000001b0: 4929 1bbc 64c7 5bbc 8c7f a3bd 2663 aa3d
000001c0: 9ac6 2ebe feee c3bd 1392 e13b 5404 dc3d
000001d0: 6679 833d a5d2 b7bd 79ac 963d 61fd c9bd
000001e0: aca7 efba 73ee 963c 4923 fdbc ff1b d5bd
000001f0: 36e6 f0bd 0e68 74bd c441 d5bc c4ef c53d
00000200: 03d1 463d c90c de3d 4b50 f2bd e974 b73d
00000210: c9c4 35bd b14e 6b3d 20a9 afbd 69ab 8cbd
00000220: 97e6 a23d f1e0 833d 3a82 f1bd 66db edbd
00000230: a379 3bbc f3a3 b23d 5612 163e 4dc3 58bd
00000240: 9d02 98bb a5eb ae3d 565a ccbd 1667 cfbc
00000250: 5f45 d53d 6c9a 073d 986a 453d c663 b63d
00000260: 6788 6c3d 2ecd dbbd 4086 98bd fe9b 83bb
00000270: 40d0 d7bd be67 a03d 1a94 e0bb 5359 2c3d
00000280: b40b cd3b 4e93 7a3d 6ea6 953a 8bc9 b83d
00000290: f662 ac3d 40d5 96bd 9e03 5f3d 8d37 a43c
000002a0: 890d 77bd 3afe a6bd 28a8 b93d 27a8 fc3c
000002b0: c59e bdbd bb84 c63d 61ae e3bd cfe3 75bd
000002c0: d99e 663d cdba 21bc 017f 55bc 0d14 a5bc
000002d0: 9fc2 4b3c b8eb 7dbd 5093 b83d 8515 cebd
000002e0: 352a 81bd 49f7 0bbe 8683 26bd 3582 1c3d
000002f0: ff4f 89bd b17f a0bd 3691 9ebd c86d 77bd
00000300: 541e fb3d 4134 943e 45c6 fb3c 2614 33bd
00000310: e6c5 d03d 5095 aabc 3cca e43d 7c25 ce3d
00000320: c036 c23e 0318 d53d cbf6 073d bf88 e6bd
00000330: 04ac 883b aaf0 23bd 643d 843e ee4f 85bc
00000340: f336 a23d 36a2 113c 644b a63e 25e8 cf3d
00000350: a6c0 023e 5302 843e 9b61 613d 4528 20bd
00000360: 26d1 08bd 2053 d73d 22de e33d 360f 8f3d
00000370: 2034 fb3c de45 3b3c 56e9 033e f1e5 2a3e
00000380: 193a b7bd 9238 2c3e 616a db3d 0284 babb
00000390: 67e9 e13d f5c7 8d3d 1b3a 8a3e 6b4c c33c
000003a0: 8d64 b6bd 7e34 2e3e d32f 933e b557 44bd
000003b0: 2786 9bbd 3a92 c33d 3fb9 573d 04fd 163c
000003c0: a83d b83d e64f e63d 5806 043e ca39 97bd
000003d0: 3796 05bd 82b5 96bd cb8a fbbd 9c7a 843c
000003e0: f63a 1f3e 6735 c4bc a615 31bd 67a9 ebbc
000003f0: 2776 adbc 6354 203e b0c8 863d 534d acbd

rnn.bias_hh_l0 f4 [256]
0.044049576 0.16320837 -0.0068561304 0.05965123 0.10764596 0.039770477 0.111141056 0.13235888
0.3254696 0.012578121 0.16534826 -0.08022325 0.017631145 -0.03446699 0.27679545 0.0893572
0.099567264 0.11664178 0.18964458 -0.0082527 -0.0929335 0.35203654 0.053534105 -0.04827673
0.008489889 0.0314978 0.08345456 0.017697826 -0.07155124 0.12700906 -0.08025014 0.15499222
0.023994504 -0.0058084032 0.11226185 0.05980443 -0.02565907 0.09443413 0.33452308 0.016226942
-0.0905109 -0.054455675 0.3051708 0.15351796 -0.046232678 0.073540986 -0.0556096 0.008226146
0.122007884 0.110728905 0.11513214 -0.07174769 -0.01987307 0.05399776 0.076816626 0.092462204
0.0790745 -0.047105644 0.07671295 -0.039952993 0.094588615 0.26667103 0.10108834 0.104304366
-0.005527645 0.21083707 0.12098379 -0.03185852 -0.025865868 -0.022348242 -0.00029145257 -0.049103815
-0.18448316 0.012061403 -0.071363695 0.01422778 0.028140394 0.0055080503 0.07654288 0.023044067
-0.019225169 -0.121218406 -0.041354243 -0.05241764 -0.076594986 -0.00016838807 0.023806144 -0.07928426
-0.09642634 -0.105456896 -0.067027785 0.044611644 -0.09674066 -0.06677746 0.05699325 0.08350077
0.00017564774 0.06534904 -0.07763845 -0.0004338792 0.06876316 0.06460019 0.03498187 -0.0735739
-0.104019426 -0.03283999 -0.071080744 0.07583398 -0.042264972 0.056558207 -0.14030954 0.15247305
0.06122094 -0.004215264 0.0025636174 -0.0417858 0.062680006 0.10035478 0.0047927196 0.008161077
-0.038166545 0.030266315 0.054232873 0.08396891 -0.13460867 -0.008607764 -0.13187362 -0.058026567
-0.07659201 -0.11196873 0.06995938 -0.0054606567 -0.115211025 0.09718113 -0.07393421 0.10250126
-0.09603595 0.07382494 0.023277396 0.050633222 0.041940533 -0.13212772 0.0038350672 0.021720154
-0.06910451 0.03376391 -0.016618114 0.10963178 0.11024576 -0.019423267 8.868448e-06 -0.08236815
0.122495264 -0.07133874 0.064401075 0.1000446 -0.03017284 0.11391326 0.056059405 -0.18794389
-0.050317917 0.10873664 0.05415405 -0.04266302 0.1205372 -0.007437102 -0.020931244 -0.033653136
-0.10774395 0.0918913 -0.05696935 -0.07782392 0.06337258 0.07329852 0.08436947 -0.06509109
0.14680675 0.02138627 0.09206245 0.051851027 0.113720305 0.12053044 -0.0037612398 -0.12523696
0.0522268 -0.11820899 -0.0035158633 0.036014963 -0.014778053 0.00860358 -0.16234343 0.05390167
0.006723632 0.11840968 0.0668493 -0.018922284 0.02679418 0.10159256 -0.0066412487 -0.0027440495
0.4087839 0.048342492 0.06404748 -0.08911309 -0.02837658 0.034936044 0.17900003 -0.08887061
0.023253605 0.10365881 0.33499733 -0.027324347 -0.07583051 0.24403083 -0.048341066 -0.07943944
-0.0035598685 -0.09392541 0.25957254 0.100249246 -0.02061437 0.12219325 0.11958395 0.22956473
-0.098785296 0.12806764 0.037132274 0.03365795 0.050619315 0.122774616 0.23978652 0.12228233
0.11153979 0.13780601 0.19934462 0.07094909 0.14138204 -0.122950874 0.022252493 -0.040128913
0.24192403 0.045289166 0.001635984 0.11284589 0.12753008 -0.084479064 -0.08283947 0.09086007
0.11213891 -0.032635022 -0.012184755 -0.047071304 -0.09956114 0.16447206 0.032844875 -0.061766166
00000000: 546d 343d 1820 273e 64a9 e0bb d954 743d
00000010: 7c75 dc3d 5ee6 223d ec9d e33d 1689 073e
00000020: f4a3 a63e 7714 4e3c 0e51 293e 164c a4bd
00000030: 316f 903c 422d 0dbd 22b8 8d3e e800 b73d
00000040: ece9 cb3d e3e1 ee3d 3032 423e 5536 07bc
00000050: eb53 bebd 223e b43e 9446 5b3d d2bd 45bd
00000060: 2d19 0b3c d603 013d 39ea aa3d 08fb 903c
00000070: 7589 92bd aa0e 023e 2f5a a4bd 48b6 1e3e
00000080: 1f90 c43c 6b54 bebb 8ae9 e53d 7df5 743d
00000090: f832 d2bc ae66 c13d 9c46 ab3e 5dee 843c
000000a0: c75d b9bd ea0c 5fbd 593f 9c3e d033 1d3e
000000b0: 7a5e 3dbd a89c 963d e4c6 63bd f5c6 063c
000000c0: 45df f93d d6c5 e23d 66ca eb3d 74f0 92bd
000000d0: d9cc a2bc c12c 5d3d 0952 9d3d d35c bd3d
000000e0: d0f1 a13d d9f1 40bd ae1b 9d3d c0a5 23bd
000000f0: adb7 c13d 1b89 883e 6707 cf3d 879d d53d
00000100: 3f21 b5bb ace5 573e 59c6 f73d 147e 02bd
00000110: a8e4 d3bc a913 b7bc 1ace 98b9 1521 49bd
00000120: 27e9 3cbe 319d 453c 2127 92bd a21b 693c
00000130: af86 e63c e07c b43b 83c2 9c3d e9c6 bc3c
00000140: 1a7e 9dbc 5b41 f8bd 1163 29bd e1b3 56bd
00000150: d5dd 9cbd 5491 30b9 1a05 c33c c95f a2bd
00000160: 2c7b c5bd c9f9 d7bd dd45 89bd b3ba 363d
00000170: f81f c6bd 9fc2 88bd c171 693d 7402 ab3d
00000180: 152e 3839 b8d5 853d e800 9fbd 487a e3b9
00000190: b3d3 8c3d 1b4d 843d 2649 0f3d eaad 96bd
000001a0: 2308 d5bd 3a83 06bd c892 91bd d94e 9b3d
000001b0: 091e 2dbd 94a9 673d 4ead 0fbe e521 1c3e
000001c0: cfc2 7a3d 3320 8abb 5d02 283b 9627 2bbd
000001d0: 605e 803d cf86 cd3d 3f0c 9d3b 0ab6 053c
000001e0: 8654 1cbd 10f1 f73c 4a23 5e3d e4f7 ab3d
000001f0: dbd6 09be 9407 0dbc e109 07be 44ad 6dbd
00000200: 46dc 9cbd dd4f e5bd dd46 8f3d 4fef b2bb
00000210: c2f3 ebbd e606 c73d d26a 97bd 2eec d13d
00000220: 7fae c4bd 8831 973d 3db0 be3c c864 4f3d
00000230: d6c9 2b3d 7d4c 07be c055 7b3b 77ee b13c
00000240: aa86 8dbd 074c 0a3d b622 88bc a086 e03d
00000250: 87c8 e13d 8b1d 9fbc b2c9 1437 a2b0 a8bd
00000260: ccde fa3d 0c1a 92bd b6e4 833d 2fe4 cc3d
00000270: 082d f7bc 5b4b e93d 8c9e 653d 5d74 40be
00000280: 291a 4ebd 51b1 de3d a3d0 5d3d 6bbf 2ebd
00000290: 35dc f63d efb2 f3bb 0078 abbc dfd7 09bd
000002a0: dca8 dcbd 8231 bc3d b158 69bd 2662 9fbd
000002b0: 7cc9 813d 891d 963d e7c9 ac3d 7a4e 85bd
000002c0: 8254 163e 4232 af3c 3d8b bc3d be61 543d
000002d0: 31e6 e83d aad8 f63d 227f 76bb 1e3e 00be
000002e0: c5eb 553d 8e17 f2bd 666a 66bb 6d84 133d
000002f0: a61f 72bc 08f6 0c3c 5b3d 26be ffc7 5c3d
00000300: ea51 dc3b c680 f23d 49e8 883d e802 9bbc
00000310: 787f db3c c30f d03d d59e d9bb 83d5 33bb
00000320: 204c d13e c702 463d 532b 833d ec80 b6bd
00000330: 0076 e8bc 1919 0f3d c94b 373e cb01 b6bd
00000340: 587e be3c 124b d43d c584 ab3e 4fd7 dfbc
00000350: 074d 9bbd 38e3 793e 4801 46bd 25b1 a2bd
00000360: af4c 69bb f75b c0bd b1e6 843e 7a4f cd3d
00000370: 78df a8bc 7440 fa3d 6ee8 f43d 0413 6b3e
00000380: f24f cabd 2a24 033e 0318 183d ebdc 093d
00000390: 3356 4f3d 4271 fb3d 998a 753e 296f fa3d
000003a0: f96e e43d 051d 0d3e ff20 4c3e c24d 913d
000003b0: 74c6 103e abcd fbbd dc4a b63c 375e 24bd
000003c0: efba 773e 2281 393d 846e d63a bf1b e73d
000003d0: 3f97 023e 5c03 adbd bda7 a9bd d814 ba3d
000003e0: 16a9 e53d 4dac 05bd 91a2 47bc d7cd 40bd
000003f0: b6e6 cbbd 5d6b 283e 5988 063d 85fe 7cbd

rnn.weight_ih_l1 f4 [256, 64]
-0.04446041 0.09461632 -0.04362023 -0.0018829062 -0.05772398 -0.081349276 -0.095475644 0.09030963
0.10727956 0.09161737 0.081191026 0.084962286 -0.100014985 -0.013804837 0.07326878 0.11616344
0.11188406 -0.03876936 0.13476217 0.04367937 -0.039204814 0.1065704 -0.08566681 -0.1218728
-0.06469845 -0.06722744 0.058291573 -0.009579456 -0.0572063 0.039596148 0.06622672 0.086041845
0.078137666 -0.05686927 0.017463394 -0.06607086 0.00064914254 0.14672714 -0.0008034652 0.02832795
-0.06969729 -0.024423 -0.01096891 -0.0814637 -0.124779716 -0.07752981 0.02153832 0.020734558
-0.11205882 -0.055987637 0.02251104 -0.057450727 0.03906668 0.05166335 -0.051553726 0.118134916
0.035860993 0.0011284875 -0.001039016 -0.13255045 0.055597182 -0.103060275 0.103905186 -0.085970744
-0.018215623 -0.06950028 -0.010799874 0.02537015 -0.07616512 0.045268767 -0.03816887 -0.013815002
0.18942088 0.06995912 0.06511516 -0.023424009 0.08681868 0.11897417 -0.21616927 -0.07688381
-0.090376765 -0.05862522 0.17736664 -0.04952906 0.09182584 -0.025380312 0.04703458 0.12794298
-0.01527912 -0.0044936417 0.07927483 0.04097497 0.016367609 -0.029109497 0.104401976 0.14694539
0.10866757 0.043937355 -0.062874205 0.00046179953 0.06854051 0.11805091 -0.120345734 0.019698296
-0.046858344 0.07464301 -0.0073680063 0.010286877 0.026213823 0.062295184 -0.086418435 -0.082961515
0.040855113 0.10029436 0.0714601 0.016075708 0.09657445 -0.024485422 0.12759985 -0.0015630716
0.069785014 0.042916894 -0.14216249 -0.094855584 -0.029394334 -0.011888154 0.02304769 0.020094138
0.060295355 0.017514853 -0.031720005 0.056581922 0.007306003 -0.04853077 -0.11252138 0.06396513
0.14338605 -0.0019934454 -0.1257079 0.0067232074 -0.08407648 -0.086673886 -0.04102672 0.08181791
0.0983564 -0.09242137 -0.037942756 -0.07945178 0.03417803 -0.047412157 -0.021984126 0.014596793
-0.009582796 -0.09524115 0.036410578 0.030521495 0.021110818 0.055485442 0.016939702 -0.025376864
0.13553253 0.048512436 0.10593185 0.00075948937 0.05837196 0.008629847 -0.085662566 0.08398112
-0.06791924 -0.0974134 0.009251687 0.112579934 0.11871133 -0.047565345 -0.040356353 -0.1483784
0.12823096 -0.023809083 -0.07564379 -0.05888995 -0.062143445 0.06984942 0.04914788 -0.10664431
0.030382246 -0.014518163 0.112345435 -0.09711525 -0.018095981 0.0019162799 -0.023931747 -0.0750268
-0.02805938 0.07322058 -0.11965731 0.053370956 0.15390044 0.107969746 0.0101701105 -0.015527543
0.0460687 0.14931218 -0.05653844 -0.004890842 0.0321775 -0.07492347 0.012026222 0.046834677
0.11293073 0.15869878 -0.1429828 -0.029343173 -0.026619116 -0.028152173 -0.09346552 -0.000232601
-0.03502902 -0.124039665 0.034445394 0.08748785 0.026498392 -0.0025191505 -0.020409038 -0.0627132
0.124400996 0.028973533 -0.06621585 -0.12613772 -0.06823336 -0.06838789 -0.118931256 -0.06112295
-0.1260233 -0.0050057177 -0.105737306 -0.037903845 0.08632839 -0.03854799 -0.10613904 -0.1457693
0.28066346 -0.00068705605 -0.05071596 0.03349373 0.02108956 0.066326335 -0.04461018 -0.055641342
-0.079573154 -0.0935743 0.048635814 -0.039339326 -0.0458067 -0.1022437 -0.015135611 0.11734845
00000000: 1e1c 36bd 34c6 c13d 20ab 32bd d9cb f6ba
00000010: fb6f 6cbd 739a a6bd bc88 c3bd 41f4 b83d
00000020: 63b5 db3d e3a1 bb3d 7b47 a63d b500 ae3d
00000030: a8d4 ccbd af2d 62bc f10d 963d 19e7 ed3d
00000040: 7823 e53d 9fcc 1ebd 18ff 093e 24e9 323d
00000050: 3a95 20bd 9541 da3d 1572 afbd 7298 f9bd
00000060: 9f80 84bd 8aae 89bd 25c3 6e3d 27f3 1cbc
00000070: 2751 6abd 922f 223d e0a1 873d b536 b03d
00000080: a406 a03d c0ef 68bd 640f 8f3c 2950 87bd
00000090: 382b 2a3a a43f 163e a39f 52ba 0410 e83c
000000a0: 74bd 8ebd be12 c8bc f1b6 33bc 71d6 a6bd
000000b0: 828c ffbd f3c7 9ebd 2271 b03c 85db a93c
000000c0: 187f e5bd 4b53 65bd 1369 b83c 7451 6bbd
000000d0: 6204 203d f39c 533d 002a 53bd b8f0 f13d
000000e0: fae2 123d c2e9 933a 972f 88ba 4ebb 07be
000000f0: dfb9 633d 4411 d3bd 3ecc d43d 6e11 b0bd
00000100: ee38 95bc 2a56 8ebd f4f1 30bc 10d5 cf3c
00000110: 75fc 9bbd be6b 393d f656 1cbd 5158 62bc
00000120: 8cf7 413e ba46 8f3d 195b 853d b5e3 bfbc
00000130: fecd b13d bba8 f33d 7a5b 5dbe 4275 9dbd
00000140: 7417 b9bd 0021 70bd 9a9f 353e fcde 4abd
00000150: 300f bc3d 5fea cfbc 55a7 403d 7c03 033e
00000160: 4655 7abc 663f 93bb d85a a23d 5fd5 273d
00000170: 5d15 863c 0a77 eebc b4d0 d53d da78 163e
00000180: 1a8d de3d a8f7 333d 31c4 80bd af1d f239
00000190: f85e 8c3d adc4 f13d d377 f6bd 525e a13c
000001a0: 89ee 3fbd 6fde 983d 516f f1bb 4a8a 283c
000001b0: 5fbe d63c 3c29 7f3d 26fc b0bd bae7 a9bd
000001c0: b157 273d 2167 cd3d ac59 923d 34b1 833c
000001d0: d3c8 c53d a795 c8bc 89a9 023e fbdf ccba
000001e0: 72eb 8e3d a0c9 2f3d 0b93 11be a543 c2bd
000001f0: 63cc f0bc 88c6 42bc 82ce bc3c 769c a43c
00000200: 43f8 763d 4f7b 8f3c d6ec 01bd 72c2 673d
00000210: 3267 ef3b 33c8 46bd 9c71 e6bd 2600 833d
00000220: cbd3 123e 77a4 02bb 92b9 00be 5a4e dc3b
00000230: 4a30 acbd 1482 b1bd a20b 28bd 2690 a73d
00000240: 156f c93d 6a47 bdbd dd69 1bbd 9db7 a2bd
00000250: 43fe 0b3d 4033 42bd 0e18 b4bc 6327 6f3c
00000260: 2901 1dbc cb0d c3bd 4223 153d 3708 fa3c
00000270: 98f0 ac3c b444 633d 21c5 8a3c 24e3 cfbc
00000280: 0ac9 0a3e fab4 463d ccf2 d83d 7818 473a
00000290: 7017 6f3d 3464 0d3c db6f afbd 4bfe ab3d
000002a0: 3e19 8bbd ad80 c7bd 6394 173c 4f90 e63d
000002b0: ed1e f33d e1d3 42bd b44c 25bd 82f0 17be
000002c0: fa4e 033e 440b c3bc 22eb 9abd 9736 71bd
000002d0: 208a 7ebd 360d 8f3d 4a4f 493d 5568 dabd
000002e0: 30e4 f83c 97dd 6dbc 5d15 e63d 5ce4 c6bd
000002f0: 063e 94bc af2b fb3a 830c c4bc a7a7 99bd
00000300: c9dc e5bc acf4 953d e40e f5bd 819b 5a3d
00000310: 1498 1d3e 3e1f dd3d 89a0 263c 3c67 7ebc
00000320: 88b2 3c3d 4be5 183e da94 67bd 5b43 a0bb
00000330: 8ecc 033d 7a71 99bd a209 453c b8d5 3f3d
00000340: 3a48 e73d ef81 223e 156a 12be 1861 f0bc
00000350: 5510 dabc 639f e6bc da6a bfbd 5be6 73b9
00000360: 977a 0fbd 8208 febd 9d16 0d3d d42c b33d
00000370: 2813 d93c 5518 25bb db30 a7bc c76f 80bd
00000380: f3c5 fe3d e759 ed3c 2d9c 87bd 3f2a 01be
00000390: efbd 8bbd f30e 8cbd 3b92 f3bd 0f5c 7abd
000003a0: 410c 01be 0107 a4bb cd8c d8bd 1041 1bbd
000003b0: f0cc b03d 7fe4 1dbd 6d5f d9bd 8c44 15be
000003c0: 1fb3 8f3e 8d1b 34ba 8abb 4fbd b930 093d
000003d0: 03c4 ac3c 1ad6 873d 2ab9 36bd 2de8 63bd
000003e0: 40f7 a2bd e2a3 bfbd 5936 473d 4622 21bd
000003f0: ce9f 3bbd 2565 d1bd 5bfb 77bc 6254 f03d

rnn.weight_hh_l1 f4 [256, 64]
0.08389339 -0.02505822 -0.02847941 -0.08259227 -0.042896606 0.12509492 -0.029892799 0.101812266
0.009205903 -0.09862845 -0.08783714 -0.02505738 0.0011862663 0.07639411 0.03195455 0.049960148
-0.023616673 -0.114436716 0.09272723 -0.117777735 -0.07406627 -0.07412622 -0.004711839 -0.045902178
0.1200589 -0.12742156 -0.08566741 0.09990963 0.025415612 -0.10326094 0.070385315 0.062326986
-0.030730193 -0.09052258 -0.07754297 -0.012480359 -0.07545924 0.10370414 -0.06047178 0.08628257
0.022699002 -0.036089033 -0.08151489 0.116651505 -0.12262352 -0.112200215 0.1322831 0.05305661
0.08320595 -0.035120763 0.024712952 -0.015855417 0.10654258 -0.030351423 0.06574563 -0.012457336
-0.016400175 0.009042086 0.0555183 -0.061459437 -0.05547909 0.117778495 0.085546486 -0.06933912
-0.022341836 0.109336674 0.09442603 -0.10881117 -0.07891134 0.045848384 -0.019104801 -0.049301755
0.07550758 0.03799132 -0.051934507 -0.07738809 0.06922343 0.052870616 0.031023765 -0.014556992
0.03359237 -0.013378862 0.06448988 -0.008077828 -0.046382595 0.046634126 0.07177717 -0.08556032
0.03398343 0.015651539 0.057958283 0.10943964 -0.105611086 0.01998253 -0.093098804 -0.029896848
0.08883973 -0.020801663 0.10058379 -0.054107822 -0.068722725 0.057826307 0.038163718 -0.115036175
0.11032252 0.09244003 0.11761554 -0.01386936 0.02501921 -0.06487221 0.09352471 0.0007661465
-0.10808953 -0.13563068 0.010353225 -0.07894845 -0.10304627 -0.06928657 -0.069977775 -0.013516851
0.039578423 0.1114495 -0.06338835 -0.034704015 -0.032042373 0.05959357 -0.029588476 0.07997832
-0.06770459 0.09172844 0.06410901 0.04842051 -0.011734561 -0.065137476 -0.14034542 -0.09001119
0.00046755405 0.08341307 -0.03763706 -0.03497907 -0.03932787 -0.025906255 0.02385206 -0.09676527
0.013394556 0.013697012 0.04127933 0.0045497543 0.055624615 -0.08655814 -0.03795377 -0.0565749
0.06753938 -0.027860899 0.11815621 -0.018399337 0.015549572 0.13522482 -0.0915703 0.04165839
0.022458099 -0.005668506 0.0035230494 -0.08522914 -0.03615124 0.14312975 -0.13462003 0.031260006
-0.02041469 0.0033990608 -0.05836565 -0.13065942 0.09353073 -0.020798437 0.087110385 0.11120466
0.068474844 -0.044667188 0.053992286 -0.005488578 -0.09309364 -0.11556945 0.09998225 0.13770904
-0.07304382 -0.02156774 0.08801975 -0.016043846 -0.09759785 0.009338307 -0.04164402 0.0047461553
-0.06519104 -0.12016587 -0.04006662 -0.048815902 -0.017641615 0.16958481 -0.111015886 0.09487016
-0.096661896 0.03927954 0.062075127 -0.15509984 0.043053884 -0.10217332 -0.070145845 -0.015315089
-0.018962815 -0.006650715 0.02866567 0.03522615 0.11232938 -0.14372957 0.122085005 -0.05084841
0.14536335 -0.15045701 0.10543624 0.11467666 -0.13692763 0.079594746 0.046338905 -0.10978478
0.15908046 0.11505646 0.054559693 0.021620821 0.06749858 0.15946716 -0.067074835 -0.10685266
-0.0638742 -0.034873 0.1094814 -0.13254398 -0.04118963 0.08704053 0.048540756 -0.0092001185
0.10115888 -0.047582466 0.12271137 -0.12711191 0.0073846956 -0.103106275 0.019983416 0.10450224
-0.07014627 0.13203838 0.041009635 -0.11159099 -0.1424698 -0.074382775 -0.056923307 0.023695301
00000000: 4cd0 ab3d e546 cdbc a74d e9bc 2326 a9bd
00000010: 5ab4 2fbd e218 003e bee1 f4bc f382 d03d
00000020: 5bd4 163c b6fd c9bd f5e3 b3bd 2245 cdbc
00000030: 7e7c 9b3a 8474 9c3d c6e2 023d 03a3 4c3d
00000040: c177 c1bc cc5d eabd c6e7 bd3d 7435 f1bd
00000050: 0eb0 97bd 7dcf 97bd c565 9abb ec03 3cbd
00000060: 71e1 f53d cc7a 02be 6572 afbd 6c9d cc3d
00000070: 6734 d03c 797a d3bd 2d26 903d 954a 7f3d
00000080: e3bd fbbc e763 b9bd d9ce 9ebd 6b7a 4cbc
00000090: 608a 9abd d662 d43d 42b1 77bd ebb4 b03d
000000a0: 42f3 b93c 18d2 13bd 47f1 a6bd fce6 ee3d
000000b0: 0a22 fbbd 3ac9 e5bd 3975 073e e351 593d
000000c0: e267 aa3d cada 0fbd d172 ca3c 38e3 81bc
000000d0: ff32 da3d 8ca3 f8bc a5a5 863d db19 4cbc
000000e0: a959 86bc 4225 143c 2867 633d e4bc 7bbd
000000f0: 0b3e 63bd da35 f13d ff32 af3d ab01 8ebd
00000100: 3a06 b7bc e8eb df3d 6f62 c13d 64d8 debd
00000110: 459c a1bd 84cb 3b3d ac81 9cbc a3f0 49bd
00000120: b8a3 9a3d c99c 1b3d 47b9 54bd a67d 9ebd
00000130: 03c5 8d3d dc8e 583d 8d25 fe3c 7380 6ebc
00000140: 2798 093d 0433 5bbc 4513 843d de58 04bc
00000150: adfb 3dbd 6d03 3f3d e9ff 923d 403a afbd
00000160: 3632 0b3d a837 803c aa65 6d3d e421 e03d
00000170: a04a d8bd 67b2 a33c 96aa bebd 3cea f4bc
00000180: 9bf1 b53d 4068 aabc e0fe cd3d 2aa0 5dbd
00000190: 80be 8cbd 47db 6c3d 8f51 1c3d 1698 ebbd
000001a0: c6f0 e13d 3351 bd3d 6be0 f03d 503c 63bc
000001b0: 16f5 cc3c b9db 84bd e289 bf3d 39d7 483a
000001c0: 0b5e ddbd c5e2 0abe 93a0 293c baaf a1bd
000001d0: ec09 d3bd 1ee6 8dbd 8250 8fbd c875 5dbc
000001e0: fc1c 223d a33f e43d c0d1 81bd cc25 0ebd
000001f0: dd3e 03bd 6318 743d 8863 f2bc accb a33d
00000200: b4a8 8abd 1fdc bb3d 964b 833d 9654 463d
00000210: 5142 40bc cc66 85bd b6b6 0fbe c957 b8bd
00000220: 0b22 f539 79d4 aa3d 5129 1abd 3746 0fbd
00000230: 4316 21bd 5b39 d4bc 6565 c33c df2c c6bd
00000240: d774 5b3c 6f69 603c 8414 293d 1b16 953b
00000250: a3d6 633d 6545 b1bd 6a75 1bbd 15bb 67bd
00000260: 1652 8a3d 8a3c e4bc e2fb f13d 35ba 96bc
00000270: a2c3 7e3c 6078 0a3e 3689 bbbd fda1 2a3d
00000280: 0cfa b73c e0be b9bb f6e2 663b 9e8c aebd
00000290: 5313 14bd 9b90 123e d5d9 09be 7e0a 003d
000002a0: b53c a7bc c7c2 5e3b d210 6fbd 95cb 05be
000002b0: 0a8d bf3d 7c61 aabc ee66 b23d 45bf e33d
000002c0: 8a3c 8c3d f1f4 36bd 0427 5d3d 88d9 b3bb
000002d0: e1a7 bebd adaf ecbd 7ec3 cc3d 9903 0d3e
000002e0: 0098 95bd d4ae b0bc b343 b43d 626e 83bc
000002f0: 62e1 c7bd b3ff 183c eb92 2abd a385 9b3b
00000300: e182 85bd 8619 f6bd e51c 24bd 2ff3 47bd
00000310: 2685 90bc a4a7 2d3e 4c5c e3bd 494b c23d
00000320: acf6 c5bd 95e3 203d 7d42 7e3d 7ed2 1ebe
00000330: 4559 303d 3f40 d1bd a0a8 8fbd 24ec 7abc
00000340: e857 9bbc 3eee d9bb 44d4 ea3c 4c49 103d
00000350: f20c e63d d82d 13be b407 fa3d 6c46 50bd
00000360: 21da 143e 6711 1abe f5ee d73d 99db ea3d
00000370: c236 0cbe 9202 a33d ddcd 3d3d d8d6 e0bd
00000380: fde5 223e b9a2 eb3d fc79 5f3d 261e b13c
00000390: b23c 8a3d 5c4b 233e 885e 89bd 91d5 dabd
000003a0: 7ad0 82bd fed6 0ebd c937 e03d 9cb9 07be
000003b0: 75b6 28bd 4e42 b23d acd2 463d 18bc 16bc
000003c0: 632c cf3d d5e5 42bd 1950 fb3d a029 02be
000003d0: 51fb f13b 6229 d3bd 43b4 a33c 4505 d63d
000003e0: d9a8 8fbd 1235 073e b8f9 273d d189 e4bd
000003f0: 9ae3 11be ff55 98bd 6a28 69bd a61c c23c

rnn.bias_ih_l1 f4 [256]
-0.093935855 -0.0029646026 0.040441625 -0.040157672 -0.06776493 -0.033588845 -0.12783998 0.08265919
0.037465535 -0.09889338 0.11504525 0.018400274 0.1588993 0.040768187 -0.038990792 0.03486365
0.012547219 0.083011106 -0.03643266 -0.06361845 -0.07625416 -0.011430446 0.28969604 0.028216522
0.105850495 -0.11331313 -0.033722684 -0.027246162 -0.061755784 -0.088829264 0.050744567 -0.0055875094
0.046130024 -0.07746174 0.16446304 0.06801827 0.05531992 -0.03440083 -0.115602836 0.08289275
-0.018485434 0.08401873 0.13151738 0.13663098 0.0028970956 0.16204825 0.04229129 -0.038298607
0.029728265 0.10191156 0.12767707 -0.056134634 -0.015851472 0.080311514 0.087238505 0.2804848
-0.043304242 0.29797998 -0.04220533 -0.009670615 0.038067706 0.029250445 -0.07847711 0.09779042
0.11196218 -0.089829676 -0.07081784 0.037607294 0.015850473 0.10599058 -0.004622385 -0.079321474
0.06676614 -0.012960047 -0.08475648 -0.024978124 0.044347484 -0.10573249 0.0072555444 0.04379248
0.117328025 0.0042806366 -0.12712915 -0.0013525772 -0.071780376 -0.05542693 -0.1636041 -0.11384186
-0.10268339 -0.10344116 -0.1595586 -0.12257153 0.015720671 -0.119306885 0.11059524 -0.075938575
-0.052606296 0.049649246 -0.10255758 -0.021732142 0.044859376 -0.039345518 0.09810849 0.06779171
0.0014192093 0.06917188 -0.0048181005 -0.011612477 -0.06728453 -0.07535241 0.100415416 -0.017761994
-0.04276552 0.08941627 0.09295377 0.040132277 0.1029956 -0.00632613 0.021852577 -0.10509284
0.029623425 -0.053869456 0.05446634 0.0945952 -0.066785365 -0.06724083 -0.053477176 -0.06580932
-0.07006495 0.12882087 -0.051970962 0.025777407 0.03987986 -0.019459534 0.024175419 -0.06841336
-0.01066224 -0.018626962 -0.09756446 0.13053846 0.03810932 0.10366415 0.035631407 0.057381194
0.11854432 -0.08672314 0.0819235 0.012760397 -0.10499701 -0.0038493564 0.0026792898 -0.08278392
-0.109571934 -0.106380664 -0.03493662 -0.12406013 0.080204815 -0.07580592 -0.09746168 -0.07327832
-0.008999463 0.04744941 0.075278774 0.042984862 0.033904266 -0.10824616 -0.007694804 0.09700815
-0.06500151 0.049418643 -0.047837347 0.07426646 -0.10300348 0.01717701 -0.117970444 -0.10151868
0.074362725 -0.016460057 -0.005670464 0.02243641 -0.08509252 0.037712958 -0.06719926 -0.06928136
-0.10030644 -0.039209425 0.07481529 0.029966265 0.06263021 -0.060288634 0.04052243 -0.015638467
0.11755153 -0.052529167 -0.02969474 0.028544197 0.12174269 -0.03829841 -0.10490437 0.04660464
0.084627315 -0.107780464 -0.024075458 -0.013742926 0.18774982 0.03731236 -0.07820264 0.10720165
-0.015806075 -0.088749565 0.13605678 -0.016010711 0.05835745 0.011375286 0.305143 -0.034350283
0.10237974 -0.07496138 -0.08368169 -0.047855772 0.10510263 -0.05135274 -0.0015617503 0.12208296
0.11448162 -0.0454515 0.03228267 0.053289533 -0.0011776307 0.06656667 0.09234302 -0.074516244
0.016961904 0.0032808345 -0.0866939 -0.0037812395 0.053343643 0.13151579 0.020213656 -0.08035605
-0.0134746125 0.09387128 0.07339171 -0.027497796 0.044330627 -0.035566267 -0.004625613 0.3155834
-0.061256904 0.17674974 0.07687603 -0.0121008735 0.13689567 0.016179295 0.032621324 -0.032225784
00000000: 7161 c0bd c749 42bb 1ea6 253d 5f7c 24bd
00000010: 57c8 8abd 7594 09bd 7ce8 02be 3949 a93d
00000020: 7675 193d 9d88 cabd d89c eb3d 2cbc 963c
00000030: 80b6 223e 8bfc 263d cfb4 1fbd 30cd 0e3d
00000040: da92 4d3c ba01 aa3d 6a3a 15bd 644a 82bd
00000050: 242b 9cbd c446 3bbc 0a53 943e 5626 e73c
00000060: 25c8 d83d b710 e8bd cc20 0abd 5833 dfbc
00000070: a2f3 7cbd 1eec b5bd 89d9 4f3d 6d17 b7bb
00000080: d6f2 3c3d 43a4 9ebd 0069 283e 2a4d 8b3d
00000090: 2497 623d e2e7 0cbd 2ec1 ecbd adc3 a93d
000000a0: c46e 97bc 0312 ac3d 7eac 063e fee8 0b3e
000000b0: 33dd 3d3b faef 253e a239 2d3d 00df 1cbd
000000c0: b188 f33c 02b7 d03d c7bd 023e 6eed 65bd
000000d0: f2da 81bc 5d7a a43d 1aaa b23d b49b 8f3e
000000e0: ca5f 31bd d590 983e 7fdf 2cbd 8071 1ebc
000000f0: e2ec 1b3d a19e ef3c 9bb8 a0bd 5846 c83d
00000100: 6d4c e53d 9ff8 b7bd f208 91bd 1b0a 1a3d
00000110: dad8 813c 9711 d93d 6077 97bb 4c73 a2bd
00000120: b0bc 883d 6156 54bc ce94 adbd ec9e ccbc
00000130: b5a5 353d 478a d8bd ebbf ed3b be5f 333d
00000140: ad49 f03d 9544 8c3b 252e 02be f648 b1ba
00000150: 9701 93bd 5907 63bd d587 27be ec25 e9bd
00000160: ab4b d2bd f5d8 d3bd 5463 23be c806 fbbd
00000170: a3c8 803c 2b57 f4bd c27f e23d af85 9bbd
00000180: b379 57bd 025d 4b3d b509 d2bd 9b07 b2bc
00000190: 77be 373d c428 21bd 1bed c83d 61d6 8a3d
000001a0: c304 ba3a fda9 8d3d 28e1 9dbb 4242 3ebc
000001b0: 79cc 89bd 5d52 9abd 99a6 cd3d 9a81 91bc
000001c0: e62a 2fbd e11f b73d 8c5e be3d be61 243d
000001d0: 5bef d23d 6d4b cfbb 2d04 b33c ea3a d7bd
000001e0: d3ac f23c 38a6 5cbd 1918 5f3d 21bb c13d
000001f0: c4c6 88bd 8fb5 89bd e20a 5bbd 09c7 86bd
00000200: 367e 8fbd 9ee9 033e 81df 54bd 242b d33c
00000210: 1059 233d 9a69 9fbc 870b c63c 4e1c 8cbd
00000220: adb0 2ebc 9297 98bc e0cf c7bd e0ab 053e
00000230: 8518 1c3d df4d d43d 3df2 113d 8b08 6b3d
00000240: 5dc7 f23d e79b b1bd 82c7 a73d fc10 513c
00000250: ac08 d7bd 7c45 7cbb 0697 2f3b 9e8a a9bd
00000260: 4067 e0bd 1bde d9bd b419 0fbd 3d13 febd
00000270: 6c42 a43d 2240 9bbd fd99 c7bd f212 96bd
00000280: 7c72 13bc 505a 423d c22b 9a3d e510 303d
00000290: 33df 0a3d 2ab0 ddbd b224 fcbb 35ac c63d
000002a0: 831f 85bd 346b 4a3d 18f1 43bd 0419 983d
000002b0: 7df3 d2bd cdb6 8c3c 7d9a f1bd 07e9 cfbd
000002c0: 7c4b 983d 3ed7 86bc 4dcf b9bb 90cc b73c
000002d0: fd44 aebd e778 1a3d c49f 89bd 63e3 8dbd
000002e0: 766d cdbd 109a 20bd c238 993d d07b f53c
000002f0: 4444 803d 37f1 76bd d9fa 253d 3e1c 80bc
00000300: dbbe f03d d328 57bd 6242 f3bc 85d5 e93c
00000310: 3b54 f93d cbde 1cbd 1ad8 d6bd 82e4 3e3d
00000320: 1651 ad3d 01bc dcbd e539 c5bc 022a 61bc
00000330: 7d41 403e d8d4 183d b528 a0bd 8a8c db3d
00000340: be7b 81bc 55c2 b5bd 7852 0b3e e528 83bc
00000350: 3908 6f3d 685f 3a3c b43b 9c3e e2b2 0cbd
00000360: 78ac d13d 5a85 99bd 4e61 abbd 6a04 44bd
00000370: 0c40 d73d 4057 52bd a5b3 ccba a206 fa3d
00000380: 5775 ea3d 5a2b 3abd d53a 043d 2046 5a3d
00000390: bb5a 9aba 1b54 883d 561e bd3d f99b 98bd
000003a0: b1f3 8a3c 4503 573b 928c b1bd acce 77bb
000003b0: dd7e 5a3d 13ac 063e 1c97 a53c b691 a4bd
000003c0: 9fc4 5cbc 963f c03d 654e 963d 0f43 e1bc
000003d0: 0894 353d efad 11bd 7492 97bb 2694 a13e
000003e0: 85e8 7abd e2fd 343e 2e71 9d3d be42 46bc
000003f0: 612e 0c3e 718a 843c f09d 053d 2fff 03bd

rnn.bias_hh_l1 f4 [256]
0.04125296 -0.027476963 0.11026071 0.1465914 0.03842472 -0.04602101 0.029711517 -0.00048120538
-0.107057914 0.013127589 -0.07341228 -0.02202057 0.009571355 0.1168981 0.0845279 -0.079301335
0.09913209 -0.07648582 0.028119463 -0.09056781 0.08690657 -0.06444792 0.20648445 0.054580443
0.021770414 0.06593277 -0.0011389417 -0.051197343 0.0016061101 -0.04991841 0.034980204 0.14731877
-0.106046416 0.08493724 0.043595918 0.13436867 -0.035181794 0.054195173 -0.05795066 0.016187506
-0.01212251 -0.019080745 -0.04733573 0.015572333 -0.08940412 -0.015067868 -0.029662814 0.015952472
-0.060330246 -0.03851254 0.039553437 0.061466686 0.018856164 -0.077924095 0.0853588 0.22163248
-0.092575826 0.26854858 -0.0011290918 0.001170502 -0.101193234 -0.052476235 0.083791964 -0.051257234
-0.09139197 0.07080079 -0.12763503 0.051772922 -0.04319021 0.05183142 -0.00120408 0.11438108
0.046874423 -0.011153709 0.11793115 -0.10832264 -0.014123649 0.04153148 -0.11453205 -0.08259676
-0.052673783 -0.07265334 -0.046803135 -0.08283678 0.11994912 -0.024301868 0.0025984703 0.031299043
-0.06626628 -0.007888753 -0.110912666 -0.08258956 0.0172242 -0.01593894 -0.0033288512 -0.031201718
0.08178282 -0.14662209 -0.11888678 -0.06541838 -0.07069666 0.07020125 0.073597215 -0.10138728
-0.040051233 0.10134071 -0.09428833 0.0053266566 0.048227876 0.037040126 0.074543804 0.0821451
0.033521194 -0.1256818 -0.049757924 -0.04156758 -0.109789774 -0.08975498 0.011896139 -0.08403167
-0.0010858704 -0.010066396 0.034882095 -0.10112596 0.11644584 0.02248603 0.00477517 -0.05187772
-0.040050786 0.018254103 0.004035576 -0.09922989 0.036967326 -0.09984006 -0.08688257 0.06199796
-0.017208075 -0.03611053 -0.030712688 -0.0407175 0.052910093 0.009300234 -0.05915868 0.10627687
0.108043656 0.10048943 -0.13470295 0.030967547 -0.0022765333 0.09910036 -0.0065752584 0.016211953
0.0839263 0.07407717 -0.07934028 -0.13482463 -0.052384622 -0.037245642 0.042275686 0.09266646
-0.09801213 -0.03431676 -0.11777695 0.118596554 0.03186905 0.060295336 0.020502664 -0.07154026
-0.064886145 0.015675105 -0.0116339065 0.009212101 0.121125825 -0.07235921 0.055030674 0.03914525
-0.111161776 -0.012040788 -0.084526286 0.010682721 0.07879332 0.04158483 -0.010753657 0.08881524
0.07620088 0.0068265502 -0.058555953 -0.11283733 0.088052414 0.054532964 -0.070091166 -0.07747839
0.007030898 -0.10138939 0.07511913 0.09862768 0.0647186 -0.07303935 -0.025330618 -0.04434047
0.059287593 0.118856855 0.021534277 -0.011485535 0.18005712 -0.008874819 -0.023982754 -0.11113255
0.036816448 0.12144069 0.09859318 0.057973046 0.1015643 -0.09697596 0.35396957 -0.016199939
0.045084834 0.05168433 0.021793686 0.0019937681 -0.09535335 0.03176345 -0.057408184 0.042597733
0.107738286 0.059705306 -0.020338716 -0.032633077 -0.08473695 -0.086644605 -0.10019512 0.14504825
0.008773622 0.12400316 0.042401172 0.1351273 -0.051669057 0.09356251 -0.041562922 0.05534813
0.11305382 0.11636105 -0.052855484 0.05858701 0.029229205 -0.0068026874 -0.06435837 0.27302036
-0.09593951 0.14785297 -0.08098745 -0.0414994 -0.059239164 0.10456833 -0.019316059 0.04794966
00000000: ddf8 283d 5e17 e1bc 5ed0 e13d 0e1c 163e
00000010: 3d63 1d3d 8780 3cbd 9165 f33c 4b4a fcb9
00000020: 2e41 dbbd 1915 573c 2d59 96bd 7b64 b4bc
00000030: 2cd1 1c3c 4568 ef3d f71c ad3d bd68 a2bd
00000040: c405 cb3d 99a4 9cbd ca5a e63c 9e7b b9bd
00000050: 12fc b13d 45fd 83bd a970 533e be8f 5f3d
00000060: de57 b23c c307 873d 8b48 95ba 4eb4 51bd
00000070: 1d84 d23a 3f77 4cbd 6747 0f3d bbda 163e
00000080: dd2e d9bd 93f3 ad3d a291 323d f197 093e
00000090: c91a 10bd c2fb 5d3d ac5d 6dbd a99b 843c
000000a0: 7e9d 46bc 394f 9cbc 1ce3 41bd 1923 7f3c
000000b0: 8219 b7bd 38df 76bc 6eff f2bc c2ae 823c
000000c0: d91c 77bd 53bf 1dbd c902 223d 7ec4 7b3d
000000d0: 3e78 9a3c ab96 9fbd 98d0 ae3d a0f3 623e
000000e0: 6598 bdbd 337f 893e 09fe 93ba 886b 993a
000000f0: 663e cfbd 52f1 56bd 1f9b ab3d 1bf3 51bd
00000100: b72b bbbd 0100 913d c2b2 02be d80f 543d
00000110: 38e8 30bd 2f4d 543d 38d2 9dba a140 ea3d
00000120: 65ff 3f3d 0cbe 36bc e385 f13d 43d8 ddbd
00000130: e166 67bc ea1c 2a3d c88f eabd 7d28 a9bd
00000140: 77c0 57bd 46cb 94bd a5b4 3fbd 54a6 a9bd
00000150: e2a7 f53d b614 c7bc 194b 2a3b 6d33 003d
00000160: 9eb6 87bd d43f 01bc 2e26 e3bd b724 a9bd
00000170: c419 8d3c 6192 82bc db28 5abb bf9a ffbc
00000180: c07d a73d 1a24 16be ea7a f3bd 12fa 85bd
00000190: 69c9 90bd acc5 8f3d 23ba 963d 22a4 cfbd
000001a0: c30c 24bd b88b cf3d 3d1a c1bd 3c8b ae3b
000001b0: 988a 453d 63b7 173d 6caa 983d b13b a83d
000001c0: 854d 093d bbb2 00be f7ce 4bbd c442 2abd
000001d0: 76d9 e0bd 75d1 b7bd 06e8 423c cc18 acbd
000001e0: c453 8eba 86ed 24bc 87e0 0e3d 211b cfbd
000001f0: 287b ee3d 9f34 b83c 0779 9c3b bb7d 54bd
00000200: 4b0c 24bd a189 953c dd3c 843b 0a39 cbbd
00000210: 0d6b 173d f278 ccbd 7def b1bd 93f1 7d3d
00000220: f3f7 8cbc a3e8 13bd 2d99 fbbc 65c7 26bd
00000230: 41b8 583d 0260 183c 5f50 72bd b0a7 d93d
00000240: fe45 dd3d 67cd cd3d 92ef 09be a7af fd3c
00000250: e431 15bb 21f5 ca3d 4475 d7bb eece 843c
00000260: 8de1 ab3d c5b5 973d 287d a2bd 780f 0abe
00000270: 4291 56bd e38e 18bd 4529 2d3d eac7 bd3d
00000280: 95ba c8bd bb8f 0cbd 0b35 f1bd c0e2 f23d
00000290: 1f89 023d 3ef8 763d 34f5 a73c b383 92bd
000002a0: 07e3 84bd 1469 803c 249c 3ebc 5aee 163c
000002b0: d110 f83d 1131 94bd d867 613d c556 203d
000002c0: c9a8 e3bd ba46 45bc 1e1c adbd 9406 2f3c
000002d0: 645e a13d db54 2a3d 1b30 30bc c4e4 b53d
000002e0: 350f 9c3d 41b1 df3b 5ed8 6fbd 4217 e7bd
000002f0: d354 b43d f55d 5f3d f58b 8fbd fdac 9ebd
00000300: 7263 e63b 3ea5 cfbd 0fd8 993d 4ffd c93d
00000310: 2f8b 843d a895 95bd 2882 cfbc 5a9e 35bd
00000320: 8cd7 723d 396b f33d a768 b03c d32d 3cbc
00000330: e560 383e b067 11bc 7b77 c4bc 7699 e3bd
00000340: d8cc 163d e5b5 f83d 39eb c93d 2575 6d3d
00000350: f200 d03d 559b c6bd 803b b53e bcb5 84bc
00000360: e0aa 383d f3b2 533d ac88 b23c e1a9 023b
00000370: 9e48 c3bd 641a 023d d824 6bbd f67a 2e3d
00000380: e4a5 dc3d 8d8d 743d 619d a6bc 43aa 05bd
00000390: 918a adbd ba72 b1bd 1933 cdbd 8787 143e
000003a0: 3dbf 0f3c 5ef5 fd3d daac 2d3d d05e 0a3e
000003b0: efa2 53bd b49d bf3d e23d 2abd b9b4 623d
000003c0: c388 e73d b44e ee3d fe7e 58bd eff8 6f3d
000003d0: 1672 ef3c 14e9 debb 52ce 83bd 53c9 8b3e
000003e0: ef7b c4bd c566 173e c0dc a5bd 46fb 29bd
000003f0: c4a4 72bd ec27 d63d b63c 9ebc dd66 443d
