checkpoints/TP_LSTM_L2_bs16_trainAll_bsfirst_pos0_downsp_rs_relu/TP_LSTM_L2_bs16_epoch14_best2.299405675185354.pt (torch, 206305 bytes, 9 tensors)

rnn.weight_ih_l0 f4 [256, 3]
00000000: a2f8 9f3d a607 21bd b5c4 30bd fd12 07bf
00000010: b2fc 1e3d 079d dd3e 8d88 213e 4a76 dd3d
00000020: 820d 013e eadb 253d 7ea4 263d efdb 8d3c
00000030: 6cbc 833e adee b63d 7d5f a43d e336 e83d
00000040: 8421 903d 4c9b 973c e971 353e b2f4 c83d
00000050: 927a bebd 0021 933d 08fb be3c 80e6 03bd
00000060: b81e 303f 0812 d93e 97c7 f63e d220 9cbb
00000070: 1287 9cbd 411e 1f3e 74f6 febc f8f7 403e
00000080: cd06 943e ffae 85be dfe2 05be 64ed b0bd
00000090: a608 3e3e 5695 b03c c4fd 0d3e a296 e3bb
000000a0: edbd 233e 448b 6ebd 0b40 323d 0919 50bd
000000b0: 1357 11bc 2488 233e 55da 823c 213a 1a3e
000000c0: 4fab 59be d1fe 1b3d b787 253b 446e 3c3c
000000d0: 75ef 0a3e 0439 973c 3cb0 863e 4048 2c3e
000000e0: 8286 963e 4981 093e 8e94 3c3e 0ae8 683d
000000f0: c143 003d d3d3 e03d fad3 633d 60ba 293c
00000100: 73b3 2abc 6551 f53d cb92 343e c7ee 1b3e
00000110: a175 303c e03f 8cbe 04f5 473d 8c33 dcbd
00000120: 575b 8e3d 869c 7dbb 0f50 f23d 4aa0 953e
00000130: 0a88 3f3e 3448 2c3e c434 2a3e 9d32 1d3e
00000140: 251c 803d de1e bdbd 4a86 45bd 32f0 25bd
00000150: 358b 453e 5156 8abd 7e4d 0bbe 662d 933d
00000160: 4616 b1bb 5c60 f1bb 5bce 123e b8b6 76bd
00000170: 9b65 b93d 2ac4 ce3d 1c81 313c 54e2 273e
00000180: e168 6b3e 1de6 703e 4900 373e 2112 4c3e
00000190: 307f 743e 0287 f53d 91db a13d 8549 853d
000001a0: 56d0 93bd ca4a 063d 630d 1d3e 61e1 1f3e
000001b0: 98d2 673e 3ac1 af3d ae51 1f3d d9c2 82bc
000001c0: ee82 8b3d 7d7f 45bd 6f9c 3e3f 996a 233f
000001d0: 1fc2 153f 461f 6f3e 3d82 13bd 144e 40bc
000001e0: ad9a 953d f991 923d 5f13 eb3d 80d1 2a3e
000001f0: 5e18 4d3e a541 da3b 05dd 9d3d 0f6f 053e
00000200: 9d39 7c3e 60e1 8a3e 8821 b2bc 7a89 033e
00000210: fde1 9c3e 53fb 293e 2018 323e 4875 123e
00000220: acdb 2c3e d06a 363e 7d5b 8bbd d03f a6bd
00000230: 196d 23be 0034 4b3e f74d 7c3d 6c67 a93d
00000240: 6868 033e be02 07bd 0822 123e fda3 1d3e
00000250: 7fdb bc3d 6ed8 973d 4e91 bfbd bb0b 763c
00000260: dd61 ac3d b942 fc3c dec5 03be 9d90 4a3d
00000270: 997f 323d 0cd1 9a3b 635c 363e a086 2b3d
00000280: 5297 e2bd 9e25 8cba 08b5 503e 4d1a 183e
00000290: c28e f6bc c2b7 26bf 8023 b0bd 1bca 64bc
000002a0: 29ca e4bc ed32 bf3c 380c 173e 4920 833e
000002b0: 57af b03c 07c1 223d abfc b93e 0baa 453e
000002c0: 70db be3d 40e0 dcbb 1ce0 8ebd de20 d43d
000002d0: 81de b73a 46e6 ca3c 12b8 a3bd 0ec8 8e3e
000002e0: fd34 4e3d 5272 6b3e 2adb 15be a70f 9fbd
000002f0: 57d1 b5bb 7d73 123e 5734 143e 16bc 0c3d
00000300: 99c2 2dbe 7c1c 14bc 0be8 113c afd3 b2be
00000310: c82a 503d 23c7 a23c af1b ea3d 2591 cdbd
00000320: 5040 193d 22d0 d2bd 019e 703d 30ac b5bd
00000330: 8048 223e 0bf7 ae3d 3884 943c c27f 6b3d
00000340: f1cf 443d c825 953d 0083 7dbd bbd9 b0bb
00000350: 9345 6dbe a38d 173e 114e c53d 053f 8a3d
00000360: 632c 193e d109 cebd 19fa 96bd 2986 c8bb
00000370: ec52 3abd 4d62 383e 6399 2cbe 51a6 adbd
00000380: 01a8 e83d 307c 19be 559b bdbd 5a16 13bd
00000390: 32ba 013e c731 f53d f6f8 cebc 8bc9 0cbe
000003a0: 42c8 143e 0eda 5abd c45e 46be c5ef b33b
000003b0: c929 10be 21ea 0e3d 5ff9 653d b728 93bd
000003c0: 0fd5 a1be 3fd7 49bd ea6d 6d3d 7575 8cbd
000003d0: c7a0 0cbe a6ae f9bd 8bd1 e6bd 2871 c8bd
000003e0: 4c18 4dbd ebfc 833e 6fa0 443e 524e 1abd
000003f0: 37f0 a93c 60a9 f33c 9ba8 50bd e819 b6bd
0.07811095 -0.039313935 -0.043156344 -0.5276335 0.038815208 0.43283865 0.15774746 0.108135775
0.12602809 0.04049293 0.040684216 0.017316787 0.25729692 0.089322425 0.080260254 0.11338594
0.070376426 0.018506669 0.17719235 0.09812297 -0.09300722 0.071840286 0.02331306 -0.032202244
0.68796873 0.4239657 0.4819915 -0.0047646547 -0.0764295 0.15538885 -0.031123377 0.18844593
0.2891144 -0.26110074 -0.13074826 -0.08639029 0.18557987 0.021555584 0.13866335 -0.006945447
0.1599042 -0.058238283 0.043518107 -0.050805125 -0.008870858 0.15969902 0.01597325 0.15061237
-0.21256755 0.03808481 0.0025257894 0.011500899 0.13567908 0.018459804 0.2630633 0.16824436
0.29399496 0.13428225 0.18416044 0.056861915 0.031314615 0.10977902 0.05562208 0.010359377
-0.010418761 0.119784154 0.17634122 0.15227805 0.010770232 -0.27392483 0.04881765 -0.10752019
0.069510154 -0.0038698032 0.11831676 0.29223853 0.18704239 0.16824418 0.16621691 0.15351339
0.06255368 -0.09234403 -0.04822377 -0.04051227 0.19291385 -0.06754745 -0.1360378 0.071863934
-0.0054042665 -0.0073662233 0.14336531 -0.060232848 0.09052583 0.10096009 0.010834005 0.16394931
0.22989227 0.23525281 0.17871203 0.1992879 0.23876643 0.11988641 0.07903207 0.06508163
-0.07217471 0.03278617 0.15337138 0.15613319 0.22638929 0.08581777 0.038896255 -0.015962051
0.06812082 -0.048217285 0.7445745 0.6383453 0.5849933 0.23351774 -0.036012877 -0.011737365
0.07304893 0.07156748 0.11478304 0.1668148 0.20028827 0.0066606575 0.07708172 0.13030647
0.24631353 0.27125072 -0.021744505 0.12845412 0.30641165 0.16599779 0.17392015 0.14302552
0.16880673 0.17814183 -0.068045594 -0.0811764 -0.15959586 0.19844055 0.06159779 0.08271679
0.12832797 -0.0329616 0.14270794 0.15394588 0.09221553 0.074143276 -0.093538865 0.015017445
0.084171034 0.030793535 -0.12868449 0.04945432 0.043578718 0.0047246274 0.1780868 0.041876435
-0.11064018 -0.0010692363 0.20381558 0.14853783 -0.03009737 -0.6512414 -0.08600521 -0.013964201
-0.027928429 0.023339713 0.14750755 0.2561057 0.021567984 0.039734866 0.36325583 0.19303147
0.09319198 -0.0067406 -0.06976339 0.103578314 0.0014028103 0.024768006 -0.07994093 0.27887005
0.050343502 0.22992828 -0.14634386 -0.07766657 -0.005548637 0.14301868 0.14473091 0.03435906
-0.16968764 -0.009039994 0.008905421 -0.34927127 0.05082205 0.019870346 0.114310615 -0.1003745
0.03741485 -0.102936044 0.058744434 -0.08870733 0.15847969 0.085432135 0.018129453 0.057494886
0.04804987 0.07282597 -0.06189251 -0.0053970492 -0.23171072 0.14800124 0.096340306 0.06750301
0.14958338 -0.10060466 -0.07371921 -0.0061195088 -0.045489237 0.18006249 -0.16855387 -0.08478988
0.11360169 -0.1498878 -0.09258143 -0.035909988 0.12668684 0.11972385 -0.025265198 -0.13748758
0.14529517 -0.05343061 -0.19372088 0.0054912292 -0.1407844 0.03489125 0.056146022 -0.071855
-0.31607863 -0.04927754 0.05796615 -0.06858341 -0.13733207 -0.12191515 -0.11270436 -0.09787208
-0.050072 0.257789 0.19201826 -0.03767235 0.020744426 0.02974385 -0.050942045 -0.0889166

rnn.weight_hh_l0 f4 [256, 64]
00000000: 1921 8fbd 046c ee3c a1d7 12be 2d9e 5bbd
00000010: a534 dabd 65ae a43d b8ea 253e 5863 323c
00000020: 805a b33b e6a5 2fbd 3f58 e03d f0e0 d63b
00000030: 0a93 e4bd 7e41 403e 9e8a 4ebe 07e9 b73d
00000040: 9f2d 50be f20c 01be f606 1abe 7db4 1ebe
00000050: 54a8 a93d df67 413e 4bcf 67be 1e22 7cbd
00000060: 017b 853b f557 a23d f889 e43d 7d46 b5bc
00000070: 0d7d ab3d 08ba eebd f5b5 223c e618 4e3d
00000080: 26f0 47bd ead9 cb3d c1a9 073d 1dc8 703e
00000090: 3520 80bd a788 233e b695 943d de0f ee3d
000000a0: 6665 43bd e9cf 2cbe adfd c83d 076b 77bd
000000b0: dd80 bd3d 27ae 243d b65d e3bc d861 573e
000000c0: aaa1 22bc 624f 793d 56fb 5ebd 80f1 7cbc
000000d0: 8b5e 413e 67d0 cc3d 2cb8 083c 8847 053e
000000e0: 0c57 623e 06ab 16bd 2e38 8bbc df52 f2ba
000000f0: b59a 3fbd 9017 b73b 068b 213e cf84 a13d
00000100: 6e99 2bbc ae98 28bd b6cc 43bd be81 d3bd
00000110: b717 a73b 823d 88bc b136 ae3c 6e29 c93d
00000120: 35db 6abe ecb8 19be ff2f 1abe cc63 7c3c
00000130: 7abd 923d 08f9 81bd db63 39be 3e43 503d
00000140: c3f2 89bd 9a30 5a3d 4ab0 d5be a602 03be
00000150: 5c8f 23be 3b48 453d a405 0fbe 744c 2cbe
00000160: 37dd 7f3d 4fa5 d2bd 8dcd 4dbe 1dde 1abe
00000170: 8e8c 273e 7b1a bbbd e9bb 0dbe 7e84 3b3d
00000180: ed0e eabd f9a7 12be 168f 8ebd ebb2 cfbd
00000190: 405b f83c 7363 523e 4a4b fd3d 1363 ec3c
000001a0: b820 383e 4799 e53c 5b79 9d3d 9e9f ebbd
000001b0: 7817 39bd 7842 2fbc b726 60bc 5fa9 213e
000001c0: 85ce 473d 4b8c 2fbe ff3c e43d 7370 2a3e
000001d0: fec5 5c3d b0e7 8dbc 32a6 75bd cb9e 713e
000001e0: ca84 a33d 0b58 d03d 5e16 273e 20a3 833d
000001f0: f768 54bd 4db1 293e d626 0e3d da4c cdbd
00000200: 92e6 04be eb4b 8e3c 39cc debd 2ac6 92bd
00000210: ff78 0abe 13aa bdbc d925 d53c a4a9 0ebd
00000220: b52a 5a3d b23e 03be 11a5 83bc 76b8 a83d
00000230: e4e6 08be 30c8 3d3e ba24 25be fb03 083e
00000240: e255 423d a308 283d c3b6 83bd bacc a83d
00000250: 7d19 673d 6b2f ee3d c148 debd f736 0dbd
00000260: 67d1 aa3d 85de bf3d 01cc 1bbe 848e df3d
00000270: 7d09 a83d 42cf 51be f988 dc3a d614 ce3d
00000280: 0f5f da3d 3453 903c 526c 70bd 8f66 eebd
00000290: 6558 16bd 0f4c 0b3e b0f3 c1bd 6879 d93d
000002a0: c047 eb3d 6872 c0bd 0c4a 913d d0a4 dc3b
000002b0: d428 09bd c82f c73c 0351 153e f54d f83d
000002c0: 3050 4a3d 4541 a1bd 3354 2cbe 9bcd 4d3d
000002d0: 5933 03bb e9a5 263c 46f0 603d 5874 653d
000002e0: 648c db3d b5a2 153e 3caf 6fbd 201a c9bd
000002f0: dc16 2f3e 0e68 183e 556a f33d 76b3 fbbb
00000300: 601b 55bd 86a3 e7bd 0a3c 09be 7cce 24be
00000310: e449 ad3d 38ee 943d 1b46 bf3d 0848 b1bc
00000320: e55e c73d 8c2d fabc de13 243e 9fb8 1c3d
00000330: 7fa4 a6bd 1350 a03d df17 2dbe 28a9 97bd
00000340: 3024 3ebc dc81 cabd d2f3 023d 6655 4b3d
00000350: f8d5 0bbd 01ba 0b3e 6fcc 39bd 576e b73d
00000360: ca9c 9abd ccc7 863c b917 59bd 1744 a63d
00000370: c2a4 dcbd fb9b 01be 1b76 c23b ce49 3c3e
00000380: 0184 9a3d 0dc7 11be d72a 0bbe 9e71 3d3e
00000390: 116e 0a3b 8b13 09bd 793c 0ebe 41bc 883d
000003a0: 51c1 fd3b 7f27 1abe fad2 b7bc c85e 94bd
000003b0: 4933 e63c b99b 94ba 244d c33d dd57 e0bc
000003c0: c8ad dcbd 5576 f8bd 3bac 233d c08f 063e
000003d0: a965 013e 8868 983c 23f8 51bd 4306 e83c
000003e0: f16f ec3d c55f aebd 1d1f 533d 3118 2bbe
000003f0: 5cc0 c0bd 7d6b ac3c f508 393d a797 82bd
-0.06988735 0.02910424 -0.14340068 -0.053617645 -0.106545724 0.080410756 0.1620282 0.010887943
0.005473435 -0.042882822 0.109543316 0.0065575764 -0.11160858 0.18774983 -0.20170066 0.08979993
-0.20329903 -0.12602594 -0.15041718 -0.15498538 0.08284059 0.1888728 -0.2263767 -0.061555974
0.004073501 0.07926933 0.11159128 -0.022128338 0.08373461 -0.116565764 0.009931077 0.050316714
-0.048813008 0.09953673 0.033120874 0.23513837 -0.06256143 0.15970097 0.072551176 0.1162412
-0.047704123 -0.16876186 0.0981401 -0.060404804 0.09253094 0.040205147 -0.027754646 0.21033418
-0.009926239 0.06086672 -0.05443891 -0.015438437 0.18883722 0.10000687 0.008344691 0.13015568
0.22103518 -0.036784194 -0.016994562 -0.0018487832 -0.0467784 0.0055875257 0.1577569 0.07886659
-0.010473592 -0.04116123 -0.04780265 -0.10327481 0.0050992626 -0.016630892 0.021266313 0.09822355
-0.22935183 -0.15011948 -0.15057372 0.015404653 0.07165046 -0.06346327 -0.18104498 0.050845377
-0.06735756 0.053269006 -0.4173606 -0.12793979 -0.15972656 0.048164587 -0.13966995 -0.1682604
0.062466826 -0.10285436 -0.20097943 -0.15123792 0.16362211 -0.0913591 -0.13841213 0.04578065
-0.11428628 -0.14321889 -0.06960885 -0.10141548 0.030316949 0.2054575 0.12367876 0.028855836
0.17981231 0.02802719 0.07689162 -0.11505054 -0.045188397 -0.010697 -0.013681105 0.15787266
0.048780937 -0.17143361 0.111444466 0.16644458 0.053899758 -0.017322391 -0.05997295 0.23595731
0.07984312 0.10173043 0.16317126 0.06427598 -0.051857915 0.16571541 0.034705006 -0.10024424
-0.1297858 0.017370185 -0.10878796 -0.07166703 -0.13522719 -0.023152387 0.026019024 -0.03482975
0.053263385 -0.12816885 -0.01606992 0.08238308 -0.13369328 0.18533397 -0.16127291 0.13282768
0.047445185 0.04102386 -0.064313434 0.082421735 0.056420792 0.11630138 -0.108537205 -0.034476247
0.083407216 0.09368614 -0.1521454 0.109158546 0.08204935 -0.20489219 0.0016825489 0.10062568
0.10662662 0.0176178 -0.058697052 -0.11640655 -0.036705393 0.13603233 -0.09470308 0.106188595
0.114882946 -0.09396821 0.070942014 0.0067335144 -0.033486202 0.024314776 0.14581685 0.12124244
0.04939288 -0.07873777 -0.16828994 0.05024491 -0.002001962 0.010171392 0.054916643 0.056019157
0.10720137 0.14612849 -0.058516726 -0.09819436 0.17098564 0.14883444 0.118855156 -0.0076813055
-0.05202806 -0.113104865 -0.1340181 -0.16094393 0.08461359 0.07271999 0.093395434 -0.021640792
0.097348966 -0.030539297 0.16023204 0.038262006 -0.08136844 0.07827773 -0.16903637 -0.07405311
-0.011605307 -0.0988805 0.031970806 0.04964199 -0.034139603 0.13645174 -0.04536098 0.089565925
-0.075494364 0.016452692 -0.05300114 0.08118456 -0.107736126 -0.12657158 0.0059344894 0.18387529
0.07544709 -0.14236088 -0.13590561 0.18500373 0.0021122734 -0.033465903 -0.13890256 0.066765316
0.0077439924 -0.15054129 -0.022439469 -0.072446406 0.028100627 -0.0011337913 0.09536198 -0.027385646
-0.10775334 -0.12131945 0.039959174 0.13140774 0.12636437 0.018604532 -0.051262032 0.028323298
0.11544789 -0.0851436 0.051543344 -0.16708447 -0.0941169 0.021047348 0.045174558 -0.06376582

rnn.bias_ih_l0 f4 [256]
00000000: 2997 783c f082 d03e a6e2 3f3e a566 403d
00000010: 5cde 923d 304e 943d b5a3 fe3c d190 173e
00000020: eabd f83e df76 603c b1ee 0d3e ae60 c43d
00000030: dd95 1e3e c5cc ef3d e964 063e 1cbb cf3d
00000040: 07e6 df3d 50a9 293e 8e85 283e 976b e93d
00000050: 7391 8b3b c823 3b3e dc8d aa3c 8966 203c
00000060: 23d1 193d 9061 da3d f5cc 2c3e 77d2 3e3d
00000070: 4948 dabd d0b1 693d b091 77bc 29ea 253e
00000080: 2ee8 8c3e e477 dd3d 7d48 6d3d b783 44bd
00000090: 9dfd 6d3c aab1 463e 830c 013f 0712 1e3e
000000a0: 03e4 93bc bc66 0b3e d8ce c6bb d618 803d
000000b0: 5ac4 50bc f57d 003e 03b3 8b3d e6aa b83d
000000c0: 3d5e 603d 7811 83bd 64e5 143e f326 3c3d
000000d0: 914a b3bd 31cc 903d 3e09 ad3d 5ca4 b43e
000000e0: b200 1b3e c7de 133c 2220 35bd 3fe6 92bc
000000f0: 04f6 203d 2c88 053e 1dc9 9fbd 7672 b33d
00000100: 3861 13be 3cdf 99bd f24c 0bbe 2800 323d
00000110: 6ab6 413e 729f 14bd 2efd d8bd b395 553d
00000120: bc2a 2ebd c377 70bc f96e 15bc 6441 2ebe
00000130: 1903 b5bd b071 d23d 9e22 c5bd 9b80 053d
00000140: c5ad d8bd 3781 20be a69e 2fbd 3099 123e
00000150: c36e 1bbe 5856 523d 430a 9d3d 5cf9 913a
00000160: 7c4f 72bd 0c98 f7bd ae67 0cbc 529b 20bd
00000170: 1f73 18be 3269 9abc c58d a13d 057b bf3d
00000180: 8d7c d9bc 3aba c9bd 4b6b 623d c376 d1bd
00000190: 8dc1 90bd 8b17 ce3d 2637 1abe f58e 113d
000001a0: 051d f5bd 95f0 093d 7760 6abd 5970 a4bd
000001b0: 60be 8bbc c956 c5bb 9378 55be e74f d83d
000001c0: 09c2 8ebd 4ab5 e4bd f801 2fbc 8299 d03d
000001d0: 75b0 b33d 8cc1 25be 0935 533d 433f d6bd
000001e0: e7b4 d73d ce10 d23c 193e 2abd 283a 37be
000001f0: 529b 2abe 5156 13be d15e a9bc cf79 ae3d
00000200: 0e63 e23c 2aad 773d bef6 0ebe 48cb 4f3d
00000210: 3cf7 01bd 1214 843c 44f7 94bd 12be 3dbd
00000220: 64b5 a43d a478 903d 7f6d cdbd 0317 0abe
00000230: da79 fdbc 29b2 a53d d26e 1e3e 8b6b f5bc
00000240: 772d 983c 8bd0 df3d f169 d0bd 5383 6ebd
00000250: cb2a 8b3d 0535 133d ea55 513d 3460 053e
00000260: 7be1 783d 3a60 c8bd 964c bbbd 6ced f53c
00000270: f213 d7bd e289 f13d 7b49 e4bc 30d9 b73d
00000280: 6a67 8fbc a5c2 6f3b 38ce a3bc 4551 8f3d
00000290: 7e3c 823d f8c3 9ebd fb50 883d a278 853d
000002a0: a746 67bd 614d cebd 90db 8e3d 47e2 443d
000002b0: 5d63 85bd e092 e13d eb38 10be f5bb 84bd
000002c0: 0f95 443d d870 3cbc 9797 e5bb ad04 893a
000002d0: eb1d 853c 8586 38bd 37b8 c43d 69ff f6bd
000002e0: 5fb1 41bd d2db 04be 3a84 c7bc eba9 5b3d
000002f0: ee36 8dbd e0a1 b3bd a4e3 c7bd 01ca 28bd
00000300: 4e1c e23d 419b da3e b67b 783d d069 70bd
00000310: a818 573e 3459 98bb 73ca f03d 0799 ea3d
00000320: ee70 ee3e 6864 e93d 00e1 bd3d b173 88bd
00000330: 9b56 2039 38af 92bd 6f7d 403e 6f9d 983a
00000340: 26f1 e23d 88e9 cdbc f0ab 5d3e d743 ed3d
00000350: 695e f73d 0b1d 50bb dc0b c13d e81f 8ebd
00000360: ebfa 603d aaa5 603e b413 973d aad2 bd3d
00000370: a46c 463d 8d3c 103d 4b3a 0e3e ac9a 303e
00000380: 8522 f83d 1e79 823e 40f9 ae3d dbf3 a83c
00000390: 3a58 c43d 0f03 353d f466 123f 8433 873d
000003a0: 0e47 b8bd f779 543e e80b 3e3e c491 1abd
000003b0: 4273 4cbd 0e4c 473e 43cf 923d 4a67 2a3d
000003c0: 3178 d63d 8cf9 d73d c6de 0d3e 22d7 13bd
000003d0: 3840 78bc f3ad a7bd 2e5c 2bbd 6a6b 8f3e
000003e0: f4a6 053e 0826 9ebc 2350 bbbc ec53 10bd
000003f0: b272 943c bd71 d63c ec90 8f3d b958 16bc
0.015172758 0.40724897 0.18738803 0.04697289 0.07171318 0.072414756 0.031083921 0.14801337
0.48582393 0.013700216 0.13860585 0.09588753 0.15486856 0.117089786 0.13124432 0.1014311
0.10932546 0.16568494 0.16457197 0.11397474 0.0042592823 0.18275368 0.020819597 0.009790071
0.037552964 0.1066314 0.1687506 0.046587434 -0.106583185 0.05705434 -0.015110418 0.16202606
0.2752089 0.10813883 0.05793046 -0.047977176 0.014525798 0.19403711 0.50409716 0.15436564
-0.01805306 0.13613409 -0.006067138 0.06254737 -0.012742126 0.12548049 0.06821253 0.09016971
0.054777373 -0.06399816 0.1454063 0.045935582 -0.08754457 0.070701964 0.084490284 0.35281646
0.15136984 0.009025282 -0.044220097 -0.017932056 0.03929712 0.13040227 -0.07802031 0.08762066
-0.14392555 -0.07513282 -0.13603571 0.04345718 0.18917242 -0.03628487 -0.10595165 0.052144717
-0.042521223 -0.014676991 -0.009120696 -0.17017132 -0.088384815 0.102755904 -0.09625743 0.03259335
-0.10580019 -0.15674292 -0.04287591 0.14316249 -0.15178971 0.051351875 0.07667973 0.0011136937
-0.059157833 -0.120895475 -0.008569641 -0.039210625 -0.14887665 -0.01884899 0.078883685 0.09349636
-0.026548648 -0.09849973 0.055278104 -0.1022773 -0.07068167 0.10063084 -0.150601 0.035536725
-0.11968426 0.033676703 -0.057220902 -0.08029241 -0.017058551 -0.0060223085 -0.20846777 0.10562115
-0.06970603 -0.11167391 -0.010681622 0.10185529 0.08773891 -0.16187114 0.05156425 -0.10461285
0.10532551 0.025642779 -0.041563127 -0.17893279 -0.16660812 -0.14388396 -0.020675095 0.08519327
0.027635124 0.060467876 -0.13961312 0.050730973 -0.03172992 0.016122852 -0.07273725 -0.046323843
0.0804241 0.070542604 -0.1003065 -0.13485341 -0.030941892 0.08090622 0.15471962 -0.029958507
0.018576367 0.10928448 -0.10176457 -0.05823071 0.067952715 0.035939235 0.051107325 0.1302498
0.06076191 -0.09783979 -0.09145467 0.030020438 -0.10501851 0.11793877 -0.02786707 0.08976972
-0.017505366 0.0036584523 -0.019995794 0.06997923 0.06359194 -0.07752222 0.06656071 0.065171495
-0.056463864 -0.100733526 0.06975472 0.048067357 -0.06513093 0.11014342 -0.14084212 -0.064811625
0.047993716 -0.011501513 -0.0070065963 0.0010453664 0.016249618 -0.045050163 0.09605449 -0.12060434
-0.047288295 -0.1297448 -0.024355043 0.053628843 -0.06895243 -0.087711096 -0.09760216 -0.04120827
0.11040555 0.42696574 0.060664855 -0.05869466 0.210055 -0.0046493057 0.11757364 0.11454969
0.46570534 0.11396104 0.09271431 -0.066626914 0.00015291052 -0.071623266 0.18797849 0.0011643599
0.11081152 -0.02513577 0.2164762 0.11585205 0.12078554 -0.0031755592 0.0942609 -0.069396794
0.054926794 0.21938196 0.07376805 0.092686966 0.04844345 0.035213996 0.13889425 0.17246503
0.12115959 0.2548303 0.085436344 0.020624092 0.095871404 0.04419237 0.57188344 0.06601623
-0.089979276 0.20749651 0.1855923 -0.03773667 -0.049914606 0.19462606 0.07168438 0.04160241
0.104721434 0.10545644 0.13854513 -0.03609384 -0.01515203 -0.08187475 -0.041835956 0.28011638
0.13051969 -0.019305244 -0.02286536 -0.035236284 0.018121097 0.026177282 0.070100635 -0.009176427

rnn.bias_hh_l0 f4 [256]
00000000: 603c 0b3d 8fcf a13e 590e b03c 1d8f 363d
00000010: 3281 673e d2c8 853d 7b86 fe3d 7923 143e
00000020: a923 cf3e bc6f 103d dbae 6a3e c7b0 22bd
00000030: 5e65 003c 0eb0 8ebd 66db 263e 5989 db3d
00000040: b828 073e dc66 ca3d 92a5 ac3d 913b 44bc
00000050: 22d6 c3bd 57b1 8a3d 4dbf ce3d 0d54 aebd
00000060: e05d d43d 6464 173e c929 3d3d 8ad2 4e3d
00000070: 3b3c 73bd a9a7 1d3e af44 88bd 4db0 183e
00000080: d802 853e 0676 6c3d 5078 b33d 4b8c b63d
00000090: 6483 44bd ecd6 b83d dfa8 193f 2349 463d
000000a0: 5030 a4bd 4943 763a 72fc 583e baf3 2b3e
000000b0: ee4a ccbc 7783 2b3e 1855 2ebd 5274 333d
000000c0: 499e 073e 1177 d13d d9c1 073e 8558 0abd
000000d0: e3b5 9c39 8637 3c3d b3e1 1e3e 4231 a73e
000000e0: 9b02 803d 3661 e7bc ddc0 c33d 92d1 3bbd
000000f0: 92ff 093e 8ed0 153e 6687 e23d c7bb 383e
00000100: 9077 37bd 3a21 c83d 5aba ca3d e7fc 98bd
00000110: 26e9 903b 0c1e be3b 5f0d 34bd 6c2b 8dbd
00000120: d855 833c 20f7 643d 6007 15bd cd82 a5bc
00000130: e223 0a3d 8fb5 4a3d 7859 3cbd 59b5 cdbb
00000140: 5756 93bd 08e6 25be 0626 95bd cc1f 0cbd
00000150: 07d5 edbd 7bce b33a 5ee3 9f3d c595 cfbd
00000160: d2c6 13bd e6e1 00be 11b7 3ebd ee88 803d
00000170: caee 43be d96d b7bd cd76 a13d a737 1a3d
00000180: e2eb 6d3d c462 093c 49f3 e6bd ab5d acbd
00000190: 5c36 1f3d 2f74 d03d 85c5 01bd 4963 9ebd
000001a0: 14e0 25be 0be5 a23b 6ca5 9dbd 5fdb a73d
000001b0: 0e30 4cbd 17ee 823d 13a8 89be 3815 333e
000001c0: c517 263e a7c6 a5bc daba 75bc 59b8 41bd
000001d0: 9595 b03d d903 e63c 2068 8cbc 1512 0c3b
000001e0: 654a 8d3d f184 193d 826c 323d f7aa 113c
000001f0: 63fb 3bbe bc25 bebd 148c 01be bc34 8ebd
00000200: d8a9 c7bd 73c1 23be 8f51 473d 4178 35bd
00000210: ec0c d2bd 14c8 643d 4872 79bd f5b7 ff3d
00000220: 12df c2bd 25c9 a33d 3281 273d 8bbd 023d
00000230: 9bd6 b73c 1fc5 0dbe 5aa4 443c 5102 373d
00000240: 73f5 3bbd 1e18 6c3d d861 98bc 741e 9d3d
00000250: cead 973d 7ce6 87bc aa54 3f3b cba3 28bd
00000260: b485 003e 3e5b 7dbd 463c 423d fb4b 093e
00000270: a846 f4bc 9a36 1d3e 2a8c 0f3d c09d 0fbe
00000280: 63b7 97bd 14cb 513d cb3a 073d 62d7 80bd
00000290: 66b5 cc3d 9c51 39bc 5e75 10bc ebfd 3b3c
000002a0: 79c4 d4bd 55e2 943d 7977 9fbd 6835 78bd
000002b0: 2004 ba3d bd2b b13d 2d01 603d 6918 8fbd
000002c0: 19d2 0d3e cad5 a13c 81e0 c83d 2299 953d
000002d0: b8b4 f03d 9ac3 0c3e 9d61 0e3b 00b3 14be
000002e0: 2a47 8b3d dde0 e3bd 9c69 513c 36ac 523d
000002f0: 41b1 88bc e10c 42ba 40e6 3abe 8bb5 953d
00000300: b188 b1bb 561a 833e 0a31 c63d 88e0 0abd
00000310: 2426 0a3e 040a f13d 1bca 45ba 7d08 373c
00000320: ae84 fd3e 5cb3 6e3d 420e fd3d 07de 30bd
00000330: 95aa 04bd 4823 5a3b aca9 de3d 823f 92bd
00000340: 1ec9 603d 2c8d 8e3d 751e 683e 949c 54bc
00000350: f93a a9bd d204 8bbc 3c17 15bc 21b3 e0bd
00000360: 229b ad3d 6861 a73c 7360 633e 070b fc3d
00000370: 1d41 36bb 8e77 153e 50c5 043e e9c1 703e
00000380: b50e e53d 1fe3 5b3e ad21 7d3c e694 753d
00000390: 8545 143d 3721 c83d 59ad 0a3f 3459 283e
000003a0: cd6c e23d 4263 333e 6fa2 c73d 3a2b a63d
000003b0: 5e68 2b3e b87a c2bc f22c 293d d868 fdbb
000003c0: f06b 833e b5e1 1c3d 31e7 393c 471b 1a3e
000003d0: 3370 143e 6af7 bdbd 770b f8ba 6da5 b53e
000003e0: a983 b23d 3a41 e5bc 9603 063c 823c 5bbd
000003f0: 47a2 76bd b991 0b3d f319 183d e4f6 573c
0.033993125 0.31603667 0.021491216 0.044570077 0.22607878 0.06532444 0.12427994 0.14466657
0.40456894 0.03526281 0.22918265 -0.03971937 0.007836668 -0.069671735 0.16294631 0.10719556
0.13199127 0.098829 0.084300175 -0.011977092 -0.09562327 0.06772106 0.100950815 -0.08512125
0.10369468 0.1478439 0.046182428 0.050493754 -0.059383612 0.15395989 -0.06653725 0.14911003
0.25978732 0.057729743 0.08763182 0.089134775 -0.047976866 0.09025368 0.600233 0.048409592
-0.080170274 0.00093941815 0.2119005 0.16792193 -0.024938073 0.16749369 -0.04256162 0.043812104
0.13243975 0.10227788 0.13257541 -0.033775825 0.00029890155 0.04595139 0.15515785 0.32654768
0.06250497 -0.028244596 0.0955827 -0.04585416 0.13476399 0.14630339 0.110609815 0.18040381
-0.044791758 0.097719625 0.09898825 -0.07470112 0.0044223247 0.0058019217 -0.043958064 -0.06893048
0.016032144 0.05589974 -0.036383986 -0.020203972 0.033725627 0.049489554 -0.04598376 -0.006277722
-0.071942024 -0.16201031 -0.07282643 -0.03421001 -0.11612897 0.0013718152 0.07807039 -0.10135988
-0.03607828 -0.12586173 -0.046561304 0.06276117 -0.1913406 -0.08956499 0.078839876 0.03765073
0.058086284 0.008385364 -0.11276872 -0.08416303 0.0388702 0.1017841 -0.03168251 -0.07733781
-0.1619876 0.0049711517 -0.07697567 0.081961386 -0.049850516 0.06393068 -0.26886043 0.17488563
0.16220005 -0.020236326 -0.014998162 -0.04729495 0.086222805 0.028078007 -0.017139494 0.0021373082
0.06898955 0.0374803 0.043560512 0.008890859 -0.18357615 -0.09284541 -0.12651092 -0.06943652
-0.09749192 -0.15991764 0.048661765 -0.044304136 -0.10256371 0.055854872 -0.060900003 0.12486259
-0.095152035 0.0799735 0.040894695 0.031919044 0.022441199 -0.13844727 0.012002075 0.044679943
-0.045888375 0.057640187 -0.018601343 0.07671824 0.074061975 -0.016589396 0.002919475 -0.04117183
0.12551004 -0.061854593 0.047420762 0.1340789 -0.029818848 0.1535286 0.03504578 -0.1402502
-0.07408025 0.05121906 0.033015054 -0.06291081 0.099955365 -0.011310961 -0.008817045 0.011474113
-0.10389037 0.07269732 -0.077864595 -0.060597807 0.09082818 0.086509205 0.05468862 -0.06987078
0.13849677 0.019755263 0.09808446 0.073045984 0.11753219 0.13746491 0.0021725663 -0.14521408
0.06800683 -0.11126874 0.012781527 0.051433764 -0.016686084 -0.0007402432 -0.18251896 0.07310017
-0.005417906 0.2560603 0.09677322 -0.033905536 0.13491112 0.117694885 -0.00075450697 0.011171457
0.4951529 0.05827652 0.12356235 -0.04318049 -0.032389242 0.003328519 0.10872206 -0.071410194
0.0548793 0.0696052 0.22667868 -0.012976784 -0.08263201 -0.016970072 -0.009099778 -0.10971666
0.08476855 0.02043219 0.22204761 0.12306791 -0.0027809807 0.14596388 0.12965894 0.23511471
0.11184446 0.21473359 0.015449923 0.059956454 0.03619911 0.0977196 0.5417076 0.16440278
0.11055908 0.17518333 0.097477786 0.081137136 0.16739032 -0.023740157 0.04130263 -0.0077334456
0.25668287 0.03830119 0.011346624 0.15049468 0.14495926 -0.09275706 -0.0018924315 0.35477772
0.087165184 -0.027985204 0.008179566 -0.0535245 -0.060213353 0.03407452 0.037134122 0.013181422

rnn.weight_ih_l1 f4 [256, 64]
00000000: 990c edbd c163 e03c 93be abbd de2b 073d
00000010: f092 78be e932 8bbd 2fac 8dbd 8e01 f23d
00000020: 82c4 9f3e 2e5c c03e 288d 523e e28c 76bd
00000030: 53f1 3fbc 541b 90be 5b10 a73e 75f7 0c3e
00000040: 101e 3f3b 7f02 98bc 3920 0f3e 9b7d 01be
00000050: 30d9 6dbc c4d6 fcbd 4e36 f7bd 341f 043e
00000060: dab1 103d c6df 01be 74b5 363c f46c 083d
00000070: 1f47 88bd 563b 013e d008 db3c 7214 683e
00000080: 965e 3c3d be29 743d 1713 cebc 1e2f 9f3d
00000090: 26d3 5bbd 9d35 53bd ddb5 e33d 7244 0ebd
000000a0: 9a41 97be 4ce0 3a3e 3cba 8b3d 4be1 2bbe
000000b0: 4266 7bbd 8b20 b0bd 9475 323c dc9c 8fbe
000000c0: 7147 51bd 5b33 edbc f6d1 943d 1d33 85bd
000000d0: 29db cb3d f277 cebc 3920 283e 0128 f4bd
000000e0: 4c18 45be 4bee dc3c 080e df3d 53ce ef3b
000000f0: 0c49 8b3d 3f34 eebd 5765 963d 1835 6abd
00000100: 886d 913a 92ba a9bd 109f a53c 3f09 293d
00000110: 4baa 5c3c 3470 9d3d d129 b8bd 7692 95bc
00000120: bc30 673e e980 0c3e dc6a 023e 5977 b0bb
00000130: afff 86bc 2ddf 6d3e a36f 59be 8815 96bd
00000140: bb09 eabd b769 a83b d52c 383e f197 0c3d
00000150: a14e 1e3e 5d00 fc3b 3ea8 153d ee11 623e
00000160: 4f38 7abd 9179 90bd 86b1 2e3e 79d1 bd3d
00000170: d1c2 a7bd e057 0f3c 5c20 283e 357f 153e
00000180: c88d a8bc 5aac 033e 72db 14bd 05f4 db3d
00000190: b57f 073e 81c6 203e 2aca 00be 8888 e3b9
000001a0: b7d0 c5bd 42b0 14be 5a7a 743c 76e1 ac3c
000001b0: a5ca b6bc 1d6e 363e 4303 0bbe 01f0 e4bd
000001c0: 2270 e7bd 6c59 fc3d e569 a33d abcd 9dbc
000001d0: 1d25 593e 5281 9c3c a4ec 673e cf3d 17be
000001e0: 78a1 563e ff32 43bd a454 7dbe f1c2 0a3d
000001f0: 21ef 75bd 3757 e5bc 49e9 963c 7e15 ecbc
00000200: 30b3 1b3d af95 e23d ba45 67bd 2a6e f33c
00000210: 5608 2bbc d396 83bd ba97 86bd 811b ac3d
00000220: 65cb a83c 8913 54bd e4a5 1cbd 9c2d 923d
00000230: cd6e 28be b853 823d a9f3 05be 4fe6 f03d
00000240: 572b b83c e455 35be 571a b4bd dc97 87bc
00000250: 2ebb d83c 2951 c43d 9ce4 b4bd d9d3 17bd
00000260: 2b51 96bb e267 51bd 460a 143d 512a 3b3d
00000270: b094 683d b81b 5dbd 9a33 193d e871 92bc
00000280: bc1b ea3d 5590 5d3c 7a09 653d 1901 143d
00000290: bccd a63d 9927 2f3d 4a93 adbc 6538 f03d
000002a0: de2f 873c 178c 49be 3f87 923d 419a b43d
000002b0: e472 0f3e eb37 6dbc 15ce 983c 6cb4 4ebd
000002c0: cdd2 01bc fc83 7dbd e9e4 eebd cdfe 9bbd
000002d0: b870 933c cf58 373d 7815 003d bfde 81bd
000002e0: ab2b 2a3e 7478 0dbd baec f53d f879 cabd
000002f0: ad87 323d bdc7 9a3d b960 753d ae76 50bd
00000300: dab0 333d 0d0d d23d a921 81bd 113c f43d
00000310: ecdf 783e 74fb 323e 4854 b4bd 78b6 88bd
00000320: 2063 07bc a051 413e e232 713d 44de a0bc
00000330: d9e0 cebd 3387 c03d 3602 1c3d d4b8 9b3c
00000340: 9d42 c33d 12f0 2a3e d7fb b0bc e0b3 d43d
00000350: 065d a73d d6d1 dc3d 8bb0 80bd 57d5 ce3d
00000360: 0b0b d4bd 788e 65be d614 2f3e a246 213e
00000370: fd9d dbbd 3a4a 533d 1d4b e53d ac53 f8bc
00000380: 59f4 2e3b 7fcc 293e e55a 8fbb c4a9 92bd
00000390: e41c 233d 2397 5fbc bd54 5f3d fb0a 09be
000003a0: f7f0 4abe 747a 87be abc6 12be 6c23 423d
000003b0: 7aaf 4bbc b484 0c3e 773f 40be b86e a6bd
000003c0: c62b a23b e42f 783d 9a9e 8abc 0aa7 83bd
000003d0: 6f0e 1a3e c2f9 3d3e a9ea de3d ffc5 97be
000003e0: 42c0 c43d 3ade 81be fa20 f9bd fdd0 413e
000003f0: f3e5 9bbd 4fbb 0abe 1805 0fbd 9b30 963a
-0.115746684 0.027391316 -0.083859585 0.03300082 -0.24274802 -0.0679682 -0.06917607 0.11816703
0.3120461 0.37570328 0.2056166 -0.06019295 -0.011715251 -0.2814585 0.32629666 0.13766272
0.0029162206 -0.018555878 0.13977136 -0.12645571 -0.014517114 -0.12345651 -0.12070905 0.12902528
0.035325862 -0.12683019 0.01115166 0.03330703 -0.0665419 0.12620291 0.0267376 0.2266405
0.04598864 0.05961012 -0.025155587 0.07772659 -0.053668164 -0.0515648 0.11118672 -0.034733243
-0.29542238 0.18249625 0.06822631 -0.16785161 -0.061376818 -0.08599957 0.010892291 -0.28049362
-0.051093522 -0.028955152 0.07266609 -0.0650389 0.09953911 -0.025203679 0.16418542 -0.11921693
-0.1924755 0.026969096 0.10891348 0.007318297 0.06801042 -0.11631059 0.07343548 -0.05717954
0.0011095265 -0.082875386 0.020217448 0.041268583 0.013468335 0.07687417 -0.08992351 -0.018258315
0.22577184 0.1372105 0.12736076 -0.005385321 -0.016479341 0.23229666 -0.21233992 -0.073283255
-0.11427637 0.0051395553 0.17985852 0.03432459 0.15459682 0.007690473 0.0365374 0.22077152
-0.061088856 -0.07054437 0.17059907 0.09268469 -0.08191455 0.008748978 0.16418594 0.14599307
-0.020575419 0.12858716 -0.03634209 0.107399024 0.1323231 0.15700723 -0.1257712 -0.00043398538
-0.0965895 -0.14520362 0.014921749 0.021103602 -0.022313425 0.17815442 -0.13575463 -0.111785896
-0.113006845 0.12321743 0.07979182 -0.01926311 0.21205564 0.019104633 0.22648865 -0.14769672
0.20960033 -0.047656056 -0.24739319 0.033877317 -0.060042504 -0.027995689 0.018421786 -0.028818842
0.038012683 0.11063706 -0.05646298 0.029715616 -0.010438999 -0.06425252 -0.06571908 0.084036835
0.020604799 -0.051776443 -0.038244143 0.071376055 -0.16448517 0.06363624 -0.1308123 0.11762678
0.022481604 -0.17708546 -0.087940864 -0.016551904 0.026456442 0.095857926 -0.08832666 -0.037067268
-0.0045873127 -0.05112446 0.03614261 0.045694653 0.056782424 -0.053981513 0.037402727 -0.01787658
0.11431071 0.013523181 0.05591724 0.03613386 0.081447095 0.042762373 -0.021188397 0.117295064
0.016502317 -0.19682346 0.071547024 0.08818484 0.14008671 -0.014478664 0.018652955 -0.050465032
-0.007923794 -0.06189345 -0.11664755 -0.07616959 0.017998084 0.04476243 0.031270474 -0.063413136
0.1661822 -0.0345387 0.12008043 -0.09886545 0.04358642 0.07557628 0.059906695 -0.05089443
0.04386983 0.102563955 -0.06305248 0.11925519 0.2430417 0.17478734 -0.08805138 -0.06675428
-0.008263379 0.18878794 0.058886416 -0.019637235 -0.1010148 0.09400787 0.038088046 0.019009031
0.0953419 0.16693142 -0.021604462 0.10385871 0.0817204 0.107822105 -0.06283673 0.10099285
-0.10353669 -0.22417629 0.17097792 0.157496 -0.10723493 0.05158446 0.11195967 -0.030313335
0.0026695936 0.16581915 -0.004374849 -0.071612865 0.039822474 -0.013646874 0.054524172 -0.13383095
-0.19818483 -0.26460612 -0.14333598 0.047397062 -0.012431974 0.13722497 -0.1877421 -0.08126587
0.004949066 0.060592547 -0.01692133 -0.064283445 0.15044568 0.18552306 0.108846016 -0.29643247
0.09606983 -0.25364858 -0.12164493 0.18927379 -0.07612219 -0.13548015 -0.034916967 0.0011458577

rnn.weight_hh_l1 f4 [256, 64]
00000000: 0a1b 4ebe c65a a1bd 3fd7 3c3d e9c5 2dbe
00000010: 6b0f b4bd ab8d 8b3e 49b1 0f3e 7d7c c83e
00000020: 0f43 be3d db69 37bd d4e6 9cbb 5f97 56bd
00000030: 7179 ce3d 3dc3 603d 1acd 7f3d 57ad 6c3e
00000040: 12a0 feba 81a0 4fbe 2264 9abd 1ece 33be
00000050: 98e7 b43c 9425 213e bd6a c33d ee9c 4ebe
00000060: ca6d 533d 4d0d 76be 3e6a 6bbe 7e14 803c
00000070: 11f9 9c3d 8e5a b0bd 1ab0 8b3b 73e6 e73d
00000080: b95f c6bd e2a1 813d 4f7a 013c 3e2d 4fbd
00000090: 360f 6e3d 2c4a 763e 41a8 133e aabd 643d
000000a0: 6067 3cbb 70c7 bcbd 709e eabd 6e2b 7f3d
000000b0: 791a 36be 73c3 7abe 0cb6 ab3c 32f0 4d3d
000000c0: dd74 193e b7ee 25bd c5d9 fd3c 2057 87bc
000000d0: ee7e 113e 9897 cdbd 089e ae3d 8081 2abd
000000e0: 1c81 b93c da6f 04be b7ea ac3c f3fe 85be
000000f0: c8c3 113d 112d 463e a724 e1bb 2029 d2bd
00000100: 851f a0bd ab51 c33d dc5a 0e3e 6f1a e1bd
00000110: 4e2a c6bd 33cc 283a 6042 4b3e a144 30be
00000120: afa4 1c3e 33f3 b53d 6c31 b4bd 9d1f c3bd
00000130: 2c6e c83c fcfc a83c da3a 0d3d 9d43 fcbc
00000140: 0090 0dbd 6132 3fbd dda3 cd3c f32f 45bd
00000150: 6f38 afbd aa08 f73d 3111 f43d 2f08 f6bb
00000160: a0a5 483e 7b50 323d 8b55 223e 659d 0f3d
00000170: 9c08 0bbe c37b c3bb b593 adbd 8ae4 f3bc
00000180: 2082 b9bc 0999 babc b05f 983c 3f2b 8fbd
00000190: b970 e2bd 9f38 a63d 7dfc 953d 7b9c 0abe
000001a0: 9a48 143e 2534 863d c417 a63d 1eb3 12bd
000001b0: 2c64 d03c 2c5a a5bd 8637 57bd bd89 b13b
000001c0: 4085 b4bd 93f9 96bd 235f 2f3d bce8 12bd
000001d0: 26c5 96bd 576d 26be 8a13 52be cd26 56bd
000001e0: e599 ed3d d5a8 063e 88c7 a0bd 4973 123d
000001f0: 54bb 1abd a2c3 4cbd def4 4a3d d0e3 d53d
00000200: 857b eebd d05e ad3d d926 083e 7ec4 123d
00000210: e5bd 013b 4f78 3ebe 4d92 69be a7fb 19bd
00000220: a10f ae3d c47d 043e bd86 25bd b246 2bbd
00000230: fe63 c3bd df39 f3bc 7ad8 9f3c e921 e1bd
00000240: 286d b03c a7b7 98bd 244a c2bc 267d 84bc
00000250: f69e 023d 8d06 b9bc 21b0 a03c 287f 8bbd
00000260: bddc d53d e90b 213e 87de 193e cab1 32be
00000270: 56ac 0cbc d0b0 ae3c ba33 10be 5d0f 843c
00000280: 2134 a0bd 1a93 c9bc 737e eebd e684 9dbd
00000290: 5508 703d e480 163e a12d 18be 9cc1 083d
000002a0: 2bd1 49bc b3b5 33bc 5f74 18be 1f46 10be
000002b0: d9eb de3d 0b0b 873c cb58 a7bc 4895 6a3d
000002c0: fbdb 9b3d 395d 6cbd 91a5 8b3d c78c 663d
000002d0: 300b b6bd 2fbe ddbd 0019 803d 55a5 40bd
000002e0: 5dd6 f9bc 4f18 92bd 120e 303d 8bda a5bc
000002f0: 13f7 edbd 02d5 96bd 13de ddbd 6284 063c
00000300: d0ee 03be a054 4fbd f229 c2bc 7edc 013d
00000310: 3e18 5a3d 5949 ee3d 27e6 943d 33f0 0abe
00000320: e277 0cbd 6a45 d5bc 98a1 97bd 8ce8 c0bd
00000330: df2b 0d3d fd7d 45bd 353a 01be a1cc 02bc
00000340: da9a db3a 22a7 a03c 27ca ec3a 828e 8b3d
00000350: 1985 1abd d883 85bd c359 d63d 79d7 c1bd
00000360: 0166 7f3e 183a 94be f8c8 973e 309e ac3d
00000370: 3cf8 a5bd ad18 443d 0504 1e3e dfdc 653d
00000380: 97d1 b13d 6f4c 063d cc06 bf3b c201 c33d
00000390: 2cf0 3dbd ce81 f33d a5ed 2b3c 552c a7bd
000003a0: 0760 b1bd 8152 003d 88ad a53d 0151 8dbd
000003b0: e66e 753d 2ab1 6dba e65c d8bd 342e c9bc
000003c0: fa67 2d3d 3c66 9e3d 065a a33d 0d46 a3bd
000003d0: cb78 23bd 8b3c 2fbe ceb6 0bbe f55a 6f3d
000003e0: 54ba 283c a81e 433e faa9 973d 03ac 83bd
000003f0: 1aeb 1dba 61fe 3abe 0739 cebd a586 b3bc
-0.20127502 -0.07878642 0.046103712 -0.16970028 -0.08792003 0.27256522 0.14032473 0.39157477
0.09290134 -0.044778686 -0.004788259 -0.052390452 0.10081757 0.054873694 0.06245146 0.23112999
-0.0019426367 -0.20276071 -0.0753863 -0.17559096 0.022083089 0.15736991 0.09541843 -0.20177051
0.051618375 -0.24028511 -0.22989747 0.015634771 0.07664693 -0.08611022 0.0042629363 0.113232516
-0.096862264 0.06329705 0.007902696 -0.050580256 0.058119975 0.24051732 0.14419653 0.05584494
-0.002874814 -0.09217727 -0.11456001 0.062297277 -0.17783536 -0.2448862 0.02096083 0.050277896
0.14985986 -0.04051086 0.03098763 -0.016521037 0.14208576 -0.1003868 0.08526236 -0.041627407
0.022644572 -0.12933293 0.021108015 -0.26171073 0.035587102 0.19353129 -0.0068708244 -0.1026175
-0.07818512 0.09537061 0.13901848 -0.1099137 -0.09676038 0.00064391195 0.19849539 -0.1721368
0.15297197 0.08884277 -0.08798489 -0.09527514 0.024466597 0.020628445 0.034479953 -0.03079396
-0.034561157 -0.046678904 0.02510255 -0.04814143 -0.08555686 0.120621994 0.119173415 -0.0075083
0.19594431 0.043533783 0.15852945 0.035062212 -0.13577503 -0.0059656813 -0.084754385 -0.029772062
-0.022645056 -0.022778051 0.018600315 -0.069906704 -0.110566564 0.08116268 0.07323549 -0.13536255
0.1448082 0.065529145 0.08110002 -0.03581535 0.02543839 -0.080738395 -0.052543186 0.005418031
-0.08814478 -0.07371821 0.04281534 -0.035866484 -0.07361822 -0.16252647 -0.20515266 -0.052283097
0.11601619 0.13150342 -0.078505576 0.035754476 -0.037776306 -0.049991257 0.04954993 0.104438424
-0.11644653 0.0846535 0.13296069 0.03583192 0.0019797024 -0.18600582 -0.22809716 -0.03759351
0.08499075 0.12938601 -0.0404117 -0.041815467 -0.09540556 -0.029690681 0.019512404 -0.10992796
0.021536425 -0.07456904 -0.023716994 -0.016172957 0.03188988 -0.022586131 0.019615235 -0.068113625
0.10442493 0.157272 0.15026294 -0.17450634 -0.00858601 0.021324545 -0.14082232 0.016120607
-0.07822443 -0.024606276 -0.11645212 -0.07691364 0.058601696 0.14697605 -0.14861156 0.033387765
-0.012317936 -0.010968613 -0.14888142 -0.14089249 0.10884828 0.016484758 -0.020428082 0.057271272
0.07610317 -0.05770609 0.06818689 0.0562866 -0.088888526 -0.1082729 0.06254768 -0.047032673
-0.030497724 -0.07133543 0.04298217 -0.020245811 -0.11619391 -0.07364847 -0.10833373 0.008210273
-0.12884068 -0.050617814 -0.023701642 0.03170442 0.053245775 0.11635084 0.072704606 -0.13568191
-0.034294017 -0.026034076 -0.074038684 -0.09419355 0.034465667 -0.048215855 -0.1261986 -0.007983358
0.0016754523 0.019610945 0.0018065617 0.068142906 -0.037724588 -0.06519288 0.104663394 -0.09464926
0.24941255 -0.28950572 0.29645514 0.08428609 -0.081039876 0.047875095 0.15431221 0.056118842
0.08682554 0.032787737 0.0058296677 0.0952182 -0.046371624 0.11889993 0.010493671 -0.081627525
-0.08660894 0.03132868 0.08089739 -0.06900216 0.059920214 -0.0009067232 -0.10564594 -0.024558164
0.042335488 0.077343434 0.07976155 -0.079723455 -0.03991012 -0.17112939 -0.13643953 0.058436353
0.01029833 0.19054663 0.07405467 -0.06429293 -0.00060241076 -0.182611 -0.10069471 -0.02191479

rnn.bias_ih_l1 f4 [256]
00000000: 190e 4fbd 7243 413d 3e18 f3bc f6d7 b23c
00000010: d420 8dbd bc33 9ebd fb5e 9c3d 3378 633e
00000020: 033c 06bc b017 ccbd 13b6 fc3d 540d c53c
00000030: 57d1 2c3d b2f3 533d 934f e4bc 3840 e33c
00000040: 36ff 96bb 2597 093e ed93 31bd 0ce3 71bd
00000050: 4ac6 a4bc 7660 e13c 361c cebc 69e4 203c
00000060: e402 a4bc e60a 2dbd 7ba9 0d3e c005 db3d
00000070: b9b4 aebd 5379 a8bd ec30 a33d 1c59 183e
00000080: 35e1 493e d225 29bd 0d88 ac3d 3a2b 5e3d
00000090: e6e7 f13d 400b 743c 7205 d93c 74d6 bc3d
000000a0: a3f5 2dbd 7b73 c33d ea6f 203e b89f 173e
000000b0: 1909 473c 45a2 dc3d c8f1 c63c 13cc 313d
000000c0: 9063 38bb c478 0b3e b2c4 c33d d4c8 32ba
000000d0: 9210 d5bc 9814 263d 8ba8 e63d 285b 8d3d
000000e0: 1d03 69bd bb4a 023f 88f0 433d 9498 79bc
000000f0: 696e 6a3e 6805 9cbd 19be a9bb 372c 463e
00000100: 3ff8 433e fec9 96bd 15da f4bd bb12 0a3e
00000110: 7ca1 803c 0863 b03c 5fe1 6cbd 5d8b 13bd
00000120: 9124 c63c abfa 48be 623b 6fbe ee60 adbc
00000130: 575c 2abb 99f9 d8bd 1a25 1abc 12d4 443d
00000140: 6fb7 ca3d 1717 82bc 29d5 0cbe 0c7d 0abd
00000150: 16cf a0be adac 8cbd 7403 b8bd 71bf 81bd
00000160: 362a 34bc edac fbbd 5072 45be 4c72 5abe
00000170: 36d6 243c 12a5 50be 2a86 023e fb82 4dbe
00000180: e520 35bd def3 abbc 5c5c 55be 25de 01bd
00000190: bb4c 5a3e d54e d4bd 348c 5c3d 25d6 493d
000001a0: fd07 f3bc 468f a23d b3db 34bd 0c41 90bb
000001b0: d13d 7abd cfb7 e1bd dbbf cb3d 75d2 df3c
000001c0: 3d13 b6bd fdca 563c fdc1 05bc 2f96 42bd
000001d0: c34b e13c aed2 3bbd 08a4 573d 0290 21be
000001e0: b787 1fbd 39c0 93bd b661 dd3c e8c3 ff3d
000001f0: 9fc9 5bbd dbbe bfbd ad96 26be 931e 5fbe
00000200: 89f2 91bd f2fb 0c3e 1f40 a0bd b02e a73d
00000210: 6bfb 383d 035a 773d 0e5c 7f3d d163 cb3b
00000220: b99e a9bc f635 8ebd 1e87 e6bd ceba 0d3e
00000230: e177 6d3d 6b6c eb3d 4988 983a 676a 523d
00000240: a9df ec3d a405 61bd 783e c43d b22b be3b
00000250: cdf5 e0bd 0c58 453b 5add 883c be51 9cbd
00000260: 1609 b5bd a571 11be 354f 1a3c 741b 8ebd
00000270: 8cee 973d 2616 253a 6b79 a7bd 364c 7dbd
00000280: 1080 863d 85d5 a63d 32e5 083e fb0f f73c
00000290: cfa5 803d ada7 91bd 4d4a 213d b5fe c23d
000002a0: a020 7bbd 4697 823d ec89 4c3d b2a4 a03d
000002b0: 5229 c0bd ea09 efbb b9ea a8bd 1e41 f4bd
000002c0: eacc 9c3d db6e 023c 3f05 eabb b86c b43a
000002d0: 8fd3 f5bd 2c09 af3c 551b 0cbe 2263 95bc
000002e0: 7342 01be b6d0 bd3b c5e1 fe3d 77a8 a03c
000002f0: d166 6e3d 08d1 5fbd 992e 2dbc a782 59bd
00000300: dedc 223e 3479 fbbc 8428 c0bd c111 833d
00000310: 0019 fa3d 88f4 93bd b035 be3d 1233 283e
00000320: 299a 113d 8c30 dcbd 785a b1bc 5d9e cbbc
00000330: 12df 933d 8aec 1b3d a9cb 8fbd dc7b c23d
00000340: 634e 0ebd 9af8 38bd 6aeb f63d 62e0 68bc
00000350: 72bb d93d 677a 3d3d ce29 ef3b 2ba8 6ebd
00000360: 3725 89bd 74e0 5c3a 97be d43d 2277 9f3d
00000370: 25c1 9b3d 0b33 3ebd 4fa4 8d3c a13c a33e
00000380: ac99 663e 505a 80bc a36e 54bd 9553 233d
00000390: cab3 c33d 8a32 c53d d547 5e3e df68 90bd
000003a0: b5a4 13bc 7dae 683c 3172 96bd 4651 ce3a
000003b0: 4051 8e3d 736c 993d 94ab 93bc 8b2e 1fbd
000003c0: 03bf 55bd fab0 ec3d 102a 283d 77c2 b13c
000003d0: 469f 153d dfdd a4bd 2ff4 4e3d 1e67 003e
000003e0: 6003 c7bd 7bfa b93e 415f 143e 177b a1bc
000003f0: 9e2c b13e f25a b3bd 555b e93d 39e4 763d
-0.050550554 0.04718346 -0.029674646 0.021831494 -0.06891027 -0.07724711 0.076353036 0.22213821
-0.008193019 -0.099654555 0.123394154 0.024054207 0.04219183 0.051746078 -0.027869975 0.027740583
-0.0046080602 0.13436563 -0.043353964 -0.05905442 -0.020114083 0.027511816 -0.025159936 0.009820082
-0.02002091 -0.04224672 0.13834183 0.10694456 -0.08530564 -0.08226266 0.079683155 0.14877743
0.19714816 -0.041295834 0.08424387 0.054240443 0.11811809 0.01489526 0.026491854 0.09220591
-0.042470586 0.095435105 0.15667692 0.14807022 0.012148165 0.10773138 0.024285212 0.04340751
-0.0028135516 0.13620287 0.09559001 -0.0006820087 -0.026008878 0.040546983 0.11262616 0.06902152
-0.056887735 0.5089528 0.04783681 -0.015234131 0.2289368 -0.07618219 -0.005180132 0.19352804
0.19137667 -0.07362746 -0.11955658 0.13483708 0.015702002 0.021531597 -0.057832118 -0.03602158
0.024187358 -0.19626872 -0.23362496 -0.021164384 -0.002599498 -0.10594482 -0.00940826 0.04805381
0.098982684 -0.01588015 -0.13753189 -0.03381066 -0.31407994 -0.06868873 -0.08985034 -0.06335343
-0.010996392 -0.12288842 -0.19281888 -0.21332663 0.0100608375 -0.2037547 0.12746492 -0.20069496
-0.044220824 -0.020990308 -0.20836014 -0.031705994 0.21318333 -0.103665985 0.053844646 0.04927649
-0.029666895 0.079374835 -0.044154834 -0.0044022854 -0.06109411 -0.11021387 0.09948703 0.027322033
-0.08890388 0.01310992 -0.008163926 -0.047506507 0.027501946 -0.045855217 0.052646667 -0.15777591
-0.038947787 -0.07214398 0.027024131 0.12488538 -0.053659078 -0.09362575 -0.16268416 -0.21789007
-0.07126338 0.13767985 -0.0782473 0.08163202 0.045161646 0.060388576 0.06234365 0.0062069674
-0.020705568 -0.06943886 -0.1125624 0.13840792 0.057975654 0.114952885 0.0011637296 0.051371004
0.11566097 -0.05493702 0.095822275 0.0058035487 -0.10984383 0.0030112294 0.016707111 -0.076327786
-0.08839624 -0.14203508 0.0094182985 -0.0693883 0.07418546 0.0006297551 -0.081774555 -0.06184026
0.06567395 0.08146194 0.13368681 0.030158987 0.062816255 -0.0711206 0.0393775 0.09521238
-0.06131041 0.06376509 0.04993622 0.07843913 -0.09382881 -0.007294883 -0.08247895 -0.119264826
0.07656272 0.007961 -0.0071417387 0.0013765311 -0.12003242 0.021366678 -0.13682301 -0.018235747
-0.12623005 0.0057927025 0.12445406 0.01961158 0.058203522 -0.054642707 -0.010570192 -0.053103115
0.15904567 -0.030697443 -0.09382728 0.06399871 0.122117996 -0.07224375 0.09287584 0.16425732
0.03554741 -0.10751447 -0.021649584 -0.024855787 0.07220282 0.038067378 -0.07021267 0.094962806
-0.034742724 -0.04515896 0.120566204 -0.014213653 0.106314555 0.04625931 0.0072986847 -0.058265846
-0.06696551 0.000842578 0.10387915 0.07786395 0.07605199 -0.046435397 0.017290263 0.31882194
0.22519559 -0.015668064 -0.051863324 0.039874632 0.095557764 0.0962878 0.21707089 -0.070512526
-0.009011437 0.0142017575 -0.07345999 0.0015740774 0.06949091 0.07491388 -0.01802615 -0.038862746
-0.052184116 0.11557193 0.04105574 0.021699173 0.036528848 -0.08050131 0.05052584 0.12539336
-0.097174406 0.36323914 0.14489461 -0.019712014 0.34604353 -0.08757581 0.11394373 0.060276244

rnn.bias_hh_l1 f4 [256]
00000000: d149 ad3d 29c1 b93c 5300 243d 9795 553e
00000010: 47ae 183d 7ba7 b7bd 326a 6f3e 0357 0e3e
00000020: bd41 1cbe 8d1f 493c 3cd7 84bd 910b 86bc
00000030: fd47 dbbd 0cf1 023e 54ce c33d 02ec b0bd
00000040: 99df a73d f2eb cdbc e8a2 ad3c 241e b0bd
00000050: 696a 123e 58ce d0bc a4cc ddbd 5a2d 143d
00000060: f928 d5bd b2fe 0b3e ed06 2f3e 30fe a93d
00000070: 0adf b3bc 93a1 31bd 40e8 823d 4b6f 9a3e
00000080: 9036 383d a1c9 f73d a87b 15bd 3df4 f63d
00000090: de5f e23c 05c2 d33d f54f ac3d 5b03 d13c
000000a0: e6ec 13bd 67f4 fabb fb95 b5bc 2157 dd3c
000000b0: 1f25 a4bd b3e4 8dbd c01b 43bd 83fd c73d
000000c0: e323 bebd 5e14 89bb a6e0 f73b e454 ef3d
000000d0: 0618 0e3c dec2 f0bd f9ce e23d 5fc3 263c
000000e0: 3e50 d9bd 1e84 f53e 8418 b63d d95d 90bb
000000f0: 5ecc b73d 5194 21be 27cf 203e f214 373d
00000100: 9e8e 43bc 7820 b23d 8682 34be 1d94 183e
00000110: 5a81 31bd 2b89 05bd f8e2 5ebd 2074 213e
00000120: b76a 8d3b 0122 47be 4182 ffbc 8d04 d6bd
00000130: 9e00 7abd 0b39 293d 7f4b 06be 7056 a0bd
00000140: ce6a 91bd d616 bebd e654 6abd e40c ecbd
00000150: 64c3 fabd 35e7 19bd aa19 9c3d 8068 a73d
00000160: e830 d03c f76c e1bc 1da2 13be ac86 31be
00000170: 0777 3d3c afb7 cdbd d3f2 5d3c 2cb6 1fbe
00000180: 76a9 b83d 2d52 5ebe a00b 66be 7564 9abd
00000190: 9af1 c73d 8edf bc3b b553 f03c 637c f5bd
000001a0: 6f98 91bd 3870 e43d 9dd3 08be 4a63 4d3c
000001b0: 90e0 5e3d b1ee 093b 97ca 963d a045 023e
000001c0: 0634 4fbc 5cc8 4ebe 9656 1abe e546 04be
000001d0: f791 3dbe d54f 04be 11da 2e3d b200 0cbe
000001e0: a797 8ebd 3932 e8bc 66c7 f33b 259c 90bd
000001f0: 659a 043e 38ac 84bb 08ec d5bd 6de1 50be
00000200: 92f5 28bd f724 de3c b93a b6bc 3ba9 31bd
00000210: 700d 2d3d 13c2 a3bc 0b86 47bd 6ee5 0b3e
00000220: c63d dfbc 0304 b2bd a63f 3bbd 8387 06bd
00000230: 900b 953d 0dac a83c edbd bfbd 1b58 cd3d
00000240: 355e d73d 1773 073e 7b66 f7bd 26b1 c43c
00000250: 6178 e9bb fd00 d93d 163a f43b 5eaf b93c
00000260: 623c d73d d352 1d3d 694c 0fbd 0727 a4bd
00000270: ed35 6fbd 6784 203d 4d69 6d3d 3733 d53d
00000280: f12e bfbc 5177 9eb9 5d1d 73bd 7f9d d83d
00000290: a1f5 783d 4881 c73d 9764 8a3d 1730 96bd
000002a0: a2a7 7abd 13f0 f53c c469 b03d fb4e 5b3c
000002b0: 116d 053e 234e c6bd 4960 b93d 034b af3c
000002c0: af23 dfbd 9cd6 4a3c 781d b0bd 5003 2abc
000002d0: cf93 333d 89c0 ce3c ec9c a4bd bc36 0f3e
000002e0: a6e1 4d3d bd49 543d 1a15 12bc 4848 fcbd
000002f0: 5143 ab3d 7779 763d cb2e f8bd 0665 ebbd
00000300: d3dd 463d 5bec a2bd 86be 313c 1d4d 093e
00000310: 2751 853d 1f14 dbbd 5c88 303e a827 963d
00000320: 85a2 273c 1c91 f33d 4aec c33c a620 b9bc
00000330: b01f 843d 7003 05bc f626 83bc 3386 fcbd
00000340: 3a70 923c 8100 293e 3c32 aa3d c7b6 743d
00000350: 1c18 193e 3331 7ebd d3b8 653d 2655 24bd
00000360: a576 febd 1e59 023e 2660 563e 22c2 023e
00000370: 28b3 febd b618 163d b9ea 1dbd 6a1a 753e
00000380: fdb1 5f3e 6e21 b73d 08e1 d5bd 2e94 3cbd
00000390: d09e 443c 9293 68bd c02c c93c f897 183e
000003a0: 2fd4 8cbc fb27 0a3e 27db 633d b6d8 0f3e
000003b0: 777a 11bd b47b 173d 1162 a3bd 664d c63d
000003c0: cf2b 983d 235e 0d3e 1f35 aebd 5fa8 dc3d
000003d0: 62a0 af3c d402 54bd 95fd 16bc 6aa7 a93d
000003e0: e3fd 06be 2c2f ab3e 6f8b 54bc e805 49bd
000003f0: 6d9d 193e 90c8 333a 040a 7e3d 70b5 0f3e
0.08461345 0.022675114 0.04003937 0.20857845 0.03727558 -0.08967491 0.23380354 0.1390038
-0.15259452 0.012275589 -0.06486365 -0.016362937 -0.1070709 0.12787265 0.09560838 -0.08638765
0.08196945 -0.025136922 0.021195844 -0.08599499 0.14298405 -0.025489017 -0.10830048 0.036176063
-0.104082055 0.13671377 0.17092486 0.083004355 -0.02195694 -0.04336698 0.063919544 0.30163035
0.04497391 0.120990045 -0.03649488 0.120583035 0.027633604 0.10339741 0.08413688 0.025514295
-0.036114596 -0.0076585296 -0.022166243 0.027019085 -0.08014893 -0.069283865 -0.047633886 0.097651504
-0.092841886 -0.004183336 0.007564622 0.116861135 0.00867272 -0.11755918 0.11074633 0.010178416
-0.10611008 0.4795236 0.08891395 -0.0044057188 0.08974527 -0.15779234 0.15704022 0.04469771
-0.011935858 0.08697599 -0.17627916 0.1490025 -0.04333625 -0.032601517 -0.054415673 0.15766954
0.0043157 -0.19446565 -0.03119004 -0.10450087 -0.061035745 0.041314166 -0.13114737 -0.07828987
-0.071004495 -0.09281699 -0.05720987 -0.11525896 -0.12244299 -0.03757401 0.076220825 0.08174229
0.025413945 -0.027517779 -0.1441731 -0.1733653 0.011564023 -0.100448005 0.013546663 -0.15596837
0.09016697 -0.21711035 -0.22465372 -0.07538692 0.09762879 0.0057639545 0.02933679 -0.119866155
-0.071091525 0.111542165 -0.13361974 0.012535879 0.05441338 0.0021046812 0.0736286 0.12721872
-0.012646681 -0.20193619 -0.15072092 -0.12917669 -0.18512712 -0.12921079 0.042688433 -0.1367214
-0.06962519 -0.02834426 0.0074395416 -0.07061032 0.12949522 -0.0040488504 -0.1044541 -0.20398493
-0.04124982 0.027117236 -0.022244798 -0.04337428 0.042249143 -0.019990003 -0.048711818 0.13661739
-0.027251136 -0.086921714 -0.045714997 -0.032844078 0.07277596 0.020589853 -0.09362397 0.100265704
0.105160154 0.13227497 -0.120800935 0.024010252 -0.007124946 0.105958916 0.0074532134 0.02266663
0.10509564 0.038409065 -0.03498498 -0.080152564 -0.058401037 0.03918877 0.05796175 0.10410159
-0.023337813 -0.00030225006 -0.059354175 0.10576915 0.060781125 0.09741455 0.06757467 -0.07333391
-0.061195023 0.030021703 0.08613923 0.01338553 0.13029887 -0.09682872 0.09051568 0.021398073
-0.10895478 0.012380268 -0.08599371 -0.010376766 0.043842133 0.025238292 -0.08037743 0.13985723
0.050264023 0.051828135 -0.008916164 -0.12318474 0.08362449 0.06017443 -0.121183 -0.11493878
0.04855139 -0.079552375 0.010848647 0.13408323 0.06509619 -0.10697197 0.17239517 0.073317826
0.010231619 0.11892912 0.023916382 -0.022598576 0.064513564 -0.008118495 -0.016009789 -0.12330284
0.01787578 0.16504098 0.08310363 0.059744623 0.14950603 -0.06205864 0.056084465 -0.040120266
-0.124249734 0.12729308 0.20935115 0.12769368 -0.12436515 0.03664466 -0.038553927 0.23935857
0.21845241 0.08941923 -0.10443312 -0.046039753 0.0120007545 -0.05678136 0.024557471 0.14901721
-0.01719102 0.13491814 0.05562892 0.14047512 -0.035517182 0.036983207 -0.07977689 0.09682731
0.07430231 0.13805442 -0.08506226 0.10774302 0.021438781 -0.05176051 -0.009215732 0.08283885
-0.13182788 0.33434427 -0.012972697 -0.0490779 0.1500146 0.0006858194 0.06202127 0.14034057
