checkpoints/TP_LSTM_L2_bs16_train0baseline_lossall_bsfirst_pos1/TP_LSTM_L2_bs16_epoch600.pt (torch, 206215 bytes, 9 tensors)

rnn.weight_ih_l0 f4 [256, 3]
0	0xbcf51254	-0.029915966
1	0xbcf49a87	-0.02985884
2	0xbd06508c	-0.03279166
3	0xbca33689	-0.019923465
4	0xbcc4f14f	-0.024040846
5	0xbd098985	-0.033578414
6	0xbc3f6e80	-0.01168406
7	0xbc3b6007	-0.011436469
8	0xbca6f66f	-0.02038118
9	0xbcc8fb5a	-0.024533916
10	0xbc6a7a1e	-0.014311342
11	0xbc2ef7b9	-0.010679179
12	0xbcc58262	-0.024110023
13	0xbc66618a	-0.014061341
14	0xbc43f17f	-0.011959433
15	0xbcc97e6d	-0.024596417
16	0xbcfa3eea	-0.030547578
17	0xbd22da69	-0.039759073
18	0xbcc7e69f	-0.02440196
19	0xbce5dab5	-0.02805839
20	0xbd1010bc	-0.03517221
21	0xbc888b11	-0.016667875
22	0xbc82c01c	-0.015960746
23	0xbcd5d3b3	-0.026101923
24	0x3efbe24e	0.49196094
25	0x3eccbe36	0.3998887
26	0x3da064e6	0.07831745
27	0xbee70184	-0.45118344
28	0xc005d03a	-2.0908341
29	0xbe0aad17	-0.13542591
30	0xbd59be5f	-0.053160068
31	0xbd5c3be3	-0.05376805
32	0xbd6b91b6	-0.057512008
33	0xbb6fd495	-0.0036595215
34	0xbb113331	-0.0022155757
35	0xbb8f82ae	-0.004379592
36	0xbd1fc3da	-0.039005138
37	0xbd073493	-0.033009123
38	0xbcf5f68b	-0.030024787
39	0xbc961dec	-0.018324815
40	0xbc953163	-0.018212026
41	0xbcdca299	-0.026933001
42	0xbcb8bde3	-0.022551483
43	0xbcc70447	-0.024294032
44	0xbd08deec	-0.03341572
45	0xbbe2a759	-0.006916922
46	0xbb81bed6	-0.003959517
47	0xbba8c84f	-0.005150832
48	0x3ebc39b4	0.36762774
49	0x3eba0bc5	0.36337104
50	0x3e1e51a2	0.15460828
51	0xbcf60394	-0.030031003
52	0xbced12ec	-0.028939687
53	0xbd0724fa	-0.032994248
54	0x3ea2de16	0.31810063
55	0x3e98d866	0.298526
56	0x3ddbd6f5	0.10734359
57	0xbc7b65e5	-0.015344118
58	0xbc94f965	-0.018185327
59	0xbcd8a75d	-0.026446993
60	0xbcd62e7d	-0.026145214
61	0xbc9c0abe	-0.019048091
62	0xbc92db2f	-0.01792678
63	0xbb9e4d9d	-0.0048310296
64	0xbb845b99	-0.0040392396
65	0xbbf849f7	-0.0075771767
66	0xbcf6f9a9	-0.030148344
67	0xbcfbe1a4	-0.030747242
68	0xbd0fdbae	-0.035121612
69	0xbcfa2e5b	-0.030539682
70	0xbcf2cd59	-0.029638933
71	0xbd190ade	-0.03736388
72	0xbb513875	-0.003192452
73	0xbb05260a	-0.0020316863
74	0xbbb90248	-0.005646024
75	0xbc8c85e1	-0.017153682
76	0xbcaf4cce	-0.021398928
77	0xbd03feea	-0.032225527
78	0xbc785d78	-0.015159003
79	0xbc5aa08a	-0.01334394
80	0xbca975e3	-0.020686096
81	0x3f1e3865	0.618048
82	0x3f8183e2	1.0118372
83	0xbcf761a8	-0.030197933
84	0xbcaae5ad	-0.020861471
85	0xbca79cd4	-0.020460524
86	0xbcfe1f87	-0.031020893
87	0xbccf9acd	-0.02534237
88	0xbcdeaa74	-0.027180888
89	0xbd16f7ef	-0.03685754
90	0xbce455c4	-0.027872927
91	0xbcecd5c9	-0.028910534
92	0xbd2b1164	-0.041764632
93	0xbb6ac384	-0.0035822103
94	0xbb16097a	-0.0022893832
95	0xbb9c20ee	-0.0047646677
96	0x3ce0e72d	0.027453983
97	0x3f353df1	0.7079764
98	0x3d1630c9	0.03666762
99	0xbbb21192	-0.0054342235
100	0xbb645d06	-0.0034845485
101	0xbbbd1051	-0.0057697673
102	0xbd1c226e	-0.038118772
103	0xbd00e557	-0.031468716
104	0xbd0bf675	-0.034170587
105	0xbc6c7412	-0.01443197
106	0xbc56df88	-0.013114817
107	0xbc65beb3	-0.014022517
108	0xbd0b5b96	-0.03402289
109	0xbd1f1789	-0.038840804
110	0xbd4e0de1	-0.050306205
111	0xbcc662a7	-0.024216963
112	0xbc9ec740	-0.01938212
113	0xbcd7547a	-0.026285399
114	0xbc8c7a02	-0.017148022
115	0xbca76c36	-0.020437341
116	0xbd013bba	-0.0315511
117	0xbcc7c1d0	-0.02438441
118	0xbcbcccfc	-0.023046963
119	0xbd0b49b9	-0.034005854
120	0xbca708bf	-0.020389913
121	0xbc8ceb86	-0.01720215
122	0xbc915fb9	-0.01774584
123	0xbb4fe585	-0.0031722498
124	0xbac40c26	-0.0014957234
125	0xbb48728b	-0.003058585
126	0xbc5047ef	-0.012712463
127	0xbc3983fa	-0.01132297
128	0xbc9b780f	-0.018978147
129	0xbb50bf9a	-0.0031852485
130	0xbb278099	-0.0025558828
131	0xbc3ae514	-0.011407156
132	0xbbbb963b	-0.005724696
133	0xbb59a5d5	-0.0033210416
134	0xbbc25e60	-0.0059316605
135	0xbc9bea71	-0.019032689
136	0xbca55504	-0.02018214
137	0xbce0ca07	-0.027440084
138	0xbca22c1d	-0.019796425
139	0xbc8646f9	-0.016391264
140	0xbc7f0e8e	-0.015567435
141	0xbc93d5fe	-0.018046375
142	0xbc8ecf48	-0.017432824
143	0xbd068dce	-0.03285008
144	0xbcacab97	-0.021077914
145	0xbcc43613	-0.023951566
146	0xbcf2a791	-0.029620918
147	0xbc196f70	-0.009364948
148	0xbbd07bae	-0.0063624
149	0xbbceb236	-0.0063078655
150	0xbd2997f4	-0.04140468
151	0xbd2bee31	-0.041975204
152	0xbd367715	-0.04454716
153	0xbd166847	-0.03672054
154	0xbd0a69d3	-0.033792328
155	0xbd0aa387	-0.033847358
156	0xbc9de06b	-0.01927205
157	0xbc618235	-0.013763954
158	0xbc781e40	-0.015143931
159	0xbcdebcea	-0.02718969
160	0xbccacf5b	-0.024757078
161	0xbce18f20	-0.027534068
162	0xbcf6504b	-0.030067584
163	0xbd0e4763	-0.03473605
164	0xbd416246	-0.04721286
165	0xbcdaa94c	-0.026692055
166	0xbcf8fddb	-0.030394485
167	0xbd240291	-0.04004151
168	0xbcc51efb	-0.024062624
169	0xbcb0d0bc	-0.021583907
170	0xbcef2ac9	-0.029195206
171	0xbc2f73ac	-0.010708731
172	0xbbe32e5e	-0.0069330176
173	0xbc1e9a55	-0.00968035
174	0xbcd393f5	-0.025827387
175	0xbce8236a	-0.0283372
176	0xbd1c0037	-0.038086142
177	0xbcaeff0a	-0.021361846
178	0xbcc77b21	-0.024350705
179	0xbd06cd74	-0.03291078
180	0xbcd92fb0	-0.026511997
181	0xbd011613	-0.031515192
182	0xbd2953b7	-0.041339602
183	0x3eadb172	0.33924443
184	0x3ea3861e	0.3193826
185	0x3d452d16	0.0481387
186	0xbc1320fd	-0.008980033
187	0xbb99e35a	-0.004696292
188	0xbbab9fb8	-0.005237546
189	0xbbc89283	-0.006120981
190	0xbbcd4a03	-0.0062649264
191	0xbc1d81af	-0.0096134385
192	0xbcedce7c	-0.029029123
193	0xbcea2ae3	-0.028584903
194	0xbd0029cf	-0.03128987
195	0xbc9bc35d	-0.019014055
196	0xbcbf575f	-0.023357091
197	0xbd0505fe	-0.032476418
198	0xbc1c416c	-0.009537082
199	0xbc2d9e81	-0.010596872
200	0xbca1eae5	-0.019765327
201	0xbc945489	-0.018106716
202	0xbc1d8f84	-0.009616736
203	0xbbda2e6d	-0.0066583664
204	0xbc8099ae	-0.01569828
205	0xbc06d8e5	-0.008230423
206	0xbbfe8a63	-0.007767962
207	0xbcc2182f	-0.023693172
208	0xbcf13339	-0.02944337
209	0xbd1c0092	-0.03808648
210	0xbcc39b3b	-0.02387773
211	0xbce03c22	-0.027372424
212	0xbd0bc8bf	-0.034126993
213	0xbc69b54f	-0.014264419
214	0xbc73c4d8	-0.014878474
215	0xbccf7ba8	-0.025327519
216	0xbe194a4a	-0.14969745
217	0xbd43a336	-0.047763072
218	0xbca1495e	-0.019688305
219	0x3e81606c	0.25268877
220	0xbeeb4bdf	-0.45956323
221	0x3d8e9670	0.069622874
222	0xbd564ba5	-0.052318234
223	0xbd565e5e	-0.05233609
224	0xbd62ac76	-0.055340253
225	0xbb1cf476	-0.002394942
226	0xbac94537	-0.0015355711
227	0xbb4037ce	-0.0029330137
228	0xbd126f1f	-0.035750505
229	0xbcf47ba3	-0.02984411
230	0xbce1de4a	-0.027571816
231	0xbc852e8a	-0.016257543
232	0xbc818909	-0.015812414
233	0xbcc9240a	-0.024553318
234	0xbcae5b5d	-0.0212838
235	0xbcbfc1c8	-0.023407832
236	0xbd037279	-0.03209159
237	0xbb98cabc	-0.0046628397
238	0xbb2a6e38	-0.0026005637
239	0xbb5c5770	-0.0033621453
240	0xbdb83aad	-0.089955665
241	0xbd7c01bf	-0.061525103
242	0xbd8808aa	-0.066422775
243	0xbceaefdf	-0.028678833
244	0xbce13dab	-0.027495226
245	0xbcffc597	-0.031222148
246	0xbdf751ce	-0.1207615
247	0x3d30551a	0.04304991
248	0x388ed08a	6.809931e-05
249	0xbc705b2f	-0.014670177
250	0xbc8f9e32	-0.017531488
251	0xbcd0f40e	-0.025507
252	0xbcbd30de	-0.02309459
253	0xbc83f09a	-0.016105939
254	0xbc771655	-0.015081008
255	0xbb8c859e	-0.0042883893

rnn.weight_hh_l0 f4 [256, 64]
0	0xb5b4bde6	-1.3466313e-06
1	0x35bc8959	1.4047065e-06
2	0x34f3eaba	4.5433063e-07
3	0x34010e98	1.201937e-07
4	0x33410797	4.4943217e-08
5	0x36a2383f	4.834524e-06
6	0x34d8f4de	4.04113e-07
7	0xb59e1b4c	-1.1779862e-06
8	0x3826ac58	3.973799e-05
9	0xbb0693a9	-0.002053479
10	0xb6670a8d	-3.4427824e-06
11	0xb4f02a10	-4.4734088e-07
12	0x3208cc06	7.962631e-09
13	0x34a1b6cf	3.0121598e-07
14	0xb5ed903f	-1.7699857e-06
15	0xb402e609	-1.219088e-07
16	0xb83b5a73	-4.466851e-05
17	0x3687c6ee	4.046472e-06
18	0x37115a20	8.663657e-06
19	0x350228a8	4.8487937e-07
20	0x35dee760	1.6607628e-06
21	0x35a05622	1.1945997e-06
22	0x3610dde8	2.1586839e-06
23	0xb59d7526	-1.1731506e-06
24	0x33641256	5.3102063e-08
25	0x351b9d3e	5.7970817e-07
26	0xb532d224	-6.661596e-07
27	0x3bb6ba88	0.0055764355
28	0x35af170b	1.3045222e-06
29	0xb69a8f37	-4.60623e-06
30	0x357ac7cd	9.3423006e-07
31	0xb3f57c55	-1.14313174e-07
32	0x3c968db0	0.018378109
33	0x349a1fc8	2.870786e-07
34	0x357a0cf0	9.3151084e-07
35	0x361acb55	2.3066143e-06
36	0x3646a64e	2.9601101e-06
37	0xb5198610	-5.719203e-07
38	0xb599205b	-1.1408805e-06
39	0xb4ce2c42	-3.8402692e-07
40	0x3620c9bb	2.395928e-06
41	0xb43f53ad	-1.7818702e-07
42	0xb5dcfcad	-1.6464816e-06
43	0xb41ba9b7	-1.4497242e-07
44	0x34580ede	2.0121976e-07
45	0xb6800f3b	-3.8164703e-06
46	0x3621dace	2.411823e-06
47	0xb5c65858	-1.4777861e-06
48	0xb4b3e8dc	-3.3510776e-07
49	0xb582230a	-9.695952e-07
50	0x360a8167	2.0638925e-06
51	0xb5bd92d9	-1.4124336e-06
52	0xb57281a5	-9.0340683e-07
53	0x35a86cda	1.2548655e-06
54	0x3355519c	4.966715e-08
55	0x3652891f	3.1372253e-06
56	0xb56cced0	-8.82178e-07
57	0x33f7c782	1.1538124e-07
58	0xb64156ee	-2.880984e-06
59	0xb58f8059	-1.0691684e-06
60	0xb6895a5a	-4.0934365e-06
61	0x3b9c09aa	0.0047618942
62	0xb556f9cc	-8.0084715e-07
63	0xb491cc26	-2.7156892e-07
64	0xb4ec2046	-4.3981908e-07
65	0xb69046b2	-4.2997644e-06
66	0xb5728e04	-9.0358685e-07
67	0x346ce7f3	2.2063595e-07
68	0x357e4fd6	9.473855e-07
69	0x35b1c759	1.3245545e-06
70	0xb68274e9	-3.887912e-06
71	0xb62fb593	-2.6182722e-06
72	0xb80c046b	-3.3382716e-05
73	0xba5ed5c4	-0.00085004815
74	0x35ca1368	1.5055821e-06
75	0x34b4c5c4	3.3671506e-07
76	0xb4d479af	-3.9576614e-07
77	0x33c8eb95	9.356078e-08
78	0x368f2789	4.2663346e-06
79	0x3493dfc8	2.7543706e-07
80	0x38a5d8f8	7.908227e-05
81	0x3517ff49	5.662337e-07
82	0xb6b38f71	-5.3513145e-06
83	0x33b6234f	8.481458e-08
84	0x32fded92	2.9561111e-08
85	0xb48add8c	-2.58657e-07
86	0xb506ef15	-5.02668e-07
87	0x3648b746	2.9909002e-06
88	0xb49ad987	-2.8843007e-07
89	0xb64707e6	-2.9657908e-06
90	0x35daf2d7	1.6312941e-06
91	0x39fc981b	0.00048178513
92	0xb54513f9	-7.3417283e-07
93	0xb68f31d9	-4.267535e-06
94	0x362b2922	2.5504928e-06
95	0xb4853a05	-2.4815395e-07
96	0x3c5c8595	0.013459583
97	0xb4981bb3	-2.833236e-07
98	0x35dfdd48	1.6679196e-06
99	0xb5a246ac	-1.2090509e-06
100	0xb62a5106	-2.5379136e-06
101	0xb3b657d2	-8.49101e-08
102	0xb5cc1bae	-1.520724e-06
103	0x36315925	2.6426944e-06
104	0xb4864874	-2.5012162e-07
105	0x3264837b	1.3301242e-08
106	0xb59ffcb0	-1.1919965e-06
107	0xb3b62afb	-8.4828535e-08
108	0xb47268bd	-2.257611e-07
109	0x352568cf	6.1619807e-07
110	0x34328f0d	1.6629583e-07
111	0x365d6025	3.298753e-06
112	0x362cb17b	2.5733304e-06
113	0xb4f0cb76	-4.485152e-07
114	0x35931156	1.0957399e-06
115	0x35f9e796	1.8619346e-06
116	0x32128b15	8.529942e-09
117	0xb59b568e	-1.1573591e-06
118	0x3652324d	3.1321717e-06
119	0xb6a14d2e	-4.807159e-06
120	0xb539d710	-6.923083e-07
121	0xb48821f4	-2.5356678e-07
122	0x3695dd2b	4.4662934e-06
123	0x35be6662	1.41859e-06
124	0xb670a03f	-3.5856062e-06
125	0x3a1188be	0.0005551687
126	0xb4df2a97	-4.1567975e-07
127	0xb4fe0024	-4.731129e-07
128	0xb4d63ad5	-3.9903412e-07
129	0x359a71c1	1.1507001e-06
130	0x34831f69	2.4423505e-07
131	0xb472f13a	-2.2625764e-07
132	0x346d75d0	2.2115205e-07
133	0xb481ec9d	-2.420028e-07
134	0x35b3a0d4	1.3383346e-06
135	0xb453506b	-1.9680162e-07
136	0xb9603c37	-0.00021384736
137	0xb8c5b5e0	-9.427569e-05
138	0xb530e9a2	-6.590509e-07
139	0x3426f4ac	1.5548966e-07
140	0xb55117af	-7.789303e-07
141	0xb5526428	-7.837684e-07
142	0xb508dcfd	-5.098553e-07
143	0xb34d83d3	-4.7850175e-08
144	0x38d2a2b6	0.000100438876
145	0x358aace7	1.0332122e-06
146	0xb845d96e	-4.7170957e-05
147	0xb2e2a8ab	-2.6386564e-08
148	0x33882df9	6.341356e-08
149	0xb2c40428	-2.2819293e-08
150	0xb55d67ca	-8.247995e-07
151	0xb421c838	-1.5067133e-07
152	0xb39e2f17	-7.366014e-08
153	0x35044f51	4.928925e-07
154	0xb4fbe742	-4.6920655e-07
155	0xb98c4236	-0.00026752212
156	0xb547c0a9	-7.4413634e-07
157	0x360cad4d	2.09625e-06
158	0xb4669873	-2.147588e-07
159	0x33733d30	5.6633496e-08
160	0x3b992430	0.0046735033
161	0x346d66e0	2.2109771e-07
162	0x350929f9	5.1097555e-07
163	0xb3d7ee3f	-1.00550544e-07
164	0xb5415120	-7.2016155e-07
165	0xb46cb90f	-2.2046537e-07
166	0xb5033695	-4.888073e-07
167	0x359bfa3e	1.162123e-06
168	0xb15aa922	-3.1819316e-09
169	0xb41871ab	-1.4197455e-07
170	0xb524b382	-6.135598e-07
171	0xb51e5495	-5.898267e-07
172	0xb33a521c	-4.3381178e-08
173	0xb474ca71	-2.2797919e-07
174	0xb43820f1	-1.714832e-07
175	0xb4dbf9d2	-4.0973697e-07
176	0x3506d655	5.0230784e-07
177	0x354d31a6	7.64407e-07
178	0xb6019f1f	-1.9315119e-06
179	0x356d5484	8.8412366e-07
180	0xb36098a6	-5.2292897e-08
181	0x3506f998	5.0282097e-07
182	0xb3b179a4	-8.264331e-08
183	0xb5a39bb3	-1.2189761e-06
184	0x3386b568	6.272859e-08
185	0xb2750caa	-1.4263756e-08
186	0x353fcef5	7.1454207e-07
187	0x35282693	6.264101e-07
188	0x35b80311	1.3709961e-06
189	0xba76e861	-0.00094187824
190	0x34d0207d	3.8766657e-07
191	0x33e369e0	1.058977e-07
192	0xb214a56e	-8.652348e-09
193	0xb3d66f9f	-9.985455e-08
194	0x326faced	1.395095e-08
195	0xb1285ee7	-2.4501163e-09
196	0x31c311fa	5.6772906e-09
197	0x33de34b3	1.03472665e-07
198	0xb3bc1b37	-8.7593826e-08
199	0xb37a8738	-5.833064e-08
200	0xb49a44e5	-2.8734863e-07
201	0xb4a5a7eb	-3.085582e-07
202	0x34951646	2.776962e-07
203	0x315d2974	3.2183296e-09
204	0xb3dfb915	-1.0417913e-07
205	0xb3377233	-4.271187e-08
206	0x32c20f15	2.2591431e-08
207	0x32701902	1.3975525e-08
208	0x33c102a5	8.987744e-08
209	0x31803454	3.7312393e-09
210	0xb41b034c	-1.44367e-07
211	0x3380462d	5.9732294e-08
212	0xb29832db	-1.7718255e-08
213	0xb0b3d582	-1.3084647e-09
214	0xb362b22c	-5.2781772e-08
215	0x33c796f7	9.29412e-08
216	0xb2ea0176	-2.724185e-08
217	0x32b8d5f7	2.151772e-08
218	0xb327bb43	-3.905303e-08
219	0x39caf264	0.00038709037
220	0xb328fd3e	-3.934587e-08
221	0xb40120ac	-1.2025947e-07
222	0x339de118	7.3518265e-08
223	0xb30a2e27	-3.2172604e-08
224	0x3bc10d74	0.0058914963
225	0xb2e1d3f6	-2.6289836e-08
226	0xb4421178	-1.8074013e-07
227	0xb23d6871	-1.1024995e-08
228	0xb3f7030d	-1.1502389e-07
229	0xb2529704	-1.2257946e-08
230	0x320c591f	8.169336e-09
231	0xb37561d8	-5.7132496e-08
232	0xb2b8c823	-2.151143e-08
233	0xb21be0a5	-9.073266e-09
234	0x3170290e	3.4947933e-09
235	0xb1dec413	-6.4833414e-09
236	0xaf624f7b	-2.0582817e-10
237	0xb3599fdd	-5.0669644e-08
238	0x3211f847	8.496563e-09
239	0x336dd1f1	5.5371803e-08
240	0xb2ab969e	-1.9975513e-08
241	0xb2a1108b	-1.875039e-08
242	0xb2d5502a	-2.4832918e-08
243	0xb39a529e	-7.186212e-08
244	0x323bac1e	1.09239675e-08
245	0xb1a2a2d2	-4.733331e-09
246	0x32eb07e0	2.7361182e-08
247	0xb34dc04a	-4.7905168e-08
248	0x31e1620a	6.5595076e-09
249	0xb32acf41	-3.9769706e-08
250	0x32b229fd	2.0741021e-08
251	0xb277c3c5	-1.4421805e-08
252	0x348e5eef	2.6518634e-07
253	0x3aac887c	0.0013163234
254	0xb24c7a00	-1.1902102e-08
255	0x32fa2008	2.9118397e-08

rnn.bias_ih_l0 f4 [256]
0	0xbd7e2ff4	-0.06205745
1	0xbd638e8f	-0.055555876
2	0xbd42a938	-0.04752466
3	0xbd6f4319	-0.0584136
4	0xbd6e30a1	-0.058151845
5	0xbd6aad35	-0.05729409
6	0xbd6442e4	-0.055727854
7	0xbd5c1d57	-0.05373892
8	0x3eb373dc	0.3504933
9	0x3deacdef	0.1146506
10	0xbda40974	-0.080096155
11	0xbd1906e0	-0.037360072
12	0xbd76c88e	-0.060249858
13	0xbd5bb3e6	-0.05363836
14	0xbd6d597c	-0.057946667
15	0xbd21e0f8	-0.039521188
16	0x3ec29f23	0.38012037
17	0xbd6cebf7	-0.05784222
18	0x3d9c7b89	0.0764075
19	0xbd542cbd	-0.05180048
20	0xbd443808	-0.047904998
21	0xbd1af8d0	-0.037834942
22	0xbd821d50	-0.06353247
23	0xbd8f6195	-0.07001034
24	0xbd27e917	-0.040993776
25	0xbd517900	-0.051140785
26	0xbd47a367	-0.048739817
27	0xbe91aaca	-0.28450614
28	0xbd8048fd	-0.062639214
29	0xbd859c7f	-0.0652399
30	0xbd8531bc	-0.06503627
31	0xbd16d072	-0.036819883
32	0x3e64f4ca	0.22359005
33	0xbd109225	-0.035295624
34	0xbd881617	-0.06644838
35	0xbd31e3e4	-0.043430224
36	0xbd8ae9aa	-0.06782849
37	0xbd8bd51f	-0.06827759
38	0xbd5d4222	-0.054018147
39	0xbd95e86e	-0.07319723
40	0xbd3bc644	-0.045843378
41	0xbd08eac8	-0.03342703
42	0xbd3218dd	-0.043480743
43	0xbd5c7be5	-0.053829093
44	0xbd36124e	-0.04445105
45	0xbd4cf8eb	-0.050042074
46	0xbd1bcfbe	-0.038039915
47	0xbd7fa517	-0.0624133
48	0xbd64b714	-0.05583866
49	0xbd009972	-0.031396337
50	0xbd8d0721	-0.06886125
51	0xbd88a8ab	-0.06672796
52	0xbd5e0f32	-0.05421371
53	0xbd62758f	-0.055287894
54	0xbd8e6535	-0.069528975
55	0xbd6b61e1	-0.05746639
56	0xbd7a6f4d	-0.0611413
57	0xbd47b6e5	-0.048758406
58	0xbd78067e	-0.060553066
59	0xbd67efc4	-0.056625143
60	0xbd6bb7bd	-0.057548273
61	0xbd6026c5	-0.054724474
62	0xbcfea723	-0.031085556
63	0xbd24146e	-0.040058546
64	0xbd6554d5	-0.055989105
65	0xbd50058e	-0.050786547
66	0xbd291530	-0.04127997
67	0xbd37ce4a	-0.044874467
68	0xbd2d7af2	-0.042353578
69	0xbd59f600	-0.05321312
70	0xbd4c9ff6	-0.04995724
71	0xbd42d84e	-0.047569565
72	0xbe6a1b9d	-0.22862096
73	0x3d877ca1	0.06615568
74	0xbd99db8c	-0.07512578
75	0xbce33f34	-0.027740099
76	0xbd5c9ee8	-0.053862482
77	0xbd4a6912	-0.04941661
78	0xbd54cae7	-0.051951315
79	0xbcf89bde	-0.03034776
80	0xbe5a4c07	-0.21318065
81	0xbd5ba80b	-0.053627055
82	0xbd3951df	-0.045244094
83	0xbd3a7723	-0.045523774
84	0xbd30d4bf	-0.04317164
85	0xbd037109	-0.03209022
86	0xbd665d28	-0.056241184
87	0xbd816967	-0.06318932
88	0xbd079985	-0.033105392
89	0xbd41b73b	-0.047293883
90	0xbd345c54	-0.044033363
91	0x3ca3180d	0.01990893
92	0xbd5ae5e4	-0.053441897
93	0xbd65be8f	-0.056089934
94	0xbd7b2645	-0.061315794
95	0xbceb4aea	-0.028722245
96	0xbd0d8fe0	-0.034561038
97	0xbcee7c7a	-0.02911209
98	0xbd758fc9	-0.059951577
99	0xbd145220	-0.036211133
100	0xbd832d99	-0.064051814
101	0xbd63fd49	-0.055661473
102	0xbd4d22b5	-0.050081927
103	0xbd888be0	-0.06667304
104	0xbd230d9c	-0.0398079
105	0xbcc8a511	-0.024492772
106	0xbd1f60cb	-0.03891067
107	0xbd3ad552	-0.045613594
108	0xbd0cea71	-0.03440327
109	0xbd3c2e73	-0.045942735
110	0xbd0aafee	-0.033859186
111	0xbd68148b	-0.056660216
112	0xbd4caca3	-0.049969327
113	0xbcc6f451	-0.024286421
114	0xbd803cb1	-0.06261576
115	0xbd6ff060	-0.05857885
116	0xbd2fd1b2	-0.04292459
117	0xbd4d2c8a	-0.050091304
118	0xbd850209	-0.06494529
119	0xbd56137c	-0.052264675
120	0xbd68db27	-0.056849625
121	0xbd24ef43	-0.04026724
122	0xbd5d6869	-0.05405465
123	0xbd56d100	-0.05244541
124	0xbd5b4192	-0.05352933
125	0xbe1ac455	-0.15113957
126	0xbcbbedf2	-0.02294061
127	0xbd013b0f	-0.031550463
128	0x3c4308a6	0.011903917
129	0x3c37b280	0.011211991
130	0xbc8488d9	-0.016178535
131	0x3c448a69	0.01199589
132	0x3c181484	0.009282235
133	0xba87a503	-0.001034886
134	0xbadcf61e	-0.0016858017
135	0xbc366316	-0.011132022
136	0xbbf59250	-0.0074942484
137	0x3e217b54	0.15769702
138	0xbc1167e9	-0.008874872
139	0xbc5847c4	-0.013200704
140	0xbb9a2d9e	-0.004705145
141	0x3c415c7b	0.011801834
142	0x3c9c2cd9	0.019064354
143	0xbbbed9ea	-0.005824317
144	0x3dce0d72	0.10061158
145	0x3b6c857a	0.00360903
146	0xbe090452	-0.13380554
147	0xbbf4ac0f	-0.0074668
148	0xbad296a0	-0.0016066618
149	0x3abc0a9e	0.0014346426
150	0x3b3e6f3c	0.0029058
151	0x3c21c201	0.009872914
152	0xbbda3fa8	-0.0066604204
153	0xbac0d7f5	-0.0014712798
154	0xbc21705b	-0.009853448
155	0x3d4da90e	0.05021005
156	0xbb963e82	-0.004585088
157	0xbb881592	-0.004152962
158	0xbb5e0dac	-0.003388266
159	0x3c7bd064	0.015369508
160	0x3db1b4fc	0.08677098
161	0xbac1bd6e	-0.0014781186
162	0xbb94b2c2	-0.004537911
163	0x3bf7f90e	0.0075675314
164	0xbb86065c	-0.0040901136
165	0xbb94cdfe	-0.0045411577
166	0x3bacd4d8	0.0052743964
167	0x3bbb7943	0.0057212426
168	0x3bc4ee14	0.0060098264
169	0xbc221cd8	-0.009894572
170	0x3c287c56	0.01028355
171	0x3bdb6794	0.006695697
172	0xbc1dd97b	-0.009634371
173	0xb9dd82e4	-0.00042249926
174	0xbc410d4c	-0.011782955
175	0xba7b1bb3	-0.00095790176
176	0xbbeda633	-0.0072524785
177	0xba354fbd	-0.0006916484
178	0xbc10ec57	-0.00884541
179	0xbbf41de4	-0.0074498523
180	0xbbefb944	-0.0073157866
181	0xbc171359	-0.009220921
182	0x3c0eecb3	0.008723426
183	0xba20d52b	-0.000613528
184	0xbbb3f09f	-0.0054913308
185	0xba159236	-0.0005705686
186	0x383e7934	4.541241e-05
187	0xba162820	-0.0005728025
188	0xba8f8fdc	-0.0010952908
189	0x3dd1b99a	0.10240479
190	0x3bbe433d	0.0058063553
191	0xbbb5a906	-0.005543831
192	0xbd7e346a	-0.062061705
193	0xbd63946e	-0.055561475
194	0xbd42b1cd	-0.047532845
195	0xbd6f6040	-0.0584414
196	0xbd6e459a	-0.058171846
197	0xbd6ab165	-0.057298083
198	0xbd644684	-0.05573131
199	0xbd5c22e9	-0.05374423
200	0x3ec5ed5d	0.38657656
201	0x3e5756d5	0.21029218
202	0xbda40f23	-0.080106996
203	0xbd190f88	-0.037368327
204	0xbd76ccc6	-0.06025388
205	0xbd5bb553	-0.05363972
206	0xbd6d5fda	-0.05795274
207	0xbd21eec0	-0.03953433
208	0x3ec9796b	0.39350447
209	0xbd6ced8f	-0.05784374
210	0x3e5f2d8c	0.21794719
211	0xbd5431b2	-0.051805206
212	0xbd443bcc	-0.04790859
213	0xbd1b0265	-0.03784408
214	0xbd8220f0	-0.063539386
215	0xbd8f6370	-0.07001388
216	0xbd27f62b	-0.04100625
217	0xbd517b95	-0.051143248
218	0xbd47a4b9	-0.048741076
219	0xbe339384	-0.17536741
220	0xbd804e1e	-0.062649
221	0xbd85a0d1	-0.06524814
222	0xbd8532b4	-0.065038115
223	0xbd16dc72	-0.036831327
224	0x3e3b64c5	0.1830016
225	0xbd109bf4	-0.03530498
226	0xbd881731	-0.066450484
227	0xbd31e9e9	-0.043435965
228	0xbd8ae9e2	-0.06782891
229	0xbd8bdf23	-0.06829669
230	0xbd5d4441	-0.05402017
231	0xbd95e77c	-0.07319543
232	0xbd3bccd3	-0.045849632
233	0xbd08f4af	-0.033436473
234	0xbd321d10	-0.043484747
235	0xbd5c8e81	-0.05384684
236	0xbd36212e	-0.044465236
237	0xbd4cfafb	-0.05004404
238	0xbd1bd41a	-0.038044073
239	0xbd7fa608	-0.0624142
240	0xbd64bb5b	-0.05584274
241	0xbd00a0d7	-0.03140339
242	0xbd8d09bb	-0.068866216
243	0xbd88ac46	-0.066734836
244	0xbd5e2d0a	-0.05424217
245	0xbd6278a0	-0.05529082
246	0xbd8e65e7	-0.0695303
247	0xbd6b658e	-0.057469897
248	0xbd7a6e90	-0.061140597
249	0xbd47ccc9	-0.048779283
250	0xbd780de6	-0.06056013
251	0xbd67f2c7	-0.056628015
252	0xbd6bc147	-0.05755737
253	0xbe80fe01	-0.2519379
254	0xbcfec036	-0.031097513
255	0xbd241ded	-0.040067602

rnn.bias_hh_l0 f4 [256]
0	0xbd7e2ff4	-0.06205745
1	0xbd638e8f	-0.055555876
2	0xbd42a938	-0.04752466
3	0xbd6f4319	-0.0584136
4	0xbd6e30a1	-0.058151845
5	0xbd6aad35	-0.05729409
6	0xbd6442e4	-0.055727854
7	0xbd5c1d57	-0.05373892
8	0x3eb373dc	0.3504933
9	0x3e012b06	0.12614068
10	0xbda40974	-0.080096155
11	0xbd1906e0	-0.037360072
12	0xbd76c88e	-0.060249858
13	0xbd5bb3e6	-0.05363836
14	0xbd6d597c	-0.057946667
15	0xbd21e0f8	-0.039521188
16	0x3ec29f23	0.38012037
17	0xbd6cebf7	-0.05784222
18	0x3cb0c188	0.021576658
19	0xbd542cbd	-0.05180048
20	0xbd443808	-0.047904998
21	0xbd1af8d0	-0.037834942
22	0xbd821d50	-0.06353247
23	0xbd8f6195	-0.07001034
24	0xbd27e917	-0.040993776
25	0xbd517900	-0.051140785
26	0xbd47a367	-0.048739817
27	0xbe919559	-0.28434256
28	0xbd8048fd	-0.062639214
29	0xbd859c7f	-0.0652399
30	0xbd8531bc	-0.06503627
31	0xbd16d072	-0.036819883
32	0x3e56e02a	0.2098395
33	0xbd109225	-0.035295624
34	0xbd881617	-0.06644838
35	0xbd31e3e4	-0.043430224
36	0xbd8ae9aa	-0.06782849
37	0xbd8bd51f	-0.06827759
38	0xbd5d4222	-0.054018147
39	0xbd95e86e	-0.07319723
40	0xbd3bc644	-0.045843378
41	0xbd08eac8	-0.03342703
42	0xbd3218dd	-0.043480743
43	0xbd5c7be5	-0.053829093
44	0xbd36124e	-0.04445105
45	0xbd4cf8eb	-0.050042074
46	0xbd1bcfbe	-0.038039915
47	0xbd7fa517	-0.0624133
48	0xbd64b714	-0.05583866
49	0xbd009972	-0.031396337
50	0xbd8d0721	-0.06886125
51	0xbd88a8ab	-0.06672796
52	0xbd5e0f32	-0.05421371
53	0xbd62758f	-0.055287894
54	0xbd8e6535	-0.069528975
55	0xbd6b61e1	-0.05746639
56	0xbd7a6f4d	-0.0611413
57	0xbd47b6e5	-0.048758406
58	0xbd78067e	-0.060553066
59	0xbd67efc4	-0.056625143
60	0xbd6bb7bd	-0.057548273
61	0xbd5f3c1b	-0.05450068
62	0xbcfea723	-0.031085556
63	0xbd24146e	-0.040058546
64	0xbd6554d5	-0.055989105
65	0xbd50058e	-0.050786547
66	0xbd291530	-0.04127997
67	0xbd37ce4a	-0.044874467
68	0xbd2d7af2	-0.042353578
69	0xbd59f600	-0.05321312
70	0xbd4c9ff6	-0.04995724
71	0xbd42d84e	-0.047569565
72	0xbe6a1b9d	-0.22862096
73	0x3dc74778	0.097304285
74	0xbd99db8c	-0.07512578
75	0xbce33f34	-0.027740099
76	0xbd5c9ee8	-0.053862482
77	0xbd4a6912	-0.04941661
78	0xbd54cae7	-0.051951315
79	0xbcf89bde	-0.03034776
80	0xbe5a4c07	-0.21318065
81	0xbd5ba80b	-0.053627055
82	0xbd8c0317	-0.06836527
83	0xbd3a7723	-0.045523774
84	0xbd30d4bf	-0.04317164
85	0xbd037109	-0.03209022
86	0xbd665d28	-0.056241184
87	0xbd816967	-0.06318932
88	0xbd079985	-0.033105392
89	0xbd41b73b	-0.047293883
90	0xbd345c54	-0.044033363
91	0x3cdd01b5	0.026978353
92	0xbd5ae5e4	-0.053441897
93	0xbd65be8f	-0.056089934
94	0xbd7b2645	-0.061315794
95	0xbceb4aea	-0.028722245
96	0x3d399f82	0.045318134
97	0xbcee7c7a	-0.02911209
98	0xbd758fc9	-0.059951577
99	0xbd145220	-0.036211133
100	0xbd832d99	-0.064051814
101	0xbd63fd49	-0.055661473
102	0xbd4d22b5	-0.050081927
103	0xbd888be0	-0.06667304
104	0xbd230d9c	-0.0398079
105	0xbcc8a511	-0.024492772
106	0xbd1f60cb	-0.03891067
107	0xbd3ad552	-0.045613594
108	0xbd0cea71	-0.03440327
109	0xbd3c2e73	-0.045942735
110	0xbd0aafee	-0.033859186
111	0xbd68148b	-0.056660216
112	0xbd4caca3	-0.049969327
113	0xbcc6f451	-0.024286421
114	0xbd803cb1	-0.06261576
115	0xbd6ff060	-0.05857885
116	0xbd2fd1b2	-0.04292459
117	0xbd4d2c8a	-0.050091304
118	0xbd850209	-0.06494529
119	0xbd56137c	-0.052264675
120	0xbd68db27	-0.056849625
121	0xbd24ef43	-0.04026724
122	0xbd5d6869	-0.05405465
123	0xbd56d100	-0.05244541
124	0xbd5b4192	-0.05352933
125	0xbe1a1779	-0.15048017
126	0xbcbbedf2	-0.02294061
127	0xbd013b0f	-0.031550463
128	0xbc3bae2f	-0.011455103
129	0xbc6afcb1	-0.014342473
130	0x3c8cf909	0.017208593
131	0xbc52804f	-0.012847974
132	0xbc4647fc	-0.012102123
133	0x3b716768	0.0036835317
134	0xb979a812	-0.00023809102
135	0x3c35b882	0.011091353
136	0xbe2c7393	-0.16840963
137	0x3e2b0d5d	0.16704316
138	0x3c262352	0.010140257
139	0x3c3fb6cd	0.011701298
140	0x3aa800e9	0.0012817654
141	0xbc71d3fe	-0.0147600155
142	0xbc7fdcaa	-0.015616575
143	0x3b59badd	0.0033222951
144	0x3d3cd702	0.046103485
145	0xbb141b2a	-0.00225992
146	0xbd5073dd	-0.050891746
147	0x3c18ca3a	0.009325558
148	0xba7846d7	-0.0009471005
149	0xbb90ec48	-0.004422698
150	0xbbbd5d4f	-0.0057789455
151	0xbc469bf0	-0.012122139
152	0x3be46c79	0.0069709388
153	0x3b43120d	0.0029765398
154	0x3bec9fe8	0.0072212107
155	0x3e0e3495	0.13887246
156	0x3b920720	0.004456416
157	0x3819bc48	3.6653393e-05
158	0x3b96521e	0.004587426
159	0xbc644f38	-0.013934903
160	0x3cf8c2f0	0.030366391
161	0x3b9d4651	0.004799642
162	0x3adfc9d2	0.0017073697
163	0xbc05be80	-0.0081630945
164	0x399c84e2	0.00029853644
165	0x3b9ca2ca	0.004780148
166	0xbb6dfb35	-0.003631306
167	0xbb468e76	-0.0030297316
168	0xbb16757b	-0.0022958207
169	0x3c265ff0	0.010154709
170	0xbbd3400f	-0.0064468454
171	0xbbea4eac	-0.0071504917
172	0x3c46c5d0	0.012132123
173	0xbb59ab80	-0.0033213794
174	0x3c5e42e0	0.013565749
175	0xbad0de57	-0.0015935403
176	0x3ba3153e	0.0049768975
177	0x3b5918ba	0.003312631
178	0x3bad29c5	0.0052845203
179	0x3bba728b	0.005689924
180	0x3b9eaa7d	0.004842101
181	0x3c524408	0.012833603
182	0xbbd9d483	-0.006647648
183	0xbb8f91b4	-0.004381383
184	0x3bf705e2	0.007538543
185	0x3af366e6	0.0018570095
186	0x3b936171	0.0044977
187	0xba5a2601	-0.0008321703
188	0x3bab1394	0.0052208398
189	0x3e2ea82a	0.17056337
190	0xbb85bda5	-0.0040814453
191	0x3c02eff9	0.007991784
192	0xbd7e346a	-0.062061705
193	0xbd63946e	-0.055561475
194	0xbd42b1cd	-0.047532845
195	0xbd6f6040	-0.0584414
196	0xbd6e459a	-0.058171846
197	0xbd6ab165	-0.057298083
198	0xbd644684	-0.05573131
199	0xbd5c22e9	-0.05374423
200	0x3ec5ed5d	0.38657656
201	0x3e39b79b	0.18136446
202	0xbda40f23	-0.080106996
203	0xbd190f88	-0.037368327
204	0xbd76ccc6	-0.06025388
205	0xbd5bb553	-0.05363972
206	0xbd6d5fda	-0.05795274
207	0xbd21eec0	-0.03953433
208	0x3ec9796b	0.39350447
209	0xbd6ced8f	-0.05784374
210	0x3e65ade7	0.2242962
211	0xbd5431b2	-0.051805206
212	0xbd443bcc	-0.04790859
213	0xbd1b0265	-0.03784408
214	0xbd8220f0	-0.063539386
215	0xbd8f6370	-0.07001388
216	0xbd27f62b	-0.04100625
217	0xbd517b95	-0.051143248
218	0xbd47a4b9	-0.048741076
219	0xbe32b8b5	-0.17453273
220	0xbd804e1e	-0.062649
221	0xbd85a0d1	-0.06524814
222	0xbd8532b4	-0.065038115
223	0xbd16dc72	-0.036831327
224	0x3e32c0fa	0.17456427
225	0xbd109bf4	-0.03530498
226	0xbd881731	-0.066450484
227	0xbd31e9e9	-0.043435965
228	0xbd8ae9e2	-0.06782891
229	0xbd8bdf23	-0.06829669
230	0xbd5d4441	-0.05402017
231	0xbd95e77c	-0.07319543
232	0xbd3bccd3	-0.045849632
233	0xbd08f4af	-0.033436473
234	0xbd321d10	-0.043484747
235	0xbd5c8e81	-0.05384684
236	0xbd36212e	-0.044465236
237	0xbd4cfafb	-0.05004404
238	0xbd1bd41a	-0.038044073
239	0xbd7fa608	-0.0624142
240	0xbd64bb5b	-0.05584274
241	0xbd00a0d7	-0.03140339
242	0xbd8d09bb	-0.068866216
243	0xbd88ac46	-0.066734836
244	0xbd5e2d0a	-0.05424217
245	0xbd6278a0	-0.05529082
246	0xbd8e65e7	-0.0695303
247	0xbd6b658e	-0.057469897
248	0xbd7a6e90	-0.061140597
249	0xbd47ccc9	-0.048779283
250	0xbd780de6	-0.06056013
251	0xbd67f2c7	-0.056628015
252	0xbd6bc147	-0.05755737
253	0xbe80e82b	-0.2517713
254	0xbcfec036	-0.031097513
255	0xbd241ded	-0.040067602

rnn.weight_ih_l1 f4 [256, 64]
0	0x36e935a3	6.9501853e-06
1	0x35d83435	1.6108448e-06
2	0x36967948	4.4844674e-06
3	0x35369cd3	6.802849e-07
4	0x36079111	2.0201007e-06
5	0x35384b5c	6.8655004e-07
6	0x3646d450	2.9627881e-06
7	0xb68abefc	-4.134954e-06
8	0xb9ba6bca	-0.00035556994
9	0xbc3f64e1	-0.011681766
10	0x35b1fda3	1.3261346e-06
11	0xb6064da5	-2.001275e-06
12	0x35ffc3fa	1.9056017e-06
13	0x3610a1c2	2.1551828e-06
14	0xb6955f08	-4.451609e-06
15	0x368ac02e	4.135093e-06
16	0x39b8959c	0.00035206683
17	0xb55cbe05	-8.22329e-07
18	0xb9b11c21	-0.00033781028
19	0x36357b0d	2.7042727e-06
20	0x36df7a21	6.6601356e-06
21	0xb556066b	-7.973055e-07
22	0x35b0a9dd	1.3162459e-06
23	0x354a9c9c	7.547876e-07
24	0xb50cfa49	-5.2518277e-07
25	0x35a937f1	1.2607762e-06
26	0xb7611455	-1.3415779e-05
27	0x3b8a7996	0.00422592
28	0x368d2890	4.2068496e-06
29	0x35bd7094	1.4114362e-06
30	0x36c85135	5.969918e-06
31	0x36208e88	2.3924822e-06
32	0x3d096454	0.033542946
33	0xb5f459a1	-1.8205502e-06
34	0x36578bbd	3.2118835e-06
35	0xb683b464	-3.9251045e-06
36	0xb6b2100f	-5.306683e-06
37	0x3544ef82	7.336422e-07
38	0x3613239a	2.192543e-06
39	0x36ae12ea	5.187806e-06
40	0xb6497c06	-3.0023525e-06
41	0xb34283b7	-4.528894e-08
42	0xb69160b8	-4.3325963e-06
43	0xb6b0e141	-5.2714317e-06
44	0xb641202e	-2.8777972e-06
45	0x3664066f	3.3978392e-06
46	0x363e2233	2.8332113e-06
47	0x36b2b4a5	5.325843e-06
48	0xb59575a4	-1.1135603e-06
49	0xb4d9b37e	-4.0549997e-07
50	0x3615511c	2.2249942e-06
51	0xb48e923d	-2.6555963e-07
52	0xb6681c8e	-3.4587315e-06
53	0xb568e1ca	-8.67553e-07
54	0xb5635959	-8.469411e-07
55	0x35e5dc34	1.7125917e-06
56	0xb61601d0	-2.2352797e-06
57	0xb63c3ee5	-2.8050792e-06
58	0xb6c1d78c	-5.776941e-06
59	0xb534f137	-6.740624e-07
60	0x37122e4e	8.713059e-06
61	0x3bd7aacd	0.0065816403
62	0x36edf299	7.0913925e-06
63	0x36cbfa7e	6.0790326e-06
64	0xb7ee559b	-2.8411674e-05
65	0x37118c91	8.675402e-06
66	0xb8351a00	-4.3177977e-05
67	0xb6aa2464	-5.0706312e-06
68	0xb7bd83e6	-2.2591976e-05
69	0x383cac20	4.4982997e-05
70	0x3687afed	4.043794e-06
71	0x3841b6e9	4.6185134e-05
72	0xba411193	-0.00073649845
73	0xbce04e5b	-0.027381113
74	0x372429a0	9.784853e-06
75	0x35bc78c0	1.4042234e-06
76	0xb7cb8699	-2.4262163e-05
77	0x371788a5	9.032116e-06
78	0x35c5f493	1.4748824e-06
79	0x37a8b804	2.011285e-05
80	0x39a1750e	0.00030795526
81	0x38230ec5	3.8875984e-05
82	0xba2252c5	-0.0006192143
83	0xb789a070	-1.6406382e-05
84	0xb77ac659	-1.4947343e-05
85	0x379fbc89	1.904207e-05
86	0xb763ec53	-1.3585278e-05
87	0x36a96123	5.0479007e-06
88	0x35e6102a	1.714104e-06
89	0xb7995e00	-1.8282793e-05
90	0x38428ba7	4.6383266e-05
91	0xbc1ef775	-0.009702553
92	0xb813016f	-3.5048866e-05
93	0xb80eb889	-3.40273e-05
94	0xb7e77e04	-2.7596026e-05
95	0xb69f1c84	-4.741889e-06
96	0x3d048f06	0.03236296
97	0xb7d44cd4	-2.5308145e-05
98	0xb83360ec	-4.276719e-05
99	0xb5889dff	-1.0178773e-06
100	0xb8300c53	-4.1973148e-05
101	0xb76de05c	-1.4178539e-05
102	0xb82e1069	-4.1500116e-05
103	0xb87ac319	-5.9786344e-05
104	0xb794c045	-1.7732507e-05
105	0x37240167	9.775488e-06
106	0x3742aaa5	1.1603032e-05
107	0xb6adb4d0	-5.176851e-06
108	0xb79a4cba	-1.839396e-05
109	0x36e25ba9	6.7459955e-06
110	0xb79b1776	-1.8488365e-05
111	0xb7364d28	-1.086601e-05
112	0x380883fc	3.2547847e-05
113	0xb7df441c	-2.6615387e-05
114	0xb7825632	-1.5537345e-05
115	0xb7bed760	-2.2750057e-05
116	0x37c90055	2.3961222e-05
117	0xb795b078	-1.7844359e-05
118	0x38021ab3	3.101928e-05
119	0xb7f8b7f2	-2.964956e-05
120	0x3756bc87	1.2799289e-05
121	0xb71e32bd	-9.429347e-06
122	0x37521fd3	1.2524385e-05
123	0x380f57f3	3.4175766e-05
124	0x3826403f	3.9637318e-05
125	0xbc17872d	-0.009248537
126	0xb774a240	-1.458131e-05
127	0xb8032043	-3.126288e-05
128	0xb7229c05	-9.692279e-06
129	0xb6e80476	-6.914658e-06
130	0xb80ce8ef	-3.3595537e-05
131	0xb752d19c	-1.2565779e-05
132	0xb74852ed	-1.1940237e-05
133	0x37e56be0	2.734916e-05
134	0xb6eb903b	-7.0203364e-06
135	0x3846c9cc	4.7394817e-05
136	0xb9b53d53	-0.000345687
137	0xbd05752f	-0.032582458
138	0xb88c821f	-6.699957e-05
139	0x37121524	8.7072e-06
140	0xb753b86a	-1.2619517e-05
141	0x36b64f3d	5.433247e-06
142	0x36d5d7a1	6.372997e-06
143	0x376376ed	1.3557944e-05
144	0x389acf0a	7.381856e-05
145	0x37abe7e0	2.0492764e-05
146	0x3ae05f7c	0.00171183
147	0xb75acb08	-1.30410845e-05
148	0xb788ebba	-1.6322232e-05
149	0x36bf4a4d	5.7008933e-06
150	0x36fa198b	7.453554e-06
151	0x371f43ff	9.49297e-06
152	0x35dc51dc	1.6415102e-06
153	0xb774d3cd	-1.4592847e-05
154	0x384ecfec	4.930787e-05
155	0xbcb38212	-0.021912608
156	0xb78afbb2	-1.6568087e-05
157	0xb7143184	-8.833016e-06
158	0xb7ccfec9	-2.4437339e-05
159	0xb6c5475e	-5.8793657e-06
160	0x3b82f78c	0.003996795
161	0xb74aaa43	-1.207978e-05
162	0xb8050b21	-3.1720036e-05
163	0xb2e65fa4	-2.6819016e-08
164	0xb80ec019	-3.4034343e-05
165	0xb7bbd600	-2.2391789e-05
166	0xb7ec92f0	-2.8201815e-05
167	0xb851bdef	-5.0006372e-05
168	0xb7aa3615	-2.0290763e-05
169	0xb3b30938	-8.337014e-08
170	0x37313b39	1.0563811e-05
171	0xb624fab2	-2.4583828e-06
172	0xb77424bd	-1.4552087e-05
173	0x3786d151	1.6071515e-05
174	0xb7eb809e	-2.8074075e-05
175	0x360e96a8	2.1247342e-06
176	0x37c47fa0	2.342445e-05
177	0xb79f77d0	-1.9010069e-05
178	0x370247d2	7.765326e-06
179	0xb73069ea	-1.05150775e-05
180	0x37c26047	2.3171435e-05
181	0xb7780177	-1.4782293e-05
182	0x37b84b75	2.1969647e-05
183	0x3583b32d	9.812408e-07
184	0x37307729	1.0518162e-05
185	0xb6e545c8	-6.8328554e-06
186	0x366b7fc1	3.5092091e-06
187	0x375cb60b	1.3155407e-05
188	0x3980aa13	0.00024540778
189	0xbcc8f7d6	-0.02453224
190	0xb6a87ce1	-5.021328e-06
191	0xb7f469c5	-2.913632e-05
192	0xb5918e1a	-1.0844699e-06
193	0x3613cce3	2.2023967e-06
194	0xb53c3345	-7.0110065e-07
195	0xb42aefff	-1.5919794e-07
196	0xb50507e4	-4.9557843e-07
197	0x3667ecbe	3.4559484e-06
198	0x35c35f81	1.4556427e-06
199	0x353884bb	6.873849e-07
200	0xb761c39a	-1.3456587e-05
201	0xbbca3c92	-0.0061717713
202	0x36547c50	3.166282e-06
203	0xb3f08c3d	-1.120138e-07
204	0xb451aa7a	-1.9526661e-07
205	0x34df978a	4.1647246e-07
206	0xb665bade	-3.423243e-06
207	0xb4daa911	-4.0728676e-07
208	0x36d07ddc	6.213535e-06
209	0xb5f48011	-1.8216689e-06
210	0xb65a0ee7	-3.2493206e-06
211	0xb56d198d	-8.832656e-07
212	0xb5733d2c	-9.061357e-07
213	0x332e1b90	4.05376e-08
214	0x33e93878	1.08601796e-07
215	0x3626c9ca	2.4853384e-06
216	0x33abd116	8.0008405e-08
217	0x363ec4e4	2.8426812e-06
218	0xb575ad32	-9.1521645e-07
219	0x3b4ef336	0.003157807
220	0x35fb7236	1.8734197e-06
221	0x35e88114	1.7322914e-06
222	0x35345662	6.718093e-07
223	0x349bc890	2.9016928e-07
224	0x3c92ac34	0.017904378
225	0x3473d964	2.2710225e-07
226	0x36048cac	1.9751415e-06
227	0xb5d9cfbd	-1.622822e-06
228	0x35cca92b	1.5248419e-06
229	0x36399761	2.7655262e-06
230	0xb5e09480	-1.673252e-06
231	0x357ad15d	9.343692e-07
232	0x3636001c	2.7120177e-06
233	0x3314d4e5	3.465256e-08
234	0x364b8da4	3.0331803e-06
235	0x3352b0a5	4.9055092e-08
236	0x34aff094	3.2771334e-07
237	0xb6303c1c	-2.6261032e-06
238	0x35e15040	1.6787162e-06
239	0xb657c351	-3.2151186e-06
240	0x35945fb7	1.1054716e-06
241	0x3543943d	7.2858876e-07
242	0xb63be1c9	-2.7996596e-06
243	0xb6898a10	-4.0989908e-06
244	0xb591bded	-1.0858618e-06
245	0xb615f727	-2.2346592e-06
246	0xb5f9b16f	-1.8603586e-06
247	0xb5ed05c0	-1.765955e-06
248	0xb5c07562	-1.4339278e-06
249	0x34e91cd4	4.3420607e-07
250	0xb65758be	-3.2089151e-06
251	0xb5fd1c1c	-1.885815e-06
252	0x36ccd772	6.104755e-06
253	0x3b3c464a	0.002872842
254	0xb3cc2102	-9.505494e-08
255	0xb502ca91	-4.8723547e-07

rnn.weight_hh_l1 f4 [256, 64]
0	0x35fd371a	1.8866006e-06
1	0xb2d00faf	-2.4221519e-08
2	0xb733eb11	-1.0723962e-05
3	0xb5b5e6a7	-1.355268e-06
4	0xb6a4dad5	-4.9130563e-06
5	0x354be5b6	7.5957666e-07
6	0xb9128fe3	-0.00013977247
7	0x36317ea4	2.644877e-06
8	0xb5dd2d5e	-1.6478987e-06
9	0xb625a891	-2.4685035e-06
10	0xb440e97f	-1.7966339e-07
11	0x36c4edb3	5.868927e-06
12	0x33986e6c	7.098137e-08
13	0x36c36dfb	5.8242563e-06
14	0xb992892f	-0.000279495
15	0xb7088171	-8.13637e-06
16	0x361541cb	2.2241027e-06
17	0xb59095e8	-1.0772465e-06
18	0x35807359	9.570314e-07
19	0xb6d87165	-6.4505025e-06
20	0x36da4573	6.5049912e-06
21	0xb586f6c0	-1.0055592e-06
22	0xbcb68362	-0.022279445
23	0xb58c48e4	-1.0452027e-06
24	0xb5bf5f83	-1.4258407e-06
25	0x35d872ba	1.6126644e-06
26	0xb5eb93c8	-1.7551874e-06
27	0xb4b8950a	-3.438111e-07
28	0x38dd5c7c	0.00010555328
29	0xb6b6d410	-5.44871e-06
30	0x360d4854	2.1052738e-06
31	0xb485aee7	-2.490044e-07
32	0x3685a530	3.9829392e-06
33	0x3ae42718	0.001740667
34	0x37b07afa	2.10381e-05
35	0x3679046d	3.7106468e-06
36	0xb5a1fa7f	-1.2068339e-06
37	0x34ac4fb1	3.209548e-07
38	0x3709c9f4	8.212857e-06
39	0x361bd0f3	2.3218424e-06
40	0xb6c0e95a	-5.7492116e-06
41	0xb79d1f6e	-1.8730494e-05
42	0x36166685	2.2411416e-06
43	0x3503be2d	4.9078045e-07
44	0x349fc0da	2.9756376e-07
45	0x3c021a08	0.007940777
46	0xb52ebbcf	-6.509335e-07
47	0xb671b0ba	-3.6014667e-06
48	0xb4b8b29c	-3.4402626e-07
49	0x372230d3	9.66732e-06
50	0x346a43f6	2.1817672e-07
51	0xb47f274c	-2.3763022e-07
52	0x3592936a	1.0920751e-06
53	0x3623732f	2.4355938e-06
54	0xb6271deb	-2.4902354e-06
55	0xb59f325e	-1.1861082e-06
56	0xb7392b2b	-1.103691e-05
57	0x358c3e6d	1.0448981e-06
58	0xb5dc89de	-1.6431402e-06
59	0xb69a670c	-4.601554e-06
60	0x370d8e2b	8.437356e-06
61	0x3af706f6	0.0018846679
62	0x3575a380	9.1507536e-07
63	0xb5bac20b	-1.3914554e-06
64	0xb848c173	-4.786388e-05
65	0x38c59b1c	9.4225834e-05
66	0xb8ef4f57	-0.00011411186
67	0xb7894211	-1.6362437e-05
68	0x37273980	9.967363e-06
69	0xb7ebce71	-2.8110315e-05
70	0x397c290b	0.00024047882
71	0x37743d63	1.4557826e-05
72	0x37f55506	2.9245868e-05
73	0x36d0bbc0	6.22074e-06
74	0xb7b5102c	-2.1584412e-05
75	0xb5ff2407	-1.9009466e-06
76	0xb813f278	-3.5273348e-05
77	0x3715753d	8.908389e-06
78	0x398d2123	0.00026918305
79	0xb6df2376	-6.650046e-06
80	0xb5f2ee35	-1.8099732e-06
81	0xb79c8446	-1.8658244e-05
82	0x38239f20	3.9010425e-05
83	0xb6ce34b8	-6.1454157e-06
84	0x37e27d20	2.6999565e-05
85	0x385a228d	5.2007428e-05
86	0xbac7730e	-0.0015216784
87	0xb79041c4	-1.7196762e-05
88	0xb7e49830	-2.7250586e-05
89	0x33e55eb9	1.06808734e-07
90	0x37f7c172	2.9534775e-05
91	0xb80d6b95	-3.3717213e-05
92	0xb98e8df5	-0.00027190117
93	0xb732cb75	-1.0656998e-05
94	0xb755ec45	-1.27508e-05
95	0xb7d3d915	-2.5254247e-05
96	0xb80a8084	-3.3021453e-05
97	0xbb070ee3	-0.0020608238
98	0x38e8fd1c	0.000111097674
99	0x37e917ca	2.7786842e-05
100	0x387ea9df	6.0716524e-05
101	0x37be9f7f	2.2724036e-05
102	0xb6b17c01	-5.289447e-06
103	0x37c93a7b	2.39883e-05
104	0xb7c2e820	-2.3234694e-05
105	0xb899183a	-7.300121e-05
106	0xb6f4c76b	-7.294982e-06
107	0xb709fb05	-8.224281e-06
108	0xb78f4456	-1.707875e-05
109	0xbb28af4a	-0.0025739246
110	0xb71945c7	-9.135757e-06
111	0xb720b529	-9.578923e-06
112	0xb71d0ad6	-9.360452e-06
113	0x380e028e	3.3857817e-05
114	0x3875c3fc	5.8595077e-05
115	0xb6a89628	-5.0242706e-06
116	0x37eaa200	2.797041e-05
117	0x37bd94f9	2.2599927e-05
118	0x3737a6b8	1.0946467e-05
119	0x38123218	3.4855766e-05
120	0xb902d198	-0.00012475846
121	0xb5d42c2f	-1.580809e-06
122	0xb77654ac	-1.4682457e-05
123	0xb7f2eb13	-2.8958113e-05
124	0x387a0418	5.9608457e-05
125	0xbbcbf469	-0.0062242043
126	0x3891753b	6.935975e-05
127	0x3798789f	1.817598e-05
128	0xb8471ad0	-4.747027e-05
129	0x38c0177b	9.159647e-05
130	0x37fa679a	2.9850566e-05
131	0xb6f27aef	-7.2264734e-06
132	0x36d2a0c6	6.277204e-06
133	0xb7e02ff5	-2.6725213e-05
134	0x3ab7ed8a	0.0014032584
135	0x371b7a19	9.267148e-06
136	0x37b3529b	2.1376929e-05
137	0x354d451c	7.646902e-07
138	0xb7bf8df3	-2.2835075e-05
139	0xb69ecae1	-4.732385e-06
140	0xb81fc62e	-3.8093123e-05
141	0x368c28a5	4.177057e-06
142	0x399a3548	0.00029412867
143	0xb6c8f6fc	-5.9892172e-06
144	0x35d4d256	1.5856447e-06
145	0xb79fb801	-1.903996e-05
146	0x381679af	3.5876114e-05
147	0x36e7d8f4	6.909593e-06
148	0x37769919	1.4698388e-05
149	0x385ddfd5	5.2898966e-05
150	0x3c98a6f0	0.01863429
151	0xb69eae7b	-4.729079e-06
152	0xb7ece7a8	-2.8241266e-05
153	0xb52f142e	-6.5221946e-07
154	0x38181dcc	3.6267375e-05
155	0xb78a54bc	-1.649034e-05
156	0xb98978e2	-0.0002622074
157	0xb772de8b	-1.4476139e-05
158	0xb73869c7	-1.0991883e-05
159	0xb6d6f06e	-6.4056867e-06
160	0xb72ee195	-1.0423731e-05
161	0xbbff519b	-0.0077917106
162	0x388ce5e5	6.7185414e-05
163	0x37d2542d	2.5073148e-05
164	0x386d0fe3	5.652e-05
165	0x36e6332d	6.860492e-06
166	0xb60d17af	-2.1024423e-06
167	0x36e061e2	6.6871153e-06
168	0xb7896836	-1.63802e-05
169	0x39665d65	0.00021969301
170	0xb6a11795	-4.800919e-06
171	0xb69f0d5d	-4.740125e-06
172	0xb7512a16	-1.246717e-05
173	0xbc8cb1c2	-0.017174605
174	0xb6ffcffa	-7.623804e-06
175	0x35be58f6	1.4181994e-06
176	0xb6a3b1fe	-4.8784996e-06
177	0xb66ddb52	-3.5443413e-06
178	0x3863ac20	5.428132e-05
179	0xb67e9221	-3.7934008e-06
180	0x37738fba	1.4517393e-05
181	0x37c23b39	2.315418e-05
182	0x37e16b0c	2.6871938e-05
183	0x38091beb	3.2689346e-05
184	0x36e07a20	6.6899374e-06
185	0xb8f344d2	-0.00011599962
186	0x355e543d	8.282403e-07
187	0xb6f348cf	-7.2504404e-06
188	0x37983eef	1.8149118e-05
189	0xbc63e40e	-0.013909353
190	0x38586a2c	5.1597293e-05
191	0x374ed98a	1.2329207e-05
192	0x358a1fa0	1.0291005e-06
193	0x353c6539	7.0182756e-07
194	0xb5bb0bef	-1.3936059e-06
195	0xb5c3d69b	-1.4591091e-06
196	0xb3a79ac5	-7.804696e-08
197	0x35445d1f	7.31512e-07
198	0xb6a05221	-4.7779326e-06
199	0x35adfa70	1.2962391e-06
200	0x362bd3e7	2.560433e-06
201	0x34369df1	1.700753e-07
202	0xb43b659d	-1.7452699e-07
203	0x34c145a6	3.5999727e-07
204	0x35c39456	1.4571804e-06
205	0xb4e7ad8b	-4.3153372e-07
206	0xb5a5a900	-1.2342643e-06
207	0x35107276	5.3810743e-07
208	0x351b7168	5.790703e-07
209	0x32afe62d	2.0477353e-08
210	0x35a5cc4d	1.2352917e-06
211	0x3459ac0a	2.0272287e-07
212	0xb469e941	-2.1784673e-07
213	0xb4f3a94a	-4.538545e-07
214	0xbc0d8a5f	-0.008638947
215	0x35cc538d	1.5223501e-06
216	0x358214cb	9.691806e-07
217	0x3346d975	4.6298243e-08
218	0x35300a9d	6.5580554e-07
219	0xb5ac81f3	-1.2852819e-06
220	0xb591ad66	-1.0853807e-06
221	0xb3b8a2f6	-8.59781e-08
222	0xb52d0628	-6.445648e-07
223	0xb59dd585	-1.1759554e-06
224	0x339941ad	7.136564e-08
225	0x38efced2	0.000114349314
226	0xb678266a	-3.697724e-06
227	0xb514f72d	-5.5493985e-07
228	0xb35b9793	-5.1127767e-08
229	0xb40a80a9	-1.2899058e-07
230	0x34a012db	2.9816042e-07
231	0xb427ee4e	-1.5639782e-07
232	0xb48d173c	-2.6280202e-07
233	0x35c073ae	1.4338782e-06
234	0xb50e5c60	-5.3033546e-07
235	0x350d38e0	5.260936e-07
236	0xb598e59c	-1.1391708e-06
237	0x3b43976a	0.0029844888
238	0xb5c6d15c	-1.4813081e-06
239	0x332c6e47	4.0147167e-08
240	0xb3d0c49f	-9.72152e-08
241	0xb516f63b	-5.6237667e-07
242	0x36055f20	1.9873914e-06
243	0xb5b375b4	-1.3370795e-06
244	0xb53dcb2d	-7.0703646e-07
245	0x360b0c61	2.071982e-06
246	0xb58a26e2	-1.0293118e-06
247	0x33986c2b	7.097727e-08
248	0xb5ff8feb	-1.9040866e-06
249	0x33fed8f0	1.18672574e-07
250	0x3463a567	2.1201195e-07
251	0x35053fee	4.963939e-07
252	0xb55d9e63	-8.25594e-07
253	0x39edf93f	0.00045389865
254	0x36080223	2.0266823e-06
255	0xb54d225d	-7.6418456e-07

rnn.bias_ih_l1 f4 [256]
0	0xbd68d017	-0.056839075
1	0xbda1a13c	-0.07892081
2	0xbd8b017e	-0.06787394
3	0xbd7bc115	-0.061463434
4	0xbd2947eb	-0.041328352
5	0xbd32bc86	-0.04363682
6	0x3e21bf17	0.15795551
7	0xbd5c4681	-0.053778175
8	0xbd67f557	-0.05663046
9	0xbd25fe63	-0.040525805
10	0xbd6902b9	-0.056887362
11	0xbcce5e15	-0.025191346
12	0xbd5e123a	-0.0542166
13	0xbd7fbd05	-0.062436122
14	0xbd38a7f6	-0.045082055
15	0xbcaefc04	-0.021360405
16	0xbd78030f	-0.060549792
17	0xbcff9747	-0.031200064
18	0xbdbbbd78	-0.09166998
19	0xbcaf4334	-0.02139435
20	0xbd78adb8	-0.060712546
21	0xbd622640	-0.05521226
22	0x3f5f4427	0.8721337
23	0xbd7ece9f	-0.062208768
24	0xbd648234	-0.055788234
25	0xbd129f2f	-0.03579634
26	0xbd612f54	-0.054976776
27	0xbd6a9560	-0.05727136
28	0x3d8f828e	0.07007323
29	0xbd50df77	-0.050994363
30	0xbd1059de	-0.035241954
31	0xbd6c8359	-0.05774245
32	0xbd917b8e	-0.07103644
33	0x3e53ccbd	0.2068357
34	0x3e0341ed	0.12818117
35	0xbcf63b43	-0.030057555
36	0xbd8269aa	-0.0636781
37	0xbd8b8c2b	-0.06813844
38	0xbd080e07	-0.033216503
39	0xbccb509e	-0.024818715
40	0xbc643b08	-0.01393009
41	0xbda1175d	-0.07865784
42	0xbd7a4222	-0.061098225
43	0xbcf4e90c	-0.029896282
44	0xbd809173	-0.06277742
45	0x3decdc99	0.11565513
46	0xbd4c2216	-0.049837194
47	0xbcbbe07b	-0.022934189
48	0xbd7235b6	-0.059133254
49	0xbce619de	-0.028088506
50	0xbd775bdc	-0.06039034
51	0xbd479b8e	-0.048732333
52	0xbd8335fb	-0.0640678
53	0xbd783ab3	-0.060602855
54	0xbd6e1c68	-0.05813256
55	0xbd5cb2e9	-0.05388156
56	0xbd8c61a5	-0.06854562
57	0xbd9e2fe4	-0.07723978
58	0xbcf6e7dd	-0.030139858
59	0xbd302c6a	-0.043011107
60	0xbd5b5502	-0.053547867
61	0x3e6470ef	0.22308706
62	0xbdd68898	-0.10475272
63	0xbd5612b1	-0.05226392
64	0xbd5aa37e	-0.053378575
65	0xbd9c633a	-0.076361135
66	0xbd862a34	-0.06551018
67	0xbd68efe8	-0.056869417
68	0xbd0e7a24	-0.03478445
69	0xbd25ccce	-0.04047852
70	0xbd099fd0	-0.033599675
71	0xbd475260	-0.048662543
72	0xbd540203	-0.05175973
73	0xbd0a27ca	-0.033729352
74	0xbd5daafe	-0.05411815
75	0xbcbb5ceb	-0.022871455
76	0xbd500615	-0.05078705
77	0xbd586a0d	-0.052835513
78	0xbd606ad7	-0.05478939
79	0xbc8329bf	-0.016011117
80	0xbd6a4cb0	-0.05720204
81	0xbcde2937	-0.027119262
82	0xbdb19c2c	-0.086723655
83	0xbc7e680c	-0.015527736
84	0xbd52d001	-0.0514679
85	0xbd56f2ff	-0.052477833
86	0xbe43ee65	-0.19133909
87	0xbd796e06	-0.060895942
88	0xbd563952	-0.05230076
89	0xbcfa2d53	-0.03053919
90	0xbd5429bc	-0.051797614
91	0xbd615a0f	-0.055017527
92	0xbd18d3d5	-0.037311394
93	0xbd471f36	-0.04861375
94	0xbcffda91	-0.03123215
95	0xbd6212ef	-0.055193838
96	0xbd8a6e40	-0.0675931
97	0xbd215adf	-0.039393302
98	0xbd12955e	-0.03578698
99	0xbccbcac2	-0.024876956
100	0xbd75ee0c	-0.060041472
101	0xbd84ad34	-0.064783484
102	0xbcfa5e30	-0.03056249
103	0xbca3877c	-0.019962065
104	0xbc354a0b	-0.0110650165
105	0xbd8cfb15	-0.068838276
106	0xbd6bd46a	-0.05757562
107	0xbcd9c80e	-0.026584651
108	0xbd5d25f2	-0.053991266
109	0xbe7035d6	-0.23458037
110	0xbd430d98	-0.047620386
111	0xbc899a11	-0.016797097
112	0xbd65bf9d	-0.05609094
113	0xbcac2893	-0.021015441
114	0xbd68f5af	-0.056874927
115	0xbd3b1055	-0.045669872
116	0xbd807d42	-0.06273891
117	0xbd634dad	-0.055494
118	0xbd66a67c	-0.056311116
119	0xbd49f554	-0.04930623
120	0xbd89d9fa	-0.06731029
121	0xbd8f8bdd	-0.07009099
122	0xbcbb0cc3	-0.022833234
123	0xbd093d61	-0.0335058
124	0xbd2aff58	-0.04174742
125	0xbe30b2be	-0.17255685
126	0xbdc7ea6b	-0.097615086
127	0xbd4de3ad	-0.050265957
128	0xbb107873	-0.002204445
129	0x3c2161b2	0.0098499525
130	0xbbce9c59	-0.006305259
131	0x3c4bc56e	0.012437208
132	0x399fb6fb	0.00030463174
133	0x3c02ad0b	0.007975827
134	0x3d13cc80	0.0360837
135	0xbc50b0d5	-0.012737473
136	0xba4a6c2d	-0.0007721808
137	0x3afd819f	0.0019340998
138	0xbbd008bd	-0.006348698
139	0x3c87f2d4	0.016595282
140	0xbabcb919	-0.0014398425
141	0x3c29a120	0.010353357
142	0x3d136365	0.035983462
143	0xbb8bb66a	-0.004263689
144	0x3a3936ea	0.0007065373
145	0xbc90c8dc	-0.017673902
146	0x3c9ff587	0.019526256
147	0xbb02a3e4	-0.0019934112
148	0xbc1615ee	-0.009160502
149	0xbc34e233	-0.011040258
150	0x3c18937b	0.009312506
151	0xbc18614e	-0.009300543
152	0xbccccfe3	-0.025001472
153	0xbc8f10bf	-0.01746404
154	0x3b714b45	0.0036818546
155	0x3acf6083	0.0015821609
156	0x3d5d326d	0.054003168
157	0xbb8be96b	-0.004269769
158	0xbc64d245	-0.013966148
159	0xbc8fe888	-0.017566934
160	0x3c13b429	0.0090151215
161	0x3ca91dab	0.02064403
162	0x3d28e15f	0.041230556
163	0xbbf0ade8	-0.00734495
164	0xba8dfafe	-0.0010832248
165	0xbc850b05	-0.016240606
166	0xbb3bf70f	-0.0028681194
167	0x3c8a795a	0.016903568
168	0xb8eeee3c	-0.00011393099
169	0x3b043376	0.0020172275
170	0xbb6b35a5	-0.003589013
171	0x3bcbd9e8	0.006221045
172	0xbcb6f180	-0.022331953
173	0x3d3b9411	0.045795504
174	0xbc8d4a08	-0.017247215
175	0xbc5f53d4	-0.013630826
176	0x3c947a72	0.018124793
177	0xba0f7a89	-0.0005473276
178	0x3be8ba20	0.007102266
179	0x3a742ece	0.0009314836
180	0xbc808a97	-0.015691085
181	0xb9bb6a3d	-0.00035746573
182	0xbbbd9b91	-0.005786367
183	0xbcc89533	-0.024485206
184	0xbc8ebc57	-0.017423792
185	0xbc4acebe	-0.012378393
186	0x3c520743	0.012819114
187	0x3c5fee1b	0.013667609
188	0xbb25a85e	-0.0025277357
189	0xbca22cc6	-0.01979674
190	0x3c248c34	0.010043193
191	0x3bc63282	0.0060485015
192	0xbd68d2b7	-0.05684158
193	0xbda1a221	-0.07892252
194	0xbd8b0266	-0.06787567
195	0xbd7bc487	-0.06146672
196	0xbd294c3a	-0.04133246
197	0xbd32bd82	-0.04363776
198	0x3e4d667b	0.20058624
199	0xbd5c49ac	-0.053781196
200	0xbd67f6f1	-0.056631986
201	0xbd2602b1	-0.04052991
202	0xbd690464	-0.056888953
203	0xbcce60a8	-0.025192574
204	0xbd5e1465	-0.05421867
205	0xbd7fc3cb	-0.062442582
206	0xbd253d1d	-0.040341485
207	0xbcaf01ae	-0.021363106
208	0xbd7804ff	-0.06055164
209	0xbcff9b97	-0.03120212
210	0xbdbbbe6b	-0.09167179
211	0xbcaf4b2f	-0.021398155
212	0xbd78b3f5	-0.060718495
213	0xbd622902	-0.05521489
214	0x3f8885dc	1.0665851
215	0xbd7ecf35	-0.062209327
216	0xbd6484c8	-0.055790693
217	0xbd12a6cb	-0.035803597
218	0xbd61322d	-0.054979492
219	0xbd6a95af	-0.057271656
220	0x3db39a1b	0.08769628
221	0xbd50e02f	-0.050995048
222	0xbd105c23	-0.03524412
223	0xbd6c84b0	-0.05774373
224	0xbd917cbe	-0.07103871
225	0x3e88122b	0.2657636
226	0x3e23b812	0.15988186
227	0xbcf63e0f	-0.030058889
228	0xbd826a3a	-0.06367917
229	0xbd8b8c79	-0.068139024
230	0xbd080f82	-0.033217914
231	0xbccb5490	-0.024820596
232	0xbc644184	-0.013931636
233	0xbda11f35	-0.078672804
234	0xbd7a4453	-0.061100315
235	0xbcf4ed93	-0.02989844
236	0xbd809331	-0.062780745
237	0x3e73b30a	0.23798767
238	0xbd4c22ae	-0.04983776
239	0xbcbbe5cc	-0.022936724
240	0xbd72371c	-0.059134588
241	0xbce622b2	-0.028092716
242	0xbd775d5a	-0.06039176
243	0xbd479d35	-0.04873391
244	0xbd8336bb	-0.064069234
245	0xbd783c3d	-0.060604323
246	0xbd6e1b2c	-0.058131382
247	0xbd5cb437	-0.053882804
248	0xbd8c626b	-0.06854709
249	0xbd9e31a3	-0.07724311
250	0xbcf6ee14	-0.030142821
251	0xbd303551	-0.043019596
252	0xbd5b5b77	-0.053554025
253	0x3e8f348b	0.27969775
254	0xbdd68a0b	-0.10475548
255	0xbd561349	-0.052264486
