checkpoints/Tend_LSTM_L2_bs16_traindeg0_bsfirst_pos0_rs/Tend_LSTM_L2_bs16_epoch89_best2.2524627626888334.pt (torch, 206215 bytes, 9 tensors)

rnn.weight_ih_l0 f4 [256, 3]
1.5830678 -4.66693e-40 0.55443823 0.16187128 7.18633e-40 0.14166793 0.35059077 -7.83406e-40
0.5321426 -0.122707985 -1.138485e-39 -0.054619737 -0.011173307 1.427004e-39 0.13426921 0.3044412
-1.762416e-39 0.03859591 0.55410254 4.83934e-40 0.17444895 0.07615531 1.057592e-39 0.13154902
0.1995134 -7.44583e-40 0.15489265 0.23219992 1.036937e-39 0.62252545 0.38081616 -4.64176e-40
0.28115126 0.104382835 1.180859e-39 -0.13090181 0.25357467 1.887934e-39 0.023867136 0.041747987
1.272407e-39 0.09290525 0.24398746 1.897582e-39 0.17346482 0.2399369 -1.40424e-39 0.26473415
-0.10224208 1.6888e-41 -0.31008893 0.467904 8.15507e-40 0.31120607 0.47289625 1.082598e-39
0.17236274 0.026443684 1.345115e-39 0.03628928 0.26344025 4.6439e-41 0.25518644 0.36346585
1.077087e-39 -0.087060735 0.6100149 1.241119e-39 0.2007526 -0.19086649 1.366556e-39 -0.07470586
0.079023756 -1.731726e-39 0.026811702 0.23679775 -1.484473e-39 0.10228855 0.075175226 -4.99609e-40
-0.08937469 0.080568805 1.568025e-39 0.010563855 0.2362662 -8.221e-42 0.021158963 -0.11462667
-1.554805e-39 0.01997122 0.31387582 -7.35387e-40 -0.22198863 0.045749433 1.034988e-39 -0.117068656
0.29428938 1.487815e-39 0.13381816 0.60467917 -3.41439e-40 0.2955396 0.26243502 -6.71382e-40
-0.07915349 0.2803532 1.73741e-40 0.097866185 0.097120546 -5.471e-40 0.03426815 0.26760924
2.9427e-40 0.13851503 0.41965392 9.82607e-40 0.3158272 0.6876345 8.617e-42 0.13528936
-0.26308775 -1.071468e-39 -0.09200864 0.11121264 -1.847419e-39 -0.081511356 0.22830434 -1.379824e-39
0.3373496 0.29475167 -1.186793e-39 0.044072665 0.29507044 -2.65313e-40 0.20101528 0.19312164
-3.36e-43 -0.10490976 0.25686923 1.26099e-40 0.04199513 0.27564484 -1.111172e-39 0.1255815
0.25090092 1.446663e-39 0.3826141 0.31285003 1.028504e-39 0.21548703 0.18739058 -3.69242e-40
0.12268419 0.07576614 -1.180967e-39 -0.0860227 -0.021471852 -1.244349e-39 -0.08260987 0.010617055
-1.257043e-39 0.012838942 0.084687695 -4.6965e-40 0.3822651 0.013576514 -1.617955e-39 0.19032073
0.10455512 2.71762e-40 -0.013315481 0.10284969 7.07873e-40 -0.105956316 0.15372197 5.86093e-40
0.12727422 0.040693164 1.92533e-40 -0.12328764 0.036115076 9.49544e-40 -0.30037597 0.4559564
-1.006539e-39 0.20554407 -0.16929625 -4.77672e-40 -0.08737116 0.053887274 -2.026388e-39 0.048803013
-0.026773421 1.5934e-40 -0.16988501 -0.13295332 -1.376563e-39 -0.0011473256 -0.12808673 -1.960044e-39
0.059466235 -0.23968036 -7.05952e-40 -0.13993992 0.033367086 -5.59749e-40 0.10934732 -0.19270056
-1.69023e-40 -0.14457078 -0.21646896 -1.821e-41 -0.25703806 0.090025745 9.27145e-40 0.20519468
0.16888091 1.358597e-39 0.0043465667 -0.34260252 1.019995e-39 -0.30284816 -0.2424524 -7.67263e-40
-0.61364543 0.01780816 1.856784e-39 -0.020248368 0.19917428 1.029028e-39 -0.00506032 -0.065267265
1.024199e-39 0.1005854 -0.5361957 -4.0324e-41 -0.70156413 -0.15172999 1.490299e-39 -0.2674626
-0.13645615 1.58166e-40 -0.17593086 -0.1788658 -8.00317e-40 -0.052405946 -0.06516351 -1.699289e-39
-0.34618926 0.1811529 -6.12027e-40 0.013532785 -0.39885053 1.630478e-39 -0.3620106 -0.08374161
00000000: f7a1 ca3f f314 0580 aaef 0d3f 96c1 253e
00000010: 42d3 0700 6611 113e a280 b33e d187 0880
00000020: 7f3a 083f 534e fbbd a265 0c80 f2b8 5fbd
00000030: 3f10 37bc e889 0f00 de7d 093e b8df 9b3e
00000040: e630 1380 bf16 1e3d aad9 0d3f 0345 0500
00000050: bfa2 323e 51f7 9b3d 2384 0b00 c9b4 063e
00000060: 3e4d 4c3e 981b 0880 2e9c 1e3e d1c5 6d3e
00000070: 8f4a 0b00 d45d 1f3f 56fa c23e ef0d 0580
00000080: 0ff3 8f3e abc6 d53d c1db 0c00 200b 06be
00000090: 8ad4 813e cb8e 1400 0385 c33c f0ff 2a3d
000000a0: f4da 0d00 1c45 be3d d9d7 793e b0a9 1400
000000b0: c3a0 313e 05b2 753e 734a 0f80 3c8b 873e
000000c0: 4c64 d1bd 142f 0000 fac3 9ebe 1d91 ef3e
000000d0: 4de1 0800 6756 9f3e 751f f23e d8c9 0b00
000000e0: dc7f 303e 6da0 d83c a2a5 0e00 11a4 143d
000000f0: a4e1 863e 7481 0000 cca7 823e 3218 ba3e
00000100: 7bba 0b00 e64c b2bd f029 1c3f bc83 0d00
00000110: 1792 4d3e 8172 43be 67e1 0e00 63ff 98bd
00000120: 35d7 a13d 59db 1280 37a4 db3c 1c7b 723e
00000130: 1b2a 1080 a97c d13d 78f5 993d b570 0580
00000140: 140a b7bd 4201 a53d 0413 1100 0514 2d3c
00000150: c4ef 713e eb16 0080 9055 ad3c 63c1 eabd
00000160: 2aee 1080 af9a a33c 55b4 a03e f601 0880
00000170: fd50 63be c263 3b3d 2045 0b00 b1c1 efbd
00000180: 19ad 963e 6c33 1000 a107 093e 41cc 1a3f
00000190: cbb7 0380 f750 973e e25d 863e 8a4f 0780
000001a0: 3a1b a2bd 748a 8f3e 52e4 0100 116e c83d
000001b0: 23e7 c63d 18f5 0580 c25c 0c3d 1404 893e
000001c0: 4e34 0300 e2d6 0d3e e1dc d63e 1cb3 0a00
000001d0: 1ab4 a13e d108 303f 0518 0000 4b89 0a3e
000001e0: 70b3 86be d1aa 0b80 076f bcbd 74c3 e33d
000001f0: da1d 1480 6def a6bd 9dc8 693e 6306 0f80
00000200: 16b9 ac3e b1e9 963e 4cec 0c80 8a85 343d
00000210: 7913 973e 96e3 0280 f3d6 4d3e aec1 453e
00000220: f000 0080 eeda d6bd 5d84 833e 835f 0100
00000230: 1603 2c3d 5221 8d3e 7f19 0c80 7098 003e
00000240: 1676 803e b5c0 0f00 ffe5 c33e e12d a03e
00000250: 0d33 0b00 a2a8 5c3e 51e3 3f3e 4c05 0480
00000260: d941 fb3d 472b 9b3d 0edc 0c80 ab2c b0bd
00000270: bde5 afbc bd8c 0d80 5d2f a9bd 28f3 2d3c
00000280: 20b0 0d80 6d5a 523c be70 ad3d 311d 0580
00000290: 40b8 c33e 0770 5e3c 339e 1180 70e3 423e
000002a0: ff20 d63d 90f5 0200 2d29 5abc dca2 d23d
000002b0: 43b5 0700 a0ff d8bd 4b69 1d3e ca61 0600
000002c0: 2c54 023e e0ad 263d b418 0200 3b7e fcbd
000002d0: 67ed 133d f156 0a00 e1ca 99be 1e73 e93e
000002e0: d2f5 0a80 257a 523e ff5b 2dbe 8e33 0580
000002f0: a7ef b2bd e7b8 5c3d bf10 1680 abe5 473d
00000300: ef53 dbbc 2dbc 0100 56f6 2dbe ea24 08be
00000310: 4cfd 0e80 dc61 96ba 2b29 03be ce57 1580
00000320: de92 733d c56e 75be e8af 0780 694c 0fbe
00000330: edab 083d 5a18 0680 7df1 df3d 4c53 45be
00000340: 2bd7 0180 5d0a 14be 0aaa 5dbe c332 0080
00000350: 7e9a 83be 6b5f b83d 8118 0a00 8e1e 523e
00000360: 1eef 2c3e 37cb 0e00 a56d 8e3b 9969 afbe
00000370: 551b 0b00 ea0e 9bbe 7145 78be d15a 0880
00000380: de17 1dbf 6be2 913c f537 1400 e8df a5bc
00000390: 58f4 4b3e 8334 0b00 0ad1 a5bb d8aa 85bd
000003a0: 0d27 0b00 b8ff cd3d 1f44 09bf 6870 0080
000003b0: b599 33bf 1b5f 1bbe 593a 1000 dcf0 88be
000003c0: 29bb 0bbe e7b8 0100 3827 34be 9928 37be
000003d0: f5b6 0880 9ea7 56bd 7274 85bd ed80 1280
000003e0: b83f b1be 2580 393e 15aa 0680 9db8 5d3c
000003f0: 2336 ccbe 1cc1 1100 7459 b9be b980 abbd

rnn.weight_hh_l0 f4 [256, 64]
-0.06594601 0.41879964 -0.2441475 0.19921535 -0.45331162 -0.25773966 0.39496267 -0.06404414
0.078528754 -0.54416156 0.32177904 -0.1134014 -0.21547171 -0.18105587 -0.5641242 0.071350925
-0.44887263 -0.43150753 0.3670708 -0.019387156 -0.14381495 0.10834215 -0.12586999 0.013252817
-0.56075424 0.3887185 0.30162504 -0.0022014147 0.60903805 -0.22221278 0.24588579 -0.012564761
0.3198614 -0.049532365 0.1458229 0.80847126 -0.020830587 -0.2592127 0.2736519 -0.08525874
0.14605129 0.017019745 0.038247455 -0.015704276 -0.1842474 -0.07750386 0.47484738 0.17478898
-0.6816465 -0.054628935 -0.38884616 -0.31932038 -0.018035384 0.2198536 -0.33671653 0.721873
0.1778387 0.16044612 -0.1771323 -0.13137113 0.24952316 -0.0022141277 -0.015117711 -0.08992834
-0.16365296 -0.17708223 0.1144457 -0.022428086 0.23190464 -0.1417545 0.04827093 0.04006167
0.09613854 -0.120147735 0.0054684267 0.0057893037 0.033737164 -0.15290202 -0.26596388 0.046365704
-0.15656817 -0.3397734 0.12544885 -0.04393152 -0.23549783 -0.072747484 -0.045424864 -0.032234427
-0.22880761 -0.072378166 0.0055444017 -0.14961764 0.28269655 -0.3189627 -0.0559397 0.10073836
0.22520813 0.05315881 -0.022878034 0.03851458 0.017705478 0.114879735 -0.1457687 -0.043023307
0.068925336 0.018386018 -0.016683359 -0.07196254 -0.12767111 -0.0148462495 0.024352176 -0.074013144
-0.15791325 -0.15464862 -0.06718694 -0.0155217135 0.015900321 -0.12830473 -0.2419006 0.41417736
0.05710632 0.11986892 0.0655306 0.09956741 0.22439595 0.037141237 0.11696963 -0.13105279
0.1921972 0.0630317 -0.11658737 0.023952037 -0.082821175 -0.0773732 0.031758603 -0.1234052
0.060766056 -0.42322284 -0.2076876 -0.06852184 -0.06328071 -0.0006603353 -0.37091735 0.079587586
0.13352764 0.22222263 0.067147866 0.06835922 -0.006833635 -0.09571598 -0.20375429 -0.021878334
-0.101038806 0.12655516 -0.08070381 0.0091194315 0.21176924 -0.28228205 -0.07989628 -0.03405001
0.07633464 -0.07142101 0.024374112 -0.055034906 -0.022889625 0.015135632 0.05684973 0.1947954
0.22529331 0.054861575 0.04360868 -0.10062018 -0.09249314 -0.008893431 0.05661328 0.20793457
-0.14504197 -0.1704757 -0.13015448 -0.01786692 -0.080345176 -0.032271642 -0.069118716 0.14705266
-0.008242493 0.17370652 -0.10960996 -0.025303958 0.27222082 0.25324377 0.07662893 -0.08291044
-0.42861363 -0.13485041 0.14848222 -0.24430479 0.32433608 0.16182345 0.036446013 -0.10799516
0.119383976 0.12724268 0.25178573 0.17102844 -0.08041679 0.05228161 0.080003776 -0.09861938
0.0989686 -0.36225194 0.27824232 0.031715304 -0.051137656 0.096566856 0.035469893 -0.12369795
-0.056461636 -0.1127664 -0.025221527 0.13653003 -0.08245834 -0.25360295 0.078860484 0.26442283
0.1698528 0.037616868 -0.2267999 0.26878947 -0.027635869 0.06852494 -0.21916036 -0.12836587
-0.072972514 -0.16681623 -0.2006679 0.069761954 0.04303127 0.029905077 0.22592188 -0.046988048
0.2391311 0.026293196 0.07968663 0.23638506 0.12135526 -0.04058727 -0.22561063 0.09905058
0.0392219 -0.10282014 0.08193991 -0.057491034 0.019174749 -0.04979643 0.12720153 -0.053929903
00000000: b40e 87bd e86c d63e cd01 7abe 1cff 4b3e
00000010: 7618 e8be 74f6 83be 8c38 ca3e 9329 83bd
00000020: afd3 a03d 2c4e 0bbf 39c0 a43e fe3e e8bd
00000030: 9ea4 5cbe b666 39be 726a 10bf 6f20 923d
00000040: a2d2 e5be 8eee dcbe b4f0 bb3e d0d1 9ebc
00000050: 3a44 13be 7de2 dd3d 10e4 00be 5822 593c
00000060: 978d 0fbf 1c06 c73e 996e 9a3e 9c45 10bb
00000070: ebe9 1b3f bf8b 63be 7cc9 7b3e 6ddc 4dbc
00000080: e0c4 a33e 73e2 4abd 9952 153e f9f7 4e3f
00000090: e8a4 aabc 87b7 84be 1a1c 8c3e 229c aebd
000000a0: 788e 153e fe6c 8b3c 5da9 1c3d 41a6 80bc
000000b0: 5aab 3cbe 58ba 9ebd 321f f33e e2fb 323e
000000c0: 6380 2ebf 97c2 5fbd d816 c7be f67d a3be
000000d0: f1be 93bc 4d21 613e 1c66 acbe abcc 383f
000000e0: 591b 363e fd4b 243e 2b62 35be 2786 06be
000000f0: 0083 7f3e e61a 11bb 47b0 77bc 592c b8bd
00000100: a494 27be 0b55 35be 8262 ea3d 1bbb b7bc
00000110: 6978 6d3e 1728 11be bdb7 453d b517 243d
00000120: 48e4 c43d 0410 f6bd 7d30 b33b 33b4 bd3b
00000130: fb2f 0a3d 5992 1cbe 6b2c 88be f7e9 3d3d
00000140: 6853 20be c7f6 adbe aa75 003e 8af1 33bd
00000150: 5826 71be a2fc 94bd 6c0f 3abd 3f08 04bd
00000160: 8b4c 6abe 013b 94bd d0ad b53b 5e35 19be
00000170: 9abd 903e 144f a3be 0721 65bd ea4f ce3d
00000180: f69c 663e 0dbd 593d b76a bbbc 77c1 1d3d
00000190: 140b 913c 1146 eb3d 6444 15be 3539 30bd
000001a0: ba28 8d3d 469e 963c 8aab 88bc 1961 93bd
000001b0: 37bc 02be af3d 73bc 377e c73c 3494 97bd
000001c0: 03b4 21be 355c 1ebe 4e99 89bd c94e 7ebc
000001d0: 6441 823c 5162 03be cab4 77be 0e0f d43e
000001e0: 51e8 693d d67d f53d e834 863d 00ea cb3d
000001f0: 0dc8 653e 6921 183d c68d ef3d b432 06be
00000200: 58cf 443e c416 813d 5cc5 eebd 1037 c43c
00000210: 269e a9bd d775 9ebd 4f15 023d debb fcbd
00000220: d4e5 783d aab0 d8be 0fac 54be 2e55 8cbd
00000230: 5199 81bd 5a1a 2dba e1e8 bdbe d1fe a23d
00000240: 78bb 083e 548e 633e d284 893d ebff 8b3d
00000250: afec dfbb bd06 c4bd f7a4 50be 313a b3bc
00000260: 6fed cebd ad97 013e 0a48 a5bd ab69 153c
00000270: 09da 583e 4687 90be a9a0 a3bd 0678 0bbd
00000280: 5655 9c3d 2e45 92bd 38ac c73c 486c 61bd
00000290: 0683 bbbc 71fb 773c 43db 683d 7278 473e
000002a0: 4ab3 663e 88b6 603d 049f 323d f411 cebd
000002b0: 0b6d bdbd c1b5 11bc 54e3 673d cdec 543e
000002c0: e285 14be 2f91 2ebe 3747 05be a65d 92bc
000002d0: 038c a4bd 452f 04bd 1d8e 8dbd f994 163e
000002e0: 850b 07bc 1fe0 313e 307b e0bd 3f4a cfbc
000002f0: 8760 8b3e 2ba9 813e a1ef 9c3d f3cc a9bd
00000300: 3f73 dbbe 3a16 0abe b90b 183e 092b 7abe
00000310: 610f a63e 0cb5 253e 6a48 153d 912c ddbd
00000320: 967f f43d e84b 023e 0fea 803e 1422 2f3e
00000330: 8fb1 a4bd 3e25 563d 05d9 a33d f5f8 c9bd
00000340: 0db0 ca3d 1679 b9be c775 8e3e e8e7 013d
00000350: b875 51bd d8c4 c53d e148 113d 5a55 fdbd
00000360: 5144 67bd 12f2 e6bd 609d cebc 87ce 0b3e
00000370: ebdf a8bd 3fd8 81be 9b81 a13d 6e62 873e
00000380: e4ed 2d3e 2514 1a3d 3c3e 68be c69e 893e
00000390: 9e64 e2bc ce56 8c3d 936b 60be 5872 03be
000003a0: 9d72 95bd e0d1 2abe e37b 4dbe 5bdf 8e3d
000003b0: 8f41 303d 7efb f43c 1158 673e 8a76 40bd
000003c0: c8de 743e d464 d73c be32 a33d ed0e 723e
000003d0: 1b89 f83d d63e 26bd 7906 67be 08db ca3d
000003e0: 25a7 203d 5e93 d2bd 1dd0 a73d b87b 6bbd
000003f0: 5d14 9d3c 57f7 4bbd 1e41 023e 9ae5 5cbd

rnn.bias_ih_l0 f4 [256]
1.0094544 0.22556801 0.62358516 0.005364498 -0.018871097 0.25957653 0.3568959 0.2758407
0.20022807 0.4373054 0.7930165 0.20696011 0.15046085 0.08265687 0.31330633 0.32601976
-0.04461124 0.6948922 0.55313164 0.04780013 0.37003982 0.27159363 0.13746181 0.060966652
-0.009429264 0.096952766 0.16557758 0.05162819 0.2415523 0.11989869 0.1007967 0.06653529
0.3632216 0.52408546 0.15562503 0.0265121 -0.027941069 0.3084643 0.35195273 0.6846109
-0.27226493 0.08804721 0.16106582 0.09954104 0.025083242 -0.0057345824 0.48458657 -0.01811253
0.24151489 0.115357794 0.32607454 0.024401134 -0.18560967 0.16611747 0.18358846 0.37631184
0.28531417 -0.08229896 -0.091031246 -0.13304977 0.08310574 0.18851185 -0.052909695 0.11508237
-0.10252119 -0.1738636 -0.26576167 -0.012823151 0.086995795 -0.23463786 -0.22796819 0.021225011
-0.024056999 -0.55537504 -0.063472 -0.1125413 -0.08771114 0.03775491 -0.7099957 -0.16519211
-0.20908073 -0.18461317 -0.060880523 0.09207766 -0.43821204 -0.07308292 -0.016445361 -0.06547834
-0.33099332 -0.2882603 -0.0046834913 -0.004541689 -0.15260349 -0.021785023 0.013424101 -0.10547814
-0.12732454 -0.22485034 0.15904078 0.12843415 -0.1243235 -0.2692644 -0.15270497 -0.026962047
-0.29984352 -0.049153578 -0.12498402 -0.29683888 0.022807088 -0.09135049 -0.11386184 -0.014039389
-0.36702007 -0.24735886 -0.21143584 -0.046293758 -0.03993793 -0.4380749 0.0130587015 -0.2519711
0.091962375 0.017044628 -0.024229037 -0.18904242 -0.21715845 -0.2685107 -0.002446277 0.0827038
0.09890021 0.085972704 -0.14361185 0.09938884 -0.054248963 -0.0066232025 -0.08550969 -0.03650195
0.055290774 0.082229175 -0.14325722 -0.1431947 0.0063623255 0.07886148 0.17479804 -0.053493027
0.04606867 0.104118474 -0.13283193 -0.070737615 0.14384948 0.033596504 0.02186128 0.13847044
0.038707305 -0.025179412 -0.09923472 -0.07410471 -0.16026498 0.09698199 -0.04119937 0.08834372
-0.047569357 -0.05808964 0.01421302 0.10530215 0.03656714 -0.06933418 0.067863055 0.09443651
0.0023779508 -0.06504134 0.11529734 0.048065584 -0.073030196 0.034417145 -0.16194902 -0.0865975
0.060945407 -0.02674372 -0.04209738 -0.04673962 -0.022485081 -0.045165956 0.13856457 -0.079135
-0.08605303 -0.05605581 -0.02561721 -0.008760795 -0.09929031 -0.03284826 -0.08066239 -0.03689687
1.2458609 0.2862634 0.4964176 -0.099632494 0.12549664 0.18440218 0.48182353 0.23630005
0.20710675 0.55151135 0.74452126 0.02381213 -0.0008258997 -0.11456149 0.35812396 0.22479029
-0.049872246 0.52651346 0.6234343 0.048984364 0.5050089 0.096018165 0.20875663 -0.016757445
0.022178473 0.21283774 0.06651476 0.09944901 0.38459405 0.09563596 0.24870789 0.08759805
0.23929508 0.6846087 0.18319586 0.058243062 0.037137754 0.20758395 0.3993176 0.59581727
-0.3318033 0.16368082 0.36294863 0.009332856 -0.020829316 0.068428464 0.5208953 -0.016361086
0.26288506 0.29311612 0.33236763 -0.060672645 -0.11288066 0.036161672 0.06545286 0.26843545
0.25100717 -0.079573505 -0.087725796 -0.14249663 0.06822503 0.07976848 0.09653736 0.0059438474
00000000: cd35 813f 4dfb 663e 47a3 1f3f acc8 af3b
00000010: 8f97 9abc 37e7 843e 0fbb b63e fe3a 8d3e
00000020: 9608 4d3e 7ee6 df3e 2103 4b3f 5aed 533e
00000030: 6912 1a3e 0148 a93d b069 a03e 10ec a63e
00000040: 47ba 36bd 75e4 313f 099a 0d3f 12ca 433d
00000050: dc75 bd3e 520e 8b3e cac2 0c3e 2bb8 793d
00000060: 337d 1abc 2c8f c63d 2b8d 293e 1578 533d
00000070: 7c59 773e 728d f53d 806e ce3d a743 883d
00000080: 2ef8 b93e 772a 063f 2b5c 1f3e e72f d93c
00000090: abe4 e4bc 08ef 9d3e 2633 b43e a942 2f3f
000000a0: 4f66 8bbe 1852 b43d 70ee 243e 2cdc cb3d
000000b0: 5f7b cd3c 2ae9 bbbb bb1b f83e ba60 94bc
000000c0: ae4f 773e b540 ec3d 3ef3 a63e e3e4 c73c
000000d0: 7610 3ebe b31a 2a3e 9dfe 3b3e f2ab c03e
000000e0: b314 923e 5b8c a8bd 976e babd 333e 08be
000000f0: 5833 aa3d 4009 413e d6b7 58bd 4eb0 eb3d
00000100: a1f6 d1bd 4d09 32be ea11 88be 3218 52bc
00000110: da2a b23d e844 70be 7e70 69be 13e0 ad3c
00000120: 2f13 c5bc 0f2d 0ebf 9cfd 81bd 0e7c e6bd
00000130: e6a1 b3bd e4a4 1a3d 47c2 35bf 1f28 29be
00000140: 4219 56be 3c0b 3dbe db5d 79bd 3693 bc3d
00000150: 545d e0be 7fac 95bd 6cb8 86bc 8219 86bd
00000160: f577 a9be db96 93be f977 99bb 73d2 94bb
00000170: 1744 1cbe 8176 b2bc c3f0 5b3c ec04 d8bd
00000180: 5d61 02be 2b3f 66be 96db 223e 3e84 033e
00000190: 529d febd 06dd 89be b15e 1cbe 83df dcbc
000001a0: 1785 99be 4355 49bd 9ff7 ffbd 44fb 97be
000001b0: eed5 ba3c f715 bbbd 6530 e9bd 7705 66bc
000001c0: 0eea bbbe a44b 7dbe a382 58be 869e 3dbd
000001d0: f495 23bd 5a4b e0be 2af4 553c 5b02 81be
000001e0: c556 bc3d 2da1 8b3c f97b c6bc 5694 41be
000001f0: c95e 5ebe 3c7a 89be b851 20bb 9c60 a93d
00000200: 318c ca3d 7512 b03d fc0e 13be 608c cb3d
00000210: 2934 5ebd 7307 d9bb b41f afbd 1283 15bd
00000220: 9478 623d c567 a83d 05b2 12be a2a1 12be
00000230: 0e7b d03b 2182 a13d 42fe 323e 811b 5bbd
00000240: 80b2 3c3d 113c d53d 1805 08be e2de 90bd
00000250: 474d 133e 7d9c 093d 6d16 b33c 32cb 0d3e
00000260: 8d8b 1e3d 0e45 cebc 933b cbbd 36c4 97bd
00000270: 811c 24be 7e9e c63d acc0 28bd 8ded b43d
00000280: 16d8 42bd 67ef 6dbd badd 683c a7a8 d73d
00000290: 6dc7 153d 14ff 8dbd c9fb 8a3d ee67 c13d
000002a0: 65d7 1b3b 6534 85bd 0321 ec3d 6be0 443d
000002b0: db90 95bd fef8 0c3d f7d5 25be 085a b1bd
000002c0: e4a1 793d a515 dbbc 4d6e 2cbd 0b72 3fbd
000002d0: a232 b8bc f0ff 38bd dfe3 0d3e 8811 a2bd
000002e0: 923c b0bd c79a 65bd 2fdb d1bc 7089 0fbc
000002f0: b858 cbbd e68b 06bd 5332 a5bd 2c21 17bd
00000300: 5f78 9f3f 1e91 923e 732a fe3e 1f0c ccbd
00000310: 3182 003e edd3 3c3e 93b1 f63e a4f8 713e
00000320: cb13 543e d92f 0d3f f298 3e3f a811 c33c
00000330: 3181 58ba 379f eabd 065c b73e 6d2f 663e
00000340: d746 4cbd 96c9 063f 6499 1f3f d4a3 483d
00000350: 4348 013f 2ca5 c43d 4cc4 553e e946 89bc
00000360: a1af b53c 23f2 593e e438 883d ecab cb3d
00000370: 83e9 c43e c9dc c33d 48ad 7e3e 9b66 b33d
00000380: c509 753e 8442 2f3f b297 3b3e 4790 6e3d
00000390: c21d 183d e390 543e 5b73 cc3e 7b87 183f
000003a0: 1fe2 a9be f29b 273e 67d4 b93e d6e8 183c
000003b0: 3ea2 aabc 3924 8c3d 6559 053f af07 86bc
000003c0: df98 863e 5113 963e 172c aa3e e183 78bd
000003d0: fa2d e7bd 431e 143d 260c 863d 5f70 893e
000003e0: 0384 803e 6ff7 a2bd 95a9 b3bd a3ea 11be
000003f0: 91b9 8b3d a85d a33d 61b5 c53d 9bc4 c23b

rnn.bias_hh_l0 f4 [256]
1.0282736 0.13438883 0.4578297 0.0029635243 0.13544115 0.25249624 0.44999045 0.27249703
0.11900234 0.45878825 0.8835577 0.07137563 0.003453402 -0.10402176 0.34493664 0.3317683
-0.022031626 0.62808406 0.47290295 -0.07810723 0.2703333 0.1566819 0.21757697 -0.03381886
0.056531098 0.13806659 0.043046154 0.05553538 0.28874224 0.21677367 0.049441 0.05366073
0.34780735 0.4737321 0.18532549 0.16368651 -0.09041271 0.2049676 0.44804215 0.57866114
-0.3337046 -0.047076076 0.3788561 0.2047387 0.012889513 0.03617602 0.37380952 -0.0644621
0.3190769 0.28141552 0.3132764 -0.05515044 -0.097881824 0.14146678 0.25429127 0.35007206
0.1964614 -0.11957089 0.048741277 -0.16095912 0.1785147 0.20439994 0.13567705 0.20786846
-0.0033481352 -0.0012123497 -0.030899255 -0.13089353 -0.097682595 -0.19261955 -0.16601446 -0.0996766
0.03446514 -0.48516947 -0.09072566 0.03743035 0.034382984 -0.015486307 -0.66014796 -0.20398276
-0.175431 -0.18987681 -0.09081342 -0.085227296 -0.40263173 -0.12297651 -0.015054972 -0.16769247
-0.30806866 -0.29319906 -0.04265981 0.09746534 -0.19508053 -0.09247635 0.013380373 -0.16104305
-0.04275398 -0.11818164 -0.009018198 0.1465603 -0.014832892 -0.2681139 -0.033935133 -0.13982359
-0.34131122 -0.07783896 -0.14471087 -0.13550204 -0.009979138 -0.02156404 -0.17425765 0.055207852
-0.13559166 -0.15619954 -0.2157364 -0.19476798 -0.04145128 -0.24880512 -0.055660702 -0.14537185
0.055632826 0.028882364 0.06087356 -0.0012969312 -0.23411 -0.21754533 -0.10825118 -0.07191208
-0.026231406 -0.13441266 0.044664193 0.00435662 -0.12508157 0.033107236 -0.07367267 0.13468164
-0.12028383 0.09165935 -0.0020558469 0.023578335 0.05974497 -0.14049006 0.032096054 0.021140724
-0.018386612 0.052473076 -0.049669195 0.06420753 0.14995818 -0.01893044 -0.026327021 -0.03294854
0.103450716 0.010801669 0.039639022 0.029955484 -0.08506393 0.13257192 0.021712102 -0.14165713
-0.10414411 -0.010530477 0.06722483 -0.027589299 0.072929084 -0.0031278287 -0.007513939 0.04073753
-0.045035776 0.10838669 -0.032322522 -0.060594264 0.08292775 0.010784745 0.033588793 -0.09165669
0.15144363 0.0045121615 0.06298754 0.025258154 0.078792 0.1373316 0.044680335 -0.1037451
0.029240932 -0.037579637 0.011518592 -0.010955893 -0.0470242 0.05412082 -0.1655798 0.07741026
1.1300915 0.11541969 0.53249586 -0.07486217 0.050379284 0.3065756 0.3636317 0.13300319
0.23653936 0.49603972 0.77535826 0.047255293 -0.033363737 -0.03964016 0.2790485 0.1523861
-0.10558849 0.62118423 0.6336306 -0.07980335 0.30199772 0.08223556 0.10541757 -0.057022
0.051938556 0.014354797 0.21474096 0.12983924 0.33337975 0.20635551 0.23948869 0.15004852
0.22998458 0.6445718 0.11321142 0.09759319 -0.022503277 0.2609757 0.36915785 0.6941972
-0.13357584 0.1313879 0.27491316 0.12803191 0.19643538 -0.14950754 0.49051479 -0.06568834
0.41464305 0.22605503 0.20548753 0.12553489 0.046987437 0.025315166 0.10540941 0.34303063
0.20765898 -0.08825422 -0.056686405 -0.16077821 -0.010063111 0.08765947 0.06357914 0.028301962
00000000: 789e 833f 3a9d 093e a868 ea3e b037 423b
00000010: 16b1 0a3e 3047 813e 2665 e63e bb84 8b3e
00000020: 80b7 f33d 4be6 ea3e d630 623f 632d 923d
00000030: 7952 623b 5c09 d5bd 899b b03e 89dd a93e
00000040: ab7b b4bc 1eca 203f 5620 f23e aff6 9fbd
00000050: 2069 8a3e 3871 203e 7fcc 5e3e a585 0abd
00000060: 278d 673d 5461 0d3e 2a51 303d 1179 633d
00000070: 06d6 933e ebf9 5d3e a582 4a3d 5bcb 5b3d
00000080: ce13 b23e 048d f23e f7c5 3d3e 709d 273e
00000090: 4d2a b9bd 07e3 513e c865 e53e 2323 143f
000000a0: 54db aabe d8d2 40bd 6df9 c13e 06a7 513e
000000b0: 892e 533c 4e2d 143d f663 bf3e b504 84bd
000000c0: 0c5e a33e b215 903e c465 a03e 6ee5 61bd
000000d0: 4476 c8bd abdc 103e 7732 823e a53c b33e
000000e0: 2d2d 493e 95e1 f4bd efa4 473d 78d2 24be
000000f0: 8fcc 363e 384e 513e edee 0a3e 78db 543e
00000100: 636c 5bbb b5e7 9eba 6f20 fdbc f408 06be
00000110: d00d c8bd 0f3e 45be b2ff 29be 3f23 ccbd
00000120: 522b 0d3d 2268 f8be 60ce b9bd 9150 193d
00000130: 2cd5 0c3d 48ba 7dbc 75ff 28bf dbe0 50be
00000140: 2fa4 33be 116f 42be 63fc b9bd a68b aebd
00000150: bf25 cebe 1cdb fbbd 21a9 76bc 93b7 2bbe
00000160: 2dbb 9dbe 301e 96be 0ebc 2ebd e89b c73d
00000170: 31c3 47be 3e64 bdbd 5a39 5b3c 78e8 24be
00000180: cc1e 2fbd 3709 f2bd 10c1 13bc e713 163e
00000190: a905 73bc 3a46 89be 91ff 0abd ea2d 0fbe
000001a0: 58c0 aebe 086a 9fbd 162f 14be 0cc1 0abe
000001b0: 8a7f 23bc 12a7 b0bc 9970 32be a121 623d
000001c0: 8ad8 0abe c6f2 1fbe 01ea 5cbe 4271 47be
000001d0: d1c8 29bd c5c6 7ebe 7afc 63bd 5cdc 14be
000001e0: 3fdf 633d b59a ec3c 8e56 793d cafd a9ba
000001f0: 88ba 6fbe 34c4 5ebe cbb2 ddbd a446 93bd
00000200: 3fe3 d6bc 79a3 09be cdf1 363d fac1 8e3b
00000210: 6215 00be 749b 073d b2e1 96bd fce9 093e
00000220: 5e57 f6bd e6b7 bb3d 63bb 06bb 5a27 c13c
00000230: 24b7 743d a0dc 0fbe 2777 033d 502f ad3c
00000240: 859f 96bc 02ee 563d ed71 4bbd 3d7f 833d
00000250: a38e 193e 0314 9bbc c4ab d7bc 0cf5 06bd
00000260: f8dd d33d 7cf9 303c 875c 223d 3465 f53c
00000270: ff35 aebd efc0 073e 94dd b13c 910e 11be
00000280: 8249 d5bd 0688 2cbc 2cad 893d f402 e2bc
00000290: d85b 953d 42fc 4cbb 7d37 f6bb 65dc 263d
000002a0: 6f77 38bd d7f9 dd3d 9f64 04bd b131 78bd
000002b0: 06d6 a93d 80b2 303c 6794 093d 81b6 bbbd
000002c0: 0a14 1b3e c1da 933b 9dff 803d 30ea ce3c
000002d0: b35d a13d a8a0 0c3e ba02 373d 5078 d4bd
000002e0: ae8a ef3c 1bed 19bd 7ab8 3c3c 5980 33bc
000002f0: 739c 40bd cbad 5d3d c08d 29be 4589 9e3d
00000300: d7a6 903f 2961 ec3d a651 083f 5651 99bd
00000310: 825a 4e3d 7af7 9c3e ef2d ba3e fd31 083e
00000320: 6037 723e ebf8 fd3e e17d 463f c48e 413d
00000330: 6aa8 08bd b85d 22bd 72df 8e3e 1a0b 1c3e
00000340: c73e d8bd ee05 1f3f 9d35 223f f06f a3bd
00000350: 729f 9a3e 1e6b a83d 2be5 d73d e78f 69bd
00000360: 86bd 543d 6230 6b3c 0ee5 5b3e 94f4 043e
00000370: c0b0 aa3e dc4e 533e 863c 753e 52a6 193e
00000380: 1481 6b3e a802 253f 64db e73d f0de c73d
00000390: cb58 b8bc 9b9e 853e 4202 bd3e e8b6 313f
000003a0: 1bc8 08be 8d8a 063e 6bc1 8c3e cc1a 033e
000003b0: 5b26 493e 8118 19be c124 fb3e 9c87 86bd
000003c0: 184c d43e f87a 673e 536b 523e 388c 003e
000003d0: e675 403d c061 cf3c e4e0 d73d b6a1 af3e
000003e0: 8ea4 543e a1be b4bd 0130 68bd 0ba3 24be
000003f0: bfdf 24bc cf86 b33d c835 823d 84d9 e73c

rnn.weight_ih_l1 f4 [256, 64]
-0.9203749 0.2729124 0.34801492 0.02543743 0.012982928 0.069158 -0.22198075 -0.0752536
0.27523285 0.2189594 0.8775349 0.25169912 -0.25951663 0.0013270943 0.31051773 0.09001819
-0.1185515 -0.8432247 0.74433035 0.14800386 0.07428315 0.23609026 0.4552859 -0.21002558
-0.05584323 -0.19905709 0.20455462 0.10401294 0.18785903 0.059967525 0.32226855 0.22111455
0.37210798 0.19221035 -0.18155552 0.2590094 0.13292372 0.24998751 -0.32405007 -0.44651932
-0.20433857 -0.22984375 -0.23676503 0.13880472 -0.28985602 0.03228233 0.49495864 -0.38402906
0.030839244 0.17436288 0.057477605 0.017077692 0.107020095 0.1338609 -0.33351752 0.16073121
0.19250008 -0.03150771 -0.10196565 -0.08995202 0.28287178 -0.4506453 0.06313206 -0.23975651
-0.25699204 -0.40564492 -0.29217538 -0.10442543 -0.596988 -0.36125156 0.40376848 0.35401356
-0.16570272 0.82361025 -0.16647519 -0.5777739 0.39465743 -0.17703754 -0.061413653 0.36931401
-0.1434682 0.5129258 -0.7333584 -0.30403486 0.04928256 -0.50515115 0.3938603 0.53618526
0.19113968 0.119870014 -0.2211282 -0.22892745 -0.6004592 0.69567674 -0.077566445 0.09528922
-0.38101807 -0.3011693 0.43179813 0.7117115 0.027079225 0.30492073 0.23663451 0.22096106
-0.27096322 0.37045613 0.1422419 -0.21625772 0.1401735 -0.03340224 -0.49933523 -0.62826157
0.38163692 0.02091848 -0.068863064 -0.26915646 -0.22597991 -0.21689637 0.6505872 -0.45792675
-0.30802637 0.3536579 0.045971215 -0.46192074 -0.5485523 -0.12196538 -0.5861024 0.20758793
0.03112849 0.08318312 0.24481165 0.06256253 0.112745896 0.040415563 -0.20880151 -0.006316145
0.13284925 0.01505553 -0.19727886 0.21419597 -0.15113278 0.08805673 -0.025873696 0.0023408323
0.10865011 -0.14546147 -0.09719947 -0.023719104 0.10118808 0.05935251 0.031069946 -0.07715189
0.07902987 -0.13499139 0.091023274 0.14356199 -0.11000174 -0.0009225821 0.06804863 -0.15303984
0.20457245 0.14750738 -0.14992815 -0.025528887 0.12862267 -0.0091055045 -0.104056925 0.028732434
-0.106083624 -0.22150888 -0.025358852 0.030344417 0.07760371 -0.0067492 -0.06549674 -0.07420737
0.23450272 0.044301275 -0.008857504 -0.02481696 0.01359811 0.14161026 -0.01068954 -0.19862716
0.09590968 -0.1687037 0.07818016 0.024097275 0.035459943 -0.010209471 0.058992263 -0.12483199
0.09568737 -0.049246125 -0.28086463 0.024384856 0.32211712 0.21746162 -0.027210645 0.06988675
-0.15366629 0.13635138 -0.34149766 0.3193397 -0.037272986 -0.065552026 -0.011355203 0.032112125
0.23875175 0.3156766 -0.11217844 -0.06787895 -0.017046204 0.13538872 -0.7314834 -0.1438773
0.054538056 -0.100127876 -0.016876087 0.18619397 0.09754374 -0.3575552 0.02230203 -0.025232451
-0.03850544 -0.0022521366 -0.46493116 -0.34011406 -0.15770788 -0.024874216 0.07548184 -0.08868652
-0.14312133 -0.092733264 0.19100507 -0.2419079 0.23986542 -0.032662734 -0.036848452 0.3515879
0.13812298 -0.105928354 -0.058900703 -0.03241021 0.06570922 0.21562377 0.16295834 -0.28064695
-0.09742428 -0.26029968 0.17887223 0.2151873 0.29468617 0.30484968 0.5337981 0.22207133
00000000: b09d 6bbf 2dbb 8b3e 032f b23e 2862 d03c
00000010: 59b6 543c b6a2 8d3d ec4e 63be 8f1e 9abd
00000020: 52eb 8c3e e536 603e 21a6 603f b5de 803e
00000030: 5ddf 84be e5f1 ad3a 2efc 9e3e 755b b83d
00000040: 21cb f2bd 93dd 57bf 6f8c 3e3f 538e 173e
00000050: c421 983d a5c1 713e 3c1b e93e f210 57be
00000060: dfbb 64bd 9fd5 4bbe c476 513e bc04 d53d
00000070: 1e5e 403e 82a0 753d 6200 a53e da6b 623e
00000080: f084 be3e cad2 443e b1e9 39be e19c 843e
00000090: 281d 083e bafc 7f3e e4e9 a5be 2e9e e4be
000000a0: 213e 51be 295c 6bbe 8872 72be d322 0e3e
000000b0: 0268 94be 7a3a 043d 386b fd3e 759f c4be
000000c0: 95a2 fc3c 2f8c 323e a36d 6b3d 84e6 8b3c
000000d0: 5a2d db3d d512 093e cfc2 aabe b996 243e
000000e0: be1e 453e 3b0e 01bd 5ed3 d0bd c438 b8bd
000000f0: 92d4 903e fbba e6be 624b 813d bb82 75be
00000100: 7694 83be b1b0 cfbe 0398 95be 00dd d5bd
00000110: 35d4 18bf f7f5 b8be beba ce3e 4441 b53e
00000120: f9ad 29be 1fd8 523f 7978 2abe fee8 13bf
00000130: 8a10 ca3e 5449 35be e28c 7bbd ba16 bd3e
00000140: 54e9 12be 1b4f 033f 60bd 3bbf 75aa 9bbe
00000150: 82dc 493d 9651 01bf 0fa8 c93e 7043 093f
00000160: 1fba 433e 697e f53d 6e6f 62be f56b 6abe
00000170: b2b7 19bf df17 323f 28db 9ebd ff26 c33d
00000180: cd14 c3be dd32 9abe a514 dd3e ba32 363f
00000190: 40d5 dd3c 921e 9c3e 5150 723e 9e43 623e
000001a0: b1bb 8abe 6dac bd3e dca7 113e aa72 5dbe
000001b0: a489 0f3e cad0 08bd dea8 ffbe c0d5 20bf
000001c0: ea65 c33e 3b5d ab3c 1408 8dbd e0ce 89be
000001d0: 4767 67be 151a 5ebe e28c 263f 6075 eabe
000001e0: a2b5 9dbe a612 b53e 504c 3c3d e080 ecbe
000001f0: ec6d 0cbf fcc8 f9bd cf0a 16bf ee91 543e
00000200: 2d01 ff3c e95b aa3d e8af 7a3e c920 803d
00000210: 52e7 e63d ca8a 253d 10d0 55be aaf7 cebb
00000220: a209 083e 78ab 763c 7803 4abe 3056 5b3e
00000230: 8dc2 1abe 1657 b43d 13f5 d3bc a668 193b
00000240: f383 de3d daf3 14be 8410 c7bd 914e c2bc
00000250: b23b cf3d 9e1b 733d 6686 fe3c cf01 9ebd
00000260: 6ada a13d 2f3b 0abe 696a ba3d ea01 133e
00000270: 9848 e1bd 70d9 71ba 155d 8b3d 7ab6 1cbe
00000280: 717b 513e 2d0c 173e c486 19be f521 d1bc
00000290: a9b5 033e 412f 15bc cc1b d5bd 4860 eb3c
000002a0: 5f42 d9bd 39d3 62be 5ebd cfbc db94 f83c
000002b0: b2ee 9e3d 6528 ddbb 2823 86bd 09fa 97bd
000002c0: 7b21 703e 4175 353d 111f 11bc f04c cbbc
000002d0: 9bca 5e3c 4802 113e 2e23 2fbc eb64 4bbe
000002e0: 4b6c c43d aac0 2cbe eb1c a03d a667 c53c
000002f0: 723e 113d a045 27bc dfa1 713d eaa7 ffbd
00000300: bdf7 c33d 4eb6 49bd 7dcd 8fbe c0c2 c73c
00000310: 89ec a43e 42ae 5e3e dce8 debc c920 8f3d
00000320: b25a 1dbe b29f 0b3e c8d8 aebe 7e80 a33e
00000330: 8fab 18bd 2440 86bd 2c0b 3abc 0188 033d
00000340: 577b 743e 5da0 a13e cfbd e5bd 1e04 8bbd
00000350: 7ba4 8bbc 57a3 0a3e 7f42 3bbf 9254 13be
00000360: 4c63 5f3d d80f cdbd b83f 8abc a2a9 3e3e
00000370: 03c5 c73d 7a11 b7be bfb2 b63c 49b4 cebc
00000380: e1b7 1dbd 9598 13bb 750b eebe 6e23 aebe
00000390: 2d7e 21be 03c5 cbbc 3996 9a3d 47a1 b5bd
000003a0: 668e 12be f0ea bdbd d596 433e b4b6 77be
000003b0: 489f 753e 5cc9 05bd 67ee 16bd 5403 b43e
000003c0: 1c70 0d3e f7f0 d8bd dd41 71bd 92c0 04bd
000003d0: 8e92 863d 7acc 5c3e 8dde 263e f5b0 8fbe
000003e0: 6286 c7bd 0046 85be 482a 373e 0f5a 5c3e
000003f0: 1be1 963e 4215 9c3e fea6 083f ab66 633e

rnn.weight_hh_l1 f4 [256, 64]
0.04497294 -0.29918152 -0.08896462 -0.26397178 -0.086828664 0.13825098 0.05485155 0.057810694
-0.48556834 -0.03210575 -0.13052374 0.0132827945 0.32096955 0.20879756 0.448709 -0.37301737
-0.047986034 0.07966599 0.05532534 -0.41005695 -0.16993086 -0.12906821 0.05724857 0.11039235
0.30211896 0.001634908 0.22254503 0.06471388 0.20059076 -0.1512581 0.069292165 -0.3640421
0.06624652 0.02837748 -0.03284528 -0.05485829 -0.08579537 0.26262075 0.09564679 0.07435405
-0.00047916465 -0.055848386 -0.063941546 0.12475256 -0.17184095 0.06422793 0.18996948 -0.10872344
0.055511847 -0.25235084 -0.026001187 0.005493417 -0.10313911 -0.30419934 0.12597084 -0.46301103
-0.104726724 0.24187969 -0.011336638 -0.18899111 -0.09461639 0.0722411 0.24290252 -0.2239416
-0.25090832 -0.087899916 -0.06509533 -0.030867318 -0.16392638 0.12275701 0.00082142325 0.083440766
-0.19243304 -0.10258957 -0.023987798 0.22211953 0.8477867 0.12216368 0.514679 0.3232845
-0.14695956 0.38375846 -0.15334897 -0.78617126 0.20791268 0.18477838 -0.21231402 -0.16221295
0.2552116 -0.15815979 0.047819674 0.38374874 -0.4622599 0.6452044 -0.2609532 -0.6509765
-0.081013076 0.22528863 0.73281896 0.04918078 0.27871704 -0.20804629 0.48826453 -0.21663238
0.067340456 0.2904751 0.09573846 -0.23946236 0.11248906 0.12640916 0.27105334 -0.25601494
0.075510204 -0.14604987 0.11178053 -0.1541374 -0.45936847 0.07995067 -0.007853245 0.06646861
-0.12557003 0.034230154 0.4809704 -0.3905001 -0.14685737 0.42693326 -0.27190864 -0.06050678
-0.25482193 0.1501162 0.1782529 0.14684354 0.022112586 -0.051718257 -0.18742031 -0.08189543
0.39443415 0.16487704 0.0038568464 -0.018503578 -0.40543 -0.12284306 -0.06485164 -0.13322306
0.30636275 -0.00931031 -0.12084385 0.33041003 0.0027937125 -0.09487448 0.045442298 -0.18405601
-0.17192201 0.093970515 0.17955713 -0.040957786 0.11657924 -0.21030225 -0.085008174 0.37900674
-0.02101226 -0.1177099 -0.21081795 0.023388352 0.007553564 -0.016385244 -0.3860814 0.15837838
-0.07828136 -0.02082315 -0.10979078 -0.07753716 0.30465838 -0.1269537 0.006014462 -0.025975263
0.093994536 -0.10313601 0.06035198 -0.010364193 0.175453 -0.039760854 -0.025879169 0.29034352
0.039710883 -0.106561586 -0.035946645 -0.034967516 0.03805655 -0.13524106 -0.30214292 -0.05143769
-0.30680218 -0.057899445 -0.14604391 0.0059901993 -0.19964263 0.45693663 -0.15016319 0.3798171
0.21447961 -0.0687889 0.07899243 -0.32661608 -0.42101598 0.0125448955 -0.55588466 -0.11338306
0.041662097 -0.004355322 -0.30032364 0.38611183 0.086957134 0.18023188 0.45724875 -0.22800826
0.2153467 -0.11899994 0.33408415 0.069199055 0.21911941 -0.34084302 -0.11211755 0.16110185
0.40969768 0.3306714 -0.5007186 0.05717954 0.33351 0.03902392 -0.15313396 0.44790795
-0.1853486 -0.09300561 0.14672446 -0.2767458 0.37950227 0.044173606 0.08660751 -0.17252274
0.20182875 0.039156403 0.28777957 -0.37378109 0.5196969 -0.25856277 -0.56753045 0.16258042
0.02941374 0.10359146 0.07143746 -0.18711531 -0.076015376 -0.66793364 -0.08655924 -0.17617689
00000000: 8c35 383d 522e 99be 1533 b6bd 4f27 87be
00000010: 3ad3 b1bd aa91 0d3e 05ac 603d e8ca 6c3d
00000020: 6a9c f8be 5281 03bd 04a8 05be 14a0 593c
00000030: 1f56 a43e 07cf 553e 30bd e53e 22fc bebe
00000040: 018d 44bd ec27 a33d d39c 623d fcf2 d1be
00000050: 5b02 2ebe 752a 04be 7a7d 6a3d 6215 e23d
00000060: 56af 9a3e 694a d63a d8e2 633e b688 843d
00000070: aa67 4d3e 67e3 1abe 0de9 8d3d ba63 babe
00000080: 41ac 873d e477 e83c c688 06bd 16b3 60bd
00000090: 7cb5 afbd 3a76 863e 77e2 c33d f046 983d
000000a0: 6438 fbb9 47c1 64bd c9f3 82bd 457e ff3d
000000b0: 13f7 2fbe ef89 833d 5c87 423e 65aa debd
000000c0: 6460 633d 2134 81be 7100 d5bc 1f02 b43b
000000d0: 993a d3bd 04c0 9bbe 80fe 003e c80f edbe
000000e0: f77a d6bd 4faf 773e 4ebd 39bc e386 41be
000000f0: 3dc6 c1bd 24f3 933d 70bb 783e f250 65be
00000100: 0e77 80be df04 b4bd b350 85bd 75dd fcbc
00000110: 51dc 27be 0768 fb3d c854 573a fee2 aa3d
00000120: 2b0d 45be 7b1a d2bd 0f82 c4bc 4d73 633e
00000130: 8d08 593f f430 fa3d 01c2 033f 8c85 a53e
00000140: 917c 16be fd7b c43e 8307 1dbe 8542 49bf
00000150: 10e7 543e 8b36 3d3e d968 59be 271b 26be
00000160: 18ab 823e a4f4 21be 90de 433d b77a c43e
00000170: 54ad ecbe 1e2c 253f a89b 85be 65a6 26bf
00000180: 2fea a5bd 10b2 663e 069a 3b3f c971 493d
00000190: 00b4 8e3e 160a 55be cffd f93e e1d4 5dbe
000001a0: cbe9 893d 27b9 943e 8712 c43d 9f35 75be
000001b0: aa60 e63d 6771 013e 81c7 8a3e 6414 83be
000001c0: 18a5 9a3d 198e 15be 31ed e43d 32d6 1dbe
000001d0: 5832 ebbe 2dbd a33d e6aa 00bc b220 883d
000001e0: 6e95 00be eb34 0c3d c141 f63e a1ef c7be
000001f0: c761 16be ff96 da3e 9c37 8bbe f5d5 77bd
00000200: 0578 82be 10b8 193e ee87 363e 275e 163e
00000210: 7425 b53c 86d6 53bd 1ceb 3fbe cbb8 a7bd
00000220: 46f3 c93e 87d5 283e 25c3 7c3b d194 97bc
00000230: 8594 cfbe 2495 fbbd f0d0 84bd a06b 08be
00000240: 94db 9c3e 458a 18bc fb7c f7bd 812b a93e
00000250: b816 373b 8d4d c2bd b421 3a3d 2e79 3cbe
00000260: 530c 30be 9d73 c03d d3dd 373e 5ac3 27bd
00000270: 19c1 ee3d 7959 57be c418 aebd 2c0d c23e
00000280: e721 acbc e311 f1bd a9e0 57be ee98 bf3c
00000290: e383 f73b 593a 86bc 76ac c5be f12d 223e
000002a0: fa51 a0bd 5095 aabc fdd9 e0bd cdcb 9ebd
000002b0: 2ffc 9b3e 2700 02be f714 c53b 13ca d4bc
000002c0: 3580 c03d f938 d3bd a333 773d 93ce 29bc
000002d0: f4a9 333e 47dc 22bd 8d00 d4bc e8a7 943e
000002e0: e1a7 223d f63c dabd ca3c 13bd 193a 0fbd
000002f0: 2fe1 1b3d a27c 0abe 7ab2 9abe 54b0 52bd
00000300: 2d15 9dbe f827 6dbd 898c 15be 6f49 c43b
00000310: 1e6f 4cbe 99f3 e93e 61c4 19be 6377 c23e
00000320: 8ba0 5b3e 32e1 8cbd c8c6 a13d 393a a7be
00000330: 688f d7be 1b89 4d3c 754e 0ebf 6135 e8bd
00000340: e0a5 2a3d 17b7 8ebb 05c4 99be 73b0 c53e
00000350: 9516 b23d b58e 383e 821c ea3e ff7a 69be
00000360: d883 5c3e 3eb6 f3bd 140d ab3e 3cb8 8d3d
00000370: d760 603e fa82 aebe e39d e5bd e2f7 243e
00000380: e5c3 d13e c34d a93e 182f 00bf 1835 6a3d
00000390: d3c1 aa3e 8cd7 1f3d 26cf 1cbe 3154 e53e
000003a0: 06cc 3dbe ba79 bebd f03e 163e a0b1 8dbe
000003b0: 1f4e c23e 62ef 343d 475f b13d cda9 30be
000003c0: 32ac 4e3e 7762 203d d857 933e 3c60 bfbe
000003d0: db0a 053f 5762 84be ad49 11bf 7b7b 263e
000003e0: 15f5 f03c c227 d43d ce4d 923d 289b 3fbe
000003f0: f3ad 9bbd b3fd 2abf f945 b1bd b767 34be

rnn.bias_ih_l1 f4 [256]
0.04434626 0.39987865 0.08001974 -0.31870154 -0.07261287 -0.017380493 -0.108869724 0.42371228
0.08952981 0.49873275 0.028251277 0.43262234 0.6955423 -0.0421208 0.08804732 0.19703971
0.06310151 0.14156325 -0.045187194 0.13857445 0.011272702 0.0019384047 -0.039564826 0.09090325
-0.04269569 -0.10555519 0.23990025 0.050968282 -0.05108393 0.20784253 0.07574515 0.3126326
0.033720065 -0.023877567 0.21758321 0.07776432 0.9190798 -0.0053204824 -0.20951766 0.22511357
-0.19327457 0.18916087 0.056509037 0.07058284 -0.051081326 0.111200444 0.10431285 -0.016908815
-0.09447671 0.38973087 0.07129204 -0.04182426 -0.011555141 0.85684633 0.31329238 0.20095676
-0.19521141 0.10337275 0.005380898 0.04044427 0.0723543 -0.003291788 -0.18307383 0.013926471
0.14709327 -0.54240656 0.11250115 0.09517784 0.029466035 0.24671821 -0.3611808 0.07982153
-0.02522587 -0.16213307 -0.23669378 0.018151008 -0.12677933 -0.23233877 -0.0833558 -0.13497818
-0.03637364 0.02088737 -0.18787706 -0.15428537 -0.07807515 -0.16717829 -0.19205794 -0.2212181
-0.09982885 -0.24633412 -0.37453568 -0.33597264 -0.21816088 -0.24010347 0.20320284 -0.1218014
-0.2791709 0.20900929 -0.13459767 -0.100914665 0.16657996 0.20965566 -0.0506944 -0.15557238
-0.14539419 -0.0028514354 -0.120205455 -0.010188044 0.017376907 -0.19439933 0.100358546 -0.2149433
-0.11520611 0.0006715806 0.00923851 0.15651456 0.032013983 -0.07807887 -0.17357443 -0.18077493
0.008553738 -0.14678589 0.07560712 -0.11817968 -0.22379555 -0.22771439 0.22846913 -0.040976446
0.047741998 0.12518075 -0.0627364 -0.011610253 0.061513864 -0.03476021 0.014862009 -0.04020175
-0.010391919 -0.082196854 -0.10617062 0.21565147 0.1821343 0.09994891 0.042564537 0.03746588
0.13080858 -0.10010832 0.063981116 0.012015876 -0.06225121 0.010877635 0.048965458 -0.13333283
-0.11391989 -0.14173917 -0.12544045 -0.10523663 -0.010880874 -0.076913595 -0.088988334 -0.041289218
0.011909294 0.120828316 0.06855743 0.049208824 0.024296917 -0.10623325 -0.02940114 0.090440325
-0.058955457 0.10876133 -0.069322124 0.06030195 -0.08529737 0.06632005 -0.10089026 -0.12622882
0.08590752 0.06107189 -0.008015405 0.032744057 -0.10040318 0.028269103 0.029228918 -0.11360821
-0.120846 -0.005860226 0.10375879 0.15502389 0.07316853 -0.013527451 0.07567798 -0.012202419
0.18714027 0.25520232 -0.00017617288 0.023929367 0.08335648 -0.032486524 -0.046946432 0.20522128
0.094949365 0.46662393 -0.115264356 0.09179284 0.7142863 -0.032880973 0.039422672 0.24951057
0.053055346 -0.034144416 0.14522308 0.20545352 0.16468403 0.03561647 -0.076393425 0.04563868
-0.08859378 -0.087556936 0.1898022 0.05927803 0.021270527 0.26266104 -0.0038469103 0.5328812
0.11352215 0.15788935 0.14488263 0.0554632 0.50617075 0.12405672 0.024794536 0.13197392
-0.18994944 0.053679623 -0.17346464 -0.08321823 0.03288092 0.067705415 0.05340715 -0.14456235
-0.14179777 0.29299912 0.010996782 -0.04614223 0.059659917 0.5679606 0.21338819 0.22972332
-0.11207374 0.02995782 0.04741506 0.015255441 0.16572648 -0.02478905 0.14557591 -0.07467105
00000000: 6da4 353d e5bc cc3e 64e1 a33d d92c a3be
00000010: 0eb6 94bd 8961 8ebc 17f7 debd d1f0 d83e
00000020: 685b b73d e659 ff3e 396f e73c ad80 dd3e
00000030: 0f0f 323f dc86 2cbd 2752 b43d c7c4 493e
00000040: 5d3b 813d f5f5 103e 3516 39bd 76e6 0d3e
00000050: 24b1 383c 1212 fe3a ba0e 22bd 7c2b ba3d
00000060: ade1 2ebd 522d d8bd 69a8 753e 1ec4 503d
00000070: 623d 51bd acd4 543e 4620 9b3d 6111 a03e
00000080: 0d1e 0a3d e39a c3bc 22ce 5e3e e642 9f3d
00000090: d048 6b3f 7157 aebb cc8b 56be 2c84 663e
000000a0: c5e9 45be 63b3 413e 0576 673d bc8d 903d
000000b0: a73a 51bd 0fbd e33d faa1 d53d 5b84 8abc
000000c0: 017d c1bd ce8a c73e 9001 923d ea4f 2bbd
000000d0: c651 3dbc 485a 5b3f dc67 a03e 9cc7 4d3e
000000e0: 80e5 47be 18b5 d33d 3e52 b03b e4a8 253d
000000f0: 7e2e 943d 0abb 57bb b577 3bbe da2b 643c
00000100: 9e9f 163e 28db 0abf 0167 e63d 99ec c23d
00000110: c162 f13c b3a3 7c3e b1ec b8be 7879 a33d
00000120: 7ca6 cebc 3606 26be db5f 72be 6cb1 943c
00000130: 71d2 01be 37ea 6dbe 72b6 aabd b837 0abe
00000140: 87fc 14bd fd1b ab3c d862 40be fcfc 1dbe
00000150: dde5 9fbd c930 2bbe d6aa 44be ff86 62be
00000160: 1173 ccbd 033f 7cbe 24c3 bfbe 9b04 acbe
00000170: 9165 5fbe afdd 75be 6814 503e 0373 f9bd
00000180: 7def 8ebe 8806 563e f9d3 09be 59ac cebd
00000190: f093 2a3e f9af 563e eea4 4fbd 5e4e 1fbe
000001a0: 37e2 14be 26df 3abb 472e f6bd c1eb 26bc
000001b0: 045a 8e3c 9e10 47be c888 cd3d 191a 5cbe
000001c0: 2ef1 ebbd 030d 303a 1f5d 173c 5a45 203e
000001d0: 1821 033d d1e7 9fbd 7fbd 31be 101d 39be
000001e0: fa24 0c3c 0a4f 16be e8d7 9a3d 3008 f2bd
000001f0: a92a 65be f62d 69be d0f3 693e ebd6 27bd
00000200: 1d8d 433d 622f 003e f17b 80bd ee38 3ebc
00000210: f6f5 7b3d b960 0ebd c97f 733c 97aa 24bd
00000220: de42 2abc d356 a8bd fb6f d9bd bdd3 5c3e
00000230: 6a81 3a3e 04b2 cc3d 2758 2e3d d375 193d
00000240: aff2 053e 9705 cdbd 8808 833d 3dde 443c
00000250: 20fb 7ebd 1c38 323c 0190 483d 6788 08be
00000260: d54e e9bd 1324 11be 7673 00be 4d86 d7bd
00000270: b145 32bc e084 9dbd 843f b6bd e21e 29bd
00000280: 331f 433c d674 f73d d667 8c3d 318f 493d
00000290: 540a c73c d190 d9bd a9da f0bc c738 b93d
000002a0: 477b 71bd 43be de3d c2f8 8dbd 2dff 763d
000002b0: 63b0 aebd ced2 873d 8d9f cebd 2142 01be
000002c0: 48f0 af3d 8526 7a3d 0c53 03bc a21e 063d
000002d0: 2fa0 cdbd 9b94 e73c 7c71 ef3c 6cab e8bd
000002e0: 1c7e f7bd 2407 c0bb 7d7f d43d 95be 1e3e
000002f0: 62d9 953d 3ea2 5dbc 0ffd 9a3d a8ec 47bc
00000300: b3a1 3f3e e1a9 823e 0cbb 38b9 8507 c43c
00000310: cdb6 aa3d 9710 05bd e74a 40bd 8725 523e
00000320: d074 c23d 55e9 ee3e b80f ecbd e2fd bb3d
00000330: 78db 363f 33ae 06bd ab79 213d b37f 7f3e
00000340: 9050 593d 04db 0bbd 5cb5 143e 6862 523e
00000350: eea2 283e 93e2 113d 2874 9cbd a0ef 3a3d
00000360: a870 b5bd 0d51 b3bd 825b 423e 85cd 723d
00000370: 873f ae3c 827b 863e 721c 7cbb e76a 083f
00000380: 4d7e e83d bfad 213e 1d5c 143e 612d 633d
00000390: 6894 013f 7311 fe3d e91d cb3c 2c24 073e
000003a0: 1b82 42be 2adf 5b3d b7a0 31be 526e aabd
000003b0: 25ae 063d 23a9 8a3d 75c1 5a3d 2708 14be
000003c0: 6f33 11be fb03 963e d92b 343c a3ff 3cbd
000003d0: f55d 743d de65 113f 6f82 5a3e 973c 6b3e
000003e0: eb86 e5bd 1a6a f53c 4b36 423d f5f1 793c
000003f0: 34b4 293e 6812 cbbc da11 153e 23ed 98bd

rnn.bias_hh_l1 f4 [256]
0.1794548 0.37544683 0.1498297 -0.13198532 0.033556137 -0.029809812 0.047967654 0.34061882
-0.05493362 0.61053455 -0.15976678 0.39224675 0.54623926 0.033908445 0.21143968 0.08334907
0.14954542 -0.0176695 0.019315878 0.11165148 0.17426783 -0.051029325 -0.1226019 0.11724382
-0.12673584 0.07313961 0.27241737 0.027075136 0.012195193 0.24669304 0.059983015 0.46545172
-0.11801767 0.13848045 0.09689461 0.14402533 0.8286041 0.0832602 -0.15200321 0.15849105
-0.18692514 0.08619041 -0.12194739 -0.050430447 -0.1433426 -0.06554269 0.03238137 0.037240963
-0.18441586 0.249418 -0.016785266 0.07576351 0.023130732 0.69869834 0.31141448 0.14213431
-0.24445397 0.07396436 0.04642692 0.05127073 -0.06661018 -0.08489979 -0.020833723 -0.13501315
-0.05615614 -0.38252673 0.055689707 0.10934146 -0.029564684 0.19256935 -0.35780364 0.27345327
-0.045111787 -0.1603315 -0.034657735 -0.06513785 -0.1852347 -0.08535906 -0.20504148 -0.26069376
-0.20600069 -0.05592346 -0.107636526 -0.23572631 0.11357002 -0.13609774 -0.02634443 -0.076322645
-0.063430764 -0.15137087 -0.32598528 -0.29611644 -0.21666244 -0.13700108 0.089290455 -0.07708468
-0.14540483 0.01277315 -0.15091564 -0.14453085 0.051010795 0.31918678 -0.07512419 -0.32452455
-0.18672468 0.029268522 -0.20936093 0.0067451824 0.13284105 -0.08228093 0.07449246 -0.11525078
-0.039066393 -0.21433571 -0.13338551 0.07482196 -0.18061136 -0.16150646 -0.18351857 -0.15972735
-0.022139043 -0.103020504 0.05603376 -0.3136265 -0.04119747 -0.13834466 0.28671518 -0.027054077
0.07775414 0.014635392 -0.006730634 -0.13661514 0.058601335 -0.115138285 -0.09616075 0.09020242
-0.016937496 -0.0996792 -0.0393271 0.04441072 0.19693477 0.005591321 -0.052219298 0.08635714
0.12030909 0.087091476 -0.15264 0.030221919 0.04046576 0.11381547 0.03971188 -0.034344696
0.07957061 0.038696066 -0.16984047 -0.11599958 -0.14345925 -0.03835516 0.05074582 0.124652006
-0.07709499 0.039063934 -0.12449175 0.12481497 0.022261739 0.062305637 -0.0012076915 -0.078103825
-0.058840115 0.07502015 -0.03312457 -0.0047491705 0.13882774 -0.02320743 0.07210626 0.014413611
-0.09959806 0.06549098 -0.08686844 0.020990752 0.063476756 0.03214095 0.08567076 0.04448294
0.055652097 0.04017448 -0.02960284 0.0122369565 0.098587565 0.10127962 -0.034934282 -0.07403767
0.07667454 0.20647228 0.10463192 0.093997136 0.026339745 -0.06722424 0.032279972 0.11429088
0.069617234 0.69280976 -0.069755785 0.09404964 0.70659536 -0.07901093 0.09359142 0.032105133
0.10559807 0.17572708 0.10778986 0.27936104 0.2078766 -0.07264365 -0.027682895 0.0637742
-0.14586413 0.038692646 0.29508027 0.10903442 -0.1789266 0.34564108 -0.059689738 0.45344248
0.10680083 0.2630355 0.09232268 -0.030354535 0.42259982 -0.029142572 -0.16728507 0.35123822
-0.1981196 0.17425822 -0.04463051 0.055653237 -0.07208395 0.029810272 -0.008354799 -0.0090759285
-0.015431331 0.3154731 -0.11519461 0.03993885 0.044568844 0.5967212 0.15368937 0.18718554
-0.14674217 0.0010776417 -0.11033872 -0.0141105885 -0.029970963 0.06346084 0.09364457 0.0054684575
00000000: 00c3 373e 913a c03e f56c 193e 2927 07be
00000010: 2972 093d b533 f4bc bb79 443d 9765 ae3e
00000020: 1302 61bd fe4b 1c3f e799 23be 91d4 c83e
00000030: 56d6 0b3f 95e3 0a3d a583 583e ebb2 aa3d
00000040: 6f22 193e a1bf 90bc 553c 9e3c 88a9 e43d
00000050: 4473 323e 2004 51bd b416 fbbd 871d f03d
00000060: 0ac7 01be 38ca 953d 4a7a 8b3e adcc dd3c
00000070: 59ce 473c 1a9d 7c3e c0b0 753d b04f ee3e
00000080: 40b3 f1bd d2cd 0d3e ae70 c63d 607b 133e
00000090: 661f 543f 5384 aa3d bba6 1bbe 7a4b 223e
000000a0: 4e69 3fbe 9984 b03d 8ebf f9bd 2890 4ebd
000000b0: 67c8 12be 3f3b 86bd 54a2 043d fb89 183d
000000c0: 83d7 3cbe 6f67 7f3e 4181 89bc e629 9b3d
000000d0: a97c bd3c e5dd 323f b871 9f3e a88b 113e
000000e0: 2452 7abe a07a 973d 272a 3e3d 4201 523d
000000f0: eb6a 88bd f1df adbd 7cab aabc e340 0abe
00000100: fb03 66bd 8bda c3be e41a 643d 6aee df3d
00000110: a331 f2bc e630 453e 0a32 b7be 1102 8c3e
00000120: 23c7 38bd f12d 24be 45f5 0dbd fe66 85bd
00000130: 2aae 3dbe bbd0 aebd 65f6 51be a779 85be
00000140: d8f1 52be ff0f 65bd 8a70 dcbd 3d62 71be
00000150: 6697 e83d 355d 0bbe 46d0 d7bc 0c4f 9cbd
00000160: fde7 81bd f700 1bbe 8be7 a6be 939c 97be
00000170: c2dc 5dbe 034a 0cbe eadd b63d 93de 9dbd
00000180: 01e5 14be 7946 513c a189 1abe e5ff 13be
00000190: b2f0 503d 736c a33e b6da 99bd 1528 a6be
000001a0: c134 3fbe 8ac4 ef3c b662 56be b106 dd3b
000001b0: 7c07 083e e782 a8bd 818f 983d 9a08 ecbd
000001c0: 1504 20bd d27a 5bbe 3696 08be 413c 993d
000001d0: 2ff2 38be f361 25be 4bec 3bbe 918f 23be
000001e0: f05c b5bc 6afc d2bd a883 653d a793 a0be
000001f0: aebe 28bd 39aa 0dbe 55cc 923e 83a0 ddbc
00000200: 903d 9f3d 49c9 6f3c a68c dcbb d7e4 0bbe
00000210: f407 703d 9fcd ebbd edef c4bd 0cbc b83d
00000220: 81c0 8abc 9c24 ccbd 7415 21bd 04e8 353d
00000230: 45a9 493e 6637 b73b e7e3 55bd 03dc b03d
00000240: 9d64 f63d 045d b23d a94d 1cbe f593 f73c
00000250: 6dbf 253d 1618 e93d eda8 223d 06ad 0cbd
00000260: eaf5 a23d c47f 1e3d a9ea 2dbe 3091 edbd
00000270: fbe6 12be 4d1a 1dbd d9da 4f3d 8d49 ff3d
00000280: fae3 9dbd 8101 203d 88f5 febd fe9e ff3d
00000290: 405e b63c 3234 7f3d 674b 9eba e6f4 9fbd
000002a0: 5502 71bd 2aa4 993d a1ad 07bd ee9e 9bbb
000002b0: dc28 0e3e 821d bebc 72ac 933d 1127 6c3c
000002c0: 11fa cbbd 2320 863d 15e8 b1bd ccf4 ab3c
000002d0: 1a00 823d 3ba6 033d 2774 af3d be33 363d
000002e0: 74f3 633d ff8d 243d a881 f2bc 847d 483c
000002f0: 47e8 c93d b06b cf3d 4017 0fbd 10a1 97bd
00000300: 8b07 9d3d 786d 533e 4349 d63d 9281 c03d
00000310: 73c6 d73c ddac 89bd 0138 043d 5611 ea3d
00000320: 7b93 8e3d fb5b 313f 1fdc 8ebd 199d c03d
00000330: 6fe3 343f 7cd0 a1bd dcac bf3d ac80 033d
00000340: cd43 d83d cdf1 333e eec0 dc3d 6908 8f3e
00000350: 9add 543e 32c6 94bd 3dc7 e2bc 0c9c 823d
00000360: 685d 15be 2e7c 1e3d c314 973e 704d df3d
00000370: 8938 37be def7 b03e 3a7d 74bd 9d29 e83e
00000380: 65ba da3d 97ac 863e ac13 bd3d 13aa f8bc
00000390: 015f d83e 67bc eebc c74c 2bbe 7fd5 b33e
000003a0: dddf 4abe bf70 323e 7bce 36bd a6f4 633d
000003b0: c0a0 93bd ac34 f43c 91e2 08bc 34b3 14bc
000003c0: b1d3 7cbc b185 a13e 27eb ebbd eb96 233d
000003d0: d28d 363d b8c2 183f bf60 1d3e 91ad 3f3e
000003e0: 9443 16be a83f 8d3a 44f9 e1bd 1930 67bc
000003f0: aa85 f5bc c2f7 813d b9c8 bf3d bf30 b33b
